…
name: "ResNet_50_1by2_nsfw"
state {
  phase: TRAIN
  level: 0
  stage: ""
}
layer {
  name: "data"
  type: "ImageData"
  top: "data"
  top: "label"
  include {
    phase: TRAIN
  }
  transform_param {
    mirror: true
    crop_size: 224
    mean_value: 104
    mean_value: 117
    mean_value: 123
  }
  image_data_param {
    source: "/home/dbicho/Documents/datasets/all_labeled_dataset_augmented_finetuning/train.txt"
    batch_size: 7
    shuffle: true
    root_folder: "/home/dbicho/Documents/datasets/all_labeled_dataset_augmented_finetuning/"
  }
}
layer {
  name: "conv_1"
  type: "Convolution"
  bottom: "data"
  top: "conv_1"
  param {
    lr_mult: 0
    decay_mult: 1
  }
  param {
    lr_mult: 0
    decay_mult: 0
  }
  convolution_param {
    num_output: 64
    pad: 3
    kernel_size: 7
    stride: 2
    weight_filler {
      type: "xavier"
    }
    bias_filler {
      type: "constant"
      value: 0
    }
  }
}
layer {
  name: "bn_1"
  type: "BatchNorm"
  bottom: "conv_1"
  top: "conv_1"
  param {
    lr_mult: 0
    decay_mult: 0
  }
  param {
    lr_mult: 0
    decay_mult: 0
  }
  param {
    lr_mult: 0
    decay_mult: 0
  }
  batch_norm_param {
    use_global_stats: false
  }
}
layer {
  name: "scale_1"
  type: "Scale"
  bottom: "conv_1"
  top: "conv_1"
  scale_param {
    bias_term: true
  }
}
layer {
  name: "relu_1"
  type: "ReLU"
  bottom: "conv_1"
  top: "conv_1"
}
layer {
  name: "pool1"
  type: "Pooling"
  bottom: "conv_1"
  top: "pool1"
  pooling_param {
    pool: MAX
    kernel_size: 3
    stride: 2
  }
}
layer {
  name: "conv_stage0_block0_proj_shortcut"
  type: "Convolution"
  bottom: "pool1"
  top: "conv_stage0_block0_proj_shortcut"
  param {
    lr_mult: 0
    decay_mult: 1
  }
  param {
    lr_mult: 0
    decay_mult: 0
  }
  convolution_param {
    num_output: 128
    pad: 0
    kernel_size: 1
    stride: 1
    weight_filler {
      type: "xavier"
    }
    bias_filler {
      type: "constant"
      value: 0
    }
  }
}
layer {
  name: "bn_stage0_block0_proj_shortcut"
  type: "BatchNorm"
  bottom: "conv_stage0_block0_proj_shortcut"
  top: "conv_stage0_block0_proj_shortcut"
  param {
    lr_mult: 0
    decay_mult: 0
  }
  param {
    lr_mult: 0
    decay_mult: 0
  }
  param {
    lr_mult: 0
    decay_mult: 0
  }
  batch_norm_param {
    use_global_stats: false
  }
}
layer {
  name: "scale_stage0_block0_proj_shortcut"
  type: "Scale"
  bottom: "conv_stage0_block0_proj_shortcut"
  top: "conv_stage0_block0_proj_shortcut"
  scale_param {
    bias_term: true
  }
}
layer {
  name: "conv_stage0_block0_branch2a"
  type: "Convolution"
  bottom: "pool1"
  top: "conv_stage0_block0_branch2a"
  param {
    lr_mult: 0
    decay_mult: 1
  }
  param {
    lr_mult: 0
    decay_mult: 0
  }
  convolution_param {
    num_output: 32
    pad: 0
    kernel_size: 1
    stride: 1
    weight_filler {
      type: "xavier"
    }
    bias_filler {
      type: "constant"
      value: 0
    }
  }
}
layer {
  name: "bn_stage0_block0_branch2a"
  type: "BatchNorm"
  bottom: "conv_stage0_block0_branch2a"
  top: "conv_stage0_block0_branch2a"
  param {
    lr_mult: 0
    decay_mult: 0
  }
  param {
    lr_mult: 0
    decay_mult: 0
  }
  param {
    lr_mult: 0
    decay_mult: 0
  }
  batch_norm_param {
    use_global_stats: false
  }
}
layer {
  name: "scale_stage0_block0_branch2a"
  type: "Scale"
  bottom: "conv_stage0_block0_branch2a"
  top: "conv_stage0_block0_branch2a"
  scale_param {
    bias_term: true
  }
}
layer {
  name: "relu_stage0_block0_branch2a"
  type: "ReLU"
  bottom: "conv_stage0_block0_branch2a"
  top: "conv_stage0_block0_branch2a"
}
layer {
  name: "conv_stage0_block0_branch2b"
  type: "Convolution"
  bottom: "conv_stage0_block0_branch2a"
  top: "conv_stage0_block0_branch2b"
  param {
    lr_mult: 0
    decay_mult: 1
  }
  param {
    lr_mult: 0
    decay_mult: 0
  }
  convolution_param {
    num_output: 32
    pad: 1
    kernel_size: 3
    stride: 1
    weight_filler {
      type: "xavier"
    }
    bias_filler {
      type: "constant"
      value: 0
    }
  }
}
layer {
  name: "bn_stage0_block0_branch2b"
  type: "BatchNorm"
  bottom: "conv_stage0_block0_branch2b"
  top: "conv_stage0_block0_branch2b"
  param {
    lr_mult: 0
    decay_mult: 0
  }
  param {
    lr_mult: 0
    decay_mult: 0
  }
  param {
    lr_mult: 0
    decay_mult: 0
  }
  batch_norm_param {
    use_global_stats: false
  }
}
layer {
  name: "scale_stage0_block0_branch2b"
  type: "Scale"
  bottom: "conv_stage0_block0_branch2b"
  top: "conv_stage0_block0_branch2b"
  scale_param {
    bias_term: true
  }
}
layer {
  name: "relu_stage0_block0_branch2b"
  type: "ReLU"
  bottom: "conv_stage0_block0_branch2b"
  top: "conv_stage0_block0_branch2b"
}
layer {
  name: "conv_stage0_block0_branch2c"
  type: "Convolution"
  bottom: "conv_stage0_block0_branch2b"
  top: "conv_stage0_block0_branch2c"
  param {
    lr_mult: 0
    decay_mult: 1
  }
  param {
    lr_mult: 0
    decay_mult: 0
  }
  convolution_param {
    num_output: 128
    pad: 0
    kernel_size: 1
    stride: 1
    weight_filler {
      type: "xavier"
    }
    bias_filler {
      type: "constant"
      value: 0
    }
  }
}
layer {
  name: "bn_stage0_block0_branch2c"
  type: "BatchNorm"
  bottom: "conv_stage0_block0_branch2c"
  top: "conv_stage0_block0_branch2c"
  param {
    lr_mult: 0
    decay_mult: 0
  }
  param {
    lr_mult: 0
    decay_mult: 0
  }
  param {
    lr_mult: 0
    decay_mult: 0
  }
  batch_norm_param {
    use_global_stats: false
  }
}
layer {
  name: "scale_stage0_block0_branch2c"
  type: "Scale"
  bottom: "conv_stage0_block0_branch2c"
  top: "conv_stage0_block0_branch2c"
  scale_param {
    bias_term: true
  }
}
layer {
  name: "eltwise_stage0_block0"
  type: "Eltwise"
  bottom: "conv_stage0_block0_proj_shortcut"
  bottom: "conv_stage0_block0_branch2c"
  top: "eltwise_stage0_block0"
}
layer {
  name: "relu_stage0_block0"
  type: "ReLU"
  bottom: "eltwise_stage0_block0"
  top: "eltwise_stage0_block0"
}
layer {
  name: "conv_stage0_block1_branch2a"
  type: "Convolution"
  bottom: "eltwise_stage0_block0"
  top: "conv_stage0_block1_branch2a"
  param {
    lr_mult: 0
    decay_mult: 1
  }
  param {
    lr_mult: 0
    decay_mult: 0
  }
  convolution_param {
    num_output: 32
    pad: 0
    kernel_size: 1
    stride: 1
    weight_filler {
      type: "xavier"
    }
    bias_filler {
      type: "constant"
      value: 0
    }
  }
}
layer {
  name: "bn_stage0_block1_branch2a"
  type: "BatchNorm"
  bottom: "conv_stage0_block1_branch2a"
  top: "conv_stage0_block1_branch2a"
  param {
    lr_mult: 0
    decay_mult: 0
  }
  param {
    lr_mult: 0
    decay_mult: 0
  }
  param {
    lr_mult: 0
    decay_mult: 0
  }
  batch_norm_param {
    use_global_stats: false
  }
}
layer {
  name: "scale_stage0_block1_branch2a"
  type: "Scale"
  bottom: "conv_stage0_block1_branch2a"
  top: "conv_stage0_block1_branch2a"
  scale_param {
    bias_term: true
  }
}
layer {
  name: "relu_stage0_block1_branch2a"
  type: "ReLU"
  bottom: "conv_stage0_block1_branch2a"
  top: "conv_stage0_block1_branch2a"
}
layer {
  name: "conv_stage0_block1_branch2b"
  type: "Convolution"
  bottom: "conv_stage0_block1_branch2a"
  top: "conv_stage0_block1_branch2b"
  param {
    lr_mult: 0
    decay_mult: 1
  }
  param {
    lr_mult: 0
    decay_mult: 0
  }
  convolution_param {
    num_output: 32
    pad: 1
    kernel_size: 3
    stride: 1
    weight_filler {
      type: "xavier"
    }
    bias_filler {
      type: "constant"
      value: 0
    }
  }
}
layer {
  name: "bn_stage0_block1_branch2b"
  type: "BatchNorm"
  bottom: "conv_stage0_block1_branch2b"
  top: "conv_stage0_block1_branch2b"
  param {
    lr_mult: 0
    decay_mult: 0
  }
  param {
    lr_mult: 0
    decay_mult: 0
  }
  param {
    lr_mult: 0
    decay_mult: 0
  }
  batch_norm_param {
    use_global_stats: false
  }
}
layer {
  name: "scale_stage0_block1_branch2b"
  type: "Scale"
  bottom: "conv_stage0_block1_branch2b"
  top: "conv_stage0_block1_branch2b"
  scale_param {
    bias_term: true
  }
}
layer {
  name: "relu_stage0_block1_branch2b"
  type: "ReLU"
  bottom: "conv_stage0_block1_branch2b"
  top: "conv_stage0_block1_branch2b"
}
layer {
  name: "conv_stage0_block1_branch2c"
  type: "Convolution"
  bottom: "conv_stage0_block1_branch2b"
  top: "conv_stage0_block1_branch2c"
  param {
    lr_mult: 0
    decay_mult: 1
  }
  param {
    lr_mult: 0
    decay_mult: 0
  }
  convolution_param {
    num_output: 128
    pad: 0
    kernel_size: 1
    stride: 1
    weight_filler {
      type: "xavier"
    }
    bias_filler {
      type: "constant"
      value: 0
    }
  }
}
layer {
  name: "bn_stage0_block1_branch2c"
  type: "BatchNorm"
  bottom: "conv_stage0_block1_branch2c"
  top: "conv_stage0_block1_branch2c"
  param {
    lr_mult: 0
    decay_mult: 0
  }
  param {
    lr_mult: 0
    decay_mult: 0
  }
  param {
    lr_mult: 0
    decay_mult: 0
  }
  batch_norm_param {
    use_global_stats: false
  }
}
layer {
  name: "scale_stage0_block1_branch2c"
  type: "Scale"
  bottom: "conv_stage0_block1_branch2c"
  top: "conv_stage0_block1_branch2c"
  scale_param {
    bias_term: true
  }
}
layer {
  name: "eltwise_stage0_block1"
  type: "Eltwise"
  bottom: "eltwise_stage0_block0"
  bottom: "conv_stage0_block1_branch2c"
  top: "eltwise_stage0_block1"
}
layer {
  name: "relu_stage0_block1"
  type: "ReLU"
  bottom: "eltwise_stage0_block1"
  top: "eltwise_stage0_block1"
}
layer {
  name: "conv_stage0_block2_branch2a"
  type: "Convolution"
  bottom: "eltwise_stage0_block1"
  top: "conv_stage0_block2_branch2a"
  param {
    lr_mult: 0
    decay_mult: 1
  }
  param {
    lr_mult: 0
    decay_mult: 0
  }
  convolution_param {
    num_output: 32
    pad: 0
    kernel_size: 1
    stride: 1
    weight_filler {
      type: "xavier"
    }
    bias_filler {
      type: "constant"
      value: 0
    }
  }
}
layer {
  name: "bn_stage0_block2_branch2a"
  type: "BatchNorm"
  bottom: "conv_stage0_block2_branch2a"
  top: "conv_stage0_block2_branch2a"
  param {
    lr_mult: 0
    decay_mult: 0
  }
  param {
    lr_mult: 0
    decay_mult: 0
  }
  param {
    lr_mult: 0
    decay_mult: 0
  }
  batch_norm_param {
    use_global_stats: false
  }
}
layer {
  name: "scale_stage0_block2_branch2a"
  type: "Scale"
  bottom: "conv_stage0_block2_branch2a"
  top: "conv_stage0_block2_branch2a"
  scale_param {
    bias_term: true
  }
}
layer {
  name: "relu_stage0_block2_branch2a"
  type: "ReLU"
  bottom: "conv_stage0_block2_branch2a"
  top: "conv_stage0_block2_branch2a"
}
layer {
  name: "conv_stage0_block2_branch2b"
  type: "Convolution"
  bottom: "conv_stage0_block2_branch2a"
  top: "conv_stage0_block2_branch2b"
  param {
    lr_mult: 0
    decay_mult: 1
  }
  param {
    lr_mult: 0
    decay_mult: 0
  }
  convolution_param {
    num_output: 32
    pad: 1
    kernel_size: 3
    stride: 1
    weight_filler {
      type: "xavier"
    }
    bias_filler {
      type: "constant"
      value: 0
    }
  }
}
layer {
  name: "bn_stage0_block2_branch2b"
  type: "BatchNorm"
  bottom: "conv_stage0_block2_branch2b"
  top: "conv_stage0_block2_branch2b"
  param {
    lr_mult: 0
    decay_mult: 0
  }
  param {
    lr_mult: 0
    decay_mult: 0
  }
  param {
    lr_mult: 0
    decay_mult: 0
  }
  batch_norm_param {
    use_global_stats: false
  }
}
layer {
  name: "scale_stage0_block2_branch2b"
  type: "Scale"
  bottom: "conv_stage0_block2_branch2b"
  top: "conv_stage0_block2_branch2b"
  scale_param {
    bias_term: true
  }
}
layer {
  name: "relu_stage0_block2_branch2b"
  type: "ReLU"
  bottom: "conv_stage0_block2_branch2b"
  top: "conv_stage0_block2_branch2b"
}
layer {
  name: "conv_stage0_block2_branch2c"
  type: "Convolution"
  bottom: "conv_stage0_block2_branch2b"
  top: "conv_stage0_block2_branch2c"
  param {
    lr_mult: 0
    decay_mult: 1
  }
  param {
    lr_mult: 0
    decay_mult: 0
  }
  convolution_param {
    num_output: 128
    pad: 0
    kernel_size: 1
    stride: 1
    weight_filler {
      type: "xavier"
    }
    bias_filler {
      type: "constant"
      value: 0
    }
  }
}
layer {
  name: "bn_stage0_block2_branch2c"
  type: "BatchNorm"
  bottom: "conv_stage0_block2_branch2c"
  top: "conv_stage0_block2_branch2c"
  param {
    lr_mult: 0
    decay_mult: 0
  }
  param {
    lr_mult: 0
    decay_mult: 0
  }
  param {
    lr_mult: 0
    decay_mult: 0
  }
  batch_norm_param {
    use_global_stats: false
  }
}
layer {
  name: "scale_stage0_block2_branch2c"
  type: "Scale"
  bottom: "conv_stage0_block2_branch2c"
  top: "conv_stage0_block2_branch2c"
  scale_param {
    bias_term: true
  }
}
layer {
  name: "eltwise_stage0_block2"
  type: "Eltwise"
  bottom: "eltwise_stage0_block1"
  bottom: "conv_stage0_block2_branch2c"
  top: "eltwise_stage0_block2"
}
layer {
  name: "relu_stage0_block2"
  type: "ReLU"
  bottom: "eltwise_stage0_block2"
  top: "eltwise_stage0_block2"
}
layer {
  name: "conv_stage1_block0_proj_shortcut"
  type: "Convolution"
  bottom: "eltwise_stage0_block2"
  top: "conv_stage1_block0_proj_shortcut"
  param {
    lr_mult: 0
    decay_mult: 1
  }
  param {
    lr_mult: 0
    decay_mult: 0
  }
  convolution_param {
    num_output: 256
    pad: 0
    kernel_size: 1
    stride: 2
    weight_filler {
      type: "xavier"
    }
    bias_filler {
      type: "constant"
      value: 0
    }
  }
}
layer {
  name: "bn_stage1_block0_proj_shortcut"
  type: "BatchNorm"
  bottom: "conv_stage1_block0_proj_shortcut"
  top: "conv_stage1_block0_proj_shortcut"
  param {
    lr_mult: 0
    decay_mult: 0
  }
  param {
    lr_mult: 0
    decay_mult: 0
  }
  param {
    lr_mult: 0
    decay_mult: 0
  }
  batch_norm_param {
    use_global_stats: false
  }
}
layer {
  name: "scale_stage1_block0_proj_shortcut"
  type: "Scale"
  bottom: "conv_stage1_block0_proj_shortcut"
  top: "conv_stage1_block0_proj_shortcut"
  scale_param {
    bias_term: true
  }
}
layer {
  name: "conv_stage1_block0_branch2a"
  type: "Convolution"
  bottom: "eltwise_stage0_block2"
  top: "conv_stage1_block0_branch2a"
  param {
    lr_mult: 0
    decay_mult: 1
  }
  param {
    lr_mult: 0
    decay_mult: 0
  }
  convolution_param {
    num_output: 64
    pad: 0
    kernel_size: 1
    stride: 2
    weight_filler {
      type: "xavier"
    }
    bias_filler {
      type: "constant"
      value: 0
    }
  }
}
layer {
  name: "bn_stage1_block0_branch2a"
  type: "BatchNorm"
  bottom: "conv_stage1_block0_branch2a"
  top: "conv_stage1_block0_branch2a"
  param {
    lr_mult: 0
    decay_mult: 0
  }
  param {
    lr_mult: 0
    decay_mult: 0
  }
  param {
    lr_mult: 0
    decay_mult: 0
  }
  batch_norm_param {
    use_global_stats: false
  }
}
layer {
  name: "scale_stage1_block0_branch2a"
  type: "Scale"
  bottom: "conv_stage1_block0_branch2a"
  top: "conv_stage1_block0_branch2a"
  scale_param {
    bias_term: true
  }
}
layer {
  name: "relu_stage1_block0_branch2a"
  type: "ReLU"
  bottom: "conv_stage1_block0_branch2a"
  top: "conv_stage1_block0_branch2a"
}
layer {
  name: "conv_stage1_block0_branch2b"
  type: "Convolution"
  bottom: "conv_stage1_block0_branch2a"
  top: "conv_stage1_block0_branch2b"
  param {
    lr_mult: 0
    decay_mult: 1
  }
  param {
    lr_mult: 0
    decay_mult: 0
  }
  convolution_param {
    num_output: 64
    pad: 1
    kernel_size: 3
    stride: 1
    weight_filler {
      type: "xavier"
    }
    bias_filler {
      type: "constant"
      value: 0
    }
  }
}
layer {
  name: "bn_stage1_block0_branch2b"
  type: "BatchNorm"
  bottom: "conv_stage1_block0_branch2b"
  top: "conv_stage1_block0_branch2b"
  param {
    lr_mult: 0
    decay_mult: 0
  }
  param {
    lr_mult: 0
    decay_mult: 0
  }
  param {
    lr_mult: 0
    decay_mult: 0
  }
  batch_norm_param {
    use_global_stats: false
  }
}
layer {
  name: "scale_stage1_block0_branch2b"
  type: "Scale"
  bottom: "conv_stage1_block0_branch2b"
  top: "conv_stage1_block0_branch2b"
  scale_param {
    bias_term: true
  }
}
layer {
  name: "relu_stage1_block0_branch2b"
  type: "ReLU"
  bottom: "conv_stage1_block0_branch2b"
  top: "conv_stage1_block0_branch2b"
}
layer {
  name: "conv_stage1_block0_branch2c"
  type: "Convolution"
  bottom: "conv_stage1_block0_branch2b"
  top: "conv_stage1_block0_branch2c"
  param {
    lr_mult: 0
    decay_mult: 1
  }
  param {
    lr_mult: 0
    decay_mult: 0
  }
  convolution_param {
    num_output: 256
    pad: 0
    kernel_size: 1
    stride: 1
    weight_filler {
      type: "xavier"
    }
    bias_filler {
      type: "constant"
      value: 0
    }
  }
}
layer {
  name: "bn_stage1_block0_branch2c"
  type: "BatchNorm"
  bottom: "conv_stage1_block0_branch2c"
  top: "conv_stage1_block0_branch2c"
  param {
    lr_mult: 0
    decay_mult: 0
  }
  param {
    lr_mult: 0
    decay_mult: 0
  }
  param {
    lr_mult: 0
    decay_mult: 0
  }
  batch_norm_param {
    use_global_stats: false
  }
}
layer {
  name: "scale_stage1_block0_branch2c"
  type: "Scale"
  bottom: "conv_stage1_block0_branch2c"
  top: "conv_stage1_block0_branch2c"
  scale_param {
    bias_term: true
  }
}
layer {
  name: "eltwise_stage1_block0"
  type: "Eltwise"
  bottom: "conv_stage1_block0_proj_shortcut"
  bottom: "conv_stage1_block0_branch2c"
  top: "eltwise_stage1_block0"
}
layer {
  name: "relu_stage1_block0"
  type: "ReLU"
  bottom: "eltwise_stage1_block0"
  top: "eltwise_stage1_block0"
}
layer {
  name: "conv_stage1_block1_branch2a"
  type: "Convolution"
  bottom: "eltwise_stage1_block0"
  top: "conv_stage1_block1_branch2a"
  param {
    lr_mult: 0
    decay_mult: 1
  }
  param {
    lr_mult: 0
    decay_mult: 0
  }
  convolution_param {
    num_output: 64
    pad: 0
    kernel_size: 1
    stride: 1
    weight_filler {
      type: "xavier"
    }
    bias_filler {
      type: "constant"
      value: 0
    }
  }
}
layer {
  name: "bn_stage1_block1_branch2a"
  type: "BatchNorm"
  bottom: "conv_stage1_block1_branch2a"
  top: "conv_stage1_block1_branch2a"
  param {
    lr_mult: 0
    decay_mult: 0
  }
  param {
    lr_mult: 0
    decay_mult: 0
  }
  param {
    lr_mult: 0
    decay_mult: 0
  }
  batch_norm_param {
    use_global_stats: false
  }
}
layer {
  name: "scale_stage1_block1_branch2a"
  type: "Scale"
  bottom: "conv_stage1_block1_branch2a"
  top: "conv_stage1_block1_branch2a"
  scale_param {
    bias_term: true
  }
}
layer {
  name: "relu_stage1_block1_branch2a"
  type: "ReLU"
  bottom: "conv_stage1_block1_branch2a"
  top: "conv_stage1_block1_branch2a"
}
layer {
  name: "conv_stage1_block1_branch2b"
  type: "Convolution"
  bottom: "conv_stage1_block1_branch2a"
  top: "conv_stage1_block1_branch2b"
  param {
    lr_mult: 0
    decay_mult: 1
  }
  param {
    lr_mult: 0
    decay_mult: 0
  }
  convolution_param {
    num_output: 64
    pad: 1
    kernel_size: 3
    stride: 1
    weight_filler {
      type: "xavier"
    }
    bias_filler {
      type: "constant"
      value: 0
    }
  }
}
layer {
  name: "bn_stage1_block1_branch2b"
  type: "BatchNorm"
  bottom: "conv_stage1_block1_branch2b"
  top: "conv_stage1_block1_branch2b"
  param {
    lr_mult: 0
    decay_mult: 0
  }
  param {
    lr_mult: 0
    decay_mult: 0
  }
  param {
    lr_mult: 0
    decay_mult: 0
  }
  batch_norm_param {
    use_global_stats: false
  }
}
layer {
  name: "scale_stage1_block1_branch2b"
  type: "Scale"
  bottom: "conv_stage1_block1_branch2b"
  top: "conv_stage1_block1_branch2b"
  scale_param {
    bias_term: true
  }
}
layer {
  name: "relu_stage1_block1_branch2b"
  type: "ReLU"
  bottom: "conv_stage1_block1_branch2b"
  top: "conv_stage1_block1_branch2b"
}
layer {
  name: "conv_stage1_block1_branch2c"
  type: "Convolution"
  bottom: "conv_stage1_block1_branch2b"
  top: "conv_stage1_block1_branch2c"
  param {
    lr_mult: 0
    decay_mult: 1
  }
  param {
    lr_mult: 0
    decay_mult: 0
  }
  convolution_param {
    num_output: 256
    pad: 0
    kernel_size: 1
    stride: 1
    weight_filler {
      type: "xavier"
    }
    bias_filler {
      type: "constant"
      value: 0
    }
  }
}
layer {
  name: "bn_stage1_block1_branch2c"
  type: "BatchNorm"
  bottom: "conv_stage1_block1_branch2c"
  top: "conv_stage1_block1_branch2c"
  param {
    lr_mult: 0
    decay_mult: 0
  }
  param {
    lr_mult: 0
    decay_mult: 0
  }
  param {
    lr_mult: 0
    decay_mult: 0
  }
  batch_norm_param {
    use_global_stats: false
  }
}
layer {
  name: "scale_stage1_block1_branch2c"
  type: "Scale"
  bottom: "conv_stage1_block1_branch2c"
  top: "conv_stage1_block1_branch2c"
  scale_param {
    bias_term: true
  }
}
layer {
  name: "eltwise_stage1_block1"
  type: "Eltwise"
  bottom: "eltwise_stage1_block0"
  bottom: "conv_stage1_block1_branch2c"
  top: "eltwise_stage1_block1"
}
layer {
  name: "relu_stage1_block1"
  type: "ReLU"
  bottom: "eltwise_stage1_block1"
  top: "eltwise_stage1_block1"
}
layer {
  name: "conv_stage1_block2_branch2a"
  type: "Convolution"
  bottom: "eltwise_stage1_block1"
  top: "conv_stage1_block2_branch2a"
  param {
    lr_mult: 0
    decay_mult: 1
  }
  param {
    lr_mult: 0
    decay_mult: 0
  }
  convolution_param {
    num_output: 64
    pad: 0
    kernel_size: 1
    stride: 1
    weight_filler {
      type: "xavier"
    }
    bias_filler {
      type: "constant"
      value: 0
    }
  }
}
layer {
  name: "bn_stage1_block2_branch2a"
  type: "BatchNorm"
  bottom: "conv_stage1_block2_branch2a"
  top: "conv_stage1_block2_branch2a"
  param {
    lr_mult: 0
    decay_mult: 0
  }
  param {
    lr_mult: 0
    decay_mult: 0
  }
  param {
    lr_mult: 0
    decay_mult: 0
  }
  batch_norm_param {
    use_global_stats: false
  }
}
layer {
  name: "scale_stage1_block2_branch2a"
  type: "Scale"
  bottom: "conv_stage1_block2_branch2a"
  top: "conv_stage1_block2_branch2a"
  scale_param {
    bias_term: true
  }
}
layer {
  name: "relu_stage1_block2_branch2a"
  type: "ReLU"
  bottom: "conv_stage1_block2_branch2a"
  top: "conv_stage1_block2_branch2a"
}
layer {
  name: "conv_stage1_block2_branch2b"
  type: "Convolution"
  bottom: "conv_stage1_block2_branch2a"
  top: "conv_stage1_block2_branch2b"
  param {
    lr_mult: 0
    decay_mult: 1
  }
  param {
    lr_mult: 0
    decay_mult: 0
  }
  convolution_param {
    num_output: 64
    pad: 1
    kernel_size: 3
    stride: 1
    weight_filler {
      type: "xavier"
    }
    bias_filler {
      type: "constant"
      value: 0
    }
  }
}
layer {
  name: "bn_stage1_block2_branch2b"
  type: "BatchNorm"
  bottom: "conv_stage1_block2_branch2b"
  top: "conv_stage1_block2_branch2b"
  param {
    lr_mult: 0
    decay_mult: 0
  }
  param {
    lr_mult: 0
    decay_mult: 0
  }
  param {
    lr_mult: 0
    decay_mult: 0
  }
  batch_norm_param {
    use_global_stats: false
  }
}
layer {
  name: "scale_stage1_block2_branch2b"
  type: "Scale"
  bottom: "conv_stage1_block2_branch2b"
  top: "conv_stage1_block2_branch2b"
  scale_param {
    bias_term: true
  }
}
layer {
  name: "relu_stage1_block2_branch2b"
  type: "ReLU"
  bottom: "conv_stage1_block2_branch2b"
  top: "conv_stage1_block2_branch2b"
}
layer {
  name: "conv_stage1_block2_branch2c"
  type: "Convolution"
  bottom: "conv_stage1_block2_branch2b"
  top: "conv_stage1_block2_branch2c"
  param {
    lr_mult: 0
    decay_mult: 1
  }
  param {
    lr_mult: 0
    decay_mult: 0
  }
  convolution_param {
    num_output: 256
    pad: 0
    kernel_size: 1
    stride: 1
    weight_filler {
      type: "xavier"
    }
    bias_filler {
      type: "constant"
      value: 0
    }
  }
}
layer {
  name: "bn_stage1_block2_branch2c"
  type: "BatchNorm"
  bottom: "conv_stage1_block2_branch2c"
  top: "conv_stage1_block2_branch2c"
  param {
    lr_mult: 0
    decay_mult: 0
  }
  param {
    lr_mult: 0
    decay_mult: 0
  }
  param {
    lr_mult: 0
    decay_mult: 0
  }
  batch_norm_param {
    use_global_stats: false
  }
}
layer {
  name: "scale_stage1_block2_branch2c"
  type: "Scale"
  bottom: "conv_stage1_block2_branch2c"
  top: "conv_stage1_block2_branch2c"
  scale_param {
    bias_term: true
  }
}
layer {
  name: "eltwise_stage1_block2"
  type: "Eltwise"
  bottom: "eltwise_stage1_block1"
  bottom: "conv_stage1_block2_branch2c"
  top: "eltwise_stage1_block2"
}
layer {
  name: "relu_stage1_block2"
  type: "ReLU"
  bottom: "eltwise_stage1_block2"
  top: "eltwise_stage1_block2"
}
layer {
  name: "conv_stage1_block3_branch2a"
  type: "Convolution"
  bottom: "eltwise_stage1_block2"
  top: "conv_stage1_block3_branch2a"
  param {
    lr_mult: 0
    decay_mult: 1
  }
  param {
    lr_mult: 0
    decay_mult: 0
  }
  convolution_param {
    num_output: 64
    pad: 0
    kernel_size: 1
    stride: 1
    weight_filler {
      type: "xavier"
    }
    bias_filler {
      type: "constant"
      value: 0
    }
  }
}
layer {
  name: "bn_stage1_block3_branch2a"
  type: "BatchNorm"
  bottom: "conv_stage1_block3_branch2a"
  top: "conv_stage1_block3_branch2a"
  param {
    lr_mult: 0
    decay_mult: 0
  }
  param {
    lr_mult: 0
    decay_mult: 0
  }
  param {
    lr_mult: 0
    decay_mult: 0
  }
  batch_norm_param {
    use_global_stats: false
  }
}
layer {
  name: "scale_stage1_block3_branch2a"
  type: "Scale"
  bottom: "conv_stage1_block3_branch2a"
  top: "conv_stage1_block3_branch2a"
  scale_param {
    bias_term: true
  }
}
layer {
  name: "relu_stage1_block3_branch2a"
  type: "ReLU"
  bottom: "conv_stage1_block3_branch2a"
  top: "conv_stage1_block3_branch2a"
}
layer {
  name: "conv_stage1_block3_branch2b"
  type: "Convolution"
  bottom: "conv_stage1_block3_branch2a"
  top: "conv_stage1_block3_branch2b"
  param {
    lr_mult: 0
    decay_mult: 1
  }
  param {
    lr_mult: 0
    decay_mult: 0
  }
  convolution_param {
    num_output: 64
    pad: 1
    kernel_size: 3
    stride: 1
    weight_filler {
      type: "xavier"
    }
    bias_filler {
      type: "constant"
      value: 0
    }
  }
}
layer {
  name: "bn_stage1_block3_branch2b"
  type: "BatchNorm"
  bottom: "conv_stage1_block3_branch2b"
  top: "conv_stage1_block3_branch2b"
  param {
    lr_mult: 0
    decay_mult: 0
  }
  param {
    lr_mult: 0
    decay_mult: 0
  }
  param {
    lr_mult: 0
    decay_mult: 0
  }
  batch_norm_param {
    use_global_stats: false
  }
}
layer {
  name: "scale_stage1_block3_branch2b"
  type: "Scale"
  bottom: "conv_stage1_block3_branch2b"
  top: "conv_stage1_block3_branch2b"
  scale_param {
    bias_term: true
  }
}
layer {
  name: "relu_stage1_block3_branch2b"
  type: "ReLU"
  bottom: "conv_stage1_block3_branch2b"
  top: "conv_stage1_block3_branch2b"
}
layer {
  name: "conv_stage1_block3_branch2c"
  type: "Convolution"
  bottom: "conv_stage1_block3_branch2b"
  top: "conv_stage1_block3_branch2c"
  param {
    lr_mult: 0
    decay_mult: 1
  }
  param {
    lr_mult: 0
    decay_mult: 0
  }
  convolution_param {
    num_output: 256
    pad: 0
    kernel_size: 1
    stride: 1
    weight_filler {
      type: "xavier"
    }
    bias_filler {
      type: "constant"
      value: 0
    }
  }
}
layer {
  name: "bn_stage1_block3_branch2c"
  type: "BatchNorm"
  bottom: "conv_stage1_block3_branch2c"
  top: "conv_stage1_block3_branch2c"
  param {
    lr_mult: 0
    decay_mult: 0
  }
  param {
    lr_mult: 0
    decay_mult: 0
  }
  param {
    lr_mult: 0
    decay_mult: 0
  }
  batch_norm_param {
    use_global_stats: false
  }
}
layer {
  name: "scale_stage1_block3_branch2c"
  type: "Scale"
  bottom: "conv_stage1_block3_branch2c"
  top: "conv_stage1_block3_branch2c"
  scale_param {
    bias_term: true
  }
}
layer {
  name: "eltwise_stage1_block3"
  type: "Eltwise"
  bottom: "eltwise_stage1_block2"
  bottom: "conv_stage1_block3_branch2c"
  top: "eltwise_stage1_block3"
}
layer {
  name: "relu_stage1_block3"
  type: "ReLU"
  bottom: "eltwise_stage1_block3"
  top: "eltwise_stage1_block3"
}
layer {
  name: "conv_stage2_block0_proj_shortcut"
  type: "Convolution"
  bottom: "eltwise_stage1_block3"
  top: "conv_stage2_block0_proj_shortcut"
  param {
    lr_mult: 0
    decay_mult: 1
  }
  param {
    lr_mult: 0
    decay_mult: 0
  }
  convolution_param {
    num_output: 512
    pad: 0
    kernel_size: 1
    stride: 2
    weight_filler {
      type: "xavier"
    }
    bias_filler {
      type: "constant"
      value: 0
    }
  }
}
layer {
  name: "bn_stage2_block0_proj_shortcut"
  type: "BatchNorm"
  bottom: "conv_stage2_block0_proj_shortcut"
  top: "conv_stage2_block0_proj_shortcut"
  param {
    lr_mult: 0
    decay_mult: 0
  }
  param {
    lr_mult: 0
    decay_mult: 0
  }
  param {
    lr_mult: 0
    decay_mult: 0
  }
  batch_norm_param {
    use_global_stats: false
  }
}
layer {
  name: "scale_stage2_block0_proj_shortcut"
  type: "Scale"
  bottom: "conv_stage2_block0_proj_shortcut"
  top: "conv_stage2_block0_proj_shortcut"
  scale_param {
    bias_term: true
  }
}
layer {
  name: "conv_stage2_block0_branch2a"
  type: "Convolution"
  bottom: "eltwise_stage1_block3"
  top: "conv_stage2_block0_branch2a"
  param {
    lr_mult: 0
    decay_mult: 1
  }
  param {
    lr_mult: 0
    decay_mult: 0
  }
  convolution_param {
    num_output: 128
    pad: 0
    kernel_size: 1
    stride: 2
    weight_filler {
      type: "xavier"
    }
    bias_filler {
      type: "constant"
      value: 0
    }
  }
}
layer {
  name: "bn_stage2_block0_branch2a"
  type: "BatchNorm"
  bottom: "conv_stage2_block0_branch2a"
  top: "conv_stage2_block0_branch2a"
  param {
    lr_mult: 0
    decay_mult: 0
  }
  param {
    lr_mult: 0
    decay_mult: 0
  }
  param {
    lr_mult: 0
    decay_mult: 0
  }
  batch_norm_param {
    use_global_stats: false
  }
}
layer {
  name: "scale_stage2_block0_branch2a"
  type: "Scale"
  bottom: "conv_stage2_block0_branch2a"
  top: "conv_stage2_block0_branch2a"
  scale_param {
    bias_term: true
  }
}
layer {
  name: "relu_stage2_block0_branch2a"
  type: "ReLU"
  bottom: "conv_stage2_block0_branch2a"
  top: "conv_stage2_block0_branch2a"
}
layer {
  name: "conv_stage2_block0_branch2b"
  type: "Convolution"
  bottom: "conv_stage2_block0_branch2a"
  top: "conv_stage2_block0_branch2b"
  param {
    lr_mult: 0
    decay_mult: 1
  }
  param {
    lr_mult: 0
    decay_mult: 0
  }
  convolution_param {
    num_output: 128
    
I0609 18:05:03.654316 13390 layer_factory.hpp:77] Creating layer data
I0609 18:05:03.654343 13390 net.cpp:84] Creating Layer data
I0609 18:05:03.654350 13390 net.cpp:380] data -> data
I0609 18:05:03.654366 13390 net.cpp:380] data -> label
I0609 18:05:03.654384 13390 image_data_layer.cpp:38] Opening file /home/dbicho/Documents/datasets/all_labeled_dataset_augmented_finetuning/train.txt
I0609 18:05:03.664947 13390 image_data_layer.cpp:53] Shuffling data
I0609 18:05:03.668736 13390 image_data_layer.cpp:63] A total of 19956 images.
I0609 18:05:03.669826 13390 image_data_layer.cpp:90] output data size: 7,3,224,224
I0609 18:05:03.678082 13390 net.cpp:122] Setting up data
I0609 18:05:03.678107 13390 net.cpp:129] Top shape: 7 3 224 224 (1053696)
I0609 18:05:03.678112 13390 net.cpp:129] Top shape: 7 (7)
I0609 18:05:03.678117 13390 net.cpp:137] Memory required for data: 4214812
I0609 18:05:03.678124 13390 layer_factory.hpp:77] Creating layer conv_1
I0609 18:05:03.678148 13390 net.cpp:84] Creating Layer conv_1
I0609 18:05:03.678155 13390 net.cpp:406] conv_1 <- data
I0609 18:05:03.678171 13390 net.cpp:380] conv_1 -> conv_1
I0609 18:05:03.679149 13390 net.cpp:122] Setting up conv_1
I0609 18:05:03.679162 13390 net.cpp:129] Top shape: 7 64 112 112 (5619712)
I0609 18:05:03.679165 13390 net.cpp:137] Memory required for data: 26693660
I0609 18:05:03.679180 13390 layer_factory.hpp:77] Creating layer bn_1
I0609 18:05:03.679188 13390 net.cpp:84] Creating Layer bn_1
I0609 18:05:03.679194 13390 net.cpp:406] bn_1 <- conv_1
I0609 18:05:03.679199 13390 net.cpp:367] bn_1 -> conv_1 (in-place)
I0609 18:05:03.679352 13390 net.cpp:122] Setting up bn_1
I0609 18:05:03.679358 13390 net.cpp:129] Top shape: 7 64 112 112 (5619712)
I0609 18:05:03.679373 13390 net.cpp:137] Memory required for data: 49172508
I0609 18:05:03.679383 13390 layer_factory.hpp:77] Creating layer scale_1
I0609 18:05:03.679388 13390 net.cpp:84] Creating Layer scale_1
I0609 18:05:03.679391 13390 net.cpp:406] scale_1 <- conv_1
I0609 18:05:03.679395 13390 net.cpp:367] scale_1 -> conv_1 (in-place)
I0609 18:05:03.679430 13390 layer_factory.hpp:77] Creating layer scale_1
I0609 18:05:03.679531 13390 net.cpp:122] Setting up scale_1
I0609 18:05:03.679538 13390 net.cpp:129] Top shape: 7 64 112 112 (5619712)
I0609 18:05:03.679540 13390 net.cpp:137] Memory required for data: 71651356
I0609 18:05:03.679546 13390 layer_factory.hpp:77] Creating layer relu_1
I0609 18:05:03.679553 13390 net.cpp:84] Creating Layer relu_1
I0609 18:05:03.679554 13390 net.cpp:406] relu_1 <- conv_1
I0609 18:05:03.679559 13390 net.cpp:367] relu_1 -> conv_1 (in-place)
I0609 18:05:03.679563 13390 net.cpp:122] Setting up relu_1
I0609 18:05:03.679567 13390 net.cpp:129] Top shape: 7 64 112 112 (5619712)
I0609 18:05:03.679569 13390 net.cpp:137] Memory required for data: 94130204
I0609 18:05:03.679572 13390 layer_factory.hpp:77] Creating layer pool1
I0609 18:05:03.679576 13390 net.cpp:84] Creating Layer pool1
I0609 18:05:03.679579 13390 net.cpp:406] pool1 <- conv_1
I0609 18:05:03.679584 13390 net.cpp:380] pool1 -> pool1
I0609 18:05:03.679618 13390 net.cpp:122] Setting up pool1
I0609 18:05:03.679625 13390 net.cpp:129] Top shape: 7 64 56 56 (1404928)
I0609 18:05:03.679626 13390 net.cpp:137] Memory required for data: 99749916
I0609 18:05:03.679630 13390 layer_factory.hpp:77] Creating layer pool1_pool1_0_split
I0609 18:05:03.679635 13390 net.cpp:84] Creating Layer pool1_pool1_0_split
I0609 18:05:03.679637 13390 net.cpp:406] pool1_pool1_0_split <- pool1
I0609 18:05:03.679642 13390 net.cpp:380] pool1_pool1_0_split -> pool1_pool1_0_split_0
I0609 18:05:03.679649 13390 net.cpp:380] pool1_pool1_0_split -> pool1_pool1_0_split_1
I0609 18:05:03.679678 13390 net.cpp:122] Setting up pool1_pool1_0_split
I0609 18:05:03.679683 13390 net.cpp:129] Top shape: 7 64 56 56 (1404928)
I0609 18:05:03.679687 13390 net.cpp:129] Top shape: 7 64 56 56 (1404928)
I0609 18:05:03.679689 13390 net.cpp:137] Memory required for data: 110989340
I0609 18:05:03.679692 13390 layer_factory.hpp:77] Creating layer conv_stage0_block0_proj_shortcut
I0609 18:05:03.679703 13390 net.cpp:84] Creating Layer conv_stage0_block0_proj_shortcut
I0609 18:05:03.679708 13390 net.cpp:406] conv_stage0_block0_proj_shortcut <- pool1_pool1_0_split_0
I0609 18:05:03.679714 13390 net.cpp:380] conv_stage0_block0_proj_shortcut -> conv_stage0_block0_proj_shortcut
I0609 18:05:03.680819 13390 net.cpp:122] Setting up conv_stage0_block0_proj_shortcut
I0609 18:05:03.680835 13390 net.cpp:129] Top shape: 7 128 56 56 (2809856)
I0609 18:05:03.680837 13390 net.cpp:137] Memory required for data: 122228764
I0609 18:05:03.680847 13390 layer_factory.hpp:77] Creating layer bn_stage0_block0_proj_shortcut
I0609 18:05:03.680856 13390 net.cpp:84] Creating Layer bn_stage0_block0_proj_shortcut
I0609 18:05:03.680860 13390 net.cpp:406] bn_stage0_block0_proj_shortcut <- conv_stage0_block0_proj_shortcut
I0609 18:05:03.680866 13390 net.cpp:367] bn_stage0_block0_proj_shortcut -> conv_stage0_block0_proj_shortcut (in-place)
I0609 18:05:03.681011 13390 net.cpp:122] Setting up bn_stage0_block0_proj_shortcut
I0609 18:05:03.681017 13390 net.cpp:129] Top shape: 7 128 56 56 (2809856)
I0609 18:05:03.681020 13390 net.cpp:137] Memory required for data: 133468188
I0609 18:05:03.681026 13390 layer_factory.hpp:77] Creating layer scale_stage0_block0_proj_shortcut
I0609 18:05:03.681032 13390 net.cpp:84] Creating Layer scale_stage0_block0_proj_shortcut
I0609 18:05:03.681035 13390 net.cpp:406] scale_stage0_block0_proj_shortcut <- conv_stage0_block0_proj_shortcut
I0609 18:05:03.681041 13390 net.cpp:367] scale_stage0_block0_proj_shortcut -> conv_stage0_block0_proj_shortcut (in-place)
I0609 18:05:03.681072 13390 layer_factory.hpp:77] Creating layer scale_stage0_block0_proj_shortcut
I0609 18:05:03.681157 13390 net.cpp:122] Setting up scale_stage0_block0_proj_shortcut
I0609 18:05:03.681172 13390 net.cpp:129] Top shape: 7 128 56 56 (2809856)
I0609 18:05:03.681175 13390 net.cpp:137] Memory required for data: 144707612
I0609 18:05:03.681182 13390 layer_factory.hpp:77] Creating layer conv_stage0_block0_branch2a
I0609 18:05:03.681195 13390 net.cpp:84] Creating Layer conv_stage0_block0_branch2a
I0609 18:05:03.681200 13390 net.cpp:406] conv_stage0_block0_branch2a <- pool1_pool1_0_split_1
I0609 18:05:03.681207 13390 net.cpp:380] conv_stage0_block0_branch2a -> conv_stage0_block0_branch2a
I0609 18:05:03.681398 13390 net.cpp:122] Setting up conv_stage0_block0_branch2a
I0609 18:05:03.681406 13390 net.cpp:129] Top shape: 7 32 56 56 (702464)
I0609 18:05:03.681407 13390 net.cpp:137] Memory required for data: 147517468
I0609 18:05:03.681414 13390 layer_factory.hpp:77] Creating layer bn_stage0_block0_branch2a
I0609 18:05:03.681424 13390 net.cpp:84] Creating Layer bn_stage0_block0_branch2a
I0609 18:05:03.681428 13390 net.cpp:406] bn_stage0_block0_branch2a <- conv_stage0_block0_branch2a
I0609 18:05:03.681435 13390 net.cpp:367] bn_stage0_block0_branch2a -> conv_stage0_block0_branch2a (in-place)
I0609 18:05:03.681582 13390 net.cpp:122] Setting up bn_stage0_block0_branch2a
I0609 18:05:03.681588 13390 net.cpp:129] Top shape: 7 32 56 56 (702464)
I0609 18:05:03.681591 13390 net.cpp:137] Memory required for data: 150327324
I0609 18:05:03.681602 13390 layer_factory.hpp:77] Creating layer scale_stage0_block0_branch2a
I0609 18:05:03.681609 13390 net.cpp:84] Creating Layer scale_stage0_block0_branch2a
I0609 18:05:03.681613 13390 net.cpp:406] scale_stage0_block0_branch2a <- conv_stage0_block0_branch2a
I0609 18:05:03.681619 13390 net.cpp:367] scale_stage0_block0_branch2a -> conv_stage0_block0_branch2a (in-place)
I0609 18:05:03.681651 13390 layer_factory.hpp:77] Creating layer scale_stage0_block0_branch2a
I0609 18:05:03.681743 13390 net.cpp:122] Setting up scale_stage0_block0_branch2a
I0609 18:05:03.681749 13390 net.cpp:129] Top shape: 7 32 56 56 (702464)
I0609 18:05:03.681751 13390 net.cpp:137] Memory required for data: 153137180
I0609 18:05:03.681759 13390 layer_factory.hpp:77] Creating layer relu_stage0_block0_branch2a
I0609 18:05:03.681766 13390 net.cpp:84] Creating Layer relu_stage0_block0_branch2a
I0609 18:05:03.681771 13390 net.cpp:406] relu_stage0_block0_branch2a <- conv_stage0_block0_branch2a
I0609 18:05:03.681777 13390 net.cpp:367] relu_stage0_block0_branch2a -> conv_stage0_block0_branch2a (in-place)
I0609 18:05:03.681783 13390 net.cpp:122] Setting up relu_stage0_block0_branch2a
I0609 18:05:03.681789 13390 net.cpp:129] Top shape: 7 32 56 56 (702464)
I0609 18:05:03.681792 13390 net.cpp:137] Memory required for data: 155947036
I0609 18:05:03.681797 13390 layer_factory.hpp:77] Creating layer conv_stage0_block0_branch2b
I0609 18:05:03.681807 13390 net.cpp:84] Creating Layer conv_stage0_block0_branch2b
I0609 18:05:03.681810 13390 net.cpp:406] conv_stage0_block0_branch2b <- conv_stage0_block0_branch2a
I0609 18:05:03.681818 13390 net.cpp:380] conv_stage0_block0_branch2b -> conv_stage0_block0_branch2b
I0609 18:05:03.682034 13390 net.cpp:122] Setting up conv_stage0_block0_branch2b
I0609 18:05:03.682044 13390 net.cpp:129] Top shape: 7 32 56 56 (702464)
I0609 18:05:03.682047 13390 net.cpp:137] Memory required for data: 158756892
I0609 18:05:03.682055 13390 layer_factory.hpp:77] Creating layer bn_stage0_block0_branch2b
I0609 18:05:03.682063 13390 net.cpp:84] Creating Layer bn_stage0_block0_branch2b
I0609 18:05:03.682068 13390 net.cpp:406] bn_stage0_block0_branch2b <- conv_stage0_block0_branch2b
I0609 18:05:03.682075 13390 net.cpp:367] bn_stage0_block0_branch2b -> conv_stage0_block0_branch2b (in-place)
I0609 18:05:03.682227 13390 net.cpp:122] Setting up bn_stage0_block0_branch2b
I0609 18:05:03.682236 13390 net.cpp:129] Top shape: 7 32 56 56 (702464)
I0609 18:05:03.682240 13390 net.cpp:137] Memory required for data: 161566748
I0609 18:05:03.682250 13390 layer_factory.hpp:77] Creating layer scale_stage0_block0_branch2b
I0609 18:05:03.682278 13390 net.cpp:84] Creating Layer scale_stage0_block0_branch2b
I0609 18:05:03.682293 13390 net.cpp:406] scale_stage0_block0_branch2b <- conv_stage0_block0_branch2b
I0609 18:05:03.682301 13390 net.cpp:367] scale_stage0_block0_branch2b -> conv_stage0_block0_branch2b (in-place)
I0609 18:05:03.682339 13390 layer_factory.hpp:77] Creating layer scale_stage0_block0_branch2b
I0609 18:05:03.682432 13390 net.cpp:122] Setting up scale_stage0_block0_branch2b
I0609 18:05:03.682440 13390 net.cpp:129] Top shape: 7 32 56 56 (702464)
I0609 18:05:03.682445 13390 net.cpp:137] Memory required for data: 164376604
I0609 18:05:03.682452 13390 layer_factory.hpp:77] Creating layer relu_stage0_block0_branch2b
I0609 18:05:03.682462 13390 net.cpp:84] Creating Layer relu_stage0_block0_branch2b
I0609 18:05:03.682467 13390 net.cpp:406] relu_stage0_block0_branch2b <- conv_stage0_block0_branch2b
I0609 18:05:03.682476 13390 net.cpp:367] relu_stage0_block0_branch2b -> conv_stage0_block0_branch2b (in-place)
I0609 18:05:03.682484 13390 net.cpp:122] Setting up relu_stage0_block0_branch2b
I0609 18:05:03.682490 13390 net.cpp:129] Top shape: 7 32 56 56 (702464)
I0609 18:05:03.682494 13390 net.cpp:137] Memory required for data: 167186460
I0609 18:05:03.682498 13390 layer_factory.hpp:77] Creating layer conv_stage0_block0_branch2c
I0609 18:05:03.682512 13390 net.cpp:84] Creating Layer conv_stage0_block0_branch2c
I0609 18:05:03.682515 13390 net.cpp:406] conv_stage0_block0_branch2c <- conv_stage0_block0_branch2b
I0609 18:05:03.682524 13390 net.cpp:380] conv_stage0_block0_branch2c -> conv_stage0_block0_branch2c
I0609 18:05:03.682725 13390 net.cpp:122] Setting up conv_stage0_block0_branch2c
I0609 18:05:03.682735 13390 net.cpp:129] Top shape: 7 128 56 56 (2809856)
I0609 18:05:03.682739 13390 net.cpp:137] Memory required for data: 178425884
I0609 18:05:03.682747 13390 layer_factory.hpp:77] Creating layer bn_stage0_block0_branch2c
I0609 18:05:03.682755 13390 net.cpp:84] Creating Layer bn_stage0_block0_branch2c
I0609 18:05:03.682760 13390 net.cpp:406] bn_stage0_block0_branch2c <- conv_stage0_block0_branch2c
I0609 18:05:03.682767 13390 net.cpp:367] bn_stage0_block0_branch2c -> conv_stage0_block0_branch2c (in-place)
I0609 18:05:03.682906 13390 net.cpp:122] Setting up bn_stage0_block0_branch2c
I0609 18:05:03.682914 13390 net.cpp:129] Top shape: 7 128 56 56 (2809856)
I0609 18:05:03.682919 13390 net.cpp:137] Memory required for data: 189665308
I0609 18:05:03.682932 13390 layer_factory.hpp:77] Creating layer scale_stage0_block0_branch2c
I0609 18:05:03.682940 13390 net.cpp:84] Creating Layer scale_stage0_block0_branch2c
I0609 18:05:03.682945 13390 net.cpp:406] scale_stage0_block0_branch2c <- conv_stage0_block0_branch2c
I0609 18:05:03.682951 13390 net.cpp:367] scale_stage0_block0_branch2c -> conv_stage0_block0_branch2c (in-place)
I0609 18:05:03.682988 13390 layer_factory.hpp:77] Creating layer scale_stage0_block0_branch2c
I0609 18:05:03.683074 13390 net.cpp:122] Setting up scale_stage0_block0_branch2c
I0609 18:05:03.683082 13390 net.cpp:129] Top shape: 7 128 56 56 (2809856)
I0609 18:05:03.683085 13390 net.cpp:137] Memory required for data: 200904732
I0609 18:05:03.683094 13390 layer_factory.hpp:77] Creating layer eltwise_stage0_block0
I0609 18:05:03.683104 13390 net.cpp:84] Creating Layer eltwise_stage0_block0
I0609 18:05:03.683107 13390 net.cpp:406] eltwise_stage0_block0 <- conv_stage0_block0_proj_shortcut
I0609 18:05:03.683113 13390 net.cpp:406] eltwise_stage0_block0 <- conv_stage0_block0_branch2c
I0609 18:05:03.683120 13390 net.cpp:380] eltwise_stage0_block0 -> eltwise_stage0_block0
I0609 18:05:03.683147 13390 net.cpp:122] Setting up eltwise_stage0_block0
I0609 18:05:03.683154 13390 net.cpp:129] Top shape: 7 128 56 56 (2809856)
I0609 18:05:03.683158 13390 net.cpp:137] Memory required for data: 212144156
I0609 18:05:03.683162 13390 layer_factory.hpp:77] Creating layer relu_stage0_block0
I0609 18:05:03.683169 13390 net.cpp:84] Creating Layer relu_stage0_block0
I0609 18:05:03.683174 13390 net.cpp:406] relu_stage0_block0 <- eltwise_stage0_block0
I0609 18:05:03.683182 13390 net.cpp:367] relu_stage0_block0 -> eltwise_stage0_block0 (in-place)
I0609 18:05:03.683198 13390 net.cpp:122] Setting up relu_stage0_block0
I0609 18:05:03.683207 13390 net.cpp:129] Top shape: 7 128 56 56 (2809856)
I0609 18:05:03.683210 13390 net.cpp:137] Memory required for data: 223383580
I0609 18:05:03.683214 13390 layer_factory.hpp:77] Creating layer eltwise_stage0_block0_relu_stage0_block0_0_split
I0609 18:05:03.683221 13390 net.cpp:84] Creating Layer eltwise_stage0_block0_relu_stage0_block0_0_split
I0609 18:05:03.683226 13390 net.cpp:406] eltwise_stage0_block0_relu_stage0_block0_0_split <- eltwise_stage0_block0
I0609 18:05:03.683233 13390 net.cpp:380] eltwise_stage0_block0_relu_stage0_block0_0_split -> eltwise_stage0_block0_relu_stage0_block0_0_split_0
I0609 18:05:03.683244 13390 net.cpp:380] eltwise_stage0_block0_relu_stage0_block0_0_split -> eltwise_stage0_block0_relu_stage0_block0_0_split_1
I0609 18:05:03.683276 13390 net.cpp:122] Setting up eltwise_stage0_block0_relu_stage0_block0_0_split
I0609 18:05:03.683284 13390 net.cpp:129] Top shape: 7 128 56 56 (2809856)
I0609 18:05:03.683290 13390 net.cpp:129] Top shape: 7 128 56 56 (2809856)
I0609 18:05:03.683292 13390 net.cpp:137] Memory required for data: 245862428
I0609 18:05:03.683295 13390 layer_factory.hpp:77] Creating layer conv_stage0_block1_branch2a
I0609 18:05:03.683303 13390 net.cpp:84] Creating Layer conv_stage0_block1_branch2a
I0609 18:05:03.683306 13390 net.cpp:406] conv_stage0_block1_branch2a <- eltwise_stage0_block0_relu_stage0_block0_0_split_0
I0609 18:05:03.683311 13390 net.cpp:380] conv_stage0_block1_branch2a -> conv_stage0_block1_branch2a
I0609 18:05:03.683498 13390 net.cpp:122] Setting up conv_stage0_block1_branch2a
I0609 18:05:03.683503 13390 net.cpp:129] Top shape: 7 32 56 56 (702464)
I0609 18:05:03.683506 13390 net.cpp:137] Memory required for data: 248672284
I0609 18:05:03.683511 13390 layer_factory.hpp:77] Creating layer bn_stage0_block1_branch2a
I0609 18:05:03.683516 13390 net.cpp:84] Creating Layer bn_stage0_block1_branch2a
I0609 18:05:03.683518 13390 net.cpp:406] bn_stage0_block1_branch2a <- conv_stage0_block1_branch2a
I0609 18:05:03.683522 13390 net.cpp:367] bn_stage0_block1_branch2a -> conv_stage0_block1_branch2a (in-place)
I0609 18:05:03.683655 13390 net.cpp:122] Setting up bn_stage0_block1_branch2a
I0609 18:05:03.683660 13390 net.cpp:129] Top shape: 7 32 56 56 (702464)
I0609 18:05:03.683661 13390 net.cpp:137] Memory required for data: 251482140
I0609 18:05:03.683667 13390 layer_factory.hpp:77] Creating layer scale_stage0_block1_branch2a
I0609 18:05:03.683672 13390 net.cpp:84] Creating Layer scale_stage0_block1_branch2a
I0609 18:05:03.683674 13390 net.cpp:406] scale_stage0_block1_branch2a <- conv_stage0_block1_branch2a
I0609 18:05:03.683679 13390 net.cpp:367] scale_stage0_block1_branch2a -> conv_stage0_block1_branch2a (in-place)
I0609 18:05:03.683706 13390 layer_factory.hpp:77] Creating layer scale_stage0_block1_branch2a
I0609 18:05:03.683787 13390 net.cpp:122] Setting up scale_stage0_block1_branch2a
I0609 18:05:03.683792 13390 net.cpp:129] Top shape: 7 32 56 56 (702464)
I0609 18:05:03.683794 13390 net.cpp:137] Memory required for data: 254291996
I0609 18:05:03.683799 13390 layer_factory.hpp:77] Creating layer relu_stage0_block1_branch2a
I0609 18:05:03.683804 13390 net.cpp:84] Creating Layer relu_stage0_block1_branch2a
I0609 18:05:03.683805 13390 net.cpp:406] relu_stage0_block1_branch2a <- conv_stage0_block1_branch2a
I0609 18:05:03.683810 13390 net.cpp:367] relu_stage0_block1_branch2a -> conv_stage0_block1_branch2a (in-place)
I0609 18:05:03.683815 13390 net.cpp:122] Setting up relu_stage0_block1_branch2a
I0609 18:05:03.683817 13390 net.cpp:129] Top shape: 7 32 56 56 (702464)
I0609 18:05:03.683820 13390 net.cpp:137] Memory required for data: 257101852
I0609 18:05:03.683822 13390 layer_factory.hpp:77] Creating layer conv_stage0_block1_branch2b
I0609 18:05:03.683830 13390 net.cpp:84] Creating Layer conv_stage0_block1_branch2b
I0609 18:05:03.683832 13390 net.cpp:406] conv_stage0_block1_branch2b <- conv_stage0_block1_branch2a
I0609 18:05:03.683837 13390 net.cpp:380] conv_stage0_block1_branch2b -> conv_stage0_block1_branch2b
I0609 18:05:03.684053 13390 net.cpp:122] Setting up conv_stage0_block1_branch2b
I0609 18:05:03.684058 13390 net.cpp:129] Top shape: 7 32 56 56 (702464)
I0609 18:05:03.684062 13390 net.cpp:137] Memory required for data: 259911708
I0609 18:05:03.684067 13390 layer_factory.hpp:77] Creating layer bn_stage0_block1_branch2b
I0609 18:05:03.684072 13390 net.cpp:84] Creating Layer bn_stage0_block1_branch2b
I0609 18:05:03.684074 13390 net.cpp:406] bn_stage0_block1_branch2b <- conv_stage0_block1_branch2b
I0609 18:05:03.684079 13390 net.cpp:367] bn_stage0_block1_branch2b -> conv_stage0_block1_branch2b (in-place)
I0609 18:05:03.684211 13390 net.cpp:122] Setting up bn_stage0_block1_branch2b
I0609 18:05:03.684216 13390 net.cpp:129] Top shape: 7 32 56 56 (702464)
I0609 18:05:03.684218 13390 net.cpp:137] Memory required for data: 262721564
I0609 18:05:03.684223 13390 layer_factory.hpp:77] Creating layer scale_stage0_block1_branch2b
I0609 18:05:03.684228 13390 net.cpp:84] Creating Layer scale_stage0_block1_branch2b
I0609 18:05:03.684231 13390 net.cpp:406] scale_stage0_block1_branch2b <- conv_stage0_block1_branch2b
I0609 18:05:03.684237 13390 net.cpp:367] scale_stage0_block1_branch2b -> conv_stage0_block1_branch2b (in-place)
I0609 18:05:03.684262 13390 layer_factory.hpp:77] Creating layer scale_stage0_block1_branch2b
I0609 18:05:03.684346 13390 net.cpp:122] Setting up scale_stage0_block1_branch2b
I0609 18:05:03.684350 13390 net.cpp:129] Top shape: 7 32 56 56 (702464)
I0609 18:05:03.684353 13390 net.cpp:137] Memory required for data: 265531420
I0609 18:05:03.684357 13390 layer_factory.hpp:77] Creating layer relu_stage0_block1_branch2b
I0609 18:05:03.684361 13390 net.cpp:84] Creating Layer relu_stage0_block1_branch2b
I0609 18:05:03.684365 13390 net.cpp:406] relu_stage0_block1_branch2b <- conv_stage0_block1_branch2b
I0609 18:05:03.684368 13390 net.cpp:367] relu_stage0_block1_branch2b -> conv_stage0_block1_branch2b (in-place)
I0609 18:05:03.684372 13390 net.cpp:122] Setting up relu_stage0_block1_branch2b
I0609 18:05:03.684376 13390 net.cpp:129] Top shape: 7 32 56 56 (702464)
I0609 18:05:03.684378 13390 net.cpp:137] Memory required for data: 268341276
I0609 18:05:03.684381 13390 layer_factory.hpp:77] Creating layer conv_stage0_block1_branch2c
I0609 18:05:03.684393 13390 net.cpp:84] Creating Layer conv_stage0_block1_branch2c
I0609 18:05:03.684396 13390 net.cpp:406] conv_stage0_block1_branch2c <- conv_stage0_block1_branch2b
I0609 18:05:03.684401 13390 net.cpp:380] conv_stage0_block1_branch2c -> conv_stage0_block1_branch2c
I0609 18:05:03.684576 13390 net.cpp:122] Setting up conv_stage0_block1_branch2c
I0609 18:05:03.684581 13390 net.cpp:129] Top shape: 7 128 56 56 (2809856)
I0609 18:05:03.684583 13390 net.cpp:137] Memory required for data: 279580700
I0609 18:05:03.684588 13390 layer_factory.hpp:77] Creating layer bn_stage0_block1_branch2c
I0609 18:05:03.684593 13390 net.cpp:84] Creating Layer bn_stage0_block1_branch2c
I0609 18:05:03.684595 13390 net.cpp:406] bn_stage0_block1_branch2c <- conv_stage0_block1_branch2c
I0609 18:05:03.684600 13390 net.cpp:367] bn_stage0_block1_branch2c -> conv_stage0_block1_branch2c (in-place)
I0609 18:05:03.684725 13390 net.cpp:122] Setting up bn_stage0_block1_branch2c
I0609 18:05:03.684731 13390 net.cpp:129] Top shape: 7 128 56 56 (2809856)
I0609 18:05:03.684732 13390 net.cpp:137] Memory required for data: 290820124
I0609 18:05:03.684737 13390 layer_factory.hpp:77] Creating layer scale_stage0_block1_branch2c
I0609 18:05:03.684742 13390 net.cpp:84] Creating Layer scale_stage0_block1_branch2c
I0609 18:05:03.684746 13390 net.cpp:406] scale_stage0_block1_branch2c <- conv_stage0_block1_branch2c
I0609 18:05:03.684749 13390 net.cpp:367] scale_stage0_block1_branch2c -> conv_stage0_block1_branch2c (in-place)
I0609 18:05:03.684774 13390 layer_factory.hpp:77] Creating layer scale_stage0_block1_branch2c
I0609 18:05:03.684849 13390 net.cpp:122] Setting up scale_stage0_block1_branch2c
I0609 18:05:03.684854 13390 net.cpp:129] Top shape: 7 128 56 56 (2809856)
I0609 18:05:03.684861 13390 net.cpp:137] Memory required for data: 302059548
I0609 18:05:03.684865 13390 layer_factory.hpp:77] Creating layer eltwise_stage0_block1
I0609 18:05:03.684870 13390 net.cpp:84] Creating Layer eltwise_stage0_block1
I0609 18:05:03.684872 13390 net.cpp:406] eltwise_stage0_block1 <- eltwise_stage0_block0_relu_stage0_block0_0_split_1
I0609 18:05:03.684876 13390 net.cpp:406] eltwise_stage0_block1 <- conv_stage0_block1_branch2c
I0609 18:05:03.684880 13390 net.cpp:380] eltwise_stage0_block1 -> eltwise_stage0_block1
I0609 18:05:03.684900 13390 net.cpp:122] Setting up eltwise_stage0_block1
I0609 18:05:03.684906 13390 net.cpp:129] Top shape: 7 128 56 56 (2809856)
I0609 18:05:03.684907 13390 net.cpp:137] Memory required for data: 313298972
I0609 18:05:03.684909 13390 layer_factory.hpp:77] Creating layer relu_stage0_block1
I0609 18:05:03.684913 13390 net.cpp:84] Creating Layer relu_stage0_block1
I0609 18:05:03.684916 13390 net.cpp:406] relu_stage0_block1 <- eltwise_stage0_block1
I0609 18:05:03.684921 13390 net.cpp:367] relu_stage0_block1 -> eltwise_stage0_block1 (in-place)
I0609 18:05:03.684924 13390 net.cpp:122] Setting up relu_stage0_block1
I0609 18:05:03.684928 13390 net.cpp:129] Top shape: 7 128 56 56 (2809856)
I0609 18:05:03.684931 13390 net.cpp:137] Memory required for data: 324538396
I0609 18:05:03.684932 13390 layer_factory.hpp:77] Creating layer eltwise_stage0_block1_relu_stage0_block1_0_split
I0609 18:05:03.684937 13390 net.cpp:84] Creating Layer eltwise_stage0_block1_relu_stage0_block1_0_split
I0609 18:05:03.684939 13390 net.cpp:406] eltwise_stage0_block1_relu_stage0_block1_0_split <- eltwise_stage0_block1
I0609 18:05:03.684943 13390 net.cpp:380] eltwise_stage0_block1_relu_stage0_block1_0_split -> eltwise_stage0_block1_relu_stage0_block1_0_split_0
I0609 18:05:03.684949 13390 net.cpp:380] eltwise_stage0_block1_relu_stage0_block1_0_split -> eltwise_stage0_block1_relu_stage0_block1_0_split_1
I0609 18:05:03.684973 13390 net.cpp:122] Setting up eltwise_stage0_block1_relu_stage0_block1_0_split
I0609 18:05:03.684976 13390 net.cpp:129] Top shape: 7 128 56 56 (2809856)
I0609 18:05:03.684979 13390 net.cpp:129] Top shape: 7 128 56 56 (2809856)
I0609 18:05:03.684981 13390 net.cpp:137] Memory required for data: 347017244
I0609 18:05:03.684984 13390 layer_factory.hpp:77] Creating layer conv_stage0_block2_branch2a
I0609 18:05:03.684991 13390 net.cpp:84] Creating Layer conv_stage0_block2_branch2a
I0609 18:05:03.684994 13390 net.cpp:406] conv_stage0_block2_branch2a <- eltwise_stage0_block1_relu_stage0_block1_0_split_0
I0609 18:05:03.684999 13390 net.cpp:380] conv_stage0_block2_branch2a -> conv_stage0_block2_branch2a
I0609 18:05:03.685178 13390 net.cpp:122] Setting up conv_stage0_block2_branch2a
I0609 18:05:03.685183 13390 net.cpp:129] Top shape: 7 32 56 56 (702464)
I0609 18:05:03.685185 13390 net.cpp:137] Memory required for data: 349827100
I0609 18:05:03.685189 13390 layer_factory.hpp:77] Creating layer bn_stage0_block2_branch2a
I0609 18:05:03.685194 13390 net.cpp:84] Creating Layer bn_stage0_block2_branch2a
I0609 18:05:03.685197 13390 net.cpp:406] bn_stage0_block2_branch2a <- conv_stage0_block2_branch2a
I0609 18:05:03.685202 13390 net.cpp:367] bn_stage0_block2_branch2a -> conv_stage0_block2_branch2a (in-place)
I0609 18:05:03.685330 13390 net.cpp:122] Setting up bn_stage0_block2_branch2a
I0609 18:05:03.685334 13390 net.cpp:129] Top shape: 7 32 56 56 (702464)
I0609 18:05:03.685338 13390 net.cpp:137] Memory required for data: 352636956
I0609 18:05:03.685343 13390 layer_factory.hpp:77] Creating layer scale_stage0_block2_branch2a
I0609 18:05:03.685348 13390 net.cpp:84] Creating Layer scale_stage0_block2_branch2a
I0609 18:05:03.685349 13390 net.cpp:406] scale_stage0_block2_branch2a <- conv_stage0_block2_branch2a
I0609 18:05:03.685354 13390 net.cpp:367] scale_stage0_block2_branch2a -> conv_stage0_block2_branch2a (in-place)
I0609 18:05:03.685379 13390 layer_factory.hpp:77] Creating layer scale_stage0_block2_branch2a
I0609 18:05:03.685456 13390 net.cpp:122] Setting up scale_stage0_block2_branch2a
I0609 18:05:03.685461 13390 net.cpp:129] Top shape: 7 32 56 56 (702464)
I0609 18:05:03.685469 13390 net.cpp:137] Memory required for data: 355446812
I0609 18:05:03.685473 13390 layer_factory.hpp:77] Creating layer relu_stage0_block2_branch2a
I0609 18:05:03.685478 13390 net.cpp:84] Creating Layer relu_stage0_block2_branch2a
I0609 18:05:03.685480 13390 net.cpp:406] relu_stage0_block2_branch2a <- conv_stage0_block2_branch2a
I0609 18:05:03.685484 13390 net.cpp:367] relu_stage0_block2_branch2a -> conv_stage0_block2_branch2a (in-place)
I0609 18:05:03.685488 13390 net.cpp:122] Setting up relu_stage0_block2_branch2a
I0609 18:05:03.685492 13390 net.cpp:129] Top shape: 7 32 56 56 (702464)
I0609 18:05:03.685494 13390 net.cpp:137] Memory required for data: 358256668
I0609 18:05:03.685497 13390 layer_factory.hpp:77] Creating layer conv_stage0_block2_branch2b
I0609 18:05:03.685503 13390 net.cpp:84] Creating Layer conv_stage0_block2_branch2b
I0609 18:05:03.685506 13390 net.cpp:406] conv_stage0_block2_branch2b <- conv_stage0_block2_branch2a
I0609 18:05:03.685511 13390 net.cpp:380] conv_stage0_block2_branch2b -> conv_stage0_block2_branch2b
I0609 18:05:03.685716 13390 net.cpp:122] Setting up conv_stage0_block2_branch2b
I0609 18:05:03.685721 13390 net.cpp:129] Top shape: 7 32 56 56 (702464)
I0609 18:05:03.685724 13390 net.cpp:137] Memory required for data: 361066524
I0609 18:05:03.685734 13390 layer_factory.hpp:77] Creating layer bn_stage0_block2_branch2b
I0609 18:05:03.685739 13390 net.cpp:84] Creating Layer bn_stage0_block2_branch2b
I0609 18:05:03.685741 13390 net.cpp:406] bn_stage0_block2_branch2b <- conv_stage0_block2_branch2b
I0609 18:05:03.685746 13390 net.cpp:367] bn_stage0_block2_branch2b -> conv_stage0_block2_branch2b (in-place)
I0609 18:05:03.685907 13390 net.cpp:122] Setting up bn_stage0_block2_branch2b
I0609 18:05:03.685914 13390 net.cpp:129] Top shape: 7 32 56 56 (702464)
I0609 18:05:03.685917 13390 net.cpp:137] Memory required for data: 363876380
I0609 18:05:03.685925 13390 layer_factory.hpp:77] Creating layer scale_stage0_block2_branch2b
I0609 18:05:03.685935 13390 net.cpp:84] Creating Layer scale_stage0_block2_branch2b
I0609 18:05:03.685938 13390 net.cpp:406] scale_stage0_block2_branch2b <- conv_stage0_block2_branch2b
I0609 18:05:03.685946 13390 net.cpp:367] scale_stage0_block2_branch2b -> conv_stage0_block2_branch2b (in-place)
I0609 18:05:03.685976 13390 layer_factory.hpp:77] Creating layer scale_stage0_block2_branch2b
I0609 18:05:03.686062 13390 net.cpp:122] Setting up scale_stage0_block2_branch2b
I0609 18:05:03.686067 13390 net.cpp:129] Top shape: 7 32 56 56 (702464)
I0609 18:05:03.686069 13390 net.cpp:137] Memory required for data: 366686236
I0609 18:05:03.686075 13390 layer_factory.hpp:77] Creating layer relu_stage0_block2_branch2b
I0609 18:05:03.686081 13390 net.cpp:84] Creating Layer relu_stage0_block2_branch2b
I0609 18:05:03.686084 13390 net.cpp:406] relu_stage0_block2_branch2b <- conv_stage0_block2_branch2b
I0609 18:05:03.686089 13390 net.cpp:367] relu_stage0_block2_branch2b -> conv_stage0_block2_branch2b (in-place)
I0609 18:05:03.686094 13390 net.cpp:122] Setting up relu_stage0_block2_branch2b
I0609 18:05:03.686100 13390 net.cpp:129] Top shape: 7 32 56 56 (702464)
I0609 18:05:03.686101 13390 net.cpp:137] Memory required for data: 369496092
I0609 18:05:03.686105 13390 layer_factory.hpp:77] Creating layer conv_stage0_block2_branch2c
I0609 18:05:03.686117 13390 net.cpp:84] Creating Layer conv_stage0_block2_branch2c
I0609 18:05:03.686120 13390 net.cpp:406] conv_stage0_block2_branch2c <- conv_stage0_block2_branch2b
I0609 18:05:03.686126 13390 net.cpp:380] conv_stage0_block2_branch2c -> conv_stage0_block2_branch2c
I0609 18:05:03.686328 13390 net.cpp:122] Setting up conv_stage0_block2_branch2c
I0609 18:05:03.686334 13390 net.cpp:129] Top shape: 7 128 56 56 (2809856)
I0609 18:05:03.686337 13390 net.cpp:137] Memory required for data: 380735516
I0609 18:05:03.686342 13390 layer_factory.hpp:77] Creating layer bn_stage0_block2_branch2c
I0609 18:05:03.686347 13390 net.cpp:84] Creating Layer bn_stage0_block2_branch2c
I0609 18:05:03.686350 13390 net.cpp:406] bn_stage0_block2_branch2c <- conv_stage0_block2_branch2c
I0609 18:05:03.686362 13390 net.cpp:367] bn_stage0_block2_branch2c -> conv_stage0_block2_branch2c (in-place)
I0609 18:05:03.686493 13390 net.cpp:122] Setting up bn_stage0_block2_branch2c
I0609 18:05:03.686498 13390 net.cpp:129] Top shape: 7 128 56 56 (2809856)
I0609 18:05:03.686501 13390 net.cpp:137] Memory required for data: 391974940
I0609 18:05:03.686506 13390 layer_factory.hpp:77] Creating layer scale_stage0_block2_branch2c
I0609 18:05:03.686511 13390 net.cpp:84] Creating Layer scale_stage0_block2_branch2c
I0609 18:05:03.686513 13390 net.cpp:406] scale_stage0_block2_branch2c <- conv_stage0_block2_branch2c
I0609 18:05:03.686518 13390 net.cpp:367] scale_stage0_block2_branch2c -> conv_stage0_block2_branch2c (in-place)
I0609 18:05:03.686544 13390 layer_factory.hpp:77] Creating layer scale_stage0_block2_branch2c
I0609 18:05:03.686619 13390 net.cpp:122] Setting up scale_stage0_block2_branch2c
I0609 18:05:03.686623 13390 net.cpp:129] Top shape: 7 128 56 56 (2809856)
I0609 18:05:03.686625 13390 net.cpp:137] Memory required for data: 403214364
I0609 18:05:03.686630 13390 layer_factory.hpp:77] Creating layer eltwise_stage0_block2
I0609 18:05:03.686635 13390 net.cpp:84] Creating Layer eltwise_stage0_block2
I0609 18:05:03.686636 13390 net.cpp:406] eltwise_stage0_block2 <- eltwise_stage0_block1_relu_stage0_block1_0_split_1
I0609 18:05:03.686640 13390 net.cpp:406] eltwise_stage0_block2 <- conv_stage0_block2_branch2c
I0609 18:05:03.686645 13390 net.cpp:380] eltwise_stage0_block2 -> eltwise_stage0_block2
I0609 18:05:03.686661 13390 net.cpp:122] Setting up eltwise_stage0_block2
I0609 18:05:03.686664 13390 net.cpp:129] Top shape: 7 128 56 56 (2809856)
I0609 18:05:03.686667 13390 net.cpp:137] Memory required for data: 414453788
I0609 18:05:03.686669 13390 layer_factory.hpp:77] Creating layer relu_stage0_block2
I0609 18:05:03.686673 13390 net.cpp:84] Creating Layer relu_stage0_block2
I0609 18:05:03.686676 13390 net.cpp:406] relu_stage0_block2 <- eltwise_stage0_block2
I0609 18:05:03.686681 13390 net.cpp:367] relu_stage0_block2 -> eltwise_stage0_block2 (in-place)
I0609 18:05:03.686686 13390 net.cpp:122] Setting up relu_stage0_block2
I0609 18:05:03.686689 13390 net.cpp:129] Top shape: 7 128 56 56 (2809856)
I0609 18:05:03.686692 13390 net.cpp:137] Memory required for data: 425693212
I0609 18:05:03.686694 13390 layer_factory.hpp:77] Creating layer eltwise_stage0_block2_relu_stage0_block2_0_split
I0609 18:05:03.686698 13390 net.cpp:84] Creating Layer eltwise_stage0_block2_relu_stage0_block2_0_split
I0609 18:05:03.686702 13390 net.cpp:406] eltwise_stage0_block2_relu_stage0_block2_0_split <- eltwise_stage0_block2
I0609 18:05:03.686705 13390 net.cpp:380] eltwise_stage0_block2_relu_stage0_block2_0_split -> eltwise_stage0_block2_relu_stage0_block2_0_split_0
I0609 18:05:03.686712 13390 net.cpp:380] eltwise_stage0_block2_relu_stage0_block2_0_split -> eltwise_stage0_block2_relu_stage0_block2_0_split_1
I0609 18:05:03.687124 13390 net.cpp:122] Setting up eltwise_stage0_block2_relu_stage0_block2_0_split
I0609 18:05:03.687129 13390 net.cpp:129] Top shape: 7 128 56 56 (2809856)
I0609 18:05:03.687134 13390 net.cpp:129] Top shape: 7 128 56 56 (2809856)
I0609 18:05:03.687135 13390 net.cpp:137] Memory required for data: 448172060
I0609 18:05:03.687137 13390 layer_factory.hpp:77] Creating layer conv_stage1_block0_proj_shortcut
I0609 18:05:03.687147 13390 net.cpp:84] Creating Layer conv_stage1_block0_proj_shortcut
I0609 18:05:03.687150 13390 net.cpp:406] conv_stage1_block0_proj_shortcut <- eltwise_stage0_block2_relu_stage0_block2_0_split_0
I0609 18:05:03.687156 13390 net.cpp:380] conv_stage1_block0_proj_shortcut -> conv_stage1_block0_proj_shortcut
I0609 18:05:03.688405 13390 net.cpp:122] Setting up conv_stage1_block0_proj_shortcut
I0609 18:05:03.688416 13390 net.cpp:129] Top shape: 7 256 28 28 (1404928)
I0609 18:05:03.688418 13390 net.cpp:137] Memory required for data: 453791772
I0609 18:05:03.688423 13390 layer_factory.hpp:77] Creating layer bn_stage1_block0_proj_shortcut
I0609 18:05:03.688431 13390 net.cpp:84] Creating Layer bn_stage1_block0_proj_shortcut
I0609 18:05:03.688443 13390 net.cpp:406] bn_stage1_block0_proj_shortcut <- conv_stage1_block0_proj_shortcut
I0609 18:05:03.688452 13390 net.cpp:367] bn_stage1_block0_proj_shortcut -> conv_stage1_block0_proj_shortcut (in-place)
I0609 18:05:03.688598 13390 net.cpp:122] Setting up bn_stage1_block0_proj_shortcut
I0609 18:05:03.688603 13390 net.cpp:129] Top shape: 7 256 28 28 (1404928)
I0609 18:05:03.688606 13390 net.cpp:137] Memory required for data: 459411484
I0609 18:05:03.688611 13390 layer_factory.hpp:77] Creating layer scale_stage1_block0_proj_shortcut
I0609 18:05:03.688618 13390 net.cpp:84] Creating Layer scale_stage1_block0_proj_shortcut
I0609 18:05:03.688621 13390 net.cpp:406] scale_stage1_block0_proj_shortcut <- conv_stage1_block0_proj_shortcut
I0609 18:05:03.688627 13390 net.cpp:367] scale_stage1_block0_proj_shortcut -> conv_stage1_block0_proj_shortcut (in-place)
I0609 18:05:03.688657 13390 layer_factory.hpp:77] Creating layer scale_stage1_block0_proj_shortcut
I0609 18:05:03.688736 13390 net.cpp:122] Setting up scale_stage1_block0_proj_shortcut
I0609 18:05:03.688741 13390 net.cpp:129] Top shape: 7 256 28 28 (1404928)
I0609 18:05:03.688745 13390 net.cpp:137] Memory required for data: 465031196
I0609 18:05:03.688748 13390 layer_factory.hpp:77] Creating layer conv_stage1_block0_branch2a
I0609 18:05:03.688758 13390 net.cpp:84] Creating Layer conv_stage1_block0_branch2a
I0609 18:05:03.688761 13390 net.cpp:406] conv_stage1_block0_branch2a <- eltwise_stage0_block2_relu_stage0_block2_0_split_1
I0609 18:05:03.688768 13390 net.cpp:380] conv_stage1_block0_branch2a -> conv_stage1_block0_branch2a
I0609 18:05:03.688987 13390 net.cpp:122] Setting up conv_stage1_block0_branch2a
I0609 18:05:03.688992 13390 net.cpp:129] Top shape: 7 64 28 28 (351232)
I0609 18:05:03.688995 13390 net.cpp:137] Memory required for data: 466436124
I0609 18:05:03.688999 13390 layer_factory.hpp:77] Creating layer bn_stage1_block0_branch2a
I0609 18:05:03.689005 13390 net.cpp:84] Creating Layer bn_stage1_block0_branch2a
I0609 18:05:03.689008 13390 net.cpp:406] bn_stage1_block0_branch2a <- conv_stage1_block0_branch2a
I0609 18:05:03.689013 13390 net.cpp:367] bn_stage1_block0_branch2a -> conv_stage1_block0_branch2a (in-place)
I0609 18:05:03.689158 13390 net.cpp:122] Setting up bn_stage1_block0_branch2a
I0609 18:05:03.689162 13390 net.cpp:129] Top shape: 7 64 28 28 (351232)
I0609 18:05:03.689165 13390 net.cpp:137] Memory required for data: 467841052
I0609 18:05:03.689170 13390 layer_factory.hpp:77] Creating layer scale_stage1_block0_branch2a
I0609 18:05:03.689177 13390 net.cpp:84] Creating Layer scale_stage1_block0_branch2a
I0609 18:05:03.689179 13390 net.cpp:406] scale_stage1_block0_branch2a <- conv_stage1_block0_branch2a
I0609 18:05:03.689184 13390 net.cpp:367] scale_stage1_block0_branch2a -> conv_stage1_block0_branch2a (in-place)
I0609 18:05:03.689213 13390 layer_factory.hpp:77] Creating layer scale_stage1_block0_branch2a
I0609 18:05:03.689299 13390 net.cpp:122] Setting up scale_stage1_block0_branch2a
I0609 18:05:03.689304 13390 net.cpp:129] Top shape: 7 64 28 28 (351232)
I0609 18:05:03.689306 13390 net.cpp:137] Memory required for data: 469245980
I0609 18:05:03.689311 13390 layer_factory.hpp:77] Creating layer relu_stage1_block0_branch2a
I0609 18:05:03.689316 13390 net.cpp:84] Creating Layer relu_stage1_block0_branch2a
I0609 18:05:03.689318 13390 net.cpp:406] relu_stage1_block0_branch2a <- conv_stage1_block0_branch2a
I0609 18:05:03.689323 13390 net.cpp:367] relu_stage1_block0_branch2a -> conv_stage1_block0_branch2a (in-place)
I0609 18:05:03.689328 13390 net.cpp:122] Setting up relu_stage1_block0_branch2a
I0609 18:05:03.689332 13390 net.cpp:129] Top shape: 7 64 28 28 (351232)
I0609 18:05:03.689334 13390 net.cpp:137] Memory required for data: 470650908
I0609 18:05:03.689337 13390 layer_factory.hpp:77] Creating layer conv_stage1_block0_branch2b
I0609 18:05:03.689345 13390 net.cpp:84] Creating Layer conv_stage1_block0_branch2b
I0609 18:05:03.689348 13390 net.cpp:406] conv_stage1_block0_branch2b <- conv_stage1_block0_branch2a
I0609 18:05:03.689360 13390 net.cpp:380] conv_stage1_block0_branch2b -> conv_stage1_block0_branch2b
I0609 18:05:03.689716 13390 net.cpp:122] Setting up conv_stage1_block0_branch2b
I0609 18:05:03.689723 13390 net.cpp:129] Top shape: 7 64 28 28 (351232)
I0609 18:05:03.689725 13390 net.cpp:137] Memory required for data: 472055836
I0609 18:05:03.689729 13390 layer_factory.hpp:77] Creating layer bn_stage1_block0_branch2b
I0609 18:05:03.689735 13390 net.cpp:84] Creating Layer bn_stage1_block0_branch2b
I0609 18:05:03.689738 13390 net.cpp:406] bn_stage1_block0_branch2b <- conv_stage1_block0_branch2b
I0609 18:05:03.689743 13390 net.cpp:367] bn_stage1_block0_branch2b -> conv_stage1_block0_branch2b (in-place)
I0609 18:05:03.689889 13390 net.cpp:122] Setting up bn_stage1_block0_branch2b
I0609 18:05:03.689894 13390 net.cpp:129] Top shape: 7 64 28 28 (351232)
I0609 18:05:03.689896 13390 net.cpp:137] Memory required for data: 473460764
I0609 18:05:03.689901 13390 layer_factory.hpp:77] Creating layer scale_stage1_block0_branch2b
I0609 18:05:03.689908 13390 net.cpp:84] Creating Layer scale_stage1_block0_branch2b
I0609 18:05:03.689909 13390 net.cpp:406] scale_stage1_block0_branch2b <- conv_stage1_block0_branch2b
I0609 18:05:03.689914 13390 net.cpp:367] scale_stage1_block0_branch2b -> conv_stage1_block0_branch2b (in-place)
I0609 18:05:03.689944 13390 layer_factory.hpp:77] Creating layer scale_stage1_block0_branch2b
I0609 18:05:03.690028 13390 net.cpp:122] Setting up scale_stage1_block0_branch2b
I0609 18:05:03.690033 13390 net.cpp:129] Top shape: 7 64 28 28 (351232)
I0609 18:05:03.690035 13390 net.cpp:137] Memory required for data: 474865692
I0609 18:05:03.690040 13390 layer_factory.hpp:77] Creating layer relu_stage1_block0_branch2b
I0609 18:05:03.690045 13390 net.cpp:84] Creating Layer relu_stage1_block0_branch2b
I0609 18:05:03.690047 13390 net.cpp:406] relu_stage1_block0_branch2b <- conv_stage1_block0_branch2b
I0609 18:05:03.690052 13390 net.cpp:367] relu_stage1_block0_branch2b -> conv_stage1_block0_branch2b (in-place)
I0609 18:05:03.690057 13390 net.cpp:122] Setting up relu_stage1_block0_branch2b
I0609 18:05:03.690060 13390 net.cpp:129] Top shape: 7 64 28 28 (351232)
I0609 18:05:03.690063 13390 net.cpp:137] Memory required for data: 476270620
I0609 18:05:03.690065 13390 layer_factory.hpp:77] Creating layer conv_stage1_block0_branch2c
I0609 18:05:03.690073 13390 net.cpp:84] Creating Layer conv_stage1_block0_branch2c
I0609 18:05:03.690076 13390 net.cpp:406] conv_stage1_block0_branch2c <- conv_stage1_block0_branch2b
I0609 18:05:03.690081 13390 net.cpp:380] conv_stage1_block0_branch2c -> conv_stage1_block0_branch2c
I0609 18:05:03.690343 13390 net.cpp:122] Setting up conv_stage1_block0_branch2c
I0609 18:05:03.690351 13390 net.cpp:129] Top shape: 7 256 28 28 (1404928)
I0609 18:05:03.690352 13390 net.cpp:137] Memory required for data: 481890332
I0609 18:05:03.690357 13390 layer_factory.hpp:77] Creating layer bn_stage1_block0_branch2c
I0609 18:05:03.690376 13390 net.cpp:84] Creating Layer bn_stage1_block0_branch2c
I0609 18:05:03.690379 13390 net.cpp:406] bn_stage1_block0_branch2c <- conv_stage1_block0_branch2c
I0609 18:05:03.690383 13390 net.cpp:367] bn_stage1_block0_branch2c -> conv_stage1_block0_branch2c (in-place)
I0609 18:05:03.690518 13390 net.cpp:122] Setting up bn_stage1_block0_branch2c
I0609 18:05:03.690523 13390 net.cpp:129] Top shape: 7 256 28 28 (1404928)
I0609 18:05:03.690526 13390 net.cpp:137] Memory required for data: 487510044
I0609 18:05:03.690531 13390 layer_factory.hpp:77] Creating layer scale_stage1_block0_branch2c
I0609 18:05:03.690536 13390 net.cpp:84] Creating Layer scale_stage1_block0_branch2c
I0609 18:05:03.690538 13390 net.cpp:406] scale_stage1_block0_branch2c <- conv_stage1_block0_branch2c
I0609 18:05:03.690543 13390 net.cpp:367] scale_stage1_block0_branch2c -> conv_stage1_block0_branch2c (in-place)
I0609 18:05:03.690572 13390 layer_factory.hpp:77] Creating layer scale_stage1_block0_branch2c
I0609 18:05:03.690651 13390 net.cpp:122] Setting up scale_stage1_block0_branch2c
I0609 18:05:03.690657 13390 net.cpp:129] Top shape: 7 256 28 28 (1404928)
I0609 18:05:03.690666 13390 net.cpp:137] Memory required for data: 493129756
I0609 18:05:03.690671 13390 layer_factory.hpp:77] Creating layer eltwise_stage1_block0
I0609 18:05:03.690676 13390 net.cpp:84] Creating Layer eltwise_stage1_block0
I0609 18:05:03.690678 13390 net.cpp:406] eltwise_stage1_block0 <- conv_stage1_block0_proj_shortcut
I0609 18:05:03.690682 13390 net.cpp:406] eltwise_stage1_block0 <- conv_stage1_block0_branch2c
I0609 18:05:03.690687 13390 net.cpp:380] eltwise_stage1_block0 -> eltwise_stage1_block0
I0609 18:05:03.690706 13390 net.cpp:122] Setting up eltwise_stage1_block0
I0609 18:05:03.690709 13390 net.cpp:129] Top shape: 7 256 28 28 (1404928)
I0609 18:05:03.690711 13390 net.cpp:137] Memory required for data: 498749468
I0609 18:05:03.690714 13390 layer_factory.hpp:77] Creating layer relu_stage1_block0
I0609 18:05:03.690721 13390 net.cpp:84] Creating Layer relu_stage1_block0
I0609 18:05:03.690722 13390 net.cpp:406] relu_stage1_block0 <- eltwise_stage1_block0
I0609 18:05:03.690727 13390 net.cpp:367] relu_stage1_block0 -> eltwise_stage1_block0 (in-place)
I0609 18:05:03.690732 13390 net.cpp:122] Setting up relu_stage1_block0
I0609 18:05:03.690734 13390 net.cpp:129] Top shape: 7 256 28 28 (1404928)
I0609 18:05:03.690737 13390 net.cpp:137] Memory required for data: 504369180
I0609 18:05:03.690739 13390 layer_factory.hpp:77] Creating layer eltwise_stage1_block0_relu_stage1_block0_0_split
I0609 18:05:03.690744 13390 net.cpp:84] Creating Layer eltwise_stage1_block0_relu_stage1_block0_0_split
I0609 18:05:03.690747 13390 net.cpp:406] eltwise_stage1_block0_relu_stage1_block0_0_split <- eltwise_stage1_block0
I0609 18:05:03.690752 13390 net.cpp:380] eltwise_stage1_block0_relu_stage1_block0_0_split -> eltwise_stage1_block0_relu_stage1_block0_0_split_0
I0609 18:05:03.690757 13390 net.cpp:380] eltwise_stage1_block0_relu_stage1_block0_0_split -> eltwise_stage1_block0_relu_stage1_block0_0_split_1
I0609 18:05:03.690783 13390 net.cpp:122] Setting up eltwise_stage1_block0_relu_stage1_block0_0_split
I0609 18:05:03.690788 13390 net.cpp:129] Top shape: 7 256 28 28 (1404928)
I0609 18:05:03.690791 13390 net.cpp:129] Top shape: 7 256 28 28 (1404928)
I0609 18:05:03.690794 13390 net.cpp:137] Memory required for data: 515608604
I0609 18:05:03.690796 13390 layer_factory.hpp:77] Creating layer conv_stage1_block1_branch2a
I0609 18:05:03.690805 13390 net.cpp:84] Creating Layer conv_stage1_block1_branch2a
I0609 18:05:03.690809 13390 net.cpp:406] conv_stage1_block1_branch2a <- eltwise_stage1_block0_relu_stage1_block0_0_split_0
I0609 18:05:03.690814 13390 net.cpp:380] conv_stage1_block1_branch2a -> conv_stage1_block1_branch2a
I0609 18:05:03.691076 13390 net.cpp:122] Setting up conv_stage1_block1_branch2a
I0609 18:05:03.691082 13390 net.cpp:129] Top shape: 7 64 28 28 (351232)
I0609 18:05:03.691083 13390 net.cpp:137] Memory required for data: 517013532
I0609 18:05:03.691088 13390 layer_factory.hpp:77] Creating layer bn_stage1_block1_branch2a
I0609 18:05:03.691094 13390 net.cpp:84] Creating Layer bn_stage1_block1_branch2a
I0609 18:05:03.691097 13390 net.cpp:406] bn_stage1_block1_branch2a <- conv_stage1_block1_branch2a
I0609 18:05:03.691102 13390 net.cpp:367] bn_stage1_block1_branch2a -> conv_stage1_block1_branch2a (in-place)
I0609 18:05:03.691246 13390 net.cpp:122] Setting up bn_stage1_block1_branch2a
I0609 18:05:03.691251 13390 net.cpp:129] Top shape: 7 64 28 28 (351232)
I0609 18:05:03.691252 13390 net.cpp:137] Memory required for data: 518418460
I0609 18:05:03.691258 13390 layer_factory.hpp:77] Creating layer scale_stage1_block1_branch2a
I0609 18:05:03.691264 13390 net.cpp:84] Creating Layer scale_stage1_block1_branch2a
I0609 18:05:03.691267 13390 net.cpp:406] scale_stage1_block1_branch2a <- conv_stage1_block1_branch2a
I0609 18:05:03.691272 13390 net.cpp:367] scale_stage1_block1_branch2a -> conv_stage1_block1_branch2a (in-place)
I0609 18:05:03.691299 13390 layer_factory.hpp:77] Creating layer scale_stage1_block1_branch2a
I0609 18:05:03.691386 13390 net.cpp:122] Setting up scale_stage1_block1_branch2a
I0609 18:05:03.691397 13390 net.cpp:129] Top shape: 7 64 28 28 (351232)
I0609 18:05:03.691399 13390 net.cpp:137] Memory required for data: 519823388
I0609 18:05:03.691404 13390 layer_factory.hpp:77] Creating layer relu_stage1_block1_branch2a
I0609 18:05:03.691409 13390 net.cpp:84] Creating Layer relu_stage1_block1_branch2a
I0609 18:05:03.691411 13390 net.cpp:406] relu_stage1_block1_branch2a <- conv_stage1_block1_branch2a
I0609 18:05:03.691417 13390 net.cpp:367] relu_stage1_block1_branch2a -> conv_stage1_block1_branch2a (in-place)
I0609 18:05:03.691422 13390 net.cpp:122] Setting up relu_stage1_block1_branch2a
I0609 18:05:03.691426 13390 net.cpp:129] Top shape: 7 64 28 28 (351232)
I0609 18:05:03.691427 13390 net.cpp:137] Memory required for data: 521228316
I0609 18:05:03.691429 13390 layer_factory.hpp:77] Creating layer conv_stage1_block1_branch2b
I0609 18:05:03.691437 13390 net.cpp:84] Creating Layer conv_stage1_block1_branch2b
I0609 18:05:03.691440 13390 net.cpp:406] conv_stage1_block1_branch2b <- conv_stage1_block1_branch2a
I0609 18:05:03.691445 13390 net.cpp:380] conv_stage1_block1_branch2b -> conv_stage1_block1_branch2b
I0609 18:05:03.691795 13390 net.cpp:122] Setting up conv_stage1_block1_branch2b
I0609 18:05:03.691802 13390 net.cpp:129] Top shape: 7 64 28 28 (351232)
I0609 18:05:03.691803 13390 net.cpp:137] Memory required for data: 522633244
I0609 18:05:03.691808 13390 layer_factory.hpp:77] Creating layer bn_stage1_block1_branch2b
I0609 18:05:03.691813 13390 net.cpp:84] Creating Layer bn_stage1_block1_branch2b
I0609 18:05:03.691817 13390 net.cpp:406] bn_stage1_block1_branch2b <- conv_stage1_block1_branch2b
I0609 18:05:03.691823 13390 net.cpp:367] bn_stage1_block1_branch2b -> conv_stage1_block1_branch2b (in-place)
I0609 18:05:03.691964 13390 net.cpp:122] Setting up bn_stage1_block1_branch2b
I0609 18:05:03.691968 13390 net.cpp:129] Top shape: 7 64 28 28 (351232)
I0609 18:05:03.691972 13390 net.cpp:137] Memory required for data: 524038172
I0609 18:05:03.691977 13390 layer_factory.hpp:77] Creating layer scale_stage1_block1_branch2b
I0609 18:05:03.691982 13390 net.cpp:84] Creating Layer scale_stage1_block1_branch2b
I0609 18:05:03.691984 13390 net.cpp:406] scale_stage1_block1_branch2b <- conv_stage1_block1_branch2b
I0609 18:05:03.691988 13390 net.cpp:367] scale_stage1_block1_branch2b -> conv_stage1_block1_branch2b (in-place)
I0609 18:05:03.692016 13390 layer_factory.hpp:77] Creating layer scale_stage1_block1_branch2b
I0609 18:05:03.692101 13390 net.cpp:122] Setting up scale_stage1_block1_branch2b
I0609 18:05:03.692106 13390 net.cpp:129] Top shape: 7 64 28 28 (351232)
I0609 18:05:03.692108 13390 net.cpp:137] Memory required for data: 525443100
I0609 18:05:03.692112 13390 layer_factory.hpp:77] Creating layer relu_stage1_block1_branch2b
I0609 18:05:03.692117 13390 net.cpp:84] Creating Layer relu_stage1_block1_branch2b
I0609 18:05:03.692119 13390 net.cpp:406] relu_stage1_block1_branch2b <- conv_stage1_block1_branch2b
I0609 18:05:03.692124 13390 net.cpp:367] relu_stage1_block1_branch2b -> conv_stage1_block1_branch2b (in-place)
I0609 18:05:03.692129 13390 net.cpp:122] Setting up relu_stage1_block1_branch2b
I0609 18:05:03.692132 13390 net.cpp:129] Top shape: 7 64 28 28 (351232)
I0609 18:05:03.692134 13390 net.cpp:137] Memory required for data: 526848028
I0609 18:05:03.692137 13390 layer_factory.hpp:77] Creating layer conv_stage1_block1_branch2c
I0609 18:05:03.692144 13390 net.cpp:84] Creating Layer conv_stage1_block1_branch2c
I0609 18:05:03.692147 13390 net.cpp:406] conv_stage1_block1_branch2c <- conv_stage1_block1_branch2b
I0609 18:05:03.692152 13390 net.cpp:380] conv_stage1_block1_branch2c -> conv_stage1_block1_branch2c
I0609 18:05:03.692401 13390 net.cpp:122] Setting up conv_stage1_block1_branch2c
I0609 18:05:03.692409 13390 net.cpp:129] Top shape: 7 256 28 28 (1404928)
I0609 18:05:03.692410 13390 net.cpp:137] Memory required for data: 532467740
I0609 18:05:03.692415 13390 layer_factory.hpp:77] Creating layer bn_stage1_block1_branch2c
I0609 18:05:03.692423 13390 net.cpp:84] Creating Layer bn_stage1_block1_branch2c
I0609 18:05:03.692427 13390 net.cpp:406] bn_stage1_block1_branch2c <- conv_stage1_block1_branch2c
I0609 18:05:03.692440 13390 net.cpp:367] bn_stage1_block1_branch2c -> conv_stage1_block1_branch2c (in-place)
I0609 18:05:03.692577 13390 net.cpp:122] Setting up bn_stage1_block1_branch2c
I0609 18:05:03.692582 13390 net.cpp:129] Top shape: 7 256 28 28 (1404928)
I0609 18:05:03.692584 13390 net.cpp:137] Memory required for data: 538087452
I0609 18:05:03.692590 13390 layer_factory.hpp:77] Creating layer scale_stage1_block1_branch2c
I0609 18:05:03.692596 13390 net.cpp:84] Creating Layer scale_stage1_block1_branch2c
I0609 18:05:03.692598 13390 net.cpp:406] scale_stage1_block1_branch2c <- conv_stage1_block1_branch2c
I0609 18:05:03.692602 13390 net.cpp:367] scale_stage1_block1_branch2c -> conv_stage1_block1_branch2c (in-place)
I0609 18:05:03.692631 13390 layer_factory.hpp:77] Creating layer scale_stage1_block1_branch2c
I0609 18:05:03.692711 13390 net.cpp:122] Setting up scale_stage1_block1_branch2c
I0609 18:05:03.692716 13390 net.cpp:129] Top shape: 7 256 28 28 (1404928)
I0609 18:05:03.692718 13390 net.cpp:137] Memory required for data: 543707164
I0609 18:05:03.692723 13390 layer_factory.hpp:77] Creating layer eltwise_stage1_block1
I0609 18:05:03.692729 13390 net.cpp:84] Creating Layer eltwise_stage1_block1
I0609 18:05:03.692731 13390 net.cpp:406] eltwise_stage1_block1 <- eltwise_stage1_block0_relu_stage1_block0_0_split_1
I0609 18:05:03.692735 13390 net.cpp:406] eltwise_stage1_block1 <- conv_stage1_block1_branch2c
I0609 18:05:03.692739 13390 net.cpp:380] eltwise_stage1_block1 -> eltwise_stage1_block1
I0609 18:05:03.692757 13390 net.cpp:122] Setting up eltwise_stage1_block1
I0609 18:05:03.692761 13390 net.cpp:129] Top shape: 7 256 28 28 (1404928)
I0609 18:05:03.692764 13390 net.cpp:137] Memory required for data: 549326876
I0609 18:05:03.692766 13390 layer_factory.hpp:77] Creating layer relu_stage1_block1
I0609 18:05:03.692770 13390 net.cpp:84] Creating Layer relu_stage1_block1
I0609 18:05:03.692772 13390 net.cpp:406] relu_stage1_block1 <- eltwise_stage1_block1
I0609 18:05:03.692778 13390 net.cpp:367] relu_stage1_block1 -> eltwise_stage1_block1 (in-place)
I0609 18:05:03.692782 13390 net.cpp:122] Setting up relu_stage1_block1
I0609 18:05:03.692785 13390 net.cpp:129] Top shape: 7 256 28 28 (1404928)
I0609 18:05:03.692788 13390 net.cpp:137] Memory required for data: 554946588
I0609 18:05:03.692790 13390 layer_factory.hpp:77] Creating layer eltwise_stage1_block1_relu_stage1_block1_0_split
I0609 18:05:03.692795 13390 net.cpp:84] Creating Layer eltwise_stage1_block1_relu_stage1_block1_0_split
I0609 18:05:03.692796 13390 net.cpp:406] eltwise_stage1_block1_relu_stage1_block1_0_split <- eltwise_stage1_block1
I0609 18:05:03.692800 13390 net.cpp:380] eltwise_stage1_block1_relu_stage1_block1_0_split -> eltwise_stage1_block1_relu_stage1_block1_0_split_0
I0609 18:05:03.692806 13390 net.cpp:380] eltwise_stage1_block1_relu_stage1_block1_0_split -> eltwise_stage1_block1_relu_stage1_block1_0_split_1
I0609 18:05:03.692831 13390 net.cpp:122] Setting up eltwise_stage1_block1_relu_stage1_block1_0_split
I0609 18:05:03.692834 13390 net.cpp:129] Top shape: 7 256 28 28 (1404928)
I0609 18:05:03.692837 13390 net.cpp:129] Top shape: 7 256 28 28 (1404928)
I0609 18:05:03.692839 13390 net.cpp:137] Memory required for data: 566186012
I0609 18:05:03.692842 13390 layer_factory.hpp:77] Creating layer conv_stage1_block2_branch2a
I0609 18:05:03.692849 13390 net.cpp:84] Creating Layer conv_stage1_block2_branch2a
I0609 18:05:03.692852 13390 net.cpp:406] conv_stage1_block2_branch2a <- eltwise_stage1_block1_relu_stage1_block1_0_split_0
I0609 18:05:03.692857 13390 net.cpp:380] conv_stage1_block2_branch2a -> conv_stage1_block2_branch2a
I0609 18:05:03.693466 13390 net.cpp:122] Setting up conv_stage1_block2_branch2a
I0609 18:05:03.693473 13390 net.cpp:129] Top shape: 7 64 28 28 (351232)
I0609 18:05:03.693475 13390 net.cpp:137] Memory required for data: 567590940
I0609 18:05:03.693480 13390 layer_factory.hpp:77] Creating layer bn_stage1_block2_branch2a
I0609 18:05:03.693486 13390 net.cpp:84] Creating Layer bn_stage1_block2_branch2a
I0609 18:05:03.693495 13390 net.cpp:406] bn_stage1_block2_branch2a <- conv_stage1_block2_branch2a
I0609 18:05:03.693500 13390 net.cpp:367] bn_stage1_block2_branch2a -> conv_stage1_block2_branch2a (in-place)
I0609 18:05:03.693644 13390 net.cpp:122] Setting up bn_stage1_block2_branch2a
I0609 18:05:03.693648 13390 net.cpp:129] Top shape: 7 64 28 28 (351232)
I0609 18:05:03.693650 13390 net.cpp:137] Memory required for data: 568995868
I0609 18:05:03.693670 13390 layer_factory.hpp:77] Creating layer scale_stage1_block2_branch2a
I0609 18:05:03.693675 13390 net.cpp:84] Creating Layer scale_stage1_block2_branch2a
I0609 18:05:03.693677 13390 net.cpp:406] scale_stage1_block2_branch2a <- conv_stage1_block2_branch2a
I0609 18:05:03.693681 13390 net.cpp:367] scale_stage1_block2_branch2a -> conv_stage1_block2_branch2a (in-place)
I0609 18:05:03.693713 13390 layer_factory.hpp:77] Creating layer scale_stage1_block2_branch2a
I0609 18:05:03.693799 13390 net.cpp:122] Setting up scale_stage1_block2_branch2a
I0609 18:05:03.693804 13390 net.cpp:129] Top shape: 7 64 28 28 (351232)
I0609 18:05:03.693805 13390 net.cpp:137] Memory required for data: 570400796
I0609 18:05:03.693810 13390 layer_factory.hpp:77] Creating layer relu_stage1_block2_branch2a
I0609 18:05:03.693815 13390 net.cpp:84] Creating Layer relu_stage1_block2_branch2a
I0609 18:05:03.693819 13390 net.cpp:406] relu_stage1_block2_branch2a <- conv_stage1_block2_branch2a
I0609 18:05:03.693823 13390 net.cpp:367] relu_stage1_block2_branch2a -> conv_stage1_block2_branch2a (in-place)
I0609 18:05:03.693827 13390 net.cpp:122] Setting up relu_stage1_block2_branch2a
I0609 18:05:03.693831 13390 net.cpp:129] Top shape: 7 64 28 28 (351232)
I0609 18:05:03.693833 13390 net.cpp:137] Memory required for data: 571805724
I0609 18:05:03.693836 13390 layer_factory.hpp:77] Creating layer conv_stage1_block2_branch2b
I0609 18:05:03.693842 13390 net.cpp:84] Creating Layer conv_stage1_block2_branch2b
I0609 18:05:03.693845 13390 net.cpp:406] conv_stage1_block2_branch2b <- conv_stage1_block2_branch2a
I0609 18:05:03.693851 13390 net.cpp:380] conv_stage1_block2_branch2b -> conv_stage1_block2_branch2b
I0609 18:05:03.694200 13390 net.cpp:122] Setting up conv_stage1_block2_branch2b
I0609 18:05:03.694205 13390 net.cpp:129] Top shape: 7 64 28 28 (351232)
I0609 18:05:03.694207 13390 net.cpp:137] Memory required for data: 573210652
I0609 18:05:03.694212 13390 layer_factory.hpp:77] Creating layer bn_stage1_block2_branch2b
I0609 18:05:03.694218 13390 net.cpp:84] Creating Layer bn_stage1_block2_branch2b
I0609 18:05:03.694221 13390 net.cpp:406] bn_stage1_block2_branch2b <- conv_stage1_block2_branch2b
I0609 18:05:03.694226 13390 net.cpp:367] bn_stage1_block2_branch2b -> conv_stage1_block2_branch2b (in-place)
I0609 18:05:03.694406 13390 net.cpp:122] Setting up bn_stage1_block2_branch2b
I0609 18:05:03.694412 13390 net.cpp:129] Top shape: 7 64 28 28 (351232)
I0609 18:05:03.694416 13390 net.cpp:137] Memory required for data: 574615580
I0609 18:05:03.694420 13390 layer_factory.hpp:77] Creating layer scale_stage1_block2_branch2b
I0609 18:05:03.694424 13390 net.cpp:84] Creating Layer scale_stage1_block2_branch2b
I0609 18:05:03.694427 13390 net.cpp:406] scale_stage1_block2_branch2b <- conv_stage1_block2_branch2b
I0609 18:05:03.694432 13390 net.cpp:367] scale_stage1_block2_branch2b -> conv_stage1_block2_branch2b (in-place)
I0609 18:05:03.694463 13390 layer_factory.hpp:77] Creating layer scale_stage1_block2_branch2b
I0609 18:05:03.694550 13390 net.cpp:122] Setting up scale_stage1_block2_branch2b
I0609 18:05:03.694555 13390 net.cpp:129] Top shape: 7 64 28 28 (351232)
I0609 18:05:03.694557 13390 net.cpp:137] Memory required for data: 576020508
I0609 18:05:03.694561 13390 layer_factory.hpp:77] Creating layer relu_stage1_block2_branch2b
I0609 18:05:03.694566 13390 net.cpp:84] Creating Layer relu_stage1_block2_branch2b
I0609 18:05:03.694569 13390 net.cpp:406] relu_stage1_block2_branch2b <- conv_stage1_block2_branch2b
I0609 18:05:03.694573 13390 net.cpp:367] relu_stage1_block2_branch2b -> conv_stage1_block2_branch2b (in-place)
I0609 18:05:03.694584 13390 net.cpp:122] Setting up relu_stage1_block2_branch2b
I0609 18:05:03.694588 13390 net.cpp:129] Top shape: 7 64 28 28 (351232)
I0609 18:05:03.694591 13390 net.cpp:137] Memory required for data: 577425436
I0609 18:05:03.694593 13390 layer_factory.hpp:77] Creating layer conv_stage1_block2_branch2c
I0609 18:05:03.694602 13390 net.cpp:84] Creating Layer conv_stage1_block2_branch2c
I0609 18:05:03.694603 13390 net.cpp:406] conv_stage1_block2_branch2c <- conv_stage1_block2_branch2b
I0609 18:05:03.694608 13390 net.cpp:380] conv_stage1_block2_branch2c -> conv_stage1_block2_branch2c
I0609 18:05:03.694866 13390 net.cpp:122] Setting up conv_stage1_block2_branch2c
I0609 18:05:03.694871 13390 net.cpp:129] Top shape: 7 256 28 28 (1404928)
I0609 18:05:03.694875 13390 net.cpp:137] Memory required for data: 583045148
I0609 18:05:03.694878 13390 layer_factory.hpp:77] Creating layer bn_stage1_block2_branch2c
I0609 18:05:03.694883 13390 net.cpp:84] Creating Layer bn_stage1_block2_branch2c
I0609 18:05:03.694886 13390 net.cpp:406] bn_stage1_block2_branch2c <- conv_stage1_block2_branch2c
I0609 18:05:03.694890 13390 net.cpp:367] bn_stage1_block2_branch2c -> conv_stage1_block2_branch2c (in-place)
I0609 18:05:03.695022 13390 net.cpp:122] Setting up bn_stage1_block2_branch2c
I0609 18:05:03.695026 13390 net.cpp:129] Top shape: 7 256 28 28 (1404928)
I0609 18:05:03.695029 13390 net.cpp:137] Memory required for data: 588664860
I0609 18:05:03.695034 13390 layer_factory.hpp:77] Creating layer scale_stage1_block2_branch2c
I0609 18:05:03.695039 13390 net.cpp:84] Creating Layer scale_stage1_block2_branch2c
I0609 18:05:03.695041 13390 net.cpp:406] scale_stage1_block2_branch2c <- conv_stage1_block2_branch2c
I0609 18:05:03.695045 13390 net.cpp:367] scale_stage1_block2_branch2c -> conv_stage1_block2_branch2c (in-place)
I0609 18:05:03.695072 13390 layer_factory.hpp:77] Creating layer scale_stage1_block2_branch2c
I0609 18:05:03.695150 13390 net.cpp:122] Setting up scale_stage1_block2_branch2c
I0609 18:05:03.695154 13390 net.cpp:129] Top shape: 7 256 28 28 (1404928)
I0609 18:05:03.695156 13390 net.cpp:137] Memory required for data: 594284572
I0609 18:05:03.695161 13390 layer_factory.hpp:77] Creating layer eltwise_stage1_block2
I0609 18:05:03.695166 13390 net.cpp:84] Creating Layer eltwise_stage1_block2
I0609 18:05:03.695168 13390 net.cpp:406] eltwise_stage1_block2 <- eltwise_stage1_block1_relu_stage1_block1_0_split_1
I0609 18:05:03.695173 13390 net.cpp:406] eltwise_stage1_block2 <- conv_stage1_block2_branch2c
I0609 18:05:03.695178 13390 net.cpp:380] eltwise_stage1_block2 -> eltwise_stage1_block2
I0609 18:05:03.695194 13390 net.cpp:122] Setting up eltwise_stage1_block2
I0609 18:05:03.695199 13390 net.cpp:129] Top shape: 7 256 28 28 (1404928)
I0609 18:05:03.695200 13390 net.cpp:137] Memory required for data: 599904284
I0609 18:05:03.695202 13390 layer_factory.hpp:77] Creating layer relu_stage1_block2
I0609 18:05:03.695207 13390 net.cpp:84] Creating Layer relu_stage1_block2
I0609 18:05:03.695210 13390 net.cpp:406] relu_stage1_block2 <- eltwise_stage1_block2
I0609 18:05:03.695214 13390 net.cpp:367] relu_stage1_block2 -> eltwise_stage1_block2 (in-place)
I0609 18:05:03.695219 13390 net.cpp:122] Setting up relu_stage1_block2
I0609 18:05:03.695221 13390 net.cpp:129] Top shape: 7 256 28 28 (1404928)
I0609 18:05:03.695224 13390 net.cpp:137] Memory required for data: 605523996
I0609 18:05:03.695226 13390 layer_factory.hpp:77] Creating layer eltwise_stage1_block2_relu_stage1_block2_0_split
I0609 18:05:03.695230 13390 net.cpp:84] Creating Layer eltwise_stage1_block2_relu_stage1_block2_0_split
I0609 18:05:03.695232 13390 net.cpp:406] eltwise_stage1_block2_relu_stage1_block2_0_split <- eltwise_stage1_block2
I0609 18:05:03.695236 13390 net.cpp:380] eltwise_stage1_block2_relu_stage1_block2_0_split -> eltwise_stage1_block2_relu_stage1_block2_0_split_0
I0609 18:05:03.695241 13390 net.cpp:380] eltwise_stage1_block2_relu_stage1_block2_0_split -> eltwise_stage1_block2_relu_stage1_block2_0_split_1
I0609 18:05:03.695266 13390 net.cpp:122] Setting up eltwise_stage1_block2_relu_stage1_block2_0_split
I0609 18:05:03.695276 13390 net.cpp:129] Top shape: 7 256 28 28 (1404928)
I0609 18:05:03.695278 13390 net.cpp:129] Top shape: 7 256 28 28 (1404928)
I0609 18:05:03.695281 13390 net.cpp:137] Memory required for data: 616763420
I0609 18:05:03.695283 13390 layer_factory.hpp:77] Creating layer conv_stage1_block3_branch2a
I0609 18:05:03.695291 13390 net.cpp:84] Creating Layer conv_stage1_block3_branch2a
I0609 18:05:03.695294 13390 net.cpp:406] conv_stage1_block3_branch2a <- eltwise_stage1_block2_relu_stage1_block2_0_split_0
I0609 18:05:03.695299 13390 net.cpp:380] conv_stage1_block3_branch2a -> conv_stage1_block3_branch2a
I0609 18:05:03.695544 13390 net.cpp:122] Setting up conv_stage1_block3_branch2a
I0609 18:05:03.695549 13390 net.cpp:129] Top shape: 7 64 28 28 (351232)
I0609 18:05:03.695550 13390 net.cpp:137] Memory required for data: 618168348
I0609 18:05:03.695555 13390 layer_factory.hpp:77] Creating layer bn_stage1_block3_branch2a
I0609 18:05:03.695560 13390 net.cpp:84] Creating Layer bn_stage1_block3_branch2a
I0609 18:05:03.695564 13390 net.cpp:406] bn_stage1_block3_branch2a <- conv_stage1_block3_branch2a
I0609 18:05:03.695567 13390 net.cpp:367] bn_stage1_block3_branch2a -> conv_stage1_block3_branch2a (in-place)
I0609 18:05:03.695704 13390 net.cpp:122] Setting up bn_stage1_block3_branch2a
I0609 18:05:03.695708 13390 net.cpp:129] Top shape: 7 64 28 28 (351232)
I0609 18:05:03.695710 13390 net.cpp:137] Memory required for data: 619573276
I0609 18:05:03.695715 13390 layer_factory.hpp:77] Creating layer scale_stage1_block3_branch2a
I0609 18:05:03.695719 13390 net.cpp:84] Creating Layer scale_stage1_block3_branch2a
I0609 18:05:03.695722 13390 net.cpp:406] scale_stage1_block3_branch2a <- conv_stage1_block3_branch2a
I0609 18:05:03.695727 13390 net.cpp:367] scale_stage1_block3_branch2a -> conv_stage1_block3_branch2a (in-place)
I0609 18:05:03.695755 13390 layer_factory.hpp:77] Creating layer scale_stage1_block3_branch2a
I0609 18:05:03.695852 13390 net.cpp:122] Setting up scale_stage1_block3_branch2a
I0609 18:05:03.695857 13390 net.cpp:129] Top shape: 7 64 28 28 (351232)
I0609 18:05:03.695859 13390 net.cpp:137] Memory required for data: 620978204
I0609 18:05:03.695863 13390 layer_factory.hpp:77] Creating layer relu_stage1_block3_branch2a
I0609 18:05:03.695868 13390 net.cpp:84] Creating Layer relu_stage1_block3_branch2a
I0609 18:05:03.695870 13390 net.cpp:406] relu_stage1_block3_branch2a <- conv_stage1_block3_branch2a
I0609 18:05:03.695875 13390 net.cpp:367] relu_stage1_block3_branch2a -> conv_stage1_block3_branch2a (in-place)
I0609 18:05:03.695879 13390 net.cpp:122] Setting up relu_stage1_block3_branch2a
I0609 18:05:03.695883 13390 net.cpp:129] Top shape: 7 64 28 28 (351232)
I0609 18:05:03.695885 13390 net.cpp:137] Memory required for data: 622383132
I0609 18:05:03.695888 13390 layer_factory.hpp:77] Creating layer conv_stage1_block3_branch2b
I0609 18:05:03.695895 13390 net.cpp:84] Creating Layer conv_stage1_block3_branch2b
I0609 18:05:03.695897 13390 net.cpp:406] conv_stage1_block3_branch2b <- conv_stage1_block3_branch2a
I0609 18:05:03.695902 13390 net.cpp:380] conv_stage1_block3_branch2b -> conv_stage1_block3_branch2b
I0609 18:05:03.696249 13390 net.cpp:122] Setting up conv_stage1_block3_branch2b
I0609 18:05:03.696254 13390 net.cpp:129] Top shape: 7 64 28 28 (351232)
I0609 18:05:03.696256 13390 net.cpp:137] Memory required for data: 623788060
I0609 18:05:03.696261 13390 layer_factory.hpp:77] Creating layer bn_stage1_block3_branch2b
I0609 18:05:03.696265 13390 net.cpp:84] Creating Layer bn_stage1_block3_branch2b
I0609 18:05:03.696269 13390 net.cpp:406] bn_stage1_block3_branch2b <- conv_stage1_block3_branch2b
I0609 18:05:03.696274 13390 net.cpp:367] bn_stage1_block3_branch2b -> conv_stage1_block3_branch2b (in-place)
I0609 18:05:03.696416 13390 net.cpp:122] Setting up bn_stage1_block3_branch2b
I0609 18:05:03.696420 13390 net.cpp:129] Top shape: 7 64 28 28 (351232)
I0609 18:05:03.696424 13390 net.cpp:137] Memory required for data: 625192988
I0609 18:05:03.696429 13390 layer_factory.hpp:77] Creating layer scale_stage1_block3_branch2b
I0609 18:05:03.696439 13390 net.cpp:84] Creating Layer scale_stage1_block3_branch2b
I0609 18:05:03.696442 13390 net.cpp:406] scale_stage1_block3_branch2b <- conv_stage1_block3_branch2b
I0609 18:05:03.696446 13390 net.cpp:367] scale_stage1_block3_branch2b -> conv_stage1_block3_branch2b (in-place)
I0609 18:05:03.696475 13390 layer_factory.hpp:77] Creating layer scale_stage1_block3_branch2b
I0609 18:05:03.696563 13390 net.cpp:122] Setting up scale_stage1_block3_branch2b
I0609 18:05:03.696568 13390 net.cpp:129] Top shape: 7 64 28 28 (351232)
I0609 18:05:03.696569 13390 net.cpp:137] Memory required for data: 626597916
I0609 18:05:03.696573 13390 layer_factory.hpp:77] Creating layer relu_stage1_block3_branch2b
I0609 18:05:03.696578 13390 net.cpp:84] Creating Layer relu_stage1_block3_branch2b
I0609 18:05:03.696581 13390 net.cpp:406] relu_stage1_block3_branch2b <- conv_stage1_block3_branch2b
I0609 18:05:03.696586 13390 net.cpp:367] relu_stage1_block3_branch2b -> conv_stage1_block3_branch2b (in-place)
I0609 18:05:03.696590 13390 net.cpp:122] Setting up relu_stage1_block3_branch2b
I0609 18:05:03.696594 13390 net.cpp:129] Top shape: 7 64 28 28 (351232)
I0609 18:05:03.696596 13390 net.cpp:137] Memory required for data: 628002844
I0609 18:05:03.696599 13390 layer_factory.hpp:77] Creating layer conv_stage1_block3_branch2c
I0609 18:05:03.696604 13390 net.cpp:84] Creating Layer conv_stage1_block3_branch2c
I0609 18:05:03.696607 13390 net.cpp:406] conv_stage1_block3_branch2c <- conv_stage1_block3_branch2b
I0609 18:05:03.696612 13390 net.cpp:380] conv_stage1_block3_branch2c -> conv_stage1_block3_branch2c
I0609 18:05:03.696856 13390 net.cpp:122] Setting up conv_stage1_block3_branch2c
I0609 18:05:03.696861 13390 net.cpp:129] Top shape: 7 256 28 28 (1404928)
I0609 18:05:03.696863 13390 net.cpp:137] Memory required for data: 633622556
I0609 18:05:03.696868 13390 layer_factory.hpp:77] Creating layer bn_stage1_block3_branch2c
I0609 18:05:03.696873 13390 net.cpp:84] Creating Layer bn_stage1_block3_branch2c
I0609 18:05:03.696877 13390 net.cpp:406] bn_stage1_block3_branch2c <- conv_stage1_block3_branch2c
I0609 18:05:03.696882 13390 net.cpp:367] bn_stage1_block3_branch2c -> conv_stage1_block3_branch2c (in-place)
I0609 18:05:03.697017 13390 net.cpp:122] Setting up bn_stage1_block3_branch2c
I0609 18:05:03.697022 13390 net.cpp:129] Top shape: 7 256 28 28 (1404928)
I0609 18:05:03.697024 13390 net.cpp:137] Memory required for data: 639242268
I0609 18:05:03.697031 13390 layer_factory.hpp:77] Creating layer scale_stage1_block3_branch2c
I0609 18:05:03.697034 13390 net.cpp:84] Creating Layer scale_stage1_block3_branch2c
I0609 18:05:03.697036 13390 net.cpp:406] scale_stage1_block3_branch2c <- conv_stage1_block3_branch2c
I0609 18:05:03.697041 13390 net.cpp:367] scale_stage1_block3_branch2c -> conv_stage1_block3_branch2c (in-place)
I0609 18:05:03.697069 13390 layer_factory.hpp:77] Creating layer scale_stage1_block3_branch2c
I0609 18:05:03.697149 13390 net.cpp:122] Setting up scale_stage1_block3_branch2c
I0609 18:05:03.697154 13390 net.cpp:129] Top shape: 7 256 28 28 (1404928)
I0609 18:05:03.697156 13390 net.cpp:137] Memory required for data: 644861980
I0609 18:05:03.697160 13390 layer_factory.hpp:77] Creating layer eltwise_stage1_block3
I0609 18:05:03.697165 13390 net.cpp:84] Creating Layer eltwise_stage1_block3
I0609 18:05:03.697167 13390 net.cpp:406] eltwise_stage1_block3 <- eltwise_stage1_block2_relu_stage1_block2_0_split_1
I0609 18:05:03.697170 13390 net.cpp:406] eltwise_stage1_block3 <- conv_stage1_block3_branch2c
I0609 18:05:03.697176 13390 net.cpp:380] eltwise_stage1_block3 -> eltwise_stage1_block3
I0609 18:05:03.697193 13390 net.cpp:122] Setting up eltwise_stage1_block3
I0609 18:05:03.697197 13390 net.cpp:129] Top shape: 7 256 28 28 (1404928)
I0609 18:05:03.697199 13390 net.cpp:137] Memory required for data: 650481692
I0609 18:05:03.697202 13390 layer_factory.hpp:77] Creating layer relu_stage1_block3
I0609 18:05:03.697206 13390 net.cpp:84] Creating Layer relu_stage1_block3
I0609 18:05:03.697208 13390 net.cpp:406] relu_stage1_block3 <- eltwise_stage1_block3
I0609 18:05:03.697218 13390 net.cpp:367] relu_stage1_block3 -> eltwise_stage1_block3 (in-place)
I0609 18:05:03.697226 13390 net.cpp:122] Setting up relu_stage1_block3
I0609 18:05:03.697228 13390 net.cpp:129] Top shape: 7 256 28 28 (1404928)
I0609 18:05:03.697232 13390 net.cpp:137] Memory required for data: 656101404
I0609 18:05:03.697233 13390 layer_factory.hpp:77] Creating layer eltwise_stage1_block3_relu_stage1_block3_0_split
I0609 18:05:03.697237 13390 net.cpp:84] Creating Layer eltwise_stage1_block3_relu_stage1_block3_0_split
I0609 18:05:03.697240 13390 net.cpp:406] eltwise_stage1_block3_relu_stage1_block3_0_split <- eltwise_stage1_block3
I0609 18:05:03.697244 13390 net.cpp:380] eltwise_stage1_block3_relu_stage1_block3_0_split -> eltwise_stage1_block3_relu_stage1_block3_0_split_0
I0609 18:05:03.697249 13390 net.cpp:380] eltwise_stage1_block3_relu_stage1_block3_0_split -> eltwise_stage1_block3_relu_stage1_block3_0_split_1
I0609 18:05:03.697275 13390 net.cpp:122] Setting up eltwise_stage1_block3_relu_stage1_block3_0_split
I0609 18:05:03.697280 13390 net.cpp:129] Top shape: 7 256 28 28 (1404928)
I0609 18:05:03.697283 13390 net.cpp:129] Top shape: 7 256 28 28 (1404928)
I0609 18:05:03.697285 13390 net.cpp:137] Memory required for data: 667340828
I0609 18:05:03.697288 13390 layer_factory.hpp:77] Creating layer conv_stage2_block0_proj_shortcut
I0609 18:05:03.697294 13390 net.cpp:84] Creating Layer conv_stage2_block0_proj_shortcut
I0609 18:05:03.697298 13390 net.cpp:406] conv_stage2_block0_proj_shortcut <- eltwise_stage1_block3_relu_stage1_block3_0_split_0
I0609 18:05:03.697304 13390 net.cpp:380] conv_stage2_block0_proj_shortcut -> conv_stage2_block0_proj_shortcut
I0609 18:05:03.698684 13390 net.cpp:122] Setting up conv_stage2_block0_proj_shortcut
I0609 18:05:03.698698 13390 net.cpp:129] Top shape: 7 512 14 14 (702464)
I0609 18:05:03.698701 13390 net.cpp:137] Memory required for data: 670150684
I0609 18:05:03.698709 13390 layer_factory.hpp:77] Creating layer bn_stage2_block0_proj_shortcut
I0609 18:05:03.698719 13390 net.cpp:84] Creating Layer bn_stage2_block0_proj_shortcut
I0609 18:05:03.698721 13390 net.cpp:406] bn_stage2_block0_proj_shortcut <- conv_stage2_block0_proj_shortcut
I0609 18:05:03.698727 13390 net.cpp:367] bn_stage2_block0_proj_shortcut -> conv_stage2_block0_proj_shortcut (in-place)
I0609 18:05:03.698899 13390 net.cpp:122] Setting up bn_stage2_block0_proj_shortcut
I0609 18:05:03.698904 13390 net.cpp:129] Top shape: 7 512 14 14 (702464)
I0609 18:05:03.698906 13390 net.cpp:137] Memory required for data: 672960540
I0609 18:05:03.698913 13390 layer_factory.hpp:77] Creating layer scale_stage2_block0_proj_shortcut
I0609 18:05:03.698920 13390 net.cpp:84] Creating Layer scale_stage2_block0_proj_shortcut
I0609 18:05:03.698923 13390 net.cpp:406] scale_stage2_block0_proj_shortcut <- conv_stage2_block0_proj_shortcut
I0609 18:05:03.698927 13390 net.cpp:367] scale_stage2_block0_proj_shortcut -> conv_stage2_block0_proj_shortcut (in-place)
I0609 18:05:03.698954 13390 layer_factory.hpp:77] Creating layer scale_stage2_block0_proj_shortcut
I0609 18:05:03.699038 13390 net.cpp:122] Setting up scale_stage2_block0_proj_shortcut
I0609 18:05:03.699043 13390 net.cpp:129] Top shape: 7 512 14 14 (702464)
I0609 18:05:03.699044 13390 net.cpp:137] Memory required for data: 675770396
I0609 18:05:03.699048 13390 layer_factory.hpp:77] Creating layer conv_stage2_block0_branch2a
I0609 18:05:03.699056 13390 net.cpp:84] Creating Layer conv_stage2_block0_branch2a
I0609 18:05:03.699060 13390 net.cpp:406] conv_stage2_block0_branch2a <- eltwise_stage1_block3_relu_stage1_block3_0_split_1
I0609 18:05:03.699066 13390 net.cpp:380] conv_stage2_block0_branch2a -> conv_stage2_block0_branch2a
I0609 18:05:03.699395 13390 net.cpp:122] Setting up conv_stage2_block0_branch2a
I0609 18:05:03.699401 13390 net.cpp:129] Top shape: 7 128 14 14 (175616)
I0609 18:05:03.699404 13390 net.cpp:137] Memory required for data: 676472860
I0609 18:05:03.699409 13390 layer_factory.hpp:77] Creating layer bn_stage2_block0_branch2a
I0609 18:05:03.699431 13390 net.cpp:84] Creating Layer bn_stage2_block0_branch2a
I0609 18:05:03.699435 13390 net.cpp:406] bn_stage2_block0_branch2a <- conv_stage2_block0_branch2a
I0609 18:05:03.699440 13390 net.cpp:367] bn_stage2_block0_branch2a -> conv_stage2_block0_branch2a (in-place)
I0609 18:05:03.699580 13390 net.cpp:122] Setting up bn_stage2_block0_branch2a
I0609 18:05:03.699584 13390 net.cpp:129] Top shape: 7 128 14 14 (175616)
I0609 18:05:03.699587 13390 net.cpp:137] Memory required for data: 677175324
I0609 18:05:03.699592 13390 layer_factory.hpp:77] Creating layer scale_stage2_block0_branch2a
I0609 18:05:03.699597 13390 net.cpp:84] Creating Layer scale_stage2_block0_branch2a
I0609 18:05:03.699599 13390 net.cpp:406] scale_stage2_block0_branch2a <- conv_stage2_block0_branch2a
I0609 18:05:03.699604 13390 net.cpp:367] scale_stage2_block0_branch2a -> conv_stage2_block0_branch2a (in-place)
I0609 18:05:03.700037 13390 layer_factory.hpp:77] Creating layer scale_stage2_block0_branch2a
I0609 18:05:03.700121 13390 net.cpp:122] Setting up scale_stage2_block0_branch2a
I0609 18:05:03.700126 13390 net.cpp:129] Top shape: 7 128 14 14 (175616)
I0609 18:05:03.700129 13390 net.cpp:137] Memory required for data: 677877788
I0609 18:05:03.700134 13390 layer_factory.hpp:77] Creating layer relu_stage2_block0_branch2a
I0609 18:05:03.700137 13390 net.cpp:84] Creating Layer relu_stage2_block0_branch2a
I0609 18:05:03.700140 13390 net.cpp:406] relu_stage2_block0_branch2a <- conv_stage2_block0_branch2a
I0609 18:05:03.700145 13390 net.cpp:367] relu_stage2_block0_branch2a -> conv_stage2_block0_branch2a (in-place)
I0609 18:05:03.700150 13390 net.cpp:122] Setting up relu_stage2_block0_branch2a
I0609 18:05:03.700153 13390 net.cpp:129] Top shape: 7 128 14 14 (175616)
I0609 18:05:03.700156 13390 net.cpp:137] Memory required for data: 678580252
I0609 18:05:03.700158 13390 layer_factory.hpp:77] Creating layer conv_stage2_block0_branch2b
I0609 18:05:03.700166 13390 net.cpp:84] Creating Layer conv_stage2_block0_branch2b
I0609 18:05:03.700170 13390 net.cpp:406] conv_stage2_block0_branch2b <- conv_stage2_block0_branch2a
I0609 18:05:03.700173 13390 net.cpp:380] conv_stage2_block0_branch2b -> conv_stage2_block0_branch2b
I0609 18:05:03.701607 13390 net.cpp:122] Setting up conv_stage2_block0_branch2b
I0609 18:05:03.701617 13390 net.cpp:129] Top shape: 7 128 14 14 (175616)
I0609 18:05:03.701620 13390 net.cpp:137] Memory required for data: 679282716
I0609 18:05:03.701625 13390 layer_factory.hpp:77] Creating layer bn_stage2_block0_branch2b
I0609 18:05:03.701632 13390 net.cpp:84] Creating Layer bn_stage2_block0_branch2b
I0609 18:05:03.701637 13390 net.cpp:406] bn_stage2_block0_branch2b <- conv_stage2_block0_branch2b
I0609 18:05:03.701642 13390 net.cpp:367] bn_stage2_block0_branch2b -> conv_stage2_block0_branch2b (in-place)
I0609 18:05:03.701781 13390 net.cpp:122] Setting up bn_stage2_block0_branch2b
I0609 18:05:03.701786 13390 net.cpp:129] Top shape: 7 128 14 14 (175616)
I0609 18:05:03.701787 13390 net.cpp:137] Memory required for data: 679985180
I0609 18:05:03.701793 13390 layer_factory.hpp:77] Creating layer scale_stage2_block0_branch2b
I0609 18:05:03.701798 13390 net.cpp:84] Creating Layer scale_stage2_block0_branch2b
I0609 18:05:03.701802 13390 net.cpp:406] scale_stage2_block0_branch2b <- conv_stage2_block0_branch2b
I0609 18:05:03.701805 13390 net.cpp:367] scale_stage2_block0_branch2b -> conv_stage2_block0_branch2b (in-place)
I0609 18:05:03.701834 13390 layer_factory.hpp:77] Creating layer scale_stage2_block0_branch2b
I0609 18:05:03.701915 13390 net.cpp:122] Setting up scale_stage2_block0_branch2b
I0609 18:05:03.701920 13390 net.cpp:129] Top shape: 7 128 14 14 (175616)
I0609 18:05:03.701923 13390 net.cpp:137] Memory required for data: 680687644
I0609 18:05:03.701927 13390 layer_factory.hpp:77] Creating layer relu_stage2_block0_branch2b
I0609 18:05:03.701932 13390 net.cpp:84] Creating Layer relu_stage2_block0_branch2b
I0609 18:05:03.701936 13390 net.cpp:406] relu_stage2_block0_branch2b <- conv_stage2_block0_branch2b
I0609 18:05:03.701939 13390 net.cpp:367] relu_stage2_block0_branch2b -> conv_stage2_block0_branch2b (in-place)
I0609 18:05:03.701952 13390 net.cpp:122] Setting up relu_stage2_block0_branch2b
I0609 18:05:03.701956 13390 net.cpp:129] Top shape: 7 128 14 14 (175616)
I0609 18:05:03.701958 13390 net.cpp:137] Memory required for data: 681390108
I0609 18:05:03.701961 13390 layer_factory.hpp:77] Creating layer conv_stage2_block0_branch2c
I0609 18:05:03.701970 13390 net.cpp:84] Creating Layer conv_stage2_block0_branch2c
I0609 18:05:03.701972 13390 net.cpp:406] conv_stage2_block0_branch2c <- conv_stage2_block0_branch2b
I0609 18:05:03.701978 13390 net.cpp:380] conv_stage2_block0_branch2c -> conv_stage2_block0_branch2c
I0609 18:05:03.702947 13390 net.cpp:122] Setting up conv_stage2_block0_branch2c
I0609 18:05:03.702957 13390 net.cpp:129] Top shape: 7 512 14 14 (702464)
I0609 18:05:03.702960 13390 net.cpp:137] Memory required for data: 684199964
I0609 18:05:03.702965 13390 layer_factory.hpp:77] Creating layer bn_stage2_block0_branch2c
I0609 18:05:03.702973 13390 net.cpp:84] Creating Layer bn_stage2_block0_branch2c
I0609 18:05:03.702976 13390 net.cpp:406] bn_stage2_block0_branch2c <- conv_stage2_block0_branch2c
I0609 18:05:03.702981 13390 net.cpp:367] bn_stage2_block0_branch2c -> conv_stage2_block0_branch2c (in-place)
I0609 18:05:03.703122 13390 net.cpp:122] Setting up bn_stage2_block0_branch2c
I0609 18:05:03.703127 13390 net.cpp:129] Top shape: 7 512 14 14 (702464)
I0609 18:05:03.703130 13390 net.cpp:137] Memory required for data: 687009820
I0609 18:05:03.703135 13390 layer_factory.hpp:77] Creating layer scale_stage2_block0_branch2c
I0609 18:05:03.703140 13390 net.cpp:84] Creating Layer scale_stage2_block0_branch2c
I0609 18:05:03.703143 13390 net.cpp:406] scale_stage2_block0_branch2c <- conv_stage2_block0_branch2c
I0609 18:05:03.703147 13390 net.cpp:367] scale_stage2_block0_branch2c -> conv_stage2_block0_branch2c (in-place)
I0609 18:05:03.703177 13390 layer_factory.hpp:77] Creating layer scale_stage2_block0_branch2c
I0609 18:05:03.703259 13390 net.cpp:122] Setting up scale_stage2_block0_branch2c
I0609 18:05:03.703264 13390 net.cpp:129] Top shape: 7 512 14 14 (702464)
I0609 18:05:03.703266 13390 net.cpp:137] Memory required for data: 689819676
I0609 18:05:03.703271 13390 layer_factory.hpp:77] Creating layer eltwise_stage2_block0
I0609 18:05:03.703277 13390 net.cpp:84] Creating Layer eltwise_stage2_block0
I0609 18:05:03.703280 13390 net.cpp:406] eltwise_stage2_block0 <- conv_stage2_block0_proj_shortcut
I0609 18:05:03.703284 13390 net.cpp:406] eltwise_stage2_block0 <- conv_stage2_block0_branch2c
I0609 18:05:03.703289 13390 net.cpp:380] eltwise_stage2_block0 -> eltwise_stage2_block0
I0609 18:05:03.703307 13390 net.cpp:122] Setting up eltwise_stage2_block0
I0609 18:05:03.703311 13390 net.cpp:129] Top shape: 7 512 14 14 (702464)
I0609 18:05:03.703313 13390 net.cpp:137] Memory required for data: 692629532
I0609 18:05:03.703316 13390 layer_factory.hpp:77] Creating layer relu_stage2_block0
I0609 18:05:03.703322 13390 net.cpp:84] Creating Layer relu_stage2_block0
I0609 18:05:03.703325 13390 net.cpp:406] relu_stage2_block0 <- eltwise_stage2_block0
I0609 18:05:03.703328 13390 net.cpp:367] relu_stage2_block0 -> eltwise_stage2_block0 (in-place)
I0609 18:05:03.703333 13390 net.cpp:122] Setting up relu_stage2_block0
I0609 18:05:03.703336 13390 net.cpp:129] Top shape: 7 512 14 14 (702464)
I0609 18:05:03.703338 13390 net.cpp:137] Memory required for data: 695439388
I0609 18:05:03.703341 13390 layer_factory.hpp:77] Creating layer eltwise_stage2_block0_relu_stage2_block0_0_split
I0609 18:05:03.703346 13390 net.cpp:84] Creating Layer eltwise_stage2_block0_relu_stage2_block0_0_split
I0609 18:05:03.703348 13390 net.cpp:406] eltwise_stage2_block0_relu_stage2_block0_0_split <- eltwise_stage2_block0
I0609 18:05:03.703352 13390 net.cpp:380] eltwise_stage2_block0_relu_stage2_block0_0_split -> eltwise_stage2_block0_relu_stage2_block0_0_split_0
I0609 18:05:03.703357 13390 net.cpp:380] eltwise_stage2_block0_relu_stage2_block0_0_split -> eltwise_stage2_block0_relu_stage2_block0_0_split_1
I0609 18:05:03.703395 13390 net.cpp:122] Setting up eltwise_stage2_block0_relu_stage2_block0_0_split
I0609 18:05:03.703400 13390 net.cpp:129] Top shape: 7 512 14 14 (702464)
I0609 18:05:03.703403 13390 net.cpp:129] Top shape: 7 512 14 14 (702464)
I0609 18:05:03.703405 13390 net.cpp:137] Memory required for data: 701059100
I0609 18:05:03.703408 13390 layer_factory.hpp:77] Creating layer conv_stage2_block1_branch2a
I0609 18:05:03.703449 13390 net.cpp:84] Creating Layer conv_stage2_block1_branch2a
I0609 18:05:03.703452 13390 net.cpp:406] conv_stage2_block1_branch2a <- eltwise_stage2_block0_relu_stage2_block0_0_split_0
I0609 18:05:03.703459 13390 net.cpp:380] conv_stage2_block1_branch2a -> conv_stage2_block1_branch2a
I0609 18:05:03.703943 13390 net.cpp:122] Setting up conv_stage2_block1_branch2a
I0609 18:05:03.703948 13390 net.cpp:129] Top shape: 7 128 14 14 (175616)
I0609 18:05:03.703950 13390 net.cpp:137] Memory required for data: 701761564
I0609 18:05:03.703955 13390 layer_factory.hpp:77] Creating layer bn_stage2_block1_branch2a
I0609 18:05:03.703961 13390 net.cpp:84] Creating Layer bn_stage2_block1_branch2a
I0609 18:05:03.703964 13390 net.cpp:406] bn_stage2_block1_branch2a <- conv_stage2_block1_branch2a
I0609 18:05:03.703969 13390 net.cpp:367] bn_stage2_block1_branch2a -> conv_stage2_block1_branch2a (in-place)
I0609 18:05:03.704107 13390 net.cpp:122] Setting up bn_stage2_block1_branch2a
I0609 18:05:03.704110 13390 net.cpp:129] Top shape: 7 128 14 14 (175616)
I0609 18:05:03.704113 13390 net.cpp:137] Memory required for data: 702464028
I0609 18:05:03.704118 13390 layer_factory.hpp:77] Creating layer scale_stage2_block1_branch2a
I0609 18:05:03.704123 13390 net.cpp:84] Creating Layer scale_stage2_block1_branch2a
I0609 18:05:03.704126 13390 net.cpp:406] scale_stage2_block1_branch2a <- conv_stage2_block1_branch2a
I0609 18:05:03.704131 13390 net.cpp:367] scale_stage2_block1_branch2a -> conv_stage2_block1_branch2a (in-place)
I0609 18:05:03.704159 13390 layer_factory.hpp:77] Creating layer scale_stage2_block1_branch2a
I0609 18:05:03.704238 13390 net.cpp:122] Setting up scale_stage2_block1_branch2a
I0609 18:05:03.704243 13390 net.cpp:129] Top shape: 7 128 14 14 (175616)
I0609 18:05:03.704246 13390 net.cpp:137] Memory required for data: 703166492
I0609 18:05:03.704250 13390 layer_factory.hpp:77] Creating layer relu_stage2_block1_branch2a
I0609 18:05:03.704254 13390 net.cpp:84] Creating Layer relu_stage2_block1_branch2a
I0609 18:05:03.704257 13390 net.cpp:406] relu_stage2_block1_branch2a <- conv_stage2_block1_branch2a
I0609 18:05:03.704262 13390 net.cpp:367] relu_stage2_block1_branch2a -> conv_stage2_block1_branch2a (in-place)
I0609 18:05:03.704265 13390 net.cpp:122] Setting up relu_stage2_block1_branch2a
I0609 18:05:03.704269 13390 net.cpp:129] Top shape: 7 128 14 14 (175616)
I0609 18:05:03.704272 13390 net.cpp:137] Memory required for data: 703868956
I0609 18:05:03.704273 13390 layer_factory.hpp:77] Creating layer conv_stage2_block1_branch2b
I0609 18:05:03.704282 13390 net.cpp:84] Creating Layer conv_stage2_block1_branch2b
I0609 18:05:03.704284 13390 net.cpp:406] conv_stage2_block1_branch2b <- conv_stage2_block1_branch2a
I0609 18:05:03.704288 13390 net.cpp:380] conv_stage2_block1_branch2b -> conv_stage2_block1_branch2b
I0609 18:05:03.705638 13390 net.cpp:122] Setting up conv_stage2_block1_branch2b
I0609 18:05:03.705647 13390 net.cpp:129] Top shape: 7 128 14 14 (175616)
I0609 18:05:03.705651 13390 net.cpp:137] Memory required for data: 704571420
I0609 18:05:03.705655 13390 layer_factory.hpp:77] Creating layer bn_stage2_block1_branch2b
I0609 18:05:03.705662 13390 net.cpp:84] Creating Layer bn_stage2_block1_branch2b
I0609 18:05:03.705667 13390 net.cpp:406] bn_stage2_block1_branch2b <- conv_stage2_block1_branch2b
I0609 18:05:03.705672 13390 net.cpp:367] bn_stage2_block1_branch2b -> conv_stage2_block1_branch2b (in-place)
I0609 18:05:03.705852 13390 net.cpp:122] Setting up bn_stage2_block1_branch2b
I0609 18:05:03.705858 13390 net.cpp:129] Top shape: 7 128 14 14 (175616)
I0609 18:05:03.705860 13390 net.cpp:137] Memory required for data: 705273884
I0609 18:05:03.705885 13390 layer_factory.hpp:77] Creating layer scale_stage2_block1_branch2b
I0609 18:05:03.705895 13390 net.cpp:84] Creating Layer scale_stage2_block1_branch2b
I0609 18:05:03.705899 13390 net.cpp:406] scale_stage2_block1_branch2b <- conv_stage2_block1_branch2b
I0609 18:05:03.705904 13390 net.cpp:367] scale_stage2_block1_branch2b -> conv_stage2_block1_branch2b (in-place)
I0609 18:05:03.705940 13390 layer_factory.hpp:77] Creating layer scale_stage2_block1_branch2b
I0609 18:05:03.706024 13390 net.cpp:122] Setting up scale_stage2_block1_branch2b
I0609 18:05:03.706029 13390 net.cpp:129] Top shape: 7 128 14 14 (175616)
I0609 18:05:03.706032 13390 net.cpp:137] Memory required for data: 705976348
I0609 18:05:03.706037 13390 layer_factory.hpp:77] Creating layer relu_stage2_block1_branch2b
I0609 18:05:03.706041 13390 net.cpp:84] Creating Layer relu_stage2_block1_branch2b
I0609 18:05:03.706044 13390 net.cpp:406] relu_stage2_block1_branch2b <- conv_stage2_block1_branch2b
I0609 18:05:03.706049 13390 net.cpp:367] relu_stage2_block1_branch2b -> conv_stage2_block1_branch2b (in-place)
I0609 18:05:03.706054 13390 net.cpp:122] Setting up relu_stage2_block1_branch2b
I0609 18:05:03.706058 13390 net.cpp:129] Top shape: 7 128 14 14 (175616)
I0609 18:05:03.706060 13390 net.cpp:137] Memory required for data: 706678812
I0609 18:05:03.706063 13390 layer_factory.hpp:77] Creating layer conv_stage2_block1_branch2c
I0609 18:05:03.706074 13390 net.cpp:84] Creating Layer conv_stage2_block1_branch2c
I0609 18:05:03.706077 13390 net.cpp:406] conv_stage2_block1_branch2c <- conv_stage2_block1_branch2b
I0609 18:05:03.706084 13390 net.cpp:380] conv_stage2_block1_branch2c -> conv_stage2_block1_branch2c
I0609 18:05:03.706571 13390 net.cpp:122] Setting up conv_stage2_block1_branch2c
I0609 18:05:03.706578 13390 net.cpp:129] Top shape: 7 512 14 14 (702464)
I0609 18:05:03.706581 13390 net.cpp:137] Memory required for data: 709488668
I0609 18:05:03.706585 13390 layer_factory.hpp:77] Creating layer bn_stage2_block1_branch2c
I0609 18:05:03.706591 13390 net.cpp:84] Creating Layer bn_stage2_block1_branch2c
I0609 18:05:03.706593 13390 net.cpp:406] bn_stage2_block1_branch2c <- conv_stage2_block1_branch2c
I0609 18:05:03.706599 13390 net.cpp:367] bn_stage2_block1_branch2c -> conv_stage2_block1_branch2c (in-place)
I0609 18:05:03.706738 13390 net.cpp:122] Setting up bn_stage2_block1_branch2c
I0609 18:05:03.706743 13390 net.cpp:129] Top shape: 7 512 14 14 (702464)
I0609 18:05:03.706745 13390 net.cpp:137] Memory required for data: 712298524
I0609 18:05:03.706750 13390 layer_factory.hpp:77] Creating layer scale_stage2_block1_branch2c
I0609 18:05:03.706755 13390 net.cpp:84] Creating Layer scale_stage2_block1_branch2c
I0609 18:05:03.706758 13390 net.cpp:406] scale_stage2_block1_branch2c <- conv_stage2_block1_branch2c
I0609 18:05:03.706761 13390 net.cpp:367] scale_stage2_block1_branch2c -> conv_stage2_block1_branch2c (in-place)
I0609 18:05:03.706789 13390 layer_factory.hpp:77] Creating layer scale_stage2_block1_branch2c
I0609 18:05:03.706872 13390 net.cpp:122] Setting up scale_stage2_block1_branch2c
I0609 18:05:03.706878 13390 net.cpp:129] Top shape: 7 512 14 14 (702464)
I0609 18:05:03.706881 13390 net.cpp:137] Memory required for data: 715108380
I0609 18:05:03.706885 13390 layer_factory.hpp:77] Creating layer eltwise_stage2_block1
I0609 18:05:03.706890 13390 net.cpp:84] Creating Layer eltwise_stage2_block1
I0609 18:05:03.706893 13390 net.cpp:406] eltwise_stage2_block1 <- eltwise_stage2_block0_relu_stage2_block0_0_split_1
I0609 18:05:03.706897 13390 net.cpp:406] eltwise_stage2_block1 <- conv_stage2_block1_branch2c
I0609 18:05:03.706902 13390 net.cpp:380] eltwise_stage2_block1 -> eltwise_stage2_block1
I0609 18:05:03.706920 13390 net.cpp:122] Setting up eltwise_stage2_block1
I0609 18:05:03.706925 13390 net.cpp:129] Top shape: 7 512 14 14 (702464)
I0609 18:05:03.706928 13390 net.cpp:137] Memory required for data: 717918236
I0609 18:05:03.706930 13390 layer_factory.hpp:77] Creating layer relu_stage2_block1
I0609 18:05:03.706935 13390 net.cpp:84] Creating Layer relu_stage2_block1
I0609 18:05:03.706945 13390 net.cpp:406] relu_stage2_block1 <- eltwise_stage2_block1
I0609 18:05:03.706949 13390 net.cpp:367] relu_stage2_block1 -> eltwise_stage2_block1 (in-place)
I0609 18:05:03.706954 13390 net.cpp:122] Setting up relu_stage2_block1
I0609 18:05:03.706957 13390 net.cpp:129] Top shape: 7 512 14 14 (702464)
I0609 18:05:03.706960 13390 net.cpp:137] Memory required for data: 720728092
I0609 18:05:03.706962 13390 layer_factory.hpp:77] Creating layer eltwise_stage2_block1_relu_stage2_block1_0_split
I0609 18:05:03.706966 13390 net.cpp:84] Creating Layer eltwise_stage2_block1_relu_stage2_block1_0_split
I0609 18:05:03.706969 13390 net.cpp:406] eltwise_stage2_block1_relu_stage2_block1_0_split <- eltwise_stage2_block1
I0609 18:05:03.706974 13390 net.cpp:380] eltwise_stage2_block1_relu_stage2_block1_0_split -> eltwise_stage2_block1_relu_stage2_block1_0_split_0
I0609 18:05:03.706980 13390 net.cpp:380] eltwise_stage2_block1_relu_stage2_block1_0_split -> eltwise_stage2_block1_relu_stage2_block1_0_split_1
I0609 18:05:03.707007 13390 net.cpp:122] Setting up eltwise_stage2_block1_relu_stage2_block1_0_split
I0609 18:05:03.707011 13390 net.cpp:129] Top shape: 7 512 14 14 (702464)
I0609 18:05:03.707015 13390 net.cpp:129] Top shape: 7 512 14 14 (702464)
I0609 18:05:03.707017 13390 net.cpp:137] Memory required for data: 726347804
I0609 18:05:03.707020 13390 layer_factory.hpp:77] Creating layer conv_stage2_block2_branch2a
I0609 18:05:03.707026 13390 net.cpp:84] Creating Layer conv_stage2_block2_branch2a
I0609 18:05:03.707029 13390 net.cpp:406] conv_stage2_block2_branch2a <- eltwise_stage2_block1_relu_stage2_block1_0_split_0
I0609 18:05:03.707036 13390 net.cpp:380] conv_stage2_block2_branch2a -> conv_stage2_block2_branch2a
I0609 18:05:03.707509 13390 net.cpp:122] Setting up conv_stage2_block2_branch2a
I0609 18:05:03.707515 13390 net.cpp:129] Top shape: 7 128 14 14 (175616)
I0609 18:05:03.707517 13390 net.cpp:137] Memory required for data: 727050268
I0609 18:05:03.707522 13390 layer_factory.hpp:77] Creating layer bn_stage2_block2_branch2a
I0609 18:05:03.707526 13390 net.cpp:84] Creating Layer bn_stage2_block2_branch2a
I0609 18:05:03.707530 13390 net.cpp:406] bn_stage2_block2_branch2a <- conv_stage2_block2_branch2a
I0609 18:05:03.707536 13390 net.cpp:367] bn_stage2_block2_branch2a -> conv_stage2_block2_branch2a (in-place)
I0609 18:05:03.707674 13390 net.cpp:122] Setting up bn_stage2_block2_branch2a
I0609 18:05:03.707677 13390 net.cpp:129] Top shape: 7 128 14 14 (175616)
I0609 18:05:03.707680 13390 net.cpp:137] Memory required for data: 727752732
I0609 18:05:03.707685 13390 layer_factory.hpp:77] Creating layer scale_stage2_block2_branch2a
I0609 18:05:03.707690 13390 net.cpp:84] Creating Layer scale_stage2_block2_branch2a
I0609 18:05:03.707692 13390 net.cpp:406] scale_stage2_block2_branch2a <- conv_stage2_block2_branch2a
I0609 18:05:03.707696 13390 net.cpp:367] scale_stage2_block2_branch2a -> conv_stage2_block2_branch2a (in-place)
I0609 18:05:03.707725 13390 layer_factory.hpp:77] Creating layer scale_stage2_block2_branch2a
I0609 18:05:03.707803 13390 net.cpp:122] Setting up scale_stage2_block2_branch2a
I0609 18:05:03.707808 13390 net.cpp:129] Top shape: 7 128 14 14 (175616)
I0609 18:05:03.707809 13390 net.cpp:137] Memory required for data: 728455196
I0609 18:05:03.707814 13390 layer_factory.hpp:77] Creating layer relu_stage2_block2_branch2a
I0609 18:05:03.707818 13390 net.cpp:84] Creating Layer relu_stage2_block2_branch2a
I0609 18:05:03.707820 13390 net.cpp:406] relu_stage2_block2_branch2a <- conv_stage2_block2_branch2a
I0609 18:05:03.707825 13390 net.cpp:367] relu_stage2_block2_branch2a -> conv_stage2_block2_branch2a (in-place)
I0609 18:05:03.707829 13390 net.cpp:122] Setting up relu_stage2_block2_branch2a
I0609 18:05:03.707834 13390 net.cpp:129] Top shape: 7 128 14 14 (175616)
I0609 18:05:03.707835 13390 net.cpp:137] Memory required for data: 729157660
I0609 18:05:03.707837 13390 layer_factory.hpp:77] Creating layer conv_stage2_block2_branch2b
I0609 18:05:03.707845 13390 net.cpp:84] Creating Layer conv_stage2_block2_branch2b
I0609 18:05:03.707856 13390 net.cpp:406] conv_stage2_block2_branch2b <- conv_stage2_block2_branch2a
I0609 18:05:03.707864 13390 net.cpp:380] conv_stage2_block2_branch2b -> conv_stage2_block2_branch2b
I0609 18:05:03.709184 13390 net.cpp:122] Setting up conv_stage2_block2_branch2b
I0609 18:05:03.709195 13390 net.cpp:129] Top shape: 7 128 14 14 (175616)
I0609 18:05:03.709197 13390 net.cpp:137] Memory required for data: 729860124
I0609 18:05:03.709203 13390 layer_factory.hpp:77] Creating layer bn_stage2_block2_branch2b
I0609 18:05:03.709208 13390 net.cpp:84] Creating Layer bn_stage2_block2_branch2b
I0609 18:05:03.709211 13390 net.cpp:406] bn_stage2_block2_branch2b <- conv_stage2_block2_branch2b
I0609 18:05:03.709218 13390 net.cpp:367] bn_stage2_block2_branch2b -> conv_stage2_block2_branch2b (in-place)
I0609 18:05:03.709358 13390 net.cpp:122] Setting up bn_stage2_block2_branch2b
I0609 18:05:03.709363 13390 net.cpp:129] Top shape: 7 128 14 14 (175616)
I0609 18:05:03.709365 13390 net.cpp:137] Memory required for data: 730562588
I0609 18:05:03.709372 13390 layer_factory.hpp:77] Creating layer scale_stage2_block2_branch2b
I0609 18:05:03.709375 13390 net.cpp:84] Creating Layer scale_stage2_block2_branch2b
I0609 18:05:03.709378 13390 net.cpp:406] scale_stage2_block2_branch2b <- conv_stage2_block2_branch2b
I0609 18:05:03.709383 13390 net.cpp:367] scale_stage2_block2_branch2b -> conv_stage2_block2_branch2b (in-place)
I0609 18:05:03.709412 13390 layer_factory.hpp:77] Creating layer scale_stage2_block2_branch2b
I0609 18:05:03.709492 13390 net.cpp:122] Setting up scale_stage2_block2_branch2b
I0609 18:05:03.709497 13390 net.cpp:129] Top shape: 7 128 14 14 (175616)
I0609 18:05:03.709501 13390 net.cpp:137] Memory required for data: 731265052
I0609 18:05:03.709504 13390 layer_factory.hpp:77] Creating layer relu_stage2_block2_branch2b
I0609 18:05:03.709509 13390 net.cpp:84] Creating Layer relu_stage2_block2_branch2b
I0609 18:05:03.709512 13390 net.cpp:406] relu_stage2_block2_branch2b <- conv_stage2_block2_branch2b
I0609 18:05:03.709517 13390 net.cpp:367] relu_stage2_block2_branch2b -> conv_stage2_block2_branch2b (in-place)
I0609 18:05:03.709520 13390 net.cpp:122] Setting up relu_stage2_block2_branch2b
I0609 18:05:03.709524 13390 net.cpp:129] Top shape: 7 128 14 14 (175616)
I0609 18:05:03.709527 13390 net.cpp:137] Memory required for data: 731967516
I0609 18:05:03.709528 13390 layer_factory.hpp:77] Creating layer conv_stage2_block2_branch2c
I0609 18:05:03.709537 13390 net.cpp:84] Creating Layer conv_stage2_block2_branch2c
I0609 18:05:03.709538 13390 net.cpp:406] conv_stage2_block2_branch2c <- conv_stage2_block2_branch2b
I0609 18:05:03.709545 13390 net.cpp:380] conv_stage2_block2_branch2c -> conv_stage2_block2_branch2c
I0609 18:05:03.710461 13390 net.cpp:122] Setting up conv_stage2_block2_branch2c
I0609 18:05:03.710470 13390 net.cpp:129] Top shape: 7 512 14 14 (702464)
I0609 18:05:03.710474 13390 net.cpp:137] Memory required for data: 734777372
I0609 18:05:03.710479 13390 layer_factory.hpp:77] Creating layer bn_stage2_block2_branch2c
I0609 18:05:03.710484 13390 net.cpp:84] Creating Layer bn_stage2_block2_branch2c
I0609 18:05:03.710486 13390 net.cpp:406] bn_stage2_block2_branch2c <- conv_stage2_block2_branch2c
I0609 18:05:03.710492 13390 net.cpp:367] bn_stage2_block2_branch2c -> conv_stage2_block2_branch2c (in-place)
I0609 18:05:03.710636 13390 net.cpp:122] Setting up bn_stage2_block2_branch2c
I0609 18:05:03.710641 13390 net.cpp:129] Top shape: 7 512 14 14 (702464)
I0609 18:05:03.710644 13390 net.cpp:137] Memory required for data: 737587228
I0609 18:05:03.710649 13390 layer_factory.hpp:77] Creating layer scale_stage2_block2_branch2c
I0609 18:05:03.710654 13390 net.cpp:84] Creating Layer scale_stage2_block2_branch2c
I0609 18:05:03.710656 13390 net.cpp:406] scale_stage2_block2_branch2c <- conv_stage2_block2_branch2c
I0609 18:05:03.710661 13390 net.cpp:367] scale_stage2_block2_branch2c -> conv_stage2_block2_branch2c (in-place)
I0609 18:05:03.710688 13390 layer_factory.hpp:77] Creating layer scale_stage2_block2_branch2c
I0609 18:05:03.710772 13390 net.cpp:122] Setting up scale_stage2_block2_branch2c
I0609 18:05:03.710785 13390 net.cpp:129] Top shape: 7 512 14 14 (702464)
I0609 18:05:03.710788 13390 net.cpp:137] Memory required for data: 740397084
I0609 18:05:03.710793 13390 layer_factory.hpp:77] Creating layer eltwise_stage2_block2
I0609 18:05:03.710798 13390 net.cpp:84] Creating Layer eltwise_stage2_block2
I0609 18:05:03.710801 13390 net.cpp:406] eltwise_stage2_block2 <- eltwise_stage2_block1_relu_stage2_block1_0_split_1
I0609 18:05:03.710805 13390 net.cpp:406] eltwise_stage2_block2 <- conv_stage2_block2_branch2c
I0609 18:05:03.710809 13390 net.cpp:380] eltwise_stage2_block2 -> eltwise_stage2_block2
I0609 18:05:03.710829 13390 net.cpp:122] Setting up eltwise_stage2_block2
I0609 18:05:03.710834 13390 net.cpp:129] Top shape: 7 512 14 14 (702464)
I0609 18:05:03.710836 13390 net.cpp:137] Memory required for data: 743206940
I0609 18:05:03.710839 13390 layer_factory.hpp:77] Creating layer relu_stage2_block2
I0609 18:05:03.710844 13390 net.cpp:84] Creating Layer relu_stage2_block2
I0609 18:05:03.710847 13390 net.cpp:406] relu_stage2_block2 <- eltwise_stage2_block2
I0609 18:05:03.710850 13390 net.cpp:367] relu_stage2_block2 -> eltwise_stage2_block2 (in-place)
I0609 18:05:03.710855 13390 net.cpp:122] Setting up relu_stage2_block2
I0609 18:05:03.710858 13390 net.cpp:129] Top shape: 7 512 14 14 (702464)
I0609 18:05:03.710861 13390 net.cpp:137] Memory required for data: 746016796
I0609 18:05:03.710863 13390 layer_factory.hpp:77] Creating layer eltwise_stage2_block2_relu_stage2_block2_0_split
I0609 18:05:03.710867 13390 net.cpp:84] Creating Layer eltwise_stage2_block2_relu_stage2_block2_0_split
I0609 18:05:03.710870 13390 net.cpp:406] eltwise_stage2_block2_relu_stage2_block2_0_split <- eltwise_stage2_block2
I0609 18:05:03.710875 13390 net.cpp:380] eltwise_stage2_block2_relu_stage2_block2_0_split -> eltwise_stage2_block2_relu_stage2_block2_0_split_0
I0609 18:05:03.710880 13390 net.cpp:380] eltwise_stage2_block2_relu_stage2_block2_0_split -> eltwise_stage2_block2_relu_stage2_block2_0_split_1
I0609 18:05:03.710906 13390 net.cpp:122] Setting up eltwise_stage2_block2_relu_stage2_block2_0_split
I0609 18:05:03.710911 13390 net.cpp:129] Top shape: 7 512 14 14 (702464)
I0609 18:05:03.710914 13390 net.cpp:129] Top shape: 7 512 14 14 (702464)
I0609 18:05:03.710916 13390 net.cpp:137] Memory required for data: 751636508
I0609 18:05:03.710919 13390 layer_factory.hpp:77] Creating layer conv_stage2_block3_branch2a
I0609 18:05:03.710925 13390 net.cpp:84] Creating Layer conv_stage2_block3_branch2a
I0609 18:05:03.710928 13390 net.cpp:406] conv_stage2_block3_branch2a <- eltwise_stage2_block2_relu_stage2_block2_0_split_0
I0609 18:05:03.710934 13390 net.cpp:380] conv_stage2_block3_branch2a -> conv_stage2_block3_branch2a
I0609 18:05:03.711410 13390 net.cpp:122] Setting up conv_stage2_block3_branch2a
I0609 18:05:03.711416 13390 net.cpp:129] Top shape: 7 128 14 14 (175616)
I0609 18:05:03.711417 13390 net.cpp:137] Memory required for data: 752338972
I0609 18:05:03.711422 13390 layer_factory.hpp:77] Creating layer bn_stage2_block3_branch2a
I0609 18:05:03.711427 13390 net.cpp:84] Creating Layer bn_stage2_block3_branch2a
I0609 18:05:03.711431 13390 net.cpp:406] bn_stage2_block3_branch2a <- conv_stage2_block3_branch2a
I0609 18:05:03.711437 13390 net.cpp:367] bn_stage2_block3_branch2a -> conv_stage2_block3_branch2a (in-place)
I0609 18:05:03.711575 13390 net.cpp:122] Setting up bn_stage2_block3_branch2a
I0609 18:05:03.711580 13390 net.cpp:129] Top shape: 7 128 14 14 (175616)
I0609 18:05:03.711582 13390 net.cpp:137] Memory required for data: 753041436
I0609 18:05:03.711587 13390 layer_factory.hpp:77] Creating layer scale_stage2_block3_branch2a
I0609 18:05:03.711592 13390 net.cpp:84] Creating Layer scale_stage2_block3_branch2a
I0609 18:05:03.711594 13390 net.cpp:406] scale_stage2_block3_branch2a <- conv_stage2_block3_branch2a
I0609 18:05:03.711599 13390 net.cpp:367] scale_stage2_block3_branch2a -> conv_stage2_block3_branch2a (in-place)
I0609 18:05:03.711627 13390 layer_factory.hpp:77] Creating layer scale_stage2_block3_branch2a
I0609 18:05:03.711716 13390 net.cpp:122] Setting up scale_stage2_block3_branch2a
I0609 18:05:03.711722 13390 net.cpp:129] Top shape: 7 128 14 14 (175616)
I0609 18:05:03.715775 13390 net.cpp:137] Memory required for data: 753743900
I0609 18:05:03.715788 13390 layer_factory.hpp:77] Creating layer relu_stage2_block3_branch2a
I0609 18:05:03.715796 13390 net.cpp:84] Creating Layer relu_stage2_block3_branch2a
I0609 18:05:03.715801 13390 net.cpp:406] relu_stage2_block3_branch2a <- conv_stage2_block3_branch2a
I0609 18:05:03.715808 13390 net.cpp:367] relu_stage2_block3_branch2a -> conv_stage2_block3_branch2a (in-place)
I0609 18:05:03.715817 13390 net.cpp:122] Setting up relu_stage2_block3_branch2a
I0609 18:05:03.715822 13390 net.cpp:129] Top shape: 7 128 14 14 (175616)
I0609 18:05:03.715826 13390 net.cpp:137] Memory required for data: 754446364
I0609 18:05:03.715831 13390 layer_factory.hpp:77] Creating layer conv_stage2_block3_branch2b
I0609 18:05:03.715845 13390 net.cpp:84] Creating Layer conv_stage2_block3_branch2b
I0609 18:05:03.715849 13390 net.cpp:406] conv_stage2_block3_branch2b <- conv_stage2_block3_branch2a
I0609 18:05:03.715859 13390 net.cpp:380] conv_stage2_block3_branch2b -> conv_stage2_block3_branch2b
I0609 18:05:03.717274 13390 net.cpp:122] Setting up conv_stage2_block3_branch2b
I0609 18:05:03.717285 13390 net.cpp:129] Top shape: 7 128 14 14 (175616)
I0609 18:05:03.717288 13390 net.cpp:137] Memory required for data: 755148828
I0609 18:05:03.717294 13390 layer_factory.hpp:77] Creating layer bn_stage2_block3_branch2b
I0609 18:05:03.717303 13390 net.cpp:84] Creating Layer bn_stage2_block3_branch2b
I0609 18:05:03.717305 13390 net.cpp:406] bn_stage2_block3_branch2b <- conv_stage2_block3_branch2b
I0609 18:05:03.717310 13390 net.cpp:367] bn_stage2_block3_branch2b -> conv_stage2_block3_branch2b (in-place)
I0609 18:05:03.717459 13390 net.cpp:122] Setting up bn_stage2_block3_branch2b
I0609 18:05:03.717464 13390 net.cpp:129] Top shape: 7 128 14 14 (175616)
I0609 18:05:03.717468 13390 net.cpp:137] Memory required for data: 755851292
I0609 18:05:03.717473 13390 layer_factory.hpp:77] Creating layer scale_stage2_block3_branch2b
I0609 18:05:03.717478 13390 net.cpp:84] Creating Layer scale_stage2_block3_branch2b
I0609 18:05:03.717480 13390 net.cpp:406] scale_stage2_block3_branch2b <- conv_stage2_block3_branch2b
I0609 18:05:03.717485 13390 net.cpp:367] scale_stage2_block3_branch2b -> conv_stage2_block3_branch2b (in-place)
I0609 18:05:03.717519 13390 layer_factory.hpp:77] Creating layer scale_stage2_block3_branch2b
I0609 18:05:03.717602 13390 net.cpp:122] Setting up scale_stage2_block3_branch2b
I0609 18:05:03.717607 13390 net.cpp:129] Top shape: 7 128 14 14 (175616)
I0609 18:05:03.717609 13390 net.cpp:137] Memory required for data: 756553756
I0609 18:05:03.717614 13390 layer_factory.hpp:77] Creating layer relu_stage2_block3_branch2b
I0609 18:05:03.717618 13390 net.cpp:84] Creating Layer relu_stage2_block3_branch2b
I0609 18:05:03.717622 13390 net.cpp:406] relu_stage2_block3_branch2b <- conv_stage2_block3_branch2b
I0609 18:05:03.717629 13390 net.cpp:367] relu_stage2_block3_branch2b -> conv_stage2_block3_branch2b (in-place)
I0609 18:05:03.717634 13390 net.cpp:122] Setting up relu_stage2_block3_branch2b
I0609 18:05:03.717638 13390 net.cpp:129] Top shape: 7 128 14 14 (175616)
I0609 18:05:03.717639 13390 net.cpp:137] Memory required for data: 757256220
I0609 18:05:03.717643 13390 layer_factory.hpp:77] Creating layer conv_stage2_block3_branch2c
I0609 18:05:03.717650 13390 net.cpp:84] Creating Layer conv_stage2_block3_branch2c
I0609 18:05:03.717653 13390 net.cpp:406] conv_stage2_block3_branch2c <- conv_stage2_block3_branch2b
I0609 18:05:03.717658 13390 net.cpp:380] conv_stage2_block3_branch2c -> conv_stage2_block3_branch2c
I0609 18:05:03.718147 13390 net.cpp:122] Setting up conv_stage2_block3_branch2c
I0609 18:05:03.718152 13390 net.cpp:129] Top shape: 7 512 14 14 (702464)
I0609 18:05:03.718154 13390 net.cpp:137] Memory required for data: 760066076
I0609 18:05:03.718159 13390 layer_factory.hpp:77] Creating layer bn_stage2_block3_branch2c
I0609 18:05:03.718176 13390 net.cpp:84] Creating Layer bn_stage2_block3_branch2c
I0609 18:05:03.718179 13390 net.cpp:406] bn_stage2_block3_branch2c <- conv_stage2_block3_branch2c
I0609 18:05:03.718185 13390 net.cpp:367] bn_stage2_block3_branch2c -> conv_stage2_block3_branch2c (in-place)
I0609 18:05:03.718370 13390 net.cpp:122] Setting up bn_stage2_block3_branch2c
I0609 18:05:03.718377 13390 net.cpp:129] Top shape: 7 512 14 14 (702464)
I0609 18:05:03.718379 13390 net.cpp:137] Memory required for data: 762875932
I0609 18:05:03.718406 13390 layer_factory.hpp:77] Creating layer scale_stage2_block3_branch2c
I0609 18:05:03.718412 13390 net.cpp:84] Creating Layer scale_stage2_block3_branch2c
I0609 18:05:03.718415 13390 net.cpp:406] scale_stage2_block3_branch2c <- conv_stage2_block3_branch2c
I0609 18:05:03.718420 13390 net.cpp:367] scale_stage2_block3_branch2c -> conv_stage2_block3_branch2c (in-place)
I0609 18:05:03.718456 13390 layer_factory.hpp:77] Creating layer scale_stage2_block3_branch2c
I0609 18:05:03.718554 13390 net.cpp:122] Setting up scale_stage2_block3_branch2c
I0609 18:05:03.718560 13390 net.cpp:129] Top shape: 7 512 14 14 (702464)
I0609 18:05:03.718562 13390 net.cpp:137] Memory required for data: 765685788
I0609 18:05:03.718567 13390 layer_factory.hpp:77] Creating layer eltwise_stage2_block3
I0609 18:05:03.718575 13390 net.cpp:84] Creating Layer eltwise_stage2_block3
I0609 18:05:03.718578 13390 net.cpp:406] eltwise_stage2_block3 <- eltwise_stage2_block2_relu_stage2_block2_0_split_1
I0609 18:05:03.718582 13390 net.cpp:406] eltwise_stage2_block3 <- conv_stage2_block3_branch2c
I0609 18:05:03.718587 13390 net.cpp:380] eltwise_stage2_block3 -> eltwise_stage2_block3
I0609 18:05:03.718610 13390 net.cpp:122] Setting up eltwise_stage2_block3
I0609 18:05:03.718614 13390 net.cpp:129] Top shape: 7 512 14 14 (702464)
I0609 18:05:03.718617 13390 net.cpp:137] Memory required for data: 768495644
I0609 18:05:03.718619 13390 layer_factory.hpp:77] Creating layer relu_stage2_block3
I0609 18:05:03.718624 13390 net.cpp:84] Creating Layer relu_stage2_block3
I0609 18:05:03.718627 13390 net.cpp:406] relu_stage2_block3 <- eltwise_stage2_block3
I0609 18:05:03.718632 13390 net.cpp:367] relu_stage2_block3 -> eltwise_stage2_block3 (in-place)
I0609 18:05:03.718637 13390 net.cpp:122] Setting up relu_stage2_block3
I0609 18:05:03.718641 13390 net.cpp:129] Top shape: 7 512 14 14 (702464)
I0609 18:05:03.718644 13390 net.cpp:137] Memory required for data: 771305500
I0609 18:05:03.718647 13390 layer_factory.hpp:77] Creating layer eltwise_stage2_block3_relu_stage2_block3_0_split
I0609 18:05:03.718652 13390 net.cpp:84] Creating Layer eltwise_stage2_block3_relu_stage2_block3_0_split
I0609 18:05:03.718654 13390 net.cpp:406] eltwise_stage2_block3_relu_stage2_block3_0_split <- eltwise_stage2_block3
I0609 18:05:03.718659 13390 net.cpp:380] eltwise_stage2_block3_relu_stage2_block3_0_split -> eltwise_stage2_block3_relu_stage2_block3_0_split_0
I0609 18:05:03.718665 13390 net.cpp:380] eltwise_stage2_block3_relu_stage2_block3_0_split -> eltwise_stage2_block3_relu_stage2_block3_0_split_1
I0609 18:05:03.718695 13390 net.cpp:122] Setting up eltwise_stage2_block3_relu_stage2_block3_0_split
I0609 18:05:03.718699 13390 net.cpp:129] Top shape: 7 512 14 14 (702464)
I0609 18:05:03.718703 13390 net.cpp:129] Top shape: 7 512 14 14 (702464)
I0609 18:05:03.718706 13390 net.cpp:137] Memory required for data: 776925212
I0609 18:05:03.718708 13390 layer_factory.hpp:77] Creating layer conv_stage2_block4_branch2a
I0609 18:05:03.718717 13390 net.cpp:84] Creating Layer conv_stage2_block4_branch2a
I0609 18:05:03.718720 13390 net.cpp:406] conv_stage2_block4_branch2a <- eltwise_stage2_block3_relu_stage2_block3_0_split_0
I0609 18:05:03.718726 13390 net.cpp:380] conv_stage2_block4_branch2a -> conv_stage2_block4_branch2a
I0609 18:05:03.719257 13390 net.cpp:122] Setting up conv_stage2_block4_branch2a
I0609 18:05:03.719264 13390 net.cpp:129] Top shape: 7 128 14 14 (175616)
I0609 18:05:03.719266 13390 net.cpp:137] Memory required for data: 777627676
I0609 18:05:03.719271 13390 layer_factory.hpp:77] Creating layer bn_stage2_block4_branch2a
I0609 18:05:03.719287 13390 net.cpp:84] Creating Layer bn_stage2_block4_branch2a
I0609 18:05:03.719290 13390 net.cpp:406] bn_stage2_block4_branch2a <- conv_stage2_block4_branch2a
I0609 18:05:03.719295 13390 net.cpp:367] bn_stage2_block4_branch2a -> conv_stage2_block4_branch2a (in-place)
I0609 18:05:03.719453 13390 net.cpp:122] Setting up bn_stage2_block4_branch2a
I0609 18:05:03.719458 13390 net.cpp:129] Top shape: 7 128 14 14 (175616)
I0609 18:05:03.719460 13390 net.cpp:137] Memory required for data: 778330140
I0609 18:05:03.719466 13390 layer_factory.hpp:77] Creating layer scale_stage2_block4_branch2a
I0609 18:05:03.719473 13390 net.cpp:84] Creating Layer scale_stage2_block4_branch2a
I0609 18:05:03.719476 13390 net.cpp:406] scale_stage2_block4_branch2a <- conv_stage2_block4_branch2a
I0609 18:05:03.719480 13390 net.cpp:367] scale_stage2_block4_branch2a -> conv_stage2_block4_branch2a (in-place)
I0609 18:05:03.719513 13390 layer_factory.hpp:77] Creating layer scale_stage2_block4_branch2a
I0609 18:05:03.719604 13390 net.cpp:122] Setting up scale_stage2_block4_branch2a
I0609 18:05:03.719609 13390 net.cpp:129] Top shape: 7 128 14 14 (175616)
I0609 18:05:03.719611 13390 net.cpp:137] Memory required for data: 779032604
I0609 18:05:03.719616 13390 layer_factory.hpp:77] Creating layer relu_stage2_block4_branch2a
I0609 18:05:03.719621 13390 net.cpp:84] Creating Layer relu_stage2_block4_branch2a
I0609 18:05:03.719624 13390 net.cpp:406] relu_stage2_block4_branch2a <- conv_stage2_block4_branch2a
I0609 18:05:03.719630 13390 net.cpp:367] relu_stage2_block4_branch2a -> conv_stage2_block4_branch2a (in-place)
I0609 18:05:03.719635 13390 net.cpp:122] Setting up relu_stage2_block4_branch2a
I0609 18:05:03.719637 13390 net.cpp:129] Top shape: 7 128 14 14 (175616)
I0609 18:05:03.719640 13390 net.cpp:137] Memory required for data: 779735068
I0609 18:05:03.719642 13390 layer_factory.hpp:77] Creating layer conv_stage2_block4_branch2b
I0609 18:05:03.719651 13390 net.cpp:84] Creating Layer conv_stage2_block4_branch2b
I0609 18:05:03.719655 13390 net.cpp:406] conv_stage2_block4_branch2b <- conv_stage2_block4_branch2a
I0609 18:05:03.719660 13390 net.cpp:380] conv_stage2_block4_branch2b -> conv_stage2_block4_branch2b
I0609 18:05:03.721102 13390 net.cpp:122] Setting up conv_stage2_block4_branch2b
I0609 18:05:03.721112 13390 net.cpp:129] Top shape: 7 128 14 14 (175616)
I0609 18:05:03.721115 13390 net.cpp:137] Memory required for data: 780437532
I0609 18:05:03.721122 13390 layer_factory.hpp:77] Creating layer bn_stage2_block4_branch2b
I0609 18:05:03.721128 13390 net.cpp:84] Creating Layer bn_stage2_block4_branch2b
I0609 18:05:03.721132 13390 net.cpp:406] bn_stage2_block4_branch2b <- conv_stage2_block4_branch2b
I0609 18:05:03.721138 13390 net.cpp:367] bn_stage2_block4_branch2b -> conv_stage2_block4_branch2b (in-place)
I0609 18:05:03.721300 13390 net.cpp:122] Setting up bn_stage2_block4_branch2b
I0609 18:05:03.721305 13390 net.cpp:129] Top shape: 7 128 14 14 (175616)
I0609 18:05:03.721307 13390 net.cpp:137] Memory required for data: 781139996
I0609 18:05:03.721313 13390 layer_factory.hpp:77] Creating layer scale_stage2_block4_branch2b
I0609 18:05:03.721319 13390 net.cpp:84] Creating Layer scale_stage2_block4_branch2b
I0609 18:05:03.721323 13390 net.cpp:406] scale_stage2_block4_branch2b <- conv_stage2_block4_branch2b
I0609 18:05:03.721326 13390 net.cpp:367] scale_stage2_block4_branch2b -> conv_stage2_block4_branch2b (in-place)
I0609 18:05:03.721360 13390 layer_factory.hpp:77] Creating layer scale_stage2_block4_branch2b
I0609 18:05:03.721454 13390 net.cpp:122] Setting up scale_stage2_block4_branch2b
I0609 18:05:03.721460 13390 net.cpp:129] Top shape: 7 128 14 14 (175616)
I0609 18:05:03.721463 13390 net.cpp:137] Memory required for data: 781842460
I0609 18:05:03.721468 13390 layer_factory.hpp:77] Creating layer relu_stage2_block4_branch2b
I0609 18:05:03.721473 13390 net.cpp:84] Creating Layer relu_stage2_block4_branch2b
I0609 18:05:03.721477 13390 net.cpp:406] relu_stage2_block4_branch2b <- conv_stage2_block4_branch2b
I0609 18:05:03.721490 13390 net.cpp:367] relu_stage2_block4_branch2b -> conv_stage2_block4_branch2b (in-place)
I0609 18:05:03.721495 13390 net.cpp:122] Setting up relu_stage2_block4_branch2b
I0609 18:05:03.721499 13390 net.cpp:129] Top shape: 7 128 14 14 (175616)
I0609 18:05:03.721503 13390 net.cpp:137] Memory required for data: 782544924
I0609 18:05:03.721505 13390 layer_factory.hpp:77] Creating layer conv_stage2_block4_branch2c
I0609 18:05:03.721514 13390 net.cpp:84] Creating Layer conv_stage2_block4_branch2c
I0609 18:05:03.721516 13390 net.cpp:406] conv_stage2_block4_branch2c <- conv_stage2_block4_branch2b
I0609 18:05:03.721524 13390 net.cpp:380] conv_stage2_block4_branch2c -> conv_stage2_block4_branch2c
I0609 18:05:03.722534 13390 net.cpp:122] Setting up conv_stage2_block4_branch2c
I0609 18:05:03.722545 13390 net.cpp:129] Top shape: 7 512 14 14 (702464)
I0609 18:05:03.722548 13390 net.cpp:137] Memory required for data: 785354780
I0609 18:05:03.722554 13390 layer_factory.hpp:77] Creating layer bn_stage2_block4_branch2c
I0609 18:05:03.722560 13390 net.cpp:84] Creating Layer bn_stage2_block4_branch2c
I0609 18:05:03.722564 13390 net.cpp:406] bn_stage2_block4_branch2c <- conv_stage2_block4_branch2c
I0609 18:05:03.722570 13390 net.cpp:367] bn_stage2_block4_branch2c -> conv_stage2_block4_branch2c (in-place)
I0609 18:05:03.722735 13390 net.cpp:122] Setting up bn_stage2_block4_branch2c
I0609 18:05:03.722740 13390 net.cpp:129] Top shape: 7 512 14 14 (702464)
I0609 18:05:03.722743 13390 net.cpp:137] Memory required for data: 788164636
I0609 18:05:03.722749 13390 layer_factory.hpp:77] Creating layer scale_stage2_block4_branch2c
I0609 18:05:03.722754 13390 net.cpp:84] Creating Layer scale_stage2_block4_branch2c
I0609 18:05:03.722757 13390 net.cpp:406] scale_stage2_block4_branch2c <- conv_stage2_block4_branch2c
I0609 18:05:03.722764 13390 net.cpp:367] scale_stage2_block4_branch2c -> conv_stage2_block4_branch2c (in-place)
I0609 18:05:03.722795 13390 layer_factory.hpp:77] Creating layer scale_stage2_block4_branch2c
I0609 18:05:03.722889 13390 net.cpp:122] Setting up scale_stage2_block4_branch2c
I0609 18:05:03.722895 13390 net.cpp:129] Top shape: 7 512 14 14 (702464)
I0609 18:05:03.722898 13390 net.cpp:137] Memory required for data: 790974492
I0609 18:05:03.722903 13390 layer_factory.hpp:77] Creating layer eltwise_stage2_block4
I0609 18:05:03.722908 13390 net.cpp:84] Creating Layer eltwise_stage2_block4
I0609 18:05:03.722913 13390 net.cpp:406] eltwise_stage2_block4 <- eltwise_stage2_block3_relu_stage2_block3_0_split_1
I0609 18:05:03.722916 13390 net.cpp:406] eltwise_stage2_block4 <- conv_stage2_block4_branch2c
I0609 18:05:03.722921 13390 net.cpp:380] eltwise_stage2_block4 -> eltwise_stage2_block4
I0609 18:05:03.722942 13390 net.cpp:122] Setting up eltwise_stage2_block4
I0609 18:05:03.722947 13390 net.cpp:129] Top shape: 7 512 14 14 (702464)
I0609 18:05:03.722950 13390 net.cpp:137] Memory required for data: 793784348
I0609 18:05:03.722952 13390 layer_factory.hpp:77] Creating layer relu_stage2_block4
I0609 18:05:03.722959 13390 net.cpp:84] Creating Layer relu_stage2_block4
I0609 18:05:03.722961 13390 net.cpp:406] relu_stage2_block4 <- eltwise_stage2_block4
I0609 18:05:03.722965 13390 net.cpp:367] relu_stage2_block4 -> eltwise_stage2_block4 (in-place)
I0609 18:05:03.722970 13390 net.cpp:122] Setting up relu_stage2_block4
I0609 18:05:03.722975 13390 net.cpp:129] Top shape: 7 512 14 14 (702464)
I0609 18:05:03.722976 13390 net.cpp:137] Memory required for data: 796594204
I0609 18:05:03.722980 13390 layer_factory.hpp:77] Creating layer eltwise_stage2_block4_relu_stage2_block4_0_split
…
I0609 18:05:03.967164 13390 layer_factory.hpp:77] Creating layer eltwise_stage2_block3_relu_stage2_block3_0_split
I0609 18:05:03.967167 13390 net.cpp:84] Creating Layer eltwise_stage2_block3_relu_stage2_block3_0_split
I0609 18:05:03.967170 13390 net.cpp:406] eltwise_stage2_block3_relu_stage2_block3_0_split <- eltwise_stage2_block3
I0609 18:05:03.967175 13390 net.cpp:380] eltwise_stage2_block3_relu_stage2_block3_0_split -> eltwise_stage2_block3_relu_stage2_block3_0_split_0
I0609 18:05:03.967180 13390 net.cpp:380] eltwise_stage2_block3_relu_stage2_block3_0_split -> eltwise_stage2_block3_relu_stage2_block3_0_split_1
I0609 18:05:03.967209 13390 net.cpp:122] Setting up eltwise_stage2_block3_relu_stage2_block3_0_split
I0609 18:05:03.967214 13390 net.cpp:129] Top shape: 7 512 14 14 (702464)
I0609 18:05:03.967217 13390 net.cpp:129] Top shape: 7 512 14 14 (702464)
I0609 18:05:03.967219 13390 net.cpp:137] Memory required for data: 776925268
I0609 18:05:03.967222 13390 layer_factory.hpp:77] Creating layer conv_stage2_block4_branch2a
I0609 18:05:03.967231 13390 net.cpp:84] Creating Layer conv_stage2_block4_branch2a
I0609 18:05:03.967233 13390 net.cpp:406] conv_stage2_block4_branch2a <- eltwise_stage2_block3_relu_stage2_block3_0_split_0
I0609 18:05:03.967238 13390 net.cpp:380] conv_stage2_block4_branch2a -> conv_stage2_block4_branch2a
I0609 18:05:03.967741 13390 net.cpp:122] Setting up conv_stage2_block4_branch2a
I0609 18:05:03.967746 13390 net.cpp:129] Top shape: 7 128 14 14 (175616)
I0609 18:05:03.967749 13390 net.cpp:137] Memory required for data: 777627732
I0609 18:05:03.967754 13390 layer_factory.hpp:77] Creating layer bn_stage2_block4_branch2a
I0609 18:05:03.967759 13390 net.cpp:84] Creating Layer bn_stage2_block4_branch2a
I0609 18:05:03.967761 13390 net.cpp:406] bn_stage2_block4_branch2a <- conv_stage2_block4_branch2a
I0609 18:05:03.967767 13390 net.cpp:367] bn_stage2_block4_branch2a -> conv_stage2_block4_branch2a (in-place)
I0609 18:05:03.967978 13390 net.cpp:122] Setting up bn_stage2_block4_branch2a
I0609 18:05:03.967986 13390 net.cpp:129] Top shape: 7 128 14 14 (175616)
I0609 18:05:03.967990 13390 net.cpp:137] Memory required for data: 778330196
I0609 18:05:03.967999 13390 layer_factory.hpp:77] Creating layer scale_stage2_block4_branch2a
I0609 18:05:03.968008 13390 net.cpp:84] Creating Layer scale_stage2_block4_branch2a
I0609 18:05:03.968011 13390 net.cpp:406] scale_stage2_block4_branch2a <- conv_stage2_block4_branch2a
I0609 18:05:03.968019 13390 net.cpp:367] scale_stage2_block4_branch2a -> conv_stage2_block4_branch2a (in-place)
I0609 18:05:03.968067 13390 layer_factory.hpp:77] Creating layer scale_stage2_block4_branch2a
I0609 18:05:03.968197 13390 net.cpp:122] Setting up scale_stage2_block4_branch2a
I0609 18:05:03.968205 13390 net.cpp:129] Top shape: 7 128 14 14 (175616)
I0609 18:05:03.968209 13390 net.cpp:137] Memory required for data: 779032660
I0609 18:05:03.968216 13390 layer_factory.hpp:77] Creating layer relu_stage2_block4_branch2a
I0609 18:05:03.968225 13390 net.cpp:84] Creating Layer relu_stage2_block4_branch2a
I0609 18:05:03.968230 13390 net.cpp:406] relu_stage2_block4_branch2a <- conv_stage2_block4_branch2a
I0609 18:05:03.968236 13390 net.cpp:367] relu_stage2_block4_branch2a -> conv_stage2_block4_branch2a (in-place)
I0609 18:05:03.968243 13390 net.cpp:122] Setting up relu_stage2_block4_branch2a
I0609 18:05:03.968250 13390 net.cpp:129] Top shape: 7 128 14 14 (175616)
I0609 18:05:03.968262 13390 net.cpp:137] Memory required for data: 779735124
I0609 18:05:03.968266 13390 layer_factory.hpp:77] Creating layer conv_stage2_block4_branch2b
I0609 18:05:03.968281 13390 net.cpp:84] Creating Layer conv_stage2_block4_branch2b
I0609 18:05:03.968284 13390 net.cpp:406] conv_stage2_block4_branch2b <- conv_stage2_block4_branch2a
I0609 18:05:03.968294 13390 net.cpp:380] conv_stage2_block4_branch2b -> conv_stage2_block4_branch2b
I0609 18:05:03.969849 13390 net.cpp:122] Setting up conv_stage2_block4_branch2b
I0609 18:05:03.969862 13390 net.cpp:129] Top shape: 7 128 14 14 (175616)
I0609 18:05:03.969867 13390 net.cpp:137] Memory required for data: 780437588
I0609 18:05:03.969875 13390 layer_factory.hpp:77] Creating layer bn_stage2_block4_branch2b
I0609 18:05:03.969884 13390 net.cpp:84] Creating Layer bn_stage2_block4_branch2b
I0609 18:05:03.969889 13390 net.cpp:406] bn_stage2_block4_branch2b <- conv_stage2_block4_branch2b
I0609 18:05:03.969898 13390 net.cpp:367] bn_stage2_block4_branch2b -> conv_stage2_block4_branch2b (in-place)
I0609 18:05:03.970126 13390 net.cpp:122] Setting up bn_stage2_block4_branch2b
I0609 18:05:03.970134 13390 net.cpp:129] Top shape: 7 128 14 14 (175616)
I0609 18:05:03.970139 13390 net.cpp:137] Memory required for data: 781140052
I0609 18:05:03.970149 13390 layer_factory.hpp:77] Creating layer scale_stage2_block4_branch2b
I0609 18:05:03.970156 13390 net.cpp:84] Creating Layer scale_stage2_block4_branch2b
I0609 18:05:03.970160 13390 net.cpp:406] scale_stage2_block4_branch2b <- conv_stage2_block4_branch2b
I0609 18:05:03.970170 13390 net.cpp:367] scale_stage2_block4_branch2b -> conv_stage2_block4_branch2b (in-place)
I0609 18:05:03.970217 13390 layer_factory.hpp:77] Creating layer scale_stage2_block4_branch2b
I0609 18:05:03.970362 13390 net.cpp:122] Setting up scale_stage2_block4_branch2b
I0609 18:05:03.970374 13390 net.cpp:129] Top shape: 7 128 14 14 (175616)
I0609 18:05:03.970378 13390 net.cpp:137] Memory required for data: 781842516
I0609 18:05:03.970386 13390 layer_factory.hpp:77] Creating layer relu_stage2_block4_branch2b
I0609 18:05:03.970393 13390 net.cpp:84] Creating Layer relu_stage2_block4_branch2b
I0609 18:05:03.970398 13390 net.cpp:406] relu_stage2_block4_branch2b <- conv_stage2_block4_branch2b
I0609 18:05:03.970405 13390 net.cpp:367] relu_stage2_block4_branch2b -> conv_stage2_block4_branch2b (in-place)
I0609 18:05:03.970413 13390 net.cpp:122] Setting up relu_stage2_block4_branch2b
I0609 18:05:03.970419 13390 net.cpp:129] Top shape: 7 128 14 14 (175616)
I0609 18:05:03.970423 13390 net.cpp:137] Memory required for data: 782544980
I0609 18:05:03.970427 13390 layer_factory.hpp:77] Creating layer conv_stage2_block4_branch2c
I0609 18:05:03.970439 13390 net.cpp:84] Creating Layer conv_stage2_block4_branch2c
I0609 18:05:03.970444 13390 net.cpp:406] conv_stage2_block4_branch2c <- conv_stage2_block4_branch2b
I0609 18:05:03.970454 13390 net.cpp:380] conv_stage2_block4_branch2c -> conv_stage2_block4_branch2c
I0609 18:05:03.971349 13390 net.cpp:122] Setting up conv_stage2_block4_branch2c
I0609 18:05:03.971359 13390 net.cpp:129] Top shape: 7 512 14 14 (702464)
I0609 18:05:03.971364 13390 net.cpp:137] Memory required for data: 785354836
I0609 18:05:03.971374 13390 layer_factory.hpp:77] Creating layer bn_stage2_block4_branch2c
I0609 18:05:03.971384 13390 net.cpp:84] Creating Layer bn_stage2_block4_branch2c
I0609 18:05:03.971388 13390 net.cpp:406] bn_stage2_block4_branch2c <- conv_stage2_block4_branch2c
I0609 18:05:03.971397 13390 net.cpp:367] bn_stage2_block4_branch2c -> conv_stage2_block4_branch2c (in-place)
I0609 18:05:03.971628 13390 net.cpp:122] Setting up bn_stage2_block4_branch2c
I0609 18:05:03.971635 13390 net.cpp:129] Top shape: 7 512 14 14 (702464)
I0609 18:05:03.971639 13390 net.cpp:137] Memory required for data: 788164692
I0609 18:05:03.971648 13390 layer_factory.hpp:77] Creating layer scale_stage2_block4_branch2c
I0609 18:05:03.971662 13390 net.cpp:84] Creating Layer scale_stage2_block4_branch2c
I0609 18:05:03.971668 13390 net.cpp:406] scale_stage2_block4_branch2c <- conv_stage2_block4_branch2c
I0609 18:05:03.971683 13390 net.cpp:367] scale_stage2_block4_branch2c -> conv_stage2_block4_branch2c (in-place)
I0609 18:05:03.971719 13390 layer_factory.hpp:77] Creating layer scale_stage2_block4_branch2c
I0609 18:05:03.971815 13390 net.cpp:122] Setting up scale_stage2_block4_branch2c
I0609 18:05:03.971820 13390 net.cpp:129] Top shape: 7 512 14 14 (702464)
I0609 18:05:03.971822 13390 net.cpp:137] Memory required for data: 790974548
I0609 18:05:03.971827 13390 layer_factory.hpp:77] Creating layer eltwise_stage2_block4
I0609 18:05:03.971835 13390 net.cpp:84] Creating Layer eltwise_stage2_block4
I0609 18:05:03.971838 13390 net.cpp:406] eltwise_stage2_block4 <- eltwise_stage2_block3_relu_stage2_block3_0_split_1
I0609 18:05:03.971843 13390 net.cpp:406] eltwise_stage2_block4 <- conv_stage2_block4_branch2c
I0609 18:05:03.971846 13390 net.cpp:380] eltwise_stage2_block4 -> eltwise_stage2_block4
I0609 18:05:03.971868 13390 net.cpp:122] Setting up eltwise_stage2_block4
I0609 18:05:03.971871 13390 net.cpp:129] Top shape: 7 512 14 14 (702464)
I0609 18:05:03.971873 13390 net.cpp:137] Memory required for data: 793784404
I0609 18:05:03.971876 13390 layer_factory.hpp:77] Creating layer relu_stage2_block4
I0609 18:05:03.971880 13390 net.cpp:84] Creating Layer relu_stage2_block4
I0609 18:05:03.971884 13390 net.cpp:406] relu_stage2_block4 <- eltwise_stage2_block4
I0609 18:05:03.971889 13390 net.cpp:367] relu_stage2_block4 -> eltwise_stage2_block4 (in-place)
I0609 18:05:03.971894 13390 net.cpp:122] Setting up relu_stage2_block4
I0609 18:05:03.971896 13390 net.cpp:129] Top shape: 7 512 14 14 (702464)
I0609 18:05:03.971899 13390 net.cpp:137] Memory required for data: 796594260
I0609 18:05:03.971901 13390 layer_factory.hpp:77] Creating layer eltwise_stage2_block4_relu_stage2_block4_0_split
I0609 18:05:03.971905 13390 net.cpp:84] Creating Layer eltwise_stage2_block4_relu_stage2_block4_0_split
I0609 18:05:03.971907 13390 net.cpp:406] eltwise_stage2_block4_relu_stage2_block4_0_split <- eltwise_stage2_block4
I0609 18:05:03.971911 13390 net.cpp:380] eltwise_stage2_block4_relu_stage2_block4_0_split -> eltwise_stage2_block4_relu_stage2_block4_0_split_0
I0609 18:05:03.971917 13390 net.cpp:380] eltwise_stage2_block4_relu_stage2_block4_0_split -> eltwise_stage2_block4_relu_stage2_block4_0_split_1
I0609 18:05:03.971946 13390 net.cpp:122] Setting up eltwise_stage2_block4_relu_stage2_block4_0_split
I0609 18:05:03.971949 13390 net.cpp:129] Top shape: 7 512 14 14 (702464)
I0609 18:05:03.971952 13390 net.cpp:129] Top shape: 7 512 14 14 (702464)
I0609 18:05:03.971956 13390 net.cpp:137] Memory required for data: 802213972
I0609 18:05:03.971957 13390 layer_factory.hpp:77] Creating layer conv_stage2_block5_branch2a
I0609 18:05:03.971966 13390 net.cpp:84] Creating Layer conv_stage2_block5_branch2a
I0609 18:05:03.971968 13390 net.cpp:406] conv_stage2_block5_branch2a <- eltwise_stage2_block4_relu_stage2_block4_0_split_0
I0609 18:05:03.971973 13390 net.cpp:380] conv_stage2_block5_branch2a -> conv_stage2_block5_branch2a
I0609 18:05:03.973083 13390 net.cpp:122] Setting up conv_stage2_block5_branch2a
I0609 18:05:03.973095 13390 net.cpp:129] Top shape: 7 128 14 14 (175616)
I0609 18:05:03.973100 13390 net.cpp:137] Memory required for data: 802916436
I0609 18:05:03.973109 13390 layer_factory.hpp:77] Creating layer bn_stage2_block5_branch2a
I0609 18:05:03.973116 13390 net.cpp:84] Creating Layer bn_stage2_block5_branch2a
I0609 18:05:03.973121 13390 net.cpp:406] bn_stage2_block5_branch2a <- conv_stage2_block5_branch2a
I0609 18:05:03.973131 13390 net.cpp:367] bn_stage2_block5_branch2a -> conv_stage2_block5_branch2a (in-place)
I0609 18:05:03.973364 13390 net.cpp:122] Setting up bn_stage2_block5_branch2a
I0609 18:05:03.973372 13390 net.cpp:129] Top shape: 7 128 14 14 (175616)
I0609 18:05:03.973376 13390 net.cpp:137] Memory required for data: 803618900
I0609 18:05:03.973387 13390 layer_factory.hpp:77] Creating layer scale_stage2_block5_branch2a
I0609 18:05:03.973394 13390 net.cpp:84] Creating Layer scale_stage2_block5_branch2a
I0609 18:05:03.973408 13390 net.cpp:406] scale_stage2_block5_branch2a <- conv_stage2_block5_branch2a
I0609 18:05:03.973419 13390 net.cpp:367] scale_stage2_block5_branch2a -> conv_stage2_block5_branch2a (in-place)
I0609 18:05:03.973470 13390 layer_factory.hpp:77] Creating layer scale_stage2_block5_branch2a
I0609 18:05:03.973601 13390 net.cpp:122] Setting up scale_stage2_block5_branch2a
I0609 18:05:03.973611 13390 net.cpp:129] Top shape: 7 128 14 14 (175616)
I0609 18:05:03.973615 13390 net.cpp:137] Memory required for data: 804321364
I0609 18:05:03.973623 13390 layer_factory.hpp:77] Creating layer relu_stage2_block5_branch2a
I0609 18:05:03.973630 13390 net.cpp:84] Creating Layer relu_stage2_block5_branch2a
I0609 18:05:03.973634 13390 net.cpp:406] relu_stage2_block5_branch2a <- conv_stage2_block5_branch2a
I0609 18:05:03.973641 13390 net.cpp:367] relu_stage2_block5_branch2a -> conv_stage2_block5_branch2a (in-place)
I0609 18:05:03.973649 13390 net.cpp:122] Setting up relu_stage2_block5_branch2a
I0609 18:05:03.973654 13390 net.cpp:129] Top shape: 7 128 14 14 (175616)
I0609 18:05:03.973659 13390 net.cpp:137] Memory required for data: 805023828
I0609 18:05:03.973662 13390 layer_factory.hpp:77] Creating layer conv_stage2_block5_branch2b
I0609 18:05:03.984187 13390 net.cpp:84] Creating Layer conv_stage2_block5_branch2b
I0609 18:05:03.984199 13390 net.cpp:406] conv_stage2_block5_branch2b <- conv_stage2_block5_branch2a
I0609 18:05:03.984211 13390 net.cpp:380] conv_stage2_block5_branch2b -> conv_stage2_block5_branch2b
I0609 18:05:03.985796 13390 net.cpp:122] Setting up conv_stage2_block5_branch2b
I0609 18:05:03.985813 13390 net.cpp:129] Top shape: 7 128 14 14 (175616)
I0609 18:05:03.985817 13390 net.cpp:137] Memory required for data: 805726292
I0609 18:05:03.985827 13390 layer_factory.hpp:77] Creating layer bn_stage2_block5_branch2b
I0609 18:05:03.985843 13390 net.cpp:84] Creating Layer bn_stage2_block5_branch2b
I0609 18:05:03.985849 13390 net.cpp:406] bn_stage2_block5_branch2b <- conv_stage2_block5_branch2b
I0609 18:05:03.985858 13390 net.cpp:367] bn_stage2_block5_branch2b -> conv_stage2_block5_branch2b (in-place)
I0609 18:05:03.986095 13390 net.cpp:122] Setting up bn_stage2_block5_branch2b
I0609 18:05:03.986104 13390 net.cpp:129] Top shape: 7 128 14 14 (175616)
I0609 18:05:03.986109 13390 net.cpp:137] Memory required for data: 806428756
I0609 18:05:03.986119 13390 layer_factory.hpp:77] Creating layer scale_stage2_block5_branch2b
I0609 18:05:03.986126 13390 net.cpp:84] Creating Layer scale_stage2_block5_branch2b
I0609 18:05:03.986131 13390 net.cpp:406] scale_stage2_block5_branch2b <- conv_stage2_block5_branch2b
I0609 18:05:03.986140 13390 net.cpp:367] scale_stage2_block5_branch2b -> conv_stage2_block5_branch2b (in-place)
I0609 18:05:03.986196 13390 layer_factory.hpp:77] Creating layer scale_stage2_block5_branch2b
I0609 18:05:03.986341 13390 net.cpp:122] Setting up scale_stage2_block5_branch2b
I0609 18:05:03.986351 13390 net.cpp:129] Top shape: 7 128 14 14 (175616)
I0609 18:05:03.986356 13390 net.cpp:137] Memory required for data: 807131220
I0609 18:05:03.986362 13390 layer_factory.hpp:77] Creating layer relu_stage2_block5_branch2b
I0609 18:05:03.986368 13390 net.cpp:84] Creating Layer relu_stage2_block5_branch2b
I0609 18:05:03.986371 13390 net.cpp:406] relu_stage2_block5_branch2b <- conv_stage2_block5_branch2b
I0609 18:05:03.986377 13390 net.cpp:367] relu_stage2_block5_branch2b -> conv_stage2_block5_branch2b (in-place)
I0609 18:05:03.986382 13390 net.cpp:122] Setting up relu_stage2_block5_branch2b
I0609 18:05:03.986387 13390 net.cpp:129] Top shape: 7 128 14 14 (175616)
I0609 18:05:03.986388 13390 net.cpp:137] Memory required for data: 807833684
I0609 18:05:03.986390 13390 layer_factory.hpp:77] Creating layer conv_stage2_block5_branch2c
I0609 18:05:03.986399 13390 net.cpp:84] Creating Layer conv_stage2_block5_branch2c
I0609 18:05:03.986402 13390 net.cpp:406] conv_stage2_block5_branch2c <- conv_stage2_block5_branch2b
I0609 18:05:03.986407 13390 net.cpp:380] conv_stage2_block5_branch2c -> conv_stage2_block5_branch2c
I0609 18:05:03.986922 13390 net.cpp:122] Setting up conv_stage2_block5_branch2c
I0609 18:05:03.986938 13390 net.cpp:129] Top shape: 7 512 14 14 (702464)
I0609 18:05:03.986941 13390 net.cpp:137] Memory required for data: 810643540
I0609 18:05:03.986946 13390 layer_factory.hpp:77] Creating layer bn_stage2_block5_branch2c
I0609 18:05:03.986953 13390 net.cpp:84] Creating Layer bn_stage2_block5_branch2c
I0609 18:05:03.986955 13390 net.cpp:406] bn_stage2_block5_branch2c <- conv_stage2_block5_branch2c
I0609 18:05:03.986961 13390 net.cpp:367] bn_stage2_block5_branch2c -> conv_stage2_block5_branch2c (in-place)
I0609 18:05:03.987639 13390 net.cpp:122] Setting up bn_stage2_block5_branch2c
I0609 18:05:03.987651 13390 net.cpp:129] Top shape: 7 512 14 14 (702464)
I0609 18:05:03.987655 13390 net.cpp:137] Memory required for data: 813453396
I0609 18:05:03.987666 13390 layer_factory.hpp:77] Creating layer scale_stage2_block5_branch2c
I0609 18:05:03.987674 13390 net.cpp:84] Creating Layer scale_stage2_block5_branch2c
I0609 18:05:03.987679 13390 net.cpp:406] scale_stage2_block5_branch2c <- conv_stage2_block5_branch2c
I0609 18:05:03.987687 13390 net.cpp:367] scale_stage2_block5_branch2c -> conv_stage2_block5_branch2c (in-place)
I0609 18:05:03.987736 13390 layer_factory.hpp:77] Creating layer scale_stage2_block5_branch2c
I0609 18:05:03.987872 13390 net.cpp:122] Setting up scale_stage2_block5_branch2c
I0609 18:05:03.987880 13390 net.cpp:129] Top shape: 7 512 14 14 (702464)
I0609 18:05:03.987884 13390 net.cpp:137] Memory required for data: 816263252
I0609 18:05:03.987892 13390 layer_factory.hpp:77] Creating layer eltwise_stage2_block5
I0609 18:05:03.987900 13390 net.cpp:84] Creating Layer eltwise_stage2_block5
I0609 18:05:03.987905 13390 net.cpp:406] eltwise_stage2_block5 <- eltwise_stage2_block4_relu_stage2_block4_0_split_1
I0609 18:05:03.987910 13390 net.cpp:406] eltwise_stage2_block5 <- conv_stage2_block5_branch2c
I0609 18:05:03.987922 13390 net.cpp:380] eltwise_stage2_block5 -> eltwise_stage2_block5
I0609 18:05:03.987952 13390 net.cpp:122] Setting up eltwise_stage2_block5
I0609 18:05:03.987960 13390 net.cpp:129] Top shape: 7 512 14 14 (702464)
I0609 18:05:03.987964 13390 net.cpp:137] Memory required for data: 819073108
I0609 18:05:03.987968 13390 layer_factory.hpp:77] Creating layer relu_stage2_block5
I0609 18:05:03.987975 13390 net.cpp:84] Creating Layer relu_stage2_block5
I0609 18:05:03.987979 13390 net.cpp:406] relu_stage2_block5 <- eltwise_stage2_block5
I0609 18:05:03.987987 13390 net.cpp:367] relu_stage2_block5 -> eltwise_stage2_block5 (in-place)
I0609 18:05:03.987993 13390 net.cpp:122] Setting up relu_stage2_block5
I0609 18:05:03.987999 13390 net.cpp:129] Top shape: 7 512 14 14 (702464)
I0609 18:05:03.988003 13390 net.cpp:137] Memory required for data: 821882964
I0609 18:05:03.988008 13390 layer_factory.hpp:77] Creating layer eltwise_stage2_block5_relu_stage2_block5_0_split
I0609 18:05:03.988015 13390 net.cpp:84] Creating Layer eltwise_stage2_block5_relu_stage2_block5_0_split
I0609 18:05:03.988020 13390 net.cpp:406] eltwise_stage2_block5_relu_stage2_block5_0_split <- eltwise_stage2_block5
I0609 18:05:03.988028 13390 net.cpp:380] eltwise_stage2_block5_relu_stage2_block5_0_split -> eltwise_stage2_block5_relu_stage2_block5_0_split_0
I0609 18:05:03.988036 13390 net.cpp:380] eltwise_stage2_block5_relu_stage2_block5_0_split -> eltwise_stage2_block5_relu_stage2_block5_0_split_1
I0609 18:05:03.988076 13390 net.cpp:122] Setting up eltwise_stage2_block5_relu_stage2_block5_0_split
I0609 18:05:03.988083 13390 net.cpp:129] Top shape: 7 512 14 14 (702464)
I0609 18:05:03.988090 13390 net.cpp:129] Top shape: 7 512 14 14 (702464)
I0609 18:05:03.988093 13390 net.cpp:137] Memory required for data: 827502676
I0609 18:05:03.988096 13390 layer_factory.hpp:77] Creating layer conv_stage3_block0_proj_shortcut
I0609 18:05:03.988108 13390 net.cpp:84] Creating Layer conv_stage3_block0_proj_shortcut
I0609 18:05:03.988113 13390 net.cpp:406] conv_stage3_block0_proj_shortcut <- eltwise_stage2_block5_relu_stage2_block5_0_split_0
I0609 18:05:03.988122 13390 net.cpp:380] conv_stage3_block0_proj_shortcut -> conv_stage3_block0_proj_shortcut
I0609 18:05:03.992043 13390 net.cpp:122] Setting up conv_stage3_block0_proj_shortcut
I0609 18:05:03.992053 13390 net.cpp:129] Top shape: 7 1024 7 7 (351232)
I0609 18:05:03.992056 13390 net.cpp:137] Memory required for data: 828907604
I0609 18:05:03.992061 13390 layer_factory.hpp:77] Creating layer bn_stage3_block0_proj_shortcut
I0609 18:05:03.992069 13390 net.cpp:84] Creating Layer bn_stage3_block0_proj_shortcut
I0609 18:05:03.992071 13390 net.cpp:406] bn_stage3_block0_proj_shortcut <- conv_stage3_block0_proj_shortcut
I0609 18:05:03.992076 13390 net.cpp:367] bn_stage3_block0_proj_shortcut -> conv_stage3_block0_proj_shortcut (in-place)
I0609 18:05:03.992230 13390 net.cpp:122] Setting up bn_stage3_block0_proj_shortcut
I0609 18:05:03.992234 13390 net.cpp:129] Top shape: 7 1024 7 7 (351232)
I0609 18:05:03.992238 13390 net.cpp:137] Memory required for data: 830312532
I0609 18:05:03.992242 13390 layer_factory.hpp:77] Creating layer scale_stage3_block0_proj_shortcut
I0609 18:05:03.992247 13390 net.cpp:84] Creating Layer scale_stage3_block0_proj_shortcut
I0609 18:05:03.992250 13390 net.cpp:406] scale_stage3_block0_proj_shortcut <- conv_stage3_block0_proj_shortcut
I0609 18:05:03.992254 13390 net.cpp:367] scale_stage3_block0_proj_shortcut -> conv_stage3_block0_proj_shortcut (in-place)
I0609 18:05:03.992285 13390 layer_factory.hpp:77] Creating layer scale_stage3_block0_proj_shortcut
I0609 18:05:03.992373 13390 net.cpp:122] Setting up scale_stage3_block0_proj_shortcut
I0609 18:05:03.992378 13390 net.cpp:129] Top shape: 7 1024 7 7 (351232)
I0609 18:05:03.992380 13390 net.cpp:137] Memory required for data: 831717460
I0609 18:05:03.992384 13390 layer_factory.hpp:77] Creating layer conv_stage3_block0_branch2a
I0609 18:05:03.992393 13390 net.cpp:84] Creating Layer conv_stage3_block0_branch2a
I0609 18:05:03.992395 13390 net.cpp:406] conv_stage3_block0_branch2a <- eltwise_stage2_block5_relu_stage2_block5_0_split_1
I0609 18:05:03.992401 13390 net.cpp:380] conv_stage3_block0_branch2a -> conv_stage3_block0_branch2a
I0609 18:05:03.993711 13390 net.cpp:122] Setting up conv_stage3_block0_branch2a
I0609 18:05:03.993722 13390 net.cpp:129] Top shape: 7 256 7 7 (87808)
I0609 18:05:03.993726 13390 net.cpp:137] Memory required for data: 832068692
I0609 18:05:03.993733 13390 layer_factory.hpp:77] Creating layer bn_stage3_block0_branch2a
I0609 18:05:03.993741 13390 net.cpp:84] Creating Layer bn_stage3_block0_branch2a
I0609 18:05:03.993746 13390 net.cpp:406] bn_stage3_block0_branch2a <- conv_stage3_block0_branch2a
I0609 18:05:03.993755 13390 net.cpp:367] bn_stage3_block0_branch2a -> conv_stage3_block0_branch2a (in-place)
I0609 18:05:03.993975 13390 net.cpp:122] Setting up bn_stage3_block0_branch2a
I0609 18:05:03.993983 13390 net.cpp:129] Top shape: 7 256 7 7 (87808)
I0609 18:05:03.993985 13390 net.cpp:137] Memory required for data: 832419924
I0609 18:05:03.993991 13390 layer_factory.hpp:77] Creating layer scale_stage3_block0_branch2a
I0609 18:05:03.993996 13390 net.cpp:84] Creating Layer scale_stage3_block0_branch2a
I0609 18:05:03.993999 13390 net.cpp:406] scale_stage3_block0_branch2a <- conv_stage3_block0_branch2a
I0609 18:05:03.994004 13390 net.cpp:367] scale_stage3_block0_branch2a -> conv_stage3_block0_branch2a (in-place)
I0609 18:05:03.994045 13390 layer_factory.hpp:77] Creating layer scale_stage3_block0_branch2a
I0609 18:05:03.994125 13390 net.cpp:122] Setting up scale_stage3_block0_branch2a
I0609 18:05:03.994129 13390 net.cpp:129] Top shape: 7 256 7 7 (87808)
I0609 18:05:03.994132 13390 net.cpp:137] Memory required for data: 832771156
I0609 18:05:03.994137 13390 layer_factory.hpp:77] Creating layer relu_stage3_block0_branch2a
I0609 18:05:03.994143 13390 net.cpp:84] Creating Layer relu_stage3_block0_branch2a
I0609 18:05:03.994144 13390 net.cpp:406] relu_stage3_block0_branch2a <- conv_stage3_block0_branch2a
I0609 18:05:03.994148 13390 net.cpp:367] relu_stage3_block0_branch2a -> conv_stage3_block0_branch2a (in-place)
I0609 18:05:03.994153 13390 net.cpp:122] Setting up relu_stage3_block0_branch2a
I0609 18:05:03.994165 13390 net.cpp:129] Top shape: 7 256 7 7 (87808)
I0609 18:05:03.994168 13390 net.cpp:137] Memory required for data: 833122388
I0609 18:05:03.994170 13390 layer_factory.hpp:77] Creating layer conv_stage3_block0_branch2b
I0609 18:05:03.994179 13390 net.cpp:84] Creating Layer conv_stage3_block0_branch2b
I0609 18:05:03.994180 13390 net.cpp:406] conv_stage3_block0_branch2b <- conv_stage3_block0_branch2a
I0609 18:05:03.994186 13390 net.cpp:380] conv_stage3_block0_branch2b -> conv_stage3_block0_branch2b
I0609 18:05:03.998801 13390 net.cpp:122] Setting up conv_stage3_block0_branch2b
I0609 18:05:03.998816 13390 net.cpp:129] Top shape: 7 256 7 7 (87808)
I0609 18:05:03.998818 13390 net.cpp:137] Memory required for data: 833473620
I0609 18:05:03.998824 13390 layer_factory.hpp:77] Creating layer bn_stage3_block0_branch2b
I0609 18:05:03.998831 13390 net.cpp:84] Creating Layer bn_stage3_block0_branch2b
I0609 18:05:03.998836 13390 net.cpp:406] bn_stage3_block0_branch2b <- conv_stage3_block0_branch2b
I0609 18:05:03.998842 13390 net.cpp:367] bn_stage3_block0_branch2b -> conv_stage3_block0_branch2b (in-place)
I0609 18:05:03.998996 13390 net.cpp:122] Setting up bn_stage3_block0_branch2b
I0609 18:05:03.999002 13390 net.cpp:129] Top shape: 7 256 7 7 (87808)
I0609 18:05:03.999004 13390 net.cpp:137] Memory required for data: 833824852
I0609 18:05:03.999011 13390 layer_factory.hpp:77] Creating layer scale_stage3_block0_branch2b
I0609 18:05:03.999016 13390 net.cpp:84] Creating Layer scale_stage3_block0_branch2b
I0609 18:05:03.999018 13390 net.cpp:406] scale_stage3_block0_branch2b <- conv_stage3_block0_branch2b
I0609 18:05:03.999022 13390 net.cpp:367] scale_stage3_block0_branch2b -> conv_stage3_block0_branch2b (in-place)
I0609 18:05:03.999056 13390 layer_factory.hpp:77] Creating layer scale_stage3_block0_branch2b
I0609 18:05:03.999147 13390 net.cpp:122] Setting up scale_stage3_block0_branch2b
I0609 18:05:03.999155 13390 net.cpp:129] Top shape: 7 256 7 7 (87808)
I0609 18:05:03.999159 13390 net.cpp:137] Memory required for data: 834176084
I0609 18:05:03.999167 13390 layer_factory.hpp:77] Creating layer relu_stage3_block0_branch2b
I0609 18:05:03.999176 13390 net.cpp:84] Creating Layer relu_stage3_block0_branch2b
I0609 18:05:03.999181 13390 net.cpp:406] relu_stage3_block0_branch2b <- conv_stage3_block0_branch2b
I0609 18:05:03.999187 13390 net.cpp:367] relu_stage3_block0_branch2b -> conv_stage3_block0_branch2b (in-place)
I0609 18:05:03.999194 13390 net.cpp:122] Setting up relu_stage3_block0_branch2b
I0609 18:05:03.999200 13390 net.cpp:129] Top shape: 7 256 7 7 (87808)
I0609 18:05:03.999204 13390 net.cpp:137] Memory required for data: 834527316
I0609 18:05:03.999208 13390 layer_factory.hpp:77] Creating layer conv_stage3_block0_branch2c
I0609 18:05:03.999222 13390 net.cpp:84] Creating Layer conv_stage3_block0_branch2c
I0609 18:05:03.999225 13390 net.cpp:406] conv_stage3_block0_branch2c <- conv_stage3_block0_branch2b
I0609 18:05:03.999235 13390 net.cpp:380] conv_stage3_block0_branch2c -> conv_stage3_block0_branch2c
I0609 18:05:04.001641 13390 net.cpp:122] Setting up conv_stage3_block0_branch2c
I0609 18:05:04.001652 13390 net.cpp:129] Top shape: 7 1024 7 7 (351232)
I0609 18:05:04.001657 13390 net.cpp:137] Memory required for data: 835932244
I0609 18:05:04.001665 13390 layer_factory.hpp:77] Creating layer bn_stage3_block0_branch2c
I0609 18:05:04.001675 13390 net.cpp:84] Creating Layer bn_stage3_block0_branch2c
I0609 18:05:04.001680 13390 net.cpp:406] bn_stage3_block0_branch2c <- conv_stage3_block0_branch2c
I0609 18:05:04.001689 13390 net.cpp:367] bn_stage3_block0_branch2c -> conv_stage3_block0_branch2c (in-place)
I0609 18:05:04.001910 13390 net.cpp:122] Setting up bn_stage3_block0_branch2c
I0609 18:05:04.001919 13390 net.cpp:129] Top shape: 7 1024 7 7 (351232)
I0609 18:05:04.001922 13390 net.cpp:137] Memory required for data: 837337172
I0609 18:05:04.001931 13390 layer_factory.hpp:77] Creating layer scale_stage3_block0_branch2c
I0609 18:05:04.001938 13390 net.cpp:84] Creating Layer scale_stage3_block0_branch2c
I0609 18:05:04.001943 13390 net.cpp:406] scale_stage3_block0_branch2c <- conv_stage3_block0_branch2c
I0609 18:05:04.001962 13390 net.cpp:367] scale_stage3_block0_branch2c -> conv_stage3_block0_branch2c (in-place)
I0609 18:05:04.002012 13390 layer_factory.hpp:77] Creating layer scale_stage3_block0_branch2c
I0609 18:05:04.002147 13390 net.cpp:122] Setting up scale_stage3_block0_branch2c
I0609 18:05:04.002156 13390 net.cpp:129] Top shape: 7 1024 7 7 (351232)
I0609 18:05:04.002159 13390 net.cpp:137] Memory required for data: 838742100
I0609 18:05:04.002166 13390 layer_factory.hpp:77] Creating layer eltwise_stage3_block0
I0609 18:05:04.002174 13390 net.cpp:84] Creating Layer eltwise_stage3_block0
I0609 18:05:04.002179 13390 net.cpp:406] eltwise_stage3_block0 <- conv_stage3_block0_proj_shortcut
I0609 18:05:04.002185 13390 net.cpp:406] eltwise_stage3_block0 <- conv_stage3_block0_branch2c
I0609 18:05:04.002192 13390 net.cpp:380] eltwise_stage3_block0 -> eltwise_stage3_block0
I0609 18:05:04.002221 13390 net.cpp:122] Setting up eltwise_stage3_block0
I0609 18:05:04.009922 13390 net.cpp:129] Top shape: 7 1024 7 7 (351232)
I0609 18:05:04.009938 13390 net.cpp:137] Memory required for data: 840147028
I0609 18:05:04.009946 13390 layer_factory.hpp:77] Creating layer relu_stage3_block0
I0609 18:05:04.009963 13390 net.cpp:84] Creating Layer relu_stage3_block0
I0609 18:05:04.009973 13390 net.cpp:406] relu_stage3_block0 <- eltwise_stage3_block0
I0609 18:05:04.009992 13390 net.cpp:367] relu_stage3_block0 -> eltwise_stage3_block0 (in-place)
I0609 18:05:04.010010 13390 net.cpp:122] Setting up relu_stage3_block0
I0609 18:05:04.010018 13390 net.cpp:129] Top shape: 7 1024 7 7 (351232)
I0609 18:05:04.010023 13390 net.cpp:137] Memory required for data: 841551956
I0609 18:05:04.010030 13390 layer_factory.hpp:77] Creating layer eltwise_stage3_block0_relu_stage3_block0_0_split
I0609 18:05:04.010038 13390 net.cpp:84] Creating Layer eltwise_stage3_block0_relu_stage3_block0_0_split
I0609 18:05:04.010044 13390 net.cpp:406] eltwise_stage3_block0_relu_stage3_block0_0_split <- eltwise_stage3_block0
I0609 18:05:04.010057 13390 net.cpp:380] eltwise_stage3_block0_relu_stage3_block0_0_split -> eltwise_stage3_block0_relu_stage3_block0_0_split_0
I0609 18:05:04.010071 13390 net.cpp:380] eltwise_stage3_block0_relu_stage3_block0_0_split -> eltwise_stage3_block0_relu_stage3_block0_0_split_1
I0609 18:05:04.010174 13390 net.cpp:122] Setting up eltwise_stage3_block0_relu_stage3_block0_0_split
I0609 18:05:04.010185 13390 net.cpp:129] Top shape: 7 1024 7 7 (351232)
I0609 18:05:04.010193 13390 net.cpp:129] Top shape: 7 1024 7 7 (351232)
I0609 18:05:04.010198 13390 net.cpp:137] Memory required for data: 844361812
I0609 18:05:04.010205 13390 layer_factory.hpp:77] Creating layer conv_stage3_block1_branch2a
I0609 18:05:04.010226 13390 net.cpp:84] Creating Layer conv_stage3_block1_branch2a
I0609 18:05:04.010232 13390 net.cpp:406] conv_stage3_block1_branch2a <- eltwise_stage3_block0_relu_stage3_block0_0_split_0
I0609 18:05:04.010244 13390 net.cpp:380] conv_stage3_block1_branch2a -> conv_stage3_block1_branch2a
I0609 18:05:04.013072 13390 net.cpp:122] Setting up conv_stage3_block1_branch2a
I0609 18:05:04.013084 13390 net.cpp:129] Top shape: 7 256 7 7 (87808)
I0609 18:05:04.013087 13390 net.cpp:137] Memory required for data: 844713044
I0609 18:05:04.013093 13390 layer_factory.hpp:77] Creating layer bn_stage3_block1_branch2a
I0609 18:05:04.013101 13390 net.cpp:84] Creating Layer bn_stage3_block1_branch2a
I0609 18:05:04.013105 13390 net.cpp:406] bn_stage3_block1_branch2a <- conv_stage3_block1_branch2a
I0609 18:05:04.013110 13390 net.cpp:367] bn_stage3_block1_branch2a -> conv_stage3_block1_branch2a (in-place)
I0609 18:05:04.013265 13390 net.cpp:122] Setting up bn_stage3_block1_branch2a
I0609 18:05:04.013273 13390 net.cpp:129] Top shape: 7 256 7 7 (87808)
I0609 18:05:04.013276 13390 net.cpp:137] Memory required for data: 845064276
I0609 18:05:04.013286 13390 layer_factory.hpp:77] Creating layer scale_stage3_block1_branch2a
I0609 18:05:04.013294 13390 net.cpp:84] Creating Layer scale_stage3_block1_branch2a
I0609 18:05:04.013312 13390 net.cpp:406] scale_stage3_block1_branch2a <- conv_stage3_block1_branch2a
I0609 18:05:04.013322 13390 net.cpp:367] scale_stage3_block1_branch2a -> conv_stage3_block1_branch2a (in-place)
I0609 18:05:04.013378 13390 layer_factory.hpp:77] Creating layer scale_stage3_block1_branch2a
I0609 18:05:04.013509 13390 net.cpp:122] Setting up scale_stage3_block1_branch2a
I0609 18:05:04.013519 13390 net.cpp:129] Top shape: 7 256 7 7 (87808)
I0609 18:05:04.013522 13390 net.cpp:137] Memory required for data: 845415508
I0609 18:05:04.013530 13390 layer_factory.hpp:77] Creating layer relu_stage3_block1_branch2a
I0609 18:05:04.013537 13390 net.cpp:84] Creating Layer relu_stage3_block1_branch2a
I0609 18:05:04.013541 13390 net.cpp:406] relu_stage3_block1_branch2a <- conv_stage3_block1_branch2a
I0609 18:05:04.013550 13390 net.cpp:367] relu_stage3_block1_branch2a -> conv_stage3_block1_branch2a (in-place)
I0609 18:05:04.013557 13390 net.cpp:122] Setting up relu_stage3_block1_branch2a
I0609 18:05:04.013563 13390 net.cpp:129] Top shape: 7 256 7 7 (87808)
I0609 18:05:04.013567 13390 net.cpp:137] Memory required for data: 845766740
I0609 18:05:04.013571 13390 layer_factory.hpp:77] Creating layer conv_stage3_block1_branch2b
I0609 18:05:04.013584 13390 net.cpp:84] Creating Layer conv_stage3_block1_branch2b
I0609 18:05:04.013588 13390 net.cpp:406] conv_stage3_block1_branch2b <- conv_stage3_block1_branch2a
I0609 18:05:04.013597 13390 net.cpp:380] conv_stage3_block1_branch2b -> conv_stage3_block1_branch2b
I0609 18:05:04.018383 13390 net.cpp:122] Setting up conv_stage3_block1_branch2b
I0609 18:05:04.018401 13390 net.cpp:129] Top shape: 7 256 7 7 (87808)
I0609 18:05:04.018404 13390 net.cpp:137] Memory required for data: 846117972
I0609 18:05:04.018411 13390 layer_factory.hpp:77] Creating layer bn_stage3_block1_branch2b
I0609 18:05:04.018421 13390 net.cpp:84] Creating Layer bn_stage3_block1_branch2b
I0609 18:05:04.018426 13390 net.cpp:406] bn_stage3_block1_branch2b <- conv_stage3_block1_branch2b
I0609 18:05:04.018432 13390 net.cpp:367] bn_stage3_block1_branch2b -> conv_stage3_block1_branch2b (in-place)
I0609 18:05:04.018584 13390 net.cpp:122] Setting up bn_stage3_block1_branch2b
I0609 18:05:04.018589 13390 net.cpp:129] Top shape: 7 256 7 7 (87808)
I0609 18:05:04.018591 13390 net.cpp:137] Memory required for data: 846469204
I0609 18:05:04.018596 13390 layer_factory.hpp:77] Creating layer scale_stage3_block1_branch2b
I0609 18:05:04.018602 13390 net.cpp:84] Creating Layer scale_stage3_block1_branch2b
I0609 18:05:04.018605 13390 net.cpp:406] scale_stage3_block1_branch2b <- conv_stage3_block1_branch2b
I0609 18:05:04.018611 13390 net.cpp:367] scale_stage3_block1_branch2b -> conv_stage3_block1_branch2b (in-place)
I0609 18:05:04.018648 13390 layer_factory.hpp:77] Creating layer scale_stage3_block1_branch2b
I0609 18:05:04.018733 13390 net.cpp:122] Setting up scale_stage3_block1_branch2b
I0609 18:05:04.018736 13390 net.cpp:129] Top shape: 7 256 7 7 (87808)
I0609 18:05:04.018738 13390 net.cpp:137] Memory required for data: 846820436
I0609 18:05:04.018743 13390 layer_factory.hpp:77] Creating layer relu_stage3_block1_branch2b
I0609 18:05:04.018748 13390 net.cpp:84] Creating Layer relu_stage3_block1_branch2b
I0609 18:05:04.018750 13390 net.cpp:406] relu_stage3_block1_branch2b <- conv_stage3_block1_branch2b
I0609 18:05:04.018755 13390 net.cpp:367] relu_stage3_block1_branch2b -> conv_stage3_block1_branch2b (in-place)
I0609 18:05:04.018760 13390 net.cpp:122] Setting up relu_stage3_block1_branch2b
I0609 18:05:04.018764 13390 net.cpp:129] Top shape: 7 256 7 7 (87808)
I0609 18:05:04.018766 13390 net.cpp:137] Memory required for data: 847171668
I0609 18:05:04.018769 13390 layer_factory.hpp:77] Creating layer conv_stage3_block1_branch2c
I0609 18:05:04.018777 13390 net.cpp:84] Creating Layer conv_stage3_block1_branch2c
I0609 18:05:04.018779 13390 net.cpp:406] conv_stage3_block1_branch2c <- conv_stage3_block1_branch2b
I0609 18:05:04.018784 13390 net.cpp:380] conv_stage3_block1_branch2c -> conv_stage3_block1_branch2c
I0609 18:05:04.021638 13390 net.cpp:122] Setting up conv_stage3_block1_branch2c
I0609 18:05:04.021663 13390 net.cpp:129] Top shape: 7 1024 7 7 (351232)
I0609 18:05:04.021667 13390 net.cpp:137] Memory required for data: 848576596
I0609 18:05:04.021672 13390 layer_factory.hpp:77] Creating layer bn_stage3_block1_branch2c
I0609 18:05:04.021679 13390 net.cpp:84] Creating Layer bn_stage3_block1_branch2c
I0609 18:05:04.021682 13390 net.cpp:406] bn_stage3_block1_branch2c <- conv_stage3_block1_branch2c
I0609 18:05:04.021687 13390 net.cpp:367] bn_stage3_block1_branch2c -> conv_stage3_block1_branch2c (in-place)
I0609 18:05:04.021842 13390 net.cpp:122] Setting up bn_stage3_block1_branch2c
I0609 18:05:04.021847 13390 net.cpp:129] Top shape: 7 1024 7 7 (351232)
I0609 18:05:04.021849 13390 net.cpp:137] Memory required for data: 849981524
I0609 18:05:04.021854 13390 layer_factory.hpp:77] Creating layer scale_stage3_block1_branch2c
I0609 18:05:04.021859 13390 net.cpp:84] Creating Layer scale_stage3_block1_branch2c
I0609 18:05:04.021862 13390 net.cpp:406] scale_stage3_block1_branch2c <- conv_stage3_block1_branch2c
I0609 18:05:04.021867 13390 net.cpp:367] scale_stage3_block1_branch2c -> conv_stage3_block1_branch2c (in-place)
I0609 18:05:04.021899 13390 layer_factory.hpp:77] Creating layer scale_stage3_block1_branch2c
I0609 18:05:04.021991 13390 net.cpp:122] Setting up scale_stage3_block1_branch2c
I0609 18:05:04.021996 13390 net.cpp:129] Top shape: 7 1024 7 7 (351232)
I0609 18:05:04.021998 13390 net.cpp:137] Memory required for data: 851386452
I0609 18:05:04.022002 13390 layer_factory.hpp:77] Creating layer eltwise_stage3_block1
I0609 18:05:04.022007 13390 net.cpp:84] Creating Layer eltwise_stage3_block1
I0609 18:05:04.022011 13390 net.cpp:406] eltwise_stage3_block1 <- eltwise_stage3_block0_relu_stage3_block0_0_split_1
I0609 18:05:04.022014 13390 net.cpp:406] eltwise_stage3_block1 <- conv_stage3_block1_branch2c
I0609 18:05:04.022019 13390 net.cpp:380] eltwise_stage3_block1 -> eltwise_stage3_block1
I0609 18:05:04.022039 13390 net.cpp:122] Setting up eltwise_stage3_block1
I0609 18:05:04.022043 13390 net.cpp:129] Top shape: 7 1024 7 7 (351232)
I0609 18:05:04.022045 13390 net.cpp:137] Memory required for data: 852791380
I0609 18:05:04.022048 13390 layer_factory.hpp:77] Creating layer relu_stage3_block1
I0609 18:05:04.022053 13390 net.cpp:84] Creating Layer relu_stage3_block1
I0609 18:05:04.022054 13390 net.cpp:406] relu_stage3_block1 <- eltwise_stage3_block1
I0609 18:05:04.022058 13390 net.cpp:367] relu_stage3_block1 -> eltwise_stage3_block1 (in-place)
I0609 18:05:04.022063 13390 net.cpp:122] Setting up relu_stage3_block1
I0609 18:05:04.022066 13390 net.cpp:129] Top shape: 7 1024 7 7 (351232)
I0609 18:05:04.022068 13390 net.cpp:137] Memory required for data: 854196308
I0609 18:05:04.022070 13390 layer_factory.hpp:77] Creating layer eltwise_stage3_block1_relu_stage3_block1_0_split
I0609 18:05:04.022075 13390 net.cpp:84] Creating Layer eltwise_stage3_block1_relu_stage3_block1_0_split
I0609 18:05:04.022078 13390 net.cpp:406] eltwise_stage3_block1_relu_stage3_block1_0_split <- eltwise_stage3_block1
I0609 18:05:04.022083 13390 net.cpp:380] eltwise_stage3_block1_relu_stage3_block1_0_split -> eltwise_stage3_block1_relu_stage3_block1_0_split_0
I0609 18:05:04.022087 13390 net.cpp:380] eltwise_stage3_block1_relu_stage3_block1_0_split -> eltwise_stage3_block1_relu_stage3_block1_0_split_1
I0609 18:05:04.022114 13390 net.cpp:122] Setting up eltwise_stage3_block1_relu_stage3_block1_0_split
I0609 18:05:04.022117 13390 net.cpp:129] Top shape: 7 1024 7 7 (351232)
I0609 18:05:04.022120 13390 net.cpp:129] Top shape: 7 1024 7 7 (351232)
I0609 18:05:04.022122 13390 net.cpp:137] Memory required for data: 857006164
I0609 18:05:04.022125 13390 layer_factory.hpp:77] Creating layer conv_stage3_block2_branch2a
I0609 18:05:04.022132 13390 net.cpp:84] Creating Layer conv_stage3_block2_branch2a
I0609 18:05:04.022135 13390 net.cpp:406] conv_stage3_block2_branch2a <- eltwise_stage3_block1_relu_stage3_block1_0_split_0
I0609 18:05:04.022140 13390 net.cpp:380] conv_stage3_block2_branch2a -> conv_stage3_block2_branch2a
I0609 18:05:04.024509 13390 net.cpp:122] Setting up conv_stage3_block2_branch2a
I0609 18:05:04.024518 13390 net.cpp:129] Top shape: 7 256 7 7 (87808)
I0609 18:05:04.024521 13390 net.cpp:137] Memory required for data: 857357396
I0609 18:05:04.024526 13390 layer_factory.hpp:77] Creating layer bn_stage3_block2_branch2a
I0609 18:05:04.024533 13390 net.cpp:84] Creating Layer bn_stage3_block2_branch2a
I0609 18:05:04.024536 13390 net.cpp:406] bn_stage3_block2_branch2a <- conv_stage3_block2_branch2a
I0609 18:05:04.024541 13390 net.cpp:367] bn_stage3_block2_branch2a -> conv_stage3_block2_branch2a (in-place)
I0609 18:05:04.024696 13390 net.cpp:122] Setting up bn_stage3_block2_branch2a
I0609 18:05:04.024705 13390 net.cpp:129] Top shape: 7 256 7 7 (87808)
I0609 18:05:04.024709 13390 net.cpp:137] Memory required for data: 857708628
I0609 18:05:04.024719 13390 layer_factory.hpp:77] Creating layer scale_stage3_block2_branch2a
I0609 18:05:04.024729 13390 net.cpp:84] Creating Layer scale_stage3_block2_branch2a
I0609 18:05:04.024734 13390 net.cpp:406] scale_stage3_block2_branch2a <- conv_stage3_block2_branch2a
I0609 18:05:04.024741 13390 net.cpp:367] scale_stage3_block2_branch2a -> conv_stage3_block2_branch2a (in-place)
I0609 18:05:04.024787 13390 layer_factory.hpp:77] Creating layer scale_stage3_block2_branch2a
I0609 18:05:04.024910 13390 net.cpp:122] Setting up scale_stage3_block2_branch2a
I0609 18:05:04.024919 13390 net.cpp:129] Top shape: 7 256 7 7 (87808)
I0609 18:05:04.024922 13390 net.cpp:137] Memory required for data: 858059860
I0609 18:05:04.024930 13390 layer_factory.hpp:77] Creating layer relu_stage3_block2_branch2a
I0609 18:05:04.024938 13390 net.cpp:84] Creating Layer relu_stage3_block2_branch2a
I0609 18:05:04.024942 13390 net.cpp:406] relu_stage3_block2_branch2a <- conv_stage3_block2_branch2a
I0609 18:05:04.024950 13390 net.cpp:367] relu_stage3_block2_branch2a -> conv_stage3_block2_branch2a (in-place)
I0609 18:05:04.024958 13390 net.cpp:122] Setting up relu_stage3_block2_branch2a
I0609 18:05:04.024963 13390 net.cpp:129] Top shape: 7 256 7 7 (87808)
I0609 18:05:04.024967 13390 net.cpp:137] Memory required for data: 858411092
I0609 18:05:04.024971 13390 layer_factory.hpp:77] Creating layer conv_stage3_block2_branch2b
I0609 18:05:04.024982 13390 net.cpp:84] Creating Layer conv_stage3_block2_branch2b
I0609 18:05:04.024986 13390 net.cpp:406] conv_stage3_block2_branch2b <- conv_stage3_block2_branch2a
I0609 18:05:04.024996 13390 net.cpp:380] conv_stage3_block2_branch2b -> conv_stage3_block2_branch2b
I0609 18:05:04.029892 13390 net.cpp:122] Setting up conv_stage3_block2_branch2b
I0609 18:05:04.029909 13390 net.cpp:129] Top shape: 7 256 7 7 (87808)
I0609 18:05:04.029914 13390 net.cpp:137] Memory required for data: 858762324
I0609 18:05:04.029923 13390 layer_factory.hpp:77] Creating layer bn_stage3_block2_branch2b
I0609 18:05:04.029935 13390 net.cpp:84] Creating Layer bn_stage3_block2_branch2b
I0609 18:05:04.029942 13390 net.cpp:406] bn_stage3_block2_branch2b <- conv_stage3_block2_branch2b
I0609 18:05:04.029949 13390 net.cpp:367] bn_stage3_block2_branch2b -> conv_stage3_block2_branch2b (in-place)
I0609 18:05:04.030180 13390 net.cpp:122] Setting up bn_stage3_block2_branch2b
I0609 18:05:04.030187 13390 net.cpp:129] Top shape: 7 256 7 7 (87808)
I0609 18:05:04.030189 13390 net.cpp:137] Memory required for data: 859113556
I0609 18:05:04.030195 13390 layer_factory.hpp:77] Creating layer scale_stage3_block2_branch2b
I0609 18:05:04.030203 13390 net.cpp:84] Creating Layer scale_stage3_block2_branch2b
I0609 18:05:04.030206 13390 net.cpp:406] scale_stage3_block2_branch2b <- conv_stage3_block2_branch2b
I0609 18:05:04.030211 13390 net.cpp:367] scale_stage3_block2_branch2b -> conv_stage3_block2_branch2b (in-place)
I0609 18:05:04.030247 13390 layer_factory.hpp:77] Creating layer scale_stage3_block2_branch2b
I0609 18:05:04.030349 13390 net.cpp:122] Setting up scale_stage3_block2_branch2b
I0609 18:05:04.030354 13390 net.cpp:129] Top shape: 7 256 7 7 (87808)
I0609 18:05:04.030356 13390 net.cpp:137] Memory required for data: 859464788
I0609 18:05:04.030360 13390 layer_factory.hpp:77] Creating layer relu_stage3_block2_branch2b
I0609 18:05:04.030378 13390 net.cpp:84] Creating Layer relu_stage3_block2_branch2b
I0609 18:05:04.030381 13390 net.cpp:406] relu_stage3_block2_branch2b <- conv_stage3_block2_branch2b
I0609 18:05:04.030386 13390 net.cpp:367] relu_stage3_block2_branch2b -> conv_stage3_block2_branch2b (in-place)
I0609 18:05:04.030391 13390 net.cpp:122] Setting up relu_stage3_block2_branch2b
I0609 18:05:04.030395 13390 net.cpp:129] Top shape: 7 256 7 7 (87808)
I0609 18:05:04.030396 13390 net.cpp:137] Memory required for data: 859816020
I0609 18:05:04.030400 13390 layer_factory.hpp:77] Creating layer conv_stage3_block2_branch2c
I0609 18:05:04.030406 13390 net.cpp:84] Creating Layer conv_stage3_block2_branch2c
I0609 18:05:04.030408 13390 net.cpp:406] conv_stage3_block2_branch2c <- conv_stage3_block2_branch2b
I0609 18:05:04.030414 13390 net.cpp:380] conv_stage3_block2_branch2c -> conv_stage3_block2_branch2c
I0609 18:05:04.033031 13390 net.cpp:122] Setting up conv_stage3_block2_branch2c
I0609 18:05:04.033043 13390 net.cpp:129] Top shape: 7 1024 7 7 (351232)
I0609 18:05:04.033046 13390 net.cpp:137] Memory required for data: 861220948
I0609 18:05:04.033052 13390 layer_factory.hpp:77] Creating layer bn_stage3_block2_branch2c
I0609 18:05:04.033061 13390 net.cpp:84] Creating Layer bn_stage3_block2_branch2c
I0609 18:05:04.033063 13390 net.cpp:406] bn_stage3_block2_branch2c <- conv_stage3_block2_branch2c
I0609 18:05:04.033069 13390 net.cpp:367] bn_stage3_block2_branch2c -> conv_stage3_block2_branch2c (in-place)
I0609 18:05:04.033226 13390 net.cpp:122] Setting up bn_stage3_block2_branch2c
I0609 18:05:04.033231 13390 net.cpp:129] Top shape: 7 1024 7 7 (351232)
I0609 18:05:04.033233 13390 net.cpp:137] Memory required for data: 862625876
I0609 18:05:04.033239 13390 layer_factory.hpp:77] Creating layer scale_stage3_block2_branch2c
I0609 18:05:04.033246 13390 net.cpp:84] Creating Layer scale_stage3_block2_branch2c
I0609 18:05:04.033248 13390 net.cpp:406] scale_stage3_block2_branch2c <- conv_stage3_block2_branch2c
I0609 18:05:04.033252 13390 net.cpp:367] scale_stage3_block2_branch2c -> conv_stage3_block2_branch2c (in-place)
I0609 18:05:04.033289 13390 layer_factory.hpp:77] Creating layer scale_stage3_block2_branch2c
I0609 18:05:04.033380 13390 net.cpp:122] Setting up scale_stage3_block2_branch2c
I0609 18:05:04.033385 13390 net.cpp:129] Top shape: 7 1024 7 7 (351232)
I0609 18:05:04.033387 13390 net.cpp:137] Memory required for data: 864030804
I0609 18:05:04.033391 13390 layer_factory.hpp:77] Creating layer eltwise_stage3_block2
I0609 18:05:04.033401 13390 net.cpp:84] Creating Layer eltwise_stage3_block2
I0609 18:05:04.033404 13390 net.cpp:406] eltwise_stage3_block2 <- eltwise_stage3_block1_relu_stage3_block1_0_split_1
I0609 18:05:04.033408 13390 net.cpp:406] eltwise_stage3_block2 <- conv_stage3_block2_branch2c
I0609 18:05:04.033414 13390 net.cpp:380] eltwise_stage3_block2 -> eltwise_stage3_block2
I0609 18:05:04.033434 13390 net.cpp:122] Setting up eltwise_stage3_block2
I0609 18:05:04.033438 13390 net.cpp:129] Top shape: 7 1024 7 7 (351232)
I0609 18:05:04.033440 13390 net.cpp:137] Memory required for data: 865435732
I0609 18:05:04.033443 13390 layer_factory.hpp:77] Creating layer relu_stage3_block2
I0609 18:05:04.033449 13390 net.cpp:84] Creating Layer relu_stage3_block2
I0609 18:05:04.033452 13390 net.cpp:406] relu_stage3_block2 <- eltwise_stage3_block2
I0609 18:05:04.033455 13390 net.cpp:367] relu_stage3_block2 -> eltwise_stage3_block2 (in-place)
I0609 18:05:04.033460 13390 net.cpp:122] Setting up relu_stage3_block2
I0609 18:05:04.033463 13390 net.cpp:129] Top shape: 7 1024 7 7 (351232)
I0609 18:05:04.033466 13390 net.cpp:137] Memory required for data: 866840660
I0609 18:05:04.033468 13390 layer_factory.hpp:77] Creating layer pool
I0609 18:05:04.033473 13390 net.cpp:84] Creating Layer pool
I0609 18:05:04.033475 13390 net.cpp:406] pool <- eltwise_stage3_block2
I0609 18:05:04.033479 13390 net.cpp:380] pool -> pool
I0609 18:05:04.033499 13390 net.cpp:122] Setting up pool
I0609 18:05:04.033504 13390 net.cpp:129] Top shape: 7 1024 1 1 (7168)
I0609 18:05:04.033515 13390 net.cpp:137] Memory required for data: 866869332
I0609 18:05:04.033519 13390 layer_factory.hpp:77] Creating layer fc_nsfw
I0609 18:05:04.033524 13390 net.cpp:84] Creating Layer fc_nsfw
I0609 18:05:04.033526 13390 net.cpp:406] fc_nsfw <- pool
I0609 18:05:04.033531 13390 net.cpp:380] fc_nsfw -> fc_nsfw
I0609 18:05:04.033648 13390 net.cpp:122] Setting up fc_nsfw
I0609 18:05:04.033655 13390 net.cpp:129] Top shape: 7 2 (14)
I0609 18:05:04.033659 13390 net.cpp:137] Memory required for data: 866869388
I0609 18:05:04.033668 13390 layer_factory.hpp:77] Creating layer fc_nsfw_fc_nsfw_0_split
I0609 18:05:04.033674 13390 net.cpp:84] Creating Layer fc_nsfw_fc_nsfw_0_split
I0609 18:05:04.033679 13390 net.cpp:406] fc_nsfw_fc_nsfw_0_split <- fc_nsfw
I0609 18:05:04.033687 13390 net.cpp:380] fc_nsfw_fc_nsfw_0_split -> fc_nsfw_fc_nsfw_0_split_0
I0609 18:05:04.033697 13390 net.cpp:380] fc_nsfw_fc_nsfw_0_split -> fc_nsfw_fc_nsfw_0_split_1
I0609 18:05:04.033740 13390 net.cpp:122] Setting up fc_nsfw_fc_nsfw_0_split
I0609 18:05:04.033746 13390 net.cpp:129] Top shape: 7 2 (14)
I0609 18:05:04.033752 13390 net.cpp:129] Top shape: 7 2 (14)
I0609 18:05:04.033756 13390 net.cpp:137] Memory required for data: 866869500
I0609 18:05:04.033759 13390 layer_factory.hpp:77] Creating layer loss
I0609 18:05:04.033766 13390 net.cpp:84] Creating Layer loss
I0609 18:05:04.033771 13390 net.cpp:406] loss <- fc_nsfw_fc_nsfw_0_split_0
I0609 18:05:04.033776 13390 net.cpp:406] loss <- label_data_1_split_0
I0609 18:05:04.033784 13390 net.cpp:380] loss -> loss
…
