…
name: "ResNet_50_1by2_nsfw"
state {
  phase: TRAIN
  level: 0
  stage: ""
}
layer {
  name: "data"
  type: "ImageData"
  top: "data"
  top: "label"
  include {
    phase: TRAIN
  }
  transform_param {
    mirror: true
    crop_size: 224
    mean_value: 104
    mean_value: 117
    mean_value: 123
  }
  image_data_param {
    source: "/home/dbicho/Documents/datasets/all_labeled_dataset_augmented_finetuning/train.txt"
    batch_size: 7
    shuffle: true
    root_folder: "/home/dbicho/Documents/datasets/all_labeled_dataset_augmented_finetuning/"
  }
}
layer {
  name: "conv_1"
  type: "Convolution"
  bottom: "data"
  top: "conv_1"
  param {
    lr_mult: 0
    decay_mult: 1
  }
  param {
    lr_mult: 0
    decay_mult: 0
  }
  convolution_param {
    num_output: 64
    pad: 3
    kernel_size: 7
    stride: 2
    weight_filler {
      type: "xavier"
    }
    bias_filler {
      type: "constant"
      value: 0
    }
  }
}
layer {
  name: "bn_1"
  type: "BatchNorm"
  bottom: "conv_1"
  top: "conv_1"
  param {
    lr_mult: 0
    decay_mult: 0
  }
  param {
    lr_mult: 0
    decay_mult: 0
  }
  param {
    lr_mult: 0
    decay_mult: 0
  }
  batch_norm_param {
    use_global_stats: false
  }
}
layer {
  name: "scale_1"
  type: "Scale"
  bottom: "conv_1"
  top: "conv_1"
  scale_param {
    bias_term: true
  }
}
layer {
  name: "relu_1"
  type: "ReLU"
  bottom: "conv_1"
  top: "conv_1"
}
layer {
  name: "pool1"
  type: "Pooling"
  bottom: "conv_1"
  top: "pool1"
  pooling_param {
    pool: MAX
    kernel_size: 3
    stride: 2
  }
}
layer {
  name: "conv_stage0_block0_proj_shortcut"
  type: "Convolution"
  bottom: "pool1"
  top: "conv_stage0_block0_proj_shortcut"
  param {
    lr_mult: 0
    decay_mult: 1
  }
  param {
    lr_mult: 0
    decay_mult: 0
  }
  convolution_param {
    num_output: 128
    pad: 0
    kernel_size: 1
    stride: 1
    weight_filler {
      type: "xavier"
    }
    bias_filler {
      type: "constant"
      value: 0
    }
  }
}
layer {
  name: "bn_stage0_block0_proj_shortcut"
  type: "BatchNorm"
  bottom: "conv_stage0_block0_proj_shortcut"
  top: "conv_stage0_block0_proj_shortcut"
  param {
    lr_mult: 0
    decay_mult: 0
  }
  param {
    lr_mult: 0
    decay_mult: 0
  }
  param {
    lr_mult: 0
    decay_mult: 0
  }
  batch_norm_param {
    use_global_stats: false
  }
}
layer {
  name: "scale_stage0_block0_proj_shortcut"
  type: "Scale"
  bottom: "conv_stage0_block0_proj_shortcut"
  top: "conv_stage0_block0_proj_shortcut"
  scale_param {
    bias_term: true
  }
}
layer {
  name: "conv_stage0_block0_branch2a"
  type: "Convolution"
  bottom: "pool1"
  top: "conv_stage0_block0_branch2a"
  param {
    lr_mult: 0
    decay_mult: 1
  }
  param {
    lr_mult: 0
    decay_mult: 0
  }
  convolution_param {
    num_output: 32
    pad: 0
    kernel_size: 1
    stride: 1
    weight_filler {
      type: "xavier"
    }
    bias_filler {
      type: "constant"
      value: 0
    }
  }
}
layer {
  name: "bn_stage0_block0_branch2a"
  type: "BatchNorm"
  bottom: "conv_stage0_block0_branch2a"
  top: "conv_stage0_block0_branch2a"
  param {
    lr_mult: 0
    decay_mult: 0
  }
  param {
    lr_mult: 0
    decay_mult: 0
  }
  param {
    lr_mult: 0
    decay_mult: 0
  }
  batch_norm_param {
    use_global_stats: false
  }
}
layer {
  name: "scale_stage0_block0_branch2a"
  type: "Scale"
  bottom: "conv_stage0_block0_branch2a"
  top: "conv_stage0_block0_branch2a"
  scale_param {
    bias_term: true
  }
}
layer {
  name: "relu_stage0_block0_branch2a"
  type: "ReLU"
  bottom: "conv_stage0_block0_branch2a"
  top: "conv_stage0_block0_branch2a"
}
layer {
  name: "conv_stage0_block0_branch2b"
  type: "Convolution"
  bottom: "conv_stage0_block0_branch2a"
  top: "conv_stage0_block0_branch2b"
  param {
    lr_mult: 0
    decay_mult: 1
  }
  param {
    lr_mult: 0
    decay_mult: 0
  }
  convolution_param {
    num_output: 32
    pad: 1
    kernel_size: 3
    stride: 1
    weight_filler {
      type: "xavier"
    }
    bias_filler {
      type: "constant"
      value: 0
    }
  }
}
layer {
  name: "bn_stage0_block0_branch2b"
  type: "BatchNorm"
  bottom: "conv_stage0_block0_branch2b"
  top: "conv_stage0_block0_branch2b"
  param {
    lr_mult: 0
    decay_mult: 0
  }
  param {
    lr_mult: 0
    decay_mult: 0
  }
  param {
    lr_mult: 0
    decay_mult: 0
  }
  batch_norm_param {
    use_global_stats: false
  }
}
layer {
  name: "scale_stage0_block0_branch2b"
  type: "Scale"
  bottom: "conv_stage0_block0_branch2b"
  top: "conv_stage0_block0_branch2b"
  scale_param {
    bias_term: true
  }
}
layer {
  name: "relu_stage0_block0_branch2b"
  type: "ReLU"
  bottom: "conv_stage0_block0_branch2b"
  top: "conv_stage0_block0_branch2b"
}
layer {
  name: "conv_stage0_block0_branch2c"
  type: "Convolution"
  bottom: "conv_stage0_block0_branch2b"
  top: "conv_stage0_block0_branch2c"
  param {
    lr_mult: 0
    decay_mult: 1
  }
  param {
    lr_mult: 0
    decay_mult: 0
  }
  convolution_param {
    num_output: 128
    pad: 0
    kernel_size: 1
    stride: 1
    weight_filler {
      type: "xavier"
    }
    bias_filler {
      type: "constant"
      value: 0
    }
  }
}
layer {
  name: "bn_stage0_block0_branch2c"
  type: "BatchNorm"
  bottom: "conv_stage0_block0_branch2c"
  top: "conv_stage0_block0_branch2c"
  param {
    lr_mult: 0
    decay_mult: 0
  }
  param {
    lr_mult: 0
    decay_mult: 0
  }
  param {
    lr_mult: 0
    decay_mult: 0
  }
  batch_norm_param {
    use_global_stats: false
  }
}
layer {
  name: "scale_stage0_block0_branch2c"
  type: "Scale"
  bottom: "conv_stage0_block0_branch2c"
  top: "conv_stage0_block0_branch2c"
  scale_param {
    bias_term: true
  }
}
layer {
  name: "eltwise_stage0_block0"
  type: "Eltwise"
  bottom: "conv_stage0_block0_proj_shortcut"
  bottom: "conv_stage0_block0_branch2c"
  top: "eltwise_stage0_block0"
}
layer {
  name: "relu_stage0_block0"
  type: "ReLU"
  bottom: "eltwise_stage0_block0"
  top: "eltwise_stage0_block0"
}
layer {
  name: "conv_stage0_block1_branch2a"
  type: "Convolution"
  bottom: "eltwise_stage0_block0"
  top: "conv_stage0_block1_branch2a"
  param {
    lr_mult: 0
    decay_mult: 1
  }
  param {
    lr_mult: 0
    decay_mult: 0
  }
  convolution_param {
    num_output: 32
    pad: 0
    kernel_size: 1
    stride: 1
    weight_filler {
      type: "xavier"
    }
    bias_filler {
      type: "constant"
      value: 0
    }
  }
}
layer {
  name: "bn_stage0_block1_branch2a"
  type: "BatchNorm"
  bottom: "conv_stage0_block1_branch2a"
  top: "conv_stage0_block1_branch2a"
  param {
    lr_mult: 0
    decay_mult: 0
  }
  param {
    lr_mult: 0
    decay_mult: 0
  }
  param {
    lr_mult: 0
    decay_mult: 0
  }
  batch_norm_param {
    use_global_stats: false
  }
}
layer {
  name: "scale_stage0_block1_branch2a"
  type: "Scale"
  bottom: "conv_stage0_block1_branch2a"
  top: "conv_stage0_block1_branch2a"
  scale_param {
    bias_term: true
  }
}
layer {
  name: "relu_stage0_block1_branch2a"
  type: "ReLU"
  bottom: "conv_stage0_block1_branch2a"
  top: "conv_stage0_block1_branch2a"
}
layer {
  name: "conv_stage0_block1_branch2b"
  type: "Convolution"
  bottom: "conv_stage0_block1_branch2a"
  top: "conv_stage0_block1_branch2b"
  param {
    lr_mult: 0
    decay_mult: 1
  }
  param {
    lr_mult: 0
    decay_mult: 0
  }
  convolution_param {
    num_output: 32
    pad: 1
    kernel_size: 3
    stride: 1
    weight_filler {
      type: "xavier"
    }
    bias_filler {
      type: "constant"
      value: 0
    }
  }
}
layer {
  name: "bn_stage0_block1_branch2b"
  type: "BatchNorm"
  bottom: "conv_stage0_block1_branch2b"
  top: "conv_stage0_block1_branch2b"
  param {
    lr_mult: 0
    decay_mult: 0
  }
  param {
    lr_mult: 0
    decay_mult: 0
  }
  param {
    lr_mult: 0
    decay_mult: 0
  }
  batch_norm_param {
    use_global_stats: false
  }
}
layer {
  name: "scale_stage0_block1_branch2b"
  type: "Scale"
  bottom: "conv_stage0_block1_branch2b"
  top: "conv_stage0_block1_branch2b"
  scale_param {
    bias_term: true
  }
}
layer {
  name: "relu_stage0_block1_branch2b"
  type: "ReLU"
  bottom: "conv_stage0_block1_branch2b"
  top: "conv_stage0_block1_branch2b"
}
layer {
  name: "conv_stage0_block1_branch2c"
  type: "Convolution"
  bottom: "conv_stage0_block1_branch2b"
  top: "conv_stage0_block1_branch2c"
  param {
    lr_mult: 0
    decay_mult: 1
  }
  param {
    lr_mult: 0
    decay_mult: 0
  }
  convolution_param {
    num_output: 128
    pad: 0
    kernel_size: 1
    stride: 1
    weight_filler {
      type: "xavier"
    }
    bias_filler {
      type: "constant"
      value: 0
    }
  }
}
layer {
  name: "bn_stage0_block1_branch2c"
  type: "BatchNorm"
  bottom: "conv_stage0_block1_branch2c"
  top: "conv_stage0_block1_branch2c"
  param {
    lr_mult: 0
    decay_mult: 0
  }
  param {
    lr_mult: 0
    decay_mult: 0
  }
  param {
    lr_mult: 0
    decay_mult: 0
  }
  batch_norm_param {
    use_global_stats: false
  }
}
layer {
  name: "scale_stage0_block1_branch2c"
  type: "Scale"
  bottom: "conv_stage0_block1_branch2c"
  top: "conv_stage0_block1_branch2c"
  scale_param {
    bias_term: true
  }
}
layer {
  name: "eltwise_stage0_block1"
  type: "Eltwise"
  bottom: "eltwise_stage0_block0"
  bottom: "conv_stage0_block1_branch2c"
  top: "eltwise_stage0_block1"
}
layer {
  name: "relu_stage0_block1"
  type: "ReLU"
  bottom: "eltwise_stage0_block1"
  top: "eltwise_stage0_block1"
}
layer {
  name: "conv_stage0_block2_branch2a"
  type: "Convolution"
  bottom: "eltwise_stage0_block1"
  top: "conv_stage0_block2_branch2a"
  param {
    lr_mult: 0
    decay_mult: 1
  }
  param {
    lr_mult: 0
    decay_mult: 0
  }
  convolution_param {
    num_output: 32
    pad: 0
    kernel_size: 1
    stride: 1
    weight_filler {
      type: "xavier"
    }
    bias_filler {
      type: "constant"
      value: 0
    }
  }
}
layer {
  name: "bn_stage0_block2_branch2a"
  type: "BatchNorm"
  bottom: "conv_stage0_block2_branch2a"
  top: "conv_stage0_block2_branch2a"
  param {
    lr_mult: 0
    decay_mult: 0
  }
  param {
    lr_mult: 0
    decay_mult: 0
  }
  param {
    lr_mult: 0
    decay_mult: 0
  }
  batch_norm_param {
    use_global_stats: false
  }
}
layer {
  name: "scale_stage0_block2_branch2a"
  type: "Scale"
  bottom: "conv_stage0_block2_branch2a"
  top: "conv_stage0_block2_branch2a"
  scale_param {
    bias_term: true
  }
}
layer {
  name: "relu_stage0_block2_branch2a"
  type: "ReLU"
  bottom: "conv_stage0_block2_branch2a"
  top: "conv_stage0_block2_branch2a"
}
layer {
  name: "conv_stage0_block2_branch2b"
  type: "Convolution"
  bottom: "conv_stage0_block2_branch2a"
  top: "conv_stage0_block2_branch2b"
  param {
    lr_mult: 0
    decay_mult: 1
  }
  param {
    lr_mult: 0
    decay_mult: 0
  }
  convolution_param {
    num_output: 32
    pad: 1
    kernel_size: 3
    stride: 1
    weight_filler {
      type: "xavier"
    }
    bias_filler {
      type: "constant"
      value: 0
    }
  }
}
layer {
  name: "bn_stage0_block2_branch2b"
  type: "BatchNorm"
  bottom: "conv_stage0_block2_branch2b"
  top: "conv_stage0_block2_branch2b"
  param {
    lr_mult: 0
    decay_mult: 0
  }
  param {
    lr_mult: 0
    decay_mult: 0
  }
  param {
    lr_mult: 0
    decay_mult: 0
  }
  batch_norm_param {
    use_global_stats: false
  }
}
layer {
  name: "scale_stage0_block2_branch2b"
  type: "Scale"
  bottom: "conv_stage0_block2_branch2b"
  top: "conv_stage0_block2_branch2b"
  scale_param {
    bias_term: true
  }
}
layer {
  name: "relu_stage0_block2_branch2b"
  type: "ReLU"
  bottom: "conv_stage0_block2_branch2b"
  top: "conv_stage0_block2_branch2b"
}
layer {
  name: "conv_stage0_block2_branch2c"
  type: "Convolution"
  bottom: "conv_stage0_block2_branch2b"
  top: "conv_stage0_block2_branch2c"
  param {
    lr_mult: 0
    decay_mult: 1
  }
  param {
    lr_mult: 0
    decay_mult: 0
  }
  convolution_param {
    num_output: 128
    pad: 0
    kernel_size: 1
    stride: 1
    weight_filler {
      type: "xavier"
    }
    bias_filler {
      type: "constant"
      value: 0
    }
  }
}
layer {
  name: "bn_stage0_block2_branch2c"
  type: "BatchNorm"
  bottom: "conv_stage0_block2_branch2c"
  top: "conv_stage0_block2_branch2c"
  param {
    lr_mult: 0
    decay_mult: 0
  }
  param {
    lr_mult: 0
    decay_mult: 0
  }
  param {
    lr_mult: 0
    decay_mult: 0
  }
  batch_norm_param {
    use_global_stats: false
  }
}
layer {
  name: "scale_stage0_block2_branch2c"
  type: "Scale"
  bottom: "conv_stage0_block2_branch2c"
  top: "conv_stage0_block2_branch2c"
  scale_param {
    bias_term: true
  }
}
layer {
  name: "eltwise_stage0_block2"
  type: "Eltwise"
  bottom: "eltwise_stage0_block1"
  bottom: "conv_stage0_block2_branch2c"
  top: "eltwise_stage0_block2"
}
layer {
  name: "relu_stage0_block2"
  type: "ReLU"
  bottom: "eltwise_stage0_block2"
  top: "eltwise_stage0_block2"
}
layer {
  name: "conv_stage1_block0_proj_shortcut"
  type: "Convolution"
  bottom: "eltwise_stage0_block2"
  top: "conv_stage1_block0_proj_shortcut"
  param {
    lr_mult: 0
    decay_mult: 1
  }
  param {
    lr_mult: 0
    decay_mult: 0
  }
  convolution_param {
    num_output: 256
    pad: 0
    kernel_size: 1
    stride: 2
    weight_filler {
      type: "xavier"
    }
    bias_filler {
      type: "constant"
      value: 0
    }
  }
}
layer {
  name: "bn_stage1_block0_proj_shortcut"
  type: "BatchNorm"
  bottom: "conv_stage1_block0_proj_shortcut"
  top: "conv_stage1_block0_proj_shortcut"
  param {
    lr_mult: 0
    decay_mult: 0
  }
  param {
    lr_mult: 0
    decay_mult: 0
  }
  param {
    lr_mult: 0
    decay_mult: 0
  }
  batch_norm_param {
    use_global_stats: false
  }
}
layer {
  name: "scale_stage1_block0_proj_shortcut"
  type: "Scale"
  bottom: "conv_stage1_block0_proj_shortcut"
  top: "conv_stage1_block0_proj_shortcut"
  scale_param {
    bias_term: true
  }
}
layer {
  name: "conv_stage1_block0_branch2a"
  type: "Convolution"
  bottom: "eltwise_stage0_block2"
  top: "conv_stage1_block0_branch2a"
  param {
    lr_mult: 0
    decay_mult: 1
  }
  param {
    lr_mult: 0
    decay_mult: 0
  }
  convolution_param {
    num_output: 64
    pad: 0
    kernel_size: 1
    stride: 2
    weight_filler {
      type: "xavier"
    }
    bias_filler {
      type: "constant"
      value: 0
    }
  }
}
layer {
  name: "bn_stage1_block0_branch2a"
  type: "BatchNorm"
  bottom: "conv_stage1_block0_branch2a"
  top: "conv_stage1_block0_branch2a"
  param {
    lr_mult: 0
    decay_mult: 0
  }
  param {
    lr_mult: 0
    decay_mult: 0
  }
  param {
    lr_mult: 0
    decay_mult: 0
  }
  batch_norm_param {
    use_global_stats: false
  }
}
layer {
  name: "scale_stage1_block0_branch2a"
  type: "Scale"
  bottom: "conv_stage1_block0_branch2a"
  top: "conv_stage1_block0_branch2a"
  scale_param {
    bias_term: true
  }
}
layer {
  name: "relu_stage1_block0_branch2a"
  type: "ReLU"
  bottom: "conv_stage1_block0_branch2a"
  top: "conv_stage1_block0_branch2a"
}
layer {
  name: "conv_stage1_block0_branch2b"
  type: "Convolution"
  bottom: "conv_stage1_block0_branch2a"
  top: "conv_stage1_block0_branch2b"
  param {
    lr_mult: 0
    decay_mult: 1
  }
  param {
    lr_mult: 0
    decay_mult: 0
  }
  convolution_param {
    num_output: 64
    pad: 1
    kernel_size: 3
    stride: 1
    weight_filler {
      type: "xavier"
    }
    bias_filler {
      type: "constant"
      value: 0
    }
  }
}
layer {
  name: "bn_stage1_block0_branch2b"
  type: "BatchNorm"
  bottom: "conv_stage1_block0_branch2b"
  top: "conv_stage1_block0_branch2b"
  param {
    lr_mult: 0
    decay_mult: 0
  }
  param {
    lr_mult: 0
    decay_mult: 0
  }
  param {
    lr_mult: 0
    decay_mult: 0
  }
  batch_norm_param {
    use_global_stats: false
  }
}
layer {
  name: "scale_stage1_block0_branch2b"
  type: "Scale"
  bottom: "conv_stage1_block0_branch2b"
  top: "conv_stage1_block0_branch2b"
  scale_param {
    bias_term: true
  }
}
layer {
  name: "relu_stage1_block0_branch2b"
  type: "ReLU"
  bottom: "conv_stage1_block0_branch2b"
  top: "conv_stage1_block0_branch2b"
}
layer {
  name: "conv_stage1_block0_branch2c"
  type: "Convolution"
  bottom: "conv_stage1_block0_branch2b"
  top: "conv_stage1_block0_branch2c"
  param {
    lr_mult: 0
    decay_mult: 1
  }
  param {
    lr_mult: 0
    decay_mult: 0
  }
  convolution_param {
    num_output: 256
    pad: 0
    kernel_size: 1
    stride: 1
    weight_filler {
      type: "xavier"
    }
    bias_filler {
      type: "constant"
      value: 0
    }
  }
}
layer {
  name: "bn_stage1_block0_branch2c"
  type: "BatchNorm"
  bottom: "conv_stage1_block0_branch2c"
  top: "conv_stage1_block0_branch2c"
  param {
    lr_mult: 0
    decay_mult: 0
  }
  param {
    lr_mult: 0
    decay_mult: 0
  }
  param {
    lr_mult: 0
    decay_mult: 0
  }
  batch_norm_param {
    use_global_stats: false
  }
}
layer {
  name: "scale_stage1_block0_branch2c"
  type: "Scale"
  bottom: "conv_stage1_block0_branch2c"
  top: "conv_stage1_block0_branch2c"
  scale_param {
    bias_term: true
  }
}
layer {
  name: "eltwise_stage1_block0"
  type: "Eltwise"
  bottom: "conv_stage1_block0_proj_shortcut"
  bottom: "conv_stage1_block0_branch2c"
  top: "eltwise_stage1_block0"
}
layer {
  name: "relu_stage1_block0"
  type: "ReLU"
  bottom: "eltwise_stage1_block0"
  top: "eltwise_stage1_block0"
}
layer {
  name: "conv_stage1_block1_branch2a"
  type: "Convolution"
  bottom: "eltwise_stage1_block0"
  top: "conv_stage1_block1_branch2a"
  param {
    lr_mult: 0
    decay_mult: 1
  }
  param {
    lr_mult: 0
    decay_mult: 0
  }
  convolution_param {
    num_output: 64
    pad: 0
    kernel_size: 1
    stride: 1
    weight_filler {
      type: "xavier"
    }
    bias_filler {
      type: "constant"
      value: 0
    }
  }
}
layer {
  name: "bn_stage1_block1_branch2a"
  type: "BatchNorm"
  bottom: "conv_stage1_block1_branch2a"
  top: "conv_stage1_block1_branch2a"
  param {
    lr_mult: 0
    decay_mult: 0
  }
  param {
    lr_mult: 0
    decay_mult: 0
  }
  param {
    lr_mult: 0
    decay_mult: 0
  }
  batch_norm_param {
    use_global_stats: false
  }
}
layer {
  name: "scale_stage1_block1_branch2a"
  type: "Scale"
  bottom: "conv_stage1_block1_branch2a"
  top: "conv_stage1_block1_branch2a"
  scale_param {
    bias_term: true
  }
}
layer {
  name: "relu_stage1_block1_branch2a"
  type: "ReLU"
  bottom: "conv_stage1_block1_branch2a"
  top: "conv_stage1_block1_branch2a"
}
layer {
  name: "conv_stage1_block1_branch2b"
  type: "Convolution"
  bottom: "conv_stage1_block1_branch2a"
  top: "conv_stage1_block1_branch2b"
  param {
    lr_mult: 0
    decay_mult: 1
  }
  param {
    lr_mult: 0
    decay_mult: 0
  }
  convolution_param {
    num_output: 64
    pad: 1
    kernel_size: 3
    stride: 1
    weight_filler {
      type: "xavier"
    }
    bias_filler {
      type: "constant"
      value: 0
    }
  }
}
layer {
  name: "bn_stage1_block1_branch2b"
  type: "BatchNorm"
  bottom: "conv_stage1_block1_branch2b"
  top: "conv_stage1_block1_branch2b"
  param {
    lr_mult: 0
    decay_mult: 0
  }
  param {
    lr_mult: 0
    decay_mult: 0
  }
  param {
    lr_mult: 0
    decay_mult: 0
  }
  batch_norm_param {
    use_global_stats: false
  }
}
layer {
  name: "scale_stage1_block1_branch2b"
  type: "Scale"
  bottom: "conv_stage1_block1_branch2b"
  top: "conv_stage1_block1_branch2b"
  scale_param {
    bias_term: true
  }
}
layer {
  name: "relu_stage1_block1_branch2b"
  type: "ReLU"
  bottom: "conv_stage1_block1_branch2b"
  top: "conv_stage1_block1_branch2b"
}
layer {
  name: "conv_stage1_block1_branch2c"
  type: "Convolution"
  bottom: "conv_stage1_block1_branch2b"
  top: "conv_stage1_block1_branch2c"
  param {
    lr_mult: 0
    decay_mult: 1
  }
  param {
    lr_mult: 0
    decay_mult: 0
  }
  convolution_param {
    num_output: 256
    pad: 0
    kernel_size: 1
    stride: 1
    weight_filler {
      type: "xavier"
    }
    bias_filler {
      type: "constant"
      value: 0
    }
  }
}
layer {
  name: "bn_stage1_block1_branch2c"
  type: "BatchNorm"
  bottom: "conv_stage1_block1_branch2c"
  top: "conv_stage1_block1_branch2c"
  param {
    lr_mult: 0
    decay_mult: 0
  }
  param {
    lr_mult: 0
    decay_mult: 0
  }
  param {
    lr_mult: 0
    decay_mult: 0
  }
  batch_norm_param {
    use_global_stats: false
  }
}
layer {
  name: "scale_stage1_block1_branch2c"
  type: "Scale"
  bottom: "conv_stage1_block1_branch2c"
  top: "conv_stage1_block1_branch2c"
  scale_param {
    bias_term: true
  }
}
layer {
  name: "eltwise_stage1_block1"
  type: "Eltwise"
  bottom: "eltwise_stage1_block0"
  bottom: "conv_stage1_block1_branch2c"
  top: "eltwise_stage1_block1"
}
layer {
  name: "relu_stage1_block1"
  type: "ReLU"
  bottom: "eltwise_stage1_block1"
  top: "eltwise_stage1_block1"
}
layer {
  name: "conv_stage1_block2_branch2a"
  type: "Convolution"
  bottom: "eltwise_stage1_block1"
  top: "conv_stage1_block2_branch2a"
  param {
    lr_mult: 0
    decay_mult: 1
  }
  param {
    lr_mult: 0
    decay_mult: 0
  }
  convolution_param {
    num_output: 64
    pad: 0
    kernel_size: 1
    stride: 1
    weight_filler {
      type: "xavier"
    }
    bias_filler {
      type: "constant"
      value: 0
    }
  }
}
layer {
  name: "bn_stage1_block2_branch2a"
  type: "BatchNorm"
  bottom: "conv_stage1_block2_branch2a"
  top: "conv_stage1_block2_branch2a"
  param {
    lr_mult: 0
    decay_mult: 0
  }
  param {
    lr_mult: 0
    decay_mult: 0
  }
  param {
    lr_mult: 0
    decay_mult: 0
  }
  batch_norm_param {
    use_global_stats: false
  }
}
layer {
  name: "scale_stage1_block2_branch2a"
  type: "Scale"
  bottom: "conv_stage1_block2_branch2a"
  top: "conv_stage1_block2_branch2a"
  scale_param {
    bias_term: true
  }
}
layer {
  name: "relu_stage1_block2_branch2a"
  type: "ReLU"
  bottom: "conv_stage1_block2_branch2a"
  top: "conv_stage1_block2_branch2a"
}
layer {
  name: "conv_stage1_block2_branch2b"
  type: "Convolution"
  bottom: "conv_stage1_block2_branch2a"
  top: "conv_stage1_block2_branch2b"
  param {
    lr_mult: 0
    decay_mult: 1
  }
  param {
    lr_mult: 0
    decay_mult: 0
  }
  convolution_param {
    num_output: 64
    pad: 1
    kernel_size: 3
    stride: 1
    weight_filler {
      type: "xavier"
    }
    bias_filler {
      type: "constant"
      value: 0
    }
  }
}
layer {
  name: "bn_stage1_block2_branch2b"
  type: "BatchNorm"
  bottom: "conv_stage1_block2_branch2b"
  top: "conv_stage1_block2_branch2b"
  param {
    lr_mult: 0
    decay_mult: 0
  }
  param {
    lr_mult: 0
    decay_mult: 0
  }
  param {
    lr_mult: 0
    decay_mult: 0
  }
  batch_norm_param {
    use_global_stats: false
  }
}
layer {
  name: "scale_stage1_block2_branch2b"
  type: "Scale"
  bottom: "conv_stage1_block2_branch2b"
  top: "conv_stage1_block2_branch2b"
  scale_param {
    bias_term: true
  }
}
layer {
  name: "relu_stage1_block2_branch2b"
  type: "ReLU"
  bottom: "conv_stage1_block2_branch2b"
  top: "conv_stage1_block2_branch2b"
}
layer {
  name: "conv_stage1_block2_branch2c"
  type: "Convolution"
  bottom: "conv_stage1_block2_branch2b"
  top: "conv_stage1_block2_branch2c"
  param {
    lr_mult: 0
    decay_mult: 1
  }
  param {
    lr_mult: 0
    decay_mult: 0
  }
  convolution_param {
    num_output: 256
    pad: 0
    kernel_size: 1
    stride: 1
    weight_filler {
      type: "xavier"
    }
    bias_filler {
      type: "constant"
      value: 0
    }
  }
}
layer {
  name: "bn_stage1_block2_branch2c"
  type: "BatchNorm"
  bottom: "conv_stage1_block2_branch2c"
  top: "conv_stage1_block2_branch2c"
  param {
    lr_mult: 0
    decay_mult: 0
  }
  param {
    lr_mult: 0
    decay_mult: 0
  }
  param {
    lr_mult: 0
    decay_mult: 0
  }
  batch_norm_param {
    use_global_stats: false
  }
}
layer {
  name: "scale_stage1_block2_branch2c"
  type: "Scale"
  bottom: "conv_stage1_block2_branch2c"
  top: "conv_stage1_block2_branch2c"
  scale_param {
    bias_term: true
  }
}
layer {
  name: "eltwise_stage1_block2"
  type: "Eltwise"
  bottom: "eltwise_stage1_block1"
  bottom: "conv_stage1_block2_branch2c"
  top: "eltwise_stage1_block2"
}
layer {
  name: "relu_stage1_block2"
  type: "ReLU"
  bottom: "eltwise_stage1_block2"
  top: "eltwise_stage1_block2"
}
layer {
  name: "conv_stage1_block3_branch2a"
  type: "Convolution"
  bottom: "eltwise_stage1_block2"
  top: "conv_stage1_block3_branch2a"
  param {
    lr_mult: 0
    decay_mult: 1
  }
  param {
    lr_mult: 0
    decay_mult: 0
  }
  convolution_param {
    num_output: 64
    pad: 0
    kernel_size: 1
    stride: 1
    weight_filler {
      type: "xavier"
    }
    bias_filler {
      type: "constant"
      value: 0
    }
  }
}
layer {
  name: "bn_stage1_block3_branch2a"
  type: "BatchNorm"
  bottom: "conv_stage1_block3_branch2a"
  top: "conv_stage1_block3_branch2a"
  param {
    lr_mult: 0
    decay_mult: 0
  }
  param {
    lr_mult: 0
    decay_mult: 0
  }
  param {
    lr_mult: 0
    decay_mult: 0
  }
  batch_norm_param {
    use_global_stats: false
  }
}
layer {
  name: "scale_stage1_block3_branch2a"
  type: "Scale"
  bottom: "conv_stage1_block3_branch2a"
  top: "conv_stage1_block3_branch2a"
  scale_param {
    bias_term: true
  }
}
layer {
  name: "relu_stage1_block3_branch2a"
  type: "ReLU"
  bottom: "conv_stage1_block3_branch2a"
  top: "conv_stage1_block3_branch2a"
}
layer {
  name: "conv_stage1_block3_branch2b"
  type: "Convolution"
  bottom: "conv_stage1_block3_branch2a"
  top: "conv_stage1_block3_branch2b"
  param {
    lr_mult: 0
    decay_mult: 1
  }
  param {
    lr_mult: 0
    decay_mult: 0
  }
  convolution_param {
    num_output: 64
    pad: 1
    kernel_size: 3
    stride: 1
    weight_filler {
      type: "xavier"
    }
    bias_filler {
      type: "constant"
      value: 0
    }
  }
}
layer {
  name: "bn_stage1_block3_branch2b"
  type: "BatchNorm"
  bottom: "conv_stage1_block3_branch2b"
  top: "conv_stage1_block3_branch2b"
  param {
    lr_mult: 0
    decay_mult: 0
  }
  param {
    lr_mult: 0
    decay_mult: 0
  }
  param {
    lr_mult: 0
    decay_mult: 0
  }
  batch_norm_param {
    use_global_stats: false
  }
}
layer {
  name: "scale_stage1_block3_branch2b"
  type: "Scale"
  bottom: "conv_stage1_block3_branch2b"
  top: "conv_stage1_block3_branch2b"
  scale_param {
    bias_term: true
  }
}
layer {
  name: "relu_stage1_block3_branch2b"
  type: "ReLU"
  bottom: "conv_stage1_block3_branch2b"
  top: "conv_stage1_block3_branch2b"
}
layer {
  name: "conv_stage1_block3_branch2c"
  type: "Convolution"
  bottom: "conv_stage1_block3_branch2b"
  top: "conv_stage1_block3_branch2c"
  param {
    lr_mult: 0
    decay_mult: 1
  }
  param {
    lr_mult: 0
    decay_mult: 0
  }
  convolution_param {
    num_output: 256
    pad: 0
    kernel_size: 1
    stride: 1
    weight_filler {
      type: "xavier"
    }
    bias_filler {
      type: "constant"
      value: 0
    }
  }
}
layer {
  name: "bn_stage1_block3_branch2c"
  type: "BatchNorm"
  bottom: "conv_stage1_block3_branch2c"
  top: "conv_stage1_block3_branch2c"
  param {
    lr_mult: 0
    decay_mult: 0
  }
  param {
    lr_mult: 0
    decay_mult: 0
  }
  param {
    lr_mult: 0
    decay_mult: 0
  }
  batch_norm_param {
    use_global_stats: false
  }
}
layer {
  name: "scale_stage1_block3_branch2c"
  type: "Scale"
  bottom: "conv_stage1_block3_branch2c"
  top: "conv_stage1_block3_branch2c"
  scale_param {
    bias_term: true
  }
}
layer {
  name: "eltwise_stage1_block3"
  type: "Eltwise"
  bottom: "eltwise_stage1_block2"
  bottom: "conv_stage1_block3_branch2c"
  top: "eltwise_stage1_block3"
}
layer {
  name: "relu_stage1_block3"
  type: "ReLU"
  bottom: "eltwise_stage1_block3"
  top: "eltwise_stage1_block3"
}
layer {
  name: "conv_stage2_block0_proj_shortcut"
  type: "Convolution"
  bottom: "eltwise_stage1_block3"
  top: "conv_stage2_block0_proj_shortcut"
  param {
    lr_mult: 0
    decay_mult: 1
  }
  param {
    lr_mult: 0
    decay_mult: 0
  }
  convolution_param {
    num_output: 512
    pad: 0
    kernel_size: 1
    stride: 2
    weight_filler {
      type: "xavier"
    }
    bias_filler {
      type: "constant"
      value: 0
    }
  }
}
layer {
  name: "bn_stage2_block0_proj_shortcut"
  type: "BatchNorm"
  bottom: "conv_stage2_block0_proj_shortcut"
  top: "conv_stage2_block0_proj_shortcut"
  param {
    lr_mult: 0
    decay_mult: 0
  }
  param {
    lr_mult: 0
    decay_mult: 0
  }
  param {
    lr_mult: 0
    decay_mult: 0
  }
  batch_norm_param {
    use_global_stats: false
  }
}
layer {
  name: "scale_stage2_block0_proj_shortcut"
  type: "Scale"
  bottom: "conv_stage2_block0_proj_shortcut"
  top: "conv_stage2_block0_proj_shortcut"
  scale_param {
    bias_term: true
  }
}
layer {
  name: "conv_stage2_block0_branch2a"
  type: "Convolution"
  bottom: "eltwise_stage1_block3"
  top: "conv_stage2_block0_branch2a"
  param {
    lr_mult: 0
    decay_mult: 1
  }
  param {
    lr_mult: 0
    decay_mult: 0
  }
  convolution_param {
    num_output: 128
    pad: 0
    kernel_size: 1
    stride: 2
    weight_filler {
      type: "xavier"
    }
    bias_filler {
      type: "constant"
      value: 0
    }
  }
}
layer {
  name: "bn_stage2_block0_branch2a"
  type: "BatchNorm"
  bottom: "conv_stage2_block0_branch2a"
  top: "conv_stage2_block0_branch2a"
  param {
    lr_mult: 0
    decay_mult: 0
  }
  param {
    lr_mult: 0
    decay_mult: 0
  }
  param {
    lr_mult: 0
    decay_mult: 0
  }
  batch_norm_param {
    use_global_stats: false
  }
}
layer {
  name: "scale_stage2_block0_branch2a"
  type: "Scale"
  bottom: "conv_stage2_block0_branch2a"
  top: "conv_stage2_block0_branch2a"
  scale_param {
    bias_term: true
  }
}
layer {
  name: "relu_stage2_block0_branch2a"
  type: "ReLU"
  bottom: "conv_stage2_block0_branch2a"
  top: "conv_stage2_block0_branch2a"
}
layer {
  name: "conv_stage2_block0_branch2b"
  type: "Convolution"
  bottom: "conv_stage2_block0_branch2a"
  top: "conv_stage2_block0_branch2b"
  param {
    lr_mult: 0
    decay_mult: 1
  }
  param {
    lr_mult: 0
    decay_mult: 0
  }
  convolution_param {
    num_output: 128
    
I0610 03:32:41.541889 15708 layer_factory.hpp:77] Creating layer data
I0610 03:32:41.541916 15708 net.cpp:84] Creating Layer data
I0610 03:32:41.541923 15708 net.cpp:380] data -> data
I0610 03:32:41.541939 15708 net.cpp:380] data -> label
I0610 03:32:41.541956 15708 image_data_layer.cpp:38] Opening file /home/dbicho/Documents/datasets/all_labeled_dataset_augmented_finetuning/train.txt
I0610 03:32:41.552498 15708 image_data_layer.cpp:53] Shuffling data
I0610 03:32:41.556511 15708 image_data_layer.cpp:63] A total of 19955 images.
I0610 03:32:41.557601 15708 image_data_layer.cpp:90] output data size: 7,3,224,224
I0610 03:32:41.566155 15708 net.cpp:122] Setting up data
I0610 03:32:41.566180 15708 net.cpp:129] Top shape: 7 3 224 224 (1053696)
I0610 03:32:41.566185 15708 net.cpp:129] Top shape: 7 (7)
I0610 03:32:41.566190 15708 net.cpp:137] Memory required for data: 4214812
I0610 03:32:41.566200 15708 layer_factory.hpp:77] Creating layer conv_1
I0610 03:32:41.566231 15708 net.cpp:84] Creating Layer conv_1
I0610 03:32:41.566239 15708 net.cpp:406] conv_1 <- data
I0610 03:32:41.566272 15708 net.cpp:380] conv_1 -> conv_1
I0610 03:32:41.567487 15708 net.cpp:122] Setting up conv_1
I0610 03:32:41.567504 15708 net.cpp:129] Top shape: 7 64 112 112 (5619712)
I0610 03:32:41.567510 15708 net.cpp:137] Memory required for data: 26693660
I0610 03:32:41.567533 15708 layer_factory.hpp:77] Creating layer bn_1
I0610 03:32:41.567546 15708 net.cpp:84] Creating Layer bn_1
I0610 03:32:41.567553 15708 net.cpp:406] bn_1 <- conv_1
I0610 03:32:41.567561 15708 net.cpp:367] bn_1 -> conv_1 (in-place)
I0610 03:32:41.567800 15708 net.cpp:122] Setting up bn_1
I0610 03:32:41.567812 15708 net.cpp:129] Top shape: 7 64 112 112 (5619712)
I0610 03:32:41.567833 15708 net.cpp:137] Memory required for data: 49172508
I0610 03:32:41.567850 15708 layer_factory.hpp:77] Creating layer scale_1
I0610 03:32:41.567862 15708 net.cpp:84] Creating Layer scale_1
I0610 03:32:41.567867 15708 net.cpp:406] scale_1 <- conv_1
I0610 03:32:41.567875 15708 net.cpp:367] scale_1 -> conv_1 (in-place)
I0610 03:32:41.568367 15708 layer_factory.hpp:77] Creating layer scale_1
I0610 03:32:41.568541 15708 net.cpp:122] Setting up scale_1
I0610 03:32:41.568553 15708 net.cpp:129] Top shape: 7 64 112 112 (5619712)
I0610 03:32:41.568558 15708 net.cpp:137] Memory required for data: 71651356
I0610 03:32:41.568567 15708 layer_factory.hpp:77] Creating layer relu_1
I0610 03:32:41.568578 15708 net.cpp:84] Creating Layer relu_1
I0610 03:32:41.568583 15708 net.cpp:406] relu_1 <- conv_1
I0610 03:32:41.568590 15708 net.cpp:367] relu_1 -> conv_1 (in-place)
I0610 03:32:41.568599 15708 net.cpp:122] Setting up relu_1
I0610 03:32:41.568608 15708 net.cpp:129] Top shape: 7 64 112 112 (5619712)
I0610 03:32:41.568612 15708 net.cpp:137] Memory required for data: 94130204
I0610 03:32:41.568617 15708 layer_factory.hpp:77] Creating layer pool1
I0610 03:32:41.568625 15708 net.cpp:84] Creating Layer pool1
I0610 03:32:41.568630 15708 net.cpp:406] pool1 <- conv_1
I0610 03:32:41.568637 15708 net.cpp:380] pool1 -> pool1
I0610 03:32:41.568696 15708 net.cpp:122] Setting up pool1
I0610 03:32:41.568707 15708 net.cpp:129] Top shape: 7 64 56 56 (1404928)
I0610 03:32:41.568713 15708 net.cpp:137] Memory required for data: 99749916
I0610 03:32:41.568717 15708 layer_factory.hpp:77] Creating layer pool1_pool1_0_split
I0610 03:32:41.568727 15708 net.cpp:84] Creating Layer pool1_pool1_0_split
I0610 03:32:41.568732 15708 net.cpp:406] pool1_pool1_0_split <- pool1
I0610 03:32:41.568742 15708 net.cpp:380] pool1_pool1_0_split -> pool1_pool1_0_split_0
I0610 03:32:41.568753 15708 net.cpp:380] pool1_pool1_0_split -> pool1_pool1_0_split_1
I0610 03:32:41.568799 15708 net.cpp:122] Setting up pool1_pool1_0_split
I0610 03:32:41.568809 15708 net.cpp:129] Top shape: 7 64 56 56 (1404928)
I0610 03:32:41.568816 15708 net.cpp:129] Top shape: 7 64 56 56 (1404928)
I0610 03:32:41.568821 15708 net.cpp:137] Memory required for data: 110989340
I0610 03:32:41.568825 15708 layer_factory.hpp:77] Creating layer conv_stage0_block0_proj_shortcut
I0610 03:32:41.568841 15708 net.cpp:84] Creating Layer conv_stage0_block0_proj_shortcut
I0610 03:32:41.568847 15708 net.cpp:406] conv_stage0_block0_proj_shortcut <- pool1_pool1_0_split_0
I0610 03:32:41.568861 15708 net.cpp:380] conv_stage0_block0_proj_shortcut -> conv_stage0_block0_proj_shortcut
I0610 03:32:41.569816 15708 net.cpp:122] Setting up conv_stage0_block0_proj_shortcut
I0610 03:32:41.569833 15708 net.cpp:129] Top shape: 7 128 56 56 (2809856)
I0610 03:32:41.569839 15708 net.cpp:137] Memory required for data: 122228764
I0610 03:32:41.569854 15708 layer_factory.hpp:77] Creating layer bn_stage0_block0_proj_shortcut
I0610 03:32:41.569869 15708 net.cpp:84] Creating Layer bn_stage0_block0_proj_shortcut
I0610 03:32:41.569876 15708 net.cpp:406] bn_stage0_block0_proj_shortcut <- conv_stage0_block0_proj_shortcut
I0610 03:32:41.569887 15708 net.cpp:367] bn_stage0_block0_proj_shortcut -> conv_stage0_block0_proj_shortcut (in-place)
I0610 03:32:41.570107 15708 net.cpp:122] Setting up bn_stage0_block0_proj_shortcut
I0610 03:32:41.570122 15708 net.cpp:129] Top shape: 7 128 56 56 (2809856)
I0610 03:32:41.570127 15708 net.cpp:137] Memory required for data: 133468188
I0610 03:32:41.570138 15708 layer_factory.hpp:77] Creating layer scale_stage0_block0_proj_shortcut
I0610 03:32:41.570150 15708 net.cpp:84] Creating Layer scale_stage0_block0_proj_shortcut
I0610 03:32:41.570156 15708 net.cpp:406] scale_stage0_block0_proj_shortcut <- conv_stage0_block0_proj_shortcut
I0610 03:32:41.570168 15708 net.cpp:367] scale_stage0_block0_proj_shortcut -> conv_stage0_block0_proj_shortcut (in-place)
I0610 03:32:41.570219 15708 layer_factory.hpp:77] Creating layer scale_stage0_block0_proj_shortcut
I0610 03:32:41.570370 15708 net.cpp:122] Setting up scale_stage0_block0_proj_shortcut
I0610 03:32:41.570397 15708 net.cpp:129] Top shape: 7 128 56 56 (2809856)
I0610 03:32:41.570403 15708 net.cpp:137] Memory required for data: 144707612
I0610 03:32:41.570412 15708 layer_factory.hpp:77] Creating layer conv_stage0_block0_branch2a
I0610 03:32:41.570430 15708 net.cpp:84] Creating Layer conv_stage0_block0_branch2a
I0610 03:32:41.570436 15708 net.cpp:406] conv_stage0_block0_branch2a <- pool1_pool1_0_split_1
I0610 03:32:41.570446 15708 net.cpp:380] conv_stage0_block0_branch2a -> conv_stage0_block0_branch2a
I0610 03:32:41.570744 15708 net.cpp:122] Setting up conv_stage0_block0_branch2a
I0610 03:32:41.570757 15708 net.cpp:129] Top shape: 7 32 56 56 (702464)
I0610 03:32:41.570762 15708 net.cpp:137] Memory required for data: 147517468
I0610 03:32:41.570771 15708 layer_factory.hpp:77] Creating layer bn_stage0_block0_branch2a
I0610 03:32:41.570782 15708 net.cpp:84] Creating Layer bn_stage0_block0_branch2a
I0610 03:32:41.570787 15708 net.cpp:406] bn_stage0_block0_branch2a <- conv_stage0_block0_branch2a
I0610 03:32:41.570796 15708 net.cpp:367] bn_stage0_block0_branch2a -> conv_stage0_block0_branch2a (in-place)
I0610 03:32:41.571020 15708 net.cpp:122] Setting up bn_stage0_block0_branch2a
I0610 03:32:41.571033 15708 net.cpp:129] Top shape: 7 32 56 56 (702464)
I0610 03:32:41.571038 15708 net.cpp:137] Memory required for data: 150327324
I0610 03:32:41.571050 15708 layer_factory.hpp:77] Creating layer scale_stage0_block0_branch2a
I0610 03:32:41.571061 15708 net.cpp:84] Creating Layer scale_stage0_block0_branch2a
I0610 03:32:41.571068 15708 net.cpp:406] scale_stage0_block0_branch2a <- conv_stage0_block0_branch2a
I0610 03:32:41.571076 15708 net.cpp:367] scale_stage0_block0_branch2a -> conv_stage0_block0_branch2a (in-place)
I0610 03:32:41.571126 15708 layer_factory.hpp:77] Creating layer scale_stage0_block0_branch2a
I0610 03:32:41.571257 15708 net.cpp:122] Setting up scale_stage0_block0_branch2a
I0610 03:32:41.571270 15708 net.cpp:129] Top shape: 7 32 56 56 (702464)
I0610 03:32:41.571275 15708 net.cpp:137] Memory required for data: 153137180
I0610 03:32:41.571285 15708 layer_factory.hpp:77] Creating layer relu_stage0_block0_branch2a
I0610 03:32:41.571295 15708 net.cpp:84] Creating Layer relu_stage0_block0_branch2a
I0610 03:32:41.571301 15708 net.cpp:406] relu_stage0_block0_branch2a <- conv_stage0_block0_branch2a
I0610 03:32:41.571310 15708 net.cpp:367] relu_stage0_block0_branch2a -> conv_stage0_block0_branch2a (in-place)
I0610 03:32:41.571319 15708 net.cpp:122] Setting up relu_stage0_block0_branch2a
I0610 03:32:41.571326 15708 net.cpp:129] Top shape: 7 32 56 56 (702464)
I0610 03:32:41.571331 15708 net.cpp:137] Memory required for data: 155947036
I0610 03:32:41.571336 15708 layer_factory.hpp:77] Creating layer conv_stage0_block0_branch2b
I0610 03:32:41.571349 15708 net.cpp:84] Creating Layer conv_stage0_block0_branch2b
I0610 03:32:41.571355 15708 net.cpp:406] conv_stage0_block0_branch2b <- conv_stage0_block0_branch2a
I0610 03:32:41.571365 15708 net.cpp:380] conv_stage0_block0_branch2b -> conv_stage0_block0_branch2b
I0610 03:32:41.571733 15708 net.cpp:122] Setting up conv_stage0_block0_branch2b
I0610 03:32:41.571748 15708 net.cpp:129] Top shape: 7 32 56 56 (702464)
I0610 03:32:41.571753 15708 net.cpp:137] Memory required for data: 158756892
I0610 03:32:41.571761 15708 layer_factory.hpp:77] Creating layer bn_stage0_block0_branch2b
I0610 03:32:41.571772 15708 net.cpp:84] Creating Layer bn_stage0_block0_branch2b
I0610 03:32:41.571779 15708 net.cpp:406] bn_stage0_block0_branch2b <- conv_stage0_block0_branch2b
I0610 03:32:41.571786 15708 net.cpp:367] bn_stage0_block0_branch2b -> conv_stage0_block0_branch2b (in-place)
I0610 03:32:41.571975 15708 net.cpp:122] Setting up bn_stage0_block0_branch2b
I0610 03:32:41.571987 15708 net.cpp:129] Top shape: 7 32 56 56 (702464)
I0610 03:32:41.571993 15708 net.cpp:137] Memory required for data: 161566748
I0610 03:32:41.572005 15708 layer_factory.hpp:77] Creating layer scale_stage0_block0_branch2b
I0610 03:32:41.572018 15708 net.cpp:84] Creating Layer scale_stage0_block0_branch2b
I0610 03:32:41.572037 15708 net.cpp:406] scale_stage0_block0_branch2b <- conv_stage0_block0_branch2b
I0610 03:32:41.572046 15708 net.cpp:367] scale_stage0_block0_branch2b -> conv_stage0_block0_branch2b (in-place)
I0610 03:32:41.572098 15708 layer_factory.hpp:77] Creating layer scale_stage0_block0_branch2b
I0610 03:32:41.572235 15708 net.cpp:122] Setting up scale_stage0_block0_branch2b
I0610 03:32:41.572244 15708 net.cpp:129] Top shape: 7 32 56 56 (702464)
I0610 03:32:41.572247 15708 net.cpp:137] Memory required for data: 164376604
I0610 03:32:41.572252 15708 layer_factory.hpp:77] Creating layer relu_stage0_block0_branch2b
I0610 03:32:41.572258 15708 net.cpp:84] Creating Layer relu_stage0_block0_branch2b
I0610 03:32:41.572262 15708 net.cpp:406] relu_stage0_block0_branch2b <- conv_stage0_block0_branch2b
I0610 03:32:41.572266 15708 net.cpp:367] relu_stage0_block0_branch2b -> conv_stage0_block0_branch2b (in-place)
I0610 03:32:41.572273 15708 net.cpp:122] Setting up relu_stage0_block0_branch2b
I0610 03:32:41.572278 15708 net.cpp:129] Top shape: 7 32 56 56 (702464)
I0610 03:32:41.572280 15708 net.cpp:137] Memory required for data: 167186460
I0610 03:32:41.572284 15708 layer_factory.hpp:77] Creating layer conv_stage0_block0_branch2c
I0610 03:32:41.572296 15708 net.cpp:84] Creating Layer conv_stage0_block0_branch2c
I0610 03:32:41.572304 15708 net.cpp:406] conv_stage0_block0_branch2c <- conv_stage0_block0_branch2b
I0610 03:32:41.572312 15708 net.cpp:380] conv_stage0_block0_branch2c -> conv_stage0_block0_branch2c
I0610 03:32:41.572556 15708 net.cpp:122] Setting up conv_stage0_block0_branch2c
I0610 03:32:41.572564 15708 net.cpp:129] Top shape: 7 128 56 56 (2809856)
I0610 03:32:41.572566 15708 net.cpp:137] Memory required for data: 178425884
I0610 03:32:41.572572 15708 layer_factory.hpp:77] Creating layer bn_stage0_block0_branch2c
I0610 03:32:41.572580 15708 net.cpp:84] Creating Layer bn_stage0_block0_branch2c
I0610 03:32:41.572585 15708 net.cpp:406] bn_stage0_block0_branch2c <- conv_stage0_block0_branch2c
I0610 03:32:41.572592 15708 net.cpp:367] bn_stage0_block0_branch2c -> conv_stage0_block0_branch2c (in-place)
I0610 03:32:41.572729 15708 net.cpp:122] Setting up bn_stage0_block0_branch2c
I0610 03:32:41.572736 15708 net.cpp:129] Top shape: 7 128 56 56 (2809856)
I0610 03:32:41.572741 15708 net.cpp:137] Memory required for data: 189665308
I0610 03:32:41.572753 15708 layer_factory.hpp:77] Creating layer scale_stage0_block0_branch2c
I0610 03:32:41.572760 15708 net.cpp:84] Creating Layer scale_stage0_block0_branch2c
I0610 03:32:41.572764 15708 net.cpp:406] scale_stage0_block0_branch2c <- conv_stage0_block0_branch2c
I0610 03:32:41.572770 15708 net.cpp:367] scale_stage0_block0_branch2c -> conv_stage0_block0_branch2c (in-place)
I0610 03:32:41.572801 15708 layer_factory.hpp:77] Creating layer scale_stage0_block0_branch2c
I0610 03:32:41.572883 15708 net.cpp:122] Setting up scale_stage0_block0_branch2c
I0610 03:32:41.572890 15708 net.cpp:129] Top shape: 7 128 56 56 (2809856)
I0610 03:32:41.572894 15708 net.cpp:137] Memory required for data: 200904732
I0610 03:32:41.572901 15708 layer_factory.hpp:77] Creating layer eltwise_stage0_block0
I0610 03:32:41.572907 15708 net.cpp:84] Creating Layer eltwise_stage0_block0
I0610 03:32:41.572912 15708 net.cpp:406] eltwise_stage0_block0 <- conv_stage0_block0_proj_shortcut
I0610 03:32:41.572917 15708 net.cpp:406] eltwise_stage0_block0 <- conv_stage0_block0_branch2c
I0610 03:32:41.572924 15708 net.cpp:380] eltwise_stage0_block0 -> eltwise_stage0_block0
I0610 03:32:41.572945 15708 net.cpp:122] Setting up eltwise_stage0_block0
I0610 03:32:41.572952 15708 net.cpp:129] Top shape: 7 128 56 56 (2809856)
I0610 03:32:41.572955 15708 net.cpp:137] Memory required for data: 212144156
I0610 03:32:41.572959 15708 layer_factory.hpp:77] Creating layer relu_stage0_block0
I0610 03:32:41.572965 15708 net.cpp:84] Creating Layer relu_stage0_block0
I0610 03:32:41.572969 15708 net.cpp:406] relu_stage0_block0 <- eltwise_stage0_block0
I0610 03:32:41.572975 15708 net.cpp:367] relu_stage0_block0 -> eltwise_stage0_block0 (in-place)
I0610 03:32:41.572991 15708 net.cpp:122] Setting up relu_stage0_block0
I0610 03:32:41.572996 15708 net.cpp:129] Top shape: 7 128 56 56 (2809856)
I0610 03:32:41.573001 15708 net.cpp:137] Memory required for data: 223383580
I0610 03:32:41.573004 15708 layer_factory.hpp:77] Creating layer eltwise_stage0_block0_relu_stage0_block0_0_split
I0610 03:32:41.573011 15708 net.cpp:84] Creating Layer eltwise_stage0_block0_relu_stage0_block0_0_split
I0610 03:32:41.573015 15708 net.cpp:406] eltwise_stage0_block0_relu_stage0_block0_0_split <- eltwise_stage0_block0
I0610 03:32:41.573021 15708 net.cpp:380] eltwise_stage0_block0_relu_stage0_block0_0_split -> eltwise_stage0_block0_relu_stage0_block0_0_split_0
I0610 03:32:41.573029 15708 net.cpp:380] eltwise_stage0_block0_relu_stage0_block0_0_split -> eltwise_stage0_block0_relu_stage0_block0_0_split_1
I0610 03:32:41.573057 15708 net.cpp:122] Setting up eltwise_stage0_block0_relu_stage0_block0_0_split
I0610 03:32:41.573063 15708 net.cpp:129] Top shape: 7 128 56 56 (2809856)
I0610 03:32:41.573068 15708 net.cpp:129] Top shape: 7 128 56 56 (2809856)
I0610 03:32:41.573073 15708 net.cpp:137] Memory required for data: 245862428
I0610 03:32:41.573076 15708 layer_factory.hpp:77] Creating layer conv_stage0_block1_branch2a
I0610 03:32:41.573087 15708 net.cpp:84] Creating Layer conv_stage0_block1_branch2a
I0610 03:32:41.573091 15708 net.cpp:406] conv_stage0_block1_branch2a <- eltwise_stage0_block0_relu_stage0_block0_0_split_0
I0610 03:32:41.573098 15708 net.cpp:380] conv_stage0_block1_branch2a -> conv_stage0_block1_branch2a
I0610 03:32:41.573287 15708 net.cpp:122] Setting up conv_stage0_block1_branch2a
I0610 03:32:41.573293 15708 net.cpp:129] Top shape: 7 32 56 56 (702464)
I0610 03:32:41.573297 15708 net.cpp:137] Memory required for data: 248672284
I0610 03:32:41.573304 15708 layer_factory.hpp:77] Creating layer bn_stage0_block1_branch2a
I0610 03:32:41.573312 15708 net.cpp:84] Creating Layer bn_stage0_block1_branch2a
I0610 03:32:41.573316 15708 net.cpp:406] bn_stage0_block1_branch2a <- conv_stage0_block1_branch2a
I0610 03:32:41.573323 15708 net.cpp:367] bn_stage0_block1_branch2a -> conv_stage0_block1_branch2a (in-place)
I0610 03:32:41.573462 15708 net.cpp:122] Setting up bn_stage0_block1_branch2a
I0610 03:32:41.573467 15708 net.cpp:129] Top shape: 7 32 56 56 (702464)
I0610 03:32:41.573472 15708 net.cpp:137] Memory required for data: 251482140
I0610 03:32:41.573480 15708 layer_factory.hpp:77] Creating layer scale_stage0_block1_branch2a
I0610 03:32:41.573487 15708 net.cpp:84] Creating Layer scale_stage0_block1_branch2a
I0610 03:32:41.573491 15708 net.cpp:406] scale_stage0_block1_branch2a <- conv_stage0_block1_branch2a
I0610 03:32:41.573498 15708 net.cpp:367] scale_stage0_block1_branch2a -> conv_stage0_block1_branch2a (in-place)
I0610 03:32:41.573527 15708 layer_factory.hpp:77] Creating layer scale_stage0_block1_branch2a
I0610 03:32:41.573613 15708 net.cpp:122] Setting up scale_stage0_block1_branch2a
I0610 03:32:41.573619 15708 net.cpp:129] Top shape: 7 32 56 56 (702464)
I0610 03:32:41.573623 15708 net.cpp:137] Memory required for data: 254291996
I0610 03:32:41.573631 15708 layer_factory.hpp:77] Creating layer relu_stage0_block1_branch2a
I0610 03:32:41.573637 15708 net.cpp:84] Creating Layer relu_stage0_block1_branch2a
I0610 03:32:41.573642 15708 net.cpp:406] relu_stage0_block1_branch2a <- conv_stage0_block1_branch2a
I0610 03:32:41.573647 15708 net.cpp:367] relu_stage0_block1_branch2a -> conv_stage0_block1_branch2a (in-place)
I0610 03:32:41.573653 15708 net.cpp:122] Setting up relu_stage0_block1_branch2a
I0610 03:32:41.573658 15708 net.cpp:129] Top shape: 7 32 56 56 (702464)
I0610 03:32:41.573662 15708 net.cpp:137] Memory required for data: 257101852
I0610 03:32:41.573664 15708 layer_factory.hpp:77] Creating layer conv_stage0_block1_branch2b
I0610 03:32:41.573675 15708 net.cpp:84] Creating Layer conv_stage0_block1_branch2b
I0610 03:32:41.573678 15708 net.cpp:406] conv_stage0_block1_branch2b <- conv_stage0_block1_branch2a
I0610 03:32:41.573685 15708 net.cpp:380] conv_stage0_block1_branch2b -> conv_stage0_block1_branch2b
I0610 03:32:41.574023 15708 net.cpp:122] Setting up conv_stage0_block1_branch2b
I0610 03:32:41.574035 15708 net.cpp:129] Top shape: 7 32 56 56 (702464)
I0610 03:32:41.574039 15708 net.cpp:137] Memory required for data: 259911708
I0610 03:32:41.574046 15708 layer_factory.hpp:77] Creating layer bn_stage0_block1_branch2b
I0610 03:32:41.574062 15708 net.cpp:84] Creating Layer bn_stage0_block1_branch2b
I0610 03:32:41.574065 15708 net.cpp:406] bn_stage0_block1_branch2b <- conv_stage0_block1_branch2b
I0610 03:32:41.574075 15708 net.cpp:367] bn_stage0_block1_branch2b -> conv_stage0_block1_branch2b (in-place)
I0610 03:32:41.574231 15708 net.cpp:122] Setting up bn_stage0_block1_branch2b
I0610 03:32:41.574237 15708 net.cpp:129] Top shape: 7 32 56 56 (702464)
I0610 03:32:41.574240 15708 net.cpp:137] Memory required for data: 262721564
I0610 03:32:41.574246 15708 layer_factory.hpp:77] Creating layer scale_stage0_block1_branch2b
I0610 03:32:41.574273 15708 net.cpp:84] Creating Layer scale_stage0_block1_branch2b
I0610 03:32:41.574280 15708 net.cpp:406] scale_stage0_block1_branch2b <- conv_stage0_block1_branch2b
I0610 03:32:41.574287 15708 net.cpp:367] scale_stage0_block1_branch2b -> conv_stage0_block1_branch2b (in-place)
I0610 03:32:41.574323 15708 layer_factory.hpp:77] Creating layer scale_stage0_block1_branch2b
I0610 03:32:41.574422 15708 net.cpp:122] Setting up scale_stage0_block1_branch2b
I0610 03:32:41.574429 15708 net.cpp:129] Top shape: 7 32 56 56 (702464)
I0610 03:32:41.574431 15708 net.cpp:137] Memory required for data: 265531420
I0610 03:32:41.574437 15708 layer_factory.hpp:77] Creating layer relu_stage0_block1_branch2b
I0610 03:32:41.574442 15708 net.cpp:84] Creating Layer relu_stage0_block1_branch2b
I0610 03:32:41.574446 15708 net.cpp:406] relu_stage0_block1_branch2b <- conv_stage0_block1_branch2b
I0610 03:32:41.574450 15708 net.cpp:367] relu_stage0_block1_branch2b -> conv_stage0_block1_branch2b (in-place)
I0610 03:32:41.574455 15708 net.cpp:122] Setting up relu_stage0_block1_branch2b
I0610 03:32:41.574460 15708 net.cpp:129] Top shape: 7 32 56 56 (702464)
I0610 03:32:41.574462 15708 net.cpp:137] Memory required for data: 268341276
I0610 03:32:41.574465 15708 layer_factory.hpp:77] Creating layer conv_stage0_block1_branch2c
I0610 03:32:41.574479 15708 net.cpp:84] Creating Layer conv_stage0_block1_branch2c
I0610 03:32:41.574482 15708 net.cpp:406] conv_stage0_block1_branch2c <- conv_stage0_block1_branch2b
I0610 03:32:41.574487 15708 net.cpp:380] conv_stage0_block1_branch2c -> conv_stage0_block1_branch2c
I0610 03:32:41.574666 15708 net.cpp:122] Setting up conv_stage0_block1_branch2c
I0610 03:32:41.574671 15708 net.cpp:129] Top shape: 7 128 56 56 (2809856)
I0610 03:32:41.574676 15708 net.cpp:137] Memory required for data: 279580700
I0610 03:32:41.574679 15708 layer_factory.hpp:77] Creating layer bn_stage0_block1_branch2c
I0610 03:32:41.574685 15708 net.cpp:84] Creating Layer bn_stage0_block1_branch2c
I0610 03:32:41.574689 15708 net.cpp:406] bn_stage0_block1_branch2c <- conv_stage0_block1_branch2c
I0610 03:32:41.574693 15708 net.cpp:367] bn_stage0_block1_branch2c -> conv_stage0_block1_branch2c (in-place)
I0610 03:32:41.575237 15708 net.cpp:122] Setting up bn_stage0_block1_branch2c
I0610 03:32:41.575243 15708 net.cpp:129] Top shape: 7 128 56 56 (2809856)
I0610 03:32:41.575245 15708 net.cpp:137] Memory required for data: 290820124
I0610 03:32:41.575251 15708 layer_factory.hpp:77] Creating layer scale_stage0_block1_branch2c
I0610 03:32:41.575258 15708 net.cpp:84] Creating Layer scale_stage0_block1_branch2c
I0610 03:32:41.575260 15708 net.cpp:406] scale_stage0_block1_branch2c <- conv_stage0_block1_branch2c
I0610 03:32:41.575264 15708 net.cpp:367] scale_stage0_block1_branch2c -> conv_stage0_block1_branch2c (in-place)
I0610 03:32:41.575290 15708 layer_factory.hpp:77] Creating layer scale_stage0_block1_branch2c
I0610 03:32:41.575366 15708 net.cpp:122] Setting up scale_stage0_block1_branch2c
I0610 03:32:41.575371 15708 net.cpp:129] Top shape: 7 128 56 56 (2809856)
I0610 03:32:41.575373 15708 net.cpp:137] Memory required for data: 302059548
I0610 03:32:41.575387 15708 layer_factory.hpp:77] Creating layer eltwise_stage0_block1
I0610 03:32:41.575392 15708 net.cpp:84] Creating Layer eltwise_stage0_block1
I0610 03:32:41.575395 15708 net.cpp:406] eltwise_stage0_block1 <- eltwise_stage0_block0_relu_stage0_block0_0_split_1
I0610 03:32:41.575398 15708 net.cpp:406] eltwise_stage0_block1 <- conv_stage0_block1_branch2c
I0610 03:32:41.575402 15708 net.cpp:380] eltwise_stage0_block1 -> eltwise_stage0_block1
I0610 03:32:41.575423 15708 net.cpp:122] Setting up eltwise_stage0_block1
I0610 03:32:41.575428 15708 net.cpp:129] Top shape: 7 128 56 56 (2809856)
I0610 03:32:41.575430 15708 net.cpp:137] Memory required for data: 313298972
I0610 03:32:41.575433 15708 layer_factory.hpp:77] Creating layer relu_stage0_block1
I0610 03:32:41.575438 15708 net.cpp:84] Creating Layer relu_stage0_block1
I0610 03:32:41.575440 15708 net.cpp:406] relu_stage0_block1 <- eltwise_stage0_block1
I0610 03:32:41.575444 15708 net.cpp:367] relu_stage0_block1 -> eltwise_stage0_block1 (in-place)
I0610 03:32:41.575448 15708 net.cpp:122] Setting up relu_stage0_block1
I0610 03:32:41.575453 15708 net.cpp:129] Top shape: 7 128 56 56 (2809856)
I0610 03:32:41.575454 15708 net.cpp:137] Memory required for data: 324538396
I0610 03:32:41.575456 15708 layer_factory.hpp:77] Creating layer eltwise_stage0_block1_relu_stage0_block1_0_split
I0610 03:32:41.575461 15708 net.cpp:84] Creating Layer eltwise_stage0_block1_relu_stage0_block1_0_split
I0610 03:32:41.575465 15708 net.cpp:406] eltwise_stage0_block1_relu_stage0_block1_0_split <- eltwise_stage0_block1
I0610 03:32:41.575470 15708 net.cpp:380] eltwise_stage0_block1_relu_stage0_block1_0_split -> eltwise_stage0_block1_relu_stage0_block1_0_split_0
I0610 03:32:41.575475 15708 net.cpp:380] eltwise_stage0_block1_relu_stage0_block1_0_split -> eltwise_stage0_block1_relu_stage0_block1_0_split_1
I0610 03:32:41.575500 15708 net.cpp:122] Setting up eltwise_stage0_block1_relu_stage0_block1_0_split
I0610 03:32:41.575503 15708 net.cpp:129] Top shape: 7 128 56 56 (2809856)
I0610 03:32:41.575507 15708 net.cpp:129] Top shape: 7 128 56 56 (2809856)
I0610 03:32:41.575510 15708 net.cpp:137] Memory required for data: 347017244
I0610 03:32:41.575511 15708 layer_factory.hpp:77] Creating layer conv_stage0_block2_branch2a
I0610 03:32:41.575520 15708 net.cpp:84] Creating Layer conv_stage0_block2_branch2a
I0610 03:32:41.575523 15708 net.cpp:406] conv_stage0_block2_branch2a <- eltwise_stage0_block1_relu_stage0_block1_0_split_0
I0610 03:32:41.575528 15708 net.cpp:380] conv_stage0_block2_branch2a -> conv_stage0_block2_branch2a
I0610 03:32:41.575704 15708 net.cpp:122] Setting up conv_stage0_block2_branch2a
I0610 03:32:41.575709 15708 net.cpp:129] Top shape: 7 32 56 56 (702464)
I0610 03:32:41.575712 15708 net.cpp:137] Memory required for data: 349827100
I0610 03:32:41.575716 15708 layer_factory.hpp:77] Creating layer bn_stage0_block2_branch2a
I0610 03:32:41.575722 15708 net.cpp:84] Creating Layer bn_stage0_block2_branch2a
I0610 03:32:41.575724 15708 net.cpp:406] bn_stage0_block2_branch2a <- conv_stage0_block2_branch2a
I0610 03:32:41.575729 15708 net.cpp:367] bn_stage0_block2_branch2a -> conv_stage0_block2_branch2a (in-place)
I0610 03:32:41.575914 15708 net.cpp:122] Setting up bn_stage0_block2_branch2a
I0610 03:32:41.575924 15708 net.cpp:129] Top shape: 7 32 56 56 (702464)
I0610 03:32:41.575929 15708 net.cpp:137] Memory required for data: 352636956
I0610 03:32:41.575938 15708 layer_factory.hpp:77] Creating layer scale_stage0_block2_branch2a
I0610 03:32:41.575944 15708 net.cpp:84] Creating Layer scale_stage0_block2_branch2a
I0610 03:32:41.575947 15708 net.cpp:406] scale_stage0_block2_branch2a <- conv_stage0_block2_branch2a
I0610 03:32:41.575953 15708 net.cpp:367] scale_stage0_block2_branch2a -> conv_stage0_block2_branch2a (in-place)
I0610 03:32:41.575991 15708 layer_factory.hpp:77] Creating layer scale_stage0_block2_branch2a
I0610 03:32:41.576092 15708 net.cpp:122] Setting up scale_stage0_block2_branch2a
I0610 03:32:41.576102 15708 net.cpp:129] Top shape: 7 32 56 56 (702464)
I0610 03:32:41.576112 15708 net.cpp:137] Memory required for data: 355446812
I0610 03:32:41.576117 15708 layer_factory.hpp:77] Creating layer relu_stage0_block2_branch2a
I0610 03:32:41.576122 15708 net.cpp:84] Creating Layer relu_stage0_block2_branch2a
I0610 03:32:41.576125 15708 net.cpp:406] relu_stage0_block2_branch2a <- conv_stage0_block2_branch2a
I0610 03:32:41.576130 15708 net.cpp:367] relu_stage0_block2_branch2a -> conv_stage0_block2_branch2a (in-place)
I0610 03:32:41.576135 15708 net.cpp:122] Setting up relu_stage0_block2_branch2a
I0610 03:32:41.576138 15708 net.cpp:129] Top shape: 7 32 56 56 (702464)
I0610 03:32:41.576141 15708 net.cpp:137] Memory required for data: 358256668
I0610 03:32:41.576143 15708 layer_factory.hpp:77] Creating layer conv_stage0_block2_branch2b
I0610 03:32:41.576151 15708 net.cpp:84] Creating Layer conv_stage0_block2_branch2b
I0610 03:32:41.576154 15708 net.cpp:406] conv_stage0_block2_branch2b <- conv_stage0_block2_branch2a
I0610 03:32:41.576160 15708 net.cpp:380] conv_stage0_block2_branch2b -> conv_stage0_block2_branch2b
I0610 03:32:41.576366 15708 net.cpp:122] Setting up conv_stage0_block2_branch2b
I0610 03:32:41.576371 15708 net.cpp:129] Top shape: 7 32 56 56 (702464)
I0610 03:32:41.576375 15708 net.cpp:137] Memory required for data: 361066524
I0610 03:32:41.576385 15708 layer_factory.hpp:77] Creating layer bn_stage0_block2_branch2b
I0610 03:32:41.576391 15708 net.cpp:84] Creating Layer bn_stage0_block2_branch2b
I0610 03:32:41.576395 15708 net.cpp:406] bn_stage0_block2_branch2b <- conv_stage0_block2_branch2b
I0610 03:32:41.576400 15708 net.cpp:367] bn_stage0_block2_branch2b -> conv_stage0_block2_branch2b (in-place)
I0610 03:32:41.576530 15708 net.cpp:122] Setting up bn_stage0_block2_branch2b
I0610 03:32:41.576534 15708 net.cpp:129] Top shape: 7 32 56 56 (702464)
I0610 03:32:41.576537 15708 net.cpp:137] Memory required for data: 363876380
I0610 03:32:41.576544 15708 layer_factory.hpp:77] Creating layer scale_stage0_block2_branch2b
I0610 03:32:41.576548 15708 net.cpp:84] Creating Layer scale_stage0_block2_branch2b
I0610 03:32:41.576550 15708 net.cpp:406] scale_stage0_block2_branch2b <- conv_stage0_block2_branch2b
I0610 03:32:41.576555 15708 net.cpp:367] scale_stage0_block2_branch2b -> conv_stage0_block2_branch2b (in-place)
I0610 03:32:41.576581 15708 layer_factory.hpp:77] Creating layer scale_stage0_block2_branch2b
I0610 03:32:41.576659 15708 net.cpp:122] Setting up scale_stage0_block2_branch2b
I0610 03:32:41.576664 15708 net.cpp:129] Top shape: 7 32 56 56 (702464)
I0610 03:32:41.576666 15708 net.cpp:137] Memory required for data: 366686236
I0610 03:32:41.576671 15708 layer_factory.hpp:77] Creating layer relu_stage0_block2_branch2b
I0610 03:32:41.576675 15708 net.cpp:84] Creating Layer relu_stage0_block2_branch2b
I0610 03:32:41.576678 15708 net.cpp:406] relu_stage0_block2_branch2b <- conv_stage0_block2_branch2b
I0610 03:32:41.576681 15708 net.cpp:367] relu_stage0_block2_branch2b -> conv_stage0_block2_branch2b (in-place)
I0610 03:32:41.576685 15708 net.cpp:122] Setting up relu_stage0_block2_branch2b
I0610 03:32:41.576689 15708 net.cpp:129] Top shape: 7 32 56 56 (702464)
I0610 03:32:41.576691 15708 net.cpp:137] Memory required for data: 369496092
I0610 03:32:41.576694 15708 layer_factory.hpp:77] Creating layer conv_stage0_block2_branch2c
I0610 03:32:41.576702 15708 net.cpp:84] Creating Layer conv_stage0_block2_branch2c
I0610 03:32:41.576704 15708 net.cpp:406] conv_stage0_block2_branch2c <- conv_stage0_block2_branch2b
I0610 03:32:41.576709 15708 net.cpp:380] conv_stage0_block2_branch2c -> conv_stage0_block2_branch2c
I0610 03:32:41.576884 15708 net.cpp:122] Setting up conv_stage0_block2_branch2c
I0610 03:32:41.576889 15708 net.cpp:129] Top shape: 7 128 56 56 (2809856)
I0610 03:32:41.576892 15708 net.cpp:137] Memory required for data: 380735516
I0610 03:32:41.576897 15708 layer_factory.hpp:77] Creating layer bn_stage0_block2_branch2c
I0610 03:32:41.576902 15708 net.cpp:84] Creating Layer bn_stage0_block2_branch2c
I0610 03:32:41.576905 15708 net.cpp:406] bn_stage0_block2_branch2c <- conv_stage0_block2_branch2c
I0610 03:32:41.576916 15708 net.cpp:367] bn_stage0_block2_branch2c -> conv_stage0_block2_branch2c (in-place)
I0610 03:32:41.577049 15708 net.cpp:122] Setting up bn_stage0_block2_branch2c
I0610 03:32:41.577054 15708 net.cpp:129] Top shape: 7 128 56 56 (2809856)
I0610 03:32:41.577056 15708 net.cpp:137] Memory required for data: 391974940
I0610 03:32:41.577061 15708 layer_factory.hpp:77] Creating layer scale_stage0_block2_branch2c
I0610 03:32:41.577066 15708 net.cpp:84] Creating Layer scale_stage0_block2_branch2c
I0610 03:32:41.577069 15708 net.cpp:406] scale_stage0_block2_branch2c <- conv_stage0_block2_branch2c
I0610 03:32:41.577073 15708 net.cpp:367] scale_stage0_block2_branch2c -> conv_stage0_block2_branch2c (in-place)
I0610 03:32:41.577100 15708 layer_factory.hpp:77] Creating layer scale_stage0_block2_branch2c
I0610 03:32:41.577173 15708 net.cpp:122] Setting up scale_stage0_block2_branch2c
I0610 03:32:41.577178 15708 net.cpp:129] Top shape: 7 128 56 56 (2809856)
I0610 03:32:41.577179 15708 net.cpp:137] Memory required for data: 403214364
I0610 03:32:41.577184 15708 layer_factory.hpp:77] Creating layer eltwise_stage0_block2
I0610 03:32:41.577188 15708 net.cpp:84] Creating Layer eltwise_stage0_block2
I0610 03:32:41.577191 15708 net.cpp:406] eltwise_stage0_block2 <- eltwise_stage0_block1_relu_stage0_block1_0_split_1
I0610 03:32:41.577195 15708 net.cpp:406] eltwise_stage0_block2 <- conv_stage0_block2_branch2c
I0610 03:32:41.577199 15708 net.cpp:380] eltwise_stage0_block2 -> eltwise_stage0_block2
I0610 03:32:41.577215 15708 net.cpp:122] Setting up eltwise_stage0_block2
I0610 03:32:41.577219 15708 net.cpp:129] Top shape: 7 128 56 56 (2809856)
I0610 03:32:41.577221 15708 net.cpp:137] Memory required for data: 414453788
I0610 03:32:41.577224 15708 layer_factory.hpp:77] Creating layer relu_stage0_block2
I0610 03:32:41.577227 15708 net.cpp:84] Creating Layer relu_stage0_block2
I0610 03:32:41.577230 15708 net.cpp:406] relu_stage0_block2 <- eltwise_stage0_block2
I0610 03:32:41.577234 15708 net.cpp:367] relu_stage0_block2 -> eltwise_stage0_block2 (in-place)
I0610 03:32:41.577239 15708 net.cpp:122] Setting up relu_stage0_block2
I0610 03:32:41.577241 15708 net.cpp:129] Top shape: 7 128 56 56 (2809856)
I0610 03:32:41.577244 15708 net.cpp:137] Memory required for data: 425693212
I0610 03:32:41.577246 15708 layer_factory.hpp:77] Creating layer eltwise_stage0_block2_relu_stage0_block2_0_split
I0610 03:32:41.577250 15708 net.cpp:84] Creating Layer eltwise_stage0_block2_relu_stage0_block2_0_split
I0610 03:32:41.577252 15708 net.cpp:406] eltwise_stage0_block2_relu_stage0_block2_0_split <- eltwise_stage0_block2
I0610 03:32:41.577256 15708 net.cpp:380] eltwise_stage0_block2_relu_stage0_block2_0_split -> eltwise_stage0_block2_relu_stage0_block2_0_split_0
I0610 03:32:41.577265 15708 net.cpp:380] eltwise_stage0_block2_relu_stage0_block2_0_split -> eltwise_stage0_block2_relu_stage0_block2_0_split_1
I0610 03:32:41.577287 15708 net.cpp:122] Setting up eltwise_stage0_block2_relu_stage0_block2_0_split
I0610 03:32:41.577292 15708 net.cpp:129] Top shape: 7 128 56 56 (2809856)
I0610 03:32:41.577296 15708 net.cpp:129] Top shape: 7 128 56 56 (2809856)
I0610 03:32:41.577298 15708 net.cpp:137] Memory required for data: 448172060
I0610 03:32:41.577301 15708 layer_factory.hpp:77] Creating layer conv_stage1_block0_proj_shortcut
I0610 03:32:41.577308 15708 net.cpp:84] Creating Layer conv_stage1_block0_proj_shortcut
I0610 03:32:41.577311 15708 net.cpp:406] conv_stage1_block0_proj_shortcut <- eltwise_stage0_block2_relu_stage0_block2_0_split_0
I0610 03:32:41.577317 15708 net.cpp:380] conv_stage1_block0_proj_shortcut -> conv_stage1_block0_proj_shortcut
I0610 03:32:41.578589 15708 net.cpp:122] Setting up conv_stage1_block0_proj_shortcut
I0610 03:32:41.578600 15708 net.cpp:129] Top shape: 7 256 28 28 (1404928)
I0610 03:32:41.578603 15708 net.cpp:137] Memory required for data: 453791772
I0610 03:32:41.578609 15708 layer_factory.hpp:77] Creating layer bn_stage1_block0_proj_shortcut
I0610 03:32:41.578619 15708 net.cpp:84] Creating Layer bn_stage1_block0_proj_shortcut
I0610 03:32:41.578632 15708 net.cpp:406] bn_stage1_block0_proj_shortcut <- conv_stage1_block0_proj_shortcut
I0610 03:32:41.578639 15708 net.cpp:367] bn_stage1_block0_proj_shortcut -> conv_stage1_block0_proj_shortcut (in-place)
I0610 03:32:41.578786 15708 net.cpp:122] Setting up bn_stage1_block0_proj_shortcut
I0610 03:32:41.578791 15708 net.cpp:129] Top shape: 7 256 28 28 (1404928)
I0610 03:32:41.578794 15708 net.cpp:137] Memory required for data: 459411484
I0610 03:32:41.578799 15708 layer_factory.hpp:77] Creating layer scale_stage1_block0_proj_shortcut
I0610 03:32:41.578805 15708 net.cpp:84] Creating Layer scale_stage1_block0_proj_shortcut
I0610 03:32:41.578809 15708 net.cpp:406] scale_stage1_block0_proj_shortcut <- conv_stage1_block0_proj_shortcut
I0610 03:32:41.578812 15708 net.cpp:367] scale_stage1_block0_proj_shortcut -> conv_stage1_block0_proj_shortcut (in-place)
I0610 03:32:41.578845 15708 layer_factory.hpp:77] Creating layer scale_stage1_block0_proj_shortcut
I0610 03:32:41.578925 15708 net.cpp:122] Setting up scale_stage1_block0_proj_shortcut
I0610 03:32:41.578930 15708 net.cpp:129] Top shape: 7 256 28 28 (1404928)
I0610 03:32:41.578933 15708 net.cpp:137] Memory required for data: 465031196
I0610 03:32:41.578938 15708 layer_factory.hpp:77] Creating layer conv_stage1_block0_branch2a
I0610 03:32:41.578948 15708 net.cpp:84] Creating Layer conv_stage1_block0_branch2a
I0610 03:32:41.578951 15708 net.cpp:406] conv_stage1_block0_branch2a <- eltwise_stage0_block2_relu_stage0_block2_0_split_1
I0610 03:32:41.578958 15708 net.cpp:380] conv_stage1_block0_branch2a -> conv_stage1_block0_branch2a
I0610 03:32:41.579171 15708 net.cpp:122] Setting up conv_stage1_block0_branch2a
I0610 03:32:41.579177 15708 net.cpp:129] Top shape: 7 64 28 28 (351232)
I0610 03:32:41.579180 15708 net.cpp:137] Memory required for data: 466436124
I0610 03:32:41.579185 15708 layer_factory.hpp:77] Creating layer bn_stage1_block0_branch2a
I0610 03:32:41.579190 15708 net.cpp:84] Creating Layer bn_stage1_block0_branch2a
I0610 03:32:41.579193 15708 net.cpp:406] bn_stage1_block0_branch2a <- conv_stage1_block0_branch2a
I0610 03:32:41.579198 15708 net.cpp:367] bn_stage1_block0_branch2a -> conv_stage1_block0_branch2a (in-place)
I0610 03:32:41.579341 15708 net.cpp:122] Setting up bn_stage1_block0_branch2a
I0610 03:32:41.579346 15708 net.cpp:129] Top shape: 7 64 28 28 (351232)
I0610 03:32:41.579349 15708 net.cpp:137] Memory required for data: 467841052
I0610 03:32:41.579355 15708 layer_factory.hpp:77] Creating layer scale_stage1_block0_branch2a
I0610 03:32:41.579360 15708 net.cpp:84] Creating Layer scale_stage1_block0_branch2a
I0610 03:32:41.579362 15708 net.cpp:406] scale_stage1_block0_branch2a <- conv_stage1_block0_branch2a
I0610 03:32:41.579366 15708 net.cpp:367] scale_stage1_block0_branch2a -> conv_stage1_block0_branch2a (in-place)
I0610 03:32:41.579396 15708 layer_factory.hpp:77] Creating layer scale_stage1_block0_branch2a
I0610 03:32:41.579484 15708 net.cpp:122] Setting up scale_stage1_block0_branch2a
I0610 03:32:41.579489 15708 net.cpp:129] Top shape: 7 64 28 28 (351232)
I0610 03:32:41.579491 15708 net.cpp:137] Memory required for data: 469245980
I0610 03:32:41.579496 15708 layer_factory.hpp:77] Creating layer relu_stage1_block0_branch2a
I0610 03:32:41.579501 15708 net.cpp:84] Creating Layer relu_stage1_block0_branch2a
I0610 03:32:41.579504 15708 net.cpp:406] relu_stage1_block0_branch2a <- conv_stage1_block0_branch2a
I0610 03:32:41.579517 15708 net.cpp:367] relu_stage1_block0_branch2a -> conv_stage1_block0_branch2a (in-place)
I0610 03:32:41.579524 15708 net.cpp:122] Setting up relu_stage1_block0_branch2a
I0610 03:32:41.579527 15708 net.cpp:129] Top shape: 7 64 28 28 (351232)
I0610 03:32:41.579530 15708 net.cpp:137] Memory required for data: 470650908
I0610 03:32:41.579532 15708 layer_factory.hpp:77] Creating layer conv_stage1_block0_branch2b
I0610 03:32:41.579540 15708 net.cpp:84] Creating Layer conv_stage1_block0_branch2b
I0610 03:32:41.579542 15708 net.cpp:406] conv_stage1_block0_branch2b <- conv_stage1_block0_branch2a
I0610 03:32:41.579555 15708 net.cpp:380] conv_stage1_block0_branch2b -> conv_stage1_block0_branch2b
I0610 03:32:41.579902 15708 net.cpp:122] Setting up conv_stage1_block0_branch2b
I0610 03:32:41.579908 15708 net.cpp:129] Top shape: 7 64 28 28 (351232)
I0610 03:32:41.579910 15708 net.cpp:137] Memory required for data: 472055836
I0610 03:32:41.579916 15708 layer_factory.hpp:77] Creating layer bn_stage1_block0_branch2b
I0610 03:32:41.579921 15708 net.cpp:84] Creating Layer bn_stage1_block0_branch2b
I0610 03:32:41.579924 15708 net.cpp:406] bn_stage1_block0_branch2b <- conv_stage1_block0_branch2b
I0610 03:32:41.579929 15708 net.cpp:367] bn_stage1_block0_branch2b -> conv_stage1_block0_branch2b (in-place)
I0610 03:32:41.580075 15708 net.cpp:122] Setting up bn_stage1_block0_branch2b
I0610 03:32:41.580080 15708 net.cpp:129] Top shape: 7 64 28 28 (351232)
I0610 03:32:41.580082 15708 net.cpp:137] Memory required for data: 473460764
I0610 03:32:41.580087 15708 layer_factory.hpp:77] Creating layer scale_stage1_block0_branch2b
I0610 03:32:41.580092 15708 net.cpp:84] Creating Layer scale_stage1_block0_branch2b
I0610 03:32:41.580094 15708 net.cpp:406] scale_stage1_block0_branch2b <- conv_stage1_block0_branch2b
I0610 03:32:41.580099 15708 net.cpp:367] scale_stage1_block0_branch2b -> conv_stage1_block0_branch2b (in-place)
I0610 03:32:41.580129 15708 layer_factory.hpp:77] Creating layer scale_stage1_block0_branch2b
I0610 03:32:41.580215 15708 net.cpp:122] Setting up scale_stage1_block0_branch2b
I0610 03:32:41.580220 15708 net.cpp:129] Top shape: 7 64 28 28 (351232)
I0610 03:32:41.580222 15708 net.cpp:137] Memory required for data: 474865692
I0610 03:32:41.580227 15708 layer_factory.hpp:77] Creating layer relu_stage1_block0_branch2b
I0610 03:32:41.580231 15708 net.cpp:84] Creating Layer relu_stage1_block0_branch2b
I0610 03:32:41.580235 15708 net.cpp:406] relu_stage1_block0_branch2b <- conv_stage1_block0_branch2b
I0610 03:32:41.580238 15708 net.cpp:367] relu_stage1_block0_branch2b -> conv_stage1_block0_branch2b (in-place)
I0610 03:32:41.580243 15708 net.cpp:122] Setting up relu_stage1_block0_branch2b
I0610 03:32:41.580246 15708 net.cpp:129] Top shape: 7 64 28 28 (351232)
I0610 03:32:41.580248 15708 net.cpp:137] Memory required for data: 476270620
I0610 03:32:41.580251 15708 layer_factory.hpp:77] Creating layer conv_stage1_block0_branch2c
I0610 03:32:41.580258 15708 net.cpp:84] Creating Layer conv_stage1_block0_branch2c
I0610 03:32:41.580261 15708 net.cpp:406] conv_stage1_block0_branch2c <- conv_stage1_block0_branch2b
I0610 03:32:41.580266 15708 net.cpp:380] conv_stage1_block0_branch2c -> conv_stage1_block0_branch2c
I0610 03:32:41.580518 15708 net.cpp:122] Setting up conv_stage1_block0_branch2c
I0610 03:32:41.580524 15708 net.cpp:129] Top shape: 7 256 28 28 (1404928)
I0610 03:32:41.580526 15708 net.cpp:137] Memory required for data: 481890332
I0610 03:32:41.580531 15708 layer_factory.hpp:77] Creating layer bn_stage1_block0_branch2c
I0610 03:32:41.580570 15708 net.cpp:84] Creating Layer bn_stage1_block0_branch2c
I0610 03:32:41.580574 15708 net.cpp:406] bn_stage1_block0_branch2c <- conv_stage1_block0_branch2c
I0610 03:32:41.580579 15708 net.cpp:367] bn_stage1_block0_branch2c -> conv_stage1_block0_branch2c (in-place)
I0610 03:32:41.580716 15708 net.cpp:122] Setting up bn_stage1_block0_branch2c
I0610 03:32:41.580724 15708 net.cpp:129] Top shape: 7 256 28 28 (1404928)
I0610 03:32:41.580725 15708 net.cpp:137] Memory required for data: 487510044
I0610 03:32:41.580734 15708 layer_factory.hpp:77] Creating layer scale_stage1_block0_branch2c
I0610 03:32:41.580741 15708 net.cpp:84] Creating Layer scale_stage1_block0_branch2c
I0610 03:32:41.580744 15708 net.cpp:406] scale_stage1_block0_branch2c <- conv_stage1_block0_branch2c
I0610 03:32:41.580749 15708 net.cpp:367] scale_stage1_block0_branch2c -> conv_stage1_block0_branch2c (in-place)
I0610 03:32:41.580781 15708 layer_factory.hpp:77] Creating layer scale_stage1_block0_branch2c
I0610 03:32:41.580873 15708 net.cpp:122] Setting up scale_stage1_block0_branch2c
I0610 03:32:41.580879 15708 net.cpp:129] Top shape: 7 256 28 28 (1404928)
I0610 03:32:41.580888 15708 net.cpp:137] Memory required for data: 493129756
I0610 03:32:41.580893 15708 layer_factory.hpp:77] Creating layer eltwise_stage1_block0
I0610 03:32:41.580899 15708 net.cpp:84] Creating Layer eltwise_stage1_block0
I0610 03:32:41.580904 15708 net.cpp:406] eltwise_stage1_block0 <- conv_stage1_block0_proj_shortcut
I0610 03:32:41.580909 15708 net.cpp:406] eltwise_stage1_block0 <- conv_stage1_block0_branch2c
I0610 03:32:41.580914 15708 net.cpp:380] eltwise_stage1_block0 -> eltwise_stage1_block0
I0610 03:32:41.580935 15708 net.cpp:122] Setting up eltwise_stage1_block0
I0610 03:32:41.580940 15708 net.cpp:129] Top shape: 7 256 28 28 (1404928)
I0610 03:32:41.580941 15708 net.cpp:137] Memory required for data: 498749468
I0610 03:32:41.580943 15708 layer_factory.hpp:77] Creating layer relu_stage1_block0
I0610 03:32:41.580948 15708 net.cpp:84] Creating Layer relu_stage1_block0
I0610 03:32:41.580951 15708 net.cpp:406] relu_stage1_block0 <- eltwise_stage1_block0
I0610 03:32:41.580955 15708 net.cpp:367] relu_stage1_block0 -> eltwise_stage1_block0 (in-place)
I0610 03:32:41.580960 15708 net.cpp:122] Setting up relu_stage1_block0
I0610 03:32:41.580963 15708 net.cpp:129] Top shape: 7 256 28 28 (1404928)
I0610 03:32:41.580965 15708 net.cpp:137] Memory required for data: 504369180
I0610 03:32:41.580968 15708 layer_factory.hpp:77] Creating layer eltwise_stage1_block0_relu_stage1_block0_0_split
I0610 03:32:41.580973 15708 net.cpp:84] Creating Layer eltwise_stage1_block0_relu_stage1_block0_0_split
I0610 03:32:41.580976 15708 net.cpp:406] eltwise_stage1_block0_relu_stage1_block0_0_split <- eltwise_stage1_block0
I0610 03:32:41.580981 15708 net.cpp:380] eltwise_stage1_block0_relu_stage1_block0_0_split -> eltwise_stage1_block0_relu_stage1_block0_0_split_0
I0610 03:32:41.580987 15708 net.cpp:380] eltwise_stage1_block0_relu_stage1_block0_0_split -> eltwise_stage1_block0_relu_stage1_block0_0_split_1
I0610 03:32:41.581012 15708 net.cpp:122] Setting up eltwise_stage1_block0_relu_stage1_block0_0_split
I0610 03:32:41.581017 15708 net.cpp:129] Top shape: 7 256 28 28 (1404928)
I0610 03:32:41.581019 15708 net.cpp:129] Top shape: 7 256 28 28 (1404928)
I0610 03:32:41.581022 15708 net.cpp:137] Memory required for data: 515608604
I0610 03:32:41.581024 15708 layer_factory.hpp:77] Creating layer conv_stage1_block1_branch2a
I0610 03:32:41.581034 15708 net.cpp:84] Creating Layer conv_stage1_block1_branch2a
I0610 03:32:41.581037 15708 net.cpp:406] conv_stage1_block1_branch2a <- eltwise_stage1_block0_relu_stage1_block0_0_split_0
I0610 03:32:41.581043 15708 net.cpp:380] conv_stage1_block1_branch2a -> conv_stage1_block1_branch2a
I0610 03:32:41.581305 15708 net.cpp:122] Setting up conv_stage1_block1_branch2a
I0610 03:32:41.581311 15708 net.cpp:129] Top shape: 7 64 28 28 (351232)
I0610 03:32:41.581313 15708 net.cpp:137] Memory required for data: 517013532
I0610 03:32:41.581318 15708 layer_factory.hpp:77] Creating layer bn_stage1_block1_branch2a
I0610 03:32:41.581327 15708 net.cpp:84] Creating Layer bn_stage1_block1_branch2a
I0610 03:32:41.581331 15708 net.cpp:406] bn_stage1_block1_branch2a <- conv_stage1_block1_branch2a
I0610 03:32:41.581336 15708 net.cpp:367] bn_stage1_block1_branch2a -> conv_stage1_block1_branch2a (in-place)
I0610 03:32:41.581813 15708 net.cpp:122] Setting up bn_stage1_block1_branch2a
I0610 03:32:41.581818 15708 net.cpp:129] Top shape: 7 64 28 28 (351232)
I0610 03:32:41.581820 15708 net.cpp:137] Memory required for data: 518418460
I0610 03:32:41.581826 15708 layer_factory.hpp:77] Creating layer scale_stage1_block1_branch2a
I0610 03:32:41.581832 15708 net.cpp:84] Creating Layer scale_stage1_block1_branch2a
I0610 03:32:41.581835 15708 net.cpp:406] scale_stage1_block1_branch2a <- conv_stage1_block1_branch2a
I0610 03:32:41.581840 15708 net.cpp:367] scale_stage1_block1_branch2a -> conv_stage1_block1_branch2a (in-place)
I0610 03:32:41.581868 15708 layer_factory.hpp:77] Creating layer scale_stage1_block1_branch2a
I0610 03:32:41.581954 15708 net.cpp:122] Setting up scale_stage1_block1_branch2a
I0610 03:32:41.581965 15708 net.cpp:129] Top shape: 7 64 28 28 (351232)
I0610 03:32:41.581969 15708 net.cpp:137] Memory required for data: 519823388
I0610 03:32:41.581974 15708 layer_factory.hpp:77] Creating layer relu_stage1_block1_branch2a
I0610 03:32:41.581979 15708 net.cpp:84] Creating Layer relu_stage1_block1_branch2a
I0610 03:32:41.581981 15708 net.cpp:406] relu_stage1_block1_branch2a <- conv_stage1_block1_branch2a
I0610 03:32:41.581986 15708 net.cpp:367] relu_stage1_block1_branch2a -> conv_stage1_block1_branch2a (in-place)
I0610 03:32:41.581990 15708 net.cpp:122] Setting up relu_stage1_block1_branch2a
I0610 03:32:41.581995 15708 net.cpp:129] Top shape: 7 64 28 28 (351232)
I0610 03:32:41.581996 15708 net.cpp:137] Memory required for data: 521228316
I0610 03:32:41.582000 15708 layer_factory.hpp:77] Creating layer conv_stage1_block1_branch2b
I0610 03:32:41.582006 15708 net.cpp:84] Creating Layer conv_stage1_block1_branch2b
I0610 03:32:41.582010 15708 net.cpp:406] conv_stage1_block1_branch2b <- conv_stage1_block1_branch2a
I0610 03:32:41.582016 15708 net.cpp:380] conv_stage1_block1_branch2b -> conv_stage1_block1_branch2b
I0610 03:32:41.582384 15708 net.cpp:122] Setting up conv_stage1_block1_branch2b
I0610 03:32:41.582391 15708 net.cpp:129] Top shape: 7 64 28 28 (351232)
I0610 03:32:41.582393 15708 net.cpp:137] Memory required for data: 522633244
I0610 03:32:41.582398 15708 layer_factory.hpp:77] Creating layer bn_stage1_block1_branch2b
I0610 03:32:41.582404 15708 net.cpp:84] Creating Layer bn_stage1_block1_branch2b
I0610 03:32:41.582406 15708 net.cpp:406] bn_stage1_block1_branch2b <- conv_stage1_block1_branch2b
I0610 03:32:41.582413 15708 net.cpp:367] bn_stage1_block1_branch2b -> conv_stage1_block1_branch2b (in-place)
I0610 03:32:41.582553 15708 net.cpp:122] Setting up bn_stage1_block1_branch2b
I0610 03:32:41.582558 15708 net.cpp:129] Top shape: 7 64 28 28 (351232)
I0610 03:32:41.582561 15708 net.cpp:137] Memory required for data: 524038172
I0610 03:32:41.582566 15708 layer_factory.hpp:77] Creating layer scale_stage1_block1_branch2b
I0610 03:32:41.582571 15708 net.cpp:84] Creating Layer scale_stage1_block1_branch2b
I0610 03:32:41.582574 15708 net.cpp:406] scale_stage1_block1_branch2b <- conv_stage1_block1_branch2b
I0610 03:32:41.582578 15708 net.cpp:367] scale_stage1_block1_branch2b -> conv_stage1_block1_branch2b (in-place)
I0610 03:32:41.582605 15708 layer_factory.hpp:77] Creating layer scale_stage1_block1_branch2b
I0610 03:32:41.582692 15708 net.cpp:122] Setting up scale_stage1_block1_branch2b
I0610 03:32:41.582697 15708 net.cpp:129] Top shape: 7 64 28 28 (351232)
I0610 03:32:41.582700 15708 net.cpp:137] Memory required for data: 525443100
I0610 03:32:41.582703 15708 layer_factory.hpp:77] Creating layer relu_stage1_block1_branch2b
I0610 03:32:41.582708 15708 net.cpp:84] Creating Layer relu_stage1_block1_branch2b
I0610 03:32:41.582711 15708 net.cpp:406] relu_stage1_block1_branch2b <- conv_stage1_block1_branch2b
I0610 03:32:41.582715 15708 net.cpp:367] relu_stage1_block1_branch2b -> conv_stage1_block1_branch2b (in-place)
I0610 03:32:41.582720 15708 net.cpp:122] Setting up relu_stage1_block1_branch2b
I0610 03:32:41.582725 15708 net.cpp:129] Top shape: 7 64 28 28 (351232)
I0610 03:32:41.582726 15708 net.cpp:137] Memory required for data: 526848028
I0610 03:32:41.582729 15708 layer_factory.hpp:77] Creating layer conv_stage1_block1_branch2c
I0610 03:32:41.582736 15708 net.cpp:84] Creating Layer conv_stage1_block1_branch2c
I0610 03:32:41.582738 15708 net.cpp:406] conv_stage1_block1_branch2c <- conv_stage1_block1_branch2b
I0610 03:32:41.582744 15708 net.cpp:380] conv_stage1_block1_branch2c -> conv_stage1_block1_branch2c
I0610 03:32:41.582998 15708 net.cpp:122] Setting up conv_stage1_block1_branch2c
I0610 03:32:41.583003 15708 net.cpp:129] Top shape: 7 256 28 28 (1404928)
I0610 03:32:41.583005 15708 net.cpp:137] Memory required for data: 532467740
I0610 03:32:41.583010 15708 layer_factory.hpp:77] Creating layer bn_stage1_block1_branch2c
I0610 03:32:41.583016 15708 net.cpp:84] Creating Layer bn_stage1_block1_branch2c
I0610 03:32:41.583019 15708 net.cpp:406] bn_stage1_block1_branch2c <- conv_stage1_block1_branch2c
I0610 03:32:41.583034 15708 net.cpp:367] bn_stage1_block1_branch2c -> conv_stage1_block1_branch2c (in-place)
I0610 03:32:41.583173 15708 net.cpp:122] Setting up bn_stage1_block1_branch2c
I0610 03:32:41.583178 15708 net.cpp:129] Top shape: 7 256 28 28 (1404928)
I0610 03:32:41.583180 15708 net.cpp:137] Memory required for data: 538087452
I0610 03:32:41.583186 15708 layer_factory.hpp:77] Creating layer scale_stage1_block1_branch2c
I0610 03:32:41.583190 15708 net.cpp:84] Creating Layer scale_stage1_block1_branch2c
I0610 03:32:41.583194 15708 net.cpp:406] scale_stage1_block1_branch2c <- conv_stage1_block1_branch2c
I0610 03:32:41.583199 15708 net.cpp:367] scale_stage1_block1_branch2c -> conv_stage1_block1_branch2c (in-place)
I0610 03:32:41.583226 15708 layer_factory.hpp:77] Creating layer scale_stage1_block1_branch2c
I0610 03:32:41.583307 15708 net.cpp:122] Setting up scale_stage1_block1_branch2c
I0610 03:32:41.583312 15708 net.cpp:129] Top shape: 7 256 28 28 (1404928)
I0610 03:32:41.583314 15708 net.cpp:137] Memory required for data: 543707164
I0610 03:32:41.583318 15708 layer_factory.hpp:77] Creating layer eltwise_stage1_block1
I0610 03:32:41.583323 15708 net.cpp:84] Creating Layer eltwise_stage1_block1
I0610 03:32:41.583326 15708 net.cpp:406] eltwise_stage1_block1 <- eltwise_stage1_block0_relu_stage1_block0_0_split_1
I0610 03:32:41.583330 15708 net.cpp:406] eltwise_stage1_block1 <- conv_stage1_block1_branch2c
I0610 03:32:41.583335 15708 net.cpp:380] eltwise_stage1_block1 -> eltwise_stage1_block1
I0610 03:32:41.583353 15708 net.cpp:122] Setting up eltwise_stage1_block1
I0610 03:32:41.583359 15708 net.cpp:129] Top shape: 7 256 28 28 (1404928)
I0610 03:32:41.583360 15708 net.cpp:137] Memory required for data: 549326876
I0610 03:32:41.583362 15708 layer_factory.hpp:77] Creating layer relu_stage1_block1
I0610 03:32:41.583366 15708 net.cpp:84] Creating Layer relu_stage1_block1
I0610 03:32:41.583369 15708 net.cpp:406] relu_stage1_block1 <- eltwise_stage1_block1
I0610 03:32:41.583374 15708 net.cpp:367] relu_stage1_block1 -> eltwise_stage1_block1 (in-place)
I0610 03:32:41.583377 15708 net.cpp:122] Setting up relu_stage1_block1
I0610 03:32:41.583380 15708 net.cpp:129] Top shape: 7 256 28 28 (1404928)
I0610 03:32:41.583384 15708 net.cpp:137] Memory required for data: 554946588
I0610 03:32:41.583385 15708 layer_factory.hpp:77] Creating layer eltwise_stage1_block1_relu_stage1_block1_0_split
I0610 03:32:41.583392 15708 net.cpp:84] Creating Layer eltwise_stage1_block1_relu_stage1_block1_0_split
I0610 03:32:41.583395 15708 net.cpp:406] eltwise_stage1_block1_relu_stage1_block1_0_split <- eltwise_stage1_block1
I0610 03:32:41.583398 15708 net.cpp:380] eltwise_stage1_block1_relu_stage1_block1_0_split -> eltwise_stage1_block1_relu_stage1_block1_0_split_0
I0610 03:32:41.583405 15708 net.cpp:380] eltwise_stage1_block1_relu_stage1_block1_0_split -> eltwise_stage1_block1_relu_stage1_block1_0_split_1
I0610 03:32:41.583429 15708 net.cpp:122] Setting up eltwise_stage1_block1_relu_stage1_block1_0_split
I0610 03:32:41.583433 15708 net.cpp:129] Top shape: 7 256 28 28 (1404928)
I0610 03:32:41.583436 15708 net.cpp:129] Top shape: 7 256 28 28 (1404928)
I0610 03:32:41.583439 15708 net.cpp:137] Memory required for data: 566186012
I0610 03:32:41.583441 15708 layer_factory.hpp:77] Creating layer conv_stage1_block2_branch2a
I0610 03:32:41.583448 15708 net.cpp:84] Creating Layer conv_stage1_block2_branch2a
I0610 03:32:41.583451 15708 net.cpp:406] conv_stage1_block2_branch2a <- eltwise_stage1_block1_relu_stage1_block1_0_split_0
I0610 03:32:41.583457 15708 net.cpp:380] conv_stage1_block2_branch2a -> conv_stage1_block2_branch2a
I0610 03:32:41.583703 15708 net.cpp:122] Setting up conv_stage1_block2_branch2a
I0610 03:32:41.583709 15708 net.cpp:129] Top shape: 7 64 28 28 (351232)
I0610 03:32:41.583711 15708 net.cpp:137] Memory required for data: 567590940
I0610 03:32:41.583716 15708 layer_factory.hpp:77] Creating layer bn_stage1_block2_branch2a
I0610 03:32:41.583724 15708 net.cpp:84] Creating Layer bn_stage1_block2_branch2a
I0610 03:32:41.583732 15708 net.cpp:406] bn_stage1_block2_branch2a <- conv_stage1_block2_branch2a
I0610 03:32:41.583739 15708 net.cpp:367] bn_stage1_block2_branch2a -> conv_stage1_block2_branch2a (in-place)
I0610 03:32:41.583895 15708 net.cpp:122] Setting up bn_stage1_block2_branch2a
I0610 03:32:41.583904 15708 net.cpp:129] Top shape: 7 64 28 28 (351232)
I0610 03:32:41.583907 15708 net.cpp:137] Memory required for data: 568995868
I0610 03:32:41.583936 15708 layer_factory.hpp:77] Creating layer scale_stage1_block2_branch2a
I0610 03:32:41.583943 15708 net.cpp:84] Creating Layer scale_stage1_block2_branch2a
I0610 03:32:41.583946 15708 net.cpp:406] scale_stage1_block2_branch2a <- conv_stage1_block2_branch2a
I0610 03:32:41.583951 15708 net.cpp:367] scale_stage1_block2_branch2a -> conv_stage1_block2_branch2a (in-place)
I0610 03:32:41.583984 15708 layer_factory.hpp:77] Creating layer scale_stage1_block2_branch2a
I0610 03:32:41.584098 15708 net.cpp:122] Setting up scale_stage1_block2_branch2a
I0610 03:32:41.584108 15708 net.cpp:129] Top shape: 7 64 28 28 (351232)
I0610 03:32:41.584112 15708 net.cpp:137] Memory required for data: 570400796
I0610 03:32:41.584120 15708 layer_factory.hpp:77] Creating layer relu_stage1_block2_branch2a
I0610 03:32:41.584130 15708 net.cpp:84] Creating Layer relu_stage1_block2_branch2a
I0610 03:32:41.584134 15708 net.cpp:406] relu_stage1_block2_branch2a <- conv_stage1_block2_branch2a
I0610 03:32:41.584141 15708 net.cpp:367] relu_stage1_block2_branch2a -> conv_stage1_block2_branch2a (in-place)
I0610 03:32:41.584149 15708 net.cpp:122] Setting up relu_stage1_block2_branch2a
I0610 03:32:41.584153 15708 net.cpp:129] Top shape: 7 64 28 28 (351232)
I0610 03:32:41.584156 15708 net.cpp:137] Memory required for data: 571805724
I0610 03:32:41.584157 15708 layer_factory.hpp:77] Creating layer conv_stage1_block2_branch2b
I0610 03:32:41.584167 15708 net.cpp:84] Creating Layer conv_stage1_block2_branch2b
I0610 03:32:41.584169 15708 net.cpp:406] conv_stage1_block2_branch2b <- conv_stage1_block2_branch2a
I0610 03:32:41.584175 15708 net.cpp:380] conv_stage1_block2_branch2b -> conv_stage1_block2_branch2b
I0610 03:32:41.584540 15708 net.cpp:122] Setting up conv_stage1_block2_branch2b
I0610 03:32:41.584547 15708 net.cpp:129] Top shape: 7 64 28 28 (351232)
I0610 03:32:41.584549 15708 net.cpp:137] Memory required for data: 573210652
I0610 03:32:41.584553 15708 layer_factory.hpp:77] Creating layer bn_stage1_block2_branch2b
I0610 03:32:41.584560 15708 net.cpp:84] Creating Layer bn_stage1_block2_branch2b
I0610 03:32:41.584563 15708 net.cpp:406] bn_stage1_block2_branch2b <- conv_stage1_block2_branch2b
I0610 03:32:41.584568 15708 net.cpp:367] bn_stage1_block2_branch2b -> conv_stage1_block2_branch2b (in-place)
I0610 03:32:41.584712 15708 net.cpp:122] Setting up bn_stage1_block2_branch2b
I0610 03:32:41.584717 15708 net.cpp:129] Top shape: 7 64 28 28 (351232)
I0610 03:32:41.584719 15708 net.cpp:137] Memory required for data: 574615580
I0610 03:32:41.584724 15708 layer_factory.hpp:77] Creating layer scale_stage1_block2_branch2b
I0610 03:32:41.584730 15708 net.cpp:84] Creating Layer scale_stage1_block2_branch2b
I0610 03:32:41.584733 15708 net.cpp:406] scale_stage1_block2_branch2b <- conv_stage1_block2_branch2b
I0610 03:32:41.584736 15708 net.cpp:367] scale_stage1_block2_branch2b -> conv_stage1_block2_branch2b (in-place)
I0610 03:32:41.584766 15708 layer_factory.hpp:77] Creating layer scale_stage1_block2_branch2b
I0610 03:32:41.584853 15708 net.cpp:122] Setting up scale_stage1_block2_branch2b
I0610 03:32:41.584857 15708 net.cpp:129] Top shape: 7 64 28 28 (351232)
I0610 03:32:41.584861 15708 net.cpp:137] Memory required for data: 576020508
I0610 03:32:41.584864 15708 layer_factory.hpp:77] Creating layer relu_stage1_block2_branch2b
I0610 03:32:41.584869 15708 net.cpp:84] Creating Layer relu_stage1_block2_branch2b
I0610 03:32:41.584872 15708 net.cpp:406] relu_stage1_block2_branch2b <- conv_stage1_block2_branch2b
I0610 03:32:41.584877 15708 net.cpp:367] relu_stage1_block2_branch2b -> conv_stage1_block2_branch2b (in-place)
I0610 03:32:41.584889 15708 net.cpp:122] Setting up relu_stage1_block2_branch2b
I0610 03:32:41.584893 15708 net.cpp:129] Top shape: 7 64 28 28 (351232)
I0610 03:32:41.584895 15708 net.cpp:137] Memory required for data: 577425436
I0610 03:32:41.584898 15708 layer_factory.hpp:77] Creating layer conv_stage1_block2_branch2c
I0610 03:32:41.584906 15708 net.cpp:84] Creating Layer conv_stage1_block2_branch2c
I0610 03:32:41.584909 15708 net.cpp:406] conv_stage1_block2_branch2c <- conv_stage1_block2_branch2b
I0610 03:32:41.584914 15708 net.cpp:380] conv_stage1_block2_branch2c -> conv_stage1_block2_branch2c
I0610 03:32:41.585160 15708 net.cpp:122] Setting up conv_stage1_block2_branch2c
I0610 03:32:41.585166 15708 net.cpp:129] Top shape: 7 256 28 28 (1404928)
I0610 03:32:41.585168 15708 net.cpp:137] Memory required for data: 583045148
I0610 03:32:41.585173 15708 layer_factory.hpp:77] Creating layer bn_stage1_block2_branch2c
I0610 03:32:41.585180 15708 net.cpp:84] Creating Layer bn_stage1_block2_branch2c
I0610 03:32:41.585182 15708 net.cpp:406] bn_stage1_block2_branch2c <- conv_stage1_block2_branch2c
I0610 03:32:41.585188 15708 net.cpp:367] bn_stage1_block2_branch2c -> conv_stage1_block2_branch2c (in-place)
I0610 03:32:41.585321 15708 net.cpp:122] Setting up bn_stage1_block2_branch2c
I0610 03:32:41.585325 15708 net.cpp:129] Top shape: 7 256 28 28 (1404928)
I0610 03:32:41.585328 15708 net.cpp:137] Memory required for data: 588664860
I0610 03:32:41.585333 15708 layer_factory.hpp:77] Creating layer scale_stage1_block2_branch2c
I0610 03:32:41.585340 15708 net.cpp:84] Creating Layer scale_stage1_block2_branch2c
I0610 03:32:41.585341 15708 net.cpp:406] scale_stage1_block2_branch2c <- conv_stage1_block2_branch2c
I0610 03:32:41.585345 15708 net.cpp:367] scale_stage1_block2_branch2c -> conv_stage1_block2_branch2c (in-place)
I0610 03:32:41.585373 15708 layer_factory.hpp:77] Creating layer scale_stage1_block2_branch2c
I0610 03:32:41.585454 15708 net.cpp:122] Setting up scale_stage1_block2_branch2c
I0610 03:32:41.585458 15708 net.cpp:129] Top shape: 7 256 28 28 (1404928)
I0610 03:32:41.585461 15708 net.cpp:137] Memory required for data: 594284572
I0610 03:32:41.585465 15708 layer_factory.hpp:77] Creating layer eltwise_stage1_block2
I0610 03:32:41.585472 15708 net.cpp:84] Creating Layer eltwise_stage1_block2
I0610 03:32:41.585475 15708 net.cpp:406] eltwise_stage1_block2 <- eltwise_stage1_block1_relu_stage1_block1_0_split_1
I0610 03:32:41.585479 15708 net.cpp:406] eltwise_stage1_block2 <- conv_stage1_block2_branch2c
I0610 03:32:41.585482 15708 net.cpp:380] eltwise_stage1_block2 -> eltwise_stage1_block2
I0610 03:32:41.585501 15708 net.cpp:122] Setting up eltwise_stage1_block2
I0610 03:32:41.585505 15708 net.cpp:129] Top shape: 7 256 28 28 (1404928)
I0610 03:32:41.585507 15708 net.cpp:137] Memory required for data: 599904284
I0610 03:32:41.585510 15708 layer_factory.hpp:77] Creating layer relu_stage1_block2
I0610 03:32:41.585515 15708 net.cpp:84] Creating Layer relu_stage1_block2
I0610 03:32:41.585517 15708 net.cpp:406] relu_stage1_block2 <- eltwise_stage1_block2
I0610 03:32:41.585521 15708 net.cpp:367] relu_stage1_block2 -> eltwise_stage1_block2 (in-place)
I0610 03:32:41.585526 15708 net.cpp:122] Setting up relu_stage1_block2
I0610 03:32:41.585530 15708 net.cpp:129] Top shape: 7 256 28 28 (1404928)
I0610 03:32:41.585532 15708 net.cpp:137] Memory required for data: 605523996
I0610 03:32:41.585535 15708 layer_factory.hpp:77] Creating layer eltwise_stage1_block2_relu_stage1_block2_0_split
I0610 03:32:41.585538 15708 net.cpp:84] Creating Layer eltwise_stage1_block2_relu_stage1_block2_0_split
I0610 03:32:41.585541 15708 net.cpp:406] eltwise_stage1_block2_relu_stage1_block2_0_split <- eltwise_stage1_block2
I0610 03:32:41.585546 15708 net.cpp:380] eltwise_stage1_block2_relu_stage1_block2_0_split -> eltwise_stage1_block2_relu_stage1_block2_0_split_0
I0610 03:32:41.585551 15708 net.cpp:380] eltwise_stage1_block2_relu_stage1_block2_0_split -> eltwise_stage1_block2_relu_stage1_block2_0_split_1
I0610 03:32:41.585575 15708 net.cpp:122] Setting up eltwise_stage1_block2_relu_stage1_block2_0_split
I0610 03:32:41.585587 15708 net.cpp:129] Top shape: 7 256 28 28 (1404928)
I0610 03:32:41.585589 15708 net.cpp:129] Top shape: 7 256 28 28 (1404928)
I0610 03:32:41.585592 15708 net.cpp:137] Memory required for data: 616763420
I0610 03:32:41.585594 15708 layer_factory.hpp:77] Creating layer conv_stage1_block3_branch2a
I0610 03:32:41.585602 15708 net.cpp:84] Creating Layer conv_stage1_block3_branch2a
I0610 03:32:41.585604 15708 net.cpp:406] conv_stage1_block3_branch2a <- eltwise_stage1_block2_relu_stage1_block2_0_split_0
I0610 03:32:41.585609 15708 net.cpp:380] conv_stage1_block3_branch2a -> conv_stage1_block3_branch2a
I0610 03:32:41.585856 15708 net.cpp:122] Setting up conv_stage1_block3_branch2a
I0610 03:32:41.585862 15708 net.cpp:129] Top shape: 7 64 28 28 (351232)
I0610 03:32:41.585865 15708 net.cpp:137] Memory required for data: 618168348
I0610 03:32:41.585870 15708 layer_factory.hpp:77] Creating layer bn_stage1_block3_branch2a
I0610 03:32:41.585875 15708 net.cpp:84] Creating Layer bn_stage1_block3_branch2a
I0610 03:32:41.585878 15708 net.cpp:406] bn_stage1_block3_branch2a <- conv_stage1_block3_branch2a
I0610 03:32:41.585883 15708 net.cpp:367] bn_stage1_block3_branch2a -> conv_stage1_block3_branch2a (in-place)
I0610 03:32:41.586030 15708 net.cpp:122] Setting up bn_stage1_block3_branch2a
I0610 03:32:41.586035 15708 net.cpp:129] Top shape: 7 64 28 28 (351232)
I0610 03:32:41.586038 15708 net.cpp:137] Memory required for data: 619573276
I0610 03:32:41.586043 15708 layer_factory.hpp:77] Creating layer scale_stage1_block3_branch2a
I0610 03:32:41.586048 15708 net.cpp:84] Creating Layer scale_stage1_block3_branch2a
I0610 03:32:41.586050 15708 net.cpp:406] scale_stage1_block3_branch2a <- conv_stage1_block3_branch2a
I0610 03:32:41.586055 15708 net.cpp:367] scale_stage1_block3_branch2a -> conv_stage1_block3_branch2a (in-place)
I0610 03:32:41.586084 15708 layer_factory.hpp:77] Creating layer scale_stage1_block3_branch2a
I0610 03:32:41.586169 15708 net.cpp:122] Setting up scale_stage1_block3_branch2a
I0610 03:32:41.586175 15708 net.cpp:129] Top shape: 7 64 28 28 (351232)
I0610 03:32:41.586179 15708 net.cpp:137] Memory required for data: 620978204
I0610 03:32:41.586182 15708 layer_factory.hpp:77] Creating layer relu_stage1_block3_branch2a
I0610 03:32:41.586186 15708 net.cpp:84] Creating Layer relu_stage1_block3_branch2a
I0610 03:32:41.586189 15708 net.cpp:406] relu_stage1_block3_branch2a <- conv_stage1_block3_branch2a
I0610 03:32:41.586194 15708 net.cpp:367] relu_stage1_block3_branch2a -> conv_stage1_block3_branch2a (in-place)
I0610 03:32:41.586197 15708 net.cpp:122] Setting up relu_stage1_block3_branch2a
I0610 03:32:41.586201 15708 net.cpp:129] Top shape: 7 64 28 28 (351232)
I0610 03:32:41.586203 15708 net.cpp:137] Memory required for data: 622383132
I0610 03:32:41.586206 15708 layer_factory.hpp:77] Creating layer conv_stage1_block3_branch2b
I0610 03:32:41.586213 15708 net.cpp:84] Creating Layer conv_stage1_block3_branch2b
I0610 03:32:41.586216 15708 net.cpp:406] conv_stage1_block3_branch2b <- conv_stage1_block3_branch2a
I0610 03:32:41.586221 15708 net.cpp:380] conv_stage1_block3_branch2b -> conv_stage1_block3_branch2b
I0610 03:32:41.586585 15708 net.cpp:122] Setting up conv_stage1_block3_branch2b
I0610 03:32:41.586592 15708 net.cpp:129] Top shape: 7 64 28 28 (351232)
I0610 03:32:41.586594 15708 net.cpp:137] Memory required for data: 623788060
I0610 03:32:41.586599 15708 layer_factory.hpp:77] Creating layer bn_stage1_block3_branch2b
I0610 03:32:41.586606 15708 net.cpp:84] Creating Layer bn_stage1_block3_branch2b
I0610 03:32:41.586608 15708 net.cpp:406] bn_stage1_block3_branch2b <- conv_stage1_block3_branch2b
I0610 03:32:41.586614 15708 net.cpp:367] bn_stage1_block3_branch2b -> conv_stage1_block3_branch2b (in-place)
I0610 03:32:41.586756 15708 net.cpp:122] Setting up bn_stage1_block3_branch2b
I0610 03:32:41.586761 15708 net.cpp:129] Top shape: 7 64 28 28 (351232)
I0610 03:32:41.586763 15708 net.cpp:137] Memory required for data: 625192988
I0610 03:32:41.586768 15708 layer_factory.hpp:77] Creating layer scale_stage1_block3_branch2b
I0610 03:32:41.586781 15708 net.cpp:84] Creating Layer scale_stage1_block3_branch2b
I0610 03:32:41.586783 15708 net.cpp:406] scale_stage1_block3_branch2b <- conv_stage1_block3_branch2b
I0610 03:32:41.586788 15708 net.cpp:367] scale_stage1_block3_branch2b -> conv_stage1_block3_branch2b (in-place)
I0610 03:32:41.586817 15708 layer_factory.hpp:77] Creating layer scale_stage1_block3_branch2b
I0610 03:32:41.586904 15708 net.cpp:122] Setting up scale_stage1_block3_branch2b
I0610 03:32:41.586908 15708 net.cpp:129] Top shape: 7 64 28 28 (351232)
I0610 03:32:41.586910 15708 net.cpp:137] Memory required for data: 626597916
I0610 03:32:41.586915 15708 layer_factory.hpp:77] Creating layer relu_stage1_block3_branch2b
I0610 03:32:41.586920 15708 net.cpp:84] Creating Layer relu_stage1_block3_branch2b
I0610 03:32:41.586922 15708 net.cpp:406] relu_stage1_block3_branch2b <- conv_stage1_block3_branch2b
I0610 03:32:41.586927 15708 net.cpp:367] relu_stage1_block3_branch2b -> conv_stage1_block3_branch2b (in-place)
I0610 03:32:41.586931 15708 net.cpp:122] Setting up relu_stage1_block3_branch2b
I0610 03:32:41.586935 15708 net.cpp:129] Top shape: 7 64 28 28 (351232)
I0610 03:32:41.586937 15708 net.cpp:137] Memory required for data: 628002844
I0610 03:32:41.586939 15708 layer_factory.hpp:77] Creating layer conv_stage1_block3_branch2c
I0610 03:32:41.586947 15708 net.cpp:84] Creating Layer conv_stage1_block3_branch2c
I0610 03:32:41.586949 15708 net.cpp:406] conv_stage1_block3_branch2c <- conv_stage1_block3_branch2b
I0610 03:32:41.586956 15708 net.cpp:380] conv_stage1_block3_branch2c -> conv_stage1_block3_branch2c
I0610 03:32:41.587199 15708 net.cpp:122] Setting up conv_stage1_block3_branch2c
I0610 03:32:41.587205 15708 net.cpp:129] Top shape: 7 256 28 28 (1404928)
I0610 03:32:41.587208 15708 net.cpp:137] Memory required for data: 633622556
I0610 03:32:41.587213 15708 layer_factory.hpp:77] Creating layer bn_stage1_block3_branch2c
I0610 03:32:41.587220 15708 net.cpp:84] Creating Layer bn_stage1_block3_branch2c
I0610 03:32:41.587224 15708 net.cpp:406] bn_stage1_block3_branch2c <- conv_stage1_block3_branch2c
I0610 03:32:41.587229 15708 net.cpp:367] bn_stage1_block3_branch2c -> conv_stage1_block3_branch2c (in-place)
I0610 03:32:41.587370 15708 net.cpp:122] Setting up bn_stage1_block3_branch2c
I0610 03:32:41.587375 15708 net.cpp:129] Top shape: 7 256 28 28 (1404928)
I0610 03:32:41.587378 15708 net.cpp:137] Memory required for data: 639242268
I0610 03:32:41.587384 15708 layer_factory.hpp:77] Creating layer scale_stage1_block3_branch2c
I0610 03:32:41.587390 15708 net.cpp:84] Creating Layer scale_stage1_block3_branch2c
I0610 03:32:41.587393 15708 net.cpp:406] scale_stage1_block3_branch2c <- conv_stage1_block3_branch2c
I0610 03:32:41.587399 15708 net.cpp:367] scale_stage1_block3_branch2c -> conv_stage1_block3_branch2c (in-place)
I0610 03:32:41.587425 15708 layer_factory.hpp:77] Creating layer scale_stage1_block3_branch2c
I0610 03:32:41.587509 15708 net.cpp:122] Setting up scale_stage1_block3_branch2c
I0610 03:32:41.587515 15708 net.cpp:129] Top shape: 7 256 28 28 (1404928)
I0610 03:32:41.587517 15708 net.cpp:137] Memory required for data: 644861980
I0610 03:32:41.587522 15708 layer_factory.hpp:77] Creating layer eltwise_stage1_block3
I0610 03:32:41.587527 15708 net.cpp:84] Creating Layer eltwise_stage1_block3
I0610 03:32:41.587530 15708 net.cpp:406] eltwise_stage1_block3 <- eltwise_stage1_block2_relu_stage1_block2_0_split_1
I0610 03:32:41.587534 15708 net.cpp:406] eltwise_stage1_block3 <- conv_stage1_block3_branch2c
I0610 03:32:41.587538 15708 net.cpp:380] eltwise_stage1_block3 -> eltwise_stage1_block3
I0610 03:32:41.587556 15708 net.cpp:122] Setting up eltwise_stage1_block3
I0610 03:32:41.587560 15708 net.cpp:129] Top shape: 7 256 28 28 (1404928)
I0610 03:32:41.587563 15708 net.cpp:137] Memory required for data: 650481692
I0610 03:32:41.587565 15708 layer_factory.hpp:77] Creating layer relu_stage1_block3
I0610 03:32:41.587570 15708 net.cpp:84] Creating Layer relu_stage1_block3
I0610 03:32:41.587574 15708 net.cpp:406] relu_stage1_block3 <- eltwise_stage1_block3
I0610 03:32:41.587584 15708 net.cpp:367] relu_stage1_block3 -> eltwise_stage1_block3 (in-place)
I0610 03:32:41.587589 15708 net.cpp:122] Setting up relu_stage1_block3
I0610 03:32:41.587591 15708 net.cpp:129] Top shape: 7 256 28 28 (1404928)
I0610 03:32:41.587594 15708 net.cpp:137] Memory required for data: 656101404
I0610 03:32:41.587596 15708 layer_factory.hpp:77] Creating layer eltwise_stage1_block3_relu_stage1_block3_0_split
I0610 03:32:41.587600 15708 net.cpp:84] Creating Layer eltwise_stage1_block3_relu_stage1_block3_0_split
I0610 03:32:41.587602 15708 net.cpp:406] eltwise_stage1_block3_relu_stage1_block3_0_split <- eltwise_stage1_block3
I0610 03:32:41.587608 15708 net.cpp:380] eltwise_stage1_block3_relu_stage1_block3_0_split -> eltwise_stage1_block3_relu_stage1_block3_0_split_0
I0610 03:32:41.587615 15708 net.cpp:380] eltwise_stage1_block3_relu_stage1_block3_0_split -> eltwise_stage1_block3_relu_stage1_block3_0_split_1
I0610 03:32:41.587641 15708 net.cpp:122] Setting up eltwise_stage1_block3_relu_stage1_block3_0_split
I0610 03:32:41.587644 15708 net.cpp:129] Top shape: 7 256 28 28 (1404928)
I0610 03:32:41.587647 15708 net.cpp:129] Top shape: 7 256 28 28 (1404928)
I0610 03:32:41.587651 15708 net.cpp:137] Memory required for data: 667340828
I0610 03:32:41.587652 15708 layer_factory.hpp:77] Creating layer conv_stage2_block0_proj_shortcut
I0610 03:32:41.587659 15708 net.cpp:84] Creating Layer conv_stage2_block0_proj_shortcut
I0610 03:32:41.587661 15708 net.cpp:406] conv_stage2_block0_proj_shortcut <- eltwise_stage1_block3_relu_stage1_block3_0_split_0
I0610 03:32:41.587667 15708 net.cpp:380] conv_stage2_block0_proj_shortcut -> conv_stage2_block0_proj_shortcut
I0610 03:32:41.588951 15708 net.cpp:122] Setting up conv_stage2_block0_proj_shortcut
I0610 03:32:41.588960 15708 net.cpp:129] Top shape: 7 512 14 14 (702464)
I0610 03:32:41.588963 15708 net.cpp:137] Memory required for data: 670150684
I0610 03:32:41.588968 15708 layer_factory.hpp:77] Creating layer bn_stage2_block0_proj_shortcut
I0610 03:32:41.588975 15708 net.cpp:84] Creating Layer bn_stage2_block0_proj_shortcut
I0610 03:32:41.588979 15708 net.cpp:406] bn_stage2_block0_proj_shortcut <- conv_stage2_block0_proj_shortcut
I0610 03:32:41.588984 15708 net.cpp:367] bn_stage2_block0_proj_shortcut -> conv_stage2_block0_proj_shortcut (in-place)
I0610 03:32:41.589133 15708 net.cpp:122] Setting up bn_stage2_block0_proj_shortcut
I0610 03:32:41.589138 15708 net.cpp:129] Top shape: 7 512 14 14 (702464)
I0610 03:32:41.589139 15708 net.cpp:137] Memory required for data: 672960540
I0610 03:32:41.589145 15708 layer_factory.hpp:77] Creating layer scale_stage2_block0_proj_shortcut
I0610 03:32:41.589150 15708 net.cpp:84] Creating Layer scale_stage2_block0_proj_shortcut
I0610 03:32:41.589154 15708 net.cpp:406] scale_stage2_block0_proj_shortcut <- conv_stage2_block0_proj_shortcut
I0610 03:32:41.589156 15708 net.cpp:367] scale_stage2_block0_proj_shortcut -> conv_stage2_block0_proj_shortcut (in-place)
I0610 03:32:41.589184 15708 layer_factory.hpp:77] Creating layer scale_stage2_block0_proj_shortcut
I0610 03:32:41.589267 15708 net.cpp:122] Setting up scale_stage2_block0_proj_shortcut
I0610 03:32:41.589272 15708 net.cpp:129] Top shape: 7 512 14 14 (702464)
I0610 03:32:41.589274 15708 net.cpp:137] Memory required for data: 675770396
I0610 03:32:41.589279 15708 layer_factory.hpp:77] Creating layer conv_stage2_block0_branch2a
I0610 03:32:41.589287 15708 net.cpp:84] Creating Layer conv_stage2_block0_branch2a
I0610 03:32:41.589290 15708 net.cpp:406] conv_stage2_block0_branch2a <- eltwise_stage1_block3_relu_stage1_block3_0_split_1
I0610 03:32:41.589296 15708 net.cpp:380] conv_stage2_block0_branch2a -> conv_stage2_block0_branch2a
I0610 03:32:41.589625 15708 net.cpp:122] Setting up conv_stage2_block0_branch2a
I0610 03:32:41.589630 15708 net.cpp:129] Top shape: 7 128 14 14 (175616)
I0610 03:32:41.589633 15708 net.cpp:137] Memory required for data: 676472860
I0610 03:32:41.589637 15708 layer_factory.hpp:77] Creating layer bn_stage2_block0_branch2a
I0610 03:32:41.589651 15708 net.cpp:84] Creating Layer bn_stage2_block0_branch2a
I0610 03:32:41.589654 15708 net.cpp:406] bn_stage2_block0_branch2a <- conv_stage2_block0_branch2a
I0610 03:32:41.589660 15708 net.cpp:367] bn_stage2_block0_branch2a -> conv_stage2_block0_branch2a (in-place)
I0610 03:32:41.589797 15708 net.cpp:122] Setting up bn_stage2_block0_branch2a
I0610 03:32:41.589802 15708 net.cpp:129] Top shape: 7 128 14 14 (175616)
I0610 03:32:41.589804 15708 net.cpp:137] Memory required for data: 677175324
I0610 03:32:41.589809 15708 layer_factory.hpp:77] Creating layer scale_stage2_block0_branch2a
I0610 03:32:41.589814 15708 net.cpp:84] Creating Layer scale_stage2_block0_branch2a
I0610 03:32:41.589818 15708 net.cpp:406] scale_stage2_block0_branch2a <- conv_stage2_block0_branch2a
I0610 03:32:41.589821 15708 net.cpp:367] scale_stage2_block0_branch2a -> conv_stage2_block0_branch2a (in-place)
I0610 03:32:41.589848 15708 layer_factory.hpp:77] Creating layer scale_stage2_block0_branch2a
I0610 03:32:41.589927 15708 net.cpp:122] Setting up scale_stage2_block0_branch2a
I0610 03:32:41.589936 15708 net.cpp:129] Top shape: 7 128 14 14 (175616)
I0610 03:32:41.589937 15708 net.cpp:137] Memory required for data: 677877788
I0610 03:32:41.589941 15708 layer_factory.hpp:77] Creating layer relu_stage2_block0_branch2a
I0610 03:32:41.589946 15708 net.cpp:84] Creating Layer relu_stage2_block0_branch2a
I0610 03:32:41.589948 15708 net.cpp:406] relu_stage2_block0_branch2a <- conv_stage2_block0_branch2a
I0610 03:32:41.589952 15708 net.cpp:367] relu_stage2_block0_branch2a -> conv_stage2_block0_branch2a (in-place)
I0610 03:32:41.589957 15708 net.cpp:122] Setting up relu_stage2_block0_branch2a
I0610 03:32:41.589960 15708 net.cpp:129] Top shape: 7 128 14 14 (175616)
I0610 03:32:41.589962 15708 net.cpp:137] Memory required for data: 678580252
I0610 03:32:41.589964 15708 layer_factory.hpp:77] Creating layer conv_stage2_block0_branch2b
I0610 03:32:41.589972 15708 net.cpp:84] Creating Layer conv_stage2_block0_branch2b
I0610 03:32:41.589975 15708 net.cpp:406] conv_stage2_block0_branch2b <- conv_stage2_block0_branch2a
I0610 03:32:41.589982 15708 net.cpp:380] conv_stage2_block0_branch2b -> conv_stage2_block0_branch2b
I0610 03:32:41.591292 15708 net.cpp:122] Setting up conv_stage2_block0_branch2b
I0610 03:32:41.591301 15708 net.cpp:129] Top shape: 7 128 14 14 (175616)
I0610 03:32:41.591303 15708 net.cpp:137] Memory required for data: 679282716
I0610 03:32:41.591308 15708 layer_factory.hpp:77] Creating layer bn_stage2_block0_branch2b
I0610 03:32:41.591315 15708 net.cpp:84] Creating Layer bn_stage2_block0_branch2b
I0610 03:32:41.591320 15708 net.cpp:406] bn_stage2_block0_branch2b <- conv_stage2_block0_branch2b
I0610 03:32:41.591325 15708 net.cpp:367] bn_stage2_block0_branch2b -> conv_stage2_block0_branch2b (in-place)
I0610 03:32:41.591459 15708 net.cpp:122] Setting up bn_stage2_block0_branch2b
I0610 03:32:41.591464 15708 net.cpp:129] Top shape: 7 128 14 14 (175616)
I0610 03:32:41.591466 15708 net.cpp:137] Memory required for data: 679985180
I0610 03:32:41.591471 15708 layer_factory.hpp:77] Creating layer scale_stage2_block0_branch2b
I0610 03:32:41.591476 15708 net.cpp:84] Creating Layer scale_stage2_block0_branch2b
I0610 03:32:41.591480 15708 net.cpp:406] scale_stage2_block0_branch2b <- conv_stage2_block0_branch2b
I0610 03:32:41.591483 15708 net.cpp:367] scale_stage2_block0_branch2b -> conv_stage2_block0_branch2b (in-place)
I0610 03:32:41.591511 15708 layer_factory.hpp:77] Creating layer scale_stage2_block0_branch2b
I0610 03:32:41.591588 15708 net.cpp:122] Setting up scale_stage2_block0_branch2b
I0610 03:32:41.591593 15708 net.cpp:129] Top shape: 7 128 14 14 (175616)
I0610 03:32:41.591595 15708 net.cpp:137] Memory required for data: 680687644
I0610 03:32:41.591600 15708 layer_factory.hpp:77] Creating layer relu_stage2_block0_branch2b
I0610 03:32:41.591604 15708 net.cpp:84] Creating Layer relu_stage2_block0_branch2b
I0610 03:32:41.591608 15708 net.cpp:406] relu_stage2_block0_branch2b <- conv_stage2_block0_branch2b
I0610 03:32:41.591611 15708 net.cpp:367] relu_stage2_block0_branch2b -> conv_stage2_block0_branch2b (in-place)
I0610 03:32:41.591625 15708 net.cpp:122] Setting up relu_stage2_block0_branch2b
I0610 03:32:41.591629 15708 net.cpp:129] Top shape: 7 128 14 14 (175616)
I0610 03:32:41.591631 15708 net.cpp:137] Memory required for data: 681390108
I0610 03:32:41.591634 15708 layer_factory.hpp:77] Creating layer conv_stage2_block0_branch2c
I0610 03:32:41.591642 15708 net.cpp:84] Creating Layer conv_stage2_block0_branch2c
I0610 03:32:41.591645 15708 net.cpp:406] conv_stage2_block0_branch2c <- conv_stage2_block0_branch2b
I0610 03:32:41.591650 15708 net.cpp:380] conv_stage2_block0_branch2c -> conv_stage2_block0_branch2c
I0610 03:32:41.592556 15708 net.cpp:122] Setting up conv_stage2_block0_branch2c
I0610 03:32:41.592564 15708 net.cpp:129] Top shape: 7 512 14 14 (702464)
I0610 03:32:41.592567 15708 net.cpp:137] Memory required for data: 684199964
I0610 03:32:41.592572 15708 layer_factory.hpp:77] Creating layer bn_stage2_block0_branch2c
I0610 03:32:41.592578 15708 net.cpp:84] Creating Layer bn_stage2_block0_branch2c
I0610 03:32:41.592581 15708 net.cpp:406] bn_stage2_block0_branch2c <- conv_stage2_block0_branch2c
I0610 03:32:41.592587 15708 net.cpp:367] bn_stage2_block0_branch2c -> conv_stage2_block0_branch2c (in-place)
I0610 03:32:41.592730 15708 net.cpp:122] Setting up bn_stage2_block0_branch2c
I0610 03:32:41.592734 15708 net.cpp:129] Top shape: 7 512 14 14 (702464)
I0610 03:32:41.592736 15708 net.cpp:137] Memory required for data: 687009820
I0610 03:32:41.592742 15708 layer_factory.hpp:77] Creating layer scale_stage2_block0_branch2c
I0610 03:32:41.592748 15708 net.cpp:84] Creating Layer scale_stage2_block0_branch2c
I0610 03:32:41.592751 15708 net.cpp:406] scale_stage2_block0_branch2c <- conv_stage2_block0_branch2c
I0610 03:32:41.592754 15708 net.cpp:367] scale_stage2_block0_branch2c -> conv_stage2_block0_branch2c (in-place)
I0610 03:32:41.592782 15708 layer_factory.hpp:77] Creating layer scale_stage2_block0_branch2c
I0610 03:32:41.592864 15708 net.cpp:122] Setting up scale_stage2_block0_branch2c
I0610 03:32:41.592869 15708 net.cpp:129] Top shape: 7 512 14 14 (702464)
I0610 03:32:41.592870 15708 net.cpp:137] Memory required for data: 689819676
I0610 03:32:41.592875 15708 layer_factory.hpp:77] Creating layer eltwise_stage2_block0
I0610 03:32:41.592880 15708 net.cpp:84] Creating Layer eltwise_stage2_block0
I0610 03:32:41.592883 15708 net.cpp:406] eltwise_stage2_block0 <- conv_stage2_block0_proj_shortcut
I0610 03:32:41.592888 15708 net.cpp:406] eltwise_stage2_block0 <- conv_stage2_block0_branch2c
I0610 03:32:41.592892 15708 net.cpp:380] eltwise_stage2_block0 -> eltwise_stage2_block0
I0610 03:32:41.592912 15708 net.cpp:122] Setting up eltwise_stage2_block0
I0610 03:32:41.592916 15708 net.cpp:129] Top shape: 7 512 14 14 (702464)
I0610 03:32:41.592918 15708 net.cpp:137] Memory required for data: 692629532
I0610 03:32:41.592921 15708 layer_factory.hpp:77] Creating layer relu_stage2_block0
I0610 03:32:41.592926 15708 net.cpp:84] Creating Layer relu_stage2_block0
I0610 03:32:41.592928 15708 net.cpp:406] relu_stage2_block0 <- eltwise_stage2_block0
I0610 03:32:41.592933 15708 net.cpp:367] relu_stage2_block0 -> eltwise_stage2_block0 (in-place)
I0610 03:32:41.592937 15708 net.cpp:122] Setting up relu_stage2_block0
I0610 03:32:41.592941 15708 net.cpp:129] Top shape: 7 512 14 14 (702464)
I0610 03:32:41.592944 15708 net.cpp:137] Memory required for data: 695439388
I0610 03:32:41.592948 15708 layer_factory.hpp:77] Creating layer eltwise_stage2_block0_relu_stage2_block0_0_split
I0610 03:32:41.592960 15708 net.cpp:84] Creating Layer eltwise_stage2_block0_relu_stage2_block0_0_split
I0610 03:32:41.592962 15708 net.cpp:406] eltwise_stage2_block0_relu_stage2_block0_0_split <- eltwise_stage2_block0
I0610 03:32:41.592968 15708 net.cpp:380] eltwise_stage2_block0_relu_stage2_block0_0_split -> eltwise_stage2_block0_relu_stage2_block0_0_split_0
I0610 03:32:41.592978 15708 net.cpp:380] eltwise_stage2_block0_relu_stage2_block0_0_split -> eltwise_stage2_block0_relu_stage2_block0_0_split_1
I0610 03:32:41.593029 15708 net.cpp:122] Setting up eltwise_stage2_block0_relu_stage2_block0_0_split
I0610 03:32:41.593035 15708 net.cpp:129] Top shape: 7 512 14 14 (702464)
I0610 03:32:41.593041 15708 net.cpp:129] Top shape: 7 512 14 14 (702464)
I0610 03:32:41.593044 15708 net.cpp:137] Memory required for data: 701059100
I0610 03:32:41.593049 15708 layer_factory.hpp:77] Creating layer conv_stage2_block1_branch2a
I0610 03:32:41.593106 15708 net.cpp:84] Creating Layer conv_stage2_block1_branch2a
I0610 03:32:41.593109 15708 net.cpp:406] conv_stage2_block1_branch2a <- eltwise_stage2_block0_relu_stage2_block0_0_split_0
I0610 03:32:41.593116 15708 net.cpp:380] conv_stage2_block1_branch2a -> conv_stage2_block1_branch2a
I0610 03:32:41.593647 15708 net.cpp:122] Setting up conv_stage2_block1_branch2a
I0610 03:32:41.593654 15708 net.cpp:129] Top shape: 7 128 14 14 (175616)
I0610 03:32:41.593657 15708 net.cpp:137] Memory required for data: 701761564
I0610 03:32:41.593662 15708 layer_factory.hpp:77] Creating layer bn_stage2_block1_branch2a
I0610 03:32:41.593669 15708 net.cpp:84] Creating Layer bn_stage2_block1_branch2a
I0610 03:32:41.593673 15708 net.cpp:406] bn_stage2_block1_branch2a <- conv_stage2_block1_branch2a
I0610 03:32:41.593679 15708 net.cpp:367] bn_stage2_block1_branch2a -> conv_stage2_block1_branch2a (in-place)
I0610 03:32:41.593922 15708 net.cpp:122] Setting up bn_stage2_block1_branch2a
I0610 03:32:41.593935 15708 net.cpp:129] Top shape: 7 128 14 14 (175616)
I0610 03:32:41.593940 15708 net.cpp:137] Memory required for data: 702464028
I0610 03:32:41.593950 15708 layer_factory.hpp:77] Creating layer scale_stage2_block1_branch2a
I0610 03:32:41.593962 15708 net.cpp:84] Creating Layer scale_stage2_block1_branch2a
I0610 03:32:41.593967 15708 net.cpp:406] scale_stage2_block1_branch2a <- conv_stage2_block1_branch2a
I0610 03:32:41.593972 15708 net.cpp:367] scale_stage2_block1_branch2a -> conv_stage2_block1_branch2a (in-place)
I0610 03:32:41.594019 15708 layer_factory.hpp:77] Creating layer scale_stage2_block1_branch2a
I0610 03:32:41.594138 15708 net.cpp:122] Setting up scale_stage2_block1_branch2a
I0610 03:32:41.594146 15708 net.cpp:129] Top shape: 7 128 14 14 (175616)
I0610 03:32:41.594149 15708 net.cpp:137] Memory required for data: 703166492
I0610 03:32:41.594154 15708 layer_factory.hpp:77] Creating layer relu_stage2_block1_branch2a
I0610 03:32:41.594161 15708 net.cpp:84] Creating Layer relu_stage2_block1_branch2a
I0610 03:32:41.594164 15708 net.cpp:406] relu_stage2_block1_branch2a <- conv_stage2_block1_branch2a
I0610 03:32:41.594169 15708 net.cpp:367] relu_stage2_block1_branch2a -> conv_stage2_block1_branch2a (in-place)
I0610 03:32:41.594174 15708 net.cpp:122] Setting up relu_stage2_block1_branch2a
I0610 03:32:41.594178 15708 net.cpp:129] Top shape: 7 128 14 14 (175616)
I0610 03:32:41.594180 15708 net.cpp:137] Memory required for data: 703868956
I0610 03:32:41.594183 15708 layer_factory.hpp:77] Creating layer conv_stage2_block1_branch2b
I0610 03:32:41.594195 15708 net.cpp:84] Creating Layer conv_stage2_block1_branch2b
I0610 03:32:41.594197 15708 net.cpp:406] conv_stage2_block1_branch2b <- conv_stage2_block1_branch2a
I0610 03:32:41.594203 15708 net.cpp:380] conv_stage2_block1_branch2b -> conv_stage2_block1_branch2b
I0610 03:32:41.595718 15708 net.cpp:122] Setting up conv_stage2_block1_branch2b
I0610 03:32:41.595731 15708 net.cpp:129] Top shape: 7 128 14 14 (175616)
I0610 03:32:41.595733 15708 net.cpp:137] Memory required for data: 704571420
I0610 03:32:41.595739 15708 layer_factory.hpp:77] Creating layer bn_stage2_block1_branch2b
I0610 03:32:41.595746 15708 net.cpp:84] Creating Layer bn_stage2_block1_branch2b
I0610 03:32:41.595751 15708 net.cpp:406] bn_stage2_block1_branch2b <- conv_stage2_block1_branch2b
I0610 03:32:41.595755 15708 net.cpp:367] bn_stage2_block1_branch2b -> conv_stage2_block1_branch2b (in-place)
I0610 03:32:41.595897 15708 net.cpp:122] Setting up bn_stage2_block1_branch2b
I0610 03:32:41.595901 15708 net.cpp:129] Top shape: 7 128 14 14 (175616)
I0610 03:32:41.595904 15708 net.cpp:137] Memory required for data: 705273884
I0610 03:32:41.595919 15708 layer_factory.hpp:77] Creating layer scale_stage2_block1_branch2b
I0610 03:32:41.595926 15708 net.cpp:84] Creating Layer scale_stage2_block1_branch2b
I0610 03:32:41.595927 15708 net.cpp:406] scale_stage2_block1_branch2b <- conv_stage2_block1_branch2b
I0610 03:32:41.595933 15708 net.cpp:367] scale_stage2_block1_branch2b -> conv_stage2_block1_branch2b (in-place)
I0610 03:32:41.595964 15708 layer_factory.hpp:77] Creating layer scale_stage2_block1_branch2b
I0610 03:32:41.596047 15708 net.cpp:122] Setting up scale_stage2_block1_branch2b
I0610 03:32:41.596052 15708 net.cpp:129] Top shape: 7 128 14 14 (175616)
I0610 03:32:41.596055 15708 net.cpp:137] Memory required for data: 705976348
I0610 03:32:41.596060 15708 layer_factory.hpp:77] Creating layer relu_stage2_block1_branch2b
I0610 03:32:41.596065 15708 net.cpp:84] Creating Layer relu_stage2_block1_branch2b
I0610 03:32:41.596066 15708 net.cpp:406] relu_stage2_block1_branch2b <- conv_stage2_block1_branch2b
I0610 03:32:41.596071 15708 net.cpp:367] relu_stage2_block1_branch2b -> conv_stage2_block1_branch2b (in-place)
I0610 03:32:41.596076 15708 net.cpp:122] Setting up relu_stage2_block1_branch2b
I0610 03:32:41.596081 15708 net.cpp:129] Top shape: 7 128 14 14 (175616)
I0610 03:32:41.596082 15708 net.cpp:137] Memory required for data: 706678812
I0610 03:32:41.596084 15708 layer_factory.hpp:77] Creating layer conv_stage2_block1_branch2c
I0610 03:32:41.596093 15708 net.cpp:84] Creating Layer conv_stage2_block1_branch2c
I0610 03:32:41.596096 15708 net.cpp:406] conv_stage2_block1_branch2c <- conv_stage2_block1_branch2b
I0610 03:32:41.596101 15708 net.cpp:380] conv_stage2_block1_branch2c -> conv_stage2_block1_branch2c
I0610 03:32:41.596588 15708 net.cpp:122] Setting up conv_stage2_block1_branch2c
I0610 03:32:41.596595 15708 net.cpp:129] Top shape: 7 512 14 14 (702464)
I0610 03:32:41.596597 15708 net.cpp:137] Memory required for data: 709488668
I0610 03:32:41.596601 15708 layer_factory.hpp:77] Creating layer bn_stage2_block1_branch2c
I0610 03:32:41.596607 15708 net.cpp:84] Creating Layer bn_stage2_block1_branch2c
I0610 03:32:41.596611 15708 net.cpp:406] bn_stage2_block1_branch2c <- conv_stage2_block1_branch2c
I0610 03:32:41.596614 15708 net.cpp:367] bn_stage2_block1_branch2c -> conv_stage2_block1_branch2c (in-place)
I0610 03:32:41.596760 15708 net.cpp:122] Setting up bn_stage2_block1_branch2c
I0610 03:32:41.596765 15708 net.cpp:129] Top shape: 7 512 14 14 (702464)
I0610 03:32:41.596767 15708 net.cpp:137] Memory required for data: 712298524
I0610 03:32:41.596773 15708 layer_factory.hpp:77] Creating layer scale_stage2_block1_branch2c
I0610 03:32:41.596778 15708 net.cpp:84] Creating Layer scale_stage2_block1_branch2c
I0610 03:32:41.596781 15708 net.cpp:406] scale_stage2_block1_branch2c <- conv_stage2_block1_branch2c
I0610 03:32:41.596784 15708 net.cpp:367] scale_stage2_block1_branch2c -> conv_stage2_block1_branch2c (in-place)
I0610 03:32:41.596812 15708 layer_factory.hpp:77] Creating layer scale_stage2_block1_branch2c
I0610 03:32:41.596894 15708 net.cpp:122] Setting up scale_stage2_block1_branch2c
I0610 03:32:41.596899 15708 net.cpp:129] Top shape: 7 512 14 14 (702464)
I0610 03:32:41.596901 15708 net.cpp:137] Memory required for data: 715108380
I0610 03:32:41.596906 15708 layer_factory.hpp:77] Creating layer eltwise_stage2_block1
I0610 03:32:41.596910 15708 net.cpp:84] Creating Layer eltwise_stage2_block1
I0610 03:32:41.596915 15708 net.cpp:406] eltwise_stage2_block1 <- eltwise_stage2_block0_relu_stage2_block0_0_split_1
I0610 03:32:41.596917 15708 net.cpp:406] eltwise_stage2_block1 <- conv_stage2_block1_branch2c
I0610 03:32:41.596922 15708 net.cpp:380] eltwise_stage2_block1 -> eltwise_stage2_block1
I0610 03:32:41.596941 15708 net.cpp:122] Setting up eltwise_stage2_block1
I0610 03:32:41.596946 15708 net.cpp:129] Top shape: 7 512 14 14 (702464)
I0610 03:32:41.596948 15708 net.cpp:137] Memory required for data: 717918236
I0610 03:32:41.596951 15708 layer_factory.hpp:77] Creating layer relu_stage2_block1
I0610 03:32:41.596954 15708 net.cpp:84] Creating Layer relu_stage2_block1
I0610 03:32:41.596964 15708 net.cpp:406] relu_stage2_block1 <- eltwise_stage2_block1
I0610 03:32:41.596968 15708 net.cpp:367] relu_stage2_block1 -> eltwise_stage2_block1 (in-place)
I0610 03:32:41.596972 15708 net.cpp:122] Setting up relu_stage2_block1
I0610 03:32:41.596976 15708 net.cpp:129] Top shape: 7 512 14 14 (702464)
I0610 03:32:41.596978 15708 net.cpp:137] Memory required for data: 720728092
I0610 03:32:41.596982 15708 layer_factory.hpp:77] Creating layer eltwise_stage2_block1_relu_stage2_block1_0_split
I0610 03:32:41.596985 15708 net.cpp:84] Creating Layer eltwise_stage2_block1_relu_stage2_block1_0_split
I0610 03:32:41.596987 15708 net.cpp:406] eltwise_stage2_block1_relu_stage2_block1_0_split <- eltwise_stage2_block1
I0610 03:32:41.596992 15708 net.cpp:380] eltwise_stage2_block1_relu_stage2_block1_0_split -> eltwise_stage2_block1_relu_stage2_block1_0_split_0
I0610 03:32:41.597002 15708 net.cpp:380] eltwise_stage2_block1_relu_stage2_block1_0_split -> eltwise_stage2_block1_relu_stage2_block1_0_split_1
I0610 03:32:41.597028 15708 net.cpp:122] Setting up eltwise_stage2_block1_relu_stage2_block1_0_split
I0610 03:32:41.597033 15708 net.cpp:129] Top shape: 7 512 14 14 (702464)
I0610 03:32:41.597036 15708 net.cpp:129] Top shape: 7 512 14 14 (702464)
I0610 03:32:41.597038 15708 net.cpp:137] Memory required for data: 726347804
I0610 03:32:41.597041 15708 layer_factory.hpp:77] Creating layer conv_stage2_block2_branch2a
I0610 03:32:41.597051 15708 net.cpp:84] Creating Layer conv_stage2_block2_branch2a
I0610 03:32:41.597055 15708 net.cpp:406] conv_stage2_block2_branch2a <- eltwise_stage2_block1_relu_stage2_block1_0_split_0
I0610 03:32:41.597061 15708 net.cpp:380] conv_stage2_block2_branch2a -> conv_stage2_block2_branch2a
I0610 03:32:41.597532 15708 net.cpp:122] Setting up conv_stage2_block2_branch2a
I0610 03:32:41.597537 15708 net.cpp:129] Top shape: 7 128 14 14 (175616)
I0610 03:32:41.597539 15708 net.cpp:137] Memory required for data: 727050268
I0610 03:32:41.597544 15708 layer_factory.hpp:77] Creating layer bn_stage2_block2_branch2a
I0610 03:32:41.597550 15708 net.cpp:84] Creating Layer bn_stage2_block2_branch2a
I0610 03:32:41.597553 15708 net.cpp:406] bn_stage2_block2_branch2a <- conv_stage2_block2_branch2a
I0610 03:32:41.597558 15708 net.cpp:367] bn_stage2_block2_branch2a -> conv_stage2_block2_branch2a (in-place)
I0610 03:32:41.597694 15708 net.cpp:122] Setting up bn_stage2_block2_branch2a
I0610 03:32:41.597698 15708 net.cpp:129] Top shape: 7 128 14 14 (175616)
I0610 03:32:41.597702 15708 net.cpp:137] Memory required for data: 727752732
I0610 03:32:41.597707 15708 layer_factory.hpp:77] Creating layer scale_stage2_block2_branch2a
I0610 03:32:41.597713 15708 net.cpp:84] Creating Layer scale_stage2_block2_branch2a
I0610 03:32:41.597715 15708 net.cpp:406] scale_stage2_block2_branch2a <- conv_stage2_block2_branch2a
I0610 03:32:41.597719 15708 net.cpp:367] scale_stage2_block2_branch2a -> conv_stage2_block2_branch2a (in-place)
I0610 03:32:41.597748 15708 layer_factory.hpp:77] Creating layer scale_stage2_block2_branch2a
I0610 03:32:41.597827 15708 net.cpp:122] Setting up scale_stage2_block2_branch2a
I0610 03:32:41.597831 15708 net.cpp:129] Top shape: 7 128 14 14 (175616)
I0610 03:32:41.597834 15708 net.cpp:137] Memory required for data: 728455196
I0610 03:32:41.597838 15708 layer_factory.hpp:77] Creating layer relu_stage2_block2_branch2a
I0610 03:32:41.597843 15708 net.cpp:84] Creating Layer relu_stage2_block2_branch2a
I0610 03:32:41.597846 15708 net.cpp:406] relu_stage2_block2_branch2a <- conv_stage2_block2_branch2a
I0610 03:32:41.597851 15708 net.cpp:367] relu_stage2_block2_branch2a -> conv_stage2_block2_branch2a (in-place)
I0610 03:32:41.597856 15708 net.cpp:122] Setting up relu_stage2_block2_branch2a
I0610 03:32:41.597859 15708 net.cpp:129] Top shape: 7 128 14 14 (175616)
I0610 03:32:41.597862 15708 net.cpp:137] Memory required for data: 729157660
I0610 03:32:41.597864 15708 layer_factory.hpp:77] Creating layer conv_stage2_block2_branch2b
I0610 03:32:41.597870 15708 net.cpp:84] Creating Layer conv_stage2_block2_branch2b
I0610 03:32:41.597879 15708 net.cpp:406] conv_stage2_block2_branch2b <- conv_stage2_block2_branch2a
I0610 03:32:41.597887 15708 net.cpp:380] conv_stage2_block2_branch2b -> conv_stage2_block2_branch2b
I0610 03:32:41.599239 15708 net.cpp:122] Setting up conv_stage2_block2_branch2b
I0610 03:32:41.599249 15708 net.cpp:129] Top shape: 7 128 14 14 (175616)
I0610 03:32:41.599252 15708 net.cpp:137] Memory required for data: 729860124
I0610 03:32:41.599257 15708 layer_factory.hpp:77] Creating layer bn_stage2_block2_branch2b
I0610 03:32:41.599264 15708 net.cpp:84] Creating Layer bn_stage2_block2_branch2b
I0610 03:32:41.599268 15708 net.cpp:406] bn_stage2_block2_branch2b <- conv_stage2_block2_branch2b
I0610 03:32:41.599272 15708 net.cpp:367] bn_stage2_block2_branch2b -> conv_stage2_block2_branch2b (in-place)
I0610 03:32:41.599414 15708 net.cpp:122] Setting up bn_stage2_block2_branch2b
I0610 03:32:41.599419 15708 net.cpp:129] Top shape: 7 128 14 14 (175616)
I0610 03:32:41.599421 15708 net.cpp:137] Memory required for data: 730562588
I0610 03:32:41.599427 15708 layer_factory.hpp:77] Creating layer scale_stage2_block2_branch2b
I0610 03:32:41.599433 15708 net.cpp:84] Creating Layer scale_stage2_block2_branch2b
I0610 03:32:41.599436 15708 net.cpp:406] scale_stage2_block2_branch2b <- conv_stage2_block2_branch2b
I0610 03:32:41.599440 15708 net.cpp:367] scale_stage2_block2_branch2b -> conv_stage2_block2_branch2b (in-place)
I0610 03:32:41.599470 15708 layer_factory.hpp:77] Creating layer scale_stage2_block2_branch2b
I0610 03:32:41.599548 15708 net.cpp:122] Setting up scale_stage2_block2_branch2b
I0610 03:32:41.599552 15708 net.cpp:129] Top shape: 7 128 14 14 (175616)
I0610 03:32:41.599555 15708 net.cpp:137] Memory required for data: 731265052
I0610 03:32:41.599560 15708 layer_factory.hpp:77] Creating layer relu_stage2_block2_branch2b
I0610 03:32:41.599565 15708 net.cpp:84] Creating Layer relu_stage2_block2_branch2b
I0610 03:32:41.599567 15708 net.cpp:406] relu_stage2_block2_branch2b <- conv_stage2_block2_branch2b
I0610 03:32:41.599572 15708 net.cpp:367] relu_stage2_block2_branch2b -> conv_stage2_block2_branch2b (in-place)
I0610 03:32:41.599577 15708 net.cpp:122] Setting up relu_stage2_block2_branch2b
I0610 03:32:41.599581 15708 net.cpp:129] Top shape: 7 128 14 14 (175616)
I0610 03:32:41.599583 15708 net.cpp:137] Memory required for data: 731967516
I0610 03:32:41.599586 15708 layer_factory.hpp:77] Creating layer conv_stage2_block2_branch2c
I0610 03:32:41.599592 15708 net.cpp:84] Creating Layer conv_stage2_block2_branch2c
I0610 03:32:41.599596 15708 net.cpp:406] conv_stage2_block2_branch2c <- conv_stage2_block2_branch2b
I0610 03:32:41.599601 15708 net.cpp:380] conv_stage2_block2_branch2c -> conv_stage2_block2_branch2c
I0610 03:32:41.600515 15708 net.cpp:122] Setting up conv_stage2_block2_branch2c
I0610 03:32:41.600523 15708 net.cpp:129] Top shape: 7 512 14 14 (702464)
I0610 03:32:41.600527 15708 net.cpp:137] Memory required for data: 734777372
I0610 03:32:41.600531 15708 layer_factory.hpp:77] Creating layer bn_stage2_block2_branch2c
I0610 03:32:41.600538 15708 net.cpp:84] Creating Layer bn_stage2_block2_branch2c
I0610 03:32:41.600541 15708 net.cpp:406] bn_stage2_block2_branch2c <- conv_stage2_block2_branch2c
I0610 03:32:41.600545 15708 net.cpp:367] bn_stage2_block2_branch2c -> conv_stage2_block2_branch2c (in-place)
I0610 03:32:41.600690 15708 net.cpp:122] Setting up bn_stage2_block2_branch2c
I0610 03:32:41.600695 15708 net.cpp:129] Top shape: 7 512 14 14 (702464)
I0610 03:32:41.600697 15708 net.cpp:137] Memory required for data: 737587228
I0610 03:32:41.600703 15708 layer_factory.hpp:77] Creating layer scale_stage2_block2_branch2c
I0610 03:32:41.600708 15708 net.cpp:84] Creating Layer scale_stage2_block2_branch2c
I0610 03:32:41.600710 15708 net.cpp:406] scale_stage2_block2_branch2c <- conv_stage2_block2_branch2c
I0610 03:32:41.600713 15708 net.cpp:367] scale_stage2_block2_branch2c -> conv_stage2_block2_branch2c (in-place)
I0610 03:32:41.600744 15708 layer_factory.hpp:77] Creating layer scale_stage2_block2_branch2c
I0610 03:32:41.600826 15708 net.cpp:122] Setting up scale_stage2_block2_branch2c
I0610 03:32:41.600841 15708 net.cpp:129] Top shape: 7 512 14 14 (702464)
I0610 03:32:41.600843 15708 net.cpp:137] Memory required for data: 740397084
I0610 03:32:41.600848 15708 layer_factory.hpp:77] Creating layer eltwise_stage2_block2
I0610 03:32:41.600852 15708 net.cpp:84] Creating Layer eltwise_stage2_block2
I0610 03:32:41.600858 15708 net.cpp:406] eltwise_stage2_block2 <- eltwise_stage2_block1_relu_stage2_block1_0_split_1
I0610 03:32:41.600862 15708 net.cpp:406] eltwise_stage2_block2 <- conv_stage2_block2_branch2c
I0610 03:32:41.600867 15708 net.cpp:380] eltwise_stage2_block2 -> eltwise_stage2_block2
I0610 03:32:41.600888 15708 net.cpp:122] Setting up eltwise_stage2_block2
I0610 03:32:41.600891 15708 net.cpp:129] Top shape: 7 512 14 14 (702464)
I0610 03:32:41.600894 15708 net.cpp:137] Memory required for data: 743206940
I0610 03:32:41.600896 15708 layer_factory.hpp:77] Creating layer relu_stage2_block2
I0610 03:32:41.600900 15708 net.cpp:84] Creating Layer relu_stage2_block2
I0610 03:32:41.600903 15708 net.cpp:406] relu_stage2_block2 <- eltwise_stage2_block2
I0610 03:32:41.600908 15708 net.cpp:367] relu_stage2_block2 -> eltwise_stage2_block2 (in-place)
I0610 03:32:41.600911 15708 net.cpp:122] Setting up relu_stage2_block2
I0610 03:32:41.600915 15708 net.cpp:129] Top shape: 7 512 14 14 (702464)
I0610 03:32:41.600917 15708 net.cpp:137] Memory required for data: 746016796
I0610 03:32:41.600920 15708 layer_factory.hpp:77] Creating layer eltwise_stage2_block2_relu_stage2_block2_0_split
I0610 03:32:41.600924 15708 net.cpp:84] Creating Layer eltwise_stage2_block2_relu_stage2_block2_0_split
I0610 03:32:41.600926 15708 net.cpp:406] eltwise_stage2_block2_relu_stage2_block2_0_split <- eltwise_stage2_block2
I0610 03:32:41.600930 15708 net.cpp:380] eltwise_stage2_block2_relu_stage2_block2_0_split -> eltwise_stage2_block2_relu_stage2_block2_0_split_0
I0610 03:32:41.600937 15708 net.cpp:380] eltwise_stage2_block2_relu_stage2_block2_0_split -> eltwise_stage2_block2_relu_stage2_block2_0_split_1
I0610 03:32:41.600961 15708 net.cpp:122] Setting up eltwise_stage2_block2_relu_stage2_block2_0_split
I0610 03:32:41.600966 15708 net.cpp:129] Top shape: 7 512 14 14 (702464)
I0610 03:32:41.600970 15708 net.cpp:129] Top shape: 7 512 14 14 (702464)
I0610 03:32:41.600972 15708 net.cpp:137] Memory required for data: 751636508
I0610 03:32:41.600975 15708 layer_factory.hpp:77] Creating layer conv_stage2_block3_branch2a
I0610 03:32:41.600982 15708 net.cpp:84] Creating Layer conv_stage2_block3_branch2a
I0610 03:32:41.600986 15708 net.cpp:406] conv_stage2_block3_branch2a <- eltwise_stage2_block2_relu_stage2_block2_0_split_0
I0610 03:32:41.600991 15708 net.cpp:380] conv_stage2_block3_branch2a -> conv_stage2_block3_branch2a
I0610 03:32:41.601462 15708 net.cpp:122] Setting up conv_stage2_block3_branch2a
I0610 03:32:41.601467 15708 net.cpp:129] Top shape: 7 128 14 14 (175616)
I0610 03:32:41.601469 15708 net.cpp:137] Memory required for data: 752338972
I0610 03:32:41.601475 15708 layer_factory.hpp:77] Creating layer bn_stage2_block3_branch2a
I0610 03:32:41.601480 15708 net.cpp:84] Creating Layer bn_stage2_block3_branch2a
I0610 03:32:41.601483 15708 net.cpp:406] bn_stage2_block3_branch2a <- conv_stage2_block3_branch2a
I0610 03:32:41.601488 15708 net.cpp:367] bn_stage2_block3_branch2a -> conv_stage2_block3_branch2a (in-place)
I0610 03:32:41.601626 15708 net.cpp:122] Setting up bn_stage2_block3_branch2a
I0610 03:32:41.601631 15708 net.cpp:129] Top shape: 7 128 14 14 (175616)
I0610 03:32:41.601634 15708 net.cpp:137] Memory required for data: 753041436
I0610 03:32:41.601639 15708 layer_factory.hpp:77] Creating layer scale_stage2_block3_branch2a
I0610 03:32:41.601644 15708 net.cpp:84] Creating Layer scale_stage2_block3_branch2a
I0610 03:32:41.601646 15708 net.cpp:406] scale_stage2_block3_branch2a <- conv_stage2_block3_branch2a
I0610 03:32:41.601650 15708 net.cpp:367] scale_stage2_block3_branch2a -> conv_stage2_block3_branch2a (in-place)
I0610 03:32:41.601678 15708 layer_factory.hpp:77] Creating layer scale_stage2_block3_branch2a
I0610 03:32:41.601773 15708 net.cpp:122] Setting up scale_stage2_block3_branch2a
I0610 03:32:41.601778 15708 net.cpp:129] Top shape: 7 128 14 14 (175616)
I0610 03:32:41.601780 15708 net.cpp:137] Memory required for data: 753743900
I0610 03:32:41.601785 15708 layer_factory.hpp:77] Creating layer relu_stage2_block3_branch2a
I0610 03:32:41.601789 15708 net.cpp:84] Creating Layer relu_stage2_block3_branch2a
I0610 03:32:41.601792 15708 net.cpp:406] relu_stage2_block3_branch2a <- conv_stage2_block3_branch2a
I0610 03:32:41.601797 15708 net.cpp:367] relu_stage2_block3_branch2a -> conv_stage2_block3_branch2a (in-place)
I0610 03:32:41.601801 15708 net.cpp:122] Setting up relu_stage2_block3_branch2a
I0610 03:32:41.601805 15708 net.cpp:129] Top shape: 7 128 14 14 (175616)
I0610 03:32:41.601807 15708 net.cpp:137] Memory required for data: 754446364
I0610 03:32:41.601810 15708 layer_factory.hpp:77] Creating layer conv_stage2_block3_branch2b
I0610 03:32:41.601817 15708 net.cpp:84] Creating Layer conv_stage2_block3_branch2b
I0610 03:32:41.601820 15708 net.cpp:406] conv_stage2_block3_branch2b <- conv_stage2_block3_branch2a
I0610 03:32:41.601827 15708 net.cpp:380] conv_stage2_block3_branch2b -> conv_stage2_block3_branch2b
I0610 03:32:41.603148 15708 net.cpp:122] Setting up conv_stage2_block3_branch2b
I0610 03:32:41.603160 15708 net.cpp:129] Top shape: 7 128 14 14 (175616)
I0610 03:32:41.603163 15708 net.cpp:137] Memory required for data: 755148828
I0610 03:32:41.603168 15708 layer_factory.hpp:77] Creating layer bn_stage2_block3_branch2b
I0610 03:32:41.603174 15708 net.cpp:84] Creating Layer bn_stage2_block3_branch2b
I0610 03:32:41.603178 15708 net.cpp:406] bn_stage2_block3_branch2b <- conv_stage2_block3_branch2b
I0610 03:32:41.603183 15708 net.cpp:367] bn_stage2_block3_branch2b -> conv_stage2_block3_branch2b (in-place)
I0610 03:32:41.603343 15708 net.cpp:122] Setting up bn_stage2_block3_branch2b
I0610 03:32:41.603348 15708 net.cpp:129] Top shape: 7 128 14 14 (175616)
I0610 03:32:41.603351 15708 net.cpp:137] Memory required for data: 755851292
I0610 03:32:41.603358 15708 layer_factory.hpp:77] Creating layer scale_stage2_block3_branch2b
I0610 03:32:41.603363 15708 net.cpp:84] Creating Layer scale_stage2_block3_branch2b
I0610 03:32:41.603364 15708 net.cpp:406] scale_stage2_block3_branch2b <- conv_stage2_block3_branch2b
I0610 03:32:41.603368 15708 net.cpp:367] scale_stage2_block3_branch2b -> conv_stage2_block3_branch2b (in-place)
I0610 03:32:41.603399 15708 layer_factory.hpp:77] Creating layer scale_stage2_block3_branch2b
I0610 03:32:41.603477 15708 net.cpp:122] Setting up scale_stage2_block3_branch2b
I0610 03:32:41.603480 15708 net.cpp:129] Top shape: 7 128 14 14 (175616)
I0610 03:32:41.603483 15708 net.cpp:137] Memory required for data: 756553756
I0610 03:32:41.603487 15708 layer_factory.hpp:77] Creating layer relu_stage2_block3_branch2b
I0610 03:32:41.603493 15708 net.cpp:84] Creating Layer relu_stage2_block3_branch2b
I0610 03:32:41.603497 15708 net.cpp:406] relu_stage2_block3_branch2b <- conv_stage2_block3_branch2b
I0610 03:32:41.603500 15708 net.cpp:367] relu_stage2_block3_branch2b -> conv_stage2_block3_branch2b (in-place)
I0610 03:32:41.603504 15708 net.cpp:122] Setting up relu_stage2_block3_branch2b
I0610 03:32:41.603507 15708 net.cpp:129] Top shape: 7 128 14 14 (175616)
I0610 03:32:41.603509 15708 net.cpp:137] Memory required for data: 757256220
I0610 03:32:41.603513 15708 layer_factory.hpp:77] Creating layer conv_stage2_block3_branch2c
I0610 03:32:41.603519 15708 net.cpp:84] Creating Layer conv_stage2_block3_branch2c
I0610 03:32:41.603523 15708 net.cpp:406] conv_stage2_block3_branch2c <- conv_stage2_block3_branch2b
I0610 03:32:41.603528 15708 net.cpp:380] conv_stage2_block3_branch2c -> conv_stage2_block3_branch2c
I0610 03:32:41.604004 15708 net.cpp:122] Setting up conv_stage2_block3_branch2c
I0610 03:32:41.604010 15708 net.cpp:129] Top shape: 7 512 14 14 (702464)
I0610 03:32:41.604013 15708 net.cpp:137] Memory required for data: 760066076
I0610 03:32:41.604017 15708 layer_factory.hpp:77] Creating layer bn_stage2_block3_branch2c
I0610 03:32:41.604033 15708 net.cpp:84] Creating Layer bn_stage2_block3_branch2c
I0610 03:32:41.604038 15708 net.cpp:406] bn_stage2_block3_branch2c <- conv_stage2_block3_branch2c
I0610 03:32:41.604041 15708 net.cpp:367] bn_stage2_block3_branch2c -> conv_stage2_block3_branch2c (in-place)
I0610 03:32:41.604183 15708 net.cpp:122] Setting up bn_stage2_block3_branch2c
I0610 03:32:41.604188 15708 net.cpp:129] Top shape: 7 512 14 14 (702464)
I0610 03:32:41.604190 15708 net.cpp:137] Memory required for data: 762875932
I0610 03:32:41.604226 15708 layer_factory.hpp:77] Creating layer scale_stage2_block3_branch2c
I0610 03:32:41.604233 15708 net.cpp:84] Creating Layer scale_stage2_block3_branch2c
I0610 03:32:41.604235 15708 net.cpp:406] scale_stage2_block3_branch2c <- conv_stage2_block3_branch2c
I0610 03:32:41.604239 15708 net.cpp:367] scale_stage2_block3_branch2c -> conv_stage2_block3_branch2c (in-place)
I0610 03:32:41.604266 15708 layer_factory.hpp:77] Creating layer scale_stage2_block3_branch2c
I0610 03:32:41.604346 15708 net.cpp:122] Setting up scale_stage2_block3_branch2c
I0610 03:32:41.604351 15708 net.cpp:129] Top shape: 7 512 14 14 (702464)
I0610 03:32:41.604353 15708 net.cpp:137] Memory required for data: 765685788
I0610 03:32:41.604358 15708 layer_factory.hpp:77] Creating layer eltwise_stage2_block3
I0610 03:32:41.604363 15708 net.cpp:84] Creating Layer eltwise_stage2_block3
I0610 03:32:41.604367 15708 net.cpp:406] eltwise_stage2_block3 <- eltwise_stage2_block2_relu_stage2_block2_0_split_1
I0610 03:32:41.604370 15708 net.cpp:406] eltwise_stage2_block3 <- conv_stage2_block3_branch2c
I0610 03:32:41.604375 15708 net.cpp:380] eltwise_stage2_block3 -> eltwise_stage2_block3
I0610 03:32:41.604393 15708 net.cpp:122] Setting up eltwise_stage2_block3
I0610 03:32:41.604396 15708 net.cpp:129] Top shape: 7 512 14 14 (702464)
I0610 03:32:41.604399 15708 net.cpp:137] Memory required for data: 768495644
I0610 03:32:41.604401 15708 layer_factory.hpp:77] Creating layer relu_stage2_block3
I0610 03:32:41.604408 15708 net.cpp:84] Creating Layer relu_stage2_block3
I0610 03:32:41.611310 15708 net.cpp:406] relu_stage2_block3 <- eltwise_stage2_block3
I0610 03:32:41.611341 15708 net.cpp:367] relu_stage2_block3 -> eltwise_stage2_block3 (in-place)
I0610 03:32:41.611358 15708 net.cpp:122] Setting up relu_stage2_block3
I0610 03:32:41.611369 15708 net.cpp:129] Top shape: 7 512 14 14 (702464)
I0610 03:32:41.611374 15708 net.cpp:137] Memory required for data: 771305500
I0610 03:32:41.611380 15708 layer_factory.hpp:77] Creating layer eltwise_stage2_block3_relu_stage2_block3_0_split
I0610 03:32:41.611397 15708 net.cpp:84] Creating Layer eltwise_stage2_block3_relu_stage2_block3_0_split
I0610 03:32:41.611402 15708 net.cpp:406] eltwise_stage2_block3_relu_stage2_block3_0_split <- eltwise_stage2_block3
I0610 03:32:41.611412 15708 net.cpp:380] eltwise_stage2_block3_relu_stage2_block3_0_split -> eltwise_stage2_block3_relu_stage2_block3_0_split_0
I0610 03:32:41.611423 15708 net.cpp:380] eltwise_stage2_block3_relu_stage2_block3_0_split -> eltwise_stage2_block3_relu_stage2_block3_0_split_1
I0610 03:32:41.611522 15708 net.cpp:122] Setting up eltwise_stage2_block3_relu_stage2_block3_0_split
I0610 03:32:41.611533 15708 net.cpp:129] Top shape: 7 512 14 14 (702464)
I0610 03:32:41.611541 15708 net.cpp:129] Top shape: 7 512 14 14 (702464)
I0610 03:32:41.611543 15708 net.cpp:137] Memory required for data: 776925212
I0610 03:32:41.611547 15708 layer_factory.hpp:77] Creating layer conv_stage2_block4_branch2a
I0610 03:32:41.611562 15708 net.cpp:84] Creating Layer conv_stage2_block4_branch2a
I0610 03:32:41.611567 15708 net.cpp:406] conv_stage2_block4_branch2a <- eltwise_stage2_block3_relu_stage2_block3_0_split_0
I0610 03:32:41.611574 15708 net.cpp:380] conv_stage2_block4_branch2a -> conv_stage2_block4_branch2a
I0610 03:32:41.612174 15708 net.cpp:122] Setting up conv_stage2_block4_branch2a
I0610 03:32:41.612185 15708 net.cpp:129] Top shape: 7 128 14 14 (175616)
I0610 03:32:41.612190 15708 net.cpp:137] Memory required for data: 777627676
I0610 03:32:41.612200 15708 layer_factory.hpp:77] Creating layer bn_stage2_block4_branch2a
I0610 03:32:41.612223 15708 net.cpp:84] Creating Layer bn_stage2_block4_branch2a
I0610 03:32:41.612229 15708 net.cpp:406] bn_stage2_block4_branch2a <- conv_stage2_block4_branch2a
I0610 03:32:41.612237 15708 net.cpp:367] bn_stage2_block4_branch2a -> conv_stage2_block4_branch2a (in-place)
I0610 03:32:41.612416 15708 net.cpp:122] Setting up bn_stage2_block4_branch2a
I0610 03:32:41.612422 15708 net.cpp:129] Top shape: 7 128 14 14 (175616)
I0610 03:32:41.612426 15708 net.cpp:137] Memory required for data: 778330140
I0610 03:32:41.612432 15708 layer_factory.hpp:77] Creating layer scale_stage2_block4_branch2a
I0610 03:32:41.612438 15708 net.cpp:84] Creating Layer scale_stage2_block4_branch2a
I0610 03:32:41.612442 15708 net.cpp:406] scale_stage2_block4_branch2a <- conv_stage2_block4_branch2a
I0610 03:32:41.612445 15708 net.cpp:367] scale_stage2_block4_branch2a -> conv_stage2_block4_branch2a (in-place)
I0610 03:32:41.612481 15708 layer_factory.hpp:77] Creating layer scale_stage2_block4_branch2a
I0610 03:32:41.612570 15708 net.cpp:122] Setting up scale_stage2_block4_branch2a
I0610 03:32:41.612574 15708 net.cpp:129] Top shape: 7 128 14 14 (175616)
I0610 03:32:41.612576 15708 net.cpp:137] Memory required for data: 779032604
I0610 03:32:41.612581 15708 layer_factory.hpp:77] Creating layer relu_stage2_block4_branch2a
I0610 03:32:41.612586 15708 net.cpp:84] Creating Layer relu_stage2_block4_branch2a
I0610 03:32:41.612589 15708 net.cpp:406] relu_stage2_block4_branch2a <- conv_stage2_block4_branch2a
I0610 03:32:41.612593 15708 net.cpp:367] relu_stage2_block4_branch2a -> conv_stage2_block4_branch2a (in-place)
I0610 03:32:41.612597 15708 net.cpp:122] Setting up relu_stage2_block4_branch2a
I0610 03:32:41.612601 15708 net.cpp:129] Top shape: 7 128 14 14 (175616)
I0610 03:32:41.612603 15708 net.cpp:137] Memory required for data: 779735068
I0610 03:32:41.612606 15708 layer_factory.hpp:77] Creating layer conv_stage2_block4_branch2b
I0610 03:32:41.612613 15708 net.cpp:84] Creating Layer conv_stage2_block4_branch2b
I0610 03:32:41.612617 15708 net.cpp:406] conv_stage2_block4_branch2b <- conv_stage2_block4_branch2a
I0610 03:32:41.612622 15708 net.cpp:380] conv_stage2_block4_branch2b -> conv_stage2_block4_branch2b
I0610 03:32:41.614111 15708 net.cpp:122] Setting up conv_stage2_block4_branch2b
I0610 03:32:41.614121 15708 net.cpp:129] Top shape: 7 128 14 14 (175616)
I0610 03:32:41.614125 15708 net.cpp:137] Memory required for data: 780437532
I0610 03:32:41.614130 15708 layer_factory.hpp:77] Creating layer bn_stage2_block4_branch2b
I0610 03:32:41.614137 15708 net.cpp:84] Creating Layer bn_stage2_block4_branch2b
I0610 03:32:41.614140 15708 net.cpp:406] bn_stage2_block4_branch2b <- conv_stage2_block4_branch2b
I0610 03:32:41.614145 15708 net.cpp:367] bn_stage2_block4_branch2b -> conv_stage2_block4_branch2b (in-place)
I0610 03:32:41.614327 15708 net.cpp:122] Setting up bn_stage2_block4_branch2b
I0610 03:32:41.614334 15708 net.cpp:129] Top shape: 7 128 14 14 (175616)
I0610 03:32:41.614336 15708 net.cpp:137] Memory required for data: 781139996
I0610 03:32:41.614353 15708 layer_factory.hpp:77] Creating layer scale_stage2_block4_branch2b
I0610 03:32:41.614359 15708 net.cpp:84] Creating Layer scale_stage2_block4_branch2b
I0610 03:32:41.614362 15708 net.cpp:406] scale_stage2_block4_branch2b <- conv_stage2_block4_branch2b
I0610 03:32:41.614367 15708 net.cpp:367] scale_stage2_block4_branch2b -> conv_stage2_block4_branch2b (in-place)
I0610 03:32:41.614400 15708 layer_factory.hpp:77] Creating layer scale_stage2_block4_branch2b
I0610 03:32:41.614483 15708 net.cpp:122] Setting up scale_stage2_block4_branch2b
I0610 03:32:41.614488 15708 net.cpp:129] Top shape: 7 128 14 14 (175616)
I0610 03:32:41.614490 15708 net.cpp:137] Memory required for data: 781842460
I0610 03:32:41.614495 15708 layer_factory.hpp:77] Creating layer relu_stage2_block4_branch2b
I0610 03:32:41.614500 15708 net.cpp:84] Creating Layer relu_stage2_block4_branch2b
I0610 03:32:41.614503 15708 net.cpp:406] relu_stage2_block4_branch2b <- conv_stage2_block4_branch2b
I0610 03:32:41.614518 15708 net.cpp:367] relu_stage2_block4_branch2b -> conv_stage2_block4_branch2b (in-place)
I0610 03:32:41.614523 15708 net.cpp:122] Setting up relu_stage2_block4_branch2b
I0610 03:32:41.614527 15708 net.cpp:129] Top shape: 7 128 14 14 (175616)
I0610 03:32:41.614529 15708 net.cpp:137] Memory required for data: 782544924
I0610 03:32:41.614532 15708 layer_factory.hpp:77] Creating layer conv_stage2_block4_branch2c
I0610 03:32:41.614539 15708 net.cpp:84] Creating Layer conv_stage2_block4_branch2c
I0610 03:32:41.614542 15708 net.cpp:406] conv_stage2_block4_branch2c <- conv_stage2_block4_branch2b
I0610 03:32:41.614548 15708 net.cpp:380] conv_stage2_block4_branch2c -> conv_stage2_block4_branch2c
I0610 03:32:41.615489 15708 net.cpp:122] Setting up conv_stage2_block4_branch2c
I0610 03:32:41.615499 15708 net.cpp:129] Top shape: 7 512 14 14 (702464)
I0610 03:32:41.615501 15708 net.cpp:137] Memory required for data: 785354780
I0610 03:32:41.615506 15708 layer_factory.hpp:77] Creating layer bn_stage2_block4_branch2c
I0610 03:32:41.615512 15708 net.cpp:84] Creating Layer bn_stage2_block4_branch2c
I0610 03:32:41.615516 15708 net.cpp:406] bn_stage2_block4_branch2c <- conv_stage2_block4_branch2c
I0610 03:32:41.615520 15708 net.cpp:367] bn_stage2_block4_branch2c -> conv_stage2_block4_branch2c (in-place)
I0610 03:32:41.615669 15708 net.cpp:122] Setting up bn_stage2_block4_branch2c
I0610 03:32:41.615674 15708 net.cpp:129] Top shape: 7 512 14 14 (702464)
I0610 03:32:41.615676 15708 net.cpp:137] Memory required for data: 788164636
I0610 03:32:41.615681 15708 layer_factory.hpp:77] Creating layer scale_stage2_block4_branch2c
I0610 03:32:41.615686 15708 net.cpp:84] Creating Layer scale_stage2_block4_branch2c
I0610 03:32:41.615689 15708 net.cpp:406] scale_stage2_block4_branch2c <- conv_stage2_block4_branch2c
I0610 03:32:41.615692 15708 net.cpp:367] scale_stage2_block4_branch2c -> conv_stage2_block4_branch2c (in-place)
I0610 03:32:41.615721 15708 layer_factory.hpp:77] Creating layer scale_stage2_block4_branch2c
I0610 03:32:41.615805 15708 net.cpp:122] Setting up scale_stage2_block4_branch2c
I0610 03:32:41.615820 15708 net.cpp:129] Top shape: 7 512 14 14 (702464)
I0610 03:32:41.615823 15708 net.cpp:137] Memory required for data: 790974492
I0610 03:32:41.615828 15708 layer_factory.hpp:77] Creating layer eltwise_stage2_block4
I0610 03:32:41.615833 15708 net.cpp:84] Creating Layer eltwise_stage2_block4
I0610 03:32:41.615835 15708 net.cpp:406] eltwise_stage2_block4 <- eltwise_stage2_block3_relu_stage2_block3_0_split_1
I0610 03:32:41.615840 15708 net.cpp:406] eltwise_stage2_block4 <- conv_stage2_block4_branch2c
I0610 03:32:41.615844 15708 net.cpp:380] eltwise_stage2_block4 -> eltwise_stage2_block4
I0610 03:32:41.615864 15708 net.cpp:122] Setting up eltwise_stage2_block4
I0610 03:32:41.615869 15708 net.cpp:129] Top shape: 7 512 14 14 (702464)
I0610 03:32:41.615871 15708 net.cpp:137] Memory required for data: 793784348
I0610 03:32:41.615873 15708 layer_factory.hpp:77] Creating layer relu_stage2_block4
I0610 03:32:41.615877 15708 net.cpp:84] Creating Layer relu_stage2_block4
I0610 03:32:41.615880 15708 net.cpp:406] relu_stage2_block4 <- eltwise_stage2_block4
I0610 03:32:41.615885 15708 net.cpp:367] relu_stage2_block4 -> eltwise_stage2_block4 (in-place)
I0610 03:32:41.615888 15708 net.cpp:122] Setting up relu_stage2_block4
I0610 03:32:41.615892 15708 net.cpp:129] Top shape: 7 512 14 14 (702464)
I0610 03:32:41.615895 15708 net.cpp:137] Memory required for data: 796594204
I0610 03:32:41.615896 15708 layer_factory.hpp:77] Creating layer eltwise_stage2_block4_relu_stage2_block4_0_split
…
I0610 03:32:41.851073 15708 layer_factory.hpp:77] Creating layer eltwise_stage2_block3_relu_stage2_block3_0_split
I0610 03:32:41.851083 15708 net.cpp:84] Creating Layer eltwise_stage2_block3_relu_stage2_block3_0_split
I0610 03:32:41.851088 15708 net.cpp:406] eltwise_stage2_block3_relu_stage2_block3_0_split <- eltwise_stage2_block3
I0610 03:32:41.851094 15708 net.cpp:380] eltwise_stage2_block3_relu_stage2_block3_0_split -> eltwise_stage2_block3_relu_stage2_block3_0_split_0
I0610 03:32:41.851104 15708 net.cpp:380] eltwise_stage2_block3_relu_stage2_block3_0_split -> eltwise_stage2_block3_relu_stage2_block3_0_split_1
I0610 03:32:41.851156 15708 net.cpp:122] Setting up eltwise_stage2_block3_relu_stage2_block3_0_split
I0610 03:32:41.851163 15708 net.cpp:129] Top shape: 7 512 14 14 (702464)
I0610 03:32:41.851169 15708 net.cpp:129] Top shape: 7 512 14 14 (702464)
I0610 03:32:41.851173 15708 net.cpp:137] Memory required for data: 776925268
I0610 03:32:41.851177 15708 layer_factory.hpp:77] Creating layer conv_stage2_block4_branch2a
I0610 03:32:41.851188 15708 net.cpp:84] Creating Layer conv_stage2_block4_branch2a
I0610 03:32:41.851193 15708 net.cpp:406] conv_stage2_block4_branch2a <- eltwise_stage2_block3_relu_stage2_block3_0_split_0
I0610 03:32:41.851204 15708 net.cpp:380] conv_stage2_block4_branch2a -> conv_stage2_block4_branch2a
I0610 03:32:41.852057 15708 net.cpp:122] Setting up conv_stage2_block4_branch2a
I0610 03:32:41.852066 15708 net.cpp:129] Top shape: 7 128 14 14 (175616)
I0610 03:32:41.852071 15708 net.cpp:137] Memory required for data: 777627732
I0610 03:32:41.852078 15708 layer_factory.hpp:77] Creating layer bn_stage2_block4_branch2a
I0610 03:32:41.852089 15708 net.cpp:84] Creating Layer bn_stage2_block4_branch2a
I0610 03:32:41.852094 15708 net.cpp:406] bn_stage2_block4_branch2a <- conv_stage2_block4_branch2a
I0610 03:32:41.852102 15708 net.cpp:367] bn_stage2_block4_branch2a -> conv_stage2_block4_branch2a (in-place)
I0610 03:32:41.852363 15708 net.cpp:122] Setting up bn_stage2_block4_branch2a
I0610 03:32:41.852371 15708 net.cpp:129] Top shape: 7 128 14 14 (175616)
I0610 03:32:41.852375 15708 net.cpp:137] Memory required for data: 778330196
I0610 03:32:41.852385 15708 layer_factory.hpp:77] Creating layer scale_stage2_block4_branch2a
I0610 03:32:41.867672 15708 net.cpp:84] Creating Layer scale_stage2_block4_branch2a
I0610 03:32:41.867686 15708 net.cpp:406] scale_stage2_block4_branch2a <- conv_stage2_block4_branch2a
I0610 03:32:41.867703 15708 net.cpp:367] scale_stage2_block4_branch2a -> conv_stage2_block4_branch2a (in-place)
I0610 03:32:41.867794 15708 layer_factory.hpp:77] Creating layer scale_stage2_block4_branch2a
I0610 03:32:41.867995 15708 net.cpp:122] Setting up scale_stage2_block4_branch2a
I0610 03:32:41.868007 15708 net.cpp:129] Top shape: 7 128 14 14 (175616)
I0610 03:32:41.868013 15708 net.cpp:137] Memory required for data: 779032660
I0610 03:32:41.868026 15708 layer_factory.hpp:77] Creating layer relu_stage2_block4_branch2a
I0610 03:32:41.868034 15708 net.cpp:84] Creating Layer relu_stage2_block4_branch2a
I0610 03:32:41.868039 15708 net.cpp:406] relu_stage2_block4_branch2a <- conv_stage2_block4_branch2a
I0610 03:32:41.868047 15708 net.cpp:367] relu_stage2_block4_branch2a -> conv_stage2_block4_branch2a (in-place)
I0610 03:32:41.868055 15708 net.cpp:122] Setting up relu_stage2_block4_branch2a
I0610 03:32:41.868062 15708 net.cpp:129] Top shape: 7 128 14 14 (175616)
I0610 03:32:41.868077 15708 net.cpp:137] Memory required for data: 779735124
I0610 03:32:41.868079 15708 layer_factory.hpp:77] Creating layer conv_stage2_block4_branch2b
I0610 03:32:41.868093 15708 net.cpp:84] Creating Layer conv_stage2_block4_branch2b
I0610 03:32:41.868098 15708 net.cpp:406] conv_stage2_block4_branch2b <- conv_stage2_block4_branch2a
I0610 03:32:41.868105 15708 net.cpp:380] conv_stage2_block4_branch2b -> conv_stage2_block4_branch2b
I0610 03:32:41.870224 15708 net.cpp:122] Setting up conv_stage2_block4_branch2b
I0610 03:32:41.870244 15708 net.cpp:129] Top shape: 7 128 14 14 (175616)
I0610 03:32:41.870247 15708 net.cpp:137] Memory required for data: 780437588
I0610 03:32:41.870280 15708 layer_factory.hpp:77] Creating layer bn_stage2_block4_branch2b
I0610 03:32:41.870293 15708 net.cpp:84] Creating Layer bn_stage2_block4_branch2b
I0610 03:32:41.870301 15708 net.cpp:406] bn_stage2_block4_branch2b <- conv_stage2_block4_branch2b
I0610 03:32:41.870309 15708 net.cpp:367] bn_stage2_block4_branch2b -> conv_stage2_block4_branch2b (in-place)
I0610 03:32:41.870558 15708 net.cpp:122] Setting up bn_stage2_block4_branch2b
I0610 03:32:41.870565 15708 net.cpp:129] Top shape: 7 128 14 14 (175616)
I0610 03:32:41.870569 15708 net.cpp:137] Memory required for data: 781140052
I0610 03:32:41.870579 15708 layer_factory.hpp:77] Creating layer scale_stage2_block4_branch2b
I0610 03:32:41.870589 15708 net.cpp:84] Creating Layer scale_stage2_block4_branch2b
I0610 03:32:41.870592 15708 net.cpp:406] scale_stage2_block4_branch2b <- conv_stage2_block4_branch2b
I0610 03:32:41.870599 15708 net.cpp:367] scale_stage2_block4_branch2b -> conv_stage2_block4_branch2b (in-place)
I0610 03:32:41.870654 15708 layer_factory.hpp:77] Creating layer scale_stage2_block4_branch2b
I0610 03:32:41.870795 15708 net.cpp:122] Setting up scale_stage2_block4_branch2b
I0610 03:32:41.870802 15708 net.cpp:129] Top shape: 7 128 14 14 (175616)
I0610 03:32:41.870806 15708 net.cpp:137] Memory required for data: 781842516
I0610 03:32:41.870813 15708 layer_factory.hpp:77] Creating layer relu_stage2_block4_branch2b
I0610 03:32:41.870821 15708 net.cpp:84] Creating Layer relu_stage2_block4_branch2b
I0610 03:32:41.870826 15708 net.cpp:406] relu_stage2_block4_branch2b <- conv_stage2_block4_branch2b
I0610 03:32:41.870833 15708 net.cpp:367] relu_stage2_block4_branch2b -> conv_stage2_block4_branch2b (in-place)
I0610 03:32:41.870841 15708 net.cpp:122] Setting up relu_stage2_block4_branch2b
I0610 03:32:41.870846 15708 net.cpp:129] Top shape: 7 128 14 14 (175616)
I0610 03:32:41.870849 15708 net.cpp:137] Memory required for data: 782544980
I0610 03:32:41.870853 15708 layer_factory.hpp:77] Creating layer conv_stage2_block4_branch2c
I0610 03:32:41.870867 15708 net.cpp:84] Creating Layer conv_stage2_block4_branch2c
I0610 03:32:41.870870 15708 net.cpp:406] conv_stage2_block4_branch2c <- conv_stage2_block4_branch2b
I0610 03:32:41.870880 15708 net.cpp:380] conv_stage2_block4_branch2c -> conv_stage2_block4_branch2c
I0610 03:32:41.871665 15708 net.cpp:122] Setting up conv_stage2_block4_branch2c
I0610 03:32:41.871673 15708 net.cpp:129] Top shape: 7 512 14 14 (702464)
I0610 03:32:41.871677 15708 net.cpp:137] Memory required for data: 785354836
I0610 03:32:41.871685 15708 layer_factory.hpp:77] Creating layer bn_stage2_block4_branch2c
I0610 03:32:41.871692 15708 net.cpp:84] Creating Layer bn_stage2_block4_branch2c
I0610 03:32:41.871697 15708 net.cpp:406] bn_stage2_block4_branch2c <- conv_stage2_block4_branch2c
I0610 03:32:41.871713 15708 net.cpp:367] bn_stage2_block4_branch2c -> conv_stage2_block4_branch2c (in-place)
I0610 03:32:41.871949 15708 net.cpp:122] Setting up bn_stage2_block4_branch2c
I0610 03:32:41.871955 15708 net.cpp:129] Top shape: 7 512 14 14 (702464)
I0610 03:32:41.871958 15708 net.cpp:137] Memory required for data: 788164692
I0610 03:32:41.871966 15708 layer_factory.hpp:77] Creating layer scale_stage2_block4_branch2c
I0610 03:32:41.871973 15708 net.cpp:84] Creating Layer scale_stage2_block4_branch2c
I0610 03:32:41.871975 15708 net.cpp:406] scale_stage2_block4_branch2c <- conv_stage2_block4_branch2c
I0610 03:32:41.871995 15708 net.cpp:367] scale_stage2_block4_branch2c -> conv_stage2_block4_branch2c (in-place)
I0610 03:32:41.872040 15708 layer_factory.hpp:77] Creating layer scale_stage2_block4_branch2c
I0610 03:32:41.872162 15708 net.cpp:122] Setting up scale_stage2_block4_branch2c
I0610 03:32:41.872169 15708 net.cpp:129] Top shape: 7 512 14 14 (702464)
I0610 03:32:41.872172 15708 net.cpp:137] Memory required for data: 790974548
I0610 03:32:41.872179 15708 layer_factory.hpp:77] Creating layer eltwise_stage2_block4
I0610 03:32:41.872185 15708 net.cpp:84] Creating Layer eltwise_stage2_block4
I0610 03:32:41.872190 15708 net.cpp:406] eltwise_stage2_block4 <- eltwise_stage2_block3_relu_stage2_block3_0_split_1
I0610 03:32:41.872195 15708 net.cpp:406] eltwise_stage2_block4 <- conv_stage2_block4_branch2c
I0610 03:32:41.872200 15708 net.cpp:380] eltwise_stage2_block4 -> eltwise_stage2_block4
I0610 03:32:41.872227 15708 net.cpp:122] Setting up eltwise_stage2_block4
I0610 03:32:41.872233 15708 net.cpp:129] Top shape: 7 512 14 14 (702464)
I0610 03:32:41.872236 15708 net.cpp:137] Memory required for data: 793784404
I0610 03:32:41.872239 15708 layer_factory.hpp:77] Creating layer relu_stage2_block4
I0610 03:32:41.872244 15708 net.cpp:84] Creating Layer relu_stage2_block4
I0610 03:32:41.872248 15708 net.cpp:406] relu_stage2_block4 <- eltwise_stage2_block4
I0610 03:32:41.872254 15708 net.cpp:367] relu_stage2_block4 -> eltwise_stage2_block4 (in-place)
I0610 03:32:41.872261 15708 net.cpp:122] Setting up relu_stage2_block4
I0610 03:32:41.872264 15708 net.cpp:129] Top shape: 7 512 14 14 (702464)
I0610 03:32:41.872267 15708 net.cpp:137] Memory required for data: 796594260
I0610 03:32:41.872270 15708 layer_factory.hpp:77] Creating layer eltwise_stage2_block4_relu_stage2_block4_0_split
I0610 03:32:41.872277 15708 net.cpp:84] Creating Layer eltwise_stage2_block4_relu_stage2_block4_0_split
I0610 03:32:41.872280 15708 net.cpp:406] eltwise_stage2_block4_relu_stage2_block4_0_split <- eltwise_stage2_block4
I0610 03:32:41.872285 15708 net.cpp:380] eltwise_stage2_block4_relu_stage2_block4_0_split -> eltwise_stage2_block4_relu_stage2_block4_0_split_0
I0610 03:32:41.872293 15708 net.cpp:380] eltwise_stage2_block4_relu_stage2_block4_0_split -> eltwise_stage2_block4_relu_stage2_block4_0_split_1
I0610 03:32:41.872329 15708 net.cpp:122] Setting up eltwise_stage2_block4_relu_stage2_block4_0_split
I0610 03:32:41.872334 15708 net.cpp:129] Top shape: 7 512 14 14 (702464)
I0610 03:32:41.872339 15708 net.cpp:129] Top shape: 7 512 14 14 (702464)
I0610 03:32:41.872342 15708 net.cpp:137] Memory required for data: 802213972
I0610 03:32:41.872345 15708 layer_factory.hpp:77] Creating layer conv_stage2_block5_branch2a
I0610 03:32:41.872356 15708 net.cpp:84] Creating Layer conv_stage2_block5_branch2a
I0610 03:32:41.872361 15708 net.cpp:406] conv_stage2_block5_branch2a <- eltwise_stage2_block4_relu_stage2_block4_0_split_0
I0610 03:32:41.872367 15708 net.cpp:380] conv_stage2_block5_branch2a -> conv_stage2_block5_branch2a
I0610 03:32:41.873605 15708 net.cpp:122] Setting up conv_stage2_block5_branch2a
I0610 03:32:41.873616 15708 net.cpp:129] Top shape: 7 128 14 14 (175616)
I0610 03:32:41.873620 15708 net.cpp:137] Memory required for data: 802916436
I0610 03:32:41.873626 15708 layer_factory.hpp:77] Creating layer bn_stage2_block5_branch2a
I0610 03:32:41.873636 15708 net.cpp:84] Creating Layer bn_stage2_block5_branch2a
I0610 03:32:41.873641 15708 net.cpp:406] bn_stage2_block5_branch2a <- conv_stage2_block5_branch2a
I0610 03:32:41.873647 15708 net.cpp:367] bn_stage2_block5_branch2a -> conv_stage2_block5_branch2a (in-place)
I0610 03:32:41.873857 15708 net.cpp:122] Setting up bn_stage2_block5_branch2a
I0610 03:32:41.873863 15708 net.cpp:129] Top shape: 7 128 14 14 (175616)
I0610 03:32:41.873867 15708 net.cpp:137] Memory required for data: 803618900
I0610 03:32:41.873873 15708 layer_factory.hpp:77] Creating layer scale_stage2_block5_branch2a
I0610 03:32:41.873881 15708 net.cpp:84] Creating Layer scale_stage2_block5_branch2a
I0610 03:32:41.873896 15708 net.cpp:406] scale_stage2_block5_branch2a <- conv_stage2_block5_branch2a
I0610 03:32:41.873903 15708 net.cpp:367] scale_stage2_block5_branch2a -> conv_stage2_block5_branch2a (in-place)
I0610 03:32:41.873948 15708 layer_factory.hpp:77] Creating layer scale_stage2_block5_branch2a
I0610 03:32:41.874063 15708 net.cpp:122] Setting up scale_stage2_block5_branch2a
I0610 03:32:41.874069 15708 net.cpp:129] Top shape: 7 128 14 14 (175616)
I0610 03:32:41.874073 15708 net.cpp:137] Memory required for data: 804321364
I0610 03:32:41.874078 15708 layer_factory.hpp:77] Creating layer relu_stage2_block5_branch2a
I0610 03:32:41.874084 15708 net.cpp:84] Creating Layer relu_stage2_block5_branch2a
I0610 03:32:41.874089 15708 net.cpp:406] relu_stage2_block5_branch2a <- conv_stage2_block5_branch2a
I0610 03:32:41.874094 15708 net.cpp:367] relu_stage2_block5_branch2a -> conv_stage2_block5_branch2a (in-place)
I0610 03:32:41.874100 15708 net.cpp:122] Setting up relu_stage2_block5_branch2a
I0610 03:32:41.874104 15708 net.cpp:129] Top shape: 7 128 14 14 (175616)
I0610 03:32:41.874107 15708 net.cpp:137] Memory required for data: 805023828
I0610 03:32:41.874111 15708 layer_factory.hpp:77] Creating layer conv_stage2_block5_branch2b
I0610 03:32:41.874121 15708 net.cpp:84] Creating Layer conv_stage2_block5_branch2b
I0610 03:32:41.874125 15708 net.cpp:406] conv_stage2_block5_branch2b <- conv_stage2_block5_branch2a
I0610 03:32:41.874132 15708 net.cpp:380] conv_stage2_block5_branch2b -> conv_stage2_block5_branch2b
I0610 03:32:41.875819 15708 net.cpp:122] Setting up conv_stage2_block5_branch2b
I0610 03:32:41.875830 15708 net.cpp:129] Top shape: 7 128 14 14 (175616)
I0610 03:32:41.875834 15708 net.cpp:137] Memory required for data: 805726292
I0610 03:32:41.875841 15708 layer_factory.hpp:77] Creating layer bn_stage2_block5_branch2b
I0610 03:32:41.875850 15708 net.cpp:84] Creating Layer bn_stage2_block5_branch2b
I0610 03:32:41.875855 15708 net.cpp:406] bn_stage2_block5_branch2b <- conv_stage2_block5_branch2b
I0610 03:32:41.875861 15708 net.cpp:367] bn_stage2_block5_branch2b -> conv_stage2_block5_branch2b (in-place)
I0610 03:32:41.876066 15708 net.cpp:122] Setting up bn_stage2_block5_branch2b
I0610 03:32:41.876073 15708 net.cpp:129] Top shape: 7 128 14 14 (175616)
I0610 03:32:41.876076 15708 net.cpp:137] Memory required for data: 806428756
I0610 03:32:41.876083 15708 layer_factory.hpp:77] Creating layer scale_stage2_block5_branch2b
I0610 03:32:41.876091 15708 net.cpp:84] Creating Layer scale_stage2_block5_branch2b
I0610 03:32:41.876094 15708 net.cpp:406] scale_stage2_block5_branch2b <- conv_stage2_block5_branch2b
I0610 03:32:41.876101 15708 net.cpp:367] scale_stage2_block5_branch2b -> conv_stage2_block5_branch2b (in-place)
I0610 03:32:41.876142 15708 layer_factory.hpp:77] Creating layer scale_stage2_block5_branch2b
I0610 03:32:41.876255 15708 net.cpp:122] Setting up scale_stage2_block5_branch2b
I0610 03:32:41.876261 15708 net.cpp:129] Top shape: 7 128 14 14 (175616)
I0610 03:32:41.876265 15708 net.cpp:137] Memory required for data: 807131220
I0610 03:32:41.876271 15708 layer_factory.hpp:77] Creating layer relu_stage2_block5_branch2b
I0610 03:32:41.876277 15708 net.cpp:84] Creating Layer relu_stage2_block5_branch2b
I0610 03:32:41.876281 15708 net.cpp:406] relu_stage2_block5_branch2b <- conv_stage2_block5_branch2b
I0610 03:32:41.876286 15708 net.cpp:367] relu_stage2_block5_branch2b -> conv_stage2_block5_branch2b (in-place)
I0610 03:32:41.876293 15708 net.cpp:122] Setting up relu_stage2_block5_branch2b
I0610 03:32:41.876297 15708 net.cpp:129] Top shape: 7 128 14 14 (175616)
I0610 03:32:41.876300 15708 net.cpp:137] Memory required for data: 807833684
I0610 03:32:41.876303 15708 layer_factory.hpp:77] Creating layer conv_stage2_block5_branch2c
I0610 03:32:41.876312 15708 net.cpp:84] Creating Layer conv_stage2_block5_branch2c
I0610 03:32:41.876315 15708 net.cpp:406] conv_stage2_block5_branch2c <- conv_stage2_block5_branch2b
I0610 03:32:41.876323 15708 net.cpp:380] conv_stage2_block5_branch2c -> conv_stage2_block5_branch2c
I0610 03:32:41.876978 15708 net.cpp:122] Setting up conv_stage2_block5_branch2c
I0610 03:32:41.876997 15708 net.cpp:129] Top shape: 7 512 14 14 (702464)
I0610 03:32:41.877002 15708 net.cpp:137] Memory required for data: 810643540
I0610 03:32:41.877007 15708 layer_factory.hpp:77] Creating layer bn_stage2_block5_branch2c
I0610 03:32:41.877015 15708 net.cpp:84] Creating Layer bn_stage2_block5_branch2c
I0610 03:32:41.877020 15708 net.cpp:406] bn_stage2_block5_branch2c <- conv_stage2_block5_branch2c
I0610 03:32:41.877025 15708 net.cpp:367] bn_stage2_block5_branch2c -> conv_stage2_block5_branch2c (in-place)
I0610 03:32:41.877755 15708 net.cpp:122] Setting up bn_stage2_block5_branch2c
I0610 03:32:41.877768 15708 net.cpp:129] Top shape: 7 512 14 14 (702464)
I0610 03:32:41.877771 15708 net.cpp:137] Memory required for data: 813453396
I0610 03:32:41.877779 15708 layer_factory.hpp:77] Creating layer scale_stage2_block5_branch2c
I0610 03:32:41.877786 15708 net.cpp:84] Creating Layer scale_stage2_block5_branch2c
I0610 03:32:41.877790 15708 net.cpp:406] scale_stage2_block5_branch2c <- conv_stage2_block5_branch2c
I0610 03:32:41.877796 15708 net.cpp:367] scale_stage2_block5_branch2c -> conv_stage2_block5_branch2c (in-place)
I0610 03:32:41.877840 15708 layer_factory.hpp:77] Creating layer scale_stage2_block5_branch2c
I0610 03:32:41.877961 15708 net.cpp:122] Setting up scale_stage2_block5_branch2c
I0610 03:32:41.877967 15708 net.cpp:129] Top shape: 7 512 14 14 (702464)
I0610 03:32:41.877971 15708 net.cpp:137] Memory required for data: 816263252
I0610 03:32:41.877977 15708 layer_factory.hpp:77] Creating layer eltwise_stage2_block5
I0610 03:32:41.877985 15708 net.cpp:84] Creating Layer eltwise_stage2_block5
I0610 03:32:41.877988 15708 net.cpp:406] eltwise_stage2_block5 <- eltwise_stage2_block4_relu_stage2_block4_0_split_1
I0610 03:32:41.877995 15708 net.cpp:406] eltwise_stage2_block5 <- conv_stage2_block5_branch2c
I0610 03:32:41.878001 15708 net.cpp:380] eltwise_stage2_block5 -> eltwise_stage2_block5
I0610 03:32:41.878024 15708 net.cpp:122] Setting up eltwise_stage2_block5
I0610 03:32:41.878031 15708 net.cpp:129] Top shape: 7 512 14 14 (702464)
I0610 03:32:41.878033 15708 net.cpp:137] Memory required for data: 819073108
I0610 03:32:41.878036 15708 layer_factory.hpp:77] Creating layer relu_stage2_block5
I0610 03:32:41.878043 15708 net.cpp:84] Creating Layer relu_stage2_block5
I0610 03:32:41.878047 15708 net.cpp:406] relu_stage2_block5 <- eltwise_stage2_block5
I0610 03:32:41.878052 15708 net.cpp:367] relu_stage2_block5 -> eltwise_stage2_block5 (in-place)
I0610 03:32:41.878058 15708 net.cpp:122] Setting up relu_stage2_block5
I0610 03:32:41.878062 15708 net.cpp:129] Top shape: 7 512 14 14 (702464)
I0610 03:32:41.878065 15708 net.cpp:137] Memory required for data: 821882964
I0610 03:32:41.888593 15708 layer_factory.hpp:77] Creating layer eltwise_stage2_block5_relu_stage2_block5_0_split
I0610 03:32:41.888622 15708 net.cpp:84] Creating Layer eltwise_stage2_block5_relu_stage2_block5_0_split
I0610 03:32:41.888630 15708 net.cpp:406] eltwise_stage2_block5_relu_stage2_block5_0_split <- eltwise_stage2_block5
I0610 03:32:41.888643 15708 net.cpp:380] eltwise_stage2_block5_relu_stage2_block5_0_split -> eltwise_stage2_block5_relu_stage2_block5_0_split_0
I0610 03:32:41.888659 15708 net.cpp:380] eltwise_stage2_block5_relu_stage2_block5_0_split -> eltwise_stage2_block5_relu_stage2_block5_0_split_1
I0610 03:32:41.888763 15708 net.cpp:122] Setting up eltwise_stage2_block5_relu_stage2_block5_0_split
I0610 03:32:41.888777 15708 net.cpp:129] Top shape: 7 512 14 14 (702464)
I0610 03:32:41.888783 15708 net.cpp:129] Top shape: 7 512 14 14 (702464)
I0610 03:32:41.888787 15708 net.cpp:137] Memory required for data: 827502676
I0610 03:32:41.888792 15708 layer_factory.hpp:77] Creating layer conv_stage3_block0_proj_shortcut
I0610 03:32:41.888811 15708 net.cpp:84] Creating Layer conv_stage3_block0_proj_shortcut
I0610 03:32:41.888818 15708 net.cpp:406] conv_stage3_block0_proj_shortcut <- eltwise_stage2_block5_relu_stage2_block5_0_split_0
I0610 03:32:41.888826 15708 net.cpp:380] conv_stage3_block0_proj_shortcut -> conv_stage3_block0_proj_shortcut
I0610 03:32:41.892922 15708 net.cpp:122] Setting up conv_stage3_block0_proj_shortcut
I0610 03:32:41.892940 15708 net.cpp:129] Top shape: 7 1024 7 7 (351232)
I0610 03:32:41.892942 15708 net.cpp:137] Memory required for data: 828907604
I0610 03:32:41.892951 15708 layer_factory.hpp:77] Creating layer bn_stage3_block0_proj_shortcut
I0610 03:32:41.892959 15708 net.cpp:84] Creating Layer bn_stage3_block0_proj_shortcut
I0610 03:32:41.892964 15708 net.cpp:406] bn_stage3_block0_proj_shortcut <- conv_stage3_block0_proj_shortcut
I0610 03:32:41.892972 15708 net.cpp:367] bn_stage3_block0_proj_shortcut -> conv_stage3_block0_proj_shortcut (in-place)
I0610 03:32:41.893169 15708 net.cpp:122] Setting up bn_stage3_block0_proj_shortcut
I0610 03:32:41.893175 15708 net.cpp:129] Top shape: 7 1024 7 7 (351232)
I0610 03:32:41.893178 15708 net.cpp:137] Memory required for data: 830312532
I0610 03:32:41.893187 15708 layer_factory.hpp:77] Creating layer scale_stage3_block0_proj_shortcut
I0610 03:32:41.893193 15708 net.cpp:84] Creating Layer scale_stage3_block0_proj_shortcut
I0610 03:32:41.893196 15708 net.cpp:406] scale_stage3_block0_proj_shortcut <- conv_stage3_block0_proj_shortcut
I0610 03:32:41.893203 15708 net.cpp:367] scale_stage3_block0_proj_shortcut -> conv_stage3_block0_proj_shortcut (in-place)
I0610 03:32:41.893246 15708 layer_factory.hpp:77] Creating layer scale_stage3_block0_proj_shortcut
I0610 03:32:41.893357 15708 net.cpp:122] Setting up scale_stage3_block0_proj_shortcut
I0610 03:32:41.893364 15708 net.cpp:129] Top shape: 7 1024 7 7 (351232)
I0610 03:32:41.893368 15708 net.cpp:137] Memory required for data: 831717460
I0610 03:32:41.893373 15708 layer_factory.hpp:77] Creating layer conv_stage3_block0_branch2a
I0610 03:32:41.893384 15708 net.cpp:84] Creating Layer conv_stage3_block0_branch2a
I0610 03:32:41.893388 15708 net.cpp:406] conv_stage3_block0_branch2a <- eltwise_stage2_block5_relu_stage2_block5_0_split_1
I0610 03:32:41.893395 15708 net.cpp:380] conv_stage3_block0_branch2a -> conv_stage3_block0_branch2a
I0610 03:32:41.894389 15708 net.cpp:122] Setting up conv_stage3_block0_branch2a
I0610 03:32:41.894398 15708 net.cpp:129] Top shape: 7 256 7 7 (87808)
I0610 03:32:41.894402 15708 net.cpp:137] Memory required for data: 832068692
I0610 03:32:41.894408 15708 layer_factory.hpp:77] Creating layer bn_stage3_block0_branch2a
I0610 03:32:41.894423 15708 net.cpp:84] Creating Layer bn_stage3_block0_branch2a
I0610 03:32:41.894428 15708 net.cpp:406] bn_stage3_block0_branch2a <- conv_stage3_block0_branch2a
I0610 03:32:41.894434 15708 net.cpp:367] bn_stage3_block0_branch2a -> conv_stage3_block0_branch2a (in-place)
I0610 03:32:41.894639 15708 net.cpp:122] Setting up bn_stage3_block0_branch2a
I0610 03:32:41.894645 15708 net.cpp:129] Top shape: 7 256 7 7 (87808)
I0610 03:32:41.894649 15708 net.cpp:137] Memory required for data: 832419924
I0610 03:32:41.894656 15708 layer_factory.hpp:77] Creating layer scale_stage3_block0_branch2a
I0610 03:32:41.894664 15708 net.cpp:84] Creating Layer scale_stage3_block0_branch2a
I0610 03:32:41.894666 15708 net.cpp:406] scale_stage3_block0_branch2a <- conv_stage3_block0_branch2a
I0610 03:32:41.894673 15708 net.cpp:367] scale_stage3_block0_branch2a -> conv_stage3_block0_branch2a (in-place)
I0610 03:32:41.894716 15708 layer_factory.hpp:77] Creating layer scale_stage3_block0_branch2a
I0610 03:32:41.894831 15708 net.cpp:122] Setting up scale_stage3_block0_branch2a
I0610 03:32:41.894837 15708 net.cpp:129] Top shape: 7 256 7 7 (87808)
I0610 03:32:41.894841 15708 net.cpp:137] Memory required for data: 832771156
I0610 03:32:41.894847 15708 layer_factory.hpp:77] Creating layer relu_stage3_block0_branch2a
I0610 03:32:41.894855 15708 net.cpp:84] Creating Layer relu_stage3_block0_branch2a
I0610 03:32:41.894858 15708 net.cpp:406] relu_stage3_block0_branch2a <- conv_stage3_block0_branch2a
I0610 03:32:41.894865 15708 net.cpp:367] relu_stage3_block0_branch2a -> conv_stage3_block0_branch2a (in-place)
I0610 03:32:41.894872 15708 net.cpp:122] Setting up relu_stage3_block0_branch2a
I0610 03:32:41.894893 15708 net.cpp:129] Top shape: 7 256 7 7 (87808)
I0610 03:32:41.894896 15708 net.cpp:137] Memory required for data: 833122388
I0610 03:32:41.894901 15708 layer_factory.hpp:77] Creating layer conv_stage3_block0_branch2b
I0610 03:32:41.894912 15708 net.cpp:84] Creating Layer conv_stage3_block0_branch2b
I0610 03:32:41.894917 15708 net.cpp:406] conv_stage3_block0_branch2b <- conv_stage3_block0_branch2a
I0610 03:32:41.894923 15708 net.cpp:380] conv_stage3_block0_branch2b -> conv_stage3_block0_branch2b
I0610 03:32:41.900064 15708 net.cpp:122] Setting up conv_stage3_block0_branch2b
I0610 03:32:41.900080 15708 net.cpp:129] Top shape: 7 256 7 7 (87808)
I0610 03:32:41.900084 15708 net.cpp:137] Memory required for data: 833473620
I0610 03:32:41.900091 15708 layer_factory.hpp:77] Creating layer bn_stage3_block0_branch2b
I0610 03:32:41.900104 15708 net.cpp:84] Creating Layer bn_stage3_block0_branch2b
I0610 03:32:41.900108 15708 net.cpp:406] bn_stage3_block0_branch2b <- conv_stage3_block0_branch2b
I0610 03:32:41.900115 15708 net.cpp:367] bn_stage3_block0_branch2b -> conv_stage3_block0_branch2b (in-place)
I0610 03:32:41.900331 15708 net.cpp:122] Setting up bn_stage3_block0_branch2b
I0610 03:32:41.900338 15708 net.cpp:129] Top shape: 7 256 7 7 (87808)
I0610 03:32:41.900341 15708 net.cpp:137] Memory required for data: 833824852
I0610 03:32:41.900349 15708 layer_factory.hpp:77] Creating layer scale_stage3_block0_branch2b
I0610 03:32:41.900357 15708 net.cpp:84] Creating Layer scale_stage3_block0_branch2b
I0610 03:32:41.900360 15708 net.cpp:406] scale_stage3_block0_branch2b <- conv_stage3_block0_branch2b
I0610 03:32:41.900367 15708 net.cpp:367] scale_stage3_block0_branch2b -> conv_stage3_block0_branch2b (in-place)
I0610 03:32:41.900411 15708 layer_factory.hpp:77] Creating layer scale_stage3_block0_branch2b
I0610 03:32:41.900528 15708 net.cpp:122] Setting up scale_stage3_block0_branch2b
I0610 03:32:41.900535 15708 net.cpp:129] Top shape: 7 256 7 7 (87808)
I0610 03:32:41.900538 15708 net.cpp:137] Memory required for data: 834176084
I0610 03:32:41.900545 15708 layer_factory.hpp:77] Creating layer relu_stage3_block0_branch2b
I0610 03:32:41.900552 15708 net.cpp:84] Creating Layer relu_stage3_block0_branch2b
I0610 03:32:41.900555 15708 net.cpp:406] relu_stage3_block0_branch2b <- conv_stage3_block0_branch2b
I0610 03:32:41.900568 15708 net.cpp:367] relu_stage3_block0_branch2b -> conv_stage3_block0_branch2b (in-place)
I0610 03:32:41.900574 15708 net.cpp:122] Setting up relu_stage3_block0_branch2b
I0610 03:32:41.900579 15708 net.cpp:129] Top shape: 7 256 7 7 (87808)
I0610 03:32:41.900583 15708 net.cpp:137] Memory required for data: 834527316
I0610 03:32:41.900586 15708 layer_factory.hpp:77] Creating layer conv_stage3_block0_branch2c
I0610 03:32:41.900599 15708 net.cpp:84] Creating Layer conv_stage3_block0_branch2c
I0610 03:32:41.900602 15708 net.cpp:406] conv_stage3_block0_branch2c <- conv_stage3_block0_branch2b
I0610 03:32:41.900609 15708 net.cpp:380] conv_stage3_block0_branch2c -> conv_stage3_block0_branch2c
I0610 03:32:41.903220 15708 net.cpp:122] Setting up conv_stage3_block0_branch2c
I0610 03:32:41.903234 15708 net.cpp:129] Top shape: 7 1024 7 7 (351232)
I0610 03:32:41.903237 15708 net.cpp:137] Memory required for data: 835932244
I0610 03:32:41.903245 15708 layer_factory.hpp:77] Creating layer bn_stage3_block0_branch2c
I0610 03:32:41.903255 15708 net.cpp:84] Creating Layer bn_stage3_block0_branch2c
I0610 03:32:41.903260 15708 net.cpp:406] bn_stage3_block0_branch2c <- conv_stage3_block0_branch2c
I0610 03:32:41.903267 15708 net.cpp:367] bn_stage3_block0_branch2c -> conv_stage3_block0_branch2c (in-place)
I0610 03:32:41.903489 15708 net.cpp:122] Setting up bn_stage3_block0_branch2c
I0610 03:32:41.903496 15708 net.cpp:129] Top shape: 7 1024 7 7 (351232)
I0610 03:32:41.903499 15708 net.cpp:137] Memory required for data: 837337172
I0610 03:32:41.903507 15708 layer_factory.hpp:77] Creating layer scale_stage3_block0_branch2c
I0610 03:32:41.903514 15708 net.cpp:84] Creating Layer scale_stage3_block0_branch2c
I0610 03:32:41.903518 15708 net.cpp:406] scale_stage3_block0_branch2c <- conv_stage3_block0_branch2c
I0610 03:32:41.903544 15708 net.cpp:367] scale_stage3_block0_branch2c -> conv_stage3_block0_branch2c (in-place)
I0610 03:32:41.903592 15708 layer_factory.hpp:77] Creating layer scale_stage3_block0_branch2c
I0610 03:32:41.903722 15708 net.cpp:122] Setting up scale_stage3_block0_branch2c
I0610 03:32:41.903728 15708 net.cpp:129] Top shape: 7 1024 7 7 (351232)
I0610 03:32:41.903731 15708 net.cpp:137] Memory required for data: 838742100
I0610 03:32:41.903738 15708 layer_factory.hpp:77] Creating layer eltwise_stage3_block0
I0610 03:32:41.903744 15708 net.cpp:84] Creating Layer eltwise_stage3_block0
I0610 03:32:41.903749 15708 net.cpp:406] eltwise_stage3_block0 <- conv_stage3_block0_proj_shortcut
I0610 03:32:41.903754 15708 net.cpp:406] eltwise_stage3_block0 <- conv_stage3_block0_branch2c
I0610 03:32:41.903764 15708 net.cpp:380] eltwise_stage3_block0 -> eltwise_stage3_block0
I0610 03:32:41.903790 15708 net.cpp:122] Setting up eltwise_stage3_block0
I0610 03:32:41.903796 15708 net.cpp:129] Top shape: 7 1024 7 7 (351232)
I0610 03:32:41.903800 15708 net.cpp:137] Memory required for data: 840147028
I0610 03:32:41.903803 15708 layer_factory.hpp:77] Creating layer relu_stage3_block0
I0610 03:32:41.903810 15708 net.cpp:84] Creating Layer relu_stage3_block0
I0610 03:32:41.903813 15708 net.cpp:406] relu_stage3_block0 <- eltwise_stage3_block0
I0610 03:32:41.903820 15708 net.cpp:367] relu_stage3_block0 -> eltwise_stage3_block0 (in-place)
I0610 03:32:41.903825 15708 net.cpp:122] Setting up relu_stage3_block0
I0610 03:32:41.903831 15708 net.cpp:129] Top shape: 7 1024 7 7 (351232)
I0610 03:32:41.903833 15708 net.cpp:137] Memory required for data: 841551956
I0610 03:32:41.903836 15708 layer_factory.hpp:77] Creating layer eltwise_stage3_block0_relu_stage3_block0_0_split
I0610 03:32:41.903844 15708 net.cpp:84] Creating Layer eltwise_stage3_block0_relu_stage3_block0_0_split
I0610 03:32:41.903848 15708 net.cpp:406] eltwise_stage3_block0_relu_stage3_block0_0_split <- eltwise_stage3_block0
I0610 03:32:41.903854 15708 net.cpp:380] eltwise_stage3_block0_relu_stage3_block0_0_split -> eltwise_stage3_block0_relu_stage3_block0_0_split_0
I0610 03:32:41.903861 15708 net.cpp:380] eltwise_stage3_block0_relu_stage3_block0_0_split -> eltwise_stage3_block0_relu_stage3_block0_0_split_1
I0610 03:32:41.903900 15708 net.cpp:122] Setting up eltwise_stage3_block0_relu_stage3_block0_0_split
I0610 03:32:41.903906 15708 net.cpp:129] Top shape: 7 1024 7 7 (351232)
I0610 03:32:41.903911 15708 net.cpp:129] Top shape: 7 1024 7 7 (351232)
I0610 03:32:41.903914 15708 net.cpp:137] Memory required for data: 844361812
I0610 03:32:41.903918 15708 layer_factory.hpp:77] Creating layer conv_stage3_block1_branch2a
I0610 03:32:41.903928 15708 net.cpp:84] Creating Layer conv_stage3_block1_branch2a
I0610 03:32:41.903933 15708 net.cpp:406] conv_stage3_block1_branch2a <- eltwise_stage3_block0_relu_stage3_block0_0_split_0
I0610 03:32:41.903941 15708 net.cpp:380] conv_stage3_block1_branch2a -> conv_stage3_block1_branch2a
I0610 03:32:41.906483 15708 net.cpp:122] Setting up conv_stage3_block1_branch2a
I0610 03:32:41.906496 15708 net.cpp:129] Top shape: 7 256 7 7 (87808)
I0610 03:32:41.906498 15708 net.cpp:137] Memory required for data: 844713044
I0610 03:32:41.906504 15708 layer_factory.hpp:77] Creating layer bn_stage3_block1_branch2a
I0610 03:32:41.906513 15708 net.cpp:84] Creating Layer bn_stage3_block1_branch2a
I0610 03:32:41.906517 15708 net.cpp:406] bn_stage3_block1_branch2a <- conv_stage3_block1_branch2a
I0610 03:32:41.906523 15708 net.cpp:367] bn_stage3_block1_branch2a -> conv_stage3_block1_branch2a (in-place)
I0610 03:32:41.906702 15708 net.cpp:122] Setting up bn_stage3_block1_branch2a
I0610 03:32:41.906708 15708 net.cpp:129] Top shape: 7 256 7 7 (87808)
I0610 03:32:41.906709 15708 net.cpp:137] Memory required for data: 845064276
I0610 03:32:41.906716 15708 layer_factory.hpp:77] Creating layer scale_stage3_block1_branch2a
I0610 03:32:41.906724 15708 net.cpp:84] Creating Layer scale_stage3_block1_branch2a
I0610 03:32:41.906743 15708 net.cpp:406] scale_stage3_block1_branch2a <- conv_stage3_block1_branch2a
I0610 03:32:41.906749 15708 net.cpp:367] scale_stage3_block1_branch2a -> conv_stage3_block1_branch2a (in-place)
I0610 03:32:41.906788 15708 layer_factory.hpp:77] Creating layer scale_stage3_block1_branch2a
I0610 03:32:41.906890 15708 net.cpp:122] Setting up scale_stage3_block1_branch2a
I0610 03:32:41.906895 15708 net.cpp:129] Top shape: 7 256 7 7 (87808)
I0610 03:32:41.906898 15708 net.cpp:137] Memory required for data: 845415508
I0610 03:32:41.906903 15708 layer_factory.hpp:77] Creating layer relu_stage3_block1_branch2a
I0610 03:32:41.906909 15708 net.cpp:84] Creating Layer relu_stage3_block1_branch2a
I0610 03:32:41.906913 15708 net.cpp:406] relu_stage3_block1_branch2a <- conv_stage3_block1_branch2a
I0610 03:32:41.906916 15708 net.cpp:367] relu_stage3_block1_branch2a -> conv_stage3_block1_branch2a (in-place)
I0610 03:32:41.906922 15708 net.cpp:122] Setting up relu_stage3_block1_branch2a
I0610 03:32:41.906925 15708 net.cpp:129] Top shape: 7 256 7 7 (87808)
I0610 03:32:41.906929 15708 net.cpp:137] Memory required for data: 845766740
I0610 03:32:41.906930 15708 layer_factory.hpp:77] Creating layer conv_stage3_block1_branch2b
I0610 03:32:41.906939 15708 net.cpp:84] Creating Layer conv_stage3_block1_branch2b
I0610 03:32:41.906941 15708 net.cpp:406] conv_stage3_block1_branch2b <- conv_stage3_block1_branch2a
I0610 03:32:41.906947 15708 net.cpp:380] conv_stage3_block1_branch2b -> conv_stage3_block1_branch2b
I0610 03:32:41.910755 15708 net.cpp:122] Setting up conv_stage3_block1_branch2b
I0610 03:32:41.910773 15708 net.cpp:129] Top shape: 7 256 7 7 (87808)
I0610 03:32:41.910776 15708 net.cpp:137] Memory required for data: 846117972
I0610 03:32:41.910784 15708 layer_factory.hpp:77] Creating layer bn_stage3_block1_branch2b
I0610 03:32:41.910794 15708 net.cpp:84] Creating Layer bn_stage3_block1_branch2b
I0610 03:32:41.910799 15708 net.cpp:406] bn_stage3_block1_branch2b <- conv_stage3_block1_branch2b
I0610 03:32:41.910804 15708 net.cpp:367] bn_stage3_block1_branch2b -> conv_stage3_block1_branch2b (in-place)
I0610 03:32:41.910956 15708 net.cpp:122] Setting up bn_stage3_block1_branch2b
I0610 03:32:41.910961 15708 net.cpp:129] Top shape: 7 256 7 7 (87808)
I0610 03:32:41.910964 15708 net.cpp:137] Memory required for data: 846469204
I0610 03:32:41.910969 15708 layer_factory.hpp:77] Creating layer scale_stage3_block1_branch2b
I0610 03:32:41.910975 15708 net.cpp:84] Creating Layer scale_stage3_block1_branch2b
I0610 03:32:41.910979 15708 net.cpp:406] scale_stage3_block1_branch2b <- conv_stage3_block1_branch2b
I0610 03:32:41.910982 15708 net.cpp:367] scale_stage3_block1_branch2b -> conv_stage3_block1_branch2b (in-place)
I0610 03:32:41.912629 15708 layer_factory.hpp:77] Creating layer scale_stage3_block1_branch2b
I0610 03:32:41.912772 15708 net.cpp:122] Setting up scale_stage3_block1_branch2b
I0610 03:32:41.912782 15708 net.cpp:129] Top shape: 7 256 7 7 (87808)
I0610 03:32:41.912786 15708 net.cpp:137] Memory required for data: 846820436
I0610 03:32:41.912796 15708 layer_factory.hpp:77] Creating layer relu_stage3_block1_branch2b
I0610 03:32:41.912803 15708 net.cpp:84] Creating Layer relu_stage3_block1_branch2b
I0610 03:32:41.912806 15708 net.cpp:406] relu_stage3_block1_branch2b <- conv_stage3_block1_branch2b
I0610 03:32:41.912811 15708 net.cpp:367] relu_stage3_block1_branch2b -> conv_stage3_block1_branch2b (in-place)
I0610 03:32:41.912818 15708 net.cpp:122] Setting up relu_stage3_block1_branch2b
I0610 03:32:41.912822 15708 net.cpp:129] Top shape: 7 256 7 7 (87808)
I0610 03:32:41.912824 15708 net.cpp:137] Memory required for data: 847171668
I0610 03:32:41.912827 15708 layer_factory.hpp:77] Creating layer conv_stage3_block1_branch2c
I0610 03:32:41.912835 15708 net.cpp:84] Creating Layer conv_stage3_block1_branch2c
I0610 03:32:41.912838 15708 net.cpp:406] conv_stage3_block1_branch2c <- conv_stage3_block1_branch2b
I0610 03:32:41.912844 15708 net.cpp:380] conv_stage3_block1_branch2c -> conv_stage3_block1_branch2c
I0610 03:32:41.914803 15708 net.cpp:122] Setting up conv_stage3_block1_branch2c
I0610 03:32:41.914825 15708 net.cpp:129] Top shape: 7 1024 7 7 (351232)
I0610 03:32:41.914829 15708 net.cpp:137] Memory required for data: 848576596
I0610 03:32:41.914835 15708 layer_factory.hpp:77] Creating layer bn_stage3_block1_branch2c
I0610 03:32:41.914847 15708 net.cpp:84] Creating Layer bn_stage3_block1_branch2c
I0610 03:32:41.914854 15708 net.cpp:406] bn_stage3_block1_branch2c <- conv_stage3_block1_branch2c
I0610 03:32:41.914861 15708 net.cpp:367] bn_stage3_block1_branch2c -> conv_stage3_block1_branch2c (in-place)
I0610 03:32:41.915030 15708 net.cpp:122] Setting up bn_stage3_block1_branch2c
I0610 03:32:41.915036 15708 net.cpp:129] Top shape: 7 1024 7 7 (351232)
I0610 03:32:41.915038 15708 net.cpp:137] Memory required for data: 849981524
I0610 03:32:41.915045 15708 layer_factory.hpp:77] Creating layer scale_stage3_block1_branch2c
I0610 03:32:41.915051 15708 net.cpp:84] Creating Layer scale_stage3_block1_branch2c
I0610 03:32:41.915055 15708 net.cpp:406] scale_stage3_block1_branch2c <- conv_stage3_block1_branch2c
I0610 03:32:41.915058 15708 net.cpp:367] scale_stage3_block1_branch2c -> conv_stage3_block1_branch2c (in-place)
I0610 03:32:41.915094 15708 layer_factory.hpp:77] Creating layer scale_stage3_block1_branch2c
I0610 03:32:41.915189 15708 net.cpp:122] Setting up scale_stage3_block1_branch2c
I0610 03:32:41.915194 15708 net.cpp:129] Top shape: 7 1024 7 7 (351232)
I0610 03:32:41.915195 15708 net.cpp:137] Memory required for data: 851386452
I0610 03:32:41.915200 15708 layer_factory.hpp:77] Creating layer eltwise_stage3_block1
I0610 03:32:41.915206 15708 net.cpp:84] Creating Layer eltwise_stage3_block1
I0610 03:32:41.915210 15708 net.cpp:406] eltwise_stage3_block1 <- eltwise_stage3_block0_relu_stage3_block0_0_split_1
I0610 03:32:41.915213 15708 net.cpp:406] eltwise_stage3_block1 <- conv_stage3_block1_branch2c
I0610 03:32:41.915220 15708 net.cpp:380] eltwise_stage3_block1 -> eltwise_stage3_block1
I0610 03:32:41.915237 15708 net.cpp:122] Setting up eltwise_stage3_block1
I0610 03:32:41.915242 15708 net.cpp:129] Top shape: 7 1024 7 7 (351232)
I0610 03:32:41.915244 15708 net.cpp:137] Memory required for data: 852791380
I0610 03:32:41.915247 15708 layer_factory.hpp:77] Creating layer relu_stage3_block1
I0610 03:32:41.915253 15708 net.cpp:84] Creating Layer relu_stage3_block1
I0610 03:32:41.915256 15708 net.cpp:406] relu_stage3_block1 <- eltwise_stage3_block1
I0610 03:32:41.915259 15708 net.cpp:367] relu_stage3_block1 -> eltwise_stage3_block1 (in-place)
I0610 03:32:41.915264 15708 net.cpp:122] Setting up relu_stage3_block1
I0610 03:32:41.915267 15708 net.cpp:129] Top shape: 7 1024 7 7 (351232)
I0610 03:32:41.915271 15708 net.cpp:137] Memory required for data: 854196308
I0610 03:32:41.915272 15708 layer_factory.hpp:77] Creating layer eltwise_stage3_block1_relu_stage3_block1_0_split
I0610 03:32:41.915277 15708 net.cpp:84] Creating Layer eltwise_stage3_block1_relu_stage3_block1_0_split
I0610 03:32:41.915279 15708 net.cpp:406] eltwise_stage3_block1_relu_stage3_block1_0_split <- eltwise_stage3_block1
I0610 03:32:41.915283 15708 net.cpp:380] eltwise_stage3_block1_relu_stage3_block1_0_split -> eltwise_stage3_block1_relu_stage3_block1_0_split_0
I0610 03:32:41.915288 15708 net.cpp:380] eltwise_stage3_block1_relu_stage3_block1_0_split -> eltwise_stage3_block1_relu_stage3_block1_0_split_1
I0610 03:32:41.915315 15708 net.cpp:122] Setting up eltwise_stage3_block1_relu_stage3_block1_0_split
I0610 03:32:41.915319 15708 net.cpp:129] Top shape: 7 1024 7 7 (351232)
I0610 03:32:41.915323 15708 net.cpp:129] Top shape: 7 1024 7 7 (351232)
I0610 03:32:41.915325 15708 net.cpp:137] Memory required for data: 857006164
I0610 03:32:41.915328 15708 layer_factory.hpp:77] Creating layer conv_stage3_block2_branch2a
I0610 03:32:41.915336 15708 net.cpp:84] Creating Layer conv_stage3_block2_branch2a
I0610 03:32:41.915339 15708 net.cpp:406] conv_stage3_block2_branch2a <- eltwise_stage3_block1_relu_stage3_block1_0_split_0
I0610 03:32:41.915344 15708 net.cpp:380] conv_stage3_block2_branch2a -> conv_stage3_block2_branch2a
I0610 03:32:41.917233 15708 net.cpp:122] Setting up conv_stage3_block2_branch2a
I0610 03:32:41.917243 15708 net.cpp:129] Top shape: 7 256 7 7 (87808)
I0610 03:32:41.917246 15708 net.cpp:137] Memory required for data: 857357396
I0610 03:32:41.917253 15708 layer_factory.hpp:77] Creating layer bn_stage3_block2_branch2a
I0610 03:32:41.917258 15708 net.cpp:84] Creating Layer bn_stage3_block2_branch2a
I0610 03:32:41.917261 15708 net.cpp:406] bn_stage3_block2_branch2a <- conv_stage3_block2_branch2a
I0610 03:32:41.917268 15708 net.cpp:367] bn_stage3_block2_branch2a -> conv_stage3_block2_branch2a (in-place)
I0610 03:32:41.917417 15708 net.cpp:122] Setting up bn_stage3_block2_branch2a
I0610 03:32:41.917421 15708 net.cpp:129] Top shape: 7 256 7 7 (87808)
I0610 03:32:41.917423 15708 net.cpp:137] Memory required for data: 857708628
I0610 03:32:41.917429 15708 layer_factory.hpp:77] Creating layer scale_stage3_block2_branch2a
I0610 03:32:41.917434 15708 net.cpp:84] Creating Layer scale_stage3_block2_branch2a
I0610 03:32:41.917436 15708 net.cpp:406] scale_stage3_block2_branch2a <- conv_stage3_block2_branch2a
I0610 03:32:41.917440 15708 net.cpp:367] scale_stage3_block2_branch2a -> conv_stage3_block2_branch2a (in-place)
I0610 03:32:41.917474 15708 layer_factory.hpp:77] Creating layer scale_stage3_block2_branch2a
I0610 03:32:41.917559 15708 net.cpp:122] Setting up scale_stage3_block2_branch2a
I0610 03:32:41.917564 15708 net.cpp:129] Top shape: 7 256 7 7 (87808)
I0610 03:32:41.917567 15708 net.cpp:137] Memory required for data: 858059860
I0610 03:32:41.917572 15708 layer_factory.hpp:77] Creating layer relu_stage3_block2_branch2a
I0610 03:32:41.917577 15708 net.cpp:84] Creating Layer relu_stage3_block2_branch2a
I0610 03:32:41.917579 15708 net.cpp:406] relu_stage3_block2_branch2a <- conv_stage3_block2_branch2a
I0610 03:32:41.917583 15708 net.cpp:367] relu_stage3_block2_branch2a -> conv_stage3_block2_branch2a (in-place)
I0610 03:32:41.917588 15708 net.cpp:122] Setting up relu_stage3_block2_branch2a
I0610 03:32:41.917592 15708 net.cpp:129] Top shape: 7 256 7 7 (87808)
I0610 03:32:41.917594 15708 net.cpp:137] Memory required for data: 858411092
I0610 03:32:41.917596 15708 layer_factory.hpp:77] Creating layer conv_stage3_block2_branch2b
I0610 03:32:41.917604 15708 net.cpp:84] Creating Layer conv_stage3_block2_branch2b
I0610 03:32:41.917608 15708 net.cpp:406] conv_stage3_block2_branch2b <- conv_stage3_block2_branch2a
I0610 03:32:41.917613 15708 net.cpp:380] conv_stage3_block2_branch2b -> conv_stage3_block2_branch2b
I0610 03:32:41.921262 15708 net.cpp:122] Setting up conv_stage3_block2_branch2b
I0610 03:32:41.921274 15708 net.cpp:129] Top shape: 7 256 7 7 (87808)
I0610 03:32:41.921277 15708 net.cpp:137] Memory required for data: 858762324
I0610 03:32:41.921284 15708 layer_factory.hpp:77] Creating layer bn_stage3_block2_branch2b
I0610 03:32:41.921291 15708 net.cpp:84] Creating Layer bn_stage3_block2_branch2b
I0610 03:32:41.921294 15708 net.cpp:406] bn_stage3_block2_branch2b <- conv_stage3_block2_branch2b
I0610 03:32:41.921300 15708 net.cpp:367] bn_stage3_block2_branch2b -> conv_stage3_block2_branch2b (in-place)
I0610 03:32:41.921452 15708 net.cpp:122] Setting up bn_stage3_block2_branch2b
I0610 03:32:41.921458 15708 net.cpp:129] Top shape: 7 256 7 7 (87808)
I0610 03:32:41.921459 15708 net.cpp:137] Memory required for data: 859113556
I0610 03:32:41.921465 15708 layer_factory.hpp:77] Creating layer scale_stage3_block2_branch2b
I0610 03:32:41.921470 15708 net.cpp:84] Creating Layer scale_stage3_block2_branch2b
I0610 03:32:41.921473 15708 net.cpp:406] scale_stage3_block2_branch2b <- conv_stage3_block2_branch2b
I0610 03:32:41.921476 15708 net.cpp:367] scale_stage3_block2_branch2b -> conv_stage3_block2_branch2b (in-place)
I0610 03:32:41.921511 15708 layer_factory.hpp:77] Creating layer scale_stage3_block2_branch2b
I0610 03:32:41.921593 15708 net.cpp:122] Setting up scale_stage3_block2_branch2b
I0610 03:32:41.921597 15708 net.cpp:129] Top shape: 7 256 7 7 (87808)
I0610 03:32:41.921600 15708 net.cpp:137] Memory required for data: 859464788
I0610 03:32:41.921604 15708 layer_factory.hpp:77] Creating layer relu_stage3_block2_branch2b
I0610 03:32:41.921624 15708 net.cpp:84] Creating Layer relu_stage3_block2_branch2b
I0610 03:32:41.921627 15708 net.cpp:406] relu_stage3_block2_branch2b <- conv_stage3_block2_branch2b
I0610 03:32:41.921631 15708 net.cpp:367] relu_stage3_block2_branch2b -> conv_stage3_block2_branch2b (in-place)
I0610 03:32:41.921636 15708 net.cpp:122] Setting up relu_stage3_block2_branch2b
I0610 03:32:41.921640 15708 net.cpp:129] Top shape: 7 256 7 7 (87808)
I0610 03:32:41.921643 15708 net.cpp:137] Memory required for data: 859816020
I0610 03:32:41.921644 15708 layer_factory.hpp:77] Creating layer conv_stage3_block2_branch2c
I0610 03:32:41.921653 15708 net.cpp:84] Creating Layer conv_stage3_block2_branch2c
I0610 03:32:41.921655 15708 net.cpp:406] conv_stage3_block2_branch2c <- conv_stage3_block2_branch2b
I0610 03:32:41.921661 15708 net.cpp:380] conv_stage3_block2_branch2c -> conv_stage3_block2_branch2c
I0610 03:32:41.923552 15708 net.cpp:122] Setting up conv_stage3_block2_branch2c
I0610 03:32:41.923563 15708 net.cpp:129] Top shape: 7 1024 7 7 (351232)
I0610 03:32:41.923566 15708 net.cpp:137] Memory required for data: 861220948
I0610 03:32:41.923571 15708 layer_factory.hpp:77] Creating layer bn_stage3_block2_branch2c
I0610 03:32:41.923578 15708 net.cpp:84] Creating Layer bn_stage3_block2_branch2c
I0610 03:32:41.923580 15708 net.cpp:406] bn_stage3_block2_branch2c <- conv_stage3_block2_branch2c
I0610 03:32:41.923586 15708 net.cpp:367] bn_stage3_block2_branch2c -> conv_stage3_block2_branch2c (in-place)
I0610 03:32:41.923748 15708 net.cpp:122] Setting up bn_stage3_block2_branch2c
I0610 03:32:41.923753 15708 net.cpp:129] Top shape: 7 1024 7 7 (351232)
I0610 03:32:41.923755 15708 net.cpp:137] Memory required for data: 862625876
I0610 03:32:41.923760 15708 layer_factory.hpp:77] Creating layer scale_stage3_block2_branch2c
I0610 03:32:41.923765 15708 net.cpp:84] Creating Layer scale_stage3_block2_branch2c
I0610 03:32:41.923768 15708 net.cpp:406] scale_stage3_block2_branch2c <- conv_stage3_block2_branch2c
I0610 03:32:41.923772 15708 net.cpp:367] scale_stage3_block2_branch2c -> conv_stage3_block2_branch2c (in-place)
I0610 03:32:41.923806 15708 layer_factory.hpp:77] Creating layer scale_stage3_block2_branch2c
I0610 03:32:41.923898 15708 net.cpp:122] Setting up scale_stage3_block2_branch2c
I0610 03:32:41.923902 15708 net.cpp:129] Top shape: 7 1024 7 7 (351232)
I0610 03:32:41.923905 15708 net.cpp:137] Memory required for data: 864030804
I0610 03:32:41.923910 15708 layer_factory.hpp:77] Creating layer eltwise_stage3_block2
I0610 03:32:41.923915 15708 net.cpp:84] Creating Layer eltwise_stage3_block2
I0610 03:32:41.923919 15708 net.cpp:406] eltwise_stage3_block2 <- eltwise_stage3_block1_relu_stage3_block1_0_split_1
I0610 03:32:41.923923 15708 net.cpp:406] eltwise_stage3_block2 <- conv_stage3_block2_branch2c
I0610 03:32:41.923928 15708 net.cpp:380] eltwise_stage3_block2 -> eltwise_stage3_block2
I0610 03:32:41.923948 15708 net.cpp:122] Setting up eltwise_stage3_block2
I0610 03:32:41.923951 15708 net.cpp:129] Top shape: 7 1024 7 7 (351232)
I0610 03:32:41.923954 15708 net.cpp:137] Memory required for data: 865435732
I0610 03:32:41.923956 15708 layer_factory.hpp:77] Creating layer relu_stage3_block2
I0610 03:32:41.923961 15708 net.cpp:84] Creating Layer relu_stage3_block2
I0610 03:32:41.923964 15708 net.cpp:406] relu_stage3_block2 <- eltwise_stage3_block2
I0610 03:32:41.923969 15708 net.cpp:367] relu_stage3_block2 -> eltwise_stage3_block2 (in-place)
I0610 03:32:41.923974 15708 net.cpp:122] Setting up relu_stage3_block2
I0610 03:32:41.923977 15708 net.cpp:129] Top shape: 7 1024 7 7 (351232)
I0610 03:32:41.923979 15708 net.cpp:137] Memory required for data: 866840660
I0610 03:32:41.923981 15708 layer_factory.hpp:77] Creating layer pool
I0610 03:32:41.923986 15708 net.cpp:84] Creating Layer pool
I0610 03:32:41.923988 15708 net.cpp:406] pool <- eltwise_stage3_block2
I0610 03:32:41.923995 15708 net.cpp:380] pool -> pool
I0610 03:32:41.924012 15708 net.cpp:122] Setting up pool
I0610 03:32:41.924017 15708 net.cpp:129] Top shape: 7 1024 1 1 (7168)
I0610 03:32:41.924028 15708 net.cpp:137] Memory required for data: 866869332
I0610 03:32:41.924031 15708 layer_factory.hpp:77] Creating layer fc_nsfw
I0610 03:32:41.924037 15708 net.cpp:84] Creating Layer fc_nsfw
I0610 03:32:41.924041 15708 net.cpp:406] fc_nsfw <- pool
I0610 03:32:41.924046 15708 net.cpp:380] fc_nsfw -> fc_nsfw
I0610 03:32:41.924150 15708 net.cpp:122] Setting up fc_nsfw
I0610 03:32:41.924155 15708 net.cpp:129] Top shape: 7 2 (14)
I0610 03:32:41.924157 15708 net.cpp:137] Memory required for data: 866869388
I0610 03:32:41.924161 15708 layer_factory.hpp:77] Creating layer fc_nsfw_fc_nsfw_0_split
I0610 03:32:41.924166 15708 net.cpp:84] Creating Layer fc_nsfw_fc_nsfw_0_split
I0610 03:32:41.924170 15708 net.cpp:406] fc_nsfw_fc_nsfw_0_split <- fc_nsfw
I0610 03:32:41.924175 15708 net.cpp:380] fc_nsfw_fc_nsfw_0_split -> fc_nsfw_fc_nsfw_0_split_0
I0610 03:32:41.924180 15708 net.cpp:380] fc_nsfw_fc_nsfw_0_split -> fc_nsfw_fc_nsfw_0_split_1
I0610 03:32:41.924207 15708 net.cpp:122] Setting up fc_nsfw_fc_nsfw_0_split
I0610 03:32:41.924211 15708 net.cpp:129] Top shape: 7 2 (14)
I0610 03:32:41.924213 15708 net.cpp:129] Top shape: 7 2 (14)
I0610 03:32:41.924216 15708 net.cpp:137] Memory required for data: 866869500
I0610 03:32:41.924218 15708 layer_factory.hpp:77] Creating layer loss
I0610 03:32:41.924223 15708 net.cpp:84] Creating Layer loss
I0610 03:32:41.924226 15708 net.cpp:406] loss <- fc_nsfw_fc_nsfw_0_split_0
I0610 03:32:41.924229 15708 net.cpp:406] loss <- label_data_1_split_0
I0610 03:32:41.924234 15708 net.cpp:380] loss -> loss
…
