…
I0411 10:43:12.930379 18165 net.cpp:51] Initializing net from parameters: 
state {
  phase: TRAIN
  level: 0
  stage: ""
}
layer {
  name: "data"
  type: "ImageData"
  top: "data"
  top: "label"
  include {
    phase: TRAIN
  }
  transform_param {
    mirror: true
    crop_size: 227
    mean_file: "nsfwnet2_mean.binaryproto"
  }
  image_data_param {
    source: "/home/dbicho/Documents/datasets/all_labeled_dataset_augmented_finetuning/train.txt"
    batch_size: 14
    shuffle: true
    root_folder: "/home/dbicho/Documents/datasets/all_labeled_dataset_augmented_finetuning/"
  }
}
layer {
  name: "conv1"
  type: "Convolution"
  bottom: "data"
  top: "conv1"
  convolution_param {
    num_output: 64
    kernel_size: 3
    stride: 2
    weight_filler {
      type: "xavier"
    }
  }
}
layer {
  name: "relu_conv1"
  type: "ReLU"
  bottom: "conv1"
  top: "conv1"
}
layer {
  name: "pool1"
  type: "Pooling"
  bottom: "conv1"
  top: "pool1"
  pooling_param {
    pool: MAX
    kernel_size: 3
    stride: 2
  }
}
layer {
  name: "fire2/squeeze1x1"
  type: "Convolution"
  bottom: "pool1"
  top: "fire2/squeeze1x1"
  convolution_param {
    num_output: 16
    kernel_size: 1
    weight_filler {
      type: "xavier"
    }
  }
}
layer {
  name: "fire2/relu_squeeze1x1"
  type: "ReLU"
  bottom: "fire2/squeeze1x1"
  top: "fire2/squeeze1x1"
}
layer {
  name: "fire2/expand1x1"
  type: "Convolution"
  bottom: "fire2/squeeze1x1"
  top: "fire2/expand1x1"
  convolution_param {
    num_output: 64
    kernel_size: 1
    weight_filler {
      type: "xavier"
    }
  }
}
layer {
  name: "fire2/relu_expand1x1"
  type: "ReLU"
  bottom: "fire2/expand1x1"
  top: "fire2/expand1x1"
}
layer {
  name: "fire2/expand3x3"
  type: "Convolution"
  bottom: "fire2/squeeze1x1"
  top: "fire2/expand3x3"
  convolution_param {
    num_output: 64
    pad: 1
    kernel_size: 3
    weight_filler {
      type: "xavier"
    }
  }
}
layer {
  name: "fire2/relu_expand3x3"
  type: "ReLU"
  bottom: "fire2/expand3x3"
  top: "fire2/expand3x3"
}
layer {
  name: "fire2/concat"
  type: "Concat"
  bottom: "fire2/expand1x1"
  bottom: "fire2/expand3x3"
  top: "fire2/concat"
}
layer {
  name: "fire3/squeeze1x1"
  type: "Convolution"
  bottom: "fire2/concat"
  top: "fire3/squeeze1x1"
  convolution_param {
    num_output: 16
    kernel_size: 1
    weight_filler {
      type: "xavier"
    }
  }
}
layer {
  name: "fire3/relu_squeeze1x1"
  type: "ReLU"
  bottom: "fire3/squeeze1x1"
  top: "fire3/squeeze1x1"
}
layer {
  name: "fire3/expand1x1"
  type: "Convolution"
  bottom: "fire3/squeeze1x1"
  top: "fire3/expand1x1"
  convolution_param {
    num_output: 64
    kernel_size: 1
    weight_filler {
      type: "xavier"
    }
  }
}
layer {
  name: "fire3/relu_expand1x1"
  type: "ReLU"
  bottom: "fire3/expand1x1"
  top: "fire3/expand1x1"
}
layer {
  name: "fire3/expand3x3"
  type: "Convolution"
  bottom: "fire3/squeeze1x1"
  top: "fire3/expand3x3"
  convolution_param {
    num_output: 64
    pad: 1
    kernel_size: 3
    weight_filler {
      type: "xavier"
    }
  }
}
layer {
  name: "fire3/relu_expand3x3"
  type: "ReLU"
  bottom: "fire3/expand3x3"
  top: "fire3/expand3x3"
}
layer {
  name: "fire3/concat"
  type: "Concat"
  bottom: "fire3/expand1x1"
  bottom: "fire3/expand3x3"
  top: "fire3/concat"
}
layer {
  name: "pool3"
  type: "Pooling"
  bottom: "fire3/concat"
  top: "pool3"
  pooling_param {
    pool: MAX
    kernel_size: 3
    stride: 2
  }
}
layer {
  name: "fire4/squeeze1x1"
  type: "Convolution"
  bottom: "pool3"
  top: "fire4/squeeze1x1"
  convolution_param {
    num_output: 32
    kernel_size: 1
    weight_filler {
      type: "xavier"
    }
  }
}
layer {
  name: "fire4/relu_squeeze1x1"
  type: "ReLU"
  bottom: "fire4/squeeze1x1"
  top: "fire4/squeeze1x1"
}
layer {
  name: "fire4/expand1x1"
  type: "Convolution"
  bottom: "fire4/squeeze1x1"
  top: "fire4/expand1x1"
  convolution_param {
    num_output: 128
    kernel_size: 1
    weight_filler {
      type: "xavier"
    }
  }
}
layer {
  name: "fire4/relu_expand1x1"
  type: "ReLU"
  bottom: "fire4/expand1x1"
  top: "fire4/expand1x1"
}
layer {
  name: "fire4/expand3x3"
  type: "Convolution"
  bottom: "fire4/squeeze1x1"
  top: "fire4/expand3x3"
  convolution_param {
    num_output: 128
    pad: 1
    kernel_size: 3
    weight_filler {
      type: "xavier"
    }
  }
}
layer {
  name: "fire4/relu_expand3x3"
  type: "ReLU"
  bottom: "fire4/expand3x3"
  top: "fire4/expand3x3"
}
layer {
  name: "fire4/concat"
  type: "Concat"
  bottom: "fire4/expand1x1"
  bottom: "fire4/expand3x3"
  top: "fire4/concat"
}
layer {
  name: "fire5/squeeze1x1"
  type: "Convolution"
  bottom: "fire4/concat"
  top: "fire5/squeeze1x1"
  convolution_param {
    num_output: 32
    kernel_size: 1
    weight_filler {
      type: "xavier"
    }
  }
}
layer {
  name: "fire5/relu_squeeze1x1"
  type: "ReLU"
  bottom: "fire5/squeeze1x1"
  top: "fire5/squeeze1x1"
}
layer {
  name: "fire5/expand1x1"
  type: "Convolution"
  bottom: "fire5/squeeze1x1"
  top: "fire5/expand1x1"
  convolution_param {
    num_output: 128
    kernel_size: 1
    weight_filler {
      type: "xavier"
    }
  }
}
layer {
  name: "fire5/relu_expand1x1"
  type: "ReLU"
  bottom: "fire5/expand1x1"
  top: "fire5/expand1x1"
}
layer {
  name: "fire5/expand3x3"
  type: "Convolution"
  bottom: "fire5/squeeze1x1"
  top: "fire5/expand3x3"
  convolution_param {
    num_output: 128
    pad: 1
    kernel_size: 3
    weight_filler {
      type: "xavier"
    }
  }
}
layer {
  name: "fire5/relu_expand3x3"
  type: "ReLU"
  bottom: "fire5/expand3x3"
  top: "fire5/expand3x3"
}
layer {
  name: "fire5/concat"
  type: "Concat"
  bottom: "fire5/expand1x1"
  bottom: "fire5/expand3x3"
  top: "fire5/concat"
}
layer {
  name: "pool5"
  type: "Pooling"
  bottom: "fire5/concat"
  top: "pool5"
  pooling_param {
    pool: MAX
    kernel_size: 3
    stride: 2
  }
}
layer {
  name: "fire6/squeeze1x1"
  type: "Convolution"
  bottom: "pool5"
  top: "fire6/squeeze1x1"
  convolution_param {
    num_output: 48
    kernel_size: 1
    weight_filler {
      type: "xavier"
    }
  }
}
layer {
  name: "fire6/relu_squeeze1x1"
  type: "ReLU"
  bottom: "fire6/squeeze1x1"
  top: "fire6/squeeze1x1"
}
layer {
  name: "fire6/expand1x1"
  type: "Convolution"
  bottom: "fire6/squeeze1x1"
  top: "fire6/expand1x1"
  convolution_param {
    num_output: 192
    kernel_size: 1
    weight_filler {
      type: "xavier"
    }
  }
}
layer {
  name: "fire6/relu_expand1x1"
  type: "ReLU"
  bottom: "fire6/expand1x1"
  top: "fire6/expand1x1"
}
layer {
  name: "fire6/expand3x3"
  type: "Convolution"
  bottom: "fire6/squeeze1x1"
  top: "fire6/expand3x3"
  convolution_param {
    num_output: 192
    pad: 1
    kernel_size: 3
    weight_filler {
      type: "xavier"
    }
  }
}
layer {
  name: "fire6/relu_expand3x3"
  type: "ReLU"
  bottom: "fire6/expand3x3"
  top: "fire6/expand3x3"
}
layer {
  name: "fire6/concat"
  type: "Concat"
  bottom: "fire6/expand1x1"
  bottom: "fire6/expand3x3"
  top: "fire6/concat"
}
layer {
  name: "fire7/squeeze1x1"
  type: "Convolution"
  bottom: "fire6/concat"
  top: "fire7/squeeze1x1"
  convolution_param {
    num_output: 48
    kernel_size: 1
    weight_filler {
      type: "xavier"
    }
  }
}
layer {
  name: "fire7/relu_squeeze1x1"
  type: "ReLU"
  bottom: "fire7/squeeze1x1"
  top: "fire7/squeeze1x1"
}
layer {
  name: "fire7/expand1x1"
  type: "Convolution"
  bottom: "fire7/squeeze1x1"
  top: "fire7/expand1x1"
  convolution_param {
    num_output: 192
    kernel_size: 1
    weight_filler {
      type: "xavier"
    }
  }
}
layer {
  name: "fire7/relu_expand1x1"
  type: "ReLU"
  bottom: "fire7/expand1x1"
  top: "fire7/expand1x1"
}
layer {
  name: "fire7/expand3x3"
  type: "Convolution"
  bottom: "fire7/squeeze1x1"
  top: "fire7/expand3x3"
  convolution_param {
    num_output: 192
    pad: 1
    kernel_size: 3
    weight_filler {
      type: "xavier"
    }
  }
}
layer {
  name: "fire7/relu_expand3x3"
  type: "ReLU"
  bottom: "fire7/expand3x3"
  top: "fire7/expand3x3"
}
layer {
  name: "fire7/concat"
  type: "Concat"
  bottom: "fire7/expand1x1"
  bottom: "fire7/expand3x3"
  top: "fire7/concat"
}
layer {
  name: "fire8/squeeze1x1"
  type: "Convolution"
  bottom: "fire7/concat"
  top: "fire8/squeeze1x1"
  convolution_param {
    num_output: 64
    kernel_size: 1
    weight_filler {
      type: "xavier"
    }
  }
}
layer {
  name: "fire8/relu_squeeze1x1"
  type: "ReLU"
  bottom: "fire8/squeeze1x1"
  top: "fire8/squeeze1x1"
}
layer {
  name: "fire8/expand1x1"
  type: "Convolution"
  bottom: "fire8/squeeze1x1"
  top: "fire8/expand1x1"
  convolution_param {
    num_output: 256
    kernel_size: 1
    weight_filler {
      type: "xavier"
    }
  }
}
layer {
  name: "fire8/relu_expand1x1"
  type: "ReLU"
  bottom: "fire8/expand1x1"
  top: "fire8/expand1x1"
}
layer {
  name: "fire8/expand3x3"
  type: "Convolution"
  bottom: "fire8/squeeze1x1"
  top: "fire8/expand3x3"
  convolution_param {
    num_output: 256
    pad: 1
    kernel_size: 3
    weight_filler {
      type: "xavier"
    }
  }
}
layer {
  name: "fire8/relu_expand3x3"
  type: "ReLU"
  bottom: "fire8/expand3x3"
  top: "fire8/expand3x3"
}
layer {
  name: "fire8/concat"
  type: "Concat"
  bottom: "fire8/expand1x1"
  bottom: "fire8/expand3x3"
  top: "fire8/concat"
}
layer {
  name: "fire9/squeeze1x1"
  type: "Convolution"
  bottom: "fire8/concat"
  top: "fire9/squeeze1x1"
  convolution_param {
    num_output: 64
    kernel_size: 1
    weight_filler {
      type: "xavier"
    }
  }
}
layer {
  name: "fire9/relu_squeeze1x1"
  type: "ReLU"
  bottom: "fire9/squeeze1x1"
  top: "fire9/squeeze1x1"
}
layer {
  name: "fire9/expand1x1"
  type: "Convolution"
  bottom: "fire9/squeeze1x1"
  top: "fire9/expand1x1"
  convolution_param {
    num_output: 256
    kernel_size: 1
    weight_filler {
      type: "xavier"
    }
  }
}
layer {
  name: "fire9/relu_expand1x1"
  type: "ReLU"
  bottom: "fire9/expand1x1"
  top: "fire9/expand1x1"
}
layer {
  name: "fire9/expand3x3"
  type: "Convolution"
  bottom: "fire9/squeeze1x1"
  top: "fire9/expand3x3"
  convolution_param {
    num_output: 256
    pad: 1
    kernel_size: 3
    weight_filler {
      type: "xavier"
    }
  }
}
layer {
  name: "fire9/relu_expand3x3"
  type: "ReLU"
  bottom: "fire9/expand3x3"
  top: "fire9/expand3x3"
}
layer {
  name: "fire9/concat"
  type: "Concat"
  bottom: "fire9/expand1x1"
  bottom: "fire9/expand3x3"
  top: "fire9/concat"
}
layer {
  name: "drop9"
  type: "Dropout"
  bottom: "fire9/concat"
  top: "fire9/concat"
  dropout_param {
    dropout_ratio: 0.5
  }
}
layer {
  name: "conv10"
  type: "Convolution"
  bottom: "fire9/concat"
  top: "conv10"
  convolution_param {
    num_output: 2
    kernel_size: 1
    weight_filler {
      type: "gaussian"
      mean: 0
      std: 0.01
    }
  }
}
layer {
  name: "relu_conv10"
  type: "ReLU"
  bottom: "conv10"
  top: "conv10"
}
layer {
  name: "pool10"
  type: "Pooling"
  bottom: "conv10"
  top: "pool10"
  pooling_param {
    pool: AVE
    global_pooling: true
  }
}
layer {
  name: "loss"
  type: "SoftmaxWithLoss"
  bottom: "pool10"
  bottom: "label"
  top: "loss"
}
layer {
  name: "accuracy"
  type: "Accuracy"
  bottom: "pool10"
  bottom: "label"
  top: "accuracy"
}
I0411 10:43:12.930662 18165 layer_factory.hpp:77] Creating layer data
I0411 10:43:12.930687 18165 net.cpp:84] Creating Layer data
I0411 10:43:12.930693 18165 net.cpp:380] data -> data
I0411 10:43:12.930712 18165 net.cpp:380] data -> label
I0411 10:43:12.930723 18165 data_transformer.cpp:25] Loading mean file from: nsfwnet2_mean.binaryproto
I0411 10:43:13.012821 18165 image_data_layer.cpp:38] Opening file /home/dbicho/Documents/datasets/all_labeled_dataset_augmented_finetuning/train.txt
I0411 10:43:13.023501 18165 image_data_layer.cpp:53] Shuffling data
I0411 10:43:13.029145 18165 image_data_layer.cpp:63] A total of 19955 images.
I0411 10:43:13.063518 18165 image_data_layer.cpp:90] output data size: 14,3,227,227
I0411 10:43:13.080323 18165 net.cpp:122] Setting up data
I0411 10:43:13.080349 18165 net.cpp:129] Top shape: 14 3 227 227 (2164218)
I0411 10:43:13.080354 18165 net.cpp:129] Top shape: 14 (14)
I0411 10:43:13.080356 18165 net.cpp:137] Memory required for data: 8656928
I0411 10:43:13.080363 18165 layer_factory.hpp:77] Creating layer label_data_1_split
I0411 10:43:13.080386 18165 net.cpp:84] Creating Layer label_data_1_split
I0411 10:43:13.080390 18165 net.cpp:406] label_data_1_split <- label
I0411 10:43:13.080409 18165 net.cpp:380] label_data_1_split -> label_data_1_split_0
I0411 10:43:13.080425 18165 net.cpp:380] label_data_1_split -> label_data_1_split_1
I0411 10:43:13.080503 18165 net.cpp:122] Setting up label_data_1_split
I0411 10:43:13.080513 18165 net.cpp:129] Top shape: 14 (14)
I0411 10:43:13.080518 18165 net.cpp:129] Top shape: 14 (14)
I0411 10:43:13.080521 18165 net.cpp:137] Memory required for data: 8657040
I0411 10:43:13.080526 18165 layer_factory.hpp:77] Creating layer conv1
I0411 10:43:13.080545 18165 net.cpp:84] Creating Layer conv1
I0411 10:43:13.080552 18165 net.cpp:406] conv1 <- data
I0411 10:43:13.080559 18165 net.cpp:380] conv1 -> conv1
I0411 10:43:13.082233 18165 net.cpp:122] Setting up conv1
I0411 10:43:13.082252 18165 net.cpp:129] Top shape: 14 64 113 113 (11441024)
I0411 10:43:13.082257 18165 net.cpp:137] Memory required for data: 54421136
I0411 10:43:13.082288 18165 layer_factory.hpp:77] Creating layer relu_conv1
I0411 10:43:13.082299 18165 net.cpp:84] Creating Layer relu_conv1
I0411 10:43:13.082305 18165 net.cpp:406] relu_conv1 <- conv1
I0411 10:43:13.082312 18165 net.cpp:367] relu_conv1 -> conv1 (in-place)
I0411 10:43:13.082324 18165 net.cpp:122] Setting up relu_conv1
I0411 10:43:13.082331 18165 net.cpp:129] Top shape: 14 64 113 113 (11441024)
I0411 10:43:13.082336 18165 net.cpp:137] Memory required for data: 100185232
I0411 10:43:13.082340 18165 layer_factory.hpp:77] Creating layer pool1
I0411 10:43:13.082351 18165 net.cpp:84] Creating Layer pool1
I0411 10:43:13.082357 18165 net.cpp:406] pool1 <- conv1
I0411 10:43:13.082365 18165 net.cpp:380] pool1 -> pool1
I0411 10:43:13.083191 18165 net.cpp:122] Setting up pool1
I0411 10:43:13.083205 18165 net.cpp:129] Top shape: 14 64 56 56 (2809856)
I0411 10:43:13.083211 18165 net.cpp:137] Memory required for data: 111424656
I0411 10:43:13.083216 18165 layer_factory.hpp:77] Creating layer fire2/squeeze1x1
I0411 10:43:13.083230 18165 net.cpp:84] Creating Layer fire2/squeeze1x1
I0411 10:43:13.083235 18165 net.cpp:406] fire2/squeeze1x1 <- pool1
I0411 10:43:13.083245 18165 net.cpp:380] fire2/squeeze1x1 -> fire2/squeeze1x1
I0411 10:43:13.084182 18165 net.cpp:122] Setting up fire2/squeeze1x1
I0411 10:43:13.084201 18165 net.cpp:129] Top shape: 14 16 56 56 (702464)
I0411 10:43:13.084206 18165 net.cpp:137] Memory required for data: 114234512
I0411 10:43:13.084220 18165 layer_factory.hpp:77] Creating layer fire2/relu_squeeze1x1
I0411 10:43:13.084231 18165 net.cpp:84] Creating Layer fire2/relu_squeeze1x1
I0411 10:43:13.084237 18165 net.cpp:406] fire2/relu_squeeze1x1 <- fire2/squeeze1x1
I0411 10:43:13.084245 18165 net.cpp:367] fire2/relu_squeeze1x1 -> fire2/squeeze1x1 (in-place)
I0411 10:43:13.084255 18165 net.cpp:122] Setting up fire2/relu_squeeze1x1
I0411 10:43:13.084262 18165 net.cpp:129] Top shape: 14 16 56 56 (702464)
I0411 10:43:13.084266 18165 net.cpp:137] Memory required for data: 117044368
I0411 10:43:13.084270 18165 layer_factory.hpp:77] Creating layer fire2/squeeze1x1_fire2/relu_squeeze1x1_0_split
I0411 10:43:13.084277 18165 net.cpp:84] Creating Layer fire2/squeeze1x1_fire2/relu_squeeze1x1_0_split
I0411 10:43:13.084281 18165 net.cpp:406] fire2/squeeze1x1_fire2/relu_squeeze1x1_0_split <- fire2/squeeze1x1
I0411 10:43:13.084290 18165 net.cpp:380] fire2/squeeze1x1_fire2/relu_squeeze1x1_0_split -> fire2/squeeze1x1_fire2/relu_squeeze1x1_0_split_0
I0411 10:43:13.084321 18165 net.cpp:380] fire2/squeeze1x1_fire2/relu_squeeze1x1_0_split -> fire2/squeeze1x1_fire2/relu_squeeze1x1_0_split_1
I0411 10:43:13.084376 18165 net.cpp:122] Setting up fire2/squeeze1x1_fire2/relu_squeeze1x1_0_split
I0411 10:43:13.084388 18165 net.cpp:129] Top shape: 14 16 56 56 (702464)
I0411 10:43:13.084396 18165 net.cpp:129] Top shape: 14 16 56 56 (702464)
I0411 10:43:13.084401 18165 net.cpp:137] Memory required for data: 122664080
I0411 10:43:13.084406 18165 layer_factory.hpp:77] Creating layer fire2/expand1x1
I0411 10:43:13.084420 18165 net.cpp:84] Creating Layer fire2/expand1x1
I0411 10:43:13.084426 18165 net.cpp:406] fire2/expand1x1 <- fire2/squeeze1x1_fire2/relu_squeeze1x1_0_split_0
I0411 10:43:13.084436 18165 net.cpp:380] fire2/expand1x1 -> fire2/expand1x1
I0411 10:43:13.084744 18165 net.cpp:122] Setting up fire2/expand1x1
I0411 10:43:13.084759 18165 net.cpp:129] Top shape: 14 64 56 56 (2809856)
I0411 10:43:13.084766 18165 net.cpp:137] Memory required for data: 133903504
I0411 10:43:13.084779 18165 layer_factory.hpp:77] Creating layer fire2/relu_expand1x1
I0411 10:43:13.084787 18165 net.cpp:84] Creating Layer fire2/relu_expand1x1
I0411 10:43:13.084794 18165 net.cpp:406] fire2/relu_expand1x1 <- fire2/expand1x1
I0411 10:43:13.084801 18165 net.cpp:367] fire2/relu_expand1x1 -> fire2/expand1x1 (in-place)
I0411 10:43:13.084811 18165 net.cpp:122] Setting up fire2/relu_expand1x1
I0411 10:43:13.084818 18165 net.cpp:129] Top shape: 14 64 56 56 (2809856)
I0411 10:43:13.084822 18165 net.cpp:137] Memory required for data: 145142928
I0411 10:43:13.084826 18165 layer_factory.hpp:77] Creating layer fire2/expand3x3
I0411 10:43:13.084837 18165 net.cpp:84] Creating Layer fire2/expand3x3
I0411 10:43:13.084843 18165 net.cpp:406] fire2/expand3x3 <- fire2/squeeze1x1_fire2/relu_squeeze1x1_0_split_1
I0411 10:43:13.084851 18165 net.cpp:380] fire2/expand3x3 -> fire2/expand3x3
I0411 10:43:13.085278 18165 net.cpp:122] Setting up fire2/expand3x3
I0411 10:43:13.085291 18165 net.cpp:129] Top shape: 14 64 56 56 (2809856)
I0411 10:43:13.085295 18165 net.cpp:137] Memory required for data: 156382352
I0411 10:43:13.085304 18165 layer_factory.hpp:77] Creating layer fire2/relu_expand3x3
I0411 10:43:13.085312 18165 net.cpp:84] Creating Layer fire2/relu_expand3x3
I0411 10:43:13.085317 18165 net.cpp:406] fire2/relu_expand3x3 <- fire2/expand3x3
I0411 10:43:13.085324 18165 net.cpp:367] fire2/relu_expand3x3 -> fire2/expand3x3 (in-place)
I0411 10:43:13.085330 18165 net.cpp:122] Setting up fire2/relu_expand3x3
I0411 10:43:13.085335 18165 net.cpp:129] Top shape: 14 64 56 56 (2809856)
I0411 10:43:13.085340 18165 net.cpp:137] Memory required for data: 167621776
I0411 10:43:13.085345 18165 layer_factory.hpp:77] Creating layer fire2/concat
I0411 10:43:13.085351 18165 net.cpp:84] Creating Layer fire2/concat
I0411 10:43:13.085356 18165 net.cpp:406] fire2/concat <- fire2/expand1x1
I0411 10:43:13.085362 18165 net.cpp:406] fire2/concat <- fire2/expand3x3
I0411 10:43:13.085371 18165 net.cpp:380] fire2/concat -> fire2/concat
I0411 10:43:13.085402 18165 net.cpp:122] Setting up fire2/concat
I0411 10:43:13.085413 18165 net.cpp:129] Top shape: 14 128 56 56 (5619712)
I0411 10:43:13.085418 18165 net.cpp:137] Memory required for data: 190100624
I0411 10:43:13.085422 18165 layer_factory.hpp:77] Creating layer fire3/squeeze1x1
I0411 10:43:13.085433 18165 net.cpp:84] Creating Layer fire3/squeeze1x1
I0411 10:43:13.085439 18165 net.cpp:406] fire3/squeeze1x1 <- fire2/concat
I0411 10:43:13.085448 18165 net.cpp:380] fire3/squeeze1x1 -> fire3/squeeze1x1
I0411 10:43:13.085757 18165 net.cpp:122] Setting up fire3/squeeze1x1
I0411 10:43:13.085772 18165 net.cpp:129] Top shape: 14 16 56 56 (702464)
I0411 10:43:13.085778 18165 net.cpp:137] Memory required for data: 192910480
I0411 10:43:13.085793 18165 layer_factory.hpp:77] Creating layer fire3/relu_squeeze1x1
I0411 10:43:13.085803 18165 net.cpp:84] Creating Layer fire3/relu_squeeze1x1
I0411 10:43:13.085808 18165 net.cpp:406] fire3/relu_squeeze1x1 <- fire3/squeeze1x1
I0411 10:43:13.085830 18165 net.cpp:367] fire3/relu_squeeze1x1 -> fire3/squeeze1x1 (in-place)
I0411 10:43:13.085841 18165 net.cpp:122] Setting up fire3/relu_squeeze1x1
I0411 10:43:13.085850 18165 net.cpp:129] Top shape: 14 16 56 56 (702464)
I0411 10:43:13.085855 18165 net.cpp:137] Memory required for data: 195720336
I0411 10:43:13.085858 18165 layer_factory.hpp:77] Creating layer fire3/squeeze1x1_fire3/relu_squeeze1x1_0_split
I0411 10:43:13.085866 18165 net.cpp:84] Creating Layer fire3/squeeze1x1_fire3/relu_squeeze1x1_0_split
I0411 10:43:13.085872 18165 net.cpp:406] fire3/squeeze1x1_fire3/relu_squeeze1x1_0_split <- fire3/squeeze1x1
I0411 10:43:13.085881 18165 net.cpp:380] fire3/squeeze1x1_fire3/relu_squeeze1x1_0_split -> fire3/squeeze1x1_fire3/relu_squeeze1x1_0_split_0
I0411 10:43:13.085893 18165 net.cpp:380] fire3/squeeze1x1_fire3/relu_squeeze1x1_0_split -> fire3/squeeze1x1_fire3/relu_squeeze1x1_0_split_1
I0411 10:43:13.085955 18165 net.cpp:122] Setting up fire3/squeeze1x1_fire3/relu_squeeze1x1_0_split
I0411 10:43:13.085968 18165 net.cpp:129] Top shape: 14 16 56 56 (702464)
I0411 10:43:13.085975 18165 net.cpp:129] Top shape: 14 16 56 56 (702464)
I0411 10:43:13.085980 18165 net.cpp:137] Memory required for data: 201340048
I0411 10:43:13.085985 18165 layer_factory.hpp:77] Creating layer fire3/expand1x1
I0411 10:43:13.086001 18165 net.cpp:84] Creating Layer fire3/expand1x1
I0411 10:43:13.086009 18165 net.cpp:406] fire3/expand1x1 <- fire3/squeeze1x1_fire3/relu_squeeze1x1_0_split_0
I0411 10:43:13.086019 18165 net.cpp:380] fire3/expand1x1 -> fire3/expand1x1
I0411 10:43:13.086349 18165 net.cpp:122] Setting up fire3/expand1x1
I0411 10:43:13.086364 18165 net.cpp:129] Top shape: 14 64 56 56 (2809856)
I0411 10:43:13.086369 18165 net.cpp:137] Memory required for data: 212579472
I0411 10:43:13.086378 18165 layer_factory.hpp:77] Creating layer fire3/relu_expand1x1
I0411 10:43:13.086388 18165 net.cpp:84] Creating Layer fire3/relu_expand1x1
I0411 10:43:13.086395 18165 net.cpp:406] fire3/relu_expand1x1 <- fire3/expand1x1
I0411 10:43:13.086403 18165 net.cpp:367] fire3/relu_expand1x1 -> fire3/expand1x1 (in-place)
I0411 10:43:13.086413 18165 net.cpp:122] Setting up fire3/relu_expand1x1
I0411 10:43:13.086421 18165 net.cpp:129] Top shape: 14 64 56 56 (2809856)
I0411 10:43:13.086427 18165 net.cpp:137] Memory required for data: 223818896
I0411 10:43:13.086431 18165 layer_factory.hpp:77] Creating layer fire3/expand3x3
I0411 10:43:13.086442 18165 net.cpp:84] Creating Layer fire3/expand3x3
I0411 10:43:13.086449 18165 net.cpp:406] fire3/expand3x3 <- fire3/squeeze1x1_fire3/relu_squeeze1x1_0_split_1
I0411 10:43:13.086458 18165 net.cpp:380] fire3/expand3x3 -> fire3/expand3x3
I0411 10:43:13.086840 18165 net.cpp:122] Setting up fire3/expand3x3
I0411 10:43:13.086855 18165 net.cpp:129] Top shape: 14 64 56 56 (2809856)
I0411 10:43:13.086861 18165 net.cpp:137] Memory required for data: 235058320
I0411 10:43:13.086870 18165 layer_factory.hpp:77] Creating layer fire3/relu_expand3x3
I0411 10:43:13.086879 18165 net.cpp:84] Creating Layer fire3/relu_expand3x3
I0411 10:43:13.086885 18165 net.cpp:406] fire3/relu_expand3x3 <- fire3/expand3x3
I0411 10:43:13.086894 18165 net.cpp:367] fire3/relu_expand3x3 -> fire3/expand3x3 (in-place)
I0411 10:43:13.086904 18165 net.cpp:122] Setting up fire3/relu_expand3x3
I0411 10:43:13.086910 18165 net.cpp:129] Top shape: 14 64 56 56 (2809856)
I0411 10:43:13.086915 18165 net.cpp:137] Memory required for data: 246297744
I0411 10:43:13.086918 18165 layer_factory.hpp:77] Creating layer fire3/concat
I0411 10:43:13.086926 18165 net.cpp:84] Creating Layer fire3/concat
I0411 10:43:13.086932 18165 net.cpp:406] fire3/concat <- fire3/expand1x1
I0411 10:43:13.086938 18165 net.cpp:406] fire3/concat <- fire3/expand3x3
I0411 10:43:13.086946 18165 net.cpp:380] fire3/concat -> fire3/concat
I0411 10:43:13.086979 18165 net.cpp:122] Setting up fire3/concat
I0411 10:43:13.086990 18165 net.cpp:129] Top shape: 14 128 56 56 (5619712)
I0411 10:43:13.086995 18165 net.cpp:137] Memory required for data: 268776592
I0411 10:43:13.087013 18165 layer_factory.hpp:77] Creating layer pool3
I0411 10:43:13.087021 18165 net.cpp:84] Creating Layer pool3
I0411 10:43:13.087028 18165 net.cpp:406] pool3 <- fire3/concat
I0411 10:43:13.087035 18165 net.cpp:380] pool3 -> pool3
I0411 10:43:13.087085 18165 net.cpp:122] Setting up pool3
I0411 10:43:13.087096 18165 net.cpp:129] Top shape: 14 128 28 28 (1404928)
I0411 10:43:13.087101 18165 net.cpp:137] Memory required for data: 274396304
I0411 10:43:13.087106 18165 layer_factory.hpp:77] Creating layer fire4/squeeze1x1
I0411 10:43:13.087117 18165 net.cpp:84] Creating Layer fire4/squeeze1x1
I0411 10:43:13.087123 18165 net.cpp:406] fire4/squeeze1x1 <- pool3
I0411 10:43:13.087132 18165 net.cpp:380] fire4/squeeze1x1 -> fire4/squeeze1x1
I0411 10:43:13.087430 18165 net.cpp:122] Setting up fire4/squeeze1x1
I0411 10:43:13.087445 18165 net.cpp:129] Top shape: 14 32 28 28 (351232)
I0411 10:43:13.087450 18165 net.cpp:137] Memory required for data: 275801232
I0411 10:43:13.087460 18165 layer_factory.hpp:77] Creating layer fire4/relu_squeeze1x1
I0411 10:43:13.087468 18165 net.cpp:84] Creating Layer fire4/relu_squeeze1x1
I0411 10:43:13.087474 18165 net.cpp:406] fire4/relu_squeeze1x1 <- fire4/squeeze1x1
I0411 10:43:13.087482 18165 net.cpp:367] fire4/relu_squeeze1x1 -> fire4/squeeze1x1 (in-place)
I0411 10:43:13.087492 18165 net.cpp:122] Setting up fire4/relu_squeeze1x1
I0411 10:43:13.087501 18165 net.cpp:129] Top shape: 14 32 28 28 (351232)
I0411 10:43:13.087505 18165 net.cpp:137] Memory required for data: 277206160
I0411 10:43:13.087510 18165 layer_factory.hpp:77] Creating layer fire4/squeeze1x1_fire4/relu_squeeze1x1_0_split
I0411 10:43:13.087517 18165 net.cpp:84] Creating Layer fire4/squeeze1x1_fire4/relu_squeeze1x1_0_split
I0411 10:43:13.087522 18165 net.cpp:406] fire4/squeeze1x1_fire4/relu_squeeze1x1_0_split <- fire4/squeeze1x1
I0411 10:43:13.087532 18165 net.cpp:380] fire4/squeeze1x1_fire4/relu_squeeze1x1_0_split -> fire4/squeeze1x1_fire4/relu_squeeze1x1_0_split_0
I0411 10:43:13.087544 18165 net.cpp:380] fire4/squeeze1x1_fire4/relu_squeeze1x1_0_split -> fire4/squeeze1x1_fire4/relu_squeeze1x1_0_split_1
I0411 10:43:13.087592 18165 net.cpp:122] Setting up fire4/squeeze1x1_fire4/relu_squeeze1x1_0_split
I0411 10:43:13.087604 18165 net.cpp:129] Top shape: 14 32 28 28 (351232)
I0411 10:43:13.087610 18165 net.cpp:129] Top shape: 14 32 28 28 (351232)
I0411 10:43:13.087616 18165 net.cpp:137] Memory required for data: 280016016
I0411 10:43:13.087620 18165 layer_factory.hpp:77] Creating layer fire4/expand1x1
I0411 10:43:13.087632 18165 net.cpp:84] Creating Layer fire4/expand1x1
I0411 10:43:13.087638 18165 net.cpp:406] fire4/expand1x1 <- fire4/squeeze1x1_fire4/relu_squeeze1x1_0_split_0
I0411 10:43:13.087648 18165 net.cpp:380] fire4/expand1x1 -> fire4/expand1x1
I0411 10:43:13.087960 18165 net.cpp:122] Setting up fire4/expand1x1
I0411 10:43:13.087975 18165 net.cpp:129] Top shape: 14 128 28 28 (1404928)
I0411 10:43:13.087981 18165 net.cpp:137] Memory required for data: 285635728
I0411 10:43:13.087994 18165 layer_factory.hpp:77] Creating layer fire4/relu_expand1x1
I0411 10:43:13.088004 18165 net.cpp:84] Creating Layer fire4/relu_expand1x1
I0411 10:43:13.088011 18165 net.cpp:406] fire4/relu_expand1x1 <- fire4/expand1x1
I0411 10:43:13.088021 18165 net.cpp:367] fire4/relu_expand1x1 -> fire4/expand1x1 (in-place)
I0411 10:43:13.088030 18165 net.cpp:122] Setting up fire4/relu_expand1x1
I0411 10:43:13.088038 18165 net.cpp:129] Top shape: 14 128 28 28 (1404928)
I0411 10:43:13.088043 18165 net.cpp:137] Memory required for data: 291255440
I0411 10:43:13.088047 18165 layer_factory.hpp:77] Creating layer fire4/expand3x3
I0411 10:43:13.088058 18165 net.cpp:84] Creating Layer fire4/expand3x3
I0411 10:43:13.088063 18165 net.cpp:406] fire4/expand3x3 <- fire4/squeeze1x1_fire4/relu_squeeze1x1_0_split_1
I0411 10:43:13.088073 18165 net.cpp:380] fire4/expand3x3 -> fire4/expand3x3
I0411 10:43:13.089236 18165 net.cpp:122] Setting up fire4/expand3x3
I0411 10:43:13.089249 18165 net.cpp:129] Top shape: 14 128 28 28 (1404928)
I0411 10:43:13.089252 18165 net.cpp:137] Memory required for data: 296875152
I0411 10:43:13.089269 18165 layer_factory.hpp:77] Creating layer fire4/relu_expand3x3
I0411 10:43:13.089278 18165 net.cpp:84] Creating Layer fire4/relu_expand3x3
I0411 10:43:13.089282 18165 net.cpp:406] fire4/relu_expand3x3 <- fire4/expand3x3
I0411 10:43:13.089287 18165 net.cpp:367] fire4/relu_expand3x3 -> fire4/expand3x3 (in-place)
I0411 10:43:13.089294 18165 net.cpp:122] Setting up fire4/relu_expand3x3
I0411 10:43:13.089298 18165 net.cpp:129] Top shape: 14 128 28 28 (1404928)
I0411 10:43:13.089300 18165 net.cpp:137] Memory required for data: 302494864
I0411 10:43:13.089303 18165 layer_factory.hpp:77] Creating layer fire4/concat
I0411 10:43:13.089308 18165 net.cpp:84] Creating Layer fire4/concat
I0411 10:43:13.089310 18165 net.cpp:406] fire4/concat <- fire4/expand1x1
I0411 10:43:13.089313 18165 net.cpp:406] fire4/concat <- fire4/expand3x3
I0411 10:43:13.089318 18165 net.cpp:380] fire4/concat -> fire4/concat
I0411 10:43:13.089339 18165 net.cpp:122] Setting up fire4/concat
I0411 10:43:13.089344 18165 net.cpp:129] Top shape: 14 256 28 28 (2809856)
I0411 10:43:13.089346 18165 net.cpp:137] Memory required for data: 313734288
I0411 10:43:13.089349 18165 layer_factory.hpp:77] Creating layer fire5/squeeze1x1
I0411 10:43:13.089356 18165 net.cpp:84] Creating Layer fire5/squeeze1x1
I0411 10:43:13.089359 18165 net.cpp:406] fire5/squeeze1x1 <- fire4/concat
I0411 10:43:13.089365 18165 net.cpp:380] fire5/squeeze1x1 -> fire5/squeeze1x1
I0411 10:43:13.089587 18165 net.cpp:122] Setting up fire5/squeeze1x1
I0411 10:43:13.089594 18165 net.cpp:129] Top shape: 14 32 28 28 (351232)
I0411 10:43:13.089596 18165 net.cpp:137] Memory required for data: 315139216
I0411 10:43:13.089601 18165 layer_factory.hpp:77] Creating layer fire5/relu_squeeze1x1
I0411 10:43:13.089607 18165 net.cpp:84] Creating Layer fire5/relu_squeeze1x1
I0411 10:43:13.089612 18165 net.cpp:406] fire5/relu_squeeze1x1 <- fire5/squeeze1x1
I0411 10:43:13.089617 18165 net.cpp:367] fire5/relu_squeeze1x1 -> fire5/squeeze1x1 (in-place)
I0411 10:43:13.089623 18165 net.cpp:122] Setting up fire5/relu_squeeze1x1
I0411 10:43:13.089627 18165 net.cpp:129] Top shape: 14 32 28 28 (351232)
I0411 10:43:13.089629 18165 net.cpp:137] Memory required for data: 316544144
I0411 10:43:13.089632 18165 layer_factory.hpp:77] Creating layer fire5/squeeze1x1_fire5/relu_squeeze1x1_0_split
I0411 10:43:13.089645 18165 net.cpp:84] Creating Layer fire5/squeeze1x1_fire5/relu_squeeze1x1_0_split
I0411 10:43:13.089648 18165 net.cpp:406] fire5/squeeze1x1_fire5/relu_squeeze1x1_0_split <- fire5/squeeze1x1
I0411 10:43:13.089653 18165 net.cpp:380] fire5/squeeze1x1_fire5/relu_squeeze1x1_0_split -> fire5/squeeze1x1_fire5/relu_squeeze1x1_0_split_0
I0411 10:43:13.089660 18165 net.cpp:380] fire5/squeeze1x1_fire5/relu_squeeze1x1_0_split -> fire5/squeeze1x1_fire5/relu_squeeze1x1_0_split_1
I0411 10:43:13.089689 18165 net.cpp:122] Setting up fire5/squeeze1x1_fire5/relu_squeeze1x1_0_split
I0411 10:43:13.089694 18165 net.cpp:129] Top shape: 14 32 28 28 (351232)
I0411 10:43:13.089696 18165 net.cpp:129] Top shape: 14 32 28 28 (351232)
I0411 10:43:13.089699 18165 net.cpp:137] Memory required for data: 319354000
I0411 10:43:13.089701 18165 layer_factory.hpp:77] Creating layer fire5/expand1x1
I0411 10:43:13.089709 18165 net.cpp:84] Creating Layer fire5/expand1x1
I0411 10:43:13.089712 18165 net.cpp:406] fire5/expand1x1 <- fire5/squeeze1x1_fire5/relu_squeeze1x1_0_split_0
I0411 10:43:13.089717 18165 net.cpp:380] fire5/expand1x1 -> fire5/expand1x1
I0411 10:43:13.089918 18165 net.cpp:122] Setting up fire5/expand1x1
I0411 10:43:13.089929 18165 net.cpp:129] Top shape: 14 128 28 28 (1404928)
I0411 10:43:13.089933 18165 net.cpp:137] Memory required for data: 324973712
I0411 10:43:13.089941 18165 layer_factory.hpp:77] Creating layer fire5/relu_expand1x1
I0411 10:43:13.089948 18165 net.cpp:84] Creating Layer fire5/relu_expand1x1
I0411 10:43:13.089952 18165 net.cpp:406] fire5/relu_expand1x1 <- fire5/expand1x1
I0411 10:43:13.089959 18165 net.cpp:367] fire5/relu_expand1x1 -> fire5/expand1x1 (in-place)
I0411 10:43:13.089975 18165 net.cpp:122] Setting up fire5/relu_expand1x1
I0411 10:43:13.089982 18165 net.cpp:129] Top shape: 14 128 28 28 (1404928)
I0411 10:43:13.089987 18165 net.cpp:137] Memory required for data: 330593424
I0411 10:43:13.089990 18165 layer_factory.hpp:77] Creating layer fire5/expand3x3
I0411 10:43:13.089998 18165 net.cpp:84] Creating Layer fire5/expand3x3
I0411 10:43:13.090003 18165 net.cpp:406] fire5/expand3x3 <- fire5/squeeze1x1_fire5/relu_squeeze1x1_0_split_1
I0411 10:43:13.090010 18165 net.cpp:380] fire5/expand3x3 -> fire5/expand3x3
I0411 10:43:13.090517 18165 net.cpp:122] Setting up fire5/expand3x3
I0411 10:43:13.090525 18165 net.cpp:129] Top shape: 14 128 28 28 (1404928)
I0411 10:43:13.090529 18165 net.cpp:137] Memory required for data: 336213136
I0411 10:43:13.090536 18165 layer_factory.hpp:77] Creating layer fire5/relu_expand3x3
I0411 10:43:13.090543 18165 net.cpp:84] Creating Layer fire5/relu_expand3x3
I0411 10:43:13.090548 18165 net.cpp:406] fire5/relu_expand3x3 <- fire5/expand3x3
I0411 10:43:13.090553 18165 net.cpp:367] fire5/relu_expand3x3 -> fire5/expand3x3 (in-place)
I0411 10:43:13.090559 18165 net.cpp:122] Setting up fire5/relu_expand3x3
I0411 10:43:13.090565 18165 net.cpp:129] Top shape: 14 128 28 28 (1404928)
I0411 10:43:13.090569 18165 net.cpp:137] Memory required for data: 341832848
I0411 10:43:13.090572 18165 layer_factory.hpp:77] Creating layer fire5/concat
I0411 10:43:13.090577 18165 net.cpp:84] Creating Layer fire5/concat
I0411 10:43:13.090582 18165 net.cpp:406] fire5/concat <- fire5/expand1x1
I0411 10:43:13.090587 18165 net.cpp:406] fire5/concat <- fire5/expand3x3
I0411 10:43:13.090593 18165 net.cpp:380] fire5/concat -> fire5/concat
I0411 10:43:13.090612 18165 net.cpp:122] Setting up fire5/concat
I0411 10:43:13.090617 18165 net.cpp:129] Top shape: 14 256 28 28 (2809856)
I0411 10:43:13.090620 18165 net.cpp:137] Memory required for data: 353072272
I0411 10:43:13.090622 18165 layer_factory.hpp:77] Creating layer pool5
I0411 10:43:13.090626 18165 net.cpp:84] Creating Layer pool5
I0411 10:43:13.090629 18165 net.cpp:406] pool5 <- fire5/concat
I0411 10:43:13.090633 18165 net.cpp:380] pool5 -> pool5
I0411 10:43:13.090658 18165 net.cpp:122] Setting up pool5
I0411 10:43:13.090663 18165 net.cpp:129] Top shape: 14 256 14 14 (702464)
I0411 10:43:13.090665 18165 net.cpp:137] Memory required for data: 355882128
I0411 10:43:13.090668 18165 layer_factory.hpp:77] Creating layer fire6/squeeze1x1
I0411 10:43:13.090674 18165 net.cpp:84] Creating Layer fire6/squeeze1x1
I0411 10:43:13.090677 18165 net.cpp:406] fire6/squeeze1x1 <- pool5
I0411 10:43:13.090682 18165 net.cpp:380] fire6/squeeze1x1 -> fire6/squeeze1x1
I0411 10:43:13.090909 18165 net.cpp:122] Setting up fire6/squeeze1x1
I0411 10:43:13.090915 18165 net.cpp:129] Top shape: 14 48 14 14 (131712)
I0411 10:43:13.090917 18165 net.cpp:137] Memory required for data: 356408976
I0411 10:43:13.090924 18165 layer_factory.hpp:77] Creating layer fire6/relu_squeeze1x1
I0411 10:43:13.090930 18165 net.cpp:84] Creating Layer fire6/relu_squeeze1x1
I0411 10:43:13.090935 18165 net.cpp:406] fire6/relu_squeeze1x1 <- fire6/squeeze1x1
I0411 10:43:13.090941 18165 net.cpp:367] fire6/relu_squeeze1x1 -> fire6/squeeze1x1 (in-place)
I0411 10:43:13.090948 18165 net.cpp:122] Setting up fire6/relu_squeeze1x1
I0411 10:43:13.090953 18165 net.cpp:129] Top shape: 14 48 14 14 (131712)
I0411 10:43:13.090957 18165 net.cpp:137] Memory required for data: 356935824
I0411 10:43:13.090962 18165 layer_factory.hpp:77] Creating layer fire6/squeeze1x1_fire6/relu_squeeze1x1_0_split
I0411 10:43:13.090968 18165 net.cpp:84] Creating Layer fire6/squeeze1x1_fire6/relu_squeeze1x1_0_split
I0411 10:43:13.090972 18165 net.cpp:406] fire6/squeeze1x1_fire6/relu_squeeze1x1_0_split <- fire6/squeeze1x1
I0411 10:43:13.090978 18165 net.cpp:380] fire6/squeeze1x1_fire6/relu_squeeze1x1_0_split -> fire6/squeeze1x1_fire6/relu_squeeze1x1_0_split_0
I0411 10:43:13.090989 18165 net.cpp:380] fire6/squeeze1x1_fire6/relu_squeeze1x1_0_split -> fire6/squeeze1x1_fire6/relu_squeeze1x1_0_split_1
I0411 10:43:13.091022 18165 net.cpp:122] Setting up fire6/squeeze1x1_fire6/relu_squeeze1x1_0_split
I0411 10:43:13.091034 18165 net.cpp:129] Top shape: 14 48 14 14 (131712)
I0411 10:43:13.091040 18165 net.cpp:129] Top shape: 14 48 14 14 (131712)
I0411 10:43:13.091043 18165 net.cpp:137] Memory required for data: 357989520
I0411 10:43:13.091048 18165 layer_factory.hpp:77] Creating layer fire6/expand1x1
I0411 10:43:13.091058 18165 net.cpp:84] Creating Layer fire6/expand1x1
I0411 10:43:13.091061 18165 net.cpp:406] fire6/expand1x1 <- fire6/squeeze1x1_fire6/relu_squeeze1x1_0_split_0
I0411 10:43:13.091068 18165 net.cpp:380] fire6/expand1x1 -> fire6/expand1x1
I0411 10:43:13.091277 18165 net.cpp:122] Setting up fire6/expand1x1
I0411 10:43:13.091284 18165 net.cpp:129] Top shape: 14 192 14 14 (526848)
I0411 10:43:13.091289 18165 net.cpp:137] Memory required for data: 360096912
I0411 10:43:13.091295 18165 layer_factory.hpp:77] Creating layer fire6/relu_expand1x1
I0411 10:43:13.091300 18165 net.cpp:84] Creating Layer fire6/relu_expand1x1
I0411 10:43:13.091305 18165 net.cpp:406] fire6/relu_expand1x1 <- fire6/expand1x1
I0411 10:43:13.091312 18165 net.cpp:367] fire6/relu_expand1x1 -> fire6/expand1x1 (in-place)
I0411 10:43:13.091318 18165 net.cpp:122] Setting up fire6/relu_expand1x1
I0411 10:43:13.091325 18165 net.cpp:129] Top shape: 14 192 14 14 (526848)
I0411 10:43:13.091327 18165 net.cpp:137] Memory required for data: 362204304
I0411 10:43:13.091332 18165 layer_factory.hpp:77] Creating layer fire6/expand3x3
I0411 10:43:13.091341 18165 net.cpp:84] Creating Layer fire6/expand3x3
I0411 10:43:13.091343 18165 net.cpp:406] fire6/expand3x3 <- fire6/squeeze1x1_fire6/relu_squeeze1x1_0_split_1
I0411 10:43:13.091349 18165 net.cpp:380] fire6/expand3x3 -> fire6/expand3x3
I0411 10:43:13.091913 18165 net.cpp:122] Setting up fire6/expand3x3
I0411 10:43:13.091920 18165 net.cpp:129] Top shape: 14 192 14 14 (526848)
I0411 10:43:13.091922 18165 net.cpp:137] Memory required for data: 364311696
I0411 10:43:13.091929 18165 layer_factory.hpp:77] Creating layer fire6/relu_expand3x3
I0411 10:43:13.091935 18165 net.cpp:84] Creating Layer fire6/relu_expand3x3
I0411 10:43:13.091940 18165 net.cpp:406] fire6/relu_expand3x3 <- fire6/expand3x3
I0411 10:43:13.091946 18165 net.cpp:367] fire6/relu_expand3x3 -> fire6/expand3x3 (in-place)
I0411 10:43:13.091953 18165 net.cpp:122] Setting up fire6/relu_expand3x3
I0411 10:43:13.091958 18165 net.cpp:129] Top shape: 14 192 14 14 (526848)
I0411 10:43:13.091961 18165 net.cpp:137] Memory required for data: 366419088
I0411 10:43:13.091966 18165 layer_factory.hpp:77] Creating layer fire6/concat
I0411 10:43:13.091971 18165 net.cpp:84] Creating Layer fire6/concat
I0411 10:43:13.091975 18165 net.cpp:406] fire6/concat <- fire6/expand1x1
I0411 10:43:13.091979 18165 net.cpp:406] fire6/concat <- fire6/expand3x3
I0411 10:43:13.091986 18165 net.cpp:380] fire6/concat -> fire6/concat
I0411 10:43:13.092005 18165 net.cpp:122] Setting up fire6/concat
I0411 10:43:13.092010 18165 net.cpp:129] Top shape: 14 384 14 14 (1053696)
I0411 10:43:13.092015 18165 net.cpp:137] Memory required for data: 370633872
I0411 10:43:13.092017 18165 layer_factory.hpp:77] Creating layer fire7/squeeze1x1
I0411 10:43:13.092027 18165 net.cpp:84] Creating Layer fire7/squeeze1x1
I0411 10:43:13.092031 18165 net.cpp:406] fire7/squeeze1x1 <- fire6/concat
I0411 10:43:13.092037 18165 net.cpp:380] fire7/squeeze1x1 -> fire7/squeeze1x1
I0411 10:43:13.092288 18165 net.cpp:122] Setting up fire7/squeeze1x1
I0411 10:43:13.092295 18165 net.cpp:129] Top shape: 14 48 14 14 (131712)
I0411 10:43:13.092300 18165 net.cpp:137] Memory required for data: 371160720
I0411 10:43:13.092311 18165 layer_factory.hpp:77] Creating layer fire7/relu_squeeze1x1
I0411 10:43:13.092316 18165 net.cpp:84] Creating Layer fire7/relu_squeeze1x1
I0411 10:43:13.092321 18165 net.cpp:406] fire7/relu_squeeze1x1 <- fire7/squeeze1x1
I0411 10:43:13.092327 18165 net.cpp:367] fire7/relu_squeeze1x1 -> fire7/squeeze1x1 (in-place)
I0411 10:43:13.092334 18165 net.cpp:122] Setting up fire7/relu_squeeze1x1
I0411 10:43:13.092339 18165 net.cpp:129] Top shape: 14 48 14 14 (131712)
I0411 10:43:13.092351 18165 net.cpp:137] Memory required for data: 371687568
I0411 10:43:13.092355 18165 layer_factory.hpp:77] Creating layer fire7/squeeze1x1_fire7/relu_squeeze1x1_0_split
I0411 10:43:13.092361 18165 net.cpp:84] Creating Layer fire7/squeeze1x1_fire7/relu_squeeze1x1_0_split
I0411 10:43:13.092365 18165 net.cpp:406] fire7/squeeze1x1_fire7/relu_squeeze1x1_0_split <- fire7/squeeze1x1
I0411 10:43:13.092371 18165 net.cpp:380] fire7/squeeze1x1_fire7/relu_squeeze1x1_0_split -> fire7/squeeze1x1_fire7/relu_squeeze1x1_0_split_0
I0411 10:43:13.092381 18165 net.cpp:380] fire7/squeeze1x1_fire7/relu_squeeze1x1_0_split -> fire7/squeeze1x1_fire7/relu_squeeze1x1_0_split_1
I0411 10:43:13.092413 18165 net.cpp:122] Setting up fire7/squeeze1x1_fire7/relu_squeeze1x1_0_split
I0411 10:43:13.092419 18165 net.cpp:129] Top shape: 14 48 14 14 (131712)
I0411 10:43:13.092423 18165 net.cpp:129] Top shape: 14 48 14 14 (131712)
I0411 10:43:13.092425 18165 net.cpp:137] Memory required for data: 372741264
I0411 10:43:13.092428 18165 layer_factory.hpp:77] Creating layer fire7/expand1x1
I0411 10:43:13.092434 18165 net.cpp:84] Creating Layer fire7/expand1x1
I0411 10:43:13.092438 18165 net.cpp:406] fire7/expand1x1 <- fire7/squeeze1x1_fire7/relu_squeeze1x1_0_split_0
I0411 10:43:13.092442 18165 net.cpp:380] fire7/expand1x1 -> fire7/expand1x1
I0411 10:43:13.092641 18165 net.cpp:122] Setting up fire7/expand1x1
I0411 10:43:13.092648 18165 net.cpp:129] Top shape: 14 192 14 14 (526848)
I0411 10:43:13.092649 18165 net.cpp:137] Memory required for data: 374848656
I0411 10:43:13.092656 18165 layer_factory.hpp:77] Creating layer fire7/relu_expand1x1
I0411 10:43:13.092663 18165 net.cpp:84] Creating Layer fire7/relu_expand1x1
I0411 10:43:13.092667 18165 net.cpp:406] fire7/relu_expand1x1 <- fire7/expand1x1
I0411 10:43:13.092672 18165 net.cpp:367] fire7/relu_expand1x1 -> fire7/expand1x1 (in-place)
I0411 10:43:13.092679 18165 net.cpp:122] Setting up fire7/relu_expand1x1
I0411 10:43:13.092684 18165 net.cpp:129] Top shape: 14 192 14 14 (526848)
I0411 10:43:13.092689 18165 net.cpp:137] Memory required for data: 376956048
I0411 10:43:13.092692 18165 layer_factory.hpp:77] Creating layer fire7/expand3x3
I0411 10:43:13.092701 18165 net.cpp:84] Creating Layer fire7/expand3x3
I0411 10:43:13.092705 18165 net.cpp:406] fire7/expand3x3 <- fire7/squeeze1x1_fire7/relu_squeeze1x1_0_split_1
I0411 10:43:13.092711 18165 net.cpp:380] fire7/expand3x3 -> fire7/expand3x3
I0411 10:43:13.093762 18165 net.cpp:122] Setting up fire7/expand3x3
I0411 10:43:13.093775 18165 net.cpp:129] Top shape: 14 192 14 14 (526848)
I0411 10:43:13.093777 18165 net.cpp:137] Memory required for data: 379063440
I0411 10:43:13.093786 18165 layer_factory.hpp:77] Creating layer fire7/relu_expand3x3
I0411 10:43:13.093792 18165 net.cpp:84] Creating Layer fire7/relu_expand3x3
I0411 10:43:13.093797 18165 net.cpp:406] fire7/relu_expand3x3 <- fire7/expand3x3
I0411 10:43:13.093804 18165 net.cpp:367] fire7/relu_expand3x3 -> fire7/expand3x3 (in-place)
I0411 10:43:13.093812 18165 net.cpp:122] Setting up fire7/relu_expand3x3
I0411 10:43:13.093817 18165 net.cpp:129] Top shape: 14 192 14 14 (526848)
I0411 10:43:13.093821 18165 net.cpp:137] Memory required for data: 381170832
I0411 10:43:13.093824 18165 layer_factory.hpp:77] Creating layer fire7/concat
I0411 10:43:13.093830 18165 net.cpp:84] Creating Layer fire7/concat
I0411 10:43:13.093834 18165 net.cpp:406] fire7/concat <- fire7/expand1x1
I0411 10:43:13.093838 18165 net.cpp:406] fire7/concat <- fire7/expand3x3
I0411 10:43:13.093844 18165 net.cpp:380] fire7/concat -> fire7/concat
I0411 10:43:13.093869 18165 net.cpp:122] Setting up fire7/concat
I0411 10:43:13.093875 18165 net.cpp:129] Top shape: 14 384 14 14 (1053696)
I0411 10:43:13.093879 18165 net.cpp:137] Memory required for data: 385385616
I0411 10:43:13.093883 18165 layer_factory.hpp:77] Creating layer fire8/squeeze1x1
I0411 10:43:13.093892 18165 net.cpp:84] Creating Layer fire8/squeeze1x1
I0411 10:43:13.093897 18165 net.cpp:406] fire8/squeeze1x1 <- fire7/concat
I0411 10:43:13.093907 18165 net.cpp:380] fire8/squeeze1x1 -> fire8/squeeze1x1
I0411 10:43:13.094308 18165 net.cpp:122] Setting up fire8/squeeze1x1
I0411 10:43:13.094319 18165 net.cpp:129] Top shape: 14 64 14 14 (175616)
I0411 10:43:13.094324 18165 net.cpp:137] Memory required for data: 386088080
I0411 10:43:13.094331 18165 layer_factory.hpp:77] Creating layer fire8/relu_squeeze1x1
I0411 10:43:13.094338 18165 net.cpp:84] Creating Layer fire8/relu_squeeze1x1
I0411 10:43:13.094343 18165 net.cpp:406] fire8/relu_squeeze1x1 <- fire8/squeeze1x1
I0411 10:43:13.094348 18165 net.cpp:367] fire8/relu_squeeze1x1 -> fire8/squeeze1x1 (in-place)
I0411 10:43:13.094357 18165 net.cpp:122] Setting up fire8/relu_squeeze1x1
I0411 10:43:13.094362 18165 net.cpp:129] Top shape: 14 64 14 14 (175616)
I0411 10:43:13.094367 18165 net.cpp:137] Memory required for data: 386790544
I0411 10:43:13.094369 18165 layer_factory.hpp:77] Creating layer fire8/squeeze1x1_fire8/relu_squeeze1x1_0_split
I0411 10:43:13.094375 18165 net.cpp:84] Creating Layer fire8/squeeze1x1_fire8/relu_squeeze1x1_0_split
I0411 10:43:13.094379 18165 net.cpp:406] fire8/squeeze1x1_fire8/relu_squeeze1x1_0_split <- fire8/squeeze1x1
I0411 10:43:13.094384 18165 net.cpp:380] fire8/squeeze1x1_fire8/relu_squeeze1x1_0_split -> fire8/squeeze1x1_fire8/relu_squeeze1x1_0_split_0
I0411 10:43:13.094389 18165 net.cpp:380] fire8/squeeze1x1_fire8/relu_squeeze1x1_0_split -> fire8/squeeze1x1_fire8/relu_squeeze1x1_0_split_1
I0411 10:43:13.094418 18165 net.cpp:122] Setting up fire8/squeeze1x1_fire8/relu_squeeze1x1_0_split
I0411 10:43:13.094422 18165 net.cpp:129] Top shape: 14 64 14 14 (175616)
I0411 10:43:13.094425 18165 net.cpp:129] Top shape: 14 64 14 14 (175616)
I0411 10:43:13.094427 18165 net.cpp:137] Memory required for data: 388195472
I0411 10:43:13.094430 18165 layer_factory.hpp:77] Creating layer fire8/expand1x1
I0411 10:43:13.094436 18165 net.cpp:84] Creating Layer fire8/expand1x1
I0411 10:43:13.094439 18165 net.cpp:406] fire8/expand1x1 <- fire8/squeeze1x1_fire8/relu_squeeze1x1_0_split_0
I0411 10:43:13.094444 18165 net.cpp:380] fire8/expand1x1 -> fire8/expand1x1
I0411 10:43:13.094677 18165 net.cpp:122] Setting up fire8/expand1x1
I0411 10:43:13.094682 18165 net.cpp:129] Top shape: 14 256 14 14 (702464)
I0411 10:43:13.094686 18165 net.cpp:137] Memory required for data: 391005328
I0411 10:43:13.094689 18165 layer_factory.hpp:77] Creating layer fire8/relu_expand1x1
I0411 10:43:13.094693 18165 net.cpp:84] Creating Layer fire8/relu_expand1x1
I0411 10:43:13.094696 18165 net.cpp:406] fire8/relu_expand1x1 <- fire8/expand1x1
I0411 10:43:13.094700 18165 net.cpp:367] fire8/relu_expand1x1 -> fire8/expand1x1 (in-place)
I0411 10:43:13.094705 18165 net.cpp:122] Setting up fire8/relu_expand1x1
I0411 10:43:13.094708 18165 net.cpp:129] Top shape: 14 256 14 14 (702464)
I0411 10:43:13.094710 18165 net.cpp:137] Memory required for data: 393815184
I0411 10:43:13.094713 18165 layer_factory.hpp:77] Creating layer fire8/expand3x3
I0411 10:43:13.094718 18165 net.cpp:84] Creating Layer fire8/expand3x3
I0411 10:43:13.094722 18165 net.cpp:406] fire8/expand3x3 <- fire8/squeeze1x1_fire8/relu_squeeze1x1_0_split_1
I0411 10:43:13.094725 18165 net.cpp:380] fire8/expand3x3 -> fire8/expand3x3
I0411 10:43:13.095659 18165 net.cpp:122] Setting up fire8/expand3x3
I0411 10:43:13.095669 18165 net.cpp:129] Top shape: 14 256 14 14 (702464)
I0411 10:43:13.095671 18165 net.cpp:137] Memory required for data: 396625040
I0411 10:43:13.095676 18165 layer_factory.hpp:77] Creating layer fire8/relu_expand3x3
I0411 10:43:13.095680 18165 net.cpp:84] Creating Layer fire8/relu_expand3x3
I0411 10:43:13.095685 18165 net.cpp:406] fire8/relu_expand3x3 <- fire8/expand3x3
I0411 10:43:13.095688 18165 net.cpp:367] fire8/relu_expand3x3 -> fire8/expand3x3 (in-place)
I0411 10:43:13.095693 18165 net.cpp:122] Setting up fire8/relu_expand3x3
I0411 10:43:13.095696 18165 net.cpp:129] Top shape: 14 256 14 14 (702464)
I0411 10:43:13.095700 18165 net.cpp:137] Memory required for data: 399434896
I0411 10:43:13.095701 18165 layer_factory.hpp:77] Creating layer fire8/concat
I0411 10:43:13.095705 18165 net.cpp:84] Creating Layer fire8/concat
I0411 10:43:13.095717 18165 net.cpp:406] fire8/concat <- fire8/expand1x1
I0411 10:43:13.095721 18165 net.cpp:406] fire8/concat <- fire8/expand3x3
I0411 10:43:13.095724 18165 net.cpp:380] fire8/concat -> fire8/concat
I0411 10:43:13.095744 18165 net.cpp:122] Setting up fire8/concat
I0411 10:43:13.095748 18165 net.cpp:129] Top shape: 14 512 14 14 (1404928)
I0411 10:43:13.095751 18165 net.cpp:137] Memory required for data: 405054608
I0411 10:43:13.095753 18165 layer_factory.hpp:77] Creating layer fire9/squeeze1x1
I0411 10:43:13.095759 18165 net.cpp:84] Creating Layer fire9/squeeze1x1
I0411 10:43:13.095762 18165 net.cpp:406] fire9/squeeze1x1 <- fire8/concat
I0411 10:43:13.095767 18165 net.cpp:380] fire9/squeeze1x1 -> fire9/squeeze1x1
I0411 10:43:13.096082 18165 net.cpp:122] Setting up fire9/squeeze1x1
I0411 10:43:13.096088 18165 net.cpp:129] Top shape: 14 64 14 14 (175616)
I0411 10:43:13.096091 18165 net.cpp:137] Memory required for data: 405757072
I0411 10:43:13.096096 18165 layer_factory.hpp:77] Creating layer fire9/relu_squeeze1x1
I0411 10:43:13.096112 18165 net.cpp:84] Creating Layer fire9/relu_squeeze1x1
I0411 10:43:13.096114 18165 net.cpp:406] fire9/relu_squeeze1x1 <- fire9/squeeze1x1
I0411 10:43:13.096118 18165 net.cpp:367] fire9/relu_squeeze1x1 -> fire9/squeeze1x1 (in-place)
I0411 10:43:13.096122 18165 net.cpp:122] Setting up fire9/relu_squeeze1x1
I0411 10:43:13.096127 18165 net.cpp:129] Top shape: 14 64 14 14 (175616)
I0411 10:43:13.096128 18165 net.cpp:137] Memory required for data: 406459536
I0411 10:43:13.096132 18165 layer_factory.hpp:77] Creating layer fire9/squeeze1x1_fire9/relu_squeeze1x1_0_split
I0411 10:43:13.096135 18165 net.cpp:84] Creating Layer fire9/squeeze1x1_fire9/relu_squeeze1x1_0_split
I0411 10:43:13.096138 18165 net.cpp:406] fire9/squeeze1x1_fire9/relu_squeeze1x1_0_split <- fire9/squeeze1x1
I0411 10:43:13.096141 18165 net.cpp:380] fire9/squeeze1x1_fire9/relu_squeeze1x1_0_split -> fire9/squeeze1x1_fire9/relu_squeeze1x1_0_split_0
I0411 10:43:13.096148 18165 net.cpp:380] fire9/squeeze1x1_fire9/relu_squeeze1x1_0_split -> fire9/squeeze1x1_fire9/relu_squeeze1x1_0_split_1
I0411 10:43:13.096174 18165 net.cpp:122] Setting up fire9/squeeze1x1_fire9/relu_squeeze1x1_0_split
I0411 10:43:13.096177 18165 net.cpp:129] Top shape: 14 64 14 14 (175616)
I0411 10:43:13.096180 18165 net.cpp:129] Top shape: 14 64 14 14 (175616)
I0411 10:43:13.096182 18165 net.cpp:137] Memory required for data: 407864464
I0411 10:43:13.096185 18165 layer_factory.hpp:77] Creating layer fire9/expand1x1
I0411 10:43:13.096191 18165 net.cpp:84] Creating Layer fire9/expand1x1
I0411 10:43:13.096194 18165 net.cpp:406] fire9/expand1x1 <- fire9/squeeze1x1_fire9/relu_squeeze1x1_0_split_0
I0411 10:43:13.096199 18165 net.cpp:380] fire9/expand1x1 -> fire9/expand1x1
I0411 10:43:13.096436 18165 net.cpp:122] Setting up fire9/expand1x1
I0411 10:43:13.096441 18165 net.cpp:129] Top shape: 14 256 14 14 (702464)
I0411 10:43:13.096444 18165 net.cpp:137] Memory required for data: 410674320
I0411 10:43:13.096448 18165 layer_factory.hpp:77] Creating layer fire9/relu_expand1x1
I0411 10:43:13.096452 18165 net.cpp:84] Creating Layer fire9/relu_expand1x1
I0411 10:43:13.096455 18165 net.cpp:406] fire9/relu_expand1x1 <- fire9/expand1x1
I0411 10:43:13.096460 18165 net.cpp:367] fire9/relu_expand1x1 -> fire9/expand1x1 (in-place)
I0411 10:43:13.096464 18165 net.cpp:122] Setting up fire9/relu_expand1x1
I0411 10:43:13.096468 18165 net.cpp:129] Top shape: 14 256 14 14 (702464)
I0411 10:43:13.096470 18165 net.cpp:137] Memory required for data: 413484176
I0411 10:43:13.096472 18165 layer_factory.hpp:77] Creating layer fire9/expand3x3
I0411 10:43:13.096478 18165 net.cpp:84] Creating Layer fire9/expand3x3
I0411 10:43:13.096480 18165 net.cpp:406] fire9/expand3x3 <- fire9/squeeze1x1_fire9/relu_squeeze1x1_0_split_1
I0411 10:43:13.096485 18165 net.cpp:380] fire9/expand3x3 -> fire9/expand3x3
I0411 10:43:13.097818 18165 net.cpp:122] Setting up fire9/expand3x3
I0411 10:43:13.097827 18165 net.cpp:129] Top shape: 14 256 14 14 (702464)
I0411 10:43:13.097829 18165 net.cpp:137] Memory required for data: 416294032
I0411 10:43:13.097843 18165 layer_factory.hpp:77] Creating layer fire9/relu_expand3x3
I0411 10:43:13.097848 18165 net.cpp:84] Creating Layer fire9/relu_expand3x3
I0411 10:43:13.097851 18165 net.cpp:406] fire9/relu_expand3x3 <- fire9/expand3x3
I0411 10:43:13.097857 18165 net.cpp:367] fire9/relu_expand3x3 -> fire9/expand3x3 (in-place)
I0411 10:43:13.097862 18165 net.cpp:122] Setting up fire9/relu_expand3x3
I0411 10:43:13.097865 18165 net.cpp:129] Top shape: 14 256 14 14 (702464)
I0411 10:43:13.097867 18165 net.cpp:137] Memory required for data: 419103888
I0411 10:43:13.097869 18165 layer_factory.hpp:77] Creating layer fire9/concat
I0411 10:43:13.097873 18165 net.cpp:84] Creating Layer fire9/concat
I0411 10:43:13.097877 18165 net.cpp:406] fire9/concat <- fire9/expand1x1
I0411 10:43:13.097879 18165 net.cpp:406] fire9/concat <- fire9/expand3x3
I0411 10:43:13.097885 18165 net.cpp:380] fire9/concat -> fire9/concat
I0411 10:43:13.097904 18165 net.cpp:122] Setting up fire9/concat
I0411 10:43:13.097929 18165 net.cpp:129] Top shape: 14 512 14 14 (1404928)
I0411 10:43:13.097932 18165 net.cpp:137] Memory required for data: 424723600
I0411 10:43:13.097936 18165 layer_factory.hpp:77] Creating layer drop9
I0411 10:43:13.097945 18165 net.cpp:84] Creating Layer drop9
I0411 10:43:13.097949 18165 net.cpp:406] drop9 <- fire9/concat
I0411 10:43:13.097955 18165 net.cpp:367] drop9 -> fire9/concat (in-place)
I0411 10:43:13.097983 18165 net.cpp:122] Setting up drop9
I0411 10:43:13.097991 18165 net.cpp:129] Top shape: 14 512 14 14 (1404928)
I0411 10:43:13.097995 18165 net.cpp:137] Memory required for data: 430343312
I0411 10:43:13.097998 18165 layer_factory.hpp:77] Creating layer conv10
I0411 10:43:13.098006 18165 net.cpp:84] Creating Layer conv10
I0411 10:43:13.098009 18165 net.cpp:406] conv10 <- fire9/concat
I0411 10:43:13.098016 18165 net.cpp:380] conv10 -> conv10
I0411 10:43:13.098278 18165 net.cpp:122] Setting up conv10
I0411 10:43:13.098285 18165 net.cpp:129] Top shape: 14 2 14 14 (5488)
I0411 10:43:13.098289 18165 net.cpp:137] Memory required for data: 430365264
I0411 10:43:13.098295 18165 layer_factory.hpp:77] Creating layer relu_conv10
I0411 10:43:13.098301 18165 net.cpp:84] Creating Layer relu_conv10
I0411 10:43:13.098304 18165 net.cpp:406] relu_conv10 <- conv10
I0411 10:43:13.098312 18165 net.cpp:367] relu_conv10 -> conv10 (in-place)
I0411 10:43:13.098318 18165 net.cpp:122] Setting up relu_conv10
I0411 10:43:13.098323 18165 net.cpp:129] Top shape: 14 2 14 14 (5488)
I0411 10:43:13.098326 18165 net.cpp:137] Memory required for data: 430387216
I0411 10:43:13.098330 18165 layer_factory.hpp:77] Creating layer pool10
I0411 10:43:13.098336 18165 net.cpp:84] Creating Layer pool10
I0411 10:43:13.098340 18165 net.cpp:406] pool10 <- conv10
I0411 10:43:13.098346 18165 net.cpp:380] pool10 -> pool10
I0411 10:43:13.098372 18165 net.cpp:122] Setting up pool10
I0411 10:43:13.098378 18165 net.cpp:129] Top shape: 14 2 1 1 (28)
I0411 10:43:13.098381 18165 net.cpp:137] Memory required for data: 430387328
I0411 10:43:13.098384 18165 layer_factory.hpp:77] Creating layer pool10_pool10_0_split
I0411 10:43:13.098390 18165 net.cpp:84] Creating Layer pool10_pool10_0_split
I0411 10:43:13.098394 18165 net.cpp:406] pool10_pool10_0_split <- pool10
I0411 10:43:13.098400 18165 net.cpp:380] pool10_pool10_0_split -> pool10_pool10_0_split_0
I0411 10:43:13.098410 18165 net.cpp:380] pool10_pool10_0_split -> pool10_pool10_0_split_1
I0411 10:43:13.098445 18165 net.cpp:122] Setting up pool10_pool10_0_split
I0411 10:43:13.098451 18165 net.cpp:129] Top shape: 14 2 1 1 (28)
I0411 10:43:13.098455 18165 net.cpp:129] Top shape: 14 2 1 1 (28)
I0411 10:43:13.098459 18165 net.cpp:137] Memory required for data: 430387552
I0411 10:43:13.098462 18165 layer_factory.hpp:77] Creating layer loss
I0411 10:43:13.098469 18165 net.cpp:84] Creating Layer loss
I0411 10:43:13.098472 18165 net.cpp:406] loss <- pool10_pool10_0_split_0
I0411 10:43:13.098477 18165 net.cpp:406] loss <- label_data_1_split_0
I0411 10:43:13.098484 18165 net.cpp:380] loss -> loss
…
