…
I0411 15:42:57.005379 27390 net.cpp:51] Initializing net from parameters: 
state {
  phase: TRAIN
  level: 0
  stage: ""
}
layer {
  name: "data"
  type: "ImageData"
  top: "data"
  top: "label"
  include {
    phase: TRAIN
  }
  transform_param {
    mirror: true
    crop_size: 227
    mean_file: "nsfwnet2_mean.binaryproto"
  }
  image_data_param {
    source: "/home/dbicho/Documents/datasets/all_labeled_dataset_augmented_finetuning/train.txt"
    batch_size: 14
    shuffle: true
    root_folder: "/home/dbicho/Documents/datasets/all_labeled_dataset_augmented_finetuning/"
  }
}
layer {
  name: "conv1"
  type: "Convolution"
  bottom: "data"
  top: "conv1"
  convolution_param {
    num_output: 64
    kernel_size: 3
    stride: 2
    weight_filler {
      type: "xavier"
    }
  }
}
layer {
  name: "relu_conv1"
  type: "ReLU"
  bottom: "conv1"
  top: "conv1"
}
layer {
  name: "pool1"
  type: "Pooling"
  bottom: "conv1"
  top: "pool1"
  pooling_param {
    pool: MAX
    kernel_size: 3
    stride: 2
  }
}
layer {
  name: "fire2/squeeze1x1"
  type: "Convolution"
  bottom: "pool1"
  top: "fire2/squeeze1x1"
  convolution_param {
    num_output: 16
    kernel_size: 1
    weight_filler {
      type: "xavier"
    }
  }
}
layer {
  name: "fire2/relu_squeeze1x1"
  type: "ReLU"
  bottom: "fire2/squeeze1x1"
  top: "fire2/squeeze1x1"
}
layer {
  name: "fire2/expand1x1"
  type: "Convolution"
  bottom: "fire2/squeeze1x1"
  top: "fire2/expand1x1"
  convolution_param {
    num_output: 64
    kernel_size: 1
    weight_filler {
      type: "xavier"
    }
  }
}
layer {
  name: "fire2/relu_expand1x1"
  type: "ReLU"
  bottom: "fire2/expand1x1"
  top: "fire2/expand1x1"
}
layer {
  name: "fire2/expand3x3"
  type: "Convolution"
  bottom: "fire2/squeeze1x1"
  top: "fire2/expand3x3"
  convolution_param {
    num_output: 64
    pad: 1
    kernel_size: 3
    weight_filler {
      type: "xavier"
    }
  }
}
layer {
  name: "fire2/relu_expand3x3"
  type: "ReLU"
  bottom: "fire2/expand3x3"
  top: "fire2/expand3x3"
}
layer {
  name: "fire2/concat"
  type: "Concat"
  bottom: "fire2/expand1x1"
  bottom: "fire2/expand3x3"
  top: "fire2/concat"
}
layer {
  name: "fire3/squeeze1x1"
  type: "Convolution"
  bottom: "fire2/concat"
  top: "fire3/squeeze1x1"
  convolution_param {
    num_output: 16
    kernel_size: 1
    weight_filler {
      type: "xavier"
    }
  }
}
layer {
  name: "fire3/relu_squeeze1x1"
  type: "ReLU"
  bottom: "fire3/squeeze1x1"
  top: "fire3/squeeze1x1"
}
layer {
  name: "fire3/expand1x1"
  type: "Convolution"
  bottom: "fire3/squeeze1x1"
  top: "fire3/expand1x1"
  convolution_param {
    num_output: 64
    kernel_size: 1
    weight_filler {
      type: "xavier"
    }
  }
}
layer {
  name: "fire3/relu_expand1x1"
  type: "ReLU"
  bottom: "fire3/expand1x1"
  top: "fire3/expand1x1"
}
layer {
  name: "fire3/expand3x3"
  type: "Convolution"
  bottom: "fire3/squeeze1x1"
  top: "fire3/expand3x3"
  convolution_param {
    num_output: 64
    pad: 1
    kernel_size: 3
    weight_filler {
      type: "xavier"
    }
  }
}
layer {
  name: "fire3/relu_expand3x3"
  type: "ReLU"
  bottom: "fire3/expand3x3"
  top: "fire3/expand3x3"
}
layer {
  name: "fire3/concat"
  type: "Concat"
  bottom: "fire3/expand1x1"
  bottom: "fire3/expand3x3"
  top: "fire3/concat"
}
layer {
  name: "pool3"
  type: "Pooling"
  bottom: "fire3/concat"
  top: "pool3"
  pooling_param {
    pool: MAX
    kernel_size: 3
    stride: 2
  }
}
layer {
  name: "fire4/squeeze1x1"
  type: "Convolution"
  bottom: "pool3"
  top: "fire4/squeeze1x1"
  convolution_param {
    num_output: 32
    kernel_size: 1
    weight_filler {
      type: "xavier"
    }
  }
}
layer {
  name: "fire4/relu_squeeze1x1"
  type: "ReLU"
  bottom: "fire4/squeeze1x1"
  top: "fire4/squeeze1x1"
}
layer {
  name: "fire4/expand1x1"
  type: "Convolution"
  bottom: "fire4/squeeze1x1"
  top: "fire4/expand1x1"
  convolution_param {
    num_output: 128
    kernel_size: 1
    weight_filler {
      type: "xavier"
    }
  }
}
layer {
  name: "fire4/relu_expand1x1"
  type: "ReLU"
  bottom: "fire4/expand1x1"
  top: "fire4/expand1x1"
}
layer {
  name: "fire4/expand3x3"
  type: "Convolution"
  bottom: "fire4/squeeze1x1"
  top: "fire4/expand3x3"
  convolution_param {
    num_output: 128
    pad: 1
    kernel_size: 3
    weight_filler {
      type: "xavier"
    }
  }
}
layer {
  name: "fire4/relu_expand3x3"
  type: "ReLU"
  bottom: "fire4/expand3x3"
  top: "fire4/expand3x3"
}
layer {
  name: "fire4/concat"
  type: "Concat"
  bottom: "fire4/expand1x1"
  bottom: "fire4/expand3x3"
  top: "fire4/concat"
}
layer {
  name: "fire5/squeeze1x1"
  type: "Convolution"
  bottom: "fire4/concat"
  top: "fire5/squeeze1x1"
  convolution_param {
    num_output: 32
    kernel_size: 1
    weight_filler {
      type: "xavier"
    }
  }
}
layer {
  name: "fire5/relu_squeeze1x1"
  type: "ReLU"
  bottom: "fire5/squeeze1x1"
  top: "fire5/squeeze1x1"
}
layer {
  name: "fire5/expand1x1"
  type: "Convolution"
  bottom: "fire5/squeeze1x1"
  top: "fire5/expand1x1"
  convolution_param {
    num_output: 128
    kernel_size: 1
    weight_filler {
      type: "xavier"
    }
  }
}
layer {
  name: "fire5/relu_expand1x1"
  type: "ReLU"
  bottom: "fire5/expand1x1"
  top: "fire5/expand1x1"
}
layer {
  name: "fire5/expand3x3"
  type: "Convolution"
  bottom: "fire5/squeeze1x1"
  top: "fire5/expand3x3"
  convolution_param {
    num_output: 128
    pad: 1
    kernel_size: 3
    weight_filler {
      type: "xavier"
    }
  }
}
layer {
  name: "fire5/relu_expand3x3"
  type: "ReLU"
  bottom: "fire5/expand3x3"
  top: "fire5/expand3x3"
}
layer {
  name: "fire5/concat"
  type: "Concat"
  bottom: "fire5/expand1x1"
  bottom: "fire5/expand3x3"
  top: "fire5/concat"
}
layer {
  name: "pool5"
  type: "Pooling"
  bottom: "fire5/concat"
  top: "pool5"
  pooling_param {
    pool: MAX
    kernel_size: 3
    stride: 2
  }
}
layer {
  name: "fire6/squeeze1x1"
  type: "Convolution"
  bottom: "pool5"
  top: "fire6/squeeze1x1"
  convolution_param {
    num_output: 48
    kernel_size: 1
    weight_filler {
      type: "xavier"
    }
  }
}
layer {
  name: "fire6/relu_squeeze1x1"
  type: "ReLU"
  bottom: "fire6/squeeze1x1"
  top: "fire6/squeeze1x1"
}
layer {
  name: "fire6/expand1x1"
  type: "Convolution"
  bottom: "fire6/squeeze1x1"
  top: "fire6/expand1x1"
  convolution_param {
    num_output: 192
    kernel_size: 1
    weight_filler {
      type: "xavier"
    }
  }
}
layer {
  name: "fire6/relu_expand1x1"
  type: "ReLU"
  bottom: "fire6/expand1x1"
  top: "fire6/expand1x1"
}
layer {
  name: "fire6/expand3x3"
  type: "Convolution"
  bottom: "fire6/squeeze1x1"
  top: "fire6/expand3x3"
  convolution_param {
    num_output: 192
    pad: 1
    kernel_size: 3
    weight_filler {
      type: "xavier"
    }
  }
}
layer {
  name: "fire6/relu_expand3x3"
  type: "ReLU"
  bottom: "fire6/expand3x3"
  top: "fire6/expand3x3"
}
layer {
  name: "fire6/concat"
  type: "Concat"
  bottom: "fire6/expand1x1"
  bottom: "fire6/expand3x3"
  top: "fire6/concat"
}
layer {
  name: "fire7/squeeze1x1"
  type: "Convolution"
  bottom: "fire6/concat"
  top: "fire7/squeeze1x1"
  convolution_param {
    num_output: 48
    kernel_size: 1
    weight_filler {
      type: "xavier"
    }
  }
}
layer {
  name: "fire7/relu_squeeze1x1"
  type: "ReLU"
  bottom: "fire7/squeeze1x1"
  top: "fire7/squeeze1x1"
}
layer {
  name: "fire7/expand1x1"
  type: "Convolution"
  bottom: "fire7/squeeze1x1"
  top: "fire7/expand1x1"
  convolution_param {
    num_output: 192
    kernel_size: 1
    weight_filler {
      type: "xavier"
    }
  }
}
layer {
  name: "fire7/relu_expand1x1"
  type: "ReLU"
  bottom: "fire7/expand1x1"
  top: "fire7/expand1x1"
}
layer {
  name: "fire7/expand3x3"
  type: "Convolution"
  bottom: "fire7/squeeze1x1"
  top: "fire7/expand3x3"
  convolution_param {
    num_output: 192
    pad: 1
    kernel_size: 3
    weight_filler {
      type: "xavier"
    }
  }
}
layer {
  name: "fire7/relu_expand3x3"
  type: "ReLU"
  bottom: "fire7/expand3x3"
  top: "fire7/expand3x3"
}
layer {
  name: "fire7/concat"
  type: "Concat"
  bottom: "fire7/expand1x1"
  bottom: "fire7/expand3x3"
  top: "fire7/concat"
}
layer {
  name: "fire8/squeeze1x1"
  type: "Convolution"
  bottom: "fire7/concat"
  top: "fire8/squeeze1x1"
  convolution_param {
    num_output: 64
    kernel_size: 1
    weight_filler {
      type: "xavier"
    }
  }
}
layer {
  name: "fire8/relu_squeeze1x1"
  type: "ReLU"
  bottom: "fire8/squeeze1x1"
  top: "fire8/squeeze1x1"
}
layer {
  name: "fire8/expand1x1"
  type: "Convolution"
  bottom: "fire8/squeeze1x1"
  top: "fire8/expand1x1"
  convolution_param {
    num_output: 256
    kernel_size: 1
    weight_filler {
      type: "xavier"
    }
  }
}
layer {
  name: "fire8/relu_expand1x1"
  type: "ReLU"
  bottom: "fire8/expand1x1"
  top: "fire8/expand1x1"
}
layer {
  name: "fire8/expand3x3"
  type: "Convolution"
  bottom: "fire8/squeeze1x1"
  top: "fire8/expand3x3"
  convolution_param {
    num_output: 256
    pad: 1
    kernel_size: 3
    weight_filler {
      type: "xavier"
    }
  }
}
layer {
  name: "fire8/relu_expand3x3"
  type: "ReLU"
  bottom: "fire8/expand3x3"
  top: "fire8/expand3x3"
}
layer {
  name: "fire8/concat"
  type: "Concat"
  bottom: "fire8/expand1x1"
  bottom: "fire8/expand3x3"
  top: "fire8/concat"
}
layer {
  name: "fire9/squeeze1x1"
  type: "Convolution"
  bottom: "fire8/concat"
  top: "fire9/squeeze1x1"
  convolution_param {
    num_output: 64
    kernel_size: 1
    weight_filler {
      type: "xavier"
    }
  }
}
layer {
  name: "fire9/relu_squeeze1x1"
  type: "ReLU"
  bottom: "fire9/squeeze1x1"
  top: "fire9/squeeze1x1"
}
layer {
  name: "fire9/expand1x1"
  type: "Convolution"
  bottom: "fire9/squeeze1x1"
  top: "fire9/expand1x1"
  convolution_param {
    num_output: 256
    kernel_size: 1
    weight_filler {
      type: "xavier"
    }
  }
}
layer {
  name: "fire9/relu_expand1x1"
  type: "ReLU"
  bottom: "fire9/expand1x1"
  top: "fire9/expand1x1"
}
layer {
  name: "fire9/expand3x3"
  type: "Convolution"
  bottom: "fire9/squeeze1x1"
  top: "fire9/expand3x3"
  convolution_param {
    num_output: 256
    pad: 1
    kernel_size: 3
    weight_filler {
      type: "xavier"
    }
  }
}
layer {
  name: "fire9/relu_expand3x3"
  type: "ReLU"
  bottom: "fire9/expand3x3"
  top: "fire9/expand3x3"
}
layer {
  name: "fire9/concat"
  type: "Concat"
  bottom: "fire9/expand1x1"
  bottom: "fire9/expand3x3"
  top: "fire9/concat"
}
layer {
  name: "drop9"
  type: "Dropout"
  bottom: "fire9/concat"
  top: "fire9/concat"
  dropout_param {
    dropout_ratio: 0.5
  }
}
layer {
  name: "conv10"
  type: "Convolution"
  bottom: "fire9/concat"
  top: "conv10"
  convolution_param {
    num_output: 2
    kernel_size: 1
    weight_filler {
      type: "gaussian"
      mean: 0
      std: 0.01
    }
  }
}
layer {
  name: "relu_conv10"
  type: "ReLU"
  bottom: "conv10"
  top: "conv10"
}
layer {
  name: "pool10"
  type: "Pooling"
  bottom: "conv10"
  top: "pool10"
  pooling_param {
    pool: AVE
    global_pooling: true
  }
}
layer {
  name: "loss"
  type: "SoftmaxWithLoss"
  bottom: "pool10"
  bottom: "label"
  top: "loss"
}
layer {
  name: "accuracy"
  type: "Accuracy"
  bottom: "pool10"
  bottom: "label"
  top: "accuracy"
}
I0411 15:42:57.005674 27390 layer_factory.hpp:77] Creating layer data
I0411 15:42:57.005699 27390 net.cpp:84] Creating Layer data
I0411 15:42:57.005707 27390 net.cpp:380] data -> data
I0411 15:42:57.005724 27390 net.cpp:380] data -> label
I0411 15:42:57.005735 27390 data_transformer.cpp:25] Loading mean file from: nsfwnet2_mean.binaryproto
I0411 15:42:57.008117 27390 image_data_layer.cpp:38] Opening file /home/dbicho/Documents/datasets/all_labeled_dataset_augmented_finetuning/train.txt
I0411 15:42:57.018573 27390 image_data_layer.cpp:53] Shuffling data
I0411 15:42:57.024108 27390 image_data_layer.cpp:63] A total of 19955 images.
I0411 15:42:57.024880 27390 image_data_layer.cpp:90] output data size: 14,3,227,227
I0411 15:42:57.042934 27390 net.cpp:122] Setting up data
I0411 15:42:57.042960 27390 net.cpp:129] Top shape: 14 3 227 227 (2164218)
I0411 15:42:57.042975 27390 net.cpp:129] Top shape: 14 (14)
I0411 15:42:57.042980 27390 net.cpp:137] Memory required for data: 8656928
I0411 15:42:57.043000 27390 layer_factory.hpp:77] Creating layer label_data_1_split
I0411 15:42:57.043015 27390 net.cpp:84] Creating Layer label_data_1_split
I0411 15:42:57.043021 27390 net.cpp:406] label_data_1_split <- label
I0411 15:42:57.043038 27390 net.cpp:380] label_data_1_split -> label_data_1_split_0
I0411 15:42:57.043051 27390 net.cpp:380] label_data_1_split -> label_data_1_split_1
I0411 15:42:57.043102 27390 net.cpp:122] Setting up label_data_1_split
I0411 15:42:57.043109 27390 net.cpp:129] Top shape: 14 (14)
I0411 15:42:57.043112 27390 net.cpp:129] Top shape: 14 (14)
I0411 15:42:57.043115 27390 net.cpp:137] Memory required for data: 8657040
I0411 15:42:57.043118 27390 layer_factory.hpp:77] Creating layer conv1
I0411 15:42:57.043133 27390 net.cpp:84] Creating Layer conv1
I0411 15:42:57.043136 27390 net.cpp:406] conv1 <- data
I0411 15:42:57.043143 27390 net.cpp:380] conv1 -> conv1
I0411 15:42:57.044478 27390 net.cpp:122] Setting up conv1
I0411 15:42:57.044492 27390 net.cpp:129] Top shape: 14 64 113 113 (11441024)
I0411 15:42:57.044497 27390 net.cpp:137] Memory required for data: 54421136
I0411 15:42:57.044519 27390 layer_factory.hpp:77] Creating layer relu_conv1
I0411 15:42:57.044528 27390 net.cpp:84] Creating Layer relu_conv1
I0411 15:42:57.044533 27390 net.cpp:406] relu_conv1 <- conv1
I0411 15:42:57.044538 27390 net.cpp:367] relu_conv1 -> conv1 (in-place)
I0411 15:42:57.044545 27390 net.cpp:122] Setting up relu_conv1
I0411 15:42:57.044550 27390 net.cpp:129] Top shape: 14 64 113 113 (11441024)
I0411 15:42:57.044553 27390 net.cpp:137] Memory required for data: 100185232
I0411 15:42:57.044555 27390 layer_factory.hpp:77] Creating layer pool1
I0411 15:42:57.044564 27390 net.cpp:84] Creating Layer pool1
I0411 15:42:57.044569 27390 net.cpp:406] pool1 <- conv1
I0411 15:42:57.044572 27390 net.cpp:380] pool1 -> pool1
I0411 15:42:57.045366 27390 net.cpp:122] Setting up pool1
I0411 15:42:57.045372 27390 net.cpp:129] Top shape: 14 64 56 56 (2809856)
I0411 15:42:57.045375 27390 net.cpp:137] Memory required for data: 111424656
I0411 15:42:57.045377 27390 layer_factory.hpp:77] Creating layer fire2/squeeze1x1
I0411 15:42:57.045387 27390 net.cpp:84] Creating Layer fire2/squeeze1x1
I0411 15:42:57.045392 27390 net.cpp:406] fire2/squeeze1x1 <- pool1
I0411 15:42:57.045402 27390 net.cpp:380] fire2/squeeze1x1 -> fire2/squeeze1x1
I0411 15:42:57.047310 27390 net.cpp:122] Setting up fire2/squeeze1x1
I0411 15:42:57.047327 27390 net.cpp:129] Top shape: 14 16 56 56 (702464)
I0411 15:42:57.047329 27390 net.cpp:137] Memory required for data: 114234512
I0411 15:42:57.047343 27390 layer_factory.hpp:77] Creating layer fire2/relu_squeeze1x1
I0411 15:42:57.047354 27390 net.cpp:84] Creating Layer fire2/relu_squeeze1x1
I0411 15:42:57.047358 27390 net.cpp:406] fire2/relu_squeeze1x1 <- fire2/squeeze1x1
I0411 15:42:57.047365 27390 net.cpp:367] fire2/relu_squeeze1x1 -> fire2/squeeze1x1 (in-place)
I0411 15:42:57.047374 27390 net.cpp:122] Setting up fire2/relu_squeeze1x1
I0411 15:42:57.047380 27390 net.cpp:129] Top shape: 14 16 56 56 (702464)
I0411 15:42:57.047382 27390 net.cpp:137] Memory required for data: 117044368
I0411 15:42:57.047385 27390 layer_factory.hpp:77] Creating layer fire2/squeeze1x1_fire2/relu_squeeze1x1_0_split
I0411 15:42:57.047392 27390 net.cpp:84] Creating Layer fire2/squeeze1x1_fire2/relu_squeeze1x1_0_split
I0411 15:42:57.047395 27390 net.cpp:406] fire2/squeeze1x1_fire2/relu_squeeze1x1_0_split <- fire2/squeeze1x1
I0411 15:42:57.047402 27390 net.cpp:380] fire2/squeeze1x1_fire2/relu_squeeze1x1_0_split -> fire2/squeeze1x1_fire2/relu_squeeze1x1_0_split_0
I0411 15:42:57.047427 27390 net.cpp:380] fire2/squeeze1x1_fire2/relu_squeeze1x1_0_split -> fire2/squeeze1x1_fire2/relu_squeeze1x1_0_split_1
I0411 15:42:57.047464 27390 net.cpp:122] Setting up fire2/squeeze1x1_fire2/relu_squeeze1x1_0_split
I0411 15:42:57.047471 27390 net.cpp:129] Top shape: 14 16 56 56 (702464)
I0411 15:42:57.047477 27390 net.cpp:129] Top shape: 14 16 56 56 (702464)
I0411 15:42:57.047480 27390 net.cpp:137] Memory required for data: 122664080
I0411 15:42:57.047483 27390 layer_factory.hpp:77] Creating layer fire2/expand1x1
I0411 15:42:57.047497 27390 net.cpp:84] Creating Layer fire2/expand1x1
I0411 15:42:57.047500 27390 net.cpp:406] fire2/expand1x1 <- fire2/squeeze1x1_fire2/relu_squeeze1x1_0_split_0
I0411 15:42:57.047508 27390 net.cpp:380] fire2/expand1x1 -> fire2/expand1x1
I0411 15:42:57.047725 27390 net.cpp:122] Setting up fire2/expand1x1
I0411 15:42:57.047734 27390 net.cpp:129] Top shape: 14 64 56 56 (2809856)
I0411 15:42:57.047737 27390 net.cpp:137] Memory required for data: 133903504
I0411 15:42:57.047744 27390 layer_factory.hpp:77] Creating layer fire2/relu_expand1x1
I0411 15:42:57.047749 27390 net.cpp:84] Creating Layer fire2/relu_expand1x1
I0411 15:42:57.047752 27390 net.cpp:406] fire2/relu_expand1x1 <- fire2/expand1x1
I0411 15:42:57.047757 27390 net.cpp:367] fire2/relu_expand1x1 -> fire2/expand1x1 (in-place)
I0411 15:42:57.047761 27390 net.cpp:122] Setting up fire2/relu_expand1x1
I0411 15:42:57.047765 27390 net.cpp:129] Top shape: 14 64 56 56 (2809856)
I0411 15:42:57.047767 27390 net.cpp:137] Memory required for data: 145142928
I0411 15:42:57.047770 27390 layer_factory.hpp:77] Creating layer fire2/expand3x3
I0411 15:42:57.047776 27390 net.cpp:84] Creating Layer fire2/expand3x3
I0411 15:42:57.047780 27390 net.cpp:406] fire2/expand3x3 <- fire2/squeeze1x1_fire2/relu_squeeze1x1_0_split_1
I0411 15:42:57.047783 27390 net.cpp:380] fire2/expand3x3 -> fire2/expand3x3
I0411 15:42:57.048010 27390 net.cpp:122] Setting up fire2/expand3x3
I0411 15:42:57.048017 27390 net.cpp:129] Top shape: 14 64 56 56 (2809856)
I0411 15:42:57.048019 27390 net.cpp:137] Memory required for data: 156382352
I0411 15:42:57.048024 27390 layer_factory.hpp:77] Creating layer fire2/relu_expand3x3
I0411 15:42:57.048029 27390 net.cpp:84] Creating Layer fire2/relu_expand3x3
I0411 15:42:57.048032 27390 net.cpp:406] fire2/relu_expand3x3 <- fire2/expand3x3
I0411 15:42:57.048038 27390 net.cpp:367] fire2/relu_expand3x3 -> fire2/expand3x3 (in-place)
I0411 15:42:57.048041 27390 net.cpp:122] Setting up fire2/relu_expand3x3
I0411 15:42:57.048045 27390 net.cpp:129] Top shape: 14 64 56 56 (2809856)
I0411 15:42:57.048048 27390 net.cpp:137] Memory required for data: 167621776
I0411 15:42:57.048049 27390 layer_factory.hpp:77] Creating layer fire2/concat
I0411 15:42:57.048054 27390 net.cpp:84] Creating Layer fire2/concat
I0411 15:42:57.048056 27390 net.cpp:406] fire2/concat <- fire2/expand1x1
I0411 15:42:57.048059 27390 net.cpp:406] fire2/concat <- fire2/expand3x3
I0411 15:42:57.048064 27390 net.cpp:380] fire2/concat -> fire2/concat
I0411 15:42:57.048082 27390 net.cpp:122] Setting up fire2/concat
I0411 15:42:57.048087 27390 net.cpp:129] Top shape: 14 128 56 56 (5619712)
I0411 15:42:57.048089 27390 net.cpp:137] Memory required for data: 190100624
I0411 15:42:57.048092 27390 layer_factory.hpp:77] Creating layer fire3/squeeze1x1
I0411 15:42:57.048099 27390 net.cpp:84] Creating Layer fire3/squeeze1x1
I0411 15:42:57.048101 27390 net.cpp:406] fire3/squeeze1x1 <- fire2/concat
I0411 15:42:57.048105 27390 net.cpp:380] fire3/squeeze1x1 -> fire3/squeeze1x1
I0411 15:42:57.048288 27390 net.cpp:122] Setting up fire3/squeeze1x1
I0411 15:42:57.048297 27390 net.cpp:129] Top shape: 14 16 56 56 (702464)
I0411 15:42:57.048301 27390 net.cpp:137] Memory required for data: 192910480
I0411 15:42:57.048313 27390 layer_factory.hpp:77] Creating layer fire3/relu_squeeze1x1
I0411 15:42:57.048321 27390 net.cpp:84] Creating Layer fire3/relu_squeeze1x1
I0411 15:42:57.048326 27390 net.cpp:406] fire3/relu_squeeze1x1 <- fire3/squeeze1x1
I0411 15:42:57.048347 27390 net.cpp:367] fire3/relu_squeeze1x1 -> fire3/squeeze1x1 (in-place)
I0411 15:42:57.048358 27390 net.cpp:122] Setting up fire3/relu_squeeze1x1
I0411 15:42:57.048364 27390 net.cpp:129] Top shape: 14 16 56 56 (702464)
I0411 15:42:57.048372 27390 net.cpp:137] Memory required for data: 195720336
I0411 15:42:57.048374 27390 layer_factory.hpp:77] Creating layer fire3/squeeze1x1_fire3/relu_squeeze1x1_0_split
I0411 15:42:57.048382 27390 net.cpp:84] Creating Layer fire3/squeeze1x1_fire3/relu_squeeze1x1_0_split
I0411 15:42:57.048384 27390 net.cpp:406] fire3/squeeze1x1_fire3/relu_squeeze1x1_0_split <- fire3/squeeze1x1
I0411 15:42:57.048391 27390 net.cpp:380] fire3/squeeze1x1_fire3/relu_squeeze1x1_0_split -> fire3/squeeze1x1_fire3/relu_squeeze1x1_0_split_0
I0411 15:42:57.048403 27390 net.cpp:380] fire3/squeeze1x1_fire3/relu_squeeze1x1_0_split -> fire3/squeeze1x1_fire3/relu_squeeze1x1_0_split_1
I0411 15:42:57.048437 27390 net.cpp:122] Setting up fire3/squeeze1x1_fire3/relu_squeeze1x1_0_split
I0411 15:42:57.048444 27390 net.cpp:129] Top shape: 14 16 56 56 (702464)
I0411 15:42:57.048449 27390 net.cpp:129] Top shape: 14 16 56 56 (702464)
I0411 15:42:57.048451 27390 net.cpp:137] Memory required for data: 201340048
I0411 15:42:57.048455 27390 layer_factory.hpp:77] Creating layer fire3/expand1x1
I0411 15:42:57.048470 27390 net.cpp:84] Creating Layer fire3/expand1x1
I0411 15:42:57.048475 27390 net.cpp:406] fire3/expand1x1 <- fire3/squeeze1x1_fire3/relu_squeeze1x1_0_split_0
I0411 15:42:57.048480 27390 net.cpp:380] fire3/expand1x1 -> fire3/expand1x1
I0411 15:42:57.048672 27390 net.cpp:122] Setting up fire3/expand1x1
I0411 15:42:57.048681 27390 net.cpp:129] Top shape: 14 64 56 56 (2809856)
I0411 15:42:57.048683 27390 net.cpp:137] Memory required for data: 212579472
I0411 15:42:57.048689 27390 layer_factory.hpp:77] Creating layer fire3/relu_expand1x1
I0411 15:42:57.048696 27390 net.cpp:84] Creating Layer fire3/relu_expand1x1
I0411 15:42:57.048699 27390 net.cpp:406] fire3/relu_expand1x1 <- fire3/expand1x1
I0411 15:42:57.048707 27390 net.cpp:367] fire3/relu_expand1x1 -> fire3/expand1x1 (in-place)
I0411 15:42:57.048714 27390 net.cpp:122] Setting up fire3/relu_expand1x1
I0411 15:42:57.048719 27390 net.cpp:129] Top shape: 14 64 56 56 (2809856)
I0411 15:42:57.048723 27390 net.cpp:137] Memory required for data: 223818896
I0411 15:42:57.048727 27390 layer_factory.hpp:77] Creating layer fire3/expand3x3
I0411 15:42:57.048737 27390 net.cpp:84] Creating Layer fire3/expand3x3
I0411 15:42:57.048741 27390 net.cpp:406] fire3/expand3x3 <- fire3/squeeze1x1_fire3/relu_squeeze1x1_0_split_1
I0411 15:42:57.048748 27390 net.cpp:380] fire3/expand3x3 -> fire3/expand3x3
I0411 15:42:57.048979 27390 net.cpp:122] Setting up fire3/expand3x3
I0411 15:42:57.048985 27390 net.cpp:129] Top shape: 14 64 56 56 (2809856)
I0411 15:42:57.048988 27390 net.cpp:137] Memory required for data: 235058320
I0411 15:42:57.048995 27390 layer_factory.hpp:77] Creating layer fire3/relu_expand3x3
I0411 15:42:57.049000 27390 net.cpp:84] Creating Layer fire3/relu_expand3x3
I0411 15:42:57.049005 27390 net.cpp:406] fire3/relu_expand3x3 <- fire3/expand3x3
I0411 15:42:57.049011 27390 net.cpp:367] fire3/relu_expand3x3 -> fire3/expand3x3 (in-place)
I0411 15:42:57.049018 27390 net.cpp:122] Setting up fire3/relu_expand3x3
I0411 15:42:57.049024 27390 net.cpp:129] Top shape: 14 64 56 56 (2809856)
I0411 15:42:57.049027 27390 net.cpp:137] Memory required for data: 246297744
I0411 15:42:57.049031 27390 layer_factory.hpp:77] Creating layer fire3/concat
I0411 15:42:57.049037 27390 net.cpp:84] Creating Layer fire3/concat
I0411 15:42:57.049041 27390 net.cpp:406] fire3/concat <- fire3/expand1x1
I0411 15:42:57.049046 27390 net.cpp:406] fire3/concat <- fire3/expand3x3
I0411 15:42:57.049053 27390 net.cpp:380] fire3/concat -> fire3/concat
I0411 15:42:57.049077 27390 net.cpp:122] Setting up fire3/concat
I0411 15:42:57.049083 27390 net.cpp:129] Top shape: 14 128 56 56 (5619712)
I0411 15:42:57.049087 27390 net.cpp:137] Memory required for data: 268776592
I0411 15:42:57.049100 27390 layer_factory.hpp:77] Creating layer pool3
I0411 15:42:57.049108 27390 net.cpp:84] Creating Layer pool3
I0411 15:42:57.049111 27390 net.cpp:406] pool3 <- fire3/concat
I0411 15:42:57.049118 27390 net.cpp:380] pool3 -> pool3
I0411 15:42:57.049160 27390 net.cpp:122] Setting up pool3
I0411 15:42:57.049170 27390 net.cpp:129] Top shape: 14 128 28 28 (1404928)
I0411 15:42:57.049175 27390 net.cpp:137] Memory required for data: 274396304
I0411 15:42:57.049180 27390 layer_factory.hpp:77] Creating layer fire4/squeeze1x1
I0411 15:42:57.049190 27390 net.cpp:84] Creating Layer fire4/squeeze1x1
I0411 15:42:57.049196 27390 net.cpp:406] fire4/squeeze1x1 <- pool3
I0411 15:42:57.049203 27390 net.cpp:380] fire4/squeeze1x1 -> fire4/squeeze1x1
I0411 15:42:57.049413 27390 net.cpp:122] Setting up fire4/squeeze1x1
I0411 15:42:57.049420 27390 net.cpp:129] Top shape: 14 32 28 28 (351232)
I0411 15:42:57.049423 27390 net.cpp:137] Memory required for data: 275801232
I0411 15:42:57.049428 27390 layer_factory.hpp:77] Creating layer fire4/relu_squeeze1x1
I0411 15:42:57.049433 27390 net.cpp:84] Creating Layer fire4/relu_squeeze1x1
I0411 15:42:57.049435 27390 net.cpp:406] fire4/relu_squeeze1x1 <- fire4/squeeze1x1
I0411 15:42:57.049440 27390 net.cpp:367] fire4/relu_squeeze1x1 -> fire4/squeeze1x1 (in-place)
I0411 15:42:57.049444 27390 net.cpp:122] Setting up fire4/relu_squeeze1x1
I0411 15:42:57.049448 27390 net.cpp:129] Top shape: 14 32 28 28 (351232)
I0411 15:42:57.049450 27390 net.cpp:137] Memory required for data: 277206160
I0411 15:42:57.049453 27390 layer_factory.hpp:77] Creating layer fire4/squeeze1x1_fire4/relu_squeeze1x1_0_split
I0411 15:42:57.049458 27390 net.cpp:84] Creating Layer fire4/squeeze1x1_fire4/relu_squeeze1x1_0_split
I0411 15:42:57.049459 27390 net.cpp:406] fire4/squeeze1x1_fire4/relu_squeeze1x1_0_split <- fire4/squeeze1x1
I0411 15:42:57.049464 27390 net.cpp:380] fire4/squeeze1x1_fire4/relu_squeeze1x1_0_split -> fire4/squeeze1x1_fire4/relu_squeeze1x1_0_split_0
I0411 15:42:57.049470 27390 net.cpp:380] fire4/squeeze1x1_fire4/relu_squeeze1x1_0_split -> fire4/squeeze1x1_fire4/relu_squeeze1x1_0_split_1
I0411 15:42:57.049497 27390 net.cpp:122] Setting up fire4/squeeze1x1_fire4/relu_squeeze1x1_0_split
I0411 15:42:57.049502 27390 net.cpp:129] Top shape: 14 32 28 28 (351232)
I0411 15:42:57.049505 27390 net.cpp:129] Top shape: 14 32 28 28 (351232)
I0411 15:42:57.049507 27390 net.cpp:137] Memory required for data: 280016016
I0411 15:42:57.049510 27390 layer_factory.hpp:77] Creating layer fire4/expand1x1
I0411 15:42:57.049516 27390 net.cpp:84] Creating Layer fire4/expand1x1
I0411 15:42:57.049520 27390 net.cpp:406] fire4/expand1x1 <- fire4/squeeze1x1_fire4/relu_squeeze1x1_0_split_0
I0411 15:42:57.049525 27390 net.cpp:380] fire4/expand1x1 -> fire4/expand1x1
I0411 15:42:57.049708 27390 net.cpp:122] Setting up fire4/expand1x1
I0411 15:42:57.049715 27390 net.cpp:129] Top shape: 14 128 28 28 (1404928)
I0411 15:42:57.049717 27390 net.cpp:137] Memory required for data: 285635728
I0411 15:42:57.049726 27390 layer_factory.hpp:77] Creating layer fire4/relu_expand1x1
I0411 15:42:57.049731 27390 net.cpp:84] Creating Layer fire4/relu_expand1x1
I0411 15:42:57.049734 27390 net.cpp:406] fire4/relu_expand1x1 <- fire4/expand1x1
I0411 15:42:57.049738 27390 net.cpp:367] fire4/relu_expand1x1 -> fire4/expand1x1 (in-place)
I0411 15:42:57.049742 27390 net.cpp:122] Setting up fire4/relu_expand1x1
I0411 15:42:57.049746 27390 net.cpp:129] Top shape: 14 128 28 28 (1404928)
I0411 15:42:57.049748 27390 net.cpp:137] Memory required for data: 291255440
I0411 15:42:57.049751 27390 layer_factory.hpp:77] Creating layer fire4/expand3x3
I0411 15:42:57.049757 27390 net.cpp:84] Creating Layer fire4/expand3x3
I0411 15:42:57.049760 27390 net.cpp:406] fire4/expand3x3 <- fire4/squeeze1x1_fire4/relu_squeeze1x1_0_split_1
I0411 15:42:57.049764 27390 net.cpp:380] fire4/expand3x3 -> fire4/expand3x3
I0411 15:42:57.050714 27390 net.cpp:122] Setting up fire4/expand3x3
I0411 15:42:57.050729 27390 net.cpp:129] Top shape: 14 128 28 28 (1404928)
I0411 15:42:57.050732 27390 net.cpp:137] Memory required for data: 296875152
I0411 15:42:57.050753 27390 layer_factory.hpp:77] Creating layer fire4/relu_expand3x3
I0411 15:42:57.050761 27390 net.cpp:84] Creating Layer fire4/relu_expand3x3
I0411 15:42:57.050766 27390 net.cpp:406] fire4/relu_expand3x3 <- fire4/expand3x3
I0411 15:42:57.050772 27390 net.cpp:367] fire4/relu_expand3x3 -> fire4/expand3x3 (in-place)
I0411 15:42:57.050778 27390 net.cpp:122] Setting up fire4/relu_expand3x3
I0411 15:42:57.050783 27390 net.cpp:129] Top shape: 14 128 28 28 (1404928)
I0411 15:42:57.050786 27390 net.cpp:137] Memory required for data: 302494864
I0411 15:42:57.050788 27390 layer_factory.hpp:77] Creating layer fire4/concat
I0411 15:42:57.050792 27390 net.cpp:84] Creating Layer fire4/concat
I0411 15:42:57.050796 27390 net.cpp:406] fire4/concat <- fire4/expand1x1
I0411 15:42:57.050798 27390 net.cpp:406] fire4/concat <- fire4/expand3x3
I0411 15:42:57.050803 27390 net.cpp:380] fire4/concat -> fire4/concat
I0411 15:42:57.050823 27390 net.cpp:122] Setting up fire4/concat
I0411 15:42:57.050829 27390 net.cpp:129] Top shape: 14 256 28 28 (2809856)
I0411 15:42:57.050832 27390 net.cpp:137] Memory required for data: 313734288
I0411 15:42:57.050834 27390 layer_factory.hpp:77] Creating layer fire5/squeeze1x1
I0411 15:42:57.050842 27390 net.cpp:84] Creating Layer fire5/squeeze1x1
I0411 15:42:57.050844 27390 net.cpp:406] fire5/squeeze1x1 <- fire4/concat
I0411 15:42:57.050849 27390 net.cpp:380] fire5/squeeze1x1 -> fire5/squeeze1x1
I0411 15:42:57.051069 27390 net.cpp:122] Setting up fire5/squeeze1x1
I0411 15:42:57.051075 27390 net.cpp:129] Top shape: 14 32 28 28 (351232)
I0411 15:42:57.051079 27390 net.cpp:137] Memory required for data: 315139216
I0411 15:42:57.051084 27390 layer_factory.hpp:77] Creating layer fire5/relu_squeeze1x1
I0411 15:42:57.051087 27390 net.cpp:84] Creating Layer fire5/relu_squeeze1x1
I0411 15:42:57.051090 27390 net.cpp:406] fire5/relu_squeeze1x1 <- fire5/squeeze1x1
I0411 15:42:57.051095 27390 net.cpp:367] fire5/relu_squeeze1x1 -> fire5/squeeze1x1 (in-place)
I0411 15:42:57.051100 27390 net.cpp:122] Setting up fire5/relu_squeeze1x1
I0411 15:42:57.051103 27390 net.cpp:129] Top shape: 14 32 28 28 (351232)
I0411 15:42:57.051105 27390 net.cpp:137] Memory required for data: 316544144
I0411 15:42:57.051107 27390 layer_factory.hpp:77] Creating layer fire5/squeeze1x1_fire5/relu_squeeze1x1_0_split
I0411 15:42:57.051120 27390 net.cpp:84] Creating Layer fire5/squeeze1x1_fire5/relu_squeeze1x1_0_split
I0411 15:42:57.051125 27390 net.cpp:406] fire5/squeeze1x1_fire5/relu_squeeze1x1_0_split <- fire5/squeeze1x1
I0411 15:42:57.051131 27390 net.cpp:380] fire5/squeeze1x1_fire5/relu_squeeze1x1_0_split -> fire5/squeeze1x1_fire5/relu_squeeze1x1_0_split_0
I0411 15:42:57.051136 27390 net.cpp:380] fire5/squeeze1x1_fire5/relu_squeeze1x1_0_split -> fire5/squeeze1x1_fire5/relu_squeeze1x1_0_split_1
I0411 15:42:57.051165 27390 net.cpp:122] Setting up fire5/squeeze1x1_fire5/relu_squeeze1x1_0_split
I0411 15:42:57.051170 27390 net.cpp:129] Top shape: 14 32 28 28 (351232)
I0411 15:42:57.051174 27390 net.cpp:129] Top shape: 14 32 28 28 (351232)
I0411 15:42:57.051177 27390 net.cpp:137] Memory required for data: 319354000
I0411 15:42:57.051179 27390 layer_factory.hpp:77] Creating layer fire5/expand1x1
I0411 15:42:57.051187 27390 net.cpp:84] Creating Layer fire5/expand1x1
I0411 15:42:57.051190 27390 net.cpp:406] fire5/expand1x1 <- fire5/squeeze1x1_fire5/relu_squeeze1x1_0_split_0
I0411 15:42:57.051195 27390 net.cpp:380] fire5/expand1x1 -> fire5/expand1x1
I0411 15:42:57.051383 27390 net.cpp:122] Setting up fire5/expand1x1
I0411 15:42:57.051389 27390 net.cpp:129] Top shape: 14 128 28 28 (1404928)
I0411 15:42:57.051393 27390 net.cpp:137] Memory required for data: 324973712
I0411 15:42:57.051398 27390 layer_factory.hpp:77] Creating layer fire5/relu_expand1x1
I0411 15:42:57.051403 27390 net.cpp:84] Creating Layer fire5/relu_expand1x1
I0411 15:42:57.051405 27390 net.cpp:406] fire5/relu_expand1x1 <- fire5/expand1x1
I0411 15:42:57.051409 27390 net.cpp:367] fire5/relu_expand1x1 -> fire5/expand1x1 (in-place)
I0411 15:42:57.051422 27390 net.cpp:122] Setting up fire5/relu_expand1x1
I0411 15:42:57.051426 27390 net.cpp:129] Top shape: 14 128 28 28 (1404928)
I0411 15:42:57.051429 27390 net.cpp:137] Memory required for data: 330593424
I0411 15:42:57.051430 27390 layer_factory.hpp:77] Creating layer fire5/expand3x3
I0411 15:42:57.051437 27390 net.cpp:84] Creating Layer fire5/expand3x3
I0411 15:42:57.051440 27390 net.cpp:406] fire5/expand3x3 <- fire5/squeeze1x1_fire5/relu_squeeze1x1_0_split_1
I0411 15:42:57.051445 27390 net.cpp:380] fire5/expand3x3 -> fire5/expand3x3
I0411 15:42:57.051785 27390 net.cpp:122] Setting up fire5/expand3x3
I0411 15:42:57.051791 27390 net.cpp:129] Top shape: 14 128 28 28 (1404928)
I0411 15:42:57.051795 27390 net.cpp:137] Memory required for data: 336213136
I0411 15:42:57.051800 27390 layer_factory.hpp:77] Creating layer fire5/relu_expand3x3
I0411 15:42:57.051803 27390 net.cpp:84] Creating Layer fire5/relu_expand3x3
I0411 15:42:57.051805 27390 net.cpp:406] fire5/relu_expand3x3 <- fire5/expand3x3
I0411 15:42:57.051810 27390 net.cpp:367] fire5/relu_expand3x3 -> fire5/expand3x3 (in-place)
I0411 15:42:57.051816 27390 net.cpp:122] Setting up fire5/relu_expand3x3
I0411 15:42:57.051822 27390 net.cpp:129] Top shape: 14 128 28 28 (1404928)
I0411 15:42:57.051826 27390 net.cpp:137] Memory required for data: 341832848
I0411 15:42:57.051829 27390 layer_factory.hpp:77] Creating layer fire5/concat
I0411 15:42:57.051836 27390 net.cpp:84] Creating Layer fire5/concat
I0411 15:42:57.051841 27390 net.cpp:406] fire5/concat <- fire5/expand1x1
I0411 15:42:57.051844 27390 net.cpp:406] fire5/concat <- fire5/expand3x3
I0411 15:42:57.051851 27390 net.cpp:380] fire5/concat -> fire5/concat
I0411 15:42:57.051872 27390 net.cpp:122] Setting up fire5/concat
I0411 15:42:57.051878 27390 net.cpp:129] Top shape: 14 256 28 28 (2809856)
I0411 15:42:57.051880 27390 net.cpp:137] Memory required for data: 353072272
I0411 15:42:57.051883 27390 layer_factory.hpp:77] Creating layer pool5
I0411 15:42:57.051892 27390 net.cpp:84] Creating Layer pool5
I0411 15:42:57.051894 27390 net.cpp:406] pool5 <- fire5/concat
I0411 15:42:57.051901 27390 net.cpp:380] pool5 -> pool5
I0411 15:42:57.051931 27390 net.cpp:122] Setting up pool5
I0411 15:42:57.051936 27390 net.cpp:129] Top shape: 14 256 14 14 (702464)
I0411 15:42:57.051939 27390 net.cpp:137] Memory required for data: 355882128
I0411 15:42:57.051944 27390 layer_factory.hpp:77] Creating layer fire6/squeeze1x1
I0411 15:42:57.051951 27390 net.cpp:84] Creating Layer fire6/squeeze1x1
I0411 15:42:57.051956 27390 net.cpp:406] fire6/squeeze1x1 <- pool5
I0411 15:42:57.051962 27390 net.cpp:380] fire6/squeeze1x1 -> fire6/squeeze1x1
I0411 15:42:57.052204 27390 net.cpp:122] Setting up fire6/squeeze1x1
I0411 15:42:57.052212 27390 net.cpp:129] Top shape: 14 48 14 14 (131712)
I0411 15:42:57.052215 27390 net.cpp:137] Memory required for data: 356408976
I0411 15:42:57.052223 27390 layer_factory.hpp:77] Creating layer fire6/relu_squeeze1x1
I0411 15:42:57.052229 27390 net.cpp:84] Creating Layer fire6/relu_squeeze1x1
I0411 15:42:57.052233 27390 net.cpp:406] fire6/relu_squeeze1x1 <- fire6/squeeze1x1
I0411 15:42:57.052240 27390 net.cpp:367] fire6/relu_squeeze1x1 -> fire6/squeeze1x1 (in-place)
I0411 15:42:57.052248 27390 net.cpp:122] Setting up fire6/relu_squeeze1x1
I0411 15:42:57.052253 27390 net.cpp:129] Top shape: 14 48 14 14 (131712)
I0411 15:42:57.052258 27390 net.cpp:137] Memory required for data: 356935824
I0411 15:42:57.052260 27390 layer_factory.hpp:77] Creating layer fire6/squeeze1x1_fire6/relu_squeeze1x1_0_split
I0411 15:42:57.052268 27390 net.cpp:84] Creating Layer fire6/squeeze1x1_fire6/relu_squeeze1x1_0_split
I0411 15:42:57.052271 27390 net.cpp:406] fire6/squeeze1x1_fire6/relu_squeeze1x1_0_split <- fire6/squeeze1x1
I0411 15:42:57.052278 27390 net.cpp:380] fire6/squeeze1x1_fire6/relu_squeeze1x1_0_split -> fire6/squeeze1x1_fire6/relu_squeeze1x1_0_split_0
I0411 15:42:57.052289 27390 net.cpp:380] fire6/squeeze1x1_fire6/relu_squeeze1x1_0_split -> fire6/squeeze1x1_fire6/relu_squeeze1x1_0_split_1
I0411 15:42:57.052322 27390 net.cpp:122] Setting up fire6/squeeze1x1_fire6/relu_squeeze1x1_0_split
I0411 15:42:57.052336 27390 net.cpp:129] Top shape: 14 48 14 14 (131712)
I0411 15:42:57.052340 27390 net.cpp:129] Top shape: 14 48 14 14 (131712)
I0411 15:42:57.052345 27390 net.cpp:137] Memory required for data: 357989520
I0411 15:42:57.052350 27390 layer_factory.hpp:77] Creating layer fire6/expand1x1
I0411 15:42:57.052358 27390 net.cpp:84] Creating Layer fire6/expand1x1
I0411 15:42:57.052364 27390 net.cpp:406] fire6/expand1x1 <- fire6/squeeze1x1_fire6/relu_squeeze1x1_0_split_0
I0411 15:42:57.052371 27390 net.cpp:380] fire6/expand1x1 -> fire6/expand1x1
I0411 15:42:57.052583 27390 net.cpp:122] Setting up fire6/expand1x1
I0411 15:42:57.052590 27390 net.cpp:129] Top shape: 14 192 14 14 (526848)
I0411 15:42:57.052593 27390 net.cpp:137] Memory required for data: 360096912
I0411 15:42:57.052601 27390 layer_factory.hpp:77] Creating layer fire6/relu_expand1x1
I0411 15:42:57.052606 27390 net.cpp:84] Creating Layer fire6/relu_expand1x1
I0411 15:42:57.052610 27390 net.cpp:406] fire6/relu_expand1x1 <- fire6/expand1x1
I0411 15:42:57.052618 27390 net.cpp:367] fire6/relu_expand1x1 -> fire6/expand1x1 (in-place)
I0411 15:42:57.052624 27390 net.cpp:122] Setting up fire6/relu_expand1x1
I0411 15:42:57.052629 27390 net.cpp:129] Top shape: 14 192 14 14 (526848)
I0411 15:42:57.052633 27390 net.cpp:137] Memory required for data: 362204304
I0411 15:42:57.052635 27390 layer_factory.hpp:77] Creating layer fire6/expand3x3
I0411 15:42:57.052645 27390 net.cpp:84] Creating Layer fire6/expand3x3
I0411 15:42:57.052649 27390 net.cpp:406] fire6/expand3x3 <- fire6/squeeze1x1_fire6/relu_squeeze1x1_0_split_1
I0411 15:42:57.052655 27390 net.cpp:380] fire6/expand3x3 -> fire6/expand3x3
I0411 15:42:57.053242 27390 net.cpp:122] Setting up fire6/expand3x3
I0411 15:42:57.053251 27390 net.cpp:129] Top shape: 14 192 14 14 (526848)
I0411 15:42:57.053253 27390 net.cpp:137] Memory required for data: 364311696
I0411 15:42:57.053261 27390 layer_factory.hpp:77] Creating layer fire6/relu_expand3x3
I0411 15:42:57.053268 27390 net.cpp:84] Creating Layer fire6/relu_expand3x3
I0411 15:42:57.053272 27390 net.cpp:406] fire6/relu_expand3x3 <- fire6/expand3x3
I0411 15:42:57.053279 27390 net.cpp:367] fire6/relu_expand3x3 -> fire6/expand3x3 (in-place)
I0411 15:42:57.053287 27390 net.cpp:122] Setting up fire6/relu_expand3x3
I0411 15:42:57.053292 27390 net.cpp:129] Top shape: 14 192 14 14 (526848)
I0411 15:42:57.053297 27390 net.cpp:137] Memory required for data: 366419088
I0411 15:42:57.053299 27390 layer_factory.hpp:77] Creating layer fire6/concat
I0411 15:42:57.053305 27390 net.cpp:84] Creating Layer fire6/concat
I0411 15:42:57.053309 27390 net.cpp:406] fire6/concat <- fire6/expand1x1
I0411 15:42:57.053314 27390 net.cpp:406] fire6/concat <- fire6/expand3x3
I0411 15:42:57.053320 27390 net.cpp:380] fire6/concat -> fire6/concat
I0411 15:42:57.053342 27390 net.cpp:122] Setting up fire6/concat
I0411 15:42:57.053349 27390 net.cpp:129] Top shape: 14 384 14 14 (1053696)
I0411 15:42:57.053351 27390 net.cpp:137] Memory required for data: 370633872
I0411 15:42:57.053355 27390 layer_factory.hpp:77] Creating layer fire7/squeeze1x1
I0411 15:42:57.053364 27390 net.cpp:84] Creating Layer fire7/squeeze1x1
I0411 15:42:57.053369 27390 net.cpp:406] fire7/squeeze1x1 <- fire6/concat
I0411 15:42:57.053375 27390 net.cpp:380] fire7/squeeze1x1 -> fire7/squeeze1x1
I0411 15:42:57.053634 27390 net.cpp:122] Setting up fire7/squeeze1x1
I0411 15:42:57.053642 27390 net.cpp:129] Top shape: 14 48 14 14 (131712)
I0411 15:42:57.053644 27390 net.cpp:137] Memory required for data: 371160720
I0411 15:42:57.053658 27390 layer_factory.hpp:77] Creating layer fire7/relu_squeeze1x1
I0411 15:42:57.053663 27390 net.cpp:84] Creating Layer fire7/relu_squeeze1x1
I0411 15:42:57.053666 27390 net.cpp:406] fire7/relu_squeeze1x1 <- fire7/squeeze1x1
I0411 15:42:57.053673 27390 net.cpp:367] fire7/relu_squeeze1x1 -> fire7/squeeze1x1 (in-place)
I0411 15:42:57.053679 27390 net.cpp:122] Setting up fire7/relu_squeeze1x1
I0411 15:42:57.053685 27390 net.cpp:129] Top shape: 14 48 14 14 (131712)
I0411 15:42:57.053699 27390 net.cpp:137] Memory required for data: 371687568
I0411 15:42:57.053701 27390 layer_factory.hpp:77] Creating layer fire7/squeeze1x1_fire7/relu_squeeze1x1_0_split
I0411 15:42:57.053709 27390 net.cpp:84] Creating Layer fire7/squeeze1x1_fire7/relu_squeeze1x1_0_split
I0411 15:42:57.053712 27390 net.cpp:406] fire7/squeeze1x1_fire7/relu_squeeze1x1_0_split <- fire7/squeeze1x1
I0411 15:42:57.053719 27390 net.cpp:380] fire7/squeeze1x1_fire7/relu_squeeze1x1_0_split -> fire7/squeeze1x1_fire7/relu_squeeze1x1_0_split_0
I0411 15:42:57.053728 27390 net.cpp:380] fire7/squeeze1x1_fire7/relu_squeeze1x1_0_split -> fire7/squeeze1x1_fire7/relu_squeeze1x1_0_split_1
I0411 15:42:57.053761 27390 net.cpp:122] Setting up fire7/squeeze1x1_fire7/relu_squeeze1x1_0_split
I0411 15:42:57.053768 27390 net.cpp:129] Top shape: 14 48 14 14 (131712)
I0411 15:42:57.053773 27390 net.cpp:129] Top shape: 14 48 14 14 (131712)
I0411 15:42:57.053776 27390 net.cpp:137] Memory required for data: 372741264
I0411 15:42:57.053781 27390 layer_factory.hpp:77] Creating layer fire7/expand1x1
I0411 15:42:57.053791 27390 net.cpp:84] Creating Layer fire7/expand1x1
I0411 15:42:57.053795 27390 net.cpp:406] fire7/expand1x1 <- fire7/squeeze1x1_fire7/relu_squeeze1x1_0_split_0
I0411 15:42:57.053802 27390 net.cpp:380] fire7/expand1x1 -> fire7/expand1x1
I0411 15:42:57.054039 27390 net.cpp:122] Setting up fire7/expand1x1
I0411 15:42:57.054046 27390 net.cpp:129] Top shape: 14 192 14 14 (526848)
I0411 15:42:57.054049 27390 net.cpp:137] Memory required for data: 374848656
I0411 15:42:57.054054 27390 layer_factory.hpp:77] Creating layer fire7/relu_expand1x1
I0411 15:42:57.054057 27390 net.cpp:84] Creating Layer fire7/relu_expand1x1
I0411 15:42:57.054060 27390 net.cpp:406] fire7/relu_expand1x1 <- fire7/expand1x1
I0411 15:42:57.054064 27390 net.cpp:367] fire7/relu_expand1x1 -> fire7/expand1x1 (in-place)
I0411 15:42:57.054069 27390 net.cpp:122] Setting up fire7/relu_expand1x1
I0411 15:42:57.054072 27390 net.cpp:129] Top shape: 14 192 14 14 (526848)
I0411 15:42:57.054075 27390 net.cpp:137] Memory required for data: 376956048
I0411 15:42:57.054076 27390 layer_factory.hpp:77] Creating layer fire7/expand3x3
I0411 15:42:57.054082 27390 net.cpp:84] Creating Layer fire7/expand3x3
I0411 15:42:57.054085 27390 net.cpp:406] fire7/expand3x3 <- fire7/squeeze1x1_fire7/relu_squeeze1x1_0_split_1
I0411 15:42:57.054090 27390 net.cpp:380] fire7/expand3x3 -> fire7/expand3x3
I0411 15:42:57.055234 27390 net.cpp:122] Setting up fire7/expand3x3
I0411 15:42:57.055248 27390 net.cpp:129] Top shape: 14 192 14 14 (526848)
I0411 15:42:57.055251 27390 net.cpp:137] Memory required for data: 379063440
I0411 15:42:57.055258 27390 layer_factory.hpp:77] Creating layer fire7/relu_expand3x3
I0411 15:42:57.055265 27390 net.cpp:84] Creating Layer fire7/relu_expand3x3
I0411 15:42:57.055269 27390 net.cpp:406] fire7/relu_expand3x3 <- fire7/expand3x3
I0411 15:42:57.055274 27390 net.cpp:367] fire7/relu_expand3x3 -> fire7/expand3x3 (in-place)
I0411 15:42:57.055280 27390 net.cpp:122] Setting up fire7/relu_expand3x3
I0411 15:42:57.055284 27390 net.cpp:129] Top shape: 14 192 14 14 (526848)
I0411 15:42:57.055286 27390 net.cpp:137] Memory required for data: 381170832
I0411 15:42:57.055289 27390 layer_factory.hpp:77] Creating layer fire7/concat
I0411 15:42:57.055292 27390 net.cpp:84] Creating Layer fire7/concat
I0411 15:42:57.055295 27390 net.cpp:406] fire7/concat <- fire7/expand1x1
I0411 15:42:57.055299 27390 net.cpp:406] fire7/concat <- fire7/expand3x3
I0411 15:42:57.055302 27390 net.cpp:380] fire7/concat -> fire7/concat
I0411 15:42:57.055325 27390 net.cpp:122] Setting up fire7/concat
I0411 15:42:57.055330 27390 net.cpp:129] Top shape: 14 384 14 14 (1053696)
I0411 15:42:57.055332 27390 net.cpp:137] Memory required for data: 385385616
I0411 15:42:57.055335 27390 layer_factory.hpp:77] Creating layer fire8/squeeze1x1
I0411 15:42:57.055342 27390 net.cpp:84] Creating Layer fire8/squeeze1x1
I0411 15:42:57.055346 27390 net.cpp:406] fire8/squeeze1x1 <- fire7/concat
I0411 15:42:57.055349 27390 net.cpp:380] fire8/squeeze1x1 -> fire8/squeeze1x1
I0411 15:42:57.055646 27390 net.cpp:122] Setting up fire8/squeeze1x1
I0411 15:42:57.055652 27390 net.cpp:129] Top shape: 14 64 14 14 (175616)
I0411 15:42:57.055655 27390 net.cpp:137] Memory required for data: 386088080
I0411 15:42:57.055660 27390 layer_factory.hpp:77] Creating layer fire8/relu_squeeze1x1
I0411 15:42:57.055665 27390 net.cpp:84] Creating Layer fire8/relu_squeeze1x1
I0411 15:42:57.055667 27390 net.cpp:406] fire8/relu_squeeze1x1 <- fire8/squeeze1x1
I0411 15:42:57.055671 27390 net.cpp:367] fire8/relu_squeeze1x1 -> fire8/squeeze1x1 (in-place)
I0411 15:42:57.055675 27390 net.cpp:122] Setting up fire8/relu_squeeze1x1
I0411 15:42:57.055680 27390 net.cpp:129] Top shape: 14 64 14 14 (175616)
I0411 15:42:57.055681 27390 net.cpp:137] Memory required for data: 386790544
I0411 15:42:57.055683 27390 layer_factory.hpp:77] Creating layer fire8/squeeze1x1_fire8/relu_squeeze1x1_0_split
I0411 15:42:57.055688 27390 net.cpp:84] Creating Layer fire8/squeeze1x1_fire8/relu_squeeze1x1_0_split
I0411 15:42:57.055691 27390 net.cpp:406] fire8/squeeze1x1_fire8/relu_squeeze1x1_0_split <- fire8/squeeze1x1
I0411 15:42:57.055694 27390 net.cpp:380] fire8/squeeze1x1_fire8/relu_squeeze1x1_0_split -> fire8/squeeze1x1_fire8/relu_squeeze1x1_0_split_0
I0411 15:42:57.055701 27390 net.cpp:380] fire8/squeeze1x1_fire8/relu_squeeze1x1_0_split -> fire8/squeeze1x1_fire8/relu_squeeze1x1_0_split_1
I0411 15:42:57.055727 27390 net.cpp:122] Setting up fire8/squeeze1x1_fire8/relu_squeeze1x1_0_split
I0411 15:42:57.055732 27390 net.cpp:129] Top shape: 14 64 14 14 (175616)
I0411 15:42:57.055735 27390 net.cpp:129] Top shape: 14 64 14 14 (175616)
I0411 15:42:57.055737 27390 net.cpp:137] Memory required for data: 388195472
I0411 15:42:57.055740 27390 layer_factory.hpp:77] Creating layer fire8/expand1x1
I0411 15:42:57.055747 27390 net.cpp:84] Creating Layer fire8/expand1x1
I0411 15:42:57.055748 27390 net.cpp:406] fire8/expand1x1 <- fire8/squeeze1x1_fire8/relu_squeeze1x1_0_split_0
I0411 15:42:57.055753 27390 net.cpp:380] fire8/expand1x1 -> fire8/expand1x1
I0411 15:42:57.055999 27390 net.cpp:122] Setting up fire8/expand1x1
I0411 15:42:57.056005 27390 net.cpp:129] Top shape: 14 256 14 14 (702464)
I0411 15:42:57.056007 27390 net.cpp:137] Memory required for data: 391005328
I0411 15:42:57.056012 27390 layer_factory.hpp:77] Creating layer fire8/relu_expand1x1
I0411 15:42:57.056016 27390 net.cpp:84] Creating Layer fire8/relu_expand1x1
I0411 15:42:57.056020 27390 net.cpp:406] fire8/relu_expand1x1 <- fire8/expand1x1
I0411 15:42:57.056022 27390 net.cpp:367] fire8/relu_expand1x1 -> fire8/expand1x1 (in-place)
I0411 15:42:57.056027 27390 net.cpp:122] Setting up fire8/relu_expand1x1
I0411 15:42:57.056030 27390 net.cpp:129] Top shape: 14 256 14 14 (702464)
I0411 15:42:57.056032 27390 net.cpp:137] Memory required for data: 393815184
I0411 15:42:57.056035 27390 layer_factory.hpp:77] Creating layer fire8/expand3x3
I0411 15:42:57.056041 27390 net.cpp:84] Creating Layer fire8/expand3x3
I0411 15:42:57.056043 27390 net.cpp:406] fire8/expand3x3 <- fire8/squeeze1x1_fire8/relu_squeeze1x1_0_split_1
I0411 15:42:57.056047 27390 net.cpp:380] fire8/expand3x3 -> fire8/expand3x3
I0411 15:42:57.056900 27390 net.cpp:122] Setting up fire8/expand3x3
I0411 15:42:57.056905 27390 net.cpp:129] Top shape: 14 256 14 14 (702464)
I0411 15:42:57.056907 27390 net.cpp:137] Memory required for data: 396625040
I0411 15:42:57.056912 27390 layer_factory.hpp:77] Creating layer fire8/relu_expand3x3
I0411 15:42:57.056916 27390 net.cpp:84] Creating Layer fire8/relu_expand3x3
I0411 15:42:57.056919 27390 net.cpp:406] fire8/relu_expand3x3 <- fire8/expand3x3
I0411 15:42:57.056923 27390 net.cpp:367] fire8/relu_expand3x3 -> fire8/expand3x3 (in-place)
I0411 15:42:57.056927 27390 net.cpp:122] Setting up fire8/relu_expand3x3
I0411 15:42:57.056931 27390 net.cpp:129] Top shape: 14 256 14 14 (702464)
I0411 15:42:57.056932 27390 net.cpp:137] Memory required for data: 399434896
I0411 15:42:57.056936 27390 layer_factory.hpp:77] Creating layer fire8/concat
I0411 15:42:57.056941 27390 net.cpp:84] Creating Layer fire8/concat
I0411 15:42:57.056975 27390 net.cpp:406] fire8/concat <- fire8/expand1x1
I0411 15:42:57.056979 27390 net.cpp:406] fire8/concat <- fire8/expand3x3
I0411 15:42:57.056983 27390 net.cpp:380] fire8/concat -> fire8/concat
I0411 15:42:57.057006 27390 net.cpp:122] Setting up fire8/concat
I0411 15:42:57.057013 27390 net.cpp:129] Top shape: 14 512 14 14 (1404928)
I0411 15:42:57.057016 27390 net.cpp:137] Memory required for data: 405054608
I0411 15:42:57.057019 27390 layer_factory.hpp:77] Creating layer fire9/squeeze1x1
I0411 15:42:57.057032 27390 net.cpp:84] Creating Layer fire9/squeeze1x1
I0411 15:42:57.057036 27390 net.cpp:406] fire9/squeeze1x1 <- fire8/concat
I0411 15:42:57.057040 27390 net.cpp:380] fire9/squeeze1x1 -> fire9/squeeze1x1
I0411 15:42:57.057389 27390 net.cpp:122] Setting up fire9/squeeze1x1
I0411 15:42:57.057394 27390 net.cpp:129] Top shape: 14 64 14 14 (175616)
I0411 15:42:57.057399 27390 net.cpp:137] Memory required for data: 405757072
I0411 15:42:57.057405 27390 layer_factory.hpp:77] Creating layer fire9/relu_squeeze1x1
I0411 15:42:57.057458 27390 net.cpp:84] Creating Layer fire9/relu_squeeze1x1
I0411 15:42:57.057466 27390 net.cpp:406] fire9/relu_squeeze1x1 <- fire9/squeeze1x1
I0411 15:42:57.057471 27390 net.cpp:367] fire9/relu_squeeze1x1 -> fire9/squeeze1x1 (in-place)
I0411 15:42:57.057476 27390 net.cpp:122] Setting up fire9/relu_squeeze1x1
I0411 15:42:57.057480 27390 net.cpp:129] Top shape: 14 64 14 14 (175616)
I0411 15:42:57.057483 27390 net.cpp:137] Memory required for data: 406459536
I0411 15:42:57.057488 27390 layer_factory.hpp:77] Creating layer fire9/squeeze1x1_fire9/relu_squeeze1x1_0_split
I0411 15:42:57.057495 27390 net.cpp:84] Creating Layer fire9/squeeze1x1_fire9/relu_squeeze1x1_0_split
I0411 15:42:57.057498 27390 net.cpp:406] fire9/squeeze1x1_fire9/relu_squeeze1x1_0_split <- fire9/squeeze1x1
I0411 15:42:57.057502 27390 net.cpp:380] fire9/squeeze1x1_fire9/relu_squeeze1x1_0_split -> fire9/squeeze1x1_fire9/relu_squeeze1x1_0_split_0
I0411 15:42:57.057510 27390 net.cpp:380] fire9/squeeze1x1_fire9/relu_squeeze1x1_0_split -> fire9/squeeze1x1_fire9/relu_squeeze1x1_0_split_1
I0411 15:42:57.057541 27390 net.cpp:122] Setting up fire9/squeeze1x1_fire9/relu_squeeze1x1_0_split
I0411 15:42:57.057546 27390 net.cpp:129] Top shape: 14 64 14 14 (175616)
I0411 15:42:57.057549 27390 net.cpp:129] Top shape: 14 64 14 14 (175616)
I0411 15:42:57.057552 27390 net.cpp:137] Memory required for data: 407864464
I0411 15:42:57.057554 27390 layer_factory.hpp:77] Creating layer fire9/expand1x1
I0411 15:42:57.057564 27390 net.cpp:84] Creating Layer fire9/expand1x1
I0411 15:42:57.057569 27390 net.cpp:406] fire9/expand1x1 <- fire9/squeeze1x1_fire9/relu_squeeze1x1_0_split_0
I0411 15:42:57.057576 27390 net.cpp:380] fire9/expand1x1 -> fire9/expand1x1
I0411 15:42:57.057843 27390 net.cpp:122] Setting up fire9/expand1x1
I0411 15:42:57.057849 27390 net.cpp:129] Top shape: 14 256 14 14 (702464)
I0411 15:42:57.057852 27390 net.cpp:137] Memory required for data: 410674320
I0411 15:42:57.057857 27390 layer_factory.hpp:77] Creating layer fire9/relu_expand1x1
I0411 15:42:57.057862 27390 net.cpp:84] Creating Layer fire9/relu_expand1x1
I0411 15:42:57.057863 27390 net.cpp:406] fire9/relu_expand1x1 <- fire9/expand1x1
I0411 15:42:57.057868 27390 net.cpp:367] fire9/relu_expand1x1 -> fire9/expand1x1 (in-place)
I0411 15:42:57.057873 27390 net.cpp:122] Setting up fire9/relu_expand1x1
I0411 15:42:57.057875 27390 net.cpp:129] Top shape: 14 256 14 14 (702464)
I0411 15:42:57.057878 27390 net.cpp:137] Memory required for data: 413484176
I0411 15:42:57.057880 27390 layer_factory.hpp:77] Creating layer fire9/expand3x3
I0411 15:42:57.057886 27390 net.cpp:84] Creating Layer fire9/expand3x3
I0411 15:42:57.057888 27390 net.cpp:406] fire9/expand3x3 <- fire9/squeeze1x1_fire9/relu_squeeze1x1_0_split_1
I0411 15:42:57.057893 27390 net.cpp:380] fire9/expand3x3 -> fire9/expand3x3
I0411 15:42:57.059476 27390 net.cpp:122] Setting up fire9/expand3x3
I0411 15:42:57.059487 27390 net.cpp:129] Top shape: 14 256 14 14 (702464)
I0411 15:42:57.059490 27390 net.cpp:137] Memory required for data: 416294032
I0411 15:42:57.059507 27390 layer_factory.hpp:77] Creating layer fire9/relu_expand3x3
I0411 15:42:57.059514 27390 net.cpp:84] Creating Layer fire9/relu_expand3x3
I0411 15:42:57.059517 27390 net.cpp:406] fire9/relu_expand3x3 <- fire9/expand3x3
I0411 15:42:57.059522 27390 net.cpp:367] fire9/relu_expand3x3 -> fire9/expand3x3 (in-place)
I0411 15:42:57.059527 27390 net.cpp:122] Setting up fire9/relu_expand3x3
I0411 15:42:57.059531 27390 net.cpp:129] Top shape: 14 256 14 14 (702464)
I0411 15:42:57.059533 27390 net.cpp:137] Memory required for data: 419103888
I0411 15:42:57.059535 27390 layer_factory.hpp:77] Creating layer fire9/concat
I0411 15:42:57.059540 27390 net.cpp:84] Creating Layer fire9/concat
I0411 15:42:57.059541 27390 net.cpp:406] fire9/concat <- fire9/expand1x1
I0411 15:42:57.059545 27390 net.cpp:406] fire9/concat <- fire9/expand3x3
I0411 15:42:57.059550 27390 net.cpp:380] fire9/concat -> fire9/concat
I0411 15:42:57.059571 27390 net.cpp:122] Setting up fire9/concat
I0411 15:42:57.059576 27390 net.cpp:129] Top shape: 14 512 14 14 (1404928)
I0411 15:42:57.059578 27390 net.cpp:137] Memory required for data: 424723600
I0411 15:42:57.059581 27390 layer_factory.hpp:77] Creating layer drop9
I0411 15:42:57.059586 27390 net.cpp:84] Creating Layer drop9
I0411 15:42:57.059587 27390 net.cpp:406] drop9 <- fire9/concat
I0411 15:42:57.059592 27390 net.cpp:367] drop9 -> fire9/concat (in-place)
I0411 15:42:57.059612 27390 net.cpp:122] Setting up drop9
I0411 15:42:57.059617 27390 net.cpp:129] Top shape: 14 512 14 14 (1404928)
I0411 15:42:57.059619 27390 net.cpp:137] Memory required for data: 430343312
I0411 15:42:57.059622 27390 layer_factory.hpp:77] Creating layer conv10
I0411 15:42:57.059628 27390 net.cpp:84] Creating Layer conv10
I0411 15:42:57.059631 27390 net.cpp:406] conv10 <- fire9/concat
I0411 15:42:57.059636 27390 net.cpp:380] conv10 -> conv10
I0411 15:42:57.059849 27390 net.cpp:122] Setting up conv10
I0411 15:42:57.059855 27390 net.cpp:129] Top shape: 14 2 14 14 (5488)
I0411 15:42:57.059859 27390 net.cpp:137] Memory required for data: 430365264
I0411 15:42:57.059862 27390 layer_factory.hpp:77] Creating layer relu_conv10
I0411 15:42:57.059866 27390 net.cpp:84] Creating Layer relu_conv10
I0411 15:42:57.059870 27390 net.cpp:406] relu_conv10 <- conv10
I0411 15:42:57.059873 27390 net.cpp:367] relu_conv10 -> conv10 (in-place)
I0411 15:42:57.059878 27390 net.cpp:122] Setting up relu_conv10
I0411 15:42:57.059881 27390 net.cpp:129] Top shape: 14 2 14 14 (5488)
I0411 15:42:57.059883 27390 net.cpp:137] Memory required for data: 430387216
I0411 15:42:57.059885 27390 layer_factory.hpp:77] Creating layer pool10
I0411 15:42:57.059890 27390 net.cpp:84] Creating Layer pool10
I0411 15:42:57.059892 27390 net.cpp:406] pool10 <- conv10
I0411 15:42:57.059897 27390 net.cpp:380] pool10 -> pool10
I0411 15:42:57.059916 27390 net.cpp:122] Setting up pool10
I0411 15:42:57.059921 27390 net.cpp:129] Top shape: 14 2 1 1 (28)
I0411 15:42:57.059923 27390 net.cpp:137] Memory required for data: 430387328
I0411 15:42:57.059926 27390 layer_factory.hpp:77] Creating layer pool10_pool10_0_split
I0411 15:42:57.059931 27390 net.cpp:84] Creating Layer pool10_pool10_0_split
I0411 15:42:57.059932 27390 net.cpp:406] pool10_pool10_0_split <- pool10
I0411 15:42:57.059938 27390 net.cpp:380] pool10_pool10_0_split -> pool10_pool10_0_split_0
I0411 15:42:57.059947 27390 net.cpp:380] pool10_pool10_0_split -> pool10_pool10_0_split_1
I0411 15:42:57.059973 27390 net.cpp:122] Setting up pool10_pool10_0_split
I0411 15:42:57.059976 27390 net.cpp:129] Top shape: 14 2 1 1 (28)
I0411 15:42:57.059979 27390 net.cpp:129] Top shape: 14 2 1 1 (28)
I0411 15:42:57.059981 27390 net.cpp:137] Memory required for data: 430387552
I0411 15:42:57.059983 27390 layer_factory.hpp:77] Creating layer loss
I0411 15:42:57.059988 27390 net.cpp:84] Creating Layer loss
I0411 15:42:57.059991 27390 net.cpp:406] loss <- pool10_pool10_0_split_0
I0411 15:42:57.059994 27390 net.cpp:406] loss <- label_data_1_split_0
I0411 15:42:57.060000 27390 net.cpp:380] loss -> loss
…
