…
I0617 20:30:44.595449 32303 net.cpp:51] Initializing net from parameters: 
state {
  phase: TRAIN
  level: 0
  stage: ""
}
layer {
  name: "data"
  type: "ImageData"
  top: "data"
  top: "label"
  include {
    phase: TRAIN
  }
  transform_param {
    mirror: true
    crop_size: 227
    mean_file: "nsfwnet2_mean.binaryproto"
  }
  image_data_param {
    source: "/home/dbicho/Documents/datasets/all_labeled_dataset_augmented_finetuning/train.txt"
    batch_size: 14
    shuffle: true
    root_folder: "/home/dbicho/Documents/datasets/all_labeled_dataset_augmented_finetuning/"
  }
}
layer {
  name: "conv1"
  type: "Convolution"
  bottom: "data"
  top: "conv1"
  convolution_param {
    num_output: 64
    kernel_size: 3
    stride: 2
    weight_filler {
      type: "xavier"
    }
  }
}
layer {
  name: "relu_conv1"
  type: "ReLU"
  bottom: "conv1"
  top: "conv1"
}
layer {
  name: "pool1"
  type: "Pooling"
  bottom: "conv1"
  top: "pool1"
  pooling_param {
    pool: MAX
    kernel_size: 3
    stride: 2
  }
}
layer {
  name: "fire2/squeeze1x1"
  type: "Convolution"
  bottom: "pool1"
  top: "fire2/squeeze1x1"
  convolution_param {
    num_output: 16
    kernel_size: 1
    weight_filler {
      type: "xavier"
    }
  }
}
layer {
  name: "fire2/relu_squeeze1x1"
  type: "ReLU"
  bottom: "fire2/squeeze1x1"
  top: "fire2/squeeze1x1"
}
layer {
  name: "fire2/expand1x1"
  type: "Convolution"
  bottom: "fire2/squeeze1x1"
  top: "fire2/expand1x1"
  convolution_param {
    num_output: 64
    kernel_size: 1
    weight_filler {
      type: "xavier"
    }
  }
}
layer {
  name: "fire2/relu_expand1x1"
  type: "ReLU"
  bottom: "fire2/expand1x1"
  top: "fire2/expand1x1"
}
layer {
  name: "fire2/expand3x3"
  type: "Convolution"
  bottom: "fire2/squeeze1x1"
  top: "fire2/expand3x3"
  convolution_param {
    num_output: 64
    pad: 1
    kernel_size: 3
    weight_filler {
      type: "xavier"
    }
  }
}
layer {
  name: "fire2/relu_expand3x3"
  type: "ReLU"
  bottom: "fire2/expand3x3"
  top: "fire2/expand3x3"
}
layer {
  name: "fire2/concat"
  type: "Concat"
  bottom: "fire2/expand1x1"
  bottom: "fire2/expand3x3"
  top: "fire2/concat"
}
layer {
  name: "fire3/squeeze1x1"
  type: "Convolution"
  bottom: "fire2/concat"
  top: "fire3/squeeze1x1"
  convolution_param {
    num_output: 16
    kernel_size: 1
    weight_filler {
      type: "xavier"
    }
  }
}
layer {
  name: "fire3/relu_squeeze1x1"
  type: "ReLU"
  bottom: "fire3/squeeze1x1"
  top: "fire3/squeeze1x1"
}
layer {
  name: "fire3/expand1x1"
  type: "Convolution"
  bottom: "fire3/squeeze1x1"
  top: "fire3/expand1x1"
  convolution_param {
    num_output: 64
    kernel_size: 1
    weight_filler {
      type: "xavier"
    }
  }
}
layer {
  name: "fire3/relu_expand1x1"
  type: "ReLU"
  bottom: "fire3/expand1x1"
  top: "fire3/expand1x1"
}
layer {
  name: "fire3/expand3x3"
  type: "Convolution"
  bottom: "fire3/squeeze1x1"
  top: "fire3/expand3x3"
  convolution_param {
    num_output: 64
    pad: 1
    kernel_size: 3
    weight_filler {
      type: "xavier"
    }
  }
}
layer {
  name: "fire3/relu_expand3x3"
  type: "ReLU"
  bottom: "fire3/expand3x3"
  top: "fire3/expand3x3"
}
layer {
  name: "fire3/concat"
  type: "Concat"
  bottom: "fire3/expand1x1"
  bottom: "fire3/expand3x3"
  top: "fire3/concat"
}
layer {
  name: "pool3"
  type: "Pooling"
  bottom: "fire3/concat"
  top: "pool3"
  pooling_param {
    pool: MAX
    kernel_size: 3
    stride: 2
  }
}
layer {
  name: "fire4/squeeze1x1"
  type: "Convolution"
  bottom: "pool3"
  top: "fire4/squeeze1x1"
  convolution_param {
    num_output: 32
    kernel_size: 1
    weight_filler {
      type: "xavier"
    }
  }
}
layer {
  name: "fire4/relu_squeeze1x1"
  type: "ReLU"
  bottom: "fire4/squeeze1x1"
  top: "fire4/squeeze1x1"
}
layer {
  name: "fire4/expand1x1"
  type: "Convolution"
  bottom: "fire4/squeeze1x1"
  top: "fire4/expand1x1"
  convolution_param {
    num_output: 128
    kernel_size: 1
    weight_filler {
      type: "xavier"
    }
  }
}
layer {
  name: "fire4/relu_expand1x1"
  type: "ReLU"
  bottom: "fire4/expand1x1"
  top: "fire4/expand1x1"
}
layer {
  name: "fire4/expand3x3"
  type: "Convolution"
  bottom: "fire4/squeeze1x1"
  top: "fire4/expand3x3"
  convolution_param {
    num_output: 128
    pad: 1
    kernel_size: 3
    weight_filler {
      type: "xavier"
    }
  }
}
layer {
  name: "fire4/relu_expand3x3"
  type: "ReLU"
  bottom: "fire4/expand3x3"
  top: "fire4/expand3x3"
}
layer {
  name: "fire4/concat"
  type: "Concat"
  bottom: "fire4/expand1x1"
  bottom: "fire4/expand3x3"
  top: "fire4/concat"
}
layer {
  name: "fire5/squeeze1x1"
  type: "Convolution"
  bottom: "fire4/concat"
  top: "fire5/squeeze1x1"
  convolution_param {
    num_output: 32
    kernel_size: 1
    weight_filler {
      type: "xavier"
    }
  }
}
layer {
  name: "fire5/relu_squeeze1x1"
  type: "ReLU"
  bottom: "fire5/squeeze1x1"
  top: "fire5/squeeze1x1"
}
layer {
  name: "fire5/expand1x1"
  type: "Convolution"
  bottom: "fire5/squeeze1x1"
  top: "fire5/expand1x1"
  convolution_param {
    num_output: 128
    kernel_size: 1
    weight_filler {
      type: "xavier"
    }
  }
}
layer {
  name: "fire5/relu_expand1x1"
  type: "ReLU"
  bottom: "fire5/expand1x1"
  top: "fire5/expand1x1"
}
layer {
  name: "fire5/expand3x3"
  type: "Convolution"
  bottom: "fire5/squeeze1x1"
  top: "fire5/expand3x3"
  convolution_param {
    num_output: 128
    pad: 1
    kernel_size: 3
    weight_filler {
      type: "xavier"
    }
  }
}
layer {
  name: "fire5/relu_expand3x3"
  type: "ReLU"
  bottom: "fire5/expand3x3"
  top: "fire5/expand3x3"
}
layer {
  name: "fire5/concat"
  type: "Concat"
  bottom: "fire5/expand1x1"
  bottom: "fire5/expand3x3"
  top: "fire5/concat"
}
layer {
  name: "pool5"
  type: "Pooling"
  bottom: "fire5/concat"
  top: "pool5"
  pooling_param {
    pool: MAX
    kernel_size: 3
    stride: 2
  }
}
layer {
  name: "fire6/squeeze1x1"
  type: "Convolution"
  bottom: "pool5"
  top: "fire6/squeeze1x1"
  convolution_param {
    num_output: 48
    kernel_size: 1
    weight_filler {
      type: "xavier"
    }
  }
}
layer {
  name: "fire6/relu_squeeze1x1"
  type: "ReLU"
  bottom: "fire6/squeeze1x1"
  top: "fire6/squeeze1x1"
}
layer {
  name: "fire6/expand1x1"
  type: "Convolution"
  bottom: "fire6/squeeze1x1"
  top: "fire6/expand1x1"
  convolution_param {
    num_output: 192
    kernel_size: 1
    weight_filler {
      type: "xavier"
    }
  }
}
layer {
  name: "fire6/relu_expand1x1"
  type: "ReLU"
  bottom: "fire6/expand1x1"
  top: "fire6/expand1x1"
}
layer {
  name: "fire6/expand3x3"
  type: "Convolution"
  bottom: "fire6/squeeze1x1"
  top: "fire6/expand3x3"
  convolution_param {
    num_output: 192
    pad: 1
    kernel_size: 3
    weight_filler {
      type: "xavier"
    }
  }
}
layer {
  name: "fire6/relu_expand3x3"
  type: "ReLU"
  bottom: "fire6/expand3x3"
  top: "fire6/expand3x3"
}
layer {
  name: "fire6/concat"
  type: "Concat"
  bottom: "fire6/expand1x1"
  bottom: "fire6/expand3x3"
  top: "fire6/concat"
}
layer {
  name: "fire7/squeeze1x1"
  type: "Convolution"
  bottom: "fire6/concat"
  top: "fire7/squeeze1x1"
  convolution_param {
    num_output: 48
    kernel_size: 1
    weight_filler {
      type: "xavier"
    }
  }
}
layer {
  name: "fire7/relu_squeeze1x1"
  type: "ReLU"
  bottom: "fire7/squeeze1x1"
  top: "fire7/squeeze1x1"
}
layer {
  name: "fire7/expand1x1"
  type: "Convolution"
  bottom: "fire7/squeeze1x1"
  top: "fire7/expand1x1"
  convolution_param {
    num_output: 192
    kernel_size: 1
    weight_filler {
      type: "xavier"
    }
  }
}
layer {
  name: "fire7/relu_expand1x1"
  type: "ReLU"
  bottom: "fire7/expand1x1"
  top: "fire7/expand1x1"
}
layer {
  name: "fire7/expand3x3"
  type: "Convolution"
  bottom: "fire7/squeeze1x1"
  top: "fire7/expand3x3"
  convolution_param {
    num_output: 192
    pad: 1
    kernel_size: 3
    weight_filler {
      type: "xavier"
    }
  }
}
layer {
  name: "fire7/relu_expand3x3"
  type: "ReLU"
  bottom: "fire7/expand3x3"
  top: "fire7/expand3x3"
}
layer {
  name: "fire7/concat"
  type: "Concat"
  bottom: "fire7/expand1x1"
  bottom: "fire7/expand3x3"
  top: "fire7/concat"
}
layer {
  name: "fire8/squeeze1x1"
  type: "Convolution"
  bottom: "fire7/concat"
  top: "fire8/squeeze1x1"
  convolution_param {
    num_output: 64
    kernel_size: 1
    weight_filler {
      type: "xavier"
    }
  }
}
layer {
  name: "fire8/relu_squeeze1x1"
  type: "ReLU"
  bottom: "fire8/squeeze1x1"
  top: "fire8/squeeze1x1"
}
layer {
  name: "fire8/expand1x1"
  type: "Convolution"
  bottom: "fire8/squeeze1x1"
  top: "fire8/expand1x1"
  convolution_param {
    num_output: 256
    kernel_size: 1
    weight_filler {
      type: "xavier"
    }
  }
}
layer {
  name: "fire8/relu_expand1x1"
  type: "ReLU"
  bottom: "fire8/expand1x1"
  top: "fire8/expand1x1"
}
layer {
  name: "fire8/expand3x3"
  type: "Convolution"
  bottom: "fire8/squeeze1x1"
  top: "fire8/expand3x3"
  convolution_param {
    num_output: 256
    pad: 1
    kernel_size: 3
    weight_filler {
      type: "xavier"
    }
  }
}
layer {
  name: "fire8/relu_expand3x3"
  type: "ReLU"
  bottom: "fire8/expand3x3"
  top: "fire8/expand3x3"
}
layer {
  name: "fire8/concat"
  type: "Concat"
  bottom: "fire8/expand1x1"
  bottom: "fire8/expand3x3"
  top: "fire8/concat"
}
layer {
  name: "fire9/squeeze1x1"
  type: "Convolution"
  bottom: "fire8/concat"
  top: "fire9/squeeze1x1"
  convolution_param {
    num_output: 64
    kernel_size: 1
    weight_filler {
      type: "xavier"
    }
  }
}
layer {
  name: "fire9/relu_squeeze1x1"
  type: "ReLU"
  bottom: "fire9/squeeze1x1"
  top: "fire9/squeeze1x1"
}
layer {
  name: "fire9/expand1x1"
  type: "Convolution"
  bottom: "fire9/squeeze1x1"
  top: "fire9/expand1x1"
  convolution_param {
    num_output: 256
    kernel_size: 1
    weight_filler {
      type: "xavier"
    }
  }
}
layer {
  name: "fire9/relu_expand1x1"
  type: "ReLU"
  bottom: "fire9/expand1x1"
  top: "fire9/expand1x1"
}
layer {
  name: "fire9/expand3x3"
  type: "Convolution"
  bottom: "fire9/squeeze1x1"
  top: "fire9/expand3x3"
  convolution_param {
    num_output: 256
    pad: 1
    kernel_size: 3
    weight_filler {
      type: "xavier"
    }
  }
}
layer {
  name: "fire9/relu_expand3x3"
  type: "ReLU"
  bottom: "fire9/expand3x3"
  top: "fire9/expand3x3"
}
layer {
  name: "fire9/concat"
  type: "Concat"
  bottom: "fire9/expand1x1"
  bottom: "fire9/expand3x3"
  top: "fire9/concat"
}
layer {
  name: "drop9"
  type: "Dropout"
  bottom: "fire9/concat"
  top: "fire9/concat"
  dropout_param {
    dropout_ratio: 0.5
  }
}
layer {
  name: "conv10"
  type: "Convolution"
  bottom: "fire9/concat"
  top: "conv10"
  convolution_param {
    num_output: 2
    kernel_size: 1
    weight_filler {
      type: "gaussian"
      mean: 0
      std: 0.01
    }
  }
}
layer {
  name: "relu_conv10"
  type: "ReLU"
  bottom: "conv10"
  top: "conv10"
}
layer {
  name: "pool10"
  type: "Pooling"
  bottom: "conv10"
  top: "pool10"
  pooling_param {
    pool: AVE
    global_pooling: true
  }
}
layer {
  name: "loss"
  type: "SoftmaxWithLoss"
  bottom: "pool10"
  bottom: "label"
  top: "loss"
}
layer {
  name: "accuracy"
  type: "Accuracy"
  bottom: "pool10"
  bottom: "label"
  top: "accuracy"
}
I0617 20:30:44.622203 32303 layer_factory.hpp:77] Creating layer data
I0617 20:30:44.622241 32303 net.cpp:84] Creating Layer data
I0617 20:30:44.622249 32303 net.cpp:380] data -> data
I0617 20:30:44.622270 32303 net.cpp:380] data -> label
I0617 20:30:44.622282 32303 data_transformer.cpp:25] Loading mean file from: nsfwnet2_mean.binaryproto
I0617 20:30:44.752046 32303 image_data_layer.cpp:38] Opening file /home/dbicho/Documents/datasets/all_labeled_dataset_augmented_finetuning/train.txt
I0617 20:30:44.762272 32303 image_data_layer.cpp:53] Shuffling data
I0617 20:30:44.766674 32303 image_data_layer.cpp:63] A total of 19955 images.
I0617 20:30:44.767297 32303 image_data_layer.cpp:90] output data size: 14,3,227,227
I0617 20:30:44.783401 32303 net.cpp:122] Setting up data
I0617 20:30:44.783434 32303 net.cpp:129] Top shape: 14 3 227 227 (2164218)
I0617 20:30:44.783439 32303 net.cpp:129] Top shape: 14 (14)
I0617 20:30:44.783442 32303 net.cpp:137] Memory required for data: 8656928
I0617 20:30:44.783448 32303 layer_factory.hpp:77] Creating layer label_data_1_split
I0617 20:30:44.783460 32303 net.cpp:84] Creating Layer label_data_1_split
I0617 20:30:44.783465 32303 net.cpp:406] label_data_1_split <- label
I0617 20:30:44.783478 32303 net.cpp:380] label_data_1_split -> label_data_1_split_0
I0617 20:30:44.783488 32303 net.cpp:380] label_data_1_split -> label_data_1_split_1
I0617 20:30:44.783541 32303 net.cpp:122] Setting up label_data_1_split
I0617 20:30:44.783550 32303 net.cpp:129] Top shape: 14 (14)
I0617 20:30:44.783552 32303 net.cpp:129] Top shape: 14 (14)
I0617 20:30:44.783555 32303 net.cpp:137] Memory required for data: 8657040
I0617 20:30:44.783557 32303 layer_factory.hpp:77] Creating layer conv1
I0617 20:30:44.783571 32303 net.cpp:84] Creating Layer conv1
I0617 20:30:44.783576 32303 net.cpp:406] conv1 <- data
I0617 20:30:44.783581 32303 net.cpp:380] conv1 -> conv1
I0617 20:30:44.785007 32303 net.cpp:122] Setting up conv1
I0617 20:30:44.785020 32303 net.cpp:129] Top shape: 14 64 113 113 (11441024)
I0617 20:30:44.785023 32303 net.cpp:137] Memory required for data: 54421136
I0617 20:30:44.785044 32303 layer_factory.hpp:77] Creating layer relu_conv1
I0617 20:30:44.785053 32303 net.cpp:84] Creating Layer relu_conv1
I0617 20:30:44.785056 32303 net.cpp:406] relu_conv1 <- conv1
I0617 20:30:44.785061 32303 net.cpp:367] relu_conv1 -> conv1 (in-place)
I0617 20:30:44.785068 32303 net.cpp:122] Setting up relu_conv1
I0617 20:30:44.785073 32303 net.cpp:129] Top shape: 14 64 113 113 (11441024)
I0617 20:30:44.785075 32303 net.cpp:137] Memory required for data: 100185232
I0617 20:30:44.785079 32303 layer_factory.hpp:77] Creating layer pool1
I0617 20:30:44.785085 32303 net.cpp:84] Creating Layer pool1
I0617 20:30:44.785089 32303 net.cpp:406] pool1 <- conv1
I0617 20:30:44.785094 32303 net.cpp:380] pool1 -> pool1
I0617 20:30:44.785858 32303 net.cpp:122] Setting up pool1
I0617 20:30:44.785871 32303 net.cpp:129] Top shape: 14 64 56 56 (2809856)
I0617 20:30:44.785876 32303 net.cpp:137] Memory required for data: 111424656
I0617 20:30:44.785881 32303 layer_factory.hpp:77] Creating layer fire2/squeeze1x1
I0617 20:30:44.785892 32303 net.cpp:84] Creating Layer fire2/squeeze1x1
I0617 20:30:44.785899 32303 net.cpp:406] fire2/squeeze1x1 <- pool1
I0617 20:30:44.785908 32303 net.cpp:380] fire2/squeeze1x1 -> fire2/squeeze1x1
I0617 20:30:44.786645 32303 net.cpp:122] Setting up fire2/squeeze1x1
I0617 20:30:44.786658 32303 net.cpp:129] Top shape: 14 16 56 56 (702464)
I0617 20:30:44.786660 32303 net.cpp:137] Memory required for data: 114234512
I0617 20:30:44.786669 32303 layer_factory.hpp:77] Creating layer fire2/relu_squeeze1x1
I0617 20:30:44.786675 32303 net.cpp:84] Creating Layer fire2/relu_squeeze1x1
I0617 20:30:44.786679 32303 net.cpp:406] fire2/relu_squeeze1x1 <- fire2/squeeze1x1
I0617 20:30:44.786684 32303 net.cpp:367] fire2/relu_squeeze1x1 -> fire2/squeeze1x1 (in-place)
I0617 20:30:44.786690 32303 net.cpp:122] Setting up fire2/relu_squeeze1x1
I0617 20:30:44.786697 32303 net.cpp:129] Top shape: 14 16 56 56 (702464)
I0617 20:30:44.786700 32303 net.cpp:137] Memory required for data: 117044368
I0617 20:30:44.786702 32303 layer_factory.hpp:77] Creating layer fire2/squeeze1x1_fire2/relu_squeeze1x1_0_split
I0617 20:30:44.786707 32303 net.cpp:84] Creating Layer fire2/squeeze1x1_fire2/relu_squeeze1x1_0_split
I0617 20:30:44.786710 32303 net.cpp:406] fire2/squeeze1x1_fire2/relu_squeeze1x1_0_split <- fire2/squeeze1x1
I0617 20:30:44.786715 32303 net.cpp:380] fire2/squeeze1x1_fire2/relu_squeeze1x1_0_split -> fire2/squeeze1x1_fire2/relu_squeeze1x1_0_split_0
I0617 20:30:44.786736 32303 net.cpp:380] fire2/squeeze1x1_fire2/relu_squeeze1x1_0_split -> fire2/squeeze1x1_fire2/relu_squeeze1x1_0_split_1
I0617 20:30:44.786769 32303 net.cpp:122] Setting up fire2/squeeze1x1_fire2/relu_squeeze1x1_0_split
I0617 20:30:44.786775 32303 net.cpp:129] Top shape: 14 16 56 56 (702464)
I0617 20:30:44.786779 32303 net.cpp:129] Top shape: 14 16 56 56 (702464)
I0617 20:30:44.786782 32303 net.cpp:137] Memory required for data: 122664080
I0617 20:30:44.786783 32303 layer_factory.hpp:77] Creating layer fire2/expand1x1
I0617 20:30:44.786792 32303 net.cpp:84] Creating Layer fire2/expand1x1
I0617 20:30:44.786795 32303 net.cpp:406] fire2/expand1x1 <- fire2/squeeze1x1_fire2/relu_squeeze1x1_0_split_0
I0617 20:30:44.786800 32303 net.cpp:380] fire2/expand1x1 -> fire2/expand1x1
I0617 20:30:44.787000 32303 net.cpp:122] Setting up fire2/expand1x1
I0617 20:30:44.787010 32303 net.cpp:129] Top shape: 14 64 56 56 (2809856)
I0617 20:30:44.787014 32303 net.cpp:137] Memory required for data: 133903504
I0617 20:30:44.787024 32303 layer_factory.hpp:77] Creating layer fire2/relu_expand1x1
I0617 20:30:44.787029 32303 net.cpp:84] Creating Layer fire2/relu_expand1x1
I0617 20:30:44.787032 32303 net.cpp:406] fire2/relu_expand1x1 <- fire2/expand1x1
I0617 20:30:44.787039 32303 net.cpp:367] fire2/relu_expand1x1 -> fire2/expand1x1 (in-place)
I0617 20:30:44.787045 32303 net.cpp:122] Setting up fire2/relu_expand1x1
I0617 20:30:44.787052 32303 net.cpp:129] Top shape: 14 64 56 56 (2809856)
I0617 20:30:44.787055 32303 net.cpp:137] Memory required for data: 145142928
I0617 20:30:44.787060 32303 layer_factory.hpp:77] Creating layer fire2/expand3x3
I0617 20:30:44.787068 32303 net.cpp:84] Creating Layer fire2/expand3x3
I0617 20:30:44.787073 32303 net.cpp:406] fire2/expand3x3 <- fire2/squeeze1x1_fire2/relu_squeeze1x1_0_split_1
I0617 20:30:44.787080 32303 net.cpp:380] fire2/expand3x3 -> fire2/expand3x3
I0617 20:30:44.787400 32303 net.cpp:122] Setting up fire2/expand3x3
I0617 20:30:44.787410 32303 net.cpp:129] Top shape: 14 64 56 56 (2809856)
I0617 20:30:44.787411 32303 net.cpp:137] Memory required for data: 156382352
I0617 20:30:44.787417 32303 layer_factory.hpp:77] Creating layer fire2/relu_expand3x3
I0617 20:30:44.787423 32303 net.cpp:84] Creating Layer fire2/relu_expand3x3
I0617 20:30:44.787425 32303 net.cpp:406] fire2/relu_expand3x3 <- fire2/expand3x3
I0617 20:30:44.787431 32303 net.cpp:367] fire2/relu_expand3x3 -> fire2/expand3x3 (in-place)
I0617 20:30:44.787436 32303 net.cpp:122] Setting up fire2/relu_expand3x3
I0617 20:30:44.787439 32303 net.cpp:129] Top shape: 14 64 56 56 (2809856)
I0617 20:30:44.787442 32303 net.cpp:137] Memory required for data: 167621776
I0617 20:30:44.787444 32303 layer_factory.hpp:77] Creating layer fire2/concat
I0617 20:30:44.787449 32303 net.cpp:84] Creating Layer fire2/concat
I0617 20:30:44.787451 32303 net.cpp:406] fire2/concat <- fire2/expand1x1
I0617 20:30:44.787456 32303 net.cpp:406] fire2/concat <- fire2/expand3x3
I0617 20:30:44.787459 32303 net.cpp:380] fire2/concat -> fire2/concat
I0617 20:30:44.787478 32303 net.cpp:122] Setting up fire2/concat
I0617 20:30:44.787483 32303 net.cpp:129] Top shape: 14 128 56 56 (5619712)
I0617 20:30:44.787487 32303 net.cpp:137] Memory required for data: 190100624
I0617 20:30:44.787488 32303 layer_factory.hpp:77] Creating layer fire3/squeeze1x1
I0617 20:30:44.787495 32303 net.cpp:84] Creating Layer fire3/squeeze1x1
I0617 20:30:44.787498 32303 net.cpp:406] fire3/squeeze1x1 <- fire2/concat
I0617 20:30:44.787503 32303 net.cpp:380] fire3/squeeze1x1 -> fire3/squeeze1x1
I0617 20:30:44.787691 32303 net.cpp:122] Setting up fire3/squeeze1x1
I0617 20:30:44.787698 32303 net.cpp:129] Top shape: 14 16 56 56 (702464)
I0617 20:30:44.787699 32303 net.cpp:137] Memory required for data: 192910480
I0617 20:30:44.787708 32303 layer_factory.hpp:77] Creating layer fire3/relu_squeeze1x1
I0617 20:30:44.787712 32303 net.cpp:84] Creating Layer fire3/relu_squeeze1x1
I0617 20:30:44.787715 32303 net.cpp:406] fire3/relu_squeeze1x1 <- fire3/squeeze1x1
I0617 20:30:44.787731 32303 net.cpp:367] fire3/relu_squeeze1x1 -> fire3/squeeze1x1 (in-place)
I0617 20:30:44.787736 32303 net.cpp:122] Setting up fire3/relu_squeeze1x1
I0617 20:30:44.787740 32303 net.cpp:129] Top shape: 14 16 56 56 (702464)
I0617 20:30:44.787742 32303 net.cpp:137] Memory required for data: 195720336
I0617 20:30:44.787745 32303 layer_factory.hpp:77] Creating layer fire3/squeeze1x1_fire3/relu_squeeze1x1_0_split
I0617 20:30:44.787750 32303 net.cpp:84] Creating Layer fire3/squeeze1x1_fire3/relu_squeeze1x1_0_split
I0617 20:30:44.787753 32303 net.cpp:406] fire3/squeeze1x1_fire3/relu_squeeze1x1_0_split <- fire3/squeeze1x1
I0617 20:30:44.787757 32303 net.cpp:380] fire3/squeeze1x1_fire3/relu_squeeze1x1_0_split -> fire3/squeeze1x1_fire3/relu_squeeze1x1_0_split_0
I0617 20:30:44.787765 32303 net.cpp:380] fire3/squeeze1x1_fire3/relu_squeeze1x1_0_split -> fire3/squeeze1x1_fire3/relu_squeeze1x1_0_split_1
I0617 20:30:44.787793 32303 net.cpp:122] Setting up fire3/squeeze1x1_fire3/relu_squeeze1x1_0_split
I0617 20:30:44.787799 32303 net.cpp:129] Top shape: 14 16 56 56 (702464)
I0617 20:30:44.787802 32303 net.cpp:129] Top shape: 14 16 56 56 (702464)
I0617 20:30:44.787806 32303 net.cpp:137] Memory required for data: 201340048
I0617 20:30:44.787807 32303 layer_factory.hpp:77] Creating layer fire3/expand1x1
I0617 20:30:44.787817 32303 net.cpp:84] Creating Layer fire3/expand1x1
I0617 20:30:44.787820 32303 net.cpp:406] fire3/expand1x1 <- fire3/squeeze1x1_fire3/relu_squeeze1x1_0_split_0
I0617 20:30:44.787825 32303 net.cpp:380] fire3/expand1x1 -> fire3/expand1x1
I0617 20:30:44.788010 32303 net.cpp:122] Setting up fire3/expand1x1
I0617 20:30:44.788017 32303 net.cpp:129] Top shape: 14 64 56 56 (2809856)
I0617 20:30:44.788018 32303 net.cpp:137] Memory required for data: 212579472
I0617 20:30:44.788023 32303 layer_factory.hpp:77] Creating layer fire3/relu_expand1x1
I0617 20:30:44.788028 32303 net.cpp:84] Creating Layer fire3/relu_expand1x1
I0617 20:30:44.788031 32303 net.cpp:406] fire3/relu_expand1x1 <- fire3/expand1x1
I0617 20:30:44.788036 32303 net.cpp:367] fire3/relu_expand1x1 -> fire3/expand1x1 (in-place)
I0617 20:30:44.788040 32303 net.cpp:122] Setting up fire3/relu_expand1x1
I0617 20:30:44.788044 32303 net.cpp:129] Top shape: 14 64 56 56 (2809856)
I0617 20:30:44.788046 32303 net.cpp:137] Memory required for data: 223818896
I0617 20:30:44.788049 32303 layer_factory.hpp:77] Creating layer fire3/expand3x3
I0617 20:30:44.788055 32303 net.cpp:84] Creating Layer fire3/expand3x3
I0617 20:30:44.788058 32303 net.cpp:406] fire3/expand3x3 <- fire3/squeeze1x1_fire3/relu_squeeze1x1_0_split_1
I0617 20:30:44.788064 32303 net.cpp:380] fire3/expand3x3 -> fire3/expand3x3
I0617 20:30:44.788292 32303 net.cpp:122] Setting up fire3/expand3x3
I0617 20:30:44.788300 32303 net.cpp:129] Top shape: 14 64 56 56 (2809856)
I0617 20:30:44.788301 32303 net.cpp:137] Memory required for data: 235058320
I0617 20:30:44.788306 32303 layer_factory.hpp:77] Creating layer fire3/relu_expand3x3
I0617 20:30:44.788311 32303 net.cpp:84] Creating Layer fire3/relu_expand3x3
I0617 20:30:44.788313 32303 net.cpp:406] fire3/relu_expand3x3 <- fire3/expand3x3
I0617 20:30:44.788317 32303 net.cpp:367] fire3/relu_expand3x3 -> fire3/expand3x3 (in-place)
I0617 20:30:44.788322 32303 net.cpp:122] Setting up fire3/relu_expand3x3
I0617 20:30:44.788326 32303 net.cpp:129] Top shape: 14 64 56 56 (2809856)
I0617 20:30:44.788327 32303 net.cpp:137] Memory required for data: 246297744
I0617 20:30:44.788331 32303 layer_factory.hpp:77] Creating layer fire3/concat
I0617 20:30:44.788334 32303 net.cpp:84] Creating Layer fire3/concat
I0617 20:30:44.788336 32303 net.cpp:406] fire3/concat <- fire3/expand1x1
I0617 20:30:44.788341 32303 net.cpp:406] fire3/concat <- fire3/expand3x3
I0617 20:30:44.788344 32303 net.cpp:380] fire3/concat -> fire3/concat
I0617 20:30:44.788362 32303 net.cpp:122] Setting up fire3/concat
I0617 20:30:44.788367 32303 net.cpp:129] Top shape: 14 128 56 56 (5619712)
I0617 20:30:44.788369 32303 net.cpp:137] Memory required for data: 268776592
I0617 20:30:44.788380 32303 layer_factory.hpp:77] Creating layer pool3
I0617 20:30:44.788384 32303 net.cpp:84] Creating Layer pool3
I0617 20:30:44.788388 32303 net.cpp:406] pool3 <- fire3/concat
I0617 20:30:44.788393 32303 net.cpp:380] pool3 -> pool3
I0617 20:30:44.788425 32303 net.cpp:122] Setting up pool3
I0617 20:30:44.788435 32303 net.cpp:129] Top shape: 14 128 28 28 (1404928)
I0617 20:30:44.788439 32303 net.cpp:137] Memory required for data: 274396304
I0617 20:30:44.788444 32303 layer_factory.hpp:77] Creating layer fire4/squeeze1x1
I0617 20:30:44.788452 32303 net.cpp:84] Creating Layer fire4/squeeze1x1
I0617 20:30:44.788456 32303 net.cpp:406] fire4/squeeze1x1 <- pool3
I0617 20:30:44.788461 32303 net.cpp:380] fire4/squeeze1x1 -> fire4/squeeze1x1
I0617 20:30:44.788734 32303 net.cpp:122] Setting up fire4/squeeze1x1
I0617 20:30:44.788748 32303 net.cpp:129] Top shape: 14 32 28 28 (351232)
I0617 20:30:44.788753 32303 net.cpp:137] Memory required for data: 275801232
I0617 20:30:44.788761 32303 layer_factory.hpp:77] Creating layer fire4/relu_squeeze1x1
I0617 20:30:44.788770 32303 net.cpp:84] Creating Layer fire4/relu_squeeze1x1
I0617 20:30:44.788777 32303 net.cpp:406] fire4/relu_squeeze1x1 <- fire4/squeeze1x1
I0617 20:30:44.788784 32303 net.cpp:367] fire4/relu_squeeze1x1 -> fire4/squeeze1x1 (in-place)
I0617 20:30:44.788792 32303 net.cpp:122] Setting up fire4/relu_squeeze1x1
I0617 20:30:44.788796 32303 net.cpp:129] Top shape: 14 32 28 28 (351232)
I0617 20:30:44.788799 32303 net.cpp:137] Memory required for data: 277206160
I0617 20:30:44.788801 32303 layer_factory.hpp:77] Creating layer fire4/squeeze1x1_fire4/relu_squeeze1x1_0_split
I0617 20:30:44.788805 32303 net.cpp:84] Creating Layer fire4/squeeze1x1_fire4/relu_squeeze1x1_0_split
I0617 20:30:44.788808 32303 net.cpp:406] fire4/squeeze1x1_fire4/relu_squeeze1x1_0_split <- fire4/squeeze1x1
I0617 20:30:44.788815 32303 net.cpp:380] fire4/squeeze1x1_fire4/relu_squeeze1x1_0_split -> fire4/squeeze1x1_fire4/relu_squeeze1x1_0_split_0
I0617 20:30:44.788820 32303 net.cpp:380] fire4/squeeze1x1_fire4/relu_squeeze1x1_0_split -> fire4/squeeze1x1_fire4/relu_squeeze1x1_0_split_1
I0617 20:30:44.788851 32303 net.cpp:122] Setting up fire4/squeeze1x1_fire4/relu_squeeze1x1_0_split
I0617 20:30:44.788857 32303 net.cpp:129] Top shape: 14 32 28 28 (351232)
I0617 20:30:44.788861 32303 net.cpp:129] Top shape: 14 32 28 28 (351232)
I0617 20:30:44.788863 32303 net.cpp:137] Memory required for data: 280016016
I0617 20:30:44.788866 32303 layer_factory.hpp:77] Creating layer fire4/expand1x1
I0617 20:30:44.788872 32303 net.cpp:84] Creating Layer fire4/expand1x1
I0617 20:30:44.788875 32303 net.cpp:406] fire4/expand1x1 <- fire4/squeeze1x1_fire4/relu_squeeze1x1_0_split_0
I0617 20:30:44.788880 32303 net.cpp:380] fire4/expand1x1 -> fire4/expand1x1
I0617 20:30:44.789083 32303 net.cpp:122] Setting up fire4/expand1x1
I0617 20:30:44.789090 32303 net.cpp:129] Top shape: 14 128 28 28 (1404928)
I0617 20:30:44.789124 32303 net.cpp:137] Memory required for data: 285635728
I0617 20:30:44.789134 32303 layer_factory.hpp:77] Creating layer fire4/relu_expand1x1
I0617 20:30:44.789139 32303 net.cpp:84] Creating Layer fire4/relu_expand1x1
I0617 20:30:44.789142 32303 net.cpp:406] fire4/relu_expand1x1 <- fire4/expand1x1
I0617 20:30:44.789147 32303 net.cpp:367] fire4/relu_expand1x1 -> fire4/expand1x1 (in-place)
I0617 20:30:44.789152 32303 net.cpp:122] Setting up fire4/relu_expand1x1
I0617 20:30:44.789156 32303 net.cpp:129] Top shape: 14 128 28 28 (1404928)
I0617 20:30:44.789158 32303 net.cpp:137] Memory required for data: 291255440
I0617 20:30:44.789161 32303 layer_factory.hpp:77] Creating layer fire4/expand3x3
I0617 20:30:44.789168 32303 net.cpp:84] Creating Layer fire4/expand3x3
I0617 20:30:44.789171 32303 net.cpp:406] fire4/expand3x3 <- fire4/squeeze1x1_fire4/relu_squeeze1x1_0_split_1
I0617 20:30:44.789176 32303 net.cpp:380] fire4/expand3x3 -> fire4/expand3x3
I0617 20:30:44.790228 32303 net.cpp:122] Setting up fire4/expand3x3
I0617 20:30:44.790241 32303 net.cpp:129] Top shape: 14 128 28 28 (1404928)
I0617 20:30:44.790244 32303 net.cpp:137] Memory required for data: 296875152
I0617 20:30:44.790262 32303 layer_factory.hpp:77] Creating layer fire4/relu_expand3x3
I0617 20:30:44.790269 32303 net.cpp:84] Creating Layer fire4/relu_expand3x3
I0617 20:30:44.790273 32303 net.cpp:406] fire4/relu_expand3x3 <- fire4/expand3x3
I0617 20:30:44.790278 32303 net.cpp:367] fire4/relu_expand3x3 -> fire4/expand3x3 (in-place)
I0617 20:30:44.790284 32303 net.cpp:122] Setting up fire4/relu_expand3x3
I0617 20:30:44.790290 32303 net.cpp:129] Top shape: 14 128 28 28 (1404928)
I0617 20:30:44.790293 32303 net.cpp:137] Memory required for data: 302494864
I0617 20:30:44.790295 32303 layer_factory.hpp:77] Creating layer fire4/concat
I0617 20:30:44.790300 32303 net.cpp:84] Creating Layer fire4/concat
I0617 20:30:44.790303 32303 net.cpp:406] fire4/concat <- fire4/expand1x1
I0617 20:30:44.790307 32303 net.cpp:406] fire4/concat <- fire4/expand3x3
I0617 20:30:44.790311 32303 net.cpp:380] fire4/concat -> fire4/concat
I0617 20:30:44.790333 32303 net.cpp:122] Setting up fire4/concat
I0617 20:30:44.790338 32303 net.cpp:129] Top shape: 14 256 28 28 (2809856)
I0617 20:30:44.790340 32303 net.cpp:137] Memory required for data: 313734288
I0617 20:30:44.790343 32303 layer_factory.hpp:77] Creating layer fire5/squeeze1x1
I0617 20:30:44.790349 32303 net.cpp:84] Creating Layer fire5/squeeze1x1
I0617 20:30:44.790352 32303 net.cpp:406] fire5/squeeze1x1 <- fire4/concat
I0617 20:30:44.790357 32303 net.cpp:380] fire5/squeeze1x1 -> fire5/squeeze1x1
I0617 20:30:44.790581 32303 net.cpp:122] Setting up fire5/squeeze1x1
I0617 20:30:44.790587 32303 net.cpp:129] Top shape: 14 32 28 28 (351232)
I0617 20:30:44.790590 32303 net.cpp:137] Memory required for data: 315139216
I0617 20:30:44.790594 32303 layer_factory.hpp:77] Creating layer fire5/relu_squeeze1x1
I0617 20:30:44.790601 32303 net.cpp:84] Creating Layer fire5/relu_squeeze1x1
I0617 20:30:44.790603 32303 net.cpp:406] fire5/relu_squeeze1x1 <- fire5/squeeze1x1
I0617 20:30:44.790608 32303 net.cpp:367] fire5/relu_squeeze1x1 -> fire5/squeeze1x1 (in-place)
I0617 20:30:44.790612 32303 net.cpp:122] Setting up fire5/relu_squeeze1x1
I0617 20:30:44.790616 32303 net.cpp:129] Top shape: 14 32 28 28 (351232)
I0617 20:30:44.790618 32303 net.cpp:137] Memory required for data: 316544144
I0617 20:30:44.790621 32303 layer_factory.hpp:77] Creating layer fire5/squeeze1x1_fire5/relu_squeeze1x1_0_split
I0617 20:30:44.790632 32303 net.cpp:84] Creating Layer fire5/squeeze1x1_fire5/relu_squeeze1x1_0_split
I0617 20:30:44.790637 32303 net.cpp:406] fire5/squeeze1x1_fire5/relu_squeeze1x1_0_split <- fire5/squeeze1x1
I0617 20:30:44.790642 32303 net.cpp:380] fire5/squeeze1x1_fire5/relu_squeeze1x1_0_split -> fire5/squeeze1x1_fire5/relu_squeeze1x1_0_split_0
I0617 20:30:44.790647 32303 net.cpp:380] fire5/squeeze1x1_fire5/relu_squeeze1x1_0_split -> fire5/squeeze1x1_fire5/relu_squeeze1x1_0_split_1
I0617 20:30:44.790675 32303 net.cpp:122] Setting up fire5/squeeze1x1_fire5/relu_squeeze1x1_0_split
I0617 20:30:44.790681 32303 net.cpp:129] Top shape: 14 32 28 28 (351232)
I0617 20:30:44.790684 32303 net.cpp:129] Top shape: 14 32 28 28 (351232)
I0617 20:30:44.790686 32303 net.cpp:137] Memory required for data: 319354000
I0617 20:30:44.790689 32303 layer_factory.hpp:77] Creating layer fire5/expand1x1
I0617 20:30:44.790695 32303 net.cpp:84] Creating Layer fire5/expand1x1
I0617 20:30:44.790699 32303 net.cpp:406] fire5/expand1x1 <- fire5/squeeze1x1_fire5/relu_squeeze1x1_0_split_0
I0617 20:30:44.790704 32303 net.cpp:380] fire5/expand1x1 -> fire5/expand1x1
I0617 20:30:44.790891 32303 net.cpp:122] Setting up fire5/expand1x1
I0617 20:30:44.790899 32303 net.cpp:129] Top shape: 14 128 28 28 (1404928)
I0617 20:30:44.790900 32303 net.cpp:137] Memory required for data: 324973712
I0617 20:30:44.790905 32303 layer_factory.hpp:77] Creating layer fire5/relu_expand1x1
I0617 20:30:44.790910 32303 net.cpp:84] Creating Layer fire5/relu_expand1x1
I0617 20:30:44.790913 32303 net.cpp:406] fire5/relu_expand1x1 <- fire5/expand1x1
I0617 20:30:44.790917 32303 net.cpp:367] fire5/relu_expand1x1 -> fire5/expand1x1 (in-place)
I0617 20:30:44.790930 32303 net.cpp:122] Setting up fire5/relu_expand1x1
I0617 20:30:44.790935 32303 net.cpp:129] Top shape: 14 128 28 28 (1404928)
I0617 20:30:44.790936 32303 net.cpp:137] Memory required for data: 330593424
I0617 20:30:44.790940 32303 layer_factory.hpp:77] Creating layer fire5/expand3x3
I0617 20:30:44.790946 32303 net.cpp:84] Creating Layer fire5/expand3x3
I0617 20:30:44.790948 32303 net.cpp:406] fire5/expand3x3 <- fire5/squeeze1x1_fire5/relu_squeeze1x1_0_split_1
I0617 20:30:44.790953 32303 net.cpp:380] fire5/expand3x3 -> fire5/expand3x3
I0617 20:30:44.791307 32303 net.cpp:122] Setting up fire5/expand3x3
I0617 20:30:44.791317 32303 net.cpp:129] Top shape: 14 128 28 28 (1404928)
I0617 20:30:44.791321 32303 net.cpp:137] Memory required for data: 336213136
I0617 20:30:44.791327 32303 layer_factory.hpp:77] Creating layer fire5/relu_expand3x3
I0617 20:30:44.791334 32303 net.cpp:84] Creating Layer fire5/relu_expand3x3
I0617 20:30:44.791340 32303 net.cpp:406] fire5/relu_expand3x3 <- fire5/expand3x3
I0617 20:30:44.791347 32303 net.cpp:367] fire5/relu_expand3x3 -> fire5/expand3x3 (in-place)
I0617 20:30:44.791355 32303 net.cpp:122] Setting up fire5/relu_expand3x3
I0617 20:30:44.791362 32303 net.cpp:129] Top shape: 14 128 28 28 (1404928)
I0617 20:30:44.791364 32303 net.cpp:137] Memory required for data: 341832848
I0617 20:30:44.791366 32303 layer_factory.hpp:77] Creating layer fire5/concat
I0617 20:30:44.791373 32303 net.cpp:84] Creating Layer fire5/concat
I0617 20:30:44.791376 32303 net.cpp:406] fire5/concat <- fire5/expand1x1
I0617 20:30:44.791380 32303 net.cpp:406] fire5/concat <- fire5/expand3x3
I0617 20:30:44.791385 32303 net.cpp:380] fire5/concat -> fire5/concat
I0617 20:30:44.791414 32303 net.cpp:122] Setting up fire5/concat
I0617 20:30:44.791424 32303 net.cpp:129] Top shape: 14 256 28 28 (2809856)
I0617 20:30:44.791426 32303 net.cpp:137] Memory required for data: 353072272
I0617 20:30:44.791429 32303 layer_factory.hpp:77] Creating layer pool5
I0617 20:30:44.791435 32303 net.cpp:84] Creating Layer pool5
I0617 20:30:44.791437 32303 net.cpp:406] pool5 <- fire5/concat
I0617 20:30:44.791442 32303 net.cpp:380] pool5 -> pool5
I0617 20:30:44.791474 32303 net.cpp:122] Setting up pool5
I0617 20:30:44.791481 32303 net.cpp:129] Top shape: 14 256 14 14 (702464)
I0617 20:30:44.791483 32303 net.cpp:137] Memory required for data: 355882128
I0617 20:30:44.791486 32303 layer_factory.hpp:77] Creating layer fire6/squeeze1x1
I0617 20:30:44.791492 32303 net.cpp:84] Creating Layer fire6/squeeze1x1
I0617 20:30:44.791496 32303 net.cpp:406] fire6/squeeze1x1 <- pool5
I0617 20:30:44.791502 32303 net.cpp:380] fire6/squeeze1x1 -> fire6/squeeze1x1
I0617 20:30:44.791810 32303 net.cpp:122] Setting up fire6/squeeze1x1
I0617 20:30:44.791821 32303 net.cpp:129] Top shape: 14 48 14 14 (131712)
I0617 20:30:44.791823 32303 net.cpp:137] Memory required for data: 356408976
I0617 20:30:44.791829 32303 layer_factory.hpp:77] Creating layer fire6/relu_squeeze1x1
I0617 20:30:44.791836 32303 net.cpp:84] Creating Layer fire6/relu_squeeze1x1
I0617 20:30:44.791837 32303 net.cpp:406] fire6/relu_squeeze1x1 <- fire6/squeeze1x1
I0617 20:30:44.791842 32303 net.cpp:367] fire6/relu_squeeze1x1 -> fire6/squeeze1x1 (in-place)
I0617 20:30:44.791848 32303 net.cpp:122] Setting up fire6/relu_squeeze1x1
I0617 20:30:44.791852 32303 net.cpp:129] Top shape: 14 48 14 14 (131712)
I0617 20:30:44.791854 32303 net.cpp:137] Memory required for data: 356935824
I0617 20:30:44.791857 32303 layer_factory.hpp:77] Creating layer fire6/squeeze1x1_fire6/relu_squeeze1x1_0_split
I0617 20:30:44.791862 32303 net.cpp:84] Creating Layer fire6/squeeze1x1_fire6/relu_squeeze1x1_0_split
I0617 20:30:44.791864 32303 net.cpp:406] fire6/squeeze1x1_fire6/relu_squeeze1x1_0_split <- fire6/squeeze1x1
I0617 20:30:44.791868 32303 net.cpp:380] fire6/squeeze1x1_fire6/relu_squeeze1x1_0_split -> fire6/squeeze1x1_fire6/relu_squeeze1x1_0_split_0
I0617 20:30:44.791875 32303 net.cpp:380] fire6/squeeze1x1_fire6/relu_squeeze1x1_0_split -> fire6/squeeze1x1_fire6/relu_squeeze1x1_0_split_1
I0617 20:30:44.791906 32303 net.cpp:122] Setting up fire6/squeeze1x1_fire6/relu_squeeze1x1_0_split
I0617 20:30:44.791921 32303 net.cpp:129] Top shape: 14 48 14 14 (131712)
I0617 20:30:44.791925 32303 net.cpp:129] Top shape: 14 48 14 14 (131712)
I0617 20:30:44.791929 32303 net.cpp:137] Memory required for data: 357989520
I0617 20:30:44.791930 32303 layer_factory.hpp:77] Creating layer fire6/expand1x1
I0617 20:30:44.791937 32303 net.cpp:84] Creating Layer fire6/expand1x1
I0617 20:30:44.791940 32303 net.cpp:406] fire6/expand1x1 <- fire6/squeeze1x1_fire6/relu_squeeze1x1_0_split_0
I0617 20:30:44.791945 32303 net.cpp:380] fire6/expand1x1 -> fire6/expand1x1
I0617 20:30:44.792160 32303 net.cpp:122] Setting up fire6/expand1x1
I0617 20:30:44.792165 32303 net.cpp:129] Top shape: 14 192 14 14 (526848)
I0617 20:30:44.792168 32303 net.cpp:137] Memory required for data: 360096912
I0617 20:30:44.792173 32303 layer_factory.hpp:77] Creating layer fire6/relu_expand1x1
I0617 20:30:44.792177 32303 net.cpp:84] Creating Layer fire6/relu_expand1x1
I0617 20:30:44.792181 32303 net.cpp:406] fire6/relu_expand1x1 <- fire6/expand1x1
I0617 20:30:44.792186 32303 net.cpp:367] fire6/relu_expand1x1 -> fire6/expand1x1 (in-place)
I0617 20:30:44.792189 32303 net.cpp:122] Setting up fire6/relu_expand1x1
I0617 20:30:44.792193 32303 net.cpp:129] Top shape: 14 192 14 14 (526848)
I0617 20:30:44.792196 32303 net.cpp:137] Memory required for data: 362204304
I0617 20:30:44.792197 32303 layer_factory.hpp:77] Creating layer fire6/expand3x3
I0617 20:30:44.792203 32303 net.cpp:84] Creating Layer fire6/expand3x3
I0617 20:30:44.792207 32303 net.cpp:406] fire6/expand3x3 <- fire6/squeeze1x1_fire6/relu_squeeze1x1_0_split_1
I0617 20:30:44.792210 32303 net.cpp:380] fire6/expand3x3 -> fire6/expand3x3
I0617 20:30:44.792861 32303 net.cpp:122] Setting up fire6/expand3x3
I0617 20:30:44.792872 32303 net.cpp:129] Top shape: 14 192 14 14 (526848)
I0617 20:30:44.792876 32303 net.cpp:137] Memory required for data: 364311696
I0617 20:30:44.792881 32303 layer_factory.hpp:77] Creating layer fire6/relu_expand3x3
I0617 20:30:44.792886 32303 net.cpp:84] Creating Layer fire6/relu_expand3x3
I0617 20:30:44.792889 32303 net.cpp:406] fire6/relu_expand3x3 <- fire6/expand3x3
I0617 20:30:44.792896 32303 net.cpp:367] fire6/relu_expand3x3 -> fire6/expand3x3 (in-place)
I0617 20:30:44.792901 32303 net.cpp:122] Setting up fire6/relu_expand3x3
I0617 20:30:44.792904 32303 net.cpp:129] Top shape: 14 192 14 14 (526848)
I0617 20:30:44.792908 32303 net.cpp:137] Memory required for data: 366419088
I0617 20:30:44.792912 32303 layer_factory.hpp:77] Creating layer fire6/concat
I0617 20:30:44.792915 32303 net.cpp:84] Creating Layer fire6/concat
I0617 20:30:44.792918 32303 net.cpp:406] fire6/concat <- fire6/expand1x1
I0617 20:30:44.792922 32303 net.cpp:406] fire6/concat <- fire6/expand3x3
I0617 20:30:44.792927 32303 net.cpp:380] fire6/concat -> fire6/concat
I0617 20:30:44.792953 32303 net.cpp:122] Setting up fire6/concat
I0617 20:30:44.792961 32303 net.cpp:129] Top shape: 14 384 14 14 (1053696)
I0617 20:30:44.792965 32303 net.cpp:137] Memory required for data: 370633872
I0617 20:30:44.792969 32303 layer_factory.hpp:77] Creating layer fire7/squeeze1x1
I0617 20:30:44.792979 32303 net.cpp:84] Creating Layer fire7/squeeze1x1
I0617 20:30:44.792985 32303 net.cpp:406] fire7/squeeze1x1 <- fire6/concat
I0617 20:30:44.792994 32303 net.cpp:380] fire7/squeeze1x1 -> fire7/squeeze1x1
I0617 20:30:44.793270 32303 net.cpp:122] Setting up fire7/squeeze1x1
I0617 20:30:44.793277 32303 net.cpp:129] Top shape: 14 48 14 14 (131712)
I0617 20:30:44.793280 32303 net.cpp:137] Memory required for data: 371160720
I0617 20:30:44.793290 32303 layer_factory.hpp:77] Creating layer fire7/relu_squeeze1x1
I0617 20:30:44.793295 32303 net.cpp:84] Creating Layer fire7/relu_squeeze1x1
I0617 20:30:44.793298 32303 net.cpp:406] fire7/relu_squeeze1x1 <- fire7/squeeze1x1
I0617 20:30:44.793303 32303 net.cpp:367] fire7/relu_squeeze1x1 -> fire7/squeeze1x1 (in-place)
I0617 20:30:44.793308 32303 net.cpp:122] Setting up fire7/relu_squeeze1x1
I0617 20:30:44.793313 32303 net.cpp:129] Top shape: 14 48 14 14 (131712)
I0617 20:30:44.793324 32303 net.cpp:137] Memory required for data: 371687568
I0617 20:30:44.793328 32303 layer_factory.hpp:77] Creating layer fire7/squeeze1x1_fire7/relu_squeeze1x1_0_split
I0617 20:30:44.793331 32303 net.cpp:84] Creating Layer fire7/squeeze1x1_fire7/relu_squeeze1x1_0_split
I0617 20:30:44.793334 32303 net.cpp:406] fire7/squeeze1x1_fire7/relu_squeeze1x1_0_split <- fire7/squeeze1x1
I0617 20:30:44.793339 32303 net.cpp:380] fire7/squeeze1x1_fire7/relu_squeeze1x1_0_split -> fire7/squeeze1x1_fire7/relu_squeeze1x1_0_split_0
I0617 20:30:44.793344 32303 net.cpp:380] fire7/squeeze1x1_fire7/relu_squeeze1x1_0_split -> fire7/squeeze1x1_fire7/relu_squeeze1x1_0_split_1
I0617 20:30:44.793375 32303 net.cpp:122] Setting up fire7/squeeze1x1_fire7/relu_squeeze1x1_0_split
I0617 20:30:44.793380 32303 net.cpp:129] Top shape: 14 48 14 14 (131712)
I0617 20:30:44.793383 32303 net.cpp:129] Top shape: 14 48 14 14 (131712)
I0617 20:30:44.793385 32303 net.cpp:137] Memory required for data: 372741264
I0617 20:30:44.793388 32303 layer_factory.hpp:77] Creating layer fire7/expand1x1
I0617 20:30:44.793395 32303 net.cpp:84] Creating Layer fire7/expand1x1
I0617 20:30:44.793397 32303 net.cpp:406] fire7/expand1x1 <- fire7/squeeze1x1_fire7/relu_squeeze1x1_0_split_0
I0617 20:30:44.793402 32303 net.cpp:380] fire7/expand1x1 -> fire7/expand1x1
I0617 20:30:44.793609 32303 net.cpp:122] Setting up fire7/expand1x1
I0617 20:30:44.793614 32303 net.cpp:129] Top shape: 14 192 14 14 (526848)
I0617 20:30:44.793617 32303 net.cpp:137] Memory required for data: 374848656
I0617 20:30:44.793622 32303 layer_factory.hpp:77] Creating layer fire7/relu_expand1x1
I0617 20:30:44.793627 32303 net.cpp:84] Creating Layer fire7/relu_expand1x1
I0617 20:30:44.793629 32303 net.cpp:406] fire7/relu_expand1x1 <- fire7/expand1x1
I0617 20:30:44.793633 32303 net.cpp:367] fire7/relu_expand1x1 -> fire7/expand1x1 (in-place)
I0617 20:30:44.793637 32303 net.cpp:122] Setting up fire7/relu_expand1x1
I0617 20:30:44.793642 32303 net.cpp:129] Top shape: 14 192 14 14 (526848)
I0617 20:30:44.793643 32303 net.cpp:137] Memory required for data: 376956048
I0617 20:30:44.793645 32303 layer_factory.hpp:77] Creating layer fire7/expand3x3
I0617 20:30:44.793651 32303 net.cpp:84] Creating Layer fire7/expand3x3
I0617 20:30:44.793654 32303 net.cpp:406] fire7/expand3x3 <- fire7/squeeze1x1_fire7/relu_squeeze1x1_0_split_1
I0617 20:30:44.793660 32303 net.cpp:380] fire7/expand3x3 -> fire7/expand3x3
I0617 20:30:44.794819 32303 net.cpp:122] Setting up fire7/expand3x3
I0617 20:30:44.794829 32303 net.cpp:129] Top shape: 14 192 14 14 (526848)
I0617 20:30:44.794832 32303 net.cpp:137] Memory required for data: 379063440
I0617 20:30:44.794837 32303 layer_factory.hpp:77] Creating layer fire7/relu_expand3x3
I0617 20:30:44.794843 32303 net.cpp:84] Creating Layer fire7/relu_expand3x3
I0617 20:30:44.794847 32303 net.cpp:406] fire7/relu_expand3x3 <- fire7/expand3x3
I0617 20:30:44.794852 32303 net.cpp:367] fire7/relu_expand3x3 -> fire7/expand3x3 (in-place)
I0617 20:30:44.794857 32303 net.cpp:122] Setting up fire7/relu_expand3x3
I0617 20:30:44.794862 32303 net.cpp:129] Top shape: 14 192 14 14 (526848)
I0617 20:30:44.794863 32303 net.cpp:137] Memory required for data: 381170832
I0617 20:30:44.794865 32303 layer_factory.hpp:77] Creating layer fire7/concat
I0617 20:30:44.794870 32303 net.cpp:84] Creating Layer fire7/concat
I0617 20:30:44.794872 32303 net.cpp:406] fire7/concat <- fire7/expand1x1
I0617 20:30:44.794875 32303 net.cpp:406] fire7/concat <- fire7/expand3x3
I0617 20:30:44.794880 32303 net.cpp:380] fire7/concat -> fire7/concat
I0617 20:30:44.794901 32303 net.cpp:122] Setting up fire7/concat
I0617 20:30:44.794905 32303 net.cpp:129] Top shape: 14 384 14 14 (1053696)
I0617 20:30:44.794909 32303 net.cpp:137] Memory required for data: 385385616
I0617 20:30:44.794910 32303 layer_factory.hpp:77] Creating layer fire8/squeeze1x1
I0617 20:30:44.794917 32303 net.cpp:84] Creating Layer fire8/squeeze1x1
I0617 20:30:44.794920 32303 net.cpp:406] fire8/squeeze1x1 <- fire7/concat
I0617 20:30:44.794925 32303 net.cpp:380] fire8/squeeze1x1 -> fire8/squeeze1x1
I0617 20:30:44.795225 32303 net.cpp:122] Setting up fire8/squeeze1x1
I0617 20:30:44.795231 32303 net.cpp:129] Top shape: 14 64 14 14 (175616)
I0617 20:30:44.795233 32303 net.cpp:137] Memory required for data: 386088080
I0617 20:30:44.795238 32303 layer_factory.hpp:77] Creating layer fire8/relu_squeeze1x1
I0617 20:30:44.795243 32303 net.cpp:84] Creating Layer fire8/relu_squeeze1x1
I0617 20:30:44.795245 32303 net.cpp:406] fire8/relu_squeeze1x1 <- fire8/squeeze1x1
I0617 20:30:44.795250 32303 net.cpp:367] fire8/relu_squeeze1x1 -> fire8/squeeze1x1 (in-place)
I0617 20:30:44.795255 32303 net.cpp:122] Setting up fire8/relu_squeeze1x1
I0617 20:30:44.795258 32303 net.cpp:129] Top shape: 14 64 14 14 (175616)
I0617 20:30:44.795260 32303 net.cpp:137] Memory required for data: 386790544
I0617 20:30:44.795264 32303 layer_factory.hpp:77] Creating layer fire8/squeeze1x1_fire8/relu_squeeze1x1_0_split
I0617 20:30:44.795267 32303 net.cpp:84] Creating Layer fire8/squeeze1x1_fire8/relu_squeeze1x1_0_split
I0617 20:30:44.795270 32303 net.cpp:406] fire8/squeeze1x1_fire8/relu_squeeze1x1_0_split <- fire8/squeeze1x1
I0617 20:30:44.795274 32303 net.cpp:380] fire8/squeeze1x1_fire8/relu_squeeze1x1_0_split -> fire8/squeeze1x1_fire8/relu_squeeze1x1_0_split_0
I0617 20:30:44.795280 32303 net.cpp:380] fire8/squeeze1x1_fire8/relu_squeeze1x1_0_split -> fire8/squeeze1x1_fire8/relu_squeeze1x1_0_split_1
I0617 20:30:44.795307 32303 net.cpp:122] Setting up fire8/squeeze1x1_fire8/relu_squeeze1x1_0_split
I0617 20:30:44.795311 32303 net.cpp:129] Top shape: 14 64 14 14 (175616)
I0617 20:30:44.795315 32303 net.cpp:129] Top shape: 14 64 14 14 (175616)
I0617 20:30:44.795317 32303 net.cpp:137] Memory required for data: 388195472
I0617 20:30:44.795320 32303 layer_factory.hpp:77] Creating layer fire8/expand1x1
I0617 20:30:44.795325 32303 net.cpp:84] Creating Layer fire8/expand1x1
I0617 20:30:44.795328 32303 net.cpp:406] fire8/expand1x1 <- fire8/squeeze1x1_fire8/relu_squeeze1x1_0_split_0
I0617 20:30:44.795333 32303 net.cpp:380] fire8/expand1x1 -> fire8/expand1x1
I0617 20:30:44.795569 32303 net.cpp:122] Setting up fire8/expand1x1
I0617 20:30:44.795574 32303 net.cpp:129] Top shape: 14 256 14 14 (702464)
I0617 20:30:44.795577 32303 net.cpp:137] Memory required for data: 391005328
I0617 20:30:44.795581 32303 layer_factory.hpp:77] Creating layer fire8/relu_expand1x1
I0617 20:30:44.795585 32303 net.cpp:84] Creating Layer fire8/relu_expand1x1
I0617 20:30:44.795588 32303 net.cpp:406] fire8/relu_expand1x1 <- fire8/expand1x1
I0617 20:30:44.795593 32303 net.cpp:367] fire8/relu_expand1x1 -> fire8/expand1x1 (in-place)
I0617 20:30:44.795596 32303 net.cpp:122] Setting up fire8/relu_expand1x1
I0617 20:30:44.795600 32303 net.cpp:129] Top shape: 14 256 14 14 (702464)
I0617 20:30:44.795603 32303 net.cpp:137] Memory required for data: 393815184
I0617 20:30:44.795604 32303 layer_factory.hpp:77] Creating layer fire8/expand3x3
I0617 20:30:44.795610 32303 net.cpp:84] Creating Layer fire8/expand3x3
I0617 20:30:44.795614 32303 net.cpp:406] fire8/expand3x3 <- fire8/squeeze1x1_fire8/relu_squeeze1x1_0_split_1
I0617 20:30:44.795617 32303 net.cpp:380] fire8/expand3x3 -> fire8/expand3x3
I0617 20:30:44.796494 32303 net.cpp:122] Setting up fire8/expand3x3
I0617 20:30:44.796499 32303 net.cpp:129] Top shape: 14 256 14 14 (702464)
I0617 20:30:44.796501 32303 net.cpp:137] Memory required for data: 396625040
I0617 20:30:44.796505 32303 layer_factory.hpp:77] Creating layer fire8/relu_expand3x3
I0617 20:30:44.796510 32303 net.cpp:84] Creating Layer fire8/relu_expand3x3
I0617 20:30:44.796512 32303 net.cpp:406] fire8/relu_expand3x3 <- fire8/expand3x3
I0617 20:30:44.796516 32303 net.cpp:367] fire8/relu_expand3x3 -> fire8/expand3x3 (in-place)
I0617 20:30:44.796520 32303 net.cpp:122] Setting up fire8/relu_expand3x3
I0617 20:30:44.796525 32303 net.cpp:129] Top shape: 14 256 14 14 (702464)
I0617 20:30:44.796526 32303 net.cpp:137] Memory required for data: 399434896
I0617 20:30:44.796528 32303 layer_factory.hpp:77] Creating layer fire8/concat
I0617 20:30:44.796532 32303 net.cpp:84] Creating Layer fire8/concat
I0617 20:30:44.796542 32303 net.cpp:406] fire8/concat <- fire8/expand1x1
I0617 20:30:44.796546 32303 net.cpp:406] fire8/concat <- fire8/expand3x3
I0617 20:30:44.796550 32303 net.cpp:380] fire8/concat -> fire8/concat
I0617 20:30:44.796569 32303 net.cpp:122] Setting up fire8/concat
I0617 20:30:44.796573 32303 net.cpp:129] Top shape: 14 512 14 14 (1404928)
I0617 20:30:44.796576 32303 net.cpp:137] Memory required for data: 405054608
I0617 20:30:44.796578 32303 layer_factory.hpp:77] Creating layer fire9/squeeze1x1
I0617 20:30:44.796583 32303 net.cpp:84] Creating Layer fire9/squeeze1x1
I0617 20:30:44.796586 32303 net.cpp:406] fire9/squeeze1x1 <- fire8/concat
I0617 20:30:44.796591 32303 net.cpp:380] fire9/squeeze1x1 -> fire9/squeeze1x1
I0617 20:30:44.796938 32303 net.cpp:122] Setting up fire9/squeeze1x1
I0617 20:30:44.796944 32303 net.cpp:129] Top shape: 14 64 14 14 (175616)
I0617 20:30:44.796947 32303 net.cpp:137] Memory required for data: 405757072
I0617 20:30:44.796953 32303 layer_factory.hpp:77] Creating layer fire9/relu_squeeze1x1
I0617 20:30:44.796993 32303 net.cpp:84] Creating Layer fire9/relu_squeeze1x1
I0617 20:30:44.796998 32303 net.cpp:406] fire9/relu_squeeze1x1 <- fire9/squeeze1x1
I0617 20:30:44.797003 32303 net.cpp:367] fire9/relu_squeeze1x1 -> fire9/squeeze1x1 (in-place)
I0617 20:30:44.797008 32303 net.cpp:122] Setting up fire9/relu_squeeze1x1
I0617 20:30:44.797013 32303 net.cpp:129] Top shape: 14 64 14 14 (175616)
I0617 20:30:44.797015 32303 net.cpp:137] Memory required for data: 406459536
I0617 20:30:44.797019 32303 layer_factory.hpp:77] Creating layer fire9/squeeze1x1_fire9/relu_squeeze1x1_0_split
I0617 20:30:44.797025 32303 net.cpp:84] Creating Layer fire9/squeeze1x1_fire9/relu_squeeze1x1_0_split
I0617 20:30:44.797027 32303 net.cpp:406] fire9/squeeze1x1_fire9/relu_squeeze1x1_0_split <- fire9/squeeze1x1
I0617 20:30:44.797032 32303 net.cpp:380] fire9/squeeze1x1_fire9/relu_squeeze1x1_0_split -> fire9/squeeze1x1_fire9/relu_squeeze1x1_0_split_0
I0617 20:30:44.797039 32303 net.cpp:380] fire9/squeeze1x1_fire9/relu_squeeze1x1_0_split -> fire9/squeeze1x1_fire9/relu_squeeze1x1_0_split_1
I0617 20:30:44.797070 32303 net.cpp:122] Setting up fire9/squeeze1x1_fire9/relu_squeeze1x1_0_split
I0617 20:30:44.797075 32303 net.cpp:129] Top shape: 14 64 14 14 (175616)
I0617 20:30:44.797078 32303 net.cpp:129] Top shape: 14 64 14 14 (175616)
I0617 20:30:44.797080 32303 net.cpp:137] Memory required for data: 407864464
I0617 20:30:44.797083 32303 layer_factory.hpp:77] Creating layer fire9/expand1x1
I0617 20:30:44.797092 32303 net.cpp:84] Creating Layer fire9/expand1x1
I0617 20:30:44.797096 32303 net.cpp:406] fire9/expand1x1 <- fire9/squeeze1x1_fire9/relu_squeeze1x1_0_split_0
I0617 20:30:44.797102 32303 net.cpp:380] fire9/expand1x1 -> fire9/expand1x1
I0617 20:30:44.797371 32303 net.cpp:122] Setting up fire9/expand1x1
I0617 20:30:44.797377 32303 net.cpp:129] Top shape: 14 256 14 14 (702464)
I0617 20:30:44.797379 32303 net.cpp:137] Memory required for data: 410674320
I0617 20:30:44.797384 32303 layer_factory.hpp:77] Creating layer fire9/relu_expand1x1
I0617 20:30:44.797389 32303 net.cpp:84] Creating Layer fire9/relu_expand1x1
I0617 20:30:44.797392 32303 net.cpp:406] fire9/relu_expand1x1 <- fire9/expand1x1
I0617 20:30:44.797397 32303 net.cpp:367] fire9/relu_expand1x1 -> fire9/expand1x1 (in-place)
I0617 20:30:44.797401 32303 net.cpp:122] Setting up fire9/relu_expand1x1
I0617 20:30:44.797405 32303 net.cpp:129] Top shape: 14 256 14 14 (702464)
I0617 20:30:44.797407 32303 net.cpp:137] Memory required for data: 413484176
I0617 20:30:44.797410 32303 layer_factory.hpp:77] Creating layer fire9/expand3x3
I0617 20:30:44.797417 32303 net.cpp:84] Creating Layer fire9/expand3x3
I0617 20:30:44.797420 32303 net.cpp:406] fire9/expand3x3 <- fire9/squeeze1x1_fire9/relu_squeeze1x1_0_split_1
I0617 20:30:44.797437 32303 net.cpp:380] fire9/expand3x3 -> fire9/expand3x3
I0617 20:30:44.799330 32303 net.cpp:122] Setting up fire9/expand3x3
I0617 20:30:44.799340 32303 net.cpp:129] Top shape: 14 256 14 14 (702464)
I0617 20:30:44.799342 32303 net.cpp:137] Memory required for data: 416294032
I0617 20:30:44.799357 32303 layer_factory.hpp:77] Creating layer fire9/relu_expand3x3
I0617 20:30:44.799363 32303 net.cpp:84] Creating Layer fire9/relu_expand3x3
I0617 20:30:44.799366 32303 net.cpp:406] fire9/relu_expand3x3 <- fire9/expand3x3
I0617 20:30:44.799371 32303 net.cpp:367] fire9/relu_expand3x3 -> fire9/expand3x3 (in-place)
I0617 20:30:44.799376 32303 net.cpp:122] Setting up fire9/relu_expand3x3
I0617 20:30:44.799381 32303 net.cpp:129] Top shape: 14 256 14 14 (702464)
I0617 20:30:44.799382 32303 net.cpp:137] Memory required for data: 419103888
I0617 20:30:44.799384 32303 layer_factory.hpp:77] Creating layer fire9/concat
I0617 20:30:44.799388 32303 net.cpp:84] Creating Layer fire9/concat
I0617 20:30:44.799391 32303 net.cpp:406] fire9/concat <- fire9/expand1x1
I0617 20:30:44.799394 32303 net.cpp:406] fire9/concat <- fire9/expand3x3
I0617 20:30:44.799398 32303 net.cpp:380] fire9/concat -> fire9/concat
I0617 20:30:44.799420 32303 net.cpp:122] Setting up fire9/concat
I0617 20:30:44.799425 32303 net.cpp:129] Top shape: 14 512 14 14 (1404928)
I0617 20:30:44.799427 32303 net.cpp:137] Memory required for data: 424723600
I0617 20:30:44.799430 32303 layer_factory.hpp:77] Creating layer drop9
I0617 20:30:44.799435 32303 net.cpp:84] Creating Layer drop9
I0617 20:30:44.799438 32303 net.cpp:406] drop9 <- fire9/concat
I0617 20:30:44.799443 32303 net.cpp:367] drop9 -> fire9/concat (in-place)
I0617 20:30:44.799463 32303 net.cpp:122] Setting up drop9
I0617 20:30:44.799468 32303 net.cpp:129] Top shape: 14 512 14 14 (1404928)
I0617 20:30:44.799469 32303 net.cpp:137] Memory required for data: 430343312
I0617 20:30:44.799473 32303 layer_factory.hpp:77] Creating layer conv10
I0617 20:30:44.799480 32303 net.cpp:84] Creating Layer conv10
I0617 20:30:44.799484 32303 net.cpp:406] conv10 <- fire9/concat
I0617 20:30:44.799487 32303 net.cpp:380] conv10 -> conv10
I0617 20:30:44.799698 32303 net.cpp:122] Setting up conv10
I0617 20:30:44.799705 32303 net.cpp:129] Top shape: 14 2 14 14 (5488)
I0617 20:30:44.799706 32303 net.cpp:137] Memory required for data: 430365264
I0617 20:30:44.799710 32303 layer_factory.hpp:77] Creating layer relu_conv10
I0617 20:30:44.799715 32303 net.cpp:84] Creating Layer relu_conv10
I0617 20:30:44.799717 32303 net.cpp:406] relu_conv10 <- conv10
I0617 20:30:44.799721 32303 net.cpp:367] relu_conv10 -> conv10 (in-place)
I0617 20:30:44.799726 32303 net.cpp:122] Setting up relu_conv10
I0617 20:30:44.799729 32303 net.cpp:129] Top shape: 14 2 14 14 (5488)
I0617 20:30:44.799731 32303 net.cpp:137] Memory required for data: 430387216
I0617 20:30:44.799733 32303 layer_factory.hpp:77] Creating layer pool10
I0617 20:30:44.799738 32303 net.cpp:84] Creating Layer pool10
I0617 20:30:44.799741 32303 net.cpp:406] pool10 <- conv10
I0617 20:30:44.799744 32303 net.cpp:380] pool10 -> pool10
I0617 20:30:44.799763 32303 net.cpp:122] Setting up pool10
I0617 20:30:44.799768 32303 net.cpp:129] Top shape: 14 2 1 1 (28)
I0617 20:30:44.799770 32303 net.cpp:137] Memory required for data: 430387328
I0617 20:30:44.799772 32303 layer_factory.hpp:77] Creating layer pool10_pool10_0_split
I0617 20:30:44.799778 32303 net.cpp:84] Creating Layer pool10_pool10_0_split
I0617 20:30:44.799782 32303 net.cpp:406] pool10_pool10_0_split <- pool10
I0617 20:30:44.799787 32303 net.cpp:380] pool10_pool10_0_split -> pool10_pool10_0_split_0
I0617 20:30:44.799793 32303 net.cpp:380] pool10_pool10_0_split -> pool10_pool10_0_split_1
I0617 20:30:44.799819 32303 net.cpp:122] Setting up pool10_pool10_0_split
I0617 20:30:44.799823 32303 net.cpp:129] Top shape: 14 2 1 1 (28)
I0617 20:30:44.799826 32303 net.cpp:129] Top shape: 14 2 1 1 (28)
I0617 20:30:44.799829 32303 net.cpp:137] Memory required for data: 430387552
I0617 20:30:44.799830 32303 layer_factory.hpp:77] Creating layer loss
I0617 20:30:44.799836 32303 net.cpp:84] Creating Layer loss
I0617 20:30:44.799839 32303 net.cpp:406] loss <- pool10_pool10_0_split_0
I0617 20:30:44.799842 32303 net.cpp:406] loss <- label_data_1_split_0
I0617 20:30:44.799847 32303 net.cpp:380] loss -> loss
…
