…
name: "ResNet_50_1by2_nsfw"
state {
  phase: TRAIN
  level: 0
  stage: ""
}
layer {
  name: "data"
  type: "ImageData"
  top: "data"
  top: "label"
  include {
    phase: TRAIN
  }
  transform_param {
    mirror: true
    crop_size: 224
    mean_value: 104
    mean_value: 117
    mean_value: 123
  }
  image_data_param {
    source: "/home/dbicho/Documents/datasets/all_labeled_dataset_augmented_finetuning/train.txt"
    batch_size: 7
    shuffle: true
    root_folder: "/home/dbicho/Documents/datasets/all_labeled_dataset_augmented_finetuning/"
  }
}
layer {
  name: "conv_1"
  type: "Convolution"
  bottom: "data"
  top: "conv_1"
  param {
    lr_mult: 0
    decay_mult: 1
  }
  param {
    lr_mult: 0
    decay_mult: 0
  }
  convolution_param {
    num_output: 64
    pad: 3
    kernel_size: 7
    stride: 2
    weight_filler {
      type: "xavier"
    }
    bias_filler {
      type: "constant"
      value: 0
    }
  }
}
layer {
  name: "bn_1"
  type: "BatchNorm"
  bottom: "conv_1"
  top: "conv_1"
  param {
    lr_mult: 0
    decay_mult: 0
  }
  param {
    lr_mult: 0
    decay_mult: 0
  }
  param {
    lr_mult: 0
    decay_mult: 0
  }
  batch_norm_param {
    use_global_stats: false
  }
}
layer {
  name: "scale_1"
  type: "Scale"
  bottom: "conv_1"
  top: "conv_1"
  scale_param {
    bias_term: true
  }
}
layer {
  name: "relu_1"
  type: "ReLU"
  bottom: "conv_1"
  top: "conv_1"
}
layer {
  name: "pool1"
  type: "Pooling"
  bottom: "conv_1"
  top: "pool1"
  pooling_param {
    pool: MAX
    kernel_size: 3
    stride: 2
  }
}
layer {
  name: "conv_stage0_block0_proj_shortcut"
  type: "Convolution"
  bottom: "pool1"
  top: "conv_stage0_block0_proj_shortcut"
  param {
    lr_mult: 0
    decay_mult: 1
  }
  param {
    lr_mult: 0
    decay_mult: 0
  }
  convolution_param {
    num_output: 128
    pad: 0
    kernel_size: 1
    stride: 1
    weight_filler {
      type: "xavier"
    }
    bias_filler {
      type: "constant"
      value: 0
    }
  }
}
layer {
  name: "bn_stage0_block0_proj_shortcut"
  type: "BatchNorm"
  bottom: "conv_stage0_block0_proj_shortcut"
  top: "conv_stage0_block0_proj_shortcut"
  param {
    lr_mult: 0
    decay_mult: 0
  }
  param {
    lr_mult: 0
    decay_mult: 0
  }
  param {
    lr_mult: 0
    decay_mult: 0
  }
  batch_norm_param {
    use_global_stats: false
  }
}
layer {
  name: "scale_stage0_block0_proj_shortcut"
  type: "Scale"
  bottom: "conv_stage0_block0_proj_shortcut"
  top: "conv_stage0_block0_proj_shortcut"
  scale_param {
    bias_term: true
  }
}
layer {
  name: "conv_stage0_block0_branch2a"
  type: "Convolution"
  bottom: "pool1"
  top: "conv_stage0_block0_branch2a"
  param {
    lr_mult: 0
    decay_mult: 1
  }
  param {
    lr_mult: 0
    decay_mult: 0
  }
  convolution_param {
    num_output: 32
    pad: 0
    kernel_size: 1
    stride: 1
    weight_filler {
      type: "xavier"
    }
    bias_filler {
      type: "constant"
      value: 0
    }
  }
}
layer {
  name: "bn_stage0_block0_branch2a"
  type: "BatchNorm"
  bottom: "conv_stage0_block0_branch2a"
  top: "conv_stage0_block0_branch2a"
  param {
    lr_mult: 0
    decay_mult: 0
  }
  param {
    lr_mult: 0
    decay_mult: 0
  }
  param {
    lr_mult: 0
    decay_mult: 0
  }
  batch_norm_param {
    use_global_stats: false
  }
}
layer {
  name: "scale_stage0_block0_branch2a"
  type: "Scale"
  bottom: "conv_stage0_block0_branch2a"
  top: "conv_stage0_block0_branch2a"
  scale_param {
    bias_term: true
  }
}
layer {
  name: "relu_stage0_block0_branch2a"
  type: "ReLU"
  bottom: "conv_stage0_block0_branch2a"
  top: "conv_stage0_block0_branch2a"
}
layer {
  name: "conv_stage0_block0_branch2b"
  type: "Convolution"
  bottom: "conv_stage0_block0_branch2a"
  top: "conv_stage0_block0_branch2b"
  param {
    lr_mult: 0
    decay_mult: 1
  }
  param {
    lr_mult: 0
    decay_mult: 0
  }
  convolution_param {
    num_output: 32
    pad: 1
    kernel_size: 3
    stride: 1
    weight_filler {
      type: "xavier"
    }
    bias_filler {
      type: "constant"
      value: 0
    }
  }
}
layer {
  name: "bn_stage0_block0_branch2b"
  type: "BatchNorm"
  bottom: "conv_stage0_block0_branch2b"
  top: "conv_stage0_block0_branch2b"
  param {
    lr_mult: 0
    decay_mult: 0
  }
  param {
    lr_mult: 0
    decay_mult: 0
  }
  param {
    lr_mult: 0
    decay_mult: 0
  }
  batch_norm_param {
    use_global_stats: false
  }
}
layer {
  name: "scale_stage0_block0_branch2b"
  type: "Scale"
  bottom: "conv_stage0_block0_branch2b"
  top: "conv_stage0_block0_branch2b"
  scale_param {
    bias_term: true
  }
}
layer {
  name: "relu_stage0_block0_branch2b"
  type: "ReLU"
  bottom: "conv_stage0_block0_branch2b"
  top: "conv_stage0_block0_branch2b"
}
layer {
  name: "conv_stage0_block0_branch2c"
  type: "Convolution"
  bottom: "conv_stage0_block0_branch2b"
  top: "conv_stage0_block0_branch2c"
  param {
    lr_mult: 0
    decay_mult: 1
  }
  param {
    lr_mult: 0
    decay_mult: 0
  }
  convolution_param {
    num_output: 128
    pad: 0
    kernel_size: 1
    stride: 1
    weight_filler {
      type: "xavier"
    }
    bias_filler {
      type: "constant"
      value: 0
    }
  }
}
layer {
  name: "bn_stage0_block0_branch2c"
  type: "BatchNorm"
  bottom: "conv_stage0_block0_branch2c"
  top: "conv_stage0_block0_branch2c"
  param {
    lr_mult: 0
    decay_mult: 0
  }
  param {
    lr_mult: 0
    decay_mult: 0
  }
  param {
    lr_mult: 0
    decay_mult: 0
  }
  batch_norm_param {
    use_global_stats: false
  }
}
layer {
  name: "scale_stage0_block0_branch2c"
  type: "Scale"
  bottom: "conv_stage0_block0_branch2c"
  top: "conv_stage0_block0_branch2c"
  scale_param {
    bias_term: true
  }
}
layer {
  name: "eltwise_stage0_block0"
  type: "Eltwise"
  bottom: "conv_stage0_block0_proj_shortcut"
  bottom: "conv_stage0_block0_branch2c"
  top: "eltwise_stage0_block0"
}
layer {
  name: "relu_stage0_block0"
  type: "ReLU"
  bottom: "eltwise_stage0_block0"
  top: "eltwise_stage0_block0"
}
layer {
  name: "conv_stage0_block1_branch2a"
  type: "Convolution"
  bottom: "eltwise_stage0_block0"
  top: "conv_stage0_block1_branch2a"
  param {
    lr_mult: 0
    decay_mult: 1
  }
  param {
    lr_mult: 0
    decay_mult: 0
  }
  convolution_param {
    num_output: 32
    pad: 0
    kernel_size: 1
    stride: 1
    weight_filler {
      type: "xavier"
    }
    bias_filler {
      type: "constant"
      value: 0
    }
  }
}
layer {
  name: "bn_stage0_block1_branch2a"
  type: "BatchNorm"
  bottom: "conv_stage0_block1_branch2a"
  top: "conv_stage0_block1_branch2a"
  param {
    lr_mult: 0
    decay_mult: 0
  }
  param {
    lr_mult: 0
    decay_mult: 0
  }
  param {
    lr_mult: 0
    decay_mult: 0
  }
  batch_norm_param {
    use_global_stats: false
  }
}
layer {
  name: "scale_stage0_block1_branch2a"
  type: "Scale"
  bottom: "conv_stage0_block1_branch2a"
  top: "conv_stage0_block1_branch2a"
  scale_param {
    bias_term: true
  }
}
layer {
  name: "relu_stage0_block1_branch2a"
  type: "ReLU"
  bottom: "conv_stage0_block1_branch2a"
  top: "conv_stage0_block1_branch2a"
}
layer {
  name: "conv_stage0_block1_branch2b"
  type: "Convolution"
  bottom: "conv_stage0_block1_branch2a"
  top: "conv_stage0_block1_branch2b"
  param {
    lr_mult: 0
    decay_mult: 1
  }
  param {
    lr_mult: 0
    decay_mult: 0
  }
  convolution_param {
    num_output: 32
    pad: 1
    kernel_size: 3
    stride: 1
    weight_filler {
      type: "xavier"
    }
    bias_filler {
      type: "constant"
      value: 0
    }
  }
}
layer {
  name: "bn_stage0_block1_branch2b"
  type: "BatchNorm"
  bottom: "conv_stage0_block1_branch2b"
  top: "conv_stage0_block1_branch2b"
  param {
    lr_mult: 0
    decay_mult: 0
  }
  param {
    lr_mult: 0
    decay_mult: 0
  }
  param {
    lr_mult: 0
    decay_mult: 0
  }
  batch_norm_param {
    use_global_stats: false
  }
}
layer {
  name: "scale_stage0_block1_branch2b"
  type: "Scale"
  bottom: "conv_stage0_block1_branch2b"
  top: "conv_stage0_block1_branch2b"
  scale_param {
    bias_term: true
  }
}
layer {
  name: "relu_stage0_block1_branch2b"
  type: "ReLU"
  bottom: "conv_stage0_block1_branch2b"
  top: "conv_stage0_block1_branch2b"
}
layer {
  name: "conv_stage0_block1_branch2c"
  type: "Convolution"
  bottom: "conv_stage0_block1_branch2b"
  top: "conv_stage0_block1_branch2c"
  param {
    lr_mult: 0
    decay_mult: 1
  }
  param {
    lr_mult: 0
    decay_mult: 0
  }
  convolution_param {
    num_output: 128
    pad: 0
    kernel_size: 1
    stride: 1
    weight_filler {
      type: "xavier"
    }
    bias_filler {
      type: "constant"
      value: 0
    }
  }
}
layer {
  name: "bn_stage0_block1_branch2c"
  type: "BatchNorm"
  bottom: "conv_stage0_block1_branch2c"
  top: "conv_stage0_block1_branch2c"
  param {
    lr_mult: 0
    decay_mult: 0
  }
  param {
    lr_mult: 0
    decay_mult: 0
  }
  param {
    lr_mult: 0
    decay_mult: 0
  }
  batch_norm_param {
    use_global_stats: false
  }
}
layer {
  name: "scale_stage0_block1_branch2c"
  type: "Scale"
  bottom: "conv_stage0_block1_branch2c"
  top: "conv_stage0_block1_branch2c"
  scale_param {
    bias_term: true
  }
}
layer {
  name: "eltwise_stage0_block1"
  type: "Eltwise"
  bottom: "eltwise_stage0_block0"
  bottom: "conv_stage0_block1_branch2c"
  top: "eltwise_stage0_block1"
}
layer {
  name: "relu_stage0_block1"
  type: "ReLU"
  bottom: "eltwise_stage0_block1"
  top: "eltwise_stage0_block1"
}
layer {
  name: "conv_stage0_block2_branch2a"
  type: "Convolution"
  bottom: "eltwise_stage0_block1"
  top: "conv_stage0_block2_branch2a"
  param {
    lr_mult: 0
    decay_mult: 1
  }
  param {
    lr_mult: 0
    decay_mult: 0
  }
  convolution_param {
    num_output: 32
    pad: 0
    kernel_size: 1
    stride: 1
    weight_filler {
      type: "xavier"
    }
    bias_filler {
      type: "constant"
      value: 0
    }
  }
}
layer {
  name: "bn_stage0_block2_branch2a"
  type: "BatchNorm"
  bottom: "conv_stage0_block2_branch2a"
  top: "conv_stage0_block2_branch2a"
  param {
    lr_mult: 0
    decay_mult: 0
  }
  param {
    lr_mult: 0
    decay_mult: 0
  }
  param {
    lr_mult: 0
    decay_mult: 0
  }
  batch_norm_param {
    use_global_stats: false
  }
}
layer {
  name: "scale_stage0_block2_branch2a"
  type: "Scale"
  bottom: "conv_stage0_block2_branch2a"
  top: "conv_stage0_block2_branch2a"
  scale_param {
    bias_term: true
  }
}
layer {
  name: "relu_stage0_block2_branch2a"
  type: "ReLU"
  bottom: "conv_stage0_block2_branch2a"
  top: "conv_stage0_block2_branch2a"
}
layer {
  name: "conv_stage0_block2_branch2b"
  type: "Convolution"
  bottom: "conv_stage0_block2_branch2a"
  top: "conv_stage0_block2_branch2b"
  param {
    lr_mult: 0
    decay_mult: 1
  }
  param {
    lr_mult: 0
    decay_mult: 0
  }
  convolution_param {
    num_output: 32
    pad: 1
    kernel_size: 3
    stride: 1
    weight_filler {
      type: "xavier"
    }
    bias_filler {
      type: "constant"
      value: 0
    }
  }
}
layer {
  name: "bn_stage0_block2_branch2b"
  type: "BatchNorm"
  bottom: "conv_stage0_block2_branch2b"
  top: "conv_stage0_block2_branch2b"
  param {
    lr_mult: 0
    decay_mult: 0
  }
  param {
    lr_mult: 0
    decay_mult: 0
  }
  param {
    lr_mult: 0
    decay_mult: 0
  }
  batch_norm_param {
    use_global_stats: false
  }
}
layer {
  name: "scale_stage0_block2_branch2b"
  type: "Scale"
  bottom: "conv_stage0_block2_branch2b"
  top: "conv_stage0_block2_branch2b"
  scale_param {
    bias_term: true
  }
}
layer {
  name: "relu_stage0_block2_branch2b"
  type: "ReLU"
  bottom: "conv_stage0_block2_branch2b"
  top: "conv_stage0_block2_branch2b"
}
layer {
  name: "conv_stage0_block2_branch2c"
  type: "Convolution"
  bottom: "conv_stage0_block2_branch2b"
  top: "conv_stage0_block2_branch2c"
  param {
    lr_mult: 0
    decay_mult: 1
  }
  param {
    lr_mult: 0
    decay_mult: 0
  }
  convolution_param {
    num_output: 128
    pad: 0
    kernel_size: 1
    stride: 1
    weight_filler {
      type: "xavier"
    }
    bias_filler {
      type: "constant"
      value: 0
    }
  }
}
layer {
  name: "bn_stage0_block2_branch2c"
  type: "BatchNorm"
  bottom: "conv_stage0_block2_branch2c"
  top: "conv_stage0_block2_branch2c"
  param {
    lr_mult: 0
    decay_mult: 0
  }
  param {
    lr_mult: 0
    decay_mult: 0
  }
  param {
    lr_mult: 0
    decay_mult: 0
  }
  batch_norm_param {
    use_global_stats: false
  }
}
layer {
  name: "scale_stage0_block2_branch2c"
  type: "Scale"
  bottom: "conv_stage0_block2_branch2c"
  top: "conv_stage0_block2_branch2c"
  scale_param {
    bias_term: true
  }
}
layer {
  name: "eltwise_stage0_block2"
  type: "Eltwise"
  bottom: "eltwise_stage0_block1"
  bottom: "conv_stage0_block2_branch2c"
  top: "eltwise_stage0_block2"
}
layer {
  name: "relu_stage0_block2"
  type: "ReLU"
  bottom: "eltwise_stage0_block2"
  top: "eltwise_stage0_block2"
}
layer {
  name: "conv_stage1_block0_proj_shortcut"
  type: "Convolution"
  bottom: "eltwise_stage0_block2"
  top: "conv_stage1_block0_proj_shortcut"
  param {
    lr_mult: 0
    decay_mult: 1
  }
  param {
    lr_mult: 0
    decay_mult: 0
  }
  convolution_param {
    num_output: 256
    pad: 0
    kernel_size: 1
    stride: 2
    weight_filler {
      type: "xavier"
    }
    bias_filler {
      type: "constant"
      value: 0
    }
  }
}
layer {
  name: "bn_stage1_block0_proj_shortcut"
  type: "BatchNorm"
  bottom: "conv_stage1_block0_proj_shortcut"
  top: "conv_stage1_block0_proj_shortcut"
  param {
    lr_mult: 0
    decay_mult: 0
  }
  param {
    lr_mult: 0
    decay_mult: 0
  }
  param {
    lr_mult: 0
    decay_mult: 0
  }
  batch_norm_param {
    use_global_stats: false
  }
}
layer {
  name: "scale_stage1_block0_proj_shortcut"
  type: "Scale"
  bottom: "conv_stage1_block0_proj_shortcut"
  top: "conv_stage1_block0_proj_shortcut"
  scale_param {
    bias_term: true
  }
}
layer {
  name: "conv_stage1_block0_branch2a"
  type: "Convolution"
  bottom: "eltwise_stage0_block2"
  top: "conv_stage1_block0_branch2a"
  param {
    lr_mult: 0
    decay_mult: 1
  }
  param {
    lr_mult: 0
    decay_mult: 0
  }
  convolution_param {
    num_output: 64
    pad: 0
    kernel_size: 1
    stride: 2
    weight_filler {
      type: "xavier"
    }
    bias_filler {
      type: "constant"
      value: 0
    }
  }
}
layer {
  name: "bn_stage1_block0_branch2a"
  type: "BatchNorm"
  bottom: "conv_stage1_block0_branch2a"
  top: "conv_stage1_block0_branch2a"
  param {
    lr_mult: 0
    decay_mult: 0
  }
  param {
    lr_mult: 0
    decay_mult: 0
  }
  param {
    lr_mult: 0
    decay_mult: 0
  }
  batch_norm_param {
    use_global_stats: false
  }
}
layer {
  name: "scale_stage1_block0_branch2a"
  type: "Scale"
  bottom: "conv_stage1_block0_branch2a"
  top: "conv_stage1_block0_branch2a"
  scale_param {
    bias_term: true
  }
}
layer {
  name: "relu_stage1_block0_branch2a"
  type: "ReLU"
  bottom: "conv_stage1_block0_branch2a"
  top: "conv_stage1_block0_branch2a"
}
layer {
  name: "conv_stage1_block0_branch2b"
  type: "Convolution"
  bottom: "conv_stage1_block0_branch2a"
  top: "conv_stage1_block0_branch2b"
  param {
    lr_mult: 0
    decay_mult: 1
  }
  param {
    lr_mult: 0
    decay_mult: 0
  }
  convolution_param {
    num_output: 64
    pad: 1
    kernel_size: 3
    stride: 1
    weight_filler {
      type: "xavier"
    }
    bias_filler {
      type: "constant"
      value: 0
    }
  }
}
layer {
  name: "bn_stage1_block0_branch2b"
  type: "BatchNorm"
  bottom: "conv_stage1_block0_branch2b"
  top: "conv_stage1_block0_branch2b"
  param {
    lr_mult: 0
    decay_mult: 0
  }
  param {
    lr_mult: 0
    decay_mult: 0
  }
  param {
    lr_mult: 0
    decay_mult: 0
  }
  batch_norm_param {
    use_global_stats: false
  }
}
layer {
  name: "scale_stage1_block0_branch2b"
  type: "Scale"
  bottom: "conv_stage1_block0_branch2b"
  top: "conv_stage1_block0_branch2b"
  scale_param {
    bias_term: true
  }
}
layer {
  name: "relu_stage1_block0_branch2b"
  type: "ReLU"
  bottom: "conv_stage1_block0_branch2b"
  top: "conv_stage1_block0_branch2b"
}
layer {
  name: "conv_stage1_block0_branch2c"
  type: "Convolution"
  bottom: "conv_stage1_block0_branch2b"
  top: "conv_stage1_block0_branch2c"
  param {
    lr_mult: 0
    decay_mult: 1
  }
  param {
    lr_mult: 0
    decay_mult: 0
  }
  convolution_param {
    num_output: 256
    pad: 0
    kernel_size: 1
    stride: 1
    weight_filler {
      type: "xavier"
    }
    bias_filler {
      type: "constant"
      value: 0
    }
  }
}
layer {
  name: "bn_stage1_block0_branch2c"
  type: "BatchNorm"
  bottom: "conv_stage1_block0_branch2c"
  top: "conv_stage1_block0_branch2c"
  param {
    lr_mult: 0
    decay_mult: 0
  }
  param {
    lr_mult: 0
    decay_mult: 0
  }
  param {
    lr_mult: 0
    decay_mult: 0
  }
  batch_norm_param {
    use_global_stats: false
  }
}
layer {
  name: "scale_stage1_block0_branch2c"
  type: "Scale"
  bottom: "conv_stage1_block0_branch2c"
  top: "conv_stage1_block0_branch2c"
  scale_param {
    bias_term: true
  }
}
layer {
  name: "eltwise_stage1_block0"
  type: "Eltwise"
  bottom: "conv_stage1_block0_proj_shortcut"
  bottom: "conv_stage1_block0_branch2c"
  top: "eltwise_stage1_block0"
}
layer {
  name: "relu_stage1_block0"
  type: "ReLU"
  bottom: "eltwise_stage1_block0"
  top: "eltwise_stage1_block0"
}
layer {
  name: "conv_stage1_block1_branch2a"
  type: "Convolution"
  bottom: "eltwise_stage1_block0"
  top: "conv_stage1_block1_branch2a"
  param {
    lr_mult: 0
    decay_mult: 1
  }
  param {
    lr_mult: 0
    decay_mult: 0
  }
  convolution_param {
    num_output: 64
    pad: 0
    kernel_size: 1
    stride: 1
    weight_filler {
      type: "xavier"
    }
    bias_filler {
      type: "constant"
      value: 0
    }
  }
}
layer {
  name: "bn_stage1_block1_branch2a"
  type: "BatchNorm"
  bottom: "conv_stage1_block1_branch2a"
  top: "conv_stage1_block1_branch2a"
  param {
    lr_mult: 0
    decay_mult: 0
  }
  param {
    lr_mult: 0
    decay_mult: 0
  }
  param {
    lr_mult: 0
    decay_mult: 0
  }
  batch_norm_param {
    use_global_stats: false
  }
}
layer {
  name: "scale_stage1_block1_branch2a"
  type: "Scale"
  bottom: "conv_stage1_block1_branch2a"
  top: "conv_stage1_block1_branch2a"
  scale_param {
    bias_term: true
  }
}
layer {
  name: "relu_stage1_block1_branch2a"
  type: "ReLU"
  bottom: "conv_stage1_block1_branch2a"
  top: "conv_stage1_block1_branch2a"
}
layer {
  name: "conv_stage1_block1_branch2b"
  type: "Convolution"
  bottom: "conv_stage1_block1_branch2a"
  top: "conv_stage1_block1_branch2b"
  param {
    lr_mult: 0
    decay_mult: 1
  }
  param {
    lr_mult: 0
    decay_mult: 0
  }
  convolution_param {
    num_output: 64
    pad: 1
    kernel_size: 3
    stride: 1
    weight_filler {
      type: "xavier"
    }
    bias_filler {
      type: "constant"
      value: 0
    }
  }
}
layer {
  name: "bn_stage1_block1_branch2b"
  type: "BatchNorm"
  bottom: "conv_stage1_block1_branch2b"
  top: "conv_stage1_block1_branch2b"
  param {
    lr_mult: 0
    decay_mult: 0
  }
  param {
    lr_mult: 0
    decay_mult: 0
  }
  param {
    lr_mult: 0
    decay_mult: 0
  }
  batch_norm_param {
    use_global_stats: false
  }
}
layer {
  name: "scale_stage1_block1_branch2b"
  type: "Scale"
  bottom: "conv_stage1_block1_branch2b"
  top: "conv_stage1_block1_branch2b"
  scale_param {
    bias_term: true
  }
}
layer {
  name: "relu_stage1_block1_branch2b"
  type: "ReLU"
  bottom: "conv_stage1_block1_branch2b"
  top: "conv_stage1_block1_branch2b"
}
layer {
  name: "conv_stage1_block1_branch2c"
  type: "Convolution"
  bottom: "conv_stage1_block1_branch2b"
  top: "conv_stage1_block1_branch2c"
  param {
    lr_mult: 0
    decay_mult: 1
  }
  param {
    lr_mult: 0
    decay_mult: 0
  }
  convolution_param {
    num_output: 256
    pad: 0
    kernel_size: 1
    stride: 1
    weight_filler {
      type: "xavier"
    }
    bias_filler {
      type: "constant"
      value: 0
    }
  }
}
layer {
  name: "bn_stage1_block1_branch2c"
  type: "BatchNorm"
  bottom: "conv_stage1_block1_branch2c"
  top: "conv_stage1_block1_branch2c"
  param {
    lr_mult: 0
    decay_mult: 0
  }
  param {
    lr_mult: 0
    decay_mult: 0
  }
  param {
    lr_mult: 0
    decay_mult: 0
  }
  batch_norm_param {
    use_global_stats: false
  }
}
layer {
  name: "scale_stage1_block1_branch2c"
  type: "Scale"
  bottom: "conv_stage1_block1_branch2c"
  top: "conv_stage1_block1_branch2c"
  scale_param {
    bias_term: true
  }
}
layer {
  name: "eltwise_stage1_block1"
  type: "Eltwise"
  bottom: "eltwise_stage1_block0"
  bottom: "conv_stage1_block1_branch2c"
  top: "eltwise_stage1_block1"
}
layer {
  name: "relu_stage1_block1"
  type: "ReLU"
  bottom: "eltwise_stage1_block1"
  top: "eltwise_stage1_block1"
}
layer {
  name: "conv_stage1_block2_branch2a"
  type: "Convolution"
  bottom: "eltwise_stage1_block1"
  top: "conv_stage1_block2_branch2a"
  param {
    lr_mult: 0
    decay_mult: 1
  }
  param {
    lr_mult: 0
    decay_mult: 0
  }
  convolution_param {
    num_output: 64
    pad: 0
    kernel_size: 1
    stride: 1
    weight_filler {
      type: "xavier"
    }
    bias_filler {
      type: "constant"
      value: 0
    }
  }
}
layer {
  name: "bn_stage1_block2_branch2a"
  type: "BatchNorm"
  bottom: "conv_stage1_block2_branch2a"
  top: "conv_stage1_block2_branch2a"
  param {
    lr_mult: 0
    decay_mult: 0
  }
  param {
    lr_mult: 0
    decay_mult: 0
  }
  param {
    lr_mult: 0
    decay_mult: 0
  }
  batch_norm_param {
    use_global_stats: false
  }
}
layer {
  name: "scale_stage1_block2_branch2a"
  type: "Scale"
  bottom: "conv_stage1_block2_branch2a"
  top: "conv_stage1_block2_branch2a"
  scale_param {
    bias_term: true
  }
}
layer {
  name: "relu_stage1_block2_branch2a"
  type: "ReLU"
  bottom: "conv_stage1_block2_branch2a"
  top: "conv_stage1_block2_branch2a"
}
layer {
  name: "conv_stage1_block2_branch2b"
  type: "Convolution"
  bottom: "conv_stage1_block2_branch2a"
  top: "conv_stage1_block2_branch2b"
  param {
    lr_mult: 0
    decay_mult: 1
  }
  param {
    lr_mult: 0
    decay_mult: 0
  }
  convolution_param {
    num_output: 64
    pad: 1
    kernel_size: 3
    stride: 1
    weight_filler {
      type: "xavier"
    }
    bias_filler {
      type: "constant"
      value: 0
    }
  }
}
layer {
  name: "bn_stage1_block2_branch2b"
  type: "BatchNorm"
  bottom: "conv_stage1_block2_branch2b"
  top: "conv_stage1_block2_branch2b"
  param {
    lr_mult: 0
    decay_mult: 0
  }
  param {
    lr_mult: 0
    decay_mult: 0
  }
  param {
    lr_mult: 0
    decay_mult: 0
  }
  batch_norm_param {
    use_global_stats: false
  }
}
layer {
  name: "scale_stage1_block2_branch2b"
  type: "Scale"
  bottom: "conv_stage1_block2_branch2b"
  top: "conv_stage1_block2_branch2b"
  scale_param {
    bias_term: true
  }
}
layer {
  name: "relu_stage1_block2_branch2b"
  type: "ReLU"
  bottom: "conv_stage1_block2_branch2b"
  top: "conv_stage1_block2_branch2b"
}
layer {
  name: "conv_stage1_block2_branch2c"
  type: "Convolution"
  bottom: "conv_stage1_block2_branch2b"
  top: "conv_stage1_block2_branch2c"
  param {
    lr_mult: 0
    decay_mult: 1
  }
  param {
    lr_mult: 0
    decay_mult: 0
  }
  convolution_param {
    num_output: 256
    pad: 0
    kernel_size: 1
    stride: 1
    weight_filler {
      type: "xavier"
    }
    bias_filler {
      type: "constant"
      value: 0
    }
  }
}
layer {
  name: "bn_stage1_block2_branch2c"
  type: "BatchNorm"
  bottom: "conv_stage1_block2_branch2c"
  top: "conv_stage1_block2_branch2c"
  param {
    lr_mult: 0
    decay_mult: 0
  }
  param {
    lr_mult: 0
    decay_mult: 0
  }
  param {
    lr_mult: 0
    decay_mult: 0
  }
  batch_norm_param {
    use_global_stats: false
  }
}
layer {
  name: "scale_stage1_block2_branch2c"
  type: "Scale"
  bottom: "conv_stage1_block2_branch2c"
  top: "conv_stage1_block2_branch2c"
  scale_param {
    bias_term: true
  }
}
layer {
  name: "eltwise_stage1_block2"
  type: "Eltwise"
  bottom: "eltwise_stage1_block1"
  bottom: "conv_stage1_block2_branch2c"
  top: "eltwise_stage1_block2"
}
layer {
  name: "relu_stage1_block2"
  type: "ReLU"
  bottom: "eltwise_stage1_block2"
  top: "eltwise_stage1_block2"
}
layer {
  name: "conv_stage1_block3_branch2a"
  type: "Convolution"
  bottom: "eltwise_stage1_block2"
  top: "conv_stage1_block3_branch2a"
  param {
    lr_mult: 0
    decay_mult: 1
  }
  param {
    lr_mult: 0
    decay_mult: 0
  }
  convolution_param {
    num_output: 64
    pad: 0
    kernel_size: 1
    stride: 1
    weight_filler {
      type: "xavier"
    }
    bias_filler {
      type: "constant"
      value: 0
    }
  }
}
layer {
  name: "bn_stage1_block3_branch2a"
  type: "BatchNorm"
  bottom: "conv_stage1_block3_branch2a"
  top: "conv_stage1_block3_branch2a"
  param {
    lr_mult: 0
    decay_mult: 0
  }
  param {
    lr_mult: 0
    decay_mult: 0
  }
  param {
    lr_mult: 0
    decay_mult: 0
  }
  batch_norm_param {
    use_global_stats: false
  }
}
layer {
  name: "scale_stage1_block3_branch2a"
  type: "Scale"
  bottom: "conv_stage1_block3_branch2a"
  top: "conv_stage1_block3_branch2a"
  scale_param {
    bias_term: true
  }
}
layer {
  name: "relu_stage1_block3_branch2a"
  type: "ReLU"
  bottom: "conv_stage1_block3_branch2a"
  top: "conv_stage1_block3_branch2a"
}
layer {
  name: "conv_stage1_block3_branch2b"
  type: "Convolution"
  bottom: "conv_stage1_block3_branch2a"
  top: "conv_stage1_block3_branch2b"
  param {
    lr_mult: 0
    decay_mult: 1
  }
  param {
    lr_mult: 0
    decay_mult: 0
  }
  convolution_param {
    num_output: 64
    pad: 1
    kernel_size: 3
    stride: 1
    weight_filler {
      type: "xavier"
    }
    bias_filler {
      type: "constant"
      value: 0
    }
  }
}
layer {
  name: "bn_stage1_block3_branch2b"
  type: "BatchNorm"
  bottom: "conv_stage1_block3_branch2b"
  top: "conv_stage1_block3_branch2b"
  param {
    lr_mult: 0
    decay_mult: 0
  }
  param {
    lr_mult: 0
    decay_mult: 0
  }
  param {
    lr_mult: 0
    decay_mult: 0
  }
  batch_norm_param {
    use_global_stats: false
  }
}
layer {
  name: "scale_stage1_block3_branch2b"
  type: "Scale"
  bottom: "conv_stage1_block3_branch2b"
  top: "conv_stage1_block3_branch2b"
  scale_param {
    bias_term: true
  }
}
layer {
  name: "relu_stage1_block3_branch2b"
  type: "ReLU"
  bottom: "conv_stage1_block3_branch2b"
  top: "conv_stage1_block3_branch2b"
}
layer {
  name: "conv_stage1_block3_branch2c"
  type: "Convolution"
  bottom: "conv_stage1_block3_branch2b"
  top: "conv_stage1_block3_branch2c"
  param {
    lr_mult: 0
    decay_mult: 1
  }
  param {
    lr_mult: 0
    decay_mult: 0
  }
  convolution_param {
    num_output: 256
    pad: 0
    kernel_size: 1
    stride: 1
    weight_filler {
      type: "xavier"
    }
    bias_filler {
      type: "constant"
      value: 0
    }
  }
}
layer {
  name: "bn_stage1_block3_branch2c"
  type: "BatchNorm"
  bottom: "conv_stage1_block3_branch2c"
  top: "conv_stage1_block3_branch2c"
  param {
    lr_mult: 0
    decay_mult: 0
  }
  param {
    lr_mult: 0
    decay_mult: 0
  }
  param {
    lr_mult: 0
    decay_mult: 0
  }
  batch_norm_param {
    use_global_stats: false
  }
}
layer {
  name: "scale_stage1_block3_branch2c"
  type: "Scale"
  bottom: "conv_stage1_block3_branch2c"
  top: "conv_stage1_block3_branch2c"
  scale_param {
    bias_term: true
  }
}
layer {
  name: "eltwise_stage1_block3"
  type: "Eltwise"
  bottom: "eltwise_stage1_block2"
  bottom: "conv_stage1_block3_branch2c"
  top: "eltwise_stage1_block3"
}
layer {
  name: "relu_stage1_block3"
  type: "ReLU"
  bottom: "eltwise_stage1_block3"
  top: "eltwise_stage1_block3"
}
layer {
  name: "conv_stage2_block0_proj_shortcut"
  type: "Convolution"
  bottom: "eltwise_stage1_block3"
  top: "conv_stage2_block0_proj_shortcut"
  param {
    lr_mult: 0
    decay_mult: 1
  }
  param {
    lr_mult: 0
    decay_mult: 0
  }
  convolution_param {
    num_output: 512
    pad: 0
    kernel_size: 1
    stride: 2
    weight_filler {
      type: "xavier"
    }
    bias_filler {
      type: "constant"
      value: 0
    }
  }
}
layer {
  name: "bn_stage2_block0_proj_shortcut"
  type: "BatchNorm"
  bottom: "conv_stage2_block0_proj_shortcut"
  top: "conv_stage2_block0_proj_shortcut"
  param {
    lr_mult: 0
    decay_mult: 0
  }
  param {
    lr_mult: 0
    decay_mult: 0
  }
  param {
    lr_mult: 0
    decay_mult: 0
  }
  batch_norm_param {
    use_global_stats: false
  }
}
layer {
  name: "scale_stage2_block0_proj_shortcut"
  type: "Scale"
  bottom: "conv_stage2_block0_proj_shortcut"
  top: "conv_stage2_block0_proj_shortcut"
  scale_param {
    bias_term: true
  }
}
layer {
  name: "conv_stage2_block0_branch2a"
  type: "Convolution"
  bottom: "eltwise_stage1_block3"
  top: "conv_stage2_block0_branch2a"
  param {
    lr_mult: 0
    decay_mult: 1
  }
  param {
    lr_mult: 0
    decay_mult: 0
  }
  convolution_param {
    num_output: 128
    pad: 0
    kernel_size: 1
    stride: 2
    weight_filler {
      type: "xavier"
    }
    bias_filler {
      type: "constant"
      value: 0
    }
  }
}
layer {
  name: "bn_stage2_block0_branch2a"
  type: "BatchNorm"
  bottom: "conv_stage2_block0_branch2a"
  top: "conv_stage2_block0_branch2a"
  param {
    lr_mult: 0
    decay_mult: 0
  }
  param {
    lr_mult: 0
    decay_mult: 0
  }
  param {
    lr_mult: 0
    decay_mult: 0
  }
  batch_norm_param {
    use_global_stats: false
  }
}
layer {
  name: "scale_stage2_block0_branch2a"
  type: "Scale"
  bottom: "conv_stage2_block0_branch2a"
  top: "conv_stage2_block0_branch2a"
  scale_param {
    bias_term: true
  }
}
layer {
  name: "relu_stage2_block0_branch2a"
  type: "ReLU"
  bottom: "conv_stage2_block0_branch2a"
  top: "conv_stage2_block0_branch2a"
}
layer {
  name: "conv_stage2_block0_branch2b"
  type: "Convolution"
  bottom: "conv_stage2_block0_branch2a"
  top: "conv_stage2_block0_branch2b"
  param {
    lr_mult: 0
    decay_mult: 1
  }
  param {
    lr_mult: 0
    decay_mult: 0
  }
  convolution_param {
    num_output: 128
    
I0608 18:26:19.107975  3070 layer_factory.hpp:77] Creating layer data
I0608 18:26:19.108045  3070 net.cpp:84] Creating Layer data
I0608 18:26:19.108060  3070 net.cpp:380] data -> data
I0608 18:26:19.108098  3070 net.cpp:380] data -> label
I0608 18:26:19.108139  3070 image_data_layer.cpp:38] Opening file /home/dbicho/Documents/datasets/all_labeled_dataset_augmented_finetuning/train.txt
I0608 18:26:19.125785  3070 image_data_layer.cpp:53] Shuffling data
I0608 18:26:19.131448  3070 image_data_layer.cpp:63] A total of 19955 images.
I0608 18:26:19.280362  3070 image_data_layer.cpp:90] output data size: 7,3,224,224
I0608 18:26:19.288609  3070 net.cpp:122] Setting up data
I0608 18:26:19.288631  3070 net.cpp:129] Top shape: 7 3 224 224 (1053696)
I0608 18:26:19.288636  3070 net.cpp:129] Top shape: 7 (7)
I0608 18:26:19.288640  3070 net.cpp:137] Memory required for data: 4214812
I0608 18:26:19.288645  3070 layer_factory.hpp:77] Creating layer conv_1
I0608 18:26:19.288671  3070 net.cpp:84] Creating Layer conv_1
I0608 18:26:19.288677  3070 net.cpp:406] conv_1 <- data
I0608 18:26:19.288697  3070 net.cpp:380] conv_1 -> conv_1
I0608 18:26:19.289800  3070 net.cpp:122] Setting up conv_1
I0608 18:26:19.289813  3070 net.cpp:129] Top shape: 7 64 112 112 (5619712)
I0608 18:26:19.289815  3070 net.cpp:137] Memory required for data: 26693660
I0608 18:26:19.289831  3070 layer_factory.hpp:77] Creating layer bn_1
I0608 18:26:19.289844  3070 net.cpp:84] Creating Layer bn_1
I0608 18:26:19.289849  3070 net.cpp:406] bn_1 <- conv_1
I0608 18:26:19.289857  3070 net.cpp:367] bn_1 -> conv_1 (in-place)
I0608 18:26:19.290084  3070 net.cpp:122] Setting up bn_1
I0608 18:26:19.290096  3070 net.cpp:129] Top shape: 7 64 112 112 (5619712)
I0608 18:26:19.290117  3070 net.cpp:137] Memory required for data: 49172508
I0608 18:26:19.290134  3070 layer_factory.hpp:77] Creating layer scale_1
I0608 18:26:19.290144  3070 net.cpp:84] Creating Layer scale_1
I0608 18:26:19.290149  3070 net.cpp:406] scale_1 <- conv_1
I0608 18:26:19.290156  3070 net.cpp:367] scale_1 -> conv_1 (in-place)
I0608 18:26:19.290216  3070 layer_factory.hpp:77] Creating layer scale_1
I0608 18:26:19.290807  3070 net.cpp:122] Setting up scale_1
I0608 18:26:19.290819  3070 net.cpp:129] Top shape: 7 64 112 112 (5619712)
I0608 18:26:19.290822  3070 net.cpp:137] Memory required for data: 71651356
I0608 18:26:19.290829  3070 layer_factory.hpp:77] Creating layer relu_1
I0608 18:26:19.290840  3070 net.cpp:84] Creating Layer relu_1
I0608 18:26:19.290846  3070 net.cpp:406] relu_1 <- conv_1
I0608 18:26:19.290853  3070 net.cpp:367] relu_1 -> conv_1 (in-place)
I0608 18:26:19.290863  3070 net.cpp:122] Setting up relu_1
I0608 18:26:19.290870  3070 net.cpp:129] Top shape: 7 64 112 112 (5619712)
I0608 18:26:19.290874  3070 net.cpp:137] Memory required for data: 94130204
I0608 18:26:19.290879  3070 layer_factory.hpp:77] Creating layer pool1
I0608 18:26:19.290886  3070 net.cpp:84] Creating Layer pool1
I0608 18:26:19.290890  3070 net.cpp:406] pool1 <- conv_1
I0608 18:26:19.290897  3070 net.cpp:380] pool1 -> pool1
I0608 18:26:19.290956  3070 net.cpp:122] Setting up pool1
I0608 18:26:19.290966  3070 net.cpp:129] Top shape: 7 64 56 56 (1404928)
I0608 18:26:19.290971  3070 net.cpp:137] Memory required for data: 99749916
I0608 18:26:19.290976  3070 layer_factory.hpp:77] Creating layer pool1_pool1_0_split
I0608 18:26:19.290983  3070 net.cpp:84] Creating Layer pool1_pool1_0_split
I0608 18:26:19.290990  3070 net.cpp:406] pool1_pool1_0_split <- pool1
I0608 18:26:19.290998  3070 net.cpp:380] pool1_pool1_0_split -> pool1_pool1_0_split_0
I0608 18:26:19.291012  3070 net.cpp:380] pool1_pool1_0_split -> pool1_pool1_0_split_1
I0608 18:26:19.291052  3070 net.cpp:122] Setting up pool1_pool1_0_split
I0608 18:26:19.291061  3070 net.cpp:129] Top shape: 7 64 56 56 (1404928)
I0608 18:26:19.291069  3070 net.cpp:129] Top shape: 7 64 56 56 (1404928)
I0608 18:26:19.291074  3070 net.cpp:137] Memory required for data: 110989340
I0608 18:26:19.291077  3070 layer_factory.hpp:77] Creating layer conv_stage0_block0_proj_shortcut
I0608 18:26:19.291092  3070 net.cpp:84] Creating Layer conv_stage0_block0_proj_shortcut
I0608 18:26:19.291097  3070 net.cpp:406] conv_stage0_block0_proj_shortcut <- pool1_pool1_0_split_0
I0608 18:26:19.291107  3070 net.cpp:380] conv_stage0_block0_proj_shortcut -> conv_stage0_block0_proj_shortcut
I0608 18:26:19.292121  3070 net.cpp:122] Setting up conv_stage0_block0_proj_shortcut
I0608 18:26:19.292138  3070 net.cpp:129] Top shape: 7 128 56 56 (2809856)
I0608 18:26:19.292143  3070 net.cpp:137] Memory required for data: 122228764
I0608 18:26:19.292158  3070 layer_factory.hpp:77] Creating layer bn_stage0_block0_proj_shortcut
I0608 18:26:19.292173  3070 net.cpp:84] Creating Layer bn_stage0_block0_proj_shortcut
I0608 18:26:19.292181  3070 net.cpp:406] bn_stage0_block0_proj_shortcut <- conv_stage0_block0_proj_shortcut
I0608 18:26:19.292192  3070 net.cpp:367] bn_stage0_block0_proj_shortcut -> conv_stage0_block0_proj_shortcut (in-place)
I0608 18:26:19.292408  3070 net.cpp:122] Setting up bn_stage0_block0_proj_shortcut
I0608 18:26:19.292420  3070 net.cpp:129] Top shape: 7 128 56 56 (2809856)
I0608 18:26:19.292424  3070 net.cpp:137] Memory required for data: 133468188
I0608 18:26:19.292435  3070 layer_factory.hpp:77] Creating layer scale_stage0_block0_proj_shortcut
I0608 18:26:19.292445  3070 net.cpp:84] Creating Layer scale_stage0_block0_proj_shortcut
I0608 18:26:19.292450  3070 net.cpp:406] scale_stage0_block0_proj_shortcut <- conv_stage0_block0_proj_shortcut
I0608 18:26:19.292459  3070 net.cpp:367] scale_stage0_block0_proj_shortcut -> conv_stage0_block0_proj_shortcut (in-place)
I0608 18:26:19.292510  3070 layer_factory.hpp:77] Creating layer scale_stage0_block0_proj_shortcut
I0608 18:26:19.292632  3070 net.cpp:122] Setting up scale_stage0_block0_proj_shortcut
I0608 18:26:19.292655  3070 net.cpp:129] Top shape: 7 128 56 56 (2809856)
I0608 18:26:19.292660  3070 net.cpp:137] Memory required for data: 144707612
I0608 18:26:19.292668  3070 layer_factory.hpp:77] Creating layer conv_stage0_block0_branch2a
I0608 18:26:19.292683  3070 net.cpp:84] Creating Layer conv_stage0_block0_branch2a
I0608 18:26:19.292690  3070 net.cpp:406] conv_stage0_block0_branch2a <- pool1_pool1_0_split_1
I0608 18:26:19.292701  3070 net.cpp:380] conv_stage0_block0_branch2a -> conv_stage0_block0_branch2a
I0608 18:26:19.292984  3070 net.cpp:122] Setting up conv_stage0_block0_branch2a
I0608 18:26:19.292995  3070 net.cpp:129] Top shape: 7 32 56 56 (702464)
I0608 18:26:19.293000  3070 net.cpp:137] Memory required for data: 147517468
I0608 18:26:19.293009  3070 layer_factory.hpp:77] Creating layer bn_stage0_block0_branch2a
I0608 18:26:19.293018  3070 net.cpp:84] Creating Layer bn_stage0_block0_branch2a
I0608 18:26:19.293025  3070 net.cpp:406] bn_stage0_block0_branch2a <- conv_stage0_block0_branch2a
I0608 18:26:19.293033  3070 net.cpp:367] bn_stage0_block0_branch2a -> conv_stage0_block0_branch2a (in-place)
I0608 18:26:19.293238  3070 net.cpp:122] Setting up bn_stage0_block0_branch2a
I0608 18:26:19.293247  3070 net.cpp:129] Top shape: 7 32 56 56 (702464)
I0608 18:26:19.293252  3070 net.cpp:137] Memory required for data: 150327324
I0608 18:26:19.293267  3070 layer_factory.hpp:77] Creating layer scale_stage0_block0_branch2a
I0608 18:26:19.293277  3070 net.cpp:84] Creating Layer scale_stage0_block0_branch2a
I0608 18:26:19.293282  3070 net.cpp:406] scale_stage0_block0_branch2a <- conv_stage0_block0_branch2a
I0608 18:26:19.293289  3070 net.cpp:367] scale_stage0_block0_branch2a -> conv_stage0_block0_branch2a (in-place)
I0608 18:26:19.293331  3070 layer_factory.hpp:77] Creating layer scale_stage0_block0_branch2a
I0608 18:26:19.293459  3070 net.cpp:122] Setting up scale_stage0_block0_branch2a
I0608 18:26:19.293469  3070 net.cpp:129] Top shape: 7 32 56 56 (702464)
I0608 18:26:19.293474  3070 net.cpp:137] Memory required for data: 153137180
I0608 18:26:19.293483  3070 layer_factory.hpp:77] Creating layer relu_stage0_block0_branch2a
I0608 18:26:19.293490  3070 net.cpp:84] Creating Layer relu_stage0_block0_branch2a
I0608 18:26:19.293495  3070 net.cpp:406] relu_stage0_block0_branch2a <- conv_stage0_block0_branch2a
I0608 18:26:19.293500  3070 net.cpp:367] relu_stage0_block0_branch2a -> conv_stage0_block0_branch2a (in-place)
I0608 18:26:19.293507  3070 net.cpp:122] Setting up relu_stage0_block0_branch2a
I0608 18:26:19.293511  3070 net.cpp:129] Top shape: 7 32 56 56 (702464)
I0608 18:26:19.293514  3070 net.cpp:137] Memory required for data: 155947036
I0608 18:26:19.293516  3070 layer_factory.hpp:77] Creating layer conv_stage0_block0_branch2b
I0608 18:26:19.293524  3070 net.cpp:84] Creating Layer conv_stage0_block0_branch2b
I0608 18:26:19.293529  3070 net.cpp:406] conv_stage0_block0_branch2b <- conv_stage0_block0_branch2a
I0608 18:26:19.293534  3070 net.cpp:380] conv_stage0_block0_branch2b -> conv_stage0_block0_branch2b
I0608 18:26:19.293752  3070 net.cpp:122] Setting up conv_stage0_block0_branch2b
I0608 18:26:19.293759  3070 net.cpp:129] Top shape: 7 32 56 56 (702464)
I0608 18:26:19.293761  3070 net.cpp:137] Memory required for data: 158756892
I0608 18:26:19.293766  3070 layer_factory.hpp:77] Creating layer bn_stage0_block0_branch2b
I0608 18:26:19.293771  3070 net.cpp:84] Creating Layer bn_stage0_block0_branch2b
I0608 18:26:19.293774  3070 net.cpp:406] bn_stage0_block0_branch2b <- conv_stage0_block0_branch2b
I0608 18:26:19.293778  3070 net.cpp:367] bn_stage0_block0_branch2b -> conv_stage0_block0_branch2b (in-place)
I0608 18:26:19.293915  3070 net.cpp:122] Setting up bn_stage0_block0_branch2b
I0608 18:26:19.293920  3070 net.cpp:129] Top shape: 7 32 56 56 (702464)
I0608 18:26:19.293922  3070 net.cpp:137] Memory required for data: 161566748
I0608 18:26:19.293927  3070 layer_factory.hpp:77] Creating layer scale_stage0_block0_branch2b
I0608 18:26:19.293937  3070 net.cpp:84] Creating Layer scale_stage0_block0_branch2b
I0608 18:26:19.293948  3070 net.cpp:406] scale_stage0_block0_branch2b <- conv_stage0_block0_branch2b
I0608 18:26:19.293953  3070 net.cpp:367] scale_stage0_block0_branch2b -> conv_stage0_block0_branch2b (in-place)
I0608 18:26:19.293982  3070 layer_factory.hpp:77] Creating layer scale_stage0_block0_branch2b
I0608 18:26:19.294065  3070 net.cpp:122] Setting up scale_stage0_block0_branch2b
I0608 18:26:19.294070  3070 net.cpp:129] Top shape: 7 32 56 56 (702464)
I0608 18:26:19.294072  3070 net.cpp:137] Memory required for data: 164376604
I0608 18:26:19.294077  3070 layer_factory.hpp:77] Creating layer relu_stage0_block0_branch2b
I0608 18:26:19.294082  3070 net.cpp:84] Creating Layer relu_stage0_block0_branch2b
I0608 18:26:19.294085  3070 net.cpp:406] relu_stage0_block0_branch2b <- conv_stage0_block0_branch2b
I0608 18:26:19.294090  3070 net.cpp:367] relu_stage0_block0_branch2b -> conv_stage0_block0_branch2b (in-place)
I0608 18:26:19.294095  3070 net.cpp:122] Setting up relu_stage0_block0_branch2b
I0608 18:26:19.294097  3070 net.cpp:129] Top shape: 7 32 56 56 (702464)
I0608 18:26:19.294100  3070 net.cpp:137] Memory required for data: 167186460
I0608 18:26:19.294102  3070 layer_factory.hpp:77] Creating layer conv_stage0_block0_branch2c
I0608 18:26:19.294111  3070 net.cpp:84] Creating Layer conv_stage0_block0_branch2c
I0608 18:26:19.294113  3070 net.cpp:406] conv_stage0_block0_branch2c <- conv_stage0_block0_branch2b
I0608 18:26:19.294118  3070 net.cpp:380] conv_stage0_block0_branch2c -> conv_stage0_block0_branch2c
I0608 18:26:19.294312  3070 net.cpp:122] Setting up conv_stage0_block0_branch2c
I0608 18:26:19.294319  3070 net.cpp:129] Top shape: 7 128 56 56 (2809856)
I0608 18:26:19.294322  3070 net.cpp:137] Memory required for data: 178425884
I0608 18:26:19.294327  3070 layer_factory.hpp:77] Creating layer bn_stage0_block0_branch2c
I0608 18:26:19.294332  3070 net.cpp:84] Creating Layer bn_stage0_block0_branch2c
I0608 18:26:19.294335  3070 net.cpp:406] bn_stage0_block0_branch2c <- conv_stage0_block0_branch2c
I0608 18:26:19.294340  3070 net.cpp:367] bn_stage0_block0_branch2c -> conv_stage0_block0_branch2c (in-place)
I0608 18:26:19.294472  3070 net.cpp:122] Setting up bn_stage0_block0_branch2c
I0608 18:26:19.294477  3070 net.cpp:129] Top shape: 7 128 56 56 (2809856)
I0608 18:26:19.294479  3070 net.cpp:137] Memory required for data: 189665308
I0608 18:26:19.294489  3070 layer_factory.hpp:77] Creating layer scale_stage0_block0_branch2c
I0608 18:26:19.294494  3070 net.cpp:84] Creating Layer scale_stage0_block0_branch2c
I0608 18:26:19.294497  3070 net.cpp:406] scale_stage0_block0_branch2c <- conv_stage0_block0_branch2c
I0608 18:26:19.294502  3070 net.cpp:367] scale_stage0_block0_branch2c -> conv_stage0_block0_branch2c (in-place)
I0608 18:26:19.294529  3070 layer_factory.hpp:77] Creating layer scale_stage0_block0_branch2c
I0608 18:26:19.294647  3070 net.cpp:122] Setting up scale_stage0_block0_branch2c
I0608 18:26:19.294656  3070 net.cpp:129] Top shape: 7 128 56 56 (2809856)
I0608 18:26:19.294661  3070 net.cpp:137] Memory required for data: 200904732
I0608 18:26:19.294669  3070 layer_factory.hpp:77] Creating layer eltwise_stage0_block0
I0608 18:26:19.294678  3070 net.cpp:84] Creating Layer eltwise_stage0_block0
I0608 18:26:19.294684  3070 net.cpp:406] eltwise_stage0_block0 <- conv_stage0_block0_proj_shortcut
I0608 18:26:19.294689  3070 net.cpp:406] eltwise_stage0_block0 <- conv_stage0_block0_branch2c
I0608 18:26:19.294698  3070 net.cpp:380] eltwise_stage0_block0 -> eltwise_stage0_block0
I0608 18:26:19.294725  3070 net.cpp:122] Setting up eltwise_stage0_block0
I0608 18:26:19.294734  3070 net.cpp:129] Top shape: 7 128 56 56 (2809856)
I0608 18:26:19.294739  3070 net.cpp:137] Memory required for data: 212144156
I0608 18:26:19.294742  3070 layer_factory.hpp:77] Creating layer relu_stage0_block0
I0608 18:26:19.294749  3070 net.cpp:84] Creating Layer relu_stage0_block0
I0608 18:26:19.294754  3070 net.cpp:406] relu_stage0_block0 <- eltwise_stage0_block0
I0608 18:26:19.294761  3070 net.cpp:367] relu_stage0_block0 -> eltwise_stage0_block0 (in-place)
I0608 18:26:19.294780  3070 net.cpp:122] Setting up relu_stage0_block0
I0608 18:26:19.294787  3070 net.cpp:129] Top shape: 7 128 56 56 (2809856)
I0608 18:26:19.294792  3070 net.cpp:137] Memory required for data: 223383580
I0608 18:26:19.294796  3070 layer_factory.hpp:77] Creating layer eltwise_stage0_block0_relu_stage0_block0_0_split
I0608 18:26:19.294805  3070 net.cpp:84] Creating Layer eltwise_stage0_block0_relu_stage0_block0_0_split
I0608 18:26:19.294809  3070 net.cpp:406] eltwise_stage0_block0_relu_stage0_block0_0_split <- eltwise_stage0_block0
I0608 18:26:19.294816  3070 net.cpp:380] eltwise_stage0_block0_relu_stage0_block0_0_split -> eltwise_stage0_block0_relu_stage0_block0_0_split_0
I0608 18:26:19.294826  3070 net.cpp:380] eltwise_stage0_block0_relu_stage0_block0_0_split -> eltwise_stage0_block0_relu_stage0_block0_0_split_1
I0608 18:26:19.294864  3070 net.cpp:122] Setting up eltwise_stage0_block0_relu_stage0_block0_0_split
I0608 18:26:19.294872  3070 net.cpp:129] Top shape: 7 128 56 56 (2809856)
I0608 18:26:19.294879  3070 net.cpp:129] Top shape: 7 128 56 56 (2809856)
I0608 18:26:19.294884  3070 net.cpp:137] Memory required for data: 245862428
I0608 18:26:19.294888  3070 layer_factory.hpp:77] Creating layer conv_stage0_block1_branch2a
I0608 18:26:19.294900  3070 net.cpp:84] Creating Layer conv_stage0_block1_branch2a
I0608 18:26:19.294905  3070 net.cpp:406] conv_stage0_block1_branch2a <- eltwise_stage0_block0_relu_stage0_block0_0_split_0
I0608 18:26:19.294914  3070 net.cpp:380] conv_stage0_block1_branch2a -> conv_stage0_block1_branch2a
I0608 18:26:19.295194  3070 net.cpp:122] Setting up conv_stage0_block1_branch2a
I0608 18:26:19.295207  3070 net.cpp:129] Top shape: 7 32 56 56 (702464)
I0608 18:26:19.295212  3070 net.cpp:137] Memory required for data: 248672284
I0608 18:26:19.295219  3070 layer_factory.hpp:77] Creating layer bn_stage0_block1_branch2a
I0608 18:26:19.295229  3070 net.cpp:84] Creating Layer bn_stage0_block1_branch2a
I0608 18:26:19.295234  3070 net.cpp:406] bn_stage0_block1_branch2a <- conv_stage0_block1_branch2a
I0608 18:26:19.295243  3070 net.cpp:367] bn_stage0_block1_branch2a -> conv_stage0_block1_branch2a (in-place)
I0608 18:26:19.295441  3070 net.cpp:122] Setting up bn_stage0_block1_branch2a
I0608 18:26:19.295450  3070 net.cpp:129] Top shape: 7 32 56 56 (702464)
I0608 18:26:19.295455  3070 net.cpp:137] Memory required for data: 251482140
I0608 18:26:19.295466  3070 layer_factory.hpp:77] Creating layer scale_stage0_block1_branch2a
I0608 18:26:19.295475  3070 net.cpp:84] Creating Layer scale_stage0_block1_branch2a
I0608 18:26:19.295480  3070 net.cpp:406] scale_stage0_block1_branch2a <- conv_stage0_block1_branch2a
I0608 18:26:19.295487  3070 net.cpp:367] scale_stage0_block1_branch2a -> conv_stage0_block1_branch2a (in-place)
I0608 18:26:19.295527  3070 layer_factory.hpp:77] Creating layer scale_stage0_block1_branch2a
I0608 18:26:19.295650  3070 net.cpp:122] Setting up scale_stage0_block1_branch2a
I0608 18:26:19.295658  3070 net.cpp:129] Top shape: 7 32 56 56 (702464)
I0608 18:26:19.295663  3070 net.cpp:137] Memory required for data: 254291996
I0608 18:26:19.295671  3070 layer_factory.hpp:77] Creating layer relu_stage0_block1_branch2a
I0608 18:26:19.295680  3070 net.cpp:84] Creating Layer relu_stage0_block1_branch2a
I0608 18:26:19.295684  3070 net.cpp:406] relu_stage0_block1_branch2a <- conv_stage0_block1_branch2a
I0608 18:26:19.295691  3070 net.cpp:367] relu_stage0_block1_branch2a -> conv_stage0_block1_branch2a (in-place)
I0608 18:26:19.295701  3070 net.cpp:122] Setting up relu_stage0_block1_branch2a
I0608 18:26:19.295706  3070 net.cpp:129] Top shape: 7 32 56 56 (702464)
I0608 18:26:19.295711  3070 net.cpp:137] Memory required for data: 257101852
I0608 18:26:19.295716  3070 layer_factory.hpp:77] Creating layer conv_stage0_block1_branch2b
I0608 18:26:19.295727  3070 net.cpp:84] Creating Layer conv_stage0_block1_branch2b
I0608 18:26:19.295732  3070 net.cpp:406] conv_stage0_block1_branch2b <- conv_stage0_block1_branch2a
I0608 18:26:19.295742  3070 net.cpp:380] conv_stage0_block1_branch2b -> conv_stage0_block1_branch2b
I0608 18:26:19.296001  3070 net.cpp:122] Setting up conv_stage0_block1_branch2b
I0608 18:26:19.296010  3070 net.cpp:129] Top shape: 7 32 56 56 (702464)
I0608 18:26:19.296012  3070 net.cpp:137] Memory required for data: 259911708
I0608 18:26:19.296017  3070 layer_factory.hpp:77] Creating layer bn_stage0_block1_branch2b
I0608 18:26:19.296025  3070 net.cpp:84] Creating Layer bn_stage0_block1_branch2b
I0608 18:26:19.296027  3070 net.cpp:406] bn_stage0_block1_branch2b <- conv_stage0_block1_branch2b
I0608 18:26:19.296033  3070 net.cpp:367] bn_stage0_block1_branch2b -> conv_stage0_block1_branch2b (in-place)
I0608 18:26:19.296169  3070 net.cpp:122] Setting up bn_stage0_block1_branch2b
I0608 18:26:19.296174  3070 net.cpp:129] Top shape: 7 32 56 56 (702464)
I0608 18:26:19.296176  3070 net.cpp:137] Memory required for data: 262721564
I0608 18:26:19.296182  3070 layer_factory.hpp:77] Creating layer scale_stage0_block1_branch2b
I0608 18:26:19.296187  3070 net.cpp:84] Creating Layer scale_stage0_block1_branch2b
I0608 18:26:19.296190  3070 net.cpp:406] scale_stage0_block1_branch2b <- conv_stage0_block1_branch2b
I0608 18:26:19.296193  3070 net.cpp:367] scale_stage0_block1_branch2b -> conv_stage0_block1_branch2b (in-place)
I0608 18:26:19.296219  3070 layer_factory.hpp:77] Creating layer scale_stage0_block1_branch2b
I0608 18:26:19.296303  3070 net.cpp:122] Setting up scale_stage0_block1_branch2b
I0608 18:26:19.296309  3070 net.cpp:129] Top shape: 7 32 56 56 (702464)
I0608 18:26:19.296311  3070 net.cpp:137] Memory required for data: 265531420
I0608 18:26:19.296316  3070 layer_factory.hpp:77] Creating layer relu_stage0_block1_branch2b
I0608 18:26:19.296320  3070 net.cpp:84] Creating Layer relu_stage0_block1_branch2b
I0608 18:26:19.296324  3070 net.cpp:406] relu_stage0_block1_branch2b <- conv_stage0_block1_branch2b
I0608 18:26:19.296327  3070 net.cpp:367] relu_stage0_block1_branch2b -> conv_stage0_block1_branch2b (in-place)
I0608 18:26:19.296331  3070 net.cpp:122] Setting up relu_stage0_block1_branch2b
I0608 18:26:19.296334  3070 net.cpp:129] Top shape: 7 32 56 56 (702464)
I0608 18:26:19.296337  3070 net.cpp:137] Memory required for data: 268341276
I0608 18:26:19.296339  3070 layer_factory.hpp:77] Creating layer conv_stage0_block1_branch2c
I0608 18:26:19.296353  3070 net.cpp:84] Creating Layer conv_stage0_block1_branch2c
I0608 18:26:19.296356  3070 net.cpp:406] conv_stage0_block1_branch2c <- conv_stage0_block1_branch2b
I0608 18:26:19.296361  3070 net.cpp:380] conv_stage0_block1_branch2c -> conv_stage0_block1_branch2c
I0608 18:26:19.296537  3070 net.cpp:122] Setting up conv_stage0_block1_branch2c
I0608 18:26:19.296543  3070 net.cpp:129] Top shape: 7 128 56 56 (2809856)
I0608 18:26:19.296546  3070 net.cpp:137] Memory required for data: 279580700
I0608 18:26:19.296550  3070 layer_factory.hpp:77] Creating layer bn_stage0_block1_branch2c
I0608 18:26:19.296556  3070 net.cpp:84] Creating Layer bn_stage0_block1_branch2c
I0608 18:26:19.296558  3070 net.cpp:406] bn_stage0_block1_branch2c <- conv_stage0_block1_branch2c
I0608 18:26:19.296563  3070 net.cpp:367] bn_stage0_block1_branch2c -> conv_stage0_block1_branch2c (in-place)
I0608 18:26:19.296686  3070 net.cpp:122] Setting up bn_stage0_block1_branch2c
I0608 18:26:19.296691  3070 net.cpp:129] Top shape: 7 128 56 56 (2809856)
I0608 18:26:19.296694  3070 net.cpp:137] Memory required for data: 290820124
I0608 18:26:19.296700  3070 layer_factory.hpp:77] Creating layer scale_stage0_block1_branch2c
I0608 18:26:19.296705  3070 net.cpp:84] Creating Layer scale_stage0_block1_branch2c
I0608 18:26:19.296707  3070 net.cpp:406] scale_stage0_block1_branch2c <- conv_stage0_block1_branch2c
I0608 18:26:19.296711  3070 net.cpp:367] scale_stage0_block1_branch2c -> conv_stage0_block1_branch2c (in-place)
I0608 18:26:19.296736  3070 layer_factory.hpp:77] Creating layer scale_stage0_block1_branch2c
I0608 18:26:19.296811  3070 net.cpp:122] Setting up scale_stage0_block1_branch2c
I0608 18:26:19.296816  3070 net.cpp:129] Top shape: 7 128 56 56 (2809856)
I0608 18:26:19.296828  3070 net.cpp:137] Memory required for data: 302059548
I0608 18:26:19.296833  3070 layer_factory.hpp:77] Creating layer eltwise_stage0_block1
I0608 18:26:19.296838  3070 net.cpp:84] Creating Layer eltwise_stage0_block1
I0608 18:26:19.296839  3070 net.cpp:406] eltwise_stage0_block1 <- eltwise_stage0_block0_relu_stage0_block0_0_split_1
I0608 18:26:19.296844  3070 net.cpp:406] eltwise_stage0_block1 <- conv_stage0_block1_branch2c
I0608 18:26:19.296847  3070 net.cpp:380] eltwise_stage0_block1 -> eltwise_stage0_block1
I0608 18:26:19.296867  3070 net.cpp:122] Setting up eltwise_stage0_block1
I0608 18:26:19.296872  3070 net.cpp:129] Top shape: 7 128 56 56 (2809856)
I0608 18:26:19.296875  3070 net.cpp:137] Memory required for data: 313298972
I0608 18:26:19.296877  3070 layer_factory.hpp:77] Creating layer relu_stage0_block1
I0608 18:26:19.296881  3070 net.cpp:84] Creating Layer relu_stage0_block1
I0608 18:26:19.296885  3070 net.cpp:406] relu_stage0_block1 <- eltwise_stage0_block1
I0608 18:26:19.296887  3070 net.cpp:367] relu_stage0_block1 -> eltwise_stage0_block1 (in-place)
I0608 18:26:19.296891  3070 net.cpp:122] Setting up relu_stage0_block1
I0608 18:26:19.296895  3070 net.cpp:129] Top shape: 7 128 56 56 (2809856)
I0608 18:26:19.296897  3070 net.cpp:137] Memory required for data: 324538396
I0608 18:26:19.296900  3070 layer_factory.hpp:77] Creating layer eltwise_stage0_block1_relu_stage0_block1_0_split
I0608 18:26:19.296905  3070 net.cpp:84] Creating Layer eltwise_stage0_block1_relu_stage0_block1_0_split
I0608 18:26:19.296906  3070 net.cpp:406] eltwise_stage0_block1_relu_stage0_block1_0_split <- eltwise_stage0_block1
I0608 18:26:19.296912  3070 net.cpp:380] eltwise_stage0_block1_relu_stage0_block1_0_split -> eltwise_stage0_block1_relu_stage0_block1_0_split_0
I0608 18:26:19.296922  3070 net.cpp:380] eltwise_stage0_block1_relu_stage0_block1_0_split -> eltwise_stage0_block1_relu_stage0_block1_0_split_1
I0608 18:26:19.296960  3070 net.cpp:122] Setting up eltwise_stage0_block1_relu_stage0_block1_0_split
I0608 18:26:19.296969  3070 net.cpp:129] Top shape: 7 128 56 56 (2809856)
I0608 18:26:19.296977  3070 net.cpp:129] Top shape: 7 128 56 56 (2809856)
I0608 18:26:19.296982  3070 net.cpp:137] Memory required for data: 347017244
I0608 18:26:19.296985  3070 layer_factory.hpp:77] Creating layer conv_stage0_block2_branch2a
I0608 18:26:19.296998  3070 net.cpp:84] Creating Layer conv_stage0_block2_branch2a
I0608 18:26:19.297003  3070 net.cpp:406] conv_stage0_block2_branch2a <- eltwise_stage0_block1_relu_stage0_block1_0_split_0
I0608 18:26:19.297011  3070 net.cpp:380] conv_stage0_block2_branch2a -> conv_stage0_block2_branch2a
I0608 18:26:19.297286  3070 net.cpp:122] Setting up conv_stage0_block2_branch2a
I0608 18:26:19.297296  3070 net.cpp:129] Top shape: 7 32 56 56 (702464)
I0608 18:26:19.297300  3070 net.cpp:137] Memory required for data: 349827100
I0608 18:26:19.297308  3070 layer_factory.hpp:77] Creating layer bn_stage0_block2_branch2a
I0608 18:26:19.297317  3070 net.cpp:84] Creating Layer bn_stage0_block2_branch2a
I0608 18:26:19.297322  3070 net.cpp:406] bn_stage0_block2_branch2a <- conv_stage0_block2_branch2a
I0608 18:26:19.297329  3070 net.cpp:367] bn_stage0_block2_branch2a -> conv_stage0_block2_branch2a (in-place)
I0608 18:26:19.297519  3070 net.cpp:122] Setting up bn_stage0_block2_branch2a
I0608 18:26:19.297528  3070 net.cpp:129] Top shape: 7 32 56 56 (702464)
I0608 18:26:19.297533  3070 net.cpp:137] Memory required for data: 352636956
I0608 18:26:19.297543  3070 layer_factory.hpp:77] Creating layer scale_stage0_block2_branch2a
I0608 18:26:19.297550  3070 net.cpp:84] Creating Layer scale_stage0_block2_branch2a
I0608 18:26:19.297555  3070 net.cpp:406] scale_stage0_block2_branch2a <- conv_stage0_block2_branch2a
I0608 18:26:19.297562  3070 net.cpp:367] scale_stage0_block2_branch2a -> conv_stage0_block2_branch2a (in-place)
I0608 18:26:19.297605  3070 layer_factory.hpp:77] Creating layer scale_stage0_block2_branch2a
I0608 18:26:19.297724  3070 net.cpp:122] Setting up scale_stage0_block2_branch2a
I0608 18:26:19.297734  3070 net.cpp:129] Top shape: 7 32 56 56 (702464)
I0608 18:26:19.297747  3070 net.cpp:137] Memory required for data: 355446812
I0608 18:26:19.297756  3070 layer_factory.hpp:77] Creating layer relu_stage0_block2_branch2a
I0608 18:26:19.297765  3070 net.cpp:84] Creating Layer relu_stage0_block2_branch2a
I0608 18:26:19.297770  3070 net.cpp:406] relu_stage0_block2_branch2a <- conv_stage0_block2_branch2a
I0608 18:26:19.297776  3070 net.cpp:367] relu_stage0_block2_branch2a -> conv_stage0_block2_branch2a (in-place)
I0608 18:26:19.297785  3070 net.cpp:122] Setting up relu_stage0_block2_branch2a
I0608 18:26:19.297791  3070 net.cpp:129] Top shape: 7 32 56 56 (702464)
I0608 18:26:19.297796  3070 net.cpp:137] Memory required for data: 358256668
I0608 18:26:19.297801  3070 layer_factory.hpp:77] Creating layer conv_stage0_block2_branch2b
I0608 18:26:19.297812  3070 net.cpp:84] Creating Layer conv_stage0_block2_branch2b
I0608 18:26:19.297817  3070 net.cpp:406] conv_stage0_block2_branch2b <- conv_stage0_block2_branch2a
I0608 18:26:19.297825  3070 net.cpp:380] conv_stage0_block2_branch2b -> conv_stage0_block2_branch2b
I0608 18:26:19.298151  3070 net.cpp:122] Setting up conv_stage0_block2_branch2b
I0608 18:26:19.298161  3070 net.cpp:129] Top shape: 7 32 56 56 (702464)
I0608 18:26:19.298166  3070 net.cpp:137] Memory required for data: 361066524
I0608 18:26:19.298180  3070 layer_factory.hpp:77] Creating layer bn_stage0_block2_branch2b
I0608 18:26:19.298190  3070 net.cpp:84] Creating Layer bn_stage0_block2_branch2b
I0608 18:26:19.298195  3070 net.cpp:406] bn_stage0_block2_branch2b <- conv_stage0_block2_branch2b
I0608 18:26:19.298203  3070 net.cpp:367] bn_stage0_block2_branch2b -> conv_stage0_block2_branch2b (in-place)
I0608 18:26:19.298363  3070 net.cpp:122] Setting up bn_stage0_block2_branch2b
I0608 18:26:19.298372  3070 net.cpp:129] Top shape: 7 32 56 56 (702464)
I0608 18:26:19.298374  3070 net.cpp:137] Memory required for data: 363876380
I0608 18:26:19.298380  3070 layer_factory.hpp:77] Creating layer scale_stage0_block2_branch2b
I0608 18:26:19.298388  3070 net.cpp:84] Creating Layer scale_stage0_block2_branch2b
I0608 18:26:19.298389  3070 net.cpp:406] scale_stage0_block2_branch2b <- conv_stage0_block2_branch2b
I0608 18:26:19.298394  3070 net.cpp:367] scale_stage0_block2_branch2b -> conv_stage0_block2_branch2b (in-place)
I0608 18:26:19.298426  3070 layer_factory.hpp:77] Creating layer scale_stage0_block2_branch2b
I0608 18:26:19.298507  3070 net.cpp:122] Setting up scale_stage0_block2_branch2b
I0608 18:26:19.298512  3070 net.cpp:129] Top shape: 7 32 56 56 (702464)
I0608 18:26:19.298514  3070 net.cpp:137] Memory required for data: 366686236
I0608 18:26:19.298518  3070 layer_factory.hpp:77] Creating layer relu_stage0_block2_branch2b
I0608 18:26:19.298523  3070 net.cpp:84] Creating Layer relu_stage0_block2_branch2b
I0608 18:26:19.298526  3070 net.cpp:406] relu_stage0_block2_branch2b <- conv_stage0_block2_branch2b
I0608 18:26:19.298529  3070 net.cpp:367] relu_stage0_block2_branch2b -> conv_stage0_block2_branch2b (in-place)
I0608 18:26:19.298533  3070 net.cpp:122] Setting up relu_stage0_block2_branch2b
I0608 18:26:19.298537  3070 net.cpp:129] Top shape: 7 32 56 56 (702464)
I0608 18:26:19.298539  3070 net.cpp:137] Memory required for data: 369496092
I0608 18:26:19.298542  3070 layer_factory.hpp:77] Creating layer conv_stage0_block2_branch2c
I0608 18:26:19.298549  3070 net.cpp:84] Creating Layer conv_stage0_block2_branch2c
I0608 18:26:19.298552  3070 net.cpp:406] conv_stage0_block2_branch2c <- conv_stage0_block2_branch2b
I0608 18:26:19.298557  3070 net.cpp:380] conv_stage0_block2_branch2c -> conv_stage0_block2_branch2c
I0608 18:26:19.298729  3070 net.cpp:122] Setting up conv_stage0_block2_branch2c
I0608 18:26:19.298734  3070 net.cpp:129] Top shape: 7 128 56 56 (2809856)
I0608 18:26:19.298738  3070 net.cpp:137] Memory required for data: 380735516
I0608 18:26:19.298741  3070 layer_factory.hpp:77] Creating layer bn_stage0_block2_branch2c
I0608 18:26:19.298746  3070 net.cpp:84] Creating Layer bn_stage0_block2_branch2c
I0608 18:26:19.298749  3070 net.cpp:406] bn_stage0_block2_branch2c <- conv_stage0_block2_branch2c
I0608 18:26:19.298763  3070 net.cpp:367] bn_stage0_block2_branch2c -> conv_stage0_block2_branch2c (in-place)
I0608 18:26:19.298892  3070 net.cpp:122] Setting up bn_stage0_block2_branch2c
I0608 18:26:19.298897  3070 net.cpp:129] Top shape: 7 128 56 56 (2809856)
I0608 18:26:19.298899  3070 net.cpp:137] Memory required for data: 391974940
I0608 18:26:19.298904  3070 layer_factory.hpp:77] Creating layer scale_stage0_block2_branch2c
I0608 18:26:19.298910  3070 net.cpp:84] Creating Layer scale_stage0_block2_branch2c
I0608 18:26:19.298913  3070 net.cpp:406] scale_stage0_block2_branch2c <- conv_stage0_block2_branch2c
I0608 18:26:19.298916  3070 net.cpp:367] scale_stage0_block2_branch2c -> conv_stage0_block2_branch2c (in-place)
I0608 18:26:19.298943  3070 layer_factory.hpp:77] Creating layer scale_stage0_block2_branch2c
I0608 18:26:19.299015  3070 net.cpp:122] Setting up scale_stage0_block2_branch2c
I0608 18:26:19.299019  3070 net.cpp:129] Top shape: 7 128 56 56 (2809856)
I0608 18:26:19.299021  3070 net.cpp:137] Memory required for data: 403214364
I0608 18:26:19.299026  3070 layer_factory.hpp:77] Creating layer eltwise_stage0_block2
I0608 18:26:19.299029  3070 net.cpp:84] Creating Layer eltwise_stage0_block2
I0608 18:26:19.299032  3070 net.cpp:406] eltwise_stage0_block2 <- eltwise_stage0_block1_relu_stage0_block1_0_split_1
I0608 18:26:19.299036  3070 net.cpp:406] eltwise_stage0_block2 <- conv_stage0_block2_branch2c
I0608 18:26:19.299039  3070 net.cpp:380] eltwise_stage0_block2 -> eltwise_stage0_block2
I0608 18:26:19.299055  3070 net.cpp:122] Setting up eltwise_stage0_block2
I0608 18:26:19.299062  3070 net.cpp:129] Top shape: 7 128 56 56 (2809856)
I0608 18:26:19.299063  3070 net.cpp:137] Memory required for data: 414453788
I0608 18:26:19.299067  3070 layer_factory.hpp:77] Creating layer relu_stage0_block2
I0608 18:26:19.299070  3070 net.cpp:84] Creating Layer relu_stage0_block2
I0608 18:26:19.299072  3070 net.cpp:406] relu_stage0_block2 <- eltwise_stage0_block2
I0608 18:26:19.299077  3070 net.cpp:367] relu_stage0_block2 -> eltwise_stage0_block2 (in-place)
I0608 18:26:19.299082  3070 net.cpp:122] Setting up relu_stage0_block2
I0608 18:26:19.299085  3070 net.cpp:129] Top shape: 7 128 56 56 (2809856)
I0608 18:26:19.299088  3070 net.cpp:137] Memory required for data: 425693212
I0608 18:26:19.299089  3070 layer_factory.hpp:77] Creating layer eltwise_stage0_block2_relu_stage0_block2_0_split
I0608 18:26:19.299094  3070 net.cpp:84] Creating Layer eltwise_stage0_block2_relu_stage0_block2_0_split
I0608 18:26:19.299096  3070 net.cpp:406] eltwise_stage0_block2_relu_stage0_block2_0_split <- eltwise_stage0_block2
I0608 18:26:19.299100  3070 net.cpp:380] eltwise_stage0_block2_relu_stage0_block2_0_split -> eltwise_stage0_block2_relu_stage0_block2_0_split_0
I0608 18:26:19.299106  3070 net.cpp:380] eltwise_stage0_block2_relu_stage0_block2_0_split -> eltwise_stage0_block2_relu_stage0_block2_0_split_1
I0608 18:26:19.299134  3070 net.cpp:122] Setting up eltwise_stage0_block2_relu_stage0_block2_0_split
I0608 18:26:19.299139  3070 net.cpp:129] Top shape: 7 128 56 56 (2809856)
I0608 18:26:19.299141  3070 net.cpp:129] Top shape: 7 128 56 56 (2809856)
I0608 18:26:19.299144  3070 net.cpp:137] Memory required for data: 448172060
I0608 18:26:19.299146  3070 layer_factory.hpp:77] Creating layer conv_stage1_block0_proj_shortcut
I0608 18:26:19.299154  3070 net.cpp:84] Creating Layer conv_stage1_block0_proj_shortcut
I0608 18:26:19.299156  3070 net.cpp:406] conv_stage1_block0_proj_shortcut <- eltwise_stage0_block2_relu_stage0_block2_0_split_0
I0608 18:26:19.299162  3070 net.cpp:380] conv_stage1_block0_proj_shortcut -> conv_stage1_block0_proj_shortcut
I0608 18:26:19.300642  3070 net.cpp:122] Setting up conv_stage1_block0_proj_shortcut
I0608 18:26:19.300653  3070 net.cpp:129] Top shape: 7 256 28 28 (1404928)
I0608 18:26:19.300657  3070 net.cpp:137] Memory required for data: 453791772
I0608 18:26:19.300663  3070 layer_factory.hpp:77] Creating layer bn_stage1_block0_proj_shortcut
I0608 18:26:19.300671  3070 net.cpp:84] Creating Layer bn_stage1_block0_proj_shortcut
I0608 18:26:19.300683  3070 net.cpp:406] bn_stage1_block0_proj_shortcut <- conv_stage1_block0_proj_shortcut
I0608 18:26:19.300690  3070 net.cpp:367] bn_stage1_block0_proj_shortcut -> conv_stage1_block0_proj_shortcut (in-place)
I0608 18:26:19.300837  3070 net.cpp:122] Setting up bn_stage1_block0_proj_shortcut
I0608 18:26:19.300842  3070 net.cpp:129] Top shape: 7 256 28 28 (1404928)
I0608 18:26:19.300843  3070 net.cpp:137] Memory required for data: 459411484
I0608 18:26:19.300849  3070 layer_factory.hpp:77] Creating layer scale_stage1_block0_proj_shortcut
I0608 18:26:19.300855  3070 net.cpp:84] Creating Layer scale_stage1_block0_proj_shortcut
I0608 18:26:19.300858  3070 net.cpp:406] scale_stage1_block0_proj_shortcut <- conv_stage1_block0_proj_shortcut
I0608 18:26:19.300863  3070 net.cpp:367] scale_stage1_block0_proj_shortcut -> conv_stage1_block0_proj_shortcut (in-place)
I0608 18:26:19.300894  3070 layer_factory.hpp:77] Creating layer scale_stage1_block0_proj_shortcut
I0608 18:26:19.300981  3070 net.cpp:122] Setting up scale_stage1_block0_proj_shortcut
I0608 18:26:19.300989  3070 net.cpp:129] Top shape: 7 256 28 28 (1404928)
I0608 18:26:19.300993  3070 net.cpp:137] Memory required for data: 465031196
I0608 18:26:19.301002  3070 layer_factory.hpp:77] Creating layer conv_stage1_block0_branch2a
I0608 18:26:19.301017  3070 net.cpp:84] Creating Layer conv_stage1_block0_branch2a
I0608 18:26:19.301023  3070 net.cpp:406] conv_stage1_block0_branch2a <- eltwise_stage0_block2_relu_stage0_block2_0_split_1
I0608 18:26:19.301031  3070 net.cpp:380] conv_stage1_block0_branch2a -> conv_stage1_block0_branch2a
I0608 18:26:19.301367  3070 net.cpp:122] Setting up conv_stage1_block0_branch2a
I0608 18:26:19.301376  3070 net.cpp:129] Top shape: 7 64 28 28 (351232)
I0608 18:26:19.301380  3070 net.cpp:137] Memory required for data: 466436124
I0608 18:26:19.301388  3070 layer_factory.hpp:77] Creating layer bn_stage1_block0_branch2a
I0608 18:26:19.301398  3070 net.cpp:84] Creating Layer bn_stage1_block0_branch2a
I0608 18:26:19.301401  3070 net.cpp:406] bn_stage1_block0_branch2a <- conv_stage1_block0_branch2a
I0608 18:26:19.301410  3070 net.cpp:367] bn_stage1_block0_branch2a -> conv_stage1_block0_branch2a (in-place)
I0608 18:26:19.301620  3070 net.cpp:122] Setting up bn_stage1_block0_branch2a
I0608 18:26:19.301630  3070 net.cpp:129] Top shape: 7 64 28 28 (351232)
I0608 18:26:19.301635  3070 net.cpp:137] Memory required for data: 467841052
I0608 18:26:19.301643  3070 layer_factory.hpp:77] Creating layer scale_stage1_block0_branch2a
I0608 18:26:19.301651  3070 net.cpp:84] Creating Layer scale_stage1_block0_branch2a
I0608 18:26:19.301656  3070 net.cpp:406] scale_stage1_block0_branch2a <- conv_stage1_block0_branch2a
I0608 18:26:19.301666  3070 net.cpp:367] scale_stage1_block0_branch2a -> conv_stage1_block0_branch2a (in-place)
I0608 18:26:19.301712  3070 layer_factory.hpp:77] Creating layer scale_stage1_block0_branch2a
I0608 18:26:19.301838  3070 net.cpp:122] Setting up scale_stage1_block0_branch2a
I0608 18:26:19.301846  3070 net.cpp:129] Top shape: 7 64 28 28 (351232)
I0608 18:26:19.301851  3070 net.cpp:137] Memory required for data: 469245980
I0608 18:26:19.301858  3070 layer_factory.hpp:77] Creating layer relu_stage1_block0_branch2a
I0608 18:26:19.301865  3070 net.cpp:84] Creating Layer relu_stage1_block0_branch2a
I0608 18:26:19.301870  3070 net.cpp:406] relu_stage1_block0_branch2a <- conv_stage1_block0_branch2a
I0608 18:26:19.301879  3070 net.cpp:367] relu_stage1_block0_branch2a -> conv_stage1_block0_branch2a (in-place)
I0608 18:26:19.301887  3070 net.cpp:122] Setting up relu_stage1_block0_branch2a
I0608 18:26:19.301893  3070 net.cpp:129] Top shape: 7 64 28 28 (351232)
I0608 18:26:19.301898  3070 net.cpp:137] Memory required for data: 470650908
I0608 18:26:19.301901  3070 layer_factory.hpp:77] Creating layer conv_stage1_block0_branch2b
I0608 18:26:19.301913  3070 net.cpp:84] Creating Layer conv_stage1_block0_branch2b
I0608 18:26:19.301918  3070 net.cpp:406] conv_stage1_block0_branch2b <- conv_stage1_block0_branch2a
I0608 18:26:19.301937  3070 net.cpp:380] conv_stage1_block0_branch2b -> conv_stage1_block0_branch2b
I0608 18:26:19.302551  3070 net.cpp:122] Setting up conv_stage1_block0_branch2b
I0608 18:26:19.302561  3070 net.cpp:129] Top shape: 7 64 28 28 (351232)
I0608 18:26:19.302565  3070 net.cpp:137] Memory required for data: 472055836
I0608 18:26:19.302573  3070 layer_factory.hpp:77] Creating layer bn_stage1_block0_branch2b
I0608 18:26:19.302582  3070 net.cpp:84] Creating Layer bn_stage1_block0_branch2b
I0608 18:26:19.302587  3070 net.cpp:406] bn_stage1_block0_branch2b <- conv_stage1_block0_branch2b
I0608 18:26:19.302595  3070 net.cpp:367] bn_stage1_block0_branch2b -> conv_stage1_block0_branch2b (in-place)
I0608 18:26:19.302814  3070 net.cpp:122] Setting up bn_stage1_block0_branch2b
I0608 18:26:19.302822  3070 net.cpp:129] Top shape: 7 64 28 28 (351232)
I0608 18:26:19.302826  3070 net.cpp:137] Memory required for data: 473460764
I0608 18:26:19.302835  3070 layer_factory.hpp:77] Creating layer scale_stage1_block0_branch2b
I0608 18:26:19.302845  3070 net.cpp:84] Creating Layer scale_stage1_block0_branch2b
I0608 18:26:19.302850  3070 net.cpp:406] scale_stage1_block0_branch2b <- conv_stage1_block0_branch2b
I0608 18:26:19.302857  3070 net.cpp:367] scale_stage1_block0_branch2b -> conv_stage1_block0_branch2b (in-place)
I0608 18:26:19.302901  3070 layer_factory.hpp:77] Creating layer scale_stage1_block0_branch2b
I0608 18:26:19.303022  3070 net.cpp:122] Setting up scale_stage1_block0_branch2b
I0608 18:26:19.303030  3070 net.cpp:129] Top shape: 7 64 28 28 (351232)
I0608 18:26:19.303031  3070 net.cpp:137] Memory required for data: 474865692
I0608 18:26:19.303036  3070 layer_factory.hpp:77] Creating layer relu_stage1_block0_branch2b
I0608 18:26:19.303041  3070 net.cpp:84] Creating Layer relu_stage1_block0_branch2b
I0608 18:26:19.303045  3070 net.cpp:406] relu_stage1_block0_branch2b <- conv_stage1_block0_branch2b
I0608 18:26:19.303050  3070 net.cpp:367] relu_stage1_block0_branch2b -> conv_stage1_block0_branch2b (in-place)
I0608 18:26:19.303055  3070 net.cpp:122] Setting up relu_stage1_block0_branch2b
I0608 18:26:19.303057  3070 net.cpp:129] Top shape: 7 64 28 28 (351232)
I0608 18:26:19.303059  3070 net.cpp:137] Memory required for data: 476270620
I0608 18:26:19.303062  3070 layer_factory.hpp:77] Creating layer conv_stage1_block0_branch2c
I0608 18:26:19.303072  3070 net.cpp:84] Creating Layer conv_stage1_block0_branch2c
I0608 18:26:19.303074  3070 net.cpp:406] conv_stage1_block0_branch2c <- conv_stage1_block0_branch2b
I0608 18:26:19.303081  3070 net.cpp:380] conv_stage1_block0_branch2c -> conv_stage1_block0_branch2c
I0608 18:26:19.303329  3070 net.cpp:122] Setting up conv_stage1_block0_branch2c
I0608 18:26:19.303334  3070 net.cpp:129] Top shape: 7 256 28 28 (1404928)
I0608 18:26:19.303337  3070 net.cpp:137] Memory required for data: 481890332
I0608 18:26:19.303341  3070 layer_factory.hpp:77] Creating layer bn_stage1_block0_branch2c
I0608 18:26:19.303362  3070 net.cpp:84] Creating Layer bn_stage1_block0_branch2c
I0608 18:26:19.303365  3070 net.cpp:406] bn_stage1_block0_branch2c <- conv_stage1_block0_branch2c
I0608 18:26:19.303369  3070 net.cpp:367] bn_stage1_block0_branch2c -> conv_stage1_block0_branch2c (in-place)
I0608 18:26:19.303503  3070 net.cpp:122] Setting up bn_stage1_block0_branch2c
I0608 18:26:19.303508  3070 net.cpp:129] Top shape: 7 256 28 28 (1404928)
I0608 18:26:19.303509  3070 net.cpp:137] Memory required for data: 487510044
I0608 18:26:19.303515  3070 layer_factory.hpp:77] Creating layer scale_stage1_block0_branch2c
I0608 18:26:19.303519  3070 net.cpp:84] Creating Layer scale_stage1_block0_branch2c
I0608 18:26:19.303522  3070 net.cpp:406] scale_stage1_block0_branch2c <- conv_stage1_block0_branch2c
I0608 18:26:19.303526  3070 net.cpp:367] scale_stage1_block0_branch2c -> conv_stage1_block0_branch2c (in-place)
I0608 18:26:19.303556  3070 layer_factory.hpp:77] Creating layer scale_stage1_block0_branch2c
I0608 18:26:19.303633  3070 net.cpp:122] Setting up scale_stage1_block0_branch2c
I0608 18:26:19.303637  3070 net.cpp:129] Top shape: 7 256 28 28 (1404928)
I0608 18:26:19.303647  3070 net.cpp:137] Memory required for data: 493129756
I0608 18:26:19.303653  3070 layer_factory.hpp:77] Creating layer eltwise_stage1_block0
I0608 18:26:19.303658  3070 net.cpp:84] Creating Layer eltwise_stage1_block0
I0608 18:26:19.303660  3070 net.cpp:406] eltwise_stage1_block0 <- conv_stage1_block0_proj_shortcut
I0608 18:26:19.303663  3070 net.cpp:406] eltwise_stage1_block0 <- conv_stage1_block0_branch2c
I0608 18:26:19.303668  3070 net.cpp:380] eltwise_stage1_block0 -> eltwise_stage1_block0
I0608 18:26:19.303689  3070 net.cpp:122] Setting up eltwise_stage1_block0
I0608 18:26:19.303692  3070 net.cpp:129] Top shape: 7 256 28 28 (1404928)
I0608 18:26:19.303694  3070 net.cpp:137] Memory required for data: 498749468
I0608 18:26:19.303696  3070 layer_factory.hpp:77] Creating layer relu_stage1_block0
I0608 18:26:19.303700  3070 net.cpp:84] Creating Layer relu_stage1_block0
I0608 18:26:19.303704  3070 net.cpp:406] relu_stage1_block0 <- eltwise_stage1_block0
I0608 18:26:19.303709  3070 net.cpp:367] relu_stage1_block0 -> eltwise_stage1_block0 (in-place)
I0608 18:26:19.303712  3070 net.cpp:122] Setting up relu_stage1_block0
I0608 18:26:19.303716  3070 net.cpp:129] Top shape: 7 256 28 28 (1404928)
I0608 18:26:19.303719  3070 net.cpp:137] Memory required for data: 504369180
I0608 18:26:19.303720  3070 layer_factory.hpp:77] Creating layer eltwise_stage1_block0_relu_stage1_block0_0_split
I0608 18:26:19.303725  3070 net.cpp:84] Creating Layer eltwise_stage1_block0_relu_stage1_block0_0_split
I0608 18:26:19.303727  3070 net.cpp:406] eltwise_stage1_block0_relu_stage1_block0_0_split <- eltwise_stage1_block0
I0608 18:26:19.303731  3070 net.cpp:380] eltwise_stage1_block0_relu_stage1_block0_0_split -> eltwise_stage1_block0_relu_stage1_block0_0_split_0
I0608 18:26:19.303737  3070 net.cpp:380] eltwise_stage1_block0_relu_stage1_block0_0_split -> eltwise_stage1_block0_relu_stage1_block0_0_split_1
I0608 18:26:19.303762  3070 net.cpp:122] Setting up eltwise_stage1_block0_relu_stage1_block0_0_split
I0608 18:26:19.303766  3070 net.cpp:129] Top shape: 7 256 28 28 (1404928)
I0608 18:26:19.303771  3070 net.cpp:129] Top shape: 7 256 28 28 (1404928)
I0608 18:26:19.303772  3070 net.cpp:137] Memory required for data: 515608604
I0608 18:26:19.303774  3070 layer_factory.hpp:77] Creating layer conv_stage1_block1_branch2a
I0608 18:26:19.303783  3070 net.cpp:84] Creating Layer conv_stage1_block1_branch2a
I0608 18:26:19.303786  3070 net.cpp:406] conv_stage1_block1_branch2a <- eltwise_stage1_block0_relu_stage1_block0_0_split_0
I0608 18:26:19.303791  3070 net.cpp:380] conv_stage1_block1_branch2a -> conv_stage1_block1_branch2a
I0608 18:26:19.304057  3070 net.cpp:122] Setting up conv_stage1_block1_branch2a
I0608 18:26:19.304067  3070 net.cpp:129] Top shape: 7 64 28 28 (351232)
I0608 18:26:19.304071  3070 net.cpp:137] Memory required for data: 517013532
I0608 18:26:19.304080  3070 layer_factory.hpp:77] Creating layer bn_stage1_block1_branch2a
I0608 18:26:19.304088  3070 net.cpp:84] Creating Layer bn_stage1_block1_branch2a
I0608 18:26:19.304093  3070 net.cpp:406] bn_stage1_block1_branch2a <- conv_stage1_block1_branch2a
I0608 18:26:19.304101  3070 net.cpp:367] bn_stage1_block1_branch2a -> conv_stage1_block1_branch2a (in-place)
I0608 18:26:19.304317  3070 net.cpp:122] Setting up bn_stage1_block1_branch2a
I0608 18:26:19.304325  3070 net.cpp:129] Top shape: 7 64 28 28 (351232)
I0608 18:26:19.304329  3070 net.cpp:137] Memory required for data: 518418460
I0608 18:26:19.304338  3070 layer_factory.hpp:77] Creating layer scale_stage1_block1_branch2a
I0608 18:26:19.304345  3070 net.cpp:84] Creating Layer scale_stage1_block1_branch2a
I0608 18:26:19.304349  3070 net.cpp:406] scale_stage1_block1_branch2a <- conv_stage1_block1_branch2a
I0608 18:26:19.304358  3070 net.cpp:367] scale_stage1_block1_branch2a -> conv_stage1_block1_branch2a (in-place)
I0608 18:26:19.304400  3070 layer_factory.hpp:77] Creating layer scale_stage1_block1_branch2a
I0608 18:26:19.304525  3070 net.cpp:122] Setting up scale_stage1_block1_branch2a
I0608 18:26:19.304543  3070 net.cpp:129] Top shape: 7 64 28 28 (351232)
I0608 18:26:19.304548  3070 net.cpp:137] Memory required for data: 519823388
I0608 18:26:19.304554  3070 layer_factory.hpp:77] Creating layer relu_stage1_block1_branch2a
I0608 18:26:19.304561  3070 net.cpp:84] Creating Layer relu_stage1_block1_branch2a
I0608 18:26:19.304565  3070 net.cpp:406] relu_stage1_block1_branch2a <- conv_stage1_block1_branch2a
I0608 18:26:19.304572  3070 net.cpp:367] relu_stage1_block1_branch2a -> conv_stage1_block1_branch2a (in-place)
I0608 18:26:19.304579  3070 net.cpp:122] Setting up relu_stage1_block1_branch2a
I0608 18:26:19.304585  3070 net.cpp:129] Top shape: 7 64 28 28 (351232)
I0608 18:26:19.304589  3070 net.cpp:137] Memory required for data: 521228316
I0608 18:26:19.304594  3070 layer_factory.hpp:77] Creating layer conv_stage1_block1_branch2b
I0608 18:26:19.304605  3070 net.cpp:84] Creating Layer conv_stage1_block1_branch2b
I0608 18:26:19.304608  3070 net.cpp:406] conv_stage1_block1_branch2b <- conv_stage1_block1_branch2a
I0608 18:26:19.304620  3070 net.cpp:380] conv_stage1_block1_branch2b -> conv_stage1_block1_branch2b
I0608 18:26:19.305002  3070 net.cpp:122] Setting up conv_stage1_block1_branch2b
I0608 18:26:19.305009  3070 net.cpp:129] Top shape: 7 64 28 28 (351232)
I0608 18:26:19.305012  3070 net.cpp:137] Memory required for data: 522633244
I0608 18:26:19.305017  3070 layer_factory.hpp:77] Creating layer bn_stage1_block1_branch2b
I0608 18:26:19.305023  3070 net.cpp:84] Creating Layer bn_stage1_block1_branch2b
I0608 18:26:19.305027  3070 net.cpp:406] bn_stage1_block1_branch2b <- conv_stage1_block1_branch2b
I0608 18:26:19.305032  3070 net.cpp:367] bn_stage1_block1_branch2b -> conv_stage1_block1_branch2b (in-place)
I0608 18:26:19.305186  3070 net.cpp:122] Setting up bn_stage1_block1_branch2b
I0608 18:26:19.305191  3070 net.cpp:129] Top shape: 7 64 28 28 (351232)
I0608 18:26:19.305193  3070 net.cpp:137] Memory required for data: 524038172
I0608 18:26:19.305198  3070 layer_factory.hpp:77] Creating layer scale_stage1_block1_branch2b
I0608 18:26:19.305204  3070 net.cpp:84] Creating Layer scale_stage1_block1_branch2b
I0608 18:26:19.305207  3070 net.cpp:406] scale_stage1_block1_branch2b <- conv_stage1_block1_branch2b
I0608 18:26:19.305212  3070 net.cpp:367] scale_stage1_block1_branch2b -> conv_stage1_block1_branch2b (in-place)
I0608 18:26:19.305240  3070 layer_factory.hpp:77] Creating layer scale_stage1_block1_branch2b
I0608 18:26:19.305327  3070 net.cpp:122] Setting up scale_stage1_block1_branch2b
I0608 18:26:19.305331  3070 net.cpp:129] Top shape: 7 64 28 28 (351232)
I0608 18:26:19.305335  3070 net.cpp:137] Memory required for data: 525443100
I0608 18:26:19.305338  3070 layer_factory.hpp:77] Creating layer relu_stage1_block1_branch2b
I0608 18:26:19.305342  3070 net.cpp:84] Creating Layer relu_stage1_block1_branch2b
I0608 18:26:19.305344  3070 net.cpp:406] relu_stage1_block1_branch2b <- conv_stage1_block1_branch2b
I0608 18:26:19.305349  3070 net.cpp:367] relu_stage1_block1_branch2b -> conv_stage1_block1_branch2b (in-place)
I0608 18:26:19.305354  3070 net.cpp:122] Setting up relu_stage1_block1_branch2b
I0608 18:26:19.305357  3070 net.cpp:129] Top shape: 7 64 28 28 (351232)
I0608 18:26:19.305359  3070 net.cpp:137] Memory required for data: 526848028
I0608 18:26:19.305362  3070 layer_factory.hpp:77] Creating layer conv_stage1_block1_branch2c
I0608 18:26:19.305369  3070 net.cpp:84] Creating Layer conv_stage1_block1_branch2c
I0608 18:26:19.305372  3070 net.cpp:406] conv_stage1_block1_branch2c <- conv_stage1_block1_branch2b
I0608 18:26:19.305377  3070 net.cpp:380] conv_stage1_block1_branch2c -> conv_stage1_block1_branch2c
I0608 18:26:19.305619  3070 net.cpp:122] Setting up conv_stage1_block1_branch2c
I0608 18:26:19.305625  3070 net.cpp:129] Top shape: 7 256 28 28 (1404928)
I0608 18:26:19.305627  3070 net.cpp:137] Memory required for data: 532467740
I0608 18:26:19.305632  3070 layer_factory.hpp:77] Creating layer bn_stage1_block1_branch2c
I0608 18:26:19.305637  3070 net.cpp:84] Creating Layer bn_stage1_block1_branch2c
I0608 18:26:19.305640  3070 net.cpp:406] bn_stage1_block1_branch2c <- conv_stage1_block1_branch2c
I0608 18:26:19.305652  3070 net.cpp:367] bn_stage1_block1_branch2c -> conv_stage1_block1_branch2c (in-place)
I0608 18:26:19.305805  3070 net.cpp:122] Setting up bn_stage1_block1_branch2c
I0608 18:26:19.305814  3070 net.cpp:129] Top shape: 7 256 28 28 (1404928)
I0608 18:26:19.305819  3070 net.cpp:137] Memory required for data: 538087452
I0608 18:26:19.305829  3070 layer_factory.hpp:77] Creating layer scale_stage1_block1_branch2c
I0608 18:26:19.305836  3070 net.cpp:84] Creating Layer scale_stage1_block1_branch2c
I0608 18:26:19.305841  3070 net.cpp:406] scale_stage1_block1_branch2c <- conv_stage1_block1_branch2c
I0608 18:26:19.305847  3070 net.cpp:367] scale_stage1_block1_branch2c -> conv_stage1_block1_branch2c (in-place)
I0608 18:26:19.305889  3070 layer_factory.hpp:77] Creating layer scale_stage1_block1_branch2c
I0608 18:26:19.306010  3070 net.cpp:122] Setting up scale_stage1_block1_branch2c
I0608 18:26:19.306016  3070 net.cpp:129] Top shape: 7 256 28 28 (1404928)
I0608 18:26:19.306020  3070 net.cpp:137] Memory required for data: 543707164
I0608 18:26:19.306028  3070 layer_factory.hpp:77] Creating layer eltwise_stage1_block1
I0608 18:26:19.306035  3070 net.cpp:84] Creating Layer eltwise_stage1_block1
I0608 18:26:19.306040  3070 net.cpp:406] eltwise_stage1_block1 <- eltwise_stage1_block0_relu_stage1_block0_0_split_1
I0608 18:26:19.306044  3070 net.cpp:406] eltwise_stage1_block1 <- conv_stage1_block1_branch2c
I0608 18:26:19.306053  3070 net.cpp:380] eltwise_stage1_block1 -> eltwise_stage1_block1
I0608 18:26:19.306079  3070 net.cpp:122] Setting up eltwise_stage1_block1
I0608 18:26:19.306087  3070 net.cpp:129] Top shape: 7 256 28 28 (1404928)
I0608 18:26:19.306090  3070 net.cpp:137] Memory required for data: 549326876
I0608 18:26:19.306094  3070 layer_factory.hpp:77] Creating layer relu_stage1_block1
I0608 18:26:19.306100  3070 net.cpp:84] Creating Layer relu_stage1_block1
I0608 18:26:19.306104  3070 net.cpp:406] relu_stage1_block1 <- eltwise_stage1_block1
I0608 18:26:19.306113  3070 net.cpp:367] relu_stage1_block1 -> eltwise_stage1_block1 (in-place)
I0608 18:26:19.306120  3070 net.cpp:122] Setting up relu_stage1_block1
I0608 18:26:19.306126  3070 net.cpp:129] Top shape: 7 256 28 28 (1404928)
I0608 18:26:19.306130  3070 net.cpp:137] Memory required for data: 554946588
I0608 18:26:19.306134  3070 layer_factory.hpp:77] Creating layer eltwise_stage1_block1_relu_stage1_block1_0_split
I0608 18:26:19.306141  3070 net.cpp:84] Creating Layer eltwise_stage1_block1_relu_stage1_block1_0_split
I0608 18:26:19.306145  3070 net.cpp:406] eltwise_stage1_block1_relu_stage1_block1_0_split <- eltwise_stage1_block1
I0608 18:26:19.306151  3070 net.cpp:380] eltwise_stage1_block1_relu_stage1_block1_0_split -> eltwise_stage1_block1_relu_stage1_block1_0_split_0
I0608 18:26:19.306160  3070 net.cpp:380] eltwise_stage1_block1_relu_stage1_block1_0_split -> eltwise_stage1_block1_relu_stage1_block1_0_split_1
I0608 18:26:19.306200  3070 net.cpp:122] Setting up eltwise_stage1_block1_relu_stage1_block1_0_split
I0608 18:26:19.306207  3070 net.cpp:129] Top shape: 7 256 28 28 (1404928)
I0608 18:26:19.306212  3070 net.cpp:129] Top shape: 7 256 28 28 (1404928)
I0608 18:26:19.306216  3070 net.cpp:137] Memory required for data: 566186012
I0608 18:26:19.306221  3070 layer_factory.hpp:77] Creating layer conv_stage1_block2_branch2a
I0608 18:26:19.306232  3070 net.cpp:84] Creating Layer conv_stage1_block2_branch2a
I0608 18:26:19.306237  3070 net.cpp:406] conv_stage1_block2_branch2a <- eltwise_stage1_block1_relu_stage1_block1_0_split_0
I0608 18:26:19.306246  3070 net.cpp:380] conv_stage1_block2_branch2a -> conv_stage1_block2_branch2a
I0608 18:26:19.306610  3070 net.cpp:122] Setting up conv_stage1_block2_branch2a
I0608 18:26:19.306618  3070 net.cpp:129] Top shape: 7 64 28 28 (351232)
I0608 18:26:19.306620  3070 net.cpp:137] Memory required for data: 567590940
I0608 18:26:19.306625  3070 layer_factory.hpp:77] Creating layer bn_stage1_block2_branch2a
I0608 18:26:19.306632  3070 net.cpp:84] Creating Layer bn_stage1_block2_branch2a
I0608 18:26:19.306643  3070 net.cpp:406] bn_stage1_block2_branch2a <- conv_stage1_block2_branch2a
I0608 18:26:19.306649  3070 net.cpp:367] bn_stage1_block2_branch2a -> conv_stage1_block2_branch2a (in-place)
I0608 18:26:19.306790  3070 net.cpp:122] Setting up bn_stage1_block2_branch2a
I0608 18:26:19.306795  3070 net.cpp:129] Top shape: 7 64 28 28 (351232)
I0608 18:26:19.306797  3070 net.cpp:137] Memory required for data: 568995868
I0608 18:26:19.306816  3070 layer_factory.hpp:77] Creating layer scale_stage1_block2_branch2a
I0608 18:26:19.306823  3070 net.cpp:84] Creating Layer scale_stage1_block2_branch2a
I0608 18:26:19.306825  3070 net.cpp:406] scale_stage1_block2_branch2a <- conv_stage1_block2_branch2a
I0608 18:26:19.306829  3070 net.cpp:367] scale_stage1_block2_branch2a -> conv_stage1_block2_branch2a (in-place)
I0608 18:26:19.306859  3070 layer_factory.hpp:77] Creating layer scale_stage1_block2_branch2a
I0608 18:26:19.306939  3070 net.cpp:122] Setting up scale_stage1_block2_branch2a
I0608 18:26:19.306943  3070 net.cpp:129] Top shape: 7 64 28 28 (351232)
I0608 18:26:19.306946  3070 net.cpp:137] Memory required for data: 570400796
I0608 18:26:19.306951  3070 layer_factory.hpp:77] Creating layer relu_stage1_block2_branch2a
I0608 18:26:19.306955  3070 net.cpp:84] Creating Layer relu_stage1_block2_branch2a
I0608 18:26:19.306957  3070 net.cpp:406] relu_stage1_block2_branch2a <- conv_stage1_block2_branch2a
I0608 18:26:19.306962  3070 net.cpp:367] relu_stage1_block2_branch2a -> conv_stage1_block2_branch2a (in-place)
I0608 18:26:19.306967  3070 net.cpp:122] Setting up relu_stage1_block2_branch2a
I0608 18:26:19.306970  3070 net.cpp:129] Top shape: 7 64 28 28 (351232)
I0608 18:26:19.306972  3070 net.cpp:137] Memory required for data: 571805724
I0608 18:26:19.306974  3070 layer_factory.hpp:77] Creating layer conv_stage1_block2_branch2b
I0608 18:26:19.306980  3070 net.cpp:84] Creating Layer conv_stage1_block2_branch2b
I0608 18:26:19.306983  3070 net.cpp:406] conv_stage1_block2_branch2b <- conv_stage1_block2_branch2a
I0608 18:26:19.306988  3070 net.cpp:380] conv_stage1_block2_branch2b -> conv_stage1_block2_branch2b
I0608 18:26:19.307327  3070 net.cpp:122] Setting up conv_stage1_block2_branch2b
I0608 18:26:19.307332  3070 net.cpp:129] Top shape: 7 64 28 28 (351232)
I0608 18:26:19.307335  3070 net.cpp:137] Memory required for data: 573210652
I0608 18:26:19.307339  3070 layer_factory.hpp:77] Creating layer bn_stage1_block2_branch2b
I0608 18:26:19.307345  3070 net.cpp:84] Creating Layer bn_stage1_block2_branch2b
I0608 18:26:19.307348  3070 net.cpp:406] bn_stage1_block2_branch2b <- conv_stage1_block2_branch2b
I0608 18:26:19.307353  3070 net.cpp:367] bn_stage1_block2_branch2b -> conv_stage1_block2_branch2b (in-place)
I0608 18:26:19.307492  3070 net.cpp:122] Setting up bn_stage1_block2_branch2b
I0608 18:26:19.307497  3070 net.cpp:129] Top shape: 7 64 28 28 (351232)
I0608 18:26:19.307498  3070 net.cpp:137] Memory required for data: 574615580
I0608 18:26:19.307503  3070 layer_factory.hpp:77] Creating layer scale_stage1_block2_branch2b
I0608 18:26:19.307508  3070 net.cpp:84] Creating Layer scale_stage1_block2_branch2b
I0608 18:26:19.307512  3070 net.cpp:406] scale_stage1_block2_branch2b <- conv_stage1_block2_branch2b
I0608 18:26:19.307514  3070 net.cpp:367] scale_stage1_block2_branch2b -> conv_stage1_block2_branch2b (in-place)
I0608 18:26:19.307555  3070 layer_factory.hpp:77] Creating layer scale_stage1_block2_branch2b
I0608 18:26:19.307683  3070 net.cpp:122] Setting up scale_stage1_block2_branch2b
I0608 18:26:19.307691  3070 net.cpp:129] Top shape: 7 64 28 28 (351232)
I0608 18:26:19.307695  3070 net.cpp:137] Memory required for data: 576020508
I0608 18:26:19.307703  3070 layer_factory.hpp:77] Creating layer relu_stage1_block2_branch2b
I0608 18:26:19.307710  3070 net.cpp:84] Creating Layer relu_stage1_block2_branch2b
I0608 18:26:19.307714  3070 net.cpp:406] relu_stage1_block2_branch2b <- conv_stage1_block2_branch2b
I0608 18:26:19.307720  3070 net.cpp:367] relu_stage1_block2_branch2b -> conv_stage1_block2_branch2b (in-place)
I0608 18:26:19.307736  3070 net.cpp:122] Setting up relu_stage1_block2_branch2b
I0608 18:26:19.307742  3070 net.cpp:129] Top shape: 7 64 28 28 (351232)
I0608 18:26:19.307745  3070 net.cpp:137] Memory required for data: 577425436
I0608 18:26:19.307749  3070 layer_factory.hpp:77] Creating layer conv_stage1_block2_branch2c
I0608 18:26:19.307762  3070 net.cpp:84] Creating Layer conv_stage1_block2_branch2c
I0608 18:26:19.307766  3070 net.cpp:406] conv_stage1_block2_branch2c <- conv_stage1_block2_branch2b
I0608 18:26:19.307783  3070 net.cpp:380] conv_stage1_block2_branch2c -> conv_stage1_block2_branch2c
I0608 18:26:19.308213  3070 net.cpp:122] Setting up conv_stage1_block2_branch2c
I0608 18:26:19.308223  3070 net.cpp:129] Top shape: 7 256 28 28 (1404928)
I0608 18:26:19.308228  3070 net.cpp:137] Memory required for data: 583045148
I0608 18:26:19.308235  3070 layer_factory.hpp:77] Creating layer bn_stage1_block2_branch2c
I0608 18:26:19.308245  3070 net.cpp:84] Creating Layer bn_stage1_block2_branch2c
I0608 18:26:19.308249  3070 net.cpp:406] bn_stage1_block2_branch2c <- conv_stage1_block2_branch2c
I0608 18:26:19.308259  3070 net.cpp:367] bn_stage1_block2_branch2c -> conv_stage1_block2_branch2c (in-place)
I0608 18:26:19.308465  3070 net.cpp:122] Setting up bn_stage1_block2_branch2c
I0608 18:26:19.308473  3070 net.cpp:129] Top shape: 7 256 28 28 (1404928)
I0608 18:26:19.308477  3070 net.cpp:137] Memory required for data: 588664860
I0608 18:26:19.308486  3070 layer_factory.hpp:77] Creating layer scale_stage1_block2_branch2c
I0608 18:26:19.308495  3070 net.cpp:84] Creating Layer scale_stage1_block2_branch2c
I0608 18:26:19.308499  3070 net.cpp:406] scale_stage1_block2_branch2c <- conv_stage1_block2_branch2c
I0608 18:26:19.308506  3070 net.cpp:367] scale_stage1_block2_branch2c -> conv_stage1_block2_branch2c (in-place)
I0608 18:26:19.308548  3070 layer_factory.hpp:77] Creating layer scale_stage1_block2_branch2c
I0608 18:26:19.308667  3070 net.cpp:122] Setting up scale_stage1_block2_branch2c
I0608 18:26:19.308674  3070 net.cpp:129] Top shape: 7 256 28 28 (1404928)
I0608 18:26:19.308678  3070 net.cpp:137] Memory required for data: 594284572
I0608 18:26:19.308686  3070 layer_factory.hpp:77] Creating layer eltwise_stage1_block2
I0608 18:26:19.308694  3070 net.cpp:84] Creating Layer eltwise_stage1_block2
I0608 18:26:19.308698  3070 net.cpp:406] eltwise_stage1_block2 <- eltwise_stage1_block1_relu_stage1_block1_0_split_1
I0608 18:26:19.308704  3070 net.cpp:406] eltwise_stage1_block2 <- conv_stage1_block2_branch2c
I0608 18:26:19.308712  3070 net.cpp:380] eltwise_stage1_block2 -> eltwise_stage1_block2
I0608 18:26:19.308737  3070 net.cpp:122] Setting up eltwise_stage1_block2
I0608 18:26:19.308744  3070 net.cpp:129] Top shape: 7 256 28 28 (1404928)
I0608 18:26:19.308748  3070 net.cpp:137] Memory required for data: 599904284
I0608 18:26:19.308753  3070 layer_factory.hpp:77] Creating layer relu_stage1_block2
I0608 18:26:19.308759  3070 net.cpp:84] Creating Layer relu_stage1_block2
I0608 18:26:19.308763  3070 net.cpp:406] relu_stage1_block2 <- eltwise_stage1_block2
I0608 18:26:19.308771  3070 net.cpp:367] relu_stage1_block2 -> eltwise_stage1_block2 (in-place)
I0608 18:26:19.308779  3070 net.cpp:122] Setting up relu_stage1_block2
I0608 18:26:19.308784  3070 net.cpp:129] Top shape: 7 256 28 28 (1404928)
I0608 18:26:19.308789  3070 net.cpp:137] Memory required for data: 605523996
I0608 18:26:19.308792  3070 layer_factory.hpp:77] Creating layer eltwise_stage1_block2_relu_stage1_block2_0_split
I0608 18:26:19.308799  3070 net.cpp:84] Creating Layer eltwise_stage1_block2_relu_stage1_block2_0_split
I0608 18:26:19.308804  3070 net.cpp:406] eltwise_stage1_block2_relu_stage1_block2_0_split <- eltwise_stage1_block2
I0608 18:26:19.308810  3070 net.cpp:380] eltwise_stage1_block2_relu_stage1_block2_0_split -> eltwise_stage1_block2_relu_stage1_block2_0_split_0
I0608 18:26:19.308818  3070 net.cpp:380] eltwise_stage1_block2_relu_stage1_block2_0_split -> eltwise_stage1_block2_relu_stage1_block2_0_split_1
I0608 18:26:19.308858  3070 net.cpp:122] Setting up eltwise_stage1_block2_relu_stage1_block2_0_split
I0608 18:26:19.308876  3070 net.cpp:129] Top shape: 7 256 28 28 (1404928)
I0608 18:26:19.308881  3070 net.cpp:129] Top shape: 7 256 28 28 (1404928)
I0608 18:26:19.308884  3070 net.cpp:137] Memory required for data: 616763420
I0608 18:26:19.308888  3070 layer_factory.hpp:77] Creating layer conv_stage1_block3_branch2a
I0608 18:26:19.308902  3070 net.cpp:84] Creating Layer conv_stage1_block3_branch2a
I0608 18:26:19.308907  3070 net.cpp:406] conv_stage1_block3_branch2a <- eltwise_stage1_block2_relu_stage1_block2_0_split_0
I0608 18:26:19.308917  3070 net.cpp:380] conv_stage1_block3_branch2a -> conv_stage1_block3_branch2a
I0608 18:26:19.309334  3070 net.cpp:122] Setting up conv_stage1_block3_branch2a
I0608 18:26:19.309343  3070 net.cpp:129] Top shape: 7 64 28 28 (351232)
I0608 18:26:19.309347  3070 net.cpp:137] Memory required for data: 618168348
I0608 18:26:19.309355  3070 layer_factory.hpp:77] Creating layer bn_stage1_block3_branch2a
I0608 18:26:19.309365  3070 net.cpp:84] Creating Layer bn_stage1_block3_branch2a
I0608 18:26:19.309368  3070 net.cpp:406] bn_stage1_block3_branch2a <- conv_stage1_block3_branch2a
I0608 18:26:19.309376  3070 net.cpp:367] bn_stage1_block3_branch2a -> conv_stage1_block3_branch2a (in-place)
I0608 18:26:19.309588  3070 net.cpp:122] Setting up bn_stage1_block3_branch2a
I0608 18:26:19.309597  3070 net.cpp:129] Top shape: 7 64 28 28 (351232)
I0608 18:26:19.309602  3070 net.cpp:137] Memory required for data: 619573276
I0608 18:26:19.309610  3070 layer_factory.hpp:77] Creating layer scale_stage1_block3_branch2a
I0608 18:26:19.309618  3070 net.cpp:84] Creating Layer scale_stage1_block3_branch2a
I0608 18:26:19.309623  3070 net.cpp:406] scale_stage1_block3_branch2a <- conv_stage1_block3_branch2a
I0608 18:26:19.309629  3070 net.cpp:367] scale_stage1_block3_branch2a -> conv_stage1_block3_branch2a (in-place)
I0608 18:26:19.309674  3070 layer_factory.hpp:77] Creating layer scale_stage1_block3_branch2a
I0608 18:26:19.309806  3070 net.cpp:122] Setting up scale_stage1_block3_branch2a
I0608 18:26:19.309814  3070 net.cpp:129] Top shape: 7 64 28 28 (351232)
I0608 18:26:19.309818  3070 net.cpp:137] Memory required for data: 620978204
I0608 18:26:19.309825  3070 layer_factory.hpp:77] Creating layer relu_stage1_block3_branch2a
I0608 18:26:19.309833  3070 net.cpp:84] Creating Layer relu_stage1_block3_branch2a
I0608 18:26:19.309836  3070 net.cpp:406] relu_stage1_block3_branch2a <- conv_stage1_block3_branch2a
I0608 18:26:19.309844  3070 net.cpp:367] relu_stage1_block3_branch2a -> conv_stage1_block3_branch2a (in-place)
I0608 18:26:19.309851  3070 net.cpp:122] Setting up relu_stage1_block3_branch2a
I0608 18:26:19.309857  3070 net.cpp:129] Top shape: 7 64 28 28 (351232)
I0608 18:26:19.309861  3070 net.cpp:137] Memory required for data: 622383132
I0608 18:26:19.309865  3070 layer_factory.hpp:77] Creating layer conv_stage1_block3_branch2b
I0608 18:26:19.309877  3070 net.cpp:84] Creating Layer conv_stage1_block3_branch2b
I0608 18:26:19.309881  3070 net.cpp:406] conv_stage1_block3_branch2b <- conv_stage1_block3_branch2a
I0608 18:26:19.309890  3070 net.cpp:380] conv_stage1_block3_branch2b -> conv_stage1_block3_branch2b
I0608 18:26:19.310503  3070 net.cpp:122] Setting up conv_stage1_block3_branch2b
I0608 18:26:19.310515  3070 net.cpp:129] Top shape: 7 64 28 28 (351232)
I0608 18:26:19.310520  3070 net.cpp:137] Memory required for data: 623788060
I0608 18:26:19.310528  3070 layer_factory.hpp:77] Creating layer bn_stage1_block3_branch2b
I0608 18:26:19.310536  3070 net.cpp:84] Creating Layer bn_stage1_block3_branch2b
I0608 18:26:19.310540  3070 net.cpp:406] bn_stage1_block3_branch2b <- conv_stage1_block3_branch2b
I0608 18:26:19.310549  3070 net.cpp:367] bn_stage1_block3_branch2b -> conv_stage1_block3_branch2b (in-place)
I0608 18:26:19.310765  3070 net.cpp:122] Setting up bn_stage1_block3_branch2b
I0608 18:26:19.310771  3070 net.cpp:129] Top shape: 7 64 28 28 (351232)
I0608 18:26:19.310775  3070 net.cpp:137] Memory required for data: 625192988
I0608 18:26:19.310786  3070 layer_factory.hpp:77] Creating layer scale_stage1_block3_branch2b
I0608 18:26:19.310801  3070 net.cpp:84] Creating Layer scale_stage1_block3_branch2b
I0608 18:26:19.310806  3070 net.cpp:406] scale_stage1_block3_branch2b <- conv_stage1_block3_branch2b
I0608 18:26:19.310816  3070 net.cpp:367] scale_stage1_block3_branch2b -> conv_stage1_block3_branch2b (in-place)
I0608 18:26:19.310859  3070 layer_factory.hpp:77] Creating layer scale_stage1_block3_branch2b
I0608 18:26:19.310986  3070 net.cpp:122] Setting up scale_stage1_block3_branch2b
I0608 18:26:19.310992  3070 net.cpp:129] Top shape: 7 64 28 28 (351232)
I0608 18:26:19.310994  3070 net.cpp:137] Memory required for data: 626597916
I0608 18:26:19.310999  3070 layer_factory.hpp:77] Creating layer relu_stage1_block3_branch2b
I0608 18:26:19.311005  3070 net.cpp:84] Creating Layer relu_stage1_block3_branch2b
I0608 18:26:19.311007  3070 net.cpp:406] relu_stage1_block3_branch2b <- conv_stage1_block3_branch2b
I0608 18:26:19.311012  3070 net.cpp:367] relu_stage1_block3_branch2b -> conv_stage1_block3_branch2b (in-place)
I0608 18:26:19.311017  3070 net.cpp:122] Setting up relu_stage1_block3_branch2b
I0608 18:26:19.311019  3070 net.cpp:129] Top shape: 7 64 28 28 (351232)
I0608 18:26:19.311022  3070 net.cpp:137] Memory required for data: 628002844
I0608 18:26:19.311024  3070 layer_factory.hpp:77] Creating layer conv_stage1_block3_branch2c
I0608 18:26:19.311033  3070 net.cpp:84] Creating Layer conv_stage1_block3_branch2c
I0608 18:26:19.311035  3070 net.cpp:406] conv_stage1_block3_branch2c <- conv_stage1_block3_branch2b
I0608 18:26:19.311040  3070 net.cpp:380] conv_stage1_block3_branch2c -> conv_stage1_block3_branch2c
I0608 18:26:19.311285  3070 net.cpp:122] Setting up conv_stage1_block3_branch2c
I0608 18:26:19.311290  3070 net.cpp:129] Top shape: 7 256 28 28 (1404928)
I0608 18:26:19.311292  3070 net.cpp:137] Memory required for data: 633622556
I0608 18:26:19.311296  3070 layer_factory.hpp:77] Creating layer bn_stage1_block3_branch2c
I0608 18:26:19.311302  3070 net.cpp:84] Creating Layer bn_stage1_block3_branch2c
I0608 18:26:19.311305  3070 net.cpp:406] bn_stage1_block3_branch2c <- conv_stage1_block3_branch2c
I0608 18:26:19.311309  3070 net.cpp:367] bn_stage1_block3_branch2c -> conv_stage1_block3_branch2c (in-place)
I0608 18:26:19.311445  3070 net.cpp:122] Setting up bn_stage1_block3_branch2c
I0608 18:26:19.311450  3070 net.cpp:129] Top shape: 7 256 28 28 (1404928)
I0608 18:26:19.311452  3070 net.cpp:137] Memory required for data: 639242268
I0608 18:26:19.311458  3070 layer_factory.hpp:77] Creating layer scale_stage1_block3_branch2c
I0608 18:26:19.311463  3070 net.cpp:84] Creating Layer scale_stage1_block3_branch2c
I0608 18:26:19.311465  3070 net.cpp:406] scale_stage1_block3_branch2c <- conv_stage1_block3_branch2c
I0608 18:26:19.311470  3070 net.cpp:367] scale_stage1_block3_branch2c -> conv_stage1_block3_branch2c (in-place)
I0608 18:26:19.311497  3070 layer_factory.hpp:77] Creating layer scale_stage1_block3_branch2c
I0608 18:26:19.311576  3070 net.cpp:122] Setting up scale_stage1_block3_branch2c
I0608 18:26:19.311580  3070 net.cpp:129] Top shape: 7 256 28 28 (1404928)
I0608 18:26:19.311583  3070 net.cpp:137] Memory required for data: 644861980
I0608 18:26:19.311588  3070 layer_factory.hpp:77] Creating layer eltwise_stage1_block3
I0608 18:26:19.311591  3070 net.cpp:84] Creating Layer eltwise_stage1_block3
I0608 18:26:19.311594  3070 net.cpp:406] eltwise_stage1_block3 <- eltwise_stage1_block2_relu_stage1_block2_0_split_1
I0608 18:26:19.311597  3070 net.cpp:406] eltwise_stage1_block3 <- conv_stage1_block3_branch2c
I0608 18:26:19.311602  3070 net.cpp:380] eltwise_stage1_block3 -> eltwise_stage1_block3
I0608 18:26:19.311619  3070 net.cpp:122] Setting up eltwise_stage1_block3
I0608 18:26:19.311623  3070 net.cpp:129] Top shape: 7 256 28 28 (1404928)
I0608 18:26:19.311626  3070 net.cpp:137] Memory required for data: 650481692
I0608 18:26:19.311628  3070 layer_factory.hpp:77] Creating layer relu_stage1_block3
I0608 18:26:19.311632  3070 net.cpp:84] Creating Layer relu_stage1_block3
I0608 18:26:19.311635  3070 net.cpp:406] relu_stage1_block3 <- eltwise_stage1_block3
I0608 18:26:19.311646  3070 net.cpp:367] relu_stage1_block3 -> eltwise_stage1_block3 (in-place)
I0608 18:26:19.311650  3070 net.cpp:122] Setting up relu_stage1_block3
I0608 18:26:19.311655  3070 net.cpp:129] Top shape: 7 256 28 28 (1404928)
I0608 18:26:19.311656  3070 net.cpp:137] Memory required for data: 656101404
I0608 18:26:19.311658  3070 layer_factory.hpp:77] Creating layer eltwise_stage1_block3_relu_stage1_block3_0_split
I0608 18:26:19.311662  3070 net.cpp:84] Creating Layer eltwise_stage1_block3_relu_stage1_block3_0_split
I0608 18:26:19.311664  3070 net.cpp:406] eltwise_stage1_block3_relu_stage1_block3_0_split <- eltwise_stage1_block3
I0608 18:26:19.311671  3070 net.cpp:380] eltwise_stage1_block3_relu_stage1_block3_0_split -> eltwise_stage1_block3_relu_stage1_block3_0_split_0
I0608 18:26:19.311676  3070 net.cpp:380] eltwise_stage1_block3_relu_stage1_block3_0_split -> eltwise_stage1_block3_relu_stage1_block3_0_split_1
I0608 18:26:19.311702  3070 net.cpp:122] Setting up eltwise_stage1_block3_relu_stage1_block3_0_split
I0608 18:26:19.311707  3070 net.cpp:129] Top shape: 7 256 28 28 (1404928)
I0608 18:26:19.311710  3070 net.cpp:129] Top shape: 7 256 28 28 (1404928)
I0608 18:26:19.311712  3070 net.cpp:137] Memory required for data: 667340828
I0608 18:26:19.311714  3070 layer_factory.hpp:77] Creating layer conv_stage2_block0_proj_shortcut
I0608 18:26:19.311722  3070 net.cpp:84] Creating Layer conv_stage2_block0_proj_shortcut
I0608 18:26:19.311724  3070 net.cpp:406] conv_stage2_block0_proj_shortcut <- eltwise_stage1_block3_relu_stage1_block3_0_split_0
I0608 18:26:19.311730  3070 net.cpp:380] conv_stage2_block0_proj_shortcut -> conv_stage2_block0_proj_shortcut
I0608 18:26:19.313217  3070 net.cpp:122] Setting up conv_stage2_block0_proj_shortcut
I0608 18:26:19.313226  3070 net.cpp:129] Top shape: 7 512 14 14 (702464)
I0608 18:26:19.313228  3070 net.cpp:137] Memory required for data: 670150684
I0608 18:26:19.313235  3070 layer_factory.hpp:77] Creating layer bn_stage2_block0_proj_shortcut
I0608 18:26:19.313241  3070 net.cpp:84] Creating Layer bn_stage2_block0_proj_shortcut
I0608 18:26:19.313244  3070 net.cpp:406] bn_stage2_block0_proj_shortcut <- conv_stage2_block0_proj_shortcut
I0608 18:26:19.313249  3070 net.cpp:367] bn_stage2_block0_proj_shortcut -> conv_stage2_block0_proj_shortcut (in-place)
I0608 18:26:19.313393  3070 net.cpp:122] Setting up bn_stage2_block0_proj_shortcut
I0608 18:26:19.313397  3070 net.cpp:129] Top shape: 7 512 14 14 (702464)
I0608 18:26:19.313400  3070 net.cpp:137] Memory required for data: 672960540
I0608 18:26:19.313406  3070 layer_factory.hpp:77] Creating layer scale_stage2_block0_proj_shortcut
I0608 18:26:19.313410  3070 net.cpp:84] Creating Layer scale_stage2_block0_proj_shortcut
I0608 18:26:19.313414  3070 net.cpp:406] scale_stage2_block0_proj_shortcut <- conv_stage2_block0_proj_shortcut
I0608 18:26:19.313417  3070 net.cpp:367] scale_stage2_block0_proj_shortcut -> conv_stage2_block0_proj_shortcut (in-place)
I0608 18:26:19.313444  3070 layer_factory.hpp:77] Creating layer scale_stage2_block0_proj_shortcut
I0608 18:26:19.313525  3070 net.cpp:122] Setting up scale_stage2_block0_proj_shortcut
I0608 18:26:19.313530  3070 net.cpp:129] Top shape: 7 512 14 14 (702464)
I0608 18:26:19.313532  3070 net.cpp:137] Memory required for data: 675770396
I0608 18:26:19.313537  3070 layer_factory.hpp:77] Creating layer conv_stage2_block0_branch2a
I0608 18:26:19.313545  3070 net.cpp:84] Creating Layer conv_stage2_block0_branch2a
I0608 18:26:19.313549  3070 net.cpp:406] conv_stage2_block0_branch2a <- eltwise_stage1_block3_relu_stage1_block3_0_split_1
I0608 18:26:19.313555  3070 net.cpp:380] conv_stage2_block0_branch2a -> conv_stage2_block0_branch2a
I0608 18:26:19.314046  3070 net.cpp:122] Setting up conv_stage2_block0_branch2a
I0608 18:26:19.314056  3070 net.cpp:129] Top shape: 7 128 14 14 (175616)
I0608 18:26:19.314060  3070 net.cpp:137] Memory required for data: 676472860
I0608 18:26:19.314067  3070 layer_factory.hpp:77] Creating layer bn_stage2_block0_branch2a
I0608 18:26:19.314090  3070 net.cpp:84] Creating Layer bn_stage2_block0_branch2a
I0608 18:26:19.314095  3070 net.cpp:406] bn_stage2_block0_branch2a <- conv_stage2_block0_branch2a
I0608 18:26:19.314103  3070 net.cpp:367] bn_stage2_block0_branch2a -> conv_stage2_block0_branch2a (in-place)
I0608 18:26:19.314326  3070 net.cpp:122] Setting up bn_stage2_block0_branch2a
I0608 18:26:19.314334  3070 net.cpp:129] Top shape: 7 128 14 14 (175616)
I0608 18:26:19.314338  3070 net.cpp:137] Memory required for data: 677175324
I0608 18:26:19.314347  3070 layer_factory.hpp:77] Creating layer scale_stage2_block0_branch2a
I0608 18:26:19.314354  3070 net.cpp:84] Creating Layer scale_stage2_block0_branch2a
I0608 18:26:19.314359  3070 net.cpp:406] scale_stage2_block0_branch2a <- conv_stage2_block0_branch2a
I0608 18:26:19.314366  3070 net.cpp:367] scale_stage2_block0_branch2a -> conv_stage2_block0_branch2a (in-place)
I0608 18:26:19.314415  3070 layer_factory.hpp:77] Creating layer scale_stage2_block0_branch2a
I0608 18:26:19.314507  3070 net.cpp:122] Setting up scale_stage2_block0_branch2a
I0608 18:26:19.314512  3070 net.cpp:129] Top shape: 7 128 14 14 (175616)
I0608 18:26:19.314514  3070 net.cpp:137] Memory required for data: 677877788
I0608 18:26:19.314519  3070 layer_factory.hpp:77] Creating layer relu_stage2_block0_branch2a
I0608 18:26:19.314524  3070 net.cpp:84] Creating Layer relu_stage2_block0_branch2a
I0608 18:26:19.314527  3070 net.cpp:406] relu_stage2_block0_branch2a <- conv_stage2_block0_branch2a
I0608 18:26:19.314530  3070 net.cpp:367] relu_stage2_block0_branch2a -> conv_stage2_block0_branch2a (in-place)
I0608 18:26:19.314538  3070 net.cpp:122] Setting up relu_stage2_block0_branch2a
I0608 18:26:19.314540  3070 net.cpp:129] Top shape: 7 128 14 14 (175616)
I0608 18:26:19.314543  3070 net.cpp:137] Memory required for data: 678580252
I0608 18:26:19.314545  3070 layer_factory.hpp:77] Creating layer conv_stage2_block0_branch2b
I0608 18:26:19.314553  3070 net.cpp:84] Creating Layer conv_stage2_block0_branch2b
I0608 18:26:19.314555  3070 net.cpp:406] conv_stage2_block0_branch2b <- conv_stage2_block0_branch2a
I0608 18:26:19.314559  3070 net.cpp:380] conv_stage2_block0_branch2b -> conv_stage2_block0_branch2b
I0608 18:26:19.316268  3070 net.cpp:122] Setting up conv_stage2_block0_branch2b
I0608 18:26:19.316280  3070 net.cpp:129] Top shape: 7 128 14 14 (175616)
I0608 18:26:19.316284  3070 net.cpp:137] Memory required for data: 679282716
I0608 18:26:19.316292  3070 layer_factory.hpp:77] Creating layer bn_stage2_block0_branch2b
I0608 18:26:19.316303  3070 net.cpp:84] Creating Layer bn_stage2_block0_branch2b
I0608 18:26:19.316306  3070 net.cpp:406] bn_stage2_block0_branch2b <- conv_stage2_block0_branch2b
I0608 18:26:19.316315  3070 net.cpp:367] bn_stage2_block0_branch2b -> conv_stage2_block0_branch2b (in-place)
I0608 18:26:19.316509  3070 net.cpp:122] Setting up bn_stage2_block0_branch2b
I0608 18:26:19.316516  3070 net.cpp:129] Top shape: 7 128 14 14 (175616)
I0608 18:26:19.316520  3070 net.cpp:137] Memory required for data: 679985180
I0608 18:26:19.316529  3070 layer_factory.hpp:77] Creating layer scale_stage2_block0_branch2b
I0608 18:26:19.316537  3070 net.cpp:84] Creating Layer scale_stage2_block0_branch2b
I0608 18:26:19.316541  3070 net.cpp:406] scale_stage2_block0_branch2b <- conv_stage2_block0_branch2b
I0608 18:26:19.316547  3070 net.cpp:367] scale_stage2_block0_branch2b -> conv_stage2_block0_branch2b (in-place)
I0608 18:26:19.316591  3070 layer_factory.hpp:77] Creating layer scale_stage2_block0_branch2b
I0608 18:26:19.316704  3070 net.cpp:122] Setting up scale_stage2_block0_branch2b
I0608 18:26:19.316712  3070 net.cpp:129] Top shape: 7 128 14 14 (175616)
I0608 18:26:19.316716  3070 net.cpp:137] Memory required for data: 680687644
I0608 18:26:19.316723  3070 layer_factory.hpp:77] Creating layer relu_stage2_block0_branch2b
I0608 18:26:19.316730  3070 net.cpp:84] Creating Layer relu_stage2_block0_branch2b
I0608 18:26:19.316735  3070 net.cpp:406] relu_stage2_block0_branch2b <- conv_stage2_block0_branch2b
I0608 18:26:19.316743  3070 net.cpp:367] relu_stage2_block0_branch2b -> conv_stage2_block0_branch2b (in-place)
I0608 18:26:19.316762  3070 net.cpp:122] Setting up relu_stage2_block0_branch2b
I0608 18:26:19.316768  3070 net.cpp:129] Top shape: 7 128 14 14 (175616)
I0608 18:26:19.316771  3070 net.cpp:137] Memory required for data: 681390108
I0608 18:26:19.316776  3070 layer_factory.hpp:77] Creating layer conv_stage2_block0_branch2c
I0608 18:26:19.316798  3070 net.cpp:84] Creating Layer conv_stage2_block0_branch2c
I0608 18:26:19.316812  3070 net.cpp:406] conv_stage2_block0_branch2c <- conv_stage2_block0_branch2b
I0608 18:26:19.316818  3070 net.cpp:380] conv_stage2_block0_branch2c -> conv_stage2_block0_branch2c
I0608 18:26:19.317718  3070 net.cpp:122] Setting up conv_stage2_block0_branch2c
I0608 18:26:19.317725  3070 net.cpp:129] Top shape: 7 512 14 14 (702464)
I0608 18:26:19.317728  3070 net.cpp:137] Memory required for data: 684199964
I0608 18:26:19.317733  3070 layer_factory.hpp:77] Creating layer bn_stage2_block0_branch2c
I0608 18:26:19.317739  3070 net.cpp:84] Creating Layer bn_stage2_block0_branch2c
I0608 18:26:19.317742  3070 net.cpp:406] bn_stage2_block0_branch2c <- conv_stage2_block0_branch2c
I0608 18:26:19.317747  3070 net.cpp:367] bn_stage2_block0_branch2c -> conv_stage2_block0_branch2c (in-place)
I0608 18:26:19.317910  3070 net.cpp:122] Setting up bn_stage2_block0_branch2c
I0608 18:26:19.317919  3070 net.cpp:129] Top shape: 7 512 14 14 (702464)
I0608 18:26:19.317922  3070 net.cpp:137] Memory required for data: 687009820
I0608 18:26:19.317932  3070 layer_factory.hpp:77] Creating layer scale_stage2_block0_branch2c
I0608 18:26:19.317941  3070 net.cpp:84] Creating Layer scale_stage2_block0_branch2c
I0608 18:26:19.317945  3070 net.cpp:406] scale_stage2_block0_branch2c <- conv_stage2_block0_branch2c
I0608 18:26:19.317952  3070 net.cpp:367] scale_stage2_block0_branch2c -> conv_stage2_block0_branch2c (in-place)
I0608 18:26:19.317992  3070 layer_factory.hpp:77] Creating layer scale_stage2_block0_branch2c
I0608 18:26:19.318114  3070 net.cpp:122] Setting up scale_stage2_block0_branch2c
I0608 18:26:19.318121  3070 net.cpp:129] Top shape: 7 512 14 14 (702464)
I0608 18:26:19.318125  3070 net.cpp:137] Memory required for data: 689819676
I0608 18:26:19.318132  3070 layer_factory.hpp:77] Creating layer eltwise_stage2_block0
I0608 18:26:19.318140  3070 net.cpp:84] Creating Layer eltwise_stage2_block0
I0608 18:26:19.318145  3070 net.cpp:406] eltwise_stage2_block0 <- conv_stage2_block0_proj_shortcut
I0608 18:26:19.318150  3070 net.cpp:406] eltwise_stage2_block0 <- conv_stage2_block0_branch2c
I0608 18:26:19.318158  3070 net.cpp:380] eltwise_stage2_block0 -> eltwise_stage2_block0
I0608 18:26:19.318184  3070 net.cpp:122] Setting up eltwise_stage2_block0
I0608 18:26:19.318192  3070 net.cpp:129] Top shape: 7 512 14 14 (702464)
I0608 18:26:19.318195  3070 net.cpp:137] Memory required for data: 692629532
I0608 18:26:19.318199  3070 layer_factory.hpp:77] Creating layer relu_stage2_block0
I0608 18:26:19.318207  3070 net.cpp:84] Creating Layer relu_stage2_block0
I0608 18:26:19.318210  3070 net.cpp:406] relu_stage2_block0 <- eltwise_stage2_block0
I0608 18:26:19.318217  3070 net.cpp:367] relu_stage2_block0 -> eltwise_stage2_block0 (in-place)
I0608 18:26:19.318225  3070 net.cpp:122] Setting up relu_stage2_block0
I0608 18:26:19.318230  3070 net.cpp:129] Top shape: 7 512 14 14 (702464)
I0608 18:26:19.318234  3070 net.cpp:137] Memory required for data: 695439388
I0608 18:26:19.318238  3070 layer_factory.hpp:77] Creating layer eltwise_stage2_block0_relu_stage2_block0_0_split
I0608 18:26:19.318244  3070 net.cpp:84] Creating Layer eltwise_stage2_block0_relu_stage2_block0_0_split
I0608 18:26:19.318248  3070 net.cpp:406] eltwise_stage2_block0_relu_stage2_block0_0_split <- eltwise_stage2_block0
I0608 18:26:19.318272  3070 net.cpp:380] eltwise_stage2_block0_relu_stage2_block0_0_split -> eltwise_stage2_block0_relu_stage2_block0_0_split_0
I0608 18:26:19.318282  3070 net.cpp:380] eltwise_stage2_block0_relu_stage2_block0_0_split -> eltwise_stage2_block0_relu_stage2_block0_0_split_1
I0608 18:26:19.318356  3070 net.cpp:122] Setting up eltwise_stage2_block0_relu_stage2_block0_0_split
I0608 18:26:19.318363  3070 net.cpp:129] Top shape: 7 512 14 14 (702464)
I0608 18:26:19.318369  3070 net.cpp:129] Top shape: 7 512 14 14 (702464)
I0608 18:26:19.318372  3070 net.cpp:137] Memory required for data: 701059100
I0608 18:26:19.318377  3070 layer_factory.hpp:77] Creating layer conv_stage2_block1_branch2a
I0608 18:26:19.318433  3070 net.cpp:84] Creating Layer conv_stage2_block1_branch2a
I0608 18:26:19.318437  3070 net.cpp:406] conv_stage2_block1_branch2a <- eltwise_stage2_block0_relu_stage2_block0_0_split_0
I0608 18:26:19.318446  3070 net.cpp:380] conv_stage2_block1_branch2a -> conv_stage2_block1_branch2a
I0608 18:26:19.318959  3070 net.cpp:122] Setting up conv_stage2_block1_branch2a
I0608 18:26:19.318966  3070 net.cpp:129] Top shape: 7 128 14 14 (175616)
I0608 18:26:19.318969  3070 net.cpp:137] Memory required for data: 701761564
I0608 18:26:19.318974  3070 layer_factory.hpp:77] Creating layer bn_stage2_block1_branch2a
I0608 18:26:19.318979  3070 net.cpp:84] Creating Layer bn_stage2_block1_branch2a
I0608 18:26:19.318982  3070 net.cpp:406] bn_stage2_block1_branch2a <- conv_stage2_block1_branch2a
I0608 18:26:19.318987  3070 net.cpp:367] bn_stage2_block1_branch2a -> conv_stage2_block1_branch2a (in-place)
I0608 18:26:19.319118  3070 net.cpp:122] Setting up bn_stage2_block1_branch2a
I0608 18:26:19.319123  3070 net.cpp:129] Top shape: 7 128 14 14 (175616)
I0608 18:26:19.319124  3070 net.cpp:137] Memory required for data: 702464028
I0608 18:26:19.319129  3070 layer_factory.hpp:77] Creating layer scale_stage2_block1_branch2a
I0608 18:26:19.319133  3070 net.cpp:84] Creating Layer scale_stage2_block1_branch2a
I0608 18:26:19.319136  3070 net.cpp:406] scale_stage2_block1_branch2a <- conv_stage2_block1_branch2a
I0608 18:26:19.319140  3070 net.cpp:367] scale_stage2_block1_branch2a -> conv_stage2_block1_branch2a (in-place)
I0608 18:26:19.319167  3070 layer_factory.hpp:77] Creating layer scale_stage2_block1_branch2a
I0608 18:26:19.319242  3070 net.cpp:122] Setting up scale_stage2_block1_branch2a
I0608 18:26:19.319247  3070 net.cpp:129] Top shape: 7 128 14 14 (175616)
I0608 18:26:19.319248  3070 net.cpp:137] Memory required for data: 703166492
I0608 18:26:19.319252  3070 layer_factory.hpp:77] Creating layer relu_stage2_block1_branch2a
I0608 18:26:19.319257  3070 net.cpp:84] Creating Layer relu_stage2_block1_branch2a
I0608 18:26:19.319258  3070 net.cpp:406] relu_stage2_block1_branch2a <- conv_stage2_block1_branch2a
I0608 18:26:19.319262  3070 net.cpp:367] relu_stage2_block1_branch2a -> conv_stage2_block1_branch2a (in-place)
I0608 18:26:19.319267  3070 net.cpp:122] Setting up relu_stage2_block1_branch2a
I0608 18:26:19.319269  3070 net.cpp:129] Top shape: 7 128 14 14 (175616)
I0608 18:26:19.319272  3070 net.cpp:137] Memory required for data: 703868956
I0608 18:26:19.319273  3070 layer_factory.hpp:77] Creating layer conv_stage2_block1_branch2b
I0608 18:26:19.319283  3070 net.cpp:84] Creating Layer conv_stage2_block1_branch2b
I0608 18:26:19.319285  3070 net.cpp:406] conv_stage2_block1_branch2b <- conv_stage2_block1_branch2a
I0608 18:26:19.319289  3070 net.cpp:380] conv_stage2_block1_branch2b -> conv_stage2_block1_branch2b
I0608 18:26:19.321290  3070 net.cpp:122] Setting up conv_stage2_block1_branch2b
I0608 18:26:19.321302  3070 net.cpp:129] Top shape: 7 128 14 14 (175616)
I0608 18:26:19.321306  3070 net.cpp:137] Memory required for data: 704571420
I0608 18:26:19.321314  3070 layer_factory.hpp:77] Creating layer bn_stage2_block1_branch2b
I0608 18:26:19.321324  3070 net.cpp:84] Creating Layer bn_stage2_block1_branch2b
I0608 18:26:19.321329  3070 net.cpp:406] bn_stage2_block1_branch2b <- conv_stage2_block1_branch2b
I0608 18:26:19.321338  3070 net.cpp:367] bn_stage2_block1_branch2b -> conv_stage2_block1_branch2b (in-place)
I0608 18:26:19.321548  3070 net.cpp:122] Setting up bn_stage2_block1_branch2b
I0608 18:26:19.321557  3070 net.cpp:129] Top shape: 7 128 14 14 (175616)
I0608 18:26:19.321561  3070 net.cpp:137] Memory required for data: 705273884
I0608 18:26:19.321581  3070 layer_factory.hpp:77] Creating layer scale_stage2_block1_branch2b
I0608 18:26:19.321588  3070 net.cpp:84] Creating Layer scale_stage2_block1_branch2b
I0608 18:26:19.321593  3070 net.cpp:406] scale_stage2_block1_branch2b <- conv_stage2_block1_branch2b
I0608 18:26:19.321602  3070 net.cpp:367] scale_stage2_block1_branch2b -> conv_stage2_block1_branch2b (in-place)
I0608 18:26:19.321648  3070 layer_factory.hpp:77] Creating layer scale_stage2_block1_branch2b
I0608 18:26:19.321772  3070 net.cpp:122] Setting up scale_stage2_block1_branch2b
I0608 18:26:19.321781  3070 net.cpp:129] Top shape: 7 128 14 14 (175616)
I0608 18:26:19.321785  3070 net.cpp:137] Memory required for data: 705976348
I0608 18:26:19.321794  3070 layer_factory.hpp:77] Creating layer relu_stage2_block1_branch2b
I0608 18:26:19.321800  3070 net.cpp:84] Creating Layer relu_stage2_block1_branch2b
I0608 18:26:19.321805  3070 net.cpp:406] relu_stage2_block1_branch2b <- conv_stage2_block1_branch2b
I0608 18:26:19.321815  3070 net.cpp:367] relu_stage2_block1_branch2b -> conv_stage2_block1_branch2b (in-place)
I0608 18:26:19.321821  3070 net.cpp:122] Setting up relu_stage2_block1_branch2b
I0608 18:26:19.321827  3070 net.cpp:129] Top shape: 7 128 14 14 (175616)
I0608 18:26:19.321831  3070 net.cpp:137] Memory required for data: 706678812
I0608 18:26:19.321835  3070 layer_factory.hpp:77] Creating layer conv_stage2_block1_branch2c
I0608 18:26:19.321848  3070 net.cpp:84] Creating Layer conv_stage2_block1_branch2c
I0608 18:26:19.321852  3070 net.cpp:406] conv_stage2_block1_branch2c <- conv_stage2_block1_branch2b
I0608 18:26:19.321861  3070 net.cpp:380] conv_stage2_block1_branch2c -> conv_stage2_block1_branch2c
I0608 18:26:19.322449  3070 net.cpp:122] Setting up conv_stage2_block1_branch2c
I0608 18:26:19.322458  3070 net.cpp:129] Top shape: 7 512 14 14 (702464)
I0608 18:26:19.322461  3070 net.cpp:137] Memory required for data: 709488668
I0608 18:26:19.322466  3070 layer_factory.hpp:77] Creating layer bn_stage2_block1_branch2c
I0608 18:26:19.322471  3070 net.cpp:84] Creating Layer bn_stage2_block1_branch2c
I0608 18:26:19.322474  3070 net.cpp:406] bn_stage2_block1_branch2c <- conv_stage2_block1_branch2c
I0608 18:26:19.322480  3070 net.cpp:367] bn_stage2_block1_branch2c -> conv_stage2_block1_branch2c (in-place)
I0608 18:26:19.322620  3070 net.cpp:122] Setting up bn_stage2_block1_branch2c
I0608 18:26:19.322624  3070 net.cpp:129] Top shape: 7 512 14 14 (702464)
I0608 18:26:19.322628  3070 net.cpp:137] Memory required for data: 712298524
I0608 18:26:19.322633  3070 layer_factory.hpp:77] Creating layer scale_stage2_block1_branch2c
I0608 18:26:19.322638  3070 net.cpp:84] Creating Layer scale_stage2_block1_branch2c
I0608 18:26:19.322639  3070 net.cpp:406] scale_stage2_block1_branch2c <- conv_stage2_block1_branch2c
I0608 18:26:19.322643  3070 net.cpp:367] scale_stage2_block1_branch2c -> conv_stage2_block1_branch2c (in-place)
I0608 18:26:19.322670  3070 layer_factory.hpp:77] Creating layer scale_stage2_block1_branch2c
I0608 18:26:19.322751  3070 net.cpp:122] Setting up scale_stage2_block1_branch2c
I0608 18:26:19.322755  3070 net.cpp:129] Top shape: 7 512 14 14 (702464)
I0608 18:26:19.322757  3070 net.cpp:137] Memory required for data: 715108380
I0608 18:26:19.322762  3070 layer_factory.hpp:77] Creating layer eltwise_stage2_block1
I0608 18:26:19.322767  3070 net.cpp:84] Creating Layer eltwise_stage2_block1
I0608 18:26:19.322770  3070 net.cpp:406] eltwise_stage2_block1 <- eltwise_stage2_block0_relu_stage2_block0_0_split_1
I0608 18:26:19.322773  3070 net.cpp:406] eltwise_stage2_block1 <- conv_stage2_block1_branch2c
I0608 18:26:19.322778  3070 net.cpp:380] eltwise_stage2_block1 -> eltwise_stage2_block1
I0608 18:26:19.322795  3070 net.cpp:122] Setting up eltwise_stage2_block1
I0608 18:26:19.322800  3070 net.cpp:129] Top shape: 7 512 14 14 (702464)
I0608 18:26:19.322803  3070 net.cpp:137] Memory required for data: 717918236
I0608 18:26:19.322804  3070 layer_factory.hpp:77] Creating layer relu_stage2_block1
I0608 18:26:19.322808  3070 net.cpp:84] Creating Layer relu_stage2_block1
I0608 18:26:19.322819  3070 net.cpp:406] relu_stage2_block1 <- eltwise_stage2_block1
I0608 18:26:19.322824  3070 net.cpp:367] relu_stage2_block1 -> eltwise_stage2_block1 (in-place)
I0608 18:26:19.322829  3070 net.cpp:122] Setting up relu_stage2_block1
I0608 18:26:19.322832  3070 net.cpp:129] Top shape: 7 512 14 14 (702464)
I0608 18:26:19.322834  3070 net.cpp:137] Memory required for data: 720728092
I0608 18:26:19.322837  3070 layer_factory.hpp:77] Creating layer eltwise_stage2_block1_relu_stage2_block1_0_split
I0608 18:26:19.322841  3070 net.cpp:84] Creating Layer eltwise_stage2_block1_relu_stage2_block1_0_split
I0608 18:26:19.322844  3070 net.cpp:406] eltwise_stage2_block1_relu_stage2_block1_0_split <- eltwise_stage2_block1
I0608 18:26:19.322849  3070 net.cpp:380] eltwise_stage2_block1_relu_stage2_block1_0_split -> eltwise_stage2_block1_relu_stage2_block1_0_split_0
I0608 18:26:19.322854  3070 net.cpp:380] eltwise_stage2_block1_relu_stage2_block1_0_split -> eltwise_stage2_block1_relu_stage2_block1_0_split_1
I0608 18:26:19.322880  3070 net.cpp:122] Setting up eltwise_stage2_block1_relu_stage2_block1_0_split
I0608 18:26:19.322883  3070 net.cpp:129] Top shape: 7 512 14 14 (702464)
I0608 18:26:19.322886  3070 net.cpp:129] Top shape: 7 512 14 14 (702464)
I0608 18:26:19.322888  3070 net.cpp:137] Memory required for data: 726347804
I0608 18:26:19.322891  3070 layer_factory.hpp:77] Creating layer conv_stage2_block2_branch2a
I0608 18:26:19.322901  3070 net.cpp:84] Creating Layer conv_stage2_block2_branch2a
I0608 18:26:19.322902  3070 net.cpp:406] conv_stage2_block2_branch2a <- eltwise_stage2_block1_relu_stage2_block1_0_split_0
I0608 18:26:19.322907  3070 net.cpp:380] conv_stage2_block2_branch2a -> conv_stage2_block2_branch2a
I0608 18:26:19.323598  3070 net.cpp:122] Setting up conv_stage2_block2_branch2a
I0608 18:26:19.323607  3070 net.cpp:129] Top shape: 7 128 14 14 (175616)
I0608 18:26:19.323611  3070 net.cpp:137] Memory required for data: 727050268
I0608 18:26:19.323619  3070 layer_factory.hpp:77] Creating layer bn_stage2_block2_branch2a
I0608 18:26:19.323629  3070 net.cpp:84] Creating Layer bn_stage2_block2_branch2a
I0608 18:26:19.323633  3070 net.cpp:406] bn_stage2_block2_branch2a <- conv_stage2_block2_branch2a
I0608 18:26:19.323642  3070 net.cpp:367] bn_stage2_block2_branch2a -> conv_stage2_block2_branch2a (in-place)
I0608 18:26:19.323843  3070 net.cpp:122] Setting up bn_stage2_block2_branch2a
I0608 18:26:19.323850  3070 net.cpp:129] Top shape: 7 128 14 14 (175616)
I0608 18:26:19.323853  3070 net.cpp:137] Memory required for data: 727752732
I0608 18:26:19.323858  3070 layer_factory.hpp:77] Creating layer scale_stage2_block2_branch2a
I0608 18:26:19.323863  3070 net.cpp:84] Creating Layer scale_stage2_block2_branch2a
I0608 18:26:19.323866  3070 net.cpp:406] scale_stage2_block2_branch2a <- conv_stage2_block2_branch2a
I0608 18:26:19.323870  3070 net.cpp:367] scale_stage2_block2_branch2a -> conv_stage2_block2_branch2a (in-place)
I0608 18:26:19.323902  3070 layer_factory.hpp:77] Creating layer scale_stage2_block2_branch2a
I0608 18:26:19.323983  3070 net.cpp:122] Setting up scale_stage2_block2_branch2a
I0608 18:26:19.323987  3070 net.cpp:129] Top shape: 7 128 14 14 (175616)
I0608 18:26:19.323989  3070 net.cpp:137] Memory required for data: 728455196
I0608 18:26:19.323994  3070 layer_factory.hpp:77] Creating layer relu_stage2_block2_branch2a
I0608 18:26:19.323997  3070 net.cpp:84] Creating Layer relu_stage2_block2_branch2a
I0608 18:26:19.324000  3070 net.cpp:406] relu_stage2_block2_branch2a <- conv_stage2_block2_branch2a
I0608 18:26:19.324005  3070 net.cpp:367] relu_stage2_block2_branch2a -> conv_stage2_block2_branch2a (in-place)
I0608 18:26:19.324009  3070 net.cpp:122] Setting up relu_stage2_block2_branch2a
I0608 18:26:19.324013  3070 net.cpp:129] Top shape: 7 128 14 14 (175616)
I0608 18:26:19.324015  3070 net.cpp:137] Memory required for data: 729157660
I0608 18:26:19.324018  3070 layer_factory.hpp:77] Creating layer conv_stage2_block2_branch2b
I0608 18:26:19.324025  3070 net.cpp:84] Creating Layer conv_stage2_block2_branch2b
I0608 18:26:19.324035  3070 net.cpp:406] conv_stage2_block2_branch2b <- conv_stage2_block2_branch2a
I0608 18:26:19.324040  3070 net.cpp:380] conv_stage2_block2_branch2b -> conv_stage2_block2_branch2b
I0608 18:26:19.325893  3070 net.cpp:122] Setting up conv_stage2_block2_branch2b
I0608 18:26:19.325907  3070 net.cpp:129] Top shape: 7 128 14 14 (175616)
I0608 18:26:19.325912  3070 net.cpp:137] Memory required for data: 729860124
I0608 18:26:19.325920  3070 layer_factory.hpp:77] Creating layer bn_stage2_block2_branch2b
I0608 18:26:19.325929  3070 net.cpp:84] Creating Layer bn_stage2_block2_branch2b
I0608 18:26:19.325934  3070 net.cpp:406] bn_stage2_block2_branch2b <- conv_stage2_block2_branch2b
I0608 18:26:19.325942  3070 net.cpp:367] bn_stage2_block2_branch2b -> conv_stage2_block2_branch2b (in-place)
I0608 18:26:19.326155  3070 net.cpp:122] Setting up bn_stage2_block2_branch2b
I0608 18:26:19.326164  3070 net.cpp:129] Top shape: 7 128 14 14 (175616)
I0608 18:26:19.326167  3070 net.cpp:137] Memory required for data: 730562588
I0608 18:26:19.326176  3070 layer_factory.hpp:77] Creating layer scale_stage2_block2_branch2b
I0608 18:26:19.326184  3070 net.cpp:84] Creating Layer scale_stage2_block2_branch2b
I0608 18:26:19.326189  3070 net.cpp:406] scale_stage2_block2_branch2b <- conv_stage2_block2_branch2b
I0608 18:26:19.326195  3070 net.cpp:367] scale_stage2_block2_branch2b -> conv_stage2_block2_branch2b (in-place)
I0608 18:26:19.326237  3070 layer_factory.hpp:77] Creating layer scale_stage2_block2_branch2b
I0608 18:26:19.326326  3070 net.cpp:122] Setting up scale_stage2_block2_branch2b
I0608 18:26:19.326333  3070 net.cpp:129] Top shape: 7 128 14 14 (175616)
I0608 18:26:19.326334  3070 net.cpp:137] Memory required for data: 731265052
I0608 18:26:19.326339  3070 layer_factory.hpp:77] Creating layer relu_stage2_block2_branch2b
I0608 18:26:19.326344  3070 net.cpp:84] Creating Layer relu_stage2_block2_branch2b
I0608 18:26:19.326346  3070 net.cpp:406] relu_stage2_block2_branch2b <- conv_stage2_block2_branch2b
I0608 18:26:19.326351  3070 net.cpp:367] relu_stage2_block2_branch2b -> conv_stage2_block2_branch2b (in-place)
I0608 18:26:19.326356  3070 net.cpp:122] Setting up relu_stage2_block2_branch2b
I0608 18:26:19.326359  3070 net.cpp:129] Top shape: 7 128 14 14 (175616)
I0608 18:26:19.326362  3070 net.cpp:137] Memory required for data: 731967516
I0608 18:26:19.326364  3070 layer_factory.hpp:77] Creating layer conv_stage2_block2_branch2c
I0608 18:26:19.326372  3070 net.cpp:84] Creating Layer conv_stage2_block2_branch2c
I0608 18:26:19.326375  3070 net.cpp:406] conv_stage2_block2_branch2c <- conv_stage2_block2_branch2b
I0608 18:26:19.326380  3070 net.cpp:380] conv_stage2_block2_branch2c -> conv_stage2_block2_branch2c
I0608 18:26:19.327294  3070 net.cpp:122] Setting up conv_stage2_block2_branch2c
I0608 18:26:19.327308  3070 net.cpp:129] Top shape: 7 512 14 14 (702464)
I0608 18:26:19.327312  3070 net.cpp:137] Memory required for data: 734777372
I0608 18:26:19.327320  3070 layer_factory.hpp:77] Creating layer bn_stage2_block2_branch2c
I0608 18:26:19.327328  3070 net.cpp:84] Creating Layer bn_stage2_block2_branch2c
I0608 18:26:19.327333  3070 net.cpp:406] bn_stage2_block2_branch2c <- conv_stage2_block2_branch2c
I0608 18:26:19.327343  3070 net.cpp:367] bn_stage2_block2_branch2c -> conv_stage2_block2_branch2c (in-place)
I0608 18:26:19.327559  3070 net.cpp:122] Setting up bn_stage2_block2_branch2c
I0608 18:26:19.327567  3070 net.cpp:129] Top shape: 7 512 14 14 (702464)
I0608 18:26:19.327571  3070 net.cpp:137] Memory required for data: 737587228
I0608 18:26:19.327580  3070 layer_factory.hpp:77] Creating layer scale_stage2_block2_branch2c
I0608 18:26:19.327587  3070 net.cpp:84] Creating Layer scale_stage2_block2_branch2c
I0608 18:26:19.327592  3070 net.cpp:406] scale_stage2_block2_branch2c <- conv_stage2_block2_branch2c
I0608 18:26:19.327599  3070 net.cpp:367] scale_stage2_block2_branch2c -> conv_stage2_block2_branch2c (in-place)
I0608 18:26:19.327639  3070 layer_factory.hpp:77] Creating layer scale_stage2_block2_branch2c
I0608 18:26:19.327764  3070 net.cpp:122] Setting up scale_stage2_block2_branch2c
I0608 18:26:19.327783  3070 net.cpp:129] Top shape: 7 512 14 14 (702464)
I0608 18:26:19.327788  3070 net.cpp:137] Memory required for data: 740397084
I0608 18:26:19.327795  3070 layer_factory.hpp:77] Creating layer eltwise_stage2_block2
I0608 18:26:19.327805  3070 net.cpp:84] Creating Layer eltwise_stage2_block2
I0608 18:26:19.327810  3070 net.cpp:406] eltwise_stage2_block2 <- eltwise_stage2_block1_relu_stage2_block1_0_split_1
I0608 18:26:19.327816  3070 net.cpp:406] eltwise_stage2_block2 <- conv_stage2_block2_branch2c
I0608 18:26:19.327822  3070 net.cpp:380] eltwise_stage2_block2 -> eltwise_stage2_block2
I0608 18:26:19.327852  3070 net.cpp:122] Setting up eltwise_stage2_block2
I0608 18:26:19.327859  3070 net.cpp:129] Top shape: 7 512 14 14 (702464)
I0608 18:26:19.327863  3070 net.cpp:137] Memory required for data: 743206940
I0608 18:26:19.327867  3070 layer_factory.hpp:77] Creating layer relu_stage2_block2
I0608 18:26:19.327873  3070 net.cpp:84] Creating Layer relu_stage2_block2
I0608 18:26:19.327877  3070 net.cpp:406] relu_stage2_block2 <- eltwise_stage2_block2
I0608 18:26:19.327885  3070 net.cpp:367] relu_stage2_block2 -> eltwise_stage2_block2 (in-place)
I0608 18:26:19.327893  3070 net.cpp:122] Setting up relu_stage2_block2
I0608 18:26:19.327899  3070 net.cpp:129] Top shape: 7 512 14 14 (702464)
I0608 18:26:19.327903  3070 net.cpp:137] Memory required for data: 746016796
I0608 18:26:19.327908  3070 layer_factory.hpp:77] Creating layer eltwise_stage2_block2_relu_stage2_block2_0_split
I0608 18:26:19.327913  3070 net.cpp:84] Creating Layer eltwise_stage2_block2_relu_stage2_block2_0_split
I0608 18:26:19.327917  3070 net.cpp:406] eltwise_stage2_block2_relu_stage2_block2_0_split <- eltwise_stage2_block2
I0608 18:26:19.327926  3070 net.cpp:380] eltwise_stage2_block2_relu_stage2_block2_0_split -> eltwise_stage2_block2_relu_stage2_block2_0_split_0
I0608 18:26:19.327935  3070 net.cpp:380] eltwise_stage2_block2_relu_stage2_block2_0_split -> eltwise_stage2_block2_relu_stage2_block2_0_split_1
I0608 18:26:19.327980  3070 net.cpp:122] Setting up eltwise_stage2_block2_relu_stage2_block2_0_split
I0608 18:26:19.327987  3070 net.cpp:129] Top shape: 7 512 14 14 (702464)
I0608 18:26:19.327991  3070 net.cpp:129] Top shape: 7 512 14 14 (702464)
I0608 18:26:19.327993  3070 net.cpp:137] Memory required for data: 751636508
I0608 18:26:19.327996  3070 layer_factory.hpp:77] Creating layer conv_stage2_block3_branch2a
I0608 18:26:19.328004  3070 net.cpp:84] Creating Layer conv_stage2_block3_branch2a
I0608 18:26:19.328007  3070 net.cpp:406] conv_stage2_block3_branch2a <- eltwise_stage2_block2_relu_stage2_block2_0_split_0
I0608 18:26:19.328018  3070 net.cpp:380] conv_stage2_block3_branch2a -> conv_stage2_block3_branch2a
I0608 18:26:19.328493  3070 net.cpp:122] Setting up conv_stage2_block3_branch2a
I0608 18:26:19.328500  3070 net.cpp:129] Top shape: 7 128 14 14 (175616)
I0608 18:26:19.328501  3070 net.cpp:137] Memory required for data: 752338972
I0608 18:26:19.328506  3070 layer_factory.hpp:77] Creating layer bn_stage2_block3_branch2a
I0608 18:26:19.328510  3070 net.cpp:84] Creating Layer bn_stage2_block3_branch2a
I0608 18:26:19.328513  3070 net.cpp:406] bn_stage2_block3_branch2a <- conv_stage2_block3_branch2a
I0608 18:26:19.328518  3070 net.cpp:367] bn_stage2_block3_branch2a -> conv_stage2_block3_branch2a (in-place)
I0608 18:26:19.328652  3070 net.cpp:122] Setting up bn_stage2_block3_branch2a
I0608 18:26:19.328656  3070 net.cpp:129] Top shape: 7 128 14 14 (175616)
I0608 18:26:19.328658  3070 net.cpp:137] Memory required for data: 753041436
I0608 18:26:19.328663  3070 layer_factory.hpp:77] Creating layer scale_stage2_block3_branch2a
I0608 18:26:19.328668  3070 net.cpp:84] Creating Layer scale_stage2_block3_branch2a
I0608 18:26:19.328670  3070 net.cpp:406] scale_stage2_block3_branch2a <- conv_stage2_block3_branch2a
I0608 18:26:19.328675  3070 net.cpp:367] scale_stage2_block3_branch2a -> conv_stage2_block3_branch2a (in-place)
I0608 18:26:19.328702  3070 layer_factory.hpp:77] Creating layer scale_stage2_block3_branch2a
I0608 18:26:19.328791  3070 net.cpp:122] Setting up scale_stage2_block3_branch2a
I0608 18:26:19.328796  3070 net.cpp:129] Top shape: 7 128 14 14 (175616)
I0608 18:26:19.328799  3070 net.cpp:137] Memory required for data: 753743900
I0608 18:26:19.328804  3070 layer_factory.hpp:77] Creating layer relu_stage2_block3_branch2a
I0608 18:26:19.328809  3070 net.cpp:84] Creating Layer relu_stage2_block3_branch2a
I0608 18:26:19.328811  3070 net.cpp:406] relu_stage2_block3_branch2a <- conv_stage2_block3_branch2a
I0608 18:26:19.328814  3070 net.cpp:367] relu_stage2_block3_branch2a -> conv_stage2_block3_branch2a (in-place)
I0608 18:26:19.328819  3070 net.cpp:122] Setting up relu_stage2_block3_branch2a
I0608 18:26:19.328822  3070 net.cpp:129] Top shape: 7 128 14 14 (175616)
I0608 18:26:19.328824  3070 net.cpp:137] Memory required for data: 754446364
I0608 18:26:19.328826  3070 layer_factory.hpp:77] Creating layer conv_stage2_block3_branch2b
I0608 18:26:19.328835  3070 net.cpp:84] Creating Layer conv_stage2_block3_branch2b
I0608 18:26:19.328836  3070 net.cpp:406] conv_stage2_block3_branch2b <- conv_stage2_block3_branch2a
I0608 18:26:19.328842  3070 net.cpp:380] conv_stage2_block3_branch2b -> conv_stage2_block3_branch2b
I0608 18:26:19.330679  3070 net.cpp:122] Setting up conv_stage2_block3_branch2b
I0608 18:26:19.330689  3070 net.cpp:129] Top shape: 7 128 14 14 (175616)
I0608 18:26:19.330693  3070 net.cpp:137] Memory required for data: 755148828
I0608 18:26:19.330698  3070 layer_factory.hpp:77] Creating layer bn_stage2_block3_branch2b
I0608 18:26:19.330703  3070 net.cpp:84] Creating Layer bn_stage2_block3_branch2b
I0608 18:26:19.330705  3070 net.cpp:406] bn_stage2_block3_branch2b <- conv_stage2_block3_branch2b
I0608 18:26:19.330711  3070 net.cpp:367] bn_stage2_block3_branch2b -> conv_stage2_block3_branch2b (in-place)
I0608 18:26:19.330855  3070 net.cpp:122] Setting up bn_stage2_block3_branch2b
I0608 18:26:19.330860  3070 net.cpp:129] Top shape: 7 128 14 14 (175616)
I0608 18:26:19.330862  3070 net.cpp:137] Memory required for data: 755851292
I0608 18:26:19.330868  3070 layer_factory.hpp:77] Creating layer scale_stage2_block3_branch2b
I0608 18:26:19.330873  3070 net.cpp:84] Creating Layer scale_stage2_block3_branch2b
I0608 18:26:19.330878  3070 net.cpp:406] scale_stage2_block3_branch2b <- conv_stage2_block3_branch2b
I0608 18:26:19.330883  3070 net.cpp:367] scale_stage2_block3_branch2b -> conv_stage2_block3_branch2b (in-place)
I0608 18:26:19.330910  3070 layer_factory.hpp:77] Creating layer scale_stage2_block3_branch2b
I0608 18:26:19.330991  3070 net.cpp:122] Setting up scale_stage2_block3_branch2b
I0608 18:26:19.330996  3070 net.cpp:129] Top shape: 7 128 14 14 (175616)
I0608 18:26:19.330997  3070 net.cpp:137] Memory required for data: 756553756
I0608 18:26:19.331002  3070 layer_factory.hpp:77] Creating layer relu_stage2_block3_branch2b
I0608 18:26:19.331007  3070 net.cpp:84] Creating Layer relu_stage2_block3_branch2b
I0608 18:26:19.331008  3070 net.cpp:406] relu_stage2_block3_branch2b <- conv_stage2_block3_branch2b
I0608 18:26:19.331012  3070 net.cpp:367] relu_stage2_block3_branch2b -> conv_stage2_block3_branch2b (in-place)
I0608 18:26:19.331017  3070 net.cpp:122] Setting up relu_stage2_block3_branch2b
I0608 18:26:19.331022  3070 net.cpp:129] Top shape: 7 128 14 14 (175616)
I0608 18:26:19.331023  3070 net.cpp:137] Memory required for data: 757256220
I0608 18:26:19.331025  3070 layer_factory.hpp:77] Creating layer conv_stage2_block3_branch2c
I0608 18:26:19.331032  3070 net.cpp:84] Creating Layer conv_stage2_block3_branch2c
I0608 18:26:19.331037  3070 net.cpp:406] conv_stage2_block3_branch2c <- conv_stage2_block3_branch2b
I0608 18:26:19.331040  3070 net.cpp:380] conv_stage2_block3_branch2c -> conv_stage2_block3_branch2c
I0608 18:26:19.331620  3070 net.cpp:122] Setting up conv_stage2_block3_branch2c
I0608 18:26:19.331629  3070 net.cpp:129] Top shape: 7 512 14 14 (702464)
I0608 18:26:19.331634  3070 net.cpp:137] Memory required for data: 760066076
I0608 18:26:19.331641  3070 layer_factory.hpp:77] Creating layer bn_stage2_block3_branch2c
I0608 18:26:19.331662  3070 net.cpp:84] Creating Layer bn_stage2_block3_branch2c
I0608 18:26:19.331667  3070 net.cpp:406] bn_stage2_block3_branch2c <- conv_stage2_block3_branch2c
I0608 18:26:19.331676  3070 net.cpp:367] bn_stage2_block3_branch2c -> conv_stage2_block3_branch2c (in-place)
I0608 18:26:19.331895  3070 net.cpp:122] Setting up bn_stage2_block3_branch2c
I0608 18:26:19.331903  3070 net.cpp:129] Top shape: 7 512 14 14 (702464)
I0608 18:26:19.331907  3070 net.cpp:137] Memory required for data: 762875932
I0608 18:26:19.331943  3070 layer_factory.hpp:77] Creating layer scale_stage2_block3_branch2c
I0608 18:26:19.331950  3070 net.cpp:84] Creating Layer scale_stage2_block3_branch2c
I0608 18:26:19.331954  3070 net.cpp:406] scale_stage2_block3_branch2c <- conv_stage2_block3_branch2c
I0608 18:26:19.331961  3070 net.cpp:367] scale_stage2_block3_branch2c -> conv_stage2_block3_branch2c (in-place)
I0608 18:26:19.332001  3070 layer_factory.hpp:77] Creating layer scale_stage2_block3_branch2c
I0608 18:26:19.332120  3070 net.cpp:122] Setting up scale_stage2_block3_branch2c
I0608 18:26:19.332126  3070 net.cpp:129] Top shape: 7 512 14 14 (702464)
I0608 18:26:19.332129  3070 net.cpp:137] Memory required for data: 765685788
I0608 18:26:19.332134  3070 layer_factory.hpp:77] Creating layer eltwise_stage2_block3
I0608 18:26:19.332139  3070 net.cpp:84] Creating Layer eltwise_stage2_block3
I0608 18:26:19.332141  3070 net.cpp:406] eltwise_stage2_block3 <- eltwise_stage2_block2_relu_stage2_block2_0_split_1
I0608 18:26:19.332144  3070 net.cpp:406] eltwise_stage2_block3 <- conv_stage2_block3_branch2c
I0608 18:26:19.332149  3070 net.cpp:380] eltwise_stage2_block3 -> eltwise_stage2_block3
I0608 18:26:19.332168  3070 net.cpp:122] Setting up eltwise_stage2_block3
I0608 18:26:19.332172  3070 net.cpp:129] Top shape: 7 512 14 14 (702464)
I0608 18:26:19.332175  3070 net.cpp:137] Memory required for data: 768495644
I0608 18:26:19.332176  3070 layer_factory.hpp:77] Creating layer relu_stage2_block3
I0608 18:26:19.332180  3070 net.cpp:84] Creating Layer relu_stage2_block3
I0608 18:26:19.332183  3070 net.cpp:406] relu_stage2_block3 <- eltwise_stage2_block3
I0608 18:26:19.332190  3070 net.cpp:367] relu_stage2_block3 -> eltwise_stage2_block3 (in-place)
I0608 18:26:19.332193  3070 net.cpp:122] Setting up relu_stage2_block3
I0608 18:26:19.332196  3070 net.cpp:129] Top shape: 7 512 14 14 (702464)
I0608 18:26:19.332199  3070 net.cpp:137] Memory required for data: 771305500
I0608 18:26:19.332201  3070 layer_factory.hpp:77] Creating layer eltwise_stage2_block3_relu_stage2_block3_0_split
I0608 18:26:19.332206  3070 net.cpp:84] Creating Layer eltwise_stage2_block3_relu_stage2_block3_0_split
I0608 18:26:19.332207  3070 net.cpp:406] eltwise_stage2_block3_relu_stage2_block3_0_split <- eltwise_stage2_block3
I0608 18:26:19.332211  3070 net.cpp:380] eltwise_stage2_block3_relu_stage2_block3_0_split -> eltwise_stage2_block3_relu_stage2_block3_0_split_0
I0608 18:26:19.332217  3070 net.cpp:380] eltwise_stage2_block3_relu_stage2_block3_0_split -> eltwise_stage2_block3_relu_stage2_block3_0_split_1
I0608 18:26:19.332243  3070 net.cpp:122] Setting up eltwise_stage2_block3_relu_stage2_block3_0_split
I0608 18:26:19.332247  3070 net.cpp:129] Top shape: 7 512 14 14 (702464)
I0608 18:26:19.332250  3070 net.cpp:129] Top shape: 7 512 14 14 (702464)
I0608 18:26:19.332252  3070 net.cpp:137] Memory required for data: 776925212
I0608 18:26:19.332255  3070 layer_factory.hpp:77] Creating layer conv_stage2_block4_branch2a
I0608 18:26:19.332262  3070 net.cpp:84] Creating Layer conv_stage2_block4_branch2a
I0608 18:26:19.332265  3070 net.cpp:406] conv_stage2_block4_branch2a <- eltwise_stage2_block3_relu_stage2_block3_0_split_0
I0608 18:26:19.332270  3070 net.cpp:380] conv_stage2_block4_branch2a -> conv_stage2_block4_branch2a
I0608 18:26:19.332727  3070 net.cpp:122] Setting up conv_stage2_block4_branch2a
I0608 18:26:19.332733  3070 net.cpp:129] Top shape: 7 128 14 14 (175616)
I0608 18:26:19.332736  3070 net.cpp:137] Memory required for data: 777627676
I0608 18:26:19.332741  3070 layer_factory.hpp:77] Creating layer bn_stage2_block4_branch2a
I0608 18:26:19.332752  3070 net.cpp:84] Creating Layer bn_stage2_block4_branch2a
I0608 18:26:19.332756  3070 net.cpp:406] bn_stage2_block4_branch2a <- conv_stage2_block4_branch2a
I0608 18:26:19.332761  3070 net.cpp:367] bn_stage2_block4_branch2a -> conv_stage2_block4_branch2a (in-place)
I0608 18:26:19.332895  3070 net.cpp:122] Setting up bn_stage2_block4_branch2a
I0608 18:26:19.332900  3070 net.cpp:129] Top shape: 7 128 14 14 (175616)
I0608 18:26:19.332901  3070 net.cpp:137] Memory required for data: 778330140
I0608 18:26:19.332906  3070 layer_factory.hpp:77] Creating layer scale_stage2_block4_branch2a
I0608 18:26:19.332912  3070 net.cpp:84] Creating Layer scale_stage2_block4_branch2a
I0608 18:26:19.332914  3070 net.cpp:406] scale_stage2_block4_branch2a <- conv_stage2_block4_branch2a
I0608 18:26:19.332918  3070 net.cpp:367] scale_stage2_block4_branch2a -> conv_stage2_block4_branch2a (in-place)
I0608 18:26:19.332945  3070 layer_factory.hpp:77] Creating layer scale_stage2_block4_branch2a
I0608 18:26:19.333024  3070 net.cpp:122] Setting up scale_stage2_block4_branch2a
I0608 18:26:19.333027  3070 net.cpp:129] Top shape: 7 128 14 14 (175616)
I0608 18:26:19.333029  3070 net.cpp:137] Memory required for data: 779032604
I0608 18:26:19.333034  3070 layer_factory.hpp:77] Creating layer relu_stage2_block4_branch2a
I0608 18:26:19.333040  3070 net.cpp:84] Creating Layer relu_stage2_block4_branch2a
I0608 18:26:19.333043  3070 net.cpp:406] relu_stage2_block4_branch2a <- conv_stage2_block4_branch2a
I0608 18:26:19.333046  3070 net.cpp:367] relu_stage2_block4_branch2a -> conv_stage2_block4_branch2a (in-place)
I0608 18:26:19.333051  3070 net.cpp:122] Setting up relu_stage2_block4_branch2a
I0608 18:26:19.333055  3070 net.cpp:129] Top shape: 7 128 14 14 (175616)
I0608 18:26:19.333057  3070 net.cpp:137] Memory required for data: 779735068
I0608 18:26:19.333060  3070 layer_factory.hpp:77] Creating layer conv_stage2_block4_branch2b
I0608 18:26:19.333065  3070 net.cpp:84] Creating Layer conv_stage2_block4_branch2b
I0608 18:26:19.333067  3070 net.cpp:406] conv_stage2_block4_branch2b <- conv_stage2_block4_branch2a
I0608 18:26:19.333073  3070 net.cpp:380] conv_stage2_block4_branch2b -> conv_stage2_block4_branch2b
I0608 18:26:19.335320  3070 net.cpp:122] Setting up conv_stage2_block4_branch2b
I0608 18:26:19.335333  3070 net.cpp:129] Top shape: 7 128 14 14 (175616)
I0608 18:26:19.335337  3070 net.cpp:137] Memory required for data: 780437532
I0608 18:26:19.335345  3070 layer_factory.hpp:77] Creating layer bn_stage2_block4_branch2b
I0608 18:26:19.335355  3070 net.cpp:84] Creating Layer bn_stage2_block4_branch2b
I0608 18:26:19.335359  3070 net.cpp:406] bn_stage2_block4_branch2b <- conv_stage2_block4_branch2b
I0608 18:26:19.335366  3070 net.cpp:367] bn_stage2_block4_branch2b -> conv_stage2_block4_branch2b (in-place)
I0608 18:26:19.335572  3070 net.cpp:122] Setting up bn_stage2_block4_branch2b
I0608 18:26:19.335579  3070 net.cpp:129] Top shape: 7 128 14 14 (175616)
I0608 18:26:19.335583  3070 net.cpp:137] Memory required for data: 781139996
I0608 18:26:19.335592  3070 layer_factory.hpp:77] Creating layer scale_stage2_block4_branch2b
I0608 18:26:19.335599  3070 net.cpp:84] Creating Layer scale_stage2_block4_branch2b
I0608 18:26:19.335603  3070 net.cpp:406] scale_stage2_block4_branch2b <- conv_stage2_block4_branch2b
I0608 18:26:19.335609  3070 net.cpp:367] scale_stage2_block4_branch2b -> conv_stage2_block4_branch2b (in-place)
I0608 18:26:19.335654  3070 layer_factory.hpp:77] Creating layer scale_stage2_block4_branch2b
I0608 18:26:19.335813  3070 net.cpp:122] Setting up scale_stage2_block4_branch2b
I0608 18:26:19.335821  3070 net.cpp:129] Top shape: 7 128 14 14 (175616)
I0608 18:26:19.335824  3070 net.cpp:137] Memory required for data: 781842460
I0608 18:26:19.335832  3070 layer_factory.hpp:77] Creating layer relu_stage2_block4_branch2b
I0608 18:26:19.335839  3070 net.cpp:84] Creating Layer relu_stage2_block4_branch2b
I0608 18:26:19.335844  3070 net.cpp:406] relu_stage2_block4_branch2b <- conv_stage2_block4_branch2b
I0608 18:26:19.335860  3070 net.cpp:367] relu_stage2_block4_branch2b -> conv_stage2_block4_branch2b (in-place)
I0608 18:26:19.335868  3070 net.cpp:122] Setting up relu_stage2_block4_branch2b
I0608 18:26:19.335875  3070 net.cpp:129] Top shape: 7 128 14 14 (175616)
I0608 18:26:19.335877  3070 net.cpp:137] Memory required for data: 782544924
I0608 18:26:19.335881  3070 layer_factory.hpp:77] Creating layer conv_stage2_block4_branch2c
I0608 18:26:19.335893  3070 net.cpp:84] Creating Layer conv_stage2_block4_branch2c
I0608 18:26:19.335897  3070 net.cpp:406] conv_stage2_block4_branch2c <- conv_stage2_block4_branch2b
I0608 18:26:19.335906  3070 net.cpp:380] conv_stage2_block4_branch2c -> conv_stage2_block4_branch2c
I0608 18:26:19.337270  3070 net.cpp:122] Setting up conv_stage2_block4_branch2c
I0608 18:26:19.337280  3070 net.cpp:129] Top shape: 7 512 14 14 (702464)
I0608 18:26:19.337281  3070 net.cpp:137] Memory required for data: 785354780
I0608 18:26:19.337286  3070 layer_factory.hpp:77] Creating layer bn_stage2_block4_branch2c
I0608 18:26:19.337291  3070 net.cpp:84] Creating Layer bn_stage2_block4_branch2c
I0608 18:26:19.337294  3070 net.cpp:406] bn_stage2_block4_branch2c <- conv_stage2_block4_branch2c
I0608 18:26:19.337301  3070 net.cpp:367] bn_stage2_block4_branch2c -> conv_stage2_block4_branch2c (in-place)
I0608 18:26:19.337445  3070 net.cpp:122] Setting up bn_stage2_block4_branch2c
I0608 18:26:19.337448  3070 net.cpp:129] Top shape: 7 512 14 14 (702464)
I0608 18:26:19.337451  3070 net.cpp:137] Memory required for data: 788164636
I0608 18:26:19.337456  3070 layer_factory.hpp:77] Creating layer scale_stage2_block4_branch2c
I0608 18:26:19.337460  3070 net.cpp:84] Creating Layer scale_stage2_block4_branch2c
I0608 18:26:19.337463  3070 net.cpp:406] scale_stage2_block4_branch2c <- conv_stage2_block4_branch2c
I0608 18:26:19.337466  3070 net.cpp:367] scale_stage2_block4_branch2c -> conv_stage2_block4_branch2c (in-place)
I0608 18:26:19.337494  3070 layer_factory.hpp:77] Creating layer scale_stage2_block4_branch2c
I0608 18:26:19.337579  3070 net.cpp:122] Setting up scale_stage2_block4_branch2c
I0608 18:26:19.341898  3070 net.cpp:129] Top shape: 7 512 14 14 (702464)
I0608 18:26:19.341907  3070 net.cpp:137] Memory required for data: 790974492
I0608 18:26:19.341918  3070 layer_factory.hpp:77] Creating layer eltwise_stage2_block4
I0608 18:26:19.341933  3070 net.cpp:84] Creating Layer eltwise_stage2_block4
I0608 18:26:19.341939  3070 net.cpp:406] eltwise_stage2_block4 <- eltwise_stage2_block3_relu_stage2_block3_0_split_1
I0608 18:26:19.341948  3070 net.cpp:406] eltwise_stage2_block4 <- conv_stage2_block4_branch2c
I0608 18:26:19.341958  3070 net.cpp:380] eltwise_stage2_block4 -> eltwise_stage2_block4
I0608 18:26:19.342005  3070 net.cpp:122] Setting up eltwise_stage2_block4
I0608 18:26:19.342015  3070 net.cpp:129] Top shape: 7 512 14 14 (702464)
I0608 18:26:19.342020  3070 net.cpp:137] Memory required for data: 793784348
I0608 18:26:19.342025  3070 layer_factory.hpp:77] Creating layer relu_stage2_block4
I0608 18:26:19.342034  3070 net.cpp:84] Creating Layer relu_stage2_block4
I0608 18:26:19.342041  3070 net.cpp:406] relu_stage2_block4 <- eltwise_stage2_block4
I0608 18:26:19.342051  3070 net.cpp:367] relu_stage2_block4 -> eltwise_stage2_block4 (in-place)
I0608 18:26:19.342061  3070 net.cpp:122] Setting up relu_stage2_block4
I0608 18:26:19.342069  3070 net.cpp:129] Top shape: 7 512 14 14 (702464)
I0608 18:26:19.342074  3070 net.cpp:137] Memory required for data: 796594204
I0608 18:26:19.342079  3070 layer_factory.hpp:77] Creating layer eltwise_stage2_block4_relu_stage2_block4_0_split
…
I0608 18:26:19.572965  3070 layer_factory.hpp:77] Creating layer eltwise_stage2_block3_relu_stage2_block3_0_split
I0608 18:26:19.572969  3070 net.cpp:84] Creating Layer eltwise_stage2_block3_relu_stage2_block3_0_split
I0608 18:26:19.572971  3070 net.cpp:406] eltwise_stage2_block3_relu_stage2_block3_0_split <- eltwise_stage2_block3
I0608 18:26:19.572975  3070 net.cpp:380] eltwise_stage2_block3_relu_stage2_block3_0_split -> eltwise_stage2_block3_relu_stage2_block3_0_split_0
I0608 18:26:19.572983  3070 net.cpp:380] eltwise_stage2_block3_relu_stage2_block3_0_split -> eltwise_stage2_block3_relu_stage2_block3_0_split_1
I0608 18:26:19.573010  3070 net.cpp:122] Setting up eltwise_stage2_block3_relu_stage2_block3_0_split
I0608 18:26:19.573014  3070 net.cpp:129] Top shape: 7 512 14 14 (702464)
I0608 18:26:19.573017  3070 net.cpp:129] Top shape: 7 512 14 14 (702464)
I0608 18:26:19.573019  3070 net.cpp:137] Memory required for data: 776925268
I0608 18:26:19.573022  3070 layer_factory.hpp:77] Creating layer conv_stage2_block4_branch2a
I0608 18:26:19.573030  3070 net.cpp:84] Creating Layer conv_stage2_block4_branch2a
I0608 18:26:19.573034  3070 net.cpp:406] conv_stage2_block4_branch2a <- eltwise_stage2_block3_relu_stage2_block3_0_split_0
I0608 18:26:19.573038  3070 net.cpp:380] conv_stage2_block4_branch2a -> conv_stage2_block4_branch2a
I0608 18:26:19.573535  3070 net.cpp:122] Setting up conv_stage2_block4_branch2a
I0608 18:26:19.573541  3070 net.cpp:129] Top shape: 7 128 14 14 (175616)
I0608 18:26:19.573544  3070 net.cpp:137] Memory required for data: 777627732
I0608 18:26:19.573549  3070 layer_factory.hpp:77] Creating layer bn_stage2_block4_branch2a
I0608 18:26:19.573554  3070 net.cpp:84] Creating Layer bn_stage2_block4_branch2a
I0608 18:26:19.573557  3070 net.cpp:406] bn_stage2_block4_branch2a <- conv_stage2_block4_branch2a
I0608 18:26:19.573561  3070 net.cpp:367] bn_stage2_block4_branch2a -> conv_stage2_block4_branch2a (in-place)
I0608 18:26:19.573761  3070 net.cpp:122] Setting up bn_stage2_block4_branch2a
I0608 18:26:19.573770  3070 net.cpp:129] Top shape: 7 128 14 14 (175616)
I0608 18:26:19.573773  3070 net.cpp:137] Memory required for data: 778330196
I0608 18:26:19.573783  3070 layer_factory.hpp:77] Creating layer scale_stage2_block4_branch2a
I0608 18:26:19.573791  3070 net.cpp:84] Creating Layer scale_stage2_block4_branch2a
I0608 18:26:19.573794  3070 net.cpp:406] scale_stage2_block4_branch2a <- conv_stage2_block4_branch2a
I0608 18:26:19.573801  3070 net.cpp:367] scale_stage2_block4_branch2a -> conv_stage2_block4_branch2a (in-place)
I0608 18:26:19.573849  3070 layer_factory.hpp:77] Creating layer scale_stage2_block4_branch2a
I0608 18:26:19.573977  3070 net.cpp:122] Setting up scale_stage2_block4_branch2a
I0608 18:26:19.573984  3070 net.cpp:129] Top shape: 7 128 14 14 (175616)
I0608 18:26:19.573988  3070 net.cpp:137] Memory required for data: 779032660
I0608 18:26:19.573995  3070 layer_factory.hpp:77] Creating layer relu_stage2_block4_branch2a
I0608 18:26:19.574002  3070 net.cpp:84] Creating Layer relu_stage2_block4_branch2a
I0608 18:26:19.574007  3070 net.cpp:406] relu_stage2_block4_branch2a <- conv_stage2_block4_branch2a
I0608 18:26:19.574014  3070 net.cpp:367] relu_stage2_block4_branch2a -> conv_stage2_block4_branch2a (in-place)
I0608 18:26:19.574021  3070 net.cpp:122] Setting up relu_stage2_block4_branch2a
I0608 18:26:19.574028  3070 net.cpp:129] Top shape: 7 128 14 14 (175616)
I0608 18:26:19.574039  3070 net.cpp:137] Memory required for data: 779735124
I0608 18:26:19.574043  3070 layer_factory.hpp:77] Creating layer conv_stage2_block4_branch2b
I0608 18:26:19.574057  3070 net.cpp:84] Creating Layer conv_stage2_block4_branch2b
I0608 18:26:19.574062  3070 net.cpp:406] conv_stage2_block4_branch2b <- conv_stage2_block4_branch2a
I0608 18:26:19.574070  3070 net.cpp:380] conv_stage2_block4_branch2b -> conv_stage2_block4_branch2b
I0608 18:26:19.576592  3070 net.cpp:122] Setting up conv_stage2_block4_branch2b
I0608 18:26:19.576603  3070 net.cpp:129] Top shape: 7 128 14 14 (175616)
I0608 18:26:19.576606  3070 net.cpp:137] Memory required for data: 780437588
I0608 18:26:19.576611  3070 layer_factory.hpp:77] Creating layer bn_stage2_block4_branch2b
I0608 18:26:19.576616  3070 net.cpp:84] Creating Layer bn_stage2_block4_branch2b
I0608 18:26:19.576619  3070 net.cpp:406] bn_stage2_block4_branch2b <- conv_stage2_block4_branch2b
I0608 18:26:19.576624  3070 net.cpp:367] bn_stage2_block4_branch2b -> conv_stage2_block4_branch2b (in-place)
I0608 18:26:19.576771  3070 net.cpp:122] Setting up bn_stage2_block4_branch2b
I0608 18:26:19.576776  3070 net.cpp:129] Top shape: 7 128 14 14 (175616)
I0608 18:26:19.576777  3070 net.cpp:137] Memory required for data: 781140052
I0608 18:26:19.576782  3070 layer_factory.hpp:77] Creating layer scale_stage2_block4_branch2b
I0608 18:26:19.576786  3070 net.cpp:84] Creating Layer scale_stage2_block4_branch2b
I0608 18:26:19.576789  3070 net.cpp:406] scale_stage2_block4_branch2b <- conv_stage2_block4_branch2b
I0608 18:26:19.576792  3070 net.cpp:367] scale_stage2_block4_branch2b -> conv_stage2_block4_branch2b (in-place)
I0608 18:26:19.576822  3070 layer_factory.hpp:77] Creating layer scale_stage2_block4_branch2b
I0608 18:26:19.576908  3070 net.cpp:122] Setting up scale_stage2_block4_branch2b
I0608 18:26:19.576913  3070 net.cpp:129] Top shape: 7 128 14 14 (175616)
I0608 18:26:19.576915  3070 net.cpp:137] Memory required for data: 781842516
I0608 18:26:19.576920  3070 layer_factory.hpp:77] Creating layer relu_stage2_block4_branch2b
I0608 18:26:19.576925  3070 net.cpp:84] Creating Layer relu_stage2_block4_branch2b
I0608 18:26:19.576927  3070 net.cpp:406] relu_stage2_block4_branch2b <- conv_stage2_block4_branch2b
I0608 18:26:19.576930  3070 net.cpp:367] relu_stage2_block4_branch2b -> conv_stage2_block4_branch2b (in-place)
I0608 18:26:19.576936  3070 net.cpp:122] Setting up relu_stage2_block4_branch2b
I0608 18:26:19.576938  3070 net.cpp:129] Top shape: 7 128 14 14 (175616)
I0608 18:26:19.580829  3070 net.cpp:137] Memory required for data: 782544980
I0608 18:26:19.580838  3070 layer_factory.hpp:77] Creating layer conv_stage2_block4_branch2c
I0608 18:26:19.580857  3070 net.cpp:84] Creating Layer conv_stage2_block4_branch2c
I0608 18:26:19.580862  3070 net.cpp:406] conv_stage2_block4_branch2c <- conv_stage2_block4_branch2b
I0608 18:26:19.580873  3070 net.cpp:380] conv_stage2_block4_branch2c -> conv_stage2_block4_branch2c
I0608 18:26:19.581799  3070 net.cpp:122] Setting up conv_stage2_block4_branch2c
I0608 18:26:19.581810  3070 net.cpp:129] Top shape: 7 512 14 14 (702464)
I0608 18:26:19.581815  3070 net.cpp:137] Memory required for data: 785354836
I0608 18:26:19.581823  3070 layer_factory.hpp:77] Creating layer bn_stage2_block4_branch2c
I0608 18:26:19.581833  3070 net.cpp:84] Creating Layer bn_stage2_block4_branch2c
I0608 18:26:19.581838  3070 net.cpp:406] bn_stage2_block4_branch2c <- conv_stage2_block4_branch2c
I0608 18:26:19.581847  3070 net.cpp:367] bn_stage2_block4_branch2c -> conv_stage2_block4_branch2c (in-place)
I0608 18:26:19.582032  3070 net.cpp:122] Setting up bn_stage2_block4_branch2c
I0608 18:26:19.582039  3070 net.cpp:129] Top shape: 7 512 14 14 (702464)
I0608 18:26:19.582041  3070 net.cpp:137] Memory required for data: 788164692
I0608 18:26:19.582047  3070 layer_factory.hpp:77] Creating layer scale_stage2_block4_branch2c
I0608 18:26:19.582053  3070 net.cpp:84] Creating Layer scale_stage2_block4_branch2c
I0608 18:26:19.582056  3070 net.cpp:406] scale_stage2_block4_branch2c <- conv_stage2_block4_branch2c
I0608 18:26:19.582070  3070 net.cpp:367] scale_stage2_block4_branch2c -> conv_stage2_block4_branch2c (in-place)
I0608 18:26:19.582108  3070 layer_factory.hpp:77] Creating layer scale_stage2_block4_branch2c
I0608 18:26:19.582203  3070 net.cpp:122] Setting up scale_stage2_block4_branch2c
I0608 18:26:19.582208  3070 net.cpp:129] Top shape: 7 512 14 14 (702464)
I0608 18:26:19.582211  3070 net.cpp:137] Memory required for data: 790974548
I0608 18:26:19.582216  3070 layer_factory.hpp:77] Creating layer eltwise_stage2_block4
I0608 18:26:19.582221  3070 net.cpp:84] Creating Layer eltwise_stage2_block4
I0608 18:26:19.582223  3070 net.cpp:406] eltwise_stage2_block4 <- eltwise_stage2_block3_relu_stage2_block3_0_split_1
I0608 18:26:19.582228  3070 net.cpp:406] eltwise_stage2_block4 <- conv_stage2_block4_branch2c
I0608 18:26:19.582233  3070 net.cpp:380] eltwise_stage2_block4 -> eltwise_stage2_block4
I0608 18:26:19.582267  3070 net.cpp:122] Setting up eltwise_stage2_block4
I0608 18:26:19.582274  3070 net.cpp:129] Top shape: 7 512 14 14 (702464)
I0608 18:26:19.582278  3070 net.cpp:137] Memory required for data: 793784404
I0608 18:26:19.582280  3070 layer_factory.hpp:77] Creating layer relu_stage2_block4
I0608 18:26:19.582284  3070 net.cpp:84] Creating Layer relu_stage2_block4
I0608 18:26:19.582288  3070 net.cpp:406] relu_stage2_block4 <- eltwise_stage2_block4
I0608 18:26:19.582293  3070 net.cpp:367] relu_stage2_block4 -> eltwise_stage2_block4 (in-place)
I0608 18:26:19.582298  3070 net.cpp:122] Setting up relu_stage2_block4
I0608 18:26:19.582301  3070 net.cpp:129] Top shape: 7 512 14 14 (702464)
I0608 18:26:19.582304  3070 net.cpp:137] Memory required for data: 796594260
I0608 18:26:19.582305  3070 layer_factory.hpp:77] Creating layer eltwise_stage2_block4_relu_stage2_block4_0_split
I0608 18:26:19.582310  3070 net.cpp:84] Creating Layer eltwise_stage2_block4_relu_stage2_block4_0_split
I0608 18:26:19.582312  3070 net.cpp:406] eltwise_stage2_block4_relu_stage2_block4_0_split <- eltwise_stage2_block4
I0608 18:26:19.582316  3070 net.cpp:380] eltwise_stage2_block4_relu_stage2_block4_0_split -> eltwise_stage2_block4_relu_stage2_block4_0_split_0
I0608 18:26:19.582322  3070 net.cpp:380] eltwise_stage2_block4_relu_stage2_block4_0_split -> eltwise_stage2_block4_relu_stage2_block4_0_split_1
I0608 18:26:19.582352  3070 net.cpp:122] Setting up eltwise_stage2_block4_relu_stage2_block4_0_split
I0608 18:26:19.582357  3070 net.cpp:129] Top shape: 7 512 14 14 (702464)
I0608 18:26:19.582360  3070 net.cpp:129] Top shape: 7 512 14 14 (702464)
I0608 18:26:19.582362  3070 net.cpp:137] Memory required for data: 802213972
I0608 18:26:19.582365  3070 layer_factory.hpp:77] Creating layer conv_stage2_block5_branch2a
I0608 18:26:19.582373  3070 net.cpp:84] Creating Layer conv_stage2_block5_branch2a
I0608 18:26:19.582376  3070 net.cpp:406] conv_stage2_block5_branch2a <- eltwise_stage2_block4_relu_stage2_block4_0_split_0
I0608 18:26:19.582381  3070 net.cpp:380] conv_stage2_block5_branch2a -> conv_stage2_block5_branch2a
I0608 18:26:19.583709  3070 net.cpp:122] Setting up conv_stage2_block5_branch2a
I0608 18:26:19.583721  3070 net.cpp:129] Top shape: 7 128 14 14 (175616)
I0608 18:26:19.583724  3070 net.cpp:137] Memory required for data: 802916436
I0608 18:26:19.583729  3070 layer_factory.hpp:77] Creating layer bn_stage2_block5_branch2a
I0608 18:26:19.583735  3070 net.cpp:84] Creating Layer bn_stage2_block5_branch2a
I0608 18:26:19.583739  3070 net.cpp:406] bn_stage2_block5_branch2a <- conv_stage2_block5_branch2a
I0608 18:26:19.583748  3070 net.cpp:367] bn_stage2_block5_branch2a -> conv_stage2_block5_branch2a (in-place)
I0608 18:26:19.583968  3070 net.cpp:122] Setting up bn_stage2_block5_branch2a
I0608 18:26:19.583977  3070 net.cpp:129] Top shape: 7 128 14 14 (175616)
I0608 18:26:19.583979  3070 net.cpp:137] Memory required for data: 803618900
I0608 18:26:19.583986  3070 layer_factory.hpp:77] Creating layer scale_stage2_block5_branch2a
I0608 18:26:19.583992  3070 net.cpp:84] Creating Layer scale_stage2_block5_branch2a
I0608 18:26:19.584007  3070 net.cpp:406] scale_stage2_block5_branch2a <- conv_stage2_block5_branch2a
I0608 18:26:19.584012  3070 net.cpp:367] scale_stage2_block5_branch2a -> conv_stage2_block5_branch2a (in-place)
I0608 18:26:19.584050  3070 layer_factory.hpp:77] Creating layer scale_stage2_block5_branch2a
I0608 18:26:19.584178  3070 net.cpp:122] Setting up scale_stage2_block5_branch2a
I0608 18:26:19.584187  3070 net.cpp:129] Top shape: 7 128 14 14 (175616)
I0608 18:26:19.584192  3070 net.cpp:137] Memory required for data: 804321364
I0608 18:26:19.584200  3070 layer_factory.hpp:77] Creating layer relu_stage2_block5_branch2a
I0608 18:26:19.584209  3070 net.cpp:84] Creating Layer relu_stage2_block5_branch2a
I0608 18:26:19.584214  3070 net.cpp:406] relu_stage2_block5_branch2a <- conv_stage2_block5_branch2a
I0608 18:26:19.584221  3070 net.cpp:367] relu_stage2_block5_branch2a -> conv_stage2_block5_branch2a (in-place)
I0608 18:26:19.584228  3070 net.cpp:122] Setting up relu_stage2_block5_branch2a
I0608 18:26:19.584233  3070 net.cpp:129] Top shape: 7 128 14 14 (175616)
I0608 18:26:19.584235  3070 net.cpp:137] Memory required for data: 805023828
I0608 18:26:19.584237  3070 layer_factory.hpp:77] Creating layer conv_stage2_block5_branch2b
I0608 18:26:19.584246  3070 net.cpp:84] Creating Layer conv_stage2_block5_branch2b
I0608 18:26:19.584249  3070 net.cpp:406] conv_stage2_block5_branch2b <- conv_stage2_block5_branch2a
I0608 18:26:19.584255  3070 net.cpp:380] conv_stage2_block5_branch2b -> conv_stage2_block5_branch2b
I0608 18:26:19.585880  3070 net.cpp:122] Setting up conv_stage2_block5_branch2b
I0608 18:26:19.585888  3070 net.cpp:129] Top shape: 7 128 14 14 (175616)
I0608 18:26:19.585891  3070 net.cpp:137] Memory required for data: 805726292
I0608 18:26:19.585896  3070 layer_factory.hpp:77] Creating layer bn_stage2_block5_branch2b
I0608 18:26:19.585902  3070 net.cpp:84] Creating Layer bn_stage2_block5_branch2b
I0608 18:26:19.585906  3070 net.cpp:406] bn_stage2_block5_branch2b <- conv_stage2_block5_branch2b
I0608 18:26:19.585911  3070 net.cpp:367] bn_stage2_block5_branch2b -> conv_stage2_block5_branch2b (in-place)
I0608 18:26:19.586068  3070 net.cpp:122] Setting up bn_stage2_block5_branch2b
I0608 18:26:19.586073  3070 net.cpp:129] Top shape: 7 128 14 14 (175616)
I0608 18:26:19.586076  3070 net.cpp:137] Memory required for data: 806428756
I0608 18:26:19.586082  3070 layer_factory.hpp:77] Creating layer scale_stage2_block5_branch2b
I0608 18:26:19.586087  3070 net.cpp:84] Creating Layer scale_stage2_block5_branch2b
I0608 18:26:19.586091  3070 net.cpp:406] scale_stage2_block5_branch2b <- conv_stage2_block5_branch2b
I0608 18:26:19.586096  3070 net.cpp:367] scale_stage2_block5_branch2b -> conv_stage2_block5_branch2b (in-place)
I0608 18:26:19.586127  3070 layer_factory.hpp:77] Creating layer scale_stage2_block5_branch2b
I0608 18:26:19.586212  3070 net.cpp:122] Setting up scale_stage2_block5_branch2b
I0608 18:26:19.586218  3070 net.cpp:129] Top shape: 7 128 14 14 (175616)
I0608 18:26:19.586220  3070 net.cpp:137] Memory required for data: 807131220
I0608 18:26:19.586225  3070 layer_factory.hpp:77] Creating layer relu_stage2_block5_branch2b
I0608 18:26:19.586230  3070 net.cpp:84] Creating Layer relu_stage2_block5_branch2b
I0608 18:26:19.586232  3070 net.cpp:406] relu_stage2_block5_branch2b <- conv_stage2_block5_branch2b
I0608 18:26:19.586236  3070 net.cpp:367] relu_stage2_block5_branch2b -> conv_stage2_block5_branch2b (in-place)
I0608 18:26:19.586241  3070 net.cpp:122] Setting up relu_stage2_block5_branch2b
I0608 18:26:19.586243  3070 net.cpp:129] Top shape: 7 128 14 14 (175616)
I0608 18:26:19.586246  3070 net.cpp:137] Memory required for data: 807833684
I0608 18:26:19.586248  3070 layer_factory.hpp:77] Creating layer conv_stage2_block5_branch2c
I0608 18:26:19.586269  3070 net.cpp:84] Creating Layer conv_stage2_block5_branch2c
I0608 18:26:19.586273  3070 net.cpp:406] conv_stage2_block5_branch2c <- conv_stage2_block5_branch2b
I0608 18:26:19.586279  3070 net.cpp:380] conv_stage2_block5_branch2c -> conv_stage2_block5_branch2c
I0608 18:26:19.587180  3070 net.cpp:122] Setting up conv_stage2_block5_branch2c
I0608 18:26:19.587203  3070 net.cpp:129] Top shape: 7 512 14 14 (702464)
I0608 18:26:19.587208  3070 net.cpp:137] Memory required for data: 810643540
I0608 18:26:19.587216  3070 layer_factory.hpp:77] Creating layer bn_stage2_block5_branch2c
I0608 18:26:19.587226  3070 net.cpp:84] Creating Layer bn_stage2_block5_branch2c
I0608 18:26:19.587231  3070 net.cpp:406] bn_stage2_block5_branch2c <- conv_stage2_block5_branch2c
I0608 18:26:19.587239  3070 net.cpp:367] bn_stage2_block5_branch2c -> conv_stage2_block5_branch2c (in-place)
I0608 18:26:19.588096  3070 net.cpp:122] Setting up bn_stage2_block5_branch2c
I0608 18:26:19.588109  3070 net.cpp:129] Top shape: 7 512 14 14 (702464)
I0608 18:26:19.588112  3070 net.cpp:137] Memory required for data: 813453396
I0608 18:26:19.588122  3070 layer_factory.hpp:77] Creating layer scale_stage2_block5_branch2c
I0608 18:26:19.588130  3070 net.cpp:84] Creating Layer scale_stage2_block5_branch2c
I0608 18:26:19.588135  3070 net.cpp:406] scale_stage2_block5_branch2c <- conv_stage2_block5_branch2c
I0608 18:26:19.588145  3070 net.cpp:367] scale_stage2_block5_branch2c -> conv_stage2_block5_branch2c (in-place)
I0608 18:26:19.588196  3070 layer_factory.hpp:77] Creating layer scale_stage2_block5_branch2c
I0608 18:26:19.588328  3070 net.cpp:122] Setting up scale_stage2_block5_branch2c
I0608 18:26:19.588337  3070 net.cpp:129] Top shape: 7 512 14 14 (702464)
I0608 18:26:19.588342  3070 net.cpp:137] Memory required for data: 816263252
I0608 18:26:19.588349  3070 layer_factory.hpp:77] Creating layer eltwise_stage2_block5
I0608 18:26:19.588357  3070 net.cpp:84] Creating Layer eltwise_stage2_block5
I0608 18:26:19.588362  3070 net.cpp:406] eltwise_stage2_block5 <- eltwise_stage2_block4_relu_stage2_block4_0_split_1
I0608 18:26:19.588368  3070 net.cpp:406] eltwise_stage2_block5 <- conv_stage2_block5_branch2c
I0608 18:26:19.588376  3070 net.cpp:380] eltwise_stage2_block5 -> eltwise_stage2_block5
I0608 18:26:19.588407  3070 net.cpp:122] Setting up eltwise_stage2_block5
I0608 18:26:19.588418  3070 net.cpp:129] Top shape: 7 512 14 14 (702464)
I0608 18:26:19.588421  3070 net.cpp:137] Memory required for data: 819073108
I0608 18:26:19.588425  3070 layer_factory.hpp:77] Creating layer relu_stage2_block5
I0608 18:26:19.588433  3070 net.cpp:84] Creating Layer relu_stage2_block5
I0608 18:26:19.588438  3070 net.cpp:406] relu_stage2_block5 <- eltwise_stage2_block5
I0608 18:26:19.588444  3070 net.cpp:367] relu_stage2_block5 -> eltwise_stage2_block5 (in-place)
I0608 18:26:19.588451  3070 net.cpp:122] Setting up relu_stage2_block5
I0608 18:26:19.588457  3070 net.cpp:129] Top shape: 7 512 14 14 (702464)
I0608 18:26:19.588461  3070 net.cpp:137] Memory required for data: 821882964
I0608 18:26:19.588464  3070 layer_factory.hpp:77] Creating layer eltwise_stage2_block5_relu_stage2_block5_0_split
I0608 18:26:19.588471  3070 net.cpp:84] Creating Layer eltwise_stage2_block5_relu_stage2_block5_0_split
I0608 18:26:19.588475  3070 net.cpp:406] eltwise_stage2_block5_relu_stage2_block5_0_split <- eltwise_stage2_block5
I0608 18:26:19.588485  3070 net.cpp:380] eltwise_stage2_block5_relu_stage2_block5_0_split -> eltwise_stage2_block5_relu_stage2_block5_0_split_0
I0608 18:26:19.588493  3070 net.cpp:380] eltwise_stage2_block5_relu_stage2_block5_0_split -> eltwise_stage2_block5_relu_stage2_block5_0_split_1
I0608 18:26:19.588534  3070 net.cpp:122] Setting up eltwise_stage2_block5_relu_stage2_block5_0_split
I0608 18:26:19.588542  3070 net.cpp:129] Top shape: 7 512 14 14 (702464)
I0608 18:26:19.588548  3070 net.cpp:129] Top shape: 7 512 14 14 (702464)
I0608 18:26:19.588551  3070 net.cpp:137] Memory required for data: 827502676
I0608 18:26:19.588555  3070 layer_factory.hpp:77] Creating layer conv_stage3_block0_proj_shortcut
I0608 18:26:19.588567  3070 net.cpp:84] Creating Layer conv_stage3_block0_proj_shortcut
I0608 18:26:19.588572  3070 net.cpp:406] conv_stage3_block0_proj_shortcut <- eltwise_stage2_block5_relu_stage2_block5_0_split_0
I0608 18:26:19.588582  3070 net.cpp:380] conv_stage3_block0_proj_shortcut -> conv_stage3_block0_proj_shortcut
I0608 18:26:19.593201  3070 net.cpp:122] Setting up conv_stage3_block0_proj_shortcut
I0608 18:26:19.593211  3070 net.cpp:129] Top shape: 7 1024 7 7 (351232)
I0608 18:26:19.593214  3070 net.cpp:137] Memory required for data: 828907604
I0608 18:26:19.593219  3070 layer_factory.hpp:77] Creating layer bn_stage3_block0_proj_shortcut
I0608 18:26:19.593226  3070 net.cpp:84] Creating Layer bn_stage3_block0_proj_shortcut
I0608 18:26:19.593230  3070 net.cpp:406] bn_stage3_block0_proj_shortcut <- conv_stage3_block0_proj_shortcut
I0608 18:26:19.593235  3070 net.cpp:367] bn_stage3_block0_proj_shortcut -> conv_stage3_block0_proj_shortcut (in-place)
I0608 18:26:19.593395  3070 net.cpp:122] Setting up bn_stage3_block0_proj_shortcut
I0608 18:26:19.593400  3070 net.cpp:129] Top shape: 7 1024 7 7 (351232)
I0608 18:26:19.593403  3070 net.cpp:137] Memory required for data: 830312532
I0608 18:26:19.593408  3070 layer_factory.hpp:77] Creating layer scale_stage3_block0_proj_shortcut
I0608 18:26:19.593415  3070 net.cpp:84] Creating Layer scale_stage3_block0_proj_shortcut
I0608 18:26:19.593417  3070 net.cpp:406] scale_stage3_block0_proj_shortcut <- conv_stage3_block0_proj_shortcut
I0608 18:26:19.593421  3070 net.cpp:367] scale_stage3_block0_proj_shortcut -> conv_stage3_block0_proj_shortcut (in-place)
I0608 18:26:19.593454  3070 layer_factory.hpp:77] Creating layer scale_stage3_block0_proj_shortcut
I0608 18:26:19.593544  3070 net.cpp:122] Setting up scale_stage3_block0_proj_shortcut
I0608 18:26:19.593549  3070 net.cpp:129] Top shape: 7 1024 7 7 (351232)
I0608 18:26:19.593550  3070 net.cpp:137] Memory required for data: 831717460
I0608 18:26:19.593555  3070 layer_factory.hpp:77] Creating layer conv_stage3_block0_branch2a
I0608 18:26:19.593564  3070 net.cpp:84] Creating Layer conv_stage3_block0_branch2a
I0608 18:26:19.593567  3070 net.cpp:406] conv_stage3_block0_branch2a <- eltwise_stage2_block5_relu_stage2_block5_0_split_1
I0608 18:26:19.593572  3070 net.cpp:380] conv_stage3_block0_branch2a -> conv_stage3_block0_branch2a
I0608 18:26:19.594734  3070 net.cpp:122] Setting up conv_stage3_block0_branch2a
I0608 18:26:19.594743  3070 net.cpp:129] Top shape: 7 256 7 7 (87808)
I0608 18:26:19.594744  3070 net.cpp:137] Memory required for data: 832068692
I0608 18:26:19.600409  3070 layer_factory.hpp:77] Creating layer bn_stage3_block0_branch2a
I0608 18:26:19.600425  3070 net.cpp:84] Creating Layer bn_stage3_block0_branch2a
I0608 18:26:19.600430  3070 net.cpp:406] bn_stage3_block0_branch2a <- conv_stage3_block0_branch2a
I0608 18:26:19.600436  3070 net.cpp:367] bn_stage3_block0_branch2a -> conv_stage3_block0_branch2a (in-place)
I0608 18:26:19.600649  3070 net.cpp:122] Setting up bn_stage3_block0_branch2a
I0608 18:26:19.600656  3070 net.cpp:129] Top shape: 7 256 7 7 (87808)
I0608 18:26:19.600661  3070 net.cpp:137] Memory required for data: 832419924
I0608 18:26:19.600668  3070 layer_factory.hpp:77] Creating layer scale_stage3_block0_branch2a
I0608 18:26:19.600674  3070 net.cpp:84] Creating Layer scale_stage3_block0_branch2a
I0608 18:26:19.600677  3070 net.cpp:406] scale_stage3_block0_branch2a <- conv_stage3_block0_branch2a
I0608 18:26:19.600682  3070 net.cpp:367] scale_stage3_block0_branch2a -> conv_stage3_block0_branch2a (in-place)
I0608 18:26:19.600729  3070 layer_factory.hpp:77] Creating layer scale_stage3_block0_branch2a
I0608 18:26:19.600837  3070 net.cpp:122] Setting up scale_stage3_block0_branch2a
I0608 18:26:19.600844  3070 net.cpp:129] Top shape: 7 256 7 7 (87808)
I0608 18:26:19.600847  3070 net.cpp:137] Memory required for data: 832771156
I0608 18:26:19.600853  3070 layer_factory.hpp:77] Creating layer relu_stage3_block0_branch2a
I0608 18:26:19.600859  3070 net.cpp:84] Creating Layer relu_stage3_block0_branch2a
I0608 18:26:19.600862  3070 net.cpp:406] relu_stage3_block0_branch2a <- conv_stage3_block0_branch2a
I0608 18:26:19.600869  3070 net.cpp:367] relu_stage3_block0_branch2a -> conv_stage3_block0_branch2a (in-place)
I0608 18:26:19.600875  3070 net.cpp:122] Setting up relu_stage3_block0_branch2a
I0608 18:26:19.600891  3070 net.cpp:129] Top shape: 7 256 7 7 (87808)
I0608 18:26:19.600895  3070 net.cpp:137] Memory required for data: 833122388
I0608 18:26:19.600898  3070 layer_factory.hpp:77] Creating layer conv_stage3_block0_branch2b
I0608 18:26:19.600909  3070 net.cpp:84] Creating Layer conv_stage3_block0_branch2b
I0608 18:26:19.600914  3070 net.cpp:406] conv_stage3_block0_branch2b <- conv_stage3_block0_branch2a
I0608 18:26:19.600920  3070 net.cpp:380] conv_stage3_block0_branch2b -> conv_stage3_block0_branch2b
I0608 18:26:19.606240  3070 net.cpp:122] Setting up conv_stage3_block0_branch2b
I0608 18:26:19.606273  3070 net.cpp:129] Top shape: 7 256 7 7 (87808)
I0608 18:26:19.606278  3070 net.cpp:137] Memory required for data: 833473620
I0608 18:26:19.606290  3070 layer_factory.hpp:77] Creating layer bn_stage3_block0_branch2b
I0608 18:26:19.606307  3070 net.cpp:84] Creating Layer bn_stage3_block0_branch2b
I0608 18:26:19.606314  3070 net.cpp:406] bn_stage3_block0_branch2b <- conv_stage3_block0_branch2b
I0608 18:26:19.606326  3070 net.cpp:367] bn_stage3_block0_branch2b -> conv_stage3_block0_branch2b (in-place)
I0608 18:26:19.606575  3070 net.cpp:122] Setting up bn_stage3_block0_branch2b
I0608 18:26:19.606585  3070 net.cpp:129] Top shape: 7 256 7 7 (87808)
I0608 18:26:19.606588  3070 net.cpp:137] Memory required for data: 833824852
I0608 18:26:19.606600  3070 layer_factory.hpp:77] Creating layer scale_stage3_block0_branch2b
I0608 18:26:19.606608  3070 net.cpp:84] Creating Layer scale_stage3_block0_branch2b
I0608 18:26:19.606613  3070 net.cpp:406] scale_stage3_block0_branch2b <- conv_stage3_block0_branch2b
I0608 18:26:19.606621  3070 net.cpp:367] scale_stage3_block0_branch2b -> conv_stage3_block0_branch2b (in-place)
I0608 18:26:19.606683  3070 layer_factory.hpp:77] Creating layer scale_stage3_block0_branch2b
I0608 18:26:19.606818  3070 net.cpp:122] Setting up scale_stage3_block0_branch2b
I0608 18:26:19.606827  3070 net.cpp:129] Top shape: 7 256 7 7 (87808)
I0608 18:26:19.606832  3070 net.cpp:137] Memory required for data: 834176084
I0608 18:26:19.606839  3070 layer_factory.hpp:77] Creating layer relu_stage3_block0_branch2b
I0608 18:26:19.606848  3070 net.cpp:84] Creating Layer relu_stage3_block0_branch2b
I0608 18:26:19.606853  3070 net.cpp:406] relu_stage3_block0_branch2b <- conv_stage3_block0_branch2b
I0608 18:26:19.606863  3070 net.cpp:367] relu_stage3_block0_branch2b -> conv_stage3_block0_branch2b (in-place)
I0608 18:26:19.606871  3070 net.cpp:122] Setting up relu_stage3_block0_branch2b
I0608 18:26:19.606878  3070 net.cpp:129] Top shape: 7 256 7 7 (87808)
I0608 18:26:19.606881  3070 net.cpp:137] Memory required for data: 834527316
I0608 18:26:19.606886  3070 layer_factory.hpp:77] Creating layer conv_stage3_block0_branch2c
I0608 18:26:19.606901  3070 net.cpp:84] Creating Layer conv_stage3_block0_branch2c
I0608 18:26:19.606905  3070 net.cpp:406] conv_stage3_block0_branch2c <- conv_stage3_block0_branch2b
I0608 18:26:19.606914  3070 net.cpp:380] conv_stage3_block0_branch2c -> conv_stage3_block0_branch2c
I0608 18:26:19.609323  3070 net.cpp:122] Setting up conv_stage3_block0_branch2c
I0608 18:26:19.609333  3070 net.cpp:129] Top shape: 7 1024 7 7 (351232)
I0608 18:26:19.609334  3070 net.cpp:137] Memory required for data: 835932244
I0608 18:26:19.609340  3070 layer_factory.hpp:77] Creating layer bn_stage3_block0_branch2c
I0608 18:26:19.609349  3070 net.cpp:84] Creating Layer bn_stage3_block0_branch2c
I0608 18:26:19.609352  3070 net.cpp:406] bn_stage3_block0_branch2c <- conv_stage3_block0_branch2c
I0608 18:26:19.609357  3070 net.cpp:367] bn_stage3_block0_branch2c -> conv_stage3_block0_branch2c (in-place)
I0608 18:26:19.609524  3070 net.cpp:122] Setting up bn_stage3_block0_branch2c
I0608 18:26:19.609529  3070 net.cpp:129] Top shape: 7 1024 7 7 (351232)
I0608 18:26:19.609531  3070 net.cpp:137] Memory required for data: 837337172
I0608 18:26:19.609537  3070 layer_factory.hpp:77] Creating layer scale_stage3_block0_branch2c
I0608 18:26:19.609542  3070 net.cpp:84] Creating Layer scale_stage3_block0_branch2c
I0608 18:26:19.609545  3070 net.cpp:406] scale_stage3_block0_branch2c <- conv_stage3_block0_branch2c
I0608 18:26:19.609565  3070 net.cpp:367] scale_stage3_block0_branch2c -> conv_stage3_block0_branch2c (in-place)
I0608 18:26:19.609601  3070 layer_factory.hpp:77] Creating layer scale_stage3_block0_branch2c
I0608 18:26:19.609700  3070 net.cpp:122] Setting up scale_stage3_block0_branch2c
I0608 18:26:19.609706  3070 net.cpp:129] Top shape: 7 1024 7 7 (351232)
I0608 18:26:19.609709  3070 net.cpp:137] Memory required for data: 838742100
I0608 18:26:19.609714  3070 layer_factory.hpp:77] Creating layer eltwise_stage3_block0
I0608 18:26:19.609719  3070 net.cpp:84] Creating Layer eltwise_stage3_block0
I0608 18:26:19.609721  3070 net.cpp:406] eltwise_stage3_block0 <- conv_stage3_block0_proj_shortcut
I0608 18:26:19.609725  3070 net.cpp:406] eltwise_stage3_block0 <- conv_stage3_block0_branch2c
I0608 18:26:19.609731  3070 net.cpp:380] eltwise_stage3_block0 -> eltwise_stage3_block0
I0608 18:26:19.609751  3070 net.cpp:122] Setting up eltwise_stage3_block0
I0608 18:26:19.609756  3070 net.cpp:129] Top shape: 7 1024 7 7 (351232)
I0608 18:26:19.609758  3070 net.cpp:137] Memory required for data: 840147028
I0608 18:26:19.609761  3070 layer_factory.hpp:77] Creating layer relu_stage3_block0
I0608 18:26:19.609768  3070 net.cpp:84] Creating Layer relu_stage3_block0
I0608 18:26:19.609771  3070 net.cpp:406] relu_stage3_block0 <- eltwise_stage3_block0
I0608 18:26:19.609776  3070 net.cpp:367] relu_stage3_block0 -> eltwise_stage3_block0 (in-place)
I0608 18:26:19.609781  3070 net.cpp:122] Setting up relu_stage3_block0
I0608 18:26:19.609783  3070 net.cpp:129] Top shape: 7 1024 7 7 (351232)
I0608 18:26:19.609786  3070 net.cpp:137] Memory required for data: 841551956
I0608 18:26:19.609788  3070 layer_factory.hpp:77] Creating layer eltwise_stage3_block0_relu_stage3_block0_0_split
I0608 18:26:19.609793  3070 net.cpp:84] Creating Layer eltwise_stage3_block0_relu_stage3_block0_0_split
I0608 18:26:19.609796  3070 net.cpp:406] eltwise_stage3_block0_relu_stage3_block0_0_split <- eltwise_stage3_block0
I0608 18:26:19.609799  3070 net.cpp:380] eltwise_stage3_block0_relu_stage3_block0_0_split -> eltwise_stage3_block0_relu_stage3_block0_0_split_0
I0608 18:26:19.609807  3070 net.cpp:380] eltwise_stage3_block0_relu_stage3_block0_0_split -> eltwise_stage3_block0_relu_stage3_block0_0_split_1
I0608 18:26:19.609835  3070 net.cpp:122] Setting up eltwise_stage3_block0_relu_stage3_block0_0_split
I0608 18:26:19.609840  3070 net.cpp:129] Top shape: 7 1024 7 7 (351232)
I0608 18:26:19.609843  3070 net.cpp:129] Top shape: 7 1024 7 7 (351232)
I0608 18:26:19.609846  3070 net.cpp:137] Memory required for data: 844361812
I0608 18:26:19.609848  3070 layer_factory.hpp:77] Creating layer conv_stage3_block1_branch2a
I0608 18:26:19.609858  3070 net.cpp:84] Creating Layer conv_stage3_block1_branch2a
I0608 18:26:19.609860  3070 net.cpp:406] conv_stage3_block1_branch2a <- eltwise_stage3_block0_relu_stage3_block0_0_split_0
I0608 18:26:19.609866  3070 net.cpp:380] conv_stage3_block1_branch2a -> conv_stage3_block1_branch2a
I0608 18:26:19.612440  3070 net.cpp:122] Setting up conv_stage3_block1_branch2a
I0608 18:26:19.612457  3070 net.cpp:129] Top shape: 7 256 7 7 (87808)
I0608 18:26:19.612460  3070 net.cpp:137] Memory required for data: 844713044
I0608 18:26:19.612469  3070 layer_factory.hpp:77] Creating layer bn_stage3_block1_branch2a
I0608 18:26:19.612478  3070 net.cpp:84] Creating Layer bn_stage3_block1_branch2a
I0608 18:26:19.612483  3070 net.cpp:406] bn_stage3_block1_branch2a <- conv_stage3_block1_branch2a
I0608 18:26:19.612493  3070 net.cpp:367] bn_stage3_block1_branch2a -> conv_stage3_block1_branch2a (in-place)
I0608 18:26:19.612710  3070 net.cpp:122] Setting up bn_stage3_block1_branch2a
I0608 18:26:19.612718  3070 net.cpp:129] Top shape: 7 256 7 7 (87808)
I0608 18:26:19.612722  3070 net.cpp:137] Memory required for data: 845064276
I0608 18:26:19.612731  3070 layer_factory.hpp:77] Creating layer scale_stage3_block1_branch2a
I0608 18:26:19.612740  3070 net.cpp:84] Creating Layer scale_stage3_block1_branch2a
I0608 18:26:19.612758  3070 net.cpp:406] scale_stage3_block1_branch2a <- conv_stage3_block1_branch2a
I0608 18:26:19.612767  3070 net.cpp:367] scale_stage3_block1_branch2a -> conv_stage3_block1_branch2a (in-place)
I0608 18:26:19.612817  3070 layer_factory.hpp:77] Creating layer scale_stage3_block1_branch2a
I0608 18:26:19.612938  3070 net.cpp:122] Setting up scale_stage3_block1_branch2a
I0608 18:26:19.612947  3070 net.cpp:129] Top shape: 7 256 7 7 (87808)
I0608 18:26:19.612951  3070 net.cpp:137] Memory required for data: 845415508
I0608 18:26:19.612958  3070 layer_factory.hpp:77] Creating layer relu_stage3_block1_branch2a
I0608 18:26:19.612965  3070 net.cpp:84] Creating Layer relu_stage3_block1_branch2a
I0608 18:26:19.612969  3070 net.cpp:406] relu_stage3_block1_branch2a <- conv_stage3_block1_branch2a
I0608 18:26:19.612977  3070 net.cpp:367] relu_stage3_block1_branch2a -> conv_stage3_block1_branch2a (in-place)
I0608 18:26:19.612983  3070 net.cpp:122] Setting up relu_stage3_block1_branch2a
I0608 18:26:19.612989  3070 net.cpp:129] Top shape: 7 256 7 7 (87808)
I0608 18:26:19.612993  3070 net.cpp:137] Memory required for data: 845766740
I0608 18:26:19.612996  3070 layer_factory.hpp:77] Creating layer conv_stage3_block1_branch2b
I0608 18:26:19.613018  3070 net.cpp:84] Creating Layer conv_stage3_block1_branch2b
I0608 18:26:19.613026  3070 net.cpp:406] conv_stage3_block1_branch2b <- conv_stage3_block1_branch2a
I0608 18:26:19.613034  3070 net.cpp:380] conv_stage3_block1_branch2b -> conv_stage3_block1_branch2b
I0608 18:26:19.618172  3070 net.cpp:122] Setting up conv_stage3_block1_branch2b
I0608 18:26:19.618191  3070 net.cpp:129] Top shape: 7 256 7 7 (87808)
I0608 18:26:19.618194  3070 net.cpp:137] Memory required for data: 846117972
I0608 18:26:19.618204  3070 layer_factory.hpp:77] Creating layer bn_stage3_block1_branch2b
I0608 18:26:19.618214  3070 net.cpp:84] Creating Layer bn_stage3_block1_branch2b
I0608 18:26:19.618219  3070 net.cpp:406] bn_stage3_block1_branch2b <- conv_stage3_block1_branch2b
I0608 18:26:19.618240  3070 net.cpp:367] bn_stage3_block1_branch2b -> conv_stage3_block1_branch2b (in-place)
I0608 18:26:19.618432  3070 net.cpp:122] Setting up bn_stage3_block1_branch2b
I0608 18:26:19.618448  3070 net.cpp:129] Top shape: 7 256 7 7 (87808)
I0608 18:26:19.618450  3070 net.cpp:137] Memory required for data: 846469204
I0608 18:26:19.618458  3070 layer_factory.hpp:77] Creating layer scale_stage3_block1_branch2b
I0608 18:26:19.618463  3070 net.cpp:84] Creating Layer scale_stage3_block1_branch2b
I0608 18:26:19.618465  3070 net.cpp:406] scale_stage3_block1_branch2b <- conv_stage3_block1_branch2b
I0608 18:26:19.618470  3070 net.cpp:367] scale_stage3_block1_branch2b -> conv_stage3_block1_branch2b (in-place)
I0608 18:26:19.618516  3070 layer_factory.hpp:77] Creating layer scale_stage3_block1_branch2b
I0608 18:26:19.618597  3070 net.cpp:122] Setting up scale_stage3_block1_branch2b
I0608 18:26:19.618602  3070 net.cpp:129] Top shape: 7 256 7 7 (87808)
I0608 18:26:19.618604  3070 net.cpp:137] Memory required for data: 846820436
I0608 18:26:19.618608  3070 layer_factory.hpp:77] Creating layer relu_stage3_block1_branch2b
I0608 18:26:19.618613  3070 net.cpp:84] Creating Layer relu_stage3_block1_branch2b
I0608 18:26:19.618616  3070 net.cpp:406] relu_stage3_block1_branch2b <- conv_stage3_block1_branch2b
I0608 18:26:19.618619  3070 net.cpp:367] relu_stage3_block1_branch2b -> conv_stage3_block1_branch2b (in-place)
I0608 18:26:19.618624  3070 net.cpp:122] Setting up relu_stage3_block1_branch2b
I0608 18:26:19.618628  3070 net.cpp:129] Top shape: 7 256 7 7 (87808)
I0608 18:26:19.618629  3070 net.cpp:137] Memory required for data: 847171668
I0608 18:26:19.618633  3070 layer_factory.hpp:77] Creating layer conv_stage3_block1_branch2c
I0608 18:26:19.618641  3070 net.cpp:84] Creating Layer conv_stage3_block1_branch2c
I0608 18:26:19.618643  3070 net.cpp:406] conv_stage3_block1_branch2c <- conv_stage3_block1_branch2b
I0608 18:26:19.618649  3070 net.cpp:380] conv_stage3_block1_branch2c -> conv_stage3_block1_branch2c
I0608 18:26:19.620563  3070 net.cpp:122] Setting up conv_stage3_block1_branch2c
I0608 18:26:19.620586  3070 net.cpp:129] Top shape: 7 1024 7 7 (351232)
I0608 18:26:19.620589  3070 net.cpp:137] Memory required for data: 848576596
I0608 18:26:19.620594  3070 layer_factory.hpp:77] Creating layer bn_stage3_block1_branch2c
I0608 18:26:19.620599  3070 net.cpp:84] Creating Layer bn_stage3_block1_branch2c
I0608 18:26:19.620602  3070 net.cpp:406] bn_stage3_block1_branch2c <- conv_stage3_block1_branch2c
I0608 18:26:19.620609  3070 net.cpp:367] bn_stage3_block1_branch2c -> conv_stage3_block1_branch2c (in-place)
I0608 18:26:19.620782  3070 net.cpp:122] Setting up bn_stage3_block1_branch2c
I0608 18:26:19.620787  3070 net.cpp:129] Top shape: 7 1024 7 7 (351232)
I0608 18:26:19.620790  3070 net.cpp:137] Memory required for data: 849981524
I0608 18:26:19.620795  3070 layer_factory.hpp:77] Creating layer scale_stage3_block1_branch2c
I0608 18:26:19.620800  3070 net.cpp:84] Creating Layer scale_stage3_block1_branch2c
I0608 18:26:19.620801  3070 net.cpp:406] scale_stage3_block1_branch2c <- conv_stage3_block1_branch2c
I0608 18:26:19.620807  3070 net.cpp:367] scale_stage3_block1_branch2c -> conv_stage3_block1_branch2c (in-place)
I0608 18:26:19.620839  3070 layer_factory.hpp:77] Creating layer scale_stage3_block1_branch2c
I0608 18:26:19.620928  3070 net.cpp:122] Setting up scale_stage3_block1_branch2c
I0608 18:26:19.620932  3070 net.cpp:129] Top shape: 7 1024 7 7 (351232)
I0608 18:26:19.620934  3070 net.cpp:137] Memory required for data: 851386452
I0608 18:26:19.620939  3070 layer_factory.hpp:77] Creating layer eltwise_stage3_block1
I0608 18:26:19.620944  3070 net.cpp:84] Creating Layer eltwise_stage3_block1
I0608 18:26:19.620947  3070 net.cpp:406] eltwise_stage3_block1 <- eltwise_stage3_block0_relu_stage3_block0_0_split_1
I0608 18:26:19.620951  3070 net.cpp:406] eltwise_stage3_block1 <- conv_stage3_block1_branch2c
I0608 18:26:19.620959  3070 net.cpp:380] eltwise_stage3_block1 -> eltwise_stage3_block1
I0608 18:26:19.620978  3070 net.cpp:122] Setting up eltwise_stage3_block1
I0608 18:26:19.622239  3070 net.cpp:129] Top shape: 7 1024 7 7 (351232)
I0608 18:26:19.622243  3070 net.cpp:137] Memory required for data: 852791380
I0608 18:26:19.622246  3070 layer_factory.hpp:77] Creating layer relu_stage3_block1
I0608 18:26:19.622262  3070 net.cpp:84] Creating Layer relu_stage3_block1
I0608 18:26:19.622268  3070 net.cpp:406] relu_stage3_block1 <- eltwise_stage3_block1
I0608 18:26:19.622274  3070 net.cpp:367] relu_stage3_block1 -> eltwise_stage3_block1 (in-place)
I0608 18:26:19.622280  3070 net.cpp:122] Setting up relu_stage3_block1
I0608 18:26:19.622285  3070 net.cpp:129] Top shape: 7 1024 7 7 (351232)
I0608 18:26:19.622288  3070 net.cpp:137] Memory required for data: 854196308
I0608 18:26:19.622292  3070 layer_factory.hpp:77] Creating layer eltwise_stage3_block1_relu_stage3_block1_0_split
I0608 18:26:19.622298  3070 net.cpp:84] Creating Layer eltwise_stage3_block1_relu_stage3_block1_0_split
I0608 18:26:19.622300  3070 net.cpp:406] eltwise_stage3_block1_relu_stage3_block1_0_split <- eltwise_stage3_block1
I0608 18:26:19.622308  3070 net.cpp:380] eltwise_stage3_block1_relu_stage3_block1_0_split -> eltwise_stage3_block1_relu_stage3_block1_0_split_0
I0608 18:26:19.622315  3070 net.cpp:380] eltwise_stage3_block1_relu_stage3_block1_0_split -> eltwise_stage3_block1_relu_stage3_block1_0_split_1
I0608 18:26:19.622354  3070 net.cpp:122] Setting up eltwise_stage3_block1_relu_stage3_block1_0_split
I0608 18:26:19.622359  3070 net.cpp:129] Top shape: 7 1024 7 7 (351232)
I0608 18:26:19.622362  3070 net.cpp:129] Top shape: 7 1024 7 7 (351232)
I0608 18:26:19.622365  3070 net.cpp:137] Memory required for data: 857006164
I0608 18:26:19.622370  3070 layer_factory.hpp:77] Creating layer conv_stage3_block2_branch2a
I0608 18:26:19.622380  3070 net.cpp:84] Creating Layer conv_stage3_block2_branch2a
I0608 18:26:19.622383  3070 net.cpp:406] conv_stage3_block2_branch2a <- eltwise_stage3_block1_relu_stage3_block1_0_split_0
I0608 18:26:19.622391  3070 net.cpp:380] conv_stage3_block2_branch2a -> conv_stage3_block2_branch2a
I0608 18:26:19.624449  3070 net.cpp:122] Setting up conv_stage3_block2_branch2a
I0608 18:26:19.624462  3070 net.cpp:129] Top shape: 7 256 7 7 (87808)
I0608 18:26:19.624464  3070 net.cpp:137] Memory required for data: 857357396
I0608 18:26:19.624470  3070 layer_factory.hpp:77] Creating layer bn_stage3_block2_branch2a
I0608 18:26:19.624478  3070 net.cpp:84] Creating Layer bn_stage3_block2_branch2a
I0608 18:26:19.624482  3070 net.cpp:406] bn_stage3_block2_branch2a <- conv_stage3_block2_branch2a
I0608 18:26:19.624488  3070 net.cpp:367] bn_stage3_block2_branch2a -> conv_stage3_block2_branch2a (in-place)
I0608 18:26:19.624640  3070 net.cpp:122] Setting up bn_stage3_block2_branch2a
I0608 18:26:19.624644  3070 net.cpp:129] Top shape: 7 256 7 7 (87808)
I0608 18:26:19.624646  3070 net.cpp:137] Memory required for data: 857708628
I0608 18:26:19.624652  3070 layer_factory.hpp:77] Creating layer scale_stage3_block2_branch2a
I0608 18:26:19.624660  3070 net.cpp:84] Creating Layer scale_stage3_block2_branch2a
I0608 18:26:19.624661  3070 net.cpp:406] scale_stage3_block2_branch2a <- conv_stage3_block2_branch2a
I0608 18:26:19.624665  3070 net.cpp:367] scale_stage3_block2_branch2a -> conv_stage3_block2_branch2a (in-place)
I0608 18:26:19.624701  3070 layer_factory.hpp:77] Creating layer scale_stage3_block2_branch2a
I0608 18:26:19.624783  3070 net.cpp:122] Setting up scale_stage3_block2_branch2a
I0608 18:26:19.624788  3070 net.cpp:129] Top shape: 7 256 7 7 (87808)
I0608 18:26:19.624789  3070 net.cpp:137] Memory required for data: 858059860
I0608 18:26:19.624794  3070 layer_factory.hpp:77] Creating layer relu_stage3_block2_branch2a
I0608 18:26:19.624800  3070 net.cpp:84] Creating Layer relu_stage3_block2_branch2a
I0608 18:26:19.624804  3070 net.cpp:406] relu_stage3_block2_branch2a <- conv_stage3_block2_branch2a
I0608 18:26:19.624806  3070 net.cpp:367] relu_stage3_block2_branch2a -> conv_stage3_block2_branch2a (in-place)
I0608 18:26:19.624811  3070 net.cpp:122] Setting up relu_stage3_block2_branch2a
I0608 18:26:19.624815  3070 net.cpp:129] Top shape: 7 256 7 7 (87808)
I0608 18:26:19.624817  3070 net.cpp:137] Memory required for data: 858411092
I0608 18:26:19.624819  3070 layer_factory.hpp:77] Creating layer conv_stage3_block2_branch2b
I0608 18:26:19.624828  3070 net.cpp:84] Creating Layer conv_stage3_block2_branch2b
I0608 18:26:19.624830  3070 net.cpp:406] conv_stage3_block2_branch2b <- conv_stage3_block2_branch2a
I0608 18:26:19.624836  3070 net.cpp:380] conv_stage3_block2_branch2b -> conv_stage3_block2_branch2b
I0608 18:26:19.628937  3070 net.cpp:122] Setting up conv_stage3_block2_branch2b
I0608 18:26:19.628952  3070 net.cpp:129] Top shape: 7 256 7 7 (87808)
I0608 18:26:19.628954  3070 net.cpp:137] Memory required for data: 858762324
I0608 18:26:19.628960  3070 layer_factory.hpp:77] Creating layer bn_stage3_block2_branch2b
I0608 18:26:19.628968  3070 net.cpp:84] Creating Layer bn_stage3_block2_branch2b
I0608 18:26:19.628973  3070 net.cpp:406] bn_stage3_block2_branch2b <- conv_stage3_block2_branch2b
I0608 18:26:19.628978  3070 net.cpp:367] bn_stage3_block2_branch2b -> conv_stage3_block2_branch2b (in-place)
I0608 18:26:19.629137  3070 net.cpp:122] Setting up bn_stage3_block2_branch2b
I0608 18:26:19.629140  3070 net.cpp:129] Top shape: 7 256 7 7 (87808)
I0608 18:26:19.629143  3070 net.cpp:137] Memory required for data: 859113556
I0608 18:26:19.629148  3070 layer_factory.hpp:77] Creating layer scale_stage3_block2_branch2b
I0608 18:26:19.629155  3070 net.cpp:84] Creating Layer scale_stage3_block2_branch2b
I0608 18:26:19.629158  3070 net.cpp:406] scale_stage3_block2_branch2b <- conv_stage3_block2_branch2b
I0608 18:26:19.629161  3070 net.cpp:367] scale_stage3_block2_branch2b -> conv_stage3_block2_branch2b (in-place)
I0608 18:26:19.629199  3070 layer_factory.hpp:77] Creating layer scale_stage3_block2_branch2b
I0608 18:26:19.629281  3070 net.cpp:122] Setting up scale_stage3_block2_branch2b
I0608 18:26:19.629287  3070 net.cpp:129] Top shape: 7 256 7 7 (87808)
I0608 18:26:19.629288  3070 net.cpp:137] Memory required for data: 859464788
I0608 18:26:19.629292  3070 layer_factory.hpp:77] Creating layer relu_stage3_block2_branch2b
I0608 18:26:19.629312  3070 net.cpp:84] Creating Layer relu_stage3_block2_branch2b
I0608 18:26:19.629317  3070 net.cpp:406] relu_stage3_block2_branch2b <- conv_stage3_block2_branch2b
I0608 18:26:19.629320  3070 net.cpp:367] relu_stage3_block2_branch2b -> conv_stage3_block2_branch2b (in-place)
I0608 18:26:19.629324  3070 net.cpp:122] Setting up relu_stage3_block2_branch2b
I0608 18:26:19.629328  3070 net.cpp:129] Top shape: 7 256 7 7 (87808)
I0608 18:26:19.629330  3070 net.cpp:137] Memory required for data: 859816020
I0608 18:26:19.629333  3070 layer_factory.hpp:77] Creating layer conv_stage3_block2_branch2c
I0608 18:26:19.629341  3070 net.cpp:84] Creating Layer conv_stage3_block2_branch2c
I0608 18:26:19.629344  3070 net.cpp:406] conv_stage3_block2_branch2c <- conv_stage3_block2_branch2b
I0608 18:26:19.629350  3070 net.cpp:380] conv_stage3_block2_branch2c -> conv_stage3_block2_branch2c
I0608 18:26:19.631309  3070 net.cpp:122] Setting up conv_stage3_block2_branch2c
I0608 18:26:19.631319  3070 net.cpp:129] Top shape: 7 1024 7 7 (351232)
I0608 18:26:19.631321  3070 net.cpp:137] Memory required for data: 861220948
I0608 18:26:19.631326  3070 layer_factory.hpp:77] Creating layer bn_stage3_block2_branch2c
I0608 18:26:19.631333  3070 net.cpp:84] Creating Layer bn_stage3_block2_branch2c
I0608 18:26:19.631337  3070 net.cpp:406] bn_stage3_block2_branch2c <- conv_stage3_block2_branch2c
I0608 18:26:19.631342  3070 net.cpp:367] bn_stage3_block2_branch2c -> conv_stage3_block2_branch2c (in-place)
I0608 18:26:19.631494  3070 net.cpp:122] Setting up bn_stage3_block2_branch2c
I0608 18:26:19.631498  3070 net.cpp:129] Top shape: 7 1024 7 7 (351232)
I0608 18:26:19.631500  3070 net.cpp:137] Memory required for data: 862625876
I0608 18:26:19.631505  3070 layer_factory.hpp:77] Creating layer scale_stage3_block2_branch2c
I0608 18:26:19.631511  3070 net.cpp:84] Creating Layer scale_stage3_block2_branch2c
I0608 18:26:19.631515  3070 net.cpp:406] scale_stage3_block2_branch2c <- conv_stage3_block2_branch2c
I0608 18:26:19.631518  3070 net.cpp:367] scale_stage3_block2_branch2c -> conv_stage3_block2_branch2c (in-place)
I0608 18:26:19.631552  3070 layer_factory.hpp:77] Creating layer scale_stage3_block2_branch2c
I0608 18:26:19.631639  3070 net.cpp:122] Setting up scale_stage3_block2_branch2c
I0608 18:26:19.631644  3070 net.cpp:129] Top shape: 7 1024 7 7 (351232)
I0608 18:26:19.631646  3070 net.cpp:137] Memory required for data: 864030804
I0608 18:26:19.631650  3070 layer_factory.hpp:77] Creating layer eltwise_stage3_block2
I0608 18:26:19.631656  3070 net.cpp:84] Creating Layer eltwise_stage3_block2
I0608 18:26:19.631659  3070 net.cpp:406] eltwise_stage3_block2 <- eltwise_stage3_block1_relu_stage3_block1_0_split_1
I0608 18:26:19.631664  3070 net.cpp:406] eltwise_stage3_block2 <- conv_stage3_block2_branch2c
I0608 18:26:19.631667  3070 net.cpp:380] eltwise_stage3_block2 -> eltwise_stage3_block2
I0608 18:26:19.631686  3070 net.cpp:122] Setting up eltwise_stage3_block2
I0608 18:26:19.631690  3070 net.cpp:129] Top shape: 7 1024 7 7 (351232)
I0608 18:26:19.631692  3070 net.cpp:137] Memory required for data: 865435732
I0608 18:26:19.631695  3070 layer_factory.hpp:77] Creating layer relu_stage3_block2
I0608 18:26:19.631700  3070 net.cpp:84] Creating Layer relu_stage3_block2
I0608 18:26:19.631701  3070 net.cpp:406] relu_stage3_block2 <- eltwise_stage3_block2
I0608 18:26:19.631706  3070 net.cpp:367] relu_stage3_block2 -> eltwise_stage3_block2 (in-place)
I0608 18:26:19.631711  3070 net.cpp:122] Setting up relu_stage3_block2
I0608 18:26:19.631714  3070 net.cpp:129] Top shape: 7 1024 7 7 (351232)
I0608 18:26:19.631716  3070 net.cpp:137] Memory required for data: 866840660
I0608 18:26:19.631718  3070 layer_factory.hpp:77] Creating layer pool
I0608 18:26:19.631722  3070 net.cpp:84] Creating Layer pool
I0608 18:26:19.631726  3070 net.cpp:406] pool <- eltwise_stage3_block2
I0608 18:26:19.631729  3070 net.cpp:380] pool -> pool
I0608 18:26:19.631747  3070 net.cpp:122] Setting up pool
I0608 18:26:19.631752  3070 net.cpp:129] Top shape: 7 1024 1 1 (7168)
I0608 18:26:19.631762  3070 net.cpp:137] Memory required for data: 866869332
I0608 18:26:19.631765  3070 layer_factory.hpp:77] Creating layer fc_nsfw
I0608 18:26:19.631772  3070 net.cpp:84] Creating Layer fc_nsfw
I0608 18:26:19.631775  3070 net.cpp:406] fc_nsfw <- pool
I0608 18:26:19.631779  3070 net.cpp:380] fc_nsfw -> fc_nsfw
I0608 18:26:19.631880  3070 net.cpp:122] Setting up fc_nsfw
I0608 18:26:19.631886  3070 net.cpp:129] Top shape: 7 2 (14)
I0608 18:26:19.631887  3070 net.cpp:137] Memory required for data: 866869388
I0608 18:26:19.631891  3070 layer_factory.hpp:77] Creating layer fc_nsfw_fc_nsfw_0_split
I0608 18:26:19.631896  3070 net.cpp:84] Creating Layer fc_nsfw_fc_nsfw_0_split
I0608 18:26:19.631898  3070 net.cpp:406] fc_nsfw_fc_nsfw_0_split <- fc_nsfw
I0608 18:26:19.631906  3070 net.cpp:380] fc_nsfw_fc_nsfw_0_split -> fc_nsfw_fc_nsfw_0_split_0
I0608 18:26:19.631911  3070 net.cpp:380] fc_nsfw_fc_nsfw_0_split -> fc_nsfw_fc_nsfw_0_split_1
I0608 18:26:19.631938  3070 net.cpp:122] Setting up fc_nsfw_fc_nsfw_0_split
I0608 18:26:19.631942  3070 net.cpp:129] Top shape: 7 2 (14)
I0608 18:26:19.631944  3070 net.cpp:129] Top shape: 7 2 (14)
I0608 18:26:19.631947  3070 net.cpp:137] Memory required for data: 866869500
I0608 18:26:19.631948  3070 layer_factory.hpp:77] Creating layer loss
I0608 18:26:19.631954  3070 net.cpp:84] Creating Layer loss
I0608 18:26:19.631956  3070 net.cpp:406] loss <- fc_nsfw_fc_nsfw_0_split_0
I0608 18:26:19.631960  3070 net.cpp:406] loss <- label_data_1_split_0
I0608 18:26:19.631964  3070 net.cpp:380] loss -> loss
…
