…
name: "ResNet_50_1by2_nsfw"
state {
  phase: TRAIN
  level: 0
  stage: ""
}
layer {
  name: "data"
  type: "ImageData"
  top: "data"
  top: "label"
  include {
    phase: TRAIN
  }
  transform_param {
    mirror: true
    crop_size: 224
    mean_value: 104
    mean_value: 117
    mean_value: 123
  }
  image_data_param {
    source: "/home/dbicho/Documents/datasets/all_labeled_dataset_augmented_finetuning/train.txt"
    batch_size: 7
    shuffle: true
    root_folder: "/home/dbicho/Documents/datasets/all_labeled_dataset_augmented_finetuning/"
  }
}
layer {
  name: "conv_1"
  type: "Convolution"
  bottom: "data"
  top: "conv_1"
  param {
    lr_mult: 0
    decay_mult: 1
  }
  param {
    lr_mult: 0
    decay_mult: 0
  }
  convolution_param {
    num_output: 64
    pad: 3
    kernel_size: 7
    stride: 2
    weight_filler {
      type: "xavier"
    }
    bias_filler {
      type: "constant"
      value: 0
    }
  }
}
layer {
  name: "bn_1"
  type: "BatchNorm"
  bottom: "conv_1"
  top: "conv_1"
  param {
    lr_mult: 0
    decay_mult: 0
  }
  param {
    lr_mult: 0
    decay_mult: 0
  }
  param {
    lr_mult: 0
    decay_mult: 0
  }
  batch_norm_param {
    use_global_stats: false
  }
}
layer {
  name: "scale_1"
  type: "Scale"
  bottom: "conv_1"
  top: "conv_1"
  scale_param {
    bias_term: true
  }
}
layer {
  name: "relu_1"
  type: "ReLU"
  bottom: "conv_1"
  top: "conv_1"
}
layer {
  name: "pool1"
  type: "Pooling"
  bottom: "conv_1"
  top: "pool1"
  pooling_param {
    pool: MAX
    kernel_size: 3
    stride: 2
  }
}
layer {
  name: "conv_stage0_block0_proj_shortcut"
  type: "Convolution"
  bottom: "pool1"
  top: "conv_stage0_block0_proj_shortcut"
  param {
    lr_mult: 0
    decay_mult: 1
  }
  param {
    lr_mult: 0
    decay_mult: 0
  }
  convolution_param {
    num_output: 128
    pad: 0
    kernel_size: 1
    stride: 1
    weight_filler {
      type: "xavier"
    }
    bias_filler {
      type: "constant"
      value: 0
    }
  }
}
layer {
  name: "bn_stage0_block0_proj_shortcut"
  type: "BatchNorm"
  bottom: "conv_stage0_block0_proj_shortcut"
  top: "conv_stage0_block0_proj_shortcut"
  param {
    lr_mult: 0
    decay_mult: 0
  }
  param {
    lr_mult: 0
    decay_mult: 0
  }
  param {
    lr_mult: 0
    decay_mult: 0
  }
  batch_norm_param {
    use_global_stats: false
  }
}
layer {
  name: "scale_stage0_block0_proj_shortcut"
  type: "Scale"
  bottom: "conv_stage0_block0_proj_shortcut"
  top: "conv_stage0_block0_proj_shortcut"
  scale_param {
    bias_term: true
  }
}
layer {
  name: "conv_stage0_block0_branch2a"
  type: "Convolution"
  bottom: "pool1"
  top: "conv_stage0_block0_branch2a"
  param {
    lr_mult: 0
    decay_mult: 1
  }
  param {
    lr_mult: 0
    decay_mult: 0
  }
  convolution_param {
    num_output: 32
    pad: 0
    kernel_size: 1
    stride: 1
    weight_filler {
      type: "xavier"
    }
    bias_filler {
      type: "constant"
      value: 0
    }
  }
}
layer {
  name: "bn_stage0_block0_branch2a"
  type: "BatchNorm"
  bottom: "conv_stage0_block0_branch2a"
  top: "conv_stage0_block0_branch2a"
  param {
    lr_mult: 0
    decay_mult: 0
  }
  param {
    lr_mult: 0
    decay_mult: 0
  }
  param {
    lr_mult: 0
    decay_mult: 0
  }
  batch_norm_param {
    use_global_stats: false
  }
}
layer {
  name: "scale_stage0_block0_branch2a"
  type: "Scale"
  bottom: "conv_stage0_block0_branch2a"
  top: "conv_stage0_block0_branch2a"
  scale_param {
    bias_term: true
  }
}
layer {
  name: "relu_stage0_block0_branch2a"
  type: "ReLU"
  bottom: "conv_stage0_block0_branch2a"
  top: "conv_stage0_block0_branch2a"
}
layer {
  name: "conv_stage0_block0_branch2b"
  type: "Convolution"
  bottom: "conv_stage0_block0_branch2a"
  top: "conv_stage0_block0_branch2b"
  param {
    lr_mult: 0
    decay_mult: 1
  }
  param {
    lr_mult: 0
    decay_mult: 0
  }
  convolution_param {
    num_output: 32
    pad: 1
    kernel_size: 3
    stride: 1
    weight_filler {
      type: "xavier"
    }
    bias_filler {
      type: "constant"
      value: 0
    }
  }
}
layer {
  name: "bn_stage0_block0_branch2b"
  type: "BatchNorm"
  bottom: "conv_stage0_block0_branch2b"
  top: "conv_stage0_block0_branch2b"
  param {
    lr_mult: 0
    decay_mult: 0
  }
  param {
    lr_mult: 0
    decay_mult: 0
  }
  param {
    lr_mult: 0
    decay_mult: 0
  }
  batch_norm_param {
    use_global_stats: false
  }
}
layer {
  name: "scale_stage0_block0_branch2b"
  type: "Scale"
  bottom: "conv_stage0_block0_branch2b"
  top: "conv_stage0_block0_branch2b"
  scale_param {
    bias_term: true
  }
}
layer {
  name: "relu_stage0_block0_branch2b"
  type: "ReLU"
  bottom: "conv_stage0_block0_branch2b"
  top: "conv_stage0_block0_branch2b"
}
layer {
  name: "conv_stage0_block0_branch2c"
  type: "Convolution"
  bottom: "conv_stage0_block0_branch2b"
  top: "conv_stage0_block0_branch2c"
  param {
    lr_mult: 0
    decay_mult: 1
  }
  param {
    lr_mult: 0
    decay_mult: 0
  }
  convolution_param {
    num_output: 128
    pad: 0
    kernel_size: 1
    stride: 1
    weight_filler {
      type: "xavier"
    }
    bias_filler {
      type: "constant"
      value: 0
    }
  }
}
layer {
  name: "bn_stage0_block0_branch2c"
  type: "BatchNorm"
  bottom: "conv_stage0_block0_branch2c"
  top: "conv_stage0_block0_branch2c"
  param {
    lr_mult: 0
    decay_mult: 0
  }
  param {
    lr_mult: 0
    decay_mult: 0
  }
  param {
    lr_mult: 0
    decay_mult: 0
  }
  batch_norm_param {
    use_global_stats: false
  }
}
layer {
  name: "scale_stage0_block0_branch2c"
  type: "Scale"
  bottom: "conv_stage0_block0_branch2c"
  top: "conv_stage0_block0_branch2c"
  scale_param {
    bias_term: true
  }
}
layer {
  name: "eltwise_stage0_block0"
  type: "Eltwise"
  bottom: "conv_stage0_block0_proj_shortcut"
  bottom: "conv_stage0_block0_branch2c"
  top: "eltwise_stage0_block0"
}
layer {
  name: "relu_stage0_block0"
  type: "ReLU"
  bottom: "eltwise_stage0_block0"
  top: "eltwise_stage0_block0"
}
layer {
  name: "conv_stage0_block1_branch2a"
  type: "Convolution"
  bottom: "eltwise_stage0_block0"
  top: "conv_stage0_block1_branch2a"
  param {
    lr_mult: 0
    decay_mult: 1
  }
  param {
    lr_mult: 0
    decay_mult: 0
  }
  convolution_param {
    num_output: 32
    pad: 0
    kernel_size: 1
    stride: 1
    weight_filler {
      type: "xavier"
    }
    bias_filler {
      type: "constant"
      value: 0
    }
  }
}
layer {
  name: "bn_stage0_block1_branch2a"
  type: "BatchNorm"
  bottom: "conv_stage0_block1_branch2a"
  top: "conv_stage0_block1_branch2a"
  param {
    lr_mult: 0
    decay_mult: 0
  }
  param {
    lr_mult: 0
    decay_mult: 0
  }
  param {
    lr_mult: 0
    decay_mult: 0
  }
  batch_norm_param {
    use_global_stats: false
  }
}
layer {
  name: "scale_stage0_block1_branch2a"
  type: "Scale"
  bottom: "conv_stage0_block1_branch2a"
  top: "conv_stage0_block1_branch2a"
  scale_param {
    bias_term: true
  }
}
layer {
  name: "relu_stage0_block1_branch2a"
  type: "ReLU"
  bottom: "conv_stage0_block1_branch2a"
  top: "conv_stage0_block1_branch2a"
}
layer {
  name: "conv_stage0_block1_branch2b"
  type: "Convolution"
  bottom: "conv_stage0_block1_branch2a"
  top: "conv_stage0_block1_branch2b"
  param {
    lr_mult: 0
    decay_mult: 1
  }
  param {
    lr_mult: 0
    decay_mult: 0
  }
  convolution_param {
    num_output: 32
    pad: 1
    kernel_size: 3
    stride: 1
    weight_filler {
      type: "xavier"
    }
    bias_filler {
      type: "constant"
      value: 0
    }
  }
}
layer {
  name: "bn_stage0_block1_branch2b"
  type: "BatchNorm"
  bottom: "conv_stage0_block1_branch2b"
  top: "conv_stage0_block1_branch2b"
  param {
    lr_mult: 0
    decay_mult: 0
  }
  param {
    lr_mult: 0
    decay_mult: 0
  }
  param {
    lr_mult: 0
    decay_mult: 0
  }
  batch_norm_param {
    use_global_stats: false
  }
}
layer {
  name: "scale_stage0_block1_branch2b"
  type: "Scale"
  bottom: "conv_stage0_block1_branch2b"
  top: "conv_stage0_block1_branch2b"
  scale_param {
    bias_term: true
  }
}
layer {
  name: "relu_stage0_block1_branch2b"
  type: "ReLU"
  bottom: "conv_stage0_block1_branch2b"
  top: "conv_stage0_block1_branch2b"
}
layer {
  name: "conv_stage0_block1_branch2c"
  type: "Convolution"
  bottom: "conv_stage0_block1_branch2b"
  top: "conv_stage0_block1_branch2c"
  param {
    lr_mult: 0
    decay_mult: 1
  }
  param {
    lr_mult: 0
    decay_mult: 0
  }
  convolution_param {
    num_output: 128
    pad: 0
    kernel_size: 1
    stride: 1
    weight_filler {
      type: "xavier"
    }
    bias_filler {
      type: "constant"
      value: 0
    }
  }
}
layer {
  name: "bn_stage0_block1_branch2c"
  type: "BatchNorm"
  bottom: "conv_stage0_block1_branch2c"
  top: "conv_stage0_block1_branch2c"
  param {
    lr_mult: 0
    decay_mult: 0
  }
  param {
    lr_mult: 0
    decay_mult: 0
  }
  param {
    lr_mult: 0
    decay_mult: 0
  }
  batch_norm_param {
    use_global_stats: false
  }
}
layer {
  name: "scale_stage0_block1_branch2c"
  type: "Scale"
  bottom: "conv_stage0_block1_branch2c"
  top: "conv_stage0_block1_branch2c"
  scale_param {
    bias_term: true
  }
}
layer {
  name: "eltwise_stage0_block1"
  type: "Eltwise"
  bottom: "eltwise_stage0_block0"
  bottom: "conv_stage0_block1_branch2c"
  top: "eltwise_stage0_block1"
}
layer {
  name: "relu_stage0_block1"
  type: "ReLU"
  bottom: "eltwise_stage0_block1"
  top: "eltwise_stage0_block1"
}
layer {
  name: "conv_stage0_block2_branch2a"
  type: "Convolution"
  bottom: "eltwise_stage0_block1"
  top: "conv_stage0_block2_branch2a"
  param {
    lr_mult: 0
    decay_mult: 1
  }
  param {
    lr_mult: 0
    decay_mult: 0
  }
  convolution_param {
    num_output: 32
    pad: 0
    kernel_size: 1
    stride: 1
    weight_filler {
      type: "xavier"
    }
    bias_filler {
      type: "constant"
      value: 0
    }
  }
}
layer {
  name: "bn_stage0_block2_branch2a"
  type: "BatchNorm"
  bottom: "conv_stage0_block2_branch2a"
  top: "conv_stage0_block2_branch2a"
  param {
    lr_mult: 0
    decay_mult: 0
  }
  param {
    lr_mult: 0
    decay_mult: 0
  }
  param {
    lr_mult: 0
    decay_mult: 0
  }
  batch_norm_param {
    use_global_stats: false
  }
}
layer {
  name: "scale_stage0_block2_branch2a"
  type: "Scale"
  bottom: "conv_stage0_block2_branch2a"
  top: "conv_stage0_block2_branch2a"
  scale_param {
    bias_term: true
  }
}
layer {
  name: "relu_stage0_block2_branch2a"
  type: "ReLU"
  bottom: "conv_stage0_block2_branch2a"
  top: "conv_stage0_block2_branch2a"
}
layer {
  name: "conv_stage0_block2_branch2b"
  type: "Convolution"
  bottom: "conv_stage0_block2_branch2a"
  top: "conv_stage0_block2_branch2b"
  param {
    lr_mult: 0
    decay_mult: 1
  }
  param {
    lr_mult: 0
    decay_mult: 0
  }
  convolution_param {
    num_output: 32
    pad: 1
    kernel_size: 3
    stride: 1
    weight_filler {
      type: "xavier"
    }
    bias_filler {
      type: "constant"
      value: 0
    }
  }
}
layer {
  name: "bn_stage0_block2_branch2b"
  type: "BatchNorm"
  bottom: "conv_stage0_block2_branch2b"
  top: "conv_stage0_block2_branch2b"
  param {
    lr_mult: 0
    decay_mult: 0
  }
  param {
    lr_mult: 0
    decay_mult: 0
  }
  param {
    lr_mult: 0
    decay_mult: 0
  }
  batch_norm_param {
    use_global_stats: false
  }
}
layer {
  name: "scale_stage0_block2_branch2b"
  type: "Scale"
  bottom: "conv_stage0_block2_branch2b"
  top: "conv_stage0_block2_branch2b"
  scale_param {
    bias_term: true
  }
}
layer {
  name: "relu_stage0_block2_branch2b"
  type: "ReLU"
  bottom: "conv_stage0_block2_branch2b"
  top: "conv_stage0_block2_branch2b"
}
layer {
  name: "conv_stage0_block2_branch2c"
  type: "Convolution"
  bottom: "conv_stage0_block2_branch2b"
  top: "conv_stage0_block2_branch2c"
  param {
    lr_mult: 0
    decay_mult: 1
  }
  param {
    lr_mult: 0
    decay_mult: 0
  }
  convolution_param {
    num_output: 128
    pad: 0
    kernel_size: 1
    stride: 1
    weight_filler {
      type: "xavier"
    }
    bias_filler {
      type: "constant"
      value: 0
    }
  }
}
layer {
  name: "bn_stage0_block2_branch2c"
  type: "BatchNorm"
  bottom: "conv_stage0_block2_branch2c"
  top: "conv_stage0_block2_branch2c"
  param {
    lr_mult: 0
    decay_mult: 0
  }
  param {
    lr_mult: 0
    decay_mult: 0
  }
  param {
    lr_mult: 0
    decay_mult: 0
  }
  batch_norm_param {
    use_global_stats: false
  }
}
layer {
  name: "scale_stage0_block2_branch2c"
  type: "Scale"
  bottom: "conv_stage0_block2_branch2c"
  top: "conv_stage0_block2_branch2c"
  scale_param {
    bias_term: true
  }
}
layer {
  name: "eltwise_stage0_block2"
  type: "Eltwise"
  bottom: "eltwise_stage0_block1"
  bottom: "conv_stage0_block2_branch2c"
  top: "eltwise_stage0_block2"
}
layer {
  name: "relu_stage0_block2"
  type: "ReLU"
  bottom: "eltwise_stage0_block2"
  top: "eltwise_stage0_block2"
}
layer {
  name: "conv_stage1_block0_proj_shortcut"
  type: "Convolution"
  bottom: "eltwise_stage0_block2"
  top: "conv_stage1_block0_proj_shortcut"
  param {
    lr_mult: 0
    decay_mult: 1
  }
  param {
    lr_mult: 0
    decay_mult: 0
  }
  convolution_param {
    num_output: 256
    pad: 0
    kernel_size: 1
    stride: 2
    weight_filler {
      type: "xavier"
    }
    bias_filler {
      type: "constant"
      value: 0
    }
  }
}
layer {
  name: "bn_stage1_block0_proj_shortcut"
  type: "BatchNorm"
  bottom: "conv_stage1_block0_proj_shortcut"
  top: "conv_stage1_block0_proj_shortcut"
  param {
    lr_mult: 0
    decay_mult: 0
  }
  param {
    lr_mult: 0
    decay_mult: 0
  }
  param {
    lr_mult: 0
    decay_mult: 0
  }
  batch_norm_param {
    use_global_stats: false
  }
}
layer {
  name: "scale_stage1_block0_proj_shortcut"
  type: "Scale"
  bottom: "conv_stage1_block0_proj_shortcut"
  top: "conv_stage1_block0_proj_shortcut"
  scale_param {
    bias_term: true
  }
}
layer {
  name: "conv_stage1_block0_branch2a"
  type: "Convolution"
  bottom: "eltwise_stage0_block2"
  top: "conv_stage1_block0_branch2a"
  param {
    lr_mult: 0
    decay_mult: 1
  }
  param {
    lr_mult: 0
    decay_mult: 0
  }
  convolution_param {
    num_output: 64
    pad: 0
    kernel_size: 1
    stride: 2
    weight_filler {
      type: "xavier"
    }
    bias_filler {
      type: "constant"
      value: 0
    }
  }
}
layer {
  name: "bn_stage1_block0_branch2a"
  type: "BatchNorm"
  bottom: "conv_stage1_block0_branch2a"
  top: "conv_stage1_block0_branch2a"
  param {
    lr_mult: 0
    decay_mult: 0
  }
  param {
    lr_mult: 0
    decay_mult: 0
  }
  param {
    lr_mult: 0
    decay_mult: 0
  }
  batch_norm_param {
    use_global_stats: false
  }
}
layer {
  name: "scale_stage1_block0_branch2a"
  type: "Scale"
  bottom: "conv_stage1_block0_branch2a"
  top: "conv_stage1_block0_branch2a"
  scale_param {
    bias_term: true
  }
}
layer {
  name: "relu_stage1_block0_branch2a"
  type: "ReLU"
  bottom: "conv_stage1_block0_branch2a"
  top: "conv_stage1_block0_branch2a"
}
layer {
  name: "conv_stage1_block0_branch2b"
  type: "Convolution"
  bottom: "conv_stage1_block0_branch2a"
  top: "conv_stage1_block0_branch2b"
  param {
    lr_mult: 0
    decay_mult: 1
  }
  param {
    lr_mult: 0
    decay_mult: 0
  }
  convolution_param {
    num_output: 64
    pad: 1
    kernel_size: 3
    stride: 1
    weight_filler {
      type: "xavier"
    }
    bias_filler {
      type: "constant"
      value: 0
    }
  }
}
layer {
  name: "bn_stage1_block0_branch2b"
  type: "BatchNorm"
  bottom: "conv_stage1_block0_branch2b"
  top: "conv_stage1_block0_branch2b"
  param {
    lr_mult: 0
    decay_mult: 0
  }
  param {
    lr_mult: 0
    decay_mult: 0
  }
  param {
    lr_mult: 0
    decay_mult: 0
  }
  batch_norm_param {
    use_global_stats: false
  }
}
layer {
  name: "scale_stage1_block0_branch2b"
  type: "Scale"
  bottom: "conv_stage1_block0_branch2b"
  top: "conv_stage1_block0_branch2b"
  scale_param {
    bias_term: true
  }
}
layer {
  name: "relu_stage1_block0_branch2b"
  type: "ReLU"
  bottom: "conv_stage1_block0_branch2b"
  top: "conv_stage1_block0_branch2b"
}
layer {
  name: "conv_stage1_block0_branch2c"
  type: "Convolution"
  bottom: "conv_stage1_block0_branch2b"
  top: "conv_stage1_block0_branch2c"
  param {
    lr_mult: 0
    decay_mult: 1
  }
  param {
    lr_mult: 0
    decay_mult: 0
  }
  convolution_param {
    num_output: 256
    pad: 0
    kernel_size: 1
    stride: 1
    weight_filler {
      type: "xavier"
    }
    bias_filler {
      type: "constant"
      value: 0
    }
  }
}
layer {
  name: "bn_stage1_block0_branch2c"
  type: "BatchNorm"
  bottom: "conv_stage1_block0_branch2c"
  top: "conv_stage1_block0_branch2c"
  param {
    lr_mult: 0
    decay_mult: 0
  }
  param {
    lr_mult: 0
    decay_mult: 0
  }
  param {
    lr_mult: 0
    decay_mult: 0
  }
  batch_norm_param {
    use_global_stats: false
  }
}
layer {
  name: "scale_stage1_block0_branch2c"
  type: "Scale"
  bottom: "conv_stage1_block0_branch2c"
  top: "conv_stage1_block0_branch2c"
  scale_param {
    bias_term: true
  }
}
layer {
  name: "eltwise_stage1_block0"
  type: "Eltwise"
  bottom: "conv_stage1_block0_proj_shortcut"
  bottom: "conv_stage1_block0_branch2c"
  top: "eltwise_stage1_block0"
}
layer {
  name: "relu_stage1_block0"
  type: "ReLU"
  bottom: "eltwise_stage1_block0"
  top: "eltwise_stage1_block0"
}
layer {
  name: "conv_stage1_block1_branch2a"
  type: "Convolution"
  bottom: "eltwise_stage1_block0"
  top: "conv_stage1_block1_branch2a"
  param {
    lr_mult: 0
    decay_mult: 1
  }
  param {
    lr_mult: 0
    decay_mult: 0
  }
  convolution_param {
    num_output: 64
    pad: 0
    kernel_size: 1
    stride: 1
    weight_filler {
      type: "xavier"
    }
    bias_filler {
      type: "constant"
      value: 0
    }
  }
}
layer {
  name: "bn_stage1_block1_branch2a"
  type: "BatchNorm"
  bottom: "conv_stage1_block1_branch2a"
  top: "conv_stage1_block1_branch2a"
  param {
    lr_mult: 0
    decay_mult: 0
  }
  param {
    lr_mult: 0
    decay_mult: 0
  }
  param {
    lr_mult: 0
    decay_mult: 0
  }
  batch_norm_param {
    use_global_stats: false
  }
}
layer {
  name: "scale_stage1_block1_branch2a"
  type: "Scale"
  bottom: "conv_stage1_block1_branch2a"
  top: "conv_stage1_block1_branch2a"
  scale_param {
    bias_term: true
  }
}
layer {
  name: "relu_stage1_block1_branch2a"
  type: "ReLU"
  bottom: "conv_stage1_block1_branch2a"
  top: "conv_stage1_block1_branch2a"
}
layer {
  name: "conv_stage1_block1_branch2b"
  type: "Convolution"
  bottom: "conv_stage1_block1_branch2a"
  top: "conv_stage1_block1_branch2b"
  param {
    lr_mult: 0
    decay_mult: 1
  }
  param {
    lr_mult: 0
    decay_mult: 0
  }
  convolution_param {
    num_output: 64
    pad: 1
    kernel_size: 3
    stride: 1
    weight_filler {
      type: "xavier"
    }
    bias_filler {
      type: "constant"
      value: 0
    }
  }
}
layer {
  name: "bn_stage1_block1_branch2b"
  type: "BatchNorm"
  bottom: "conv_stage1_block1_branch2b"
  top: "conv_stage1_block1_branch2b"
  param {
    lr_mult: 0
    decay_mult: 0
  }
  param {
    lr_mult: 0
    decay_mult: 0
  }
  param {
    lr_mult: 0
    decay_mult: 0
  }
  batch_norm_param {
    use_global_stats: false
  }
}
layer {
  name: "scale_stage1_block1_branch2b"
  type: "Scale"
  bottom: "conv_stage1_block1_branch2b"
  top: "conv_stage1_block1_branch2b"
  scale_param {
    bias_term: true
  }
}
layer {
  name: "relu_stage1_block1_branch2b"
  type: "ReLU"
  bottom: "conv_stage1_block1_branch2b"
  top: "conv_stage1_block1_branch2b"
}
layer {
  name: "conv_stage1_block1_branch2c"
  type: "Convolution"
  bottom: "conv_stage1_block1_branch2b"
  top: "conv_stage1_block1_branch2c"
  param {
    lr_mult: 0
    decay_mult: 1
  }
  param {
    lr_mult: 0
    decay_mult: 0
  }
  convolution_param {
    num_output: 256
    pad: 0
    kernel_size: 1
    stride: 1
    weight_filler {
      type: "xavier"
    }
    bias_filler {
      type: "constant"
      value: 0
    }
  }
}
layer {
  name: "bn_stage1_block1_branch2c"
  type: "BatchNorm"
  bottom: "conv_stage1_block1_branch2c"
  top: "conv_stage1_block1_branch2c"
  param {
    lr_mult: 0
    decay_mult: 0
  }
  param {
    lr_mult: 0
    decay_mult: 0
  }
  param {
    lr_mult: 0
    decay_mult: 0
  }
  batch_norm_param {
    use_global_stats: false
  }
}
layer {
  name: "scale_stage1_block1_branch2c"
  type: "Scale"
  bottom: "conv_stage1_block1_branch2c"
  top: "conv_stage1_block1_branch2c"
  scale_param {
    bias_term: true
  }
}
layer {
  name: "eltwise_stage1_block1"
  type: "Eltwise"
  bottom: "eltwise_stage1_block0"
  bottom: "conv_stage1_block1_branch2c"
  top: "eltwise_stage1_block1"
}
layer {
  name: "relu_stage1_block1"
  type: "ReLU"
  bottom: "eltwise_stage1_block1"
  top: "eltwise_stage1_block1"
}
layer {
  name: "conv_stage1_block2_branch2a"
  type: "Convolution"
  bottom: "eltwise_stage1_block1"
  top: "conv_stage1_block2_branch2a"
  param {
    lr_mult: 0
    decay_mult: 1
  }
  param {
    lr_mult: 0
    decay_mult: 0
  }
  convolution_param {
    num_output: 64
    pad: 0
    kernel_size: 1
    stride: 1
    weight_filler {
      type: "xavier"
    }
    bias_filler {
      type: "constant"
      value: 0
    }
  }
}
layer {
  name: "bn_stage1_block2_branch2a"
  type: "BatchNorm"
  bottom: "conv_stage1_block2_branch2a"
  top: "conv_stage1_block2_branch2a"
  param {
    lr_mult: 0
    decay_mult: 0
  }
  param {
    lr_mult: 0
    decay_mult: 0
  }
  param {
    lr_mult: 0
    decay_mult: 0
  }
  batch_norm_param {
    use_global_stats: false
  }
}
layer {
  name: "scale_stage1_block2_branch2a"
  type: "Scale"
  bottom: "conv_stage1_block2_branch2a"
  top: "conv_stage1_block2_branch2a"
  scale_param {
    bias_term: true
  }
}
layer {
  name: "relu_stage1_block2_branch2a"
  type: "ReLU"
  bottom: "conv_stage1_block2_branch2a"
  top: "conv_stage1_block2_branch2a"
}
layer {
  name: "conv_stage1_block2_branch2b"
  type: "Convolution"
  bottom: "conv_stage1_block2_branch2a"
  top: "conv_stage1_block2_branch2b"
  param {
    lr_mult: 0
    decay_mult: 1
  }
  param {
    lr_mult: 0
    decay_mult: 0
  }
  convolution_param {
    num_output: 64
    pad: 1
    kernel_size: 3
    stride: 1
    weight_filler {
      type: "xavier"
    }
    bias_filler {
      type: "constant"
      value: 0
    }
  }
}
layer {
  name: "bn_stage1_block2_branch2b"
  type: "BatchNorm"
  bottom: "conv_stage1_block2_branch2b"
  top: "conv_stage1_block2_branch2b"
  param {
    lr_mult: 0
    decay_mult: 0
  }
  param {
    lr_mult: 0
    decay_mult: 0
  }
  param {
    lr_mult: 0
    decay_mult: 0
  }
  batch_norm_param {
    use_global_stats: false
  }
}
layer {
  name: "scale_stage1_block2_branch2b"
  type: "Scale"
  bottom: "conv_stage1_block2_branch2b"
  top: "conv_stage1_block2_branch2b"
  scale_param {
    bias_term: true
  }
}
layer {
  name: "relu_stage1_block2_branch2b"
  type: "ReLU"
  bottom: "conv_stage1_block2_branch2b"
  top: "conv_stage1_block2_branch2b"
}
layer {
  name: "conv_stage1_block2_branch2c"
  type: "Convolution"
  bottom: "conv_stage1_block2_branch2b"
  top: "conv_stage1_block2_branch2c"
  param {
    lr_mult: 0
    decay_mult: 1
  }
  param {
    lr_mult: 0
    decay_mult: 0
  }
  convolution_param {
    num_output: 256
    pad: 0
    kernel_size: 1
    stride: 1
    weight_filler {
      type: "xavier"
    }
    bias_filler {
      type: "constant"
      value: 0
    }
  }
}
layer {
  name: "bn_stage1_block2_branch2c"
  type: "BatchNorm"
  bottom: "conv_stage1_block2_branch2c"
  top: "conv_stage1_block2_branch2c"
  param {
    lr_mult: 0
    decay_mult: 0
  }
  param {
    lr_mult: 0
    decay_mult: 0
  }
  param {
    lr_mult: 0
    decay_mult: 0
  }
  batch_norm_param {
    use_global_stats: false
  }
}
layer {
  name: "scale_stage1_block2_branch2c"
  type: "Scale"
  bottom: "conv_stage1_block2_branch2c"
  top: "conv_stage1_block2_branch2c"
  scale_param {
    bias_term: true
  }
}
layer {
  name: "eltwise_stage1_block2"
  type: "Eltwise"
  bottom: "eltwise_stage1_block1"
  bottom: "conv_stage1_block2_branch2c"
  top: "eltwise_stage1_block2"
}
layer {
  name: "relu_stage1_block2"
  type: "ReLU"
  bottom: "eltwise_stage1_block2"
  top: "eltwise_stage1_block2"
}
layer {
  name: "conv_stage1_block3_branch2a"
  type: "Convolution"
  bottom: "eltwise_stage1_block2"
  top: "conv_stage1_block3_branch2a"
  param {
    lr_mult: 0
    decay_mult: 1
  }
  param {
    lr_mult: 0
    decay_mult: 0
  }
  convolution_param {
    num_output: 64
    pad: 0
    kernel_size: 1
    stride: 1
    weight_filler {
      type: "xavier"
    }
    bias_filler {
      type: "constant"
      value: 0
    }
  }
}
layer {
  name: "bn_stage1_block3_branch2a"
  type: "BatchNorm"
  bottom: "conv_stage1_block3_branch2a"
  top: "conv_stage1_block3_branch2a"
  param {
    lr_mult: 0
    decay_mult: 0
  }
  param {
    lr_mult: 0
    decay_mult: 0
  }
  param {
    lr_mult: 0
    decay_mult: 0
  }
  batch_norm_param {
    use_global_stats: false
  }
}
layer {
  name: "scale_stage1_block3_branch2a"
  type: "Scale"
  bottom: "conv_stage1_block3_branch2a"
  top: "conv_stage1_block3_branch2a"
  scale_param {
    bias_term: true
  }
}
layer {
  name: "relu_stage1_block3_branch2a"
  type: "ReLU"
  bottom: "conv_stage1_block3_branch2a"
  top: "conv_stage1_block3_branch2a"
}
layer {
  name: "conv_stage1_block3_branch2b"
  type: "Convolution"
  bottom: "conv_stage1_block3_branch2a"
  top: "conv_stage1_block3_branch2b"
  param {
    lr_mult: 0
    decay_mult: 1
  }
  param {
    lr_mult: 0
    decay_mult: 0
  }
  convolution_param {
    num_output: 64
    pad: 1
    kernel_size: 3
    stride: 1
    weight_filler {
      type: "xavier"
    }
    bias_filler {
      type: "constant"
      value: 0
    }
  }
}
layer {
  name: "bn_stage1_block3_branch2b"
  type: "BatchNorm"
  bottom: "conv_stage1_block3_branch2b"
  top: "conv_stage1_block3_branch2b"
  param {
    lr_mult: 0
    decay_mult: 0
  }
  param {
    lr_mult: 0
    decay_mult: 0
  }
  param {
    lr_mult: 0
    decay_mult: 0
  }
  batch_norm_param {
    use_global_stats: false
  }
}
layer {
  name: "scale_stage1_block3_branch2b"
  type: "Scale"
  bottom: "conv_stage1_block3_branch2b"
  top: "conv_stage1_block3_branch2b"
  scale_param {
    bias_term: true
  }
}
layer {
  name: "relu_stage1_block3_branch2b"
  type: "ReLU"
  bottom: "conv_stage1_block3_branch2b"
  top: "conv_stage1_block3_branch2b"
}
layer {
  name: "conv_stage1_block3_branch2c"
  type: "Convolution"
  bottom: "conv_stage1_block3_branch2b"
  top: "conv_stage1_block3_branch2c"
  param {
    lr_mult: 0
    decay_mult: 1
  }
  param {
    lr_mult: 0
    decay_mult: 0
  }
  convolution_param {
    num_output: 256
    pad: 0
    kernel_size: 1
    stride: 1
    weight_filler {
      type: "xavier"
    }
    bias_filler {
      type: "constant"
      value: 0
    }
  }
}
layer {
  name: "bn_stage1_block3_branch2c"
  type: "BatchNorm"
  bottom: "conv_stage1_block3_branch2c"
  top: "conv_stage1_block3_branch2c"
  param {
    lr_mult: 0
    decay_mult: 0
  }
  param {
    lr_mult: 0
    decay_mult: 0
  }
  param {
    lr_mult: 0
    decay_mult: 0
  }
  batch_norm_param {
    use_global_stats: false
  }
}
layer {
  name: "scale_stage1_block3_branch2c"
  type: "Scale"
  bottom: "conv_stage1_block3_branch2c"
  top: "conv_stage1_block3_branch2c"
  scale_param {
    bias_term: true
  }
}
layer {
  name: "eltwise_stage1_block3"
  type: "Eltwise"
  bottom: "eltwise_stage1_block2"
  bottom: "conv_stage1_block3_branch2c"
  top: "eltwise_stage1_block3"
}
layer {
  name: "relu_stage1_block3"
  type: "ReLU"
  bottom: "eltwise_stage1_block3"
  top: "eltwise_stage1_block3"
}
layer {
  name: "conv_stage2_block0_proj_shortcut"
  type: "Convolution"
  bottom: "eltwise_stage1_block3"
  top: "conv_stage2_block0_proj_shortcut"
  param {
    lr_mult: 0
    decay_mult: 1
  }
  param {
    lr_mult: 0
    decay_mult: 0
  }
  convolution_param {
    num_output: 512
    pad: 0
    kernel_size: 1
    stride: 2
    weight_filler {
      type: "xavier"
    }
    bias_filler {
      type: "constant"
      value: 0
    }
  }
}
layer {
  name: "bn_stage2_block0_proj_shortcut"
  type: "BatchNorm"
  bottom: "conv_stage2_block0_proj_shortcut"
  top: "conv_stage2_block0_proj_shortcut"
  param {
    lr_mult: 0
    decay_mult: 0
  }
  param {
    lr_mult: 0
    decay_mult: 0
  }
  param {
    lr_mult: 0
    decay_mult: 0
  }
  batch_norm_param {
    use_global_stats: false
  }
}
layer {
  name: "scale_stage2_block0_proj_shortcut"
  type: "Scale"
  bottom: "conv_stage2_block0_proj_shortcut"
  top: "conv_stage2_block0_proj_shortcut"
  scale_param {
    bias_term: true
  }
}
layer {
  name: "conv_stage2_block0_branch2a"
  type: "Convolution"
  bottom: "eltwise_stage1_block3"
  top: "conv_stage2_block0_branch2a"
  param {
    lr_mult: 0
    decay_mult: 1
  }
  param {
    lr_mult: 0
    decay_mult: 0
  }
  convolution_param {
    num_output: 128
    pad: 0
    kernel_size: 1
    stride: 2
    weight_filler {
      type: "xavier"
    }
    bias_filler {
      type: "constant"
      value: 0
    }
  }
}
layer {
  name: "bn_stage2_block0_branch2a"
  type: "BatchNorm"
  bottom: "conv_stage2_block0_branch2a"
  top: "conv_stage2_block0_branch2a"
  param {
    lr_mult: 0
    decay_mult: 0
  }
  param {
    lr_mult: 0
    decay_mult: 0
  }
  param {
    lr_mult: 0
    decay_mult: 0
  }
  batch_norm_param {
    use_global_stats: false
  }
}
layer {
  name: "scale_stage2_block0_branch2a"
  type: "Scale"
  bottom: "conv_stage2_block0_branch2a"
  top: "conv_stage2_block0_branch2a"
  scale_param {
    bias_term: true
  }
}
layer {
  name: "relu_stage2_block0_branch2a"
  type: "ReLU"
  bottom: "conv_stage2_block0_branch2a"
  top: "conv_stage2_block0_branch2a"
}
layer {
  name: "conv_stage2_block0_branch2b"
  type: "Convolution"
  bottom: "conv_stage2_block0_branch2a"
  top: "conv_stage2_block0_branch2b"
  param {
    lr_mult: 0
    decay_mult: 1
  }
  param {
    lr_mult: 0
    decay_mult: 0
  }
  convolution_param {
    num_output: 128
    
I0610 01:57:46.552110 14734 layer_factory.hpp:77] Creating layer data
I0610 01:57:46.552136 14734 net.cpp:84] Creating Layer data
I0610 01:57:46.552142 14734 net.cpp:380] data -> data
I0610 01:57:46.552160 14734 net.cpp:380] data -> label
I0610 01:57:46.552177 14734 image_data_layer.cpp:38] Opening file /home/dbicho/Documents/datasets/all_labeled_dataset_augmented_finetuning/train.txt
I0610 01:57:46.562978 14734 image_data_layer.cpp:53] Shuffling data
I0610 01:57:46.566743 14734 image_data_layer.cpp:63] A total of 19955 images.
I0610 01:57:46.567867 14734 image_data_layer.cpp:90] output data size: 7,3,224,224
I0610 01:57:46.576145 14734 net.cpp:122] Setting up data
I0610 01:57:46.576169 14734 net.cpp:129] Top shape: 7 3 224 224 (1053696)
I0610 01:57:46.576174 14734 net.cpp:129] Top shape: 7 (7)
I0610 01:57:46.576175 14734 net.cpp:137] Memory required for data: 4214812
I0610 01:57:46.576182 14734 layer_factory.hpp:77] Creating layer conv_1
I0610 01:57:46.576203 14734 net.cpp:84] Creating Layer conv_1
I0610 01:57:46.576210 14734 net.cpp:406] conv_1 <- data
I0610 01:57:46.576222 14734 net.cpp:380] conv_1 -> conv_1
I0610 01:57:46.577014 14734 net.cpp:122] Setting up conv_1
I0610 01:57:46.577028 14734 net.cpp:129] Top shape: 7 64 112 112 (5619712)
I0610 01:57:46.577031 14734 net.cpp:137] Memory required for data: 26693660
I0610 01:57:46.577047 14734 layer_factory.hpp:77] Creating layer bn_1
I0610 01:57:46.577057 14734 net.cpp:84] Creating Layer bn_1
I0610 01:57:46.577061 14734 net.cpp:406] bn_1 <- conv_1
I0610 01:57:46.577067 14734 net.cpp:367] bn_1 -> conv_1 (in-place)
I0610 01:57:46.577222 14734 net.cpp:122] Setting up bn_1
I0610 01:57:46.577229 14734 net.cpp:129] Top shape: 7 64 112 112 (5619712)
I0610 01:57:46.577244 14734 net.cpp:137] Memory required for data: 49172508
I0610 01:57:46.577255 14734 layer_factory.hpp:77] Creating layer scale_1
I0610 01:57:46.577260 14734 net.cpp:84] Creating Layer scale_1
I0610 01:57:46.577265 14734 net.cpp:406] scale_1 <- conv_1
I0610 01:57:46.577268 14734 net.cpp:367] scale_1 -> conv_1 (in-place)
I0610 01:57:46.577303 14734 layer_factory.hpp:77] Creating layer scale_1
I0610 01:57:46.577404 14734 net.cpp:122] Setting up scale_1
I0610 01:57:46.577409 14734 net.cpp:129] Top shape: 7 64 112 112 (5619712)
I0610 01:57:46.577414 14734 net.cpp:137] Memory required for data: 71651356
I0610 01:57:46.577421 14734 layer_factory.hpp:77] Creating layer relu_1
I0610 01:57:46.577430 14734 net.cpp:84] Creating Layer relu_1
I0610 01:57:46.577435 14734 net.cpp:406] relu_1 <- conv_1
I0610 01:57:46.577440 14734 net.cpp:367] relu_1 -> conv_1 (in-place)
I0610 01:57:46.577448 14734 net.cpp:122] Setting up relu_1
I0610 01:57:46.577455 14734 net.cpp:129] Top shape: 7 64 112 112 (5619712)
I0610 01:57:46.577458 14734 net.cpp:137] Memory required for data: 94130204
I0610 01:57:46.577461 14734 layer_factory.hpp:77] Creating layer pool1
I0610 01:57:46.577468 14734 net.cpp:84] Creating Layer pool1
I0610 01:57:46.577473 14734 net.cpp:406] pool1 <- conv_1
I0610 01:57:46.577479 14734 net.cpp:380] pool1 -> pool1
I0610 01:57:46.577518 14734 net.cpp:122] Setting up pool1
I0610 01:57:46.577524 14734 net.cpp:129] Top shape: 7 64 56 56 (1404928)
I0610 01:57:46.577527 14734 net.cpp:137] Memory required for data: 99749916
I0610 01:57:46.577533 14734 layer_factory.hpp:77] Creating layer pool1_pool1_0_split
I0610 01:57:46.577540 14734 net.cpp:84] Creating Layer pool1_pool1_0_split
I0610 01:57:46.577545 14734 net.cpp:406] pool1_pool1_0_split <- pool1
I0610 01:57:46.577553 14734 net.cpp:380] pool1_pool1_0_split -> pool1_pool1_0_split_0
I0610 01:57:46.577563 14734 net.cpp:380] pool1_pool1_0_split -> pool1_pool1_0_split_1
I0610 01:57:46.577592 14734 net.cpp:122] Setting up pool1_pool1_0_split
I0610 01:57:46.577599 14734 net.cpp:129] Top shape: 7 64 56 56 (1404928)
I0610 01:57:46.577603 14734 net.cpp:129] Top shape: 7 64 56 56 (1404928)
I0610 01:57:46.577607 14734 net.cpp:137] Memory required for data: 110989340
I0610 01:57:46.577611 14734 layer_factory.hpp:77] Creating layer conv_stage0_block0_proj_shortcut
I0610 01:57:46.577625 14734 net.cpp:84] Creating Layer conv_stage0_block0_proj_shortcut
I0610 01:57:46.577628 14734 net.cpp:406] conv_stage0_block0_proj_shortcut <- pool1_pool1_0_split_0
I0610 01:57:46.577636 14734 net.cpp:380] conv_stage0_block0_proj_shortcut -> conv_stage0_block0_proj_shortcut
I0610 01:57:46.578323 14734 net.cpp:122] Setting up conv_stage0_block0_proj_shortcut
I0610 01:57:46.578336 14734 net.cpp:129] Top shape: 7 128 56 56 (2809856)
I0610 01:57:46.578339 14734 net.cpp:137] Memory required for data: 122228764
I0610 01:57:46.578352 14734 layer_factory.hpp:77] Creating layer bn_stage0_block0_proj_shortcut
I0610 01:57:46.578363 14734 net.cpp:84] Creating Layer bn_stage0_block0_proj_shortcut
I0610 01:57:46.578368 14734 net.cpp:406] bn_stage0_block0_proj_shortcut <- conv_stage0_block0_proj_shortcut
I0610 01:57:46.578377 14734 net.cpp:367] bn_stage0_block0_proj_shortcut -> conv_stage0_block0_proj_shortcut (in-place)
I0610 01:57:46.578528 14734 net.cpp:122] Setting up bn_stage0_block0_proj_shortcut
I0610 01:57:46.578536 14734 net.cpp:129] Top shape: 7 128 56 56 (2809856)
I0610 01:57:46.578538 14734 net.cpp:137] Memory required for data: 133468188
I0610 01:57:46.578548 14734 layer_factory.hpp:77] Creating layer scale_stage0_block0_proj_shortcut
I0610 01:57:46.578557 14734 net.cpp:84] Creating Layer scale_stage0_block0_proj_shortcut
I0610 01:57:46.578562 14734 net.cpp:406] scale_stage0_block0_proj_shortcut <- conv_stage0_block0_proj_shortcut
I0610 01:57:46.578570 14734 net.cpp:367] scale_stage0_block0_proj_shortcut -> conv_stage0_block0_proj_shortcut (in-place)
I0610 01:57:46.579094 14734 layer_factory.hpp:77] Creating layer scale_stage0_block0_proj_shortcut
I0610 01:57:46.579188 14734 net.cpp:122] Setting up scale_stage0_block0_proj_shortcut
I0610 01:57:46.579210 14734 net.cpp:129] Top shape: 7 128 56 56 (2809856)
I0610 01:57:46.579212 14734 net.cpp:137] Memory required for data: 144707612
I0610 01:57:46.579218 14734 layer_factory.hpp:77] Creating layer conv_stage0_block0_branch2a
I0610 01:57:46.579228 14734 net.cpp:84] Creating Layer conv_stage0_block0_branch2a
I0610 01:57:46.579231 14734 net.cpp:406] conv_stage0_block0_branch2a <- pool1_pool1_0_split_1
I0610 01:57:46.579237 14734 net.cpp:380] conv_stage0_block0_branch2a -> conv_stage0_block0_branch2a
I0610 01:57:46.579429 14734 net.cpp:122] Setting up conv_stage0_block0_branch2a
I0610 01:57:46.579435 14734 net.cpp:129] Top shape: 7 32 56 56 (702464)
I0610 01:57:46.579438 14734 net.cpp:137] Memory required for data: 147517468
I0610 01:57:46.579443 14734 layer_factory.hpp:77] Creating layer bn_stage0_block0_branch2a
I0610 01:57:46.579449 14734 net.cpp:84] Creating Layer bn_stage0_block0_branch2a
I0610 01:57:46.579452 14734 net.cpp:406] bn_stage0_block0_branch2a <- conv_stage0_block0_branch2a
I0610 01:57:46.579457 14734 net.cpp:367] bn_stage0_block0_branch2a -> conv_stage0_block0_branch2a (in-place)
I0610 01:57:46.579603 14734 net.cpp:122] Setting up bn_stage0_block0_branch2a
I0610 01:57:46.579609 14734 net.cpp:129] Top shape: 7 32 56 56 (702464)
I0610 01:57:46.579612 14734 net.cpp:137] Memory required for data: 150327324
I0610 01:57:46.579622 14734 layer_factory.hpp:77] Creating layer scale_stage0_block0_branch2a
I0610 01:57:46.579627 14734 net.cpp:84] Creating Layer scale_stage0_block0_branch2a
I0610 01:57:46.579629 14734 net.cpp:406] scale_stage0_block0_branch2a <- conv_stage0_block0_branch2a
I0610 01:57:46.579634 14734 net.cpp:367] scale_stage0_block0_branch2a -> conv_stage0_block0_branch2a (in-place)
I0610 01:57:46.579663 14734 layer_factory.hpp:77] Creating layer scale_stage0_block0_branch2a
I0610 01:57:46.579754 14734 net.cpp:122] Setting up scale_stage0_block0_branch2a
I0610 01:57:46.579759 14734 net.cpp:129] Top shape: 7 32 56 56 (702464)
I0610 01:57:46.579761 14734 net.cpp:137] Memory required for data: 153137180
I0610 01:57:46.579766 14734 layer_factory.hpp:77] Creating layer relu_stage0_block0_branch2a
I0610 01:57:46.579771 14734 net.cpp:84] Creating Layer relu_stage0_block0_branch2a
I0610 01:57:46.579773 14734 net.cpp:406] relu_stage0_block0_branch2a <- conv_stage0_block0_branch2a
I0610 01:57:46.579778 14734 net.cpp:367] relu_stage0_block0_branch2a -> conv_stage0_block0_branch2a (in-place)
I0610 01:57:46.579783 14734 net.cpp:122] Setting up relu_stage0_block0_branch2a
I0610 01:57:46.579788 14734 net.cpp:129] Top shape: 7 32 56 56 (702464)
I0610 01:57:46.579790 14734 net.cpp:137] Memory required for data: 155947036
I0610 01:57:46.579792 14734 layer_factory.hpp:77] Creating layer conv_stage0_block0_branch2b
I0610 01:57:46.579802 14734 net.cpp:84] Creating Layer conv_stage0_block0_branch2b
I0610 01:57:46.579804 14734 net.cpp:406] conv_stage0_block0_branch2b <- conv_stage0_block0_branch2a
I0610 01:57:46.579810 14734 net.cpp:380] conv_stage0_block0_branch2b -> conv_stage0_block0_branch2b
I0610 01:57:46.580029 14734 net.cpp:122] Setting up conv_stage0_block0_branch2b
I0610 01:57:46.580034 14734 net.cpp:129] Top shape: 7 32 56 56 (702464)
I0610 01:57:46.580036 14734 net.cpp:137] Memory required for data: 158756892
I0610 01:57:46.580041 14734 layer_factory.hpp:77] Creating layer bn_stage0_block0_branch2b
I0610 01:57:46.580046 14734 net.cpp:84] Creating Layer bn_stage0_block0_branch2b
I0610 01:57:46.580049 14734 net.cpp:406] bn_stage0_block0_branch2b <- conv_stage0_block0_branch2b
I0610 01:57:46.580054 14734 net.cpp:367] bn_stage0_block0_branch2b -> conv_stage0_block0_branch2b (in-place)
I0610 01:57:46.580193 14734 net.cpp:122] Setting up bn_stage0_block0_branch2b
I0610 01:57:46.580198 14734 net.cpp:129] Top shape: 7 32 56 56 (702464)
I0610 01:57:46.580199 14734 net.cpp:137] Memory required for data: 161566748
I0610 01:57:46.580205 14734 layer_factory.hpp:77] Creating layer scale_stage0_block0_branch2b
I0610 01:57:46.580214 14734 net.cpp:84] Creating Layer scale_stage0_block0_branch2b
I0610 01:57:46.580227 14734 net.cpp:406] scale_stage0_block0_branch2b <- conv_stage0_block0_branch2b
I0610 01:57:46.580232 14734 net.cpp:367] scale_stage0_block0_branch2b -> conv_stage0_block0_branch2b (in-place)
I0610 01:57:46.580260 14734 layer_factory.hpp:77] Creating layer scale_stage0_block0_branch2b
I0610 01:57:46.580346 14734 net.cpp:122] Setting up scale_stage0_block0_branch2b
I0610 01:57:46.580351 14734 net.cpp:129] Top shape: 7 32 56 56 (702464)
I0610 01:57:46.580353 14734 net.cpp:137] Memory required for data: 164376604
I0610 01:57:46.580358 14734 layer_factory.hpp:77] Creating layer relu_stage0_block0_branch2b
I0610 01:57:46.580363 14734 net.cpp:84] Creating Layer relu_stage0_block0_branch2b
I0610 01:57:46.580365 14734 net.cpp:406] relu_stage0_block0_branch2b <- conv_stage0_block0_branch2b
I0610 01:57:46.580370 14734 net.cpp:367] relu_stage0_block0_branch2b -> conv_stage0_block0_branch2b (in-place)
I0610 01:57:46.580374 14734 net.cpp:122] Setting up relu_stage0_block0_branch2b
I0610 01:57:46.580379 14734 net.cpp:129] Top shape: 7 32 56 56 (702464)
I0610 01:57:46.580380 14734 net.cpp:137] Memory required for data: 167186460
I0610 01:57:46.580384 14734 layer_factory.hpp:77] Creating layer conv_stage0_block0_branch2c
I0610 01:57:46.580391 14734 net.cpp:84] Creating Layer conv_stage0_block0_branch2c
I0610 01:57:46.580394 14734 net.cpp:406] conv_stage0_block0_branch2c <- conv_stage0_block0_branch2b
I0610 01:57:46.580399 14734 net.cpp:380] conv_stage0_block0_branch2c -> conv_stage0_block0_branch2c
I0610 01:57:46.580581 14734 net.cpp:122] Setting up conv_stage0_block0_branch2c
I0610 01:57:46.580587 14734 net.cpp:129] Top shape: 7 128 56 56 (2809856)
I0610 01:57:46.580590 14734 net.cpp:137] Memory required for data: 178425884
I0610 01:57:46.580595 14734 layer_factory.hpp:77] Creating layer bn_stage0_block0_branch2c
I0610 01:57:46.580601 14734 net.cpp:84] Creating Layer bn_stage0_block0_branch2c
I0610 01:57:46.580605 14734 net.cpp:406] bn_stage0_block0_branch2c <- conv_stage0_block0_branch2c
I0610 01:57:46.580610 14734 net.cpp:367] bn_stage0_block0_branch2c -> conv_stage0_block0_branch2c (in-place)
I0610 01:57:46.580741 14734 net.cpp:122] Setting up bn_stage0_block0_branch2c
I0610 01:57:46.580747 14734 net.cpp:129] Top shape: 7 128 56 56 (2809856)
I0610 01:57:46.580749 14734 net.cpp:137] Memory required for data: 189665308
I0610 01:57:46.580760 14734 layer_factory.hpp:77] Creating layer scale_stage0_block0_branch2c
I0610 01:57:46.580765 14734 net.cpp:84] Creating Layer scale_stage0_block0_branch2c
I0610 01:57:46.580767 14734 net.cpp:406] scale_stage0_block0_branch2c <- conv_stage0_block0_branch2c
I0610 01:57:46.580771 14734 net.cpp:367] scale_stage0_block0_branch2c -> conv_stage0_block0_branch2c (in-place)
I0610 01:57:46.580798 14734 layer_factory.hpp:77] Creating layer scale_stage0_block0_branch2c
I0610 01:57:46.580878 14734 net.cpp:122] Setting up scale_stage0_block0_branch2c
I0610 01:57:46.580884 14734 net.cpp:129] Top shape: 7 128 56 56 (2809856)
I0610 01:57:46.580886 14734 net.cpp:137] Memory required for data: 200904732
I0610 01:57:46.580891 14734 layer_factory.hpp:77] Creating layer eltwise_stage0_block0
I0610 01:57:46.580896 14734 net.cpp:84] Creating Layer eltwise_stage0_block0
I0610 01:57:46.580899 14734 net.cpp:406] eltwise_stage0_block0 <- conv_stage0_block0_proj_shortcut
I0610 01:57:46.580902 14734 net.cpp:406] eltwise_stage0_block0 <- conv_stage0_block0_branch2c
I0610 01:57:46.580906 14734 net.cpp:380] eltwise_stage0_block0 -> eltwise_stage0_block0
I0610 01:57:46.580925 14734 net.cpp:122] Setting up eltwise_stage0_block0
I0610 01:57:46.580930 14734 net.cpp:129] Top shape: 7 128 56 56 (2809856)
I0610 01:57:46.580932 14734 net.cpp:137] Memory required for data: 212144156
I0610 01:57:46.580935 14734 layer_factory.hpp:77] Creating layer relu_stage0_block0
I0610 01:57:46.580940 14734 net.cpp:84] Creating Layer relu_stage0_block0
I0610 01:57:46.580942 14734 net.cpp:406] relu_stage0_block0 <- eltwise_stage0_block0
I0610 01:57:46.580946 14734 net.cpp:367] relu_stage0_block0 -> eltwise_stage0_block0 (in-place)
I0610 01:57:46.580957 14734 net.cpp:122] Setting up relu_stage0_block0
I0610 01:57:46.580961 14734 net.cpp:129] Top shape: 7 128 56 56 (2809856)
I0610 01:57:46.580965 14734 net.cpp:137] Memory required for data: 223383580
I0610 01:57:46.580966 14734 layer_factory.hpp:77] Creating layer eltwise_stage0_block0_relu_stage0_block0_0_split
I0610 01:57:46.580971 14734 net.cpp:84] Creating Layer eltwise_stage0_block0_relu_stage0_block0_0_split
I0610 01:57:46.580974 14734 net.cpp:406] eltwise_stage0_block0_relu_stage0_block0_0_split <- eltwise_stage0_block0
I0610 01:57:46.580978 14734 net.cpp:380] eltwise_stage0_block0_relu_stage0_block0_0_split -> eltwise_stage0_block0_relu_stage0_block0_0_split_0
I0610 01:57:46.580984 14734 net.cpp:380] eltwise_stage0_block0_relu_stage0_block0_0_split -> eltwise_stage0_block0_relu_stage0_block0_0_split_1
I0610 01:57:46.581009 14734 net.cpp:122] Setting up eltwise_stage0_block0_relu_stage0_block0_0_split
I0610 01:57:46.581014 14734 net.cpp:129] Top shape: 7 128 56 56 (2809856)
I0610 01:57:46.581018 14734 net.cpp:129] Top shape: 7 128 56 56 (2809856)
I0610 01:57:46.581020 14734 net.cpp:137] Memory required for data: 245862428
I0610 01:57:46.581022 14734 layer_factory.hpp:77] Creating layer conv_stage0_block1_branch2a
I0610 01:57:46.581030 14734 net.cpp:84] Creating Layer conv_stage0_block1_branch2a
I0610 01:57:46.581033 14734 net.cpp:406] conv_stage0_block1_branch2a <- eltwise_stage0_block0_relu_stage0_block0_0_split_0
I0610 01:57:46.581038 14734 net.cpp:380] conv_stage0_block1_branch2a -> conv_stage0_block1_branch2a
I0610 01:57:46.581241 14734 net.cpp:122] Setting up conv_stage0_block1_branch2a
I0610 01:57:46.581248 14734 net.cpp:129] Top shape: 7 32 56 56 (702464)
I0610 01:57:46.581251 14734 net.cpp:137] Memory required for data: 248672284
I0610 01:57:46.581256 14734 layer_factory.hpp:77] Creating layer bn_stage0_block1_branch2a
I0610 01:57:46.581261 14734 net.cpp:84] Creating Layer bn_stage0_block1_branch2a
I0610 01:57:46.581264 14734 net.cpp:406] bn_stage0_block1_branch2a <- conv_stage0_block1_branch2a
I0610 01:57:46.581269 14734 net.cpp:367] bn_stage0_block1_branch2a -> conv_stage0_block1_branch2a (in-place)
I0610 01:57:46.581405 14734 net.cpp:122] Setting up bn_stage0_block1_branch2a
I0610 01:57:46.581410 14734 net.cpp:129] Top shape: 7 32 56 56 (702464)
I0610 01:57:46.581413 14734 net.cpp:137] Memory required for data: 251482140
I0610 01:57:46.581418 14734 layer_factory.hpp:77] Creating layer scale_stage0_block1_branch2a
I0610 01:57:46.581423 14734 net.cpp:84] Creating Layer scale_stage0_block1_branch2a
I0610 01:57:46.581425 14734 net.cpp:406] scale_stage0_block1_branch2a <- conv_stage0_block1_branch2a
I0610 01:57:46.581429 14734 net.cpp:367] scale_stage0_block1_branch2a -> conv_stage0_block1_branch2a (in-place)
I0610 01:57:46.581457 14734 layer_factory.hpp:77] Creating layer scale_stage0_block1_branch2a
I0610 01:57:46.581545 14734 net.cpp:122] Setting up scale_stage0_block1_branch2a
I0610 01:57:46.581550 14734 net.cpp:129] Top shape: 7 32 56 56 (702464)
I0610 01:57:46.581552 14734 net.cpp:137] Memory required for data: 254291996
I0610 01:57:46.581557 14734 layer_factory.hpp:77] Creating layer relu_stage0_block1_branch2a
I0610 01:57:46.581562 14734 net.cpp:84] Creating Layer relu_stage0_block1_branch2a
I0610 01:57:46.581565 14734 net.cpp:406] relu_stage0_block1_branch2a <- conv_stage0_block1_branch2a
I0610 01:57:46.581569 14734 net.cpp:367] relu_stage0_block1_branch2a -> conv_stage0_block1_branch2a (in-place)
I0610 01:57:46.581573 14734 net.cpp:122] Setting up relu_stage0_block1_branch2a
I0610 01:57:46.581578 14734 net.cpp:129] Top shape: 7 32 56 56 (702464)
I0610 01:57:46.581580 14734 net.cpp:137] Memory required for data: 257101852
I0610 01:57:46.581583 14734 layer_factory.hpp:77] Creating layer conv_stage0_block1_branch2b
I0610 01:57:46.581590 14734 net.cpp:84] Creating Layer conv_stage0_block1_branch2b
I0610 01:57:46.581593 14734 net.cpp:406] conv_stage0_block1_branch2b <- conv_stage0_block1_branch2a
I0610 01:57:46.581599 14734 net.cpp:380] conv_stage0_block1_branch2b -> conv_stage0_block1_branch2b
I0610 01:57:46.581825 14734 net.cpp:122] Setting up conv_stage0_block1_branch2b
I0610 01:57:46.581830 14734 net.cpp:129] Top shape: 7 32 56 56 (702464)
I0610 01:57:46.581833 14734 net.cpp:137] Memory required for data: 259911708
I0610 01:57:46.581837 14734 layer_factory.hpp:77] Creating layer bn_stage0_block1_branch2b
I0610 01:57:46.581843 14734 net.cpp:84] Creating Layer bn_stage0_block1_branch2b
I0610 01:57:46.581846 14734 net.cpp:406] bn_stage0_block1_branch2b <- conv_stage0_block1_branch2b
I0610 01:57:46.581851 14734 net.cpp:367] bn_stage0_block1_branch2b -> conv_stage0_block1_branch2b (in-place)
I0610 01:57:46.581990 14734 net.cpp:122] Setting up bn_stage0_block1_branch2b
I0610 01:57:46.581993 14734 net.cpp:129] Top shape: 7 32 56 56 (702464)
I0610 01:57:46.581996 14734 net.cpp:137] Memory required for data: 262721564
I0610 01:57:46.582002 14734 layer_factory.hpp:77] Creating layer scale_stage0_block1_branch2b
I0610 01:57:46.582007 14734 net.cpp:84] Creating Layer scale_stage0_block1_branch2b
I0610 01:57:46.582010 14734 net.cpp:406] scale_stage0_block1_branch2b <- conv_stage0_block1_branch2b
I0610 01:57:46.582013 14734 net.cpp:367] scale_stage0_block1_branch2b -> conv_stage0_block1_branch2b (in-place)
I0610 01:57:46.582041 14734 layer_factory.hpp:77] Creating layer scale_stage0_block1_branch2b
I0610 01:57:46.582123 14734 net.cpp:122] Setting up scale_stage0_block1_branch2b
I0610 01:57:46.582128 14734 net.cpp:129] Top shape: 7 32 56 56 (702464)
I0610 01:57:46.582130 14734 net.cpp:137] Memory required for data: 265531420
I0610 01:57:46.582134 14734 layer_factory.hpp:77] Creating layer relu_stage0_block1_branch2b
I0610 01:57:46.582139 14734 net.cpp:84] Creating Layer relu_stage0_block1_branch2b
I0610 01:57:46.582141 14734 net.cpp:406] relu_stage0_block1_branch2b <- conv_stage0_block1_branch2b
I0610 01:57:46.582145 14734 net.cpp:367] relu_stage0_block1_branch2b -> conv_stage0_block1_branch2b (in-place)
I0610 01:57:46.582149 14734 net.cpp:122] Setting up relu_stage0_block1_branch2b
I0610 01:57:46.582154 14734 net.cpp:129] Top shape: 7 32 56 56 (702464)
I0610 01:57:46.582155 14734 net.cpp:137] Memory required for data: 268341276
I0610 01:57:46.582157 14734 layer_factory.hpp:77] Creating layer conv_stage0_block1_branch2c
I0610 01:57:46.582172 14734 net.cpp:84] Creating Layer conv_stage0_block1_branch2c
I0610 01:57:46.582175 14734 net.cpp:406] conv_stage0_block1_branch2c <- conv_stage0_block1_branch2b
I0610 01:57:46.582180 14734 net.cpp:380] conv_stage0_block1_branch2c -> conv_stage0_block1_branch2c
I0610 01:57:46.582373 14734 net.cpp:122] Setting up conv_stage0_block1_branch2c
I0610 01:57:46.582379 14734 net.cpp:129] Top shape: 7 128 56 56 (2809856)
I0610 01:57:46.582382 14734 net.cpp:137] Memory required for data: 279580700
I0610 01:57:46.582387 14734 layer_factory.hpp:77] Creating layer bn_stage0_block1_branch2c
I0610 01:57:46.582392 14734 net.cpp:84] Creating Layer bn_stage0_block1_branch2c
I0610 01:57:46.582396 14734 net.cpp:406] bn_stage0_block1_branch2c <- conv_stage0_block1_branch2c
I0610 01:57:46.582401 14734 net.cpp:367] bn_stage0_block1_branch2c -> conv_stage0_block1_branch2c (in-place)
I0610 01:57:46.582530 14734 net.cpp:122] Setting up bn_stage0_block1_branch2c
I0610 01:57:46.582535 14734 net.cpp:129] Top shape: 7 128 56 56 (2809856)
I0610 01:57:46.582536 14734 net.cpp:137] Memory required for data: 290820124
I0610 01:57:46.582542 14734 layer_factory.hpp:77] Creating layer scale_stage0_block1_branch2c
I0610 01:57:46.582547 14734 net.cpp:84] Creating Layer scale_stage0_block1_branch2c
I0610 01:57:46.582550 14734 net.cpp:406] scale_stage0_block1_branch2c <- conv_stage0_block1_branch2c
I0610 01:57:46.582554 14734 net.cpp:367] scale_stage0_block1_branch2c -> conv_stage0_block1_branch2c (in-place)
I0610 01:57:46.582581 14734 layer_factory.hpp:77] Creating layer scale_stage0_block1_branch2c
I0610 01:57:46.582657 14734 net.cpp:122] Setting up scale_stage0_block1_branch2c
I0610 01:57:46.582661 14734 net.cpp:129] Top shape: 7 128 56 56 (2809856)
I0610 01:57:46.582664 14734 net.cpp:137] Memory required for data: 302059548
I0610 01:57:46.582676 14734 layer_factory.hpp:77] Creating layer eltwise_stage0_block1
I0610 01:57:46.582681 14734 net.cpp:84] Creating Layer eltwise_stage0_block1
I0610 01:57:46.582684 14734 net.cpp:406] eltwise_stage0_block1 <- eltwise_stage0_block0_relu_stage0_block0_0_split_1
I0610 01:57:46.582689 14734 net.cpp:406] eltwise_stage0_block1 <- conv_stage0_block1_branch2c
I0610 01:57:46.582692 14734 net.cpp:380] eltwise_stage0_block1 -> eltwise_stage0_block1
I0610 01:57:46.582713 14734 net.cpp:122] Setting up eltwise_stage0_block1
I0610 01:57:46.582718 14734 net.cpp:129] Top shape: 7 128 56 56 (2809856)
I0610 01:57:46.582720 14734 net.cpp:137] Memory required for data: 313298972
I0610 01:57:46.582723 14734 layer_factory.hpp:77] Creating layer relu_stage0_block1
I0610 01:57:46.582727 14734 net.cpp:84] Creating Layer relu_stage0_block1
I0610 01:57:46.582731 14734 net.cpp:406] relu_stage0_block1 <- eltwise_stage0_block1
I0610 01:57:46.582734 14734 net.cpp:367] relu_stage0_block1 -> eltwise_stage0_block1 (in-place)
I0610 01:57:46.582738 14734 net.cpp:122] Setting up relu_stage0_block1
I0610 01:57:46.582741 14734 net.cpp:129] Top shape: 7 128 56 56 (2809856)
I0610 01:57:46.582744 14734 net.cpp:137] Memory required for data: 324538396
I0610 01:57:46.582746 14734 layer_factory.hpp:77] Creating layer eltwise_stage0_block1_relu_stage0_block1_0_split
I0610 01:57:46.582751 14734 net.cpp:84] Creating Layer eltwise_stage0_block1_relu_stage0_block1_0_split
I0610 01:57:46.582753 14734 net.cpp:406] eltwise_stage0_block1_relu_stage0_block1_0_split <- eltwise_stage0_block1
I0610 01:57:46.582757 14734 net.cpp:380] eltwise_stage0_block1_relu_stage0_block1_0_split -> eltwise_stage0_block1_relu_stage0_block1_0_split_0
I0610 01:57:46.582762 14734 net.cpp:380] eltwise_stage0_block1_relu_stage0_block1_0_split -> eltwise_stage0_block1_relu_stage0_block1_0_split_1
I0610 01:57:46.582787 14734 net.cpp:122] Setting up eltwise_stage0_block1_relu_stage0_block1_0_split
I0610 01:57:46.582790 14734 net.cpp:129] Top shape: 7 128 56 56 (2809856)
I0610 01:57:46.582793 14734 net.cpp:129] Top shape: 7 128 56 56 (2809856)
I0610 01:57:46.582796 14734 net.cpp:137] Memory required for data: 347017244
I0610 01:57:46.582798 14734 layer_factory.hpp:77] Creating layer conv_stage0_block2_branch2a
I0610 01:57:46.582808 14734 net.cpp:84] Creating Layer conv_stage0_block2_branch2a
I0610 01:57:46.582809 14734 net.cpp:406] conv_stage0_block2_branch2a <- eltwise_stage0_block1_relu_stage0_block1_0_split_0
I0610 01:57:46.582815 14734 net.cpp:380] conv_stage0_block2_branch2a -> conv_stage0_block2_branch2a
I0610 01:57:46.582996 14734 net.cpp:122] Setting up conv_stage0_block2_branch2a
I0610 01:57:46.583001 14734 net.cpp:129] Top shape: 7 32 56 56 (702464)
I0610 01:57:46.583003 14734 net.cpp:137] Memory required for data: 349827100
I0610 01:57:46.583009 14734 layer_factory.hpp:77] Creating layer bn_stage0_block2_branch2a
I0610 01:57:46.583014 14734 net.cpp:84] Creating Layer bn_stage0_block2_branch2a
I0610 01:57:46.583016 14734 net.cpp:406] bn_stage0_block2_branch2a <- conv_stage0_block2_branch2a
I0610 01:57:46.583020 14734 net.cpp:367] bn_stage0_block2_branch2a -> conv_stage0_block2_branch2a (in-place)
I0610 01:57:46.583153 14734 net.cpp:122] Setting up bn_stage0_block2_branch2a
I0610 01:57:46.583158 14734 net.cpp:129] Top shape: 7 32 56 56 (702464)
I0610 01:57:46.583160 14734 net.cpp:137] Memory required for data: 352636956
I0610 01:57:46.583165 14734 layer_factory.hpp:77] Creating layer scale_stage0_block2_branch2a
I0610 01:57:46.583170 14734 net.cpp:84] Creating Layer scale_stage0_block2_branch2a
I0610 01:57:46.583173 14734 net.cpp:406] scale_stage0_block2_branch2a <- conv_stage0_block2_branch2a
I0610 01:57:46.583178 14734 net.cpp:367] scale_stage0_block2_branch2a -> conv_stage0_block2_branch2a (in-place)
I0610 01:57:46.583202 14734 layer_factory.hpp:77] Creating layer scale_stage0_block2_branch2a
I0610 01:57:46.583281 14734 net.cpp:122] Setting up scale_stage0_block2_branch2a
I0610 01:57:46.583287 14734 net.cpp:129] Top shape: 7 32 56 56 (702464)
I0610 01:57:46.583294 14734 net.cpp:137] Memory required for data: 355446812
I0610 01:57:46.583299 14734 layer_factory.hpp:77] Creating layer relu_stage0_block2_branch2a
I0610 01:57:46.583304 14734 net.cpp:84] Creating Layer relu_stage0_block2_branch2a
I0610 01:57:46.583307 14734 net.cpp:406] relu_stage0_block2_branch2a <- conv_stage0_block2_branch2a
I0610 01:57:46.583310 14734 net.cpp:367] relu_stage0_block2_branch2a -> conv_stage0_block2_branch2a (in-place)
I0610 01:57:46.583314 14734 net.cpp:122] Setting up relu_stage0_block2_branch2a
I0610 01:57:46.583318 14734 net.cpp:129] Top shape: 7 32 56 56 (702464)
I0610 01:57:46.583320 14734 net.cpp:137] Memory required for data: 358256668
I0610 01:57:46.583323 14734 layer_factory.hpp:77] Creating layer conv_stage0_block2_branch2b
I0610 01:57:46.583330 14734 net.cpp:84] Creating Layer conv_stage0_block2_branch2b
I0610 01:57:46.583333 14734 net.cpp:406] conv_stage0_block2_branch2b <- conv_stage0_block2_branch2a
I0610 01:57:46.583338 14734 net.cpp:380] conv_stage0_block2_branch2b -> conv_stage0_block2_branch2b
I0610 01:57:46.583546 14734 net.cpp:122] Setting up conv_stage0_block2_branch2b
I0610 01:57:46.583551 14734 net.cpp:129] Top shape: 7 32 56 56 (702464)
I0610 01:57:46.583554 14734 net.cpp:137] Memory required for data: 361066524
I0610 01:57:46.583564 14734 layer_factory.hpp:77] Creating layer bn_stage0_block2_branch2b
I0610 01:57:46.583570 14734 net.cpp:84] Creating Layer bn_stage0_block2_branch2b
I0610 01:57:46.583572 14734 net.cpp:406] bn_stage0_block2_branch2b <- conv_stage0_block2_branch2b
I0610 01:57:46.583576 14734 net.cpp:367] bn_stage0_block2_branch2b -> conv_stage0_block2_branch2b (in-place)
I0610 01:57:46.583714 14734 net.cpp:122] Setting up bn_stage0_block2_branch2b
I0610 01:57:46.583719 14734 net.cpp:129] Top shape: 7 32 56 56 (702464)
I0610 01:57:46.583721 14734 net.cpp:137] Memory required for data: 363876380
I0610 01:57:46.583727 14734 layer_factory.hpp:77] Creating layer scale_stage0_block2_branch2b
I0610 01:57:46.583732 14734 net.cpp:84] Creating Layer scale_stage0_block2_branch2b
I0610 01:57:46.583735 14734 net.cpp:406] scale_stage0_block2_branch2b <- conv_stage0_block2_branch2b
I0610 01:57:46.583739 14734 net.cpp:367] scale_stage0_block2_branch2b -> conv_stage0_block2_branch2b (in-place)
I0610 01:57:46.583765 14734 layer_factory.hpp:77] Creating layer scale_stage0_block2_branch2b
I0610 01:57:46.583847 14734 net.cpp:122] Setting up scale_stage0_block2_branch2b
I0610 01:57:46.583851 14734 net.cpp:129] Top shape: 7 32 56 56 (702464)
I0610 01:57:46.583853 14734 net.cpp:137] Memory required for data: 366686236
I0610 01:57:46.583858 14734 layer_factory.hpp:77] Creating layer relu_stage0_block2_branch2b
I0610 01:57:46.583863 14734 net.cpp:84] Creating Layer relu_stage0_block2_branch2b
I0610 01:57:46.583864 14734 net.cpp:406] relu_stage0_block2_branch2b <- conv_stage0_block2_branch2b
I0610 01:57:46.583868 14734 net.cpp:367] relu_stage0_block2_branch2b -> conv_stage0_block2_branch2b (in-place)
I0610 01:57:46.583873 14734 net.cpp:122] Setting up relu_stage0_block2_branch2b
I0610 01:57:46.583876 14734 net.cpp:129] Top shape: 7 32 56 56 (702464)
I0610 01:57:46.583878 14734 net.cpp:137] Memory required for data: 369496092
I0610 01:57:46.583880 14734 layer_factory.hpp:77] Creating layer conv_stage0_block2_branch2c
I0610 01:57:46.583889 14734 net.cpp:84] Creating Layer conv_stage0_block2_branch2c
I0610 01:57:46.583890 14734 net.cpp:406] conv_stage0_block2_branch2c <- conv_stage0_block2_branch2b
I0610 01:57:46.583895 14734 net.cpp:380] conv_stage0_block2_branch2c -> conv_stage0_block2_branch2c
I0610 01:57:46.584077 14734 net.cpp:122] Setting up conv_stage0_block2_branch2c
I0610 01:57:46.584082 14734 net.cpp:129] Top shape: 7 128 56 56 (2809856)
I0610 01:57:46.584085 14734 net.cpp:137] Memory required for data: 380735516
I0610 01:57:46.584090 14734 layer_factory.hpp:77] Creating layer bn_stage0_block2_branch2c
I0610 01:57:46.584095 14734 net.cpp:84] Creating Layer bn_stage0_block2_branch2c
I0610 01:57:46.584098 14734 net.cpp:406] bn_stage0_block2_branch2c <- conv_stage0_block2_branch2c
I0610 01:57:46.584110 14734 net.cpp:367] bn_stage0_block2_branch2c -> conv_stage0_block2_branch2c (in-place)
I0610 01:57:46.584245 14734 net.cpp:122] Setting up bn_stage0_block2_branch2c
I0610 01:57:46.584250 14734 net.cpp:129] Top shape: 7 128 56 56 (2809856)
I0610 01:57:46.584252 14734 net.cpp:137] Memory required for data: 391974940
I0610 01:57:46.584259 14734 layer_factory.hpp:77] Creating layer scale_stage0_block2_branch2c
I0610 01:57:46.584264 14734 net.cpp:84] Creating Layer scale_stage0_block2_branch2c
I0610 01:57:46.584265 14734 net.cpp:406] scale_stage0_block2_branch2c <- conv_stage0_block2_branch2c
I0610 01:57:46.584270 14734 net.cpp:367] scale_stage0_block2_branch2c -> conv_stage0_block2_branch2c (in-place)
I0610 01:57:46.584296 14734 layer_factory.hpp:77] Creating layer scale_stage0_block2_branch2c
I0610 01:57:46.584373 14734 net.cpp:122] Setting up scale_stage0_block2_branch2c
I0610 01:57:46.584378 14734 net.cpp:129] Top shape: 7 128 56 56 (2809856)
I0610 01:57:46.584379 14734 net.cpp:137] Memory required for data: 403214364
I0610 01:57:46.584384 14734 layer_factory.hpp:77] Creating layer eltwise_stage0_block2
I0610 01:57:46.584388 14734 net.cpp:84] Creating Layer eltwise_stage0_block2
I0610 01:57:46.584391 14734 net.cpp:406] eltwise_stage0_block2 <- eltwise_stage0_block1_relu_stage0_block1_0_split_1
I0610 01:57:46.584394 14734 net.cpp:406] eltwise_stage0_block2 <- conv_stage0_block2_branch2c
I0610 01:57:46.584399 14734 net.cpp:380] eltwise_stage0_block2 -> eltwise_stage0_block2
I0610 01:57:46.584415 14734 net.cpp:122] Setting up eltwise_stage0_block2
I0610 01:57:46.584421 14734 net.cpp:129] Top shape: 7 128 56 56 (2809856)
I0610 01:57:46.584424 14734 net.cpp:137] Memory required for data: 414453788
I0610 01:57:46.584426 14734 layer_factory.hpp:77] Creating layer relu_stage0_block2
I0610 01:57:46.584431 14734 net.cpp:84] Creating Layer relu_stage0_block2
I0610 01:57:46.584434 14734 net.cpp:406] relu_stage0_block2 <- eltwise_stage0_block2
I0610 01:57:46.584439 14734 net.cpp:367] relu_stage0_block2 -> eltwise_stage0_block2 (in-place)
I0610 01:57:46.584442 14734 net.cpp:122] Setting up relu_stage0_block2
I0610 01:57:46.584445 14734 net.cpp:129] Top shape: 7 128 56 56 (2809856)
I0610 01:57:46.584448 14734 net.cpp:137] Memory required for data: 425693212
I0610 01:57:46.584450 14734 layer_factory.hpp:77] Creating layer eltwise_stage0_block2_relu_stage0_block2_0_split
I0610 01:57:46.584455 14734 net.cpp:84] Creating Layer eltwise_stage0_block2_relu_stage0_block2_0_split
I0610 01:57:46.584457 14734 net.cpp:406] eltwise_stage0_block2_relu_stage0_block2_0_split <- eltwise_stage0_block2
I0610 01:57:46.584461 14734 net.cpp:380] eltwise_stage0_block2_relu_stage0_block2_0_split -> eltwise_stage0_block2_relu_stage0_block2_0_split_0
I0610 01:57:46.584467 14734 net.cpp:380] eltwise_stage0_block2_relu_stage0_block2_0_split -> eltwise_stage0_block2_relu_stage0_block2_0_split_1
I0610 01:57:46.584494 14734 net.cpp:122] Setting up eltwise_stage0_block2_relu_stage0_block2_0_split
I0610 01:57:46.584501 14734 net.cpp:129] Top shape: 7 128 56 56 (2809856)
I0610 01:57:46.584503 14734 net.cpp:129] Top shape: 7 128 56 56 (2809856)
I0610 01:57:46.584506 14734 net.cpp:137] Memory required for data: 448172060
I0610 01:57:46.584508 14734 layer_factory.hpp:77] Creating layer conv_stage1_block0_proj_shortcut
I0610 01:57:46.584516 14734 net.cpp:84] Creating Layer conv_stage1_block0_proj_shortcut
I0610 01:57:46.584518 14734 net.cpp:406] conv_stage1_block0_proj_shortcut <- eltwise_stage0_block2_relu_stage0_block2_0_split_0
I0610 01:57:46.584524 14734 net.cpp:380] conv_stage1_block0_proj_shortcut -> conv_stage1_block0_proj_shortcut
I0610 01:57:46.585810 14734 net.cpp:122] Setting up conv_stage1_block0_proj_shortcut
I0610 01:57:46.585821 14734 net.cpp:129] Top shape: 7 256 28 28 (1404928)
I0610 01:57:46.585824 14734 net.cpp:137] Memory required for data: 453791772
I0610 01:57:46.585829 14734 layer_factory.hpp:77] Creating layer bn_stage1_block0_proj_shortcut
I0610 01:57:46.585839 14734 net.cpp:84] Creating Layer bn_stage1_block0_proj_shortcut
I0610 01:57:46.585851 14734 net.cpp:406] bn_stage1_block0_proj_shortcut <- conv_stage1_block0_proj_shortcut
I0610 01:57:46.585857 14734 net.cpp:367] bn_stage1_block0_proj_shortcut -> conv_stage1_block0_proj_shortcut (in-place)
I0610 01:57:46.586009 14734 net.cpp:122] Setting up bn_stage1_block0_proj_shortcut
I0610 01:57:46.586014 14734 net.cpp:129] Top shape: 7 256 28 28 (1404928)
I0610 01:57:46.586016 14734 net.cpp:137] Memory required for data: 459411484
I0610 01:57:46.586022 14734 layer_factory.hpp:77] Creating layer scale_stage1_block0_proj_shortcut
I0610 01:57:46.586028 14734 net.cpp:84] Creating Layer scale_stage1_block0_proj_shortcut
I0610 01:57:46.586030 14734 net.cpp:406] scale_stage1_block0_proj_shortcut <- conv_stage1_block0_proj_shortcut
I0610 01:57:46.586036 14734 net.cpp:367] scale_stage1_block0_proj_shortcut -> conv_stage1_block0_proj_shortcut (in-place)
I0610 01:57:46.586066 14734 layer_factory.hpp:77] Creating layer scale_stage1_block0_proj_shortcut
I0610 01:57:46.586150 14734 net.cpp:122] Setting up scale_stage1_block0_proj_shortcut
I0610 01:57:46.586155 14734 net.cpp:129] Top shape: 7 256 28 28 (1404928)
I0610 01:57:46.586158 14734 net.cpp:137] Memory required for data: 465031196
I0610 01:57:46.586161 14734 layer_factory.hpp:77] Creating layer conv_stage1_block0_branch2a
I0610 01:57:46.586171 14734 net.cpp:84] Creating Layer conv_stage1_block0_branch2a
I0610 01:57:46.586174 14734 net.cpp:406] conv_stage1_block0_branch2a <- eltwise_stage0_block2_relu_stage0_block2_0_split_1
I0610 01:57:46.586181 14734 net.cpp:380] conv_stage1_block0_branch2a -> conv_stage1_block0_branch2a
I0610 01:57:46.586417 14734 net.cpp:122] Setting up conv_stage1_block0_branch2a
I0610 01:57:46.586424 14734 net.cpp:129] Top shape: 7 64 28 28 (351232)
I0610 01:57:46.586426 14734 net.cpp:137] Memory required for data: 466436124
I0610 01:57:46.586431 14734 layer_factory.hpp:77] Creating layer bn_stage1_block0_branch2a
I0610 01:57:46.586437 14734 net.cpp:84] Creating Layer bn_stage1_block0_branch2a
I0610 01:57:46.586439 14734 net.cpp:406] bn_stage1_block0_branch2a <- conv_stage1_block0_branch2a
I0610 01:57:46.586446 14734 net.cpp:367] bn_stage1_block0_branch2a -> conv_stage1_block0_branch2a (in-place)
I0610 01:57:46.586596 14734 net.cpp:122] Setting up bn_stage1_block0_branch2a
I0610 01:57:46.586602 14734 net.cpp:129] Top shape: 7 64 28 28 (351232)
I0610 01:57:46.586606 14734 net.cpp:137] Memory required for data: 467841052
I0610 01:57:46.586611 14734 layer_factory.hpp:77] Creating layer scale_stage1_block0_branch2a
I0610 01:57:46.586616 14734 net.cpp:84] Creating Layer scale_stage1_block0_branch2a
I0610 01:57:46.586618 14734 net.cpp:406] scale_stage1_block0_branch2a <- conv_stage1_block0_branch2a
I0610 01:57:46.586623 14734 net.cpp:367] scale_stage1_block0_branch2a -> conv_stage1_block0_branch2a (in-place)
I0610 01:57:46.586660 14734 layer_factory.hpp:77] Creating layer scale_stage1_block0_branch2a
I0610 01:57:46.586766 14734 net.cpp:122] Setting up scale_stage1_block0_branch2a
I0610 01:57:46.586771 14734 net.cpp:129] Top shape: 7 64 28 28 (351232)
I0610 01:57:46.586773 14734 net.cpp:137] Memory required for data: 469245980
I0610 01:57:46.586778 14734 layer_factory.hpp:77] Creating layer relu_stage1_block0_branch2a
I0610 01:57:46.586787 14734 net.cpp:84] Creating Layer relu_stage1_block0_branch2a
I0610 01:57:46.586789 14734 net.cpp:406] relu_stage1_block0_branch2a <- conv_stage1_block0_branch2a
I0610 01:57:46.586797 14734 net.cpp:367] relu_stage1_block0_branch2a -> conv_stage1_block0_branch2a (in-place)
I0610 01:57:46.586808 14734 net.cpp:122] Setting up relu_stage1_block0_branch2a
I0610 01:57:46.586812 14734 net.cpp:129] Top shape: 7 64 28 28 (351232)
I0610 01:57:46.586815 14734 net.cpp:137] Memory required for data: 470650908
I0610 01:57:46.586818 14734 layer_factory.hpp:77] Creating layer conv_stage1_block0_branch2b
I0610 01:57:46.586834 14734 net.cpp:84] Creating Layer conv_stage1_block0_branch2b
I0610 01:57:46.586838 14734 net.cpp:406] conv_stage1_block0_branch2b <- conv_stage1_block0_branch2a
I0610 01:57:46.586854 14734 net.cpp:380] conv_stage1_block0_branch2b -> conv_stage1_block0_branch2b
I0610 01:57:46.587232 14734 net.cpp:122] Setting up conv_stage1_block0_branch2b
I0610 01:57:46.587239 14734 net.cpp:129] Top shape: 7 64 28 28 (351232)
I0610 01:57:46.587241 14734 net.cpp:137] Memory required for data: 472055836
I0610 01:57:46.587245 14734 layer_factory.hpp:77] Creating layer bn_stage1_block0_branch2b
I0610 01:57:46.587251 14734 net.cpp:84] Creating Layer bn_stage1_block0_branch2b
I0610 01:57:46.587255 14734 net.cpp:406] bn_stage1_block0_branch2b <- conv_stage1_block0_branch2b
I0610 01:57:46.587260 14734 net.cpp:367] bn_stage1_block0_branch2b -> conv_stage1_block0_branch2b (in-place)
I0610 01:57:46.587414 14734 net.cpp:122] Setting up bn_stage1_block0_branch2b
I0610 01:57:46.587419 14734 net.cpp:129] Top shape: 7 64 28 28 (351232)
I0610 01:57:46.587421 14734 net.cpp:137] Memory required for data: 473460764
I0610 01:57:46.587427 14734 layer_factory.hpp:77] Creating layer scale_stage1_block0_branch2b
I0610 01:57:46.587435 14734 net.cpp:84] Creating Layer scale_stage1_block0_branch2b
I0610 01:57:46.587437 14734 net.cpp:406] scale_stage1_block0_branch2b <- conv_stage1_block0_branch2b
I0610 01:57:46.587442 14734 net.cpp:367] scale_stage1_block0_branch2b -> conv_stage1_block0_branch2b (in-place)
I0610 01:57:46.587836 14734 layer_factory.hpp:77] Creating layer scale_stage1_block0_branch2b
I0610 01:57:46.587930 14734 net.cpp:122] Setting up scale_stage1_block0_branch2b
I0610 01:57:46.587935 14734 net.cpp:129] Top shape: 7 64 28 28 (351232)
I0610 01:57:46.587939 14734 net.cpp:137] Memory required for data: 474865692
I0610 01:57:46.587942 14734 layer_factory.hpp:77] Creating layer relu_stage1_block0_branch2b
I0610 01:57:46.587947 14734 net.cpp:84] Creating Layer relu_stage1_block0_branch2b
I0610 01:57:46.587950 14734 net.cpp:406] relu_stage1_block0_branch2b <- conv_stage1_block0_branch2b
I0610 01:57:46.587955 14734 net.cpp:367] relu_stage1_block0_branch2b -> conv_stage1_block0_branch2b (in-place)
I0610 01:57:46.587960 14734 net.cpp:122] Setting up relu_stage1_block0_branch2b
I0610 01:57:46.587965 14734 net.cpp:129] Top shape: 7 64 28 28 (351232)
I0610 01:57:46.587966 14734 net.cpp:137] Memory required for data: 476270620
I0610 01:57:46.587970 14734 layer_factory.hpp:77] Creating layer conv_stage1_block0_branch2c
I0610 01:57:46.587980 14734 net.cpp:84] Creating Layer conv_stage1_block0_branch2c
I0610 01:57:46.587982 14734 net.cpp:406] conv_stage1_block0_branch2c <- conv_stage1_block0_branch2b
I0610 01:57:46.587987 14734 net.cpp:380] conv_stage1_block0_branch2c -> conv_stage1_block0_branch2c
I0610 01:57:46.588244 14734 net.cpp:122] Setting up conv_stage1_block0_branch2c
I0610 01:57:46.588250 14734 net.cpp:129] Top shape: 7 256 28 28 (1404928)
I0610 01:57:46.588253 14734 net.cpp:137] Memory required for data: 481890332
I0610 01:57:46.588258 14734 layer_factory.hpp:77] Creating layer bn_stage1_block0_branch2c
I0610 01:57:46.588277 14734 net.cpp:84] Creating Layer bn_stage1_block0_branch2c
I0610 01:57:46.588281 14734 net.cpp:406] bn_stage1_block0_branch2c <- conv_stage1_block0_branch2c
I0610 01:57:46.588285 14734 net.cpp:367] bn_stage1_block0_branch2c -> conv_stage1_block0_branch2c (in-place)
I0610 01:57:46.588424 14734 net.cpp:122] Setting up bn_stage1_block0_branch2c
I0610 01:57:46.588429 14734 net.cpp:129] Top shape: 7 256 28 28 (1404928)
I0610 01:57:46.588433 14734 net.cpp:137] Memory required for data: 487510044
I0610 01:57:46.588438 14734 layer_factory.hpp:77] Creating layer scale_stage1_block0_branch2c
I0610 01:57:46.588443 14734 net.cpp:84] Creating Layer scale_stage1_block0_branch2c
I0610 01:57:46.588444 14734 net.cpp:406] scale_stage1_block0_branch2c <- conv_stage1_block0_branch2c
I0610 01:57:46.588449 14734 net.cpp:367] scale_stage1_block0_branch2c -> conv_stage1_block0_branch2c (in-place)
I0610 01:57:46.588479 14734 layer_factory.hpp:77] Creating layer scale_stage1_block0_branch2c
I0610 01:57:46.588558 14734 net.cpp:122] Setting up scale_stage1_block0_branch2c
I0610 01:57:46.588563 14734 net.cpp:129] Top shape: 7 256 28 28 (1404928)
I0610 01:57:46.588573 14734 net.cpp:137] Memory required for data: 493129756
I0610 01:57:46.588577 14734 layer_factory.hpp:77] Creating layer eltwise_stage1_block0
I0610 01:57:46.588582 14734 net.cpp:84] Creating Layer eltwise_stage1_block0
I0610 01:57:46.588585 14734 net.cpp:406] eltwise_stage1_block0 <- conv_stage1_block0_proj_shortcut
I0610 01:57:46.588589 14734 net.cpp:406] eltwise_stage1_block0 <- conv_stage1_block0_branch2c
I0610 01:57:46.588594 14734 net.cpp:380] eltwise_stage1_block0 -> eltwise_stage1_block0
I0610 01:57:46.588614 14734 net.cpp:122] Setting up eltwise_stage1_block0
I0610 01:57:46.588619 14734 net.cpp:129] Top shape: 7 256 28 28 (1404928)
I0610 01:57:46.588621 14734 net.cpp:137] Memory required for data: 498749468
I0610 01:57:46.588624 14734 layer_factory.hpp:77] Creating layer relu_stage1_block0
I0610 01:57:46.588629 14734 net.cpp:84] Creating Layer relu_stage1_block0
I0610 01:57:46.588631 14734 net.cpp:406] relu_stage1_block0 <- eltwise_stage1_block0
I0610 01:57:46.588636 14734 net.cpp:367] relu_stage1_block0 -> eltwise_stage1_block0 (in-place)
I0610 01:57:46.588641 14734 net.cpp:122] Setting up relu_stage1_block0
I0610 01:57:46.588645 14734 net.cpp:129] Top shape: 7 256 28 28 (1404928)
I0610 01:57:46.588647 14734 net.cpp:137] Memory required for data: 504369180
I0610 01:57:46.588649 14734 layer_factory.hpp:77] Creating layer eltwise_stage1_block0_relu_stage1_block0_0_split
I0610 01:57:46.588654 14734 net.cpp:84] Creating Layer eltwise_stage1_block0_relu_stage1_block0_0_split
I0610 01:57:46.588657 14734 net.cpp:406] eltwise_stage1_block0_relu_stage1_block0_0_split <- eltwise_stage1_block0
I0610 01:57:46.588662 14734 net.cpp:380] eltwise_stage1_block0_relu_stage1_block0_0_split -> eltwise_stage1_block0_relu_stage1_block0_0_split_0
I0610 01:57:46.588668 14734 net.cpp:380] eltwise_stage1_block0_relu_stage1_block0_0_split -> eltwise_stage1_block0_relu_stage1_block0_0_split_1
I0610 01:57:46.588695 14734 net.cpp:122] Setting up eltwise_stage1_block0_relu_stage1_block0_0_split
I0610 01:57:46.588698 14734 net.cpp:129] Top shape: 7 256 28 28 (1404928)
I0610 01:57:46.588702 14734 net.cpp:129] Top shape: 7 256 28 28 (1404928)
I0610 01:57:46.588704 14734 net.cpp:137] Memory required for data: 515608604
I0610 01:57:46.588706 14734 layer_factory.hpp:77] Creating layer conv_stage1_block1_branch2a
I0610 01:57:46.588716 14734 net.cpp:84] Creating Layer conv_stage1_block1_branch2a
I0610 01:57:46.588719 14734 net.cpp:406] conv_stage1_block1_branch2a <- eltwise_stage1_block0_relu_stage1_block0_0_split_0
I0610 01:57:46.588727 14734 net.cpp:380] conv_stage1_block1_branch2a -> conv_stage1_block1_branch2a
I0610 01:57:46.588999 14734 net.cpp:122] Setting up conv_stage1_block1_branch2a
I0610 01:57:46.589005 14734 net.cpp:129] Top shape: 7 64 28 28 (351232)
I0610 01:57:46.589009 14734 net.cpp:137] Memory required for data: 517013532
I0610 01:57:46.589013 14734 layer_factory.hpp:77] Creating layer bn_stage1_block1_branch2a
I0610 01:57:46.589020 14734 net.cpp:84] Creating Layer bn_stage1_block1_branch2a
I0610 01:57:46.589022 14734 net.cpp:406] bn_stage1_block1_branch2a <- conv_stage1_block1_branch2a
I0610 01:57:46.589027 14734 net.cpp:367] bn_stage1_block1_branch2a -> conv_stage1_block1_branch2a (in-place)
I0610 01:57:46.589179 14734 net.cpp:122] Setting up bn_stage1_block1_branch2a
I0610 01:57:46.589184 14734 net.cpp:129] Top shape: 7 64 28 28 (351232)
I0610 01:57:46.589186 14734 net.cpp:137] Memory required for data: 518418460
I0610 01:57:46.589191 14734 layer_factory.hpp:77] Creating layer scale_stage1_block1_branch2a
I0610 01:57:46.589197 14734 net.cpp:84] Creating Layer scale_stage1_block1_branch2a
I0610 01:57:46.589200 14734 net.cpp:406] scale_stage1_block1_branch2a <- conv_stage1_block1_branch2a
I0610 01:57:46.589205 14734 net.cpp:367] scale_stage1_block1_branch2a -> conv_stage1_block1_branch2a (in-place)
I0610 01:57:46.589233 14734 layer_factory.hpp:77] Creating layer scale_stage1_block1_branch2a
I0610 01:57:46.589323 14734 net.cpp:122] Setting up scale_stage1_block1_branch2a
I0610 01:57:46.589334 14734 net.cpp:129] Top shape: 7 64 28 28 (351232)
I0610 01:57:46.589337 14734 net.cpp:137] Memory required for data: 519823388
I0610 01:57:46.589342 14734 layer_factory.hpp:77] Creating layer relu_stage1_block1_branch2a
I0610 01:57:46.589346 14734 net.cpp:84] Creating Layer relu_stage1_block1_branch2a
I0610 01:57:46.589349 14734 net.cpp:406] relu_stage1_block1_branch2a <- conv_stage1_block1_branch2a
I0610 01:57:46.589354 14734 net.cpp:367] relu_stage1_block1_branch2a -> conv_stage1_block1_branch2a (in-place)
I0610 01:57:46.589359 14734 net.cpp:122] Setting up relu_stage1_block1_branch2a
I0610 01:57:46.589361 14734 net.cpp:129] Top shape: 7 64 28 28 (351232)
I0610 01:57:46.589363 14734 net.cpp:137] Memory required for data: 521228316
I0610 01:57:46.589365 14734 layer_factory.hpp:77] Creating layer conv_stage1_block1_branch2b
I0610 01:57:46.589373 14734 net.cpp:84] Creating Layer conv_stage1_block1_branch2b
I0610 01:57:46.589376 14734 net.cpp:406] conv_stage1_block1_branch2b <- conv_stage1_block1_branch2a
I0610 01:57:46.589382 14734 net.cpp:380] conv_stage1_block1_branch2b -> conv_stage1_block1_branch2b
I0610 01:57:46.589751 14734 net.cpp:122] Setting up conv_stage1_block1_branch2b
I0610 01:57:46.589757 14734 net.cpp:129] Top shape: 7 64 28 28 (351232)
I0610 01:57:46.589759 14734 net.cpp:137] Memory required for data: 522633244
I0610 01:57:46.589763 14734 layer_factory.hpp:77] Creating layer bn_stage1_block1_branch2b
I0610 01:57:46.589771 14734 net.cpp:84] Creating Layer bn_stage1_block1_branch2b
I0610 01:57:46.589773 14734 net.cpp:406] bn_stage1_block1_branch2b <- conv_stage1_block1_branch2b
I0610 01:57:46.589778 14734 net.cpp:367] bn_stage1_block1_branch2b -> conv_stage1_block1_branch2b (in-place)
I0610 01:57:46.589926 14734 net.cpp:122] Setting up bn_stage1_block1_branch2b
I0610 01:57:46.589931 14734 net.cpp:129] Top shape: 7 64 28 28 (351232)
I0610 01:57:46.589933 14734 net.cpp:137] Memory required for data: 524038172
I0610 01:57:46.589938 14734 layer_factory.hpp:77] Creating layer scale_stage1_block1_branch2b
I0610 01:57:46.589943 14734 net.cpp:84] Creating Layer scale_stage1_block1_branch2b
I0610 01:57:46.589946 14734 net.cpp:406] scale_stage1_block1_branch2b <- conv_stage1_block1_branch2b
I0610 01:57:46.589951 14734 net.cpp:367] scale_stage1_block1_branch2b -> conv_stage1_block1_branch2b (in-place)
I0610 01:57:46.589979 14734 layer_factory.hpp:77] Creating layer scale_stage1_block1_branch2b
I0610 01:57:46.590066 14734 net.cpp:122] Setting up scale_stage1_block1_branch2b
I0610 01:57:46.590071 14734 net.cpp:129] Top shape: 7 64 28 28 (351232)
I0610 01:57:46.590073 14734 net.cpp:137] Memory required for data: 525443100
I0610 01:57:46.590078 14734 layer_factory.hpp:77] Creating layer relu_stage1_block1_branch2b
I0610 01:57:46.590082 14734 net.cpp:84] Creating Layer relu_stage1_block1_branch2b
I0610 01:57:46.590085 14734 net.cpp:406] relu_stage1_block1_branch2b <- conv_stage1_block1_branch2b
I0610 01:57:46.590090 14734 net.cpp:367] relu_stage1_block1_branch2b -> conv_stage1_block1_branch2b (in-place)
I0610 01:57:46.590095 14734 net.cpp:122] Setting up relu_stage1_block1_branch2b
I0610 01:57:46.590097 14734 net.cpp:129] Top shape: 7 64 28 28 (351232)
I0610 01:57:46.590101 14734 net.cpp:137] Memory required for data: 526848028
I0610 01:57:46.590102 14734 layer_factory.hpp:77] Creating layer conv_stage1_block1_branch2c
I0610 01:57:46.590111 14734 net.cpp:84] Creating Layer conv_stage1_block1_branch2c
I0610 01:57:46.590112 14734 net.cpp:406] conv_stage1_block1_branch2c <- conv_stage1_block1_branch2b
I0610 01:57:46.590117 14734 net.cpp:380] conv_stage1_block1_branch2c -> conv_stage1_block1_branch2c
I0610 01:57:46.590381 14734 net.cpp:122] Setting up conv_stage1_block1_branch2c
I0610 01:57:46.590387 14734 net.cpp:129] Top shape: 7 256 28 28 (1404928)
I0610 01:57:46.590389 14734 net.cpp:137] Memory required for data: 532467740
I0610 01:57:46.590394 14734 layer_factory.hpp:77] Creating layer bn_stage1_block1_branch2c
I0610 01:57:46.590400 14734 net.cpp:84] Creating Layer bn_stage1_block1_branch2c
I0610 01:57:46.590404 14734 net.cpp:406] bn_stage1_block1_branch2c <- conv_stage1_block1_branch2c
I0610 01:57:46.590416 14734 net.cpp:367] bn_stage1_block1_branch2c -> conv_stage1_block1_branch2c (in-place)
I0610 01:57:46.590559 14734 net.cpp:122] Setting up bn_stage1_block1_branch2c
I0610 01:57:46.590562 14734 net.cpp:129] Top shape: 7 256 28 28 (1404928)
I0610 01:57:46.590565 14734 net.cpp:137] Memory required for data: 538087452
I0610 01:57:46.590570 14734 layer_factory.hpp:77] Creating layer scale_stage1_block1_branch2c
I0610 01:57:46.590576 14734 net.cpp:84] Creating Layer scale_stage1_block1_branch2c
I0610 01:57:46.590579 14734 net.cpp:406] scale_stage1_block1_branch2c <- conv_stage1_block1_branch2c
I0610 01:57:46.590582 14734 net.cpp:367] scale_stage1_block1_branch2c -> conv_stage1_block1_branch2c (in-place)
I0610 01:57:46.590611 14734 layer_factory.hpp:77] Creating layer scale_stage1_block1_branch2c
I0610 01:57:46.590692 14734 net.cpp:122] Setting up scale_stage1_block1_branch2c
I0610 01:57:46.590696 14734 net.cpp:129] Top shape: 7 256 28 28 (1404928)
I0610 01:57:46.590698 14734 net.cpp:137] Memory required for data: 543707164
I0610 01:57:46.590703 14734 layer_factory.hpp:77] Creating layer eltwise_stage1_block1
I0610 01:57:46.590708 14734 net.cpp:84] Creating Layer eltwise_stage1_block1
I0610 01:57:46.590710 14734 net.cpp:406] eltwise_stage1_block1 <- eltwise_stage1_block0_relu_stage1_block0_0_split_1
I0610 01:57:46.590713 14734 net.cpp:406] eltwise_stage1_block1 <- conv_stage1_block1_branch2c
I0610 01:57:46.590719 14734 net.cpp:380] eltwise_stage1_block1 -> eltwise_stage1_block1
I0610 01:57:46.590737 14734 net.cpp:122] Setting up eltwise_stage1_block1
I0610 01:57:46.590741 14734 net.cpp:129] Top shape: 7 256 28 28 (1404928)
I0610 01:57:46.590744 14734 net.cpp:137] Memory required for data: 549326876
I0610 01:57:46.590746 14734 layer_factory.hpp:77] Creating layer relu_stage1_block1
I0610 01:57:46.590750 14734 net.cpp:84] Creating Layer relu_stage1_block1
I0610 01:57:46.590754 14734 net.cpp:406] relu_stage1_block1 <- eltwise_stage1_block1
I0610 01:57:46.590759 14734 net.cpp:367] relu_stage1_block1 -> eltwise_stage1_block1 (in-place)
I0610 01:57:46.590764 14734 net.cpp:122] Setting up relu_stage1_block1
I0610 01:57:46.590767 14734 net.cpp:129] Top shape: 7 256 28 28 (1404928)
I0610 01:57:46.590770 14734 net.cpp:137] Memory required for data: 554946588
I0610 01:57:46.590771 14734 layer_factory.hpp:77] Creating layer eltwise_stage1_block1_relu_stage1_block1_0_split
I0610 01:57:46.590776 14734 net.cpp:84] Creating Layer eltwise_stage1_block1_relu_stage1_block1_0_split
I0610 01:57:46.590778 14734 net.cpp:406] eltwise_stage1_block1_relu_stage1_block1_0_split <- eltwise_stage1_block1
I0610 01:57:46.590782 14734 net.cpp:380] eltwise_stage1_block1_relu_stage1_block1_0_split -> eltwise_stage1_block1_relu_stage1_block1_0_split_0
I0610 01:57:46.590787 14734 net.cpp:380] eltwise_stage1_block1_relu_stage1_block1_0_split -> eltwise_stage1_block1_relu_stage1_block1_0_split_1
I0610 01:57:46.590813 14734 net.cpp:122] Setting up eltwise_stage1_block1_relu_stage1_block1_0_split
I0610 01:57:46.590817 14734 net.cpp:129] Top shape: 7 256 28 28 (1404928)
I0610 01:57:46.590821 14734 net.cpp:129] Top shape: 7 256 28 28 (1404928)
I0610 01:57:46.590823 14734 net.cpp:137] Memory required for data: 566186012
I0610 01:57:46.590826 14734 layer_factory.hpp:77] Creating layer conv_stage1_block2_branch2a
I0610 01:57:46.590834 14734 net.cpp:84] Creating Layer conv_stage1_block2_branch2a
I0610 01:57:46.590837 14734 net.cpp:406] conv_stage1_block2_branch2a <- eltwise_stage1_block1_relu_stage1_block1_0_split_0
I0610 01:57:46.590842 14734 net.cpp:380] conv_stage1_block2_branch2a -> conv_stage1_block2_branch2a
I0610 01:57:46.591094 14734 net.cpp:122] Setting up conv_stage1_block2_branch2a
I0610 01:57:46.591100 14734 net.cpp:129] Top shape: 7 64 28 28 (351232)
I0610 01:57:46.591102 14734 net.cpp:137] Memory required for data: 567590940
I0610 01:57:46.591106 14734 layer_factory.hpp:77] Creating layer bn_stage1_block2_branch2a
I0610 01:57:46.591112 14734 net.cpp:84] Creating Layer bn_stage1_block2_branch2a
I0610 01:57:46.591121 14734 net.cpp:406] bn_stage1_block2_branch2a <- conv_stage1_block2_branch2a
I0610 01:57:46.591127 14734 net.cpp:367] bn_stage1_block2_branch2a -> conv_stage1_block2_branch2a (in-place)
I0610 01:57:46.591276 14734 net.cpp:122] Setting up bn_stage1_block2_branch2a
I0610 01:57:46.591281 14734 net.cpp:129] Top shape: 7 64 28 28 (351232)
I0610 01:57:46.591284 14734 net.cpp:137] Memory required for data: 568995868
I0610 01:57:46.591303 14734 layer_factory.hpp:77] Creating layer scale_stage1_block2_branch2a
I0610 01:57:46.591308 14734 net.cpp:84] Creating Layer scale_stage1_block2_branch2a
I0610 01:57:46.591311 14734 net.cpp:406] scale_stage1_block2_branch2a <- conv_stage1_block2_branch2a
I0610 01:57:46.591315 14734 net.cpp:367] scale_stage1_block2_branch2a -> conv_stage1_block2_branch2a (in-place)
I0610 01:57:46.591346 14734 layer_factory.hpp:77] Creating layer scale_stage1_block2_branch2a
I0610 01:57:46.591433 14734 net.cpp:122] Setting up scale_stage1_block2_branch2a
I0610 01:57:46.591436 14734 net.cpp:129] Top shape: 7 64 28 28 (351232)
I0610 01:57:46.591439 14734 net.cpp:137] Memory required for data: 570400796
I0610 01:57:46.591444 14734 layer_factory.hpp:77] Creating layer relu_stage1_block2_branch2a
I0610 01:57:46.591449 14734 net.cpp:84] Creating Layer relu_stage1_block2_branch2a
I0610 01:57:46.591451 14734 net.cpp:406] relu_stage1_block2_branch2a <- conv_stage1_block2_branch2a
I0610 01:57:46.591455 14734 net.cpp:367] relu_stage1_block2_branch2a -> conv_stage1_block2_branch2a (in-place)
I0610 01:57:46.591460 14734 net.cpp:122] Setting up relu_stage1_block2_branch2a
I0610 01:57:46.591464 14734 net.cpp:129] Top shape: 7 64 28 28 (351232)
I0610 01:57:46.591466 14734 net.cpp:137] Memory required for data: 571805724
I0610 01:57:46.591469 14734 layer_factory.hpp:77] Creating layer conv_stage1_block2_branch2b
I0610 01:57:46.591475 14734 net.cpp:84] Creating Layer conv_stage1_block2_branch2b
I0610 01:57:46.591477 14734 net.cpp:406] conv_stage1_block2_branch2b <- conv_stage1_block2_branch2a
I0610 01:57:46.591483 14734 net.cpp:380] conv_stage1_block2_branch2b -> conv_stage1_block2_branch2b
I0610 01:57:46.591850 14734 net.cpp:122] Setting up conv_stage1_block2_branch2b
I0610 01:57:46.591856 14734 net.cpp:129] Top shape: 7 64 28 28 (351232)
I0610 01:57:46.591857 14734 net.cpp:137] Memory required for data: 573210652
I0610 01:57:46.591862 14734 layer_factory.hpp:77] Creating layer bn_stage1_block2_branch2b
I0610 01:57:46.591868 14734 net.cpp:84] Creating Layer bn_stage1_block2_branch2b
I0610 01:57:46.591871 14734 net.cpp:406] bn_stage1_block2_branch2b <- conv_stage1_block2_branch2b
I0610 01:57:46.591876 14734 net.cpp:367] bn_stage1_block2_branch2b -> conv_stage1_block2_branch2b (in-place)
I0610 01:57:46.592022 14734 net.cpp:122] Setting up bn_stage1_block2_branch2b
I0610 01:57:46.592026 14734 net.cpp:129] Top shape: 7 64 28 28 (351232)
I0610 01:57:46.592030 14734 net.cpp:137] Memory required for data: 574615580
I0610 01:57:46.592034 14734 layer_factory.hpp:77] Creating layer scale_stage1_block2_branch2b
I0610 01:57:46.592041 14734 net.cpp:84] Creating Layer scale_stage1_block2_branch2b
I0610 01:57:46.592046 14734 net.cpp:406] scale_stage1_block2_branch2b <- conv_stage1_block2_branch2b
I0610 01:57:46.592051 14734 net.cpp:367] scale_stage1_block2_branch2b -> conv_stage1_block2_branch2b (in-place)
I0610 01:57:46.592082 14734 layer_factory.hpp:77] Creating layer scale_stage1_block2_branch2b
I0610 01:57:46.592170 14734 net.cpp:122] Setting up scale_stage1_block2_branch2b
I0610 01:57:46.592175 14734 net.cpp:129] Top shape: 7 64 28 28 (351232)
I0610 01:57:46.592177 14734 net.cpp:137] Memory required for data: 576020508
I0610 01:57:46.592182 14734 layer_factory.hpp:77] Creating layer relu_stage1_block2_branch2b
I0610 01:57:46.592187 14734 net.cpp:84] Creating Layer relu_stage1_block2_branch2b
I0610 01:57:46.592190 14734 net.cpp:406] relu_stage1_block2_branch2b <- conv_stage1_block2_branch2b
I0610 01:57:46.592193 14734 net.cpp:367] relu_stage1_block2_branch2b -> conv_stage1_block2_branch2b (in-place)
I0610 01:57:46.592205 14734 net.cpp:122] Setting up relu_stage1_block2_branch2b
I0610 01:57:46.592208 14734 net.cpp:129] Top shape: 7 64 28 28 (351232)
I0610 01:57:46.592211 14734 net.cpp:137] Memory required for data: 577425436
I0610 01:57:46.592213 14734 layer_factory.hpp:77] Creating layer conv_stage1_block2_branch2c
I0610 01:57:46.592221 14734 net.cpp:84] Creating Layer conv_stage1_block2_branch2c
I0610 01:57:46.592224 14734 net.cpp:406] conv_stage1_block2_branch2c <- conv_stage1_block2_branch2b
I0610 01:57:46.592229 14734 net.cpp:380] conv_stage1_block2_branch2c -> conv_stage1_block2_branch2c
I0610 01:57:46.592483 14734 net.cpp:122] Setting up conv_stage1_block2_branch2c
I0610 01:57:46.592489 14734 net.cpp:129] Top shape: 7 256 28 28 (1404928)
I0610 01:57:46.592491 14734 net.cpp:137] Memory required for data: 583045148
I0610 01:57:46.592495 14734 layer_factory.hpp:77] Creating layer bn_stage1_block2_branch2c
I0610 01:57:46.592501 14734 net.cpp:84] Creating Layer bn_stage1_block2_branch2c
I0610 01:57:46.592504 14734 net.cpp:406] bn_stage1_block2_branch2c <- conv_stage1_block2_branch2c
I0610 01:57:46.592509 14734 net.cpp:367] bn_stage1_block2_branch2c -> conv_stage1_block2_branch2c (in-place)
I0610 01:57:46.592649 14734 net.cpp:122] Setting up bn_stage1_block2_branch2c
I0610 01:57:46.592654 14734 net.cpp:129] Top shape: 7 256 28 28 (1404928)
I0610 01:57:46.592656 14734 net.cpp:137] Memory required for data: 588664860
I0610 01:57:46.592661 14734 layer_factory.hpp:77] Creating layer scale_stage1_block2_branch2c
I0610 01:57:46.592667 14734 net.cpp:84] Creating Layer scale_stage1_block2_branch2c
I0610 01:57:46.592669 14734 net.cpp:406] scale_stage1_block2_branch2c <- conv_stage1_block2_branch2c
I0610 01:57:46.592674 14734 net.cpp:367] scale_stage1_block2_branch2c -> conv_stage1_block2_branch2c (in-place)
I0610 01:57:46.592701 14734 layer_factory.hpp:77] Creating layer scale_stage1_block2_branch2c
I0610 01:57:46.592783 14734 net.cpp:122] Setting up scale_stage1_block2_branch2c
I0610 01:57:46.592788 14734 net.cpp:129] Top shape: 7 256 28 28 (1404928)
I0610 01:57:46.592790 14734 net.cpp:137] Memory required for data: 594284572
I0610 01:57:46.592794 14734 layer_factory.hpp:77] Creating layer eltwise_stage1_block2
I0610 01:57:46.592800 14734 net.cpp:84] Creating Layer eltwise_stage1_block2
I0610 01:57:46.592803 14734 net.cpp:406] eltwise_stage1_block2 <- eltwise_stage1_block1_relu_stage1_block1_0_split_1
I0610 01:57:46.592806 14734 net.cpp:406] eltwise_stage1_block2 <- conv_stage1_block2_branch2c
I0610 01:57:46.592810 14734 net.cpp:380] eltwise_stage1_block2 -> eltwise_stage1_block2
I0610 01:57:46.592828 14734 net.cpp:122] Setting up eltwise_stage1_block2
I0610 01:57:46.592833 14734 net.cpp:129] Top shape: 7 256 28 28 (1404928)
I0610 01:57:46.592835 14734 net.cpp:137] Memory required for data: 599904284
I0610 01:57:46.592838 14734 layer_factory.hpp:77] Creating layer relu_stage1_block2
I0610 01:57:46.592842 14734 net.cpp:84] Creating Layer relu_stage1_block2
I0610 01:57:46.592844 14734 net.cpp:406] relu_stage1_block2 <- eltwise_stage1_block2
I0610 01:57:46.592850 14734 net.cpp:367] relu_stage1_block2 -> eltwise_stage1_block2 (in-place)
I0610 01:57:46.592854 14734 net.cpp:122] Setting up relu_stage1_block2
I0610 01:57:46.592859 14734 net.cpp:129] Top shape: 7 256 28 28 (1404928)
I0610 01:57:46.592860 14734 net.cpp:137] Memory required for data: 605523996
I0610 01:57:46.592862 14734 layer_factory.hpp:77] Creating layer eltwise_stage1_block2_relu_stage1_block2_0_split
I0610 01:57:46.592867 14734 net.cpp:84] Creating Layer eltwise_stage1_block2_relu_stage1_block2_0_split
I0610 01:57:46.592869 14734 net.cpp:406] eltwise_stage1_block2_relu_stage1_block2_0_split <- eltwise_stage1_block2
I0610 01:57:46.592873 14734 net.cpp:380] eltwise_stage1_block2_relu_stage1_block2_0_split -> eltwise_stage1_block2_relu_stage1_block2_0_split_0
I0610 01:57:46.592878 14734 net.cpp:380] eltwise_stage1_block2_relu_stage1_block2_0_split -> eltwise_stage1_block2_relu_stage1_block2_0_split_1
I0610 01:57:46.592905 14734 net.cpp:122] Setting up eltwise_stage1_block2_relu_stage1_block2_0_split
I0610 01:57:46.592916 14734 net.cpp:129] Top shape: 7 256 28 28 (1404928)
I0610 01:57:46.592918 14734 net.cpp:129] Top shape: 7 256 28 28 (1404928)
I0610 01:57:46.592921 14734 net.cpp:137] Memory required for data: 616763420
I0610 01:57:46.592923 14734 layer_factory.hpp:77] Creating layer conv_stage1_block3_branch2a
I0610 01:57:46.592931 14734 net.cpp:84] Creating Layer conv_stage1_block3_branch2a
I0610 01:57:46.592934 14734 net.cpp:406] conv_stage1_block3_branch2a <- eltwise_stage1_block2_relu_stage1_block2_0_split_0
I0610 01:57:46.592939 14734 net.cpp:380] conv_stage1_block3_branch2a -> conv_stage1_block3_branch2a
I0610 01:57:46.593226 14734 net.cpp:122] Setting up conv_stage1_block3_branch2a
I0610 01:57:46.593232 14734 net.cpp:129] Top shape: 7 64 28 28 (351232)
I0610 01:57:46.593235 14734 net.cpp:137] Memory required for data: 618168348
I0610 01:57:46.593240 14734 layer_factory.hpp:77] Creating layer bn_stage1_block3_branch2a
I0610 01:57:46.593250 14734 net.cpp:84] Creating Layer bn_stage1_block3_branch2a
I0610 01:57:46.593252 14734 net.cpp:406] bn_stage1_block3_branch2a <- conv_stage1_block3_branch2a
I0610 01:57:46.593257 14734 net.cpp:367] bn_stage1_block3_branch2a -> conv_stage1_block3_branch2a (in-place)
I0610 01:57:46.593407 14734 net.cpp:122] Setting up bn_stage1_block3_branch2a
I0610 01:57:46.593413 14734 net.cpp:129] Top shape: 7 64 28 28 (351232)
I0610 01:57:46.593416 14734 net.cpp:137] Memory required for data: 619573276
I0610 01:57:46.593421 14734 layer_factory.hpp:77] Creating layer scale_stage1_block3_branch2a
I0610 01:57:46.593427 14734 net.cpp:84] Creating Layer scale_stage1_block3_branch2a
I0610 01:57:46.593430 14734 net.cpp:406] scale_stage1_block3_branch2a <- conv_stage1_block3_branch2a
I0610 01:57:46.593435 14734 net.cpp:367] scale_stage1_block3_branch2a -> conv_stage1_block3_branch2a (in-place)
I0610 01:57:46.593466 14734 layer_factory.hpp:77] Creating layer scale_stage1_block3_branch2a
I0610 01:57:46.593562 14734 net.cpp:122] Setting up scale_stage1_block3_branch2a
I0610 01:57:46.593567 14734 net.cpp:129] Top shape: 7 64 28 28 (351232)
I0610 01:57:46.593570 14734 net.cpp:137] Memory required for data: 620978204
I0610 01:57:46.593575 14734 layer_factory.hpp:77] Creating layer relu_stage1_block3_branch2a
I0610 01:57:46.593580 14734 net.cpp:84] Creating Layer relu_stage1_block3_branch2a
I0610 01:57:46.593583 14734 net.cpp:406] relu_stage1_block3_branch2a <- conv_stage1_block3_branch2a
I0610 01:57:46.593597 14734 net.cpp:367] relu_stage1_block3_branch2a -> conv_stage1_block3_branch2a (in-place)
I0610 01:57:46.593602 14734 net.cpp:122] Setting up relu_stage1_block3_branch2a
I0610 01:57:46.593605 14734 net.cpp:129] Top shape: 7 64 28 28 (351232)
I0610 01:57:46.593608 14734 net.cpp:137] Memory required for data: 622383132
I0610 01:57:46.593611 14734 layer_factory.hpp:77] Creating layer conv_stage1_block3_branch2b
I0610 01:57:46.593619 14734 net.cpp:84] Creating Layer conv_stage1_block3_branch2b
I0610 01:57:46.593621 14734 net.cpp:406] conv_stage1_block3_branch2b <- conv_stage1_block3_branch2a
I0610 01:57:46.593628 14734 net.cpp:380] conv_stage1_block3_branch2b -> conv_stage1_block3_branch2b
I0610 01:57:46.593991 14734 net.cpp:122] Setting up conv_stage1_block3_branch2b
I0610 01:57:46.593998 14734 net.cpp:129] Top shape: 7 64 28 28 (351232)
I0610 01:57:46.594000 14734 net.cpp:137] Memory required for data: 623788060
I0610 01:57:46.594005 14734 layer_factory.hpp:77] Creating layer bn_stage1_block3_branch2b
I0610 01:57:46.594010 14734 net.cpp:84] Creating Layer bn_stage1_block3_branch2b
I0610 01:57:46.594013 14734 net.cpp:406] bn_stage1_block3_branch2b <- conv_stage1_block3_branch2b
I0610 01:57:46.594018 14734 net.cpp:367] bn_stage1_block3_branch2b -> conv_stage1_block3_branch2b (in-place)
I0610 01:57:46.594558 14734 net.cpp:122] Setting up bn_stage1_block3_branch2b
I0610 01:57:46.594565 14734 net.cpp:129] Top shape: 7 64 28 28 (351232)
I0610 01:57:46.594568 14734 net.cpp:137] Memory required for data: 625192988
I0610 01:57:46.594574 14734 layer_factory.hpp:77] Creating layer scale_stage1_block3_branch2b
I0610 01:57:46.594586 14734 net.cpp:84] Creating Layer scale_stage1_block3_branch2b
I0610 01:57:46.594589 14734 net.cpp:406] scale_stage1_block3_branch2b <- conv_stage1_block3_branch2b
I0610 01:57:46.594595 14734 net.cpp:367] scale_stage1_block3_branch2b -> conv_stage1_block3_branch2b (in-place)
I0610 01:57:46.594627 14734 layer_factory.hpp:77] Creating layer scale_stage1_block3_branch2b
I0610 01:57:46.594717 14734 net.cpp:122] Setting up scale_stage1_block3_branch2b
I0610 01:57:46.594722 14734 net.cpp:129] Top shape: 7 64 28 28 (351232)
I0610 01:57:46.594724 14734 net.cpp:137] Memory required for data: 626597916
I0610 01:57:46.594729 14734 layer_factory.hpp:77] Creating layer relu_stage1_block3_branch2b
I0610 01:57:46.594734 14734 net.cpp:84] Creating Layer relu_stage1_block3_branch2b
I0610 01:57:46.594738 14734 net.cpp:406] relu_stage1_block3_branch2b <- conv_stage1_block3_branch2b
I0610 01:57:46.594741 14734 net.cpp:367] relu_stage1_block3_branch2b -> conv_stage1_block3_branch2b (in-place)
I0610 01:57:46.594745 14734 net.cpp:122] Setting up relu_stage1_block3_branch2b
I0610 01:57:46.594749 14734 net.cpp:129] Top shape: 7 64 28 28 (351232)
I0610 01:57:46.594751 14734 net.cpp:137] Memory required for data: 628002844
I0610 01:57:46.594753 14734 layer_factory.hpp:77] Creating layer conv_stage1_block3_branch2c
I0610 01:57:46.594764 14734 net.cpp:84] Creating Layer conv_stage1_block3_branch2c
I0610 01:57:46.594768 14734 net.cpp:406] conv_stage1_block3_branch2c <- conv_stage1_block3_branch2b
I0610 01:57:46.594772 14734 net.cpp:380] conv_stage1_block3_branch2c -> conv_stage1_block3_branch2c
I0610 01:57:46.595021 14734 net.cpp:122] Setting up conv_stage1_block3_branch2c
I0610 01:57:46.595027 14734 net.cpp:129] Top shape: 7 256 28 28 (1404928)
I0610 01:57:46.595029 14734 net.cpp:137] Memory required for data: 633622556
I0610 01:57:46.595033 14734 layer_factory.hpp:77] Creating layer bn_stage1_block3_branch2c
I0610 01:57:46.595039 14734 net.cpp:84] Creating Layer bn_stage1_block3_branch2c
I0610 01:57:46.595042 14734 net.cpp:406] bn_stage1_block3_branch2c <- conv_stage1_block3_branch2c
I0610 01:57:46.595046 14734 net.cpp:367] bn_stage1_block3_branch2c -> conv_stage1_block3_branch2c (in-place)
I0610 01:57:46.595192 14734 net.cpp:122] Setting up bn_stage1_block3_branch2c
I0610 01:57:46.595197 14734 net.cpp:129] Top shape: 7 256 28 28 (1404928)
I0610 01:57:46.595199 14734 net.cpp:137] Memory required for data: 639242268
I0610 01:57:46.595206 14734 layer_factory.hpp:77] Creating layer scale_stage1_block3_branch2c
I0610 01:57:46.595209 14734 net.cpp:84] Creating Layer scale_stage1_block3_branch2c
I0610 01:57:46.595212 14734 net.cpp:406] scale_stage1_block3_branch2c <- conv_stage1_block3_branch2c
I0610 01:57:46.595217 14734 net.cpp:367] scale_stage1_block3_branch2c -> conv_stage1_block3_branch2c (in-place)
I0610 01:57:46.595244 14734 layer_factory.hpp:77] Creating layer scale_stage1_block3_branch2c
I0610 01:57:46.595324 14734 net.cpp:122] Setting up scale_stage1_block3_branch2c
I0610 01:57:46.595329 14734 net.cpp:129] Top shape: 7 256 28 28 (1404928)
I0610 01:57:46.595332 14734 net.cpp:137] Memory required for data: 644861980
I0610 01:57:46.595336 14734 layer_factory.hpp:77] Creating layer eltwise_stage1_block3
I0610 01:57:46.595340 14734 net.cpp:84] Creating Layer eltwise_stage1_block3
I0610 01:57:46.595343 14734 net.cpp:406] eltwise_stage1_block3 <- eltwise_stage1_block2_relu_stage1_block2_0_split_1
I0610 01:57:46.595347 14734 net.cpp:406] eltwise_stage1_block3 <- conv_stage1_block3_branch2c
I0610 01:57:46.595352 14734 net.cpp:380] eltwise_stage1_block3 -> eltwise_stage1_block3
I0610 01:57:46.595368 14734 net.cpp:122] Setting up eltwise_stage1_block3
I0610 01:57:46.595374 14734 net.cpp:129] Top shape: 7 256 28 28 (1404928)
I0610 01:57:46.595376 14734 net.cpp:137] Memory required for data: 650481692
I0610 01:57:46.595378 14734 layer_factory.hpp:77] Creating layer relu_stage1_block3
I0610 01:57:46.595383 14734 net.cpp:84] Creating Layer relu_stage1_block3
I0610 01:57:46.595386 14734 net.cpp:406] relu_stage1_block3 <- eltwise_stage1_block3
I0610 01:57:46.595396 14734 net.cpp:367] relu_stage1_block3 -> eltwise_stage1_block3 (in-place)
I0610 01:57:46.595401 14734 net.cpp:122] Setting up relu_stage1_block3
I0610 01:57:46.595404 14734 net.cpp:129] Top shape: 7 256 28 28 (1404928)
I0610 01:57:46.595407 14734 net.cpp:137] Memory required for data: 656101404
I0610 01:57:46.595408 14734 layer_factory.hpp:77] Creating layer eltwise_stage1_block3_relu_stage1_block3_0_split
I0610 01:57:46.595412 14734 net.cpp:84] Creating Layer eltwise_stage1_block3_relu_stage1_block3_0_split
I0610 01:57:46.595415 14734 net.cpp:406] eltwise_stage1_block3_relu_stage1_block3_0_split <- eltwise_stage1_block3
I0610 01:57:46.595420 14734 net.cpp:380] eltwise_stage1_block3_relu_stage1_block3_0_split -> eltwise_stage1_block3_relu_stage1_block3_0_split_0
I0610 01:57:46.595427 14734 net.cpp:380] eltwise_stage1_block3_relu_stage1_block3_0_split -> eltwise_stage1_block3_relu_stage1_block3_0_split_1
I0610 01:57:46.595454 14734 net.cpp:122] Setting up eltwise_stage1_block3_relu_stage1_block3_0_split
I0610 01:57:46.595459 14734 net.cpp:129] Top shape: 7 256 28 28 (1404928)
I0610 01:57:46.595463 14734 net.cpp:129] Top shape: 7 256 28 28 (1404928)
I0610 01:57:46.595464 14734 net.cpp:137] Memory required for data: 667340828
I0610 01:57:46.595468 14734 layer_factory.hpp:77] Creating layer conv_stage2_block0_proj_shortcut
I0610 01:57:46.595474 14734 net.cpp:84] Creating Layer conv_stage2_block0_proj_shortcut
I0610 01:57:46.595477 14734 net.cpp:406] conv_stage2_block0_proj_shortcut <- eltwise_stage1_block3_relu_stage1_block3_0_split_0
I0610 01:57:46.595484 14734 net.cpp:380] conv_stage2_block0_proj_shortcut -> conv_stage2_block0_proj_shortcut
I0610 01:57:46.596806 14734 net.cpp:122] Setting up conv_stage2_block0_proj_shortcut
I0610 01:57:46.596815 14734 net.cpp:129] Top shape: 7 512 14 14 (702464)
I0610 01:57:46.596817 14734 net.cpp:137] Memory required for data: 670150684
I0610 01:57:46.596822 14734 layer_factory.hpp:77] Creating layer bn_stage2_block0_proj_shortcut
I0610 01:57:46.596829 14734 net.cpp:84] Creating Layer bn_stage2_block0_proj_shortcut
I0610 01:57:46.596832 14734 net.cpp:406] bn_stage2_block0_proj_shortcut <- conv_stage2_block0_proj_shortcut
I0610 01:57:46.596838 14734 net.cpp:367] bn_stage2_block0_proj_shortcut -> conv_stage2_block0_proj_shortcut (in-place)
I0610 01:57:46.596992 14734 net.cpp:122] Setting up bn_stage2_block0_proj_shortcut
I0610 01:57:46.596997 14734 net.cpp:129] Top shape: 7 512 14 14 (702464)
I0610 01:57:46.596998 14734 net.cpp:137] Memory required for data: 672960540
I0610 01:57:46.597004 14734 layer_factory.hpp:77] Creating layer scale_stage2_block0_proj_shortcut
I0610 01:57:46.597008 14734 net.cpp:84] Creating Layer scale_stage2_block0_proj_shortcut
I0610 01:57:46.597012 14734 net.cpp:406] scale_stage2_block0_proj_shortcut <- conv_stage2_block0_proj_shortcut
I0610 01:57:46.597015 14734 net.cpp:367] scale_stage2_block0_proj_shortcut -> conv_stage2_block0_proj_shortcut (in-place)
I0610 01:57:46.597043 14734 layer_factory.hpp:77] Creating layer scale_stage2_block0_proj_shortcut
I0610 01:57:46.597129 14734 net.cpp:122] Setting up scale_stage2_block0_proj_shortcut
I0610 01:57:46.597134 14734 net.cpp:129] Top shape: 7 512 14 14 (702464)
I0610 01:57:46.597137 14734 net.cpp:137] Memory required for data: 675770396
I0610 01:57:46.597141 14734 layer_factory.hpp:77] Creating layer conv_stage2_block0_branch2a
I0610 01:57:46.597149 14734 net.cpp:84] Creating Layer conv_stage2_block0_branch2a
I0610 01:57:46.597153 14734 net.cpp:406] conv_stage2_block0_branch2a <- eltwise_stage1_block3_relu_stage1_block3_0_split_1
I0610 01:57:46.597159 14734 net.cpp:380] conv_stage2_block0_branch2a -> conv_stage2_block0_branch2a
I0610 01:57:46.597503 14734 net.cpp:122] Setting up conv_stage2_block0_branch2a
I0610 01:57:46.597508 14734 net.cpp:129] Top shape: 7 128 14 14 (175616)
I0610 01:57:46.597512 14734 net.cpp:137] Memory required for data: 676472860
I0610 01:57:46.597515 14734 layer_factory.hpp:77] Creating layer bn_stage2_block0_branch2a
I0610 01:57:46.597532 14734 net.cpp:84] Creating Layer bn_stage2_block0_branch2a
I0610 01:57:46.597535 14734 net.cpp:406] bn_stage2_block0_branch2a <- conv_stage2_block0_branch2a
I0610 01:57:46.597539 14734 net.cpp:367] bn_stage2_block0_branch2a -> conv_stage2_block0_branch2a (in-place)
I0610 01:57:46.597683 14734 net.cpp:122] Setting up bn_stage2_block0_branch2a
I0610 01:57:46.597688 14734 net.cpp:129] Top shape: 7 128 14 14 (175616)
I0610 01:57:46.597690 14734 net.cpp:137] Memory required for data: 677175324
I0610 01:57:46.597695 14734 layer_factory.hpp:77] Creating layer scale_stage2_block0_branch2a
I0610 01:57:46.597700 14734 net.cpp:84] Creating Layer scale_stage2_block0_branch2a
I0610 01:57:46.597703 14734 net.cpp:406] scale_stage2_block0_branch2a <- conv_stage2_block0_branch2a
I0610 01:57:46.597707 14734 net.cpp:367] scale_stage2_block0_branch2a -> conv_stage2_block0_branch2a (in-place)
I0610 01:57:46.597736 14734 layer_factory.hpp:77] Creating layer scale_stage2_block0_branch2a
I0610 01:57:46.597820 14734 net.cpp:122] Setting up scale_stage2_block0_branch2a
I0610 01:57:46.597826 14734 net.cpp:129] Top shape: 7 128 14 14 (175616)
I0610 01:57:46.597827 14734 net.cpp:137] Memory required for data: 677877788
I0610 01:57:46.597831 14734 layer_factory.hpp:77] Creating layer relu_stage2_block0_branch2a
I0610 01:57:46.597836 14734 net.cpp:84] Creating Layer relu_stage2_block0_branch2a
I0610 01:57:46.597838 14734 net.cpp:406] relu_stage2_block0_branch2a <- conv_stage2_block0_branch2a
I0610 01:57:46.597842 14734 net.cpp:367] relu_stage2_block0_branch2a -> conv_stage2_block0_branch2a (in-place)
I0610 01:57:46.597849 14734 net.cpp:122] Setting up relu_stage2_block0_branch2a
I0610 01:57:46.597852 14734 net.cpp:129] Top shape: 7 128 14 14 (175616)
I0610 01:57:46.597854 14734 net.cpp:137] Memory required for data: 678580252
I0610 01:57:46.597857 14734 layer_factory.hpp:77] Creating layer conv_stage2_block0_branch2b
I0610 01:57:46.597864 14734 net.cpp:84] Creating Layer conv_stage2_block0_branch2b
I0610 01:57:46.597867 14734 net.cpp:406] conv_stage2_block0_branch2b <- conv_stage2_block0_branch2a
I0610 01:57:46.597872 14734 net.cpp:380] conv_stage2_block0_branch2b -> conv_stage2_block0_branch2b
I0610 01:57:46.599335 14734 net.cpp:122] Setting up conv_stage2_block0_branch2b
I0610 01:57:46.599346 14734 net.cpp:129] Top shape: 7 128 14 14 (175616)
I0610 01:57:46.599349 14734 net.cpp:137] Memory required for data: 679282716
I0610 01:57:46.599354 14734 layer_factory.hpp:77] Creating layer bn_stage2_block0_branch2b
I0610 01:57:46.599361 14734 net.cpp:84] Creating Layer bn_stage2_block0_branch2b
I0610 01:57:46.599365 14734 net.cpp:406] bn_stage2_block0_branch2b <- conv_stage2_block0_branch2b
I0610 01:57:46.599371 14734 net.cpp:367] bn_stage2_block0_branch2b -> conv_stage2_block0_branch2b (in-place)
I0610 01:57:46.599517 14734 net.cpp:122] Setting up bn_stage2_block0_branch2b
I0610 01:57:46.599522 14734 net.cpp:129] Top shape: 7 128 14 14 (175616)
I0610 01:57:46.599524 14734 net.cpp:137] Memory required for data: 679985180
I0610 01:57:46.599529 14734 layer_factory.hpp:77] Creating layer scale_stage2_block0_branch2b
I0610 01:57:46.599535 14734 net.cpp:84] Creating Layer scale_stage2_block0_branch2b
I0610 01:57:46.599539 14734 net.cpp:406] scale_stage2_block0_branch2b <- conv_stage2_block0_branch2b
I0610 01:57:46.599542 14734 net.cpp:367] scale_stage2_block0_branch2b -> conv_stage2_block0_branch2b (in-place)
I0610 01:57:46.599573 14734 layer_factory.hpp:77] Creating layer scale_stage2_block0_branch2b
I0610 01:57:46.599658 14734 net.cpp:122] Setting up scale_stage2_block0_branch2b
I0610 01:57:46.599663 14734 net.cpp:129] Top shape: 7 128 14 14 (175616)
I0610 01:57:46.599665 14734 net.cpp:137] Memory required for data: 680687644
I0610 01:57:46.599670 14734 layer_factory.hpp:77] Creating layer relu_stage2_block0_branch2b
I0610 01:57:46.599675 14734 net.cpp:84] Creating Layer relu_stage2_block0_branch2b
I0610 01:57:46.599678 14734 net.cpp:406] relu_stage2_block0_branch2b <- conv_stage2_block0_branch2b
I0610 01:57:46.599684 14734 net.cpp:367] relu_stage2_block0_branch2b -> conv_stage2_block0_branch2b (in-place)
I0610 01:57:46.599699 14734 net.cpp:122] Setting up relu_stage2_block0_branch2b
I0610 01:57:46.599702 14734 net.cpp:129] Top shape: 7 128 14 14 (175616)
I0610 01:57:46.599704 14734 net.cpp:137] Memory required for data: 681390108
I0610 01:57:46.599706 14734 layer_factory.hpp:77] Creating layer conv_stage2_block0_branch2c
I0610 01:57:46.599716 14734 net.cpp:84] Creating Layer conv_stage2_block0_branch2c
I0610 01:57:46.599719 14734 net.cpp:406] conv_stage2_block0_branch2c <- conv_stage2_block0_branch2b
I0610 01:57:46.599723 14734 net.cpp:380] conv_stage2_block0_branch2c -> conv_stage2_block0_branch2c
I0610 01:57:46.600723 14734 net.cpp:122] Setting up conv_stage2_block0_branch2c
I0610 01:57:46.600734 14734 net.cpp:129] Top shape: 7 512 14 14 (702464)
I0610 01:57:46.600736 14734 net.cpp:137] Memory required for data: 684199964
I0610 01:57:46.600741 14734 layer_factory.hpp:77] Creating layer bn_stage2_block0_branch2c
I0610 01:57:46.600749 14734 net.cpp:84] Creating Layer bn_stage2_block0_branch2c
I0610 01:57:46.600751 14734 net.cpp:406] bn_stage2_block0_branch2c <- conv_stage2_block0_branch2c
I0610 01:57:46.600757 14734 net.cpp:367] bn_stage2_block0_branch2c -> conv_stage2_block0_branch2c (in-place)
I0610 01:57:46.600905 14734 net.cpp:122] Setting up bn_stage2_block0_branch2c
I0610 01:57:46.600910 14734 net.cpp:129] Top shape: 7 512 14 14 (702464)
I0610 01:57:46.600913 14734 net.cpp:137] Memory required for data: 687009820
I0610 01:57:46.600919 14734 layer_factory.hpp:77] Creating layer scale_stage2_block0_branch2c
I0610 01:57:46.600924 14734 net.cpp:84] Creating Layer scale_stage2_block0_branch2c
I0610 01:57:46.600927 14734 net.cpp:406] scale_stage2_block0_branch2c <- conv_stage2_block0_branch2c
I0610 01:57:46.600930 14734 net.cpp:367] scale_stage2_block0_branch2c -> conv_stage2_block0_branch2c (in-place)
I0610 01:57:46.600960 14734 layer_factory.hpp:77] Creating layer scale_stage2_block0_branch2c
I0610 01:57:46.601045 14734 net.cpp:122] Setting up scale_stage2_block0_branch2c
I0610 01:57:46.601050 14734 net.cpp:129] Top shape: 7 512 14 14 (702464)
I0610 01:57:46.601052 14734 net.cpp:137] Memory required for data: 689819676
I0610 01:57:46.601056 14734 layer_factory.hpp:77] Creating layer eltwise_stage2_block0
I0610 01:57:46.601071 14734 net.cpp:84] Creating Layer eltwise_stage2_block0
I0610 01:57:46.601074 14734 net.cpp:406] eltwise_stage2_block0 <- conv_stage2_block0_proj_shortcut
I0610 01:57:46.601078 14734 net.cpp:406] eltwise_stage2_block0 <- conv_stage2_block0_branch2c
I0610 01:57:46.601083 14734 net.cpp:380] eltwise_stage2_block0 -> eltwise_stage2_block0
I0610 01:57:46.601104 14734 net.cpp:122] Setting up eltwise_stage2_block0
I0610 01:57:46.601107 14734 net.cpp:129] Top shape: 7 512 14 14 (702464)
I0610 01:57:46.601109 14734 net.cpp:137] Memory required for data: 692629532
I0610 01:57:46.601112 14734 layer_factory.hpp:77] Creating layer relu_stage2_block0
I0610 01:57:46.601117 14734 net.cpp:84] Creating Layer relu_stage2_block0
I0610 01:57:46.601119 14734 net.cpp:406] relu_stage2_block0 <- eltwise_stage2_block0
I0610 01:57:46.601125 14734 net.cpp:367] relu_stage2_block0 -> eltwise_stage2_block0 (in-place)
I0610 01:57:46.601130 14734 net.cpp:122] Setting up relu_stage2_block0
I0610 01:57:46.601133 14734 net.cpp:129] Top shape: 7 512 14 14 (702464)
I0610 01:57:46.601135 14734 net.cpp:137] Memory required for data: 695439388
I0610 01:57:46.601137 14734 layer_factory.hpp:77] Creating layer eltwise_stage2_block0_relu_stage2_block0_0_split
I0610 01:57:46.601142 14734 net.cpp:84] Creating Layer eltwise_stage2_block0_relu_stage2_block0_0_split
I0610 01:57:46.601145 14734 net.cpp:406] eltwise_stage2_block0_relu_stage2_block0_0_split <- eltwise_stage2_block0
I0610 01:57:46.601148 14734 net.cpp:380] eltwise_stage2_block0_relu_stage2_block0_0_split -> eltwise_stage2_block0_relu_stage2_block0_0_split_0
I0610 01:57:46.601155 14734 net.cpp:380] eltwise_stage2_block0_relu_stage2_block0_0_split -> eltwise_stage2_block0_relu_stage2_block0_0_split_1
I0610 01:57:46.601564 14734 net.cpp:122] Setting up eltwise_stage2_block0_relu_stage2_block0_0_split
I0610 01:57:46.601570 14734 net.cpp:129] Top shape: 7 512 14 14 (702464)
I0610 01:57:46.601574 14734 net.cpp:129] Top shape: 7 512 14 14 (702464)
I0610 01:57:46.601577 14734 net.cpp:137] Memory required for data: 701059100
I0610 01:57:46.601579 14734 layer_factory.hpp:77] Creating layer conv_stage2_block1_branch2a
I0610 01:57:46.601620 14734 net.cpp:84] Creating Layer conv_stage2_block1_branch2a
I0610 01:57:46.601624 14734 net.cpp:406] conv_stage2_block1_branch2a <- eltwise_stage2_block0_relu_stage2_block0_0_split_0
I0610 01:57:46.601629 14734 net.cpp:380] conv_stage2_block1_branch2a -> conv_stage2_block1_branch2a
I0610 01:57:46.602133 14734 net.cpp:122] Setting up conv_stage2_block1_branch2a
I0610 01:57:46.602138 14734 net.cpp:129] Top shape: 7 128 14 14 (175616)
I0610 01:57:46.602141 14734 net.cpp:137] Memory required for data: 701761564
I0610 01:57:46.602146 14734 layer_factory.hpp:77] Creating layer bn_stage2_block1_branch2a
I0610 01:57:46.602154 14734 net.cpp:84] Creating Layer bn_stage2_block1_branch2a
I0610 01:57:46.602156 14734 net.cpp:406] bn_stage2_block1_branch2a <- conv_stage2_block1_branch2a
I0610 01:57:46.602160 14734 net.cpp:367] bn_stage2_block1_branch2a -> conv_stage2_block1_branch2a (in-place)
I0610 01:57:46.602316 14734 net.cpp:122] Setting up bn_stage2_block1_branch2a
I0610 01:57:46.602322 14734 net.cpp:129] Top shape: 7 128 14 14 (175616)
I0610 01:57:46.602325 14734 net.cpp:137] Memory required for data: 702464028
I0610 01:57:46.602330 14734 layer_factory.hpp:77] Creating layer scale_stage2_block1_branch2a
I0610 01:57:46.602335 14734 net.cpp:84] Creating Layer scale_stage2_block1_branch2a
I0610 01:57:46.602339 14734 net.cpp:406] scale_stage2_block1_branch2a <- conv_stage2_block1_branch2a
I0610 01:57:46.602344 14734 net.cpp:367] scale_stage2_block1_branch2a -> conv_stage2_block1_branch2a (in-place)
I0610 01:57:46.602373 14734 layer_factory.hpp:77] Creating layer scale_stage2_block1_branch2a
I0610 01:57:46.602457 14734 net.cpp:122] Setting up scale_stage2_block1_branch2a
I0610 01:57:46.602460 14734 net.cpp:129] Top shape: 7 128 14 14 (175616)
I0610 01:57:46.602463 14734 net.cpp:137] Memory required for data: 703166492
I0610 01:57:46.602468 14734 layer_factory.hpp:77] Creating layer relu_stage2_block1_branch2a
I0610 01:57:46.602471 14734 net.cpp:84] Creating Layer relu_stage2_block1_branch2a
I0610 01:57:46.602474 14734 net.cpp:406] relu_stage2_block1_branch2a <- conv_stage2_block1_branch2a
I0610 01:57:46.602478 14734 net.cpp:367] relu_stage2_block1_branch2a -> conv_stage2_block1_branch2a (in-place)
I0610 01:57:46.602483 14734 net.cpp:122] Setting up relu_stage2_block1_branch2a
I0610 01:57:46.602488 14734 net.cpp:129] Top shape: 7 128 14 14 (175616)
I0610 01:57:46.602489 14734 net.cpp:137] Memory required for data: 703868956
I0610 01:57:46.602491 14734 layer_factory.hpp:77] Creating layer conv_stage2_block1_branch2b
I0610 01:57:46.602499 14734 net.cpp:84] Creating Layer conv_stage2_block1_branch2b
I0610 01:57:46.602502 14734 net.cpp:406] conv_stage2_block1_branch2b <- conv_stage2_block1_branch2a
I0610 01:57:46.602506 14734 net.cpp:380] conv_stage2_block1_branch2b -> conv_stage2_block1_branch2b
I0610 01:57:46.603865 14734 net.cpp:122] Setting up conv_stage2_block1_branch2b
I0610 01:57:46.603875 14734 net.cpp:129] Top shape: 7 128 14 14 (175616)
I0610 01:57:46.603878 14734 net.cpp:137] Memory required for data: 704571420
I0610 01:57:46.603883 14734 layer_factory.hpp:77] Creating layer bn_stage2_block1_branch2b
I0610 01:57:46.603890 14734 net.cpp:84] Creating Layer bn_stage2_block1_branch2b
I0610 01:57:46.603893 14734 net.cpp:406] bn_stage2_block1_branch2b <- conv_stage2_block1_branch2b
I0610 01:57:46.603899 14734 net.cpp:367] bn_stage2_block1_branch2b -> conv_stage2_block1_branch2b (in-place)
I0610 01:57:46.604045 14734 net.cpp:122] Setting up bn_stage2_block1_branch2b
I0610 01:57:46.604049 14734 net.cpp:129] Top shape: 7 128 14 14 (175616)
I0610 01:57:46.604053 14734 net.cpp:137] Memory required for data: 705273884
I0610 01:57:46.604068 14734 layer_factory.hpp:77] Creating layer scale_stage2_block1_branch2b
I0610 01:57:46.604074 14734 net.cpp:84] Creating Layer scale_stage2_block1_branch2b
I0610 01:57:46.604076 14734 net.cpp:406] scale_stage2_block1_branch2b <- conv_stage2_block1_branch2b
I0610 01:57:46.604081 14734 net.cpp:367] scale_stage2_block1_branch2b -> conv_stage2_block1_branch2b (in-place)
I0610 01:57:46.604115 14734 layer_factory.hpp:77] Creating layer scale_stage2_block1_branch2b
I0610 01:57:46.604198 14734 net.cpp:122] Setting up scale_stage2_block1_branch2b
I0610 01:57:46.604203 14734 net.cpp:129] Top shape: 7 128 14 14 (175616)
I0610 01:57:46.604205 14734 net.cpp:137] Memory required for data: 705976348
I0610 01:57:46.604210 14734 layer_factory.hpp:77] Creating layer relu_stage2_block1_branch2b
I0610 01:57:46.604214 14734 net.cpp:84] Creating Layer relu_stage2_block1_branch2b
I0610 01:57:46.604218 14734 net.cpp:406] relu_stage2_block1_branch2b <- conv_stage2_block1_branch2b
I0610 01:57:46.604223 14734 net.cpp:367] relu_stage2_block1_branch2b -> conv_stage2_block1_branch2b (in-place)
I0610 01:57:46.604226 14734 net.cpp:122] Setting up relu_stage2_block1_branch2b
I0610 01:57:46.604230 14734 net.cpp:129] Top shape: 7 128 14 14 (175616)
I0610 01:57:46.604233 14734 net.cpp:137] Memory required for data: 706678812
I0610 01:57:46.604234 14734 layer_factory.hpp:77] Creating layer conv_stage2_block1_branch2c
I0610 01:57:46.604243 14734 net.cpp:84] Creating Layer conv_stage2_block1_branch2c
I0610 01:57:46.604245 14734 net.cpp:406] conv_stage2_block1_branch2c <- conv_stage2_block1_branch2b
I0610 01:57:46.604250 14734 net.cpp:380] conv_stage2_block1_branch2c -> conv_stage2_block1_branch2c
I0610 01:57:46.604753 14734 net.cpp:122] Setting up conv_stage2_block1_branch2c
I0610 01:57:46.604758 14734 net.cpp:129] Top shape: 7 512 14 14 (702464)
I0610 01:57:46.604761 14734 net.cpp:137] Memory required for data: 709488668
I0610 01:57:46.604765 14734 layer_factory.hpp:77] Creating layer bn_stage2_block1_branch2c
I0610 01:57:46.604770 14734 net.cpp:84] Creating Layer bn_stage2_block1_branch2c
I0610 01:57:46.604773 14734 net.cpp:406] bn_stage2_block1_branch2c <- conv_stage2_block1_branch2c
I0610 01:57:46.604779 14734 net.cpp:367] bn_stage2_block1_branch2c -> conv_stage2_block1_branch2c (in-place)
I0610 01:57:46.604924 14734 net.cpp:122] Setting up bn_stage2_block1_branch2c
I0610 01:57:46.604928 14734 net.cpp:129] Top shape: 7 512 14 14 (702464)
I0610 01:57:46.604931 14734 net.cpp:137] Memory required for data: 712298524
I0610 01:57:46.604936 14734 layer_factory.hpp:77] Creating layer scale_stage2_block1_branch2c
I0610 01:57:46.604940 14734 net.cpp:84] Creating Layer scale_stage2_block1_branch2c
I0610 01:57:46.604943 14734 net.cpp:406] scale_stage2_block1_branch2c <- conv_stage2_block1_branch2c
I0610 01:57:46.604948 14734 net.cpp:367] scale_stage2_block1_branch2c -> conv_stage2_block1_branch2c (in-place)
I0610 01:57:46.604974 14734 layer_factory.hpp:77] Creating layer scale_stage2_block1_branch2c
I0610 01:57:46.605059 14734 net.cpp:122] Setting up scale_stage2_block1_branch2c
I0610 01:57:46.605063 14734 net.cpp:129] Top shape: 7 512 14 14 (702464)
I0610 01:57:46.605067 14734 net.cpp:137] Memory required for data: 715108380
I0610 01:57:46.605070 14734 layer_factory.hpp:77] Creating layer eltwise_stage2_block1
I0610 01:57:46.605077 14734 net.cpp:84] Creating Layer eltwise_stage2_block1
I0610 01:57:46.605079 14734 net.cpp:406] eltwise_stage2_block1 <- eltwise_stage2_block0_relu_stage2_block0_0_split_1
I0610 01:57:46.605083 14734 net.cpp:406] eltwise_stage2_block1 <- conv_stage2_block1_branch2c
I0610 01:57:46.605087 14734 net.cpp:380] eltwise_stage2_block1 -> eltwise_stage2_block1
I0610 01:57:46.605106 14734 net.cpp:122] Setting up eltwise_stage2_block1
I0610 01:57:46.605111 14734 net.cpp:129] Top shape: 7 512 14 14 (702464)
I0610 01:57:46.605113 14734 net.cpp:137] Memory required for data: 717918236
I0610 01:57:46.605115 14734 layer_factory.hpp:77] Creating layer relu_stage2_block1
I0610 01:57:46.605120 14734 net.cpp:84] Creating Layer relu_stage2_block1
I0610 01:57:46.605129 14734 net.cpp:406] relu_stage2_block1 <- eltwise_stage2_block1
I0610 01:57:46.605134 14734 net.cpp:367] relu_stage2_block1 -> eltwise_stage2_block1 (in-place)
I0610 01:57:46.605139 14734 net.cpp:122] Setting up relu_stage2_block1
I0610 01:57:46.605142 14734 net.cpp:129] Top shape: 7 512 14 14 (702464)
I0610 01:57:46.605145 14734 net.cpp:137] Memory required for data: 720728092
I0610 01:57:46.605147 14734 layer_factory.hpp:77] Creating layer eltwise_stage2_block1_relu_stage2_block1_0_split
I0610 01:57:46.605151 14734 net.cpp:84] Creating Layer eltwise_stage2_block1_relu_stage2_block1_0_split
I0610 01:57:46.605154 14734 net.cpp:406] eltwise_stage2_block1_relu_stage2_block1_0_split <- eltwise_stage2_block1
I0610 01:57:46.605159 14734 net.cpp:380] eltwise_stage2_block1_relu_stage2_block1_0_split -> eltwise_stage2_block1_relu_stage2_block1_0_split_0
I0610 01:57:46.605165 14734 net.cpp:380] eltwise_stage2_block1_relu_stage2_block1_0_split -> eltwise_stage2_block1_relu_stage2_block1_0_split_1
I0610 01:57:46.605193 14734 net.cpp:122] Setting up eltwise_stage2_block1_relu_stage2_block1_0_split
I0610 01:57:46.605197 14734 net.cpp:129] Top shape: 7 512 14 14 (702464)
I0610 01:57:46.605201 14734 net.cpp:129] Top shape: 7 512 14 14 (702464)
I0610 01:57:46.605203 14734 net.cpp:137] Memory required for data: 726347804
I0610 01:57:46.605206 14734 layer_factory.hpp:77] Creating layer conv_stage2_block2_branch2a
I0610 01:57:46.605212 14734 net.cpp:84] Creating Layer conv_stage2_block2_branch2a
I0610 01:57:46.605216 14734 net.cpp:406] conv_stage2_block2_branch2a <- eltwise_stage2_block1_relu_stage2_block1_0_split_0
I0610 01:57:46.605221 14734 net.cpp:380] conv_stage2_block2_branch2a -> conv_stage2_block2_branch2a
I0610 01:57:46.605722 14734 net.cpp:122] Setting up conv_stage2_block2_branch2a
I0610 01:57:46.605729 14734 net.cpp:129] Top shape: 7 128 14 14 (175616)
I0610 01:57:46.605731 14734 net.cpp:137] Memory required for data: 727050268
I0610 01:57:46.605736 14734 layer_factory.hpp:77] Creating layer bn_stage2_block2_branch2a
I0610 01:57:46.605742 14734 net.cpp:84] Creating Layer bn_stage2_block2_branch2a
I0610 01:57:46.605746 14734 net.cpp:406] bn_stage2_block2_branch2a <- conv_stage2_block2_branch2a
I0610 01:57:46.605749 14734 net.cpp:367] bn_stage2_block2_branch2a -> conv_stage2_block2_branch2a (in-place)
I0610 01:57:46.605897 14734 net.cpp:122] Setting up bn_stage2_block2_branch2a
I0610 01:57:46.605902 14734 net.cpp:129] Top shape: 7 128 14 14 (175616)
I0610 01:57:46.605904 14734 net.cpp:137] Memory required for data: 727752732
I0610 01:57:46.605911 14734 layer_factory.hpp:77] Creating layer scale_stage2_block2_branch2a
I0610 01:57:46.605914 14734 net.cpp:84] Creating Layer scale_stage2_block2_branch2a
I0610 01:57:46.605917 14734 net.cpp:406] scale_stage2_block2_branch2a <- conv_stage2_block2_branch2a
I0610 01:57:46.605921 14734 net.cpp:367] scale_stage2_block2_branch2a -> conv_stage2_block2_branch2a (in-place)
I0610 01:57:46.605953 14734 layer_factory.hpp:77] Creating layer scale_stage2_block2_branch2a
I0610 01:57:46.606034 14734 net.cpp:122] Setting up scale_stage2_block2_branch2a
I0610 01:57:46.606040 14734 net.cpp:129] Top shape: 7 128 14 14 (175616)
I0610 01:57:46.606041 14734 net.cpp:137] Memory required for data: 728455196
I0610 01:57:46.606045 14734 layer_factory.hpp:77] Creating layer relu_stage2_block2_branch2a
I0610 01:57:46.606050 14734 net.cpp:84] Creating Layer relu_stage2_block2_branch2a
I0610 01:57:46.606052 14734 net.cpp:406] relu_stage2_block2_branch2a <- conv_stage2_block2_branch2a
I0610 01:57:46.606057 14734 net.cpp:367] relu_stage2_block2_branch2a -> conv_stage2_block2_branch2a (in-place)
I0610 01:57:46.606062 14734 net.cpp:122] Setting up relu_stage2_block2_branch2a
I0610 01:57:46.606065 14734 net.cpp:129] Top shape: 7 128 14 14 (175616)
I0610 01:57:46.606067 14734 net.cpp:137] Memory required for data: 729157660
I0610 01:57:46.606070 14734 layer_factory.hpp:77] Creating layer conv_stage2_block2_branch2b
I0610 01:57:46.606078 14734 net.cpp:84] Creating Layer conv_stage2_block2_branch2b
I0610 01:57:46.606088 14734 net.cpp:406] conv_stage2_block2_branch2b <- conv_stage2_block2_branch2a
I0610 01:57:46.606094 14734 net.cpp:380] conv_stage2_block2_branch2b -> conv_stage2_block2_branch2b
I0610 01:57:46.607491 14734 net.cpp:122] Setting up conv_stage2_block2_branch2b
I0610 01:57:46.607506 14734 net.cpp:129] Top shape: 7 128 14 14 (175616)
I0610 01:57:46.607508 14734 net.cpp:137] Memory required for data: 729860124
I0610 01:57:46.607513 14734 layer_factory.hpp:77] Creating layer bn_stage2_block2_branch2b
I0610 01:57:46.607519 14734 net.cpp:84] Creating Layer bn_stage2_block2_branch2b
I0610 01:57:46.607522 14734 net.cpp:406] bn_stage2_block2_branch2b <- conv_stage2_block2_branch2b
I0610 01:57:46.607527 14734 net.cpp:367] bn_stage2_block2_branch2b -> conv_stage2_block2_branch2b (in-place)
I0610 01:57:46.607677 14734 net.cpp:122] Setting up bn_stage2_block2_branch2b
I0610 01:57:46.607682 14734 net.cpp:129] Top shape: 7 128 14 14 (175616)
I0610 01:57:46.607684 14734 net.cpp:137] Memory required for data: 730562588
I0610 01:57:46.607689 14734 layer_factory.hpp:77] Creating layer scale_stage2_block2_branch2b
I0610 01:57:46.607694 14734 net.cpp:84] Creating Layer scale_stage2_block2_branch2b
I0610 01:57:46.607697 14734 net.cpp:406] scale_stage2_block2_branch2b <- conv_stage2_block2_branch2b
I0610 01:57:46.607700 14734 net.cpp:367] scale_stage2_block2_branch2b -> conv_stage2_block2_branch2b (in-place)
I0610 01:57:46.607731 14734 layer_factory.hpp:77] Creating layer scale_stage2_block2_branch2b
I0610 01:57:46.607812 14734 net.cpp:122] Setting up scale_stage2_block2_branch2b
I0610 01:57:46.607817 14734 net.cpp:129] Top shape: 7 128 14 14 (175616)
I0610 01:57:46.607820 14734 net.cpp:137] Memory required for data: 731265052
I0610 01:57:46.607825 14734 layer_factory.hpp:77] Creating layer relu_stage2_block2_branch2b
I0610 01:57:46.607828 14734 net.cpp:84] Creating Layer relu_stage2_block2_branch2b
I0610 01:57:46.607831 14734 net.cpp:406] relu_stage2_block2_branch2b <- conv_stage2_block2_branch2b
I0610 01:57:46.607836 14734 net.cpp:367] relu_stage2_block2_branch2b -> conv_stage2_block2_branch2b (in-place)
I0610 01:57:46.607841 14734 net.cpp:122] Setting up relu_stage2_block2_branch2b
I0610 01:57:46.607844 14734 net.cpp:129] Top shape: 7 128 14 14 (175616)
I0610 01:57:46.607846 14734 net.cpp:137] Memory required for data: 731967516
I0610 01:57:46.607848 14734 layer_factory.hpp:77] Creating layer conv_stage2_block2_branch2c
I0610 01:57:46.607857 14734 net.cpp:84] Creating Layer conv_stage2_block2_branch2c
I0610 01:57:46.607861 14734 net.cpp:406] conv_stage2_block2_branch2c <- conv_stage2_block2_branch2b
I0610 01:57:46.607864 14734 net.cpp:380] conv_stage2_block2_branch2c -> conv_stage2_block2_branch2c
I0610 01:57:46.608795 14734 net.cpp:122] Setting up conv_stage2_block2_branch2c
I0610 01:57:46.608805 14734 net.cpp:129] Top shape: 7 512 14 14 (702464)
I0610 01:57:46.608808 14734 net.cpp:137] Memory required for data: 734777372
I0610 01:57:46.608813 14734 layer_factory.hpp:77] Creating layer bn_stage2_block2_branch2c
I0610 01:57:46.608819 14734 net.cpp:84] Creating Layer bn_stage2_block2_branch2c
I0610 01:57:46.608821 14734 net.cpp:406] bn_stage2_block2_branch2c <- conv_stage2_block2_branch2c
I0610 01:57:46.608827 14734 net.cpp:367] bn_stage2_block2_branch2c -> conv_stage2_block2_branch2c (in-place)
I0610 01:57:46.608976 14734 net.cpp:122] Setting up bn_stage2_block2_branch2c
I0610 01:57:46.608981 14734 net.cpp:129] Top shape: 7 512 14 14 (702464)
I0610 01:57:46.608983 14734 net.cpp:137] Memory required for data: 737587228
I0610 01:57:46.608989 14734 layer_factory.hpp:77] Creating layer scale_stage2_block2_branch2c
I0610 01:57:46.608994 14734 net.cpp:84] Creating Layer scale_stage2_block2_branch2c
I0610 01:57:46.608996 14734 net.cpp:406] scale_stage2_block2_branch2c <- conv_stage2_block2_branch2c
I0610 01:57:46.608999 14734 net.cpp:367] scale_stage2_block2_branch2c -> conv_stage2_block2_branch2c (in-place)
I0610 01:57:46.609033 14734 layer_factory.hpp:77] Creating layer scale_stage2_block2_branch2c
I0610 01:57:46.609120 14734 net.cpp:122] Setting up scale_stage2_block2_branch2c
I0610 01:57:46.609135 14734 net.cpp:129] Top shape: 7 512 14 14 (702464)
I0610 01:57:46.609138 14734 net.cpp:137] Memory required for data: 740397084
I0610 01:57:46.609143 14734 layer_factory.hpp:77] Creating layer eltwise_stage2_block2
I0610 01:57:46.609149 14734 net.cpp:84] Creating Layer eltwise_stage2_block2
I0610 01:57:46.609153 14734 net.cpp:406] eltwise_stage2_block2 <- eltwise_stage2_block1_relu_stage2_block1_0_split_1
I0610 01:57:46.609156 14734 net.cpp:406] eltwise_stage2_block2 <- conv_stage2_block2_branch2c
I0610 01:57:46.609160 14734 net.cpp:380] eltwise_stage2_block2 -> eltwise_stage2_block2
I0610 01:57:46.609180 14734 net.cpp:122] Setting up eltwise_stage2_block2
I0610 01:57:46.609185 14734 net.cpp:129] Top shape: 7 512 14 14 (702464)
I0610 01:57:46.609187 14734 net.cpp:137] Memory required for data: 743206940
I0610 01:57:46.609190 14734 layer_factory.hpp:77] Creating layer relu_stage2_block2
I0610 01:57:46.609194 14734 net.cpp:84] Creating Layer relu_stage2_block2
I0610 01:57:46.609197 14734 net.cpp:406] relu_stage2_block2 <- eltwise_stage2_block2
I0610 01:57:46.609201 14734 net.cpp:367] relu_stage2_block2 -> eltwise_stage2_block2 (in-place)
I0610 01:57:46.609206 14734 net.cpp:122] Setting up relu_stage2_block2
I0610 01:57:46.609210 14734 net.cpp:129] Top shape: 7 512 14 14 (702464)
I0610 01:57:46.609212 14734 net.cpp:137] Memory required for data: 746016796
I0610 01:57:46.609215 14734 layer_factory.hpp:77] Creating layer eltwise_stage2_block2_relu_stage2_block2_0_split
I0610 01:57:46.609218 14734 net.cpp:84] Creating Layer eltwise_stage2_block2_relu_stage2_block2_0_split
I0610 01:57:46.609221 14734 net.cpp:406] eltwise_stage2_block2_relu_stage2_block2_0_split <- eltwise_stage2_block2
I0610 01:57:46.609226 14734 net.cpp:380] eltwise_stage2_block2_relu_stage2_block2_0_split -> eltwise_stage2_block2_relu_stage2_block2_0_split_0
I0610 01:57:46.609232 14734 net.cpp:380] eltwise_stage2_block2_relu_stage2_block2_0_split -> eltwise_stage2_block2_relu_stage2_block2_0_split_1
I0610 01:57:46.609259 14734 net.cpp:122] Setting up eltwise_stage2_block2_relu_stage2_block2_0_split
I0610 01:57:46.609263 14734 net.cpp:129] Top shape: 7 512 14 14 (702464)
I0610 01:57:46.609267 14734 net.cpp:129] Top shape: 7 512 14 14 (702464)
I0610 01:57:46.609269 14734 net.cpp:137] Memory required for data: 751636508
I0610 01:57:46.609272 14734 layer_factory.hpp:77] Creating layer conv_stage2_block3_branch2a
I0610 01:57:46.609278 14734 net.cpp:84] Creating Layer conv_stage2_block3_branch2a
I0610 01:57:46.609282 14734 net.cpp:406] conv_stage2_block3_branch2a <- eltwise_stage2_block2_relu_stage2_block2_0_split_0
I0610 01:57:46.609288 14734 net.cpp:380] conv_stage2_block3_branch2a -> conv_stage2_block3_branch2a
I0610 01:57:46.622722 14734 net.cpp:122] Setting up conv_stage2_block3_branch2a
I0610 01:57:46.622737 14734 net.cpp:129] Top shape: 7 128 14 14 (175616)
I0610 01:57:46.622740 14734 net.cpp:137] Memory required for data: 752338972
I0610 01:57:46.622748 14734 layer_factory.hpp:77] Creating layer bn_stage2_block3_branch2a
I0610 01:57:46.622756 14734 net.cpp:84] Creating Layer bn_stage2_block3_branch2a
I0610 01:57:46.622761 14734 net.cpp:406] bn_stage2_block3_branch2a <- conv_stage2_block3_branch2a
I0610 01:57:46.622769 14734 net.cpp:367] bn_stage2_block3_branch2a -> conv_stage2_block3_branch2a (in-place)
I0610 01:57:46.622959 14734 net.cpp:122] Setting up bn_stage2_block3_branch2a
I0610 01:57:46.622965 14734 net.cpp:129] Top shape: 7 128 14 14 (175616)
I0610 01:57:46.622968 14734 net.cpp:137] Memory required for data: 753041436
I0610 01:57:46.622975 14734 layer_factory.hpp:77] Creating layer scale_stage2_block3_branch2a
I0610 01:57:46.622982 14734 net.cpp:84] Creating Layer scale_stage2_block3_branch2a
I0610 01:57:46.622984 14734 net.cpp:406] scale_stage2_block3_branch2a <- conv_stage2_block3_branch2a
I0610 01:57:46.622989 14734 net.cpp:367] scale_stage2_block3_branch2a -> conv_stage2_block3_branch2a (in-place)
I0610 01:57:46.623031 14734 layer_factory.hpp:77] Creating layer scale_stage2_block3_branch2a
I0610 01:57:46.623160 14734 net.cpp:122] Setting up scale_stage2_block3_branch2a
I0610 01:57:46.623167 14734 net.cpp:129] Top shape: 7 128 14 14 (175616)
I0610 01:57:46.623168 14734 net.cpp:137] Memory required for data: 753743900
I0610 01:57:46.623173 14734 layer_factory.hpp:77] Creating layer relu_stage2_block3_branch2a
I0610 01:57:46.623179 14734 net.cpp:84] Creating Layer relu_stage2_block3_branch2a
I0610 01:57:46.623183 14734 net.cpp:406] relu_stage2_block3_branch2a <- conv_stage2_block3_branch2a
I0610 01:57:46.623186 14734 net.cpp:367] relu_stage2_block3_branch2a -> conv_stage2_block3_branch2a (in-place)
I0610 01:57:46.623191 14734 net.cpp:122] Setting up relu_stage2_block3_branch2a
I0610 01:57:46.623194 14734 net.cpp:129] Top shape: 7 128 14 14 (175616)
I0610 01:57:46.623198 14734 net.cpp:137] Memory required for data: 754446364
I0610 01:57:46.623199 14734 layer_factory.hpp:77] Creating layer conv_stage2_block3_branch2b
I0610 01:57:46.623209 14734 net.cpp:84] Creating Layer conv_stage2_block3_branch2b
I0610 01:57:46.623211 14734 net.cpp:406] conv_stage2_block3_branch2b <- conv_stage2_block3_branch2a
I0610 01:57:46.623219 14734 net.cpp:380] conv_stage2_block3_branch2b -> conv_stage2_block3_branch2b
I0610 01:57:46.624632 14734 net.cpp:122] Setting up conv_stage2_block3_branch2b
I0610 01:57:46.624642 14734 net.cpp:129] Top shape: 7 128 14 14 (175616)
I0610 01:57:46.624644 14734 net.cpp:137] Memory required for data: 755148828
I0610 01:57:46.624650 14734 layer_factory.hpp:77] Creating layer bn_stage2_block3_branch2b
I0610 01:57:46.624657 14734 net.cpp:84] Creating Layer bn_stage2_block3_branch2b
I0610 01:57:46.624661 14734 net.cpp:406] bn_stage2_block3_branch2b <- conv_stage2_block3_branch2b
I0610 01:57:46.624665 14734 net.cpp:367] bn_stage2_block3_branch2b -> conv_stage2_block3_branch2b (in-place)
I0610 01:57:46.624817 14734 net.cpp:122] Setting up bn_stage2_block3_branch2b
I0610 01:57:46.624821 14734 net.cpp:129] Top shape: 7 128 14 14 (175616)
I0610 01:57:46.624825 14734 net.cpp:137] Memory required for data: 755851292
I0610 01:57:46.624830 14734 layer_factory.hpp:77] Creating layer scale_stage2_block3_branch2b
I0610 01:57:46.624835 14734 net.cpp:84] Creating Layer scale_stage2_block3_branch2b
I0610 01:57:46.624837 14734 net.cpp:406] scale_stage2_block3_branch2b <- conv_stage2_block3_branch2b
I0610 01:57:46.624842 14734 net.cpp:367] scale_stage2_block3_branch2b -> conv_stage2_block3_branch2b (in-place)
I0610 01:57:46.624873 14734 layer_factory.hpp:77] Creating layer scale_stage2_block3_branch2b
I0610 01:57:46.624956 14734 net.cpp:122] Setting up scale_stage2_block3_branch2b
I0610 01:57:46.624961 14734 net.cpp:129] Top shape: 7 128 14 14 (175616)
I0610 01:57:46.624963 14734 net.cpp:137] Memory required for data: 756553756
I0610 01:57:46.624969 14734 layer_factory.hpp:77] Creating layer relu_stage2_block3_branch2b
I0610 01:57:46.624972 14734 net.cpp:84] Creating Layer relu_stage2_block3_branch2b
I0610 01:57:46.624975 14734 net.cpp:406] relu_stage2_block3_branch2b <- conv_stage2_block3_branch2b
I0610 01:57:46.624979 14734 net.cpp:367] relu_stage2_block3_branch2b -> conv_stage2_block3_branch2b (in-place)
I0610 01:57:46.624985 14734 net.cpp:122] Setting up relu_stage2_block3_branch2b
I0610 01:57:46.624989 14734 net.cpp:129] Top shape: 7 128 14 14 (175616)
I0610 01:57:46.624990 14734 net.cpp:137] Memory required for data: 757256220
I0610 01:57:46.624994 14734 layer_factory.hpp:77] Creating layer conv_stage2_block3_branch2c
I0610 01:57:46.625001 14734 net.cpp:84] Creating Layer conv_stage2_block3_branch2c
I0610 01:57:46.625003 14734 net.cpp:406] conv_stage2_block3_branch2c <- conv_stage2_block3_branch2b
I0610 01:57:46.625008 14734 net.cpp:380] conv_stage2_block3_branch2c -> conv_stage2_block3_branch2c
I0610 01:57:46.625510 14734 net.cpp:122] Setting up conv_stage2_block3_branch2c
I0610 01:57:46.625515 14734 net.cpp:129] Top shape: 7 512 14 14 (702464)
I0610 01:57:46.625519 14734 net.cpp:137] Memory required for data: 760066076
I0610 01:57:46.625522 14734 layer_factory.hpp:77] Creating layer bn_stage2_block3_branch2c
I0610 01:57:46.625540 14734 net.cpp:84] Creating Layer bn_stage2_block3_branch2c
I0610 01:57:46.625543 14734 net.cpp:406] bn_stage2_block3_branch2c <- conv_stage2_block3_branch2c
I0610 01:57:46.625547 14734 net.cpp:367] bn_stage2_block3_branch2c -> conv_stage2_block3_branch2c (in-place)
I0610 01:57:46.625705 14734 net.cpp:122] Setting up bn_stage2_block3_branch2c
I0610 01:57:46.625710 14734 net.cpp:129] Top shape: 7 512 14 14 (702464)
I0610 01:57:46.625712 14734 net.cpp:137] Memory required for data: 762875932
I0610 01:57:46.625738 14734 layer_factory.hpp:77] Creating layer scale_stage2_block3_branch2c
I0610 01:57:46.625743 14734 net.cpp:84] Creating Layer scale_stage2_block3_branch2c
I0610 01:57:46.625746 14734 net.cpp:406] scale_stage2_block3_branch2c <- conv_stage2_block3_branch2c
I0610 01:57:46.625751 14734 net.cpp:367] scale_stage2_block3_branch2c -> conv_stage2_block3_branch2c (in-place)
I0610 01:57:46.625780 14734 layer_factory.hpp:77] Creating layer scale_stage2_block3_branch2c
I0610 01:57:46.625869 14734 net.cpp:122] Setting up scale_stage2_block3_branch2c
I0610 01:57:46.625875 14734 net.cpp:129] Top shape: 7 512 14 14 (702464)
I0610 01:57:46.625880 14734 net.cpp:137] Memory required for data: 765685788
I0610 01:57:46.625885 14734 layer_factory.hpp:77] Creating layer eltwise_stage2_block3
I0610 01:57:46.625890 14734 net.cpp:84] Creating Layer eltwise_stage2_block3
I0610 01:57:46.625893 14734 net.cpp:406] eltwise_stage2_block3 <- eltwise_stage2_block2_relu_stage2_block2_0_split_1
I0610 01:57:46.625897 14734 net.cpp:406] eltwise_stage2_block3 <- conv_stage2_block3_branch2c
I0610 01:57:46.625902 14734 net.cpp:380] eltwise_stage2_block3 -> eltwise_stage2_block3
I0610 01:57:46.625924 14734 net.cpp:122] Setting up eltwise_stage2_block3
I0610 01:57:46.625929 14734 net.cpp:129] Top shape: 7 512 14 14 (702464)
I0610 01:57:46.625931 14734 net.cpp:137] Memory required for data: 768495644
I0610 01:57:46.625933 14734 layer_factory.hpp:77] Creating layer relu_stage2_block3
I0610 01:57:46.625938 14734 net.cpp:84] Creating Layer relu_stage2_block3
I0610 01:57:46.625941 14734 net.cpp:406] relu_stage2_block3 <- eltwise_stage2_block3
I0610 01:57:46.625946 14734 net.cpp:367] relu_stage2_block3 -> eltwise_stage2_block3 (in-place)
I0610 01:57:46.625950 14734 net.cpp:122] Setting up relu_stage2_block3
I0610 01:57:46.625953 14734 net.cpp:129] Top shape: 7 512 14 14 (702464)
I0610 01:57:46.625955 14734 net.cpp:137] Memory required for data: 771305500
I0610 01:57:46.625958 14734 layer_factory.hpp:77] Creating layer eltwise_stage2_block3_relu_stage2_block3_0_split
I0610 01:57:46.625962 14734 net.cpp:84] Creating Layer eltwise_stage2_block3_relu_stage2_block3_0_split
I0610 01:57:46.625965 14734 net.cpp:406] eltwise_stage2_block3_relu_stage2_block3_0_split <- eltwise_stage2_block3
I0610 01:57:46.625969 14734 net.cpp:380] eltwise_stage2_block3_relu_stage2_block3_0_split -> eltwise_stage2_block3_relu_stage2_block3_0_split_0
I0610 01:57:46.625975 14734 net.cpp:380] eltwise_stage2_block3_relu_stage2_block3_0_split -> eltwise_stage2_block3_relu_stage2_block3_0_split_1
I0610 01:57:46.626003 14734 net.cpp:122] Setting up eltwise_stage2_block3_relu_stage2_block3_0_split
I0610 01:57:46.626008 14734 net.cpp:129] Top shape: 7 512 14 14 (702464)
I0610 01:57:46.626011 14734 net.cpp:129] Top shape: 7 512 14 14 (702464)
I0610 01:57:46.626013 14734 net.cpp:137] Memory required for data: 776925212
I0610 01:57:46.626015 14734 layer_factory.hpp:77] Creating layer conv_stage2_block4_branch2a
I0610 01:57:46.626024 14734 net.cpp:84] Creating Layer conv_stage2_block4_branch2a
I0610 01:57:46.626026 14734 net.cpp:406] conv_stage2_block4_branch2a <- eltwise_stage2_block3_relu_stage2_block3_0_split_0
I0610 01:57:46.626032 14734 net.cpp:380] conv_stage2_block4_branch2a -> conv_stage2_block4_branch2a
I0610 01:57:46.626654 14734 net.cpp:122] Setting up conv_stage2_block4_branch2a
I0610 01:57:46.626664 14734 net.cpp:129] Top shape: 7 128 14 14 (175616)
I0610 01:57:46.626667 14734 net.cpp:137] Memory required for data: 777627676
I0610 01:57:46.626673 14734 layer_factory.hpp:77] Creating layer bn_stage2_block4_branch2a
I0610 01:57:46.626693 14734 net.cpp:84] Creating Layer bn_stage2_block4_branch2a
I0610 01:57:46.626698 14734 net.cpp:406] bn_stage2_block4_branch2a <- conv_stage2_block4_branch2a
I0610 01:57:46.626704 14734 net.cpp:367] bn_stage2_block4_branch2a -> conv_stage2_block4_branch2a (in-place)
I0610 01:57:46.626906 14734 net.cpp:122] Setting up bn_stage2_block4_branch2a
I0610 01:57:46.626914 14734 net.cpp:129] Top shape: 7 128 14 14 (175616)
I0610 01:57:46.626916 14734 net.cpp:137] Memory required for data: 778330140
I0610 01:57:46.626924 14734 layer_factory.hpp:77] Creating layer scale_stage2_block4_branch2a
I0610 01:57:46.626931 14734 net.cpp:84] Creating Layer scale_stage2_block4_branch2a
I0610 01:57:46.626935 14734 net.cpp:406] scale_stage2_block4_branch2a <- conv_stage2_block4_branch2a
I0610 01:57:46.626940 14734 net.cpp:367] scale_stage2_block4_branch2a -> conv_stage2_block4_branch2a (in-place)
I0610 01:57:46.626981 14734 layer_factory.hpp:77] Creating layer scale_stage2_block4_branch2a
I0610 01:57:46.627097 14734 net.cpp:122] Setting up scale_stage2_block4_branch2a
I0610 01:57:46.627104 14734 net.cpp:129] Top shape: 7 128 14 14 (175616)
I0610 01:57:46.627107 14734 net.cpp:137] Memory required for data: 779032604
I0610 01:57:46.627113 14734 layer_factory.hpp:77] Creating layer relu_stage2_block4_branch2a
I0610 01:57:46.627125 14734 net.cpp:84] Creating Layer relu_stage2_block4_branch2a
I0610 01:57:46.627128 14734 net.cpp:406] relu_stage2_block4_branch2a <- conv_stage2_block4_branch2a
I0610 01:57:46.627135 14734 net.cpp:367] relu_stage2_block4_branch2a -> conv_stage2_block4_branch2a (in-place)
I0610 01:57:46.627141 14734 net.cpp:122] Setting up relu_stage2_block4_branch2a
I0610 01:57:46.627146 14734 net.cpp:129] Top shape: 7 128 14 14 (175616)
I0610 01:57:46.627149 14734 net.cpp:137] Memory required for data: 779735068
I0610 01:57:46.627152 14734 layer_factory.hpp:77] Creating layer conv_stage2_block4_branch2b
I0610 01:57:46.627161 14734 net.cpp:84] Creating Layer conv_stage2_block4_branch2b
I0610 01:57:46.627164 14734 net.cpp:406] conv_stage2_block4_branch2b <- conv_stage2_block4_branch2a
I0610 01:57:46.627173 14734 net.cpp:380] conv_stage2_block4_branch2b -> conv_stage2_block4_branch2b
I0610 01:57:46.629009 14734 net.cpp:122] Setting up conv_stage2_block4_branch2b
I0610 01:57:46.629022 14734 net.cpp:129] Top shape: 7 128 14 14 (175616)
I0610 01:57:46.629026 14734 net.cpp:137] Memory required for data: 780437532
I0610 01:57:46.629034 14734 layer_factory.hpp:77] Creating layer bn_stage2_block4_branch2b
I0610 01:57:46.629045 14734 net.cpp:84] Creating Layer bn_stage2_block4_branch2b
I0610 01:57:46.629048 14734 net.cpp:406] bn_stage2_block4_branch2b <- conv_stage2_block4_branch2b
I0610 01:57:46.629055 14734 net.cpp:367] bn_stage2_block4_branch2b -> conv_stage2_block4_branch2b (in-place)
I0610 01:57:46.629268 14734 net.cpp:122] Setting up bn_stage2_block4_branch2b
I0610 01:57:46.629276 14734 net.cpp:129] Top shape: 7 128 14 14 (175616)
I0610 01:57:46.629278 14734 net.cpp:137] Memory required for data: 781139996
I0610 01:57:46.629287 14734 layer_factory.hpp:77] Creating layer scale_stage2_block4_branch2b
I0610 01:57:46.629292 14734 net.cpp:84] Creating Layer scale_stage2_block4_branch2b
I0610 01:57:46.629297 14734 net.cpp:406] scale_stage2_block4_branch2b <- conv_stage2_block4_branch2b
I0610 01:57:46.629302 14734 net.cpp:367] scale_stage2_block4_branch2b -> conv_stage2_block4_branch2b (in-place)
I0610 01:57:46.629346 14734 layer_factory.hpp:77] Creating layer scale_stage2_block4_branch2b
I0610 01:57:46.629465 14734 net.cpp:122] Setting up scale_stage2_block4_branch2b
I0610 01:57:46.629472 14734 net.cpp:129] Top shape: 7 128 14 14 (175616)
I0610 01:57:46.629474 14734 net.cpp:137] Memory required for data: 781842460
I0610 01:57:46.629482 14734 layer_factory.hpp:77] Creating layer relu_stage2_block4_branch2b
I0610 01:57:46.629487 14734 net.cpp:84] Creating Layer relu_stage2_block4_branch2b
I0610 01:57:46.629490 14734 net.cpp:406] relu_stage2_block4_branch2b <- conv_stage2_block4_branch2b
I0610 01:57:46.629509 14734 net.cpp:367] relu_stage2_block4_branch2b -> conv_stage2_block4_branch2b (in-place)
I0610 01:57:46.629516 14734 net.cpp:122] Setting up relu_stage2_block4_branch2b
I0610 01:57:46.629521 14734 net.cpp:129] Top shape: 7 128 14 14 (175616)
I0610 01:57:46.629524 14734 net.cpp:137] Memory required for data: 782544924
I0610 01:57:46.629528 14734 layer_factory.hpp:77] Creating layer conv_stage2_block4_branch2c
I0610 01:57:46.629539 14734 net.cpp:84] Creating Layer conv_stage2_block4_branch2c
I0610 01:57:46.629544 14734 net.cpp:406] conv_stage2_block4_branch2c <- conv_stage2_block4_branch2b
I0610 01:57:46.629549 14734 net.cpp:380] conv_stage2_block4_branch2c -> conv_stage2_block4_branch2c
I0610 01:57:46.630827 14734 net.cpp:122] Setting up conv_stage2_block4_branch2c
I0610 01:57:46.630841 14734 net.cpp:129] Top shape: 7 512 14 14 (702464)
I0610 01:57:46.630846 14734 net.cpp:137] Memory required for data: 785354780
I0610 01:57:46.630852 14734 layer_factory.hpp:77] Creating layer bn_stage2_block4_branch2c
I0610 01:57:46.630861 14734 net.cpp:84] Creating Layer bn_stage2_block4_branch2c
I0610 01:57:46.630864 14734 net.cpp:406] bn_stage2_block4_branch2c <- conv_stage2_block4_branch2c
I0610 01:57:46.630880 14734 net.cpp:367] bn_stage2_block4_branch2c -> conv_stage2_block4_branch2c (in-place)
I0610 01:57:46.631100 14734 net.cpp:122] Setting up bn_stage2_block4_branch2c
I0610 01:57:46.631108 14734 net.cpp:129] Top shape: 7 512 14 14 (702464)
I0610 01:57:46.631111 14734 net.cpp:137] Memory required for data: 788164636
I0610 01:57:46.631119 14734 layer_factory.hpp:77] Creating layer scale_stage2_block4_branch2c
I0610 01:57:46.631126 14734 net.cpp:84] Creating Layer scale_stage2_block4_branch2c
I0610 01:57:46.631129 14734 net.cpp:406] scale_stage2_block4_branch2c <- conv_stage2_block4_branch2c
I0610 01:57:46.631135 14734 net.cpp:367] scale_stage2_block4_branch2c -> conv_stage2_block4_branch2c (in-place)
I0610 01:57:46.631176 14734 layer_factory.hpp:77] Creating layer scale_stage2_block4_branch2c
I0610 01:57:46.631297 14734 net.cpp:122] Setting up scale_stage2_block4_branch2c
I0610 01:57:46.631304 14734 net.cpp:129] Top shape: 7 512 14 14 (702464)
I0610 01:57:46.631307 14734 net.cpp:137] Memory required for data: 790974492
I0610 01:57:46.631314 14734 layer_factory.hpp:77] Creating layer eltwise_stage2_block4
I0610 01:57:46.631321 14734 net.cpp:84] Creating Layer eltwise_stage2_block4
I0610 01:57:46.631325 14734 net.cpp:406] eltwise_stage2_block4 <- eltwise_stage2_block3_relu_stage2_block3_0_split_1
I0610 01:57:46.644271 14734 net.cpp:406] eltwise_stage2_block4 <- conv_stage2_block4_branch2c
I0610 01:57:46.644292 14734 net.cpp:380] eltwise_stage2_block4 -> eltwise_stage2_block4
I0610 01:57:46.644357 14734 net.cpp:122] Setting up eltwise_stage2_block4
I0610 01:57:46.644371 14734 net.cpp:129] Top shape: 7 512 14 14 (702464)
I0610 01:57:46.644377 14734 net.cpp:137] Memory required for data: 793784348
I0610 01:57:46.644384 14734 layer_factory.hpp:77] Creating layer relu_stage2_block4
I0610 01:57:46.644397 14734 net.cpp:84] Creating Layer relu_stage2_block4
I0610 01:57:46.644403 14734 net.cpp:406] relu_stage2_block4 <- eltwise_stage2_block4
I0610 01:57:46.644417 14734 net.cpp:367] relu_stage2_block4 -> eltwise_stage2_block4 (in-place)
I0610 01:57:46.644428 14734 net.cpp:122] Setting up relu_stage2_block4
I0610 01:57:46.644438 14734 net.cpp:129] Top shape: 7 512 14 14 (702464)
I0610 01:57:46.644444 14734 net.cpp:137] Memory required for data: 796594204
I0610 01:57:46.644449 14734 layer_factory.hpp:77] Creating layer eltwise_stage2_block4_relu_stage2_block4_0_split
…
I0610 01:57:46.872100 14734 layer_factory.hpp:77] Creating layer eltwise_stage2_block3_relu_stage2_block3_0_split
I0610 01:57:46.872107 14734 net.cpp:84] Creating Layer eltwise_stage2_block3_relu_stage2_block3_0_split
I0610 01:57:46.872109 14734 net.cpp:406] eltwise_stage2_block3_relu_stage2_block3_0_split <- eltwise_stage2_block3
I0610 01:57:46.872114 14734 net.cpp:380] eltwise_stage2_block3_relu_stage2_block3_0_split -> eltwise_stage2_block3_relu_stage2_block3_0_split_0
I0610 01:57:46.872123 14734 net.cpp:380] eltwise_stage2_block3_relu_stage2_block3_0_split -> eltwise_stage2_block3_relu_stage2_block3_0_split_1
I0610 01:57:46.872164 14734 net.cpp:122] Setting up eltwise_stage2_block3_relu_stage2_block3_0_split
I0610 01:57:46.872169 14734 net.cpp:129] Top shape: 7 512 14 14 (702464)
I0610 01:57:46.872174 14734 net.cpp:129] Top shape: 7 512 14 14 (702464)
I0610 01:57:46.872176 14734 net.cpp:137] Memory required for data: 776925268
I0610 01:57:46.872179 14734 layer_factory.hpp:77] Creating layer conv_stage2_block4_branch2a
I0610 01:57:46.872190 14734 net.cpp:84] Creating Layer conv_stage2_block4_branch2a
I0610 01:57:46.872195 14734 net.cpp:406] conv_stage2_block4_branch2a <- eltwise_stage2_block3_relu_stage2_block3_0_split_0
I0610 01:57:46.872200 14734 net.cpp:380] conv_stage2_block4_branch2a -> conv_stage2_block4_branch2a
I0610 01:57:46.872758 14734 net.cpp:122] Setting up conv_stage2_block4_branch2a
I0610 01:57:46.872764 14734 net.cpp:129] Top shape: 7 128 14 14 (175616)
I0610 01:57:46.872767 14734 net.cpp:137] Memory required for data: 777627732
I0610 01:57:46.872772 14734 layer_factory.hpp:77] Creating layer bn_stage2_block4_branch2a
I0610 01:57:46.872778 14734 net.cpp:84] Creating Layer bn_stage2_block4_branch2a
I0610 01:57:46.872781 14734 net.cpp:406] bn_stage2_block4_branch2a <- conv_stage2_block4_branch2a
I0610 01:57:46.872786 14734 net.cpp:367] bn_stage2_block4_branch2a -> conv_stage2_block4_branch2a (in-place)
I0610 01:57:46.872947 14734 net.cpp:122] Setting up bn_stage2_block4_branch2a
I0610 01:57:46.872951 14734 net.cpp:129] Top shape: 7 128 14 14 (175616)
I0610 01:57:46.872953 14734 net.cpp:137] Memory required for data: 778330196
I0610 01:57:46.872959 14734 layer_factory.hpp:77] Creating layer scale_stage2_block4_branch2a
I0610 01:57:46.872964 14734 net.cpp:84] Creating Layer scale_stage2_block4_branch2a
I0610 01:57:46.872967 14734 net.cpp:406] scale_stage2_block4_branch2a <- conv_stage2_block4_branch2a
I0610 01:57:46.872970 14734 net.cpp:367] scale_stage2_block4_branch2a -> conv_stage2_block4_branch2a (in-place)
I0610 01:57:46.873005 14734 layer_factory.hpp:77] Creating layer scale_stage2_block4_branch2a
I0610 01:57:46.873095 14734 net.cpp:122] Setting up scale_stage2_block4_branch2a
I0610 01:57:46.873100 14734 net.cpp:129] Top shape: 7 128 14 14 (175616)
I0610 01:57:46.873105 14734 net.cpp:137] Memory required for data: 779032660
I0610 01:57:46.873111 14734 layer_factory.hpp:77] Creating layer relu_stage2_block4_branch2a
I0610 01:57:46.873114 14734 net.cpp:84] Creating Layer relu_stage2_block4_branch2a
I0610 01:57:46.873117 14734 net.cpp:406] relu_stage2_block4_branch2a <- conv_stage2_block4_branch2a
I0610 01:57:46.873123 14734 net.cpp:367] relu_stage2_block4_branch2a -> conv_stage2_block4_branch2a (in-place)
I0610 01:57:46.873127 14734 net.cpp:122] Setting up relu_stage2_block4_branch2a
I0610 01:57:46.873131 14734 net.cpp:129] Top shape: 7 128 14 14 (175616)
I0610 01:57:46.873142 14734 net.cpp:137] Memory required for data: 779735124
I0610 01:57:46.873145 14734 layer_factory.hpp:77] Creating layer conv_stage2_block4_branch2b
I0610 01:57:46.873153 14734 net.cpp:84] Creating Layer conv_stage2_block4_branch2b
I0610 01:57:46.873157 14734 net.cpp:406] conv_stage2_block4_branch2b <- conv_stage2_block4_branch2a
I0610 01:57:46.873162 14734 net.cpp:380] conv_stage2_block4_branch2b -> conv_stage2_block4_branch2b
I0610 01:57:46.874569 14734 net.cpp:122] Setting up conv_stage2_block4_branch2b
I0610 01:57:46.874583 14734 net.cpp:129] Top shape: 7 128 14 14 (175616)
I0610 01:57:46.874585 14734 net.cpp:137] Memory required for data: 780437588
I0610 01:57:46.874593 14734 layer_factory.hpp:77] Creating layer bn_stage2_block4_branch2b
I0610 01:57:46.874601 14734 net.cpp:84] Creating Layer bn_stage2_block4_branch2b
I0610 01:57:46.874606 14734 net.cpp:406] bn_stage2_block4_branch2b <- conv_stage2_block4_branch2b
I0610 01:57:46.874613 14734 net.cpp:367] bn_stage2_block4_branch2b -> conv_stage2_block4_branch2b (in-place)
I0610 01:57:46.874773 14734 net.cpp:122] Setting up bn_stage2_block4_branch2b
I0610 01:57:46.874778 14734 net.cpp:129] Top shape: 7 128 14 14 (175616)
I0610 01:57:46.874779 14734 net.cpp:137] Memory required for data: 781140052
I0610 01:57:46.874785 14734 layer_factory.hpp:77] Creating layer scale_stage2_block4_branch2b
I0610 01:57:46.874790 14734 net.cpp:84] Creating Layer scale_stage2_block4_branch2b
I0610 01:57:46.874794 14734 net.cpp:406] scale_stage2_block4_branch2b <- conv_stage2_block4_branch2b
I0610 01:57:46.874796 14734 net.cpp:367] scale_stage2_block4_branch2b -> conv_stage2_block4_branch2b (in-place)
I0610 01:57:46.874831 14734 layer_factory.hpp:77] Creating layer scale_stage2_block4_branch2b
I0610 01:57:46.874924 14734 net.cpp:122] Setting up scale_stage2_block4_branch2b
I0610 01:57:46.874929 14734 net.cpp:129] Top shape: 7 128 14 14 (175616)
I0610 01:57:46.874931 14734 net.cpp:137] Memory required for data: 781842516
I0610 01:57:46.874936 14734 layer_factory.hpp:77] Creating layer relu_stage2_block4_branch2b
I0610 01:57:46.874941 14734 net.cpp:84] Creating Layer relu_stage2_block4_branch2b
I0610 01:57:46.874944 14734 net.cpp:406] relu_stage2_block4_branch2b <- conv_stage2_block4_branch2b
I0610 01:57:46.874948 14734 net.cpp:367] relu_stage2_block4_branch2b -> conv_stage2_block4_branch2b (in-place)
I0610 01:57:46.874953 14734 net.cpp:122] Setting up relu_stage2_block4_branch2b
I0610 01:57:46.874956 14734 net.cpp:129] Top shape: 7 128 14 14 (175616)
I0610 01:57:46.874958 14734 net.cpp:137] Memory required for data: 782544980
I0610 01:57:46.874961 14734 layer_factory.hpp:77] Creating layer conv_stage2_block4_branch2c
I0610 01:57:46.874969 14734 net.cpp:84] Creating Layer conv_stage2_block4_branch2c
I0610 01:57:46.874972 14734 net.cpp:406] conv_stage2_block4_branch2c <- conv_stage2_block4_branch2b
I0610 01:57:46.874982 14734 net.cpp:380] conv_stage2_block4_branch2c -> conv_stage2_block4_branch2c
I0610 01:57:46.875504 14734 net.cpp:122] Setting up conv_stage2_block4_branch2c
I0610 01:57:46.875510 14734 net.cpp:129] Top shape: 7 512 14 14 (702464)
I0610 01:57:46.875512 14734 net.cpp:137] Memory required for data: 785354836
I0610 01:57:46.875517 14734 layer_factory.hpp:77] Creating layer bn_stage2_block4_branch2c
I0610 01:57:46.875524 14734 net.cpp:84] Creating Layer bn_stage2_block4_branch2c
I0610 01:57:46.875527 14734 net.cpp:406] bn_stage2_block4_branch2c <- conv_stage2_block4_branch2c
I0610 01:57:46.875535 14734 net.cpp:367] bn_stage2_block4_branch2c -> conv_stage2_block4_branch2c (in-place)
I0610 01:57:46.875694 14734 net.cpp:122] Setting up bn_stage2_block4_branch2c
I0610 01:57:46.875699 14734 net.cpp:129] Top shape: 7 512 14 14 (702464)
I0610 01:57:46.875701 14734 net.cpp:137] Memory required for data: 788164692
I0610 01:57:46.875707 14734 layer_factory.hpp:77] Creating layer scale_stage2_block4_branch2c
I0610 01:57:46.875712 14734 net.cpp:84] Creating Layer scale_stage2_block4_branch2c
I0610 01:57:46.875716 14734 net.cpp:406] scale_stage2_block4_branch2c <- conv_stage2_block4_branch2c
I0610 01:57:46.875735 14734 net.cpp:367] scale_stage2_block4_branch2c -> conv_stage2_block4_branch2c (in-place)
I0610 01:57:46.875771 14734 layer_factory.hpp:77] Creating layer scale_stage2_block4_branch2c
I0610 01:57:46.875866 14734 net.cpp:122] Setting up scale_stage2_block4_branch2c
I0610 01:57:46.875871 14734 net.cpp:129] Top shape: 7 512 14 14 (702464)
I0610 01:57:46.875874 14734 net.cpp:137] Memory required for data: 790974548
I0610 01:57:46.875879 14734 layer_factory.hpp:77] Creating layer eltwise_stage2_block4
I0610 01:57:46.875883 14734 net.cpp:84] Creating Layer eltwise_stage2_block4
I0610 01:57:46.875886 14734 net.cpp:406] eltwise_stage2_block4 <- eltwise_stage2_block3_relu_stage2_block3_0_split_1
I0610 01:57:46.875891 14734 net.cpp:406] eltwise_stage2_block4 <- conv_stage2_block4_branch2c
I0610 01:57:46.875896 14734 net.cpp:380] eltwise_stage2_block4 -> eltwise_stage2_block4
I0610 01:57:46.875916 14734 net.cpp:122] Setting up eltwise_stage2_block4
I0610 01:57:46.875921 14734 net.cpp:129] Top shape: 7 512 14 14 (702464)
I0610 01:57:46.875923 14734 net.cpp:137] Memory required for data: 793784404
I0610 01:57:46.875926 14734 layer_factory.hpp:77] Creating layer relu_stage2_block4
I0610 01:57:46.875931 14734 net.cpp:84] Creating Layer relu_stage2_block4
I0610 01:57:46.875932 14734 net.cpp:406] relu_stage2_block4 <- eltwise_stage2_block4
I0610 01:57:46.875937 14734 net.cpp:367] relu_stage2_block4 -> eltwise_stage2_block4 (in-place)
I0610 01:57:46.875942 14734 net.cpp:122] Setting up relu_stage2_block4
I0610 01:57:46.875946 14734 net.cpp:129] Top shape: 7 512 14 14 (702464)
I0610 01:57:46.875947 14734 net.cpp:137] Memory required for data: 796594260
I0610 01:57:46.875950 14734 layer_factory.hpp:77] Creating layer eltwise_stage2_block4_relu_stage2_block4_0_split
I0610 01:57:46.875954 14734 net.cpp:84] Creating Layer eltwise_stage2_block4_relu_stage2_block4_0_split
I0610 01:57:46.875957 14734 net.cpp:406] eltwise_stage2_block4_relu_stage2_block4_0_split <- eltwise_stage2_block4
I0610 01:57:46.875962 14734 net.cpp:380] eltwise_stage2_block4_relu_stage2_block4_0_split -> eltwise_stage2_block4_relu_stage2_block4_0_split_0
I0610 01:57:46.875967 14734 net.cpp:380] eltwise_stage2_block4_relu_stage2_block4_0_split -> eltwise_stage2_block4_relu_stage2_block4_0_split_1
I0610 01:57:46.875995 14734 net.cpp:122] Setting up eltwise_stage2_block4_relu_stage2_block4_0_split
I0610 01:57:46.876000 14734 net.cpp:129] Top shape: 7 512 14 14 (702464)
I0610 01:57:46.876003 14734 net.cpp:129] Top shape: 7 512 14 14 (702464)
I0610 01:57:46.876005 14734 net.cpp:137] Memory required for data: 802213972
I0610 01:57:46.876008 14734 layer_factory.hpp:77] Creating layer conv_stage2_block5_branch2a
I0610 01:57:46.876016 14734 net.cpp:84] Creating Layer conv_stage2_block5_branch2a
I0610 01:57:46.876019 14734 net.cpp:406] conv_stage2_block5_branch2a <- eltwise_stage2_block4_relu_stage2_block4_0_split_0
I0610 01:57:46.876024 14734 net.cpp:380] conv_stage2_block5_branch2a -> conv_stage2_block5_branch2a
I0610 01:57:46.877044 14734 net.cpp:122] Setting up conv_stage2_block5_branch2a
I0610 01:57:46.877058 14734 net.cpp:129] Top shape: 7 128 14 14 (175616)
I0610 01:57:46.877060 14734 net.cpp:137] Memory required for data: 802916436
I0610 01:57:46.877066 14734 layer_factory.hpp:77] Creating layer bn_stage2_block5_branch2a
I0610 01:57:46.877073 14734 net.cpp:84] Creating Layer bn_stage2_block5_branch2a
I0610 01:57:46.877076 14734 net.cpp:406] bn_stage2_block5_branch2a <- conv_stage2_block5_branch2a
I0610 01:57:46.877085 14734 net.cpp:367] bn_stage2_block5_branch2a -> conv_stage2_block5_branch2a (in-place)
I0610 01:57:46.877249 14734 net.cpp:122] Setting up bn_stage2_block5_branch2a
I0610 01:57:46.877254 14734 net.cpp:129] Top shape: 7 128 14 14 (175616)
I0610 01:57:46.877256 14734 net.cpp:137] Memory required for data: 803618900
I0610 01:57:46.877262 14734 layer_factory.hpp:77] Creating layer scale_stage2_block5_branch2a
I0610 01:57:46.877267 14734 net.cpp:84] Creating Layer scale_stage2_block5_branch2a
I0610 01:57:46.877282 14734 net.cpp:406] scale_stage2_block5_branch2a <- conv_stage2_block5_branch2a
I0610 01:57:46.877287 14734 net.cpp:367] scale_stage2_block5_branch2a -> conv_stage2_block5_branch2a (in-place)
I0610 01:57:46.877326 14734 layer_factory.hpp:77] Creating layer scale_stage2_block5_branch2a
I0610 01:57:46.877416 14734 net.cpp:122] Setting up scale_stage2_block5_branch2a
I0610 01:57:46.877421 14734 net.cpp:129] Top shape: 7 128 14 14 (175616)
I0610 01:57:46.877424 14734 net.cpp:137] Memory required for data: 804321364
I0610 01:57:46.877429 14734 layer_factory.hpp:77] Creating layer relu_stage2_block5_branch2a
I0610 01:57:46.877434 14734 net.cpp:84] Creating Layer relu_stage2_block5_branch2a
I0610 01:57:46.877436 14734 net.cpp:406] relu_stage2_block5_branch2a <- conv_stage2_block5_branch2a
I0610 01:57:46.877440 14734 net.cpp:367] relu_stage2_block5_branch2a -> conv_stage2_block5_branch2a (in-place)
I0610 01:57:46.877445 14734 net.cpp:122] Setting up relu_stage2_block5_branch2a
I0610 01:57:46.877449 14734 net.cpp:129] Top shape: 7 128 14 14 (175616)
I0610 01:57:46.877450 14734 net.cpp:137] Memory required for data: 805023828
I0610 01:57:46.877454 14734 layer_factory.hpp:77] Creating layer conv_stage2_block5_branch2b
I0610 01:57:46.877461 14734 net.cpp:84] Creating Layer conv_stage2_block5_branch2b
I0610 01:57:46.877465 14734 net.cpp:406] conv_stage2_block5_branch2b <- conv_stage2_block5_branch2a
I0610 01:57:46.877470 14734 net.cpp:380] conv_stage2_block5_branch2b -> conv_stage2_block5_branch2b
I0610 01:57:46.878968 14734 net.cpp:122] Setting up conv_stage2_block5_branch2b
I0610 01:57:46.878979 14734 net.cpp:129] Top shape: 7 128 14 14 (175616)
I0610 01:57:46.878983 14734 net.cpp:137] Memory required for data: 805726292
I0610 01:57:46.878988 14734 layer_factory.hpp:77] Creating layer bn_stage2_block5_branch2b
I0610 01:57:46.878995 14734 net.cpp:84] Creating Layer bn_stage2_block5_branch2b
I0610 01:57:46.878999 14734 net.cpp:406] bn_stage2_block5_branch2b <- conv_stage2_block5_branch2b
I0610 01:57:46.879007 14734 net.cpp:367] bn_stage2_block5_branch2b -> conv_stage2_block5_branch2b (in-place)
I0610 01:57:46.879204 14734 net.cpp:122] Setting up bn_stage2_block5_branch2b
I0610 01:57:46.879210 14734 net.cpp:129] Top shape: 7 128 14 14 (175616)
I0610 01:57:46.879214 14734 net.cpp:137] Memory required for data: 806428756
I0610 01:57:46.879221 14734 layer_factory.hpp:77] Creating layer scale_stage2_block5_branch2b
I0610 01:57:46.879226 14734 net.cpp:84] Creating Layer scale_stage2_block5_branch2b
I0610 01:57:46.879230 14734 net.cpp:406] scale_stage2_block5_branch2b <- conv_stage2_block5_branch2b
I0610 01:57:46.879236 14734 net.cpp:367] scale_stage2_block5_branch2b -> conv_stage2_block5_branch2b (in-place)
I0610 01:57:46.879274 14734 layer_factory.hpp:77] Creating layer scale_stage2_block5_branch2b
I0610 01:57:46.879377 14734 net.cpp:122] Setting up scale_stage2_block5_branch2b
I0610 01:57:46.879384 14734 net.cpp:129] Top shape: 7 128 14 14 (175616)
I0610 01:57:46.879386 14734 net.cpp:137] Memory required for data: 807131220
I0610 01:57:46.879392 14734 layer_factory.hpp:77] Creating layer relu_stage2_block5_branch2b
I0610 01:57:46.879397 14734 net.cpp:84] Creating Layer relu_stage2_block5_branch2b
I0610 01:57:46.879400 14734 net.cpp:406] relu_stage2_block5_branch2b <- conv_stage2_block5_branch2b
I0610 01:57:46.879405 14734 net.cpp:367] relu_stage2_block5_branch2b -> conv_stage2_block5_branch2b (in-place)
I0610 01:57:46.879410 14734 net.cpp:122] Setting up relu_stage2_block5_branch2b
I0610 01:57:46.879415 14734 net.cpp:129] Top shape: 7 128 14 14 (175616)
I0610 01:57:46.879417 14734 net.cpp:137] Memory required for data: 807833684
I0610 01:57:46.879420 14734 layer_factory.hpp:77] Creating layer conv_stage2_block5_branch2c
I0610 01:57:46.879432 14734 net.cpp:84] Creating Layer conv_stage2_block5_branch2c
I0610 01:57:46.879436 14734 net.cpp:406] conv_stage2_block5_branch2c <- conv_stage2_block5_branch2b
I0610 01:57:46.879443 14734 net.cpp:380] conv_stage2_block5_branch2c -> conv_stage2_block5_branch2c
I0610 01:57:46.880065 14734 net.cpp:122] Setting up conv_stage2_block5_branch2c
I0610 01:57:46.880084 14734 net.cpp:129] Top shape: 7 512 14 14 (702464)
I0610 01:57:46.880086 14734 net.cpp:137] Memory required for data: 810643540
I0610 01:57:46.880092 14734 layer_factory.hpp:77] Creating layer bn_stage2_block5_branch2c
I0610 01:57:46.880100 14734 net.cpp:84] Creating Layer bn_stage2_block5_branch2c
I0610 01:57:46.880103 14734 net.cpp:406] bn_stage2_block5_branch2c <- conv_stage2_block5_branch2c
I0610 01:57:46.880108 14734 net.cpp:367] bn_stage2_block5_branch2c -> conv_stage2_block5_branch2c (in-place)
I0610 01:57:46.880800 14734 net.cpp:122] Setting up bn_stage2_block5_branch2c
I0610 01:57:46.880810 14734 net.cpp:129] Top shape: 7 512 14 14 (702464)
I0610 01:57:46.880812 14734 net.cpp:137] Memory required for data: 813453396
I0610 01:57:46.880820 14734 layer_factory.hpp:77] Creating layer scale_stage2_block5_branch2c
I0610 01:57:46.880826 14734 net.cpp:84] Creating Layer scale_stage2_block5_branch2c
I0610 01:57:46.880830 14734 net.cpp:406] scale_stage2_block5_branch2c <- conv_stage2_block5_branch2c
I0610 01:57:46.880836 14734 net.cpp:367] scale_stage2_block5_branch2c -> conv_stage2_block5_branch2c (in-place)
I0610 01:57:46.880877 14734 layer_factory.hpp:77] Creating layer scale_stage2_block5_branch2c
I0610 01:57:46.880995 14734 net.cpp:122] Setting up scale_stage2_block5_branch2c
I0610 01:57:46.881003 14734 net.cpp:129] Top shape: 7 512 14 14 (702464)
I0610 01:57:46.881006 14734 net.cpp:137] Memory required for data: 816263252
I0610 01:57:46.881012 14734 layer_factory.hpp:77] Creating layer eltwise_stage2_block5
I0610 01:57:46.881017 14734 net.cpp:84] Creating Layer eltwise_stage2_block5
I0610 01:57:46.881021 14734 net.cpp:406] eltwise_stage2_block5 <- eltwise_stage2_block4_relu_stage2_block4_0_split_1
I0610 01:57:46.881026 14734 net.cpp:406] eltwise_stage2_block5 <- conv_stage2_block5_branch2c
I0610 01:57:46.881033 14734 net.cpp:380] eltwise_stage2_block5 -> eltwise_stage2_block5
I0610 01:57:46.881055 14734 net.cpp:122] Setting up eltwise_stage2_block5
I0610 01:57:46.881062 14734 net.cpp:129] Top shape: 7 512 14 14 (702464)
I0610 01:57:46.881064 14734 net.cpp:137] Memory required for data: 819073108
I0610 01:57:46.881067 14734 layer_factory.hpp:77] Creating layer relu_stage2_block5
I0610 01:57:46.881072 14734 net.cpp:84] Creating Layer relu_stage2_block5
I0610 01:57:46.881076 14734 net.cpp:406] relu_stage2_block5 <- eltwise_stage2_block5
I0610 01:57:46.881080 14734 net.cpp:367] relu_stage2_block5 -> eltwise_stage2_block5 (in-place)
I0610 01:57:46.881085 14734 net.cpp:122] Setting up relu_stage2_block5
I0610 01:57:46.881089 14734 net.cpp:129] Top shape: 7 512 14 14 (702464)
I0610 01:57:46.881093 14734 net.cpp:137] Memory required for data: 821882964
I0610 01:57:46.881095 14734 layer_factory.hpp:77] Creating layer eltwise_stage2_block5_relu_stage2_block5_0_split
I0610 01:57:46.881100 14734 net.cpp:84] Creating Layer eltwise_stage2_block5_relu_stage2_block5_0_split
I0610 01:57:46.881103 14734 net.cpp:406] eltwise_stage2_block5_relu_stage2_block5_0_split <- eltwise_stage2_block5
I0610 01:57:46.881109 14734 net.cpp:380] eltwise_stage2_block5_relu_stage2_block5_0_split -> eltwise_stage2_block5_relu_stage2_block5_0_split_0
I0610 01:57:46.881116 14734 net.cpp:380] eltwise_stage2_block5_relu_stage2_block5_0_split -> eltwise_stage2_block5_relu_stage2_block5_0_split_1
I0610 01:57:46.881153 14734 net.cpp:122] Setting up eltwise_stage2_block5_relu_stage2_block5_0_split
I0610 01:57:46.881160 14734 net.cpp:129] Top shape: 7 512 14 14 (702464)
I0610 01:57:46.881165 14734 net.cpp:129] Top shape: 7 512 14 14 (702464)
I0610 01:57:46.881166 14734 net.cpp:137] Memory required for data: 827502676
I0610 01:57:46.881170 14734 layer_factory.hpp:77] Creating layer conv_stage3_block0_proj_shortcut
I0610 01:57:46.881178 14734 net.cpp:84] Creating Layer conv_stage3_block0_proj_shortcut
I0610 01:57:46.881182 14734 net.cpp:406] conv_stage3_block0_proj_shortcut <- eltwise_stage2_block5_relu_stage2_block5_0_split_0
I0610 01:57:46.881191 14734 net.cpp:380] conv_stage3_block0_proj_shortcut -> conv_stage3_block0_proj_shortcut
I0610 01:57:46.885123 14734 net.cpp:122] Setting up conv_stage3_block0_proj_shortcut
I0610 01:57:46.885135 14734 net.cpp:129] Top shape: 7 1024 7 7 (351232)
I0610 01:57:46.885139 14734 net.cpp:137] Memory required for data: 828907604
I0610 01:57:46.885145 14734 layer_factory.hpp:77] Creating layer bn_stage3_block0_proj_shortcut
I0610 01:57:46.885154 14734 net.cpp:84] Creating Layer bn_stage3_block0_proj_shortcut
I0610 01:57:46.885159 14734 net.cpp:406] bn_stage3_block0_proj_shortcut <- conv_stage3_block0_proj_shortcut
I0610 01:57:46.885164 14734 net.cpp:367] bn_stage3_block0_proj_shortcut -> conv_stage3_block0_proj_shortcut (in-place)
I0610 01:57:46.885357 14734 net.cpp:122] Setting up bn_stage3_block0_proj_shortcut
I0610 01:57:46.885365 14734 net.cpp:129] Top shape: 7 1024 7 7 (351232)
I0610 01:57:46.885367 14734 net.cpp:137] Memory required for data: 830312532
I0610 01:57:46.885375 14734 layer_factory.hpp:77] Creating layer scale_stage3_block0_proj_shortcut
I0610 01:57:46.885381 14734 net.cpp:84] Creating Layer scale_stage3_block0_proj_shortcut
I0610 01:57:46.885385 14734 net.cpp:406] scale_stage3_block0_proj_shortcut <- conv_stage3_block0_proj_shortcut
I0610 01:57:46.885390 14734 net.cpp:367] scale_stage3_block0_proj_shortcut -> conv_stage3_block0_proj_shortcut (in-place)
I0610 01:57:46.885428 14734 layer_factory.hpp:77] Creating layer scale_stage3_block0_proj_shortcut
I0610 01:57:46.885538 14734 net.cpp:122] Setting up scale_stage3_block0_proj_shortcut
I0610 01:57:46.885545 14734 net.cpp:129] Top shape: 7 1024 7 7 (351232)
I0610 01:57:46.885547 14734 net.cpp:137] Memory required for data: 831717460
I0610 01:57:46.885553 14734 layer_factory.hpp:77] Creating layer conv_stage3_block0_branch2a
I0610 01:57:46.885563 14734 net.cpp:84] Creating Layer conv_stage3_block0_branch2a
I0610 01:57:46.885567 14734 net.cpp:406] conv_stage3_block0_branch2a <- eltwise_stage2_block5_relu_stage2_block5_0_split_1
I0610 01:57:46.885574 14734 net.cpp:380] conv_stage3_block0_branch2a -> conv_stage3_block0_branch2a
I0610 01:57:46.886663 14734 net.cpp:122] Setting up conv_stage3_block0_branch2a
I0610 01:57:46.886672 14734 net.cpp:129] Top shape: 7 256 7 7 (87808)
I0610 01:57:46.886675 14734 net.cpp:137] Memory required for data: 832068692
I0610 01:57:46.886682 14734 layer_factory.hpp:77] Creating layer bn_stage3_block0_branch2a
I0610 01:57:46.886689 14734 net.cpp:84] Creating Layer bn_stage3_block0_branch2a
I0610 01:57:46.886693 14734 net.cpp:406] bn_stage3_block0_branch2a <- conv_stage3_block0_branch2a
I0610 01:57:46.886698 14734 net.cpp:367] bn_stage3_block0_branch2a -> conv_stage3_block0_branch2a (in-place)
I0610 01:57:46.886875 14734 net.cpp:122] Setting up bn_stage3_block0_branch2a
I0610 01:57:46.886881 14734 net.cpp:129] Top shape: 7 256 7 7 (87808)
I0610 01:57:46.886884 14734 net.cpp:137] Memory required for data: 832419924
I0610 01:57:46.886890 14734 layer_factory.hpp:77] Creating layer scale_stage3_block0_branch2a
I0610 01:57:46.886896 14734 net.cpp:84] Creating Layer scale_stage3_block0_branch2a
I0610 01:57:46.886899 14734 net.cpp:406] scale_stage3_block0_branch2a <- conv_stage3_block0_branch2a
I0610 01:57:46.886904 14734 net.cpp:367] scale_stage3_block0_branch2a -> conv_stage3_block0_branch2a (in-place)
I0610 01:57:46.886942 14734 layer_factory.hpp:77] Creating layer scale_stage3_block0_branch2a
I0610 01:57:46.887040 14734 net.cpp:122] Setting up scale_stage3_block0_branch2a
I0610 01:57:46.887046 14734 net.cpp:129] Top shape: 7 256 7 7 (87808)
I0610 01:57:46.887049 14734 net.cpp:137] Memory required for data: 832771156
I0610 01:57:46.887054 14734 layer_factory.hpp:77] Creating layer relu_stage3_block0_branch2a
I0610 01:57:46.887059 14734 net.cpp:84] Creating Layer relu_stage3_block0_branch2a
I0610 01:57:46.887063 14734 net.cpp:406] relu_stage3_block0_branch2a <- conv_stage3_block0_branch2a
I0610 01:57:46.887069 14734 net.cpp:367] relu_stage3_block0_branch2a -> conv_stage3_block0_branch2a (in-place)
I0610 01:57:46.887074 14734 net.cpp:122] Setting up relu_stage3_block0_branch2a
I0610 01:57:46.887089 14734 net.cpp:129] Top shape: 7 256 7 7 (87808)
I0610 01:57:46.887094 14734 net.cpp:137] Memory required for data: 833122388
I0610 01:57:46.887095 14734 layer_factory.hpp:77] Creating layer conv_stage3_block0_branch2b
I0610 01:57:46.887106 14734 net.cpp:84] Creating Layer conv_stage3_block0_branch2b
I0610 01:57:46.887109 14734 net.cpp:406] conv_stage3_block0_branch2b <- conv_stage3_block0_branch2a
I0610 01:57:46.887115 14734 net.cpp:380] conv_stage3_block0_branch2b -> conv_stage3_block0_branch2b
I0610 01:57:46.891394 14734 net.cpp:122] Setting up conv_stage3_block0_branch2b
I0610 01:57:46.891410 14734 net.cpp:129] Top shape: 7 256 7 7 (87808)
I0610 01:57:46.891413 14734 net.cpp:137] Memory required for data: 833473620
I0610 01:57:46.891419 14734 layer_factory.hpp:77] Creating layer bn_stage3_block0_branch2b
I0610 01:57:46.891428 14734 net.cpp:84] Creating Layer bn_stage3_block0_branch2b
I0610 01:57:46.891433 14734 net.cpp:406] bn_stage3_block0_branch2b <- conv_stage3_block0_branch2b
I0610 01:57:46.891438 14734 net.cpp:367] bn_stage3_block0_branch2b -> conv_stage3_block0_branch2b (in-place)
I0610 01:57:46.891597 14734 net.cpp:122] Setting up bn_stage3_block0_branch2b
I0610 01:57:46.891602 14734 net.cpp:129] Top shape: 7 256 7 7 (87808)
I0610 01:57:46.891604 14734 net.cpp:137] Memory required for data: 833824852
I0610 01:57:46.891609 14734 layer_factory.hpp:77] Creating layer scale_stage3_block0_branch2b
I0610 01:57:46.891614 14734 net.cpp:84] Creating Layer scale_stage3_block0_branch2b
I0610 01:57:46.891618 14734 net.cpp:406] scale_stage3_block0_branch2b <- conv_stage3_block0_branch2b
I0610 01:57:46.891621 14734 net.cpp:367] scale_stage3_block0_branch2b -> conv_stage3_block0_branch2b (in-place)
I0610 01:57:46.891659 14734 layer_factory.hpp:77] Creating layer scale_stage3_block0_branch2b
I0610 01:57:46.891746 14734 net.cpp:122] Setting up scale_stage3_block0_branch2b
I0610 01:57:46.891750 14734 net.cpp:129] Top shape: 7 256 7 7 (87808)
I0610 01:57:46.891753 14734 net.cpp:137] Memory required for data: 834176084
I0610 01:57:46.891757 14734 layer_factory.hpp:77] Creating layer relu_stage3_block0_branch2b
I0610 01:57:46.891762 14734 net.cpp:84] Creating Layer relu_stage3_block0_branch2b
I0610 01:57:46.891765 14734 net.cpp:406] relu_stage3_block0_branch2b <- conv_stage3_block0_branch2b
I0610 01:57:46.891770 14734 net.cpp:367] relu_stage3_block0_branch2b -> conv_stage3_block0_branch2b (in-place)
I0610 01:57:46.891775 14734 net.cpp:122] Setting up relu_stage3_block0_branch2b
I0610 01:57:46.891778 14734 net.cpp:129] Top shape: 7 256 7 7 (87808)
I0610 01:57:46.891782 14734 net.cpp:137] Memory required for data: 834527316
I0610 01:57:46.891783 14734 layer_factory.hpp:77] Creating layer conv_stage3_block0_branch2c
I0610 01:57:46.891793 14734 net.cpp:84] Creating Layer conv_stage3_block0_branch2c
I0610 01:57:46.891795 14734 net.cpp:406] conv_stage3_block0_branch2c <- conv_stage3_block0_branch2b
I0610 01:57:46.891800 14734 net.cpp:380] conv_stage3_block0_branch2c -> conv_stage3_block0_branch2c
I0610 01:57:46.893750 14734 net.cpp:122] Setting up conv_stage3_block0_branch2c
I0610 01:57:46.893760 14734 net.cpp:129] Top shape: 7 1024 7 7 (351232)
I0610 01:57:46.893762 14734 net.cpp:137] Memory required for data: 835932244
I0610 01:57:46.893767 14734 layer_factory.hpp:77] Creating layer bn_stage3_block0_branch2c
I0610 01:57:46.893776 14734 net.cpp:84] Creating Layer bn_stage3_block0_branch2c
I0610 01:57:46.893781 14734 net.cpp:406] bn_stage3_block0_branch2c <- conv_stage3_block0_branch2c
I0610 01:57:46.893786 14734 net.cpp:367] bn_stage3_block0_branch2c -> conv_stage3_block0_branch2c (in-place)
I0610 01:57:46.893947 14734 net.cpp:122] Setting up bn_stage3_block0_branch2c
I0610 01:57:46.893952 14734 net.cpp:129] Top shape: 7 1024 7 7 (351232)
I0610 01:57:46.893954 14734 net.cpp:137] Memory required for data: 837337172
I0610 01:57:46.893960 14734 layer_factory.hpp:77] Creating layer scale_stage3_block0_branch2c
I0610 01:57:46.893965 14734 net.cpp:84] Creating Layer scale_stage3_block0_branch2c
I0610 01:57:46.893968 14734 net.cpp:406] scale_stage3_block0_branch2c <- conv_stage3_block0_branch2c
I0610 01:57:46.893986 14734 net.cpp:367] scale_stage3_block0_branch2c -> conv_stage3_block0_branch2c (in-place)
I0610 01:57:46.894022 14734 layer_factory.hpp:77] Creating layer scale_stage3_block0_branch2c
I0610 01:57:46.894120 14734 net.cpp:122] Setting up scale_stage3_block0_branch2c
I0610 01:57:46.894125 14734 net.cpp:129] Top shape: 7 1024 7 7 (351232)
I0610 01:57:46.894129 14734 net.cpp:137] Memory required for data: 838742100
I0610 01:57:46.894132 14734 layer_factory.hpp:77] Creating layer eltwise_stage3_block0
I0610 01:57:46.894137 14734 net.cpp:84] Creating Layer eltwise_stage3_block0
I0610 01:57:46.894140 14734 net.cpp:406] eltwise_stage3_block0 <- conv_stage3_block0_proj_shortcut
I0610 01:57:46.894145 14734 net.cpp:406] eltwise_stage3_block0 <- conv_stage3_block0_branch2c
I0610 01:57:46.894150 14734 net.cpp:380] eltwise_stage3_block0 -> eltwise_stage3_block0
I0610 01:57:46.894170 14734 net.cpp:122] Setting up eltwise_stage3_block0
I0610 01:57:46.894176 14734 net.cpp:129] Top shape: 7 1024 7 7 (351232)
I0610 01:57:46.894177 14734 net.cpp:137] Memory required for data: 840147028
I0610 01:57:46.894179 14734 layer_factory.hpp:77] Creating layer relu_stage3_block0
I0610 01:57:46.894186 14734 net.cpp:84] Creating Layer relu_stage3_block0
I0610 01:57:46.894188 14734 net.cpp:406] relu_stage3_block0 <- eltwise_stage3_block0
I0610 01:57:46.894192 14734 net.cpp:367] relu_stage3_block0 -> eltwise_stage3_block0 (in-place)
I0610 01:57:46.894197 14734 net.cpp:122] Setting up relu_stage3_block0
I0610 01:57:46.894201 14734 net.cpp:129] Top shape: 7 1024 7 7 (351232)
I0610 01:57:46.894202 14734 net.cpp:137] Memory required for data: 841551956
I0610 01:57:46.894206 14734 layer_factory.hpp:77] Creating layer eltwise_stage3_block0_relu_stage3_block0_0_split
I0610 01:57:46.894209 14734 net.cpp:84] Creating Layer eltwise_stage3_block0_relu_stage3_block0_0_split
I0610 01:57:46.894212 14734 net.cpp:406] eltwise_stage3_block0_relu_stage3_block0_0_split <- eltwise_stage3_block0
I0610 01:57:46.894217 14734 net.cpp:380] eltwise_stage3_block0_relu_stage3_block0_0_split -> eltwise_stage3_block0_relu_stage3_block0_0_split_0
I0610 01:57:46.894222 14734 net.cpp:380] eltwise_stage3_block0_relu_stage3_block0_0_split -> eltwise_stage3_block0_relu_stage3_block0_0_split_1
I0610 01:57:46.894249 14734 net.cpp:122] Setting up eltwise_stage3_block0_relu_stage3_block0_0_split
I0610 01:57:46.894263 14734 net.cpp:129] Top shape: 7 1024 7 7 (351232)
I0610 01:57:46.894266 14734 net.cpp:129] Top shape: 7 1024 7 7 (351232)
I0610 01:57:46.894269 14734 net.cpp:137] Memory required for data: 844361812
I0610 01:57:46.894271 14734 layer_factory.hpp:77] Creating layer conv_stage3_block1_branch2a
I0610 01:57:46.894280 14734 net.cpp:84] Creating Layer conv_stage3_block1_branch2a
I0610 01:57:46.894284 14734 net.cpp:406] conv_stage3_block1_branch2a <- eltwise_stage3_block0_relu_stage3_block0_0_split_0
I0610 01:57:46.894289 14734 net.cpp:380] conv_stage3_block1_branch2a -> conv_stage3_block1_branch2a
I0610 01:57:46.896168 14734 net.cpp:122] Setting up conv_stage3_block1_branch2a
I0610 01:57:46.896178 14734 net.cpp:129] Top shape: 7 256 7 7 (87808)
I0610 01:57:46.896180 14734 net.cpp:137] Memory required for data: 844713044
I0610 01:57:46.896185 14734 layer_factory.hpp:77] Creating layer bn_stage3_block1_branch2a
I0610 01:57:46.896191 14734 net.cpp:84] Creating Layer bn_stage3_block1_branch2a
I0610 01:57:46.896194 14734 net.cpp:406] bn_stage3_block1_branch2a <- conv_stage3_block1_branch2a
I0610 01:57:46.896200 14734 net.cpp:367] bn_stage3_block1_branch2a -> conv_stage3_block1_branch2a (in-place)
I0610 01:57:46.896353 14734 net.cpp:122] Setting up bn_stage3_block1_branch2a
I0610 01:57:46.896358 14734 net.cpp:129] Top shape: 7 256 7 7 (87808)
I0610 01:57:46.896361 14734 net.cpp:137] Memory required for data: 845064276
I0610 01:57:46.896366 14734 layer_factory.hpp:77] Creating layer scale_stage3_block1_branch2a
I0610 01:57:46.896371 14734 net.cpp:84] Creating Layer scale_stage3_block1_branch2a
I0610 01:57:46.896383 14734 net.cpp:406] scale_stage3_block1_branch2a <- conv_stage3_block1_branch2a
I0610 01:57:46.896389 14734 net.cpp:367] scale_stage3_block1_branch2a -> conv_stage3_block1_branch2a (in-place)
I0610 01:57:46.896420 14734 layer_factory.hpp:77] Creating layer scale_stage3_block1_branch2a
I0610 01:57:46.896504 14734 net.cpp:122] Setting up scale_stage3_block1_branch2a
I0610 01:57:46.896509 14734 net.cpp:129] Top shape: 7 256 7 7 (87808)
I0610 01:57:46.896512 14734 net.cpp:137] Memory required for data: 845415508
I0610 01:57:46.896517 14734 layer_factory.hpp:77] Creating layer relu_stage3_block1_branch2a
I0610 01:57:46.896522 14734 net.cpp:84] Creating Layer relu_stage3_block1_branch2a
I0610 01:57:46.896524 14734 net.cpp:406] relu_stage3_block1_branch2a <- conv_stage3_block1_branch2a
I0610 01:57:46.896528 14734 net.cpp:367] relu_stage3_block1_branch2a -> conv_stage3_block1_branch2a (in-place)
I0610 01:57:46.896533 14734 net.cpp:122] Setting up relu_stage3_block1_branch2a
I0610 01:57:46.896535 14734 net.cpp:129] Top shape: 7 256 7 7 (87808)
I0610 01:57:46.896538 14734 net.cpp:137] Memory required for data: 845766740
I0610 01:57:46.896540 14734 layer_factory.hpp:77] Creating layer conv_stage3_block1_branch2b
I0610 01:57:46.896548 14734 net.cpp:84] Creating Layer conv_stage3_block1_branch2b
I0610 01:57:46.896553 14734 net.cpp:406] conv_stage3_block1_branch2b <- conv_stage3_block1_branch2a
I0610 01:57:46.896558 14734 net.cpp:380] conv_stage3_block1_branch2b -> conv_stage3_block1_branch2b
I0610 01:57:46.900259 14734 net.cpp:122] Setting up conv_stage3_block1_branch2b
I0610 01:57:46.900270 14734 net.cpp:129] Top shape: 7 256 7 7 (87808)
I0610 01:57:46.900274 14734 net.cpp:137] Memory required for data: 846117972
I0610 01:57:46.900279 14734 layer_factory.hpp:77] Creating layer bn_stage3_block1_branch2b
I0610 01:57:46.900285 14734 net.cpp:84] Creating Layer bn_stage3_block1_branch2b
I0610 01:57:46.900288 14734 net.cpp:406] bn_stage3_block1_branch2b <- conv_stage3_block1_branch2b
I0610 01:57:46.900297 14734 net.cpp:367] bn_stage3_block1_branch2b -> conv_stage3_block1_branch2b (in-place)
I0610 01:57:46.900455 14734 net.cpp:122] Setting up bn_stage3_block1_branch2b
I0610 01:57:46.900461 14734 net.cpp:129] Top shape: 7 256 7 7 (87808)
I0610 01:57:46.900463 14734 net.cpp:137] Memory required for data: 846469204
I0610 01:57:46.900470 14734 layer_factory.hpp:77] Creating layer scale_stage3_block1_branch2b
I0610 01:57:46.900475 14734 net.cpp:84] Creating Layer scale_stage3_block1_branch2b
I0610 01:57:46.900477 14734 net.cpp:406] scale_stage3_block1_branch2b <- conv_stage3_block1_branch2b
I0610 01:57:46.900482 14734 net.cpp:367] scale_stage3_block1_branch2b -> conv_stage3_block1_branch2b (in-place)
I0610 01:57:46.900516 14734 layer_factory.hpp:77] Creating layer scale_stage3_block1_branch2b
I0610 01:57:46.900600 14734 net.cpp:122] Setting up scale_stage3_block1_branch2b
I0610 01:57:46.900607 14734 net.cpp:129] Top shape: 7 256 7 7 (87808)
I0610 01:57:46.900609 14734 net.cpp:137] Memory required for data: 846820436
I0610 01:57:46.900614 14734 layer_factory.hpp:77] Creating layer relu_stage3_block1_branch2b
I0610 01:57:46.900619 14734 net.cpp:84] Creating Layer relu_stage3_block1_branch2b
I0610 01:57:46.900621 14734 net.cpp:406] relu_stage3_block1_branch2b <- conv_stage3_block1_branch2b
I0610 01:57:46.900625 14734 net.cpp:367] relu_stage3_block1_branch2b -> conv_stage3_block1_branch2b (in-place)
I0610 01:57:46.900630 14734 net.cpp:122] Setting up relu_stage3_block1_branch2b
I0610 01:57:46.900633 14734 net.cpp:129] Top shape: 7 256 7 7 (87808)
I0610 01:57:46.900636 14734 net.cpp:137] Memory required for data: 847171668
I0610 01:57:46.900638 14734 layer_factory.hpp:77] Creating layer conv_stage3_block1_branch2c
I0610 01:57:46.900647 14734 net.cpp:84] Creating Layer conv_stage3_block1_branch2c
I0610 01:57:46.900650 14734 net.cpp:406] conv_stage3_block1_branch2c <- conv_stage3_block1_branch2b
I0610 01:57:46.900655 14734 net.cpp:380] conv_stage3_block1_branch2c -> conv_stage3_block1_branch2c
I0610 01:57:46.902571 14734 net.cpp:122] Setting up conv_stage3_block1_branch2c
I0610 01:57:46.902595 14734 net.cpp:129] Top shape: 7 1024 7 7 (351232)
I0610 01:57:46.902598 14734 net.cpp:137] Memory required for data: 848576596
I0610 01:57:46.902603 14734 layer_factory.hpp:77] Creating layer bn_stage3_block1_branch2c
I0610 01:57:46.902609 14734 net.cpp:84] Creating Layer bn_stage3_block1_branch2c
I0610 01:57:46.902612 14734 net.cpp:406] bn_stage3_block1_branch2c <- conv_stage3_block1_branch2c
I0610 01:57:46.902619 14734 net.cpp:367] bn_stage3_block1_branch2c -> conv_stage3_block1_branch2c (in-place)
I0610 01:57:46.902781 14734 net.cpp:122] Setting up bn_stage3_block1_branch2c
I0610 01:57:46.902786 14734 net.cpp:129] Top shape: 7 1024 7 7 (351232)
I0610 01:57:46.902788 14734 net.cpp:137] Memory required for data: 849981524
I0610 01:57:46.902793 14734 layer_factory.hpp:77] Creating layer scale_stage3_block1_branch2c
I0610 01:57:46.902798 14734 net.cpp:84] Creating Layer scale_stage3_block1_branch2c
I0610 01:57:46.902801 14734 net.cpp:406] scale_stage3_block1_branch2c <- conv_stage3_block1_branch2c
I0610 01:57:46.902806 14734 net.cpp:367] scale_stage3_block1_branch2c -> conv_stage3_block1_branch2c (in-place)
I0610 01:57:46.902839 14734 layer_factory.hpp:77] Creating layer scale_stage3_block1_branch2c
I0610 01:57:46.902935 14734 net.cpp:122] Setting up scale_stage3_block1_branch2c
I0610 01:57:46.902941 14734 net.cpp:129] Top shape: 7 1024 7 7 (351232)
I0610 01:57:46.902943 14734 net.cpp:137] Memory required for data: 851386452
I0610 01:57:46.902948 14734 layer_factory.hpp:77] Creating layer eltwise_stage3_block1
I0610 01:57:46.902952 14734 net.cpp:84] Creating Layer eltwise_stage3_block1
I0610 01:57:46.902956 14734 net.cpp:406] eltwise_stage3_block1 <- eltwise_stage3_block0_relu_stage3_block0_0_split_1
I0610 01:57:46.902959 14734 net.cpp:406] eltwise_stage3_block1 <- conv_stage3_block1_branch2c
I0610 01:57:46.902966 14734 net.cpp:380] eltwise_stage3_block1 -> eltwise_stage3_block1
I0610 01:57:46.902988 14734 net.cpp:122] Setting up eltwise_stage3_block1
I0610 01:57:46.902994 14734 net.cpp:129] Top shape: 7 1024 7 7 (351232)
I0610 01:57:46.902997 14734 net.cpp:137] Memory required for data: 852791380
I0610 01:57:46.902999 14734 layer_factory.hpp:77] Creating layer relu_stage3_block1
I0610 01:57:46.903004 14734 net.cpp:84] Creating Layer relu_stage3_block1
I0610 01:57:46.903007 14734 net.cpp:406] relu_stage3_block1 <- eltwise_stage3_block1
I0610 01:57:46.903010 14734 net.cpp:367] relu_stage3_block1 -> eltwise_stage3_block1 (in-place)
I0610 01:57:46.903015 14734 net.cpp:122] Setting up relu_stage3_block1
I0610 01:57:46.903018 14734 net.cpp:129] Top shape: 7 1024 7 7 (351232)
I0610 01:57:46.905450 14734 net.cpp:137] Memory required for data: 854196308
I0610 01:57:46.905462 14734 layer_factory.hpp:77] Creating layer eltwise_stage3_block1_relu_stage3_block1_0_split
I0610 01:57:46.905473 14734 net.cpp:84] Creating Layer eltwise_stage3_block1_relu_stage3_block1_0_split
I0610 01:57:46.905479 14734 net.cpp:406] eltwise_stage3_block1_relu_stage3_block1_0_split <- eltwise_stage3_block1
I0610 01:57:46.905493 14734 net.cpp:380] eltwise_stage3_block1_relu_stage3_block1_0_split -> eltwise_stage3_block1_relu_stage3_block1_0_split_0
I0610 01:57:46.905503 14734 net.cpp:380] eltwise_stage3_block1_relu_stage3_block1_0_split -> eltwise_stage3_block1_relu_stage3_block1_0_split_1
I0610 01:57:46.905570 14734 net.cpp:122] Setting up eltwise_stage3_block1_relu_stage3_block1_0_split
I0610 01:57:46.905577 14734 net.cpp:129] Top shape: 7 1024 7 7 (351232)
I0610 01:57:46.905584 14734 net.cpp:129] Top shape: 7 1024 7 7 (351232)
I0610 01:57:46.905588 14734 net.cpp:137] Memory required for data: 857006164
I0610 01:57:46.905593 14734 layer_factory.hpp:77] Creating layer conv_stage3_block2_branch2a
I0610 01:57:46.905607 14734 net.cpp:84] Creating Layer conv_stage3_block2_branch2a
I0610 01:57:46.905613 14734 net.cpp:406] conv_stage3_block2_branch2a <- eltwise_stage3_block1_relu_stage3_block1_0_split_0
I0610 01:57:46.905627 14734 net.cpp:380] conv_stage3_block2_branch2a -> conv_stage3_block2_branch2a
I0610 01:57:46.907724 14734 net.cpp:122] Setting up conv_stage3_block2_branch2a
I0610 01:57:46.907738 14734 net.cpp:129] Top shape: 7 256 7 7 (87808)
I0610 01:57:46.907742 14734 net.cpp:137] Memory required for data: 857357396
I0610 01:57:46.907747 14734 layer_factory.hpp:77] Creating layer bn_stage3_block2_branch2a
I0610 01:57:46.907755 14734 net.cpp:84] Creating Layer bn_stage3_block2_branch2a
I0610 01:57:46.907759 14734 net.cpp:406] bn_stage3_block2_branch2a <- conv_stage3_block2_branch2a
I0610 01:57:46.907766 14734 net.cpp:367] bn_stage3_block2_branch2a -> conv_stage3_block2_branch2a (in-place)
I0610 01:57:46.907920 14734 net.cpp:122] Setting up bn_stage3_block2_branch2a
I0610 01:57:46.907927 14734 net.cpp:129] Top shape: 7 256 7 7 (87808)
I0610 01:57:46.907928 14734 net.cpp:137] Memory required for data: 857708628
I0610 01:57:46.907934 14734 layer_factory.hpp:77] Creating layer scale_stage3_block2_branch2a
I0610 01:57:46.907941 14734 net.cpp:84] Creating Layer scale_stage3_block2_branch2a
I0610 01:57:46.907944 14734 net.cpp:406] scale_stage3_block2_branch2a <- conv_stage3_block2_branch2a
I0610 01:57:46.907948 14734 net.cpp:367] scale_stage3_block2_branch2a -> conv_stage3_block2_branch2a (in-place)
I0610 01:57:46.907984 14734 layer_factory.hpp:77] Creating layer scale_stage3_block2_branch2a
I0610 01:57:46.908071 14734 net.cpp:122] Setting up scale_stage3_block2_branch2a
I0610 01:57:46.908077 14734 net.cpp:129] Top shape: 7 256 7 7 (87808)
I0610 01:57:46.908078 14734 net.cpp:137] Memory required for data: 858059860
I0610 01:57:46.908083 14734 layer_factory.hpp:77] Creating layer relu_stage3_block2_branch2a
I0610 01:57:46.908089 14734 net.cpp:84] Creating Layer relu_stage3_block2_branch2a
I0610 01:57:46.908092 14734 net.cpp:406] relu_stage3_block2_branch2a <- conv_stage3_block2_branch2a
I0610 01:57:46.908097 14734 net.cpp:367] relu_stage3_block2_branch2a -> conv_stage3_block2_branch2a (in-place)
I0610 01:57:46.908100 14734 net.cpp:122] Setting up relu_stage3_block2_branch2a
I0610 01:57:46.908104 14734 net.cpp:129] Top shape: 7 256 7 7 (87808)
I0610 01:57:46.908107 14734 net.cpp:137] Memory required for data: 858411092
I0610 01:57:46.908109 14734 layer_factory.hpp:77] Creating layer conv_stage3_block2_branch2b
I0610 01:57:46.908118 14734 net.cpp:84] Creating Layer conv_stage3_block2_branch2b
I0610 01:57:46.908120 14734 net.cpp:406] conv_stage3_block2_branch2b <- conv_stage3_block2_branch2a
I0610 01:57:46.908126 14734 net.cpp:380] conv_stage3_block2_branch2b -> conv_stage3_block2_branch2b
I0610 01:57:46.911904 14734 net.cpp:122] Setting up conv_stage3_block2_branch2b
I0610 01:57:46.911921 14734 net.cpp:129] Top shape: 7 256 7 7 (87808)
I0610 01:57:46.911923 14734 net.cpp:137] Memory required for data: 858762324
I0610 01:57:46.911929 14734 layer_factory.hpp:77] Creating layer bn_stage3_block2_branch2b
I0610 01:57:46.911938 14734 net.cpp:84] Creating Layer bn_stage3_block2_branch2b
I0610 01:57:46.911942 14734 net.cpp:406] bn_stage3_block2_branch2b <- conv_stage3_block2_branch2b
I0610 01:57:46.911949 14734 net.cpp:367] bn_stage3_block2_branch2b -> conv_stage3_block2_branch2b (in-place)
I0610 01:57:46.912112 14734 net.cpp:122] Setting up bn_stage3_block2_branch2b
I0610 01:57:46.912117 14734 net.cpp:129] Top shape: 7 256 7 7 (87808)
I0610 01:57:46.912119 14734 net.cpp:137] Memory required for data: 859113556
I0610 01:57:46.912125 14734 layer_factory.hpp:77] Creating layer scale_stage3_block2_branch2b
I0610 01:57:46.912132 14734 net.cpp:84] Creating Layer scale_stage3_block2_branch2b
I0610 01:57:46.912134 14734 net.cpp:406] scale_stage3_block2_branch2b <- conv_stage3_block2_branch2b
I0610 01:57:46.912138 14734 net.cpp:367] scale_stage3_block2_branch2b -> conv_stage3_block2_branch2b (in-place)
I0610 01:57:46.912178 14734 layer_factory.hpp:77] Creating layer scale_stage3_block2_branch2b
I0610 01:57:46.912264 14734 net.cpp:122] Setting up scale_stage3_block2_branch2b
I0610 01:57:46.912269 14734 net.cpp:129] Top shape: 7 256 7 7 (87808)
I0610 01:57:46.912271 14734 net.cpp:137] Memory required for data: 859464788
I0610 01:57:46.912276 14734 layer_factory.hpp:77] Creating layer relu_stage3_block2_branch2b
I0610 01:57:46.912297 14734 net.cpp:84] Creating Layer relu_stage3_block2_branch2b
I0610 01:57:46.912300 14734 net.cpp:406] relu_stage3_block2_branch2b <- conv_stage3_block2_branch2b
I0610 01:57:46.912305 14734 net.cpp:367] relu_stage3_block2_branch2b -> conv_stage3_block2_branch2b (in-place)
I0610 01:57:46.912309 14734 net.cpp:122] Setting up relu_stage3_block2_branch2b
I0610 01:57:46.912313 14734 net.cpp:129] Top shape: 7 256 7 7 (87808)
I0610 01:57:46.912315 14734 net.cpp:137] Memory required for data: 859816020
I0610 01:57:46.912318 14734 layer_factory.hpp:77] Creating layer conv_stage3_block2_branch2c
I0610 01:57:46.912328 14734 net.cpp:84] Creating Layer conv_stage3_block2_branch2c
I0610 01:57:46.912329 14734 net.cpp:406] conv_stage3_block2_branch2c <- conv_stage3_block2_branch2b
I0610 01:57:46.912335 14734 net.cpp:380] conv_stage3_block2_branch2c -> conv_stage3_block2_branch2c
I0610 01:57:46.914319 14734 net.cpp:122] Setting up conv_stage3_block2_branch2c
I0610 01:57:46.914330 14734 net.cpp:129] Top shape: 7 1024 7 7 (351232)
I0610 01:57:46.914333 14734 net.cpp:137] Memory required for data: 861220948
I0610 01:57:46.914340 14734 layer_factory.hpp:77] Creating layer bn_stage3_block2_branch2c
I0610 01:57:46.914347 14734 net.cpp:84] Creating Layer bn_stage3_block2_branch2c
I0610 01:57:46.914351 14734 net.cpp:406] bn_stage3_block2_branch2c <- conv_stage3_block2_branch2c
I0610 01:57:46.914357 14734 net.cpp:367] bn_stage3_block2_branch2c -> conv_stage3_block2_branch2c (in-place)
I0610 01:57:46.914520 14734 net.cpp:122] Setting up bn_stage3_block2_branch2c
I0610 01:57:46.914525 14734 net.cpp:129] Top shape: 7 1024 7 7 (351232)
I0610 01:57:46.914528 14734 net.cpp:137] Memory required for data: 862625876
I0610 01:57:46.914533 14734 layer_factory.hpp:77] Creating layer scale_stage3_block2_branch2c
I0610 01:57:46.914541 14734 net.cpp:84] Creating Layer scale_stage3_block2_branch2c
I0610 01:57:46.914542 14734 net.cpp:406] scale_stage3_block2_branch2c <- conv_stage3_block2_branch2c
I0610 01:57:46.914546 14734 net.cpp:367] scale_stage3_block2_branch2c -> conv_stage3_block2_branch2c (in-place)
I0610 01:57:46.914583 14734 layer_factory.hpp:77] Creating layer scale_stage3_block2_branch2c
I0610 01:57:46.914678 14734 net.cpp:122] Setting up scale_stage3_block2_branch2c
I0610 01:57:46.914683 14734 net.cpp:129] Top shape: 7 1024 7 7 (351232)
I0610 01:57:46.914685 14734 net.cpp:137] Memory required for data: 864030804
I0610 01:57:46.914690 14734 layer_factory.hpp:77] Creating layer eltwise_stage3_block2
I0610 01:57:46.914696 14734 net.cpp:84] Creating Layer eltwise_stage3_block2
I0610 01:57:46.914700 14734 net.cpp:406] eltwise_stage3_block2 <- eltwise_stage3_block1_relu_stage3_block1_0_split_1
I0610 01:57:46.914705 14734 net.cpp:406] eltwise_stage3_block2 <- conv_stage3_block2_branch2c
I0610 01:57:46.914708 14734 net.cpp:380] eltwise_stage3_block2 -> eltwise_stage3_block2
I0610 01:57:46.914729 14734 net.cpp:122] Setting up eltwise_stage3_block2
I0610 01:57:46.914733 14734 net.cpp:129] Top shape: 7 1024 7 7 (351232)
I0610 01:57:46.914736 14734 net.cpp:137] Memory required for data: 865435732
I0610 01:57:46.914738 14734 layer_factory.hpp:77] Creating layer relu_stage3_block2
I0610 01:57:46.914743 14734 net.cpp:84] Creating Layer relu_stage3_block2
I0610 01:57:46.914746 14734 net.cpp:406] relu_stage3_block2 <- eltwise_stage3_block2
I0610 01:57:46.914750 14734 net.cpp:367] relu_stage3_block2 -> eltwise_stage3_block2 (in-place)
I0610 01:57:46.914755 14734 net.cpp:122] Setting up relu_stage3_block2
I0610 01:57:46.914759 14734 net.cpp:129] Top shape: 7 1024 7 7 (351232)
I0610 01:57:46.914762 14734 net.cpp:137] Memory required for data: 866840660
I0610 01:57:46.914764 14734 layer_factory.hpp:77] Creating layer pool
I0610 01:57:46.914768 14734 net.cpp:84] Creating Layer pool
I0610 01:57:46.914772 14734 net.cpp:406] pool <- eltwise_stage3_block2
I0610 01:57:46.914775 14734 net.cpp:380] pool -> pool
I0610 01:57:46.914794 14734 net.cpp:122] Setting up pool
I0610 01:57:46.914798 14734 net.cpp:129] Top shape: 7 1024 1 1 (7168)
I0610 01:57:46.914816 14734 net.cpp:137] Memory required for data: 866869332
I0610 01:57:46.914819 14734 layer_factory.hpp:77] Creating layer fc_nsfw
I0610 01:57:46.914827 14734 net.cpp:84] Creating Layer fc_nsfw
I0610 01:57:46.914830 14734 net.cpp:406] fc_nsfw <- pool
I0610 01:57:46.914835 14734 net.cpp:380] fc_nsfw -> fc_nsfw
I0610 01:57:46.914945 14734 net.cpp:122] Setting up fc_nsfw
I0610 01:57:46.914950 14734 net.cpp:129] Top shape: 7 2 (14)
I0610 01:57:46.914953 14734 net.cpp:137] Memory required for data: 866869388
I0610 01:57:46.914958 14734 layer_factory.hpp:77] Creating layer fc_nsfw_fc_nsfw_0_split
I0610 01:57:46.914963 14734 net.cpp:84] Creating Layer fc_nsfw_fc_nsfw_0_split
I0610 01:57:46.914965 14734 net.cpp:406] fc_nsfw_fc_nsfw_0_split <- fc_nsfw
I0610 01:57:46.914974 14734 net.cpp:380] fc_nsfw_fc_nsfw_0_split -> fc_nsfw_fc_nsfw_0_split_0
I0610 01:57:46.914980 14734 net.cpp:380] fc_nsfw_fc_nsfw_0_split -> fc_nsfw_fc_nsfw_0_split_1
I0610 01:57:46.915009 14734 net.cpp:122] Setting up fc_nsfw_fc_nsfw_0_split
I0610 01:57:46.915012 14734 net.cpp:129] Top shape: 7 2 (14)
I0610 01:57:46.915015 14734 net.cpp:129] Top shape: 7 2 (14)
I0610 01:57:46.915017 14734 net.cpp:137] Memory required for data: 866869500
I0610 01:57:46.915020 14734 layer_factory.hpp:77] Creating layer loss
I0610 01:57:46.915025 14734 net.cpp:84] Creating Layer loss
I0610 01:57:46.915029 14734 net.cpp:406] loss <- fc_nsfw_fc_nsfw_0_split_0
I0610 01:57:46.915032 14734 net.cpp:406] loss <- label_data_1_split_0
I0610 01:57:46.915037 14734 net.cpp:380] loss -> loss
…
