…
I0617 21:33:39.160020  1284 net.cpp:51] Initializing net from parameters: 
state {
  phase: TRAIN
  level: 0
  stage: ""
}
layer {
  name: "data"
  type: "ImageData"
  top: "data"
  top: "label"
  include {
    phase: TRAIN
  }
  transform_param {
    mirror: true
    crop_size: 227
    mean_file: "nsfwnet2_mean.binaryproto"
  }
  image_data_param {
    source: "/home/dbicho/Documents/datasets/all_labeled_dataset_augmented_finetuning/train.txt"
    batch_size: 14
    shuffle: true
    root_folder: "/home/dbicho/Documents/datasets/all_labeled_dataset_augmented_finetuning/"
  }
}
layer {
  name: "conv1"
  type: "Convolution"
  bottom: "data"
  top: "conv1"
  convolution_param {
    num_output: 64
    kernel_size: 3
    stride: 2
    weight_filler {
      type: "xavier"
    }
  }
}
layer {
  name: "relu_conv1"
  type: "ReLU"
  bottom: "conv1"
  top: "conv1"
}
layer {
  name: "pool1"
  type: "Pooling"
  bottom: "conv1"
  top: "pool1"
  pooling_param {
    pool: MAX
    kernel_size: 3
    stride: 2
  }
}
layer {
  name: "fire2/squeeze1x1"
  type: "Convolution"
  bottom: "pool1"
  top: "fire2/squeeze1x1"
  convolution_param {
    num_output: 16
    kernel_size: 1
    weight_filler {
      type: "xavier"
    }
  }
}
layer {
  name: "fire2/relu_squeeze1x1"
  type: "ReLU"
  bottom: "fire2/squeeze1x1"
  top: "fire2/squeeze1x1"
}
layer {
  name: "fire2/expand1x1"
  type: "Convolution"
  bottom: "fire2/squeeze1x1"
  top: "fire2/expand1x1"
  convolution_param {
    num_output: 64
    kernel_size: 1
    weight_filler {
      type: "xavier"
    }
  }
}
layer {
  name: "fire2/relu_expand1x1"
  type: "ReLU"
  bottom: "fire2/expand1x1"
  top: "fire2/expand1x1"
}
layer {
  name: "fire2/expand3x3"
  type: "Convolution"
  bottom: "fire2/squeeze1x1"
  top: "fire2/expand3x3"
  convolution_param {
    num_output: 64
    pad: 1
    kernel_size: 3
    weight_filler {
      type: "xavier"
    }
  }
}
layer {
  name: "fire2/relu_expand3x3"
  type: "ReLU"
  bottom: "fire2/expand3x3"
  top: "fire2/expand3x3"
}
layer {
  name: "fire2/concat"
  type: "Concat"
  bottom: "fire2/expand1x1"
  bottom: "fire2/expand3x3"
  top: "fire2/concat"
}
layer {
  name: "fire3/squeeze1x1"
  type: "Convolution"
  bottom: "fire2/concat"
  top: "fire3/squeeze1x1"
  convolution_param {
    num_output: 16
    kernel_size: 1
    weight_filler {
      type: "xavier"
    }
  }
}
layer {
  name: "fire3/relu_squeeze1x1"
  type: "ReLU"
  bottom: "fire3/squeeze1x1"
  top: "fire3/squeeze1x1"
}
layer {
  name: "fire3/expand1x1"
  type: "Convolution"
  bottom: "fire3/squeeze1x1"
  top: "fire3/expand1x1"
  convolution_param {
    num_output: 64
    kernel_size: 1
    weight_filler {
      type: "xavier"
    }
  }
}
layer {
  name: "fire3/relu_expand1x1"
  type: "ReLU"
  bottom: "fire3/expand1x1"
  top: "fire3/expand1x1"
}
layer {
  name: "fire3/expand3x3"
  type: "Convolution"
  bottom: "fire3/squeeze1x1"
  top: "fire3/expand3x3"
  convolution_param {
    num_output: 64
    pad: 1
    kernel_size: 3
    weight_filler {
      type: "xavier"
    }
  }
}
layer {
  name: "fire3/relu_expand3x3"
  type: "ReLU"
  bottom: "fire3/expand3x3"
  top: "fire3/expand3x3"
}
layer {
  name: "fire3/concat"
  type: "Concat"
  bottom: "fire3/expand1x1"
  bottom: "fire3/expand3x3"
  top: "fire3/concat"
}
layer {
  name: "pool3"
  type: "Pooling"
  bottom: "fire3/concat"
  top: "pool3"
  pooling_param {
    pool: MAX
    kernel_size: 3
    stride: 2
  }
}
layer {
  name: "fire4/squeeze1x1"
  type: "Convolution"
  bottom: "pool3"
  top: "fire4/squeeze1x1"
  convolution_param {
    num_output: 32
    kernel_size: 1
    weight_filler {
      type: "xavier"
    }
  }
}
layer {
  name: "fire4/relu_squeeze1x1"
  type: "ReLU"
  bottom: "fire4/squeeze1x1"
  top: "fire4/squeeze1x1"
}
layer {
  name: "fire4/expand1x1"
  type: "Convolution"
  bottom: "fire4/squeeze1x1"
  top: "fire4/expand1x1"
  convolution_param {
    num_output: 128
    kernel_size: 1
    weight_filler {
      type: "xavier"
    }
  }
}
layer {
  name: "fire4/relu_expand1x1"
  type: "ReLU"
  bottom: "fire4/expand1x1"
  top: "fire4/expand1x1"
}
layer {
  name: "fire4/expand3x3"
  type: "Convolution"
  bottom: "fire4/squeeze1x1"
  top: "fire4/expand3x3"
  convolution_param {
    num_output: 128
    pad: 1
    kernel_size: 3
    weight_filler {
      type: "xavier"
    }
  }
}
layer {
  name: "fire4/relu_expand3x3"
  type: "ReLU"
  bottom: "fire4/expand3x3"
  top: "fire4/expand3x3"
}
layer {
  name: "fire4/concat"
  type: "Concat"
  bottom: "fire4/expand1x1"
  bottom: "fire4/expand3x3"
  top: "fire4/concat"
}
layer {
  name: "fire5/squeeze1x1"
  type: "Convolution"
  bottom: "fire4/concat"
  top: "fire5/squeeze1x1"
  convolution_param {
    num_output: 32
    kernel_size: 1
    weight_filler {
      type: "xavier"
    }
  }
}
layer {
  name: "fire5/relu_squeeze1x1"
  type: "ReLU"
  bottom: "fire5/squeeze1x1"
  top: "fire5/squeeze1x1"
}
layer {
  name: "fire5/expand1x1"
  type: "Convolution"
  bottom: "fire5/squeeze1x1"
  top: "fire5/expand1x1"
  convolution_param {
    num_output: 128
    kernel_size: 1
    weight_filler {
      type: "xavier"
    }
  }
}
layer {
  name: "fire5/relu_expand1x1"
  type: "ReLU"
  bottom: "fire5/expand1x1"
  top: "fire5/expand1x1"
}
layer {
  name: "fire5/expand3x3"
  type: "Convolution"
  bottom: "fire5/squeeze1x1"
  top: "fire5/expand3x3"
  convolution_param {
    num_output: 128
    pad: 1
    kernel_size: 3
    weight_filler {
      type: "xavier"
    }
  }
}
layer {
  name: "fire5/relu_expand3x3"
  type: "ReLU"
  bottom: "fire5/expand3x3"
  top: "fire5/expand3x3"
}
layer {
  name: "fire5/concat"
  type: "Concat"
  bottom: "fire5/expand1x1"
  bottom: "fire5/expand3x3"
  top: "fire5/concat"
}
layer {
  name: "pool5"
  type: "Pooling"
  bottom: "fire5/concat"
  top: "pool5"
  pooling_param {
    pool: MAX
    kernel_size: 3
    stride: 2
  }
}
layer {
  name: "fire6/squeeze1x1"
  type: "Convolution"
  bottom: "pool5"
  top: "fire6/squeeze1x1"
  convolution_param {
    num_output: 48
    kernel_size: 1
    weight_filler {
      type: "xavier"
    }
  }
}
layer {
  name: "fire6/relu_squeeze1x1"
  type: "ReLU"
  bottom: "fire6/squeeze1x1"
  top: "fire6/squeeze1x1"
}
layer {
  name: "fire6/expand1x1"
  type: "Convolution"
  bottom: "fire6/squeeze1x1"
  top: "fire6/expand1x1"
  convolution_param {
    num_output: 192
    kernel_size: 1
    weight_filler {
      type: "xavier"
    }
  }
}
layer {
  name: "fire6/relu_expand1x1"
  type: "ReLU"
  bottom: "fire6/expand1x1"
  top: "fire6/expand1x1"
}
layer {
  name: "fire6/expand3x3"
  type: "Convolution"
  bottom: "fire6/squeeze1x1"
  top: "fire6/expand3x3"
  convolution_param {
    num_output: 192
    pad: 1
    kernel_size: 3
    weight_filler {
      type: "xavier"
    }
  }
}
layer {
  name: "fire6/relu_expand3x3"
  type: "ReLU"
  bottom: "fire6/expand3x3"
  top: "fire6/expand3x3"
}
layer {
  name: "fire6/concat"
  type: "Concat"
  bottom: "fire6/expand1x1"
  bottom: "fire6/expand3x3"
  top: "fire6/concat"
}
layer {
  name: "fire7/squeeze1x1"
  type: "Convolution"
  bottom: "fire6/concat"
  top: "fire7/squeeze1x1"
  convolution_param {
    num_output: 48
    kernel_size: 1
    weight_filler {
      type: "xavier"
    }
  }
}
layer {
  name: "fire7/relu_squeeze1x1"
  type: "ReLU"
  bottom: "fire7/squeeze1x1"
  top: "fire7/squeeze1x1"
}
layer {
  name: "fire7/expand1x1"
  type: "Convolution"
  bottom: "fire7/squeeze1x1"
  top: "fire7/expand1x1"
  convolution_param {
    num_output: 192
    kernel_size: 1
    weight_filler {
      type: "xavier"
    }
  }
}
layer {
  name: "fire7/relu_expand1x1"
  type: "ReLU"
  bottom: "fire7/expand1x1"
  top: "fire7/expand1x1"
}
layer {
  name: "fire7/expand3x3"
  type: "Convolution"
  bottom: "fire7/squeeze1x1"
  top: "fire7/expand3x3"
  convolution_param {
    num_output: 192
    pad: 1
    kernel_size: 3
    weight_filler {
      type: "xavier"
    }
  }
}
layer {
  name: "fire7/relu_expand3x3"
  type: "ReLU"
  bottom: "fire7/expand3x3"
  top: "fire7/expand3x3"
}
layer {
  name: "fire7/concat"
  type: "Concat"
  bottom: "fire7/expand1x1"
  bottom: "fire7/expand3x3"
  top: "fire7/concat"
}
layer {
  name: "fire8/squeeze1x1"
  type: "Convolution"
  bottom: "fire7/concat"
  top: "fire8/squeeze1x1"
  convolution_param {
    num_output: 64
    kernel_size: 1
    weight_filler {
      type: "xavier"
    }
  }
}
layer {
  name: "fire8/relu_squeeze1x1"
  type: "ReLU"
  bottom: "fire8/squeeze1x1"
  top: "fire8/squeeze1x1"
}
layer {
  name: "fire8/expand1x1"
  type: "Convolution"
  bottom: "fire8/squeeze1x1"
  top: "fire8/expand1x1"
  convolution_param {
    num_output: 256
    kernel_size: 1
    weight_filler {
      type: "xavier"
    }
  }
}
layer {
  name: "fire8/relu_expand1x1"
  type: "ReLU"
  bottom: "fire8/expand1x1"
  top: "fire8/expand1x1"
}
layer {
  name: "fire8/expand3x3"
  type: "Convolution"
  bottom: "fire8/squeeze1x1"
  top: "fire8/expand3x3"
  convolution_param {
    num_output: 256
    pad: 1
    kernel_size: 3
    weight_filler {
      type: "xavier"
    }
  }
}
layer {
  name: "fire8/relu_expand3x3"
  type: "ReLU"
  bottom: "fire8/expand3x3"
  top: "fire8/expand3x3"
}
layer {
  name: "fire8/concat"
  type: "Concat"
  bottom: "fire8/expand1x1"
  bottom: "fire8/expand3x3"
  top: "fire8/concat"
}
layer {
  name: "fire9/squeeze1x1"
  type: "Convolution"
  bottom: "fire8/concat"
  top: "fire9/squeeze1x1"
  convolution_param {
    num_output: 64
    kernel_size: 1
    weight_filler {
      type: "xavier"
    }
  }
}
layer {
  name: "fire9/relu_squeeze1x1"
  type: "ReLU"
  bottom: "fire9/squeeze1x1"
  top: "fire9/squeeze1x1"
}
layer {
  name: "fire9/expand1x1"
  type: "Convolution"
  bottom: "fire9/squeeze1x1"
  top: "fire9/expand1x1"
  convolution_param {
    num_output: 256
    kernel_size: 1
    weight_filler {
      type: "xavier"
    }
  }
}
layer {
  name: "fire9/relu_expand1x1"
  type: "ReLU"
  bottom: "fire9/expand1x1"
  top: "fire9/expand1x1"
}
layer {
  name: "fire9/expand3x3"
  type: "Convolution"
  bottom: "fire9/squeeze1x1"
  top: "fire9/expand3x3"
  convolution_param {
    num_output: 256
    pad: 1
    kernel_size: 3
    weight_filler {
      type: "xavier"
    }
  }
}
layer {
  name: "fire9/relu_expand3x3"
  type: "ReLU"
  bottom: "fire9/expand3x3"
  top: "fire9/expand3x3"
}
layer {
  name: "fire9/concat"
  type: "Concat"
  bottom: "fire9/expand1x1"
  bottom: "fire9/expand3x3"
  top: "fire9/concat"
}
layer {
  name: "drop9"
  type: "Dropout"
  bottom: "fire9/concat"
  top: "fire9/concat"
  dropout_param {
    dropout_ratio: 0.5
  }
}
layer {
  name: "conv10"
  type: "Convolution"
  bottom: "fire9/concat"
  top: "conv10"
  convolution_param {
    num_output: 2
    kernel_size: 1
    weight_filler {
      type: "gaussian"
      mean: 0
      std: 0.01
    }
  }
}
layer {
  name: "relu_conv10"
  type: "ReLU"
  bottom: "conv10"
  top: "conv10"
}
layer {
  name: "pool10"
  type: "Pooling"
  bottom: "conv10"
  top: "pool10"
  pooling_param {
    pool: AVE
    global_pooling: true
  }
}
layer {
  name: "loss"
  type: "SoftmaxWithLoss"
  bottom: "pool10"
  bottom: "label"
  top: "loss"
}
layer {
  name: "accuracy"
  type: "Accuracy"
  bottom: "pool10"
  bottom: "label"
  top: "accuracy"
}
I0617 21:33:39.160399  1284 layer_factory.hpp:77] Creating layer data
I0617 21:33:39.160428  1284 net.cpp:84] Creating Layer data
I0617 21:33:39.160434  1284 net.cpp:380] data -> data
I0617 21:33:39.160455  1284 net.cpp:380] data -> label
I0617 21:33:39.160467  1284 data_transformer.cpp:25] Loading mean file from: nsfwnet2_mean.binaryproto
I0617 21:33:39.162750  1284 image_data_layer.cpp:38] Opening file /home/dbicho/Documents/datasets/all_labeled_dataset_augmented_finetuning/train.txt
I0617 21:33:39.173058  1284 image_data_layer.cpp:53] Shuffling data
I0617 21:33:39.177580  1284 image_data_layer.cpp:63] A total of 19956 images.
I0617 21:33:39.178232  1284 image_data_layer.cpp:90] output data size: 14,3,227,227
I0617 21:33:39.195925  1284 net.cpp:122] Setting up data
I0617 21:33:39.195950  1284 net.cpp:129] Top shape: 14 3 227 227 (2164218)
I0617 21:33:39.195955  1284 net.cpp:129] Top shape: 14 (14)
I0617 21:33:39.195958  1284 net.cpp:137] Memory required for data: 8656928
I0617 21:33:39.195967  1284 layer_factory.hpp:77] Creating layer label_data_1_split
I0617 21:33:39.195986  1284 net.cpp:84] Creating Layer label_data_1_split
I0617 21:33:39.195996  1284 net.cpp:406] label_data_1_split <- label
I0617 21:33:39.196012  1284 net.cpp:380] label_data_1_split -> label_data_1_split_0
I0617 21:33:39.196027  1284 net.cpp:380] label_data_1_split -> label_data_1_split_1
I0617 21:33:39.196094  1284 net.cpp:122] Setting up label_data_1_split
I0617 21:33:39.196105  1284 net.cpp:129] Top shape: 14 (14)
I0617 21:33:39.196110  1284 net.cpp:129] Top shape: 14 (14)
I0617 21:33:39.196115  1284 net.cpp:137] Memory required for data: 8657040
I0617 21:33:39.196118  1284 layer_factory.hpp:77] Creating layer conv1
I0617 21:33:39.196137  1284 net.cpp:84] Creating Layer conv1
I0617 21:33:39.196144  1284 net.cpp:406] conv1 <- data
I0617 21:33:39.196151  1284 net.cpp:380] conv1 -> conv1
I0617 21:33:39.197409  1284 net.cpp:122] Setting up conv1
I0617 21:33:39.197423  1284 net.cpp:129] Top shape: 14 64 113 113 (11441024)
I0617 21:33:39.197427  1284 net.cpp:137] Memory required for data: 54421136
I0617 21:33:39.197443  1284 layer_factory.hpp:77] Creating layer relu_conv1
I0617 21:33:39.197453  1284 net.cpp:84] Creating Layer relu_conv1
I0617 21:33:39.197456  1284 net.cpp:406] relu_conv1 <- conv1
I0617 21:33:39.197460  1284 net.cpp:367] relu_conv1 -> conv1 (in-place)
I0617 21:33:39.197468  1284 net.cpp:122] Setting up relu_conv1
I0617 21:33:39.197470  1284 net.cpp:129] Top shape: 14 64 113 113 (11441024)
I0617 21:33:39.197474  1284 net.cpp:137] Memory required for data: 100185232
I0617 21:33:39.197475  1284 layer_factory.hpp:77] Creating layer pool1
I0617 21:33:39.197482  1284 net.cpp:84] Creating Layer pool1
I0617 21:33:39.197486  1284 net.cpp:406] pool1 <- conv1
I0617 21:33:39.197490  1284 net.cpp:380] pool1 -> pool1
I0617 21:33:39.197540  1284 net.cpp:122] Setting up pool1
I0617 21:33:39.197547  1284 net.cpp:129] Top shape: 14 64 56 56 (2809856)
I0617 21:33:39.197551  1284 net.cpp:137] Memory required for data: 111424656
I0617 21:33:39.197552  1284 layer_factory.hpp:77] Creating layer fire2/squeeze1x1
I0617 21:33:39.197561  1284 net.cpp:84] Creating Layer fire2/squeeze1x1
I0617 21:33:39.197563  1284 net.cpp:406] fire2/squeeze1x1 <- pool1
I0617 21:33:39.197568  1284 net.cpp:380] fire2/squeeze1x1 -> fire2/squeeze1x1
I0617 21:33:39.198982  1284 net.cpp:122] Setting up fire2/squeeze1x1
I0617 21:33:39.198993  1284 net.cpp:129] Top shape: 14 16 56 56 (702464)
I0617 21:33:39.198995  1284 net.cpp:137] Memory required for data: 114234512
I0617 21:33:39.199004  1284 layer_factory.hpp:77] Creating layer fire2/relu_squeeze1x1
I0617 21:33:39.199010  1284 net.cpp:84] Creating Layer fire2/relu_squeeze1x1
I0617 21:33:39.199014  1284 net.cpp:406] fire2/relu_squeeze1x1 <- fire2/squeeze1x1
I0617 21:33:39.199019  1284 net.cpp:367] fire2/relu_squeeze1x1 -> fire2/squeeze1x1 (in-place)
I0617 21:33:39.199025  1284 net.cpp:122] Setting up fire2/relu_squeeze1x1
I0617 21:33:39.199029  1284 net.cpp:129] Top shape: 14 16 56 56 (702464)
I0617 21:33:39.199033  1284 net.cpp:137] Memory required for data: 117044368
I0617 21:33:39.199035  1284 layer_factory.hpp:77] Creating layer fire2/squeeze1x1_fire2/relu_squeeze1x1_0_split
I0617 21:33:39.199040  1284 net.cpp:84] Creating Layer fire2/squeeze1x1_fire2/relu_squeeze1x1_0_split
I0617 21:33:39.199043  1284 net.cpp:406] fire2/squeeze1x1_fire2/relu_squeeze1x1_0_split <- fire2/squeeze1x1
I0617 21:33:39.199048  1284 net.cpp:380] fire2/squeeze1x1_fire2/relu_squeeze1x1_0_split -> fire2/squeeze1x1_fire2/relu_squeeze1x1_0_split_0
I0617 21:33:39.199069  1284 net.cpp:380] fire2/squeeze1x1_fire2/relu_squeeze1x1_0_split -> fire2/squeeze1x1_fire2/relu_squeeze1x1_0_split_1
I0617 21:33:39.199103  1284 net.cpp:122] Setting up fire2/squeeze1x1_fire2/relu_squeeze1x1_0_split
I0617 21:33:39.199108  1284 net.cpp:129] Top shape: 14 16 56 56 (702464)
I0617 21:33:39.199112  1284 net.cpp:129] Top shape: 14 16 56 56 (702464)
I0617 21:33:39.199115  1284 net.cpp:137] Memory required for data: 122664080
I0617 21:33:39.199117  1284 layer_factory.hpp:77] Creating layer fire2/expand1x1
I0617 21:33:39.199126  1284 net.cpp:84] Creating Layer fire2/expand1x1
I0617 21:33:39.199131  1284 net.cpp:406] fire2/expand1x1 <- fire2/squeeze1x1_fire2/relu_squeeze1x1_0_split_0
I0617 21:33:39.199136  1284 net.cpp:380] fire2/expand1x1 -> fire2/expand1x1
I0617 21:33:39.199326  1284 net.cpp:122] Setting up fire2/expand1x1
I0617 21:33:39.199331  1284 net.cpp:129] Top shape: 14 64 56 56 (2809856)
I0617 21:33:39.199334  1284 net.cpp:137] Memory required for data: 133903504
I0617 21:33:39.199344  1284 layer_factory.hpp:77] Creating layer fire2/relu_expand1x1
I0617 21:33:39.199352  1284 net.cpp:84] Creating Layer fire2/relu_expand1x1
I0617 21:33:39.199358  1284 net.cpp:406] fire2/relu_expand1x1 <- fire2/expand1x1
I0617 21:33:39.199363  1284 net.cpp:367] fire2/relu_expand1x1 -> fire2/expand1x1 (in-place)
I0617 21:33:39.199369  1284 net.cpp:122] Setting up fire2/relu_expand1x1
I0617 21:33:39.199373  1284 net.cpp:129] Top shape: 14 64 56 56 (2809856)
I0617 21:33:39.199375  1284 net.cpp:137] Memory required for data: 145142928
I0617 21:33:39.199378  1284 layer_factory.hpp:77] Creating layer fire2/expand3x3
I0617 21:33:39.199384  1284 net.cpp:84] Creating Layer fire2/expand3x3
I0617 21:33:39.199388  1284 net.cpp:406] fire2/expand3x3 <- fire2/squeeze1x1_fire2/relu_squeeze1x1_0_split_1
I0617 21:33:39.199393  1284 net.cpp:380] fire2/expand3x3 -> fire2/expand3x3
I0617 21:33:39.199677  1284 net.cpp:122] Setting up fire2/expand3x3
I0617 21:33:39.199687  1284 net.cpp:129] Top shape: 14 64 56 56 (2809856)
I0617 21:33:39.199689  1284 net.cpp:137] Memory required for data: 156382352
I0617 21:33:39.199697  1284 layer_factory.hpp:77] Creating layer fire2/relu_expand3x3
I0617 21:33:39.199703  1284 net.cpp:84] Creating Layer fire2/relu_expand3x3
I0617 21:33:39.199707  1284 net.cpp:406] fire2/relu_expand3x3 <- fire2/expand3x3
I0617 21:33:39.199713  1284 net.cpp:367] fire2/relu_expand3x3 -> fire2/expand3x3 (in-place)
I0617 21:33:39.199720  1284 net.cpp:122] Setting up fire2/relu_expand3x3
I0617 21:33:39.199726  1284 net.cpp:129] Top shape: 14 64 56 56 (2809856)
I0617 21:33:39.199728  1284 net.cpp:137] Memory required for data: 167621776
I0617 21:33:39.199730  1284 layer_factory.hpp:77] Creating layer fire2/concat
I0617 21:33:39.199736  1284 net.cpp:84] Creating Layer fire2/concat
I0617 21:33:39.199738  1284 net.cpp:406] fire2/concat <- fire2/expand1x1
I0617 21:33:39.199741  1284 net.cpp:406] fire2/concat <- fire2/expand3x3
I0617 21:33:39.199746  1284 net.cpp:380] fire2/concat -> fire2/concat
I0617 21:33:39.199767  1284 net.cpp:122] Setting up fire2/concat
I0617 21:33:39.199772  1284 net.cpp:129] Top shape: 14 128 56 56 (5619712)
I0617 21:33:39.199774  1284 net.cpp:137] Memory required for data: 190100624
I0617 21:33:39.199777  1284 layer_factory.hpp:77] Creating layer fire3/squeeze1x1
I0617 21:33:39.199784  1284 net.cpp:84] Creating Layer fire3/squeeze1x1
I0617 21:33:39.199787  1284 net.cpp:406] fire3/squeeze1x1 <- fire2/concat
I0617 21:33:39.199793  1284 net.cpp:380] fire3/squeeze1x1 -> fire3/squeeze1x1
I0617 21:33:39.200003  1284 net.cpp:122] Setting up fire3/squeeze1x1
I0617 21:33:39.200011  1284 net.cpp:129] Top shape: 14 16 56 56 (702464)
I0617 21:33:39.200012  1284 net.cpp:137] Memory required for data: 192910480
I0617 21:33:39.200022  1284 layer_factory.hpp:77] Creating layer fire3/relu_squeeze1x1
I0617 21:33:39.200028  1284 net.cpp:84] Creating Layer fire3/relu_squeeze1x1
I0617 21:33:39.200031  1284 net.cpp:406] fire3/relu_squeeze1x1 <- fire3/squeeze1x1
I0617 21:33:39.200045  1284 net.cpp:367] fire3/relu_squeeze1x1 -> fire3/squeeze1x1 (in-place)
I0617 21:33:39.200050  1284 net.cpp:122] Setting up fire3/relu_squeeze1x1
I0617 21:33:39.200054  1284 net.cpp:129] Top shape: 14 16 56 56 (702464)
I0617 21:33:39.200057  1284 net.cpp:137] Memory required for data: 195720336
I0617 21:33:39.200062  1284 layer_factory.hpp:77] Creating layer fire3/squeeze1x1_fire3/relu_squeeze1x1_0_split
I0617 21:33:39.200068  1284 net.cpp:84] Creating Layer fire3/squeeze1x1_fire3/relu_squeeze1x1_0_split
I0617 21:33:39.200073  1284 net.cpp:406] fire3/squeeze1x1_fire3/relu_squeeze1x1_0_split <- fire3/squeeze1x1
I0617 21:33:39.200079  1284 net.cpp:380] fire3/squeeze1x1_fire3/relu_squeeze1x1_0_split -> fire3/squeeze1x1_fire3/relu_squeeze1x1_0_split_0
I0617 21:33:39.200086  1284 net.cpp:380] fire3/squeeze1x1_fire3/relu_squeeze1x1_0_split -> fire3/squeeze1x1_fire3/relu_squeeze1x1_0_split_1
I0617 21:33:39.200124  1284 net.cpp:122] Setting up fire3/squeeze1x1_fire3/relu_squeeze1x1_0_split
I0617 21:33:39.200130  1284 net.cpp:129] Top shape: 14 16 56 56 (702464)
I0617 21:33:39.200134  1284 net.cpp:129] Top shape: 14 16 56 56 (702464)
I0617 21:33:39.200136  1284 net.cpp:137] Memory required for data: 201340048
I0617 21:33:39.200139  1284 layer_factory.hpp:77] Creating layer fire3/expand1x1
I0617 21:33:39.200148  1284 net.cpp:84] Creating Layer fire3/expand1x1
I0617 21:33:39.200152  1284 net.cpp:406] fire3/expand1x1 <- fire3/squeeze1x1_fire3/relu_squeeze1x1_0_split_0
I0617 21:33:39.200157  1284 net.cpp:380] fire3/expand1x1 -> fire3/expand1x1
I0617 21:33:39.200397  1284 net.cpp:122] Setting up fire3/expand1x1
I0617 21:33:39.200410  1284 net.cpp:129] Top shape: 14 64 56 56 (2809856)
I0617 21:33:39.200417  1284 net.cpp:137] Memory required for data: 212579472
I0617 21:33:39.200424  1284 layer_factory.hpp:77] Creating layer fire3/relu_expand1x1
I0617 21:33:39.200433  1284 net.cpp:84] Creating Layer fire3/relu_expand1x1
I0617 21:33:39.200439  1284 net.cpp:406] fire3/relu_expand1x1 <- fire3/expand1x1
I0617 21:33:39.200448  1284 net.cpp:367] fire3/relu_expand1x1 -> fire3/expand1x1 (in-place)
I0617 21:33:39.200458  1284 net.cpp:122] Setting up fire3/relu_expand1x1
I0617 21:33:39.200465  1284 net.cpp:129] Top shape: 14 64 56 56 (2809856)
I0617 21:33:39.200470  1284 net.cpp:137] Memory required for data: 223818896
I0617 21:33:39.200474  1284 layer_factory.hpp:77] Creating layer fire3/expand3x3
I0617 21:33:39.200484  1284 net.cpp:84] Creating Layer fire3/expand3x3
I0617 21:33:39.200490  1284 net.cpp:406] fire3/expand3x3 <- fire3/squeeze1x1_fire3/relu_squeeze1x1_0_split_1
I0617 21:33:39.200496  1284 net.cpp:380] fire3/expand3x3 -> fire3/expand3x3
I0617 21:33:39.200734  1284 net.cpp:122] Setting up fire3/expand3x3
I0617 21:33:39.200740  1284 net.cpp:129] Top shape: 14 64 56 56 (2809856)
I0617 21:33:39.200743  1284 net.cpp:137] Memory required for data: 235058320
I0617 21:33:39.200750  1284 layer_factory.hpp:77] Creating layer fire3/relu_expand3x3
I0617 21:33:39.200758  1284 net.cpp:84] Creating Layer fire3/relu_expand3x3
I0617 21:33:39.200763  1284 net.cpp:406] fire3/relu_expand3x3 <- fire3/expand3x3
I0617 21:33:39.200770  1284 net.cpp:367] fire3/relu_expand3x3 -> fire3/expand3x3 (in-place)
I0617 21:33:39.200779  1284 net.cpp:122] Setting up fire3/relu_expand3x3
I0617 21:33:39.200788  1284 net.cpp:129] Top shape: 14 64 56 56 (2809856)
I0617 21:33:39.200791  1284 net.cpp:137] Memory required for data: 246297744
I0617 21:33:39.200796  1284 layer_factory.hpp:77] Creating layer fire3/concat
I0617 21:33:39.200803  1284 net.cpp:84] Creating Layer fire3/concat
I0617 21:33:39.200808  1284 net.cpp:406] fire3/concat <- fire3/expand1x1
I0617 21:33:39.200814  1284 net.cpp:406] fire3/concat <- fire3/expand3x3
I0617 21:33:39.200821  1284 net.cpp:380] fire3/concat -> fire3/concat
I0617 21:33:39.200855  1284 net.cpp:122] Setting up fire3/concat
I0617 21:33:39.200865  1284 net.cpp:129] Top shape: 14 128 56 56 (5619712)
I0617 21:33:39.200870  1284 net.cpp:137] Memory required for data: 268776592
I0617 21:33:39.200886  1284 layer_factory.hpp:77] Creating layer pool3
I0617 21:33:39.200896  1284 net.cpp:84] Creating Layer pool3
I0617 21:33:39.200901  1284 net.cpp:406] pool3 <- fire3/concat
I0617 21:33:39.200908  1284 net.cpp:380] pool3 -> pool3
I0617 21:33:39.200942  1284 net.cpp:122] Setting up pool3
I0617 21:33:39.200947  1284 net.cpp:129] Top shape: 14 128 28 28 (1404928)
I0617 21:33:39.200949  1284 net.cpp:137] Memory required for data: 274396304
I0617 21:33:39.200953  1284 layer_factory.hpp:77] Creating layer fire4/squeeze1x1
I0617 21:33:39.200958  1284 net.cpp:84] Creating Layer fire4/squeeze1x1
I0617 21:33:39.200961  1284 net.cpp:406] fire4/squeeze1x1 <- pool3
I0617 21:33:39.200966  1284 net.cpp:380] fire4/squeeze1x1 -> fire4/squeeze1x1
I0617 21:33:39.201166  1284 net.cpp:122] Setting up fire4/squeeze1x1
I0617 21:33:39.201172  1284 net.cpp:129] Top shape: 14 32 28 28 (351232)
I0617 21:33:39.201175  1284 net.cpp:137] Memory required for data: 275801232
I0617 21:33:39.201184  1284 layer_factory.hpp:77] Creating layer fire4/relu_squeeze1x1
I0617 21:33:39.201191  1284 net.cpp:84] Creating Layer fire4/relu_squeeze1x1
I0617 21:33:39.201196  1284 net.cpp:406] fire4/relu_squeeze1x1 <- fire4/squeeze1x1
I0617 21:33:39.201203  1284 net.cpp:367] fire4/relu_squeeze1x1 -> fire4/squeeze1x1 (in-place)
I0617 21:33:39.201212  1284 net.cpp:122] Setting up fire4/relu_squeeze1x1
I0617 21:33:39.201220  1284 net.cpp:129] Top shape: 14 32 28 28 (351232)
I0617 21:33:39.201225  1284 net.cpp:137] Memory required for data: 277206160
I0617 21:33:39.201228  1284 layer_factory.hpp:77] Creating layer fire4/squeeze1x1_fire4/relu_squeeze1x1_0_split
I0617 21:33:39.201237  1284 net.cpp:84] Creating Layer fire4/squeeze1x1_fire4/relu_squeeze1x1_0_split
I0617 21:33:39.201242  1284 net.cpp:406] fire4/squeeze1x1_fire4/relu_squeeze1x1_0_split <- fire4/squeeze1x1
I0617 21:33:39.201251  1284 net.cpp:380] fire4/squeeze1x1_fire4/relu_squeeze1x1_0_split -> fire4/squeeze1x1_fire4/relu_squeeze1x1_0_split_0
I0617 21:33:39.201261  1284 net.cpp:380] fire4/squeeze1x1_fire4/relu_squeeze1x1_0_split -> fire4/squeeze1x1_fire4/relu_squeeze1x1_0_split_1
I0617 21:33:39.201308  1284 net.cpp:122] Setting up fire4/squeeze1x1_fire4/relu_squeeze1x1_0_split
I0617 21:33:39.201318  1284 net.cpp:129] Top shape: 14 32 28 28 (351232)
I0617 21:33:39.201326  1284 net.cpp:129] Top shape: 14 32 28 28 (351232)
I0617 21:33:39.201331  1284 net.cpp:137] Memory required for data: 280016016
I0617 21:33:39.201335  1284 layer_factory.hpp:77] Creating layer fire4/expand1x1
I0617 21:33:39.201345  1284 net.cpp:84] Creating Layer fire4/expand1x1
I0617 21:33:39.201352  1284 net.cpp:406] fire4/expand1x1 <- fire4/squeeze1x1_fire4/relu_squeeze1x1_0_split_0
I0617 21:33:39.201359  1284 net.cpp:380] fire4/expand1x1 -> fire4/expand1x1
I0617 21:33:39.201635  1284 net.cpp:122] Setting up fire4/expand1x1
I0617 21:33:39.201649  1284 net.cpp:129] Top shape: 14 128 28 28 (1404928)
I0617 21:33:39.201655  1284 net.cpp:137] Memory required for data: 285635728
I0617 21:33:39.201669  1284 layer_factory.hpp:77] Creating layer fire4/relu_expand1x1
I0617 21:33:39.201678  1284 net.cpp:84] Creating Layer fire4/relu_expand1x1
I0617 21:33:39.201684  1284 net.cpp:406] fire4/relu_expand1x1 <- fire4/expand1x1
I0617 21:33:39.201694  1284 net.cpp:367] fire4/relu_expand1x1 -> fire4/expand1x1 (in-place)
I0617 21:33:39.201702  1284 net.cpp:122] Setting up fire4/relu_expand1x1
I0617 21:33:39.201710  1284 net.cpp:129] Top shape: 14 128 28 28 (1404928)
I0617 21:33:39.201715  1284 net.cpp:137] Memory required for data: 291255440
I0617 21:33:39.201719  1284 layer_factory.hpp:77] Creating layer fire4/expand3x3
I0617 21:33:39.201730  1284 net.cpp:84] Creating Layer fire4/expand3x3
I0617 21:33:39.201735  1284 net.cpp:406] fire4/expand3x3 <- fire4/squeeze1x1_fire4/relu_squeeze1x1_0_split_1
I0617 21:33:39.201743  1284 net.cpp:380] fire4/expand3x3 -> fire4/expand3x3
I0617 21:33:39.203152  1284 net.cpp:122] Setting up fire4/expand3x3
I0617 21:33:39.203169  1284 net.cpp:129] Top shape: 14 128 28 28 (1404928)
I0617 21:33:39.203174  1284 net.cpp:137] Memory required for data: 296875152
I0617 21:33:39.203199  1284 layer_factory.hpp:77] Creating layer fire4/relu_expand3x3
I0617 21:33:39.203210  1284 net.cpp:84] Creating Layer fire4/relu_expand3x3
I0617 21:33:39.203215  1284 net.cpp:406] fire4/relu_expand3x3 <- fire4/expand3x3
I0617 21:33:39.203223  1284 net.cpp:367] fire4/relu_expand3x3 -> fire4/expand3x3 (in-place)
I0617 21:33:39.203233  1284 net.cpp:122] Setting up fire4/relu_expand3x3
I0617 21:33:39.203238  1284 net.cpp:129] Top shape: 14 128 28 28 (1404928)
I0617 21:33:39.203243  1284 net.cpp:137] Memory required for data: 302494864
I0617 21:33:39.203246  1284 layer_factory.hpp:77] Creating layer fire4/concat
I0617 21:33:39.203253  1284 net.cpp:84] Creating Layer fire4/concat
I0617 21:33:39.203258  1284 net.cpp:406] fire4/concat <- fire4/expand1x1
I0617 21:33:39.203264  1284 net.cpp:406] fire4/concat <- fire4/expand3x3
I0617 21:33:39.203272  1284 net.cpp:380] fire4/concat -> fire4/concat
I0617 21:33:39.203307  1284 net.cpp:122] Setting up fire4/concat
I0617 21:33:39.203317  1284 net.cpp:129] Top shape: 14 256 28 28 (2809856)
I0617 21:33:39.203322  1284 net.cpp:137] Memory required for data: 313734288
I0617 21:33:39.203326  1284 layer_factory.hpp:77] Creating layer fire5/squeeze1x1
I0617 21:33:39.203338  1284 net.cpp:84] Creating Layer fire5/squeeze1x1
I0617 21:33:39.203344  1284 net.cpp:406] fire5/squeeze1x1 <- fire4/concat
I0617 21:33:39.203353  1284 net.cpp:380] fire5/squeeze1x1 -> fire5/squeeze1x1
I0617 21:33:39.203714  1284 net.cpp:122] Setting up fire5/squeeze1x1
I0617 21:33:39.203728  1284 net.cpp:129] Top shape: 14 32 28 28 (351232)
I0617 21:33:39.203732  1284 net.cpp:137] Memory required for data: 315139216
I0617 21:33:39.203737  1284 layer_factory.hpp:77] Creating layer fire5/relu_squeeze1x1
I0617 21:33:39.203745  1284 net.cpp:84] Creating Layer fire5/relu_squeeze1x1
I0617 21:33:39.203749  1284 net.cpp:406] fire5/relu_squeeze1x1 <- fire5/squeeze1x1
I0617 21:33:39.203758  1284 net.cpp:367] fire5/relu_squeeze1x1 -> fire5/squeeze1x1 (in-place)
I0617 21:33:39.203768  1284 net.cpp:122] Setting up fire5/relu_squeeze1x1
I0617 21:33:39.203774  1284 net.cpp:129] Top shape: 14 32 28 28 (351232)
I0617 21:33:39.203779  1284 net.cpp:137] Memory required for data: 316544144
I0617 21:33:39.203783  1284 layer_factory.hpp:77] Creating layer fire5/squeeze1x1_fire5/relu_squeeze1x1_0_split
I0617 21:33:39.203800  1284 net.cpp:84] Creating Layer fire5/squeeze1x1_fire5/relu_squeeze1x1_0_split
I0617 21:33:39.203806  1284 net.cpp:406] fire5/squeeze1x1_fire5/relu_squeeze1x1_0_split <- fire5/squeeze1x1
I0617 21:33:39.203815  1284 net.cpp:380] fire5/squeeze1x1_fire5/relu_squeeze1x1_0_split -> fire5/squeeze1x1_fire5/relu_squeeze1x1_0_split_0
I0617 21:33:39.203828  1284 net.cpp:380] fire5/squeeze1x1_fire5/relu_squeeze1x1_0_split -> fire5/squeeze1x1_fire5/relu_squeeze1x1_0_split_1
I0617 21:33:39.203876  1284 net.cpp:122] Setting up fire5/squeeze1x1_fire5/relu_squeeze1x1_0_split
I0617 21:33:39.203888  1284 net.cpp:129] Top shape: 14 32 28 28 (351232)
I0617 21:33:39.203896  1284 net.cpp:129] Top shape: 14 32 28 28 (351232)
I0617 21:33:39.203900  1284 net.cpp:137] Memory required for data: 319354000
I0617 21:33:39.203904  1284 layer_factory.hpp:77] Creating layer fire5/expand1x1
I0617 21:33:39.203915  1284 net.cpp:84] Creating Layer fire5/expand1x1
I0617 21:33:39.203922  1284 net.cpp:406] fire5/expand1x1 <- fire5/squeeze1x1_fire5/relu_squeeze1x1_0_split_0
I0617 21:33:39.203932  1284 net.cpp:380] fire5/expand1x1 -> fire5/expand1x1
I0617 21:33:39.204264  1284 net.cpp:122] Setting up fire5/expand1x1
I0617 21:33:39.204279  1284 net.cpp:129] Top shape: 14 128 28 28 (1404928)
I0617 21:33:39.204284  1284 net.cpp:137] Memory required for data: 324973712
I0617 21:33:39.204293  1284 layer_factory.hpp:77] Creating layer fire5/relu_expand1x1
I0617 21:33:39.204303  1284 net.cpp:84] Creating Layer fire5/relu_expand1x1
I0617 21:33:39.204308  1284 net.cpp:406] fire5/relu_expand1x1 <- fire5/expand1x1
I0617 21:33:39.204316  1284 net.cpp:367] fire5/relu_expand1x1 -> fire5/expand1x1 (in-place)
I0617 21:33:39.204339  1284 net.cpp:122] Setting up fire5/relu_expand1x1
I0617 21:33:39.204349  1284 net.cpp:129] Top shape: 14 128 28 28 (1404928)
I0617 21:33:39.204354  1284 net.cpp:137] Memory required for data: 330593424
I0617 21:33:39.204357  1284 layer_factory.hpp:77] Creating layer fire5/expand3x3
I0617 21:33:39.204368  1284 net.cpp:84] Creating Layer fire5/expand3x3
I0617 21:33:39.204375  1284 net.cpp:406] fire5/expand3x3 <- fire5/squeeze1x1_fire5/relu_squeeze1x1_0_split_1
I0617 21:33:39.204383  1284 net.cpp:380] fire5/expand3x3 -> fire5/expand3x3
I0617 21:33:39.205018  1284 net.cpp:122] Setting up fire5/expand3x3
I0617 21:33:39.205034  1284 net.cpp:129] Top shape: 14 128 28 28 (1404928)
I0617 21:33:39.205040  1284 net.cpp:137] Memory required for data: 336213136
I0617 21:33:39.205049  1284 layer_factory.hpp:77] Creating layer fire5/relu_expand3x3
I0617 21:33:39.205058  1284 net.cpp:84] Creating Layer fire5/relu_expand3x3
I0617 21:33:39.205065  1284 net.cpp:406] fire5/relu_expand3x3 <- fire5/expand3x3
I0617 21:33:39.205073  1284 net.cpp:367] fire5/relu_expand3x3 -> fire5/expand3x3 (in-place)
I0617 21:33:39.205083  1284 net.cpp:122] Setting up fire5/relu_expand3x3
I0617 21:33:39.205091  1284 net.cpp:129] Top shape: 14 128 28 28 (1404928)
I0617 21:33:39.205097  1284 net.cpp:137] Memory required for data: 341832848
I0617 21:33:39.205101  1284 layer_factory.hpp:77] Creating layer fire5/concat
I0617 21:33:39.205107  1284 net.cpp:84] Creating Layer fire5/concat
I0617 21:33:39.205113  1284 net.cpp:406] fire5/concat <- fire5/expand1x1
I0617 21:33:39.205118  1284 net.cpp:406] fire5/concat <- fire5/expand3x3
I0617 21:33:39.205127  1284 net.cpp:380] fire5/concat -> fire5/concat
I0617 21:33:39.205160  1284 net.cpp:122] Setting up fire5/concat
I0617 21:33:39.205169  1284 net.cpp:129] Top shape: 14 256 28 28 (2809856)
I0617 21:33:39.205174  1284 net.cpp:137] Memory required for data: 353072272
I0617 21:33:39.205179  1284 layer_factory.hpp:77] Creating layer pool5
I0617 21:33:39.205186  1284 net.cpp:84] Creating Layer pool5
I0617 21:33:39.205193  1284 net.cpp:406] pool5 <- fire5/concat
I0617 21:33:39.205199  1284 net.cpp:380] pool5 -> pool5
I0617 21:33:39.205247  1284 net.cpp:122] Setting up pool5
I0617 21:33:39.205258  1284 net.cpp:129] Top shape: 14 256 14 14 (702464)
I0617 21:33:39.205263  1284 net.cpp:137] Memory required for data: 355882128
I0617 21:33:39.205267  1284 layer_factory.hpp:77] Creating layer fire6/squeeze1x1
I0617 21:33:39.205278  1284 net.cpp:84] Creating Layer fire6/squeeze1x1
I0617 21:33:39.205284  1284 net.cpp:406] fire6/squeeze1x1 <- pool5
I0617 21:33:39.205293  1284 net.cpp:380] fire6/squeeze1x1 -> fire6/squeeze1x1
I0617 21:33:39.205672  1284 net.cpp:122] Setting up fire6/squeeze1x1
I0617 21:33:39.205688  1284 net.cpp:129] Top shape: 14 48 14 14 (131712)
I0617 21:33:39.205693  1284 net.cpp:137] Memory required for data: 356408976
I0617 21:33:39.205703  1284 layer_factory.hpp:77] Creating layer fire6/relu_squeeze1x1
I0617 21:33:39.205713  1284 net.cpp:84] Creating Layer fire6/relu_squeeze1x1
I0617 21:33:39.205718  1284 net.cpp:406] fire6/relu_squeeze1x1 <- fire6/squeeze1x1
I0617 21:33:39.205726  1284 net.cpp:367] fire6/relu_squeeze1x1 -> fire6/squeeze1x1 (in-place)
I0617 21:33:39.205737  1284 net.cpp:122] Setting up fire6/relu_squeeze1x1
I0617 21:33:39.205744  1284 net.cpp:129] Top shape: 14 48 14 14 (131712)
I0617 21:33:39.205749  1284 net.cpp:137] Memory required for data: 356935824
I0617 21:33:39.205754  1284 layer_factory.hpp:77] Creating layer fire6/squeeze1x1_fire6/relu_squeeze1x1_0_split
I0617 21:33:39.205761  1284 net.cpp:84] Creating Layer fire6/squeeze1x1_fire6/relu_squeeze1x1_0_split
I0617 21:33:39.205767  1284 net.cpp:406] fire6/squeeze1x1_fire6/relu_squeeze1x1_0_split <- fire6/squeeze1x1
I0617 21:33:39.205775  1284 net.cpp:380] fire6/squeeze1x1_fire6/relu_squeeze1x1_0_split -> fire6/squeeze1x1_fire6/relu_squeeze1x1_0_split_0
I0617 21:33:39.205786  1284 net.cpp:380] fire6/squeeze1x1_fire6/relu_squeeze1x1_0_split -> fire6/squeeze1x1_fire6/relu_squeeze1x1_0_split_1
I0617 21:33:39.205853  1284 net.cpp:122] Setting up fire6/squeeze1x1_fire6/relu_squeeze1x1_0_split
I0617 21:33:39.205880  1284 net.cpp:129] Top shape: 14 48 14 14 (131712)
I0617 21:33:39.205888  1284 net.cpp:129] Top shape: 14 48 14 14 (131712)
I0617 21:33:39.205893  1284 net.cpp:137] Memory required for data: 357989520
I0617 21:33:39.205899  1284 layer_factory.hpp:77] Creating layer fire6/expand1x1
I0617 21:33:39.205910  1284 net.cpp:84] Creating Layer fire6/expand1x1
I0617 21:33:39.205917  1284 net.cpp:406] fire6/expand1x1 <- fire6/squeeze1x1_fire6/relu_squeeze1x1_0_split_0
I0617 21:33:39.205927  1284 net.cpp:380] fire6/expand1x1 -> fire6/expand1x1
I0617 21:33:39.206305  1284 net.cpp:122] Setting up fire6/expand1x1
I0617 21:33:39.206322  1284 net.cpp:129] Top shape: 14 192 14 14 (526848)
I0617 21:33:39.206327  1284 net.cpp:137] Memory required for data: 360096912
I0617 21:33:39.206336  1284 layer_factory.hpp:77] Creating layer fire6/relu_expand1x1
I0617 21:33:39.206346  1284 net.cpp:84] Creating Layer fire6/relu_expand1x1
I0617 21:33:39.206351  1284 net.cpp:406] fire6/relu_expand1x1 <- fire6/expand1x1
I0617 21:33:39.206359  1284 net.cpp:367] fire6/relu_expand1x1 -> fire6/expand1x1 (in-place)
I0617 21:33:39.206370  1284 net.cpp:122] Setting up fire6/relu_expand1x1
I0617 21:33:39.206377  1284 net.cpp:129] Top shape: 14 192 14 14 (526848)
I0617 21:33:39.206382  1284 net.cpp:137] Memory required for data: 362204304
I0617 21:33:39.206387  1284 layer_factory.hpp:77] Creating layer fire6/expand3x3
I0617 21:33:39.206396  1284 net.cpp:84] Creating Layer fire6/expand3x3
I0617 21:33:39.206401  1284 net.cpp:406] fire6/expand3x3 <- fire6/squeeze1x1_fire6/relu_squeeze1x1_0_split_1
I0617 21:33:39.206410  1284 net.cpp:380] fire6/expand3x3 -> fire6/expand3x3
I0617 21:33:39.207490  1284 net.cpp:122] Setting up fire6/expand3x3
I0617 21:33:39.207507  1284 net.cpp:129] Top shape: 14 192 14 14 (526848)
I0617 21:33:39.207512  1284 net.cpp:137] Memory required for data: 364311696
I0617 21:33:39.207521  1284 layer_factory.hpp:77] Creating layer fire6/relu_expand3x3
I0617 21:33:39.207531  1284 net.cpp:84] Creating Layer fire6/relu_expand3x3
I0617 21:33:39.207536  1284 net.cpp:406] fire6/relu_expand3x3 <- fire6/expand3x3
I0617 21:33:39.207545  1284 net.cpp:367] fire6/relu_expand3x3 -> fire6/expand3x3 (in-place)
I0617 21:33:39.207553  1284 net.cpp:122] Setting up fire6/relu_expand3x3
I0617 21:33:39.207561  1284 net.cpp:129] Top shape: 14 192 14 14 (526848)
I0617 21:33:39.207563  1284 net.cpp:137] Memory required for data: 366419088
I0617 21:33:39.207567  1284 layer_factory.hpp:77] Creating layer fire6/concat
I0617 21:33:39.207574  1284 net.cpp:84] Creating Layer fire6/concat
I0617 21:33:39.207578  1284 net.cpp:406] fire6/concat <- fire6/expand1x1
I0617 21:33:39.207585  1284 net.cpp:406] fire6/concat <- fire6/expand3x3
I0617 21:33:39.207592  1284 net.cpp:380] fire6/concat -> fire6/concat
I0617 21:33:39.207631  1284 net.cpp:122] Setting up fire6/concat
I0617 21:33:39.207641  1284 net.cpp:129] Top shape: 14 384 14 14 (1053696)
I0617 21:33:39.207645  1284 net.cpp:137] Memory required for data: 370633872
I0617 21:33:39.207649  1284 layer_factory.hpp:77] Creating layer fire7/squeeze1x1
I0617 21:33:39.207661  1284 net.cpp:84] Creating Layer fire7/squeeze1x1
I0617 21:33:39.207665  1284 net.cpp:406] fire7/squeeze1x1 <- fire6/concat
I0617 21:33:39.207674  1284 net.cpp:380] fire7/squeeze1x1 -> fire7/squeeze1x1
I0617 21:33:39.208156  1284 net.cpp:122] Setting up fire7/squeeze1x1
I0617 21:33:39.208168  1284 net.cpp:129] Top shape: 14 48 14 14 (131712)
I0617 21:33:39.208173  1284 net.cpp:137] Memory required for data: 371160720
I0617 21:33:39.208189  1284 layer_factory.hpp:77] Creating layer fire7/relu_squeeze1x1
I0617 21:33:39.208199  1284 net.cpp:84] Creating Layer fire7/relu_squeeze1x1
I0617 21:33:39.208204  1284 net.cpp:406] fire7/relu_squeeze1x1 <- fire7/squeeze1x1
I0617 21:33:39.208210  1284 net.cpp:367] fire7/relu_squeeze1x1 -> fire7/squeeze1x1 (in-place)
I0617 21:33:39.208220  1284 net.cpp:122] Setting up fire7/relu_squeeze1x1
I0617 21:33:39.208225  1284 net.cpp:129] Top shape: 14 48 14 14 (131712)
I0617 21:33:39.208247  1284 net.cpp:137] Memory required for data: 371687568
I0617 21:33:39.208252  1284 layer_factory.hpp:77] Creating layer fire7/squeeze1x1_fire7/relu_squeeze1x1_0_split
I0617 21:33:39.208259  1284 net.cpp:84] Creating Layer fire7/squeeze1x1_fire7/relu_squeeze1x1_0_split
I0617 21:33:39.208263  1284 net.cpp:406] fire7/squeeze1x1_fire7/relu_squeeze1x1_0_split <- fire7/squeeze1x1
I0617 21:33:39.208271  1284 net.cpp:380] fire7/squeeze1x1_fire7/relu_squeeze1x1_0_split -> fire7/squeeze1x1_fire7/relu_squeeze1x1_0_split_0
I0617 21:33:39.208281  1284 net.cpp:380] fire7/squeeze1x1_fire7/relu_squeeze1x1_0_split -> fire7/squeeze1x1_fire7/relu_squeeze1x1_0_split_1
I0617 21:33:39.208336  1284 net.cpp:122] Setting up fire7/squeeze1x1_fire7/relu_squeeze1x1_0_split
I0617 21:33:39.208346  1284 net.cpp:129] Top shape: 14 48 14 14 (131712)
I0617 21:33:39.208353  1284 net.cpp:129] Top shape: 14 48 14 14 (131712)
I0617 21:33:39.208356  1284 net.cpp:137] Memory required for data: 372741264
I0617 21:33:39.208360  1284 layer_factory.hpp:77] Creating layer fire7/expand1x1
I0617 21:33:39.208372  1284 net.cpp:84] Creating Layer fire7/expand1x1
I0617 21:33:39.208377  1284 net.cpp:406] fire7/expand1x1 <- fire7/squeeze1x1_fire7/relu_squeeze1x1_0_split_0
I0617 21:33:39.208385  1284 net.cpp:380] fire7/expand1x1 -> fire7/expand1x1
I0617 21:33:39.208750  1284 net.cpp:122] Setting up fire7/expand1x1
I0617 21:33:39.208763  1284 net.cpp:129] Top shape: 14 192 14 14 (526848)
I0617 21:33:39.208770  1284 net.cpp:137] Memory required for data: 374848656
I0617 21:33:39.208778  1284 layer_factory.hpp:77] Creating layer fire7/relu_expand1x1
I0617 21:33:39.208786  1284 net.cpp:84] Creating Layer fire7/relu_expand1x1
I0617 21:33:39.208791  1284 net.cpp:406] fire7/relu_expand1x1 <- fire7/expand1x1
I0617 21:33:39.208797  1284 net.cpp:367] fire7/relu_expand1x1 -> fire7/expand1x1 (in-place)
I0617 21:33:39.208806  1284 net.cpp:122] Setting up fire7/relu_expand1x1
I0617 21:33:39.208811  1284 net.cpp:129] Top shape: 14 192 14 14 (526848)
I0617 21:33:39.208812  1284 net.cpp:137] Memory required for data: 376956048
I0617 21:33:39.208814  1284 layer_factory.hpp:77] Creating layer fire7/expand3x3
I0617 21:33:39.208822  1284 net.cpp:84] Creating Layer fire7/expand3x3
I0617 21:33:39.208825  1284 net.cpp:406] fire7/expand3x3 <- fire7/squeeze1x1_fire7/relu_squeeze1x1_0_split_1
I0617 21:33:39.208830  1284 net.cpp:380] fire7/expand3x3 -> fire7/expand3x3
I0617 21:33:39.209975  1284 net.cpp:122] Setting up fire7/expand3x3
I0617 21:33:39.209985  1284 net.cpp:129] Top shape: 14 192 14 14 (526848)
I0617 21:33:39.209988  1284 net.cpp:137] Memory required for data: 379063440
I0617 21:33:39.209995  1284 layer_factory.hpp:77] Creating layer fire7/relu_expand3x3
I0617 21:33:39.210000  1284 net.cpp:84] Creating Layer fire7/relu_expand3x3
I0617 21:33:39.210002  1284 net.cpp:406] fire7/relu_expand3x3 <- fire7/expand3x3
I0617 21:33:39.210007  1284 net.cpp:367] fire7/relu_expand3x3 -> fire7/expand3x3 (in-place)
I0617 21:33:39.210012  1284 net.cpp:122] Setting up fire7/relu_expand3x3
I0617 21:33:39.210016  1284 net.cpp:129] Top shape: 14 192 14 14 (526848)
I0617 21:33:39.210018  1284 net.cpp:137] Memory required for data: 381170832
I0617 21:33:39.210021  1284 layer_factory.hpp:77] Creating layer fire7/concat
I0617 21:33:39.210024  1284 net.cpp:84] Creating Layer fire7/concat
I0617 21:33:39.210027  1284 net.cpp:406] fire7/concat <- fire7/expand1x1
I0617 21:33:39.210031  1284 net.cpp:406] fire7/concat <- fire7/expand3x3
I0617 21:33:39.210034  1284 net.cpp:380] fire7/concat -> fire7/concat
I0617 21:33:39.210055  1284 net.cpp:122] Setting up fire7/concat
I0617 21:33:39.210059  1284 net.cpp:129] Top shape: 14 384 14 14 (1053696)
I0617 21:33:39.210062  1284 net.cpp:137] Memory required for data: 385385616
I0617 21:33:39.210064  1284 layer_factory.hpp:77] Creating layer fire8/squeeze1x1
I0617 21:33:39.210072  1284 net.cpp:84] Creating Layer fire8/squeeze1x1
I0617 21:33:39.210074  1284 net.cpp:406] fire8/squeeze1x1 <- fire7/concat
I0617 21:33:39.210079  1284 net.cpp:380] fire8/squeeze1x1 -> fire8/squeeze1x1
I0617 21:33:39.210381  1284 net.cpp:122] Setting up fire8/squeeze1x1
I0617 21:33:39.210386  1284 net.cpp:129] Top shape: 14 64 14 14 (175616)
I0617 21:33:39.210388  1284 net.cpp:137] Memory required for data: 386088080
I0617 21:33:39.210393  1284 layer_factory.hpp:77] Creating layer fire8/relu_squeeze1x1
I0617 21:33:39.210398  1284 net.cpp:84] Creating Layer fire8/relu_squeeze1x1
I0617 21:33:39.210400  1284 net.cpp:406] fire8/relu_squeeze1x1 <- fire8/squeeze1x1
I0617 21:33:39.210404  1284 net.cpp:367] fire8/relu_squeeze1x1 -> fire8/squeeze1x1 (in-place)
I0617 21:33:39.210409  1284 net.cpp:122] Setting up fire8/relu_squeeze1x1
I0617 21:33:39.210412  1284 net.cpp:129] Top shape: 14 64 14 14 (175616)
I0617 21:33:39.210414  1284 net.cpp:137] Memory required for data: 386790544
I0617 21:33:39.210417  1284 layer_factory.hpp:77] Creating layer fire8/squeeze1x1_fire8/relu_squeeze1x1_0_split
I0617 21:33:39.210422  1284 net.cpp:84] Creating Layer fire8/squeeze1x1_fire8/relu_squeeze1x1_0_split
I0617 21:33:39.210423  1284 net.cpp:406] fire8/squeeze1x1_fire8/relu_squeeze1x1_0_split <- fire8/squeeze1x1
I0617 21:33:39.210428  1284 net.cpp:380] fire8/squeeze1x1_fire8/relu_squeeze1x1_0_split -> fire8/squeeze1x1_fire8/relu_squeeze1x1_0_split_0
I0617 21:33:39.210433  1284 net.cpp:380] fire8/squeeze1x1_fire8/relu_squeeze1x1_0_split -> fire8/squeeze1x1_fire8/relu_squeeze1x1_0_split_1
I0617 21:33:39.210460  1284 net.cpp:122] Setting up fire8/squeeze1x1_fire8/relu_squeeze1x1_0_split
I0617 21:33:39.210465  1284 net.cpp:129] Top shape: 14 64 14 14 (175616)
I0617 21:33:39.210469  1284 net.cpp:129] Top shape: 14 64 14 14 (175616)
I0617 21:33:39.210471  1284 net.cpp:137] Memory required for data: 388195472
I0617 21:33:39.210474  1284 layer_factory.hpp:77] Creating layer fire8/expand1x1
I0617 21:33:39.210479  1284 net.cpp:84] Creating Layer fire8/expand1x1
I0617 21:33:39.210482  1284 net.cpp:406] fire8/expand1x1 <- fire8/squeeze1x1_fire8/relu_squeeze1x1_0_split_0
I0617 21:33:39.210486  1284 net.cpp:380] fire8/expand1x1 -> fire8/expand1x1
I0617 21:33:39.210739  1284 net.cpp:122] Setting up fire8/expand1x1
I0617 21:33:39.210744  1284 net.cpp:129] Top shape: 14 256 14 14 (702464)
I0617 21:33:39.210747  1284 net.cpp:137] Memory required for data: 391005328
I0617 21:33:39.210752  1284 layer_factory.hpp:77] Creating layer fire8/relu_expand1x1
I0617 21:33:39.210755  1284 net.cpp:84] Creating Layer fire8/relu_expand1x1
I0617 21:33:39.210758  1284 net.cpp:406] fire8/relu_expand1x1 <- fire8/expand1x1
I0617 21:33:39.210762  1284 net.cpp:367] fire8/relu_expand1x1 -> fire8/expand1x1 (in-place)
I0617 21:33:39.210767  1284 net.cpp:122] Setting up fire8/relu_expand1x1
I0617 21:33:39.210769  1284 net.cpp:129] Top shape: 14 256 14 14 (702464)
I0617 21:33:39.210772  1284 net.cpp:137] Memory required for data: 393815184
I0617 21:33:39.210773  1284 layer_factory.hpp:77] Creating layer fire8/expand3x3
I0617 21:33:39.210779  1284 net.cpp:84] Creating Layer fire8/expand3x3
I0617 21:33:39.210783  1284 net.cpp:406] fire8/expand3x3 <- fire8/squeeze1x1_fire8/relu_squeeze1x1_0_split_1
I0617 21:33:39.210786  1284 net.cpp:380] fire8/expand3x3 -> fire8/expand3x3
I0617 21:33:39.211655  1284 net.cpp:122] Setting up fire8/expand3x3
I0617 21:33:39.211661  1284 net.cpp:129] Top shape: 14 256 14 14 (702464)
I0617 21:33:39.211663  1284 net.cpp:137] Memory required for data: 396625040
I0617 21:33:39.211668  1284 layer_factory.hpp:77] Creating layer fire8/relu_expand3x3
I0617 21:33:39.211671  1284 net.cpp:84] Creating Layer fire8/relu_expand3x3
I0617 21:33:39.211674  1284 net.cpp:406] fire8/relu_expand3x3 <- fire8/expand3x3
I0617 21:33:39.211678  1284 net.cpp:367] fire8/relu_expand3x3 -> fire8/expand3x3 (in-place)
I0617 21:33:39.211683  1284 net.cpp:122] Setting up fire8/relu_expand3x3
I0617 21:33:39.211685  1284 net.cpp:129] Top shape: 14 256 14 14 (702464)
I0617 21:33:39.211688  1284 net.cpp:137] Memory required for data: 399434896
I0617 21:33:39.211689  1284 layer_factory.hpp:77] Creating layer fire8/concat
I0617 21:33:39.211694  1284 net.cpp:84] Creating Layer fire8/concat
I0617 21:33:39.211704  1284 net.cpp:406] fire8/concat <- fire8/expand1x1
I0617 21:33:39.211706  1284 net.cpp:406] fire8/concat <- fire8/expand3x3
I0617 21:33:39.211710  1284 net.cpp:380] fire8/concat -> fire8/concat
I0617 21:33:39.211730  1284 net.cpp:122] Setting up fire8/concat
I0617 21:33:39.211733  1284 net.cpp:129] Top shape: 14 512 14 14 (1404928)
I0617 21:33:39.211735  1284 net.cpp:137] Memory required for data: 405054608
I0617 21:33:39.211737  1284 layer_factory.hpp:77] Creating layer fire9/squeeze1x1
I0617 21:33:39.211743  1284 net.cpp:84] Creating Layer fire9/squeeze1x1
I0617 21:33:39.211746  1284 net.cpp:406] fire9/squeeze1x1 <- fire8/concat
I0617 21:33:39.211750  1284 net.cpp:380] fire9/squeeze1x1 -> fire9/squeeze1x1
I0617 21:33:39.212071  1284 net.cpp:122] Setting up fire9/squeeze1x1
I0617 21:33:39.212077  1284 net.cpp:129] Top shape: 14 64 14 14 (175616)
I0617 21:33:39.212080  1284 net.cpp:137] Memory required for data: 405757072
I0617 21:33:39.212085  1284 layer_factory.hpp:77] Creating layer fire9/relu_squeeze1x1
I0617 21:33:39.212129  1284 net.cpp:84] Creating Layer fire9/relu_squeeze1x1
I0617 21:33:39.212132  1284 net.cpp:406] fire9/relu_squeeze1x1 <- fire9/squeeze1x1
I0617 21:33:39.212136  1284 net.cpp:367] fire9/relu_squeeze1x1 -> fire9/squeeze1x1 (in-place)
I0617 21:33:39.212141  1284 net.cpp:122] Setting up fire9/relu_squeeze1x1
I0617 21:33:39.212144  1284 net.cpp:129] Top shape: 14 64 14 14 (175616)
I0617 21:33:39.212147  1284 net.cpp:137] Memory required for data: 406459536
I0617 21:33:39.212150  1284 layer_factory.hpp:77] Creating layer fire9/squeeze1x1_fire9/relu_squeeze1x1_0_split
I0617 21:33:39.212155  1284 net.cpp:84] Creating Layer fire9/squeeze1x1_fire9/relu_squeeze1x1_0_split
I0617 21:33:39.212157  1284 net.cpp:406] fire9/squeeze1x1_fire9/relu_squeeze1x1_0_split <- fire9/squeeze1x1
I0617 21:33:39.212162  1284 net.cpp:380] fire9/squeeze1x1_fire9/relu_squeeze1x1_0_split -> fire9/squeeze1x1_fire9/relu_squeeze1x1_0_split_0
I0617 21:33:39.212167  1284 net.cpp:380] fire9/squeeze1x1_fire9/relu_squeeze1x1_0_split -> fire9/squeeze1x1_fire9/relu_squeeze1x1_0_split_1
I0617 21:33:39.212196  1284 net.cpp:122] Setting up fire9/squeeze1x1_fire9/relu_squeeze1x1_0_split
I0617 21:33:39.212201  1284 net.cpp:129] Top shape: 14 64 14 14 (175616)
I0617 21:33:39.212205  1284 net.cpp:129] Top shape: 14 64 14 14 (175616)
I0617 21:33:39.212208  1284 net.cpp:137] Memory required for data: 407864464
I0617 21:33:39.212209  1284 layer_factory.hpp:77] Creating layer fire9/expand1x1
I0617 21:33:39.212219  1284 net.cpp:84] Creating Layer fire9/expand1x1
I0617 21:33:39.212221  1284 net.cpp:406] fire9/expand1x1 <- fire9/squeeze1x1_fire9/relu_squeeze1x1_0_split_0
I0617 21:33:39.212226  1284 net.cpp:380] fire9/expand1x1 -> fire9/expand1x1
I0617 21:33:39.212494  1284 net.cpp:122] Setting up fire9/expand1x1
I0617 21:33:39.212501  1284 net.cpp:129] Top shape: 14 256 14 14 (702464)
I0617 21:33:39.212503  1284 net.cpp:137] Memory required for data: 410674320
I0617 21:33:39.212507  1284 layer_factory.hpp:77] Creating layer fire9/relu_expand1x1
I0617 21:33:39.212512  1284 net.cpp:84] Creating Layer fire9/relu_expand1x1
I0617 21:33:39.212514  1284 net.cpp:406] fire9/relu_expand1x1 <- fire9/expand1x1
I0617 21:33:39.212518  1284 net.cpp:367] fire9/relu_expand1x1 -> fire9/expand1x1 (in-place)
I0617 21:33:39.212522  1284 net.cpp:122] Setting up fire9/relu_expand1x1
I0617 21:33:39.212527  1284 net.cpp:129] Top shape: 14 256 14 14 (702464)
I0617 21:33:39.212528  1284 net.cpp:137] Memory required for data: 413484176
I0617 21:33:39.212530  1284 layer_factory.hpp:77] Creating layer fire9/expand3x3
I0617 21:33:39.212539  1284 net.cpp:84] Creating Layer fire9/expand3x3
I0617 21:33:39.212543  1284 net.cpp:406] fire9/expand3x3 <- fire9/squeeze1x1_fire9/relu_squeeze1x1_0_split_1
I0617 21:33:39.212546  1284 net.cpp:380] fire9/expand3x3 -> fire9/expand3x3
I0617 21:33:39.214355  1284 net.cpp:122] Setting up fire9/expand3x3
I0617 21:33:39.214365  1284 net.cpp:129] Top shape: 14 256 14 14 (702464)
I0617 21:33:39.214367  1284 net.cpp:137] Memory required for data: 416294032
I0617 21:33:39.214381  1284 layer_factory.hpp:77] Creating layer fire9/relu_expand3x3
I0617 21:33:39.214387  1284 net.cpp:84] Creating Layer fire9/relu_expand3x3
I0617 21:33:39.214390  1284 net.cpp:406] fire9/relu_expand3x3 <- fire9/expand3x3
I0617 21:33:39.214395  1284 net.cpp:367] fire9/relu_expand3x3 -> fire9/expand3x3 (in-place)
I0617 21:33:39.214401  1284 net.cpp:122] Setting up fire9/relu_expand3x3
I0617 21:33:39.214403  1284 net.cpp:129] Top shape: 14 256 14 14 (702464)
I0617 21:33:39.214406  1284 net.cpp:137] Memory required for data: 419103888
I0617 21:33:39.214407  1284 layer_factory.hpp:77] Creating layer fire9/concat
I0617 21:33:39.214411  1284 net.cpp:84] Creating Layer fire9/concat
I0617 21:33:39.214414  1284 net.cpp:406] fire9/concat <- fire9/expand1x1
I0617 21:33:39.214417  1284 net.cpp:406] fire9/concat <- fire9/expand3x3
I0617 21:33:39.214424  1284 net.cpp:380] fire9/concat -> fire9/concat
I0617 21:33:39.214443  1284 net.cpp:122] Setting up fire9/concat
I0617 21:33:39.214447  1284 net.cpp:129] Top shape: 14 512 14 14 (1404928)
I0617 21:33:39.214449  1284 net.cpp:137] Memory required for data: 424723600
I0617 21:33:39.214452  1284 layer_factory.hpp:77] Creating layer drop9
I0617 21:33:39.214458  1284 net.cpp:84] Creating Layer drop9
I0617 21:33:39.214462  1284 net.cpp:406] drop9 <- fire9/concat
I0617 21:33:39.214465  1284 net.cpp:367] drop9 -> fire9/concat (in-place)
I0617 21:33:39.214484  1284 net.cpp:122] Setting up drop9
I0617 21:33:39.214488  1284 net.cpp:129] Top shape: 14 512 14 14 (1404928)
I0617 21:33:39.214491  1284 net.cpp:137] Memory required for data: 430343312
I0617 21:33:39.214493  1284 layer_factory.hpp:77] Creating layer conv10
I0617 21:33:39.214500  1284 net.cpp:84] Creating Layer conv10
I0617 21:33:39.214504  1284 net.cpp:406] conv10 <- fire9/concat
I0617 21:33:39.214509  1284 net.cpp:380] conv10 -> conv10
I0617 21:33:39.214730  1284 net.cpp:122] Setting up conv10
I0617 21:33:39.214745  1284 net.cpp:129] Top shape: 14 2 14 14 (5488)
I0617 21:33:39.214747  1284 net.cpp:137] Memory required for data: 430365264
I0617 21:33:39.214752  1284 layer_factory.hpp:77] Creating layer relu_conv10
I0617 21:33:39.214756  1284 net.cpp:84] Creating Layer relu_conv10
I0617 21:33:39.214759  1284 net.cpp:406] relu_conv10 <- conv10
I0617 21:33:39.214763  1284 net.cpp:367] relu_conv10 -> conv10 (in-place)
I0617 21:33:39.214767  1284 net.cpp:122] Setting up relu_conv10
I0617 21:33:39.214771  1284 net.cpp:129] Top shape: 14 2 14 14 (5488)
I0617 21:33:39.214773  1284 net.cpp:137] Memory required for data: 430387216
I0617 21:33:39.214776  1284 layer_factory.hpp:77] Creating layer pool10
I0617 21:33:39.214781  1284 net.cpp:84] Creating Layer pool10
I0617 21:33:39.214782  1284 net.cpp:406] pool10 <- conv10
I0617 21:33:39.214787  1284 net.cpp:380] pool10 -> pool10
I0617 21:33:39.214807  1284 net.cpp:122] Setting up pool10
I0617 21:33:39.214810  1284 net.cpp:129] Top shape: 14 2 1 1 (28)
I0617 21:33:39.214812  1284 net.cpp:137] Memory required for data: 430387328
I0617 21:33:39.214814  1284 layer_factory.hpp:77] Creating layer pool10_pool10_0_split
I0617 21:33:39.214820  1284 net.cpp:84] Creating Layer pool10_pool10_0_split
I0617 21:33:39.214823  1284 net.cpp:406] pool10_pool10_0_split <- pool10
I0617 21:33:39.214828  1284 net.cpp:380] pool10_pool10_0_split -> pool10_pool10_0_split_0
I0617 21:33:39.214834  1284 net.cpp:380] pool10_pool10_0_split -> pool10_pool10_0_split_1
I0617 21:33:39.214860  1284 net.cpp:122] Setting up pool10_pool10_0_split
I0617 21:33:39.214864  1284 net.cpp:129] Top shape: 14 2 1 1 (28)
I0617 21:33:39.214867  1284 net.cpp:129] Top shape: 14 2 1 1 (28)
I0617 21:33:39.214869  1284 net.cpp:137] Memory required for data: 430387552
I0617 21:33:39.214871  1284 layer_factory.hpp:77] Creating layer loss
I0617 21:33:39.214876  1284 net.cpp:84] Creating Layer loss
I0617 21:33:39.214890  1284 net.cpp:406] loss <- pool10_pool10_0_split_0
I0617 21:33:39.214893  1284 net.cpp:406] loss <- label_data_1_split_0
I0617 21:33:39.214900  1284 net.cpp:380] loss -> loss
…
