…
name: "ResNet_50_1by2_nsfw"
state {
  phase: TRAIN
  level: 0
  stage: ""
}
layer {
  name: "data"
  type: "ImageData"
  top: "data"
  top: "label"
  include {
    phase: TRAIN
  }
  transform_param {
    mirror: true
    crop_size: 224
    mean_value: 104
    mean_value: 117
    mean_value: 123
  }
  image_data_param {
    source: "/home/dbicho/Documents/datasets/all_labeled_dataset_augmented_finetuning/train.txt"
    batch_size: 7
    shuffle: true
    root_folder: "/home/dbicho/Documents/datasets/all_labeled_dataset_augmented_finetuning/"
  }
}
layer {
  name: "conv_1"
  type: "Convolution"
  bottom: "data"
  top: "conv_1"
  param {
    lr_mult: 0
    decay_mult: 1
  }
  param {
    lr_mult: 0
    decay_mult: 0
  }
  convolution_param {
    num_output: 64
    pad: 3
    kernel_size: 7
    stride: 2
    weight_filler {
      type: "xavier"
    }
    bias_filler {
      type: "constant"
      value: 0
    }
  }
}
layer {
  name: "bn_1"
  type: "BatchNorm"
  bottom: "conv_1"
  top: "conv_1"
  param {
    lr_mult: 0
    decay_mult: 0
  }
  param {
    lr_mult: 0
    decay_mult: 0
  }
  param {
    lr_mult: 0
    decay_mult: 0
  }
  batch_norm_param {
    use_global_stats: false
  }
}
layer {
  name: "scale_1"
  type: "Scale"
  bottom: "conv_1"
  top: "conv_1"
  scale_param {
    bias_term: true
  }
}
layer {
  name: "relu_1"
  type: "ReLU"
  bottom: "conv_1"
  top: "conv_1"
}
layer {
  name: "pool1"
  type: "Pooling"
  bottom: "conv_1"
  top: "pool1"
  pooling_param {
    pool: MAX
    kernel_size: 3
    stride: 2
  }
}
layer {
  name: "conv_stage0_block0_proj_shortcut"
  type: "Convolution"
  bottom: "pool1"
  top: "conv_stage0_block0_proj_shortcut"
  param {
    lr_mult: 0
    decay_mult: 1
  }
  param {
    lr_mult: 0
    decay_mult: 0
  }
  convolution_param {
    num_output: 128
    pad: 0
    kernel_size: 1
    stride: 1
    weight_filler {
      type: "xavier"
    }
    bias_filler {
      type: "constant"
      value: 0
    }
  }
}
layer {
  name: "bn_stage0_block0_proj_shortcut"
  type: "BatchNorm"
  bottom: "conv_stage0_block0_proj_shortcut"
  top: "conv_stage0_block0_proj_shortcut"
  param {
    lr_mult: 0
    decay_mult: 0
  }
  param {
    lr_mult: 0
    decay_mult: 0
  }
  param {
    lr_mult: 0
    decay_mult: 0
  }
  batch_norm_param {
    use_global_stats: false
  }
}
layer {
  name: "scale_stage0_block0_proj_shortcut"
  type: "Scale"
  bottom: "conv_stage0_block0_proj_shortcut"
  top: "conv_stage0_block0_proj_shortcut"
  scale_param {
    bias_term: true
  }
}
layer {
  name: "conv_stage0_block0_branch2a"
  type: "Convolution"
  bottom: "pool1"
  top: "conv_stage0_block0_branch2a"
  param {
    lr_mult: 0
    decay_mult: 1
  }
  param {
    lr_mult: 0
    decay_mult: 0
  }
  convolution_param {
    num_output: 32
    pad: 0
    kernel_size: 1
    stride: 1
    weight_filler {
      type: "xavier"
    }
    bias_filler {
      type: "constant"
      value: 0
    }
  }
}
layer {
  name: "bn_stage0_block0_branch2a"
  type: "BatchNorm"
  bottom: "conv_stage0_block0_branch2a"
  top: "conv_stage0_block0_branch2a"
  param {
    lr_mult: 0
    decay_mult: 0
  }
  param {
    lr_mult: 0
    decay_mult: 0
  }
  param {
    lr_mult: 0
    decay_mult: 0
  }
  batch_norm_param {
    use_global_stats: false
  }
}
layer {
  name: "scale_stage0_block0_branch2a"
  type: "Scale"
  bottom: "conv_stage0_block0_branch2a"
  top: "conv_stage0_block0_branch2a"
  scale_param {
    bias_term: true
  }
}
layer {
  name: "relu_stage0_block0_branch2a"
  type: "ReLU"
  bottom: "conv_stage0_block0_branch2a"
  top: "conv_stage0_block0_branch2a"
}
layer {
  name: "conv_stage0_block0_branch2b"
  type: "Convolution"
  bottom: "conv_stage0_block0_branch2a"
  top: "conv_stage0_block0_branch2b"
  param {
    lr_mult: 0
    decay_mult: 1
  }
  param {
    lr_mult: 0
    decay_mult: 0
  }
  convolution_param {
    num_output: 32
    pad: 1
    kernel_size: 3
    stride: 1
    weight_filler {
      type: "xavier"
    }
    bias_filler {
      type: "constant"
      value: 0
    }
  }
}
layer {
  name: "bn_stage0_block0_branch2b"
  type: "BatchNorm"
  bottom: "conv_stage0_block0_branch2b"
  top: "conv_stage0_block0_branch2b"
  param {
    lr_mult: 0
    decay_mult: 0
  }
  param {
    lr_mult: 0
    decay_mult: 0
  }
  param {
    lr_mult: 0
    decay_mult: 0
  }
  batch_norm_param {
    use_global_stats: false
  }
}
layer {
  name: "scale_stage0_block0_branch2b"
  type: "Scale"
  bottom: "conv_stage0_block0_branch2b"
  top: "conv_stage0_block0_branch2b"
  scale_param {
    bias_term: true
  }
}
layer {
  name: "relu_stage0_block0_branch2b"
  type: "ReLU"
  bottom: "conv_stage0_block0_branch2b"
  top: "conv_stage0_block0_branch2b"
}
layer {
  name: "conv_stage0_block0_branch2c"
  type: "Convolution"
  bottom: "conv_stage0_block0_branch2b"
  top: "conv_stage0_block0_branch2c"
  param {
    lr_mult: 0
    decay_mult: 1
  }
  param {
    lr_mult: 0
    decay_mult: 0
  }
  convolution_param {
    num_output: 128
    pad: 0
    kernel_size: 1
    stride: 1
    weight_filler {
      type: "xavier"
    }
    bias_filler {
      type: "constant"
      value: 0
    }
  }
}
layer {
  name: "bn_stage0_block0_branch2c"
  type: "BatchNorm"
  bottom: "conv_stage0_block0_branch2c"
  top: "conv_stage0_block0_branch2c"
  param {
    lr_mult: 0
    decay_mult: 0
  }
  param {
    lr_mult: 0
    decay_mult: 0
  }
  param {
    lr_mult: 0
    decay_mult: 0
  }
  batch_norm_param {
    use_global_stats: false
  }
}
layer {
  name: "scale_stage0_block0_branch2c"
  type: "Scale"
  bottom: "conv_stage0_block0_branch2c"
  top: "conv_stage0_block0_branch2c"
  scale_param {
    bias_term: true
  }
}
layer {
  name: "eltwise_stage0_block0"
  type: "Eltwise"
  bottom: "conv_stage0_block0_proj_shortcut"
  bottom: "conv_stage0_block0_branch2c"
  top: "eltwise_stage0_block0"
}
layer {
  name: "relu_stage0_block0"
  type: "ReLU"
  bottom: "eltwise_stage0_block0"
  top: "eltwise_stage0_block0"
}
layer {
  name: "conv_stage0_block1_branch2a"
  type: "Convolution"
  bottom: "eltwise_stage0_block0"
  top: "conv_stage0_block1_branch2a"
  param {
    lr_mult: 0
    decay_mult: 1
  }
  param {
    lr_mult: 0
    decay_mult: 0
  }
  convolution_param {
    num_output: 32
    pad: 0
    kernel_size: 1
    stride: 1
    weight_filler {
      type: "xavier"
    }
    bias_filler {
      type: "constant"
      value: 0
    }
  }
}
layer {
  name: "bn_stage0_block1_branch2a"
  type: "BatchNorm"
  bottom: "conv_stage0_block1_branch2a"
  top: "conv_stage0_block1_branch2a"
  param {
    lr_mult: 0
    decay_mult: 0
  }
  param {
    lr_mult: 0
    decay_mult: 0
  }
  param {
    lr_mult: 0
    decay_mult: 0
  }
  batch_norm_param {
    use_global_stats: false
  }
}
layer {
  name: "scale_stage0_block1_branch2a"
  type: "Scale"
  bottom: "conv_stage0_block1_branch2a"
  top: "conv_stage0_block1_branch2a"
  scale_param {
    bias_term: true
  }
}
layer {
  name: "relu_stage0_block1_branch2a"
  type: "ReLU"
  bottom: "conv_stage0_block1_branch2a"
  top: "conv_stage0_block1_branch2a"
}
layer {
  name: "conv_stage0_block1_branch2b"
  type: "Convolution"
  bottom: "conv_stage0_block1_branch2a"
  top: "conv_stage0_block1_branch2b"
  param {
    lr_mult: 0
    decay_mult: 1
  }
  param {
    lr_mult: 0
    decay_mult: 0
  }
  convolution_param {
    num_output: 32
    pad: 1
    kernel_size: 3
    stride: 1
    weight_filler {
      type: "xavier"
    }
    bias_filler {
      type: "constant"
      value: 0
    }
  }
}
layer {
  name: "bn_stage0_block1_branch2b"
  type: "BatchNorm"
  bottom: "conv_stage0_block1_branch2b"
  top: "conv_stage0_block1_branch2b"
  param {
    lr_mult: 0
    decay_mult: 0
  }
  param {
    lr_mult: 0
    decay_mult: 0
  }
  param {
    lr_mult: 0
    decay_mult: 0
  }
  batch_norm_param {
    use_global_stats: false
  }
}
layer {
  name: "scale_stage0_block1_branch2b"
  type: "Scale"
  bottom: "conv_stage0_block1_branch2b"
  top: "conv_stage0_block1_branch2b"
  scale_param {
    bias_term: true
  }
}
layer {
  name: "relu_stage0_block1_branch2b"
  type: "ReLU"
  bottom: "conv_stage0_block1_branch2b"
  top: "conv_stage0_block1_branch2b"
}
layer {
  name: "conv_stage0_block1_branch2c"
  type: "Convolution"
  bottom: "conv_stage0_block1_branch2b"
  top: "conv_stage0_block1_branch2c"
  param {
    lr_mult: 0
    decay_mult: 1
  }
  param {
    lr_mult: 0
    decay_mult: 0
  }
  convolution_param {
    num_output: 128
    pad: 0
    kernel_size: 1
    stride: 1
    weight_filler {
      type: "xavier"
    }
    bias_filler {
      type: "constant"
      value: 0
    }
  }
}
layer {
  name: "bn_stage0_block1_branch2c"
  type: "BatchNorm"
  bottom: "conv_stage0_block1_branch2c"
  top: "conv_stage0_block1_branch2c"
  param {
    lr_mult: 0
    decay_mult: 0
  }
  param {
    lr_mult: 0
    decay_mult: 0
  }
  param {
    lr_mult: 0
    decay_mult: 0
  }
  batch_norm_param {
    use_global_stats: false
  }
}
layer {
  name: "scale_stage0_block1_branch2c"
  type: "Scale"
  bottom: "conv_stage0_block1_branch2c"
  top: "conv_stage0_block1_branch2c"
  scale_param {
    bias_term: true
  }
}
layer {
  name: "eltwise_stage0_block1"
  type: "Eltwise"
  bottom: "eltwise_stage0_block0"
  bottom: "conv_stage0_block1_branch2c"
  top: "eltwise_stage0_block1"
}
layer {
  name: "relu_stage0_block1"
  type: "ReLU"
  bottom: "eltwise_stage0_block1"
  top: "eltwise_stage0_block1"
}
layer {
  name: "conv_stage0_block2_branch2a"
  type: "Convolution"
  bottom: "eltwise_stage0_block1"
  top: "conv_stage0_block2_branch2a"
  param {
    lr_mult: 0
    decay_mult: 1
  }
  param {
    lr_mult: 0
    decay_mult: 0
  }
  convolution_param {
    num_output: 32
    pad: 0
    kernel_size: 1
    stride: 1
    weight_filler {
      type: "xavier"
    }
    bias_filler {
      type: "constant"
      value: 0
    }
  }
}
layer {
  name: "bn_stage0_block2_branch2a"
  type: "BatchNorm"
  bottom: "conv_stage0_block2_branch2a"
  top: "conv_stage0_block2_branch2a"
  param {
    lr_mult: 0
    decay_mult: 0
  }
  param {
    lr_mult: 0
    decay_mult: 0
  }
  param {
    lr_mult: 0
    decay_mult: 0
  }
  batch_norm_param {
    use_global_stats: false
  }
}
layer {
  name: "scale_stage0_block2_branch2a"
  type: "Scale"
  bottom: "conv_stage0_block2_branch2a"
  top: "conv_stage0_block2_branch2a"
  scale_param {
    bias_term: true
  }
}
layer {
  name: "relu_stage0_block2_branch2a"
  type: "ReLU"
  bottom: "conv_stage0_block2_branch2a"
  top: "conv_stage0_block2_branch2a"
}
layer {
  name: "conv_stage0_block2_branch2b"
  type: "Convolution"
  bottom: "conv_stage0_block2_branch2a"
  top: "conv_stage0_block2_branch2b"
  param {
    lr_mult: 0
    decay_mult: 1
  }
  param {
    lr_mult: 0
    decay_mult: 0
  }
  convolution_param {
    num_output: 32
    pad: 1
    kernel_size: 3
    stride: 1
    weight_filler {
      type: "xavier"
    }
    bias_filler {
      type: "constant"
      value: 0
    }
  }
}
layer {
  name: "bn_stage0_block2_branch2b"
  type: "BatchNorm"
  bottom: "conv_stage0_block2_branch2b"
  top: "conv_stage0_block2_branch2b"
  param {
    lr_mult: 0
    decay_mult: 0
  }
  param {
    lr_mult: 0
    decay_mult: 0
  }
  param {
    lr_mult: 0
    decay_mult: 0
  }
  batch_norm_param {
    use_global_stats: false
  }
}
layer {
  name: "scale_stage0_block2_branch2b"
  type: "Scale"
  bottom: "conv_stage0_block2_branch2b"
  top: "conv_stage0_block2_branch2b"
  scale_param {
    bias_term: true
  }
}
layer {
  name: "relu_stage0_block2_branch2b"
  type: "ReLU"
  bottom: "conv_stage0_block2_branch2b"
  top: "conv_stage0_block2_branch2b"
}
layer {
  name: "conv_stage0_block2_branch2c"
  type: "Convolution"
  bottom: "conv_stage0_block2_branch2b"
  top: "conv_stage0_block2_branch2c"
  param {
    lr_mult: 0
    decay_mult: 1
  }
  param {
    lr_mult: 0
    decay_mult: 0
  }
  convolution_param {
    num_output: 128
    pad: 0
    kernel_size: 1
    stride: 1
    weight_filler {
      type: "xavier"
    }
    bias_filler {
      type: "constant"
      value: 0
    }
  }
}
layer {
  name: "bn_stage0_block2_branch2c"
  type: "BatchNorm"
  bottom: "conv_stage0_block2_branch2c"
  top: "conv_stage0_block2_branch2c"
  param {
    lr_mult: 0
    decay_mult: 0
  }
  param {
    lr_mult: 0
    decay_mult: 0
  }
  param {
    lr_mult: 0
    decay_mult: 0
  }
  batch_norm_param {
    use_global_stats: false
  }
}
layer {
  name: "scale_stage0_block2_branch2c"
  type: "Scale"
  bottom: "conv_stage0_block2_branch2c"
  top: "conv_stage0_block2_branch2c"
  scale_param {
    bias_term: true
  }
}
layer {
  name: "eltwise_stage0_block2"
  type: "Eltwise"
  bottom: "eltwise_stage0_block1"
  bottom: "conv_stage0_block2_branch2c"
  top: "eltwise_stage0_block2"
}
layer {
  name: "relu_stage0_block2"
  type: "ReLU"
  bottom: "eltwise_stage0_block2"
  top: "eltwise_stage0_block2"
}
layer {
  name: "conv_stage1_block0_proj_shortcut"
  type: "Convolution"
  bottom: "eltwise_stage0_block2"
  top: "conv_stage1_block0_proj_shortcut"
  param {
    lr_mult: 0
    decay_mult: 1
  }
  param {
    lr_mult: 0
    decay_mult: 0
  }
  convolution_param {
    num_output: 256
    pad: 0
    kernel_size: 1
    stride: 2
    weight_filler {
      type: "xavier"
    }
    bias_filler {
      type: "constant"
      value: 0
    }
  }
}
layer {
  name: "bn_stage1_block0_proj_shortcut"
  type: "BatchNorm"
  bottom: "conv_stage1_block0_proj_shortcut"
  top: "conv_stage1_block0_proj_shortcut"
  param {
    lr_mult: 0
    decay_mult: 0
  }
  param {
    lr_mult: 0
    decay_mult: 0
  }
  param {
    lr_mult: 0
    decay_mult: 0
  }
  batch_norm_param {
    use_global_stats: false
  }
}
layer {
  name: "scale_stage1_block0_proj_shortcut"
  type: "Scale"
  bottom: "conv_stage1_block0_proj_shortcut"
  top: "conv_stage1_block0_proj_shortcut"
  scale_param {
    bias_term: true
  }
}
layer {
  name: "conv_stage1_block0_branch2a"
  type: "Convolution"
  bottom: "eltwise_stage0_block2"
  top: "conv_stage1_block0_branch2a"
  param {
    lr_mult: 0
    decay_mult: 1
  }
  param {
    lr_mult: 0
    decay_mult: 0
  }
  convolution_param {
    num_output: 64
    pad: 0
    kernel_size: 1
    stride: 2
    weight_filler {
      type: "xavier"
    }
    bias_filler {
      type: "constant"
      value: 0
    }
  }
}
layer {
  name: "bn_stage1_block0_branch2a"
  type: "BatchNorm"
  bottom: "conv_stage1_block0_branch2a"
  top: "conv_stage1_block0_branch2a"
  param {
    lr_mult: 0
    decay_mult: 0
  }
  param {
    lr_mult: 0
    decay_mult: 0
  }
  param {
    lr_mult: 0
    decay_mult: 0
  }
  batch_norm_param {
    use_global_stats: false
  }
}
layer {
  name: "scale_stage1_block0_branch2a"
  type: "Scale"
  bottom: "conv_stage1_block0_branch2a"
  top: "conv_stage1_block0_branch2a"
  scale_param {
    bias_term: true
  }
}
layer {
  name: "relu_stage1_block0_branch2a"
  type: "ReLU"
  bottom: "conv_stage1_block0_branch2a"
  top: "conv_stage1_block0_branch2a"
}
layer {
  name: "conv_stage1_block0_branch2b"
  type: "Convolution"
  bottom: "conv_stage1_block0_branch2a"
  top: "conv_stage1_block0_branch2b"
  param {
    lr_mult: 0
    decay_mult: 1
  }
  param {
    lr_mult: 0
    decay_mult: 0
  }
  convolution_param {
    num_output: 64
    pad: 1
    kernel_size: 3
    stride: 1
    weight_filler {
      type: "xavier"
    }
    bias_filler {
      type: "constant"
      value: 0
    }
  }
}
layer {
  name: "bn_stage1_block0_branch2b"
  type: "BatchNorm"
  bottom: "conv_stage1_block0_branch2b"
  top: "conv_stage1_block0_branch2b"
  param {
    lr_mult: 0
    decay_mult: 0
  }
  param {
    lr_mult: 0
    decay_mult: 0
  }
  param {
    lr_mult: 0
    decay_mult: 0
  }
  batch_norm_param {
    use_global_stats: false
  }
}
layer {
  name: "scale_stage1_block0_branch2b"
  type: "Scale"
  bottom: "conv_stage1_block0_branch2b"
  top: "conv_stage1_block0_branch2b"
  scale_param {
    bias_term: true
  }
}
layer {
  name: "relu_stage1_block0_branch2b"
  type: "ReLU"
  bottom: "conv_stage1_block0_branch2b"
  top: "conv_stage1_block0_branch2b"
}
layer {
  name: "conv_stage1_block0_branch2c"
  type: "Convolution"
  bottom: "conv_stage1_block0_branch2b"
  top: "conv_stage1_block0_branch2c"
  param {
    lr_mult: 0
    decay_mult: 1
  }
  param {
    lr_mult: 0
    decay_mult: 0
  }
  convolution_param {
    num_output: 256
    pad: 0
    kernel_size: 1
    stride: 1
    weight_filler {
      type: "xavier"
    }
    bias_filler {
      type: "constant"
      value: 0
    }
  }
}
layer {
  name: "bn_stage1_block0_branch2c"
  type: "BatchNorm"
  bottom: "conv_stage1_block0_branch2c"
  top: "conv_stage1_block0_branch2c"
  param {
    lr_mult: 0
    decay_mult: 0
  }
  param {
    lr_mult: 0
    decay_mult: 0
  }
  param {
    lr_mult: 0
    decay_mult: 0
  }
  batch_norm_param {
    use_global_stats: false
  }
}
layer {
  name: "scale_stage1_block0_branch2c"
  type: "Scale"
  bottom: "conv_stage1_block0_branch2c"
  top: "conv_stage1_block0_branch2c"
  scale_param {
    bias_term: true
  }
}
layer {
  name: "eltwise_stage1_block0"
  type: "Eltwise"
  bottom: "conv_stage1_block0_proj_shortcut"
  bottom: "conv_stage1_block0_branch2c"
  top: "eltwise_stage1_block0"
}
layer {
  name: "relu_stage1_block0"
  type: "ReLU"
  bottom: "eltwise_stage1_block0"
  top: "eltwise_stage1_block0"
}
layer {
  name: "conv_stage1_block1_branch2a"
  type: "Convolution"
  bottom: "eltwise_stage1_block0"
  top: "conv_stage1_block1_branch2a"
  param {
    lr_mult: 0
    decay_mult: 1
  }
  param {
    lr_mult: 0
    decay_mult: 0
  }
  convolution_param {
    num_output: 64
    pad: 0
    kernel_size: 1
    stride: 1
    weight_filler {
      type: "xavier"
    }
    bias_filler {
      type: "constant"
      value: 0
    }
  }
}
layer {
  name: "bn_stage1_block1_branch2a"
  type: "BatchNorm"
  bottom: "conv_stage1_block1_branch2a"
  top: "conv_stage1_block1_branch2a"
  param {
    lr_mult: 0
    decay_mult: 0
  }
  param {
    lr_mult: 0
    decay_mult: 0
  }
  param {
    lr_mult: 0
    decay_mult: 0
  }
  batch_norm_param {
    use_global_stats: false
  }
}
layer {
  name: "scale_stage1_block1_branch2a"
  type: "Scale"
  bottom: "conv_stage1_block1_branch2a"
  top: "conv_stage1_block1_branch2a"
  scale_param {
    bias_term: true
  }
}
layer {
  name: "relu_stage1_block1_branch2a"
  type: "ReLU"
  bottom: "conv_stage1_block1_branch2a"
  top: "conv_stage1_block1_branch2a"
}
layer {
  name: "conv_stage1_block1_branch2b"
  type: "Convolution"
  bottom: "conv_stage1_block1_branch2a"
  top: "conv_stage1_block1_branch2b"
  param {
    lr_mult: 0
    decay_mult: 1
  }
  param {
    lr_mult: 0
    decay_mult: 0
  }
  convolution_param {
    num_output: 64
    pad: 1
    kernel_size: 3
    stride: 1
    weight_filler {
      type: "xavier"
    }
    bias_filler {
      type: "constant"
      value: 0
    }
  }
}
layer {
  name: "bn_stage1_block1_branch2b"
  type: "BatchNorm"
  bottom: "conv_stage1_block1_branch2b"
  top: "conv_stage1_block1_branch2b"
  param {
    lr_mult: 0
    decay_mult: 0
  }
  param {
    lr_mult: 0
    decay_mult: 0
  }
  param {
    lr_mult: 0
    decay_mult: 0
  }
  batch_norm_param {
    use_global_stats: false
  }
}
layer {
  name: "scale_stage1_block1_branch2b"
  type: "Scale"
  bottom: "conv_stage1_block1_branch2b"
  top: "conv_stage1_block1_branch2b"
  scale_param {
    bias_term: true
  }
}
layer {
  name: "relu_stage1_block1_branch2b"
  type: "ReLU"
  bottom: "conv_stage1_block1_branch2b"
  top: "conv_stage1_block1_branch2b"
}
layer {
  name: "conv_stage1_block1_branch2c"
  type: "Convolution"
  bottom: "conv_stage1_block1_branch2b"
  top: "conv_stage1_block1_branch2c"
  param {
    lr_mult: 0
    decay_mult: 1
  }
  param {
    lr_mult: 0
    decay_mult: 0
  }
  convolution_param {
    num_output: 256
    pad: 0
    kernel_size: 1
    stride: 1
    weight_filler {
      type: "xavier"
    }
    bias_filler {
      type: "constant"
      value: 0
    }
  }
}
layer {
  name: "bn_stage1_block1_branch2c"
  type: "BatchNorm"
  bottom: "conv_stage1_block1_branch2c"
  top: "conv_stage1_block1_branch2c"
  param {
    lr_mult: 0
    decay_mult: 0
  }
  param {
    lr_mult: 0
    decay_mult: 0
  }
  param {
    lr_mult: 0
    decay_mult: 0
  }
  batch_norm_param {
    use_global_stats: false
  }
}
layer {
  name: "scale_stage1_block1_branch2c"
  type: "Scale"
  bottom: "conv_stage1_block1_branch2c"
  top: "conv_stage1_block1_branch2c"
  scale_param {
    bias_term: true
  }
}
layer {
  name: "eltwise_stage1_block1"
  type: "Eltwise"
  bottom: "eltwise_stage1_block0"
  bottom: "conv_stage1_block1_branch2c"
  top: "eltwise_stage1_block1"
}
layer {
  name: "relu_stage1_block1"
  type: "ReLU"
  bottom: "eltwise_stage1_block1"
  top: "eltwise_stage1_block1"
}
layer {
  name: "conv_stage1_block2_branch2a"
  type: "Convolution"
  bottom: "eltwise_stage1_block1"
  top: "conv_stage1_block2_branch2a"
  param {
    lr_mult: 0
    decay_mult: 1
  }
  param {
    lr_mult: 0
    decay_mult: 0
  }
  convolution_param {
    num_output: 64
    pad: 0
    kernel_size: 1
    stride: 1
    weight_filler {
      type: "xavier"
    }
    bias_filler {
      type: "constant"
      value: 0
    }
  }
}
layer {
  name: "bn_stage1_block2_branch2a"
  type: "BatchNorm"
  bottom: "conv_stage1_block2_branch2a"
  top: "conv_stage1_block2_branch2a"
  param {
    lr_mult: 0
    decay_mult: 0
  }
  param {
    lr_mult: 0
    decay_mult: 0
  }
  param {
    lr_mult: 0
    decay_mult: 0
  }
  batch_norm_param {
    use_global_stats: false
  }
}
layer {
  name: "scale_stage1_block2_branch2a"
  type: "Scale"
  bottom: "conv_stage1_block2_branch2a"
  top: "conv_stage1_block2_branch2a"
  scale_param {
    bias_term: true
  }
}
layer {
  name: "relu_stage1_block2_branch2a"
  type: "ReLU"
  bottom: "conv_stage1_block2_branch2a"
  top: "conv_stage1_block2_branch2a"
}
layer {
  name: "conv_stage1_block2_branch2b"
  type: "Convolution"
  bottom: "conv_stage1_block2_branch2a"
  top: "conv_stage1_block2_branch2b"
  param {
    lr_mult: 0
    decay_mult: 1
  }
  param {
    lr_mult: 0
    decay_mult: 0
  }
  convolution_param {
    num_output: 64
    pad: 1
    kernel_size: 3
    stride: 1
    weight_filler {
      type: "xavier"
    }
    bias_filler {
      type: "constant"
      value: 0
    }
  }
}
layer {
  name: "bn_stage1_block2_branch2b"
  type: "BatchNorm"
  bottom: "conv_stage1_block2_branch2b"
  top: "conv_stage1_block2_branch2b"
  param {
    lr_mult: 0
    decay_mult: 0
  }
  param {
    lr_mult: 0
    decay_mult: 0
  }
  param {
    lr_mult: 0
    decay_mult: 0
  }
  batch_norm_param {
    use_global_stats: false
  }
}
layer {
  name: "scale_stage1_block2_branch2b"
  type: "Scale"
  bottom: "conv_stage1_block2_branch2b"
  top: "conv_stage1_block2_branch2b"
  scale_param {
    bias_term: true
  }
}
layer {
  name: "relu_stage1_block2_branch2b"
  type: "ReLU"
  bottom: "conv_stage1_block2_branch2b"
  top: "conv_stage1_block2_branch2b"
}
layer {
  name: "conv_stage1_block2_branch2c"
  type: "Convolution"
  bottom: "conv_stage1_block2_branch2b"
  top: "conv_stage1_block2_branch2c"
  param {
    lr_mult: 0
    decay_mult: 1
  }
  param {
    lr_mult: 0
    decay_mult: 0
  }
  convolution_param {
    num_output: 256
    pad: 0
    kernel_size: 1
    stride: 1
    weight_filler {
      type: "xavier"
    }
    bias_filler {
      type: "constant"
      value: 0
    }
  }
}
layer {
  name: "bn_stage1_block2_branch2c"
  type: "BatchNorm"
  bottom: "conv_stage1_block2_branch2c"
  top: "conv_stage1_block2_branch2c"
  param {
    lr_mult: 0
    decay_mult: 0
  }
  param {
    lr_mult: 0
    decay_mult: 0
  }
  param {
    lr_mult: 0
    decay_mult: 0
  }
  batch_norm_param {
    use_global_stats: false
  }
}
layer {
  name: "scale_stage1_block2_branch2c"
  type: "Scale"
  bottom: "conv_stage1_block2_branch2c"
  top: "conv_stage1_block2_branch2c"
  scale_param {
    bias_term: true
  }
}
layer {
  name: "eltwise_stage1_block2"
  type: "Eltwise"
  bottom: "eltwise_stage1_block1"
  bottom: "conv_stage1_block2_branch2c"
  top: "eltwise_stage1_block2"
}
layer {
  name: "relu_stage1_block2"
  type: "ReLU"
  bottom: "eltwise_stage1_block2"
  top: "eltwise_stage1_block2"
}
layer {
  name: "conv_stage1_block3_branch2a"
  type: "Convolution"
  bottom: "eltwise_stage1_block2"
  top: "conv_stage1_block3_branch2a"
  param {
    lr_mult: 0
    decay_mult: 1
  }
  param {
    lr_mult: 0
    decay_mult: 0
  }
  convolution_param {
    num_output: 64
    pad: 0
    kernel_size: 1
    stride: 1
    weight_filler {
      type: "xavier"
    }
    bias_filler {
      type: "constant"
      value: 0
    }
  }
}
layer {
  name: "bn_stage1_block3_branch2a"
  type: "BatchNorm"
  bottom: "conv_stage1_block3_branch2a"
  top: "conv_stage1_block3_branch2a"
  param {
    lr_mult: 0
    decay_mult: 0
  }
  param {
    lr_mult: 0
    decay_mult: 0
  }
  param {
    lr_mult: 0
    decay_mult: 0
  }
  batch_norm_param {
    use_global_stats: false
  }
}
layer {
  name: "scale_stage1_block3_branch2a"
  type: "Scale"
  bottom: "conv_stage1_block3_branch2a"
  top: "conv_stage1_block3_branch2a"
  scale_param {
    bias_term: true
  }
}
layer {
  name: "relu_stage1_block3_branch2a"
  type: "ReLU"
  bottom: "conv_stage1_block3_branch2a"
  top: "conv_stage1_block3_branch2a"
}
layer {
  name: "conv_stage1_block3_branch2b"
  type: "Convolution"
  bottom: "conv_stage1_block3_branch2a"
  top: "conv_stage1_block3_branch2b"
  param {
    lr_mult: 0
    decay_mult: 1
  }
  param {
    lr_mult: 0
    decay_mult: 0
  }
  convolution_param {
    num_output: 64
    pad: 1
    kernel_size: 3
    stride: 1
    weight_filler {
      type: "xavier"
    }
    bias_filler {
      type: "constant"
      value: 0
    }
  }
}
layer {
  name: "bn_stage1_block3_branch2b"
  type: "BatchNorm"
  bottom: "conv_stage1_block3_branch2b"
  top: "conv_stage1_block3_branch2b"
  param {
    lr_mult: 0
    decay_mult: 0
  }
  param {
    lr_mult: 0
    decay_mult: 0
  }
  param {
    lr_mult: 0
    decay_mult: 0
  }
  batch_norm_param {
    use_global_stats: false
  }
}
layer {
  name: "scale_stage1_block3_branch2b"
  type: "Scale"
  bottom: "conv_stage1_block3_branch2b"
  top: "conv_stage1_block3_branch2b"
  scale_param {
    bias_term: true
  }
}
layer {
  name: "relu_stage1_block3_branch2b"
  type: "ReLU"
  bottom: "conv_stage1_block3_branch2b"
  top: "conv_stage1_block3_branch2b"
}
layer {
  name: "conv_stage1_block3_branch2c"
  type: "Convolution"
  bottom: "conv_stage1_block3_branch2b"
  top: "conv_stage1_block3_branch2c"
  param {
    lr_mult: 0
    decay_mult: 1
  }
  param {
    lr_mult: 0
    decay_mult: 0
  }
  convolution_param {
    num_output: 256
    pad: 0
    kernel_size: 1
    stride: 1
    weight_filler {
      type: "xavier"
    }
    bias_filler {
      type: "constant"
      value: 0
    }
  }
}
layer {
  name: "bn_stage1_block3_branch2c"
  type: "BatchNorm"
  bottom: "conv_stage1_block3_branch2c"
  top: "conv_stage1_block3_branch2c"
  param {
    lr_mult: 0
    decay_mult: 0
  }
  param {
    lr_mult: 0
    decay_mult: 0
  }
  param {
    lr_mult: 0
    decay_mult: 0
  }
  batch_norm_param {
    use_global_stats: false
  }
}
layer {
  name: "scale_stage1_block3_branch2c"
  type: "Scale"
  bottom: "conv_stage1_block3_branch2c"
  top: "conv_stage1_block3_branch2c"
  scale_param {
    bias_term: true
  }
}
layer {
  name: "eltwise_stage1_block3"
  type: "Eltwise"
  bottom: "eltwise_stage1_block2"
  bottom: "conv_stage1_block3_branch2c"
  top: "eltwise_stage1_block3"
}
layer {
  name: "relu_stage1_block3"
  type: "ReLU"
  bottom: "eltwise_stage1_block3"
  top: "eltwise_stage1_block3"
}
layer {
  name: "conv_stage2_block0_proj_shortcut"
  type: "Convolution"
  bottom: "eltwise_stage1_block3"
  top: "conv_stage2_block0_proj_shortcut"
  param {
    lr_mult: 0
    decay_mult: 1
  }
  param {
    lr_mult: 0
    decay_mult: 0
  }
  convolution_param {
    num_output: 512
    pad: 0
    kernel_size: 1
    stride: 2
    weight_filler {
      type: "xavier"
    }
    bias_filler {
      type: "constant"
      value: 0
    }
  }
}
layer {
  name: "bn_stage2_block0_proj_shortcut"
  type: "BatchNorm"
  bottom: "conv_stage2_block0_proj_shortcut"
  top: "conv_stage2_block0_proj_shortcut"
  param {
    lr_mult: 0
    decay_mult: 0
  }
  param {
    lr_mult: 0
    decay_mult: 0
  }
  param {
    lr_mult: 0
    decay_mult: 0
  }
  batch_norm_param {
    use_global_stats: false
  }
}
layer {
  name: "scale_stage2_block0_proj_shortcut"
  type: "Scale"
  bottom: "conv_stage2_block0_proj_shortcut"
  top: "conv_stage2_block0_proj_shortcut"
  scale_param {
    bias_term: true
  }
}
layer {
  name: "conv_stage2_block0_branch2a"
  type: "Convolution"
  bottom: "eltwise_stage1_block3"
  top: "conv_stage2_block0_branch2a"
  param {
    lr_mult: 0
    decay_mult: 1
  }
  param {
    lr_mult: 0
    decay_mult: 0
  }
  convolution_param {
    num_output: 128
    pad: 0
    kernel_size: 1
    stride: 2
    weight_filler {
      type: "xavier"
    }
    bias_filler {
      type: "constant"
      value: 0
    }
  }
}
layer {
  name: "bn_stage2_block0_branch2a"
  type: "BatchNorm"
  bottom: "conv_stage2_block0_branch2a"
  top: "conv_stage2_block0_branch2a"
  param {
    lr_mult: 0
    decay_mult: 0
  }
  param {
    lr_mult: 0
    decay_mult: 0
  }
  param {
    lr_mult: 0
    decay_mult: 0
  }
  batch_norm_param {
    use_global_stats: false
  }
}
layer {
  name: "scale_stage2_block0_branch2a"
  type: "Scale"
  bottom: "conv_stage2_block0_branch2a"
  top: "conv_stage2_block0_branch2a"
  scale_param {
    bias_term: true
  }
}
layer {
  name: "relu_stage2_block0_branch2a"
  type: "ReLU"
  bottom: "conv_stage2_block0_branch2a"
  top: "conv_stage2_block0_branch2a"
}
layer {
  name: "conv_stage2_block0_branch2b"
  type: "Convolution"
  bottom: "conv_stage2_block0_branch2a"
  top: "conv_stage2_block0_branch2b"
  param {
    lr_mult: 0
    decay_mult: 1
  }
  param {
    lr_mult: 0
    decay_mult: 0
  }
  convolution_param {
    num_output: 128
    
I0610 06:42:33.887490 17043 layer_factory.hpp:77] Creating layer data
I0610 06:42:33.887529 17043 net.cpp:84] Creating Layer data
I0610 06:42:33.887539 17043 net.cpp:380] data -> data
I0610 06:42:33.887565 17043 net.cpp:380] data -> label
I0610 06:42:33.887591 17043 image_data_layer.cpp:38] Opening file /home/dbicho/Documents/datasets/all_labeled_dataset_augmented_finetuning/train.txt
I0610 06:42:33.899094 17043 image_data_layer.cpp:53] Shuffling data
I0610 06:42:33.902946 17043 image_data_layer.cpp:63] A total of 19956 images.
I0610 06:42:33.904105 17043 image_data_layer.cpp:90] output data size: 7,3,224,224
I0610 06:42:33.912562 17043 net.cpp:122] Setting up data
I0610 06:42:33.912591 17043 net.cpp:129] Top shape: 7 3 224 224 (1053696)
I0610 06:42:33.912600 17043 net.cpp:129] Top shape: 7 (7)
I0610 06:42:33.912605 17043 net.cpp:137] Memory required for data: 4214812
I0610 06:42:33.912613 17043 layer_factory.hpp:77] Creating layer conv_1
I0610 06:42:33.912643 17043 net.cpp:84] Creating Layer conv_1
I0610 06:42:33.912652 17043 net.cpp:406] conv_1 <- data
I0610 06:42:33.912672 17043 net.cpp:380] conv_1 -> conv_1
I0610 06:42:33.913806 17043 net.cpp:122] Setting up conv_1
I0610 06:42:33.913823 17043 net.cpp:129] Top shape: 7 64 112 112 (5619712)
I0610 06:42:33.913828 17043 net.cpp:137] Memory required for data: 26693660
I0610 06:42:33.913851 17043 layer_factory.hpp:77] Creating layer bn_1
I0610 06:42:33.913864 17043 net.cpp:84] Creating Layer bn_1
I0610 06:42:33.913871 17043 net.cpp:406] bn_1 <- conv_1
I0610 06:42:33.913879 17043 net.cpp:367] bn_1 -> conv_1 (in-place)
I0610 06:42:33.914121 17043 net.cpp:122] Setting up bn_1
I0610 06:42:33.914135 17043 net.cpp:129] Top shape: 7 64 112 112 (5619712)
I0610 06:42:33.914155 17043 net.cpp:137] Memory required for data: 49172508
I0610 06:42:33.914175 17043 layer_factory.hpp:77] Creating layer scale_1
I0610 06:42:33.914186 17043 net.cpp:84] Creating Layer scale_1
I0610 06:42:33.914191 17043 net.cpp:406] scale_1 <- conv_1
I0610 06:42:33.914199 17043 net.cpp:367] scale_1 -> conv_1 (in-place)
I0610 06:42:33.914265 17043 layer_factory.hpp:77] Creating layer scale_1
I0610 06:42:33.914438 17043 net.cpp:122] Setting up scale_1
I0610 06:42:33.914450 17043 net.cpp:129] Top shape: 7 64 112 112 (5619712)
I0610 06:42:33.914455 17043 net.cpp:137] Memory required for data: 71651356
I0610 06:42:33.914465 17043 layer_factory.hpp:77] Creating layer relu_1
I0610 06:42:33.914476 17043 net.cpp:84] Creating Layer relu_1
I0610 06:42:33.914482 17043 net.cpp:406] relu_1 <- conv_1
I0610 06:42:33.914490 17043 net.cpp:367] relu_1 -> conv_1 (in-place)
I0610 06:42:33.914499 17043 net.cpp:122] Setting up relu_1
I0610 06:42:33.914507 17043 net.cpp:129] Top shape: 7 64 112 112 (5619712)
I0610 06:42:33.914513 17043 net.cpp:137] Memory required for data: 94130204
I0610 06:42:33.914517 17043 layer_factory.hpp:77] Creating layer pool1
I0610 06:42:33.914526 17043 net.cpp:84] Creating Layer pool1
I0610 06:42:33.914531 17043 net.cpp:406] pool1 <- conv_1
I0610 06:42:33.914538 17043 net.cpp:380] pool1 -> pool1
I0610 06:42:33.914993 17043 net.cpp:122] Setting up pool1
I0610 06:42:33.915005 17043 net.cpp:129] Top shape: 7 64 56 56 (1404928)
I0610 06:42:33.915011 17043 net.cpp:137] Memory required for data: 99749916
I0610 06:42:33.915016 17043 layer_factory.hpp:77] Creating layer pool1_pool1_0_split
I0610 06:42:33.915025 17043 net.cpp:84] Creating Layer pool1_pool1_0_split
I0610 06:42:33.915031 17043 net.cpp:406] pool1_pool1_0_split <- pool1
I0610 06:42:33.915040 17043 net.cpp:380] pool1_pool1_0_split -> pool1_pool1_0_split_0
I0610 06:42:33.915053 17043 net.cpp:380] pool1_pool1_0_split -> pool1_pool1_0_split_1
I0610 06:42:33.915102 17043 net.cpp:122] Setting up pool1_pool1_0_split
I0610 06:42:33.915112 17043 net.cpp:129] Top shape: 7 64 56 56 (1404928)
I0610 06:42:33.915119 17043 net.cpp:129] Top shape: 7 64 56 56 (1404928)
I0610 06:42:33.915124 17043 net.cpp:137] Memory required for data: 110989340
I0610 06:42:33.915128 17043 layer_factory.hpp:77] Creating layer conv_stage0_block0_proj_shortcut
I0610 06:42:33.915143 17043 net.cpp:84] Creating Layer conv_stage0_block0_proj_shortcut
I0610 06:42:33.915149 17043 net.cpp:406] conv_stage0_block0_proj_shortcut <- pool1_pool1_0_split_0
I0610 06:42:33.915160 17043 net.cpp:380] conv_stage0_block0_proj_shortcut -> conv_stage0_block0_proj_shortcut
I0610 06:42:33.916139 17043 net.cpp:122] Setting up conv_stage0_block0_proj_shortcut
I0610 06:42:33.916157 17043 net.cpp:129] Top shape: 7 128 56 56 (2809856)
I0610 06:42:33.916162 17043 net.cpp:137] Memory required for data: 122228764
I0610 06:42:33.916175 17043 layer_factory.hpp:77] Creating layer bn_stage0_block0_proj_shortcut
I0610 06:42:33.916190 17043 net.cpp:84] Creating Layer bn_stage0_block0_proj_shortcut
I0610 06:42:33.916196 17043 net.cpp:406] bn_stage0_block0_proj_shortcut <- conv_stage0_block0_proj_shortcut
I0610 06:42:33.916206 17043 net.cpp:367] bn_stage0_block0_proj_shortcut -> conv_stage0_block0_proj_shortcut (in-place)
I0610 06:42:33.916436 17043 net.cpp:122] Setting up bn_stage0_block0_proj_shortcut
I0610 06:42:33.916450 17043 net.cpp:129] Top shape: 7 128 56 56 (2809856)
I0610 06:42:33.916456 17043 net.cpp:137] Memory required for data: 133468188
I0610 06:42:33.916467 17043 layer_factory.hpp:77] Creating layer scale_stage0_block0_proj_shortcut
I0610 06:42:33.916478 17043 net.cpp:84] Creating Layer scale_stage0_block0_proj_shortcut
I0610 06:42:33.916484 17043 net.cpp:406] scale_stage0_block0_proj_shortcut <- conv_stage0_block0_proj_shortcut
I0610 06:42:33.916492 17043 net.cpp:367] scale_stage0_block0_proj_shortcut -> conv_stage0_block0_proj_shortcut (in-place)
I0610 06:42:33.916545 17043 layer_factory.hpp:77] Creating layer scale_stage0_block0_proj_shortcut
I0610 06:42:33.916684 17043 net.cpp:122] Setting up scale_stage0_block0_proj_shortcut
I0610 06:42:33.916712 17043 net.cpp:129] Top shape: 7 128 56 56 (2809856)
I0610 06:42:33.916718 17043 net.cpp:137] Memory required for data: 144707612
I0610 06:42:33.916726 17043 layer_factory.hpp:77] Creating layer conv_stage0_block0_branch2a
I0610 06:42:33.916743 17043 net.cpp:84] Creating Layer conv_stage0_block0_branch2a
I0610 06:42:33.916749 17043 net.cpp:406] conv_stage0_block0_branch2a <- pool1_pool1_0_split_1
I0610 06:42:33.916760 17043 net.cpp:380] conv_stage0_block0_branch2a -> conv_stage0_block0_branch2a
I0610 06:42:33.917080 17043 net.cpp:122] Setting up conv_stage0_block0_branch2a
I0610 06:42:33.917094 17043 net.cpp:129] Top shape: 7 32 56 56 (702464)
I0610 06:42:33.917100 17043 net.cpp:137] Memory required for data: 147517468
I0610 06:42:33.917109 17043 layer_factory.hpp:77] Creating layer bn_stage0_block0_branch2a
I0610 06:42:33.917120 17043 net.cpp:84] Creating Layer bn_stage0_block0_branch2a
I0610 06:42:33.917126 17043 net.cpp:406] bn_stage0_block0_branch2a <- conv_stage0_block0_branch2a
I0610 06:42:33.917136 17043 net.cpp:367] bn_stage0_block0_branch2a -> conv_stage0_block0_branch2a (in-place)
I0610 06:42:33.917371 17043 net.cpp:122] Setting up bn_stage0_block0_branch2a
I0610 06:42:33.917384 17043 net.cpp:129] Top shape: 7 32 56 56 (702464)
I0610 06:42:33.917390 17043 net.cpp:137] Memory required for data: 150327324
I0610 06:42:33.917405 17043 layer_factory.hpp:77] Creating layer scale_stage0_block0_branch2a
I0610 06:42:33.917415 17043 net.cpp:84] Creating Layer scale_stage0_block0_branch2a
I0610 06:42:33.917420 17043 net.cpp:406] scale_stage0_block0_branch2a <- conv_stage0_block0_branch2a
I0610 06:42:33.917430 17043 net.cpp:367] scale_stage0_block0_branch2a -> conv_stage0_block0_branch2a (in-place)
I0610 06:42:33.917482 17043 layer_factory.hpp:77] Creating layer scale_stage0_block0_branch2a
I0610 06:42:33.917632 17043 net.cpp:122] Setting up scale_stage0_block0_branch2a
I0610 06:42:33.917645 17043 net.cpp:129] Top shape: 7 32 56 56 (702464)
I0610 06:42:33.917649 17043 net.cpp:137] Memory required for data: 153137180
I0610 06:42:33.917656 17043 layer_factory.hpp:77] Creating layer relu_stage0_block0_branch2a
I0610 06:42:33.917665 17043 net.cpp:84] Creating Layer relu_stage0_block0_branch2a
I0610 06:42:33.917667 17043 net.cpp:406] relu_stage0_block0_branch2a <- conv_stage0_block0_branch2a
I0610 06:42:33.917675 17043 net.cpp:367] relu_stage0_block0_branch2a -> conv_stage0_block0_branch2a (in-place)
I0610 06:42:33.917685 17043 net.cpp:122] Setting up relu_stage0_block0_branch2a
I0610 06:42:33.917691 17043 net.cpp:129] Top shape: 7 32 56 56 (702464)
I0610 06:42:33.917695 17043 net.cpp:137] Memory required for data: 155947036
I0610 06:42:33.917698 17043 layer_factory.hpp:77] Creating layer conv_stage0_block0_branch2b
I0610 06:42:33.917708 17043 net.cpp:84] Creating Layer conv_stage0_block0_branch2b
I0610 06:42:33.917712 17043 net.cpp:406] conv_stage0_block0_branch2b <- conv_stage0_block0_branch2a
I0610 06:42:33.917719 17043 net.cpp:380] conv_stage0_block0_branch2b -> conv_stage0_block0_branch2b
I0610 06:42:33.918098 17043 net.cpp:122] Setting up conv_stage0_block0_branch2b
I0610 06:42:33.918113 17043 net.cpp:129] Top shape: 7 32 56 56 (702464)
I0610 06:42:33.918118 17043 net.cpp:137] Memory required for data: 158756892
I0610 06:42:33.918128 17043 layer_factory.hpp:77] Creating layer bn_stage0_block0_branch2b
I0610 06:42:33.918136 17043 net.cpp:84] Creating Layer bn_stage0_block0_branch2b
I0610 06:42:33.918143 17043 net.cpp:406] bn_stage0_block0_branch2b <- conv_stage0_block0_branch2b
I0610 06:42:33.918153 17043 net.cpp:367] bn_stage0_block0_branch2b -> conv_stage0_block0_branch2b (in-place)
I0610 06:42:33.918401 17043 net.cpp:122] Setting up bn_stage0_block0_branch2b
I0610 06:42:33.918414 17043 net.cpp:129] Top shape: 7 32 56 56 (702464)
I0610 06:42:33.918419 17043 net.cpp:137] Memory required for data: 161566748
I0610 06:42:33.918429 17043 layer_factory.hpp:77] Creating layer scale_stage0_block0_branch2b
I0610 06:42:33.918447 17043 net.cpp:84] Creating Layer scale_stage0_block0_branch2b
I0610 06:42:33.918465 17043 net.cpp:406] scale_stage0_block0_branch2b <- conv_stage0_block0_branch2b
I0610 06:42:33.918475 17043 net.cpp:367] scale_stage0_block0_branch2b -> conv_stage0_block0_branch2b (in-place)
I0610 06:42:33.918531 17043 layer_factory.hpp:77] Creating layer scale_stage0_block0_branch2b
I0610 06:42:33.918678 17043 net.cpp:122] Setting up scale_stage0_block0_branch2b
I0610 06:42:33.918690 17043 net.cpp:129] Top shape: 7 32 56 56 (702464)
I0610 06:42:33.918694 17043 net.cpp:137] Memory required for data: 164376604
I0610 06:42:33.918704 17043 layer_factory.hpp:77] Creating layer relu_stage0_block0_branch2b
I0610 06:42:33.918714 17043 net.cpp:84] Creating Layer relu_stage0_block0_branch2b
I0610 06:42:33.918720 17043 net.cpp:406] relu_stage0_block0_branch2b <- conv_stage0_block0_branch2b
I0610 06:42:33.918727 17043 net.cpp:367] relu_stage0_block0_branch2b -> conv_stage0_block0_branch2b (in-place)
I0610 06:42:33.918737 17043 net.cpp:122] Setting up relu_stage0_block0_branch2b
I0610 06:42:33.918745 17043 net.cpp:129] Top shape: 7 32 56 56 (702464)
I0610 06:42:33.918750 17043 net.cpp:137] Memory required for data: 167186460
I0610 06:42:33.918753 17043 layer_factory.hpp:77] Creating layer conv_stage0_block0_branch2c
I0610 06:42:33.918767 17043 net.cpp:84] Creating Layer conv_stage0_block0_branch2c
I0610 06:42:33.918773 17043 net.cpp:406] conv_stage0_block0_branch2c <- conv_stage0_block0_branch2b
I0610 06:42:33.918784 17043 net.cpp:380] conv_stage0_block0_branch2c -> conv_stage0_block0_branch2c
I0610 06:42:33.919108 17043 net.cpp:122] Setting up conv_stage0_block0_branch2c
I0610 06:42:33.919123 17043 net.cpp:129] Top shape: 7 128 56 56 (2809856)
I0610 06:42:33.919129 17043 net.cpp:137] Memory required for data: 178425884
I0610 06:42:33.919138 17043 layer_factory.hpp:77] Creating layer bn_stage0_block0_branch2c
I0610 06:42:33.919149 17043 net.cpp:84] Creating Layer bn_stage0_block0_branch2c
I0610 06:42:33.919155 17043 net.cpp:406] bn_stage0_block0_branch2c <- conv_stage0_block0_branch2c
I0610 06:42:33.919165 17043 net.cpp:367] bn_stage0_block0_branch2c -> conv_stage0_block0_branch2c (in-place)
I0610 06:42:33.919381 17043 net.cpp:122] Setting up bn_stage0_block0_branch2c
I0610 06:42:33.919394 17043 net.cpp:129] Top shape: 7 128 56 56 (2809856)
I0610 06:42:33.919399 17043 net.cpp:137] Memory required for data: 189665308
I0610 06:42:33.919415 17043 layer_factory.hpp:77] Creating layer scale_stage0_block0_branch2c
I0610 06:42:33.919425 17043 net.cpp:84] Creating Layer scale_stage0_block0_branch2c
I0610 06:42:33.919431 17043 net.cpp:406] scale_stage0_block0_branch2c <- conv_stage0_block0_branch2c
I0610 06:42:33.919440 17043 net.cpp:367] scale_stage0_block0_branch2c -> conv_stage0_block0_branch2c (in-place)
I0610 06:42:33.919490 17043 layer_factory.hpp:77] Creating layer scale_stage0_block0_branch2c
I0610 06:42:33.919631 17043 net.cpp:122] Setting up scale_stage0_block0_branch2c
I0610 06:42:33.919642 17043 net.cpp:129] Top shape: 7 128 56 56 (2809856)
I0610 06:42:33.919649 17043 net.cpp:137] Memory required for data: 200904732
I0610 06:42:33.919658 17043 layer_factory.hpp:77] Creating layer eltwise_stage0_block0
I0610 06:42:33.919669 17043 net.cpp:84] Creating Layer eltwise_stage0_block0
I0610 06:42:33.919675 17043 net.cpp:406] eltwise_stage0_block0 <- conv_stage0_block0_proj_shortcut
I0610 06:42:33.919680 17043 net.cpp:406] eltwise_stage0_block0 <- conv_stage0_block0_branch2c
I0610 06:42:33.919689 17043 net.cpp:380] eltwise_stage0_block0 -> eltwise_stage0_block0
I0610 06:42:33.919723 17043 net.cpp:122] Setting up eltwise_stage0_block0
I0610 06:42:33.919734 17043 net.cpp:129] Top shape: 7 128 56 56 (2809856)
I0610 06:42:33.919739 17043 net.cpp:137] Memory required for data: 212144156
I0610 06:42:33.919744 17043 layer_factory.hpp:77] Creating layer relu_stage0_block0
I0610 06:42:33.919752 17043 net.cpp:84] Creating Layer relu_stage0_block0
I0610 06:42:33.919759 17043 net.cpp:406] relu_stage0_block0 <- eltwise_stage0_block0
I0610 06:42:33.919765 17043 net.cpp:367] relu_stage0_block0 -> eltwise_stage0_block0 (in-place)
I0610 06:42:33.919785 17043 net.cpp:122] Setting up relu_stage0_block0
I0610 06:42:33.919791 17043 net.cpp:129] Top shape: 7 128 56 56 (2809856)
I0610 06:42:33.919795 17043 net.cpp:137] Memory required for data: 223383580
I0610 06:42:33.919800 17043 layer_factory.hpp:77] Creating layer eltwise_stage0_block0_relu_stage0_block0_0_split
I0610 06:42:33.919806 17043 net.cpp:84] Creating Layer eltwise_stage0_block0_relu_stage0_block0_0_split
I0610 06:42:33.919811 17043 net.cpp:406] eltwise_stage0_block0_relu_stage0_block0_0_split <- eltwise_stage0_block0
I0610 06:42:33.919816 17043 net.cpp:380] eltwise_stage0_block0_relu_stage0_block0_0_split -> eltwise_stage0_block0_relu_stage0_block0_0_split_0
I0610 06:42:33.919826 17043 net.cpp:380] eltwise_stage0_block0_relu_stage0_block0_0_split -> eltwise_stage0_block0_relu_stage0_block0_0_split_1
I0610 06:42:33.919864 17043 net.cpp:122] Setting up eltwise_stage0_block0_relu_stage0_block0_0_split
I0610 06:42:33.919875 17043 net.cpp:129] Top shape: 7 128 56 56 (2809856)
I0610 06:42:33.919883 17043 net.cpp:129] Top shape: 7 128 56 56 (2809856)
I0610 06:42:33.919888 17043 net.cpp:137] Memory required for data: 245862428
I0610 06:42:33.919893 17043 layer_factory.hpp:77] Creating layer conv_stage0_block1_branch2a
I0610 06:42:33.919908 17043 net.cpp:84] Creating Layer conv_stage0_block1_branch2a
I0610 06:42:33.919914 17043 net.cpp:406] conv_stage0_block1_branch2a <- eltwise_stage0_block0_relu_stage0_block0_0_split_0
I0610 06:42:33.919924 17043 net.cpp:380] conv_stage0_block1_branch2a -> conv_stage0_block1_branch2a
I0610 06:42:33.920253 17043 net.cpp:122] Setting up conv_stage0_block1_branch2a
I0610 06:42:33.920267 17043 net.cpp:129] Top shape: 7 32 56 56 (702464)
I0610 06:42:33.920272 17043 net.cpp:137] Memory required for data: 248672284
I0610 06:42:33.920282 17043 layer_factory.hpp:77] Creating layer bn_stage0_block1_branch2a
I0610 06:42:33.920294 17043 net.cpp:84] Creating Layer bn_stage0_block1_branch2a
I0610 06:42:33.920300 17043 net.cpp:406] bn_stage0_block1_branch2a <- conv_stage0_block1_branch2a
I0610 06:42:33.920308 17043 net.cpp:367] bn_stage0_block1_branch2a -> conv_stage0_block1_branch2a (in-place)
I0610 06:42:33.920542 17043 net.cpp:122] Setting up bn_stage0_block1_branch2a
I0610 06:42:33.920554 17043 net.cpp:129] Top shape: 7 32 56 56 (702464)
I0610 06:42:33.920559 17043 net.cpp:137] Memory required for data: 251482140
I0610 06:42:33.920570 17043 layer_factory.hpp:77] Creating layer scale_stage0_block1_branch2a
I0610 06:42:33.920583 17043 net.cpp:84] Creating Layer scale_stage0_block1_branch2a
I0610 06:42:33.920588 17043 net.cpp:406] scale_stage0_block1_branch2a <- conv_stage0_block1_branch2a
I0610 06:42:33.920598 17043 net.cpp:367] scale_stage0_block1_branch2a -> conv_stage0_block1_branch2a (in-place)
I0610 06:42:33.920648 17043 layer_factory.hpp:77] Creating layer scale_stage0_block1_branch2a
I0610 06:42:33.920797 17043 net.cpp:122] Setting up scale_stage0_block1_branch2a
I0610 06:42:33.920809 17043 net.cpp:129] Top shape: 7 32 56 56 (702464)
I0610 06:42:33.920814 17043 net.cpp:137] Memory required for data: 254291996
I0610 06:42:33.920822 17043 layer_factory.hpp:77] Creating layer relu_stage0_block1_branch2a
I0610 06:42:33.920831 17043 net.cpp:84] Creating Layer relu_stage0_block1_branch2a
I0610 06:42:33.920837 17043 net.cpp:406] relu_stage0_block1_branch2a <- conv_stage0_block1_branch2a
I0610 06:42:33.920847 17043 net.cpp:367] relu_stage0_block1_branch2a -> conv_stage0_block1_branch2a (in-place)
I0610 06:42:33.920861 17043 net.cpp:122] Setting up relu_stage0_block1_branch2a
I0610 06:42:33.920867 17043 net.cpp:129] Top shape: 7 32 56 56 (702464)
I0610 06:42:33.920872 17043 net.cpp:137] Memory required for data: 257101852
I0610 06:42:33.920876 17043 layer_factory.hpp:77] Creating layer conv_stage0_block1_branch2b
I0610 06:42:33.920893 17043 net.cpp:84] Creating Layer conv_stage0_block1_branch2b
I0610 06:42:33.920898 17043 net.cpp:406] conv_stage0_block1_branch2b <- conv_stage0_block1_branch2a
I0610 06:42:33.920912 17043 net.cpp:380] conv_stage0_block1_branch2b -> conv_stage0_block1_branch2b
I0610 06:42:33.921325 17043 net.cpp:122] Setting up conv_stage0_block1_branch2b
I0610 06:42:33.921339 17043 net.cpp:129] Top shape: 7 32 56 56 (702464)
I0610 06:42:33.921344 17043 net.cpp:137] Memory required for data: 259911708
I0610 06:42:33.921353 17043 layer_factory.hpp:77] Creating layer bn_stage0_block1_branch2b
I0610 06:42:33.921362 17043 net.cpp:84] Creating Layer bn_stage0_block1_branch2b
I0610 06:42:33.921367 17043 net.cpp:406] bn_stage0_block1_branch2b <- conv_stage0_block1_branch2b
I0610 06:42:33.921376 17043 net.cpp:367] bn_stage0_block1_branch2b -> conv_stage0_block1_branch2b (in-place)
I0610 06:42:33.922053 17043 net.cpp:122] Setting up bn_stage0_block1_branch2b
I0610 06:42:33.922067 17043 net.cpp:129] Top shape: 7 32 56 56 (702464)
I0610 06:42:33.922072 17043 net.cpp:137] Memory required for data: 262721564
I0610 06:42:33.922083 17043 layer_factory.hpp:77] Creating layer scale_stage0_block1_branch2b
I0610 06:42:33.922094 17043 net.cpp:84] Creating Layer scale_stage0_block1_branch2b
I0610 06:42:33.922099 17043 net.cpp:406] scale_stage0_block1_branch2b <- conv_stage0_block1_branch2b
I0610 06:42:33.922108 17043 net.cpp:367] scale_stage0_block1_branch2b -> conv_stage0_block1_branch2b (in-place)
I0610 06:42:33.922160 17043 layer_factory.hpp:77] Creating layer scale_stage0_block1_branch2b
I0610 06:42:33.922317 17043 net.cpp:122] Setting up scale_stage0_block1_branch2b
I0610 06:42:33.922329 17043 net.cpp:129] Top shape: 7 32 56 56 (702464)
I0610 06:42:33.922334 17043 net.cpp:137] Memory required for data: 265531420
I0610 06:42:33.922343 17043 layer_factory.hpp:77] Creating layer relu_stage0_block1_branch2b
I0610 06:42:33.922351 17043 net.cpp:84] Creating Layer relu_stage0_block1_branch2b
I0610 06:42:33.922355 17043 net.cpp:406] relu_stage0_block1_branch2b <- conv_stage0_block1_branch2b
I0610 06:42:33.922363 17043 net.cpp:367] relu_stage0_block1_branch2b -> conv_stage0_block1_branch2b (in-place)
I0610 06:42:33.922372 17043 net.cpp:122] Setting up relu_stage0_block1_branch2b
I0610 06:42:33.922379 17043 net.cpp:129] Top shape: 7 32 56 56 (702464)
I0610 06:42:33.922382 17043 net.cpp:137] Memory required for data: 268341276
I0610 06:42:33.922386 17043 layer_factory.hpp:77] Creating layer conv_stage0_block1_branch2c
I0610 06:42:33.922410 17043 net.cpp:84] Creating Layer conv_stage0_block1_branch2c
I0610 06:42:33.922415 17043 net.cpp:406] conv_stage0_block1_branch2c <- conv_stage0_block1_branch2b
I0610 06:42:33.922423 17043 net.cpp:380] conv_stage0_block1_branch2c -> conv_stage0_block1_branch2c
I0610 06:42:33.922737 17043 net.cpp:122] Setting up conv_stage0_block1_branch2c
I0610 06:42:33.922750 17043 net.cpp:129] Top shape: 7 128 56 56 (2809856)
I0610 06:42:33.922755 17043 net.cpp:137] Memory required for data: 279580700
I0610 06:42:33.922765 17043 layer_factory.hpp:77] Creating layer bn_stage0_block1_branch2c
I0610 06:42:33.922775 17043 net.cpp:84] Creating Layer bn_stage0_block1_branch2c
I0610 06:42:33.922780 17043 net.cpp:406] bn_stage0_block1_branch2c <- conv_stage0_block1_branch2c
I0610 06:42:33.922789 17043 net.cpp:367] bn_stage0_block1_branch2c -> conv_stage0_block1_branch2c (in-place)
I0610 06:42:33.922999 17043 net.cpp:122] Setting up bn_stage0_block1_branch2c
I0610 06:42:33.923008 17043 net.cpp:129] Top shape: 7 128 56 56 (2809856)
I0610 06:42:33.923012 17043 net.cpp:137] Memory required for data: 290820124
I0610 06:42:33.923018 17043 layer_factory.hpp:77] Creating layer scale_stage0_block1_branch2c
I0610 06:42:33.923024 17043 net.cpp:84] Creating Layer scale_stage0_block1_branch2c
I0610 06:42:33.923027 17043 net.cpp:406] scale_stage0_block1_branch2c <- conv_stage0_block1_branch2c
I0610 06:42:33.923032 17043 net.cpp:367] scale_stage0_block1_branch2c -> conv_stage0_block1_branch2c (in-place)
I0610 06:42:33.923061 17043 layer_factory.hpp:77] Creating layer scale_stage0_block1_branch2c
I0610 06:42:33.923142 17043 net.cpp:122] Setting up scale_stage0_block1_branch2c
I0610 06:42:33.923147 17043 net.cpp:129] Top shape: 7 128 56 56 (2809856)
I0610 06:42:33.923149 17043 net.cpp:137] Memory required for data: 302059548
I0610 06:42:33.923163 17043 layer_factory.hpp:77] Creating layer eltwise_stage0_block1
I0610 06:42:33.923168 17043 net.cpp:84] Creating Layer eltwise_stage0_block1
I0610 06:42:33.923171 17043 net.cpp:406] eltwise_stage0_block1 <- eltwise_stage0_block0_relu_stage0_block0_0_split_1
I0610 06:42:33.923175 17043 net.cpp:406] eltwise_stage0_block1 <- conv_stage0_block1_branch2c
I0610 06:42:33.923179 17043 net.cpp:380] eltwise_stage0_block1 -> eltwise_stage0_block1
I0610 06:42:33.923202 17043 net.cpp:122] Setting up eltwise_stage0_block1
I0610 06:42:33.923207 17043 net.cpp:129] Top shape: 7 128 56 56 (2809856)
I0610 06:42:33.923209 17043 net.cpp:137] Memory required for data: 313298972
I0610 06:42:33.923211 17043 layer_factory.hpp:77] Creating layer relu_stage0_block1
I0610 06:42:33.923216 17043 net.cpp:84] Creating Layer relu_stage0_block1
I0610 06:42:33.923218 17043 net.cpp:406] relu_stage0_block1 <- eltwise_stage0_block1
I0610 06:42:33.923223 17043 net.cpp:367] relu_stage0_block1 -> eltwise_stage0_block1 (in-place)
I0610 06:42:33.923228 17043 net.cpp:122] Setting up relu_stage0_block1
I0610 06:42:33.923231 17043 net.cpp:129] Top shape: 7 128 56 56 (2809856)
I0610 06:42:33.923233 17043 net.cpp:137] Memory required for data: 324538396
I0610 06:42:33.923235 17043 layer_factory.hpp:77] Creating layer eltwise_stage0_block1_relu_stage0_block1_0_split
I0610 06:42:33.923240 17043 net.cpp:84] Creating Layer eltwise_stage0_block1_relu_stage0_block1_0_split
I0610 06:42:33.923243 17043 net.cpp:406] eltwise_stage0_block1_relu_stage0_block1_0_split <- eltwise_stage0_block1
I0610 06:42:33.923247 17043 net.cpp:380] eltwise_stage0_block1_relu_stage0_block1_0_split -> eltwise_stage0_block1_relu_stage0_block1_0_split_0
I0610 06:42:33.923252 17043 net.cpp:380] eltwise_stage0_block1_relu_stage0_block1_0_split -> eltwise_stage0_block1_relu_stage0_block1_0_split_1
I0610 06:42:33.923277 17043 net.cpp:122] Setting up eltwise_stage0_block1_relu_stage0_block1_0_split
I0610 06:42:33.923281 17043 net.cpp:129] Top shape: 7 128 56 56 (2809856)
I0610 06:42:33.923285 17043 net.cpp:129] Top shape: 7 128 56 56 (2809856)
I0610 06:42:33.923287 17043 net.cpp:137] Memory required for data: 347017244
I0610 06:42:33.923290 17043 layer_factory.hpp:77] Creating layer conv_stage0_block2_branch2a
I0610 06:42:33.923298 17043 net.cpp:84] Creating Layer conv_stage0_block2_branch2a
I0610 06:42:33.923301 17043 net.cpp:406] conv_stage0_block2_branch2a <- eltwise_stage0_block1_relu_stage0_block1_0_split_0
I0610 06:42:33.923306 17043 net.cpp:380] conv_stage0_block2_branch2a -> conv_stage0_block2_branch2a
I0610 06:42:33.923493 17043 net.cpp:122] Setting up conv_stage0_block2_branch2a
I0610 06:42:33.923499 17043 net.cpp:129] Top shape: 7 32 56 56 (702464)
I0610 06:42:33.923501 17043 net.cpp:137] Memory required for data: 349827100
I0610 06:42:33.923506 17043 layer_factory.hpp:77] Creating layer bn_stage0_block2_branch2a
I0610 06:42:33.923512 17043 net.cpp:84] Creating Layer bn_stage0_block2_branch2a
I0610 06:42:33.923516 17043 net.cpp:406] bn_stage0_block2_branch2a <- conv_stage0_block2_branch2a
I0610 06:42:33.923519 17043 net.cpp:367] bn_stage0_block2_branch2a -> conv_stage0_block2_branch2a (in-place)
I0610 06:42:33.923652 17043 net.cpp:122] Setting up bn_stage0_block2_branch2a
I0610 06:42:33.923657 17043 net.cpp:129] Top shape: 7 32 56 56 (702464)
I0610 06:42:33.923660 17043 net.cpp:137] Memory required for data: 352636956
I0610 06:42:33.923666 17043 layer_factory.hpp:77] Creating layer scale_stage0_block2_branch2a
I0610 06:42:33.923671 17043 net.cpp:84] Creating Layer scale_stage0_block2_branch2a
I0610 06:42:33.923673 17043 net.cpp:406] scale_stage0_block2_branch2a <- conv_stage0_block2_branch2a
I0610 06:42:33.923677 17043 net.cpp:367] scale_stage0_block2_branch2a -> conv_stage0_block2_branch2a (in-place)
I0610 06:42:33.923703 17043 layer_factory.hpp:77] Creating layer scale_stage0_block2_branch2a
I0610 06:42:33.923789 17043 net.cpp:122] Setting up scale_stage0_block2_branch2a
I0610 06:42:33.923794 17043 net.cpp:129] Top shape: 7 32 56 56 (702464)
I0610 06:42:33.923802 17043 net.cpp:137] Memory required for data: 355446812
I0610 06:42:33.923807 17043 layer_factory.hpp:77] Creating layer relu_stage0_block2_branch2a
I0610 06:42:33.923811 17043 net.cpp:84] Creating Layer relu_stage0_block2_branch2a
I0610 06:42:33.923815 17043 net.cpp:406] relu_stage0_block2_branch2a <- conv_stage0_block2_branch2a
I0610 06:42:33.923818 17043 net.cpp:367] relu_stage0_block2_branch2a -> conv_stage0_block2_branch2a (in-place)
I0610 06:42:33.923822 17043 net.cpp:122] Setting up relu_stage0_block2_branch2a
I0610 06:42:33.923826 17043 net.cpp:129] Top shape: 7 32 56 56 (702464)
I0610 06:42:33.923828 17043 net.cpp:137] Memory required for data: 358256668
I0610 06:42:33.923831 17043 layer_factory.hpp:77] Creating layer conv_stage0_block2_branch2b
I0610 06:42:33.923838 17043 net.cpp:84] Creating Layer conv_stage0_block2_branch2b
I0610 06:42:33.923840 17043 net.cpp:406] conv_stage0_block2_branch2b <- conv_stage0_block2_branch2a
I0610 06:42:33.923846 17043 net.cpp:380] conv_stage0_block2_branch2b -> conv_stage0_block2_branch2b
I0610 06:42:33.924058 17043 net.cpp:122] Setting up conv_stage0_block2_branch2b
I0610 06:42:33.924063 17043 net.cpp:129] Top shape: 7 32 56 56 (702464)
I0610 06:42:33.924067 17043 net.cpp:137] Memory required for data: 361066524
I0610 06:42:33.924077 17043 layer_factory.hpp:77] Creating layer bn_stage0_block2_branch2b
I0610 06:42:33.924082 17043 net.cpp:84] Creating Layer bn_stage0_block2_branch2b
I0610 06:42:33.924085 17043 net.cpp:406] bn_stage0_block2_branch2b <- conv_stage0_block2_branch2b
I0610 06:42:33.924090 17043 net.cpp:367] bn_stage0_block2_branch2b -> conv_stage0_block2_branch2b (in-place)
I0610 06:42:33.924227 17043 net.cpp:122] Setting up bn_stage0_block2_branch2b
I0610 06:42:33.924232 17043 net.cpp:129] Top shape: 7 32 56 56 (702464)
I0610 06:42:33.924234 17043 net.cpp:137] Memory required for data: 363876380
I0610 06:42:33.924240 17043 layer_factory.hpp:77] Creating layer scale_stage0_block2_branch2b
I0610 06:42:33.924245 17043 net.cpp:84] Creating Layer scale_stage0_block2_branch2b
I0610 06:42:33.924248 17043 net.cpp:406] scale_stage0_block2_branch2b <- conv_stage0_block2_branch2b
I0610 06:42:33.924252 17043 net.cpp:367] scale_stage0_block2_branch2b -> conv_stage0_block2_branch2b (in-place)
I0610 06:42:33.924278 17043 layer_factory.hpp:77] Creating layer scale_stage0_block2_branch2b
I0610 06:42:33.924361 17043 net.cpp:122] Setting up scale_stage0_block2_branch2b
I0610 06:42:33.924365 17043 net.cpp:129] Top shape: 7 32 56 56 (702464)
I0610 06:42:33.924368 17043 net.cpp:137] Memory required for data: 366686236
I0610 06:42:33.924372 17043 layer_factory.hpp:77] Creating layer relu_stage0_block2_branch2b
I0610 06:42:33.924376 17043 net.cpp:84] Creating Layer relu_stage0_block2_branch2b
I0610 06:42:33.924379 17043 net.cpp:406] relu_stage0_block2_branch2b <- conv_stage0_block2_branch2b
I0610 06:42:33.924383 17043 net.cpp:367] relu_stage0_block2_branch2b -> conv_stage0_block2_branch2b (in-place)
I0610 06:42:33.924387 17043 net.cpp:122] Setting up relu_stage0_block2_branch2b
I0610 06:42:33.924391 17043 net.cpp:129] Top shape: 7 32 56 56 (702464)
I0610 06:42:33.924393 17043 net.cpp:137] Memory required for data: 369496092
I0610 06:42:33.924396 17043 layer_factory.hpp:77] Creating layer conv_stage0_block2_branch2c
I0610 06:42:33.924402 17043 net.cpp:84] Creating Layer conv_stage0_block2_branch2c
I0610 06:42:33.924405 17043 net.cpp:406] conv_stage0_block2_branch2c <- conv_stage0_block2_branch2b
I0610 06:42:33.924410 17043 net.cpp:380] conv_stage0_block2_branch2c -> conv_stage0_block2_branch2c
I0610 06:42:33.924590 17043 net.cpp:122] Setting up conv_stage0_block2_branch2c
I0610 06:42:33.924595 17043 net.cpp:129] Top shape: 7 128 56 56 (2809856)
I0610 06:42:33.924597 17043 net.cpp:137] Memory required for data: 380735516
I0610 06:42:33.924602 17043 layer_factory.hpp:77] Creating layer bn_stage0_block2_branch2c
I0610 06:42:33.924607 17043 net.cpp:84] Creating Layer bn_stage0_block2_branch2c
I0610 06:42:33.924610 17043 net.cpp:406] bn_stage0_block2_branch2c <- conv_stage0_block2_branch2c
I0610 06:42:33.924621 17043 net.cpp:367] bn_stage0_block2_branch2c -> conv_stage0_block2_branch2c (in-place)
I0610 06:42:33.924765 17043 net.cpp:122] Setting up bn_stage0_block2_branch2c
I0610 06:42:33.924772 17043 net.cpp:129] Top shape: 7 128 56 56 (2809856)
I0610 06:42:33.924773 17043 net.cpp:137] Memory required for data: 391974940
I0610 06:42:33.924779 17043 layer_factory.hpp:77] Creating layer scale_stage0_block2_branch2c
I0610 06:42:33.924784 17043 net.cpp:84] Creating Layer scale_stage0_block2_branch2c
I0610 06:42:33.924787 17043 net.cpp:406] scale_stage0_block2_branch2c <- conv_stage0_block2_branch2c
I0610 06:42:33.924791 17043 net.cpp:367] scale_stage0_block2_branch2c -> conv_stage0_block2_branch2c (in-place)
I0610 06:42:33.924819 17043 layer_factory.hpp:77] Creating layer scale_stage0_block2_branch2c
I0610 06:42:33.924896 17043 net.cpp:122] Setting up scale_stage0_block2_branch2c
I0610 06:42:33.924901 17043 net.cpp:129] Top shape: 7 128 56 56 (2809856)
I0610 06:42:33.924903 17043 net.cpp:137] Memory required for data: 403214364
I0610 06:42:33.924908 17043 layer_factory.hpp:77] Creating layer eltwise_stage0_block2
I0610 06:42:33.924912 17043 net.cpp:84] Creating Layer eltwise_stage0_block2
I0610 06:42:33.924916 17043 net.cpp:406] eltwise_stage0_block2 <- eltwise_stage0_block1_relu_stage0_block1_0_split_1
I0610 06:42:33.924918 17043 net.cpp:406] eltwise_stage0_block2 <- conv_stage0_block2_branch2c
I0610 06:42:33.924923 17043 net.cpp:380] eltwise_stage0_block2 -> eltwise_stage0_block2
I0610 06:42:33.924939 17043 net.cpp:122] Setting up eltwise_stage0_block2
I0610 06:42:33.924944 17043 net.cpp:129] Top shape: 7 128 56 56 (2809856)
I0610 06:42:33.924947 17043 net.cpp:137] Memory required for data: 414453788
I0610 06:42:33.924948 17043 layer_factory.hpp:77] Creating layer relu_stage0_block2
I0610 06:42:33.924952 17043 net.cpp:84] Creating Layer relu_stage0_block2
I0610 06:42:33.924955 17043 net.cpp:406] relu_stage0_block2 <- eltwise_stage0_block2
I0610 06:42:33.924963 17043 net.cpp:367] relu_stage0_block2 -> eltwise_stage0_block2 (in-place)
I0610 06:42:33.924968 17043 net.cpp:122] Setting up relu_stage0_block2
I0610 06:42:33.924973 17043 net.cpp:129] Top shape: 7 128 56 56 (2809856)
I0610 06:42:33.924974 17043 net.cpp:137] Memory required for data: 425693212
I0610 06:42:33.924978 17043 layer_factory.hpp:77] Creating layer eltwise_stage0_block2_relu_stage0_block2_0_split
I0610 06:42:33.924981 17043 net.cpp:84] Creating Layer eltwise_stage0_block2_relu_stage0_block2_0_split
I0610 06:42:33.924983 17043 net.cpp:406] eltwise_stage0_block2_relu_stage0_block2_0_split <- eltwise_stage0_block2
I0610 06:42:33.924988 17043 net.cpp:380] eltwise_stage0_block2_relu_stage0_block2_0_split -> eltwise_stage0_block2_relu_stage0_block2_0_split_0
I0610 06:42:33.924994 17043 net.cpp:380] eltwise_stage0_block2_relu_stage0_block2_0_split -> eltwise_stage0_block2_relu_stage0_block2_0_split_1
I0610 06:42:33.925021 17043 net.cpp:122] Setting up eltwise_stage0_block2_relu_stage0_block2_0_split
I0610 06:42:33.925025 17043 net.cpp:129] Top shape: 7 128 56 56 (2809856)
I0610 06:42:33.925029 17043 net.cpp:129] Top shape: 7 128 56 56 (2809856)
I0610 06:42:33.925031 17043 net.cpp:137] Memory required for data: 448172060
I0610 06:42:33.925034 17043 layer_factory.hpp:77] Creating layer conv_stage1_block0_proj_shortcut
I0610 06:42:33.925045 17043 net.cpp:84] Creating Layer conv_stage1_block0_proj_shortcut
I0610 06:42:33.925047 17043 net.cpp:406] conv_stage1_block0_proj_shortcut <- eltwise_stage0_block2_relu_stage0_block2_0_split_0
I0610 06:42:33.925053 17043 net.cpp:380] conv_stage1_block0_proj_shortcut -> conv_stage1_block0_proj_shortcut
I0610 06:42:33.926362 17043 net.cpp:122] Setting up conv_stage1_block0_proj_shortcut
I0610 06:42:33.926371 17043 net.cpp:129] Top shape: 7 256 28 28 (1404928)
I0610 06:42:33.926374 17043 net.cpp:137] Memory required for data: 453791772
I0610 06:42:33.926380 17043 layer_factory.hpp:77] Creating layer bn_stage1_block0_proj_shortcut
I0610 06:42:33.926388 17043 net.cpp:84] Creating Layer bn_stage1_block0_proj_shortcut
I0610 06:42:33.926400 17043 net.cpp:406] bn_stage1_block0_proj_shortcut <- conv_stage1_block0_proj_shortcut
I0610 06:42:33.926409 17043 net.cpp:367] bn_stage1_block0_proj_shortcut -> conv_stage1_block0_proj_shortcut (in-place)
I0610 06:42:33.926560 17043 net.cpp:122] Setting up bn_stage1_block0_proj_shortcut
I0610 06:42:33.926569 17043 net.cpp:129] Top shape: 7 256 28 28 (1404928)
I0610 06:42:33.926573 17043 net.cpp:137] Memory required for data: 459411484
I0610 06:42:33.926578 17043 layer_factory.hpp:77] Creating layer scale_stage1_block0_proj_shortcut
I0610 06:42:33.926584 17043 net.cpp:84] Creating Layer scale_stage1_block0_proj_shortcut
I0610 06:42:33.926586 17043 net.cpp:406] scale_stage1_block0_proj_shortcut <- conv_stage1_block0_proj_shortcut
I0610 06:42:33.926591 17043 net.cpp:367] scale_stage1_block0_proj_shortcut -> conv_stage1_block0_proj_shortcut (in-place)
I0610 06:42:33.926623 17043 layer_factory.hpp:77] Creating layer scale_stage1_block0_proj_shortcut
I0610 06:42:33.926707 17043 net.cpp:122] Setting up scale_stage1_block0_proj_shortcut
I0610 06:42:33.926712 17043 net.cpp:129] Top shape: 7 256 28 28 (1404928)
I0610 06:42:33.926714 17043 net.cpp:137] Memory required for data: 465031196
I0610 06:42:33.926719 17043 layer_factory.hpp:77] Creating layer conv_stage1_block0_branch2a
I0610 06:42:33.926728 17043 net.cpp:84] Creating Layer conv_stage1_block0_branch2a
I0610 06:42:33.926730 17043 net.cpp:406] conv_stage1_block0_branch2a <- eltwise_stage0_block2_relu_stage0_block2_0_split_1
I0610 06:42:33.926738 17043 net.cpp:380] conv_stage1_block0_branch2a -> conv_stage1_block0_branch2a
I0610 06:42:33.926964 17043 net.cpp:122] Setting up conv_stage1_block0_branch2a
I0610 06:42:33.926968 17043 net.cpp:129] Top shape: 7 64 28 28 (351232)
I0610 06:42:33.926971 17043 net.cpp:137] Memory required for data: 466436124
I0610 06:42:33.926975 17043 layer_factory.hpp:77] Creating layer bn_stage1_block0_branch2a
I0610 06:42:33.926981 17043 net.cpp:84] Creating Layer bn_stage1_block0_branch2a
I0610 06:42:33.926985 17043 net.cpp:406] bn_stage1_block0_branch2a <- conv_stage1_block0_branch2a
I0610 06:42:33.926991 17043 net.cpp:367] bn_stage1_block0_branch2a -> conv_stage1_block0_branch2a (in-place)
I0610 06:42:33.927141 17043 net.cpp:122] Setting up bn_stage1_block0_branch2a
I0610 06:42:33.927145 17043 net.cpp:129] Top shape: 7 64 28 28 (351232)
I0610 06:42:33.927148 17043 net.cpp:137] Memory required for data: 467841052
I0610 06:42:33.927153 17043 layer_factory.hpp:77] Creating layer scale_stage1_block0_branch2a
I0610 06:42:33.927160 17043 net.cpp:84] Creating Layer scale_stage1_block0_branch2a
I0610 06:42:33.927162 17043 net.cpp:406] scale_stage1_block0_branch2a <- conv_stage1_block0_branch2a
I0610 06:42:33.927167 17043 net.cpp:367] scale_stage1_block0_branch2a -> conv_stage1_block0_branch2a (in-place)
I0610 06:42:33.927196 17043 layer_factory.hpp:77] Creating layer scale_stage1_block0_branch2a
I0610 06:42:33.927314 17043 net.cpp:122] Setting up scale_stage1_block0_branch2a
I0610 06:42:33.927321 17043 net.cpp:129] Top shape: 7 64 28 28 (351232)
I0610 06:42:33.927323 17043 net.cpp:137] Memory required for data: 469245980
I0610 06:42:33.927330 17043 layer_factory.hpp:77] Creating layer relu_stage1_block0_branch2a
I0610 06:42:33.927340 17043 net.cpp:84] Creating Layer relu_stage1_block0_branch2a
I0610 06:42:33.927342 17043 net.cpp:406] relu_stage1_block0_branch2a <- conv_stage1_block0_branch2a
I0610 06:42:33.927351 17043 net.cpp:367] relu_stage1_block0_branch2a -> conv_stage1_block0_branch2a (in-place)
I0610 06:42:33.927359 17043 net.cpp:122] Setting up relu_stage1_block0_branch2a
I0610 06:42:33.927363 17043 net.cpp:129] Top shape: 7 64 28 28 (351232)
I0610 06:42:33.927367 17043 net.cpp:137] Memory required for data: 470650908
I0610 06:42:33.927369 17043 layer_factory.hpp:77] Creating layer conv_stage1_block0_branch2b
I0610 06:42:33.927392 17043 net.cpp:84] Creating Layer conv_stage1_block0_branch2b
I0610 06:42:33.927394 17043 net.cpp:406] conv_stage1_block0_branch2b <- conv_stage1_block0_branch2a
I0610 06:42:33.927413 17043 net.cpp:380] conv_stage1_block0_branch2b -> conv_stage1_block0_branch2b
I0610 06:42:33.927799 17043 net.cpp:122] Setting up conv_stage1_block0_branch2b
I0610 06:42:33.927805 17043 net.cpp:129] Top shape: 7 64 28 28 (351232)
I0610 06:42:33.927809 17043 net.cpp:137] Memory required for data: 472055836
I0610 06:42:33.927814 17043 layer_factory.hpp:77] Creating layer bn_stage1_block0_branch2b
I0610 06:42:33.927819 17043 net.cpp:84] Creating Layer bn_stage1_block0_branch2b
I0610 06:42:33.927822 17043 net.cpp:406] bn_stage1_block0_branch2b <- conv_stage1_block0_branch2b
I0610 06:42:33.927827 17043 net.cpp:367] bn_stage1_block0_branch2b -> conv_stage1_block0_branch2b (in-place)
I0610 06:42:33.927981 17043 net.cpp:122] Setting up bn_stage1_block0_branch2b
I0610 06:42:33.927985 17043 net.cpp:129] Top shape: 7 64 28 28 (351232)
I0610 06:42:33.927989 17043 net.cpp:137] Memory required for data: 473460764
I0610 06:42:33.927994 17043 layer_factory.hpp:77] Creating layer scale_stage1_block0_branch2b
I0610 06:42:33.927999 17043 net.cpp:84] Creating Layer scale_stage1_block0_branch2b
I0610 06:42:33.928001 17043 net.cpp:406] scale_stage1_block0_branch2b <- conv_stage1_block0_branch2b
I0610 06:42:33.928007 17043 net.cpp:367] scale_stage1_block0_branch2b -> conv_stage1_block0_branch2b (in-place)
I0610 06:42:33.928037 17043 layer_factory.hpp:77] Creating layer scale_stage1_block0_branch2b
I0610 06:42:33.928496 17043 net.cpp:122] Setting up scale_stage1_block0_branch2b
I0610 06:42:33.928503 17043 net.cpp:129] Top shape: 7 64 28 28 (351232)
I0610 06:42:33.928504 17043 net.cpp:137] Memory required for data: 474865692
I0610 06:42:33.928509 17043 layer_factory.hpp:77] Creating layer relu_stage1_block0_branch2b
I0610 06:42:33.928516 17043 net.cpp:84] Creating Layer relu_stage1_block0_branch2b
I0610 06:42:33.928519 17043 net.cpp:406] relu_stage1_block0_branch2b <- conv_stage1_block0_branch2b
I0610 06:42:33.928524 17043 net.cpp:367] relu_stage1_block0_branch2b -> conv_stage1_block0_branch2b (in-place)
I0610 06:42:33.928529 17043 net.cpp:122] Setting up relu_stage1_block0_branch2b
I0610 06:42:33.928532 17043 net.cpp:129] Top shape: 7 64 28 28 (351232)
I0610 06:42:33.928535 17043 net.cpp:137] Memory required for data: 476270620
I0610 06:42:33.928537 17043 layer_factory.hpp:77] Creating layer conv_stage1_block0_branch2c
I0610 06:42:33.928547 17043 net.cpp:84] Creating Layer conv_stage1_block0_branch2c
I0610 06:42:33.928550 17043 net.cpp:406] conv_stage1_block0_branch2c <- conv_stage1_block0_branch2b
I0610 06:42:33.928555 17043 net.cpp:380] conv_stage1_block0_branch2c -> conv_stage1_block0_branch2c
I0610 06:42:33.928810 17043 net.cpp:122] Setting up conv_stage1_block0_branch2c
I0610 06:42:33.928817 17043 net.cpp:129] Top shape: 7 256 28 28 (1404928)
I0610 06:42:33.928819 17043 net.cpp:137] Memory required for data: 481890332
I0610 06:42:33.928823 17043 layer_factory.hpp:77] Creating layer bn_stage1_block0_branch2c
I0610 06:42:33.928846 17043 net.cpp:84] Creating Layer bn_stage1_block0_branch2c
I0610 06:42:33.928849 17043 net.cpp:406] bn_stage1_block0_branch2c <- conv_stage1_block0_branch2c
I0610 06:42:33.928853 17043 net.cpp:367] bn_stage1_block0_branch2c -> conv_stage1_block0_branch2c (in-place)
I0610 06:42:33.928995 17043 net.cpp:122] Setting up bn_stage1_block0_branch2c
I0610 06:42:33.929000 17043 net.cpp:129] Top shape: 7 256 28 28 (1404928)
I0610 06:42:33.929003 17043 net.cpp:137] Memory required for data: 487510044
I0610 06:42:33.929008 17043 layer_factory.hpp:77] Creating layer scale_stage1_block0_branch2c
I0610 06:42:33.929016 17043 net.cpp:84] Creating Layer scale_stage1_block0_branch2c
I0610 06:42:33.929019 17043 net.cpp:406] scale_stage1_block0_branch2c <- conv_stage1_block0_branch2c
I0610 06:42:33.929023 17043 net.cpp:367] scale_stage1_block0_branch2c -> conv_stage1_block0_branch2c (in-place)
I0610 06:42:33.929052 17043 layer_factory.hpp:77] Creating layer scale_stage1_block0_branch2c
I0610 06:42:33.929133 17043 net.cpp:122] Setting up scale_stage1_block0_branch2c
I0610 06:42:33.929138 17043 net.cpp:129] Top shape: 7 256 28 28 (1404928)
I0610 06:42:33.929147 17043 net.cpp:137] Memory required for data: 493129756
I0610 06:42:33.929152 17043 layer_factory.hpp:77] Creating layer eltwise_stage1_block0
I0610 06:42:33.929158 17043 net.cpp:84] Creating Layer eltwise_stage1_block0
I0610 06:42:33.929162 17043 net.cpp:406] eltwise_stage1_block0 <- conv_stage1_block0_proj_shortcut
I0610 06:42:33.929165 17043 net.cpp:406] eltwise_stage1_block0 <- conv_stage1_block0_branch2c
I0610 06:42:33.929170 17043 net.cpp:380] eltwise_stage1_block0 -> eltwise_stage1_block0
I0610 06:42:33.929190 17043 net.cpp:122] Setting up eltwise_stage1_block0
I0610 06:42:33.929194 17043 net.cpp:129] Top shape: 7 256 28 28 (1404928)
I0610 06:42:33.929198 17043 net.cpp:137] Memory required for data: 498749468
I0610 06:42:33.929199 17043 layer_factory.hpp:77] Creating layer relu_stage1_block0
I0610 06:42:33.929204 17043 net.cpp:84] Creating Layer relu_stage1_block0
I0610 06:42:33.929208 17043 net.cpp:406] relu_stage1_block0 <- eltwise_stage1_block0
I0610 06:42:33.929211 17043 net.cpp:367] relu_stage1_block0 -> eltwise_stage1_block0 (in-place)
I0610 06:42:33.929216 17043 net.cpp:122] Setting up relu_stage1_block0
I0610 06:42:33.929219 17043 net.cpp:129] Top shape: 7 256 28 28 (1404928)
I0610 06:42:33.929222 17043 net.cpp:137] Memory required for data: 504369180
I0610 06:42:33.929224 17043 layer_factory.hpp:77] Creating layer eltwise_stage1_block0_relu_stage1_block0_0_split
I0610 06:42:33.929229 17043 net.cpp:84] Creating Layer eltwise_stage1_block0_relu_stage1_block0_0_split
I0610 06:42:33.929231 17043 net.cpp:406] eltwise_stage1_block0_relu_stage1_block0_0_split <- eltwise_stage1_block0
I0610 06:42:33.929236 17043 net.cpp:380] eltwise_stage1_block0_relu_stage1_block0_0_split -> eltwise_stage1_block0_relu_stage1_block0_0_split_0
I0610 06:42:33.929242 17043 net.cpp:380] eltwise_stage1_block0_relu_stage1_block0_0_split -> eltwise_stage1_block0_relu_stage1_block0_0_split_1
I0610 06:42:33.929272 17043 net.cpp:122] Setting up eltwise_stage1_block0_relu_stage1_block0_0_split
I0610 06:42:33.929276 17043 net.cpp:129] Top shape: 7 256 28 28 (1404928)
I0610 06:42:33.929280 17043 net.cpp:129] Top shape: 7 256 28 28 (1404928)
I0610 06:42:33.929282 17043 net.cpp:137] Memory required for data: 515608604
I0610 06:42:33.929285 17043 layer_factory.hpp:77] Creating layer conv_stage1_block1_branch2a
I0610 06:42:33.929293 17043 net.cpp:84] Creating Layer conv_stage1_block1_branch2a
I0610 06:42:33.929296 17043 net.cpp:406] conv_stage1_block1_branch2a <- eltwise_stage1_block0_relu_stage1_block0_0_split_0
I0610 06:42:33.929302 17043 net.cpp:380] conv_stage1_block1_branch2a -> conv_stage1_block1_branch2a
I0610 06:42:33.929569 17043 net.cpp:122] Setting up conv_stage1_block1_branch2a
I0610 06:42:33.929575 17043 net.cpp:129] Top shape: 7 64 28 28 (351232)
I0610 06:42:33.929579 17043 net.cpp:137] Memory required for data: 517013532
I0610 06:42:33.929582 17043 layer_factory.hpp:77] Creating layer bn_stage1_block1_branch2a
I0610 06:42:33.929589 17043 net.cpp:84] Creating Layer bn_stage1_block1_branch2a
I0610 06:42:33.929590 17043 net.cpp:406] bn_stage1_block1_branch2a <- conv_stage1_block1_branch2a
I0610 06:42:33.929595 17043 net.cpp:367] bn_stage1_block1_branch2a -> conv_stage1_block1_branch2a (in-place)
I0610 06:42:33.929744 17043 net.cpp:122] Setting up bn_stage1_block1_branch2a
I0610 06:42:33.929750 17043 net.cpp:129] Top shape: 7 64 28 28 (351232)
I0610 06:42:33.929754 17043 net.cpp:137] Memory required for data: 518418460
I0610 06:42:33.929759 17043 layer_factory.hpp:77] Creating layer scale_stage1_block1_branch2a
I0610 06:42:33.929764 17043 net.cpp:84] Creating Layer scale_stage1_block1_branch2a
I0610 06:42:33.929766 17043 net.cpp:406] scale_stage1_block1_branch2a <- conv_stage1_block1_branch2a
I0610 06:42:33.929771 17043 net.cpp:367] scale_stage1_block1_branch2a -> conv_stage1_block1_branch2a (in-place)
I0610 06:42:33.929802 17043 layer_factory.hpp:77] Creating layer scale_stage1_block1_branch2a
I0610 06:42:33.929894 17043 net.cpp:122] Setting up scale_stage1_block1_branch2a
I0610 06:42:33.929905 17043 net.cpp:129] Top shape: 7 64 28 28 (351232)
I0610 06:42:33.929908 17043 net.cpp:137] Memory required for data: 519823388
I0610 06:42:33.929913 17043 layer_factory.hpp:77] Creating layer relu_stage1_block1_branch2a
I0610 06:42:33.929917 17043 net.cpp:84] Creating Layer relu_stage1_block1_branch2a
I0610 06:42:33.929920 17043 net.cpp:406] relu_stage1_block1_branch2a <- conv_stage1_block1_branch2a
I0610 06:42:33.929924 17043 net.cpp:367] relu_stage1_block1_branch2a -> conv_stage1_block1_branch2a (in-place)
I0610 06:42:33.929929 17043 net.cpp:122] Setting up relu_stage1_block1_branch2a
I0610 06:42:33.929932 17043 net.cpp:129] Top shape: 7 64 28 28 (351232)
I0610 06:42:33.929935 17043 net.cpp:137] Memory required for data: 521228316
I0610 06:42:33.929937 17043 layer_factory.hpp:77] Creating layer conv_stage1_block1_branch2b
I0610 06:42:33.929947 17043 net.cpp:84] Creating Layer conv_stage1_block1_branch2b
I0610 06:42:33.929949 17043 net.cpp:406] conv_stage1_block1_branch2b <- conv_stage1_block1_branch2a
I0610 06:42:33.929955 17043 net.cpp:380] conv_stage1_block1_branch2b -> conv_stage1_block1_branch2b
I0610 06:42:33.930333 17043 net.cpp:122] Setting up conv_stage1_block1_branch2b
I0610 06:42:33.930341 17043 net.cpp:129] Top shape: 7 64 28 28 (351232)
I0610 06:42:33.930343 17043 net.cpp:137] Memory required for data: 522633244
I0610 06:42:33.930348 17043 layer_factory.hpp:77] Creating layer bn_stage1_block1_branch2b
I0610 06:42:33.930354 17043 net.cpp:84] Creating Layer bn_stage1_block1_branch2b
I0610 06:42:33.930356 17043 net.cpp:406] bn_stage1_block1_branch2b <- conv_stage1_block1_branch2b
I0610 06:42:33.930362 17043 net.cpp:367] bn_stage1_block1_branch2b -> conv_stage1_block1_branch2b (in-place)
I0610 06:42:33.930514 17043 net.cpp:122] Setting up bn_stage1_block1_branch2b
I0610 06:42:33.930519 17043 net.cpp:129] Top shape: 7 64 28 28 (351232)
I0610 06:42:33.930521 17043 net.cpp:137] Memory required for data: 524038172
I0610 06:42:33.930527 17043 layer_factory.hpp:77] Creating layer scale_stage1_block1_branch2b
I0610 06:42:33.930532 17043 net.cpp:84] Creating Layer scale_stage1_block1_branch2b
I0610 06:42:33.930534 17043 net.cpp:406] scale_stage1_block1_branch2b <- conv_stage1_block1_branch2b
I0610 06:42:33.930539 17043 net.cpp:367] scale_stage1_block1_branch2b -> conv_stage1_block1_branch2b (in-place)
I0610 06:42:33.930568 17043 layer_factory.hpp:77] Creating layer scale_stage1_block1_branch2b
I0610 06:42:33.930660 17043 net.cpp:122] Setting up scale_stage1_block1_branch2b
I0610 06:42:33.930663 17043 net.cpp:129] Top shape: 7 64 28 28 (351232)
I0610 06:42:33.930666 17043 net.cpp:137] Memory required for data: 525443100
I0610 06:42:33.930670 17043 layer_factory.hpp:77] Creating layer relu_stage1_block1_branch2b
I0610 06:42:33.930675 17043 net.cpp:84] Creating Layer relu_stage1_block1_branch2b
I0610 06:42:33.930677 17043 net.cpp:406] relu_stage1_block1_branch2b <- conv_stage1_block1_branch2b
I0610 06:42:33.930682 17043 net.cpp:367] relu_stage1_block1_branch2b -> conv_stage1_block1_branch2b (in-place)
I0610 06:42:33.930687 17043 net.cpp:122] Setting up relu_stage1_block1_branch2b
I0610 06:42:33.930691 17043 net.cpp:129] Top shape: 7 64 28 28 (351232)
I0610 06:42:33.930693 17043 net.cpp:137] Memory required for data: 526848028
I0610 06:42:33.930696 17043 layer_factory.hpp:77] Creating layer conv_stage1_block1_branch2c
I0610 06:42:33.930703 17043 net.cpp:84] Creating Layer conv_stage1_block1_branch2c
I0610 06:42:33.930706 17043 net.cpp:406] conv_stage1_block1_branch2c <- conv_stage1_block1_branch2b
I0610 06:42:33.930711 17043 net.cpp:380] conv_stage1_block1_branch2c -> conv_stage1_block1_branch2c
I0610 06:42:33.930968 17043 net.cpp:122] Setting up conv_stage1_block1_branch2c
I0610 06:42:33.930974 17043 net.cpp:129] Top shape: 7 256 28 28 (1404928)
I0610 06:42:33.930977 17043 net.cpp:137] Memory required for data: 532467740
I0610 06:42:33.930981 17043 layer_factory.hpp:77] Creating layer bn_stage1_block1_branch2c
I0610 06:42:33.930987 17043 net.cpp:84] Creating Layer bn_stage1_block1_branch2c
I0610 06:42:33.930989 17043 net.cpp:406] bn_stage1_block1_branch2c <- conv_stage1_block1_branch2c
I0610 06:42:33.931002 17043 net.cpp:367] bn_stage1_block1_branch2c -> conv_stage1_block1_branch2c (in-place)
I0610 06:42:33.931146 17043 net.cpp:122] Setting up bn_stage1_block1_branch2c
I0610 06:42:33.931151 17043 net.cpp:129] Top shape: 7 256 28 28 (1404928)
I0610 06:42:33.931154 17043 net.cpp:137] Memory required for data: 538087452
I0610 06:42:33.931159 17043 layer_factory.hpp:77] Creating layer scale_stage1_block1_branch2c
I0610 06:42:33.931164 17043 net.cpp:84] Creating Layer scale_stage1_block1_branch2c
I0610 06:42:33.931166 17043 net.cpp:406] scale_stage1_block1_branch2c <- conv_stage1_block1_branch2c
I0610 06:42:33.931170 17043 net.cpp:367] scale_stage1_block1_branch2c -> conv_stage1_block1_branch2c (in-place)
I0610 06:42:33.931206 17043 layer_factory.hpp:77] Creating layer scale_stage1_block1_branch2c
I0610 06:42:33.931290 17043 net.cpp:122] Setting up scale_stage1_block1_branch2c
I0610 06:42:33.931295 17043 net.cpp:129] Top shape: 7 256 28 28 (1404928)
I0610 06:42:33.931298 17043 net.cpp:137] Memory required for data: 543707164
I0610 06:42:33.931303 17043 layer_factory.hpp:77] Creating layer eltwise_stage1_block1
I0610 06:42:33.931308 17043 net.cpp:84] Creating Layer eltwise_stage1_block1
I0610 06:42:33.931310 17043 net.cpp:406] eltwise_stage1_block1 <- eltwise_stage1_block0_relu_stage1_block0_0_split_1
I0610 06:42:33.931314 17043 net.cpp:406] eltwise_stage1_block1 <- conv_stage1_block1_branch2c
I0610 06:42:33.931318 17043 net.cpp:380] eltwise_stage1_block1 -> eltwise_stage1_block1
I0610 06:42:33.931337 17043 net.cpp:122] Setting up eltwise_stage1_block1
I0610 06:42:33.931342 17043 net.cpp:129] Top shape: 7 256 28 28 (1404928)
I0610 06:42:33.931344 17043 net.cpp:137] Memory required for data: 549326876
I0610 06:42:33.931346 17043 layer_factory.hpp:77] Creating layer relu_stage1_block1
I0610 06:42:33.931351 17043 net.cpp:84] Creating Layer relu_stage1_block1
I0610 06:42:33.931354 17043 net.cpp:406] relu_stage1_block1 <- eltwise_stage1_block1
I0610 06:42:33.931360 17043 net.cpp:367] relu_stage1_block1 -> eltwise_stage1_block1 (in-place)
I0610 06:42:33.931365 17043 net.cpp:122] Setting up relu_stage1_block1
I0610 06:42:33.931368 17043 net.cpp:129] Top shape: 7 256 28 28 (1404928)
I0610 06:42:33.931370 17043 net.cpp:137] Memory required for data: 554946588
I0610 06:42:33.931373 17043 layer_factory.hpp:77] Creating layer eltwise_stage1_block1_relu_stage1_block1_0_split
I0610 06:42:33.931377 17043 net.cpp:84] Creating Layer eltwise_stage1_block1_relu_stage1_block1_0_split
I0610 06:42:33.931380 17043 net.cpp:406] eltwise_stage1_block1_relu_stage1_block1_0_split <- eltwise_stage1_block1
I0610 06:42:33.931385 17043 net.cpp:380] eltwise_stage1_block1_relu_stage1_block1_0_split -> eltwise_stage1_block1_relu_stage1_block1_0_split_0
I0610 06:42:33.931391 17043 net.cpp:380] eltwise_stage1_block1_relu_stage1_block1_0_split -> eltwise_stage1_block1_relu_stage1_block1_0_split_1
I0610 06:42:33.931418 17043 net.cpp:122] Setting up eltwise_stage1_block1_relu_stage1_block1_0_split
I0610 06:42:33.931422 17043 net.cpp:129] Top shape: 7 256 28 28 (1404928)
I0610 06:42:33.931427 17043 net.cpp:129] Top shape: 7 256 28 28 (1404928)
I0610 06:42:33.931428 17043 net.cpp:137] Memory required for data: 566186012
I0610 06:42:33.931432 17043 layer_factory.hpp:77] Creating layer conv_stage1_block2_branch2a
I0610 06:42:33.931438 17043 net.cpp:84] Creating Layer conv_stage1_block2_branch2a
I0610 06:42:33.931440 17043 net.cpp:406] conv_stage1_block2_branch2a <- eltwise_stage1_block1_relu_stage1_block1_0_split_0
I0610 06:42:33.931447 17043 net.cpp:380] conv_stage1_block2_branch2a -> conv_stage1_block2_branch2a
I0610 06:42:33.931704 17043 net.cpp:122] Setting up conv_stage1_block2_branch2a
I0610 06:42:33.931710 17043 net.cpp:129] Top shape: 7 64 28 28 (351232)
I0610 06:42:33.931711 17043 net.cpp:137] Memory required for data: 567590940
I0610 06:42:33.931715 17043 layer_factory.hpp:77] Creating layer bn_stage1_block2_branch2a
I0610 06:42:33.931720 17043 net.cpp:84] Creating Layer bn_stage1_block2_branch2a
I0610 06:42:33.931730 17043 net.cpp:406] bn_stage1_block2_branch2a <- conv_stage1_block2_branch2a
I0610 06:42:33.931735 17043 net.cpp:367] bn_stage1_block2_branch2a -> conv_stage1_block2_branch2a (in-place)
I0610 06:42:33.931885 17043 net.cpp:122] Setting up bn_stage1_block2_branch2a
I0610 06:42:33.931890 17043 net.cpp:129] Top shape: 7 64 28 28 (351232)
I0610 06:42:33.931892 17043 net.cpp:137] Memory required for data: 568995868
I0610 06:42:33.931911 17043 layer_factory.hpp:77] Creating layer scale_stage1_block2_branch2a
I0610 06:42:33.931917 17043 net.cpp:84] Creating Layer scale_stage1_block2_branch2a
I0610 06:42:33.931921 17043 net.cpp:406] scale_stage1_block2_branch2a <- conv_stage1_block2_branch2a
I0610 06:42:33.931924 17043 net.cpp:367] scale_stage1_block2_branch2a -> conv_stage1_block2_branch2a (in-place)
I0610 06:42:33.931957 17043 layer_factory.hpp:77] Creating layer scale_stage1_block2_branch2a
I0610 06:42:33.932045 17043 net.cpp:122] Setting up scale_stage1_block2_branch2a
I0610 06:42:33.932050 17043 net.cpp:129] Top shape: 7 64 28 28 (351232)
I0610 06:42:33.932052 17043 net.cpp:137] Memory required for data: 570400796
I0610 06:42:33.932057 17043 layer_factory.hpp:77] Creating layer relu_stage1_block2_branch2a
I0610 06:42:33.932061 17043 net.cpp:84] Creating Layer relu_stage1_block2_branch2a
I0610 06:42:33.932063 17043 net.cpp:406] relu_stage1_block2_branch2a <- conv_stage1_block2_branch2a
I0610 06:42:33.932068 17043 net.cpp:367] relu_stage1_block2_branch2a -> conv_stage1_block2_branch2a (in-place)
I0610 06:42:33.932073 17043 net.cpp:122] Setting up relu_stage1_block2_branch2a
I0610 06:42:33.932076 17043 net.cpp:129] Top shape: 7 64 28 28 (351232)
I0610 06:42:33.932080 17043 net.cpp:137] Memory required for data: 571805724
I0610 06:42:33.932081 17043 layer_factory.hpp:77] Creating layer conv_stage1_block2_branch2b
I0610 06:42:33.932090 17043 net.cpp:84] Creating Layer conv_stage1_block2_branch2b
I0610 06:42:33.932091 17043 net.cpp:406] conv_stage1_block2_branch2b <- conv_stage1_block2_branch2a
I0610 06:42:33.932096 17043 net.cpp:380] conv_stage1_block2_branch2b -> conv_stage1_block2_branch2b
I0610 06:42:33.932459 17043 net.cpp:122] Setting up conv_stage1_block2_branch2b
I0610 06:42:33.932466 17043 net.cpp:129] Top shape: 7 64 28 28 (351232)
I0610 06:42:33.932468 17043 net.cpp:137] Memory required for data: 573210652
I0610 06:42:33.932473 17043 layer_factory.hpp:77] Creating layer bn_stage1_block2_branch2b
I0610 06:42:33.932477 17043 net.cpp:84] Creating Layer bn_stage1_block2_branch2b
I0610 06:42:33.932480 17043 net.cpp:406] bn_stage1_block2_branch2b <- conv_stage1_block2_branch2b
I0610 06:42:33.932487 17043 net.cpp:367] bn_stage1_block2_branch2b -> conv_stage1_block2_branch2b (in-place)
I0610 06:42:33.932634 17043 net.cpp:122] Setting up bn_stage1_block2_branch2b
I0610 06:42:33.932638 17043 net.cpp:129] Top shape: 7 64 28 28 (351232)
I0610 06:42:33.932641 17043 net.cpp:137] Memory required for data: 574615580
I0610 06:42:33.932646 17043 layer_factory.hpp:77] Creating layer scale_stage1_block2_branch2b
I0610 06:42:33.932651 17043 net.cpp:84] Creating Layer scale_stage1_block2_branch2b
I0610 06:42:33.932654 17043 net.cpp:406] scale_stage1_block2_branch2b <- conv_stage1_block2_branch2b
I0610 06:42:33.932659 17043 net.cpp:367] scale_stage1_block2_branch2b -> conv_stage1_block2_branch2b (in-place)
I0610 06:42:33.932687 17043 layer_factory.hpp:77] Creating layer scale_stage1_block2_branch2b
I0610 06:42:33.932777 17043 net.cpp:122] Setting up scale_stage1_block2_branch2b
I0610 06:42:33.932782 17043 net.cpp:129] Top shape: 7 64 28 28 (351232)
I0610 06:42:33.932785 17043 net.cpp:137] Memory required for data: 576020508
I0610 06:42:33.932790 17043 layer_factory.hpp:77] Creating layer relu_stage1_block2_branch2b
I0610 06:42:33.932795 17043 net.cpp:84] Creating Layer relu_stage1_block2_branch2b
I0610 06:42:33.932797 17043 net.cpp:406] relu_stage1_block2_branch2b <- conv_stage1_block2_branch2b
I0610 06:42:33.932801 17043 net.cpp:367] relu_stage1_block2_branch2b -> conv_stage1_block2_branch2b (in-place)
I0610 06:42:33.932811 17043 net.cpp:122] Setting up relu_stage1_block2_branch2b
I0610 06:42:33.932816 17043 net.cpp:129] Top shape: 7 64 28 28 (351232)
I0610 06:42:33.932817 17043 net.cpp:137] Memory required for data: 577425436
I0610 06:42:33.932821 17043 layer_factory.hpp:77] Creating layer conv_stage1_block2_branch2c
I0610 06:42:33.932828 17043 net.cpp:84] Creating Layer conv_stage1_block2_branch2c
I0610 06:42:33.932832 17043 net.cpp:406] conv_stage1_block2_branch2c <- conv_stage1_block2_branch2b
I0610 06:42:33.932837 17043 net.cpp:380] conv_stage1_block2_branch2c -> conv_stage1_block2_branch2c
I0610 06:42:33.933096 17043 net.cpp:122] Setting up conv_stage1_block2_branch2c
I0610 06:42:33.933102 17043 net.cpp:129] Top shape: 7 256 28 28 (1404928)
I0610 06:42:33.933104 17043 net.cpp:137] Memory required for data: 583045148
I0610 06:42:33.933109 17043 layer_factory.hpp:77] Creating layer bn_stage1_block2_branch2c
I0610 06:42:33.933115 17043 net.cpp:84] Creating Layer bn_stage1_block2_branch2c
I0610 06:42:33.933116 17043 net.cpp:406] bn_stage1_block2_branch2c <- conv_stage1_block2_branch2c
I0610 06:42:33.933122 17043 net.cpp:367] bn_stage1_block2_branch2c -> conv_stage1_block2_branch2c (in-place)
I0610 06:42:33.933265 17043 net.cpp:122] Setting up bn_stage1_block2_branch2c
I0610 06:42:33.933270 17043 net.cpp:129] Top shape: 7 256 28 28 (1404928)
I0610 06:42:33.933274 17043 net.cpp:137] Memory required for data: 588664860
I0610 06:42:33.933279 17043 layer_factory.hpp:77] Creating layer scale_stage1_block2_branch2c
I0610 06:42:33.933284 17043 net.cpp:84] Creating Layer scale_stage1_block2_branch2c
I0610 06:42:33.933286 17043 net.cpp:406] scale_stage1_block2_branch2c <- conv_stage1_block2_branch2c
I0610 06:42:33.933291 17043 net.cpp:367] scale_stage1_block2_branch2c -> conv_stage1_block2_branch2c (in-place)
I0610 06:42:33.933320 17043 layer_factory.hpp:77] Creating layer scale_stage1_block2_branch2c
I0610 06:42:33.933403 17043 net.cpp:122] Setting up scale_stage1_block2_branch2c
I0610 06:42:33.933408 17043 net.cpp:129] Top shape: 7 256 28 28 (1404928)
I0610 06:42:33.933410 17043 net.cpp:137] Memory required for data: 594284572
I0610 06:42:33.933415 17043 layer_factory.hpp:77] Creating layer eltwise_stage1_block2
I0610 06:42:33.933419 17043 net.cpp:84] Creating Layer eltwise_stage1_block2
I0610 06:42:33.933423 17043 net.cpp:406] eltwise_stage1_block2 <- eltwise_stage1_block1_relu_stage1_block1_0_split_1
I0610 06:42:33.933426 17043 net.cpp:406] eltwise_stage1_block2 <- conv_stage1_block2_branch2c
I0610 06:42:33.933430 17043 net.cpp:380] eltwise_stage1_block2 -> eltwise_stage1_block2
I0610 06:42:33.933449 17043 net.cpp:122] Setting up eltwise_stage1_block2
I0610 06:42:33.933454 17043 net.cpp:129] Top shape: 7 256 28 28 (1404928)
I0610 06:42:33.933456 17043 net.cpp:137] Memory required for data: 599904284
I0610 06:42:33.933459 17043 layer_factory.hpp:77] Creating layer relu_stage1_block2
I0610 06:42:33.933463 17043 net.cpp:84] Creating Layer relu_stage1_block2
I0610 06:42:33.933465 17043 net.cpp:406] relu_stage1_block2 <- eltwise_stage1_block2
I0610 06:42:33.933470 17043 net.cpp:367] relu_stage1_block2 -> eltwise_stage1_block2 (in-place)
I0610 06:42:33.933475 17043 net.cpp:122] Setting up relu_stage1_block2
I0610 06:42:33.933477 17043 net.cpp:129] Top shape: 7 256 28 28 (1404928)
I0610 06:42:33.933480 17043 net.cpp:137] Memory required for data: 605523996
I0610 06:42:33.933482 17043 layer_factory.hpp:77] Creating layer eltwise_stage1_block2_relu_stage1_block2_0_split
I0610 06:42:33.933486 17043 net.cpp:84] Creating Layer eltwise_stage1_block2_relu_stage1_block2_0_split
I0610 06:42:33.933488 17043 net.cpp:406] eltwise_stage1_block2_relu_stage1_block2_0_split <- eltwise_stage1_block2
I0610 06:42:33.933495 17043 net.cpp:380] eltwise_stage1_block2_relu_stage1_block2_0_split -> eltwise_stage1_block2_relu_stage1_block2_0_split_0
I0610 06:42:33.933499 17043 net.cpp:380] eltwise_stage1_block2_relu_stage1_block2_0_split -> eltwise_stage1_block2_relu_stage1_block2_0_split_1
I0610 06:42:33.933527 17043 net.cpp:122] Setting up eltwise_stage1_block2_relu_stage1_block2_0_split
I0610 06:42:33.933537 17043 net.cpp:129] Top shape: 7 256 28 28 (1404928)
I0610 06:42:33.933542 17043 net.cpp:129] Top shape: 7 256 28 28 (1404928)
I0610 06:42:33.933543 17043 net.cpp:137] Memory required for data: 616763420
I0610 06:42:33.933547 17043 layer_factory.hpp:77] Creating layer conv_stage1_block3_branch2a
I0610 06:42:33.933553 17043 net.cpp:84] Creating Layer conv_stage1_block3_branch2a
I0610 06:42:33.933557 17043 net.cpp:406] conv_stage1_block3_branch2a <- eltwise_stage1_block2_relu_stage1_block2_0_split_0
I0610 06:42:33.933562 17043 net.cpp:380] conv_stage1_block3_branch2a -> conv_stage1_block3_branch2a
I0610 06:42:33.933825 17043 net.cpp:122] Setting up conv_stage1_block3_branch2a
I0610 06:42:33.933830 17043 net.cpp:129] Top shape: 7 64 28 28 (351232)
I0610 06:42:33.933833 17043 net.cpp:137] Memory required for data: 618168348
I0610 06:42:33.933840 17043 layer_factory.hpp:77] Creating layer bn_stage1_block3_branch2a
I0610 06:42:33.933851 17043 net.cpp:84] Creating Layer bn_stage1_block3_branch2a
I0610 06:42:33.933854 17043 net.cpp:406] bn_stage1_block3_branch2a <- conv_stage1_block3_branch2a
I0610 06:42:33.933859 17043 net.cpp:367] bn_stage1_block3_branch2a -> conv_stage1_block3_branch2a (in-place)
I0610 06:42:33.934008 17043 net.cpp:122] Setting up bn_stage1_block3_branch2a
I0610 06:42:33.934013 17043 net.cpp:129] Top shape: 7 64 28 28 (351232)
I0610 06:42:33.934016 17043 net.cpp:137] Memory required for data: 619573276
I0610 06:42:33.934021 17043 layer_factory.hpp:77] Creating layer scale_stage1_block3_branch2a
I0610 06:42:33.934028 17043 net.cpp:84] Creating Layer scale_stage1_block3_branch2a
I0610 06:42:33.934031 17043 net.cpp:406] scale_stage1_block3_branch2a <- conv_stage1_block3_branch2a
I0610 06:42:33.934036 17043 net.cpp:367] scale_stage1_block3_branch2a -> conv_stage1_block3_branch2a (in-place)
I0610 06:42:33.934065 17043 layer_factory.hpp:77] Creating layer scale_stage1_block3_branch2a
I0610 06:42:33.934161 17043 net.cpp:122] Setting up scale_stage1_block3_branch2a
I0610 06:42:33.934166 17043 net.cpp:129] Top shape: 7 64 28 28 (351232)
I0610 06:42:33.934170 17043 net.cpp:137] Memory required for data: 620978204
I0610 06:42:33.934173 17043 layer_factory.hpp:77] Creating layer relu_stage1_block3_branch2a
I0610 06:42:33.934180 17043 net.cpp:84] Creating Layer relu_stage1_block3_branch2a
I0610 06:42:33.934182 17043 net.cpp:406] relu_stage1_block3_branch2a <- conv_stage1_block3_branch2a
I0610 06:42:33.934187 17043 net.cpp:367] relu_stage1_block3_branch2a -> conv_stage1_block3_branch2a (in-place)
I0610 06:42:33.934192 17043 net.cpp:122] Setting up relu_stage1_block3_branch2a
I0610 06:42:33.934195 17043 net.cpp:129] Top shape: 7 64 28 28 (351232)
I0610 06:42:33.934197 17043 net.cpp:137] Memory required for data: 622383132
I0610 06:42:33.934201 17043 layer_factory.hpp:77] Creating layer conv_stage1_block3_branch2b
I0610 06:42:33.934207 17043 net.cpp:84] Creating Layer conv_stage1_block3_branch2b
I0610 06:42:33.934211 17043 net.cpp:406] conv_stage1_block3_branch2b <- conv_stage1_block3_branch2a
I0610 06:42:33.934216 17043 net.cpp:380] conv_stage1_block3_branch2b -> conv_stage1_block3_branch2b
I0610 06:42:33.934589 17043 net.cpp:122] Setting up conv_stage1_block3_branch2b
I0610 06:42:33.934597 17043 net.cpp:129] Top shape: 7 64 28 28 (351232)
I0610 06:42:33.934598 17043 net.cpp:137] Memory required for data: 623788060
I0610 06:42:33.934603 17043 layer_factory.hpp:77] Creating layer bn_stage1_block3_branch2b
I0610 06:42:33.934609 17043 net.cpp:84] Creating Layer bn_stage1_block3_branch2b
I0610 06:42:33.934612 17043 net.cpp:406] bn_stage1_block3_branch2b <- conv_stage1_block3_branch2b
I0610 06:42:33.934617 17043 net.cpp:367] bn_stage1_block3_branch2b -> conv_stage1_block3_branch2b (in-place)
I0610 06:42:33.935138 17043 net.cpp:122] Setting up bn_stage1_block3_branch2b
I0610 06:42:33.935144 17043 net.cpp:129] Top shape: 7 64 28 28 (351232)
I0610 06:42:33.935147 17043 net.cpp:137] Memory required for data: 625192988
I0610 06:42:33.935153 17043 layer_factory.hpp:77] Creating layer scale_stage1_block3_branch2b
I0610 06:42:33.935164 17043 net.cpp:84] Creating Layer scale_stage1_block3_branch2b
I0610 06:42:33.935168 17043 net.cpp:406] scale_stage1_block3_branch2b <- conv_stage1_block3_branch2b
I0610 06:42:33.935171 17043 net.cpp:367] scale_stage1_block3_branch2b -> conv_stage1_block3_branch2b (in-place)
I0610 06:42:33.935205 17043 layer_factory.hpp:77] Creating layer scale_stage1_block3_branch2b
I0610 06:42:33.935297 17043 net.cpp:122] Setting up scale_stage1_block3_branch2b
I0610 06:42:33.935302 17043 net.cpp:129] Top shape: 7 64 28 28 (351232)
I0610 06:42:33.935304 17043 net.cpp:137] Memory required for data: 626597916
I0610 06:42:33.935309 17043 layer_factory.hpp:77] Creating layer relu_stage1_block3_branch2b
I0610 06:42:33.935314 17043 net.cpp:84] Creating Layer relu_stage1_block3_branch2b
I0610 06:42:33.935317 17043 net.cpp:406] relu_stage1_block3_branch2b <- conv_stage1_block3_branch2b
I0610 06:42:33.935320 17043 net.cpp:367] relu_stage1_block3_branch2b -> conv_stage1_block3_branch2b (in-place)
I0610 06:42:33.935326 17043 net.cpp:122] Setting up relu_stage1_block3_branch2b
I0610 06:42:33.935330 17043 net.cpp:129] Top shape: 7 64 28 28 (351232)
I0610 06:42:33.935333 17043 net.cpp:137] Memory required for data: 628002844
I0610 06:42:33.935334 17043 layer_factory.hpp:77] Creating layer conv_stage1_block3_branch2c
I0610 06:42:33.935343 17043 net.cpp:84] Creating Layer conv_stage1_block3_branch2c
I0610 06:42:33.935346 17043 net.cpp:406] conv_stage1_block3_branch2c <- conv_stage1_block3_branch2b
I0610 06:42:33.935351 17043 net.cpp:380] conv_stage1_block3_branch2c -> conv_stage1_block3_branch2c
I0610 06:42:33.935606 17043 net.cpp:122] Setting up conv_stage1_block3_branch2c
I0610 06:42:33.935611 17043 net.cpp:129] Top shape: 7 256 28 28 (1404928)
I0610 06:42:33.935613 17043 net.cpp:137] Memory required for data: 633622556
I0610 06:42:33.935618 17043 layer_factory.hpp:77] Creating layer bn_stage1_block3_branch2c
I0610 06:42:33.935626 17043 net.cpp:84] Creating Layer bn_stage1_block3_branch2c
I0610 06:42:33.935628 17043 net.cpp:406] bn_stage1_block3_branch2c <- conv_stage1_block3_branch2c
I0610 06:42:33.935632 17043 net.cpp:367] bn_stage1_block3_branch2c -> conv_stage1_block3_branch2c (in-place)
I0610 06:42:33.935783 17043 net.cpp:122] Setting up bn_stage1_block3_branch2c
I0610 06:42:33.935789 17043 net.cpp:129] Top shape: 7 256 28 28 (1404928)
I0610 06:42:33.935791 17043 net.cpp:137] Memory required for data: 639242268
I0610 06:42:33.935797 17043 layer_factory.hpp:77] Creating layer scale_stage1_block3_branch2c
I0610 06:42:33.935801 17043 net.cpp:84] Creating Layer scale_stage1_block3_branch2c
I0610 06:42:33.935804 17043 net.cpp:406] scale_stage1_block3_branch2c <- conv_stage1_block3_branch2c
I0610 06:42:33.935808 17043 net.cpp:367] scale_stage1_block3_branch2c -> conv_stage1_block3_branch2c (in-place)
I0610 06:42:33.935838 17043 layer_factory.hpp:77] Creating layer scale_stage1_block3_branch2c
I0610 06:42:33.935920 17043 net.cpp:122] Setting up scale_stage1_block3_branch2c
I0610 06:42:33.935925 17043 net.cpp:129] Top shape: 7 256 28 28 (1404928)
I0610 06:42:33.935927 17043 net.cpp:137] Memory required for data: 644861980
I0610 06:42:33.935931 17043 layer_factory.hpp:77] Creating layer eltwise_stage1_block3
I0610 06:42:33.935936 17043 net.cpp:84] Creating Layer eltwise_stage1_block3
I0610 06:42:33.935940 17043 net.cpp:406] eltwise_stage1_block3 <- eltwise_stage1_block2_relu_stage1_block2_0_split_1
I0610 06:42:33.935942 17043 net.cpp:406] eltwise_stage1_block3 <- conv_stage1_block3_branch2c
I0610 06:42:33.935948 17043 net.cpp:380] eltwise_stage1_block3 -> eltwise_stage1_block3
I0610 06:42:33.935966 17043 net.cpp:122] Setting up eltwise_stage1_block3
I0610 06:42:33.935971 17043 net.cpp:129] Top shape: 7 256 28 28 (1404928)
I0610 06:42:33.935972 17043 net.cpp:137] Memory required for data: 650481692
I0610 06:42:33.935974 17043 layer_factory.hpp:77] Creating layer relu_stage1_block3
I0610 06:42:33.935979 17043 net.cpp:84] Creating Layer relu_stage1_block3
I0610 06:42:33.935981 17043 net.cpp:406] relu_stage1_block3 <- eltwise_stage1_block3
I0610 06:42:33.935992 17043 net.cpp:367] relu_stage1_block3 -> eltwise_stage1_block3 (in-place)
I0610 06:42:33.935997 17043 net.cpp:122] Setting up relu_stage1_block3
I0610 06:42:33.936000 17043 net.cpp:129] Top shape: 7 256 28 28 (1404928)
I0610 06:42:33.936002 17043 net.cpp:137] Memory required for data: 656101404
I0610 06:42:33.936004 17043 layer_factory.hpp:77] Creating layer eltwise_stage1_block3_relu_stage1_block3_0_split
I0610 06:42:33.936008 17043 net.cpp:84] Creating Layer eltwise_stage1_block3_relu_stage1_block3_0_split
I0610 06:42:33.936012 17043 net.cpp:406] eltwise_stage1_block3_relu_stage1_block3_0_split <- eltwise_stage1_block3
I0610 06:42:33.936015 17043 net.cpp:380] eltwise_stage1_block3_relu_stage1_block3_0_split -> eltwise_stage1_block3_relu_stage1_block3_0_split_0
I0610 06:42:33.936023 17043 net.cpp:380] eltwise_stage1_block3_relu_stage1_block3_0_split -> eltwise_stage1_block3_relu_stage1_block3_0_split_1
I0610 06:42:33.936049 17043 net.cpp:122] Setting up eltwise_stage1_block3_relu_stage1_block3_0_split
I0610 06:42:33.936053 17043 net.cpp:129] Top shape: 7 256 28 28 (1404928)
I0610 06:42:33.936058 17043 net.cpp:129] Top shape: 7 256 28 28 (1404928)
I0610 06:42:33.936059 17043 net.cpp:137] Memory required for data: 667340828
I0610 06:42:33.936061 17043 layer_factory.hpp:77] Creating layer conv_stage2_block0_proj_shortcut
I0610 06:42:33.936070 17043 net.cpp:84] Creating Layer conv_stage2_block0_proj_shortcut
I0610 06:42:33.936074 17043 net.cpp:406] conv_stage2_block0_proj_shortcut <- eltwise_stage1_block3_relu_stage1_block3_0_split_0
I0610 06:42:33.936079 17043 net.cpp:380] conv_stage2_block0_proj_shortcut -> conv_stage2_block0_proj_shortcut
I0610 06:42:33.937397 17043 net.cpp:122] Setting up conv_stage2_block0_proj_shortcut
I0610 06:42:33.937405 17043 net.cpp:129] Top shape: 7 512 14 14 (702464)
I0610 06:42:33.937408 17043 net.cpp:137] Memory required for data: 670150684
I0610 06:42:33.937413 17043 layer_factory.hpp:77] Creating layer bn_stage2_block0_proj_shortcut
I0610 06:42:33.937420 17043 net.cpp:84] Creating Layer bn_stage2_block0_proj_shortcut
I0610 06:42:33.937423 17043 net.cpp:406] bn_stage2_block0_proj_shortcut <- conv_stage2_block0_proj_shortcut
I0610 06:42:33.937429 17043 net.cpp:367] bn_stage2_block0_proj_shortcut -> conv_stage2_block0_proj_shortcut (in-place)
I0610 06:42:33.937577 17043 net.cpp:122] Setting up bn_stage2_block0_proj_shortcut
I0610 06:42:33.937582 17043 net.cpp:129] Top shape: 7 512 14 14 (702464)
I0610 06:42:33.937584 17043 net.cpp:137] Memory required for data: 672960540
I0610 06:42:33.937590 17043 layer_factory.hpp:77] Creating layer scale_stage2_block0_proj_shortcut
I0610 06:42:33.937597 17043 net.cpp:84] Creating Layer scale_stage2_block0_proj_shortcut
I0610 06:42:33.937599 17043 net.cpp:406] scale_stage2_block0_proj_shortcut <- conv_stage2_block0_proj_shortcut
I0610 06:42:33.937603 17043 net.cpp:367] scale_stage2_block0_proj_shortcut -> conv_stage2_block0_proj_shortcut (in-place)
I0610 06:42:33.937631 17043 layer_factory.hpp:77] Creating layer scale_stage2_block0_proj_shortcut
I0610 06:42:33.937719 17043 net.cpp:122] Setting up scale_stage2_block0_proj_shortcut
I0610 06:42:33.937724 17043 net.cpp:129] Top shape: 7 512 14 14 (702464)
I0610 06:42:33.937726 17043 net.cpp:137] Memory required for data: 675770396
I0610 06:42:33.937731 17043 layer_factory.hpp:77] Creating layer conv_stage2_block0_branch2a
I0610 06:42:33.937739 17043 net.cpp:84] Creating Layer conv_stage2_block0_branch2a
I0610 06:42:33.937744 17043 net.cpp:406] conv_stage2_block0_branch2a <- eltwise_stage1_block3_relu_stage1_block3_0_split_1
I0610 06:42:33.937749 17043 net.cpp:380] conv_stage2_block0_branch2a -> conv_stage2_block0_branch2a
I0610 06:42:33.938086 17043 net.cpp:122] Setting up conv_stage2_block0_branch2a
I0610 06:42:33.938091 17043 net.cpp:129] Top shape: 7 128 14 14 (175616)
I0610 06:42:33.938093 17043 net.cpp:137] Memory required for data: 676472860
I0610 06:42:33.938097 17043 layer_factory.hpp:77] Creating layer bn_stage2_block0_branch2a
I0610 06:42:33.938113 17043 net.cpp:84] Creating Layer bn_stage2_block0_branch2a
I0610 06:42:33.938117 17043 net.cpp:406] bn_stage2_block0_branch2a <- conv_stage2_block0_branch2a
I0610 06:42:33.938122 17043 net.cpp:367] bn_stage2_block0_branch2a -> conv_stage2_block0_branch2a (in-place)
I0610 06:42:33.938277 17043 net.cpp:122] Setting up bn_stage2_block0_branch2a
I0610 06:42:33.938284 17043 net.cpp:129] Top shape: 7 128 14 14 (175616)
I0610 06:42:33.938287 17043 net.cpp:137] Memory required for data: 677175324
I0610 06:42:33.938292 17043 layer_factory.hpp:77] Creating layer scale_stage2_block0_branch2a
I0610 06:42:33.938297 17043 net.cpp:84] Creating Layer scale_stage2_block0_branch2a
I0610 06:42:33.938300 17043 net.cpp:406] scale_stage2_block0_branch2a <- conv_stage2_block0_branch2a
I0610 06:42:33.938304 17043 net.cpp:367] scale_stage2_block0_branch2a -> conv_stage2_block0_branch2a (in-place)
I0610 06:42:33.938338 17043 layer_factory.hpp:77] Creating layer scale_stage2_block0_branch2a
I0610 06:42:33.938421 17043 net.cpp:122] Setting up scale_stage2_block0_branch2a
I0610 06:42:33.938426 17043 net.cpp:129] Top shape: 7 128 14 14 (175616)
I0610 06:42:33.938428 17043 net.cpp:137] Memory required for data: 677877788
I0610 06:42:33.938433 17043 layer_factory.hpp:77] Creating layer relu_stage2_block0_branch2a
I0610 06:42:33.938437 17043 net.cpp:84] Creating Layer relu_stage2_block0_branch2a
I0610 06:42:33.938441 17043 net.cpp:406] relu_stage2_block0_branch2a <- conv_stage2_block0_branch2a
I0610 06:42:33.938446 17043 net.cpp:367] relu_stage2_block0_branch2a -> conv_stage2_block0_branch2a (in-place)
I0610 06:42:33.938450 17043 net.cpp:122] Setting up relu_stage2_block0_branch2a
I0610 06:42:33.938454 17043 net.cpp:129] Top shape: 7 128 14 14 (175616)
I0610 06:42:33.938457 17043 net.cpp:137] Memory required for data: 678580252
I0610 06:42:33.938458 17043 layer_factory.hpp:77] Creating layer conv_stage2_block0_branch2b
I0610 06:42:33.938467 17043 net.cpp:84] Creating Layer conv_stage2_block0_branch2b
I0610 06:42:33.938469 17043 net.cpp:406] conv_stage2_block0_branch2b <- conv_stage2_block0_branch2a
I0610 06:42:33.938474 17043 net.cpp:380] conv_stage2_block0_branch2b -> conv_stage2_block0_branch2b
I0610 06:42:33.940490 17043 net.cpp:122] Setting up conv_stage2_block0_branch2b
I0610 06:42:33.940507 17043 net.cpp:129] Top shape: 7 128 14 14 (175616)
I0610 06:42:33.940513 17043 net.cpp:137] Memory required for data: 679282716
I0610 06:42:33.940526 17043 layer_factory.hpp:77] Creating layer bn_stage2_block0_branch2b
I0610 06:42:33.940543 17043 net.cpp:84] Creating Layer bn_stage2_block0_branch2b
I0610 06:42:33.940552 17043 net.cpp:406] bn_stage2_block0_branch2b <- conv_stage2_block0_branch2b
I0610 06:42:33.940564 17043 net.cpp:367] bn_stage2_block0_branch2b -> conv_stage2_block0_branch2b (in-place)
I0610 06:42:33.940796 17043 net.cpp:122] Setting up bn_stage2_block0_branch2b
I0610 06:42:33.940805 17043 net.cpp:129] Top shape: 7 128 14 14 (175616)
I0610 06:42:33.940809 17043 net.cpp:137] Memory required for data: 679985180
I0610 06:42:33.940819 17043 layer_factory.hpp:77] Creating layer scale_stage2_block0_branch2b
I0610 06:42:33.940829 17043 net.cpp:84] Creating Layer scale_stage2_block0_branch2b
I0610 06:42:33.940832 17043 net.cpp:406] scale_stage2_block0_branch2b <- conv_stage2_block0_branch2b
I0610 06:42:33.940840 17043 net.cpp:367] scale_stage2_block0_branch2b -> conv_stage2_block0_branch2b (in-place)
I0610 06:42:33.940897 17043 layer_factory.hpp:77] Creating layer scale_stage2_block0_branch2b
I0610 06:42:33.941041 17043 net.cpp:122] Setting up scale_stage2_block0_branch2b
I0610 06:42:33.941052 17043 net.cpp:129] Top shape: 7 128 14 14 (175616)
I0610 06:42:33.941057 17043 net.cpp:137] Memory required for data: 680687644
I0610 06:42:33.941066 17043 layer_factory.hpp:77] Creating layer relu_stage2_block0_branch2b
I0610 06:42:33.941076 17043 net.cpp:84] Creating Layer relu_stage2_block0_branch2b
I0610 06:42:33.941081 17043 net.cpp:406] relu_stage2_block0_branch2b <- conv_stage2_block0_branch2b
I0610 06:42:33.941087 17043 net.cpp:367] relu_stage2_block0_branch2b -> conv_stage2_block0_branch2b (in-place)
I0610 06:42:33.941108 17043 net.cpp:122] Setting up relu_stage2_block0_branch2b
I0610 06:42:33.941115 17043 net.cpp:129] Top shape: 7 128 14 14 (175616)
I0610 06:42:33.941119 17043 net.cpp:137] Memory required for data: 681390108
I0610 06:42:33.941123 17043 layer_factory.hpp:77] Creating layer conv_stage2_block0_branch2c
I0610 06:42:33.941138 17043 net.cpp:84] Creating Layer conv_stage2_block0_branch2c
I0610 06:42:33.941143 17043 net.cpp:406] conv_stage2_block0_branch2c <- conv_stage2_block0_branch2b
I0610 06:42:33.941154 17043 net.cpp:380] conv_stage2_block0_branch2c -> conv_stage2_block0_branch2c
I0610 06:42:33.942657 17043 net.cpp:122] Setting up conv_stage2_block0_branch2c
I0610 06:42:33.942672 17043 net.cpp:129] Top shape: 7 512 14 14 (702464)
I0610 06:42:33.942677 17043 net.cpp:137] Memory required for data: 684199964
I0610 06:42:33.942685 17043 layer_factory.hpp:77] Creating layer bn_stage2_block0_branch2c
I0610 06:42:33.942694 17043 net.cpp:84] Creating Layer bn_stage2_block0_branch2c
I0610 06:42:33.942700 17043 net.cpp:406] bn_stage2_block0_branch2c <- conv_stage2_block0_branch2c
I0610 06:42:33.942711 17043 net.cpp:367] bn_stage2_block0_branch2c -> conv_stage2_block0_branch2c (in-place)
I0610 06:42:33.942961 17043 net.cpp:122] Setting up bn_stage2_block0_branch2c
I0610 06:42:33.942973 17043 net.cpp:129] Top shape: 7 512 14 14 (702464)
I0610 06:42:33.942978 17043 net.cpp:137] Memory required for data: 687009820
I0610 06:42:33.942989 17043 layer_factory.hpp:77] Creating layer scale_stage2_block0_branch2c
I0610 06:42:33.942997 17043 net.cpp:84] Creating Layer scale_stage2_block0_branch2c
I0610 06:42:33.943002 17043 net.cpp:406] scale_stage2_block0_branch2c <- conv_stage2_block0_branch2c
I0610 06:42:33.943011 17043 net.cpp:367] scale_stage2_block0_branch2c -> conv_stage2_block0_branch2c (in-place)
I0610 06:42:33.943061 17043 layer_factory.hpp:77] Creating layer scale_stage2_block0_branch2c
I0610 06:42:33.943214 17043 net.cpp:122] Setting up scale_stage2_block0_branch2c
I0610 06:42:33.943226 17043 net.cpp:129] Top shape: 7 512 14 14 (702464)
I0610 06:42:33.943231 17043 net.cpp:137] Memory required for data: 689819676
I0610 06:42:33.943240 17043 layer_factory.hpp:77] Creating layer eltwise_stage2_block0
I0610 06:42:33.943248 17043 net.cpp:84] Creating Layer eltwise_stage2_block0
I0610 06:42:33.943253 17043 net.cpp:406] eltwise_stage2_block0 <- conv_stage2_block0_proj_shortcut
I0610 06:42:33.943259 17043 net.cpp:406] eltwise_stage2_block0 <- conv_stage2_block0_branch2c
I0610 06:42:33.943267 17043 net.cpp:380] eltwise_stage2_block0 -> eltwise_stage2_block0
I0610 06:42:33.943300 17043 net.cpp:122] Setting up eltwise_stage2_block0
I0610 06:42:33.943310 17043 net.cpp:129] Top shape: 7 512 14 14 (702464)
I0610 06:42:33.943315 17043 net.cpp:137] Memory required for data: 692629532
I0610 06:42:33.943317 17043 layer_factory.hpp:77] Creating layer relu_stage2_block0
I0610 06:42:33.943325 17043 net.cpp:84] Creating Layer relu_stage2_block0
I0610 06:42:33.943330 17043 net.cpp:406] relu_stage2_block0 <- eltwise_stage2_block0
I0610 06:42:33.943337 17043 net.cpp:367] relu_stage2_block0 -> eltwise_stage2_block0 (in-place)
I0610 06:42:33.943346 17043 net.cpp:122] Setting up relu_stage2_block0
I0610 06:42:33.943352 17043 net.cpp:129] Top shape: 7 512 14 14 (702464)
I0610 06:42:33.943356 17043 net.cpp:137] Memory required for data: 695439388
I0610 06:42:33.943361 17043 layer_factory.hpp:77] Creating layer eltwise_stage2_block0_relu_stage2_block0_0_split
I0610 06:42:33.943368 17043 net.cpp:84] Creating Layer eltwise_stage2_block0_relu_stage2_block0_0_split
I0610 06:42:33.943372 17043 net.cpp:406] eltwise_stage2_block0_relu_stage2_block0_0_split <- eltwise_stage2_block0
I0610 06:42:33.943382 17043 net.cpp:380] eltwise_stage2_block0_relu_stage2_block0_0_split -> eltwise_stage2_block0_relu_stage2_block0_0_split_0
I0610 06:42:33.943393 17043 net.cpp:380] eltwise_stage2_block0_relu_stage2_block0_0_split -> eltwise_stage2_block0_relu_stage2_block0_0_split_1
I0610 06:42:33.943457 17043 net.cpp:122] Setting up eltwise_stage2_block0_relu_stage2_block0_0_split
I0610 06:42:33.943467 17043 net.cpp:129] Top shape: 7 512 14 14 (702464)
I0610 06:42:33.943473 17043 net.cpp:129] Top shape: 7 512 14 14 (702464)
I0610 06:42:33.943477 17043 net.cpp:137] Memory required for data: 701059100
I0610 06:42:33.943481 17043 layer_factory.hpp:77] Creating layer conv_stage2_block1_branch2a
I0610 06:42:33.943544 17043 net.cpp:84] Creating Layer conv_stage2_block1_branch2a
I0610 06:42:33.943552 17043 net.cpp:406] conv_stage2_block1_branch2a <- eltwise_stage2_block0_relu_stage2_block0_0_split_0
I0610 06:42:33.943562 17043 net.cpp:380] conv_stage2_block1_branch2a -> conv_stage2_block1_branch2a
I0610 06:42:33.944077 17043 net.cpp:122] Setting up conv_stage2_block1_branch2a
I0610 06:42:33.944085 17043 net.cpp:129] Top shape: 7 128 14 14 (175616)
I0610 06:42:33.944088 17043 net.cpp:137] Memory required for data: 701761564
I0610 06:42:33.944094 17043 layer_factory.hpp:77] Creating layer bn_stage2_block1_branch2a
I0610 06:42:33.944100 17043 net.cpp:84] Creating Layer bn_stage2_block1_branch2a
I0610 06:42:33.944103 17043 net.cpp:406] bn_stage2_block1_branch2a <- conv_stage2_block1_branch2a
I0610 06:42:33.944108 17043 net.cpp:367] bn_stage2_block1_branch2a -> conv_stage2_block1_branch2a (in-place)
I0610 06:42:33.944257 17043 net.cpp:122] Setting up bn_stage2_block1_branch2a
I0610 06:42:33.944262 17043 net.cpp:129] Top shape: 7 128 14 14 (175616)
I0610 06:42:33.944263 17043 net.cpp:137] Memory required for data: 702464028
I0610 06:42:33.944270 17043 layer_factory.hpp:77] Creating layer scale_stage2_block1_branch2a
I0610 06:42:33.944274 17043 net.cpp:84] Creating Layer scale_stage2_block1_branch2a
I0610 06:42:33.944278 17043 net.cpp:406] scale_stage2_block1_branch2a <- conv_stage2_block1_branch2a
I0610 06:42:33.944281 17043 net.cpp:367] scale_stage2_block1_branch2a -> conv_stage2_block1_branch2a (in-place)
I0610 06:42:33.944314 17043 layer_factory.hpp:77] Creating layer scale_stage2_block1_branch2a
I0610 06:42:33.944398 17043 net.cpp:122] Setting up scale_stage2_block1_branch2a
I0610 06:42:33.944403 17043 net.cpp:129] Top shape: 7 128 14 14 (175616)
I0610 06:42:33.944406 17043 net.cpp:137] Memory required for data: 703166492
I0610 06:42:33.944411 17043 layer_factory.hpp:77] Creating layer relu_stage2_block1_branch2a
I0610 06:42:33.944414 17043 net.cpp:84] Creating Layer relu_stage2_block1_branch2a
I0610 06:42:33.944417 17043 net.cpp:406] relu_stage2_block1_branch2a <- conv_stage2_block1_branch2a
I0610 06:42:33.944422 17043 net.cpp:367] relu_stage2_block1_branch2a -> conv_stage2_block1_branch2a (in-place)
I0610 06:42:33.944427 17043 net.cpp:122] Setting up relu_stage2_block1_branch2a
I0610 06:42:33.944432 17043 net.cpp:129] Top shape: 7 128 14 14 (175616)
I0610 06:42:33.944433 17043 net.cpp:137] Memory required for data: 703868956
I0610 06:42:33.944435 17043 layer_factory.hpp:77] Creating layer conv_stage2_block1_branch2b
I0610 06:42:33.944445 17043 net.cpp:84] Creating Layer conv_stage2_block1_branch2b
I0610 06:42:33.944447 17043 net.cpp:406] conv_stage2_block1_branch2b <- conv_stage2_block1_branch2a
I0610 06:42:33.944453 17043 net.cpp:380] conv_stage2_block1_branch2b -> conv_stage2_block1_branch2b
I0610 06:42:33.945796 17043 net.cpp:122] Setting up conv_stage2_block1_branch2b
I0610 06:42:33.945806 17043 net.cpp:129] Top shape: 7 128 14 14 (175616)
I0610 06:42:33.945807 17043 net.cpp:137] Memory required for data: 704571420
I0610 06:42:33.945813 17043 layer_factory.hpp:77] Creating layer bn_stage2_block1_branch2b
I0610 06:42:33.945821 17043 net.cpp:84] Creating Layer bn_stage2_block1_branch2b
I0610 06:42:33.945823 17043 net.cpp:406] bn_stage2_block1_branch2b <- conv_stage2_block1_branch2b
I0610 06:42:33.945829 17043 net.cpp:367] bn_stage2_block1_branch2b -> conv_stage2_block1_branch2b (in-place)
I0610 06:42:33.945978 17043 net.cpp:122] Setting up bn_stage2_block1_branch2b
I0610 06:42:33.945982 17043 net.cpp:129] Top shape: 7 128 14 14 (175616)
I0610 06:42:33.945986 17043 net.cpp:137] Memory required for data: 705273884
I0610 06:42:33.945999 17043 layer_factory.hpp:77] Creating layer scale_stage2_block1_branch2b
I0610 06:42:33.946005 17043 net.cpp:84] Creating Layer scale_stage2_block1_branch2b
I0610 06:42:33.946007 17043 net.cpp:406] scale_stage2_block1_branch2b <- conv_stage2_block1_branch2b
I0610 06:42:33.946012 17043 net.cpp:367] scale_stage2_block1_branch2b -> conv_stage2_block1_branch2b (in-place)
I0610 06:42:33.946044 17043 layer_factory.hpp:77] Creating layer scale_stage2_block1_branch2b
I0610 06:42:33.946130 17043 net.cpp:122] Setting up scale_stage2_block1_branch2b
I0610 06:42:33.946135 17043 net.cpp:129] Top shape: 7 128 14 14 (175616)
I0610 06:42:33.946137 17043 net.cpp:137] Memory required for data: 705976348
I0610 06:42:33.946142 17043 layer_factory.hpp:77] Creating layer relu_stage2_block1_branch2b
I0610 06:42:33.946148 17043 net.cpp:84] Creating Layer relu_stage2_block1_branch2b
I0610 06:42:33.946151 17043 net.cpp:406] relu_stage2_block1_branch2b <- conv_stage2_block1_branch2b
I0610 06:42:33.946156 17043 net.cpp:367] relu_stage2_block1_branch2b -> conv_stage2_block1_branch2b (in-place)
I0610 06:42:33.946159 17043 net.cpp:122] Setting up relu_stage2_block1_branch2b
I0610 06:42:33.946163 17043 net.cpp:129] Top shape: 7 128 14 14 (175616)
I0610 06:42:33.946166 17043 net.cpp:137] Memory required for data: 706678812
I0610 06:42:33.946168 17043 layer_factory.hpp:77] Creating layer conv_stage2_block1_branch2c
I0610 06:42:33.946177 17043 net.cpp:84] Creating Layer conv_stage2_block1_branch2c
I0610 06:42:33.946179 17043 net.cpp:406] conv_stage2_block1_branch2c <- conv_stage2_block1_branch2b
I0610 06:42:33.946185 17043 net.cpp:380] conv_stage2_block1_branch2c -> conv_stage2_block1_branch2c
I0610 06:42:33.946696 17043 net.cpp:122] Setting up conv_stage2_block1_branch2c
I0610 06:42:33.946704 17043 net.cpp:129] Top shape: 7 512 14 14 (702464)
I0610 06:42:33.946707 17043 net.cpp:137] Memory required for data: 709488668
I0610 06:42:33.946712 17043 layer_factory.hpp:77] Creating layer bn_stage2_block1_branch2c
I0610 06:42:33.946717 17043 net.cpp:84] Creating Layer bn_stage2_block1_branch2c
I0610 06:42:33.946722 17043 net.cpp:406] bn_stage2_block1_branch2c <- conv_stage2_block1_branch2c
I0610 06:42:33.946727 17043 net.cpp:367] bn_stage2_block1_branch2c -> conv_stage2_block1_branch2c (in-place)
I0610 06:42:33.946872 17043 net.cpp:122] Setting up bn_stage2_block1_branch2c
I0610 06:42:33.946877 17043 net.cpp:129] Top shape: 7 512 14 14 (702464)
I0610 06:42:33.946879 17043 net.cpp:137] Memory required for data: 712298524
I0610 06:42:33.946884 17043 layer_factory.hpp:77] Creating layer scale_stage2_block1_branch2c
I0610 06:42:33.946890 17043 net.cpp:84] Creating Layer scale_stage2_block1_branch2c
I0610 06:42:33.946893 17043 net.cpp:406] scale_stage2_block1_branch2c <- conv_stage2_block1_branch2c
I0610 06:42:33.946897 17043 net.cpp:367] scale_stage2_block1_branch2c -> conv_stage2_block1_branch2c (in-place)
I0610 06:42:33.946925 17043 layer_factory.hpp:77] Creating layer scale_stage2_block1_branch2c
I0610 06:42:33.947012 17043 net.cpp:122] Setting up scale_stage2_block1_branch2c
I0610 06:42:33.947017 17043 net.cpp:129] Top shape: 7 512 14 14 (702464)
I0610 06:42:33.947019 17043 net.cpp:137] Memory required for data: 715108380
I0610 06:42:33.947024 17043 layer_factory.hpp:77] Creating layer eltwise_stage2_block1
I0610 06:42:33.947029 17043 net.cpp:84] Creating Layer eltwise_stage2_block1
I0610 06:42:33.947033 17043 net.cpp:406] eltwise_stage2_block1 <- eltwise_stage2_block0_relu_stage2_block0_0_split_1
I0610 06:42:33.947036 17043 net.cpp:406] eltwise_stage2_block1 <- conv_stage2_block1_branch2c
I0610 06:42:33.947041 17043 net.cpp:380] eltwise_stage2_block1 -> eltwise_stage2_block1
I0610 06:42:33.947060 17043 net.cpp:122] Setting up eltwise_stage2_block1
I0610 06:42:33.947064 17043 net.cpp:129] Top shape: 7 512 14 14 (702464)
I0610 06:42:33.947067 17043 net.cpp:137] Memory required for data: 717918236
I0610 06:42:33.947069 17043 layer_factory.hpp:77] Creating layer relu_stage2_block1
I0610 06:42:33.947073 17043 net.cpp:84] Creating Layer relu_stage2_block1
I0610 06:42:33.947083 17043 net.cpp:406] relu_stage2_block1 <- eltwise_stage2_block1
I0610 06:42:33.947089 17043 net.cpp:367] relu_stage2_block1 -> eltwise_stage2_block1 (in-place)
I0610 06:42:33.947093 17043 net.cpp:122] Setting up relu_stage2_block1
I0610 06:42:33.947098 17043 net.cpp:129] Top shape: 7 512 14 14 (702464)
I0610 06:42:33.947099 17043 net.cpp:137] Memory required for data: 720728092
I0610 06:42:33.947103 17043 layer_factory.hpp:77] Creating layer eltwise_stage2_block1_relu_stage2_block1_0_split
I0610 06:42:33.947108 17043 net.cpp:84] Creating Layer eltwise_stage2_block1_relu_stage2_block1_0_split
I0610 06:42:33.947109 17043 net.cpp:406] eltwise_stage2_block1_relu_stage2_block1_0_split <- eltwise_stage2_block1
I0610 06:42:33.947113 17043 net.cpp:380] eltwise_stage2_block1_relu_stage2_block1_0_split -> eltwise_stage2_block1_relu_stage2_block1_0_split_0
I0610 06:42:33.947119 17043 net.cpp:380] eltwise_stage2_block1_relu_stage2_block1_0_split -> eltwise_stage2_block1_relu_stage2_block1_0_split_1
I0610 06:42:33.947147 17043 net.cpp:122] Setting up eltwise_stage2_block1_relu_stage2_block1_0_split
I0610 06:42:33.947151 17043 net.cpp:129] Top shape: 7 512 14 14 (702464)
I0610 06:42:33.947155 17043 net.cpp:129] Top shape: 7 512 14 14 (702464)
I0610 06:42:33.947157 17043 net.cpp:137] Memory required for data: 726347804
I0610 06:42:33.947160 17043 layer_factory.hpp:77] Creating layer conv_stage2_block2_branch2a
I0610 06:42:33.947168 17043 net.cpp:84] Creating Layer conv_stage2_block2_branch2a
I0610 06:42:33.947171 17043 net.cpp:406] conv_stage2_block2_branch2a <- eltwise_stage2_block1_relu_stage2_block1_0_split_0
I0610 06:42:33.947177 17043 net.cpp:380] conv_stage2_block2_branch2a -> conv_stage2_block2_branch2a
I0610 06:42:33.947670 17043 net.cpp:122] Setting up conv_stage2_block2_branch2a
I0610 06:42:33.947675 17043 net.cpp:129] Top shape: 7 128 14 14 (175616)
I0610 06:42:33.947679 17043 net.cpp:137] Memory required for data: 727050268
I0610 06:42:33.947682 17043 layer_factory.hpp:77] Creating layer bn_stage2_block2_branch2a
I0610 06:42:33.947690 17043 net.cpp:84] Creating Layer bn_stage2_block2_branch2a
I0610 06:42:33.947692 17043 net.cpp:406] bn_stage2_block2_branch2a <- conv_stage2_block2_branch2a
I0610 06:42:33.947697 17043 net.cpp:367] bn_stage2_block2_branch2a -> conv_stage2_block2_branch2a (in-place)
I0610 06:42:33.947845 17043 net.cpp:122] Setting up bn_stage2_block2_branch2a
I0610 06:42:33.947850 17043 net.cpp:129] Top shape: 7 128 14 14 (175616)
I0610 06:42:33.947854 17043 net.cpp:137] Memory required for data: 727752732
I0610 06:42:33.947859 17043 layer_factory.hpp:77] Creating layer scale_stage2_block2_branch2a
I0610 06:42:33.947865 17043 net.cpp:84] Creating Layer scale_stage2_block2_branch2a
I0610 06:42:33.947867 17043 net.cpp:406] scale_stage2_block2_branch2a <- conv_stage2_block2_branch2a
I0610 06:42:33.947871 17043 net.cpp:367] scale_stage2_block2_branch2a -> conv_stage2_block2_branch2a (in-place)
I0610 06:42:33.947901 17043 layer_factory.hpp:77] Creating layer scale_stage2_block2_branch2a
I0610 06:42:33.947984 17043 net.cpp:122] Setting up scale_stage2_block2_branch2a
I0610 06:42:33.947989 17043 net.cpp:129] Top shape: 7 128 14 14 (175616)
I0610 06:42:33.947991 17043 net.cpp:137] Memory required for data: 728455196
I0610 06:42:33.947996 17043 layer_factory.hpp:77] Creating layer relu_stage2_block2_branch2a
I0610 06:42:33.948000 17043 net.cpp:84] Creating Layer relu_stage2_block2_branch2a
I0610 06:42:33.948004 17043 net.cpp:406] relu_stage2_block2_branch2a <- conv_stage2_block2_branch2a
I0610 06:42:33.948009 17043 net.cpp:367] relu_stage2_block2_branch2a -> conv_stage2_block2_branch2a (in-place)
I0610 06:42:33.948014 17043 net.cpp:122] Setting up relu_stage2_block2_branch2a
I0610 06:42:33.948016 17043 net.cpp:129] Top shape: 7 128 14 14 (175616)
I0610 06:42:33.948019 17043 net.cpp:137] Memory required for data: 729157660
I0610 06:42:33.948021 17043 layer_factory.hpp:77] Creating layer conv_stage2_block2_branch2b
I0610 06:42:33.948030 17043 net.cpp:84] Creating Layer conv_stage2_block2_branch2b
I0610 06:42:33.948040 17043 net.cpp:406] conv_stage2_block2_branch2b <- conv_stage2_block2_branch2a
I0610 06:42:33.948046 17043 net.cpp:380] conv_stage2_block2_branch2b -> conv_stage2_block2_branch2b
I0610 06:42:33.949463 17043 net.cpp:122] Setting up conv_stage2_block2_branch2b
I0610 06:42:33.949475 17043 net.cpp:129] Top shape: 7 128 14 14 (175616)
I0610 06:42:33.949477 17043 net.cpp:137] Memory required for data: 729860124
I0610 06:42:33.949482 17043 layer_factory.hpp:77] Creating layer bn_stage2_block2_branch2b
I0610 06:42:33.949491 17043 net.cpp:84] Creating Layer bn_stage2_block2_branch2b
I0610 06:42:33.949494 17043 net.cpp:406] bn_stage2_block2_branch2b <- conv_stage2_block2_branch2b
I0610 06:42:33.949501 17043 net.cpp:367] bn_stage2_block2_branch2b -> conv_stage2_block2_branch2b (in-place)
I0610 06:42:33.949650 17043 net.cpp:122] Setting up bn_stage2_block2_branch2b
I0610 06:42:33.949654 17043 net.cpp:129] Top shape: 7 128 14 14 (175616)
I0610 06:42:33.949656 17043 net.cpp:137] Memory required for data: 730562588
I0610 06:42:33.949662 17043 layer_factory.hpp:77] Creating layer scale_stage2_block2_branch2b
I0610 06:42:33.949668 17043 net.cpp:84] Creating Layer scale_stage2_block2_branch2b
I0610 06:42:33.949672 17043 net.cpp:406] scale_stage2_block2_branch2b <- conv_stage2_block2_branch2b
I0610 06:42:33.949676 17043 net.cpp:367] scale_stage2_block2_branch2b -> conv_stage2_block2_branch2b (in-place)
I0610 06:42:33.949707 17043 layer_factory.hpp:77] Creating layer scale_stage2_block2_branch2b
I0610 06:42:33.949790 17043 net.cpp:122] Setting up scale_stage2_block2_branch2b
I0610 06:42:33.949795 17043 net.cpp:129] Top shape: 7 128 14 14 (175616)
I0610 06:42:33.949798 17043 net.cpp:137] Memory required for data: 731265052
I0610 06:42:33.949802 17043 layer_factory.hpp:77] Creating layer relu_stage2_block2_branch2b
I0610 06:42:33.949807 17043 net.cpp:84] Creating Layer relu_stage2_block2_branch2b
I0610 06:42:33.949810 17043 net.cpp:406] relu_stage2_block2_branch2b <- conv_stage2_block2_branch2b
I0610 06:42:33.949815 17043 net.cpp:367] relu_stage2_block2_branch2b -> conv_stage2_block2_branch2b (in-place)
I0610 06:42:33.949820 17043 net.cpp:122] Setting up relu_stage2_block2_branch2b
I0610 06:42:33.949823 17043 net.cpp:129] Top shape: 7 128 14 14 (175616)
I0610 06:42:33.949826 17043 net.cpp:137] Memory required for data: 731967516
I0610 06:42:33.949828 17043 layer_factory.hpp:77] Creating layer conv_stage2_block2_branch2c
I0610 06:42:33.949836 17043 net.cpp:84] Creating Layer conv_stage2_block2_branch2c
I0610 06:42:33.949839 17043 net.cpp:406] conv_stage2_block2_branch2c <- conv_stage2_block2_branch2b
I0610 06:42:33.949846 17043 net.cpp:380] conv_stage2_block2_branch2c -> conv_stage2_block2_branch2c
I0610 06:42:33.950770 17043 net.cpp:122] Setting up conv_stage2_block2_branch2c
I0610 06:42:33.950780 17043 net.cpp:129] Top shape: 7 512 14 14 (702464)
I0610 06:42:33.950783 17043 net.cpp:137] Memory required for data: 734777372
I0610 06:42:33.950788 17043 layer_factory.hpp:77] Creating layer bn_stage2_block2_branch2c
I0610 06:42:33.950795 17043 net.cpp:84] Creating Layer bn_stage2_block2_branch2c
I0610 06:42:33.950799 17043 net.cpp:406] bn_stage2_block2_branch2c <- conv_stage2_block2_branch2c
I0610 06:42:33.950804 17043 net.cpp:367] bn_stage2_block2_branch2c -> conv_stage2_block2_branch2c (in-place)
I0610 06:42:33.950958 17043 net.cpp:122] Setting up bn_stage2_block2_branch2c
I0610 06:42:33.950963 17043 net.cpp:129] Top shape: 7 512 14 14 (702464)
I0610 06:42:33.950964 17043 net.cpp:137] Memory required for data: 737587228
I0610 06:42:33.950970 17043 layer_factory.hpp:77] Creating layer scale_stage2_block2_branch2c
I0610 06:42:33.950976 17043 net.cpp:84] Creating Layer scale_stage2_block2_branch2c
I0610 06:42:33.950979 17043 net.cpp:406] scale_stage2_block2_branch2c <- conv_stage2_block2_branch2c
I0610 06:42:33.950984 17043 net.cpp:367] scale_stage2_block2_branch2c -> conv_stage2_block2_branch2c (in-place)
I0610 06:42:33.951012 17043 layer_factory.hpp:77] Creating layer scale_stage2_block2_branch2c
I0610 06:42:33.951102 17043 net.cpp:122] Setting up scale_stage2_block2_branch2c
I0610 06:42:33.951117 17043 net.cpp:129] Top shape: 7 512 14 14 (702464)
I0610 06:42:33.951120 17043 net.cpp:137] Memory required for data: 740397084
I0610 06:42:33.951125 17043 layer_factory.hpp:77] Creating layer eltwise_stage2_block2
I0610 06:42:33.951131 17043 net.cpp:84] Creating Layer eltwise_stage2_block2
I0610 06:42:33.951134 17043 net.cpp:406] eltwise_stage2_block2 <- eltwise_stage2_block1_relu_stage2_block1_0_split_1
I0610 06:42:33.951138 17043 net.cpp:406] eltwise_stage2_block2 <- conv_stage2_block2_branch2c
I0610 06:42:33.951143 17043 net.cpp:380] eltwise_stage2_block2 -> eltwise_stage2_block2
I0610 06:42:33.951164 17043 net.cpp:122] Setting up eltwise_stage2_block2
I0610 06:42:33.951169 17043 net.cpp:129] Top shape: 7 512 14 14 (702464)
I0610 06:42:33.951171 17043 net.cpp:137] Memory required for data: 743206940
I0610 06:42:33.951174 17043 layer_factory.hpp:77] Creating layer relu_stage2_block2
I0610 06:42:33.951179 17043 net.cpp:84] Creating Layer relu_stage2_block2
I0610 06:42:33.951180 17043 net.cpp:406] relu_stage2_block2 <- eltwise_stage2_block2
I0610 06:42:33.951186 17043 net.cpp:367] relu_stage2_block2 -> eltwise_stage2_block2 (in-place)
I0610 06:42:33.951190 17043 net.cpp:122] Setting up relu_stage2_block2
I0610 06:42:33.951195 17043 net.cpp:129] Top shape: 7 512 14 14 (702464)
I0610 06:42:33.951196 17043 net.cpp:137] Memory required for data: 746016796
I0610 06:42:33.951200 17043 layer_factory.hpp:77] Creating layer eltwise_stage2_block2_relu_stage2_block2_0_split
I0610 06:42:33.951205 17043 net.cpp:84] Creating Layer eltwise_stage2_block2_relu_stage2_block2_0_split
I0610 06:42:33.951206 17043 net.cpp:406] eltwise_stage2_block2_relu_stage2_block2_0_split <- eltwise_stage2_block2
I0610 06:42:33.951210 17043 net.cpp:380] eltwise_stage2_block2_relu_stage2_block2_0_split -> eltwise_stage2_block2_relu_stage2_block2_0_split_0
I0610 06:42:33.951216 17043 net.cpp:380] eltwise_stage2_block2_relu_stage2_block2_0_split -> eltwise_stage2_block2_relu_stage2_block2_0_split_1
I0610 06:42:33.951243 17043 net.cpp:122] Setting up eltwise_stage2_block2_relu_stage2_block2_0_split
I0610 06:42:33.951248 17043 net.cpp:129] Top shape: 7 512 14 14 (702464)
I0610 06:42:33.951251 17043 net.cpp:129] Top shape: 7 512 14 14 (702464)
I0610 06:42:33.951253 17043 net.cpp:137] Memory required for data: 751636508
I0610 06:42:33.951256 17043 layer_factory.hpp:77] Creating layer conv_stage2_block3_branch2a
I0610 06:42:33.951264 17043 net.cpp:84] Creating Layer conv_stage2_block3_branch2a
I0610 06:42:33.951267 17043 net.cpp:406] conv_stage2_block3_branch2a <- eltwise_stage2_block2_relu_stage2_block2_0_split_0
I0610 06:42:33.951272 17043 net.cpp:380] conv_stage2_block3_branch2a -> conv_stage2_block3_branch2a
I0610 06:42:33.951763 17043 net.cpp:122] Setting up conv_stage2_block3_branch2a
I0610 06:42:33.951769 17043 net.cpp:129] Top shape: 7 128 14 14 (175616)
I0610 06:42:33.951771 17043 net.cpp:137] Memory required for data: 752338972
I0610 06:42:33.951776 17043 layer_factory.hpp:77] Creating layer bn_stage2_block3_branch2a
I0610 06:42:33.951782 17043 net.cpp:84] Creating Layer bn_stage2_block3_branch2a
I0610 06:42:33.951786 17043 net.cpp:406] bn_stage2_block3_branch2a <- conv_stage2_block3_branch2a
I0610 06:42:33.951792 17043 net.cpp:367] bn_stage2_block3_branch2a -> conv_stage2_block3_branch2a (in-place)
I0610 06:42:33.951936 17043 net.cpp:122] Setting up bn_stage2_block3_branch2a
I0610 06:42:33.951941 17043 net.cpp:129] Top shape: 7 128 14 14 (175616)
I0610 06:42:33.951943 17043 net.cpp:137] Memory required for data: 753041436
I0610 06:42:33.951948 17043 layer_factory.hpp:77] Creating layer scale_stage2_block3_branch2a
I0610 06:42:33.951954 17043 net.cpp:84] Creating Layer scale_stage2_block3_branch2a
I0610 06:42:33.951957 17043 net.cpp:406] scale_stage2_block3_branch2a <- conv_stage2_block3_branch2a
I0610 06:42:33.951961 17043 net.cpp:367] scale_stage2_block3_branch2a -> conv_stage2_block3_branch2a (in-place)
I0610 06:42:33.951992 17043 layer_factory.hpp:77] Creating layer scale_stage2_block3_branch2a
I0610 06:42:33.952087 17043 net.cpp:122] Setting up scale_stage2_block3_branch2a
I0610 06:42:33.952092 17043 net.cpp:129] Top shape: 7 128 14 14 (175616)
I0610 06:42:33.952095 17043 net.cpp:137] Memory required for data: 753743900
I0610 06:42:33.952100 17043 layer_factory.hpp:77] Creating layer relu_stage2_block3_branch2a
I0610 06:42:33.952105 17043 net.cpp:84] Creating Layer relu_stage2_block3_branch2a
I0610 06:42:33.952107 17043 net.cpp:406] relu_stage2_block3_branch2a <- conv_stage2_block3_branch2a
I0610 06:42:33.952111 17043 net.cpp:367] relu_stage2_block3_branch2a -> conv_stage2_block3_branch2a (in-place)
I0610 06:42:33.952116 17043 net.cpp:122] Setting up relu_stage2_block3_branch2a
I0610 06:42:33.952119 17043 net.cpp:129] Top shape: 7 128 14 14 (175616)
I0610 06:42:33.952122 17043 net.cpp:137] Memory required for data: 754446364
I0610 06:42:33.952124 17043 layer_factory.hpp:77] Creating layer conv_stage2_block3_branch2b
I0610 06:42:33.952132 17043 net.cpp:84] Creating Layer conv_stage2_block3_branch2b
I0610 06:42:33.952136 17043 net.cpp:406] conv_stage2_block3_branch2b <- conv_stage2_block3_branch2a
I0610 06:42:33.963965 17043 net.cpp:380] conv_stage2_block3_branch2b -> conv_stage2_block3_branch2b
I0610 06:42:33.966670 17043 net.cpp:122] Setting up conv_stage2_block3_branch2b
I0610 06:42:33.966688 17043 net.cpp:129] Top shape: 7 128 14 14 (175616)
I0610 06:42:33.966694 17043 net.cpp:137] Memory required for data: 755148828
I0610 06:42:33.966706 17043 layer_factory.hpp:77] Creating layer bn_stage2_block3_branch2b
I0610 06:42:33.966720 17043 net.cpp:84] Creating Layer bn_stage2_block3_branch2b
I0610 06:42:33.966727 17043 net.cpp:406] bn_stage2_block3_branch2b <- conv_stage2_block3_branch2b
I0610 06:42:33.966738 17043 net.cpp:367] bn_stage2_block3_branch2b -> conv_stage2_block3_branch2b (in-place)
I0610 06:42:33.967057 17043 net.cpp:122] Setting up bn_stage2_block3_branch2b
I0610 06:42:33.967072 17043 net.cpp:129] Top shape: 7 128 14 14 (175616)
I0610 06:42:33.967078 17043 net.cpp:137] Memory required for data: 755851292
I0610 06:42:33.967092 17043 layer_factory.hpp:77] Creating layer scale_stage2_block3_branch2b
I0610 06:42:33.967103 17043 net.cpp:84] Creating Layer scale_stage2_block3_branch2b
I0610 06:42:33.967108 17043 net.cpp:406] scale_stage2_block3_branch2b <- conv_stage2_block3_branch2b
I0610 06:42:33.967118 17043 net.cpp:367] scale_stage2_block3_branch2b -> conv_stage2_block3_branch2b (in-place)
I0610 06:42:33.967188 17043 layer_factory.hpp:77] Creating layer scale_stage2_block3_branch2b
I0610 06:42:33.967368 17043 net.cpp:122] Setting up scale_stage2_block3_branch2b
I0610 06:42:33.967381 17043 net.cpp:129] Top shape: 7 128 14 14 (175616)
I0610 06:42:33.967386 17043 net.cpp:137] Memory required for data: 756553756
I0610 06:42:33.967396 17043 layer_factory.hpp:77] Creating layer relu_stage2_block3_branch2b
I0610 06:42:33.967406 17043 net.cpp:84] Creating Layer relu_stage2_block3_branch2b
I0610 06:42:33.967412 17043 net.cpp:406] relu_stage2_block3_branch2b <- conv_stage2_block3_branch2b
I0610 06:42:33.967423 17043 net.cpp:367] relu_stage2_block3_branch2b -> conv_stage2_block3_branch2b (in-place)
I0610 06:42:33.967434 17043 net.cpp:122] Setting up relu_stage2_block3_branch2b
I0610 06:42:33.967442 17043 net.cpp:129] Top shape: 7 128 14 14 (175616)
I0610 06:42:33.967447 17043 net.cpp:137] Memory required for data: 757256220
I0610 06:42:33.967453 17043 layer_factory.hpp:77] Creating layer conv_stage2_block3_branch2c
I0610 06:42:33.967469 17043 net.cpp:84] Creating Layer conv_stage2_block3_branch2c
I0610 06:42:33.967475 17043 net.cpp:406] conv_stage2_block3_branch2c <- conv_stage2_block3_branch2b
I0610 06:42:33.967486 17043 net.cpp:380] conv_stage2_block3_branch2c -> conv_stage2_block3_branch2c
I0610 06:42:33.968582 17043 net.cpp:122] Setting up conv_stage2_block3_branch2c
I0610 06:42:33.968600 17043 net.cpp:129] Top shape: 7 512 14 14 (702464)
I0610 06:42:33.968605 17043 net.cpp:137] Memory required for data: 760066076
I0610 06:42:33.968616 17043 layer_factory.hpp:77] Creating layer bn_stage2_block3_branch2c
I0610 06:42:33.968647 17043 net.cpp:84] Creating Layer bn_stage2_block3_branch2c
I0610 06:42:33.968654 17043 net.cpp:406] bn_stage2_block3_branch2c <- conv_stage2_block3_branch2c
I0610 06:42:33.968667 17043 net.cpp:367] bn_stage2_block3_branch2c -> conv_stage2_block3_branch2c (in-place)
I0610 06:42:33.968981 17043 net.cpp:122] Setting up bn_stage2_block3_branch2c
I0610 06:42:33.968996 17043 net.cpp:129] Top shape: 7 512 14 14 (702464)
I0610 06:42:33.969002 17043 net.cpp:137] Memory required for data: 762875932
I0610 06:42:33.969049 17043 layer_factory.hpp:77] Creating layer scale_stage2_block3_branch2c
I0610 06:42:33.969063 17043 net.cpp:84] Creating Layer scale_stage2_block3_branch2c
I0610 06:42:33.969069 17043 net.cpp:406] scale_stage2_block3_branch2c <- conv_stage2_block3_branch2c
I0610 06:42:33.969079 17043 net.cpp:367] scale_stage2_block3_branch2c -> conv_stage2_block3_branch2c (in-place)
I0610 06:42:33.969146 17043 layer_factory.hpp:77] Creating layer scale_stage2_block3_branch2c
I0610 06:42:33.969292 17043 net.cpp:122] Setting up scale_stage2_block3_branch2c
I0610 06:42:33.969301 17043 net.cpp:129] Top shape: 7 512 14 14 (702464)
I0610 06:42:33.969305 17043 net.cpp:137] Memory required for data: 765685788
I0610 06:42:33.969311 17043 layer_factory.hpp:77] Creating layer eltwise_stage2_block3
I0610 06:42:33.969317 17043 net.cpp:84] Creating Layer eltwise_stage2_block3
I0610 06:42:33.969321 17043 net.cpp:406] eltwise_stage2_block3 <- eltwise_stage2_block2_relu_stage2_block2_0_split_1
I0610 06:42:33.969326 17043 net.cpp:406] eltwise_stage2_block3 <- conv_stage2_block3_branch2c
I0610 06:42:33.969333 17043 net.cpp:380] eltwise_stage2_block3 -> eltwise_stage2_block3
I0610 06:42:33.969359 17043 net.cpp:122] Setting up eltwise_stage2_block3
I0610 06:42:33.969365 17043 net.cpp:129] Top shape: 7 512 14 14 (702464)
I0610 06:42:33.969368 17043 net.cpp:137] Memory required for data: 768495644
I0610 06:42:33.969372 17043 layer_factory.hpp:77] Creating layer relu_stage2_block3
I0610 06:42:33.969377 17043 net.cpp:84] Creating Layer relu_stage2_block3
I0610 06:42:33.969379 17043 net.cpp:406] relu_stage2_block3 <- eltwise_stage2_block3
I0610 06:42:33.969386 17043 net.cpp:367] relu_stage2_block3 -> eltwise_stage2_block3 (in-place)
I0610 06:42:33.969393 17043 net.cpp:122] Setting up relu_stage2_block3
I0610 06:42:33.969396 17043 net.cpp:129] Top shape: 7 512 14 14 (702464)
I0610 06:42:33.969399 17043 net.cpp:137] Memory required for data: 771305500
I0610 06:42:33.969403 17043 layer_factory.hpp:77] Creating layer eltwise_stage2_block3_relu_stage2_block3_0_split
I0610 06:42:33.969408 17043 net.cpp:84] Creating Layer eltwise_stage2_block3_relu_stage2_block3_0_split
I0610 06:42:33.969411 17043 net.cpp:406] eltwise_stage2_block3_relu_stage2_block3_0_split <- eltwise_stage2_block3
I0610 06:42:33.969419 17043 net.cpp:380] eltwise_stage2_block3_relu_stage2_block3_0_split -> eltwise_stage2_block3_relu_stage2_block3_0_split_0
I0610 06:42:33.969426 17043 net.cpp:380] eltwise_stage2_block3_relu_stage2_block3_0_split -> eltwise_stage2_block3_relu_stage2_block3_0_split_1
I0610 06:42:33.969460 17043 net.cpp:122] Setting up eltwise_stage2_block3_relu_stage2_block3_0_split
I0610 06:42:33.969465 17043 net.cpp:129] Top shape: 7 512 14 14 (702464)
I0610 06:42:33.969470 17043 net.cpp:129] Top shape: 7 512 14 14 (702464)
I0610 06:42:33.969473 17043 net.cpp:137] Memory required for data: 776925212
I0610 06:42:33.969476 17043 layer_factory.hpp:77] Creating layer conv_stage2_block4_branch2a
I0610 06:42:33.969486 17043 net.cpp:84] Creating Layer conv_stage2_block4_branch2a
I0610 06:42:33.969491 17043 net.cpp:406] conv_stage2_block4_branch2a <- eltwise_stage2_block3_relu_stage2_block3_0_split_0
I0610 06:42:33.969497 17043 net.cpp:380] conv_stage2_block4_branch2a -> conv_stage2_block4_branch2a
I0610 06:42:33.970104 17043 net.cpp:122] Setting up conv_stage2_block4_branch2a
I0610 06:42:33.970111 17043 net.cpp:129] Top shape: 7 128 14 14 (175616)
I0610 06:42:33.970114 17043 net.cpp:137] Memory required for data: 777627676
I0610 06:42:33.970120 17043 layer_factory.hpp:77] Creating layer bn_stage2_block4_branch2a
I0610 06:42:33.970139 17043 net.cpp:84] Creating Layer bn_stage2_block4_branch2a
I0610 06:42:33.970142 17043 net.cpp:406] bn_stage2_block4_branch2a <- conv_stage2_block4_branch2a
I0610 06:42:33.970149 17043 net.cpp:367] bn_stage2_block4_branch2a -> conv_stage2_block4_branch2a (in-place)
I0610 06:42:33.970369 17043 net.cpp:122] Setting up bn_stage2_block4_branch2a
I0610 06:42:33.970378 17043 net.cpp:129] Top shape: 7 128 14 14 (175616)
I0610 06:42:33.970381 17043 net.cpp:137] Memory required for data: 778330140
I0610 06:42:33.970389 17043 layer_factory.hpp:77] Creating layer scale_stage2_block4_branch2a
I0610 06:42:33.970396 17043 net.cpp:84] Creating Layer scale_stage2_block4_branch2a
I0610 06:42:33.970399 17043 net.cpp:406] scale_stage2_block4_branch2a <- conv_stage2_block4_branch2a
I0610 06:42:33.970407 17043 net.cpp:367] scale_stage2_block4_branch2a -> conv_stage2_block4_branch2a (in-place)
I0610 06:42:33.970448 17043 layer_factory.hpp:77] Creating layer scale_stage2_block4_branch2a
I0610 06:42:33.970564 17043 net.cpp:122] Setting up scale_stage2_block4_branch2a
I0610 06:42:33.970571 17043 net.cpp:129] Top shape: 7 128 14 14 (175616)
I0610 06:42:33.970574 17043 net.cpp:137] Memory required for data: 779032604
I0610 06:42:33.970580 17043 layer_factory.hpp:77] Creating layer relu_stage2_block4_branch2a
I0610 06:42:33.970587 17043 net.cpp:84] Creating Layer relu_stage2_block4_branch2a
I0610 06:42:33.970590 17043 net.cpp:406] relu_stage2_block4_branch2a <- conv_stage2_block4_branch2a
I0610 06:42:33.970597 17043 net.cpp:367] relu_stage2_block4_branch2a -> conv_stage2_block4_branch2a (in-place)
I0610 06:42:33.970603 17043 net.cpp:122] Setting up relu_stage2_block4_branch2a
I0610 06:42:33.970608 17043 net.cpp:129] Top shape: 7 128 14 14 (175616)
I0610 06:42:33.970612 17043 net.cpp:137] Memory required for data: 779735068
I0610 06:42:33.970614 17043 layer_factory.hpp:77] Creating layer conv_stage2_block4_branch2b
I0610 06:42:33.970625 17043 net.cpp:84] Creating Layer conv_stage2_block4_branch2b
I0610 06:42:33.970628 17043 net.cpp:406] conv_stage2_block4_branch2b <- conv_stage2_block4_branch2a
I0610 06:42:33.970635 17043 net.cpp:380] conv_stage2_block4_branch2b -> conv_stage2_block4_branch2b
I0610 06:42:33.972416 17043 net.cpp:122] Setting up conv_stage2_block4_branch2b
I0610 06:42:33.972429 17043 net.cpp:129] Top shape: 7 128 14 14 (175616)
I0610 06:42:33.972432 17043 net.cpp:137] Memory required for data: 780437532
I0610 06:42:33.972440 17043 layer_factory.hpp:77] Creating layer bn_stage2_block4_branch2b
I0610 06:42:33.972448 17043 net.cpp:84] Creating Layer bn_stage2_block4_branch2b
I0610 06:42:33.972452 17043 net.cpp:406] bn_stage2_block4_branch2b <- conv_stage2_block4_branch2b
I0610 06:42:33.972460 17043 net.cpp:367] bn_stage2_block4_branch2b -> conv_stage2_block4_branch2b (in-place)
I0610 06:42:33.972661 17043 net.cpp:122] Setting up bn_stage2_block4_branch2b
I0610 06:42:33.972666 17043 net.cpp:129] Top shape: 7 128 14 14 (175616)
I0610 06:42:33.972669 17043 net.cpp:137] Memory required for data: 781139996
I0610 06:42:33.972677 17043 layer_factory.hpp:77] Creating layer scale_stage2_block4_branch2b
I0610 06:42:33.972685 17043 net.cpp:84] Creating Layer scale_stage2_block4_branch2b
I0610 06:42:33.972689 17043 net.cpp:406] scale_stage2_block4_branch2b <- conv_stage2_block4_branch2b
I0610 06:42:33.972694 17043 net.cpp:367] scale_stage2_block4_branch2b -> conv_stage2_block4_branch2b (in-place)
I0610 06:42:33.972735 17043 layer_factory.hpp:77] Creating layer scale_stage2_block4_branch2b
I0610 06:42:33.972849 17043 net.cpp:122] Setting up scale_stage2_block4_branch2b
I0610 06:42:33.972856 17043 net.cpp:129] Top shape: 7 128 14 14 (175616)
I0610 06:42:33.972859 17043 net.cpp:137] Memory required for data: 781842460
I0610 06:42:33.972865 17043 layer_factory.hpp:77] Creating layer relu_stage2_block4_branch2b
I0610 06:42:33.972870 17043 net.cpp:84] Creating Layer relu_stage2_block4_branch2b
I0610 06:42:33.972874 17043 net.cpp:406] relu_stage2_block4_branch2b <- conv_stage2_block4_branch2b
I0610 06:42:33.972893 17043 net.cpp:367] relu_stage2_block4_branch2b -> conv_stage2_block4_branch2b (in-place)
I0610 06:42:33.972900 17043 net.cpp:122] Setting up relu_stage2_block4_branch2b
I0610 06:42:33.972905 17043 net.cpp:129] Top shape: 7 128 14 14 (175616)
I0610 06:42:33.972908 17043 net.cpp:137] Memory required for data: 782544924
I0610 06:42:33.972911 17043 layer_factory.hpp:77] Creating layer conv_stage2_block4_branch2c
I0610 06:42:33.972923 17043 net.cpp:84] Creating Layer conv_stage2_block4_branch2c
I0610 06:42:33.972926 17043 net.cpp:406] conv_stage2_block4_branch2c <- conv_stage2_block4_branch2b
I0610 06:42:33.972934 17043 net.cpp:380] conv_stage2_block4_branch2c -> conv_stage2_block4_branch2c
I0610 06:42:33.974164 17043 net.cpp:122] Setting up conv_stage2_block4_branch2c
I0610 06:42:33.974174 17043 net.cpp:129] Top shape: 7 512 14 14 (702464)
I0610 06:42:33.974179 17043 net.cpp:137] Memory required for data: 785354780
I0610 06:42:33.974185 17043 layer_factory.hpp:77] Creating layer bn_stage2_block4_branch2c
I0610 06:42:33.974195 17043 net.cpp:84] Creating Layer bn_stage2_block4_branch2c
I0610 06:42:33.974200 17043 net.cpp:406] bn_stage2_block4_branch2c <- conv_stage2_block4_branch2c
I0610 06:42:33.974206 17043 net.cpp:367] bn_stage2_block4_branch2c -> conv_stage2_block4_branch2c (in-place)
I0610 06:42:33.974429 17043 net.cpp:122] Setting up bn_stage2_block4_branch2c
I0610 06:42:33.974438 17043 net.cpp:129] Top shape: 7 512 14 14 (702464)
I0610 06:42:33.974442 17043 net.cpp:137] Memory required for data: 788164636
I0610 06:42:33.974450 17043 layer_factory.hpp:77] Creating layer scale_stage2_block4_branch2c
I0610 06:42:33.974458 17043 net.cpp:84] Creating Layer scale_stage2_block4_branch2c
I0610 06:42:33.974462 17043 net.cpp:406] scale_stage2_block4_branch2c <- conv_stage2_block4_branch2c
I0610 06:42:33.974468 17043 net.cpp:367] scale_stage2_block4_branch2c -> conv_stage2_block4_branch2c (in-place)
I0610 06:42:33.974509 17043 layer_factory.hpp:77] Creating layer scale_stage2_block4_branch2c
I0610 06:42:33.974629 17043 net.cpp:122] Setting up scale_stage2_block4_branch2c
I0610 06:42:33.974635 17043 net.cpp:129] Top shape: 7 512 14 14 (702464)
I0610 06:42:33.974639 17043 net.cpp:137] Memory required for data: 790974492
I0610 06:42:33.974645 17043 layer_factory.hpp:77] Creating layer eltwise_stage2_block4
I0610 06:42:33.974653 17043 net.cpp:84] Creating Layer eltwise_stage2_block4
I0610 06:42:33.974658 17043 net.cpp:406] eltwise_stage2_block4 <- eltwise_stage2_block3_relu_stage2_block3_0_split_1
I0610 06:42:33.974663 17043 net.cpp:406] eltwise_stage2_block4 <- conv_stage2_block4_branch2c
I0610 06:42:33.974668 17043 net.cpp:380] eltwise_stage2_block4 -> eltwise_stage2_block4
I0610 06:42:33.974694 17043 net.cpp:122] Setting up eltwise_stage2_block4
I0610 06:42:33.974699 17043 net.cpp:129] Top shape: 7 512 14 14 (702464)
I0610 06:42:33.974704 17043 net.cpp:137] Memory required for data: 793784348
I0610 06:42:33.974706 17043 layer_factory.hpp:77] Creating layer relu_stage2_block4
I0610 06:42:33.974712 17043 net.cpp:84] Creating Layer relu_stage2_block4
I0610 06:42:33.974715 17043 net.cpp:406] relu_stage2_block4 <- eltwise_stage2_block4
I0610 06:42:33.974722 17043 net.cpp:367] relu_stage2_block4 -> eltwise_stage2_block4 (in-place)
I0610 06:42:33.974728 17043 net.cpp:122] Setting up relu_stage2_block4
I0610 06:42:33.974733 17043 net.cpp:129] Top shape: 7 512 14 14 (702464)
I0610 06:42:33.974736 17043 net.cpp:137] Memory required for data: 796594204
I0610 06:42:33.974740 17043 layer_factory.hpp:77] Creating layer eltwise_stage2_block4_relu_stage2_block4_0_split
…
I0610 06:42:34.193670 17043 layer_factory.hpp:77] Creating layer eltwise_stage2_block3_relu_stage2_block3_0_split
I0610 06:42:34.193677 17043 net.cpp:84] Creating Layer eltwise_stage2_block3_relu_stage2_block3_0_split
I0610 06:42:34.193682 17043 net.cpp:406] eltwise_stage2_block3_relu_stage2_block3_0_split <- eltwise_stage2_block3
I0610 06:42:34.193692 17043 net.cpp:380] eltwise_stage2_block3_relu_stage2_block3_0_split -> eltwise_stage2_block3_relu_stage2_block3_0_split_0
I0610 06:42:34.193702 17043 net.cpp:380] eltwise_stage2_block3_relu_stage2_block3_0_split -> eltwise_stage2_block3_relu_stage2_block3_0_split_1
I0610 06:42:34.193756 17043 net.cpp:122] Setting up eltwise_stage2_block3_relu_stage2_block3_0_split
I0610 06:42:34.193766 17043 net.cpp:129] Top shape: 7 512 14 14 (702464)
I0610 06:42:34.193773 17043 net.cpp:129] Top shape: 7 512 14 14 (702464)
I0610 06:42:34.193778 17043 net.cpp:137] Memory required for data: 776925268
I0610 06:42:34.193781 17043 layer_factory.hpp:77] Creating layer conv_stage2_block4_branch2a
I0610 06:42:34.193797 17043 net.cpp:84] Creating Layer conv_stage2_block4_branch2a
I0610 06:42:34.193804 17043 net.cpp:406] conv_stage2_block4_branch2a <- eltwise_stage2_block3_relu_stage2_block3_0_split_0
I0610 06:42:34.193814 17043 net.cpp:380] conv_stage2_block4_branch2a -> conv_stage2_block4_branch2a
I0610 06:42:34.194718 17043 net.cpp:122] Setting up conv_stage2_block4_branch2a
I0610 06:42:34.194732 17043 net.cpp:129] Top shape: 7 128 14 14 (175616)
I0610 06:42:34.194737 17043 net.cpp:137] Memory required for data: 777627732
I0610 06:42:34.194747 17043 layer_factory.hpp:77] Creating layer bn_stage2_block4_branch2a
I0610 06:42:34.194761 17043 net.cpp:84] Creating Layer bn_stage2_block4_branch2a
I0610 06:42:34.194766 17043 net.cpp:406] bn_stage2_block4_branch2a <- conv_stage2_block4_branch2a
I0610 06:42:34.194777 17043 net.cpp:367] bn_stage2_block4_branch2a -> conv_stage2_block4_branch2a (in-place)
I0610 06:42:34.195070 17043 net.cpp:122] Setting up bn_stage2_block4_branch2a
I0610 06:42:34.195082 17043 net.cpp:129] Top shape: 7 128 14 14 (175616)
I0610 06:42:34.195087 17043 net.cpp:137] Memory required for data: 778330196
I0610 06:42:34.195099 17043 layer_factory.hpp:77] Creating layer scale_stage2_block4_branch2a
I0610 06:42:34.195111 17043 net.cpp:84] Creating Layer scale_stage2_block4_branch2a
I0610 06:42:34.195117 17043 net.cpp:406] scale_stage2_block4_branch2a <- conv_stage2_block4_branch2a
I0610 06:42:34.195127 17043 net.cpp:367] scale_stage2_block4_branch2a -> conv_stage2_block4_branch2a (in-place)
I0610 06:42:34.195191 17043 layer_factory.hpp:77] Creating layer scale_stage2_block4_branch2a
I0610 06:42:34.195354 17043 net.cpp:122] Setting up scale_stage2_block4_branch2a
I0610 06:42:34.195365 17043 net.cpp:129] Top shape: 7 128 14 14 (175616)
I0610 06:42:34.195369 17043 net.cpp:137] Memory required for data: 779032660
I0610 06:42:34.195379 17043 layer_factory.hpp:77] Creating layer relu_stage2_block4_branch2a
I0610 06:42:34.195387 17043 net.cpp:84] Creating Layer relu_stage2_block4_branch2a
I0610 06:42:34.195392 17043 net.cpp:406] relu_stage2_block4_branch2a <- conv_stage2_block4_branch2a
I0610 06:42:34.195402 17043 net.cpp:367] relu_stage2_block4_branch2a -> conv_stage2_block4_branch2a (in-place)
I0610 06:42:34.195412 17043 net.cpp:122] Setting up relu_stage2_block4_branch2a
I0610 06:42:34.195420 17043 net.cpp:129] Top shape: 7 128 14 14 (175616)
I0610 06:42:34.195436 17043 net.cpp:137] Memory required for data: 779735124
I0610 06:42:34.195441 17043 layer_factory.hpp:77] Creating layer conv_stage2_block4_branch2b
I0610 06:42:34.195458 17043 net.cpp:84] Creating Layer conv_stage2_block4_branch2b
I0610 06:42:34.195464 17043 net.cpp:406] conv_stage2_block4_branch2b <- conv_stage2_block4_branch2a
I0610 06:42:34.195477 17043 net.cpp:380] conv_stage2_block4_branch2b -> conv_stage2_block4_branch2b
I0610 06:42:34.197845 17043 net.cpp:122] Setting up conv_stage2_block4_branch2b
I0610 06:42:34.197857 17043 net.cpp:129] Top shape: 7 128 14 14 (175616)
I0610 06:42:34.197860 17043 net.cpp:137] Memory required for data: 780437588
I0610 06:42:34.197866 17043 layer_factory.hpp:77] Creating layer bn_stage2_block4_branch2b
I0610 06:42:34.197875 17043 net.cpp:84] Creating Layer bn_stage2_block4_branch2b
I0610 06:42:34.197880 17043 net.cpp:406] bn_stage2_block4_branch2b <- conv_stage2_block4_branch2b
I0610 06:42:34.197885 17043 net.cpp:367] bn_stage2_block4_branch2b -> conv_stage2_block4_branch2b (in-place)
I0610 06:42:34.198060 17043 net.cpp:122] Setting up bn_stage2_block4_branch2b
I0610 06:42:34.198065 17043 net.cpp:129] Top shape: 7 128 14 14 (175616)
I0610 06:42:34.198068 17043 net.cpp:137] Memory required for data: 781140052
I0610 06:42:34.198076 17043 layer_factory.hpp:77] Creating layer scale_stage2_block4_branch2b
I0610 06:42:34.198081 17043 net.cpp:84] Creating Layer scale_stage2_block4_branch2b
I0610 06:42:34.198086 17043 net.cpp:406] scale_stage2_block4_branch2b <- conv_stage2_block4_branch2b
I0610 06:42:34.198089 17043 net.cpp:367] scale_stage2_block4_branch2b -> conv_stage2_block4_branch2b (in-place)
I0610 06:42:34.198127 17043 layer_factory.hpp:77] Creating layer scale_stage2_block4_branch2b
I0610 06:42:34.198225 17043 net.cpp:122] Setting up scale_stage2_block4_branch2b
I0610 06:42:34.198230 17043 net.cpp:129] Top shape: 7 128 14 14 (175616)
I0610 06:42:34.198232 17043 net.cpp:137] Memory required for data: 781842516
I0610 06:42:34.198237 17043 layer_factory.hpp:77] Creating layer relu_stage2_block4_branch2b
I0610 06:42:34.198243 17043 net.cpp:84] Creating Layer relu_stage2_block4_branch2b
I0610 06:42:34.198246 17043 net.cpp:406] relu_stage2_block4_branch2b <- conv_stage2_block4_branch2b
I0610 06:42:34.198251 17043 net.cpp:367] relu_stage2_block4_branch2b -> conv_stage2_block4_branch2b (in-place)
I0610 06:42:34.198266 17043 net.cpp:122] Setting up relu_stage2_block4_branch2b
I0610 06:42:34.198271 17043 net.cpp:129] Top shape: 7 128 14 14 (175616)
I0610 06:42:34.198273 17043 net.cpp:137] Memory required for data: 782544980
I0610 06:42:34.198276 17043 layer_factory.hpp:77] Creating layer conv_stage2_block4_branch2c
I0610 06:42:34.198283 17043 net.cpp:84] Creating Layer conv_stage2_block4_branch2c
I0610 06:42:34.198287 17043 net.cpp:406] conv_stage2_block4_branch2c <- conv_stage2_block4_branch2b
I0610 06:42:34.198293 17043 net.cpp:380] conv_stage2_block4_branch2c -> conv_stage2_block4_branch2c
I0610 06:42:34.198845 17043 net.cpp:122] Setting up conv_stage2_block4_branch2c
I0610 06:42:34.198853 17043 net.cpp:129] Top shape: 7 512 14 14 (702464)
I0610 06:42:34.198854 17043 net.cpp:137] Memory required for data: 785354836
I0610 06:42:34.198859 17043 layer_factory.hpp:77] Creating layer bn_stage2_block4_branch2c
I0610 06:42:34.198865 17043 net.cpp:84] Creating Layer bn_stage2_block4_branch2c
I0610 06:42:34.198868 17043 net.cpp:406] bn_stage2_block4_branch2c <- conv_stage2_block4_branch2c
I0610 06:42:34.198875 17043 net.cpp:367] bn_stage2_block4_branch2c -> conv_stage2_block4_branch2c (in-place)
I0610 06:42:34.199051 17043 net.cpp:122] Setting up bn_stage2_block4_branch2c
I0610 06:42:34.199057 17043 net.cpp:129] Top shape: 7 512 14 14 (702464)
I0610 06:42:34.199059 17043 net.cpp:137] Memory required for data: 788164692
I0610 06:42:34.199066 17043 layer_factory.hpp:77] Creating layer scale_stage2_block4_branch2c
I0610 06:42:34.199070 17043 net.cpp:84] Creating Layer scale_stage2_block4_branch2c
I0610 06:42:34.199074 17043 net.cpp:406] scale_stage2_block4_branch2c <- conv_stage2_block4_branch2c
I0610 06:42:34.199090 17043 net.cpp:367] scale_stage2_block4_branch2c -> conv_stage2_block4_branch2c (in-place)
I0610 06:42:34.199126 17043 layer_factory.hpp:77] Creating layer scale_stage2_block4_branch2c
I0610 06:42:34.199229 17043 net.cpp:122] Setting up scale_stage2_block4_branch2c
I0610 06:42:34.199236 17043 net.cpp:129] Top shape: 7 512 14 14 (702464)
I0610 06:42:34.199239 17043 net.cpp:137] Memory required for data: 790974548
I0610 06:42:34.199244 17043 layer_factory.hpp:77] Creating layer eltwise_stage2_block4
I0610 06:42:34.199249 17043 net.cpp:84] Creating Layer eltwise_stage2_block4
I0610 06:42:34.199252 17043 net.cpp:406] eltwise_stage2_block4 <- eltwise_stage2_block3_relu_stage2_block3_0_split_1
I0610 06:42:34.199256 17043 net.cpp:406] eltwise_stage2_block4 <- conv_stage2_block4_branch2c
I0610 06:42:34.199261 17043 net.cpp:380] eltwise_stage2_block4 -> eltwise_stage2_block4
I0610 06:42:34.199283 17043 net.cpp:122] Setting up eltwise_stage2_block4
I0610 06:42:34.199288 17043 net.cpp:129] Top shape: 7 512 14 14 (702464)
I0610 06:42:34.199290 17043 net.cpp:137] Memory required for data: 793784404
I0610 06:42:34.199293 17043 layer_factory.hpp:77] Creating layer relu_stage2_block4
I0610 06:42:34.199299 17043 net.cpp:84] Creating Layer relu_stage2_block4
I0610 06:42:34.199302 17043 net.cpp:406] relu_stage2_block4 <- eltwise_stage2_block4
I0610 06:42:34.199306 17043 net.cpp:367] relu_stage2_block4 -> eltwise_stage2_block4 (in-place)
I0610 06:42:34.199311 17043 net.cpp:122] Setting up relu_stage2_block4
I0610 06:42:34.199314 17043 net.cpp:129] Top shape: 7 512 14 14 (702464)
I0610 06:42:34.199317 17043 net.cpp:137] Memory required for data: 796594260
I0610 06:42:34.199319 17043 layer_factory.hpp:77] Creating layer eltwise_stage2_block4_relu_stage2_block4_0_split
I0610 06:42:34.199324 17043 net.cpp:84] Creating Layer eltwise_stage2_block4_relu_stage2_block4_0_split
I0610 06:42:34.199327 17043 net.cpp:406] eltwise_stage2_block4_relu_stage2_block4_0_split <- eltwise_stage2_block4
I0610 06:42:34.199332 17043 net.cpp:380] eltwise_stage2_block4_relu_stage2_block4_0_split -> eltwise_stage2_block4_relu_stage2_block4_0_split_0
I0610 06:42:34.199338 17043 net.cpp:380] eltwise_stage2_block4_relu_stage2_block4_0_split -> eltwise_stage2_block4_relu_stage2_block4_0_split_1
I0610 06:42:34.199370 17043 net.cpp:122] Setting up eltwise_stage2_block4_relu_stage2_block4_0_split
I0610 06:42:34.199375 17043 net.cpp:129] Top shape: 7 512 14 14 (702464)
I0610 06:42:34.199378 17043 net.cpp:129] Top shape: 7 512 14 14 (702464)
I0610 06:42:34.199381 17043 net.cpp:137] Memory required for data: 802213972
I0610 06:42:34.199383 17043 layer_factory.hpp:77] Creating layer conv_stage2_block5_branch2a
I0610 06:42:34.199391 17043 net.cpp:84] Creating Layer conv_stage2_block5_branch2a
I0610 06:42:34.199394 17043 net.cpp:406] conv_stage2_block5_branch2a <- eltwise_stage2_block4_relu_stage2_block4_0_split_0
I0610 06:42:34.199401 17043 net.cpp:380] conv_stage2_block5_branch2a -> conv_stage2_block5_branch2a
I0610 06:42:34.200448 17043 net.cpp:122] Setting up conv_stage2_block5_branch2a
I0610 06:42:34.200458 17043 net.cpp:129] Top shape: 7 128 14 14 (175616)
I0610 06:42:34.200460 17043 net.cpp:137] Memory required for data: 802916436
I0610 06:42:34.200466 17043 layer_factory.hpp:77] Creating layer bn_stage2_block5_branch2a
I0610 06:42:34.200474 17043 net.cpp:84] Creating Layer bn_stage2_block5_branch2a
I0610 06:42:34.200479 17043 net.cpp:406] bn_stage2_block5_branch2a <- conv_stage2_block5_branch2a
I0610 06:42:34.200484 17043 net.cpp:367] bn_stage2_block5_branch2a -> conv_stage2_block5_branch2a (in-place)
I0610 06:42:34.200656 17043 net.cpp:122] Setting up bn_stage2_block5_branch2a
I0610 06:42:34.200661 17043 net.cpp:129] Top shape: 7 128 14 14 (175616)
I0610 06:42:34.200664 17043 net.cpp:137] Memory required for data: 803618900
I0610 06:42:34.200670 17043 layer_factory.hpp:77] Creating layer scale_stage2_block5_branch2a
I0610 06:42:34.200678 17043 net.cpp:84] Creating Layer scale_stage2_block5_branch2a
I0610 06:42:34.200691 17043 net.cpp:406] scale_stage2_block5_branch2a <- conv_stage2_block5_branch2a
I0610 06:42:34.200696 17043 net.cpp:367] scale_stage2_block5_branch2a -> conv_stage2_block5_branch2a (in-place)
I0610 06:42:34.200734 17043 layer_factory.hpp:77] Creating layer scale_stage2_block5_branch2a
I0610 06:42:34.200836 17043 net.cpp:122] Setting up scale_stage2_block5_branch2a
I0610 06:42:34.200842 17043 net.cpp:129] Top shape: 7 128 14 14 (175616)
I0610 06:42:34.200845 17043 net.cpp:137] Memory required for data: 804321364
I0610 06:42:34.200850 17043 layer_factory.hpp:77] Creating layer relu_stage2_block5_branch2a
I0610 06:42:34.200856 17043 net.cpp:84] Creating Layer relu_stage2_block5_branch2a
I0610 06:42:34.200860 17043 net.cpp:406] relu_stage2_block5_branch2a <- conv_stage2_block5_branch2a
I0610 06:42:34.200863 17043 net.cpp:367] relu_stage2_block5_branch2a -> conv_stage2_block5_branch2a (in-place)
I0610 06:42:34.200870 17043 net.cpp:122] Setting up relu_stage2_block5_branch2a
I0610 06:42:34.200873 17043 net.cpp:129] Top shape: 7 128 14 14 (175616)
I0610 06:42:34.200876 17043 net.cpp:137] Memory required for data: 805023828
I0610 06:42:34.200878 17043 layer_factory.hpp:77] Creating layer conv_stage2_block5_branch2b
I0610 06:42:34.200886 17043 net.cpp:84] Creating Layer conv_stage2_block5_branch2b
I0610 06:42:34.200889 17043 net.cpp:406] conv_stage2_block5_branch2b <- conv_stage2_block5_branch2a
I0610 06:42:34.200896 17043 net.cpp:380] conv_stage2_block5_branch2b -> conv_stage2_block5_branch2b
I0610 06:42:34.202354 17043 net.cpp:122] Setting up conv_stage2_block5_branch2b
I0610 06:42:34.202364 17043 net.cpp:129] Top shape: 7 128 14 14 (175616)
I0610 06:42:34.202368 17043 net.cpp:137] Memory required for data: 805726292
I0610 06:42:34.202373 17043 layer_factory.hpp:77] Creating layer bn_stage2_block5_branch2b
I0610 06:42:34.202379 17043 net.cpp:84] Creating Layer bn_stage2_block5_branch2b
I0610 06:42:34.202383 17043 net.cpp:406] bn_stage2_block5_branch2b <- conv_stage2_block5_branch2b
I0610 06:42:34.202389 17043 net.cpp:367] bn_stage2_block5_branch2b -> conv_stage2_block5_branch2b (in-place)
I0610 06:42:34.202551 17043 net.cpp:122] Setting up bn_stage2_block5_branch2b
I0610 06:42:34.202556 17043 net.cpp:129] Top shape: 7 128 14 14 (175616)
I0610 06:42:34.202558 17043 net.cpp:137] Memory required for data: 806428756
I0610 06:42:34.202564 17043 layer_factory.hpp:77] Creating layer scale_stage2_block5_branch2b
I0610 06:42:34.202569 17043 net.cpp:84] Creating Layer scale_stage2_block5_branch2b
I0610 06:42:34.202572 17043 net.cpp:406] scale_stage2_block5_branch2b <- conv_stage2_block5_branch2b
I0610 06:42:34.202576 17043 net.cpp:367] scale_stage2_block5_branch2b -> conv_stage2_block5_branch2b (in-place)
I0610 06:42:34.202611 17043 layer_factory.hpp:77] Creating layer scale_stage2_block5_branch2b
I0610 06:42:34.212013 17043 net.cpp:122] Setting up scale_stage2_block5_branch2b
I0610 06:42:34.212025 17043 net.cpp:129] Top shape: 7 128 14 14 (175616)
I0610 06:42:34.212029 17043 net.cpp:137] Memory required for data: 807131220
I0610 06:42:34.212038 17043 layer_factory.hpp:77] Creating layer relu_stage2_block5_branch2b
I0610 06:42:34.212045 17043 net.cpp:84] Creating Layer relu_stage2_block5_branch2b
I0610 06:42:34.212050 17043 net.cpp:406] relu_stage2_block5_branch2b <- conv_stage2_block5_branch2b
I0610 06:42:34.212059 17043 net.cpp:367] relu_stage2_block5_branch2b -> conv_stage2_block5_branch2b (in-place)
I0610 06:42:34.212067 17043 net.cpp:122] Setting up relu_stage2_block5_branch2b
I0610 06:42:34.212074 17043 net.cpp:129] Top shape: 7 128 14 14 (175616)
I0610 06:42:34.212077 17043 net.cpp:137] Memory required for data: 807833684
I0610 06:42:34.212081 17043 layer_factory.hpp:77] Creating layer conv_stage2_block5_branch2c
I0610 06:42:34.212095 17043 net.cpp:84] Creating Layer conv_stage2_block5_branch2c
I0610 06:42:34.212100 17043 net.cpp:406] conv_stage2_block5_branch2c <- conv_stage2_block5_branch2b
I0610 06:42:34.212110 17043 net.cpp:380] conv_stage2_block5_branch2c -> conv_stage2_block5_branch2c
I0610 06:42:34.212999 17043 net.cpp:122] Setting up conv_stage2_block5_branch2c
I0610 06:42:34.213027 17043 net.cpp:129] Top shape: 7 512 14 14 (702464)
I0610 06:42:34.213032 17043 net.cpp:137] Memory required for data: 810643540
I0610 06:42:34.213042 17043 layer_factory.hpp:77] Creating layer bn_stage2_block5_branch2c
I0610 06:42:34.213053 17043 net.cpp:84] Creating Layer bn_stage2_block5_branch2c
I0610 06:42:34.213058 17043 net.cpp:406] bn_stage2_block5_branch2c <- conv_stage2_block5_branch2c
I0610 06:42:34.213068 17043 net.cpp:367] bn_stage2_block5_branch2c -> conv_stage2_block5_branch2c (in-place)
I0610 06:42:34.213946 17043 net.cpp:122] Setting up bn_stage2_block5_branch2c
I0610 06:42:34.213959 17043 net.cpp:129] Top shape: 7 512 14 14 (702464)
I0610 06:42:34.213963 17043 net.cpp:137] Memory required for data: 813453396
I0610 06:42:34.213974 17043 layer_factory.hpp:77] Creating layer scale_stage2_block5_branch2c
I0610 06:42:34.213984 17043 net.cpp:84] Creating Layer scale_stage2_block5_branch2c
I0610 06:42:34.213989 17043 net.cpp:406] scale_stage2_block5_branch2c <- conv_stage2_block5_branch2c
I0610 06:42:34.213996 17043 net.cpp:367] scale_stage2_block5_branch2c -> conv_stage2_block5_branch2c (in-place)
I0610 06:42:34.214059 17043 layer_factory.hpp:77] Creating layer scale_stage2_block5_branch2c
I0610 06:42:34.214212 17043 net.cpp:122] Setting up scale_stage2_block5_branch2c
I0610 06:42:34.214223 17043 net.cpp:129] Top shape: 7 512 14 14 (702464)
I0610 06:42:34.214228 17043 net.cpp:137] Memory required for data: 816263252
I0610 06:42:34.214237 17043 layer_factory.hpp:77] Creating layer eltwise_stage2_block5
I0610 06:42:34.214246 17043 net.cpp:84] Creating Layer eltwise_stage2_block5
I0610 06:42:34.214259 17043 net.cpp:406] eltwise_stage2_block5 <- eltwise_stage2_block4_relu_stage2_block4_0_split_1
I0610 06:42:34.214280 17043 net.cpp:406] eltwise_stage2_block5 <- conv_stage2_block5_branch2c
I0610 06:42:34.214296 17043 net.cpp:380] eltwise_stage2_block5 -> eltwise_stage2_block5
I0610 06:42:34.214349 17043 net.cpp:122] Setting up eltwise_stage2_block5
I0610 06:42:34.214363 17043 net.cpp:129] Top shape: 7 512 14 14 (702464)
I0610 06:42:34.214370 17043 net.cpp:137] Memory required for data: 819073108
I0610 06:42:34.214376 17043 layer_factory.hpp:77] Creating layer relu_stage2_block5
I0610 06:42:34.214388 17043 net.cpp:84] Creating Layer relu_stage2_block5
I0610 06:42:34.214395 17043 net.cpp:406] relu_stage2_block5 <- eltwise_stage2_block5
I0610 06:42:34.214406 17043 net.cpp:367] relu_stage2_block5 -> eltwise_stage2_block5 (in-place)
I0610 06:42:34.214419 17043 net.cpp:122] Setting up relu_stage2_block5
I0610 06:42:34.214428 17043 net.cpp:129] Top shape: 7 512 14 14 (702464)
I0610 06:42:34.214434 17043 net.cpp:137] Memory required for data: 821882964
I0610 06:42:34.214440 17043 layer_factory.hpp:77] Creating layer eltwise_stage2_block5_relu_stage2_block5_0_split
I0610 06:42:34.214452 17043 net.cpp:84] Creating Layer eltwise_stage2_block5_relu_stage2_block5_0_split
I0610 06:42:34.214457 17043 net.cpp:406] eltwise_stage2_block5_relu_stage2_block5_0_split <- eltwise_stage2_block5
I0610 06:42:34.214468 17043 net.cpp:380] eltwise_stage2_block5_relu_stage2_block5_0_split -> eltwise_stage2_block5_relu_stage2_block5_0_split_0
I0610 06:42:34.214486 17043 net.cpp:380] eltwise_stage2_block5_relu_stage2_block5_0_split -> eltwise_stage2_block5_relu_stage2_block5_0_split_1
I0610 06:42:34.214555 17043 net.cpp:122] Setting up eltwise_stage2_block5_relu_stage2_block5_0_split
I0610 06:42:34.214570 17043 net.cpp:129] Top shape: 7 512 14 14 (702464)
I0610 06:42:34.214578 17043 net.cpp:129] Top shape: 7 512 14 14 (702464)
I0610 06:42:34.214584 17043 net.cpp:137] Memory required for data: 827502676
I0610 06:42:34.214591 17043 layer_factory.hpp:77] Creating layer conv_stage3_block0_proj_shortcut
I0610 06:42:34.214613 17043 net.cpp:84] Creating Layer conv_stage3_block0_proj_shortcut
I0610 06:42:34.214622 17043 net.cpp:406] conv_stage3_block0_proj_shortcut <- eltwise_stage2_block5_relu_stage2_block5_0_split_0
I0610 06:42:34.214637 17043 net.cpp:380] conv_stage3_block0_proj_shortcut -> conv_stage3_block0_proj_shortcut
I0610 06:42:34.219980 17043 net.cpp:122] Setting up conv_stage3_block0_proj_shortcut
I0610 06:42:34.219996 17043 net.cpp:129] Top shape: 7 1024 7 7 (351232)
I0610 06:42:34.220000 17043 net.cpp:137] Memory required for data: 828907604
I0610 06:42:34.220007 17043 layer_factory.hpp:77] Creating layer bn_stage3_block0_proj_shortcut
I0610 06:42:34.220018 17043 net.cpp:84] Creating Layer bn_stage3_block0_proj_shortcut
I0610 06:42:34.220023 17043 net.cpp:406] bn_stage3_block0_proj_shortcut <- conv_stage3_block0_proj_shortcut
I0610 06:42:34.220032 17043 net.cpp:367] bn_stage3_block0_proj_shortcut -> conv_stage3_block0_proj_shortcut (in-place)
I0610 06:42:34.220250 17043 net.cpp:122] Setting up bn_stage3_block0_proj_shortcut
I0610 06:42:34.220257 17043 net.cpp:129] Top shape: 7 1024 7 7 (351232)
I0610 06:42:34.220260 17043 net.cpp:137] Memory required for data: 830312532
I0610 06:42:34.220268 17043 layer_factory.hpp:77] Creating layer scale_stage3_block0_proj_shortcut
I0610 06:42:34.220275 17043 net.cpp:84] Creating Layer scale_stage3_block0_proj_shortcut
I0610 06:42:34.220279 17043 net.cpp:406] scale_stage3_block0_proj_shortcut <- conv_stage3_block0_proj_shortcut
I0610 06:42:34.220286 17043 net.cpp:367] scale_stage3_block0_proj_shortcut -> conv_stage3_block0_proj_shortcut (in-place)
I0610 06:42:34.220331 17043 layer_factory.hpp:77] Creating layer scale_stage3_block0_proj_shortcut
I0610 06:42:34.220453 17043 net.cpp:122] Setting up scale_stage3_block0_proj_shortcut
I0610 06:42:34.220460 17043 net.cpp:129] Top shape: 7 1024 7 7 (351232)
I0610 06:42:34.220463 17043 net.cpp:137] Memory required for data: 831717460
I0610 06:42:34.220470 17043 layer_factory.hpp:77] Creating layer conv_stage3_block0_branch2a
I0610 06:42:34.220481 17043 net.cpp:84] Creating Layer conv_stage3_block0_branch2a
I0610 06:42:34.220486 17043 net.cpp:406] conv_stage3_block0_branch2a <- eltwise_stage2_block5_relu_stage2_block5_0_split_1
I0610 06:42:34.220494 17043 net.cpp:380] conv_stage3_block0_branch2a -> conv_stage3_block0_branch2a
I0610 06:42:34.221540 17043 net.cpp:122] Setting up conv_stage3_block0_branch2a
I0610 06:42:34.221549 17043 net.cpp:129] Top shape: 7 256 7 7 (87808)
I0610 06:42:34.221551 17043 net.cpp:137] Memory required for data: 832068692
I0610 06:42:34.221559 17043 layer_factory.hpp:77] Creating layer bn_stage3_block0_branch2a
I0610 06:42:34.221566 17043 net.cpp:84] Creating Layer bn_stage3_block0_branch2a
I0610 06:42:34.221570 17043 net.cpp:406] bn_stage3_block0_branch2a <- conv_stage3_block0_branch2a
I0610 06:42:34.221577 17043 net.cpp:367] bn_stage3_block0_branch2a -> conv_stage3_block0_branch2a (in-place)
I0610 06:42:34.221770 17043 net.cpp:122] Setting up bn_stage3_block0_branch2a
I0610 06:42:34.221776 17043 net.cpp:129] Top shape: 7 256 7 7 (87808)
I0610 06:42:34.221778 17043 net.cpp:137] Memory required for data: 832419924
I0610 06:42:34.221786 17043 layer_factory.hpp:77] Creating layer scale_stage3_block0_branch2a
I0610 06:42:34.221793 17043 net.cpp:84] Creating Layer scale_stage3_block0_branch2a
I0610 06:42:34.221796 17043 net.cpp:406] scale_stage3_block0_branch2a <- conv_stage3_block0_branch2a
I0610 06:42:34.221802 17043 net.cpp:367] scale_stage3_block0_branch2a -> conv_stage3_block0_branch2a (in-place)
I0610 06:42:34.221843 17043 layer_factory.hpp:77] Creating layer scale_stage3_block0_branch2a
I0610 06:42:34.221951 17043 net.cpp:122] Setting up scale_stage3_block0_branch2a
I0610 06:42:34.221956 17043 net.cpp:129] Top shape: 7 256 7 7 (87808)
I0610 06:42:34.221959 17043 net.cpp:137] Memory required for data: 832771156
I0610 06:42:34.221966 17043 layer_factory.hpp:77] Creating layer relu_stage3_block0_branch2a
I0610 06:42:34.221971 17043 net.cpp:84] Creating Layer relu_stage3_block0_branch2a
I0610 06:42:34.221974 17043 net.cpp:406] relu_stage3_block0_branch2a <- conv_stage3_block0_branch2a
I0610 06:42:34.221982 17043 net.cpp:367] relu_stage3_block0_branch2a -> conv_stage3_block0_branch2a (in-place)
I0610 06:42:34.221987 17043 net.cpp:122] Setting up relu_stage3_block0_branch2a
I0610 06:42:34.222007 17043 net.cpp:129] Top shape: 7 256 7 7 (87808)
I0610 06:42:34.222009 17043 net.cpp:137] Memory required for data: 833122388
I0610 06:42:34.222012 17043 layer_factory.hpp:77] Creating layer conv_stage3_block0_branch2b
I0610 06:42:34.222023 17043 net.cpp:84] Creating Layer conv_stage3_block0_branch2b
I0610 06:42:34.222026 17043 net.cpp:406] conv_stage3_block0_branch2b <- conv_stage3_block0_branch2a
I0610 06:42:34.222034 17043 net.cpp:380] conv_stage3_block0_branch2b -> conv_stage3_block0_branch2b
I0610 06:42:34.226718 17043 net.cpp:122] Setting up conv_stage3_block0_branch2b
I0610 06:42:34.226732 17043 net.cpp:129] Top shape: 7 256 7 7 (87808)
I0610 06:42:34.226734 17043 net.cpp:137] Memory required for data: 833473620
I0610 06:42:34.226740 17043 layer_factory.hpp:77] Creating layer bn_stage3_block0_branch2b
I0610 06:42:34.226748 17043 net.cpp:84] Creating Layer bn_stage3_block0_branch2b
I0610 06:42:34.226752 17043 net.cpp:406] bn_stage3_block0_branch2b <- conv_stage3_block0_branch2b
I0610 06:42:34.226759 17043 net.cpp:367] bn_stage3_block0_branch2b -> conv_stage3_block0_branch2b (in-place)
I0610 06:42:34.226925 17043 net.cpp:122] Setting up bn_stage3_block0_branch2b
I0610 06:42:34.226930 17043 net.cpp:129] Top shape: 7 256 7 7 (87808)
I0610 06:42:34.226933 17043 net.cpp:137] Memory required for data: 833824852
I0610 06:42:34.226939 17043 layer_factory.hpp:77] Creating layer scale_stage3_block0_branch2b
I0610 06:42:34.226945 17043 net.cpp:84] Creating Layer scale_stage3_block0_branch2b
I0610 06:42:34.226948 17043 net.cpp:406] scale_stage3_block0_branch2b <- conv_stage3_block0_branch2b
I0610 06:42:34.226953 17043 net.cpp:367] scale_stage3_block0_branch2b -> conv_stage3_block0_branch2b (in-place)
I0610 06:42:34.226987 17043 layer_factory.hpp:77] Creating layer scale_stage3_block0_branch2b
I0610 06:42:34.227078 17043 net.cpp:122] Setting up scale_stage3_block0_branch2b
I0610 06:42:34.227083 17043 net.cpp:129] Top shape: 7 256 7 7 (87808)
I0610 06:42:34.227087 17043 net.cpp:137] Memory required for data: 834176084
I0610 06:42:34.227092 17043 layer_factory.hpp:77] Creating layer relu_stage3_block0_branch2b
I0610 06:42:34.227095 17043 net.cpp:84] Creating Layer relu_stage3_block0_branch2b
I0610 06:42:34.227098 17043 net.cpp:406] relu_stage3_block0_branch2b <- conv_stage3_block0_branch2b
I0610 06:42:34.227104 17043 net.cpp:367] relu_stage3_block0_branch2b -> conv_stage3_block0_branch2b (in-place)
I0610 06:42:34.227109 17043 net.cpp:122] Setting up relu_stage3_block0_branch2b
I0610 06:42:34.227113 17043 net.cpp:129] Top shape: 7 256 7 7 (87808)
I0610 06:42:34.227115 17043 net.cpp:137] Memory required for data: 834527316
I0610 06:42:34.227118 17043 layer_factory.hpp:77] Creating layer conv_stage3_block0_branch2c
I0610 06:42:34.227128 17043 net.cpp:84] Creating Layer conv_stage3_block0_branch2c
I0610 06:42:34.227130 17043 net.cpp:406] conv_stage3_block0_branch2c <- conv_stage3_block0_branch2b
I0610 06:42:34.227136 17043 net.cpp:380] conv_stage3_block0_branch2c -> conv_stage3_block0_branch2c
I0610 06:42:34.229048 17043 net.cpp:122] Setting up conv_stage3_block0_branch2c
I0610 06:42:34.229058 17043 net.cpp:129] Top shape: 7 1024 7 7 (351232)
I0610 06:42:34.229060 17043 net.cpp:137] Memory required for data: 835932244
I0610 06:42:34.229066 17043 layer_factory.hpp:77] Creating layer bn_stage3_block0_branch2c
I0610 06:42:34.229074 17043 net.cpp:84] Creating Layer bn_stage3_block0_branch2c
I0610 06:42:34.229077 17043 net.cpp:406] bn_stage3_block0_branch2c <- conv_stage3_block0_branch2c
I0610 06:42:34.229084 17043 net.cpp:367] bn_stage3_block0_branch2c -> conv_stage3_block0_branch2c (in-place)
I0610 06:42:34.229246 17043 net.cpp:122] Setting up bn_stage3_block0_branch2c
I0610 06:42:34.229252 17043 net.cpp:129] Top shape: 7 1024 7 7 (351232)
I0610 06:42:34.229254 17043 net.cpp:137] Memory required for data: 837337172
I0610 06:42:34.229260 17043 layer_factory.hpp:77] Creating layer scale_stage3_block0_branch2c
I0610 06:42:34.229266 17043 net.cpp:84] Creating Layer scale_stage3_block0_branch2c
I0610 06:42:34.229269 17043 net.cpp:406] scale_stage3_block0_branch2c <- conv_stage3_block0_branch2c
I0610 06:42:34.229288 17043 net.cpp:367] scale_stage3_block0_branch2c -> conv_stage3_block0_branch2c (in-place)
I0610 06:42:34.229326 17043 layer_factory.hpp:77] Creating layer scale_stage3_block0_branch2c
I0610 06:42:34.229421 17043 net.cpp:122] Setting up scale_stage3_block0_branch2c
I0610 06:42:34.229426 17043 net.cpp:129] Top shape: 7 1024 7 7 (351232)
I0610 06:42:34.229429 17043 net.cpp:137] Memory required for data: 838742100
I0610 06:42:34.229434 17043 layer_factory.hpp:77] Creating layer eltwise_stage3_block0
I0610 06:42:34.229439 17043 net.cpp:84] Creating Layer eltwise_stage3_block0
I0610 06:42:34.229441 17043 net.cpp:406] eltwise_stage3_block0 <- conv_stage3_block0_proj_shortcut
I0610 06:42:34.229446 17043 net.cpp:406] eltwise_stage3_block0 <- conv_stage3_block0_branch2c
I0610 06:42:34.229452 17043 net.cpp:380] eltwise_stage3_block0 -> eltwise_stage3_block0
I0610 06:42:34.229473 17043 net.cpp:122] Setting up eltwise_stage3_block0
I0610 06:42:34.229477 17043 net.cpp:129] Top shape: 7 1024 7 7 (351232)
I0610 06:42:34.229480 17043 net.cpp:137] Memory required for data: 840147028
I0610 06:42:34.229482 17043 layer_factory.hpp:77] Creating layer relu_stage3_block0
I0610 06:42:34.229487 17043 net.cpp:84] Creating Layer relu_stage3_block0
I0610 06:42:34.229490 17043 net.cpp:406] relu_stage3_block0 <- eltwise_stage3_block0
I0610 06:42:34.229496 17043 net.cpp:367] relu_stage3_block0 -> eltwise_stage3_block0 (in-place)
I0610 06:42:34.229501 17043 net.cpp:122] Setting up relu_stage3_block0
I0610 06:42:34.229503 17043 net.cpp:129] Top shape: 7 1024 7 7 (351232)
I0610 06:42:34.229506 17043 net.cpp:137] Memory required for data: 841551956
I0610 06:42:34.229508 17043 layer_factory.hpp:77] Creating layer eltwise_stage3_block0_relu_stage3_block0_0_split
I0610 06:42:34.229513 17043 net.cpp:84] Creating Layer eltwise_stage3_block0_relu_stage3_block0_0_split
I0610 06:42:34.229516 17043 net.cpp:406] eltwise_stage3_block0_relu_stage3_block0_0_split <- eltwise_stage3_block0
I0610 06:42:34.229519 17043 net.cpp:380] eltwise_stage3_block0_relu_stage3_block0_0_split -> eltwise_stage3_block0_relu_stage3_block0_0_split_0
I0610 06:42:34.229526 17043 net.cpp:380] eltwise_stage3_block0_relu_stage3_block0_0_split -> eltwise_stage3_block0_relu_stage3_block0_0_split_1
I0610 06:42:34.229554 17043 net.cpp:122] Setting up eltwise_stage3_block0_relu_stage3_block0_0_split
I0610 06:42:34.229558 17043 net.cpp:129] Top shape: 7 1024 7 7 (351232)
I0610 06:42:34.229562 17043 net.cpp:129] Top shape: 7 1024 7 7 (351232)
I0610 06:42:34.229564 17043 net.cpp:137] Memory required for data: 844361812
I0610 06:42:34.229566 17043 layer_factory.hpp:77] Creating layer conv_stage3_block1_branch2a
I0610 06:42:34.235839 17043 net.cpp:84] Creating Layer conv_stage3_block1_branch2a
I0610 06:42:34.235852 17043 net.cpp:406] conv_stage3_block1_branch2a <- eltwise_stage3_block0_relu_stage3_block0_0_split_0
I0610 06:42:34.235863 17043 net.cpp:380] conv_stage3_block1_branch2a -> conv_stage3_block1_branch2a
I0610 06:42:34.239605 17043 net.cpp:122] Setting up conv_stage3_block1_branch2a
I0610 06:42:34.239624 17043 net.cpp:129] Top shape: 7 256 7 7 (87808)
I0610 06:42:34.239627 17043 net.cpp:137] Memory required for data: 844713044
I0610 06:42:34.239637 17043 layer_factory.hpp:77] Creating layer bn_stage3_block1_branch2a
I0610 06:42:34.239648 17043 net.cpp:84] Creating Layer bn_stage3_block1_branch2a
I0610 06:42:34.239653 17043 net.cpp:406] bn_stage3_block1_branch2a <- conv_stage3_block1_branch2a
I0610 06:42:34.239662 17043 net.cpp:367] bn_stage3_block1_branch2a -> conv_stage3_block1_branch2a (in-place)
I0610 06:42:34.239998 17043 net.cpp:122] Setting up bn_stage3_block1_branch2a
I0610 06:42:34.240015 17043 net.cpp:129] Top shape: 7 256 7 7 (87808)
I0610 06:42:34.240020 17043 net.cpp:137] Memory required for data: 845064276
I0610 06:42:34.240036 17043 layer_factory.hpp:77] Creating layer scale_stage3_block1_branch2a
I0610 06:42:34.240046 17043 net.cpp:84] Creating Layer scale_stage3_block1_branch2a
I0610 06:42:34.240069 17043 net.cpp:406] scale_stage3_block1_branch2a <- conv_stage3_block1_branch2a
I0610 06:42:34.240080 17043 net.cpp:367] scale_stage3_block1_branch2a -> conv_stage3_block1_branch2a (in-place)
I0610 06:42:34.240161 17043 layer_factory.hpp:77] Creating layer scale_stage3_block1_branch2a
I0610 06:42:34.240355 17043 net.cpp:122] Setting up scale_stage3_block1_branch2a
I0610 06:42:34.240370 17043 net.cpp:129] Top shape: 7 256 7 7 (87808)
I0610 06:42:34.240375 17043 net.cpp:137] Memory required for data: 845415508
I0610 06:42:34.240386 17043 layer_factory.hpp:77] Creating layer relu_stage3_block1_branch2a
I0610 06:42:34.240396 17043 net.cpp:84] Creating Layer relu_stage3_block1_branch2a
I0610 06:42:34.240402 17043 net.cpp:406] relu_stage3_block1_branch2a <- conv_stage3_block1_branch2a
I0610 06:42:34.240414 17043 net.cpp:367] relu_stage3_block1_branch2a -> conv_stage3_block1_branch2a (in-place)
I0610 06:42:34.240425 17043 net.cpp:122] Setting up relu_stage3_block1_branch2a
I0610 06:42:34.240433 17043 net.cpp:129] Top shape: 7 256 7 7 (87808)
I0610 06:42:34.240438 17043 net.cpp:137] Memory required for data: 845766740
I0610 06:42:34.240444 17043 layer_factory.hpp:77] Creating layer conv_stage3_block1_branch2b
I0610 06:42:34.240463 17043 net.cpp:84] Creating Layer conv_stage3_block1_branch2b
I0610 06:42:34.240469 17043 net.cpp:406] conv_stage3_block1_branch2b <- conv_stage3_block1_branch2a
I0610 06:42:34.240481 17043 net.cpp:380] conv_stage3_block1_branch2b -> conv_stage3_block1_branch2b
I0610 06:42:34.245461 17043 net.cpp:122] Setting up conv_stage3_block1_branch2b
I0610 06:42:34.245479 17043 net.cpp:129] Top shape: 7 256 7 7 (87808)
I0610 06:42:34.245483 17043 net.cpp:137] Memory required for data: 846117972
I0610 06:42:34.245493 17043 layer_factory.hpp:77] Creating layer bn_stage3_block1_branch2b
I0610 06:42:34.245503 17043 net.cpp:84] Creating Layer bn_stage3_block1_branch2b
I0610 06:42:34.245508 17043 net.cpp:406] bn_stage3_block1_branch2b <- conv_stage3_block1_branch2b
I0610 06:42:34.245515 17043 net.cpp:367] bn_stage3_block1_branch2b -> conv_stage3_block1_branch2b (in-place)
I0610 06:42:34.245719 17043 net.cpp:122] Setting up bn_stage3_block1_branch2b
I0610 06:42:34.245726 17043 net.cpp:129] Top shape: 7 256 7 7 (87808)
I0610 06:42:34.245729 17043 net.cpp:137] Memory required for data: 846469204
I0610 06:42:34.245736 17043 layer_factory.hpp:77] Creating layer scale_stage3_block1_branch2b
I0610 06:42:34.245743 17043 net.cpp:84] Creating Layer scale_stage3_block1_branch2b
I0610 06:42:34.245748 17043 net.cpp:406] scale_stage3_block1_branch2b <- conv_stage3_block1_branch2b
I0610 06:42:34.245753 17043 net.cpp:367] scale_stage3_block1_branch2b -> conv_stage3_block1_branch2b (in-place)
I0610 06:42:34.245800 17043 layer_factory.hpp:77] Creating layer scale_stage3_block1_branch2b
I0610 06:42:34.245919 17043 net.cpp:122] Setting up scale_stage3_block1_branch2b
I0610 06:42:34.245926 17043 net.cpp:129] Top shape: 7 256 7 7 (87808)
I0610 06:42:34.245930 17043 net.cpp:137] Memory required for data: 846820436
I0610 06:42:34.245936 17043 layer_factory.hpp:77] Creating layer relu_stage3_block1_branch2b
I0610 06:42:34.245942 17043 net.cpp:84] Creating Layer relu_stage3_block1_branch2b
I0610 06:42:34.245946 17043 net.cpp:406] relu_stage3_block1_branch2b <- conv_stage3_block1_branch2b
I0610 06:42:34.245954 17043 net.cpp:367] relu_stage3_block1_branch2b -> conv_stage3_block1_branch2b (in-place)
I0610 06:42:34.245959 17043 net.cpp:122] Setting up relu_stage3_block1_branch2b
I0610 06:42:34.245965 17043 net.cpp:129] Top shape: 7 256 7 7 (87808)
I0610 06:42:34.245967 17043 net.cpp:137] Memory required for data: 847171668
I0610 06:42:34.245970 17043 layer_factory.hpp:77] Creating layer conv_stage3_block1_branch2c
I0610 06:42:34.245981 17043 net.cpp:84] Creating Layer conv_stage3_block1_branch2c
I0610 06:42:34.245985 17043 net.cpp:406] conv_stage3_block1_branch2c <- conv_stage3_block1_branch2b
I0610 06:42:34.245991 17043 net.cpp:380] conv_stage3_block1_branch2c -> conv_stage3_block1_branch2c
I0610 06:42:34.248508 17043 net.cpp:122] Setting up conv_stage3_block1_branch2c
I0610 06:42:34.248545 17043 net.cpp:129] Top shape: 7 1024 7 7 (351232)
I0610 06:42:34.248549 17043 net.cpp:137] Memory required for data: 848576596
I0610 06:42:34.248556 17043 layer_factory.hpp:77] Creating layer bn_stage3_block1_branch2c
I0610 06:42:34.248567 17043 net.cpp:84] Creating Layer bn_stage3_block1_branch2c
I0610 06:42:34.248571 17043 net.cpp:406] bn_stage3_block1_branch2c <- conv_stage3_block1_branch2c
I0610 06:42:34.248579 17043 net.cpp:367] bn_stage3_block1_branch2c -> conv_stage3_block1_branch2c (in-place)
I0610 06:42:34.248805 17043 net.cpp:122] Setting up bn_stage3_block1_branch2c
I0610 06:42:34.248812 17043 net.cpp:129] Top shape: 7 1024 7 7 (351232)
I0610 06:42:34.248816 17043 net.cpp:137] Memory required for data: 849981524
I0610 06:42:34.248824 17043 layer_factory.hpp:77] Creating layer scale_stage3_block1_branch2c
I0610 06:42:34.248831 17043 net.cpp:84] Creating Layer scale_stage3_block1_branch2c
I0610 06:42:34.248834 17043 net.cpp:406] scale_stage3_block1_branch2c <- conv_stage3_block1_branch2c
I0610 06:42:34.248839 17043 net.cpp:367] scale_stage3_block1_branch2c -> conv_stage3_block1_branch2c (in-place)
I0610 06:42:34.248890 17043 layer_factory.hpp:77] Creating layer scale_stage3_block1_branch2c
I0610 06:42:34.249020 17043 net.cpp:122] Setting up scale_stage3_block1_branch2c
I0610 06:42:34.249027 17043 net.cpp:129] Top shape: 7 1024 7 7 (351232)
I0610 06:42:34.249030 17043 net.cpp:137] Memory required for data: 851386452
I0610 06:42:34.249037 17043 layer_factory.hpp:77] Creating layer eltwise_stage3_block1
I0610 06:42:34.249047 17043 net.cpp:84] Creating Layer eltwise_stage3_block1
I0610 06:42:34.249053 17043 net.cpp:406] eltwise_stage3_block1 <- eltwise_stage3_block0_relu_stage3_block0_0_split_1
I0610 06:42:34.249059 17043 net.cpp:406] eltwise_stage3_block1 <- conv_stage3_block1_branch2c
I0610 06:42:34.249070 17043 net.cpp:380] eltwise_stage3_block1 -> eltwise_stage3_block1
I0610 06:42:34.249106 17043 net.cpp:122] Setting up eltwise_stage3_block1
I0610 06:42:34.249116 17043 net.cpp:129] Top shape: 7 1024 7 7 (351232)
I0610 06:42:34.249121 17043 net.cpp:137] Memory required for data: 852791380
I0610 06:42:34.249126 17043 layer_factory.hpp:77] Creating layer relu_stage3_block1
I0610 06:42:34.249138 17043 net.cpp:84] Creating Layer relu_stage3_block1
I0610 06:42:34.249143 17043 net.cpp:406] relu_stage3_block1 <- eltwise_stage3_block1
I0610 06:42:34.249150 17043 net.cpp:367] relu_stage3_block1 -> eltwise_stage3_block1 (in-place)
I0610 06:42:34.249156 17043 net.cpp:122] Setting up relu_stage3_block1
I0610 06:42:34.249161 17043 net.cpp:129] Top shape: 7 1024 7 7 (351232)
I0610 06:42:34.249164 17043 net.cpp:137] Memory required for data: 854196308
I0610 06:42:34.249167 17043 layer_factory.hpp:77] Creating layer eltwise_stage3_block1_relu_stage3_block1_0_split
I0610 06:42:34.249173 17043 net.cpp:84] Creating Layer eltwise_stage3_block1_relu_stage3_block1_0_split
I0610 06:42:34.249176 17043 net.cpp:406] eltwise_stage3_block1_relu_stage3_block1_0_split <- eltwise_stage3_block1
I0610 06:42:34.249182 17043 net.cpp:380] eltwise_stage3_block1_relu_stage3_block1_0_split -> eltwise_stage3_block1_relu_stage3_block1_0_split_0
I0610 06:42:34.249191 17043 net.cpp:380] eltwise_stage3_block1_relu_stage3_block1_0_split -> eltwise_stage3_block1_relu_stage3_block1_0_split_1
I0610 06:42:34.249228 17043 net.cpp:122] Setting up eltwise_stage3_block1_relu_stage3_block1_0_split
I0610 06:42:34.249233 17043 net.cpp:129] Top shape: 7 1024 7 7 (351232)
I0610 06:42:34.249238 17043 net.cpp:129] Top shape: 7 1024 7 7 (351232)
I0610 06:42:34.249240 17043 net.cpp:137] Memory required for data: 857006164
I0610 06:42:34.249244 17043 layer_factory.hpp:77] Creating layer conv_stage3_block2_branch2a
I0610 06:42:34.249258 17043 net.cpp:84] Creating Layer conv_stage3_block2_branch2a
I0610 06:42:34.249261 17043 net.cpp:406] conv_stage3_block2_branch2a <- eltwise_stage3_block1_relu_stage3_block1_0_split_0
I0610 06:42:34.249269 17043 net.cpp:380] conv_stage3_block2_branch2a -> conv_stage3_block2_branch2a
I0610 06:42:34.251592 17043 net.cpp:122] Setting up conv_stage3_block2_branch2a
I0610 06:42:34.251608 17043 net.cpp:129] Top shape: 7 256 7 7 (87808)
I0610 06:42:34.251613 17043 net.cpp:137] Memory required for data: 857357396
I0610 06:42:34.251622 17043 layer_factory.hpp:77] Creating layer bn_stage3_block2_branch2a
I0610 06:42:34.251631 17043 net.cpp:84] Creating Layer bn_stage3_block2_branch2a
I0610 06:42:34.251636 17043 net.cpp:406] bn_stage3_block2_branch2a <- conv_stage3_block2_branch2a
I0610 06:42:34.251652 17043 net.cpp:367] bn_stage3_block2_branch2a -> conv_stage3_block2_branch2a (in-place)
I0610 06:42:34.251899 17043 net.cpp:122] Setting up bn_stage3_block2_branch2a
I0610 06:42:34.251909 17043 net.cpp:129] Top shape: 7 256 7 7 (87808)
I0610 06:42:34.251912 17043 net.cpp:137] Memory required for data: 857708628
I0610 06:42:34.251922 17043 layer_factory.hpp:77] Creating layer scale_stage3_block2_branch2a
I0610 06:42:34.251931 17043 net.cpp:84] Creating Layer scale_stage3_block2_branch2a
I0610 06:42:34.251935 17043 net.cpp:406] scale_stage3_block2_branch2a <- conv_stage3_block2_branch2a
I0610 06:42:34.251945 17043 net.cpp:367] scale_stage3_block2_branch2a -> conv_stage3_block2_branch2a (in-place)
I0610 06:42:34.252002 17043 layer_factory.hpp:77] Creating layer scale_stage3_block2_branch2a
I0610 06:42:34.252144 17043 net.cpp:122] Setting up scale_stage3_block2_branch2a
I0610 06:42:34.252156 17043 net.cpp:129] Top shape: 7 256 7 7 (87808)
I0610 06:42:34.252159 17043 net.cpp:137] Memory required for data: 858059860
I0610 06:42:34.252167 17043 layer_factory.hpp:77] Creating layer relu_stage3_block2_branch2a
I0610 06:42:34.252176 17043 net.cpp:84] Creating Layer relu_stage3_block2_branch2a
I0610 06:42:34.252179 17043 net.cpp:406] relu_stage3_block2_branch2a <- conv_stage3_block2_branch2a
I0610 06:42:34.252187 17043 net.cpp:367] relu_stage3_block2_branch2a -> conv_stage3_block2_branch2a (in-place)
I0610 06:42:34.252194 17043 net.cpp:122] Setting up relu_stage3_block2_branch2a
I0610 06:42:34.252200 17043 net.cpp:129] Top shape: 7 256 7 7 (87808)
I0610 06:42:34.252203 17043 net.cpp:137] Memory required for data: 858411092
I0610 06:42:34.252207 17043 layer_factory.hpp:77] Creating layer conv_stage3_block2_branch2b
I0610 06:42:34.252221 17043 net.cpp:84] Creating Layer conv_stage3_block2_branch2b
I0610 06:42:34.252228 17043 net.cpp:406] conv_stage3_block2_branch2b <- conv_stage3_block2_branch2a
I0610 06:42:34.252238 17043 net.cpp:380] conv_stage3_block2_branch2b -> conv_stage3_block2_branch2b
I0610 06:42:34.257483 17043 net.cpp:122] Setting up conv_stage3_block2_branch2b
I0610 06:42:34.257500 17043 net.cpp:129] Top shape: 7 256 7 7 (87808)
I0610 06:42:34.257503 17043 net.cpp:137] Memory required for data: 858762324
I0610 06:42:34.257510 17043 layer_factory.hpp:77] Creating layer bn_stage3_block2_branch2b
I0610 06:42:34.257519 17043 net.cpp:84] Creating Layer bn_stage3_block2_branch2b
I0610 06:42:34.257524 17043 net.cpp:406] bn_stage3_block2_branch2b <- conv_stage3_block2_branch2b
I0610 06:42:34.257530 17043 net.cpp:367] bn_stage3_block2_branch2b -> conv_stage3_block2_branch2b (in-place)
I0610 06:42:34.257695 17043 net.cpp:122] Setting up bn_stage3_block2_branch2b
I0610 06:42:34.257700 17043 net.cpp:129] Top shape: 7 256 7 7 (87808)
I0610 06:42:34.257702 17043 net.cpp:137] Memory required for data: 859113556
I0610 06:42:34.257709 17043 layer_factory.hpp:77] Creating layer scale_stage3_block2_branch2b
I0610 06:42:34.257714 17043 net.cpp:84] Creating Layer scale_stage3_block2_branch2b
I0610 06:42:34.257717 17043 net.cpp:406] scale_stage3_block2_branch2b <- conv_stage3_block2_branch2b
I0610 06:42:34.257725 17043 net.cpp:367] scale_stage3_block2_branch2b -> conv_stage3_block2_branch2b (in-place)
I0610 06:42:34.257761 17043 layer_factory.hpp:77] Creating layer scale_stage3_block2_branch2b
I0610 06:42:34.257851 17043 net.cpp:122] Setting up scale_stage3_block2_branch2b
I0610 06:42:34.257856 17043 net.cpp:129] Top shape: 7 256 7 7 (87808)
I0610 06:42:34.257858 17043 net.cpp:137] Memory required for data: 859464788
I0610 06:42:34.257863 17043 layer_factory.hpp:77] Creating layer relu_stage3_block2_branch2b
I0610 06:42:34.257880 17043 net.cpp:84] Creating Layer relu_stage3_block2_branch2b
I0610 06:42:34.257884 17043 net.cpp:406] relu_stage3_block2_branch2b <- conv_stage3_block2_branch2b
I0610 06:42:34.257889 17043 net.cpp:367] relu_stage3_block2_branch2b -> conv_stage3_block2_branch2b (in-place)
I0610 06:42:34.257894 17043 net.cpp:122] Setting up relu_stage3_block2_branch2b
I0610 06:42:34.257897 17043 net.cpp:129] Top shape: 7 256 7 7 (87808)
I0610 06:42:34.257899 17043 net.cpp:137] Memory required for data: 859816020
I0610 06:42:34.257901 17043 layer_factory.hpp:77] Creating layer conv_stage3_block2_branch2c
I0610 06:42:34.257915 17043 net.cpp:84] Creating Layer conv_stage3_block2_branch2c
I0610 06:42:34.257920 17043 net.cpp:406] conv_stage3_block2_branch2c <- conv_stage3_block2_branch2b
I0610 06:42:34.257925 17043 net.cpp:380] conv_stage3_block2_branch2c -> conv_stage3_block2_branch2c
I0610 06:42:34.259899 17043 net.cpp:122] Setting up conv_stage3_block2_branch2c
I0610 06:42:34.259909 17043 net.cpp:129] Top shape: 7 1024 7 7 (351232)
I0610 06:42:34.259912 17043 net.cpp:137] Memory required for data: 861220948
I0610 06:42:34.259918 17043 layer_factory.hpp:77] Creating layer bn_stage3_block2_branch2c
I0610 06:42:34.259924 17043 net.cpp:84] Creating Layer bn_stage3_block2_branch2c
I0610 06:42:34.259927 17043 net.cpp:406] bn_stage3_block2_branch2c <- conv_stage3_block2_branch2c
I0610 06:42:34.259933 17043 net.cpp:367] bn_stage3_block2_branch2c -> conv_stage3_block2_branch2c (in-place)
I0610 06:42:34.260102 17043 net.cpp:122] Setting up bn_stage3_block2_branch2c
I0610 06:42:34.260107 17043 net.cpp:129] Top shape: 7 1024 7 7 (351232)
I0610 06:42:34.260108 17043 net.cpp:137] Memory required for data: 862625876
I0610 06:42:34.260114 17043 layer_factory.hpp:77] Creating layer scale_stage3_block2_branch2c
I0610 06:42:34.260119 17043 net.cpp:84] Creating Layer scale_stage3_block2_branch2c
I0610 06:42:34.260123 17043 net.cpp:406] scale_stage3_block2_branch2c <- conv_stage3_block2_branch2c
I0610 06:42:34.260128 17043 net.cpp:367] scale_stage3_block2_branch2c -> conv_stage3_block2_branch2c (in-place)
I0610 06:42:34.260164 17043 layer_factory.hpp:77] Creating layer scale_stage3_block2_branch2c
I0610 06:42:34.260260 17043 net.cpp:122] Setting up scale_stage3_block2_branch2c
I0610 06:42:34.260267 17043 net.cpp:129] Top shape: 7 1024 7 7 (351232)
I0610 06:42:34.260268 17043 net.cpp:137] Memory required for data: 864030804
I0610 06:42:34.260273 17043 layer_factory.hpp:77] Creating layer eltwise_stage3_block2
I0610 06:42:34.260279 17043 net.cpp:84] Creating Layer eltwise_stage3_block2
I0610 06:42:34.260282 17043 net.cpp:406] eltwise_stage3_block2 <- eltwise_stage3_block1_relu_stage3_block1_0_split_1
I0610 06:42:34.260287 17043 net.cpp:406] eltwise_stage3_block2 <- conv_stage3_block2_branch2c
I0610 06:42:34.260293 17043 net.cpp:380] eltwise_stage3_block2 -> eltwise_stage3_block2
I0610 06:42:34.260311 17043 net.cpp:122] Setting up eltwise_stage3_block2
I0610 06:42:34.260318 17043 net.cpp:129] Top shape: 7 1024 7 7 (351232)
I0610 06:42:34.260319 17043 net.cpp:137] Memory required for data: 865435732
I0610 06:42:34.260323 17043 layer_factory.hpp:77] Creating layer relu_stage3_block2
I0610 06:42:34.260326 17043 net.cpp:84] Creating Layer relu_stage3_block2
I0610 06:42:34.260329 17043 net.cpp:406] relu_stage3_block2 <- eltwise_stage3_block2
I0610 06:42:34.260334 17043 net.cpp:367] relu_stage3_block2 -> eltwise_stage3_block2 (in-place)
I0610 06:42:34.260339 17043 net.cpp:122] Setting up relu_stage3_block2
I0610 06:42:34.260342 17043 net.cpp:129] Top shape: 7 1024 7 7 (351232)
I0610 06:42:34.260344 17043 net.cpp:137] Memory required for data: 866840660
I0610 06:42:34.260346 17043 layer_factory.hpp:77] Creating layer pool
I0610 06:42:34.260351 17043 net.cpp:84] Creating Layer pool
I0610 06:42:34.260354 17043 net.cpp:406] pool <- eltwise_stage3_block2
I0610 06:42:34.260360 17043 net.cpp:380] pool -> pool
I0610 06:42:34.260380 17043 net.cpp:122] Setting up pool
I0610 06:42:34.260383 17043 net.cpp:129] Top shape: 7 1024 1 1 (7168)
I0610 06:42:34.260396 17043 net.cpp:137] Memory required for data: 866869332
I0610 06:42:34.260397 17043 layer_factory.hpp:77] Creating layer fc_nsfw
I0610 06:42:34.260403 17043 net.cpp:84] Creating Layer fc_nsfw
I0610 06:42:34.260406 17043 net.cpp:406] fc_nsfw <- pool
I0610 06:42:34.260412 17043 net.cpp:380] fc_nsfw -> fc_nsfw
I0610 06:42:34.260524 17043 net.cpp:122] Setting up fc_nsfw
I0610 06:42:34.260529 17043 net.cpp:129] Top shape: 7 2 (14)
I0610 06:42:34.260530 17043 net.cpp:137] Memory required for data: 866869388
I0610 06:42:34.260535 17043 layer_factory.hpp:77] Creating layer fc_nsfw_fc_nsfw_0_split
I0610 06:42:34.260540 17043 net.cpp:84] Creating Layer fc_nsfw_fc_nsfw_0_split
I0610 06:42:34.260543 17043 net.cpp:406] fc_nsfw_fc_nsfw_0_split <- fc_nsfw
I0610 06:42:34.260550 17043 net.cpp:380] fc_nsfw_fc_nsfw_0_split -> fc_nsfw_fc_nsfw_0_split_0
I0610 06:42:34.260555 17043 net.cpp:380] fc_nsfw_fc_nsfw_0_split -> fc_nsfw_fc_nsfw_0_split_1
I0610 06:42:34.260584 17043 net.cpp:122] Setting up fc_nsfw_fc_nsfw_0_split
I0610 06:42:34.260588 17043 net.cpp:129] Top shape: 7 2 (14)
I0610 06:42:34.260591 17043 net.cpp:129] Top shape: 7 2 (14)
I0610 06:42:34.260593 17043 net.cpp:137] Memory required for data: 866869500
I0610 06:42:34.260596 17043 layer_factory.hpp:77] Creating layer loss
I0610 06:42:34.260601 17043 net.cpp:84] Creating Layer loss
I0610 06:42:34.260603 17043 net.cpp:406] loss <- fc_nsfw_fc_nsfw_0_split_0
I0610 06:42:34.260607 17043 net.cpp:406] loss <- label_data_1_split_0
I0610 06:42:34.260612 17043 net.cpp:380] loss -> loss
…
