…
I0415 19:06:55.789574 26410 net.cpp:51] Initializing net from parameters: 
state {
  phase: TRAIN
  level: 0
  stage: ""
}
layer {
  name: "data"
  type: "ImageData"
  top: "data"
  top: "label"
  include {
    phase: TRAIN
  }
  transform_param {
    mirror: true
    crop_size: 227
    mean_file: "nsfwnet2_mean.binaryproto"
  }
  image_data_param {
    source: "/home/dbicho/Documents/datasets/all_labeled_dataset_augmented_finetuning/train.txt"
    batch_size: 14
    shuffle: true
    root_folder: "/home/dbicho/Documents/datasets/all_labeled_dataset_augmented_finetuning/"
  }
}
layer {
  name: "conv1"
  type: "Convolution"
  bottom: "data"
  top: "conv1"
  convolution_param {
    num_output: 64
    kernel_size: 3
    stride: 2
    weight_filler {
      type: "xavier"
    }
  }
}
layer {
  name: "relu_conv1"
  type: "ReLU"
  bottom: "conv1"
  top: "conv1"
}
layer {
  name: "pool1"
  type: "Pooling"
  bottom: "conv1"
  top: "pool1"
  pooling_param {
    pool: MAX
    kernel_size: 3
    stride: 2
  }
}
layer {
  name: "fire2/squeeze1x1"
  type: "Convolution"
  bottom: "pool1"
  top: "fire2/squeeze1x1"
  convolution_param {
    num_output: 16
    kernel_size: 1
    weight_filler {
      type: "xavier"
    }
  }
}
layer {
  name: "fire2/relu_squeeze1x1"
  type: "ReLU"
  bottom: "fire2/squeeze1x1"
  top: "fire2/squeeze1x1"
}
layer {
  name: "fire2/expand1x1"
  type: "Convolution"
  bottom: "fire2/squeeze1x1"
  top: "fire2/expand1x1"
  convolution_param {
    num_output: 64
    kernel_size: 1
    weight_filler {
      type: "xavier"
    }
  }
}
layer {
  name: "fire2/relu_expand1x1"
  type: "ReLU"
  bottom: "fire2/expand1x1"
  top: "fire2/expand1x1"
}
layer {
  name: "fire2/expand3x3"
  type: "Convolution"
  bottom: "fire2/squeeze1x1"
  top: "fire2/expand3x3"
  convolution_param {
    num_output: 64
    pad: 1
    kernel_size: 3
    weight_filler {
      type: "xavier"
    }
  }
}
layer {
  name: "fire2/relu_expand3x3"
  type: "ReLU"
  bottom: "fire2/expand3x3"
  top: "fire2/expand3x3"
}
layer {
  name: "fire2/concat"
  type: "Concat"
  bottom: "fire2/expand1x1"
  bottom: "fire2/expand3x3"
  top: "fire2/concat"
}
layer {
  name: "fire3/squeeze1x1"
  type: "Convolution"
  bottom: "fire2/concat"
  top: "fire3/squeeze1x1"
  convolution_param {
    num_output: 16
    kernel_size: 1
    weight_filler {
      type: "xavier"
    }
  }
}
layer {
  name: "fire3/relu_squeeze1x1"
  type: "ReLU"
  bottom: "fire3/squeeze1x1"
  top: "fire3/squeeze1x1"
}
layer {
  name: "fire3/expand1x1"
  type: "Convolution"
  bottom: "fire3/squeeze1x1"
  top: "fire3/expand1x1"
  convolution_param {
    num_output: 64
    kernel_size: 1
    weight_filler {
      type: "xavier"
    }
  }
}
layer {
  name: "fire3/relu_expand1x1"
  type: "ReLU"
  bottom: "fire3/expand1x1"
  top: "fire3/expand1x1"
}
layer {
  name: "fire3/expand3x3"
  type: "Convolution"
  bottom: "fire3/squeeze1x1"
  top: "fire3/expand3x3"
  convolution_param {
    num_output: 64
    pad: 1
    kernel_size: 3
    weight_filler {
      type: "xavier"
    }
  }
}
layer {
  name: "fire3/relu_expand3x3"
  type: "ReLU"
  bottom: "fire3/expand3x3"
  top: "fire3/expand3x3"
}
layer {
  name: "fire3/concat"
  type: "Concat"
  bottom: "fire3/expand1x1"
  bottom: "fire3/expand3x3"
  top: "fire3/concat"
}
layer {
  name: "pool3"
  type: "Pooling"
  bottom: "fire3/concat"
  top: "pool3"
  pooling_param {
    pool: MAX
    kernel_size: 3
    stride: 2
  }
}
layer {
  name: "fire4/squeeze1x1"
  type: "Convolution"
  bottom: "pool3"
  top: "fire4/squeeze1x1"
  convolution_param {
    num_output: 32
    kernel_size: 1
    weight_filler {
      type: "xavier"
    }
  }
}
layer {
  name: "fire4/relu_squeeze1x1"
  type: "ReLU"
  bottom: "fire4/squeeze1x1"
  top: "fire4/squeeze1x1"
}
layer {
  name: "fire4/expand1x1"
  type: "Convolution"
  bottom: "fire4/squeeze1x1"
  top: "fire4/expand1x1"
  convolution_param {
    num_output: 128
    kernel_size: 1
    weight_filler {
      type: "xavier"
    }
  }
}
layer {
  name: "fire4/relu_expand1x1"
  type: "ReLU"
  bottom: "fire4/expand1x1"
  top: "fire4/expand1x1"
}
layer {
  name: "fire4/expand3x3"
  type: "Convolution"
  bottom: "fire4/squeeze1x1"
  top: "fire4/expand3x3"
  convolution_param {
    num_output: 128
    pad: 1
    kernel_size: 3
    weight_filler {
      type: "xavier"
    }
  }
}
layer {
  name: "fire4/relu_expand3x3"
  type: "ReLU"
  bottom: "fire4/expand3x3"
  top: "fire4/expand3x3"
}
layer {
  name: "fire4/concat"
  type: "Concat"
  bottom: "fire4/expand1x1"
  bottom: "fire4/expand3x3"
  top: "fire4/concat"
}
layer {
  name: "fire5/squeeze1x1"
  type: "Convolution"
  bottom: "fire4/concat"
  top: "fire5/squeeze1x1"
  convolution_param {
    num_output: 32
    kernel_size: 1
    weight_filler {
      type: "xavier"
    }
  }
}
layer {
  name: "fire5/relu_squeeze1x1"
  type: "ReLU"
  bottom: "fire5/squeeze1x1"
  top: "fire5/squeeze1x1"
}
layer {
  name: "fire5/expand1x1"
  type: "Convolution"
  bottom: "fire5/squeeze1x1"
  top: "fire5/expand1x1"
  convolution_param {
    num_output: 128
    kernel_size: 1
    weight_filler {
      type: "xavier"
    }
  }
}
layer {
  name: "fire5/relu_expand1x1"
  type: "ReLU"
  bottom: "fire5/expand1x1"
  top: "fire5/expand1x1"
}
layer {
  name: "fire5/expand3x3"
  type: "Convolution"
  bottom: "fire5/squeeze1x1"
  top: "fire5/expand3x3"
  convolution_param {
    num_output: 128
    pad: 1
    kernel_size: 3
    weight_filler {
      type: "xavier"
    }
  }
}
layer {
  name: "fire5/relu_expand3x3"
  type: "ReLU"
  bottom: "fire5/expand3x3"
  top: "fire5/expand3x3"
}
layer {
  name: "fire5/concat"
  type: "Concat"
  bottom: "fire5/expand1x1"
  bottom: "fire5/expand3x3"
  top: "fire5/concat"
}
layer {
  name: "pool5"
  type: "Pooling"
  bottom: "fire5/concat"
  top: "pool5"
  pooling_param {
    pool: MAX
    kernel_size: 3
    stride: 2
  }
}
layer {
  name: "fire6/squeeze1x1"
  type: "Convolution"
  bottom: "pool5"
  top: "fire6/squeeze1x1"
  convolution_param {
    num_output: 48
    kernel_size: 1
    weight_filler {
      type: "xavier"
    }
  }
}
layer {
  name: "fire6/relu_squeeze1x1"
  type: "ReLU"
  bottom: "fire6/squeeze1x1"
  top: "fire6/squeeze1x1"
}
layer {
  name: "fire6/expand1x1"
  type: "Convolution"
  bottom: "fire6/squeeze1x1"
  top: "fire6/expand1x1"
  convolution_param {
    num_output: 192
    kernel_size: 1
    weight_filler {
      type: "xavier"
    }
  }
}
layer {
  name: "fire6/relu_expand1x1"
  type: "ReLU"
  bottom: "fire6/expand1x1"
  top: "fire6/expand1x1"
}
layer {
  name: "fire6/expand3x3"
  type: "Convolution"
  bottom: "fire6/squeeze1x1"
  top: "fire6/expand3x3"
  convolution_param {
    num_output: 192
    pad: 1
    kernel_size: 3
    weight_filler {
      type: "xavier"
    }
  }
}
layer {
  name: "fire6/relu_expand3x3"
  type: "ReLU"
  bottom: "fire6/expand3x3"
  top: "fire6/expand3x3"
}
layer {
  name: "fire6/concat"
  type: "Concat"
  bottom: "fire6/expand1x1"
  bottom: "fire6/expand3x3"
  top: "fire6/concat"
}
layer {
  name: "fire7/squeeze1x1"
  type: "Convolution"
  bottom: "fire6/concat"
  top: "fire7/squeeze1x1"
  convolution_param {
    num_output: 48
    kernel_size: 1
    weight_filler {
      type: "xavier"
    }
  }
}
layer {
  name: "fire7/relu_squeeze1x1"
  type: "ReLU"
  bottom: "fire7/squeeze1x1"
  top: "fire7/squeeze1x1"
}
layer {
  name: "fire7/expand1x1"
  type: "Convolution"
  bottom: "fire7/squeeze1x1"
  top: "fire7/expand1x1"
  convolution_param {
    num_output: 192
    kernel_size: 1
    weight_filler {
      type: "xavier"
    }
  }
}
layer {
  name: "fire7/relu_expand1x1"
  type: "ReLU"
  bottom: "fire7/expand1x1"
  top: "fire7/expand1x1"
}
layer {
  name: "fire7/expand3x3"
  type: "Convolution"
  bottom: "fire7/squeeze1x1"
  top: "fire7/expand3x3"
  convolution_param {
    num_output: 192
    pad: 1
    kernel_size: 3
    weight_filler {
      type: "xavier"
    }
  }
}
layer {
  name: "fire7/relu_expand3x3"
  type: "ReLU"
  bottom: "fire7/expand3x3"
  top: "fire7/expand3x3"
}
layer {
  name: "fire7/concat"
  type: "Concat"
  bottom: "fire7/expand1x1"
  bottom: "fire7/expand3x3"
  top: "fire7/concat"
}
layer {
  name: "fire8/squeeze1x1"
  type: "Convolution"
  bottom: "fire7/concat"
  top: "fire8/squeeze1x1"
  convolution_param {
    num_output: 64
    kernel_size: 1
    weight_filler {
      type: "xavier"
    }
  }
}
layer {
  name: "fire8/relu_squeeze1x1"
  type: "ReLU"
  bottom: "fire8/squeeze1x1"
  top: "fire8/squeeze1x1"
}
layer {
  name: "fire8/expand1x1"
  type: "Convolution"
  bottom: "fire8/squeeze1x1"
  top: "fire8/expand1x1"
  convolution_param {
    num_output: 256
    kernel_size: 1
    weight_filler {
      type: "xavier"
    }
  }
}
layer {
  name: "fire8/relu_expand1x1"
  type: "ReLU"
  bottom: "fire8/expand1x1"
  top: "fire8/expand1x1"
}
layer {
  name: "fire8/expand3x3"
  type: "Convolution"
  bottom: "fire8/squeeze1x1"
  top: "fire8/expand3x3"
  convolution_param {
    num_output: 256
    pad: 1
    kernel_size: 3
    weight_filler {
      type: "xavier"
    }
  }
}
layer {
  name: "fire8/relu_expand3x3"
  type: "ReLU"
  bottom: "fire8/expand3x3"
  top: "fire8/expand3x3"
}
layer {
  name: "fire8/concat"
  type: "Concat"
  bottom: "fire8/expand1x1"
  bottom: "fire8/expand3x3"
  top: "fire8/concat"
}
layer {
  name: "fire9/squeeze1x1"
  type: "Convolution"
  bottom: "fire8/concat"
  top: "fire9/squeeze1x1"
  convolution_param {
    num_output: 64
    kernel_size: 1
    weight_filler {
      type: "xavier"
    }
  }
}
layer {
  name: "fire9/relu_squeeze1x1"
  type: "ReLU"
  bottom: "fire9/squeeze1x1"
  top: "fire9/squeeze1x1"
}
layer {
  name: "fire9/expand1x1"
  type: "Convolution"
  bottom: "fire9/squeeze1x1"
  top: "fire9/expand1x1"
  convolution_param {
    num_output: 256
    kernel_size: 1
    weight_filler {
      type: "xavier"
    }
  }
}
layer {
  name: "fire9/relu_expand1x1"
  type: "ReLU"
  bottom: "fire9/expand1x1"
  top: "fire9/expand1x1"
}
layer {
  name: "fire9/expand3x3"
  type: "Convolution"
  bottom: "fire9/squeeze1x1"
  top: "fire9/expand3x3"
  convolution_param {
    num_output: 256
    pad: 1
    kernel_size: 3
    weight_filler {
      type: "xavier"
    }
  }
}
layer {
  name: "fire9/relu_expand3x3"
  type: "ReLU"
  bottom: "fire9/expand3x3"
  top: "fire9/expand3x3"
}
layer {
  name: "fire9/concat"
  type: "Concat"
  bottom: "fire9/expand1x1"
  bottom: "fire9/expand3x3"
  top: "fire9/concat"
}
layer {
  name: "drop9"
  type: "Dropout"
  bottom: "fire9/concat"
  top: "fire9/concat"
  dropout_param {
    dropout_ratio: 0.5
  }
}
layer {
  name: "conv10"
  type: "Convolution"
  bottom: "fire9/concat"
  top: "conv10"
  convolution_param {
    num_output: 2
    kernel_size: 1
    weight_filler {
      type: "gaussian"
      mean: 0
      std: 0.01
    }
  }
}
layer {
  name: "relu_conv10"
  type: "ReLU"
  bottom: "conv10"
  top: "conv10"
}
layer {
  name: "pool10"
  type: "Pooling"
  bottom: "conv10"
  top: "pool10"
  pooling_param {
    pool: AVE
    global_pooling: true
  }
}
layer {
  name: "loss"
  type: "SoftmaxWithLoss"
  bottom: "pool10"
  bottom: "label"
  top: "loss"
}
layer {
  name: "accuracy"
  type: "Accuracy"
  bottom: "pool10"
  bottom: "label"
  top: "accuracy"
}
I0415 19:06:55.789871 26410 layer_factory.hpp:77] Creating layer data
I0415 19:06:55.789896 26410 net.cpp:84] Creating Layer data
I0415 19:06:55.789901 26410 net.cpp:380] data -> data
I0415 19:06:55.789919 26410 net.cpp:380] data -> label
I0415 19:06:55.789930 26410 data_transformer.cpp:25] Loading mean file from: nsfwnet2_mean.binaryproto
I0415 19:06:55.792136 26410 image_data_layer.cpp:38] Opening file /home/dbicho/Documents/datasets/all_labeled_dataset_augmented_finetuning/train.txt
I0415 19:06:55.802388 26410 image_data_layer.cpp:53] Shuffling data
I0415 19:06:55.806756 26410 image_data_layer.cpp:63] A total of 19956 images.
I0415 19:06:55.807422 26410 image_data_layer.cpp:90] output data size: 14,3,227,227
I0415 19:06:55.823711 26410 net.cpp:122] Setting up data
I0415 19:06:55.823737 26410 net.cpp:129] Top shape: 14 3 227 227 (2164218)
I0415 19:06:55.823742 26410 net.cpp:129] Top shape: 14 (14)
I0415 19:06:55.823745 26410 net.cpp:137] Memory required for data: 8656928
I0415 19:06:55.823752 26410 layer_factory.hpp:77] Creating layer label_data_1_split
I0415 19:06:55.823766 26410 net.cpp:84] Creating Layer label_data_1_split
I0415 19:06:55.823771 26410 net.cpp:406] label_data_1_split <- label
I0415 19:06:55.823786 26410 net.cpp:380] label_data_1_split -> label_data_1_split_0
I0415 19:06:55.823799 26410 net.cpp:380] label_data_1_split -> label_data_1_split_1
I0415 19:06:55.823860 26410 net.cpp:122] Setting up label_data_1_split
I0415 19:06:55.823868 26410 net.cpp:129] Top shape: 14 (14)
I0415 19:06:55.823870 26410 net.cpp:129] Top shape: 14 (14)
I0415 19:06:55.823873 26410 net.cpp:137] Memory required for data: 8657040
I0415 19:06:55.823876 26410 layer_factory.hpp:77] Creating layer conv1
I0415 19:06:55.823891 26410 net.cpp:84] Creating Layer conv1
I0415 19:06:55.823895 26410 net.cpp:406] conv1 <- data
I0415 19:06:55.823901 26410 net.cpp:380] conv1 -> conv1
I0415 19:06:55.826166 26410 net.cpp:122] Setting up conv1
I0415 19:06:55.826182 26410 net.cpp:129] Top shape: 14 64 113 113 (11441024)
I0415 19:06:55.826185 26410 net.cpp:137] Memory required for data: 54421136
I0415 19:06:55.826207 26410 layer_factory.hpp:77] Creating layer relu_conv1
I0415 19:06:55.826220 26410 net.cpp:84] Creating Layer relu_conv1
I0415 19:06:55.826225 26410 net.cpp:406] relu_conv1 <- conv1
I0415 19:06:55.826231 26410 net.cpp:367] relu_conv1 -> conv1 (in-place)
I0415 19:06:55.826238 26410 net.cpp:122] Setting up relu_conv1
I0415 19:06:55.826242 26410 net.cpp:129] Top shape: 14 64 113 113 (11441024)
I0415 19:06:55.826244 26410 net.cpp:137] Memory required for data: 100185232
I0415 19:06:55.826247 26410 layer_factory.hpp:77] Creating layer pool1
I0415 19:06:55.826256 26410 net.cpp:84] Creating Layer pool1
I0415 19:06:55.826259 26410 net.cpp:406] pool1 <- conv1
I0415 19:06:55.826263 26410 net.cpp:380] pool1 -> pool1
I0415 19:06:55.827134 26410 net.cpp:122] Setting up pool1
I0415 19:06:55.827143 26410 net.cpp:129] Top shape: 14 64 56 56 (2809856)
I0415 19:06:55.827147 26410 net.cpp:137] Memory required for data: 111424656
I0415 19:06:55.827149 26410 layer_factory.hpp:77] Creating layer fire2/squeeze1x1
I0415 19:06:55.827162 26410 net.cpp:84] Creating Layer fire2/squeeze1x1
I0415 19:06:55.827167 26410 net.cpp:406] fire2/squeeze1x1 <- pool1
I0415 19:06:55.827174 26410 net.cpp:380] fire2/squeeze1x1 -> fire2/squeeze1x1
I0415 19:06:55.827862 26410 net.cpp:122] Setting up fire2/squeeze1x1
I0415 19:06:55.827872 26410 net.cpp:129] Top shape: 14 16 56 56 (702464)
I0415 19:06:55.827875 26410 net.cpp:137] Memory required for data: 114234512
I0415 19:06:55.827888 26410 layer_factory.hpp:77] Creating layer fire2/relu_squeeze1x1
I0415 19:06:55.827898 26410 net.cpp:84] Creating Layer fire2/relu_squeeze1x1
I0415 19:06:55.827903 26410 net.cpp:406] fire2/relu_squeeze1x1 <- fire2/squeeze1x1
I0415 19:06:55.827909 26410 net.cpp:367] fire2/relu_squeeze1x1 -> fire2/squeeze1x1 (in-place)
I0415 19:06:55.827920 26410 net.cpp:122] Setting up fire2/relu_squeeze1x1
I0415 19:06:55.827925 26410 net.cpp:129] Top shape: 14 16 56 56 (702464)
I0415 19:06:55.827927 26410 net.cpp:137] Memory required for data: 117044368
I0415 19:06:55.827931 26410 layer_factory.hpp:77] Creating layer fire2/squeeze1x1_fire2/relu_squeeze1x1_0_split
I0415 19:06:55.827939 26410 net.cpp:84] Creating Layer fire2/squeeze1x1_fire2/relu_squeeze1x1_0_split
I0415 19:06:55.827942 26410 net.cpp:406] fire2/squeeze1x1_fire2/relu_squeeze1x1_0_split <- fire2/squeeze1x1
I0415 19:06:55.827950 26410 net.cpp:380] fire2/squeeze1x1_fire2/relu_squeeze1x1_0_split -> fire2/squeeze1x1_fire2/relu_squeeze1x1_0_split_0
I0415 19:06:55.827976 26410 net.cpp:380] fire2/squeeze1x1_fire2/relu_squeeze1x1_0_split -> fire2/squeeze1x1_fire2/relu_squeeze1x1_0_split_1
I0415 19:06:55.828014 26410 net.cpp:122] Setting up fire2/squeeze1x1_fire2/relu_squeeze1x1_0_split
I0415 19:06:55.828021 26410 net.cpp:129] Top shape: 14 16 56 56 (702464)
I0415 19:06:55.828025 26410 net.cpp:129] Top shape: 14 16 56 56 (702464)
I0415 19:06:55.828029 26410 net.cpp:137] Memory required for data: 122664080
I0415 19:06:55.828033 26410 layer_factory.hpp:77] Creating layer fire2/expand1x1
I0415 19:06:55.828047 26410 net.cpp:84] Creating Layer fire2/expand1x1
I0415 19:06:55.828050 26410 net.cpp:406] fire2/expand1x1 <- fire2/squeeze1x1_fire2/relu_squeeze1x1_0_split_0
I0415 19:06:55.828058 26410 net.cpp:380] fire2/expand1x1 -> fire2/expand1x1
I0415 19:06:55.828263 26410 net.cpp:122] Setting up fire2/expand1x1
I0415 19:06:55.828274 26410 net.cpp:129] Top shape: 14 64 56 56 (2809856)
I0415 19:06:55.828277 26410 net.cpp:137] Memory required for data: 133903504
I0415 19:06:55.828289 26410 layer_factory.hpp:77] Creating layer fire2/relu_expand1x1
I0415 19:06:55.828297 26410 net.cpp:84] Creating Layer fire2/relu_expand1x1
I0415 19:06:55.828303 26410 net.cpp:406] fire2/relu_expand1x1 <- fire2/expand1x1
I0415 19:06:55.828311 26410 net.cpp:367] fire2/relu_expand1x1 -> fire2/expand1x1 (in-place)
I0415 19:06:55.828320 26410 net.cpp:122] Setting up fire2/relu_expand1x1
I0415 19:06:55.828328 26410 net.cpp:129] Top shape: 14 64 56 56 (2809856)
I0415 19:06:55.828333 26410 net.cpp:137] Memory required for data: 145142928
I0415 19:06:55.828337 26410 layer_factory.hpp:77] Creating layer fire2/expand3x3
I0415 19:06:55.828348 26410 net.cpp:84] Creating Layer fire2/expand3x3
I0415 19:06:55.828354 26410 net.cpp:406] fire2/expand3x3 <- fire2/squeeze1x1_fire2/relu_squeeze1x1_0_split_1
I0415 19:06:55.828363 26410 net.cpp:380] fire2/expand3x3 -> fire2/expand3x3
I0415 19:06:55.828738 26410 net.cpp:122] Setting up fire2/expand3x3
I0415 19:06:55.828754 26410 net.cpp:129] Top shape: 14 64 56 56 (2809856)
I0415 19:06:55.828760 26410 net.cpp:137] Memory required for data: 156382352
I0415 19:06:55.828768 26410 layer_factory.hpp:77] Creating layer fire2/relu_expand3x3
I0415 19:06:55.828778 26410 net.cpp:84] Creating Layer fire2/relu_expand3x3
I0415 19:06:55.828783 26410 net.cpp:406] fire2/relu_expand3x3 <- fire2/expand3x3
I0415 19:06:55.828793 26410 net.cpp:367] fire2/relu_expand3x3 -> fire2/expand3x3 (in-place)
I0415 19:06:55.828801 26410 net.cpp:122] Setting up fire2/relu_expand3x3
I0415 19:06:55.828809 26410 net.cpp:129] Top shape: 14 64 56 56 (2809856)
I0415 19:06:55.828814 26410 net.cpp:137] Memory required for data: 167621776
I0415 19:06:55.828819 26410 layer_factory.hpp:77] Creating layer fire2/concat
I0415 19:06:55.828827 26410 net.cpp:84] Creating Layer fire2/concat
I0415 19:06:55.828833 26410 net.cpp:406] fire2/concat <- fire2/expand1x1
I0415 19:06:55.828840 26410 net.cpp:406] fire2/concat <- fire2/expand3x3
I0415 19:06:55.828847 26410 net.cpp:380] fire2/concat -> fire2/concat
I0415 19:06:55.828881 26410 net.cpp:122] Setting up fire2/concat
I0415 19:06:55.828891 26410 net.cpp:129] Top shape: 14 128 56 56 (5619712)
I0415 19:06:55.828896 26410 net.cpp:137] Memory required for data: 190100624
I0415 19:06:55.828900 26410 layer_factory.hpp:77] Creating layer fire3/squeeze1x1
I0415 19:06:55.828912 26410 net.cpp:84] Creating Layer fire3/squeeze1x1
I0415 19:06:55.828917 26410 net.cpp:406] fire3/squeeze1x1 <- fire2/concat
I0415 19:06:55.828927 26410 net.cpp:380] fire3/squeeze1x1 -> fire3/squeeze1x1
I0415 19:06:55.829231 26410 net.cpp:122] Setting up fire3/squeeze1x1
I0415 19:06:55.829244 26410 net.cpp:129] Top shape: 14 16 56 56 (702464)
I0415 19:06:55.829249 26410 net.cpp:137] Memory required for data: 192910480
I0415 19:06:55.829262 26410 layer_factory.hpp:77] Creating layer fire3/relu_squeeze1x1
I0415 19:06:55.829272 26410 net.cpp:84] Creating Layer fire3/relu_squeeze1x1
I0415 19:06:55.829277 26410 net.cpp:406] fire3/relu_squeeze1x1 <- fire3/squeeze1x1
I0415 19:06:55.829298 26410 net.cpp:367] fire3/relu_squeeze1x1 -> fire3/squeeze1x1 (in-place)
I0415 19:06:55.829308 26410 net.cpp:122] Setting up fire3/relu_squeeze1x1
I0415 19:06:55.829316 26410 net.cpp:129] Top shape: 14 16 56 56 (702464)
I0415 19:06:55.829320 26410 net.cpp:137] Memory required for data: 195720336
I0415 19:06:55.829324 26410 layer_factory.hpp:77] Creating layer fire3/squeeze1x1_fire3/relu_squeeze1x1_0_split
I0415 19:06:55.829334 26410 net.cpp:84] Creating Layer fire3/squeeze1x1_fire3/relu_squeeze1x1_0_split
I0415 19:06:55.829362 26410 net.cpp:406] fire3/squeeze1x1_fire3/relu_squeeze1x1_0_split <- fire3/squeeze1x1
I0415 19:06:55.829375 26410 net.cpp:380] fire3/squeeze1x1_fire3/relu_squeeze1x1_0_split -> fire3/squeeze1x1_fire3/relu_squeeze1x1_0_split_0
I0415 19:06:55.829390 26410 net.cpp:380] fire3/squeeze1x1_fire3/relu_squeeze1x1_0_split -> fire3/squeeze1x1_fire3/relu_squeeze1x1_0_split_1
I0415 19:06:55.829440 26410 net.cpp:122] Setting up fire3/squeeze1x1_fire3/relu_squeeze1x1_0_split
I0415 19:06:55.829452 26410 net.cpp:129] Top shape: 14 16 56 56 (702464)
I0415 19:06:55.829460 26410 net.cpp:129] Top shape: 14 16 56 56 (702464)
I0415 19:06:55.829465 26410 net.cpp:137] Memory required for data: 201340048
I0415 19:06:55.829469 26410 layer_factory.hpp:77] Creating layer fire3/expand1x1
I0415 19:06:55.829488 26410 net.cpp:84] Creating Layer fire3/expand1x1
I0415 19:06:55.829494 26410 net.cpp:406] fire3/expand1x1 <- fire3/squeeze1x1_fire3/relu_squeeze1x1_0_split_0
I0415 19:06:55.829504 26410 net.cpp:380] fire3/expand1x1 -> fire3/expand1x1
I0415 19:06:55.829797 26410 net.cpp:122] Setting up fire3/expand1x1
I0415 19:06:55.829812 26410 net.cpp:129] Top shape: 14 64 56 56 (2809856)
I0415 19:06:55.829816 26410 net.cpp:137] Memory required for data: 212579472
I0415 19:06:55.829825 26410 layer_factory.hpp:77] Creating layer fire3/relu_expand1x1
I0415 19:06:55.829835 26410 net.cpp:84] Creating Layer fire3/relu_expand1x1
I0415 19:06:55.829841 26410 net.cpp:406] fire3/relu_expand1x1 <- fire3/expand1x1
I0415 19:06:55.829850 26410 net.cpp:367] fire3/relu_expand1x1 -> fire3/expand1x1 (in-place)
I0415 19:06:55.829859 26410 net.cpp:122] Setting up fire3/relu_expand1x1
I0415 19:06:55.829867 26410 net.cpp:129] Top shape: 14 64 56 56 (2809856)
I0415 19:06:55.829872 26410 net.cpp:137] Memory required for data: 223818896
I0415 19:06:55.829876 26410 layer_factory.hpp:77] Creating layer fire3/expand3x3
I0415 19:06:55.829888 26410 net.cpp:84] Creating Layer fire3/expand3x3
I0415 19:06:55.829895 26410 net.cpp:406] fire3/expand3x3 <- fire3/squeeze1x1_fire3/relu_squeeze1x1_0_split_1
I0415 19:06:55.829905 26410 net.cpp:380] fire3/expand3x3 -> fire3/expand3x3
I0415 19:06:55.830242 26410 net.cpp:122] Setting up fire3/expand3x3
I0415 19:06:55.830255 26410 net.cpp:129] Top shape: 14 64 56 56 (2809856)
I0415 19:06:55.830258 26410 net.cpp:137] Memory required for data: 235058320
I0415 19:06:55.830265 26410 layer_factory.hpp:77] Creating layer fire3/relu_expand3x3
I0415 19:06:55.830269 26410 net.cpp:84] Creating Layer fire3/relu_expand3x3
I0415 19:06:55.830272 26410 net.cpp:406] fire3/relu_expand3x3 <- fire3/expand3x3
I0415 19:06:55.830277 26410 net.cpp:367] fire3/relu_expand3x3 -> fire3/expand3x3 (in-place)
I0415 19:06:55.830282 26410 net.cpp:122] Setting up fire3/relu_expand3x3
I0415 19:06:55.830287 26410 net.cpp:129] Top shape: 14 64 56 56 (2809856)
I0415 19:06:55.830291 26410 net.cpp:137] Memory required for data: 246297744
I0415 19:06:55.830296 26410 layer_factory.hpp:77] Creating layer fire3/concat
I0415 19:06:55.830302 26410 net.cpp:84] Creating Layer fire3/concat
I0415 19:06:55.830307 26410 net.cpp:406] fire3/concat <- fire3/expand1x1
I0415 19:06:55.830312 26410 net.cpp:406] fire3/concat <- fire3/expand3x3
I0415 19:06:55.830322 26410 net.cpp:380] fire3/concat -> fire3/concat
I0415 19:06:55.830351 26410 net.cpp:122] Setting up fire3/concat
I0415 19:06:55.830361 26410 net.cpp:129] Top shape: 14 128 56 56 (5619712)
I0415 19:06:55.830366 26410 net.cpp:137] Memory required for data: 268776592
I0415 19:06:55.830382 26410 layer_factory.hpp:77] Creating layer pool3
I0415 19:06:55.830392 26410 net.cpp:84] Creating Layer pool3
I0415 19:06:55.830399 26410 net.cpp:406] pool3 <- fire3/concat
I0415 19:06:55.830407 26410 net.cpp:380] pool3 -> pool3
I0415 19:06:55.830454 26410 net.cpp:122] Setting up pool3
I0415 19:06:55.830463 26410 net.cpp:129] Top shape: 14 128 28 28 (1404928)
I0415 19:06:55.830468 26410 net.cpp:137] Memory required for data: 274396304
I0415 19:06:55.830473 26410 layer_factory.hpp:77] Creating layer fire4/squeeze1x1
I0415 19:06:55.830483 26410 net.cpp:84] Creating Layer fire4/squeeze1x1
I0415 19:06:55.830492 26410 net.cpp:406] fire4/squeeze1x1 <- pool3
I0415 19:06:55.830499 26410 net.cpp:380] fire4/squeeze1x1 -> fire4/squeeze1x1
I0415 19:06:55.830818 26410 net.cpp:122] Setting up fire4/squeeze1x1
I0415 19:06:55.830833 26410 net.cpp:129] Top shape: 14 32 28 28 (351232)
I0415 19:06:55.830839 26410 net.cpp:137] Memory required for data: 275801232
I0415 19:06:55.830850 26410 layer_factory.hpp:77] Creating layer fire4/relu_squeeze1x1
I0415 19:06:55.830862 26410 net.cpp:84] Creating Layer fire4/relu_squeeze1x1
I0415 19:06:55.830868 26410 net.cpp:406] fire4/relu_squeeze1x1 <- fire4/squeeze1x1
I0415 19:06:55.830878 26410 net.cpp:367] fire4/relu_squeeze1x1 -> fire4/squeeze1x1 (in-place)
I0415 19:06:55.830888 26410 net.cpp:122] Setting up fire4/relu_squeeze1x1
I0415 19:06:55.830895 26410 net.cpp:129] Top shape: 14 32 28 28 (351232)
I0415 19:06:55.830901 26410 net.cpp:137] Memory required for data: 277206160
I0415 19:06:55.830905 26410 layer_factory.hpp:77] Creating layer fire4/squeeze1x1_fire4/relu_squeeze1x1_0_split
I0415 19:06:55.830914 26410 net.cpp:84] Creating Layer fire4/squeeze1x1_fire4/relu_squeeze1x1_0_split
I0415 19:06:55.830920 26410 net.cpp:406] fire4/squeeze1x1_fire4/relu_squeeze1x1_0_split <- fire4/squeeze1x1
I0415 19:06:55.830929 26410 net.cpp:380] fire4/squeeze1x1_fire4/relu_squeeze1x1_0_split -> fire4/squeeze1x1_fire4/relu_squeeze1x1_0_split_0
I0415 19:06:55.830940 26410 net.cpp:380] fire4/squeeze1x1_fire4/relu_squeeze1x1_0_split -> fire4/squeeze1x1_fire4/relu_squeeze1x1_0_split_1
I0415 19:06:55.830978 26410 net.cpp:122] Setting up fire4/squeeze1x1_fire4/relu_squeeze1x1_0_split
I0415 19:06:55.830987 26410 net.cpp:129] Top shape: 14 32 28 28 (351232)
I0415 19:06:55.830992 26410 net.cpp:129] Top shape: 14 32 28 28 (351232)
I0415 19:06:55.830997 26410 net.cpp:137] Memory required for data: 280016016
I0415 19:06:55.831001 26410 layer_factory.hpp:77] Creating layer fire4/expand1x1
I0415 19:06:55.831009 26410 net.cpp:84] Creating Layer fire4/expand1x1
I0415 19:06:55.831013 26410 net.cpp:406] fire4/expand1x1 <- fire4/squeeze1x1_fire4/relu_squeeze1x1_0_split_0
I0415 19:06:55.831022 26410 net.cpp:380] fire4/expand1x1 -> fire4/expand1x1
I0415 19:06:55.831298 26410 net.cpp:122] Setting up fire4/expand1x1
I0415 19:06:55.831310 26410 net.cpp:129] Top shape: 14 128 28 28 (1404928)
I0415 19:06:55.831313 26410 net.cpp:137] Memory required for data: 285635728
I0415 19:06:55.831324 26410 layer_factory.hpp:77] Creating layer fire4/relu_expand1x1
I0415 19:06:55.831331 26410 net.cpp:84] Creating Layer fire4/relu_expand1x1
I0415 19:06:55.831334 26410 net.cpp:406] fire4/relu_expand1x1 <- fire4/expand1x1
I0415 19:06:55.831339 26410 net.cpp:367] fire4/relu_expand1x1 -> fire4/expand1x1 (in-place)
I0415 19:06:55.831348 26410 net.cpp:122] Setting up fire4/relu_expand1x1
I0415 19:06:55.831353 26410 net.cpp:129] Top shape: 14 128 28 28 (1404928)
I0415 19:06:55.831356 26410 net.cpp:137] Memory required for data: 291255440
I0415 19:06:55.831357 26410 layer_factory.hpp:77] Creating layer fire4/expand3x3
I0415 19:06:55.831367 26410 net.cpp:84] Creating Layer fire4/expand3x3
I0415 19:06:55.831372 26410 net.cpp:406] fire4/expand3x3 <- fire4/squeeze1x1_fire4/relu_squeeze1x1_0_split_1
I0415 19:06:55.831382 26410 net.cpp:380] fire4/expand3x3 -> fire4/expand3x3
I0415 19:06:55.832311 26410 net.cpp:122] Setting up fire4/expand3x3
I0415 19:06:55.832324 26410 net.cpp:129] Top shape: 14 128 28 28 (1404928)
I0415 19:06:55.832327 26410 net.cpp:137] Memory required for data: 296875152
I0415 19:06:55.832345 26410 layer_factory.hpp:77] Creating layer fire4/relu_expand3x3
I0415 19:06:55.832355 26410 net.cpp:84] Creating Layer fire4/relu_expand3x3
I0415 19:06:55.832360 26410 net.cpp:406] fire4/relu_expand3x3 <- fire4/expand3x3
I0415 19:06:55.832365 26410 net.cpp:367] fire4/relu_expand3x3 -> fire4/expand3x3 (in-place)
I0415 19:06:55.832371 26410 net.cpp:122] Setting up fire4/relu_expand3x3
I0415 19:06:55.832377 26410 net.cpp:129] Top shape: 14 128 28 28 (1404928)
I0415 19:06:55.832381 26410 net.cpp:137] Memory required for data: 302494864
I0415 19:06:55.832386 26410 layer_factory.hpp:77] Creating layer fire4/concat
I0415 19:06:55.832392 26410 net.cpp:84] Creating Layer fire4/concat
I0415 19:06:55.832397 26410 net.cpp:406] fire4/concat <- fire4/expand1x1
I0415 19:06:55.832402 26410 net.cpp:406] fire4/concat <- fire4/expand3x3
I0415 19:06:55.832409 26410 net.cpp:380] fire4/concat -> fire4/concat
I0415 19:06:55.832435 26410 net.cpp:122] Setting up fire4/concat
I0415 19:06:55.832442 26410 net.cpp:129] Top shape: 14 256 28 28 (2809856)
I0415 19:06:55.832444 26410 net.cpp:137] Memory required for data: 313734288
I0415 19:06:55.832446 26410 layer_factory.hpp:77] Creating layer fire5/squeeze1x1
I0415 19:06:55.832454 26410 net.cpp:84] Creating Layer fire5/squeeze1x1
I0415 19:06:55.832458 26410 net.cpp:406] fire5/squeeze1x1 <- fire4/concat
I0415 19:06:55.832463 26410 net.cpp:380] fire5/squeeze1x1 -> fire5/squeeze1x1
I0415 19:06:55.832696 26410 net.cpp:122] Setting up fire5/squeeze1x1
I0415 19:06:55.832703 26410 net.cpp:129] Top shape: 14 32 28 28 (351232)
I0415 19:06:55.832705 26410 net.cpp:137] Memory required for data: 315139216
I0415 19:06:55.832710 26410 layer_factory.hpp:77] Creating layer fire5/relu_squeeze1x1
I0415 19:06:55.832716 26410 net.cpp:84] Creating Layer fire5/relu_squeeze1x1
I0415 19:06:55.832720 26410 net.cpp:406] fire5/relu_squeeze1x1 <- fire5/squeeze1x1
I0415 19:06:55.832726 26410 net.cpp:367] fire5/relu_squeeze1x1 -> fire5/squeeze1x1 (in-place)
I0415 19:06:55.832732 26410 net.cpp:122] Setting up fire5/relu_squeeze1x1
I0415 19:06:55.832737 26410 net.cpp:129] Top shape: 14 32 28 28 (351232)
I0415 19:06:55.832739 26410 net.cpp:137] Memory required for data: 316544144
I0415 19:06:55.832741 26410 layer_factory.hpp:77] Creating layer fire5/squeeze1x1_fire5/relu_squeeze1x1_0_split
I0415 19:06:55.832754 26410 net.cpp:84] Creating Layer fire5/squeeze1x1_fire5/relu_squeeze1x1_0_split
I0415 19:06:55.832758 26410 net.cpp:406] fire5/squeeze1x1_fire5/relu_squeeze1x1_0_split <- fire5/squeeze1x1
I0415 19:06:55.832765 26410 net.cpp:380] fire5/squeeze1x1_fire5/relu_squeeze1x1_0_split -> fire5/squeeze1x1_fire5/relu_squeeze1x1_0_split_0
I0415 19:06:55.832775 26410 net.cpp:380] fire5/squeeze1x1_fire5/relu_squeeze1x1_0_split -> fire5/squeeze1x1_fire5/relu_squeeze1x1_0_split_1
I0415 19:06:55.832810 26410 net.cpp:122] Setting up fire5/squeeze1x1_fire5/relu_squeeze1x1_0_split
I0415 19:06:55.832819 26410 net.cpp:129] Top shape: 14 32 28 28 (351232)
I0415 19:06:55.832826 26410 net.cpp:129] Top shape: 14 32 28 28 (351232)
I0415 19:06:55.832831 26410 net.cpp:137] Memory required for data: 319354000
I0415 19:06:55.832836 26410 layer_factory.hpp:77] Creating layer fire5/expand1x1
I0415 19:06:55.832846 26410 net.cpp:84] Creating Layer fire5/expand1x1
I0415 19:06:55.832852 26410 net.cpp:406] fire5/expand1x1 <- fire5/squeeze1x1_fire5/relu_squeeze1x1_0_split_0
I0415 19:06:55.832864 26410 net.cpp:380] fire5/expand1x1 -> fire5/expand1x1
I0415 19:06:55.833120 26410 net.cpp:122] Setting up fire5/expand1x1
I0415 19:06:55.833130 26410 net.cpp:129] Top shape: 14 128 28 28 (1404928)
I0415 19:06:55.833134 26410 net.cpp:137] Memory required for data: 324973712
I0415 19:06:55.833140 26410 layer_factory.hpp:77] Creating layer fire5/relu_expand1x1
I0415 19:06:55.833148 26410 net.cpp:84] Creating Layer fire5/relu_expand1x1
I0415 19:06:55.833153 26410 net.cpp:406] fire5/relu_expand1x1 <- fire5/expand1x1
I0415 19:06:55.833161 26410 net.cpp:367] fire5/relu_expand1x1 -> fire5/expand1x1 (in-place)
I0415 19:06:55.833178 26410 net.cpp:122] Setting up fire5/relu_expand1x1
I0415 19:06:55.833184 26410 net.cpp:129] Top shape: 14 128 28 28 (1404928)
I0415 19:06:55.833189 26410 net.cpp:137] Memory required for data: 330593424
I0415 19:06:55.833192 26410 layer_factory.hpp:77] Creating layer fire5/expand3x3
I0415 19:06:55.833201 26410 net.cpp:84] Creating Layer fire5/expand3x3
I0415 19:06:55.833206 26410 net.cpp:406] fire5/expand3x3 <- fire5/squeeze1x1_fire5/relu_squeeze1x1_0_split_1
I0415 19:06:55.833214 26410 net.cpp:380] fire5/expand3x3 -> fire5/expand3x3
I0415 19:06:55.833587 26410 net.cpp:122] Setting up fire5/expand3x3
I0415 19:06:55.833598 26410 net.cpp:129] Top shape: 14 128 28 28 (1404928)
I0415 19:06:55.833602 26410 net.cpp:137] Memory required for data: 336213136
I0415 19:06:55.833611 26410 layer_factory.hpp:77] Creating layer fire5/relu_expand3x3
I0415 19:06:55.833617 26410 net.cpp:84] Creating Layer fire5/relu_expand3x3
I0415 19:06:55.833621 26410 net.cpp:406] fire5/relu_expand3x3 <- fire5/expand3x3
I0415 19:06:55.833626 26410 net.cpp:367] fire5/relu_expand3x3 -> fire5/expand3x3 (in-place)
I0415 19:06:55.833632 26410 net.cpp:122] Setting up fire5/relu_expand3x3
I0415 19:06:55.833636 26410 net.cpp:129] Top shape: 14 128 28 28 (1404928)
I0415 19:06:55.833638 26410 net.cpp:137] Memory required for data: 341832848
I0415 19:06:55.833642 26410 layer_factory.hpp:77] Creating layer fire5/concat
I0415 19:06:55.833648 26410 net.cpp:84] Creating Layer fire5/concat
I0415 19:06:55.833652 26410 net.cpp:406] fire5/concat <- fire5/expand1x1
I0415 19:06:55.833655 26410 net.cpp:406] fire5/concat <- fire5/expand3x3
I0415 19:06:55.833660 26410 net.cpp:380] fire5/concat -> fire5/concat
I0415 19:06:55.833683 26410 net.cpp:122] Setting up fire5/concat
I0415 19:06:55.833693 26410 net.cpp:129] Top shape: 14 256 28 28 (2809856)
I0415 19:06:55.833698 26410 net.cpp:137] Memory required for data: 353072272
I0415 19:06:55.833703 26410 layer_factory.hpp:77] Creating layer pool5
I0415 19:06:55.833711 26410 net.cpp:84] Creating Layer pool5
I0415 19:06:55.833717 26410 net.cpp:406] pool5 <- fire5/concat
I0415 19:06:55.833725 26410 net.cpp:380] pool5 -> pool5
I0415 19:06:55.833768 26410 net.cpp:122] Setting up pool5
I0415 19:06:55.833777 26410 net.cpp:129] Top shape: 14 256 14 14 (702464)
I0415 19:06:55.833782 26410 net.cpp:137] Memory required for data: 355882128
I0415 19:06:55.833786 26410 layer_factory.hpp:77] Creating layer fire6/squeeze1x1
I0415 19:06:55.833797 26410 net.cpp:84] Creating Layer fire6/squeeze1x1
I0415 19:06:55.833803 26410 net.cpp:406] fire6/squeeze1x1 <- pool5
I0415 19:06:55.833811 26410 net.cpp:380] fire6/squeeze1x1 -> fire6/squeeze1x1
I0415 19:06:55.834092 26410 net.cpp:122] Setting up fire6/squeeze1x1
I0415 19:06:55.834101 26410 net.cpp:129] Top shape: 14 48 14 14 (131712)
I0415 19:06:55.834105 26410 net.cpp:137] Memory required for data: 356408976
I0415 19:06:55.834110 26410 layer_factory.hpp:77] Creating layer fire6/relu_squeeze1x1
I0415 19:06:55.834116 26410 net.cpp:84] Creating Layer fire6/relu_squeeze1x1
I0415 19:06:55.834120 26410 net.cpp:406] fire6/relu_squeeze1x1 <- fire6/squeeze1x1
I0415 19:06:55.834125 26410 net.cpp:367] fire6/relu_squeeze1x1 -> fire6/squeeze1x1 (in-place)
I0415 19:06:55.834132 26410 net.cpp:122] Setting up fire6/relu_squeeze1x1
I0415 19:06:55.834136 26410 net.cpp:129] Top shape: 14 48 14 14 (131712)
I0415 19:06:55.834138 26410 net.cpp:137] Memory required for data: 356935824
I0415 19:06:55.834141 26410 layer_factory.hpp:77] Creating layer fire6/squeeze1x1_fire6/relu_squeeze1x1_0_split
I0415 19:06:55.834146 26410 net.cpp:84] Creating Layer fire6/squeeze1x1_fire6/relu_squeeze1x1_0_split
I0415 19:06:55.834148 26410 net.cpp:406] fire6/squeeze1x1_fire6/relu_squeeze1x1_0_split <- fire6/squeeze1x1
I0415 19:06:55.834152 26410 net.cpp:380] fire6/squeeze1x1_fire6/relu_squeeze1x1_0_split -> fire6/squeeze1x1_fire6/relu_squeeze1x1_0_split_0
I0415 19:06:55.834158 26410 net.cpp:380] fire6/squeeze1x1_fire6/relu_squeeze1x1_0_split -> fire6/squeeze1x1_fire6/relu_squeeze1x1_0_split_1
I0415 19:06:55.834189 26410 net.cpp:122] Setting up fire6/squeeze1x1_fire6/relu_squeeze1x1_0_split
I0415 19:06:55.834203 26410 net.cpp:129] Top shape: 14 48 14 14 (131712)
I0415 19:06:55.834206 26410 net.cpp:129] Top shape: 14 48 14 14 (131712)
I0415 19:06:55.834209 26410 net.cpp:137] Memory required for data: 357989520
I0415 19:06:55.834211 26410 layer_factory.hpp:77] Creating layer fire6/expand1x1
I0415 19:06:55.834218 26410 net.cpp:84] Creating Layer fire6/expand1x1
I0415 19:06:55.834221 26410 net.cpp:406] fire6/expand1x1 <- fire6/squeeze1x1_fire6/relu_squeeze1x1_0_split_0
I0415 19:06:55.834226 26410 net.cpp:380] fire6/expand1x1 -> fire6/expand1x1
I0415 19:06:55.834439 26410 net.cpp:122] Setting up fire6/expand1x1
I0415 19:06:55.834444 26410 net.cpp:129] Top shape: 14 192 14 14 (526848)
I0415 19:06:55.834447 26410 net.cpp:137] Memory required for data: 360096912
I0415 19:06:55.834452 26410 layer_factory.hpp:77] Creating layer fire6/relu_expand1x1
I0415 19:06:55.834456 26410 net.cpp:84] Creating Layer fire6/relu_expand1x1
I0415 19:06:55.834461 26410 net.cpp:406] fire6/relu_expand1x1 <- fire6/expand1x1
I0415 19:06:55.834466 26410 net.cpp:367] fire6/relu_expand1x1 -> fire6/expand1x1 (in-place)
I0415 19:06:55.834470 26410 net.cpp:122] Setting up fire6/relu_expand1x1
I0415 19:06:55.834475 26410 net.cpp:129] Top shape: 14 192 14 14 (526848)
I0415 19:06:55.834476 26410 net.cpp:137] Memory required for data: 362204304
I0415 19:06:55.834480 26410 layer_factory.hpp:77] Creating layer fire6/expand3x3
I0415 19:06:55.834486 26410 net.cpp:84] Creating Layer fire6/expand3x3
I0415 19:06:55.834487 26410 net.cpp:406] fire6/expand3x3 <- fire6/squeeze1x1_fire6/relu_squeeze1x1_0_split_1
I0415 19:06:55.834492 26410 net.cpp:380] fire6/expand3x3 -> fire6/expand3x3
I0415 19:06:55.835098 26410 net.cpp:122] Setting up fire6/expand3x3
I0415 19:06:55.835108 26410 net.cpp:129] Top shape: 14 192 14 14 (526848)
I0415 19:06:55.835109 26410 net.cpp:137] Memory required for data: 364311696
I0415 19:06:55.835114 26410 layer_factory.hpp:77] Creating layer fire6/relu_expand3x3
I0415 19:06:55.835119 26410 net.cpp:84] Creating Layer fire6/relu_expand3x3
I0415 19:06:55.835122 26410 net.cpp:406] fire6/relu_expand3x3 <- fire6/expand3x3
I0415 19:06:55.835127 26410 net.cpp:367] fire6/relu_expand3x3 -> fire6/expand3x3 (in-place)
I0415 19:06:55.835132 26410 net.cpp:122] Setting up fire6/relu_expand3x3
I0415 19:06:55.835136 26410 net.cpp:129] Top shape: 14 192 14 14 (526848)
I0415 19:06:55.835139 26410 net.cpp:137] Memory required for data: 366419088
I0415 19:06:55.835140 26410 layer_factory.hpp:77] Creating layer fire6/concat
I0415 19:06:55.835144 26410 net.cpp:84] Creating Layer fire6/concat
I0415 19:06:55.835147 26410 net.cpp:406] fire6/concat <- fire6/expand1x1
I0415 19:06:55.835150 26410 net.cpp:406] fire6/concat <- fire6/expand3x3
I0415 19:06:55.835155 26410 net.cpp:380] fire6/concat -> fire6/concat
I0415 19:06:55.835173 26410 net.cpp:122] Setting up fire6/concat
I0415 19:06:55.835178 26410 net.cpp:129] Top shape: 14 384 14 14 (1053696)
I0415 19:06:55.835180 26410 net.cpp:137] Memory required for data: 370633872
I0415 19:06:55.835183 26410 layer_factory.hpp:77] Creating layer fire7/squeeze1x1
I0415 19:06:55.835191 26410 net.cpp:84] Creating Layer fire7/squeeze1x1
I0415 19:06:55.835193 26410 net.cpp:406] fire7/squeeze1x1 <- fire6/concat
I0415 19:06:55.835197 26410 net.cpp:380] fire7/squeeze1x1 -> fire7/squeeze1x1
I0415 19:06:55.835477 26410 net.cpp:122] Setting up fire7/squeeze1x1
I0415 19:06:55.835485 26410 net.cpp:129] Top shape: 14 48 14 14 (131712)
I0415 19:06:55.835487 26410 net.cpp:137] Memory required for data: 371160720
I0415 19:06:55.835499 26410 layer_factory.hpp:77] Creating layer fire7/relu_squeeze1x1
I0415 19:06:55.835503 26410 net.cpp:84] Creating Layer fire7/relu_squeeze1x1
I0415 19:06:55.835506 26410 net.cpp:406] fire7/relu_squeeze1x1 <- fire7/squeeze1x1
I0415 19:06:55.835510 26410 net.cpp:367] fire7/relu_squeeze1x1 -> fire7/squeeze1x1 (in-place)
I0415 19:06:55.835515 26410 net.cpp:122] Setting up fire7/relu_squeeze1x1
I0415 19:06:55.835520 26410 net.cpp:129] Top shape: 14 48 14 14 (131712)
I0415 19:06:55.835531 26410 net.cpp:137] Memory required for data: 371687568
I0415 19:06:55.835535 26410 layer_factory.hpp:77] Creating layer fire7/squeeze1x1_fire7/relu_squeeze1x1_0_split
I0415 19:06:55.835539 26410 net.cpp:84] Creating Layer fire7/squeeze1x1_fire7/relu_squeeze1x1_0_split
I0415 19:06:55.835542 26410 net.cpp:406] fire7/squeeze1x1_fire7/relu_squeeze1x1_0_split <- fire7/squeeze1x1
I0415 19:06:55.835546 26410 net.cpp:380] fire7/squeeze1x1_fire7/relu_squeeze1x1_0_split -> fire7/squeeze1x1_fire7/relu_squeeze1x1_0_split_0
I0415 19:06:55.835552 26410 net.cpp:380] fire7/squeeze1x1_fire7/relu_squeeze1x1_0_split -> fire7/squeeze1x1_fire7/relu_squeeze1x1_0_split_1
I0415 19:06:55.835582 26410 net.cpp:122] Setting up fire7/squeeze1x1_fire7/relu_squeeze1x1_0_split
I0415 19:06:55.835588 26410 net.cpp:129] Top shape: 14 48 14 14 (131712)
I0415 19:06:55.835592 26410 net.cpp:129] Top shape: 14 48 14 14 (131712)
I0415 19:06:55.835593 26410 net.cpp:137] Memory required for data: 372741264
I0415 19:06:55.835597 26410 layer_factory.hpp:77] Creating layer fire7/expand1x1
I0415 19:06:55.835602 26410 net.cpp:84] Creating Layer fire7/expand1x1
I0415 19:06:55.835606 26410 net.cpp:406] fire7/expand1x1 <- fire7/squeeze1x1_fire7/relu_squeeze1x1_0_split_0
I0415 19:06:55.835610 26410 net.cpp:380] fire7/expand1x1 -> fire7/expand1x1
I0415 19:06:55.835815 26410 net.cpp:122] Setting up fire7/expand1x1
I0415 19:06:55.835821 26410 net.cpp:129] Top shape: 14 192 14 14 (526848)
I0415 19:06:55.835824 26410 net.cpp:137] Memory required for data: 374848656
I0415 19:06:55.835829 26410 layer_factory.hpp:77] Creating layer fire7/relu_expand1x1
I0415 19:06:55.835832 26410 net.cpp:84] Creating Layer fire7/relu_expand1x1
I0415 19:06:55.835835 26410 net.cpp:406] fire7/relu_expand1x1 <- fire7/expand1x1
I0415 19:06:55.835839 26410 net.cpp:367] fire7/relu_expand1x1 -> fire7/expand1x1 (in-place)
I0415 19:06:55.835844 26410 net.cpp:122] Setting up fire7/relu_expand1x1
I0415 19:06:55.835847 26410 net.cpp:129] Top shape: 14 192 14 14 (526848)
I0415 19:06:55.835850 26410 net.cpp:137] Memory required for data: 376956048
I0415 19:06:55.835851 26410 layer_factory.hpp:77] Creating layer fire7/expand3x3
I0415 19:06:55.835858 26410 net.cpp:84] Creating Layer fire7/expand3x3
I0415 19:06:55.835860 26410 net.cpp:406] fire7/expand3x3 <- fire7/squeeze1x1_fire7/relu_squeeze1x1_0_split_1
I0415 19:06:55.835865 26410 net.cpp:380] fire7/expand3x3 -> fire7/expand3x3
I0415 19:06:55.837002 26410 net.cpp:122] Setting up fire7/expand3x3
I0415 19:06:55.837015 26410 net.cpp:129] Top shape: 14 192 14 14 (526848)
I0415 19:06:55.837018 26410 net.cpp:137] Memory required for data: 379063440
I0415 19:06:55.837025 26410 layer_factory.hpp:77] Creating layer fire7/relu_expand3x3
I0415 19:06:55.837033 26410 net.cpp:84] Creating Layer fire7/relu_expand3x3
I0415 19:06:55.837038 26410 net.cpp:406] fire7/relu_expand3x3 <- fire7/expand3x3
I0415 19:06:55.837043 26410 net.cpp:367] fire7/relu_expand3x3 -> fire7/expand3x3 (in-place)
I0415 19:06:55.837049 26410 net.cpp:122] Setting up fire7/relu_expand3x3
I0415 19:06:55.837054 26410 net.cpp:129] Top shape: 14 192 14 14 (526848)
I0415 19:06:55.837055 26410 net.cpp:137] Memory required for data: 381170832
I0415 19:06:55.837059 26410 layer_factory.hpp:77] Creating layer fire7/concat
I0415 19:06:55.837062 26410 net.cpp:84] Creating Layer fire7/concat
I0415 19:06:55.837069 26410 net.cpp:406] fire7/concat <- fire7/expand1x1
I0415 19:06:55.837072 26410 net.cpp:406] fire7/concat <- fire7/expand3x3
I0415 19:06:55.837077 26410 net.cpp:380] fire7/concat -> fire7/concat
I0415 19:06:55.837100 26410 net.cpp:122] Setting up fire7/concat
I0415 19:06:55.837108 26410 net.cpp:129] Top shape: 14 384 14 14 (1053696)
I0415 19:06:55.837113 26410 net.cpp:137] Memory required for data: 385385616
I0415 19:06:55.837117 26410 layer_factory.hpp:77] Creating layer fire8/squeeze1x1
I0415 19:06:55.837129 26410 net.cpp:84] Creating Layer fire8/squeeze1x1
I0415 19:06:55.837136 26410 net.cpp:406] fire8/squeeze1x1 <- fire7/concat
I0415 19:06:55.837143 26410 net.cpp:380] fire8/squeeze1x1 -> fire8/squeeze1x1
I0415 19:06:55.837579 26410 net.cpp:122] Setting up fire8/squeeze1x1
I0415 19:06:55.837591 26410 net.cpp:129] Top shape: 14 64 14 14 (175616)
I0415 19:06:55.837596 26410 net.cpp:137] Memory required for data: 386088080
I0415 19:06:55.837604 26410 layer_factory.hpp:77] Creating layer fire8/relu_squeeze1x1
I0415 19:06:55.837612 26410 net.cpp:84] Creating Layer fire8/relu_squeeze1x1
I0415 19:06:55.837618 26410 net.cpp:406] fire8/relu_squeeze1x1 <- fire8/squeeze1x1
I0415 19:06:55.837626 26410 net.cpp:367] fire8/relu_squeeze1x1 -> fire8/squeeze1x1 (in-place)
I0415 19:06:55.837635 26410 net.cpp:122] Setting up fire8/relu_squeeze1x1
I0415 19:06:55.837641 26410 net.cpp:129] Top shape: 14 64 14 14 (175616)
I0415 19:06:55.837642 26410 net.cpp:137] Memory required for data: 386790544
I0415 19:06:55.837644 26410 layer_factory.hpp:77] Creating layer fire8/squeeze1x1_fire8/relu_squeeze1x1_0_split
I0415 19:06:55.837649 26410 net.cpp:84] Creating Layer fire8/squeeze1x1_fire8/relu_squeeze1x1_0_split
I0415 19:06:55.837652 26410 net.cpp:406] fire8/squeeze1x1_fire8/relu_squeeze1x1_0_split <- fire8/squeeze1x1
I0415 19:06:55.837657 26410 net.cpp:380] fire8/squeeze1x1_fire8/relu_squeeze1x1_0_split -> fire8/squeeze1x1_fire8/relu_squeeze1x1_0_split_0
I0415 19:06:55.837662 26410 net.cpp:380] fire8/squeeze1x1_fire8/relu_squeeze1x1_0_split -> fire8/squeeze1x1_fire8/relu_squeeze1x1_0_split_1
I0415 19:06:55.837693 26410 net.cpp:122] Setting up fire8/squeeze1x1_fire8/relu_squeeze1x1_0_split
I0415 19:06:55.837698 26410 net.cpp:129] Top shape: 14 64 14 14 (175616)
I0415 19:06:55.837702 26410 net.cpp:129] Top shape: 14 64 14 14 (175616)
I0415 19:06:55.837703 26410 net.cpp:137] Memory required for data: 388195472
I0415 19:06:55.837705 26410 layer_factory.hpp:77] Creating layer fire8/expand1x1
I0415 19:06:55.837713 26410 net.cpp:84] Creating Layer fire8/expand1x1
I0415 19:06:55.837715 26410 net.cpp:406] fire8/expand1x1 <- fire8/squeeze1x1_fire8/relu_squeeze1x1_0_split_0
I0415 19:06:55.837720 26410 net.cpp:380] fire8/expand1x1 -> fire8/expand1x1
I0415 19:06:55.837982 26410 net.cpp:122] Setting up fire8/expand1x1
I0415 19:06:55.837990 26410 net.cpp:129] Top shape: 14 256 14 14 (702464)
I0415 19:06:55.837992 26410 net.cpp:137] Memory required for data: 391005328
I0415 19:06:55.837996 26410 layer_factory.hpp:77] Creating layer fire8/relu_expand1x1
I0415 19:06:55.838002 26410 net.cpp:84] Creating Layer fire8/relu_expand1x1
I0415 19:06:55.838004 26410 net.cpp:406] fire8/relu_expand1x1 <- fire8/expand1x1
I0415 19:06:55.838009 26410 net.cpp:367] fire8/relu_expand1x1 -> fire8/expand1x1 (in-place)
I0415 19:06:55.838013 26410 net.cpp:122] Setting up fire8/relu_expand1x1
I0415 19:06:55.838017 26410 net.cpp:129] Top shape: 14 256 14 14 (702464)
I0415 19:06:55.838019 26410 net.cpp:137] Memory required for data: 393815184
I0415 19:06:55.838021 26410 layer_factory.hpp:77] Creating layer fire8/expand3x3
I0415 19:06:55.838027 26410 net.cpp:84] Creating Layer fire8/expand3x3
I0415 19:06:55.838030 26410 net.cpp:406] fire8/expand3x3 <- fire8/squeeze1x1_fire8/relu_squeeze1x1_0_split_1
I0415 19:06:55.838035 26410 net.cpp:380] fire8/expand3x3 -> fire8/expand3x3
I0415 19:06:55.839246 26410 net.cpp:122] Setting up fire8/expand3x3
I0415 19:06:55.839268 26410 net.cpp:129] Top shape: 14 256 14 14 (702464)
I0415 19:06:55.839272 26410 net.cpp:137] Memory required for data: 396625040
I0415 19:06:55.839282 26410 layer_factory.hpp:77] Creating layer fire8/relu_expand3x3
I0415 19:06:55.839298 26410 net.cpp:84] Creating Layer fire8/relu_expand3x3
I0415 19:06:55.839306 26410 net.cpp:406] fire8/relu_expand3x3 <- fire8/expand3x3
I0415 19:06:55.839318 26410 net.cpp:367] fire8/relu_expand3x3 -> fire8/expand3x3 (in-place)
I0415 19:06:55.839327 26410 net.cpp:122] Setting up fire8/relu_expand3x3
I0415 19:06:55.839332 26410 net.cpp:129] Top shape: 14 256 14 14 (702464)
I0415 19:06:55.839336 26410 net.cpp:137] Memory required for data: 399434896
I0415 19:06:55.839339 26410 layer_factory.hpp:77] Creating layer fire8/concat
I0415 19:06:55.839346 26410 net.cpp:84] Creating Layer fire8/concat
I0415 19:06:55.839390 26410 net.cpp:406] fire8/concat <- fire8/expand1x1
I0415 19:06:55.839393 26410 net.cpp:406] fire8/concat <- fire8/expand3x3
I0415 19:06:55.839399 26410 net.cpp:380] fire8/concat -> fire8/concat
I0415 19:06:55.839437 26410 net.cpp:122] Setting up fire8/concat
I0415 19:06:55.839444 26410 net.cpp:129] Top shape: 14 512 14 14 (1404928)
I0415 19:06:55.839448 26410 net.cpp:137] Memory required for data: 405054608
I0415 19:06:55.839453 26410 layer_factory.hpp:77] Creating layer fire9/squeeze1x1
I0415 19:06:55.839474 26410 net.cpp:84] Creating Layer fire9/squeeze1x1
I0415 19:06:55.839478 26410 net.cpp:406] fire9/squeeze1x1 <- fire8/concat
I0415 19:06:55.839483 26410 net.cpp:380] fire9/squeeze1x1 -> fire9/squeeze1x1
I0415 19:06:55.839973 26410 net.cpp:122] Setting up fire9/squeeze1x1
I0415 19:06:55.839983 26410 net.cpp:129] Top shape: 14 64 14 14 (175616)
I0415 19:06:55.839987 26410 net.cpp:137] Memory required for data: 405757072
I0415 19:06:55.839994 26410 layer_factory.hpp:77] Creating layer fire9/relu_squeeze1x1
I0415 19:06:55.840016 26410 net.cpp:84] Creating Layer fire9/relu_squeeze1x1
I0415 19:06:55.840021 26410 net.cpp:406] fire9/relu_squeeze1x1 <- fire9/squeeze1x1
I0415 19:06:55.840029 26410 net.cpp:367] fire9/relu_squeeze1x1 -> fire9/squeeze1x1 (in-place)
I0415 19:06:55.840045 26410 net.cpp:122] Setting up fire9/relu_squeeze1x1
I0415 19:06:55.840052 26410 net.cpp:129] Top shape: 14 64 14 14 (175616)
I0415 19:06:55.840056 26410 net.cpp:137] Memory required for data: 406459536
I0415 19:06:55.840060 26410 layer_factory.hpp:77] Creating layer fire9/squeeze1x1_fire9/relu_squeeze1x1_0_split
I0415 19:06:55.840068 26410 net.cpp:84] Creating Layer fire9/squeeze1x1_fire9/relu_squeeze1x1_0_split
I0415 19:06:55.840072 26410 net.cpp:406] fire9/squeeze1x1_fire9/relu_squeeze1x1_0_split <- fire9/squeeze1x1
I0415 19:06:55.840080 26410 net.cpp:380] fire9/squeeze1x1_fire9/relu_squeeze1x1_0_split -> fire9/squeeze1x1_fire9/relu_squeeze1x1_0_split_0
I0415 19:06:55.840090 26410 net.cpp:380] fire9/squeeze1x1_fire9/relu_squeeze1x1_0_split -> fire9/squeeze1x1_fire9/relu_squeeze1x1_0_split_1
I0415 19:06:55.840135 26410 net.cpp:122] Setting up fire9/squeeze1x1_fire9/relu_squeeze1x1_0_split
I0415 19:06:55.840144 26410 net.cpp:129] Top shape: 14 64 14 14 (175616)
I0415 19:06:55.840150 26410 net.cpp:129] Top shape: 14 64 14 14 (175616)
I0415 19:06:55.840153 26410 net.cpp:137] Memory required for data: 407864464
I0415 19:06:55.840158 26410 layer_factory.hpp:77] Creating layer fire9/expand1x1
I0415 19:06:55.840168 26410 net.cpp:84] Creating Layer fire9/expand1x1
I0415 19:06:55.840173 26410 net.cpp:406] fire9/expand1x1 <- fire9/squeeze1x1_fire9/relu_squeeze1x1_0_split_0
I0415 19:06:55.840181 26410 net.cpp:380] fire9/expand1x1 -> fire9/expand1x1
I0415 19:06:55.841473 26410 net.cpp:122] Setting up fire9/expand1x1
I0415 19:06:55.841485 26410 net.cpp:129] Top shape: 14 256 14 14 (702464)
I0415 19:06:55.841486 26410 net.cpp:137] Memory required for data: 410674320
I0415 19:06:55.841492 26410 layer_factory.hpp:77] Creating layer fire9/relu_expand1x1
I0415 19:06:55.841498 26410 net.cpp:84] Creating Layer fire9/relu_expand1x1
I0415 19:06:55.841501 26410 net.cpp:406] fire9/relu_expand1x1 <- fire9/expand1x1
I0415 19:06:55.841506 26410 net.cpp:367] fire9/relu_expand1x1 -> fire9/expand1x1 (in-place)
I0415 19:06:55.841511 26410 net.cpp:122] Setting up fire9/relu_expand1x1
I0415 19:06:55.841516 26410 net.cpp:129] Top shape: 14 256 14 14 (702464)
I0415 19:06:55.841517 26410 net.cpp:137] Memory required for data: 413484176
I0415 19:06:55.841519 26410 layer_factory.hpp:77] Creating layer fire9/expand3x3
I0415 19:06:55.841526 26410 net.cpp:84] Creating Layer fire9/expand3x3
I0415 19:06:55.841529 26410 net.cpp:406] fire9/expand3x3 <- fire9/squeeze1x1_fire9/relu_squeeze1x1_0_split_1
I0415 19:06:55.841533 26410 net.cpp:380] fire9/expand3x3 -> fire9/expand3x3
I0415 19:06:55.843329 26410 net.cpp:122] Setting up fire9/expand3x3
I0415 19:06:55.843345 26410 net.cpp:129] Top shape: 14 256 14 14 (702464)
I0415 19:06:55.843348 26410 net.cpp:137] Memory required for data: 416294032
I0415 19:06:55.843372 26410 layer_factory.hpp:77] Creating layer fire9/relu_expand3x3
I0415 19:06:55.843382 26410 net.cpp:84] Creating Layer fire9/relu_expand3x3
I0415 19:06:55.843386 26410 net.cpp:406] fire9/relu_expand3x3 <- fire9/expand3x3
I0415 19:06:55.843392 26410 net.cpp:367] fire9/relu_expand3x3 -> fire9/expand3x3 (in-place)
I0415 19:06:55.843400 26410 net.cpp:122] Setting up fire9/relu_expand3x3
I0415 19:06:55.843403 26410 net.cpp:129] Top shape: 14 256 14 14 (702464)
I0415 19:06:55.843405 26410 net.cpp:137] Memory required for data: 419103888
I0415 19:06:55.843407 26410 layer_factory.hpp:77] Creating layer fire9/concat
I0415 19:06:55.843411 26410 net.cpp:84] Creating Layer fire9/concat
I0415 19:06:55.843415 26410 net.cpp:406] fire9/concat <- fire9/expand1x1
I0415 19:06:55.843417 26410 net.cpp:406] fire9/concat <- fire9/expand3x3
I0415 19:06:55.843421 26410 net.cpp:380] fire9/concat -> fire9/concat
I0415 19:06:55.843448 26410 net.cpp:122] Setting up fire9/concat
I0415 19:06:55.843453 26410 net.cpp:129] Top shape: 14 512 14 14 (1404928)
I0415 19:06:55.843456 26410 net.cpp:137] Memory required for data: 424723600
I0415 19:06:55.843458 26410 layer_factory.hpp:77] Creating layer drop9
I0415 19:06:55.843464 26410 net.cpp:84] Creating Layer drop9
I0415 19:06:55.843467 26410 net.cpp:406] drop9 <- fire9/concat
I0415 19:06:55.843472 26410 net.cpp:367] drop9 -> fire9/concat (in-place)
I0415 19:06:55.843493 26410 net.cpp:122] Setting up drop9
I0415 19:06:55.843497 26410 net.cpp:129] Top shape: 14 512 14 14 (1404928)
I0415 19:06:55.843500 26410 net.cpp:137] Memory required for data: 430343312
I0415 19:06:55.843502 26410 layer_factory.hpp:77] Creating layer conv10
I0415 19:06:55.843511 26410 net.cpp:84] Creating Layer conv10
I0415 19:06:55.843514 26410 net.cpp:406] conv10 <- fire9/concat
I0415 19:06:55.843519 26410 net.cpp:380] conv10 -> conv10
I0415 19:06:55.843796 26410 net.cpp:122] Setting up conv10
I0415 19:06:55.843806 26410 net.cpp:129] Top shape: 14 2 14 14 (5488)
I0415 19:06:55.843811 26410 net.cpp:137] Memory required for data: 430365264
I0415 19:06:55.843817 26410 layer_factory.hpp:77] Creating layer relu_conv10
I0415 19:06:55.843824 26410 net.cpp:84] Creating Layer relu_conv10
I0415 19:06:55.843828 26410 net.cpp:406] relu_conv10 <- conv10
I0415 19:06:55.843835 26410 net.cpp:367] relu_conv10 -> conv10 (in-place)
I0415 19:06:55.843842 26410 net.cpp:122] Setting up relu_conv10
I0415 19:06:55.843848 26410 net.cpp:129] Top shape: 14 2 14 14 (5488)
I0415 19:06:55.843853 26410 net.cpp:137] Memory required for data: 430387216
I0415 19:06:55.843857 26410 layer_factory.hpp:77] Creating layer pool10
I0415 19:06:55.843864 26410 net.cpp:84] Creating Layer pool10
I0415 19:06:55.843868 26410 net.cpp:406] pool10 <- conv10
I0415 19:06:55.843878 26410 net.cpp:380] pool10 -> pool10
I0415 19:06:55.843912 26410 net.cpp:122] Setting up pool10
I0415 19:06:55.843920 26410 net.cpp:129] Top shape: 14 2 1 1 (28)
I0415 19:06:55.843924 26410 net.cpp:137] Memory required for data: 430387328
I0415 19:06:55.843928 26410 layer_factory.hpp:77] Creating layer pool10_pool10_0_split
I0415 19:06:55.843940 26410 net.cpp:84] Creating Layer pool10_pool10_0_split
I0415 19:06:55.843945 26410 net.cpp:406] pool10_pool10_0_split <- pool10
I0415 19:06:55.843952 26410 net.cpp:380] pool10_pool10_0_split -> pool10_pool10_0_split_0
I0415 19:06:55.843961 26410 net.cpp:380] pool10_pool10_0_split -> pool10_pool10_0_split_1
I0415 19:06:55.843997 26410 net.cpp:122] Setting up pool10_pool10_0_split
I0415 19:06:55.844004 26410 net.cpp:129] Top shape: 14 2 1 1 (28)
I0415 19:06:55.844009 26410 net.cpp:129] Top shape: 14 2 1 1 (28)
I0415 19:06:55.844012 26410 net.cpp:137] Memory required for data: 430387552
I0415 19:06:55.844017 26410 layer_factory.hpp:77] Creating layer loss
I0415 19:06:55.844027 26410 net.cpp:84] Creating Layer loss
I0415 19:06:55.844032 26410 net.cpp:406] loss <- pool10_pool10_0_split_0
I0415 19:06:55.844038 26410 net.cpp:406] loss <- label_data_1_split_0
I0415 19:06:55.844045 26410 net.cpp:380] loss -> loss
…
