…
I0617 18:22:19.748412 28676 net.cpp:51] Initializing net from parameters: 
state {
  phase: TRAIN
  level: 0
  stage: ""
}
layer {
  name: "data"
  type: "ImageData"
  top: "data"
  top: "label"
  include {
    phase: TRAIN
  }
  transform_param {
    mirror: true
    crop_size: 227
    mean_file: "nsfwnet2_mean.binaryproto"
  }
  image_data_param {
    source: "/home/dbicho/Documents/datasets/all_labeled_dataset_augmented_finetuning/train.txt"
    batch_size: 14
    shuffle: true
    root_folder: "/home/dbicho/Documents/datasets/all_labeled_dataset_augmented_finetuning/"
  }
}
layer {
  name: "conv1"
  type: "Convolution"
  bottom: "data"
  top: "conv1"
  convolution_param {
    num_output: 64
    kernel_size: 3
    stride: 2
    weight_filler {
      type: "xavier"
    }
  }
}
layer {
  name: "relu_conv1"
  type: "ReLU"
  bottom: "conv1"
  top: "conv1"
}
layer {
  name: "pool1"
  type: "Pooling"
  bottom: "conv1"
  top: "pool1"
  pooling_param {
    pool: MAX
    kernel_size: 3
    stride: 2
  }
}
layer {
  name: "fire2/squeeze1x1"
  type: "Convolution"
  bottom: "pool1"
  top: "fire2/squeeze1x1"
  convolution_param {
    num_output: 16
    kernel_size: 1
    weight_filler {
      type: "xavier"
    }
  }
}
layer {
  name: "fire2/relu_squeeze1x1"
  type: "ReLU"
  bottom: "fire2/squeeze1x1"
  top: "fire2/squeeze1x1"
}
layer {
  name: "fire2/expand1x1"
  type: "Convolution"
  bottom: "fire2/squeeze1x1"
  top: "fire2/expand1x1"
  convolution_param {
    num_output: 64
    kernel_size: 1
    weight_filler {
      type: "xavier"
    }
  }
}
layer {
  name: "fire2/relu_expand1x1"
  type: "ReLU"
  bottom: "fire2/expand1x1"
  top: "fire2/expand1x1"
}
layer {
  name: "fire2/expand3x3"
  type: "Convolution"
  bottom: "fire2/squeeze1x1"
  top: "fire2/expand3x3"
  convolution_param {
    num_output: 64
    pad: 1
    kernel_size: 3
    weight_filler {
      type: "xavier"
    }
  }
}
layer {
  name: "fire2/relu_expand3x3"
  type: "ReLU"
  bottom: "fire2/expand3x3"
  top: "fire2/expand3x3"
}
layer {
  name: "fire2/concat"
  type: "Concat"
  bottom: "fire2/expand1x1"
  bottom: "fire2/expand3x3"
  top: "fire2/concat"
}
layer {
  name: "fire3/squeeze1x1"
  type: "Convolution"
  bottom: "fire2/concat"
  top: "fire3/squeeze1x1"
  convolution_param {
    num_output: 16
    kernel_size: 1
    weight_filler {
      type: "xavier"
    }
  }
}
layer {
  name: "fire3/relu_squeeze1x1"
  type: "ReLU"
  bottom: "fire3/squeeze1x1"
  top: "fire3/squeeze1x1"
}
layer {
  name: "fire3/expand1x1"
  type: "Convolution"
  bottom: "fire3/squeeze1x1"
  top: "fire3/expand1x1"
  convolution_param {
    num_output: 64
    kernel_size: 1
    weight_filler {
      type: "xavier"
    }
  }
}
layer {
  name: "fire3/relu_expand1x1"
  type: "ReLU"
  bottom: "fire3/expand1x1"
  top: "fire3/expand1x1"
}
layer {
  name: "fire3/expand3x3"
  type: "Convolution"
  bottom: "fire3/squeeze1x1"
  top: "fire3/expand3x3"
  convolution_param {
    num_output: 64
    pad: 1
    kernel_size: 3
    weight_filler {
      type: "xavier"
    }
  }
}
layer {
  name: "fire3/relu_expand3x3"
  type: "ReLU"
  bottom: "fire3/expand3x3"
  top: "fire3/expand3x3"
}
layer {
  name: "fire3/concat"
  type: "Concat"
  bottom: "fire3/expand1x1"
  bottom: "fire3/expand3x3"
  top: "fire3/concat"
}
layer {
  name: "pool3"
  type: "Pooling"
  bottom: "fire3/concat"
  top: "pool3"
  pooling_param {
    pool: MAX
    kernel_size: 3
    stride: 2
  }
}
layer {
  name: "fire4/squeeze1x1"
  type: "Convolution"
  bottom: "pool3"
  top: "fire4/squeeze1x1"
  convolution_param {
    num_output: 32
    kernel_size: 1
    weight_filler {
      type: "xavier"
    }
  }
}
layer {
  name: "fire4/relu_squeeze1x1"
  type: "ReLU"
  bottom: "fire4/squeeze1x1"
  top: "fire4/squeeze1x1"
}
layer {
  name: "fire4/expand1x1"
  type: "Convolution"
  bottom: "fire4/squeeze1x1"
  top: "fire4/expand1x1"
  convolution_param {
    num_output: 128
    kernel_size: 1
    weight_filler {
      type: "xavier"
    }
  }
}
layer {
  name: "fire4/relu_expand1x1"
  type: "ReLU"
  bottom: "fire4/expand1x1"
  top: "fire4/expand1x1"
}
layer {
  name: "fire4/expand3x3"
  type: "Convolution"
  bottom: "fire4/squeeze1x1"
  top: "fire4/expand3x3"
  convolution_param {
    num_output: 128
    pad: 1
    kernel_size: 3
    weight_filler {
      type: "xavier"
    }
  }
}
layer {
  name: "fire4/relu_expand3x3"
  type: "ReLU"
  bottom: "fire4/expand3x3"
  top: "fire4/expand3x3"
}
layer {
  name: "fire4/concat"
  type: "Concat"
  bottom: "fire4/expand1x1"
  bottom: "fire4/expand3x3"
  top: "fire4/concat"
}
layer {
  name: "fire5/squeeze1x1"
  type: "Convolution"
  bottom: "fire4/concat"
  top: "fire5/squeeze1x1"
  convolution_param {
    num_output: 32
    kernel_size: 1
    weight_filler {
      type: "xavier"
    }
  }
}
layer {
  name: "fire5/relu_squeeze1x1"
  type: "ReLU"
  bottom: "fire5/squeeze1x1"
  top: "fire5/squeeze1x1"
}
layer {
  name: "fire5/expand1x1"
  type: "Convolution"
  bottom: "fire5/squeeze1x1"
  top: "fire5/expand1x1"
  convolution_param {
    num_output: 128
    kernel_size: 1
    weight_filler {
      type: "xavier"
    }
  }
}
layer {
  name: "fire5/relu_expand1x1"
  type: "ReLU"
  bottom: "fire5/expand1x1"
  top: "fire5/expand1x1"
}
layer {
  name: "fire5/expand3x3"
  type: "Convolution"
  bottom: "fire5/squeeze1x1"
  top: "fire5/expand3x3"
  convolution_param {
    num_output: 128
    pad: 1
    kernel_size: 3
    weight_filler {
      type: "xavier"
    }
  }
}
layer {
  name: "fire5/relu_expand3x3"
  type: "ReLU"
  bottom: "fire5/expand3x3"
  top: "fire5/expand3x3"
}
layer {
  name: "fire5/concat"
  type: "Concat"
  bottom: "fire5/expand1x1"
  bottom: "fire5/expand3x3"
  top: "fire5/concat"
}
layer {
  name: "pool5"
  type: "Pooling"
  bottom: "fire5/concat"
  top: "pool5"
  pooling_param {
    pool: MAX
    kernel_size: 3
    stride: 2
  }
}
layer {
  name: "fire6/squeeze1x1"
  type: "Convolution"
  bottom: "pool5"
  top: "fire6/squeeze1x1"
  convolution_param {
    num_output: 48
    kernel_size: 1
    weight_filler {
      type: "xavier"
    }
  }
}
layer {
  name: "fire6/relu_squeeze1x1"
  type: "ReLU"
  bottom: "fire6/squeeze1x1"
  top: "fire6/squeeze1x1"
}
layer {
  name: "fire6/expand1x1"
  type: "Convolution"
  bottom: "fire6/squeeze1x1"
  top: "fire6/expand1x1"
  convolution_param {
    num_output: 192
    kernel_size: 1
    weight_filler {
      type: "xavier"
    }
  }
}
layer {
  name: "fire6/relu_expand1x1"
  type: "ReLU"
  bottom: "fire6/expand1x1"
  top: "fire6/expand1x1"
}
layer {
  name: "fire6/expand3x3"
  type: "Convolution"
  bottom: "fire6/squeeze1x1"
  top: "fire6/expand3x3"
  convolution_param {
    num_output: 192
    pad: 1
    kernel_size: 3
    weight_filler {
      type: "xavier"
    }
  }
}
layer {
  name: "fire6/relu_expand3x3"
  type: "ReLU"
  bottom: "fire6/expand3x3"
  top: "fire6/expand3x3"
}
layer {
  name: "fire6/concat"
  type: "Concat"
  bottom: "fire6/expand1x1"
  bottom: "fire6/expand3x3"
  top: "fire6/concat"
}
layer {
  name: "fire7/squeeze1x1"
  type: "Convolution"
  bottom: "fire6/concat"
  top: "fire7/squeeze1x1"
  convolution_param {
    num_output: 48
    kernel_size: 1
    weight_filler {
      type: "xavier"
    }
  }
}
layer {
  name: "fire7/relu_squeeze1x1"
  type: "ReLU"
  bottom: "fire7/squeeze1x1"
  top: "fire7/squeeze1x1"
}
layer {
  name: "fire7/expand1x1"
  type: "Convolution"
  bottom: "fire7/squeeze1x1"
  top: "fire7/expand1x1"
  convolution_param {
    num_output: 192
    kernel_size: 1
    weight_filler {
      type: "xavier"
    }
  }
}
layer {
  name: "fire7/relu_expand1x1"
  type: "ReLU"
  bottom: "fire7/expand1x1"
  top: "fire7/expand1x1"
}
layer {
  name: "fire7/expand3x3"
  type: "Convolution"
  bottom: "fire7/squeeze1x1"
  top: "fire7/expand3x3"
  convolution_param {
    num_output: 192
    pad: 1
    kernel_size: 3
    weight_filler {
      type: "xavier"
    }
  }
}
layer {
  name: "fire7/relu_expand3x3"
  type: "ReLU"
  bottom: "fire7/expand3x3"
  top: "fire7/expand3x3"
}
layer {
  name: "fire7/concat"
  type: "Concat"
  bottom: "fire7/expand1x1"
  bottom: "fire7/expand3x3"
  top: "fire7/concat"
}
layer {
  name: "fire8/squeeze1x1"
  type: "Convolution"
  bottom: "fire7/concat"
  top: "fire8/squeeze1x1"
  convolution_param {
    num_output: 64
    kernel_size: 1
    weight_filler {
      type: "xavier"
    }
  }
}
layer {
  name: "fire8/relu_squeeze1x1"
  type: "ReLU"
  bottom: "fire8/squeeze1x1"
  top: "fire8/squeeze1x1"
}
layer {
  name: "fire8/expand1x1"
  type: "Convolution"
  bottom: "fire8/squeeze1x1"
  top: "fire8/expand1x1"
  convolution_param {
    num_output: 256
    kernel_size: 1
    weight_filler {
      type: "xavier"
    }
  }
}
layer {
  name: "fire8/relu_expand1x1"
  type: "ReLU"
  bottom: "fire8/expand1x1"
  top: "fire8/expand1x1"
}
layer {
  name: "fire8/expand3x3"
  type: "Convolution"
  bottom: "fire8/squeeze1x1"
  top: "fire8/expand3x3"
  convolution_param {
    num_output: 256
    pad: 1
    kernel_size: 3
    weight_filler {
      type: "xavier"
    }
  }
}
layer {
  name: "fire8/relu_expand3x3"
  type: "ReLU"
  bottom: "fire8/expand3x3"
  top: "fire8/expand3x3"
}
layer {
  name: "fire8/concat"
  type: "Concat"
  bottom: "fire8/expand1x1"
  bottom: "fire8/expand3x3"
  top: "fire8/concat"
}
layer {
  name: "fire9/squeeze1x1"
  type: "Convolution"
  bottom: "fire8/concat"
  top: "fire9/squeeze1x1"
  convolution_param {
    num_output: 64
    kernel_size: 1
    weight_filler {
      type: "xavier"
    }
  }
}
layer {
  name: "fire9/relu_squeeze1x1"
  type: "ReLU"
  bottom: "fire9/squeeze1x1"
  top: "fire9/squeeze1x1"
}
layer {
  name: "fire9/expand1x1"
  type: "Convolution"
  bottom: "fire9/squeeze1x1"
  top: "fire9/expand1x1"
  convolution_param {
    num_output: 256
    kernel_size: 1
    weight_filler {
      type: "xavier"
    }
  }
}
layer {
  name: "fire9/relu_expand1x1"
  type: "ReLU"
  bottom: "fire9/expand1x1"
  top: "fire9/expand1x1"
}
layer {
  name: "fire9/expand3x3"
  type: "Convolution"
  bottom: "fire9/squeeze1x1"
  top: "fire9/expand3x3"
  convolution_param {
    num_output: 256
    pad: 1
    kernel_size: 3
    weight_filler {
      type: "xavier"
    }
  }
}
layer {
  name: "fire9/relu_expand3x3"
  type: "ReLU"
  bottom: "fire9/expand3x3"
  top: "fire9/expand3x3"
}
layer {
  name: "fire9/concat"
  type: "Concat"
  bottom: "fire9/expand1x1"
  bottom: "fire9/expand3x3"
  top: "fire9/concat"
}
layer {
  name: "drop9"
  type: "Dropout"
  bottom: "fire9/concat"
  top: "fire9/concat"
  dropout_param {
    dropout_ratio: 0.5
  }
}
layer {
  name: "conv10"
  type: "Convolution"
  bottom: "fire9/concat"
  top: "conv10"
  convolution_param {
    num_output: 2
    kernel_size: 1
    weight_filler {
      type: "gaussian"
      mean: 0
      std: 0.01
    }
  }
}
layer {
  name: "relu_conv10"
  type: "ReLU"
  bottom: "conv10"
  top: "conv10"
}
layer {
  name: "pool10"
  type: "Pooling"
  bottom: "conv10"
  top: "pool10"
  pooling_param {
    pool: AVE
    global_pooling: true
  }
}
layer {
  name: "loss"
  type: "SoftmaxWithLoss"
  bottom: "pool10"
  bottom: "label"
  top: "loss"
}
layer {
  name: "accuracy"
  type: "Accuracy"
  bottom: "pool10"
  bottom: "label"
  top: "accuracy"
}
I0617 18:22:19.749037 28676 layer_factory.hpp:77] Creating layer data
I0617 18:22:19.749083 28676 net.cpp:84] Creating Layer data
I0617 18:22:19.749094 28676 net.cpp:380] data -> data
I0617 18:22:19.749122 28676 net.cpp:380] data -> label
I0617 18:22:19.749145 28676 data_transformer.cpp:25] Loading mean file from: nsfwnet2_mean.binaryproto
I0617 18:22:19.772585 28676 image_data_layer.cpp:38] Opening file /home/dbicho/Documents/datasets/all_labeled_dataset_augmented_finetuning/train.txt
I0617 18:22:19.783326 28676 image_data_layer.cpp:53] Shuffling data
I0617 18:22:19.787672 28676 image_data_layer.cpp:63] A total of 19955 images.
I0617 18:22:19.788327 28676 image_data_layer.cpp:90] output data size: 14,3,227,227
I0617 18:22:19.806032 28676 net.cpp:122] Setting up data
I0617 18:22:19.806071 28676 net.cpp:129] Top shape: 14 3 227 227 (2164218)
I0617 18:22:19.806074 28676 net.cpp:129] Top shape: 14 (14)
I0617 18:22:19.806077 28676 net.cpp:137] Memory required for data: 8656928
I0617 18:22:19.806084 28676 layer_factory.hpp:77] Creating layer label_data_1_split
I0617 18:22:19.806098 28676 net.cpp:84] Creating Layer label_data_1_split
I0617 18:22:19.806104 28676 net.cpp:406] label_data_1_split <- label
I0617 18:22:19.806116 28676 net.cpp:380] label_data_1_split -> label_data_1_split_0
I0617 18:22:19.806128 28676 net.cpp:380] label_data_1_split -> label_data_1_split_1
I0617 18:22:19.806171 28676 net.cpp:122] Setting up label_data_1_split
I0617 18:22:19.806176 28676 net.cpp:129] Top shape: 14 (14)
I0617 18:22:19.806180 28676 net.cpp:129] Top shape: 14 (14)
I0617 18:22:19.806182 28676 net.cpp:137] Memory required for data: 8657040
I0617 18:22:19.806185 28676 layer_factory.hpp:77] Creating layer conv1
I0617 18:22:19.806200 28676 net.cpp:84] Creating Layer conv1
I0617 18:22:19.806203 28676 net.cpp:406] conv1 <- data
I0617 18:22:19.806208 28676 net.cpp:380] conv1 -> conv1
I0617 18:22:19.808145 28676 net.cpp:122] Setting up conv1
I0617 18:22:19.808163 28676 net.cpp:129] Top shape: 14 64 113 113 (11441024)
I0617 18:22:19.808166 28676 net.cpp:137] Memory required for data: 54421136
I0617 18:22:19.808192 28676 layer_factory.hpp:77] Creating layer relu_conv1
I0617 18:22:19.808203 28676 net.cpp:84] Creating Layer relu_conv1
I0617 18:22:19.808209 28676 net.cpp:406] relu_conv1 <- conv1
I0617 18:22:19.808214 28676 net.cpp:367] relu_conv1 -> conv1 (in-place)
I0617 18:22:19.808223 28676 net.cpp:122] Setting up relu_conv1
I0617 18:22:19.808226 28676 net.cpp:129] Top shape: 14 64 113 113 (11441024)
I0617 18:22:19.808229 28676 net.cpp:137] Memory required for data: 100185232
I0617 18:22:19.808231 28676 layer_factory.hpp:77] Creating layer pool1
I0617 18:22:19.808240 28676 net.cpp:84] Creating Layer pool1
I0617 18:22:19.808243 28676 net.cpp:406] pool1 <- conv1
I0617 18:22:19.808248 28676 net.cpp:380] pool1 -> pool1
I0617 18:22:19.809080 28676 net.cpp:122] Setting up pool1
I0617 18:22:19.809088 28676 net.cpp:129] Top shape: 14 64 56 56 (2809856)
I0617 18:22:19.809092 28676 net.cpp:137] Memory required for data: 111424656
I0617 18:22:19.809093 28676 layer_factory.hpp:77] Creating layer fire2/squeeze1x1
I0617 18:22:19.809103 28676 net.cpp:84] Creating Layer fire2/squeeze1x1
I0617 18:22:19.809105 28676 net.cpp:406] fire2/squeeze1x1 <- pool1
I0617 18:22:19.809113 28676 net.cpp:380] fire2/squeeze1x1 -> fire2/squeeze1x1
I0617 18:22:19.809806 28676 net.cpp:122] Setting up fire2/squeeze1x1
I0617 18:22:19.809818 28676 net.cpp:129] Top shape: 14 16 56 56 (702464)
I0617 18:22:19.809821 28676 net.cpp:137] Memory required for data: 114234512
I0617 18:22:19.809849 28676 layer_factory.hpp:77] Creating layer fire2/relu_squeeze1x1
I0617 18:22:19.809860 28676 net.cpp:84] Creating Layer fire2/relu_squeeze1x1
I0617 18:22:19.809864 28676 net.cpp:406] fire2/relu_squeeze1x1 <- fire2/squeeze1x1
I0617 18:22:19.809870 28676 net.cpp:367] fire2/relu_squeeze1x1 -> fire2/squeeze1x1 (in-place)
I0617 18:22:19.809876 28676 net.cpp:122] Setting up fire2/relu_squeeze1x1
I0617 18:22:19.809880 28676 net.cpp:129] Top shape: 14 16 56 56 (702464)
I0617 18:22:19.809882 28676 net.cpp:137] Memory required for data: 117044368
I0617 18:22:19.809885 28676 layer_factory.hpp:77] Creating layer fire2/squeeze1x1_fire2/relu_squeeze1x1_0_split
I0617 18:22:19.809890 28676 net.cpp:84] Creating Layer fire2/squeeze1x1_fire2/relu_squeeze1x1_0_split
I0617 18:22:19.809891 28676 net.cpp:406] fire2/squeeze1x1_fire2/relu_squeeze1x1_0_split <- fire2/squeeze1x1
I0617 18:22:19.809897 28676 net.cpp:380] fire2/squeeze1x1_fire2/relu_squeeze1x1_0_split -> fire2/squeeze1x1_fire2/relu_squeeze1x1_0_split_0
I0617 18:22:19.809923 28676 net.cpp:380] fire2/squeeze1x1_fire2/relu_squeeze1x1_0_split -> fire2/squeeze1x1_fire2/relu_squeeze1x1_0_split_1
I0617 18:22:19.809962 28676 net.cpp:122] Setting up fire2/squeeze1x1_fire2/relu_squeeze1x1_0_split
I0617 18:22:19.809967 28676 net.cpp:129] Top shape: 14 16 56 56 (702464)
I0617 18:22:19.809972 28676 net.cpp:129] Top shape: 14 16 56 56 (702464)
I0617 18:22:19.809974 28676 net.cpp:137] Memory required for data: 122664080
I0617 18:22:19.809976 28676 layer_factory.hpp:77] Creating layer fire2/expand1x1
I0617 18:22:19.809986 28676 net.cpp:84] Creating Layer fire2/expand1x1
I0617 18:22:19.809989 28676 net.cpp:406] fire2/expand1x1 <- fire2/squeeze1x1_fire2/relu_squeeze1x1_0_split_0
I0617 18:22:19.809995 28676 net.cpp:380] fire2/expand1x1 -> fire2/expand1x1
I0617 18:22:19.810190 28676 net.cpp:122] Setting up fire2/expand1x1
I0617 18:22:19.810199 28676 net.cpp:129] Top shape: 14 64 56 56 (2809856)
I0617 18:22:19.810204 28676 net.cpp:137] Memory required for data: 133903504
I0617 18:22:19.810214 28676 layer_factory.hpp:77] Creating layer fire2/relu_expand1x1
I0617 18:22:19.810222 28676 net.cpp:84] Creating Layer fire2/relu_expand1x1
I0617 18:22:19.810226 28676 net.cpp:406] fire2/relu_expand1x1 <- fire2/expand1x1
I0617 18:22:19.810235 28676 net.cpp:367] fire2/relu_expand1x1 -> fire2/expand1x1 (in-place)
I0617 18:22:19.810241 28676 net.cpp:122] Setting up fire2/relu_expand1x1
I0617 18:22:19.810248 28676 net.cpp:129] Top shape: 14 64 56 56 (2809856)
I0617 18:22:19.810252 28676 net.cpp:137] Memory required for data: 145142928
I0617 18:22:19.810256 28676 layer_factory.hpp:77] Creating layer fire2/expand3x3
I0617 18:22:19.810266 28676 net.cpp:84] Creating Layer fire2/expand3x3
I0617 18:22:19.810272 28676 net.cpp:406] fire2/expand3x3 <- fire2/squeeze1x1_fire2/relu_squeeze1x1_0_split_1
I0617 18:22:19.810281 28676 net.cpp:380] fire2/expand3x3 -> fire2/expand3x3
I0617 18:22:19.810518 28676 net.cpp:122] Setting up fire2/expand3x3
I0617 18:22:19.810526 28676 net.cpp:129] Top shape: 14 64 56 56 (2809856)
I0617 18:22:19.810530 28676 net.cpp:137] Memory required for data: 156382352
I0617 18:22:19.810539 28676 layer_factory.hpp:77] Creating layer fire2/relu_expand3x3
I0617 18:22:19.810549 28676 net.cpp:84] Creating Layer fire2/relu_expand3x3
I0617 18:22:19.810554 28676 net.cpp:406] fire2/relu_expand3x3 <- fire2/expand3x3
I0617 18:22:19.810560 28676 net.cpp:367] fire2/relu_expand3x3 -> fire2/expand3x3 (in-place)
I0617 18:22:19.810570 28676 net.cpp:122] Setting up fire2/relu_expand3x3
I0617 18:22:19.810576 28676 net.cpp:129] Top shape: 14 64 56 56 (2809856)
I0617 18:22:19.810582 28676 net.cpp:137] Memory required for data: 167621776
I0617 18:22:19.810586 28676 layer_factory.hpp:77] Creating layer fire2/concat
I0617 18:22:19.810593 28676 net.cpp:84] Creating Layer fire2/concat
I0617 18:22:19.810597 28676 net.cpp:406] fire2/concat <- fire2/expand1x1
I0617 18:22:19.810602 28676 net.cpp:406] fire2/concat <- fire2/expand3x3
I0617 18:22:19.810609 28676 net.cpp:380] fire2/concat -> fire2/concat
I0617 18:22:19.810636 28676 net.cpp:122] Setting up fire2/concat
I0617 18:22:19.810643 28676 net.cpp:129] Top shape: 14 128 56 56 (5619712)
I0617 18:22:19.810647 28676 net.cpp:137] Memory required for data: 190100624
I0617 18:22:19.810652 28676 layer_factory.hpp:77] Creating layer fire3/squeeze1x1
I0617 18:22:19.810662 28676 net.cpp:84] Creating Layer fire3/squeeze1x1
I0617 18:22:19.810667 28676 net.cpp:406] fire3/squeeze1x1 <- fire2/concat
I0617 18:22:19.810675 28676 net.cpp:380] fire3/squeeze1x1 -> fire3/squeeze1x1
I0617 18:22:19.810871 28676 net.cpp:122] Setting up fire3/squeeze1x1
I0617 18:22:19.810880 28676 net.cpp:129] Top shape: 14 16 56 56 (702464)
I0617 18:22:19.810884 28676 net.cpp:137] Memory required for data: 192910480
I0617 18:22:19.810896 28676 layer_factory.hpp:77] Creating layer fire3/relu_squeeze1x1
I0617 18:22:19.810904 28676 net.cpp:84] Creating Layer fire3/relu_squeeze1x1
I0617 18:22:19.810909 28676 net.cpp:406] fire3/relu_squeeze1x1 <- fire3/squeeze1x1
I0617 18:22:19.810925 28676 net.cpp:367] fire3/relu_squeeze1x1 -> fire3/squeeze1x1 (in-place)
I0617 18:22:19.810935 28676 net.cpp:122] Setting up fire3/relu_squeeze1x1
I0617 18:22:19.810941 28676 net.cpp:129] Top shape: 14 16 56 56 (702464)
I0617 18:22:19.810946 28676 net.cpp:137] Memory required for data: 195720336
I0617 18:22:19.810950 28676 layer_factory.hpp:77] Creating layer fire3/squeeze1x1_fire3/relu_squeeze1x1_0_split
I0617 18:22:19.810958 28676 net.cpp:84] Creating Layer fire3/squeeze1x1_fire3/relu_squeeze1x1_0_split
I0617 18:22:19.810962 28676 net.cpp:406] fire3/squeeze1x1_fire3/relu_squeeze1x1_0_split <- fire3/squeeze1x1
I0617 18:22:19.810971 28676 net.cpp:380] fire3/squeeze1x1_fire3/relu_squeeze1x1_0_split -> fire3/squeeze1x1_fire3/relu_squeeze1x1_0_split_0
I0617 18:22:19.810981 28676 net.cpp:380] fire3/squeeze1x1_fire3/relu_squeeze1x1_0_split -> fire3/squeeze1x1_fire3/relu_squeeze1x1_0_split_1
I0617 18:22:19.811018 28676 net.cpp:122] Setting up fire3/squeeze1x1_fire3/relu_squeeze1x1_0_split
I0617 18:22:19.811026 28676 net.cpp:129] Top shape: 14 16 56 56 (702464)
I0617 18:22:19.811033 28676 net.cpp:129] Top shape: 14 16 56 56 (702464)
I0617 18:22:19.811038 28676 net.cpp:137] Memory required for data: 201340048
I0617 18:22:19.811040 28676 layer_factory.hpp:77] Creating layer fire3/expand1x1
I0617 18:22:19.811054 28676 net.cpp:84] Creating Layer fire3/expand1x1
I0617 18:22:19.811059 28676 net.cpp:406] fire3/expand1x1 <- fire3/squeeze1x1_fire3/relu_squeeze1x1_0_split_0
I0617 18:22:19.811069 28676 net.cpp:380] fire3/expand1x1 -> fire3/expand1x1
I0617 18:22:19.811255 28676 net.cpp:122] Setting up fire3/expand1x1
I0617 18:22:19.811264 28676 net.cpp:129] Top shape: 14 64 56 56 (2809856)
I0617 18:22:19.811269 28676 net.cpp:137] Memory required for data: 212579472
I0617 18:22:19.811276 28676 layer_factory.hpp:77] Creating layer fire3/relu_expand1x1
I0617 18:22:19.811285 28676 net.cpp:84] Creating Layer fire3/relu_expand1x1
I0617 18:22:19.811290 28676 net.cpp:406] fire3/relu_expand1x1 <- fire3/expand1x1
I0617 18:22:19.811297 28676 net.cpp:367] fire3/relu_expand1x1 -> fire3/expand1x1 (in-place)
I0617 18:22:19.811305 28676 net.cpp:122] Setting up fire3/relu_expand1x1
I0617 18:22:19.811312 28676 net.cpp:129] Top shape: 14 64 56 56 (2809856)
I0617 18:22:19.811316 28676 net.cpp:137] Memory required for data: 223818896
I0617 18:22:19.811321 28676 layer_factory.hpp:77] Creating layer fire3/expand3x3
I0617 18:22:19.811331 28676 net.cpp:84] Creating Layer fire3/expand3x3
I0617 18:22:19.811336 28676 net.cpp:406] fire3/expand3x3 <- fire3/squeeze1x1_fire3/relu_squeeze1x1_0_split_1
I0617 18:22:19.811343 28676 net.cpp:380] fire3/expand3x3 -> fire3/expand3x3
I0617 18:22:19.811580 28676 net.cpp:122] Setting up fire3/expand3x3
I0617 18:22:19.811589 28676 net.cpp:129] Top shape: 14 64 56 56 (2809856)
I0617 18:22:19.811594 28676 net.cpp:137] Memory required for data: 235058320
I0617 18:22:19.811601 28676 layer_factory.hpp:77] Creating layer fire3/relu_expand3x3
I0617 18:22:19.811607 28676 net.cpp:84] Creating Layer fire3/relu_expand3x3
I0617 18:22:19.811611 28676 net.cpp:406] fire3/relu_expand3x3 <- fire3/expand3x3
I0617 18:22:19.811619 28676 net.cpp:367] fire3/relu_expand3x3 -> fire3/expand3x3 (in-place)
I0617 18:22:19.811627 28676 net.cpp:122] Setting up fire3/relu_expand3x3
I0617 18:22:19.811635 28676 net.cpp:129] Top shape: 14 64 56 56 (2809856)
I0617 18:22:19.811638 28676 net.cpp:137] Memory required for data: 246297744
I0617 18:22:19.811645 28676 layer_factory.hpp:77] Creating layer fire3/concat
I0617 18:22:19.811652 28676 net.cpp:84] Creating Layer fire3/concat
I0617 18:22:19.811656 28676 net.cpp:406] fire3/concat <- fire3/expand1x1
I0617 18:22:19.811661 28676 net.cpp:406] fire3/concat <- fire3/expand3x3
I0617 18:22:19.811669 28676 net.cpp:380] fire3/concat -> fire3/concat
I0617 18:22:19.811692 28676 net.cpp:122] Setting up fire3/concat
I0617 18:22:19.811700 28676 net.cpp:129] Top shape: 14 128 56 56 (5619712)
I0617 18:22:19.811704 28676 net.cpp:137] Memory required for data: 268776592
I0617 18:22:19.811717 28676 layer_factory.hpp:77] Creating layer pool3
I0617 18:22:19.811727 28676 net.cpp:84] Creating Layer pool3
I0617 18:22:19.811733 28676 net.cpp:406] pool3 <- fire3/concat
I0617 18:22:19.811739 28676 net.cpp:380] pool3 -> pool3
I0617 18:22:19.811775 28676 net.cpp:122] Setting up pool3
I0617 18:22:19.811784 28676 net.cpp:129] Top shape: 14 128 28 28 (1404928)
I0617 18:22:19.811787 28676 net.cpp:137] Memory required for data: 274396304
I0617 18:22:19.811791 28676 layer_factory.hpp:77] Creating layer fire4/squeeze1x1
I0617 18:22:19.811801 28676 net.cpp:84] Creating Layer fire4/squeeze1x1
I0617 18:22:19.811806 28676 net.cpp:406] fire4/squeeze1x1 <- pool3
I0617 18:22:19.811815 28676 net.cpp:380] fire4/squeeze1x1 -> fire4/squeeze1x1
I0617 18:22:19.812016 28676 net.cpp:122] Setting up fire4/squeeze1x1
I0617 18:22:19.812024 28676 net.cpp:129] Top shape: 14 32 28 28 (351232)
I0617 18:22:19.812029 28676 net.cpp:137] Memory required for data: 275801232
I0617 18:22:19.812036 28676 layer_factory.hpp:77] Creating layer fire4/relu_squeeze1x1
I0617 18:22:19.812043 28676 net.cpp:84] Creating Layer fire4/relu_squeeze1x1
I0617 18:22:19.812049 28676 net.cpp:406] fire4/relu_squeeze1x1 <- fire4/squeeze1x1
I0617 18:22:19.812057 28676 net.cpp:367] fire4/relu_squeeze1x1 -> fire4/squeeze1x1 (in-place)
I0617 18:22:19.812065 28676 net.cpp:122] Setting up fire4/relu_squeeze1x1
I0617 18:22:19.812072 28676 net.cpp:129] Top shape: 14 32 28 28 (351232)
I0617 18:22:19.812077 28676 net.cpp:137] Memory required for data: 277206160
I0617 18:22:19.812081 28676 layer_factory.hpp:77] Creating layer fire4/squeeze1x1_fire4/relu_squeeze1x1_0_split
I0617 18:22:19.812088 28676 net.cpp:84] Creating Layer fire4/squeeze1x1_fire4/relu_squeeze1x1_0_split
I0617 18:22:19.812093 28676 net.cpp:406] fire4/squeeze1x1_fire4/relu_squeeze1x1_0_split <- fire4/squeeze1x1
I0617 18:22:19.812101 28676 net.cpp:380] fire4/squeeze1x1_fire4/relu_squeeze1x1_0_split -> fire4/squeeze1x1_fire4/relu_squeeze1x1_0_split_0
I0617 18:22:19.812113 28676 net.cpp:380] fire4/squeeze1x1_fire4/relu_squeeze1x1_0_split -> fire4/squeeze1x1_fire4/relu_squeeze1x1_0_split_1
I0617 18:22:19.812146 28676 net.cpp:122] Setting up fire4/squeeze1x1_fire4/relu_squeeze1x1_0_split
I0617 18:22:19.812155 28676 net.cpp:129] Top shape: 14 32 28 28 (351232)
I0617 18:22:19.812160 28676 net.cpp:129] Top shape: 14 32 28 28 (351232)
I0617 18:22:19.812163 28676 net.cpp:137] Memory required for data: 280016016
I0617 18:22:19.812167 28676 layer_factory.hpp:77] Creating layer fire4/expand1x1
I0617 18:22:19.812177 28676 net.cpp:84] Creating Layer fire4/expand1x1
I0617 18:22:19.812182 28676 net.cpp:406] fire4/expand1x1 <- fire4/squeeze1x1_fire4/relu_squeeze1x1_0_split_0
I0617 18:22:19.812191 28676 net.cpp:380] fire4/expand1x1 -> fire4/expand1x1
I0617 18:22:19.812389 28676 net.cpp:122] Setting up fire4/expand1x1
I0617 18:22:19.812397 28676 net.cpp:129] Top shape: 14 128 28 28 (1404928)
I0617 18:22:19.812402 28676 net.cpp:137] Memory required for data: 285635728
I0617 18:22:19.812414 28676 layer_factory.hpp:77] Creating layer fire4/relu_expand1x1
I0617 18:22:19.812422 28676 net.cpp:84] Creating Layer fire4/relu_expand1x1
I0617 18:22:19.812427 28676 net.cpp:406] fire4/relu_expand1x1 <- fire4/expand1x1
I0617 18:22:19.812434 28676 net.cpp:367] fire4/relu_expand1x1 -> fire4/expand1x1 (in-place)
I0617 18:22:19.812443 28676 net.cpp:122] Setting up fire4/relu_expand1x1
I0617 18:22:19.812450 28676 net.cpp:129] Top shape: 14 128 28 28 (1404928)
I0617 18:22:19.812455 28676 net.cpp:137] Memory required for data: 291255440
I0617 18:22:19.812459 28676 layer_factory.hpp:77] Creating layer fire4/expand3x3
I0617 18:22:19.812469 28676 net.cpp:84] Creating Layer fire4/expand3x3
I0617 18:22:19.812474 28676 net.cpp:406] fire4/expand3x3 <- fire4/squeeze1x1_fire4/relu_squeeze1x1_0_split_1
I0617 18:22:19.812482 28676 net.cpp:380] fire4/expand3x3 -> fire4/expand3x3
I0617 18:22:19.813413 28676 net.cpp:122] Setting up fire4/expand3x3
I0617 18:22:19.813429 28676 net.cpp:129] Top shape: 14 128 28 28 (1404928)
I0617 18:22:19.813433 28676 net.cpp:137] Memory required for data: 296875152
I0617 18:22:19.813457 28676 layer_factory.hpp:77] Creating layer fire4/relu_expand3x3
I0617 18:22:19.813468 28676 net.cpp:84] Creating Layer fire4/relu_expand3x3
I0617 18:22:19.813475 28676 net.cpp:406] fire4/relu_expand3x3 <- fire4/expand3x3
I0617 18:22:19.813484 28676 net.cpp:367] fire4/relu_expand3x3 -> fire4/expand3x3 (in-place)
I0617 18:22:19.813494 28676 net.cpp:122] Setting up fire4/relu_expand3x3
I0617 18:22:19.813501 28676 net.cpp:129] Top shape: 14 128 28 28 (1404928)
I0617 18:22:19.813506 28676 net.cpp:137] Memory required for data: 302494864
I0617 18:22:19.813510 28676 layer_factory.hpp:77] Creating layer fire4/concat
I0617 18:22:19.813516 28676 net.cpp:84] Creating Layer fire4/concat
I0617 18:22:19.813520 28676 net.cpp:406] fire4/concat <- fire4/expand1x1
I0617 18:22:19.813526 28676 net.cpp:406] fire4/concat <- fire4/expand3x3
I0617 18:22:19.813535 28676 net.cpp:380] fire4/concat -> fire4/concat
I0617 18:22:19.813562 28676 net.cpp:122] Setting up fire4/concat
I0617 18:22:19.813570 28676 net.cpp:129] Top shape: 14 256 28 28 (2809856)
I0617 18:22:19.813573 28676 net.cpp:137] Memory required for data: 313734288
I0617 18:22:19.813577 28676 layer_factory.hpp:77] Creating layer fire5/squeeze1x1
I0617 18:22:19.813588 28676 net.cpp:84] Creating Layer fire5/squeeze1x1
I0617 18:22:19.813594 28676 net.cpp:406] fire5/squeeze1x1 <- fire4/concat
I0617 18:22:19.813603 28676 net.cpp:380] fire5/squeeze1x1 -> fire5/squeeze1x1
I0617 18:22:19.813844 28676 net.cpp:122] Setting up fire5/squeeze1x1
I0617 18:22:19.813856 28676 net.cpp:129] Top shape: 14 32 28 28 (351232)
I0617 18:22:19.813860 28676 net.cpp:137] Memory required for data: 315139216
I0617 18:22:19.813868 28676 layer_factory.hpp:77] Creating layer fire5/relu_squeeze1x1
I0617 18:22:19.813877 28676 net.cpp:84] Creating Layer fire5/relu_squeeze1x1
I0617 18:22:19.813884 28676 net.cpp:406] fire5/relu_squeeze1x1 <- fire5/squeeze1x1
I0617 18:22:19.813891 28676 net.cpp:367] fire5/relu_squeeze1x1 -> fire5/squeeze1x1 (in-place)
I0617 18:22:19.813901 28676 net.cpp:122] Setting up fire5/relu_squeeze1x1
I0617 18:22:19.813908 28676 net.cpp:129] Top shape: 14 32 28 28 (351232)
I0617 18:22:19.813912 28676 net.cpp:137] Memory required for data: 316544144
I0617 18:22:19.813917 28676 layer_factory.hpp:77] Creating layer fire5/squeeze1x1_fire5/relu_squeeze1x1_0_split
I0617 18:22:19.813932 28676 net.cpp:84] Creating Layer fire5/squeeze1x1_fire5/relu_squeeze1x1_0_split
I0617 18:22:19.813936 28676 net.cpp:406] fire5/squeeze1x1_fire5/relu_squeeze1x1_0_split <- fire5/squeeze1x1
I0617 18:22:19.813944 28676 net.cpp:380] fire5/squeeze1x1_fire5/relu_squeeze1x1_0_split -> fire5/squeeze1x1_fire5/relu_squeeze1x1_0_split_0
I0617 18:22:19.813956 28676 net.cpp:380] fire5/squeeze1x1_fire5/relu_squeeze1x1_0_split -> fire5/squeeze1x1_fire5/relu_squeeze1x1_0_split_1
I0617 18:22:19.813992 28676 net.cpp:122] Setting up fire5/squeeze1x1_fire5/relu_squeeze1x1_0_split
I0617 18:22:19.813999 28676 net.cpp:129] Top shape: 14 32 28 28 (351232)
I0617 18:22:19.814005 28676 net.cpp:129] Top shape: 14 32 28 28 (351232)
I0617 18:22:19.814009 28676 net.cpp:137] Memory required for data: 319354000
I0617 18:22:19.814013 28676 layer_factory.hpp:77] Creating layer fire5/expand1x1
I0617 18:22:19.814023 28676 net.cpp:84] Creating Layer fire5/expand1x1
I0617 18:22:19.814028 28676 net.cpp:406] fire5/expand1x1 <- fire5/squeeze1x1_fire5/relu_squeeze1x1_0_split_0
I0617 18:22:19.814038 28676 net.cpp:380] fire5/expand1x1 -> fire5/expand1x1
I0617 18:22:19.814236 28676 net.cpp:122] Setting up fire5/expand1x1
I0617 18:22:19.814244 28676 net.cpp:129] Top shape: 14 128 28 28 (1404928)
I0617 18:22:19.814249 28676 net.cpp:137] Memory required for data: 324973712
I0617 18:22:19.814256 28676 layer_factory.hpp:77] Creating layer fire5/relu_expand1x1
I0617 18:22:19.814265 28676 net.cpp:84] Creating Layer fire5/relu_expand1x1
I0617 18:22:19.814270 28676 net.cpp:406] fire5/relu_expand1x1 <- fire5/expand1x1
I0617 18:22:19.814276 28676 net.cpp:367] fire5/relu_expand1x1 -> fire5/expand1x1 (in-place)
I0617 18:22:19.814294 28676 net.cpp:122] Setting up fire5/relu_expand1x1
I0617 18:22:19.814302 28676 net.cpp:129] Top shape: 14 128 28 28 (1404928)
I0617 18:22:19.814306 28676 net.cpp:137] Memory required for data: 330593424
I0617 18:22:19.814311 28676 layer_factory.hpp:77] Creating layer fire5/expand3x3
I0617 18:22:19.814319 28676 net.cpp:84] Creating Layer fire5/expand3x3
I0617 18:22:19.814324 28676 net.cpp:406] fire5/expand3x3 <- fire5/squeeze1x1_fire5/relu_squeeze1x1_0_split_1
I0617 18:22:19.814332 28676 net.cpp:380] fire5/expand3x3 -> fire5/expand3x3
I0617 18:22:19.814682 28676 net.cpp:122] Setting up fire5/expand3x3
I0617 18:22:19.814692 28676 net.cpp:129] Top shape: 14 128 28 28 (1404928)
I0617 18:22:19.814697 28676 net.cpp:137] Memory required for data: 336213136
I0617 18:22:19.814704 28676 layer_factory.hpp:77] Creating layer fire5/relu_expand3x3
I0617 18:22:19.814712 28676 net.cpp:84] Creating Layer fire5/relu_expand3x3
I0617 18:22:19.814716 28676 net.cpp:406] fire5/relu_expand3x3 <- fire5/expand3x3
I0617 18:22:19.814723 28676 net.cpp:367] fire5/relu_expand3x3 -> fire5/expand3x3 (in-place)
I0617 18:22:19.814730 28676 net.cpp:122] Setting up fire5/relu_expand3x3
I0617 18:22:19.814738 28676 net.cpp:129] Top shape: 14 128 28 28 (1404928)
I0617 18:22:19.814743 28676 net.cpp:137] Memory required for data: 341832848
I0617 18:22:19.814746 28676 layer_factory.hpp:77] Creating layer fire5/concat
I0617 18:22:19.814752 28676 net.cpp:84] Creating Layer fire5/concat
I0617 18:22:19.814756 28676 net.cpp:406] fire5/concat <- fire5/expand1x1
I0617 18:22:19.814761 28676 net.cpp:406] fire5/concat <- fire5/expand3x3
I0617 18:22:19.814767 28676 net.cpp:380] fire5/concat -> fire5/concat
I0617 18:22:19.814792 28676 net.cpp:122] Setting up fire5/concat
I0617 18:22:19.814800 28676 net.cpp:129] Top shape: 14 256 28 28 (2809856)
I0617 18:22:19.814805 28676 net.cpp:137] Memory required for data: 353072272
I0617 18:22:19.814808 28676 layer_factory.hpp:77] Creating layer pool5
I0617 18:22:19.814816 28676 net.cpp:84] Creating Layer pool5
I0617 18:22:19.814822 28676 net.cpp:406] pool5 <- fire5/concat
I0617 18:22:19.814829 28676 net.cpp:380] pool5 -> pool5
I0617 18:22:19.814863 28676 net.cpp:122] Setting up pool5
I0617 18:22:19.814870 28676 net.cpp:129] Top shape: 14 256 14 14 (702464)
I0617 18:22:19.814875 28676 net.cpp:137] Memory required for data: 355882128
I0617 18:22:19.814879 28676 layer_factory.hpp:77] Creating layer fire6/squeeze1x1
I0617 18:22:19.814888 28676 net.cpp:84] Creating Layer fire6/squeeze1x1
I0617 18:22:19.814894 28676 net.cpp:406] fire6/squeeze1x1 <- pool5
I0617 18:22:19.814901 28676 net.cpp:380] fire6/squeeze1x1 -> fire6/squeeze1x1
I0617 18:22:19.815145 28676 net.cpp:122] Setting up fire6/squeeze1x1
I0617 18:22:19.815155 28676 net.cpp:129] Top shape: 14 48 14 14 (131712)
I0617 18:22:19.815158 28676 net.cpp:137] Memory required for data: 356408976
I0617 18:22:19.815166 28676 layer_factory.hpp:77] Creating layer fire6/relu_squeeze1x1
I0617 18:22:19.815176 28676 net.cpp:84] Creating Layer fire6/relu_squeeze1x1
I0617 18:22:19.815181 28676 net.cpp:406] fire6/relu_squeeze1x1 <- fire6/squeeze1x1
I0617 18:22:19.815188 28676 net.cpp:367] fire6/relu_squeeze1x1 -> fire6/squeeze1x1 (in-place)
I0617 18:22:19.815197 28676 net.cpp:122] Setting up fire6/relu_squeeze1x1
I0617 18:22:19.815204 28676 net.cpp:129] Top shape: 14 48 14 14 (131712)
I0617 18:22:19.815208 28676 net.cpp:137] Memory required for data: 356935824
I0617 18:22:19.815212 28676 layer_factory.hpp:77] Creating layer fire6/squeeze1x1_fire6/relu_squeeze1x1_0_split
I0617 18:22:19.815219 28676 net.cpp:84] Creating Layer fire6/squeeze1x1_fire6/relu_squeeze1x1_0_split
I0617 18:22:19.815223 28676 net.cpp:406] fire6/squeeze1x1_fire6/relu_squeeze1x1_0_split <- fire6/squeeze1x1
I0617 18:22:19.815232 28676 net.cpp:380] fire6/squeeze1x1_fire6/relu_squeeze1x1_0_split -> fire6/squeeze1x1_fire6/relu_squeeze1x1_0_split_0
I0617 18:22:19.815243 28676 net.cpp:380] fire6/squeeze1x1_fire6/relu_squeeze1x1_0_split -> fire6/squeeze1x1_fire6/relu_squeeze1x1_0_split_1
I0617 18:22:19.815282 28676 net.cpp:122] Setting up fire6/squeeze1x1_fire6/relu_squeeze1x1_0_split
I0617 18:22:19.815299 28676 net.cpp:129] Top shape: 14 48 14 14 (131712)
I0617 18:22:19.815304 28676 net.cpp:129] Top shape: 14 48 14 14 (131712)
I0617 18:22:19.815309 28676 net.cpp:137] Memory required for data: 357989520
I0617 18:22:19.815313 28676 layer_factory.hpp:77] Creating layer fire6/expand1x1
I0617 18:22:19.815323 28676 net.cpp:84] Creating Layer fire6/expand1x1
I0617 18:22:19.815330 28676 net.cpp:406] fire6/expand1x1 <- fire6/squeeze1x1_fire6/relu_squeeze1x1_0_split_0
I0617 18:22:19.815337 28676 net.cpp:380] fire6/expand1x1 -> fire6/expand1x1
I0617 18:22:19.815557 28676 net.cpp:122] Setting up fire6/expand1x1
I0617 18:22:19.815565 28676 net.cpp:129] Top shape: 14 192 14 14 (526848)
I0617 18:22:19.815569 28676 net.cpp:137] Memory required for data: 360096912
I0617 18:22:19.815577 28676 layer_factory.hpp:77] Creating layer fire6/relu_expand1x1
I0617 18:22:19.815584 28676 net.cpp:84] Creating Layer fire6/relu_expand1x1
I0617 18:22:19.815589 28676 net.cpp:406] fire6/relu_expand1x1 <- fire6/expand1x1
I0617 18:22:19.815596 28676 net.cpp:367] fire6/relu_expand1x1 -> fire6/expand1x1 (in-place)
I0617 18:22:19.815605 28676 net.cpp:122] Setting up fire6/relu_expand1x1
I0617 18:22:19.815613 28676 net.cpp:129] Top shape: 14 192 14 14 (526848)
I0617 18:22:19.815616 28676 net.cpp:137] Memory required for data: 362204304
I0617 18:22:19.815621 28676 layer_factory.hpp:77] Creating layer fire6/expand3x3
I0617 18:22:19.815631 28676 net.cpp:84] Creating Layer fire6/expand3x3
I0617 18:22:19.815636 28676 net.cpp:406] fire6/expand3x3 <- fire6/squeeze1x1_fire6/relu_squeeze1x1_0_split_1
I0617 18:22:19.815644 28676 net.cpp:380] fire6/expand3x3 -> fire6/expand3x3
I0617 18:22:19.816257 28676 net.cpp:122] Setting up fire6/expand3x3
I0617 18:22:19.816269 28676 net.cpp:129] Top shape: 14 192 14 14 (526848)
I0617 18:22:19.816274 28676 net.cpp:137] Memory required for data: 364311696
I0617 18:22:19.816282 28676 layer_factory.hpp:77] Creating layer fire6/relu_expand3x3
I0617 18:22:19.816290 28676 net.cpp:84] Creating Layer fire6/relu_expand3x3
I0617 18:22:19.816296 28676 net.cpp:406] fire6/relu_expand3x3 <- fire6/expand3x3
I0617 18:22:19.816304 28676 net.cpp:367] fire6/relu_expand3x3 -> fire6/expand3x3 (in-place)
I0617 18:22:19.816313 28676 net.cpp:122] Setting up fire6/relu_expand3x3
I0617 18:22:19.816320 28676 net.cpp:129] Top shape: 14 192 14 14 (526848)
I0617 18:22:19.816324 28676 net.cpp:137] Memory required for data: 366419088
I0617 18:22:19.816329 28676 layer_factory.hpp:77] Creating layer fire6/concat
I0617 18:22:19.816334 28676 net.cpp:84] Creating Layer fire6/concat
I0617 18:22:19.816339 28676 net.cpp:406] fire6/concat <- fire6/expand1x1
I0617 18:22:19.816344 28676 net.cpp:406] fire6/concat <- fire6/expand3x3
I0617 18:22:19.816350 28676 net.cpp:380] fire6/concat -> fire6/concat
I0617 18:22:19.816376 28676 net.cpp:122] Setting up fire6/concat
I0617 18:22:19.816385 28676 net.cpp:129] Top shape: 14 384 14 14 (1053696)
I0617 18:22:19.816388 28676 net.cpp:137] Memory required for data: 370633872
I0617 18:22:19.816392 28676 layer_factory.hpp:77] Creating layer fire7/squeeze1x1
I0617 18:22:19.816403 28676 net.cpp:84] Creating Layer fire7/squeeze1x1
I0617 18:22:19.816408 28676 net.cpp:406] fire7/squeeze1x1 <- fire6/concat
I0617 18:22:19.816417 28676 net.cpp:380] fire7/squeeze1x1 -> fire7/squeeze1x1
I0617 18:22:19.816687 28676 net.cpp:122] Setting up fire7/squeeze1x1
I0617 18:22:19.816696 28676 net.cpp:129] Top shape: 14 48 14 14 (131712)
I0617 18:22:19.816700 28676 net.cpp:137] Memory required for data: 371160720
I0617 18:22:19.816715 28676 layer_factory.hpp:77] Creating layer fire7/relu_squeeze1x1
I0617 18:22:19.816723 28676 net.cpp:84] Creating Layer fire7/relu_squeeze1x1
I0617 18:22:19.816727 28676 net.cpp:406] fire7/relu_squeeze1x1 <- fire7/squeeze1x1
I0617 18:22:19.816735 28676 net.cpp:367] fire7/relu_squeeze1x1 -> fire7/squeeze1x1 (in-place)
I0617 18:22:19.816745 28676 net.cpp:122] Setting up fire7/relu_squeeze1x1
I0617 18:22:19.816751 28676 net.cpp:129] Top shape: 14 48 14 14 (131712)
I0617 18:22:19.816766 28676 net.cpp:137] Memory required for data: 371687568
I0617 18:22:19.816771 28676 layer_factory.hpp:77] Creating layer fire7/squeeze1x1_fire7/relu_squeeze1x1_0_split
I0617 18:22:19.816778 28676 net.cpp:84] Creating Layer fire7/squeeze1x1_fire7/relu_squeeze1x1_0_split
I0617 18:22:19.816782 28676 net.cpp:406] fire7/squeeze1x1_fire7/relu_squeeze1x1_0_split <- fire7/squeeze1x1
I0617 18:22:19.816790 28676 net.cpp:380] fire7/squeeze1x1_fire7/relu_squeeze1x1_0_split -> fire7/squeeze1x1_fire7/relu_squeeze1x1_0_split_0
I0617 18:22:19.816802 28676 net.cpp:380] fire7/squeeze1x1_fire7/relu_squeeze1x1_0_split -> fire7/squeeze1x1_fire7/relu_squeeze1x1_0_split_1
I0617 18:22:19.816838 28676 net.cpp:122] Setting up fire7/squeeze1x1_fire7/relu_squeeze1x1_0_split
I0617 18:22:19.816845 28676 net.cpp:129] Top shape: 14 48 14 14 (131712)
I0617 18:22:19.816851 28676 net.cpp:129] Top shape: 14 48 14 14 (131712)
I0617 18:22:19.816855 28676 net.cpp:137] Memory required for data: 372741264
I0617 18:22:19.816859 28676 layer_factory.hpp:77] Creating layer fire7/expand1x1
I0617 18:22:19.816869 28676 net.cpp:84] Creating Layer fire7/expand1x1
I0617 18:22:19.816875 28676 net.cpp:406] fire7/expand1x1 <- fire7/squeeze1x1_fire7/relu_squeeze1x1_0_split_0
I0617 18:22:19.816882 28676 net.cpp:380] fire7/expand1x1 -> fire7/expand1x1
I0617 18:22:19.817096 28676 net.cpp:122] Setting up fire7/expand1x1
I0617 18:22:19.817104 28676 net.cpp:129] Top shape: 14 192 14 14 (526848)
I0617 18:22:19.817109 28676 net.cpp:137] Memory required for data: 374848656
I0617 18:22:19.817116 28676 layer_factory.hpp:77] Creating layer fire7/relu_expand1x1
I0617 18:22:19.817123 28676 net.cpp:84] Creating Layer fire7/relu_expand1x1
I0617 18:22:19.817129 28676 net.cpp:406] fire7/relu_expand1x1 <- fire7/expand1x1
I0617 18:22:19.817136 28676 net.cpp:367] fire7/relu_expand1x1 -> fire7/expand1x1 (in-place)
I0617 18:22:19.817142 28676 net.cpp:122] Setting up fire7/relu_expand1x1
I0617 18:22:19.817145 28676 net.cpp:129] Top shape: 14 192 14 14 (526848)
I0617 18:22:19.817148 28676 net.cpp:137] Memory required for data: 376956048
I0617 18:22:19.817150 28676 layer_factory.hpp:77] Creating layer fire7/expand3x3
I0617 18:22:19.817157 28676 net.cpp:84] Creating Layer fire7/expand3x3
I0617 18:22:19.817159 28676 net.cpp:406] fire7/expand3x3 <- fire7/squeeze1x1_fire7/relu_squeeze1x1_0_split_1
I0617 18:22:19.817163 28676 net.cpp:380] fire7/expand3x3 -> fire7/expand3x3
I0617 18:22:19.818322 28676 net.cpp:122] Setting up fire7/expand3x3
I0617 18:22:19.818336 28676 net.cpp:129] Top shape: 14 192 14 14 (526848)
I0617 18:22:19.818339 28676 net.cpp:137] Memory required for data: 379063440
I0617 18:22:19.818346 28676 layer_factory.hpp:77] Creating layer fire7/relu_expand3x3
I0617 18:22:19.818352 28676 net.cpp:84] Creating Layer fire7/relu_expand3x3
I0617 18:22:19.818356 28676 net.cpp:406] fire7/relu_expand3x3 <- fire7/expand3x3
I0617 18:22:19.818361 28676 net.cpp:367] fire7/relu_expand3x3 -> fire7/expand3x3 (in-place)
I0617 18:22:19.818365 28676 net.cpp:122] Setting up fire7/relu_expand3x3
I0617 18:22:19.818369 28676 net.cpp:129] Top shape: 14 192 14 14 (526848)
I0617 18:22:19.818372 28676 net.cpp:137] Memory required for data: 381170832
I0617 18:22:19.818373 28676 layer_factory.hpp:77] Creating layer fire7/concat
I0617 18:22:19.818378 28676 net.cpp:84] Creating Layer fire7/concat
I0617 18:22:19.818380 28676 net.cpp:406] fire7/concat <- fire7/expand1x1
I0617 18:22:19.818384 28676 net.cpp:406] fire7/concat <- fire7/expand3x3
I0617 18:22:19.818387 28676 net.cpp:380] fire7/concat -> fire7/concat
I0617 18:22:19.818408 28676 net.cpp:122] Setting up fire7/concat
I0617 18:22:19.818413 28676 net.cpp:129] Top shape: 14 384 14 14 (1053696)
I0617 18:22:19.818415 28676 net.cpp:137] Memory required for data: 385385616
I0617 18:22:19.818418 28676 layer_factory.hpp:77] Creating layer fire8/squeeze1x1
I0617 18:22:19.818426 28676 net.cpp:84] Creating Layer fire8/squeeze1x1
I0617 18:22:19.818429 28676 net.cpp:406] fire8/squeeze1x1 <- fire7/concat
I0617 18:22:19.818434 28676 net.cpp:380] fire8/squeeze1x1 -> fire8/squeeze1x1
I0617 18:22:19.818737 28676 net.cpp:122] Setting up fire8/squeeze1x1
I0617 18:22:19.818742 28676 net.cpp:129] Top shape: 14 64 14 14 (175616)
I0617 18:22:19.818744 28676 net.cpp:137] Memory required for data: 386088080
I0617 18:22:19.818748 28676 layer_factory.hpp:77] Creating layer fire8/relu_squeeze1x1
I0617 18:22:19.818753 28676 net.cpp:84] Creating Layer fire8/relu_squeeze1x1
I0617 18:22:19.818755 28676 net.cpp:406] fire8/relu_squeeze1x1 <- fire8/squeeze1x1
I0617 18:22:19.818759 28676 net.cpp:367] fire8/relu_squeeze1x1 -> fire8/squeeze1x1 (in-place)
I0617 18:22:19.818764 28676 net.cpp:122] Setting up fire8/relu_squeeze1x1
I0617 18:22:19.818768 28676 net.cpp:129] Top shape: 14 64 14 14 (175616)
I0617 18:22:19.818769 28676 net.cpp:137] Memory required for data: 386790544
I0617 18:22:19.818773 28676 layer_factory.hpp:77] Creating layer fire8/squeeze1x1_fire8/relu_squeeze1x1_0_split
I0617 18:22:19.818776 28676 net.cpp:84] Creating Layer fire8/squeeze1x1_fire8/relu_squeeze1x1_0_split
I0617 18:22:19.818779 28676 net.cpp:406] fire8/squeeze1x1_fire8/relu_squeeze1x1_0_split <- fire8/squeeze1x1
I0617 18:22:19.818783 28676 net.cpp:380] fire8/squeeze1x1_fire8/relu_squeeze1x1_0_split -> fire8/squeeze1x1_fire8/relu_squeeze1x1_0_split_0
I0617 18:22:19.818789 28676 net.cpp:380] fire8/squeeze1x1_fire8/relu_squeeze1x1_0_split -> fire8/squeeze1x1_fire8/relu_squeeze1x1_0_split_1
I0617 18:22:19.818814 28676 net.cpp:122] Setting up fire8/squeeze1x1_fire8/relu_squeeze1x1_0_split
I0617 18:22:19.818819 28676 net.cpp:129] Top shape: 14 64 14 14 (175616)
I0617 18:22:19.818822 28676 net.cpp:129] Top shape: 14 64 14 14 (175616)
I0617 18:22:19.818825 28676 net.cpp:137] Memory required for data: 388195472
I0617 18:22:19.818826 28676 layer_factory.hpp:77] Creating layer fire8/expand1x1
I0617 18:22:19.818835 28676 net.cpp:84] Creating Layer fire8/expand1x1
I0617 18:22:19.818837 28676 net.cpp:406] fire8/expand1x1 <- fire8/squeeze1x1_fire8/relu_squeeze1x1_0_split_0
I0617 18:22:19.818841 28676 net.cpp:380] fire8/expand1x1 -> fire8/expand1x1
I0617 18:22:19.819077 28676 net.cpp:122] Setting up fire8/expand1x1
I0617 18:22:19.819082 28676 net.cpp:129] Top shape: 14 256 14 14 (702464)
I0617 18:22:19.819085 28676 net.cpp:137] Memory required for data: 391005328
I0617 18:22:19.819089 28676 layer_factory.hpp:77] Creating layer fire8/relu_expand1x1
I0617 18:22:19.819094 28676 net.cpp:84] Creating Layer fire8/relu_expand1x1
I0617 18:22:19.819097 28676 net.cpp:406] fire8/relu_expand1x1 <- fire8/expand1x1
I0617 18:22:19.819100 28676 net.cpp:367] fire8/relu_expand1x1 -> fire8/expand1x1 (in-place)
I0617 18:22:19.819104 28676 net.cpp:122] Setting up fire8/relu_expand1x1
I0617 18:22:19.819108 28676 net.cpp:129] Top shape: 14 256 14 14 (702464)
I0617 18:22:19.819109 28676 net.cpp:137] Memory required for data: 393815184
I0617 18:22:19.819113 28676 layer_factory.hpp:77] Creating layer fire8/expand3x3
I0617 18:22:19.819118 28676 net.cpp:84] Creating Layer fire8/expand3x3
I0617 18:22:19.819120 28676 net.cpp:406] fire8/expand3x3 <- fire8/squeeze1x1_fire8/relu_squeeze1x1_0_split_1
I0617 18:22:19.819124 28676 net.cpp:380] fire8/expand3x3 -> fire8/expand3x3
I0617 18:22:19.819978 28676 net.cpp:122] Setting up fire8/expand3x3
I0617 18:22:19.819984 28676 net.cpp:129] Top shape: 14 256 14 14 (702464)
I0617 18:22:19.819988 28676 net.cpp:137] Memory required for data: 396625040
I0617 18:22:19.819991 28676 layer_factory.hpp:77] Creating layer fire8/relu_expand3x3
I0617 18:22:19.819995 28676 net.cpp:84] Creating Layer fire8/relu_expand3x3
I0617 18:22:19.819998 28676 net.cpp:406] fire8/relu_expand3x3 <- fire8/expand3x3
I0617 18:22:19.820003 28676 net.cpp:367] fire8/relu_expand3x3 -> fire8/expand3x3 (in-place)
I0617 18:22:19.820008 28676 net.cpp:122] Setting up fire8/relu_expand3x3
I0617 18:22:19.820010 28676 net.cpp:129] Top shape: 14 256 14 14 (702464)
I0617 18:22:19.820013 28676 net.cpp:137] Memory required for data: 399434896
I0617 18:22:19.820015 28676 layer_factory.hpp:77] Creating layer fire8/concat
I0617 18:22:19.820019 28676 net.cpp:84] Creating Layer fire8/concat
I0617 18:22:19.820030 28676 net.cpp:406] fire8/concat <- fire8/expand1x1
I0617 18:22:19.820034 28676 net.cpp:406] fire8/concat <- fire8/expand3x3
I0617 18:22:19.820037 28676 net.cpp:380] fire8/concat -> fire8/concat
I0617 18:22:19.820055 28676 net.cpp:122] Setting up fire8/concat
I0617 18:22:19.820060 28676 net.cpp:129] Top shape: 14 512 14 14 (1404928)
I0617 18:22:19.820062 28676 net.cpp:137] Memory required for data: 405054608
I0617 18:22:19.820065 28676 layer_factory.hpp:77] Creating layer fire9/squeeze1x1
I0617 18:22:19.820071 28676 net.cpp:84] Creating Layer fire9/squeeze1x1
I0617 18:22:19.820073 28676 net.cpp:406] fire9/squeeze1x1 <- fire8/concat
I0617 18:22:19.820078 28676 net.cpp:380] fire9/squeeze1x1 -> fire9/squeeze1x1
I0617 18:22:19.820442 28676 net.cpp:122] Setting up fire9/squeeze1x1
I0617 18:22:19.820451 28676 net.cpp:129] Top shape: 14 64 14 14 (175616)
I0617 18:22:19.820453 28676 net.cpp:137] Memory required for data: 405757072
I0617 18:22:19.820458 28676 layer_factory.hpp:77] Creating layer fire9/relu_squeeze1x1
I0617 18:22:19.820510 28676 net.cpp:84] Creating Layer fire9/relu_squeeze1x1
I0617 18:22:19.820513 28676 net.cpp:406] fire9/relu_squeeze1x1 <- fire9/squeeze1x1
I0617 18:22:19.820518 28676 net.cpp:367] fire9/relu_squeeze1x1 -> fire9/squeeze1x1 (in-place)
I0617 18:22:19.820524 28676 net.cpp:122] Setting up fire9/relu_squeeze1x1
I0617 18:22:19.820528 28676 net.cpp:129] Top shape: 14 64 14 14 (175616)
I0617 18:22:19.820530 28676 net.cpp:137] Memory required for data: 406459536
I0617 18:22:19.820534 28676 layer_factory.hpp:77] Creating layer fire9/squeeze1x1_fire9/relu_squeeze1x1_0_split
I0617 18:22:19.820544 28676 net.cpp:84] Creating Layer fire9/squeeze1x1_fire9/relu_squeeze1x1_0_split
I0617 18:22:19.820549 28676 net.cpp:406] fire9/squeeze1x1_fire9/relu_squeeze1x1_0_split <- fire9/squeeze1x1
I0617 18:22:19.820552 28676 net.cpp:380] fire9/squeeze1x1_fire9/relu_squeeze1x1_0_split -> fire9/squeeze1x1_fire9/relu_squeeze1x1_0_split_0
I0617 18:22:19.820559 28676 net.cpp:380] fire9/squeeze1x1_fire9/relu_squeeze1x1_0_split -> fire9/squeeze1x1_fire9/relu_squeeze1x1_0_split_1
I0617 18:22:19.820590 28676 net.cpp:122] Setting up fire9/squeeze1x1_fire9/relu_squeeze1x1_0_split
I0617 18:22:19.820596 28676 net.cpp:129] Top shape: 14 64 14 14 (175616)
I0617 18:22:19.820600 28676 net.cpp:129] Top shape: 14 64 14 14 (175616)
I0617 18:22:19.820603 28676 net.cpp:137] Memory required for data: 407864464
I0617 18:22:19.820605 28676 layer_factory.hpp:77] Creating layer fire9/expand1x1
I0617 18:22:19.820619 28676 net.cpp:84] Creating Layer fire9/expand1x1
I0617 18:22:19.820623 28676 net.cpp:406] fire9/expand1x1 <- fire9/squeeze1x1_fire9/relu_squeeze1x1_0_split_0
I0617 18:22:19.820629 28676 net.cpp:380] fire9/expand1x1 -> fire9/expand1x1
I0617 18:22:19.820907 28676 net.cpp:122] Setting up fire9/expand1x1
I0617 18:22:19.820914 28676 net.cpp:129] Top shape: 14 256 14 14 (702464)
I0617 18:22:19.820916 28676 net.cpp:137] Memory required for data: 410674320
I0617 18:22:19.820920 28676 layer_factory.hpp:77] Creating layer fire9/relu_expand1x1
I0617 18:22:19.820926 28676 net.cpp:84] Creating Layer fire9/relu_expand1x1
I0617 18:22:19.820928 28676 net.cpp:406] fire9/relu_expand1x1 <- fire9/expand1x1
I0617 18:22:19.820933 28676 net.cpp:367] fire9/relu_expand1x1 -> fire9/expand1x1 (in-place)
I0617 18:22:19.820938 28676 net.cpp:122] Setting up fire9/relu_expand1x1
I0617 18:22:19.820941 28676 net.cpp:129] Top shape: 14 256 14 14 (702464)
I0617 18:22:19.820943 28676 net.cpp:137] Memory required for data: 413484176
I0617 18:22:19.820945 28676 layer_factory.hpp:77] Creating layer fire9/expand3x3
I0617 18:22:19.820953 28676 net.cpp:84] Creating Layer fire9/expand3x3
I0617 18:22:19.820955 28676 net.cpp:406] fire9/expand3x3 <- fire9/squeeze1x1_fire9/relu_squeeze1x1_0_split_1
I0617 18:22:19.820960 28676 net.cpp:380] fire9/expand3x3 -> fire9/expand3x3
I0617 18:22:19.822978 28676 net.cpp:122] Setting up fire9/expand3x3
I0617 18:22:19.822988 28676 net.cpp:129] Top shape: 14 256 14 14 (702464)
I0617 18:22:19.822991 28676 net.cpp:137] Memory required for data: 416294032
I0617 18:22:19.823006 28676 layer_factory.hpp:77] Creating layer fire9/relu_expand3x3
I0617 18:22:19.823011 28676 net.cpp:84] Creating Layer fire9/relu_expand3x3
I0617 18:22:19.823014 28676 net.cpp:406] fire9/relu_expand3x3 <- fire9/expand3x3
I0617 18:22:19.823019 28676 net.cpp:367] fire9/relu_expand3x3 -> fire9/expand3x3 (in-place)
I0617 18:22:19.823024 28676 net.cpp:122] Setting up fire9/relu_expand3x3
I0617 18:22:19.823029 28676 net.cpp:129] Top shape: 14 256 14 14 (702464)
I0617 18:22:19.823030 28676 net.cpp:137] Memory required for data: 419103888
I0617 18:22:19.823032 28676 layer_factory.hpp:77] Creating layer fire9/concat
I0617 18:22:19.823036 28676 net.cpp:84] Creating Layer fire9/concat
I0617 18:22:19.823038 28676 net.cpp:406] fire9/concat <- fire9/expand1x1
I0617 18:22:19.823041 28676 net.cpp:406] fire9/concat <- fire9/expand3x3
I0617 18:22:19.823045 28676 net.cpp:380] fire9/concat -> fire9/concat
I0617 18:22:19.823067 28676 net.cpp:122] Setting up fire9/concat
I0617 18:22:19.823071 28676 net.cpp:129] Top shape: 14 512 14 14 (1404928)
I0617 18:22:19.823073 28676 net.cpp:137] Memory required for data: 424723600
I0617 18:22:19.823076 28676 layer_factory.hpp:77] Creating layer drop9
I0617 18:22:19.823081 28676 net.cpp:84] Creating Layer drop9
I0617 18:22:19.823083 28676 net.cpp:406] drop9 <- fire9/concat
I0617 18:22:19.823088 28676 net.cpp:367] drop9 -> fire9/concat (in-place)
I0617 18:22:19.823108 28676 net.cpp:122] Setting up drop9
I0617 18:22:19.823113 28676 net.cpp:129] Top shape: 14 512 14 14 (1404928)
I0617 18:22:19.823115 28676 net.cpp:137] Memory required for data: 430343312
I0617 18:22:19.823118 28676 layer_factory.hpp:77] Creating layer conv10
I0617 18:22:19.823127 28676 net.cpp:84] Creating Layer conv10
I0617 18:22:19.823128 28676 net.cpp:406] conv10 <- fire9/concat
I0617 18:22:19.823133 28676 net.cpp:380] conv10 -> conv10
I0617 18:22:19.823338 28676 net.cpp:122] Setting up conv10
I0617 18:22:19.823343 28676 net.cpp:129] Top shape: 14 2 14 14 (5488)
I0617 18:22:19.823345 28676 net.cpp:137] Memory required for data: 430365264
I0617 18:22:19.823349 28676 layer_factory.hpp:77] Creating layer relu_conv10
I0617 18:22:19.823354 28676 net.cpp:84] Creating Layer relu_conv10
I0617 18:22:19.823356 28676 net.cpp:406] relu_conv10 <- conv10
I0617 18:22:19.823360 28676 net.cpp:367] relu_conv10 -> conv10 (in-place)
I0617 18:22:19.823364 28676 net.cpp:122] Setting up relu_conv10
I0617 18:22:19.823369 28676 net.cpp:129] Top shape: 14 2 14 14 (5488)
I0617 18:22:19.823370 28676 net.cpp:137] Memory required for data: 430387216
I0617 18:22:19.823372 28676 layer_factory.hpp:77] Creating layer pool10
I0617 18:22:19.823377 28676 net.cpp:84] Creating Layer pool10
I0617 18:22:19.823379 28676 net.cpp:406] pool10 <- conv10
I0617 18:22:19.823385 28676 net.cpp:380] pool10 -> pool10
I0617 18:22:19.823403 28676 net.cpp:122] Setting up pool10
I0617 18:22:19.823407 28676 net.cpp:129] Top shape: 14 2 1 1 (28)
I0617 18:22:19.823410 28676 net.cpp:137] Memory required for data: 430387328
I0617 18:22:19.823412 28676 layer_factory.hpp:77] Creating layer pool10_pool10_0_split
I0617 18:22:19.823417 28676 net.cpp:84] Creating Layer pool10_pool10_0_split
I0617 18:22:19.823421 28676 net.cpp:406] pool10_pool10_0_split <- pool10
I0617 18:22:19.823424 28676 net.cpp:380] pool10_pool10_0_split -> pool10_pool10_0_split_0
I0617 18:22:19.823431 28676 net.cpp:380] pool10_pool10_0_split -> pool10_pool10_0_split_1
I0617 18:22:19.823457 28676 net.cpp:122] Setting up pool10_pool10_0_split
I0617 18:22:19.823462 28676 net.cpp:129] Top shape: 14 2 1 1 (28)
I0617 18:22:19.823464 28676 net.cpp:129] Top shape: 14 2 1 1 (28)
I0617 18:22:19.823467 28676 net.cpp:137] Memory required for data: 430387552
I0617 18:22:19.823468 28676 layer_factory.hpp:77] Creating layer loss
I0617 18:22:19.823474 28676 net.cpp:84] Creating Layer loss
I0617 18:22:19.823477 28676 net.cpp:406] loss <- pool10_pool10_0_split_0
I0617 18:22:19.823480 28676 net.cpp:406] loss <- label_data_1_split_0
I0617 18:22:19.823484 28676 net.cpp:380] loss -> loss
…
