…
I0617 18:23:59.025442 28783 net.cpp:51] Initializing net from parameters: 
state {
  phase: TRAIN
  level: 0
  stage: ""
}
layer {
  name: "data"
  type: "ImageData"
  top: "data"
  top: "label"
  include {
    phase: TRAIN
  }
  transform_param {
    mirror: true
    crop_size: 227
    mean_file: "nsfwnet2_mean.binaryproto"
  }
  image_data_param {
    source: "/home/dbicho/Documents/datasets/all_labeled_dataset_augmented_finetuning/train.txt"
    batch_size: 14
    shuffle: true
    root_folder: "/home/dbicho/Documents/datasets/all_labeled_dataset_augmented_finetuning/"
  }
}
layer {
  name: "conv1"
  type: "Convolution"
  bottom: "data"
  top: "conv1"
  convolution_param {
    num_output: 64
    kernel_size: 3
    stride: 2
    weight_filler {
      type: "xavier"
    }
  }
}
layer {
  name: "relu_conv1"
  type: "ReLU"
  bottom: "conv1"
  top: "conv1"
}
layer {
  name: "pool1"
  type: "Pooling"
  bottom: "conv1"
  top: "pool1"
  pooling_param {
    pool: MAX
    kernel_size: 3
    stride: 2
  }
}
layer {
  name: "fire2/squeeze1x1"
  type: "Convolution"
  bottom: "pool1"
  top: "fire2/squeeze1x1"
  convolution_param {
    num_output: 16
    kernel_size: 1
    weight_filler {
      type: "xavier"
    }
  }
}
layer {
  name: "fire2/relu_squeeze1x1"
  type: "ReLU"
  bottom: "fire2/squeeze1x1"
  top: "fire2/squeeze1x1"
}
layer {
  name: "fire2/expand1x1"
  type: "Convolution"
  bottom: "fire2/squeeze1x1"
  top: "fire2/expand1x1"
  convolution_param {
    num_output: 64
    kernel_size: 1
    weight_filler {
      type: "xavier"
    }
  }
}
layer {
  name: "fire2/relu_expand1x1"
  type: "ReLU"
  bottom: "fire2/expand1x1"
  top: "fire2/expand1x1"
}
layer {
  name: "fire2/expand3x3"
  type: "Convolution"
  bottom: "fire2/squeeze1x1"
  top: "fire2/expand3x3"
  convolution_param {
    num_output: 64
    pad: 1
    kernel_size: 3
    weight_filler {
      type: "xavier"
    }
  }
}
layer {
  name: "fire2/relu_expand3x3"
  type: "ReLU"
  bottom: "fire2/expand3x3"
  top: "fire2/expand3x3"
}
layer {
  name: "fire2/concat"
  type: "Concat"
  bottom: "fire2/expand1x1"
  bottom: "fire2/expand3x3"
  top: "fire2/concat"
}
layer {
  name: "fire3/squeeze1x1"
  type: "Convolution"
  bottom: "fire2/concat"
  top: "fire3/squeeze1x1"
  convolution_param {
    num_output: 16
    kernel_size: 1
    weight_filler {
      type: "xavier"
    }
  }
}
layer {
  name: "fire3/relu_squeeze1x1"
  type: "ReLU"
  bottom: "fire3/squeeze1x1"
  top: "fire3/squeeze1x1"
}
layer {
  name: "fire3/expand1x1"
  type: "Convolution"
  bottom: "fire3/squeeze1x1"
  top: "fire3/expand1x1"
  convolution_param {
    num_output: 64
    kernel_size: 1
    weight_filler {
      type: "xavier"
    }
  }
}
layer {
  name: "fire3/relu_expand1x1"
  type: "ReLU"
  bottom: "fire3/expand1x1"
  top: "fire3/expand1x1"
}
layer {
  name: "fire3/expand3x3"
  type: "Convolution"
  bottom: "fire3/squeeze1x1"
  top: "fire3/expand3x3"
  convolution_param {
    num_output: 64
    pad: 1
    kernel_size: 3
    weight_filler {
      type: "xavier"
    }
  }
}
layer {
  name: "fire3/relu_expand3x3"
  type: "ReLU"
  bottom: "fire3/expand3x3"
  top: "fire3/expand3x3"
}
layer {
  name: "fire3/concat"
  type: "Concat"
  bottom: "fire3/expand1x1"
  bottom: "fire3/expand3x3"
  top: "fire3/concat"
}
layer {
  name: "pool3"
  type: "Pooling"
  bottom: "fire3/concat"
  top: "pool3"
  pooling_param {
    pool: MAX
    kernel_size: 3
    stride: 2
  }
}
layer {
  name: "fire4/squeeze1x1"
  type: "Convolution"
  bottom: "pool3"
  top: "fire4/squeeze1x1"
  convolution_param {
    num_output: 32
    kernel_size: 1
    weight_filler {
      type: "xavier"
    }
  }
}
layer {
  name: "fire4/relu_squeeze1x1"
  type: "ReLU"
  bottom: "fire4/squeeze1x1"
  top: "fire4/squeeze1x1"
}
layer {
  name: "fire4/expand1x1"
  type: "Convolution"
  bottom: "fire4/squeeze1x1"
  top: "fire4/expand1x1"
  convolution_param {
    num_output: 128
    kernel_size: 1
    weight_filler {
      type: "xavier"
    }
  }
}
layer {
  name: "fire4/relu_expand1x1"
  type: "ReLU"
  bottom: "fire4/expand1x1"
  top: "fire4/expand1x1"
}
layer {
  name: "fire4/expand3x3"
  type: "Convolution"
  bottom: "fire4/squeeze1x1"
  top: "fire4/expand3x3"
  convolution_param {
    num_output: 128
    pad: 1
    kernel_size: 3
    weight_filler {
      type: "xavier"
    }
  }
}
layer {
  name: "fire4/relu_expand3x3"
  type: "ReLU"
  bottom: "fire4/expand3x3"
  top: "fire4/expand3x3"
}
layer {
  name: "fire4/concat"
  type: "Concat"
  bottom: "fire4/expand1x1"
  bottom: "fire4/expand3x3"
  top: "fire4/concat"
}
layer {
  name: "fire5/squeeze1x1"
  type: "Convolution"
  bottom: "fire4/concat"
  top: "fire5/squeeze1x1"
  convolution_param {
    num_output: 32
    kernel_size: 1
    weight_filler {
      type: "xavier"
    }
  }
}
layer {
  name: "fire5/relu_squeeze1x1"
  type: "ReLU"
  bottom: "fire5/squeeze1x1"
  top: "fire5/squeeze1x1"
}
layer {
  name: "fire5/expand1x1"
  type: "Convolution"
  bottom: "fire5/squeeze1x1"
  top: "fire5/expand1x1"
  convolution_param {
    num_output: 128
    kernel_size: 1
    weight_filler {
      type: "xavier"
    }
  }
}
layer {
  name: "fire5/relu_expand1x1"
  type: "ReLU"
  bottom: "fire5/expand1x1"
  top: "fire5/expand1x1"
}
layer {
  name: "fire5/expand3x3"
  type: "Convolution"
  bottom: "fire5/squeeze1x1"
  top: "fire5/expand3x3"
  convolution_param {
    num_output: 128
    pad: 1
    kernel_size: 3
    weight_filler {
      type: "xavier"
    }
  }
}
layer {
  name: "fire5/relu_expand3x3"
  type: "ReLU"
  bottom: "fire5/expand3x3"
  top: "fire5/expand3x3"
}
layer {
  name: "fire5/concat"
  type: "Concat"
  bottom: "fire5/expand1x1"
  bottom: "fire5/expand3x3"
  top: "fire5/concat"
}
layer {
  name: "pool5"
  type: "Pooling"
  bottom: "fire5/concat"
  top: "pool5"
  pooling_param {
    pool: MAX
    kernel_size: 3
    stride: 2
  }
}
layer {
  name: "fire6/squeeze1x1"
  type: "Convolution"
  bottom: "pool5"
  top: "fire6/squeeze1x1"
  convolution_param {
    num_output: 48
    kernel_size: 1
    weight_filler {
      type: "xavier"
    }
  }
}
layer {
  name: "fire6/relu_squeeze1x1"
  type: "ReLU"
  bottom: "fire6/squeeze1x1"
  top: "fire6/squeeze1x1"
}
layer {
  name: "fire6/expand1x1"
  type: "Convolution"
  bottom: "fire6/squeeze1x1"
  top: "fire6/expand1x1"
  convolution_param {
    num_output: 192
    kernel_size: 1
    weight_filler {
      type: "xavier"
    }
  }
}
layer {
  name: "fire6/relu_expand1x1"
  type: "ReLU"
  bottom: "fire6/expand1x1"
  top: "fire6/expand1x1"
}
layer {
  name: "fire6/expand3x3"
  type: "Convolution"
  bottom: "fire6/squeeze1x1"
  top: "fire6/expand3x3"
  convolution_param {
    num_output: 192
    pad: 1
    kernel_size: 3
    weight_filler {
      type: "xavier"
    }
  }
}
layer {
  name: "fire6/relu_expand3x3"
  type: "ReLU"
  bottom: "fire6/expand3x3"
  top: "fire6/expand3x3"
}
layer {
  name: "fire6/concat"
  type: "Concat"
  bottom: "fire6/expand1x1"
  bottom: "fire6/expand3x3"
  top: "fire6/concat"
}
layer {
  name: "fire7/squeeze1x1"
  type: "Convolution"
  bottom: "fire6/concat"
  top: "fire7/squeeze1x1"
  convolution_param {
    num_output: 48
    kernel_size: 1
    weight_filler {
      type: "xavier"
    }
  }
}
layer {
  name: "fire7/relu_squeeze1x1"
  type: "ReLU"
  bottom: "fire7/squeeze1x1"
  top: "fire7/squeeze1x1"
}
layer {
  name: "fire7/expand1x1"
  type: "Convolution"
  bottom: "fire7/squeeze1x1"
  top: "fire7/expand1x1"
  convolution_param {
    num_output: 192
    kernel_size: 1
    weight_filler {
      type: "xavier"
    }
  }
}
layer {
  name: "fire7/relu_expand1x1"
  type: "ReLU"
  bottom: "fire7/expand1x1"
  top: "fire7/expand1x1"
}
layer {
  name: "fire7/expand3x3"
  type: "Convolution"
  bottom: "fire7/squeeze1x1"
  top: "fire7/expand3x3"
  convolution_param {
    num_output: 192
    pad: 1
    kernel_size: 3
    weight_filler {
      type: "xavier"
    }
  }
}
layer {
  name: "fire7/relu_expand3x3"
  type: "ReLU"
  bottom: "fire7/expand3x3"
  top: "fire7/expand3x3"
}
layer {
  name: "fire7/concat"
  type: "Concat"
  bottom: "fire7/expand1x1"
  bottom: "fire7/expand3x3"
  top: "fire7/concat"
}
layer {
  name: "fire8/squeeze1x1"
  type: "Convolution"
  bottom: "fire7/concat"
  top: "fire8/squeeze1x1"
  convolution_param {
    num_output: 64
    kernel_size: 1
    weight_filler {
      type: "xavier"
    }
  }
}
layer {
  name: "fire8/relu_squeeze1x1"
  type: "ReLU"
  bottom: "fire8/squeeze1x1"
  top: "fire8/squeeze1x1"
}
layer {
  name: "fire8/expand1x1"
  type: "Convolution"
  bottom: "fire8/squeeze1x1"
  top: "fire8/expand1x1"
  convolution_param {
    num_output: 256
    kernel_size: 1
    weight_filler {
      type: "xavier"
    }
  }
}
layer {
  name: "fire8/relu_expand1x1"
  type: "ReLU"
  bottom: "fire8/expand1x1"
  top: "fire8/expand1x1"
}
layer {
  name: "fire8/expand3x3"
  type: "Convolution"
  bottom: "fire8/squeeze1x1"
  top: "fire8/expand3x3"
  convolution_param {
    num_output: 256
    pad: 1
    kernel_size: 3
    weight_filler {
      type: "xavier"
    }
  }
}
layer {
  name: "fire8/relu_expand3x3"
  type: "ReLU"
  bottom: "fire8/expand3x3"
  top: "fire8/expand3x3"
}
layer {
  name: "fire8/concat"
  type: "Concat"
  bottom: "fire8/expand1x1"
  bottom: "fire8/expand3x3"
  top: "fire8/concat"
}
layer {
  name: "fire9/squeeze1x1"
  type: "Convolution"
  bottom: "fire8/concat"
  top: "fire9/squeeze1x1"
  convolution_param {
    num_output: 64
    kernel_size: 1
    weight_filler {
      type: "xavier"
    }
  }
}
layer {
  name: "fire9/relu_squeeze1x1"
  type: "ReLU"
  bottom: "fire9/squeeze1x1"
  top: "fire9/squeeze1x1"
}
layer {
  name: "fire9/expand1x1"
  type: "Convolution"
  bottom: "fire9/squeeze1x1"
  top: "fire9/expand1x1"
  convolution_param {
    num_output: 256
    kernel_size: 1
    weight_filler {
      type: "xavier"
    }
  }
}
layer {
  name: "fire9/relu_expand1x1"
  type: "ReLU"
  bottom: "fire9/expand1x1"
  top: "fire9/expand1x1"
}
layer {
  name: "fire9/expand3x3"
  type: "Convolution"
  bottom: "fire9/squeeze1x1"
  top: "fire9/expand3x3"
  convolution_param {
    num_output: 256
    pad: 1
    kernel_size: 3
    weight_filler {
      type: "xavier"
    }
  }
}
layer {
  name: "fire9/relu_expand3x3"
  type: "ReLU"
  bottom: "fire9/expand3x3"
  top: "fire9/expand3x3"
}
layer {
  name: "fire9/concat"
  type: "Concat"
  bottom: "fire9/expand1x1"
  bottom: "fire9/expand3x3"
  top: "fire9/concat"
}
layer {
  name: "drop9"
  type: "Dropout"
  bottom: "fire9/concat"
  top: "fire9/concat"
  dropout_param {
    dropout_ratio: 0.5
  }
}
layer {
  name: "conv10"
  type: "Convolution"
  bottom: "fire9/concat"
  top: "conv10"
  convolution_param {
    num_output: 2
    kernel_size: 1
    weight_filler {
      type: "gaussian"
      mean: 0
      std: 0.01
    }
  }
}
layer {
  name: "relu_conv10"
  type: "ReLU"
  bottom: "conv10"
  top: "conv10"
}
layer {
  name: "pool10"
  type: "Pooling"
  bottom: "conv10"
  top: "pool10"
  pooling_param {
    pool: AVE
    global_pooling: true
  }
}
layer {
  name: "loss"
  type: "SoftmaxWithLoss"
  bottom: "pool10"
  bottom: "label"
  top: "loss"
}
layer {
  name: "accuracy"
  type: "Accuracy"
  bottom: "pool10"
  bottom: "label"
  top: "accuracy"
}
I0617 18:23:59.025723 28783 layer_factory.hpp:77] Creating layer data
I0617 18:23:59.025748 28783 net.cpp:84] Creating Layer data
I0617 18:23:59.025754 28783 net.cpp:380] data -> data
I0617 18:23:59.025773 28783 net.cpp:380] data -> label
I0617 18:23:59.025784 28783 data_transformer.cpp:25] Loading mean file from: nsfwnet2_mean.binaryproto
I0617 18:23:59.028111 28783 image_data_layer.cpp:38] Opening file /home/dbicho/Documents/datasets/all_labeled_dataset_augmented_finetuning/train.txt
I0617 18:23:59.038586 28783 image_data_layer.cpp:53] Shuffling data
I0617 18:23:59.043613 28783 image_data_layer.cpp:63] A total of 19955 images.
I0617 18:23:59.044220 28783 image_data_layer.cpp:90] output data size: 14,3,227,227
I0617 18:23:59.062618 28783 net.cpp:122] Setting up data
I0617 18:23:59.062654 28783 net.cpp:129] Top shape: 14 3 227 227 (2164218)
I0617 18:23:59.062659 28783 net.cpp:129] Top shape: 14 (14)
I0617 18:23:59.062662 28783 net.cpp:137] Memory required for data: 8656928
I0617 18:23:59.062669 28783 layer_factory.hpp:77] Creating layer label_data_1_split
I0617 18:23:59.062682 28783 net.cpp:84] Creating Layer label_data_1_split
I0617 18:23:59.062686 28783 net.cpp:406] label_data_1_split <- label
I0617 18:23:59.062700 28783 net.cpp:380] label_data_1_split -> label_data_1_split_0
I0617 18:23:59.062710 28783 net.cpp:380] label_data_1_split -> label_data_1_split_1
I0617 18:23:59.062783 28783 net.cpp:122] Setting up label_data_1_split
I0617 18:23:59.062791 28783 net.cpp:129] Top shape: 14 (14)
I0617 18:23:59.062794 28783 net.cpp:129] Top shape: 14 (14)
I0617 18:23:59.062796 28783 net.cpp:137] Memory required for data: 8657040
I0617 18:23:59.062799 28783 layer_factory.hpp:77] Creating layer conv1
I0617 18:23:59.062814 28783 net.cpp:84] Creating Layer conv1
I0617 18:23:59.062819 28783 net.cpp:406] conv1 <- data
I0617 18:23:59.062824 28783 net.cpp:380] conv1 -> conv1
I0617 18:23:59.064162 28783 net.cpp:122] Setting up conv1
I0617 18:23:59.064177 28783 net.cpp:129] Top shape: 14 64 113 113 (11441024)
I0617 18:23:59.064180 28783 net.cpp:137] Memory required for data: 54421136
I0617 18:23:59.064205 28783 layer_factory.hpp:77] Creating layer relu_conv1
I0617 18:23:59.064214 28783 net.cpp:84] Creating Layer relu_conv1
I0617 18:23:59.064218 28783 net.cpp:406] relu_conv1 <- conv1
I0617 18:23:59.064224 28783 net.cpp:367] relu_conv1 -> conv1 (in-place)
I0617 18:23:59.064230 28783 net.cpp:122] Setting up relu_conv1
I0617 18:23:59.064235 28783 net.cpp:129] Top shape: 14 64 113 113 (11441024)
I0617 18:23:59.064239 28783 net.cpp:137] Memory required for data: 100185232
I0617 18:23:59.064240 28783 layer_factory.hpp:77] Creating layer pool1
I0617 18:23:59.064249 28783 net.cpp:84] Creating Layer pool1
I0617 18:23:59.064251 28783 net.cpp:406] pool1 <- conv1
I0617 18:23:59.064255 28783 net.cpp:380] pool1 -> pool1
I0617 18:23:59.065110 28783 net.cpp:122] Setting up pool1
I0617 18:23:59.065117 28783 net.cpp:129] Top shape: 14 64 56 56 (2809856)
I0617 18:23:59.065119 28783 net.cpp:137] Memory required for data: 111424656
I0617 18:23:59.065122 28783 layer_factory.hpp:77] Creating layer fire2/squeeze1x1
I0617 18:23:59.065130 28783 net.cpp:84] Creating Layer fire2/squeeze1x1
I0617 18:23:59.065135 28783 net.cpp:406] fire2/squeeze1x1 <- pool1
I0617 18:23:59.065140 28783 net.cpp:380] fire2/squeeze1x1 -> fire2/squeeze1x1
I0617 18:23:59.065805 28783 net.cpp:122] Setting up fire2/squeeze1x1
I0617 18:23:59.065817 28783 net.cpp:129] Top shape: 14 16 56 56 (702464)
I0617 18:23:59.065820 28783 net.cpp:137] Memory required for data: 114234512
I0617 18:23:59.065850 28783 layer_factory.hpp:77] Creating layer fire2/relu_squeeze1x1
I0617 18:23:59.065860 28783 net.cpp:84] Creating Layer fire2/relu_squeeze1x1
I0617 18:23:59.065863 28783 net.cpp:406] fire2/relu_squeeze1x1 <- fire2/squeeze1x1
I0617 18:23:59.065868 28783 net.cpp:367] fire2/relu_squeeze1x1 -> fire2/squeeze1x1 (in-place)
I0617 18:23:59.065874 28783 net.cpp:122] Setting up fire2/relu_squeeze1x1
I0617 18:23:59.065877 28783 net.cpp:129] Top shape: 14 16 56 56 (702464)
I0617 18:23:59.065881 28783 net.cpp:137] Memory required for data: 117044368
I0617 18:23:59.065882 28783 layer_factory.hpp:77] Creating layer fire2/squeeze1x1_fire2/relu_squeeze1x1_0_split
I0617 18:23:59.065887 28783 net.cpp:84] Creating Layer fire2/squeeze1x1_fire2/relu_squeeze1x1_0_split
I0617 18:23:59.065891 28783 net.cpp:406] fire2/squeeze1x1_fire2/relu_squeeze1x1_0_split <- fire2/squeeze1x1
I0617 18:23:59.065896 28783 net.cpp:380] fire2/squeeze1x1_fire2/relu_squeeze1x1_0_split -> fire2/squeeze1x1_fire2/relu_squeeze1x1_0_split_0
I0617 18:23:59.065922 28783 net.cpp:380] fire2/squeeze1x1_fire2/relu_squeeze1x1_0_split -> fire2/squeeze1x1_fire2/relu_squeeze1x1_0_split_1
I0617 18:23:59.065960 28783 net.cpp:122] Setting up fire2/squeeze1x1_fire2/relu_squeeze1x1_0_split
I0617 18:23:59.065966 28783 net.cpp:129] Top shape: 14 16 56 56 (702464)
I0617 18:23:59.065970 28783 net.cpp:129] Top shape: 14 16 56 56 (702464)
I0617 18:23:59.065973 28783 net.cpp:137] Memory required for data: 122664080
I0617 18:23:59.065975 28783 layer_factory.hpp:77] Creating layer fire2/expand1x1
I0617 18:23:59.065985 28783 net.cpp:84] Creating Layer fire2/expand1x1
I0617 18:23:59.065989 28783 net.cpp:406] fire2/expand1x1 <- fire2/squeeze1x1_fire2/relu_squeeze1x1_0_split_0
I0617 18:23:59.065996 28783 net.cpp:380] fire2/expand1x1 -> fire2/expand1x1
I0617 18:23:59.066215 28783 net.cpp:122] Setting up fire2/expand1x1
I0617 18:23:59.066223 28783 net.cpp:129] Top shape: 14 64 56 56 (2809856)
I0617 18:23:59.066226 28783 net.cpp:137] Memory required for data: 133903504
I0617 18:23:59.066233 28783 layer_factory.hpp:77] Creating layer fire2/relu_expand1x1
I0617 18:23:59.066239 28783 net.cpp:84] Creating Layer fire2/relu_expand1x1
I0617 18:23:59.066244 28783 net.cpp:406] fire2/relu_expand1x1 <- fire2/expand1x1
I0617 18:23:59.066248 28783 net.cpp:367] fire2/relu_expand1x1 -> fire2/expand1x1 (in-place)
I0617 18:23:59.066254 28783 net.cpp:122] Setting up fire2/relu_expand1x1
I0617 18:23:59.066259 28783 net.cpp:129] Top shape: 14 64 56 56 (2809856)
I0617 18:23:59.066262 28783 net.cpp:137] Memory required for data: 145142928
I0617 18:23:59.066263 28783 layer_factory.hpp:77] Creating layer fire2/expand3x3
I0617 18:23:59.066270 28783 net.cpp:84] Creating Layer fire2/expand3x3
I0617 18:23:59.066274 28783 net.cpp:406] fire2/expand3x3 <- fire2/squeeze1x1_fire2/relu_squeeze1x1_0_split_1
I0617 18:23:59.066279 28783 net.cpp:380] fire2/expand3x3 -> fire2/expand3x3
I0617 18:23:59.066510 28783 net.cpp:122] Setting up fire2/expand3x3
I0617 18:23:59.066517 28783 net.cpp:129] Top shape: 14 64 56 56 (2809856)
I0617 18:23:59.066519 28783 net.cpp:137] Memory required for data: 156382352
I0617 18:23:59.066524 28783 layer_factory.hpp:77] Creating layer fire2/relu_expand3x3
I0617 18:23:59.066530 28783 net.cpp:84] Creating Layer fire2/relu_expand3x3
I0617 18:23:59.066534 28783 net.cpp:406] fire2/relu_expand3x3 <- fire2/expand3x3
I0617 18:23:59.066539 28783 net.cpp:367] fire2/relu_expand3x3 -> fire2/expand3x3 (in-place)
I0617 18:23:59.066543 28783 net.cpp:122] Setting up fire2/relu_expand3x3
I0617 18:23:59.066548 28783 net.cpp:129] Top shape: 14 64 56 56 (2809856)
I0617 18:23:59.066550 28783 net.cpp:137] Memory required for data: 167621776
I0617 18:23:59.066552 28783 layer_factory.hpp:77] Creating layer fire2/concat
I0617 18:23:59.066557 28783 net.cpp:84] Creating Layer fire2/concat
I0617 18:23:59.066560 28783 net.cpp:406] fire2/concat <- fire2/expand1x1
I0617 18:23:59.066563 28783 net.cpp:406] fire2/concat <- fire2/expand3x3
I0617 18:23:59.066567 28783 net.cpp:380] fire2/concat -> fire2/concat
I0617 18:23:59.066587 28783 net.cpp:122] Setting up fire2/concat
I0617 18:23:59.066592 28783 net.cpp:129] Top shape: 14 128 56 56 (5619712)
I0617 18:23:59.066594 28783 net.cpp:137] Memory required for data: 190100624
I0617 18:23:59.066597 28783 layer_factory.hpp:77] Creating layer fire3/squeeze1x1
I0617 18:23:59.066603 28783 net.cpp:84] Creating Layer fire3/squeeze1x1
I0617 18:23:59.066607 28783 net.cpp:406] fire3/squeeze1x1 <- fire2/concat
I0617 18:23:59.066612 28783 net.cpp:380] fire3/squeeze1x1 -> fire3/squeeze1x1
I0617 18:23:59.066824 28783 net.cpp:122] Setting up fire3/squeeze1x1
I0617 18:23:59.066833 28783 net.cpp:129] Top shape: 14 16 56 56 (702464)
I0617 18:23:59.066836 28783 net.cpp:137] Memory required for data: 192910480
I0617 18:23:59.066844 28783 layer_factory.hpp:77] Creating layer fire3/relu_squeeze1x1
I0617 18:23:59.066850 28783 net.cpp:84] Creating Layer fire3/relu_squeeze1x1
I0617 18:23:59.066854 28783 net.cpp:406] fire3/relu_squeeze1x1 <- fire3/squeeze1x1
I0617 18:23:59.066869 28783 net.cpp:367] fire3/relu_squeeze1x1 -> fire3/squeeze1x1 (in-place)
I0617 18:23:59.066875 28783 net.cpp:122] Setting up fire3/relu_squeeze1x1
I0617 18:23:59.066880 28783 net.cpp:129] Top shape: 14 16 56 56 (702464)
I0617 18:23:59.066884 28783 net.cpp:137] Memory required for data: 195720336
I0617 18:23:59.066885 28783 layer_factory.hpp:77] Creating layer fire3/squeeze1x1_fire3/relu_squeeze1x1_0_split
I0617 18:23:59.066891 28783 net.cpp:84] Creating Layer fire3/squeeze1x1_fire3/relu_squeeze1x1_0_split
I0617 18:23:59.066895 28783 net.cpp:406] fire3/squeeze1x1_fire3/relu_squeeze1x1_0_split <- fire3/squeeze1x1
I0617 18:23:59.066900 28783 net.cpp:380] fire3/squeeze1x1_fire3/relu_squeeze1x1_0_split -> fire3/squeeze1x1_fire3/relu_squeeze1x1_0_split_0
I0617 18:23:59.066907 28783 net.cpp:380] fire3/squeeze1x1_fire3/relu_squeeze1x1_0_split -> fire3/squeeze1x1_fire3/relu_squeeze1x1_0_split_1
I0617 18:23:59.066938 28783 net.cpp:122] Setting up fire3/squeeze1x1_fire3/relu_squeeze1x1_0_split
I0617 18:23:59.066944 28783 net.cpp:129] Top shape: 14 16 56 56 (702464)
I0617 18:23:59.066947 28783 net.cpp:129] Top shape: 14 16 56 56 (702464)
I0617 18:23:59.066949 28783 net.cpp:137] Memory required for data: 201340048
I0617 18:23:59.066952 28783 layer_factory.hpp:77] Creating layer fire3/expand1x1
I0617 18:23:59.066963 28783 net.cpp:84] Creating Layer fire3/expand1x1
I0617 18:23:59.066967 28783 net.cpp:406] fire3/expand1x1 <- fire3/squeeze1x1_fire3/relu_squeeze1x1_0_split_0
I0617 18:23:59.066972 28783 net.cpp:380] fire3/expand1x1 -> fire3/expand1x1
I0617 18:23:59.067154 28783 net.cpp:122] Setting up fire3/expand1x1
I0617 18:23:59.067160 28783 net.cpp:129] Top shape: 14 64 56 56 (2809856)
I0617 18:23:59.067163 28783 net.cpp:137] Memory required for data: 212579472
I0617 18:23:59.067167 28783 layer_factory.hpp:77] Creating layer fire3/relu_expand1x1
I0617 18:23:59.067173 28783 net.cpp:84] Creating Layer fire3/relu_expand1x1
I0617 18:23:59.067176 28783 net.cpp:406] fire3/relu_expand1x1 <- fire3/expand1x1
I0617 18:23:59.067180 28783 net.cpp:367] fire3/relu_expand1x1 -> fire3/expand1x1 (in-place)
I0617 18:23:59.067184 28783 net.cpp:122] Setting up fire3/relu_expand1x1
I0617 18:23:59.067188 28783 net.cpp:129] Top shape: 14 64 56 56 (2809856)
I0617 18:23:59.067190 28783 net.cpp:137] Memory required for data: 223818896
I0617 18:23:59.067193 28783 layer_factory.hpp:77] Creating layer fire3/expand3x3
I0617 18:23:59.067199 28783 net.cpp:84] Creating Layer fire3/expand3x3
I0617 18:23:59.067203 28783 net.cpp:406] fire3/expand3x3 <- fire3/squeeze1x1_fire3/relu_squeeze1x1_0_split_1
I0617 18:23:59.067207 28783 net.cpp:380] fire3/expand3x3 -> fire3/expand3x3
I0617 18:23:59.067438 28783 net.cpp:122] Setting up fire3/expand3x3
I0617 18:23:59.067445 28783 net.cpp:129] Top shape: 14 64 56 56 (2809856)
I0617 18:23:59.067447 28783 net.cpp:137] Memory required for data: 235058320
I0617 18:23:59.067452 28783 layer_factory.hpp:77] Creating layer fire3/relu_expand3x3
I0617 18:23:59.067457 28783 net.cpp:84] Creating Layer fire3/relu_expand3x3
I0617 18:23:59.067461 28783 net.cpp:406] fire3/relu_expand3x3 <- fire3/expand3x3
I0617 18:23:59.067466 28783 net.cpp:367] fire3/relu_expand3x3 -> fire3/expand3x3 (in-place)
I0617 18:23:59.067471 28783 net.cpp:122] Setting up fire3/relu_expand3x3
I0617 18:23:59.067473 28783 net.cpp:129] Top shape: 14 64 56 56 (2809856)
I0617 18:23:59.067476 28783 net.cpp:137] Memory required for data: 246297744
I0617 18:23:59.067477 28783 layer_factory.hpp:77] Creating layer fire3/concat
I0617 18:23:59.067483 28783 net.cpp:84] Creating Layer fire3/concat
I0617 18:23:59.067486 28783 net.cpp:406] fire3/concat <- fire3/expand1x1
I0617 18:23:59.067488 28783 net.cpp:406] fire3/concat <- fire3/expand3x3
I0617 18:23:59.067492 28783 net.cpp:380] fire3/concat -> fire3/concat
I0617 18:23:59.067512 28783 net.cpp:122] Setting up fire3/concat
I0617 18:23:59.067517 28783 net.cpp:129] Top shape: 14 128 56 56 (5619712)
I0617 18:23:59.067519 28783 net.cpp:137] Memory required for data: 268776592
I0617 18:23:59.067530 28783 layer_factory.hpp:77] Creating layer pool3
I0617 18:23:59.067535 28783 net.cpp:84] Creating Layer pool3
I0617 18:23:59.067538 28783 net.cpp:406] pool3 <- fire3/concat
I0617 18:23:59.067543 28783 net.cpp:380] pool3 -> pool3
I0617 18:23:59.067572 28783 net.cpp:122] Setting up pool3
I0617 18:23:59.067577 28783 net.cpp:129] Top shape: 14 128 28 28 (1404928)
I0617 18:23:59.067580 28783 net.cpp:137] Memory required for data: 274396304
I0617 18:23:59.067582 28783 layer_factory.hpp:77] Creating layer fire4/squeeze1x1
I0617 18:23:59.067589 28783 net.cpp:84] Creating Layer fire4/squeeze1x1
I0617 18:23:59.067591 28783 net.cpp:406] fire4/squeeze1x1 <- pool3
I0617 18:23:59.067596 28783 net.cpp:380] fire4/squeeze1x1 -> fire4/squeeze1x1
I0617 18:23:59.067790 28783 net.cpp:122] Setting up fire4/squeeze1x1
I0617 18:23:59.067796 28783 net.cpp:129] Top shape: 14 32 28 28 (351232)
I0617 18:23:59.067798 28783 net.cpp:137] Memory required for data: 275801232
I0617 18:23:59.067803 28783 layer_factory.hpp:77] Creating layer fire4/relu_squeeze1x1
I0617 18:23:59.067807 28783 net.cpp:84] Creating Layer fire4/relu_squeeze1x1
I0617 18:23:59.067811 28783 net.cpp:406] fire4/relu_squeeze1x1 <- fire4/squeeze1x1
I0617 18:23:59.067813 28783 net.cpp:367] fire4/relu_squeeze1x1 -> fire4/squeeze1x1 (in-place)
I0617 18:23:59.067818 28783 net.cpp:122] Setting up fire4/relu_squeeze1x1
I0617 18:23:59.067822 28783 net.cpp:129] Top shape: 14 32 28 28 (351232)
I0617 18:23:59.067824 28783 net.cpp:137] Memory required for data: 277206160
I0617 18:23:59.067826 28783 layer_factory.hpp:77] Creating layer fire4/squeeze1x1_fire4/relu_squeeze1x1_0_split
I0617 18:23:59.067831 28783 net.cpp:84] Creating Layer fire4/squeeze1x1_fire4/relu_squeeze1x1_0_split
I0617 18:23:59.067833 28783 net.cpp:406] fire4/squeeze1x1_fire4/relu_squeeze1x1_0_split <- fire4/squeeze1x1
I0617 18:23:59.067838 28783 net.cpp:380] fire4/squeeze1x1_fire4/relu_squeeze1x1_0_split -> fire4/squeeze1x1_fire4/relu_squeeze1x1_0_split_0
I0617 18:23:59.067844 28783 net.cpp:380] fire4/squeeze1x1_fire4/relu_squeeze1x1_0_split -> fire4/squeeze1x1_fire4/relu_squeeze1x1_0_split_1
I0617 18:23:59.067869 28783 net.cpp:122] Setting up fire4/squeeze1x1_fire4/relu_squeeze1x1_0_split
I0617 18:23:59.067875 28783 net.cpp:129] Top shape: 14 32 28 28 (351232)
I0617 18:23:59.067878 28783 net.cpp:129] Top shape: 14 32 28 28 (351232)
I0617 18:23:59.067880 28783 net.cpp:137] Memory required for data: 280016016
I0617 18:23:59.067883 28783 layer_factory.hpp:77] Creating layer fire4/expand1x1
I0617 18:23:59.067888 28783 net.cpp:84] Creating Layer fire4/expand1x1
I0617 18:23:59.067893 28783 net.cpp:406] fire4/expand1x1 <- fire4/squeeze1x1_fire4/relu_squeeze1x1_0_split_0
I0617 18:23:59.067898 28783 net.cpp:380] fire4/expand1x1 -> fire4/expand1x1
I0617 18:23:59.068079 28783 net.cpp:122] Setting up fire4/expand1x1
I0617 18:23:59.068086 28783 net.cpp:129] Top shape: 14 128 28 28 (1404928)
I0617 18:23:59.068089 28783 net.cpp:137] Memory required for data: 285635728
I0617 18:23:59.068096 28783 layer_factory.hpp:77] Creating layer fire4/relu_expand1x1
I0617 18:23:59.068102 28783 net.cpp:84] Creating Layer fire4/relu_expand1x1
I0617 18:23:59.068104 28783 net.cpp:406] fire4/relu_expand1x1 <- fire4/expand1x1
I0617 18:23:59.068109 28783 net.cpp:367] fire4/relu_expand1x1 -> fire4/expand1x1 (in-place)
I0617 18:23:59.068114 28783 net.cpp:122] Setting up fire4/relu_expand1x1
I0617 18:23:59.068117 28783 net.cpp:129] Top shape: 14 128 28 28 (1404928)
I0617 18:23:59.068120 28783 net.cpp:137] Memory required for data: 291255440
I0617 18:23:59.068122 28783 layer_factory.hpp:77] Creating layer fire4/expand3x3
I0617 18:23:59.068128 28783 net.cpp:84] Creating Layer fire4/expand3x3
I0617 18:23:59.068130 28783 net.cpp:406] fire4/expand3x3 <- fire4/squeeze1x1_fire4/relu_squeeze1x1_0_split_1
I0617 18:23:59.068135 28783 net.cpp:380] fire4/expand3x3 -> fire4/expand3x3
I0617 18:23:59.069023 28783 net.cpp:122] Setting up fire4/expand3x3
I0617 18:23:59.069036 28783 net.cpp:129] Top shape: 14 128 28 28 (1404928)
I0617 18:23:59.069039 28783 net.cpp:137] Memory required for data: 296875152
I0617 18:23:59.069056 28783 layer_factory.hpp:77] Creating layer fire4/relu_expand3x3
I0617 18:23:59.069063 28783 net.cpp:84] Creating Layer fire4/relu_expand3x3
I0617 18:23:59.069067 28783 net.cpp:406] fire4/relu_expand3x3 <- fire4/expand3x3
I0617 18:23:59.069072 28783 net.cpp:367] fire4/relu_expand3x3 -> fire4/expand3x3 (in-place)
I0617 18:23:59.069077 28783 net.cpp:122] Setting up fire4/relu_expand3x3
I0617 18:23:59.069082 28783 net.cpp:129] Top shape: 14 128 28 28 (1404928)
I0617 18:23:59.069083 28783 net.cpp:137] Memory required for data: 302494864
I0617 18:23:59.069085 28783 layer_factory.hpp:77] Creating layer fire4/concat
I0617 18:23:59.069090 28783 net.cpp:84] Creating Layer fire4/concat
I0617 18:23:59.069092 28783 net.cpp:406] fire4/concat <- fire4/expand1x1
I0617 18:23:59.069095 28783 net.cpp:406] fire4/concat <- fire4/expand3x3
I0617 18:23:59.069099 28783 net.cpp:380] fire4/concat -> fire4/concat
I0617 18:23:59.069119 28783 net.cpp:122] Setting up fire4/concat
I0617 18:23:59.069124 28783 net.cpp:129] Top shape: 14 256 28 28 (2809856)
I0617 18:23:59.069128 28783 net.cpp:137] Memory required for data: 313734288
I0617 18:23:59.069129 28783 layer_factory.hpp:77] Creating layer fire5/squeeze1x1
I0617 18:23:59.069136 28783 net.cpp:84] Creating Layer fire5/squeeze1x1
I0617 18:23:59.069140 28783 net.cpp:406] fire5/squeeze1x1 <- fire4/concat
I0617 18:23:59.069145 28783 net.cpp:380] fire5/squeeze1x1 -> fire5/squeeze1x1
I0617 18:23:59.069360 28783 net.cpp:122] Setting up fire5/squeeze1x1
I0617 18:23:59.069366 28783 net.cpp:129] Top shape: 14 32 28 28 (351232)
I0617 18:23:59.069368 28783 net.cpp:137] Memory required for data: 315139216
I0617 18:23:59.069373 28783 layer_factory.hpp:77] Creating layer fire5/relu_squeeze1x1
I0617 18:23:59.069378 28783 net.cpp:84] Creating Layer fire5/relu_squeeze1x1
I0617 18:23:59.069380 28783 net.cpp:406] fire5/relu_squeeze1x1 <- fire5/squeeze1x1
I0617 18:23:59.069386 28783 net.cpp:367] fire5/relu_squeeze1x1 -> fire5/squeeze1x1 (in-place)
I0617 18:23:59.069391 28783 net.cpp:122] Setting up fire5/relu_squeeze1x1
I0617 18:23:59.069393 28783 net.cpp:129] Top shape: 14 32 28 28 (351232)
I0617 18:23:59.069396 28783 net.cpp:137] Memory required for data: 316544144
I0617 18:23:59.069398 28783 layer_factory.hpp:77] Creating layer fire5/squeeze1x1_fire5/relu_squeeze1x1_0_split
I0617 18:23:59.069408 28783 net.cpp:84] Creating Layer fire5/squeeze1x1_fire5/relu_squeeze1x1_0_split
I0617 18:23:59.069412 28783 net.cpp:406] fire5/squeeze1x1_fire5/relu_squeeze1x1_0_split <- fire5/squeeze1x1
I0617 18:23:59.069417 28783 net.cpp:380] fire5/squeeze1x1_fire5/relu_squeeze1x1_0_split -> fire5/squeeze1x1_fire5/relu_squeeze1x1_0_split_0
I0617 18:23:59.069423 28783 net.cpp:380] fire5/squeeze1x1_fire5/relu_squeeze1x1_0_split -> fire5/squeeze1x1_fire5/relu_squeeze1x1_0_split_1
I0617 18:23:59.069450 28783 net.cpp:122] Setting up fire5/squeeze1x1_fire5/relu_squeeze1x1_0_split
I0617 18:23:59.069455 28783 net.cpp:129] Top shape: 14 32 28 28 (351232)
I0617 18:23:59.069459 28783 net.cpp:129] Top shape: 14 32 28 28 (351232)
I0617 18:23:59.069461 28783 net.cpp:137] Memory required for data: 319354000
I0617 18:23:59.069463 28783 layer_factory.hpp:77] Creating layer fire5/expand1x1
I0617 18:23:59.069470 28783 net.cpp:84] Creating Layer fire5/expand1x1
I0617 18:23:59.069473 28783 net.cpp:406] fire5/expand1x1 <- fire5/squeeze1x1_fire5/relu_squeeze1x1_0_split_0
I0617 18:23:59.069478 28783 net.cpp:380] fire5/expand1x1 -> fire5/expand1x1
I0617 18:23:59.069660 28783 net.cpp:122] Setting up fire5/expand1x1
I0617 18:23:59.069667 28783 net.cpp:129] Top shape: 14 128 28 28 (1404928)
I0617 18:23:59.069669 28783 net.cpp:137] Memory required for data: 324973712
I0617 18:23:59.069674 28783 layer_factory.hpp:77] Creating layer fire5/relu_expand1x1
I0617 18:23:59.069679 28783 net.cpp:84] Creating Layer fire5/relu_expand1x1
I0617 18:23:59.069682 28783 net.cpp:406] fire5/relu_expand1x1 <- fire5/expand1x1
I0617 18:23:59.069687 28783 net.cpp:367] fire5/relu_expand1x1 -> fire5/expand1x1 (in-place)
I0617 18:23:59.069700 28783 net.cpp:122] Setting up fire5/relu_expand1x1
I0617 18:23:59.069703 28783 net.cpp:129] Top shape: 14 128 28 28 (1404928)
I0617 18:23:59.069706 28783 net.cpp:137] Memory required for data: 330593424
I0617 18:23:59.069708 28783 layer_factory.hpp:77] Creating layer fire5/expand3x3
I0617 18:23:59.069715 28783 net.cpp:84] Creating Layer fire5/expand3x3
I0617 18:23:59.069718 28783 net.cpp:406] fire5/expand3x3 <- fire5/squeeze1x1_fire5/relu_squeeze1x1_0_split_1
I0617 18:23:59.069723 28783 net.cpp:380] fire5/expand3x3 -> fire5/expand3x3
I0617 18:23:59.070086 28783 net.cpp:122] Setting up fire5/expand3x3
I0617 18:23:59.070094 28783 net.cpp:129] Top shape: 14 128 28 28 (1404928)
I0617 18:23:59.070096 28783 net.cpp:137] Memory required for data: 336213136
I0617 18:23:59.070101 28783 layer_factory.hpp:77] Creating layer fire5/relu_expand3x3
I0617 18:23:59.070106 28783 net.cpp:84] Creating Layer fire5/relu_expand3x3
I0617 18:23:59.070109 28783 net.cpp:406] fire5/relu_expand3x3 <- fire5/expand3x3
I0617 18:23:59.070114 28783 net.cpp:367] fire5/relu_expand3x3 -> fire5/expand3x3 (in-place)
I0617 18:23:59.070118 28783 net.cpp:122] Setting up fire5/relu_expand3x3
I0617 18:23:59.070122 28783 net.cpp:129] Top shape: 14 128 28 28 (1404928)
I0617 18:23:59.070124 28783 net.cpp:137] Memory required for data: 341832848
I0617 18:23:59.070127 28783 layer_factory.hpp:77] Creating layer fire5/concat
I0617 18:23:59.070130 28783 net.cpp:84] Creating Layer fire5/concat
I0617 18:23:59.070132 28783 net.cpp:406] fire5/concat <- fire5/expand1x1
I0617 18:23:59.070137 28783 net.cpp:406] fire5/concat <- fire5/expand3x3
I0617 18:23:59.070140 28783 net.cpp:380] fire5/concat -> fire5/concat
I0617 18:23:59.070158 28783 net.cpp:122] Setting up fire5/concat
I0617 18:23:59.070163 28783 net.cpp:129] Top shape: 14 256 28 28 (2809856)
I0617 18:23:59.070165 28783 net.cpp:137] Memory required for data: 353072272
I0617 18:23:59.070168 28783 layer_factory.hpp:77] Creating layer pool5
I0617 18:23:59.070171 28783 net.cpp:84] Creating Layer pool5
I0617 18:23:59.070174 28783 net.cpp:406] pool5 <- fire5/concat
I0617 18:23:59.070178 28783 net.cpp:380] pool5 -> pool5
I0617 18:23:59.070204 28783 net.cpp:122] Setting up pool5
I0617 18:23:59.070209 28783 net.cpp:129] Top shape: 14 256 14 14 (702464)
I0617 18:23:59.070211 28783 net.cpp:137] Memory required for data: 355882128
I0617 18:23:59.070214 28783 layer_factory.hpp:77] Creating layer fire6/squeeze1x1
I0617 18:23:59.070220 28783 net.cpp:84] Creating Layer fire6/squeeze1x1
I0617 18:23:59.070222 28783 net.cpp:406] fire6/squeeze1x1 <- pool5
I0617 18:23:59.070227 28783 net.cpp:380] fire6/squeeze1x1 -> fire6/squeeze1x1
I0617 18:23:59.070477 28783 net.cpp:122] Setting up fire6/squeeze1x1
I0617 18:23:59.070485 28783 net.cpp:129] Top shape: 14 48 14 14 (131712)
I0617 18:23:59.070488 28783 net.cpp:137] Memory required for data: 356408976
I0617 18:23:59.070493 28783 layer_factory.hpp:77] Creating layer fire6/relu_squeeze1x1
I0617 18:23:59.070498 28783 net.cpp:84] Creating Layer fire6/relu_squeeze1x1
I0617 18:23:59.070502 28783 net.cpp:406] fire6/relu_squeeze1x1 <- fire6/squeeze1x1
I0617 18:23:59.070507 28783 net.cpp:367] fire6/relu_squeeze1x1 -> fire6/squeeze1x1 (in-place)
I0617 18:23:59.070511 28783 net.cpp:122] Setting up fire6/relu_squeeze1x1
I0617 18:23:59.070515 28783 net.cpp:129] Top shape: 14 48 14 14 (131712)
I0617 18:23:59.070518 28783 net.cpp:137] Memory required for data: 356935824
I0617 18:23:59.070520 28783 layer_factory.hpp:77] Creating layer fire6/squeeze1x1_fire6/relu_squeeze1x1_0_split
I0617 18:23:59.070524 28783 net.cpp:84] Creating Layer fire6/squeeze1x1_fire6/relu_squeeze1x1_0_split
I0617 18:23:59.070528 28783 net.cpp:406] fire6/squeeze1x1_fire6/relu_squeeze1x1_0_split <- fire6/squeeze1x1
I0617 18:23:59.070531 28783 net.cpp:380] fire6/squeeze1x1_fire6/relu_squeeze1x1_0_split -> fire6/squeeze1x1_fire6/relu_squeeze1x1_0_split_0
I0617 18:23:59.070538 28783 net.cpp:380] fire6/squeeze1x1_fire6/relu_squeeze1x1_0_split -> fire6/squeeze1x1_fire6/relu_squeeze1x1_0_split_1
I0617 18:23:59.070569 28783 net.cpp:122] Setting up fire6/squeeze1x1_fire6/relu_squeeze1x1_0_split
I0617 18:23:59.070583 28783 net.cpp:129] Top shape: 14 48 14 14 (131712)
I0617 18:23:59.070587 28783 net.cpp:129] Top shape: 14 48 14 14 (131712)
I0617 18:23:59.070590 28783 net.cpp:137] Memory required for data: 357989520
I0617 18:23:59.070592 28783 layer_factory.hpp:77] Creating layer fire6/expand1x1
I0617 18:23:59.070597 28783 net.cpp:84] Creating Layer fire6/expand1x1
I0617 18:23:59.070600 28783 net.cpp:406] fire6/expand1x1 <- fire6/squeeze1x1_fire6/relu_squeeze1x1_0_split_0
I0617 18:23:59.070605 28783 net.cpp:380] fire6/expand1x1 -> fire6/expand1x1
I0617 18:23:59.070816 28783 net.cpp:122] Setting up fire6/expand1x1
I0617 18:23:59.070823 28783 net.cpp:129] Top shape: 14 192 14 14 (526848)
I0617 18:23:59.070825 28783 net.cpp:137] Memory required for data: 360096912
I0617 18:23:59.070830 28783 layer_factory.hpp:77] Creating layer fire6/relu_expand1x1
I0617 18:23:59.070834 28783 net.cpp:84] Creating Layer fire6/relu_expand1x1
I0617 18:23:59.070837 28783 net.cpp:406] fire6/relu_expand1x1 <- fire6/expand1x1
I0617 18:23:59.070842 28783 net.cpp:367] fire6/relu_expand1x1 -> fire6/expand1x1 (in-place)
I0617 18:23:59.070847 28783 net.cpp:122] Setting up fire6/relu_expand1x1
I0617 18:23:59.070850 28783 net.cpp:129] Top shape: 14 192 14 14 (526848)
I0617 18:23:59.070852 28783 net.cpp:137] Memory required for data: 362204304
I0617 18:23:59.070854 28783 layer_factory.hpp:77] Creating layer fire6/expand3x3
I0617 18:23:59.070860 28783 net.cpp:84] Creating Layer fire6/expand3x3
I0617 18:23:59.070863 28783 net.cpp:406] fire6/expand3x3 <- fire6/squeeze1x1_fire6/relu_squeeze1x1_0_split_1
I0617 18:23:59.070868 28783 net.cpp:380] fire6/expand3x3 -> fire6/expand3x3
I0617 18:23:59.071507 28783 net.cpp:122] Setting up fire6/expand3x3
I0617 18:23:59.071516 28783 net.cpp:129] Top shape: 14 192 14 14 (526848)
I0617 18:23:59.071519 28783 net.cpp:137] Memory required for data: 364311696
I0617 18:23:59.071524 28783 layer_factory.hpp:77] Creating layer fire6/relu_expand3x3
I0617 18:23:59.071528 28783 net.cpp:84] Creating Layer fire6/relu_expand3x3
I0617 18:23:59.071532 28783 net.cpp:406] fire6/relu_expand3x3 <- fire6/expand3x3
I0617 18:23:59.071537 28783 net.cpp:367] fire6/relu_expand3x3 -> fire6/expand3x3 (in-place)
I0617 18:23:59.071542 28783 net.cpp:122] Setting up fire6/relu_expand3x3
I0617 18:23:59.071545 28783 net.cpp:129] Top shape: 14 192 14 14 (526848)
I0617 18:23:59.071547 28783 net.cpp:137] Memory required for data: 366419088
I0617 18:23:59.071549 28783 layer_factory.hpp:77] Creating layer fire6/concat
I0617 18:23:59.071553 28783 net.cpp:84] Creating Layer fire6/concat
I0617 18:23:59.071555 28783 net.cpp:406] fire6/concat <- fire6/expand1x1
I0617 18:23:59.071558 28783 net.cpp:406] fire6/concat <- fire6/expand3x3
I0617 18:23:59.071563 28783 net.cpp:380] fire6/concat -> fire6/concat
I0617 18:23:59.071581 28783 net.cpp:122] Setting up fire6/concat
I0617 18:23:59.071585 28783 net.cpp:129] Top shape: 14 384 14 14 (1053696)
I0617 18:23:59.071588 28783 net.cpp:137] Memory required for data: 370633872
I0617 18:23:59.071589 28783 layer_factory.hpp:77] Creating layer fire7/squeeze1x1
I0617 18:23:59.071595 28783 net.cpp:84] Creating Layer fire7/squeeze1x1
I0617 18:23:59.071599 28783 net.cpp:406] fire7/squeeze1x1 <- fire6/concat
I0617 18:23:59.071604 28783 net.cpp:380] fire7/squeeze1x1 -> fire7/squeeze1x1
I0617 18:23:59.071861 28783 net.cpp:122] Setting up fire7/squeeze1x1
I0617 18:23:59.071866 28783 net.cpp:129] Top shape: 14 48 14 14 (131712)
I0617 18:23:59.071868 28783 net.cpp:137] Memory required for data: 371160720
I0617 18:23:59.071877 28783 layer_factory.hpp:77] Creating layer fire7/relu_squeeze1x1
I0617 18:23:59.071882 28783 net.cpp:84] Creating Layer fire7/relu_squeeze1x1
I0617 18:23:59.071884 28783 net.cpp:406] fire7/relu_squeeze1x1 <- fire7/squeeze1x1
I0617 18:23:59.071888 28783 net.cpp:367] fire7/relu_squeeze1x1 -> fire7/squeeze1x1 (in-place)
I0617 18:23:59.071893 28783 net.cpp:122] Setting up fire7/relu_squeeze1x1
I0617 18:23:59.071897 28783 net.cpp:129] Top shape: 14 48 14 14 (131712)
I0617 18:23:59.071909 28783 net.cpp:137] Memory required for data: 371687568
I0617 18:23:59.071913 28783 layer_factory.hpp:77] Creating layer fire7/squeeze1x1_fire7/relu_squeeze1x1_0_split
I0617 18:23:59.071916 28783 net.cpp:84] Creating Layer fire7/squeeze1x1_fire7/relu_squeeze1x1_0_split
I0617 18:23:59.071918 28783 net.cpp:406] fire7/squeeze1x1_fire7/relu_squeeze1x1_0_split <- fire7/squeeze1x1
I0617 18:23:59.071923 28783 net.cpp:380] fire7/squeeze1x1_fire7/relu_squeeze1x1_0_split -> fire7/squeeze1x1_fire7/relu_squeeze1x1_0_split_0
I0617 18:23:59.071928 28783 net.cpp:380] fire7/squeeze1x1_fire7/relu_squeeze1x1_0_split -> fire7/squeeze1x1_fire7/relu_squeeze1x1_0_split_1
I0617 18:23:59.071957 28783 net.cpp:122] Setting up fire7/squeeze1x1_fire7/relu_squeeze1x1_0_split
I0617 18:23:59.071961 28783 net.cpp:129] Top shape: 14 48 14 14 (131712)
I0617 18:23:59.071964 28783 net.cpp:129] Top shape: 14 48 14 14 (131712)
I0617 18:23:59.071967 28783 net.cpp:137] Memory required for data: 372741264
I0617 18:23:59.071969 28783 layer_factory.hpp:77] Creating layer fire7/expand1x1
I0617 18:23:59.071976 28783 net.cpp:84] Creating Layer fire7/expand1x1
I0617 18:23:59.071979 28783 net.cpp:406] fire7/expand1x1 <- fire7/squeeze1x1_fire7/relu_squeeze1x1_0_split_0
I0617 18:23:59.071985 28783 net.cpp:380] fire7/expand1x1 -> fire7/expand1x1
I0617 18:23:59.072183 28783 net.cpp:122] Setting up fire7/expand1x1
I0617 18:23:59.072188 28783 net.cpp:129] Top shape: 14 192 14 14 (526848)
I0617 18:23:59.072191 28783 net.cpp:137] Memory required for data: 374848656
I0617 18:23:59.072196 28783 layer_factory.hpp:77] Creating layer fire7/relu_expand1x1
I0617 18:23:59.072199 28783 net.cpp:84] Creating Layer fire7/relu_expand1x1
I0617 18:23:59.072202 28783 net.cpp:406] fire7/relu_expand1x1 <- fire7/expand1x1
I0617 18:23:59.072206 28783 net.cpp:367] fire7/relu_expand1x1 -> fire7/expand1x1 (in-place)
I0617 18:23:59.072211 28783 net.cpp:122] Setting up fire7/relu_expand1x1
I0617 18:23:59.072213 28783 net.cpp:129] Top shape: 14 192 14 14 (526848)
I0617 18:23:59.072216 28783 net.cpp:137] Memory required for data: 376956048
I0617 18:23:59.072218 28783 layer_factory.hpp:77] Creating layer fire7/expand3x3
I0617 18:23:59.072223 28783 net.cpp:84] Creating Layer fire7/expand3x3
I0617 18:23:59.072227 28783 net.cpp:406] fire7/expand3x3 <- fire7/squeeze1x1_fire7/relu_squeeze1x1_0_split_1
I0617 18:23:59.072230 28783 net.cpp:380] fire7/expand3x3 -> fire7/expand3x3
I0617 18:23:59.073367 28783 net.cpp:122] Setting up fire7/expand3x3
I0617 18:23:59.073379 28783 net.cpp:129] Top shape: 14 192 14 14 (526848)
I0617 18:23:59.073382 28783 net.cpp:137] Memory required for data: 379063440
I0617 18:23:59.073388 28783 layer_factory.hpp:77] Creating layer fire7/relu_expand3x3
I0617 18:23:59.073395 28783 net.cpp:84] Creating Layer fire7/relu_expand3x3
I0617 18:23:59.073398 28783 net.cpp:406] fire7/relu_expand3x3 <- fire7/expand3x3
I0617 18:23:59.073402 28783 net.cpp:367] fire7/relu_expand3x3 -> fire7/expand3x3 (in-place)
I0617 18:23:59.073408 28783 net.cpp:122] Setting up fire7/relu_expand3x3
I0617 18:23:59.073411 28783 net.cpp:129] Top shape: 14 192 14 14 (526848)
I0617 18:23:59.073415 28783 net.cpp:137] Memory required for data: 381170832
I0617 18:23:59.073416 28783 layer_factory.hpp:77] Creating layer fire7/concat
I0617 18:23:59.073421 28783 net.cpp:84] Creating Layer fire7/concat
I0617 18:23:59.073423 28783 net.cpp:406] fire7/concat <- fire7/expand1x1
I0617 18:23:59.073426 28783 net.cpp:406] fire7/concat <- fire7/expand3x3
I0617 18:23:59.073431 28783 net.cpp:380] fire7/concat -> fire7/concat
I0617 18:23:59.073448 28783 net.cpp:122] Setting up fire7/concat
I0617 18:23:59.073453 28783 net.cpp:129] Top shape: 14 384 14 14 (1053696)
I0617 18:23:59.073456 28783 net.cpp:137] Memory required for data: 385385616
I0617 18:23:59.073458 28783 layer_factory.hpp:77] Creating layer fire8/squeeze1x1
I0617 18:23:59.073465 28783 net.cpp:84] Creating Layer fire8/squeeze1x1
I0617 18:23:59.073468 28783 net.cpp:406] fire8/squeeze1x1 <- fire7/concat
I0617 18:23:59.073472 28783 net.cpp:380] fire8/squeeze1x1 -> fire8/squeeze1x1
I0617 18:23:59.073765 28783 net.cpp:122] Setting up fire8/squeeze1x1
I0617 18:23:59.073770 28783 net.cpp:129] Top shape: 14 64 14 14 (175616)
I0617 18:23:59.073772 28783 net.cpp:137] Memory required for data: 386088080
I0617 18:23:59.073777 28783 layer_factory.hpp:77] Creating layer fire8/relu_squeeze1x1
I0617 18:23:59.073781 28783 net.cpp:84] Creating Layer fire8/relu_squeeze1x1
I0617 18:23:59.073784 28783 net.cpp:406] fire8/relu_squeeze1x1 <- fire8/squeeze1x1
I0617 18:23:59.073788 28783 net.cpp:367] fire8/relu_squeeze1x1 -> fire8/squeeze1x1 (in-place)
I0617 18:23:59.073792 28783 net.cpp:122] Setting up fire8/relu_squeeze1x1
I0617 18:23:59.073796 28783 net.cpp:129] Top shape: 14 64 14 14 (175616)
I0617 18:23:59.073798 28783 net.cpp:137] Memory required for data: 386790544
I0617 18:23:59.073801 28783 layer_factory.hpp:77] Creating layer fire8/squeeze1x1_fire8/relu_squeeze1x1_0_split
I0617 18:23:59.073807 28783 net.cpp:84] Creating Layer fire8/squeeze1x1_fire8/relu_squeeze1x1_0_split
I0617 18:23:59.073809 28783 net.cpp:406] fire8/squeeze1x1_fire8/relu_squeeze1x1_0_split <- fire8/squeeze1x1
I0617 18:23:59.073813 28783 net.cpp:380] fire8/squeeze1x1_fire8/relu_squeeze1x1_0_split -> fire8/squeeze1x1_fire8/relu_squeeze1x1_0_split_0
I0617 18:23:59.073819 28783 net.cpp:380] fire8/squeeze1x1_fire8/relu_squeeze1x1_0_split -> fire8/squeeze1x1_fire8/relu_squeeze1x1_0_split_1
I0617 18:23:59.073865 28783 net.cpp:122] Setting up fire8/squeeze1x1_fire8/relu_squeeze1x1_0_split
I0617 18:23:59.073873 28783 net.cpp:129] Top shape: 14 64 14 14 (175616)
I0617 18:23:59.073875 28783 net.cpp:129] Top shape: 14 64 14 14 (175616)
I0617 18:23:59.073879 28783 net.cpp:137] Memory required for data: 388195472
I0617 18:23:59.073880 28783 layer_factory.hpp:77] Creating layer fire8/expand1x1
I0617 18:23:59.073887 28783 net.cpp:84] Creating Layer fire8/expand1x1
I0617 18:23:59.073890 28783 net.cpp:406] fire8/expand1x1 <- fire8/squeeze1x1_fire8/relu_squeeze1x1_0_split_0
I0617 18:23:59.073895 28783 net.cpp:380] fire8/expand1x1 -> fire8/expand1x1
I0617 18:23:59.074131 28783 net.cpp:122] Setting up fire8/expand1x1
I0617 18:23:59.074136 28783 net.cpp:129] Top shape: 14 256 14 14 (702464)
I0617 18:23:59.074139 28783 net.cpp:137] Memory required for data: 391005328
I0617 18:23:59.074144 28783 layer_factory.hpp:77] Creating layer fire8/relu_expand1x1
I0617 18:23:59.074148 28783 net.cpp:84] Creating Layer fire8/relu_expand1x1
I0617 18:23:59.074151 28783 net.cpp:406] fire8/relu_expand1x1 <- fire8/expand1x1
I0617 18:23:59.074154 28783 net.cpp:367] fire8/relu_expand1x1 -> fire8/expand1x1 (in-place)
I0617 18:23:59.074158 28783 net.cpp:122] Setting up fire8/relu_expand1x1
I0617 18:23:59.074162 28783 net.cpp:129] Top shape: 14 256 14 14 (702464)
I0617 18:23:59.074164 28783 net.cpp:137] Memory required for data: 393815184
I0617 18:23:59.074167 28783 layer_factory.hpp:77] Creating layer fire8/expand3x3
I0617 18:23:59.074172 28783 net.cpp:84] Creating Layer fire8/expand3x3
I0617 18:23:59.074174 28783 net.cpp:406] fire8/expand3x3 <- fire8/squeeze1x1_fire8/relu_squeeze1x1_0_split_1
I0617 18:23:59.074178 28783 net.cpp:380] fire8/expand3x3 -> fire8/expand3x3
I0617 18:23:59.075039 28783 net.cpp:122] Setting up fire8/expand3x3
I0617 18:23:59.075047 28783 net.cpp:129] Top shape: 14 256 14 14 (702464)
I0617 18:23:59.075050 28783 net.cpp:137] Memory required for data: 396625040
I0617 18:23:59.075055 28783 layer_factory.hpp:77] Creating layer fire8/relu_expand3x3
I0617 18:23:59.075059 28783 net.cpp:84] Creating Layer fire8/relu_expand3x3
I0617 18:23:59.075062 28783 net.cpp:406] fire8/relu_expand3x3 <- fire8/expand3x3
I0617 18:23:59.075067 28783 net.cpp:367] fire8/relu_expand3x3 -> fire8/expand3x3 (in-place)
I0617 18:23:59.075070 28783 net.cpp:122] Setting up fire8/relu_expand3x3
I0617 18:23:59.075073 28783 net.cpp:129] Top shape: 14 256 14 14 (702464)
I0617 18:23:59.075076 28783 net.cpp:137] Memory required for data: 399434896
I0617 18:23:59.075078 28783 layer_factory.hpp:77] Creating layer fire8/concat
I0617 18:23:59.075083 28783 net.cpp:84] Creating Layer fire8/concat
I0617 18:23:59.075095 28783 net.cpp:406] fire8/concat <- fire8/expand1x1
I0617 18:23:59.075098 28783 net.cpp:406] fire8/concat <- fire8/expand3x3
I0617 18:23:59.075103 28783 net.cpp:380] fire8/concat -> fire8/concat
I0617 18:23:59.075121 28783 net.cpp:122] Setting up fire8/concat
I0617 18:23:59.075125 28783 net.cpp:129] Top shape: 14 512 14 14 (1404928)
I0617 18:23:59.075129 28783 net.cpp:137] Memory required for data: 405054608
I0617 18:23:59.075130 28783 layer_factory.hpp:77] Creating layer fire9/squeeze1x1
I0617 18:23:59.075136 28783 net.cpp:84] Creating Layer fire9/squeeze1x1
I0617 18:23:59.075140 28783 net.cpp:406] fire9/squeeze1x1 <- fire8/concat
I0617 18:23:59.075145 28783 net.cpp:380] fire9/squeeze1x1 -> fire9/squeeze1x1
I0617 18:23:59.075462 28783 net.cpp:122] Setting up fire9/squeeze1x1
I0617 18:23:59.075467 28783 net.cpp:129] Top shape: 14 64 14 14 (175616)
I0617 18:23:59.075470 28783 net.cpp:137] Memory required for data: 405757072
I0617 18:23:59.075475 28783 layer_factory.hpp:77] Creating layer fire9/relu_squeeze1x1
I0617 18:23:59.075495 28783 net.cpp:84] Creating Layer fire9/relu_squeeze1x1
I0617 18:23:59.075498 28783 net.cpp:406] fire9/relu_squeeze1x1 <- fire9/squeeze1x1
I0617 18:23:59.075502 28783 net.cpp:367] fire9/relu_squeeze1x1 -> fire9/squeeze1x1 (in-place)
I0617 18:23:59.075506 28783 net.cpp:122] Setting up fire9/relu_squeeze1x1
I0617 18:23:59.075510 28783 net.cpp:129] Top shape: 14 64 14 14 (175616)
I0617 18:23:59.075512 28783 net.cpp:137] Memory required for data: 406459536
I0617 18:23:59.075515 28783 layer_factory.hpp:77] Creating layer fire9/squeeze1x1_fire9/relu_squeeze1x1_0_split
I0617 18:23:59.075520 28783 net.cpp:84] Creating Layer fire9/squeeze1x1_fire9/relu_squeeze1x1_0_split
I0617 18:23:59.075521 28783 net.cpp:406] fire9/squeeze1x1_fire9/relu_squeeze1x1_0_split <- fire9/squeeze1x1
I0617 18:23:59.075526 28783 net.cpp:380] fire9/squeeze1x1_fire9/relu_squeeze1x1_0_split -> fire9/squeeze1x1_fire9/relu_squeeze1x1_0_split_0
I0617 18:23:59.075531 28783 net.cpp:380] fire9/squeeze1x1_fire9/relu_squeeze1x1_0_split -> fire9/squeeze1x1_fire9/relu_squeeze1x1_0_split_1
I0617 18:23:59.075558 28783 net.cpp:122] Setting up fire9/squeeze1x1_fire9/relu_squeeze1x1_0_split
I0617 18:23:59.075562 28783 net.cpp:129] Top shape: 14 64 14 14 (175616)
I0617 18:23:59.075565 28783 net.cpp:129] Top shape: 14 64 14 14 (175616)
I0617 18:23:59.075567 28783 net.cpp:137] Memory required for data: 407864464
I0617 18:23:59.075570 28783 layer_factory.hpp:77] Creating layer fire9/expand1x1
I0617 18:23:59.075577 28783 net.cpp:84] Creating Layer fire9/expand1x1
I0617 18:23:59.075579 28783 net.cpp:406] fire9/expand1x1 <- fire9/squeeze1x1_fire9/relu_squeeze1x1_0_split_0
I0617 18:23:59.075583 28783 net.cpp:380] fire9/expand1x1 -> fire9/expand1x1
I0617 18:23:59.075842 28783 net.cpp:122] Setting up fire9/expand1x1
I0617 18:23:59.075850 28783 net.cpp:129] Top shape: 14 256 14 14 (702464)
I0617 18:23:59.075851 28783 net.cpp:137] Memory required for data: 410674320
I0617 18:23:59.075857 28783 layer_factory.hpp:77] Creating layer fire9/relu_expand1x1
I0617 18:23:59.075861 28783 net.cpp:84] Creating Layer fire9/relu_expand1x1
I0617 18:23:59.075865 28783 net.cpp:406] fire9/relu_expand1x1 <- fire9/expand1x1
I0617 18:23:59.075868 28783 net.cpp:367] fire9/relu_expand1x1 -> fire9/expand1x1 (in-place)
I0617 18:23:59.075873 28783 net.cpp:122] Setting up fire9/relu_expand1x1
I0617 18:23:59.075876 28783 net.cpp:129] Top shape: 14 256 14 14 (702464)
I0617 18:23:59.075878 28783 net.cpp:137] Memory required for data: 413484176
I0617 18:23:59.075881 28783 layer_factory.hpp:77] Creating layer fire9/expand3x3
I0617 18:23:59.075887 28783 net.cpp:84] Creating Layer fire9/expand3x3
I0617 18:23:59.075889 28783 net.cpp:406] fire9/expand3x3 <- fire9/squeeze1x1_fire9/relu_squeeze1x1_0_split_1
I0617 18:23:59.075893 28783 net.cpp:380] fire9/expand3x3 -> fire9/expand3x3
I0617 18:23:59.077311 28783 net.cpp:122] Setting up fire9/expand3x3
I0617 18:23:59.077322 28783 net.cpp:129] Top shape: 14 256 14 14 (702464)
I0617 18:23:59.077325 28783 net.cpp:137] Memory required for data: 416294032
I0617 18:23:59.077348 28783 layer_factory.hpp:77] Creating layer fire9/relu_expand3x3
I0617 18:23:59.077358 28783 net.cpp:84] Creating Layer fire9/relu_expand3x3
I0617 18:23:59.077360 28783 net.cpp:406] fire9/relu_expand3x3 <- fire9/expand3x3
I0617 18:23:59.077365 28783 net.cpp:367] fire9/relu_expand3x3 -> fire9/expand3x3 (in-place)
I0617 18:23:59.077370 28783 net.cpp:122] Setting up fire9/relu_expand3x3
I0617 18:23:59.077373 28783 net.cpp:129] Top shape: 14 256 14 14 (702464)
I0617 18:23:59.077375 28783 net.cpp:137] Memory required for data: 419103888
I0617 18:23:59.077378 28783 layer_factory.hpp:77] Creating layer fire9/concat
I0617 18:23:59.077383 28783 net.cpp:84] Creating Layer fire9/concat
I0617 18:23:59.077384 28783 net.cpp:406] fire9/concat <- fire9/expand1x1
I0617 18:23:59.077388 28783 net.cpp:406] fire9/concat <- fire9/expand3x3
I0617 18:23:59.077391 28783 net.cpp:380] fire9/concat -> fire9/concat
I0617 18:23:59.077412 28783 net.cpp:122] Setting up fire9/concat
I0617 18:23:59.077417 28783 net.cpp:129] Top shape: 14 512 14 14 (1404928)
I0617 18:23:59.077419 28783 net.cpp:137] Memory required for data: 424723600
I0617 18:23:59.077421 28783 layer_factory.hpp:77] Creating layer drop9
I0617 18:23:59.077426 28783 net.cpp:84] Creating Layer drop9
I0617 18:23:59.077430 28783 net.cpp:406] drop9 <- fire9/concat
I0617 18:23:59.077433 28783 net.cpp:367] drop9 -> fire9/concat (in-place)
I0617 18:23:59.077453 28783 net.cpp:122] Setting up drop9
I0617 18:23:59.077457 28783 net.cpp:129] Top shape: 14 512 14 14 (1404928)
I0617 18:23:59.077461 28783 net.cpp:137] Memory required for data: 430343312
I0617 18:23:59.077462 28783 layer_factory.hpp:77] Creating layer conv10
I0617 18:23:59.077468 28783 net.cpp:84] Creating Layer conv10
I0617 18:23:59.077471 28783 net.cpp:406] conv10 <- fire9/concat
I0617 18:23:59.077477 28783 net.cpp:380] conv10 -> conv10
I0617 18:23:59.077698 28783 net.cpp:122] Setting up conv10
I0617 18:23:59.077705 28783 net.cpp:129] Top shape: 14 2 14 14 (5488)
I0617 18:23:59.077708 28783 net.cpp:137] Memory required for data: 430365264
I0617 18:23:59.077713 28783 layer_factory.hpp:77] Creating layer relu_conv10
I0617 18:23:59.077718 28783 net.cpp:84] Creating Layer relu_conv10
I0617 18:23:59.077721 28783 net.cpp:406] relu_conv10 <- conv10
I0617 18:23:59.077725 28783 net.cpp:367] relu_conv10 -> conv10 (in-place)
I0617 18:23:59.077730 28783 net.cpp:122] Setting up relu_conv10
I0617 18:23:59.077733 28783 net.cpp:129] Top shape: 14 2 14 14 (5488)
I0617 18:23:59.077735 28783 net.cpp:137] Memory required for data: 430387216
I0617 18:23:59.077739 28783 layer_factory.hpp:77] Creating layer pool10
I0617 18:23:59.077742 28783 net.cpp:84] Creating Layer pool10
I0617 18:23:59.077745 28783 net.cpp:406] pool10 <- conv10
I0617 18:23:59.077749 28783 net.cpp:380] pool10 -> pool10
I0617 18:23:59.077772 28783 net.cpp:122] Setting up pool10
I0617 18:23:59.077776 28783 net.cpp:129] Top shape: 14 2 1 1 (28)
I0617 18:23:59.077780 28783 net.cpp:137] Memory required for data: 430387328
I0617 18:23:59.077781 28783 layer_factory.hpp:77] Creating layer pool10_pool10_0_split
I0617 18:23:59.077785 28783 net.cpp:84] Creating Layer pool10_pool10_0_split
I0617 18:23:59.077788 28783 net.cpp:406] pool10_pool10_0_split <- pool10
I0617 18:23:59.077795 28783 net.cpp:380] pool10_pool10_0_split -> pool10_pool10_0_split_0
I0617 18:23:59.077801 28783 net.cpp:380] pool10_pool10_0_split -> pool10_pool10_0_split_1
I0617 18:23:59.078595 28783 net.cpp:122] Setting up pool10_pool10_0_split
I0617 18:23:59.078603 28783 net.cpp:129] Top shape: 14 2 1 1 (28)
I0617 18:23:59.078606 28783 net.cpp:129] Top shape: 14 2 1 1 (28)
I0617 18:23:59.078608 28783 net.cpp:137] Memory required for data: 430387552
I0617 18:23:59.078611 28783 layer_factory.hpp:77] Creating layer loss
I0617 18:23:59.078616 28783 net.cpp:84] Creating Layer loss
I0617 18:23:59.078619 28783 net.cpp:406] loss <- pool10_pool10_0_split_0
I0617 18:23:59.078624 28783 net.cpp:406] loss <- label_data_1_split_0
I0617 18:23:59.078629 28783 net.cpp:380] loss -> loss
…
