…
name: "ResNet_50_1by2_nsfw"
state {
  phase: TRAIN
  level: 0
  stage: ""
}
layer {
  name: "data"
  type: "ImageData"
  top: "data"
  top: "label"
  include {
    phase: TRAIN
  }
  transform_param {
    mirror: true
    crop_size: 224
    mean_value: 104
    mean_value: 117
    mean_value: 123
  }
  image_data_param {
    source: "/home/dbicho/Documents/datasets/all_labeled_dataset_augmented_finetuning/train.txt"
    batch_size: 7
    shuffle: true
    root_folder: "/home/dbicho/Documents/datasets/all_labeled_dataset_augmented_finetuning/"
  }
}
layer {
  name: "conv_1"
  type: "Convolution"
  bottom: "data"
  top: "conv_1"
  param {
    lr_mult: 0
    decay_mult: 1
  }
  param {
    lr_mult: 0
    decay_mult: 0
  }
  convolution_param {
    num_output: 64
    pad: 3
    kernel_size: 7
    stride: 2
    weight_filler {
      type: "xavier"
    }
    bias_filler {
      type: "constant"
      value: 0
    }
  }
}
layer {
  name: "bn_1"
  type: "BatchNorm"
  bottom: "conv_1"
  top: "conv_1"
  param {
    lr_mult: 0
    decay_mult: 0
  }
  param {
    lr_mult: 0
    decay_mult: 0
  }
  param {
    lr_mult: 0
    decay_mult: 0
  }
  batch_norm_param {
    use_global_stats: false
  }
}
layer {
  name: "scale_1"
  type: "Scale"
  bottom: "conv_1"
  top: "conv_1"
  scale_param {
    bias_term: true
  }
}
layer {
  name: "relu_1"
  type: "ReLU"
  bottom: "conv_1"
  top: "conv_1"
}
layer {
  name: "pool1"
  type: "Pooling"
  bottom: "conv_1"
  top: "pool1"
  pooling_param {
    pool: MAX
    kernel_size: 3
    stride: 2
  }
}
layer {
  name: "conv_stage0_block0_proj_shortcut"
  type: "Convolution"
  bottom: "pool1"
  top: "conv_stage0_block0_proj_shortcut"
  param {
    lr_mult: 0
    decay_mult: 1
  }
  param {
    lr_mult: 0
    decay_mult: 0
  }
  convolution_param {
    num_output: 128
    pad: 0
    kernel_size: 1
    stride: 1
    weight_filler {
      type: "xavier"
    }
    bias_filler {
      type: "constant"
      value: 0
    }
  }
}
layer {
  name: "bn_stage0_block0_proj_shortcut"
  type: "BatchNorm"
  bottom: "conv_stage0_block0_proj_shortcut"
  top: "conv_stage0_block0_proj_shortcut"
  param {
    lr_mult: 0
    decay_mult: 0
  }
  param {
    lr_mult: 0
    decay_mult: 0
  }
  param {
    lr_mult: 0
    decay_mult: 0
  }
  batch_norm_param {
    use_global_stats: false
  }
}
layer {
  name: "scale_stage0_block0_proj_shortcut"
  type: "Scale"
  bottom: "conv_stage0_block0_proj_shortcut"
  top: "conv_stage0_block0_proj_shortcut"
  scale_param {
    bias_term: true
  }
}
layer {
  name: "conv_stage0_block0_branch2a"
  type: "Convolution"
  bottom: "pool1"
  top: "conv_stage0_block0_branch2a"
  param {
    lr_mult: 0
    decay_mult: 1
  }
  param {
    lr_mult: 0
    decay_mult: 0
  }
  convolution_param {
    num_output: 32
    pad: 0
    kernel_size: 1
    stride: 1
    weight_filler {
      type: "xavier"
    }
    bias_filler {
      type: "constant"
      value: 0
    }
  }
}
layer {
  name: "bn_stage0_block0_branch2a"
  type: "BatchNorm"
  bottom: "conv_stage0_block0_branch2a"
  top: "conv_stage0_block0_branch2a"
  param {
    lr_mult: 0
    decay_mult: 0
  }
  param {
    lr_mult: 0
    decay_mult: 0
  }
  param {
    lr_mult: 0
    decay_mult: 0
  }
  batch_norm_param {
    use_global_stats: false
  }
}
layer {
  name: "scale_stage0_block0_branch2a"
  type: "Scale"
  bottom: "conv_stage0_block0_branch2a"
  top: "conv_stage0_block0_branch2a"
  scale_param {
    bias_term: true
  }
}
layer {
  name: "relu_stage0_block0_branch2a"
  type: "ReLU"
  bottom: "conv_stage0_block0_branch2a"
  top: "conv_stage0_block0_branch2a"
}
layer {
  name: "conv_stage0_block0_branch2b"
  type: "Convolution"
  bottom: "conv_stage0_block0_branch2a"
  top: "conv_stage0_block0_branch2b"
  param {
    lr_mult: 0
    decay_mult: 1
  }
  param {
    lr_mult: 0
    decay_mult: 0
  }
  convolution_param {
    num_output: 32
    pad: 1
    kernel_size: 3
    stride: 1
    weight_filler {
      type: "xavier"
    }
    bias_filler {
      type: "constant"
      value: 0
    }
  }
}
layer {
  name: "bn_stage0_block0_branch2b"
  type: "BatchNorm"
  bottom: "conv_stage0_block0_branch2b"
  top: "conv_stage0_block0_branch2b"
  param {
    lr_mult: 0
    decay_mult: 0
  }
  param {
    lr_mult: 0
    decay_mult: 0
  }
  param {
    lr_mult: 0
    decay_mult: 0
  }
  batch_norm_param {
    use_global_stats: false
  }
}
layer {
  name: "scale_stage0_block0_branch2b"
  type: "Scale"
  bottom: "conv_stage0_block0_branch2b"
  top: "conv_stage0_block0_branch2b"
  scale_param {
    bias_term: true
  }
}
layer {
  name: "relu_stage0_block0_branch2b"
  type: "ReLU"
  bottom: "conv_stage0_block0_branch2b"
  top: "conv_stage0_block0_branch2b"
}
layer {
  name: "conv_stage0_block0_branch2c"
  type: "Convolution"
  bottom: "conv_stage0_block0_branch2b"
  top: "conv_stage0_block0_branch2c"
  param {
    lr_mult: 0
    decay_mult: 1
  }
  param {
    lr_mult: 0
    decay_mult: 0
  }
  convolution_param {
    num_output: 128
    pad: 0
    kernel_size: 1
    stride: 1
    weight_filler {
      type: "xavier"
    }
    bias_filler {
      type: "constant"
      value: 0
    }
  }
}
layer {
  name: "bn_stage0_block0_branch2c"
  type: "BatchNorm"
  bottom: "conv_stage0_block0_branch2c"
  top: "conv_stage0_block0_branch2c"
  param {
    lr_mult: 0
    decay_mult: 0
  }
  param {
    lr_mult: 0
    decay_mult: 0
  }
  param {
    lr_mult: 0
    decay_mult: 0
  }
  batch_norm_param {
    use_global_stats: false
  }
}
layer {
  name: "scale_stage0_block0_branch2c"
  type: "Scale"
  bottom: "conv_stage0_block0_branch2c"
  top: "conv_stage0_block0_branch2c"
  scale_param {
    bias_term: true
  }
}
layer {
  name: "eltwise_stage0_block0"
  type: "Eltwise"
  bottom: "conv_stage0_block0_proj_shortcut"
  bottom: "conv_stage0_block0_branch2c"
  top: "eltwise_stage0_block0"
}
layer {
  name: "relu_stage0_block0"
  type: "ReLU"
  bottom: "eltwise_stage0_block0"
  top: "eltwise_stage0_block0"
}
layer {
  name: "conv_stage0_block1_branch2a"
  type: "Convolution"
  bottom: "eltwise_stage0_block0"
  top: "conv_stage0_block1_branch2a"
  param {
    lr_mult: 0
    decay_mult: 1
  }
  param {
    lr_mult: 0
    decay_mult: 0
  }
  convolution_param {
    num_output: 32
    pad: 0
    kernel_size: 1
    stride: 1
    weight_filler {
      type: "xavier"
    }
    bias_filler {
      type: "constant"
      value: 0
    }
  }
}
layer {
  name: "bn_stage0_block1_branch2a"
  type: "BatchNorm"
  bottom: "conv_stage0_block1_branch2a"
  top: "conv_stage0_block1_branch2a"
  param {
    lr_mult: 0
    decay_mult: 0
  }
  param {
    lr_mult: 0
    decay_mult: 0
  }
  param {
    lr_mult: 0
    decay_mult: 0
  }
  batch_norm_param {
    use_global_stats: false
  }
}
layer {
  name: "scale_stage0_block1_branch2a"
  type: "Scale"
  bottom: "conv_stage0_block1_branch2a"
  top: "conv_stage0_block1_branch2a"
  scale_param {
    bias_term: true
  }
}
layer {
  name: "relu_stage0_block1_branch2a"
  type: "ReLU"
  bottom: "conv_stage0_block1_branch2a"
  top: "conv_stage0_block1_branch2a"
}
layer {
  name: "conv_stage0_block1_branch2b"
  type: "Convolution"
  bottom: "conv_stage0_block1_branch2a"
  top: "conv_stage0_block1_branch2b"
  param {
    lr_mult: 0
    decay_mult: 1
  }
  param {
    lr_mult: 0
    decay_mult: 0
  }
  convolution_param {
    num_output: 32
    pad: 1
    kernel_size: 3
    stride: 1
    weight_filler {
      type: "xavier"
    }
    bias_filler {
      type: "constant"
      value: 0
    }
  }
}
layer {
  name: "bn_stage0_block1_branch2b"
  type: "BatchNorm"
  bottom: "conv_stage0_block1_branch2b"
  top: "conv_stage0_block1_branch2b"
  param {
    lr_mult: 0
    decay_mult: 0
  }
  param {
    lr_mult: 0
    decay_mult: 0
  }
  param {
    lr_mult: 0
    decay_mult: 0
  }
  batch_norm_param {
    use_global_stats: false
  }
}
layer {
  name: "scale_stage0_block1_branch2b"
  type: "Scale"
  bottom: "conv_stage0_block1_branch2b"
  top: "conv_stage0_block1_branch2b"
  scale_param {
    bias_term: true
  }
}
layer {
  name: "relu_stage0_block1_branch2b"
  type: "ReLU"
  bottom: "conv_stage0_block1_branch2b"
  top: "conv_stage0_block1_branch2b"
}
layer {
  name: "conv_stage0_block1_branch2c"
  type: "Convolution"
  bottom: "conv_stage0_block1_branch2b"
  top: "conv_stage0_block1_branch2c"
  param {
    lr_mult: 0
    decay_mult: 1
  }
  param {
    lr_mult: 0
    decay_mult: 0
  }
  convolution_param {
    num_output: 128
    pad: 0
    kernel_size: 1
    stride: 1
    weight_filler {
      type: "xavier"
    }
    bias_filler {
      type: "constant"
      value: 0
    }
  }
}
layer {
  name: "bn_stage0_block1_branch2c"
  type: "BatchNorm"
  bottom: "conv_stage0_block1_branch2c"
  top: "conv_stage0_block1_branch2c"
  param {
    lr_mult: 0
    decay_mult: 0
  }
  param {
    lr_mult: 0
    decay_mult: 0
  }
  param {
    lr_mult: 0
    decay_mult: 0
  }
  batch_norm_param {
    use_global_stats: false
  }
}
layer {
  name: "scale_stage0_block1_branch2c"
  type: "Scale"
  bottom: "conv_stage0_block1_branch2c"
  top: "conv_stage0_block1_branch2c"
  scale_param {
    bias_term: true
  }
}
layer {
  name: "eltwise_stage0_block1"
  type: "Eltwise"
  bottom: "eltwise_stage0_block0"
  bottom: "conv_stage0_block1_branch2c"
  top: "eltwise_stage0_block1"
}
layer {
  name: "relu_stage0_block1"
  type: "ReLU"
  bottom: "eltwise_stage0_block1"
  top: "eltwise_stage0_block1"
}
layer {
  name: "conv_stage0_block2_branch2a"
  type: "Convolution"
  bottom: "eltwise_stage0_block1"
  top: "conv_stage0_block2_branch2a"
  param {
    lr_mult: 0
    decay_mult: 1
  }
  param {
    lr_mult: 0
    decay_mult: 0
  }
  convolution_param {
    num_output: 32
    pad: 0
    kernel_size: 1
    stride: 1
    weight_filler {
      type: "xavier"
    }
    bias_filler {
      type: "constant"
      value: 0
    }
  }
}
layer {
  name: "bn_stage0_block2_branch2a"
  type: "BatchNorm"
  bottom: "conv_stage0_block2_branch2a"
  top: "conv_stage0_block2_branch2a"
  param {
    lr_mult: 0
    decay_mult: 0
  }
  param {
    lr_mult: 0
    decay_mult: 0
  }
  param {
    lr_mult: 0
    decay_mult: 0
  }
  batch_norm_param {
    use_global_stats: false
  }
}
layer {
  name: "scale_stage0_block2_branch2a"
  type: "Scale"
  bottom: "conv_stage0_block2_branch2a"
  top: "conv_stage0_block2_branch2a"
  scale_param {
    bias_term: true
  }
}
layer {
  name: "relu_stage0_block2_branch2a"
  type: "ReLU"
  bottom: "conv_stage0_block2_branch2a"
  top: "conv_stage0_block2_branch2a"
}
layer {
  name: "conv_stage0_block2_branch2b"
  type: "Convolution"
  bottom: "conv_stage0_block2_branch2a"
  top: "conv_stage0_block2_branch2b"
  param {
    lr_mult: 0
    decay_mult: 1
  }
  param {
    lr_mult: 0
    decay_mult: 0
  }
  convolution_param {
    num_output: 32
    pad: 1
    kernel_size: 3
    stride: 1
    weight_filler {
      type: "xavier"
    }
    bias_filler {
      type: "constant"
      value: 0
    }
  }
}
layer {
  name: "bn_stage0_block2_branch2b"
  type: "BatchNorm"
  bottom: "conv_stage0_block2_branch2b"
  top: "conv_stage0_block2_branch2b"
  param {
    lr_mult: 0
    decay_mult: 0
  }
  param {
    lr_mult: 0
    decay_mult: 0
  }
  param {
    lr_mult: 0
    decay_mult: 0
  }
  batch_norm_param {
    use_global_stats: false
  }
}
layer {
  name: "scale_stage0_block2_branch2b"
  type: "Scale"
  bottom: "conv_stage0_block2_branch2b"
  top: "conv_stage0_block2_branch2b"
  scale_param {
    bias_term: true
  }
}
layer {
  name: "relu_stage0_block2_branch2b"
  type: "ReLU"
  bottom: "conv_stage0_block2_branch2b"
  top: "conv_stage0_block2_branch2b"
}
layer {
  name: "conv_stage0_block2_branch2c"
  type: "Convolution"
  bottom: "conv_stage0_block2_branch2b"
  top: "conv_stage0_block2_branch2c"
  param {
    lr_mult: 0
    decay_mult: 1
  }
  param {
    lr_mult: 0
    decay_mult: 0
  }
  convolution_param {
    num_output: 128
    pad: 0
    kernel_size: 1
    stride: 1
    weight_filler {
      type: "xavier"
    }
    bias_filler {
      type: "constant"
      value: 0
    }
  }
}
layer {
  name: "bn_stage0_block2_branch2c"
  type: "BatchNorm"
  bottom: "conv_stage0_block2_branch2c"
  top: "conv_stage0_block2_branch2c"
  param {
    lr_mult: 0
    decay_mult: 0
  }
  param {
    lr_mult: 0
    decay_mult: 0
  }
  param {
    lr_mult: 0
    decay_mult: 0
  }
  batch_norm_param {
    use_global_stats: false
  }
}
layer {
  name: "scale_stage0_block2_branch2c"
  type: "Scale"
  bottom: "conv_stage0_block2_branch2c"
  top: "conv_stage0_block2_branch2c"
  scale_param {
    bias_term: true
  }
}
layer {
  name: "eltwise_stage0_block2"
  type: "Eltwise"
  bottom: "eltwise_stage0_block1"
  bottom: "conv_stage0_block2_branch2c"
  top: "eltwise_stage0_block2"
}
layer {
  name: "relu_stage0_block2"
  type: "ReLU"
  bottom: "eltwise_stage0_block2"
  top: "eltwise_stage0_block2"
}
layer {
  name: "conv_stage1_block0_proj_shortcut"
  type: "Convolution"
  bottom: "eltwise_stage0_block2"
  top: "conv_stage1_block0_proj_shortcut"
  param {
    lr_mult: 0
    decay_mult: 1
  }
  param {
    lr_mult: 0
    decay_mult: 0
  }
  convolution_param {
    num_output: 256
    pad: 0
    kernel_size: 1
    stride: 2
    weight_filler {
      type: "xavier"
    }
    bias_filler {
      type: "constant"
      value: 0
    }
  }
}
layer {
  name: "bn_stage1_block0_proj_shortcut"
  type: "BatchNorm"
  bottom: "conv_stage1_block0_proj_shortcut"
  top: "conv_stage1_block0_proj_shortcut"
  param {
    lr_mult: 0
    decay_mult: 0
  }
  param {
    lr_mult: 0
    decay_mult: 0
  }
  param {
    lr_mult: 0
    decay_mult: 0
  }
  batch_norm_param {
    use_global_stats: false
  }
}
layer {
  name: "scale_stage1_block0_proj_shortcut"
  type: "Scale"
  bottom: "conv_stage1_block0_proj_shortcut"
  top: "conv_stage1_block0_proj_shortcut"
  scale_param {
    bias_term: true
  }
}
layer {
  name: "conv_stage1_block0_branch2a"
  type: "Convolution"
  bottom: "eltwise_stage0_block2"
  top: "conv_stage1_block0_branch2a"
  param {
    lr_mult: 0
    decay_mult: 1
  }
  param {
    lr_mult: 0
    decay_mult: 0
  }
  convolution_param {
    num_output: 64
    pad: 0
    kernel_size: 1
    stride: 2
    weight_filler {
      type: "xavier"
    }
    bias_filler {
      type: "constant"
      value: 0
    }
  }
}
layer {
  name: "bn_stage1_block0_branch2a"
  type: "BatchNorm"
  bottom: "conv_stage1_block0_branch2a"
  top: "conv_stage1_block0_branch2a"
  param {
    lr_mult: 0
    decay_mult: 0
  }
  param {
    lr_mult: 0
    decay_mult: 0
  }
  param {
    lr_mult: 0
    decay_mult: 0
  }
  batch_norm_param {
    use_global_stats: false
  }
}
layer {
  name: "scale_stage1_block0_branch2a"
  type: "Scale"
  bottom: "conv_stage1_block0_branch2a"
  top: "conv_stage1_block0_branch2a"
  scale_param {
    bias_term: true
  }
}
layer {
  name: "relu_stage1_block0_branch2a"
  type: "ReLU"
  bottom: "conv_stage1_block0_branch2a"
  top: "conv_stage1_block0_branch2a"
}
layer {
  name: "conv_stage1_block0_branch2b"
  type: "Convolution"
  bottom: "conv_stage1_block0_branch2a"
  top: "conv_stage1_block0_branch2b"
  param {
    lr_mult: 0
    decay_mult: 1
  }
  param {
    lr_mult: 0
    decay_mult: 0
  }
  convolution_param {
    num_output: 64
    pad: 1
    kernel_size: 3
    stride: 1
    weight_filler {
      type: "xavier"
    }
    bias_filler {
      type: "constant"
      value: 0
    }
  }
}
layer {
  name: "bn_stage1_block0_branch2b"
  type: "BatchNorm"
  bottom: "conv_stage1_block0_branch2b"
  top: "conv_stage1_block0_branch2b"
  param {
    lr_mult: 0
    decay_mult: 0
  }
  param {
    lr_mult: 0
    decay_mult: 0
  }
  param {
    lr_mult: 0
    decay_mult: 0
  }
  batch_norm_param {
    use_global_stats: false
  }
}
layer {
  name: "scale_stage1_block0_branch2b"
  type: "Scale"
  bottom: "conv_stage1_block0_branch2b"
  top: "conv_stage1_block0_branch2b"
  scale_param {
    bias_term: true
  }
}
layer {
  name: "relu_stage1_block0_branch2b"
  type: "ReLU"
  bottom: "conv_stage1_block0_branch2b"
  top: "conv_stage1_block0_branch2b"
}
layer {
  name: "conv_stage1_block0_branch2c"
  type: "Convolution"
  bottom: "conv_stage1_block0_branch2b"
  top: "conv_stage1_block0_branch2c"
  param {
    lr_mult: 0
    decay_mult: 1
  }
  param {
    lr_mult: 0
    decay_mult: 0
  }
  convolution_param {
    num_output: 256
    pad: 0
    kernel_size: 1
    stride: 1
    weight_filler {
      type: "xavier"
    }
    bias_filler {
      type: "constant"
      value: 0
    }
  }
}
layer {
  name: "bn_stage1_block0_branch2c"
  type: "BatchNorm"
  bottom: "conv_stage1_block0_branch2c"
  top: "conv_stage1_block0_branch2c"
  param {
    lr_mult: 0
    decay_mult: 0
  }
  param {
    lr_mult: 0
    decay_mult: 0
  }
  param {
    lr_mult: 0
    decay_mult: 0
  }
  batch_norm_param {
    use_global_stats: false
  }
}
layer {
  name: "scale_stage1_block0_branch2c"
  type: "Scale"
  bottom: "conv_stage1_block0_branch2c"
  top: "conv_stage1_block0_branch2c"
  scale_param {
    bias_term: true
  }
}
layer {
  name: "eltwise_stage1_block0"
  type: "Eltwise"
  bottom: "conv_stage1_block0_proj_shortcut"
  bottom: "conv_stage1_block0_branch2c"
  top: "eltwise_stage1_block0"
}
layer {
  name: "relu_stage1_block0"
  type: "ReLU"
  bottom: "eltwise_stage1_block0"
  top: "eltwise_stage1_block0"
}
layer {
  name: "conv_stage1_block1_branch2a"
  type: "Convolution"
  bottom: "eltwise_stage1_block0"
  top: "conv_stage1_block1_branch2a"
  param {
    lr_mult: 0
    decay_mult: 1
  }
  param {
    lr_mult: 0
    decay_mult: 0
  }
  convolution_param {
    num_output: 64
    pad: 0
    kernel_size: 1
    stride: 1
    weight_filler {
      type: "xavier"
    }
    bias_filler {
      type: "constant"
      value: 0
    }
  }
}
layer {
  name: "bn_stage1_block1_branch2a"
  type: "BatchNorm"
  bottom: "conv_stage1_block1_branch2a"
  top: "conv_stage1_block1_branch2a"
  param {
    lr_mult: 0
    decay_mult: 0
  }
  param {
    lr_mult: 0
    decay_mult: 0
  }
  param {
    lr_mult: 0
    decay_mult: 0
  }
  batch_norm_param {
    use_global_stats: false
  }
}
layer {
  name: "scale_stage1_block1_branch2a"
  type: "Scale"
  bottom: "conv_stage1_block1_branch2a"
  top: "conv_stage1_block1_branch2a"
  scale_param {
    bias_term: true
  }
}
layer {
  name: "relu_stage1_block1_branch2a"
  type: "ReLU"
  bottom: "conv_stage1_block1_branch2a"
  top: "conv_stage1_block1_branch2a"
}
layer {
  name: "conv_stage1_block1_branch2b"
  type: "Convolution"
  bottom: "conv_stage1_block1_branch2a"
  top: "conv_stage1_block1_branch2b"
  param {
    lr_mult: 0
    decay_mult: 1
  }
  param {
    lr_mult: 0
    decay_mult: 0
  }
  convolution_param {
    num_output: 64
    pad: 1
    kernel_size: 3
    stride: 1
    weight_filler {
      type: "xavier"
    }
    bias_filler {
      type: "constant"
      value: 0
    }
  }
}
layer {
  name: "bn_stage1_block1_branch2b"
  type: "BatchNorm"
  bottom: "conv_stage1_block1_branch2b"
  top: "conv_stage1_block1_branch2b"
  param {
    lr_mult: 0
    decay_mult: 0
  }
  param {
    lr_mult: 0
    decay_mult: 0
  }
  param {
    lr_mult: 0
    decay_mult: 0
  }
  batch_norm_param {
    use_global_stats: false
  }
}
layer {
  name: "scale_stage1_block1_branch2b"
  type: "Scale"
  bottom: "conv_stage1_block1_branch2b"
  top: "conv_stage1_block1_branch2b"
  scale_param {
    bias_term: true
  }
}
layer {
  name: "relu_stage1_block1_branch2b"
  type: "ReLU"
  bottom: "conv_stage1_block1_branch2b"
  top: "conv_stage1_block1_branch2b"
}
layer {
  name: "conv_stage1_block1_branch2c"
  type: "Convolution"
  bottom: "conv_stage1_block1_branch2b"
  top: "conv_stage1_block1_branch2c"
  param {
    lr_mult: 0
    decay_mult: 1
  }
  param {
    lr_mult: 0
    decay_mult: 0
  }
  convolution_param {
    num_output: 256
    pad: 0
    kernel_size: 1
    stride: 1
    weight_filler {
      type: "xavier"
    }
    bias_filler {
      type: "constant"
      value: 0
    }
  }
}
layer {
  name: "bn_stage1_block1_branch2c"
  type: "BatchNorm"
  bottom: "conv_stage1_block1_branch2c"
  top: "conv_stage1_block1_branch2c"
  param {
    lr_mult: 0
    decay_mult: 0
  }
  param {
    lr_mult: 0
    decay_mult: 0
  }
  param {
    lr_mult: 0
    decay_mult: 0
  }
  batch_norm_param {
    use_global_stats: false
  }
}
layer {
  name: "scale_stage1_block1_branch2c"
  type: "Scale"
  bottom: "conv_stage1_block1_branch2c"
  top: "conv_stage1_block1_branch2c"
  scale_param {
    bias_term: true
  }
}
layer {
  name: "eltwise_stage1_block1"
  type: "Eltwise"
  bottom: "eltwise_stage1_block0"
  bottom: "conv_stage1_block1_branch2c"
  top: "eltwise_stage1_block1"
}
layer {
  name: "relu_stage1_block1"
  type: "ReLU"
  bottom: "eltwise_stage1_block1"
  top: "eltwise_stage1_block1"
}
layer {
  name: "conv_stage1_block2_branch2a"
  type: "Convolution"
  bottom: "eltwise_stage1_block1"
  top: "conv_stage1_block2_branch2a"
  param {
    lr_mult: 0
    decay_mult: 1
  }
  param {
    lr_mult: 0
    decay_mult: 0
  }
  convolution_param {
    num_output: 64
    pad: 0
    kernel_size: 1
    stride: 1
    weight_filler {
      type: "xavier"
    }
    bias_filler {
      type: "constant"
      value: 0
    }
  }
}
layer {
  name: "bn_stage1_block2_branch2a"
  type: "BatchNorm"
  bottom: "conv_stage1_block2_branch2a"
  top: "conv_stage1_block2_branch2a"
  param {
    lr_mult: 0
    decay_mult: 0
  }
  param {
    lr_mult: 0
    decay_mult: 0
  }
  param {
    lr_mult: 0
    decay_mult: 0
  }
  batch_norm_param {
    use_global_stats: false
  }
}
layer {
  name: "scale_stage1_block2_branch2a"
  type: "Scale"
  bottom: "conv_stage1_block2_branch2a"
  top: "conv_stage1_block2_branch2a"
  scale_param {
    bias_term: true
  }
}
layer {
  name: "relu_stage1_block2_branch2a"
  type: "ReLU"
  bottom: "conv_stage1_block2_branch2a"
  top: "conv_stage1_block2_branch2a"
}
layer {
  name: "conv_stage1_block2_branch2b"
  type: "Convolution"
  bottom: "conv_stage1_block2_branch2a"
  top: "conv_stage1_block2_branch2b"
  param {
    lr_mult: 0
    decay_mult: 1
  }
  param {
    lr_mult: 0
    decay_mult: 0
  }
  convolution_param {
    num_output: 64
    pad: 1
    kernel_size: 3
    stride: 1
    weight_filler {
      type: "xavier"
    }
    bias_filler {
      type: "constant"
      value: 0
    }
  }
}
layer {
  name: "bn_stage1_block2_branch2b"
  type: "BatchNorm"
  bottom: "conv_stage1_block2_branch2b"
  top: "conv_stage1_block2_branch2b"
  param {
    lr_mult: 0
    decay_mult: 0
  }
  param {
    lr_mult: 0
    decay_mult: 0
  }
  param {
    lr_mult: 0
    decay_mult: 0
  }
  batch_norm_param {
    use_global_stats: false
  }
}
layer {
  name: "scale_stage1_block2_branch2b"
  type: "Scale"
  bottom: "conv_stage1_block2_branch2b"
  top: "conv_stage1_block2_branch2b"
  scale_param {
    bias_term: true
  }
}
layer {
  name: "relu_stage1_block2_branch2b"
  type: "ReLU"
  bottom: "conv_stage1_block2_branch2b"
  top: "conv_stage1_block2_branch2b"
}
layer {
  name: "conv_stage1_block2_branch2c"
  type: "Convolution"
  bottom: "conv_stage1_block2_branch2b"
  top: "conv_stage1_block2_branch2c"
  param {
    lr_mult: 0
    decay_mult: 1
  }
  param {
    lr_mult: 0
    decay_mult: 0
  }
  convolution_param {
    num_output: 256
    pad: 0
    kernel_size: 1
    stride: 1
    weight_filler {
      type: "xavier"
    }
    bias_filler {
      type: "constant"
      value: 0
    }
  }
}
layer {
  name: "bn_stage1_block2_branch2c"
  type: "BatchNorm"
  bottom: "conv_stage1_block2_branch2c"
  top: "conv_stage1_block2_branch2c"
  param {
    lr_mult: 0
    decay_mult: 0
  }
  param {
    lr_mult: 0
    decay_mult: 0
  }
  param {
    lr_mult: 0
    decay_mult: 0
  }
  batch_norm_param {
    use_global_stats: false
  }
}
layer {
  name: "scale_stage1_block2_branch2c"
  type: "Scale"
  bottom: "conv_stage1_block2_branch2c"
  top: "conv_stage1_block2_branch2c"
  scale_param {
    bias_term: true
  }
}
layer {
  name: "eltwise_stage1_block2"
  type: "Eltwise"
  bottom: "eltwise_stage1_block1"
  bottom: "conv_stage1_block2_branch2c"
  top: "eltwise_stage1_block2"
}
layer {
  name: "relu_stage1_block2"
  type: "ReLU"
  bottom: "eltwise_stage1_block2"
  top: "eltwise_stage1_block2"
}
layer {
  name: "conv_stage1_block3_branch2a"
  type: "Convolution"
  bottom: "eltwise_stage1_block2"
  top: "conv_stage1_block3_branch2a"
  param {
    lr_mult: 0
    decay_mult: 1
  }
  param {
    lr_mult: 0
    decay_mult: 0
  }
  convolution_param {
    num_output: 64
    pad: 0
    kernel_size: 1
    stride: 1
    weight_filler {
      type: "xavier"
    }
    bias_filler {
      type: "constant"
      value: 0
    }
  }
}
layer {
  name: "bn_stage1_block3_branch2a"
  type: "BatchNorm"
  bottom: "conv_stage1_block3_branch2a"
  top: "conv_stage1_block3_branch2a"
  param {
    lr_mult: 0
    decay_mult: 0
  }
  param {
    lr_mult: 0
    decay_mult: 0
  }
  param {
    lr_mult: 0
    decay_mult: 0
  }
  batch_norm_param {
    use_global_stats: false
  }
}
layer {
  name: "scale_stage1_block3_branch2a"
  type: "Scale"
  bottom: "conv_stage1_block3_branch2a"
  top: "conv_stage1_block3_branch2a"
  scale_param {
    bias_term: true
  }
}
layer {
  name: "relu_stage1_block3_branch2a"
  type: "ReLU"
  bottom: "conv_stage1_block3_branch2a"
  top: "conv_stage1_block3_branch2a"
}
layer {
  name: "conv_stage1_block3_branch2b"
  type: "Convolution"
  bottom: "conv_stage1_block3_branch2a"
  top: "conv_stage1_block3_branch2b"
  param {
    lr_mult: 0
    decay_mult: 1
  }
  param {
    lr_mult: 0
    decay_mult: 0
  }
  convolution_param {
    num_output: 64
    pad: 1
    kernel_size: 3
    stride: 1
    weight_filler {
      type: "xavier"
    }
    bias_filler {
      type: "constant"
      value: 0
    }
  }
}
layer {
  name: "bn_stage1_block3_branch2b"
  type: "BatchNorm"
  bottom: "conv_stage1_block3_branch2b"
  top: "conv_stage1_block3_branch2b"
  param {
    lr_mult: 0
    decay_mult: 0
  }
  param {
    lr_mult: 0
    decay_mult: 0
  }
  param {
    lr_mult: 0
    decay_mult: 0
  }
  batch_norm_param {
    use_global_stats: false
  }
}
layer {
  name: "scale_stage1_block3_branch2b"
  type: "Scale"
  bottom: "conv_stage1_block3_branch2b"
  top: "conv_stage1_block3_branch2b"
  scale_param {
    bias_term: true
  }
}
layer {
  name: "relu_stage1_block3_branch2b"
  type: "ReLU"
  bottom: "conv_stage1_block3_branch2b"
  top: "conv_stage1_block3_branch2b"
}
layer {
  name: "conv_stage1_block3_branch2c"
  type: "Convolution"
  bottom: "conv_stage1_block3_branch2b"
  top: "conv_stage1_block3_branch2c"
  param {
    lr_mult: 0
    decay_mult: 1
  }
  param {
    lr_mult: 0
    decay_mult: 0
  }
  convolution_param {
    num_output: 256
    pad: 0
    kernel_size: 1
    stride: 1
    weight_filler {
      type: "xavier"
    }
    bias_filler {
      type: "constant"
      value: 0
    }
  }
}
layer {
  name: "bn_stage1_block3_branch2c"
  type: "BatchNorm"
  bottom: "conv_stage1_block3_branch2c"
  top: "conv_stage1_block3_branch2c"
  param {
    lr_mult: 0
    decay_mult: 0
  }
  param {
    lr_mult: 0
    decay_mult: 0
  }
  param {
    lr_mult: 0
    decay_mult: 0
  }
  batch_norm_param {
    use_global_stats: false
  }
}
layer {
  name: "scale_stage1_block3_branch2c"
  type: "Scale"
  bottom: "conv_stage1_block3_branch2c"
  top: "conv_stage1_block3_branch2c"
  scale_param {
    bias_term: true
  }
}
layer {
  name: "eltwise_stage1_block3"
  type: "Eltwise"
  bottom: "eltwise_stage1_block2"
  bottom: "conv_stage1_block3_branch2c"
  top: "eltwise_stage1_block3"
}
layer {
  name: "relu_stage1_block3"
  type: "ReLU"
  bottom: "eltwise_stage1_block3"
  top: "eltwise_stage1_block3"
}
layer {
  name: "conv_stage2_block0_proj_shortcut"
  type: "Convolution"
  bottom: "eltwise_stage1_block3"
  top: "conv_stage2_block0_proj_shortcut"
  param {
    lr_mult: 0
    decay_mult: 1
  }
  param {
    lr_mult: 0
    decay_mult: 0
  }
  convolution_param {
    num_output: 512
    pad: 0
    kernel_size: 1
    stride: 2
    weight_filler {
      type: "xavier"
    }
    bias_filler {
      type: "constant"
      value: 0
    }
  }
}
layer {
  name: "bn_stage2_block0_proj_shortcut"
  type: "BatchNorm"
  bottom: "conv_stage2_block0_proj_shortcut"
  top: "conv_stage2_block0_proj_shortcut"
  param {
    lr_mult: 0
    decay_mult: 0
  }
  param {
    lr_mult: 0
    decay_mult: 0
  }
  param {
    lr_mult: 0
    decay_mult: 0
  }
  batch_norm_param {
    use_global_stats: false
  }
}
layer {
  name: "scale_stage2_block0_proj_shortcut"
  type: "Scale"
  bottom: "conv_stage2_block0_proj_shortcut"
  top: "conv_stage2_block0_proj_shortcut"
  scale_param {
    bias_term: true
  }
}
layer {
  name: "conv_stage2_block0_branch2a"
  type: "Convolution"
  bottom: "eltwise_stage1_block3"
  top: "conv_stage2_block0_branch2a"
  param {
    lr_mult: 0
    decay_mult: 1
  }
  param {
    lr_mult: 0
    decay_mult: 0
  }
  convolution_param {
    num_output: 128
    pad: 0
    kernel_size: 1
    stride: 2
    weight_filler {
      type: "xavier"
    }
    bias_filler {
      type: "constant"
      value: 0
    }
  }
}
layer {
  name: "bn_stage2_block0_branch2a"
  type: "BatchNorm"
  bottom: "conv_stage2_block0_branch2a"
  top: "conv_stage2_block0_branch2a"
  param {
    lr_mult: 0
    decay_mult: 0
  }
  param {
    lr_mult: 0
    decay_mult: 0
  }
  param {
    lr_mult: 0
    decay_mult: 0
  }
  batch_norm_param {
    use_global_stats: false
  }
}
layer {
  name: "scale_stage2_block0_branch2a"
  type: "Scale"
  bottom: "conv_stage2_block0_branch2a"
  top: "conv_stage2_block0_branch2a"
  scale_param {
    bias_term: true
  }
}
layer {
  name: "relu_stage2_block0_branch2a"
  type: "ReLU"
  bottom: "conv_stage2_block0_branch2a"
  top: "conv_stage2_block0_branch2a"
}
layer {
  name: "conv_stage2_block0_branch2b"
  type: "Convolution"
  bottom: "conv_stage2_block0_branch2a"
  top: "conv_stage2_block0_branch2b"
  param {
    lr_mult: 0
    decay_mult: 1
  }
  param {
    lr_mult: 0
    decay_mult: 0
  }
  convolution_param {
    num_output: 128
    
I0609 10:12:16.400918 12002 layer_factory.hpp:77] Creating layer data
I0609 10:12:16.400944 12002 net.cpp:84] Creating Layer data
I0609 10:12:16.400949 12002 net.cpp:380] data -> data
I0609 10:12:16.400969 12002 net.cpp:380] data -> label
I0609 10:12:16.400985 12002 image_data_layer.cpp:38] Opening file /home/dbicho/Documents/datasets/all_labeled_dataset_augmented_finetuning/train.txt
I0609 10:12:16.412371 12002 image_data_layer.cpp:53] Shuffling data
I0609 10:12:16.416211 12002 image_data_layer.cpp:63] A total of 19955 images.
I0609 10:12:16.417289 12002 image_data_layer.cpp:90] output data size: 7,3,224,224
I0609 10:12:16.425362 12002 net.cpp:122] Setting up data
I0609 10:12:16.425390 12002 net.cpp:129] Top shape: 7 3 224 224 (1053696)
I0609 10:12:16.425397 12002 net.cpp:129] Top shape: 7 (7)
I0609 10:12:16.425400 12002 net.cpp:137] Memory required for data: 4214812
I0609 10:12:16.425408 12002 layer_factory.hpp:77] Creating layer conv_1
I0609 10:12:16.425436 12002 net.cpp:84] Creating Layer conv_1
I0609 10:12:16.425444 12002 net.cpp:406] conv_1 <- data
I0609 10:12:16.425464 12002 net.cpp:380] conv_1 -> conv_1
I0609 10:12:16.426519 12002 net.cpp:122] Setting up conv_1
I0609 10:12:16.426538 12002 net.cpp:129] Top shape: 7 64 112 112 (5619712)
I0609 10:12:16.426543 12002 net.cpp:137] Memory required for data: 26693660
I0609 10:12:16.426566 12002 layer_factory.hpp:77] Creating layer bn_1
I0609 10:12:16.426581 12002 net.cpp:84] Creating Layer bn_1
I0609 10:12:16.426587 12002 net.cpp:406] bn_1 <- conv_1
I0609 10:12:16.426595 12002 net.cpp:367] bn_1 -> conv_1 (in-place)
I0609 10:12:16.426832 12002 net.cpp:122] Setting up bn_1
I0609 10:12:16.426842 12002 net.cpp:129] Top shape: 7 64 112 112 (5619712)
I0609 10:12:16.426864 12002 net.cpp:137] Memory required for data: 49172508
I0609 10:12:16.426882 12002 layer_factory.hpp:77] Creating layer scale_1
I0609 10:12:16.426893 12002 net.cpp:84] Creating Layer scale_1
I0609 10:12:16.426899 12002 net.cpp:406] scale_1 <- conv_1
I0609 10:12:16.426905 12002 net.cpp:367] scale_1 -> conv_1 (in-place)
I0609 10:12:16.427294 12002 layer_factory.hpp:77] Creating layer scale_1
I0609 10:12:16.427448 12002 net.cpp:122] Setting up scale_1
I0609 10:12:16.427459 12002 net.cpp:129] Top shape: 7 64 112 112 (5619712)
I0609 10:12:16.427464 12002 net.cpp:137] Memory required for data: 71651356
I0609 10:12:16.427472 12002 layer_factory.hpp:77] Creating layer relu_1
I0609 10:12:16.427482 12002 net.cpp:84] Creating Layer relu_1
I0609 10:12:16.427489 12002 net.cpp:406] relu_1 <- conv_1
I0609 10:12:16.427495 12002 net.cpp:367] relu_1 -> conv_1 (in-place)
I0609 10:12:16.427505 12002 net.cpp:122] Setting up relu_1
I0609 10:12:16.427512 12002 net.cpp:129] Top shape: 7 64 112 112 (5619712)
I0609 10:12:16.427516 12002 net.cpp:137] Memory required for data: 94130204
I0609 10:12:16.427520 12002 layer_factory.hpp:77] Creating layer pool1
I0609 10:12:16.427528 12002 net.cpp:84] Creating Layer pool1
I0609 10:12:16.427533 12002 net.cpp:406] pool1 <- conv_1
I0609 10:12:16.427541 12002 net.cpp:380] pool1 -> pool1
I0609 10:12:16.427597 12002 net.cpp:122] Setting up pool1
I0609 10:12:16.427608 12002 net.cpp:129] Top shape: 7 64 56 56 (1404928)
I0609 10:12:16.427611 12002 net.cpp:137] Memory required for data: 99749916
I0609 10:12:16.427614 12002 layer_factory.hpp:77] Creating layer pool1_pool1_0_split
I0609 10:12:16.427620 12002 net.cpp:84] Creating Layer pool1_pool1_0_split
I0609 10:12:16.427623 12002 net.cpp:406] pool1_pool1_0_split <- pool1
I0609 10:12:16.427628 12002 net.cpp:380] pool1_pool1_0_split -> pool1_pool1_0_split_0
I0609 10:12:16.427636 12002 net.cpp:380] pool1_pool1_0_split -> pool1_pool1_0_split_1
I0609 10:12:16.427664 12002 net.cpp:122] Setting up pool1_pool1_0_split
I0609 10:12:16.427670 12002 net.cpp:129] Top shape: 7 64 56 56 (1404928)
I0609 10:12:16.427675 12002 net.cpp:129] Top shape: 7 64 56 56 (1404928)
I0609 10:12:16.427676 12002 net.cpp:137] Memory required for data: 110989340
I0609 10:12:16.427680 12002 layer_factory.hpp:77] Creating layer conv_stage0_block0_proj_shortcut
I0609 10:12:16.427690 12002 net.cpp:84] Creating Layer conv_stage0_block0_proj_shortcut
I0609 10:12:16.427693 12002 net.cpp:406] conv_stage0_block0_proj_shortcut <- pool1_pool1_0_split_0
I0609 10:12:16.427700 12002 net.cpp:380] conv_stage0_block0_proj_shortcut -> conv_stage0_block0_proj_shortcut
I0609 10:12:16.428378 12002 net.cpp:122] Setting up conv_stage0_block0_proj_shortcut
I0609 10:12:16.428390 12002 net.cpp:129] Top shape: 7 128 56 56 (2809856)
I0609 10:12:16.428392 12002 net.cpp:137] Memory required for data: 122228764
I0609 10:12:16.428401 12002 layer_factory.hpp:77] Creating layer bn_stage0_block0_proj_shortcut
I0609 10:12:16.428412 12002 net.cpp:84] Creating Layer bn_stage0_block0_proj_shortcut
I0609 10:12:16.428416 12002 net.cpp:406] bn_stage0_block0_proj_shortcut <- conv_stage0_block0_proj_shortcut
I0609 10:12:16.428422 12002 net.cpp:367] bn_stage0_block0_proj_shortcut -> conv_stage0_block0_proj_shortcut (in-place)
I0609 10:12:16.428566 12002 net.cpp:122] Setting up bn_stage0_block0_proj_shortcut
I0609 10:12:16.428573 12002 net.cpp:129] Top shape: 7 128 56 56 (2809856)
I0609 10:12:16.428575 12002 net.cpp:137] Memory required for data: 133468188
I0609 10:12:16.428581 12002 layer_factory.hpp:77] Creating layer scale_stage0_block0_proj_shortcut
I0609 10:12:16.428587 12002 net.cpp:84] Creating Layer scale_stage0_block0_proj_shortcut
I0609 10:12:16.428591 12002 net.cpp:406] scale_stage0_block0_proj_shortcut <- conv_stage0_block0_proj_shortcut
I0609 10:12:16.428596 12002 net.cpp:367] scale_stage0_block0_proj_shortcut -> conv_stage0_block0_proj_shortcut (in-place)
I0609 10:12:16.428627 12002 layer_factory.hpp:77] Creating layer scale_stage0_block0_proj_shortcut
I0609 10:12:16.428711 12002 net.cpp:122] Setting up scale_stage0_block0_proj_shortcut
I0609 10:12:16.428726 12002 net.cpp:129] Top shape: 7 128 56 56 (2809856)
I0609 10:12:16.428730 12002 net.cpp:137] Memory required for data: 144707612
I0609 10:12:16.428735 12002 layer_factory.hpp:77] Creating layer conv_stage0_block0_branch2a
I0609 10:12:16.428743 12002 net.cpp:84] Creating Layer conv_stage0_block0_branch2a
I0609 10:12:16.428747 12002 net.cpp:406] conv_stage0_block0_branch2a <- pool1_pool1_0_split_1
I0609 10:12:16.428753 12002 net.cpp:380] conv_stage0_block0_branch2a -> conv_stage0_block0_branch2a
I0609 10:12:16.428943 12002 net.cpp:122] Setting up conv_stage0_block0_branch2a
I0609 10:12:16.428949 12002 net.cpp:129] Top shape: 7 32 56 56 (702464)
I0609 10:12:16.428951 12002 net.cpp:137] Memory required for data: 147517468
I0609 10:12:16.428956 12002 layer_factory.hpp:77] Creating layer bn_stage0_block0_branch2a
I0609 10:12:16.428962 12002 net.cpp:84] Creating Layer bn_stage0_block0_branch2a
I0609 10:12:16.428966 12002 net.cpp:406] bn_stage0_block0_branch2a <- conv_stage0_block0_branch2a
I0609 10:12:16.428972 12002 net.cpp:367] bn_stage0_block0_branch2a -> conv_stage0_block0_branch2a (in-place)
I0609 10:12:16.429112 12002 net.cpp:122] Setting up bn_stage0_block0_branch2a
I0609 10:12:16.429118 12002 net.cpp:129] Top shape: 7 32 56 56 (702464)
I0609 10:12:16.429121 12002 net.cpp:137] Memory required for data: 150327324
I0609 10:12:16.429128 12002 layer_factory.hpp:77] Creating layer scale_stage0_block0_branch2a
I0609 10:12:16.429136 12002 net.cpp:84] Creating Layer scale_stage0_block0_branch2a
I0609 10:12:16.429138 12002 net.cpp:406] scale_stage0_block0_branch2a <- conv_stage0_block0_branch2a
I0609 10:12:16.429143 12002 net.cpp:367] scale_stage0_block0_branch2a -> conv_stage0_block0_branch2a (in-place)
I0609 10:12:16.429172 12002 layer_factory.hpp:77] Creating layer scale_stage0_block0_branch2a
I0609 10:12:16.429266 12002 net.cpp:122] Setting up scale_stage0_block0_branch2a
I0609 10:12:16.429275 12002 net.cpp:129] Top shape: 7 32 56 56 (702464)
I0609 10:12:16.429278 12002 net.cpp:137] Memory required for data: 153137180
I0609 10:12:16.429286 12002 layer_factory.hpp:77] Creating layer relu_stage0_block0_branch2a
I0609 10:12:16.429296 12002 net.cpp:84] Creating Layer relu_stage0_block0_branch2a
I0609 10:12:16.429301 12002 net.cpp:406] relu_stage0_block0_branch2a <- conv_stage0_block0_branch2a
I0609 10:12:16.429308 12002 net.cpp:367] relu_stage0_block0_branch2a -> conv_stage0_block0_branch2a (in-place)
I0609 10:12:16.429317 12002 net.cpp:122] Setting up relu_stage0_block0_branch2a
I0609 10:12:16.429324 12002 net.cpp:129] Top shape: 7 32 56 56 (702464)
I0609 10:12:16.429328 12002 net.cpp:137] Memory required for data: 155947036
I0609 10:12:16.429332 12002 layer_factory.hpp:77] Creating layer conv_stage0_block0_branch2b
I0609 10:12:16.429345 12002 net.cpp:84] Creating Layer conv_stage0_block0_branch2b
I0609 10:12:16.429349 12002 net.cpp:406] conv_stage0_block0_branch2b <- conv_stage0_block0_branch2a
I0609 10:12:16.429358 12002 net.cpp:380] conv_stage0_block0_branch2b -> conv_stage0_block0_branch2b
I0609 10:12:16.429706 12002 net.cpp:122] Setting up conv_stage0_block0_branch2b
I0609 10:12:16.429716 12002 net.cpp:129] Top shape: 7 32 56 56 (702464)
I0609 10:12:16.429720 12002 net.cpp:137] Memory required for data: 158756892
I0609 10:12:16.429726 12002 layer_factory.hpp:77] Creating layer bn_stage0_block0_branch2b
I0609 10:12:16.429734 12002 net.cpp:84] Creating Layer bn_stage0_block0_branch2b
I0609 10:12:16.429738 12002 net.cpp:406] bn_stage0_block0_branch2b <- conv_stage0_block0_branch2b
I0609 10:12:16.429745 12002 net.cpp:367] bn_stage0_block0_branch2b -> conv_stage0_block0_branch2b (in-place)
I0609 10:12:16.429956 12002 net.cpp:122] Setting up bn_stage0_block0_branch2b
I0609 10:12:16.429966 12002 net.cpp:129] Top shape: 7 32 56 56 (702464)
I0609 10:12:16.429971 12002 net.cpp:137] Memory required for data: 161566748
I0609 10:12:16.429981 12002 layer_factory.hpp:77] Creating layer scale_stage0_block0_branch2b
I0609 10:12:16.429996 12002 net.cpp:84] Creating Layer scale_stage0_block0_branch2b
I0609 10:12:16.430011 12002 net.cpp:406] scale_stage0_block0_branch2b <- conv_stage0_block0_branch2b
I0609 10:12:16.430019 12002 net.cpp:367] scale_stage0_block0_branch2b -> conv_stage0_block0_branch2b (in-place)
I0609 10:12:16.430065 12002 layer_factory.hpp:77] Creating layer scale_stage0_block0_branch2b
I0609 10:12:16.430191 12002 net.cpp:122] Setting up scale_stage0_block0_branch2b
I0609 10:12:16.430199 12002 net.cpp:129] Top shape: 7 32 56 56 (702464)
I0609 10:12:16.430204 12002 net.cpp:137] Memory required for data: 164376604
I0609 10:12:16.430212 12002 layer_factory.hpp:77] Creating layer relu_stage0_block0_branch2b
I0609 10:12:16.430220 12002 net.cpp:84] Creating Layer relu_stage0_block0_branch2b
I0609 10:12:16.430227 12002 net.cpp:406] relu_stage0_block0_branch2b <- conv_stage0_block0_branch2b
I0609 10:12:16.430233 12002 net.cpp:367] relu_stage0_block0_branch2b -> conv_stage0_block0_branch2b (in-place)
I0609 10:12:16.430243 12002 net.cpp:122] Setting up relu_stage0_block0_branch2b
I0609 10:12:16.430248 12002 net.cpp:129] Top shape: 7 32 56 56 (702464)
I0609 10:12:16.430268 12002 net.cpp:137] Memory required for data: 167186460
I0609 10:12:16.430272 12002 layer_factory.hpp:77] Creating layer conv_stage0_block0_branch2c
I0609 10:12:16.430285 12002 net.cpp:84] Creating Layer conv_stage0_block0_branch2c
I0609 10:12:16.430290 12002 net.cpp:406] conv_stage0_block0_branch2c <- conv_stage0_block0_branch2b
I0609 10:12:16.430299 12002 net.cpp:380] conv_stage0_block0_branch2c -> conv_stage0_block0_branch2c
I0609 10:12:16.430578 12002 net.cpp:122] Setting up conv_stage0_block0_branch2c
I0609 10:12:16.430588 12002 net.cpp:129] Top shape: 7 128 56 56 (2809856)
I0609 10:12:16.430593 12002 net.cpp:137] Memory required for data: 178425884
I0609 10:12:16.430601 12002 layer_factory.hpp:77] Creating layer bn_stage0_block0_branch2c
I0609 10:12:16.430610 12002 net.cpp:84] Creating Layer bn_stage0_block0_branch2c
I0609 10:12:16.430616 12002 net.cpp:406] bn_stage0_block0_branch2c <- conv_stage0_block0_branch2c
I0609 10:12:16.430624 12002 net.cpp:367] bn_stage0_block0_branch2c -> conv_stage0_block0_branch2c (in-place)
I0609 10:12:16.430763 12002 net.cpp:122] Setting up bn_stage0_block0_branch2c
I0609 10:12:16.430768 12002 net.cpp:129] Top shape: 7 128 56 56 (2809856)
I0609 10:12:16.430770 12002 net.cpp:137] Memory required for data: 189665308
I0609 10:12:16.430781 12002 layer_factory.hpp:77] Creating layer scale_stage0_block0_branch2c
I0609 10:12:16.430786 12002 net.cpp:84] Creating Layer scale_stage0_block0_branch2c
I0609 10:12:16.430789 12002 net.cpp:406] scale_stage0_block0_branch2c <- conv_stage0_block0_branch2c
I0609 10:12:16.430794 12002 net.cpp:367] scale_stage0_block0_branch2c -> conv_stage0_block0_branch2c (in-place)
I0609 10:12:16.430821 12002 layer_factory.hpp:77] Creating layer scale_stage0_block0_branch2c
I0609 10:12:16.430902 12002 net.cpp:122] Setting up scale_stage0_block0_branch2c
I0609 10:12:16.430907 12002 net.cpp:129] Top shape: 7 128 56 56 (2809856)
I0609 10:12:16.430909 12002 net.cpp:137] Memory required for data: 200904732
I0609 10:12:16.430914 12002 layer_factory.hpp:77] Creating layer eltwise_stage0_block0
I0609 10:12:16.430919 12002 net.cpp:84] Creating Layer eltwise_stage0_block0
I0609 10:12:16.430922 12002 net.cpp:406] eltwise_stage0_block0 <- conv_stage0_block0_proj_shortcut
I0609 10:12:16.430927 12002 net.cpp:406] eltwise_stage0_block0 <- conv_stage0_block0_branch2c
I0609 10:12:16.430930 12002 net.cpp:380] eltwise_stage0_block0 -> eltwise_stage0_block0
I0609 10:12:16.430949 12002 net.cpp:122] Setting up eltwise_stage0_block0
I0609 10:12:16.430954 12002 net.cpp:129] Top shape: 7 128 56 56 (2809856)
I0609 10:12:16.430956 12002 net.cpp:137] Memory required for data: 212144156
I0609 10:12:16.430959 12002 layer_factory.hpp:77] Creating layer relu_stage0_block0
I0609 10:12:16.430964 12002 net.cpp:84] Creating Layer relu_stage0_block0
I0609 10:12:16.430966 12002 net.cpp:406] relu_stage0_block0 <- eltwise_stage0_block0
I0609 10:12:16.430970 12002 net.cpp:367] relu_stage0_block0 -> eltwise_stage0_block0 (in-place)
I0609 10:12:16.430984 12002 net.cpp:122] Setting up relu_stage0_block0
I0609 10:12:16.430989 12002 net.cpp:129] Top shape: 7 128 56 56 (2809856)
I0609 10:12:16.430991 12002 net.cpp:137] Memory required for data: 223383580
I0609 10:12:16.430994 12002 layer_factory.hpp:77] Creating layer eltwise_stage0_block0_relu_stage0_block0_0_split
I0609 10:12:16.431084 12002 net.cpp:84] Creating Layer eltwise_stage0_block0_relu_stage0_block0_0_split
I0609 10:12:16.431090 12002 net.cpp:406] eltwise_stage0_block0_relu_stage0_block0_0_split <- eltwise_stage0_block0
I0609 10:12:16.431095 12002 net.cpp:380] eltwise_stage0_block0_relu_stage0_block0_0_split -> eltwise_stage0_block0_relu_stage0_block0_0_split_0
I0609 10:12:16.431102 12002 net.cpp:380] eltwise_stage0_block0_relu_stage0_block0_0_split -> eltwise_stage0_block0_relu_stage0_block0_0_split_1
I0609 10:12:16.431130 12002 net.cpp:122] Setting up eltwise_stage0_block0_relu_stage0_block0_0_split
I0609 10:12:16.431136 12002 net.cpp:129] Top shape: 7 128 56 56 (2809856)
I0609 10:12:16.431139 12002 net.cpp:129] Top shape: 7 128 56 56 (2809856)
I0609 10:12:16.431143 12002 net.cpp:137] Memory required for data: 245862428
I0609 10:12:16.431145 12002 layer_factory.hpp:77] Creating layer conv_stage0_block1_branch2a
I0609 10:12:16.431154 12002 net.cpp:84] Creating Layer conv_stage0_block1_branch2a
I0609 10:12:16.431156 12002 net.cpp:406] conv_stage0_block1_branch2a <- eltwise_stage0_block0_relu_stage0_block0_0_split_0
I0609 10:12:16.431162 12002 net.cpp:380] conv_stage0_block1_branch2a -> conv_stage0_block1_branch2a
I0609 10:12:16.431351 12002 net.cpp:122] Setting up conv_stage0_block1_branch2a
I0609 10:12:16.431356 12002 net.cpp:129] Top shape: 7 32 56 56 (702464)
I0609 10:12:16.431360 12002 net.cpp:137] Memory required for data: 248672284
I0609 10:12:16.431365 12002 layer_factory.hpp:77] Creating layer bn_stage0_block1_branch2a
I0609 10:12:16.431370 12002 net.cpp:84] Creating Layer bn_stage0_block1_branch2a
I0609 10:12:16.431372 12002 net.cpp:406] bn_stage0_block1_branch2a <- conv_stage0_block1_branch2a
I0609 10:12:16.431377 12002 net.cpp:367] bn_stage0_block1_branch2a -> conv_stage0_block1_branch2a (in-place)
I0609 10:12:16.431514 12002 net.cpp:122] Setting up bn_stage0_block1_branch2a
I0609 10:12:16.431517 12002 net.cpp:129] Top shape: 7 32 56 56 (702464)
I0609 10:12:16.431520 12002 net.cpp:137] Memory required for data: 251482140
I0609 10:12:16.431525 12002 layer_factory.hpp:77] Creating layer scale_stage0_block1_branch2a
I0609 10:12:16.431530 12002 net.cpp:84] Creating Layer scale_stage0_block1_branch2a
I0609 10:12:16.431532 12002 net.cpp:406] scale_stage0_block1_branch2a <- conv_stage0_block1_branch2a
I0609 10:12:16.431537 12002 net.cpp:367] scale_stage0_block1_branch2a -> conv_stage0_block1_branch2a (in-place)
I0609 10:12:16.431565 12002 layer_factory.hpp:77] Creating layer scale_stage0_block1_branch2a
I0609 10:12:16.431648 12002 net.cpp:122] Setting up scale_stage0_block1_branch2a
I0609 10:12:16.431653 12002 net.cpp:129] Top shape: 7 32 56 56 (702464)
I0609 10:12:16.431655 12002 net.cpp:137] Memory required for data: 254291996
I0609 10:12:16.431659 12002 layer_factory.hpp:77] Creating layer relu_stage0_block1_branch2a
I0609 10:12:16.431665 12002 net.cpp:84] Creating Layer relu_stage0_block1_branch2a
I0609 10:12:16.431669 12002 net.cpp:406] relu_stage0_block1_branch2a <- conv_stage0_block1_branch2a
I0609 10:12:16.431675 12002 net.cpp:367] relu_stage0_block1_branch2a -> conv_stage0_block1_branch2a (in-place)
I0609 10:12:16.431684 12002 net.cpp:122] Setting up relu_stage0_block1_branch2a
I0609 10:12:16.431689 12002 net.cpp:129] Top shape: 7 32 56 56 (702464)
I0609 10:12:16.431694 12002 net.cpp:137] Memory required for data: 257101852
I0609 10:12:16.431697 12002 layer_factory.hpp:77] Creating layer conv_stage0_block1_branch2b
I0609 10:12:16.431710 12002 net.cpp:84] Creating Layer conv_stage0_block1_branch2b
I0609 10:12:16.431713 12002 net.cpp:406] conv_stage0_block1_branch2b <- conv_stage0_block1_branch2a
I0609 10:12:16.431723 12002 net.cpp:380] conv_stage0_block1_branch2b -> conv_stage0_block1_branch2b
I0609 10:12:16.432067 12002 net.cpp:122] Setting up conv_stage0_block1_branch2b
I0609 10:12:16.432076 12002 net.cpp:129] Top shape: 7 32 56 56 (702464)
I0609 10:12:16.432080 12002 net.cpp:137] Memory required for data: 259911708
I0609 10:12:16.432088 12002 layer_factory.hpp:77] Creating layer bn_stage0_block1_branch2b
I0609 10:12:16.432096 12002 net.cpp:84] Creating Layer bn_stage0_block1_branch2b
I0609 10:12:16.432101 12002 net.cpp:406] bn_stage0_block1_branch2b <- conv_stage0_block1_branch2b
I0609 10:12:16.432109 12002 net.cpp:367] bn_stage0_block1_branch2b -> conv_stage0_block1_branch2b (in-place)
I0609 10:12:16.432307 12002 net.cpp:122] Setting up bn_stage0_block1_branch2b
I0609 10:12:16.432317 12002 net.cpp:129] Top shape: 7 32 56 56 (702464)
I0609 10:12:16.432320 12002 net.cpp:137] Memory required for data: 262721564
I0609 10:12:16.432332 12002 layer_factory.hpp:77] Creating layer scale_stage0_block1_branch2b
I0609 10:12:16.432339 12002 net.cpp:84] Creating Layer scale_stage0_block1_branch2b
I0609 10:12:16.432343 12002 net.cpp:406] scale_stage0_block1_branch2b <- conv_stage0_block1_branch2b
I0609 10:12:16.432350 12002 net.cpp:367] scale_stage0_block1_branch2b -> conv_stage0_block1_branch2b (in-place)
I0609 10:12:16.432394 12002 layer_factory.hpp:77] Creating layer scale_stage0_block1_branch2b
I0609 10:12:16.432516 12002 net.cpp:122] Setting up scale_stage0_block1_branch2b
I0609 10:12:16.432524 12002 net.cpp:129] Top shape: 7 32 56 56 (702464)
I0609 10:12:16.432528 12002 net.cpp:137] Memory required for data: 265531420
I0609 10:12:16.432535 12002 layer_factory.hpp:77] Creating layer relu_stage0_block1_branch2b
I0609 10:12:16.432543 12002 net.cpp:84] Creating Layer relu_stage0_block1_branch2b
I0609 10:12:16.432546 12002 net.cpp:406] relu_stage0_block1_branch2b <- conv_stage0_block1_branch2b
I0609 10:12:16.432554 12002 net.cpp:367] relu_stage0_block1_branch2b -> conv_stage0_block1_branch2b (in-place)
I0609 10:12:16.432560 12002 net.cpp:122] Setting up relu_stage0_block1_branch2b
I0609 10:12:16.432566 12002 net.cpp:129] Top shape: 7 32 56 56 (702464)
I0609 10:12:16.432570 12002 net.cpp:137] Memory required for data: 268341276
I0609 10:12:16.432574 12002 layer_factory.hpp:77] Creating layer conv_stage0_block1_branch2c
I0609 10:12:16.432595 12002 net.cpp:84] Creating Layer conv_stage0_block1_branch2c
I0609 10:12:16.432598 12002 net.cpp:406] conv_stage0_block1_branch2c <- conv_stage0_block1_branch2b
I0609 10:12:16.432606 12002 net.cpp:380] conv_stage0_block1_branch2c -> conv_stage0_block1_branch2c
I0609 10:12:16.432878 12002 net.cpp:122] Setting up conv_stage0_block1_branch2c
I0609 10:12:16.432886 12002 net.cpp:129] Top shape: 7 128 56 56 (2809856)
I0609 10:12:16.432890 12002 net.cpp:137] Memory required for data: 279580700
I0609 10:12:16.432898 12002 layer_factory.hpp:77] Creating layer bn_stage0_block1_branch2c
I0609 10:12:16.432906 12002 net.cpp:84] Creating Layer bn_stage0_block1_branch2c
I0609 10:12:16.432911 12002 net.cpp:406] bn_stage0_block1_branch2c <- conv_stage0_block1_branch2c
I0609 10:12:16.432919 12002 net.cpp:367] bn_stage0_block1_branch2c -> conv_stage0_block1_branch2c (in-place)
I0609 10:12:16.433065 12002 net.cpp:122] Setting up bn_stage0_block1_branch2c
I0609 10:12:16.433071 12002 net.cpp:129] Top shape: 7 128 56 56 (2809856)
I0609 10:12:16.433074 12002 net.cpp:137] Memory required for data: 290820124
I0609 10:12:16.433079 12002 layer_factory.hpp:77] Creating layer scale_stage0_block1_branch2c
I0609 10:12:16.433085 12002 net.cpp:84] Creating Layer scale_stage0_block1_branch2c
I0609 10:12:16.433087 12002 net.cpp:406] scale_stage0_block1_branch2c <- conv_stage0_block1_branch2c
I0609 10:12:16.433092 12002 net.cpp:367] scale_stage0_block1_branch2c -> conv_stage0_block1_branch2c (in-place)
I0609 10:12:16.433120 12002 layer_factory.hpp:77] Creating layer scale_stage0_block1_branch2c
I0609 10:12:16.433197 12002 net.cpp:122] Setting up scale_stage0_block1_branch2c
I0609 10:12:16.433202 12002 net.cpp:129] Top shape: 7 128 56 56 (2809856)
I0609 10:12:16.433212 12002 net.cpp:137] Memory required for data: 302059548
I0609 10:12:16.433218 12002 layer_factory.hpp:77] Creating layer eltwise_stage0_block1
I0609 10:12:16.433223 12002 net.cpp:84] Creating Layer eltwise_stage0_block1
I0609 10:12:16.433225 12002 net.cpp:406] eltwise_stage0_block1 <- eltwise_stage0_block0_relu_stage0_block0_0_split_1
I0609 10:12:16.433229 12002 net.cpp:406] eltwise_stage0_block1 <- conv_stage0_block1_branch2c
I0609 10:12:16.433233 12002 net.cpp:380] eltwise_stage0_block1 -> eltwise_stage0_block1
I0609 10:12:16.433255 12002 net.cpp:122] Setting up eltwise_stage0_block1
I0609 10:12:16.433259 12002 net.cpp:129] Top shape: 7 128 56 56 (2809856)
I0609 10:12:16.433262 12002 net.cpp:137] Memory required for data: 313298972
I0609 10:12:16.433264 12002 layer_factory.hpp:77] Creating layer relu_stage0_block1
I0609 10:12:16.433269 12002 net.cpp:84] Creating Layer relu_stage0_block1
I0609 10:12:16.433271 12002 net.cpp:406] relu_stage0_block1 <- eltwise_stage0_block1
I0609 10:12:16.433275 12002 net.cpp:367] relu_stage0_block1 -> eltwise_stage0_block1 (in-place)
I0609 10:12:16.433279 12002 net.cpp:122] Setting up relu_stage0_block1
I0609 10:12:16.433284 12002 net.cpp:129] Top shape: 7 128 56 56 (2809856)
I0609 10:12:16.433285 12002 net.cpp:137] Memory required for data: 324538396
I0609 10:12:16.433287 12002 layer_factory.hpp:77] Creating layer eltwise_stage0_block1_relu_stage0_block1_0_split
I0609 10:12:16.433292 12002 net.cpp:84] Creating Layer eltwise_stage0_block1_relu_stage0_block1_0_split
I0609 10:12:16.433295 12002 net.cpp:406] eltwise_stage0_block1_relu_stage0_block1_0_split <- eltwise_stage0_block1
I0609 10:12:16.433298 12002 net.cpp:380] eltwise_stage0_block1_relu_stage0_block1_0_split -> eltwise_stage0_block1_relu_stage0_block1_0_split_0
I0609 10:12:16.433303 12002 net.cpp:380] eltwise_stage0_block1_relu_stage0_block1_0_split -> eltwise_stage0_block1_relu_stage0_block1_0_split_1
I0609 10:12:16.433327 12002 net.cpp:122] Setting up eltwise_stage0_block1_relu_stage0_block1_0_split
I0609 10:12:16.433332 12002 net.cpp:129] Top shape: 7 128 56 56 (2809856)
I0609 10:12:16.433336 12002 net.cpp:129] Top shape: 7 128 56 56 (2809856)
I0609 10:12:16.433337 12002 net.cpp:137] Memory required for data: 347017244
I0609 10:12:16.433339 12002 layer_factory.hpp:77] Creating layer conv_stage0_block2_branch2a
I0609 10:12:16.433348 12002 net.cpp:84] Creating Layer conv_stage0_block2_branch2a
I0609 10:12:16.433351 12002 net.cpp:406] conv_stage0_block2_branch2a <- eltwise_stage0_block1_relu_stage0_block1_0_split_0
I0609 10:12:16.433357 12002 net.cpp:380] conv_stage0_block2_branch2a -> conv_stage0_block2_branch2a
I0609 10:12:16.433535 12002 net.cpp:122] Setting up conv_stage0_block2_branch2a
I0609 10:12:16.433540 12002 net.cpp:129] Top shape: 7 32 56 56 (702464)
I0609 10:12:16.433542 12002 net.cpp:137] Memory required for data: 349827100
I0609 10:12:16.433547 12002 layer_factory.hpp:77] Creating layer bn_stage0_block2_branch2a
I0609 10:12:16.433552 12002 net.cpp:84] Creating Layer bn_stage0_block2_branch2a
I0609 10:12:16.433555 12002 net.cpp:406] bn_stage0_block2_branch2a <- conv_stage0_block2_branch2a
I0609 10:12:16.433559 12002 net.cpp:367] bn_stage0_block2_branch2a -> conv_stage0_block2_branch2a (in-place)
I0609 10:12:16.433687 12002 net.cpp:122] Setting up bn_stage0_block2_branch2a
I0609 10:12:16.433692 12002 net.cpp:129] Top shape: 7 32 56 56 (702464)
I0609 10:12:16.433694 12002 net.cpp:137] Memory required for data: 352636956
I0609 10:12:16.433699 12002 layer_factory.hpp:77] Creating layer scale_stage0_block2_branch2a
I0609 10:12:16.433704 12002 net.cpp:84] Creating Layer scale_stage0_block2_branch2a
I0609 10:12:16.433707 12002 net.cpp:406] scale_stage0_block2_branch2a <- conv_stage0_block2_branch2a
I0609 10:12:16.433712 12002 net.cpp:367] scale_stage0_block2_branch2a -> conv_stage0_block2_branch2a (in-place)
I0609 10:12:16.433737 12002 layer_factory.hpp:77] Creating layer scale_stage0_block2_branch2a
I0609 10:12:16.433816 12002 net.cpp:122] Setting up scale_stage0_block2_branch2a
I0609 10:12:16.433821 12002 net.cpp:129] Top shape: 7 32 56 56 (702464)
I0609 10:12:16.433830 12002 net.cpp:137] Memory required for data: 355446812
I0609 10:12:16.433835 12002 layer_factory.hpp:77] Creating layer relu_stage0_block2_branch2a
I0609 10:12:16.433838 12002 net.cpp:84] Creating Layer relu_stage0_block2_branch2a
I0609 10:12:16.433841 12002 net.cpp:406] relu_stage0_block2_branch2a <- conv_stage0_block2_branch2a
I0609 10:12:16.433845 12002 net.cpp:367] relu_stage0_block2_branch2a -> conv_stage0_block2_branch2a (in-place)
I0609 10:12:16.433850 12002 net.cpp:122] Setting up relu_stage0_block2_branch2a
I0609 10:12:16.433853 12002 net.cpp:129] Top shape: 7 32 56 56 (702464)
I0609 10:12:16.433856 12002 net.cpp:137] Memory required for data: 358256668
I0609 10:12:16.433857 12002 layer_factory.hpp:77] Creating layer conv_stage0_block2_branch2b
I0609 10:12:16.433866 12002 net.cpp:84] Creating Layer conv_stage0_block2_branch2b
I0609 10:12:16.433867 12002 net.cpp:406] conv_stage0_block2_branch2b <- conv_stage0_block2_branch2a
I0609 10:12:16.433873 12002 net.cpp:380] conv_stage0_block2_branch2b -> conv_stage0_block2_branch2b
I0609 10:12:16.434116 12002 net.cpp:122] Setting up conv_stage0_block2_branch2b
I0609 10:12:16.434125 12002 net.cpp:129] Top shape: 7 32 56 56 (702464)
I0609 10:12:16.434130 12002 net.cpp:137] Memory required for data: 361066524
I0609 10:12:16.434145 12002 layer_factory.hpp:77] Creating layer bn_stage0_block2_branch2b
I0609 10:12:16.434154 12002 net.cpp:84] Creating Layer bn_stage0_block2_branch2b
I0609 10:12:16.434159 12002 net.cpp:406] bn_stage0_block2_branch2b <- conv_stage0_block2_branch2b
I0609 10:12:16.434166 12002 net.cpp:367] bn_stage0_block2_branch2b -> conv_stage0_block2_branch2b (in-place)
I0609 10:12:16.434370 12002 net.cpp:122] Setting up bn_stage0_block2_branch2b
I0609 10:12:16.434378 12002 net.cpp:129] Top shape: 7 32 56 56 (702464)
I0609 10:12:16.434383 12002 net.cpp:137] Memory required for data: 363876380
I0609 10:12:16.434393 12002 layer_factory.hpp:77] Creating layer scale_stage0_block2_branch2b
I0609 10:12:16.434401 12002 net.cpp:84] Creating Layer scale_stage0_block2_branch2b
I0609 10:12:16.434406 12002 net.cpp:406] scale_stage0_block2_branch2b <- conv_stage0_block2_branch2b
I0609 10:12:16.434412 12002 net.cpp:367] scale_stage0_block2_branch2b -> conv_stage0_block2_branch2b (in-place)
I0609 10:12:16.434453 12002 layer_factory.hpp:77] Creating layer scale_stage0_block2_branch2b
I0609 10:12:16.434573 12002 net.cpp:122] Setting up scale_stage0_block2_branch2b
I0609 10:12:16.434581 12002 net.cpp:129] Top shape: 7 32 56 56 (702464)
I0609 10:12:16.434586 12002 net.cpp:137] Memory required for data: 366686236
I0609 10:12:16.434593 12002 layer_factory.hpp:77] Creating layer relu_stage0_block2_branch2b
I0609 10:12:16.434599 12002 net.cpp:84] Creating Layer relu_stage0_block2_branch2b
I0609 10:12:16.434603 12002 net.cpp:406] relu_stage0_block2_branch2b <- conv_stage0_block2_branch2b
I0609 10:12:16.434610 12002 net.cpp:367] relu_stage0_block2_branch2b -> conv_stage0_block2_branch2b (in-place)
I0609 10:12:16.434617 12002 net.cpp:122] Setting up relu_stage0_block2_branch2b
I0609 10:12:16.434623 12002 net.cpp:129] Top shape: 7 32 56 56 (702464)
I0609 10:12:16.434626 12002 net.cpp:137] Memory required for data: 369496092
I0609 10:12:16.434630 12002 layer_factory.hpp:77] Creating layer conv_stage0_block2_branch2c
I0609 10:12:16.434643 12002 net.cpp:84] Creating Layer conv_stage0_block2_branch2c
I0609 10:12:16.434646 12002 net.cpp:406] conv_stage0_block2_branch2c <- conv_stage0_block2_branch2b
I0609 10:12:16.434654 12002 net.cpp:380] conv_stage0_block2_branch2c -> conv_stage0_block2_branch2c
I0609 10:12:16.434860 12002 net.cpp:122] Setting up conv_stage0_block2_branch2c
I0609 10:12:16.434867 12002 net.cpp:129] Top shape: 7 128 56 56 (2809856)
I0609 10:12:16.434870 12002 net.cpp:137] Memory required for data: 380735516
I0609 10:12:16.434875 12002 layer_factory.hpp:77] Creating layer bn_stage0_block2_branch2c
I0609 10:12:16.434880 12002 net.cpp:84] Creating Layer bn_stage0_block2_branch2c
I0609 10:12:16.434883 12002 net.cpp:406] bn_stage0_block2_branch2c <- conv_stage0_block2_branch2c
I0609 10:12:16.434896 12002 net.cpp:367] bn_stage0_block2_branch2c -> conv_stage0_block2_branch2c (in-place)
I0609 10:12:16.435031 12002 net.cpp:122] Setting up bn_stage0_block2_branch2c
I0609 10:12:16.435036 12002 net.cpp:129] Top shape: 7 128 56 56 (2809856)
I0609 10:12:16.435039 12002 net.cpp:137] Memory required for data: 391974940
I0609 10:12:16.435045 12002 layer_factory.hpp:77] Creating layer scale_stage0_block2_branch2c
I0609 10:12:16.435050 12002 net.cpp:84] Creating Layer scale_stage0_block2_branch2c
I0609 10:12:16.435052 12002 net.cpp:406] scale_stage0_block2_branch2c <- conv_stage0_block2_branch2c
I0609 10:12:16.435057 12002 net.cpp:367] scale_stage0_block2_branch2c -> conv_stage0_block2_branch2c (in-place)
I0609 10:12:16.435091 12002 layer_factory.hpp:77] Creating layer scale_stage0_block2_branch2c
I0609 10:12:16.435174 12002 net.cpp:122] Setting up scale_stage0_block2_branch2c
I0609 10:12:16.435179 12002 net.cpp:129] Top shape: 7 128 56 56 (2809856)
I0609 10:12:16.435183 12002 net.cpp:137] Memory required for data: 403214364
I0609 10:12:16.435186 12002 layer_factory.hpp:77] Creating layer eltwise_stage0_block2
I0609 10:12:16.435191 12002 net.cpp:84] Creating Layer eltwise_stage0_block2
I0609 10:12:16.435195 12002 net.cpp:406] eltwise_stage0_block2 <- eltwise_stage0_block1_relu_stage0_block1_0_split_1
I0609 10:12:16.435199 12002 net.cpp:406] eltwise_stage0_block2 <- conv_stage0_block2_branch2c
I0609 10:12:16.435205 12002 net.cpp:380] eltwise_stage0_block2 -> eltwise_stage0_block2
I0609 10:12:16.435225 12002 net.cpp:122] Setting up eltwise_stage0_block2
I0609 10:12:16.435230 12002 net.cpp:129] Top shape: 7 128 56 56 (2809856)
I0609 10:12:16.435232 12002 net.cpp:137] Memory required for data: 414453788
I0609 10:12:16.435236 12002 layer_factory.hpp:77] Creating layer relu_stage0_block2
I0609 10:12:16.435242 12002 net.cpp:84] Creating Layer relu_stage0_block2
I0609 10:12:16.435245 12002 net.cpp:406] relu_stage0_block2 <- eltwise_stage0_block2
I0609 10:12:16.435250 12002 net.cpp:367] relu_stage0_block2 -> eltwise_stage0_block2 (in-place)
I0609 10:12:16.435256 12002 net.cpp:122] Setting up relu_stage0_block2
I0609 10:12:16.435261 12002 net.cpp:129] Top shape: 7 128 56 56 (2809856)
I0609 10:12:16.435262 12002 net.cpp:137] Memory required for data: 425693212
I0609 10:12:16.435266 12002 layer_factory.hpp:77] Creating layer eltwise_stage0_block2_relu_stage0_block2_0_split
I0609 10:12:16.435271 12002 net.cpp:84] Creating Layer eltwise_stage0_block2_relu_stage0_block2_0_split
I0609 10:12:16.435274 12002 net.cpp:406] eltwise_stage0_block2_relu_stage0_block2_0_split <- eltwise_stage0_block2
I0609 10:12:16.435279 12002 net.cpp:380] eltwise_stage0_block2_relu_stage0_block2_0_split -> eltwise_stage0_block2_relu_stage0_block2_0_split_0
I0609 10:12:16.435286 12002 net.cpp:380] eltwise_stage0_block2_relu_stage0_block2_0_split -> eltwise_stage0_block2_relu_stage0_block2_0_split_1
I0609 10:12:16.435312 12002 net.cpp:122] Setting up eltwise_stage0_block2_relu_stage0_block2_0_split
I0609 10:12:16.435317 12002 net.cpp:129] Top shape: 7 128 56 56 (2809856)
I0609 10:12:16.435319 12002 net.cpp:129] Top shape: 7 128 56 56 (2809856)
I0609 10:12:16.435322 12002 net.cpp:137] Memory required for data: 448172060
I0609 10:12:16.435323 12002 layer_factory.hpp:77] Creating layer conv_stage1_block0_proj_shortcut
I0609 10:12:16.435343 12002 net.cpp:84] Creating Layer conv_stage1_block0_proj_shortcut
I0609 10:12:16.435345 12002 net.cpp:406] conv_stage1_block0_proj_shortcut <- eltwise_stage0_block2_relu_stage0_block2_0_split_0
I0609 10:12:16.435353 12002 net.cpp:380] conv_stage1_block0_proj_shortcut -> conv_stage1_block0_proj_shortcut
I0609 10:12:16.437216 12002 net.cpp:122] Setting up conv_stage1_block0_proj_shortcut
I0609 10:12:16.437225 12002 net.cpp:129] Top shape: 7 256 28 28 (1404928)
I0609 10:12:16.437228 12002 net.cpp:137] Memory required for data: 453791772
I0609 10:12:16.437234 12002 layer_factory.hpp:77] Creating layer bn_stage1_block0_proj_shortcut
I0609 10:12:16.437242 12002 net.cpp:84] Creating Layer bn_stage1_block0_proj_shortcut
I0609 10:12:16.437254 12002 net.cpp:406] bn_stage1_block0_proj_shortcut <- conv_stage1_block0_proj_shortcut
I0609 10:12:16.437261 12002 net.cpp:367] bn_stage1_block0_proj_shortcut -> conv_stage1_block0_proj_shortcut (in-place)
I0609 10:12:16.437407 12002 net.cpp:122] Setting up bn_stage1_block0_proj_shortcut
I0609 10:12:16.437417 12002 net.cpp:129] Top shape: 7 256 28 28 (1404928)
I0609 10:12:16.437420 12002 net.cpp:137] Memory required for data: 459411484
I0609 10:12:16.437429 12002 layer_factory.hpp:77] Creating layer scale_stage1_block0_proj_shortcut
I0609 10:12:16.437438 12002 net.cpp:84] Creating Layer scale_stage1_block0_proj_shortcut
I0609 10:12:16.437443 12002 net.cpp:406] scale_stage1_block0_proj_shortcut <- conv_stage1_block0_proj_shortcut
I0609 10:12:16.437451 12002 net.cpp:367] scale_stage1_block0_proj_shortcut -> conv_stage1_block0_proj_shortcut (in-place)
I0609 10:12:16.437500 12002 layer_factory.hpp:77] Creating layer scale_stage1_block0_proj_shortcut
I0609 10:12:16.437620 12002 net.cpp:122] Setting up scale_stage1_block0_proj_shortcut
I0609 10:12:16.437630 12002 net.cpp:129] Top shape: 7 256 28 28 (1404928)
I0609 10:12:16.437634 12002 net.cpp:137] Memory required for data: 465031196
I0609 10:12:16.437642 12002 layer_factory.hpp:77] Creating layer conv_stage1_block0_branch2a
I0609 10:12:16.437654 12002 net.cpp:84] Creating Layer conv_stage1_block0_branch2a
I0609 10:12:16.437659 12002 net.cpp:406] conv_stage1_block0_branch2a <- eltwise_stage0_block2_relu_stage0_block2_0_split_1
I0609 10:12:16.437669 12002 net.cpp:380] conv_stage1_block0_branch2a -> conv_stage1_block0_branch2a
I0609 10:12:16.438019 12002 net.cpp:122] Setting up conv_stage1_block0_branch2a
I0609 10:12:16.438028 12002 net.cpp:129] Top shape: 7 64 28 28 (351232)
I0609 10:12:16.438032 12002 net.cpp:137] Memory required for data: 466436124
I0609 10:12:16.438040 12002 layer_factory.hpp:77] Creating layer bn_stage1_block0_branch2a
I0609 10:12:16.438050 12002 net.cpp:84] Creating Layer bn_stage1_block0_branch2a
I0609 10:12:16.438053 12002 net.cpp:406] bn_stage1_block0_branch2a <- conv_stage1_block0_branch2a
I0609 10:12:16.438064 12002 net.cpp:367] bn_stage1_block0_branch2a -> conv_stage1_block0_branch2a (in-place)
I0609 10:12:16.438223 12002 net.cpp:122] Setting up bn_stage1_block0_branch2a
I0609 10:12:16.438228 12002 net.cpp:129] Top shape: 7 64 28 28 (351232)
I0609 10:12:16.438231 12002 net.cpp:137] Memory required for data: 467841052
I0609 10:12:16.438237 12002 layer_factory.hpp:77] Creating layer scale_stage1_block0_branch2a
I0609 10:12:16.438242 12002 net.cpp:84] Creating Layer scale_stage1_block0_branch2a
I0609 10:12:16.438244 12002 net.cpp:406] scale_stage1_block0_branch2a <- conv_stage1_block0_branch2a
I0609 10:12:16.438251 12002 net.cpp:367] scale_stage1_block0_branch2a -> conv_stage1_block0_branch2a (in-place)
I0609 10:12:16.438292 12002 layer_factory.hpp:77] Creating layer scale_stage1_block0_branch2a
I0609 10:12:16.438380 12002 net.cpp:122] Setting up scale_stage1_block0_branch2a
I0609 10:12:16.438383 12002 net.cpp:129] Top shape: 7 64 28 28 (351232)
I0609 10:12:16.438386 12002 net.cpp:137] Memory required for data: 469245980
I0609 10:12:16.438390 12002 layer_factory.hpp:77] Creating layer relu_stage1_block0_branch2a
I0609 10:12:16.438395 12002 net.cpp:84] Creating Layer relu_stage1_block0_branch2a
I0609 10:12:16.438398 12002 net.cpp:406] relu_stage1_block0_branch2a <- conv_stage1_block0_branch2a
I0609 10:12:16.438402 12002 net.cpp:367] relu_stage1_block0_branch2a -> conv_stage1_block0_branch2a (in-place)
I0609 10:12:16.438407 12002 net.cpp:122] Setting up relu_stage1_block0_branch2a
I0609 10:12:16.438411 12002 net.cpp:129] Top shape: 7 64 28 28 (351232)
I0609 10:12:16.438413 12002 net.cpp:137] Memory required for data: 470650908
I0609 10:12:16.438416 12002 layer_factory.hpp:77] Creating layer conv_stage1_block0_branch2b
I0609 10:12:16.438424 12002 net.cpp:84] Creating Layer conv_stage1_block0_branch2b
I0609 10:12:16.438426 12002 net.cpp:406] conv_stage1_block0_branch2b <- conv_stage1_block0_branch2a
I0609 10:12:16.438441 12002 net.cpp:380] conv_stage1_block0_branch2b -> conv_stage1_block0_branch2b
I0609 10:12:16.438788 12002 net.cpp:122] Setting up conv_stage1_block0_branch2b
I0609 10:12:16.438794 12002 net.cpp:129] Top shape: 7 64 28 28 (351232)
I0609 10:12:16.438796 12002 net.cpp:137] Memory required for data: 472055836
I0609 10:12:16.438800 12002 layer_factory.hpp:77] Creating layer bn_stage1_block0_branch2b
I0609 10:12:16.438807 12002 net.cpp:84] Creating Layer bn_stage1_block0_branch2b
I0609 10:12:16.438809 12002 net.cpp:406] bn_stage1_block0_branch2b <- conv_stage1_block0_branch2b
I0609 10:12:16.438815 12002 net.cpp:367] bn_stage1_block0_branch2b -> conv_stage1_block0_branch2b (in-place)
I0609 10:12:16.438961 12002 net.cpp:122] Setting up bn_stage1_block0_branch2b
I0609 10:12:16.438966 12002 net.cpp:129] Top shape: 7 64 28 28 (351232)
I0609 10:12:16.438968 12002 net.cpp:137] Memory required for data: 473460764
I0609 10:12:16.438973 12002 layer_factory.hpp:77] Creating layer scale_stage1_block0_branch2b
I0609 10:12:16.438978 12002 net.cpp:84] Creating Layer scale_stage1_block0_branch2b
I0609 10:12:16.438982 12002 net.cpp:406] scale_stage1_block0_branch2b <- conv_stage1_block0_branch2b
I0609 10:12:16.438987 12002 net.cpp:367] scale_stage1_block0_branch2b -> conv_stage1_block0_branch2b (in-place)
I0609 10:12:16.439015 12002 layer_factory.hpp:77] Creating layer scale_stage1_block0_branch2b
I0609 10:12:16.439101 12002 net.cpp:122] Setting up scale_stage1_block0_branch2b
I0609 10:12:16.439105 12002 net.cpp:129] Top shape: 7 64 28 28 (351232)
I0609 10:12:16.439107 12002 net.cpp:137] Memory required for data: 474865692
I0609 10:12:16.439111 12002 layer_factory.hpp:77] Creating layer relu_stage1_block0_branch2b
I0609 10:12:16.439118 12002 net.cpp:84] Creating Layer relu_stage1_block0_branch2b
I0609 10:12:16.439121 12002 net.cpp:406] relu_stage1_block0_branch2b <- conv_stage1_block0_branch2b
I0609 10:12:16.439127 12002 net.cpp:367] relu_stage1_block0_branch2b -> conv_stage1_block0_branch2b (in-place)
I0609 10:12:16.439136 12002 net.cpp:122] Setting up relu_stage1_block0_branch2b
I0609 10:12:16.439141 12002 net.cpp:129] Top shape: 7 64 28 28 (351232)
I0609 10:12:16.439144 12002 net.cpp:137] Memory required for data: 476270620
I0609 10:12:16.439148 12002 layer_factory.hpp:77] Creating layer conv_stage1_block0_branch2c
I0609 10:12:16.439160 12002 net.cpp:84] Creating Layer conv_stage1_block0_branch2c
I0609 10:12:16.439164 12002 net.cpp:406] conv_stage1_block0_branch2c <- conv_stage1_block0_branch2b
I0609 10:12:16.439174 12002 net.cpp:380] conv_stage1_block0_branch2c -> conv_stage1_block0_branch2c
I0609 10:12:16.439584 12002 net.cpp:122] Setting up conv_stage1_block0_branch2c
I0609 10:12:16.439592 12002 net.cpp:129] Top shape: 7 256 28 28 (1404928)
I0609 10:12:16.439596 12002 net.cpp:137] Memory required for data: 481890332
I0609 10:12:16.439604 12002 layer_factory.hpp:77] Creating layer bn_stage1_block0_branch2c
I0609 10:12:16.439635 12002 net.cpp:84] Creating Layer bn_stage1_block0_branch2c
I0609 10:12:16.439640 12002 net.cpp:406] bn_stage1_block0_branch2c <- conv_stage1_block0_branch2c
I0609 10:12:16.439646 12002 net.cpp:367] bn_stage1_block0_branch2c -> conv_stage1_block0_branch2c (in-place)
I0609 10:12:16.439837 12002 net.cpp:122] Setting up bn_stage1_block0_branch2c
I0609 10:12:16.439844 12002 net.cpp:129] Top shape: 7 256 28 28 (1404928)
I0609 10:12:16.439847 12002 net.cpp:137] Memory required for data: 487510044
I0609 10:12:16.439853 12002 layer_factory.hpp:77] Creating layer scale_stage1_block0_branch2c
I0609 10:12:16.439860 12002 net.cpp:84] Creating Layer scale_stage1_block0_branch2c
I0609 10:12:16.439863 12002 net.cpp:406] scale_stage1_block0_branch2c <- conv_stage1_block0_branch2c
I0609 10:12:16.439868 12002 net.cpp:367] scale_stage1_block0_branch2c -> conv_stage1_block0_branch2c (in-place)
I0609 10:12:16.439898 12002 layer_factory.hpp:77] Creating layer scale_stage1_block0_branch2c
I0609 10:12:16.439977 12002 net.cpp:122] Setting up scale_stage1_block0_branch2c
I0609 10:12:16.439981 12002 net.cpp:129] Top shape: 7 256 28 28 (1404928)
I0609 10:12:16.439990 12002 net.cpp:137] Memory required for data: 493129756
I0609 10:12:16.439996 12002 layer_factory.hpp:77] Creating layer eltwise_stage1_block0
I0609 10:12:16.440001 12002 net.cpp:84] Creating Layer eltwise_stage1_block0
I0609 10:12:16.440004 12002 net.cpp:406] eltwise_stage1_block0 <- conv_stage1_block0_proj_shortcut
I0609 10:12:16.440008 12002 net.cpp:406] eltwise_stage1_block0 <- conv_stage1_block0_branch2c
I0609 10:12:16.440013 12002 net.cpp:380] eltwise_stage1_block0 -> eltwise_stage1_block0
I0609 10:12:16.440032 12002 net.cpp:122] Setting up eltwise_stage1_block0
I0609 10:12:16.440037 12002 net.cpp:129] Top shape: 7 256 28 28 (1404928)
I0609 10:12:16.440040 12002 net.cpp:137] Memory required for data: 498749468
I0609 10:12:16.440042 12002 layer_factory.hpp:77] Creating layer relu_stage1_block0
I0609 10:12:16.440047 12002 net.cpp:84] Creating Layer relu_stage1_block0
I0609 10:12:16.440049 12002 net.cpp:406] relu_stage1_block0 <- eltwise_stage1_block0
I0609 10:12:16.440054 12002 net.cpp:367] relu_stage1_block0 -> eltwise_stage1_block0 (in-place)
I0609 10:12:16.440058 12002 net.cpp:122] Setting up relu_stage1_block0
I0609 10:12:16.440062 12002 net.cpp:129] Top shape: 7 256 28 28 (1404928)
I0609 10:12:16.440064 12002 net.cpp:137] Memory required for data: 504369180
I0609 10:12:16.440066 12002 layer_factory.hpp:77] Creating layer eltwise_stage1_block0_relu_stage1_block0_0_split
I0609 10:12:16.440070 12002 net.cpp:84] Creating Layer eltwise_stage1_block0_relu_stage1_block0_0_split
I0609 10:12:16.440073 12002 net.cpp:406] eltwise_stage1_block0_relu_stage1_block0_0_split <- eltwise_stage1_block0
I0609 10:12:16.440078 12002 net.cpp:380] eltwise_stage1_block0_relu_stage1_block0_0_split -> eltwise_stage1_block0_relu_stage1_block0_0_split_0
I0609 10:12:16.440083 12002 net.cpp:380] eltwise_stage1_block0_relu_stage1_block0_0_split -> eltwise_stage1_block0_relu_stage1_block0_0_split_1
I0609 10:12:16.440110 12002 net.cpp:122] Setting up eltwise_stage1_block0_relu_stage1_block0_0_split
I0609 10:12:16.440114 12002 net.cpp:129] Top shape: 7 256 28 28 (1404928)
I0609 10:12:16.440117 12002 net.cpp:129] Top shape: 7 256 28 28 (1404928)
I0609 10:12:16.440120 12002 net.cpp:137] Memory required for data: 515608604
I0609 10:12:16.440122 12002 layer_factory.hpp:77] Creating layer conv_stage1_block1_branch2a
I0609 10:12:16.440130 12002 net.cpp:84] Creating Layer conv_stage1_block1_branch2a
I0609 10:12:16.440134 12002 net.cpp:406] conv_stage1_block1_branch2a <- eltwise_stage1_block0_relu_stage1_block0_0_split_0
I0609 10:12:16.440140 12002 net.cpp:380] conv_stage1_block1_branch2a -> conv_stage1_block1_branch2a
I0609 10:12:16.440402 12002 net.cpp:122] Setting up conv_stage1_block1_branch2a
I0609 10:12:16.440408 12002 net.cpp:129] Top shape: 7 64 28 28 (351232)
I0609 10:12:16.440410 12002 net.cpp:137] Memory required for data: 517013532
I0609 10:12:16.440415 12002 layer_factory.hpp:77] Creating layer bn_stage1_block1_branch2a
I0609 10:12:16.440420 12002 net.cpp:84] Creating Layer bn_stage1_block1_branch2a
I0609 10:12:16.440423 12002 net.cpp:406] bn_stage1_block1_branch2a <- conv_stage1_block1_branch2a
I0609 10:12:16.440428 12002 net.cpp:367] bn_stage1_block1_branch2a -> conv_stage1_block1_branch2a (in-place)
I0609 10:12:16.440572 12002 net.cpp:122] Setting up bn_stage1_block1_branch2a
I0609 10:12:16.440577 12002 net.cpp:129] Top shape: 7 64 28 28 (351232)
I0609 10:12:16.440578 12002 net.cpp:137] Memory required for data: 518418460
I0609 10:12:16.440584 12002 layer_factory.hpp:77] Creating layer scale_stage1_block1_branch2a
I0609 10:12:16.440591 12002 net.cpp:84] Creating Layer scale_stage1_block1_branch2a
I0609 10:12:16.440594 12002 net.cpp:406] scale_stage1_block1_branch2a <- conv_stage1_block1_branch2a
I0609 10:12:16.440599 12002 net.cpp:367] scale_stage1_block1_branch2a -> conv_stage1_block1_branch2a (in-place)
I0609 10:12:16.440629 12002 layer_factory.hpp:77] Creating layer scale_stage1_block1_branch2a
I0609 10:12:16.440717 12002 net.cpp:122] Setting up scale_stage1_block1_branch2a
I0609 10:12:16.440728 12002 net.cpp:129] Top shape: 7 64 28 28 (351232)
I0609 10:12:16.440732 12002 net.cpp:137] Memory required for data: 519823388
I0609 10:12:16.440735 12002 layer_factory.hpp:77] Creating layer relu_stage1_block1_branch2a
I0609 10:12:16.440740 12002 net.cpp:84] Creating Layer relu_stage1_block1_branch2a
I0609 10:12:16.440743 12002 net.cpp:406] relu_stage1_block1_branch2a <- conv_stage1_block1_branch2a
I0609 10:12:16.440747 12002 net.cpp:367] relu_stage1_block1_branch2a -> conv_stage1_block1_branch2a (in-place)
I0609 10:12:16.440752 12002 net.cpp:122] Setting up relu_stage1_block1_branch2a
I0609 10:12:16.440755 12002 net.cpp:129] Top shape: 7 64 28 28 (351232)
I0609 10:12:16.440757 12002 net.cpp:137] Memory required for data: 521228316
I0609 10:12:16.440759 12002 layer_factory.hpp:77] Creating layer conv_stage1_block1_branch2b
I0609 10:12:16.440768 12002 net.cpp:84] Creating Layer conv_stage1_block1_branch2b
I0609 10:12:16.440770 12002 net.cpp:406] conv_stage1_block1_branch2b <- conv_stage1_block1_branch2a
I0609 10:12:16.440776 12002 net.cpp:380] conv_stage1_block1_branch2b -> conv_stage1_block1_branch2b
I0609 10:12:16.441362 12002 net.cpp:122] Setting up conv_stage1_block1_branch2b
I0609 10:12:16.441371 12002 net.cpp:129] Top shape: 7 64 28 28 (351232)
I0609 10:12:16.441375 12002 net.cpp:137] Memory required for data: 522633244
I0609 10:12:16.441383 12002 layer_factory.hpp:77] Creating layer bn_stage1_block1_branch2b
I0609 10:12:16.441392 12002 net.cpp:84] Creating Layer bn_stage1_block1_branch2b
I0609 10:12:16.441396 12002 net.cpp:406] bn_stage1_block1_branch2b <- conv_stage1_block1_branch2b
I0609 10:12:16.441403 12002 net.cpp:367] bn_stage1_block1_branch2b -> conv_stage1_block1_branch2b (in-place)
I0609 10:12:16.441586 12002 net.cpp:122] Setting up bn_stage1_block1_branch2b
I0609 10:12:16.441593 12002 net.cpp:129] Top shape: 7 64 28 28 (351232)
I0609 10:12:16.441596 12002 net.cpp:137] Memory required for data: 524038172
I0609 10:12:16.441601 12002 layer_factory.hpp:77] Creating layer scale_stage1_block1_branch2b
I0609 10:12:16.441606 12002 net.cpp:84] Creating Layer scale_stage1_block1_branch2b
I0609 10:12:16.441608 12002 net.cpp:406] scale_stage1_block1_branch2b <- conv_stage1_block1_branch2b
I0609 10:12:16.441613 12002 net.cpp:367] scale_stage1_block1_branch2b -> conv_stage1_block1_branch2b (in-place)
I0609 10:12:16.441645 12002 layer_factory.hpp:77] Creating layer scale_stage1_block1_branch2b
I0609 10:12:16.441732 12002 net.cpp:122] Setting up scale_stage1_block1_branch2b
I0609 10:12:16.441737 12002 net.cpp:129] Top shape: 7 64 28 28 (351232)
I0609 10:12:16.441740 12002 net.cpp:137] Memory required for data: 525443100
I0609 10:12:16.441743 12002 layer_factory.hpp:77] Creating layer relu_stage1_block1_branch2b
I0609 10:12:16.441748 12002 net.cpp:84] Creating Layer relu_stage1_block1_branch2b
I0609 10:12:16.441751 12002 net.cpp:406] relu_stage1_block1_branch2b <- conv_stage1_block1_branch2b
I0609 10:12:16.441754 12002 net.cpp:367] relu_stage1_block1_branch2b -> conv_stage1_block1_branch2b (in-place)
I0609 10:12:16.441761 12002 net.cpp:122] Setting up relu_stage1_block1_branch2b
I0609 10:12:16.441763 12002 net.cpp:129] Top shape: 7 64 28 28 (351232)
I0609 10:12:16.441766 12002 net.cpp:137] Memory required for data: 526848028
I0609 10:12:16.441769 12002 layer_factory.hpp:77] Creating layer conv_stage1_block1_branch2c
I0609 10:12:16.441777 12002 net.cpp:84] Creating Layer conv_stage1_block1_branch2c
I0609 10:12:16.441781 12002 net.cpp:406] conv_stage1_block1_branch2c <- conv_stage1_block1_branch2b
I0609 10:12:16.441785 12002 net.cpp:380] conv_stage1_block1_branch2c -> conv_stage1_block1_branch2c
I0609 10:12:16.442042 12002 net.cpp:122] Setting up conv_stage1_block1_branch2c
I0609 10:12:16.442047 12002 net.cpp:129] Top shape: 7 256 28 28 (1404928)
I0609 10:12:16.442049 12002 net.cpp:137] Memory required for data: 532467740
I0609 10:12:16.442055 12002 layer_factory.hpp:77] Creating layer bn_stage1_block1_branch2c
I0609 10:12:16.442062 12002 net.cpp:84] Creating Layer bn_stage1_block1_branch2c
I0609 10:12:16.442065 12002 net.cpp:406] bn_stage1_block1_branch2c <- conv_stage1_block1_branch2c
I0609 10:12:16.442078 12002 net.cpp:367] bn_stage1_block1_branch2c -> conv_stage1_block1_branch2c (in-place)
I0609 10:12:16.442220 12002 net.cpp:122] Setting up bn_stage1_block1_branch2c
I0609 10:12:16.442225 12002 net.cpp:129] Top shape: 7 256 28 28 (1404928)
I0609 10:12:16.442227 12002 net.cpp:137] Memory required for data: 538087452
I0609 10:12:16.442234 12002 layer_factory.hpp:77] Creating layer scale_stage1_block1_branch2c
I0609 10:12:16.442237 12002 net.cpp:84] Creating Layer scale_stage1_block1_branch2c
I0609 10:12:16.442240 12002 net.cpp:406] scale_stage1_block1_branch2c <- conv_stage1_block1_branch2c
I0609 10:12:16.442243 12002 net.cpp:367] scale_stage1_block1_branch2c -> conv_stage1_block1_branch2c (in-place)
I0609 10:12:16.442279 12002 layer_factory.hpp:77] Creating layer scale_stage1_block1_branch2c
I0609 10:12:16.442360 12002 net.cpp:122] Setting up scale_stage1_block1_branch2c
I0609 10:12:16.442365 12002 net.cpp:129] Top shape: 7 256 28 28 (1404928)
I0609 10:12:16.442368 12002 net.cpp:137] Memory required for data: 543707164
I0609 10:12:16.442373 12002 layer_factory.hpp:77] Creating layer eltwise_stage1_block1
I0609 10:12:16.442376 12002 net.cpp:84] Creating Layer eltwise_stage1_block1
I0609 10:12:16.442379 12002 net.cpp:406] eltwise_stage1_block1 <- eltwise_stage1_block0_relu_stage1_block0_0_split_1
I0609 10:12:16.442384 12002 net.cpp:406] eltwise_stage1_block1 <- conv_stage1_block1_branch2c
I0609 10:12:16.442389 12002 net.cpp:380] eltwise_stage1_block1 -> eltwise_stage1_block1
I0609 10:12:16.442407 12002 net.cpp:122] Setting up eltwise_stage1_block1
I0609 10:12:16.442411 12002 net.cpp:129] Top shape: 7 256 28 28 (1404928)
I0609 10:12:16.442414 12002 net.cpp:137] Memory required for data: 549326876
I0609 10:12:16.442416 12002 layer_factory.hpp:77] Creating layer relu_stage1_block1
I0609 10:12:16.442420 12002 net.cpp:84] Creating Layer relu_stage1_block1
I0609 10:12:16.442422 12002 net.cpp:406] relu_stage1_block1 <- eltwise_stage1_block1
I0609 10:12:16.442426 12002 net.cpp:367] relu_stage1_block1 -> eltwise_stage1_block1 (in-place)
I0609 10:12:16.442430 12002 net.cpp:122] Setting up relu_stage1_block1
I0609 10:12:16.442435 12002 net.cpp:129] Top shape: 7 256 28 28 (1404928)
I0609 10:12:16.442436 12002 net.cpp:137] Memory required for data: 554946588
I0609 10:12:16.442438 12002 layer_factory.hpp:77] Creating layer eltwise_stage1_block1_relu_stage1_block1_0_split
I0609 10:12:16.442442 12002 net.cpp:84] Creating Layer eltwise_stage1_block1_relu_stage1_block1_0_split
I0609 10:12:16.442445 12002 net.cpp:406] eltwise_stage1_block1_relu_stage1_block1_0_split <- eltwise_stage1_block1
I0609 10:12:16.442448 12002 net.cpp:380] eltwise_stage1_block1_relu_stage1_block1_0_split -> eltwise_stage1_block1_relu_stage1_block1_0_split_0
I0609 10:12:16.442454 12002 net.cpp:380] eltwise_stage1_block1_relu_stage1_block1_0_split -> eltwise_stage1_block1_relu_stage1_block1_0_split_1
I0609 10:12:16.442479 12002 net.cpp:122] Setting up eltwise_stage1_block1_relu_stage1_block1_0_split
I0609 10:12:16.442483 12002 net.cpp:129] Top shape: 7 256 28 28 (1404928)
I0609 10:12:16.442487 12002 net.cpp:129] Top shape: 7 256 28 28 (1404928)
I0609 10:12:16.442488 12002 net.cpp:137] Memory required for data: 566186012
I0609 10:12:16.442492 12002 layer_factory.hpp:77] Creating layer conv_stage1_block2_branch2a
I0609 10:12:16.442499 12002 net.cpp:84] Creating Layer conv_stage1_block2_branch2a
I0609 10:12:16.442502 12002 net.cpp:406] conv_stage1_block2_branch2a <- eltwise_stage1_block1_relu_stage1_block1_0_split_0
I0609 10:12:16.442507 12002 net.cpp:380] conv_stage1_block2_branch2a -> conv_stage1_block2_branch2a
I0609 10:12:16.443146 12002 net.cpp:122] Setting up conv_stage1_block2_branch2a
I0609 10:12:16.443156 12002 net.cpp:129] Top shape: 7 64 28 28 (351232)
I0609 10:12:16.443157 12002 net.cpp:137] Memory required for data: 567590940
I0609 10:12:16.443162 12002 layer_factory.hpp:77] Creating layer bn_stage1_block2_branch2a
I0609 10:12:16.443168 12002 net.cpp:84] Creating Layer bn_stage1_block2_branch2a
I0609 10:12:16.443179 12002 net.cpp:406] bn_stage1_block2_branch2a <- conv_stage1_block2_branch2a
I0609 10:12:16.443186 12002 net.cpp:367] bn_stage1_block2_branch2a -> conv_stage1_block2_branch2a (in-place)
I0609 10:12:16.443332 12002 net.cpp:122] Setting up bn_stage1_block2_branch2a
I0609 10:12:16.443336 12002 net.cpp:129] Top shape: 7 64 28 28 (351232)
I0609 10:12:16.443339 12002 net.cpp:137] Memory required for data: 568995868
I0609 10:12:16.443362 12002 layer_factory.hpp:77] Creating layer scale_stage1_block2_branch2a
I0609 10:12:16.443368 12002 net.cpp:84] Creating Layer scale_stage1_block2_branch2a
I0609 10:12:16.443372 12002 net.cpp:406] scale_stage1_block2_branch2a <- conv_stage1_block2_branch2a
I0609 10:12:16.443377 12002 net.cpp:367] scale_stage1_block2_branch2a -> conv_stage1_block2_branch2a (in-place)
I0609 10:12:16.443408 12002 layer_factory.hpp:77] Creating layer scale_stage1_block2_branch2a
I0609 10:12:16.443491 12002 net.cpp:122] Setting up scale_stage1_block2_branch2a
I0609 10:12:16.443497 12002 net.cpp:129] Top shape: 7 64 28 28 (351232)
I0609 10:12:16.443500 12002 net.cpp:137] Memory required for data: 570400796
I0609 10:12:16.443505 12002 layer_factory.hpp:77] Creating layer relu_stage1_block2_branch2a
I0609 10:12:16.443508 12002 net.cpp:84] Creating Layer relu_stage1_block2_branch2a
I0609 10:12:16.443511 12002 net.cpp:406] relu_stage1_block2_branch2a <- conv_stage1_block2_branch2a
I0609 10:12:16.443516 12002 net.cpp:367] relu_stage1_block2_branch2a -> conv_stage1_block2_branch2a (in-place)
I0609 10:12:16.443519 12002 net.cpp:122] Setting up relu_stage1_block2_branch2a
I0609 10:12:16.443522 12002 net.cpp:129] Top shape: 7 64 28 28 (351232)
I0609 10:12:16.443526 12002 net.cpp:137] Memory required for data: 571805724
I0609 10:12:16.443527 12002 layer_factory.hpp:77] Creating layer conv_stage1_block2_branch2b
I0609 10:12:16.443534 12002 net.cpp:84] Creating Layer conv_stage1_block2_branch2b
I0609 10:12:16.443537 12002 net.cpp:406] conv_stage1_block2_branch2b <- conv_stage1_block2_branch2a
I0609 10:12:16.443543 12002 net.cpp:380] conv_stage1_block2_branch2b -> conv_stage1_block2_branch2b
I0609 10:12:16.443898 12002 net.cpp:122] Setting up conv_stage1_block2_branch2b
I0609 10:12:16.443903 12002 net.cpp:129] Top shape: 7 64 28 28 (351232)
I0609 10:12:16.443905 12002 net.cpp:137] Memory required for data: 573210652
I0609 10:12:16.443910 12002 layer_factory.hpp:77] Creating layer bn_stage1_block2_branch2b
I0609 10:12:16.443917 12002 net.cpp:84] Creating Layer bn_stage1_block2_branch2b
I0609 10:12:16.443919 12002 net.cpp:406] bn_stage1_block2_branch2b <- conv_stage1_block2_branch2b
I0609 10:12:16.443923 12002 net.cpp:367] bn_stage1_block2_branch2b -> conv_stage1_block2_branch2b (in-place)
I0609 10:12:16.444095 12002 net.cpp:122] Setting up bn_stage1_block2_branch2b
I0609 10:12:16.444104 12002 net.cpp:129] Top shape: 7 64 28 28 (351232)
I0609 10:12:16.444108 12002 net.cpp:137] Memory required for data: 574615580
I0609 10:12:16.444118 12002 layer_factory.hpp:77] Creating layer scale_stage1_block2_branch2b
I0609 10:12:16.444125 12002 net.cpp:84] Creating Layer scale_stage1_block2_branch2b
I0609 10:12:16.444129 12002 net.cpp:406] scale_stage1_block2_branch2b <- conv_stage1_block2_branch2b
I0609 10:12:16.444139 12002 net.cpp:367] scale_stage1_block2_branch2b -> conv_stage1_block2_branch2b (in-place)
I0609 10:12:16.444182 12002 layer_factory.hpp:77] Creating layer scale_stage1_block2_branch2b
I0609 10:12:16.444314 12002 net.cpp:122] Setting up scale_stage1_block2_branch2b
I0609 10:12:16.444320 12002 net.cpp:129] Top shape: 7 64 28 28 (351232)
I0609 10:12:16.444324 12002 net.cpp:137] Memory required for data: 576020508
I0609 10:12:16.444331 12002 layer_factory.hpp:77] Creating layer relu_stage1_block2_branch2b
I0609 10:12:16.444339 12002 net.cpp:84] Creating Layer relu_stage1_block2_branch2b
I0609 10:12:16.444342 12002 net.cpp:406] relu_stage1_block2_branch2b <- conv_stage1_block2_branch2b
I0609 10:12:16.444350 12002 net.cpp:367] relu_stage1_block2_branch2b -> conv_stage1_block2_branch2b (in-place)
I0609 10:12:16.444366 12002 net.cpp:122] Setting up relu_stage1_block2_branch2b
I0609 10:12:16.444373 12002 net.cpp:129] Top shape: 7 64 28 28 (351232)
I0609 10:12:16.444376 12002 net.cpp:137] Memory required for data: 577425436
I0609 10:12:16.444380 12002 layer_factory.hpp:77] Creating layer conv_stage1_block2_branch2c
I0609 10:12:16.444393 12002 net.cpp:84] Creating Layer conv_stage1_block2_branch2c
I0609 10:12:16.444397 12002 net.cpp:406] conv_stage1_block2_branch2c <- conv_stage1_block2_branch2b
I0609 10:12:16.444406 12002 net.cpp:380] conv_stage1_block2_branch2c -> conv_stage1_block2_branch2c
I0609 10:12:16.444818 12002 net.cpp:122] Setting up conv_stage1_block2_branch2c
I0609 10:12:16.444828 12002 net.cpp:129] Top shape: 7 256 28 28 (1404928)
I0609 10:12:16.444833 12002 net.cpp:137] Memory required for data: 583045148
I0609 10:12:16.444840 12002 layer_factory.hpp:77] Creating layer bn_stage1_block2_branch2c
I0609 10:12:16.444849 12002 net.cpp:84] Creating Layer bn_stage1_block2_branch2c
I0609 10:12:16.444852 12002 net.cpp:406] bn_stage1_block2_branch2c <- conv_stage1_block2_branch2c
I0609 10:12:16.444861 12002 net.cpp:367] bn_stage1_block2_branch2c -> conv_stage1_block2_branch2c (in-place)
I0609 10:12:16.445068 12002 net.cpp:122] Setting up bn_stage1_block2_branch2c
I0609 10:12:16.445076 12002 net.cpp:129] Top shape: 7 256 28 28 (1404928)
I0609 10:12:16.445080 12002 net.cpp:137] Memory required for data: 588664860
I0609 10:12:16.445089 12002 layer_factory.hpp:77] Creating layer scale_stage1_block2_branch2c
I0609 10:12:16.445096 12002 net.cpp:84] Creating Layer scale_stage1_block2_branch2c
I0609 10:12:16.445101 12002 net.cpp:406] scale_stage1_block2_branch2c <- conv_stage1_block2_branch2c
I0609 10:12:16.445106 12002 net.cpp:367] scale_stage1_block2_branch2c -> conv_stage1_block2_branch2c (in-place)
I0609 10:12:16.445149 12002 layer_factory.hpp:77] Creating layer scale_stage1_block2_branch2c
I0609 10:12:16.445269 12002 net.cpp:122] Setting up scale_stage1_block2_branch2c
I0609 10:12:16.445276 12002 net.cpp:129] Top shape: 7 256 28 28 (1404928)
I0609 10:12:16.445281 12002 net.cpp:137] Memory required for data: 594284572
I0609 10:12:16.445288 12002 layer_factory.hpp:77] Creating layer eltwise_stage1_block2
I0609 10:12:16.445297 12002 net.cpp:84] Creating Layer eltwise_stage1_block2
I0609 10:12:16.445300 12002 net.cpp:406] eltwise_stage1_block2 <- eltwise_stage1_block1_relu_stage1_block1_0_split_1
I0609 10:12:16.445307 12002 net.cpp:406] eltwise_stage1_block2 <- conv_stage1_block2_branch2c
I0609 10:12:16.445313 12002 net.cpp:380] eltwise_stage1_block2 -> eltwise_stage1_block2
I0609 10:12:16.445340 12002 net.cpp:122] Setting up eltwise_stage1_block2
I0609 10:12:16.445348 12002 net.cpp:129] Top shape: 7 256 28 28 (1404928)
I0609 10:12:16.445351 12002 net.cpp:137] Memory required for data: 599904284
I0609 10:12:16.445355 12002 layer_factory.hpp:77] Creating layer relu_stage1_block2
I0609 10:12:16.445363 12002 net.cpp:84] Creating Layer relu_stage1_block2
I0609 10:12:16.445367 12002 net.cpp:406] relu_stage1_block2 <- eltwise_stage1_block2
I0609 10:12:16.445376 12002 net.cpp:367] relu_stage1_block2 -> eltwise_stage1_block2 (in-place)
I0609 10:12:16.445385 12002 net.cpp:122] Setting up relu_stage1_block2
I0609 10:12:16.445400 12002 net.cpp:129] Top shape: 7 256 28 28 (1404928)
I0609 10:12:16.445405 12002 net.cpp:137] Memory required for data: 605523996
I0609 10:12:16.445408 12002 layer_factory.hpp:77] Creating layer eltwise_stage1_block2_relu_stage1_block2_0_split
I0609 10:12:16.445415 12002 net.cpp:84] Creating Layer eltwise_stage1_block2_relu_stage1_block2_0_split
I0609 10:12:16.445418 12002 net.cpp:406] eltwise_stage1_block2_relu_stage1_block2_0_split <- eltwise_stage1_block2
I0609 10:12:16.445426 12002 net.cpp:380] eltwise_stage1_block2_relu_stage1_block2_0_split -> eltwise_stage1_block2_relu_stage1_block2_0_split_0
I0609 10:12:16.445436 12002 net.cpp:380] eltwise_stage1_block2_relu_stage1_block2_0_split -> eltwise_stage1_block2_relu_stage1_block2_0_split_1
I0609 10:12:16.445497 12002 net.cpp:122] Setting up eltwise_stage1_block2_relu_stage1_block2_0_split
I0609 10:12:16.445514 12002 net.cpp:129] Top shape: 7 256 28 28 (1404928)
I0609 10:12:16.445520 12002 net.cpp:129] Top shape: 7 256 28 28 (1404928)
I0609 10:12:16.445523 12002 net.cpp:137] Memory required for data: 616763420
I0609 10:12:16.445528 12002 layer_factory.hpp:77] Creating layer conv_stage1_block3_branch2a
I0609 10:12:16.445539 12002 net.cpp:84] Creating Layer conv_stage1_block3_branch2a
I0609 10:12:16.445544 12002 net.cpp:406] conv_stage1_block3_branch2a <- eltwise_stage1_block2_relu_stage1_block2_0_split_0
I0609 10:12:16.445551 12002 net.cpp:380] conv_stage1_block3_branch2a -> conv_stage1_block3_branch2a
I0609 10:12:16.445957 12002 net.cpp:122] Setting up conv_stage1_block3_branch2a
I0609 10:12:16.445966 12002 net.cpp:129] Top shape: 7 64 28 28 (351232)
I0609 10:12:16.445969 12002 net.cpp:137] Memory required for data: 618168348
I0609 10:12:16.445976 12002 layer_factory.hpp:77] Creating layer bn_stage1_block3_branch2a
I0609 10:12:16.445984 12002 net.cpp:84] Creating Layer bn_stage1_block3_branch2a
I0609 10:12:16.445988 12002 net.cpp:406] bn_stage1_block3_branch2a <- conv_stage1_block3_branch2a
I0609 10:12:16.445997 12002 net.cpp:367] bn_stage1_block3_branch2a -> conv_stage1_block3_branch2a (in-place)
I0609 10:12:16.446190 12002 net.cpp:122] Setting up bn_stage1_block3_branch2a
I0609 10:12:16.446197 12002 net.cpp:129] Top shape: 7 64 28 28 (351232)
I0609 10:12:16.446199 12002 net.cpp:137] Memory required for data: 619573276
I0609 10:12:16.446205 12002 layer_factory.hpp:77] Creating layer scale_stage1_block3_branch2a
I0609 10:12:16.446211 12002 net.cpp:84] Creating Layer scale_stage1_block3_branch2a
I0609 10:12:16.446213 12002 net.cpp:406] scale_stage1_block3_branch2a <- conv_stage1_block3_branch2a
I0609 10:12:16.446218 12002 net.cpp:367] scale_stage1_block3_branch2a -> conv_stage1_block3_branch2a (in-place)
I0609 10:12:16.446249 12002 layer_factory.hpp:77] Creating layer scale_stage1_block3_branch2a
I0609 10:12:16.446363 12002 net.cpp:122] Setting up scale_stage1_block3_branch2a
I0609 10:12:16.446369 12002 net.cpp:129] Top shape: 7 64 28 28 (351232)
I0609 10:12:16.446372 12002 net.cpp:137] Memory required for data: 620978204
I0609 10:12:16.446375 12002 layer_factory.hpp:77] Creating layer relu_stage1_block3_branch2a
I0609 10:12:16.446382 12002 net.cpp:84] Creating Layer relu_stage1_block3_branch2a
I0609 10:12:16.446383 12002 net.cpp:406] relu_stage1_block3_branch2a <- conv_stage1_block3_branch2a
I0609 10:12:16.446388 12002 net.cpp:367] relu_stage1_block3_branch2a -> conv_stage1_block3_branch2a (in-place)
I0609 10:12:16.446393 12002 net.cpp:122] Setting up relu_stage1_block3_branch2a
I0609 10:12:16.446396 12002 net.cpp:129] Top shape: 7 64 28 28 (351232)
I0609 10:12:16.446398 12002 net.cpp:137] Memory required for data: 622383132
I0609 10:12:16.446400 12002 layer_factory.hpp:77] Creating layer conv_stage1_block3_branch2b
I0609 10:12:16.446408 12002 net.cpp:84] Creating Layer conv_stage1_block3_branch2b
I0609 10:12:16.446409 12002 net.cpp:406] conv_stage1_block3_branch2b <- conv_stage1_block3_branch2a
I0609 10:12:16.446415 12002 net.cpp:380] conv_stage1_block3_branch2b -> conv_stage1_block3_branch2b
I0609 10:12:16.446758 12002 net.cpp:122] Setting up conv_stage1_block3_branch2b
I0609 10:12:16.446763 12002 net.cpp:129] Top shape: 7 64 28 28 (351232)
I0609 10:12:16.446764 12002 net.cpp:137] Memory required for data: 623788060
I0609 10:12:16.446768 12002 layer_factory.hpp:77] Creating layer bn_stage1_block3_branch2b
I0609 10:12:16.446775 12002 net.cpp:84] Creating Layer bn_stage1_block3_branch2b
I0609 10:12:16.446777 12002 net.cpp:406] bn_stage1_block3_branch2b <- conv_stage1_block3_branch2b
I0609 10:12:16.446782 12002 net.cpp:367] bn_stage1_block3_branch2b -> conv_stage1_block3_branch2b (in-place)
I0609 10:12:16.446923 12002 net.cpp:122] Setting up bn_stage1_block3_branch2b
I0609 10:12:16.446928 12002 net.cpp:129] Top shape: 7 64 28 28 (351232)
I0609 10:12:16.446930 12002 net.cpp:137] Memory required for data: 625192988
I0609 10:12:16.446935 12002 layer_factory.hpp:77] Creating layer scale_stage1_block3_branch2b
I0609 10:12:16.446947 12002 net.cpp:84] Creating Layer scale_stage1_block3_branch2b
I0609 10:12:16.446950 12002 net.cpp:406] scale_stage1_block3_branch2b <- conv_stage1_block3_branch2b
I0609 10:12:16.446954 12002 net.cpp:367] scale_stage1_block3_branch2b -> conv_stage1_block3_branch2b (in-place)
I0609 10:12:16.446985 12002 layer_factory.hpp:77] Creating layer scale_stage1_block3_branch2b
I0609 10:12:16.447069 12002 net.cpp:122] Setting up scale_stage1_block3_branch2b
I0609 10:12:16.447074 12002 net.cpp:129] Top shape: 7 64 28 28 (351232)
I0609 10:12:16.447077 12002 net.cpp:137] Memory required for data: 626597916
I0609 10:12:16.447080 12002 layer_factory.hpp:77] Creating layer relu_stage1_block3_branch2b
I0609 10:12:16.447085 12002 net.cpp:84] Creating Layer relu_stage1_block3_branch2b
I0609 10:12:16.447088 12002 net.cpp:406] relu_stage1_block3_branch2b <- conv_stage1_block3_branch2b
I0609 10:12:16.447091 12002 net.cpp:367] relu_stage1_block3_branch2b -> conv_stage1_block3_branch2b (in-place)
I0609 10:12:16.447095 12002 net.cpp:122] Setting up relu_stage1_block3_branch2b
I0609 10:12:16.447099 12002 net.cpp:129] Top shape: 7 64 28 28 (351232)
I0609 10:12:16.447101 12002 net.cpp:137] Memory required for data: 628002844
I0609 10:12:16.447103 12002 layer_factory.hpp:77] Creating layer conv_stage1_block3_branch2c
I0609 10:12:16.447110 12002 net.cpp:84] Creating Layer conv_stage1_block3_branch2c
I0609 10:12:16.447113 12002 net.cpp:406] conv_stage1_block3_branch2c <- conv_stage1_block3_branch2b
I0609 10:12:16.447118 12002 net.cpp:380] conv_stage1_block3_branch2c -> conv_stage1_block3_branch2c
I0609 10:12:16.447495 12002 net.cpp:122] Setting up conv_stage1_block3_branch2c
I0609 10:12:16.447504 12002 net.cpp:129] Top shape: 7 256 28 28 (1404928)
I0609 10:12:16.447508 12002 net.cpp:137] Memory required for data: 633622556
I0609 10:12:16.447515 12002 layer_factory.hpp:77] Creating layer bn_stage1_block3_branch2c
I0609 10:12:16.447525 12002 net.cpp:84] Creating Layer bn_stage1_block3_branch2c
I0609 10:12:16.447528 12002 net.cpp:406] bn_stage1_block3_branch2c <- conv_stage1_block3_branch2c
I0609 10:12:16.447535 12002 net.cpp:367] bn_stage1_block3_branch2c -> conv_stage1_block3_branch2c (in-place)
I0609 10:12:16.447737 12002 net.cpp:122] Setting up bn_stage1_block3_branch2c
I0609 10:12:16.447746 12002 net.cpp:129] Top shape: 7 256 28 28 (1404928)
I0609 10:12:16.447749 12002 net.cpp:137] Memory required for data: 639242268
I0609 10:12:16.447758 12002 layer_factory.hpp:77] Creating layer scale_stage1_block3_branch2c
I0609 10:12:16.447767 12002 net.cpp:84] Creating Layer scale_stage1_block3_branch2c
I0609 10:12:16.447770 12002 net.cpp:406] scale_stage1_block3_branch2c <- conv_stage1_block3_branch2c
I0609 10:12:16.447777 12002 net.cpp:367] scale_stage1_block3_branch2c -> conv_stage1_block3_branch2c (in-place)
I0609 10:12:16.447819 12002 layer_factory.hpp:77] Creating layer scale_stage1_block3_branch2c
I0609 10:12:16.447963 12002 net.cpp:122] Setting up scale_stage1_block3_branch2c
I0609 10:12:16.447973 12002 net.cpp:129] Top shape: 7 256 28 28 (1404928)
I0609 10:12:16.447975 12002 net.cpp:137] Memory required for data: 644861980
I0609 10:12:16.447983 12002 layer_factory.hpp:77] Creating layer eltwise_stage1_block3
I0609 10:12:16.447991 12002 net.cpp:84] Creating Layer eltwise_stage1_block3
I0609 10:12:16.447996 12002 net.cpp:406] eltwise_stage1_block3 <- eltwise_stage1_block2_relu_stage1_block2_0_split_1
I0609 10:12:16.448001 12002 net.cpp:406] eltwise_stage1_block3 <- conv_stage1_block3_branch2c
I0609 10:12:16.448009 12002 net.cpp:380] eltwise_stage1_block3 -> eltwise_stage1_block3
I0609 10:12:16.448035 12002 net.cpp:122] Setting up eltwise_stage1_block3
I0609 10:12:16.448041 12002 net.cpp:129] Top shape: 7 256 28 28 (1404928)
I0609 10:12:16.448045 12002 net.cpp:137] Memory required for data: 650481692
I0609 10:12:16.448048 12002 layer_factory.hpp:77] Creating layer relu_stage1_block3
I0609 10:12:16.448056 12002 net.cpp:84] Creating Layer relu_stage1_block3
I0609 10:12:16.448061 12002 net.cpp:406] relu_stage1_block3 <- eltwise_stage1_block3
I0609 10:12:16.448077 12002 net.cpp:367] relu_stage1_block3 -> eltwise_stage1_block3 (in-place)
I0609 10:12:16.448086 12002 net.cpp:122] Setting up relu_stage1_block3
I0609 10:12:16.448093 12002 net.cpp:129] Top shape: 7 256 28 28 (1404928)
I0609 10:12:16.448096 12002 net.cpp:137] Memory required for data: 656101404
I0609 10:12:16.448101 12002 layer_factory.hpp:77] Creating layer eltwise_stage1_block3_relu_stage1_block3_0_split
I0609 10:12:16.448112 12002 net.cpp:84] Creating Layer eltwise_stage1_block3_relu_stage1_block3_0_split
I0609 10:12:16.448115 12002 net.cpp:406] eltwise_stage1_block3_relu_stage1_block3_0_split <- eltwise_stage1_block3
I0609 10:12:16.448122 12002 net.cpp:380] eltwise_stage1_block3_relu_stage1_block3_0_split -> eltwise_stage1_block3_relu_stage1_block3_0_split_0
I0609 10:12:16.448132 12002 net.cpp:380] eltwise_stage1_block3_relu_stage1_block3_0_split -> eltwise_stage1_block3_relu_stage1_block3_0_split_1
I0609 10:12:16.448170 12002 net.cpp:122] Setting up eltwise_stage1_block3_relu_stage1_block3_0_split
I0609 10:12:16.448177 12002 net.cpp:129] Top shape: 7 256 28 28 (1404928)
I0609 10:12:16.448184 12002 net.cpp:129] Top shape: 7 256 28 28 (1404928)
I0609 10:12:16.448187 12002 net.cpp:137] Memory required for data: 667340828
I0609 10:12:16.448191 12002 layer_factory.hpp:77] Creating layer conv_stage2_block0_proj_shortcut
I0609 10:12:16.448205 12002 net.cpp:84] Creating Layer conv_stage2_block0_proj_shortcut
I0609 10:12:16.448210 12002 net.cpp:406] conv_stage2_block0_proj_shortcut <- eltwise_stage1_block3_relu_stage1_block3_0_split_0
I0609 10:12:16.448220 12002 net.cpp:380] conv_stage2_block0_proj_shortcut -> conv_stage2_block0_proj_shortcut
I0609 10:12:16.450012 12002 net.cpp:122] Setting up conv_stage2_block0_proj_shortcut
I0609 10:12:16.450021 12002 net.cpp:129] Top shape: 7 512 14 14 (702464)
I0609 10:12:16.450024 12002 net.cpp:137] Memory required for data: 670150684
I0609 10:12:16.450029 12002 layer_factory.hpp:77] Creating layer bn_stage2_block0_proj_shortcut
I0609 10:12:16.450037 12002 net.cpp:84] Creating Layer bn_stage2_block0_proj_shortcut
I0609 10:12:16.450039 12002 net.cpp:406] bn_stage2_block0_proj_shortcut <- conv_stage2_block0_proj_shortcut
I0609 10:12:16.450045 12002 net.cpp:367] bn_stage2_block0_proj_shortcut -> conv_stage2_block0_proj_shortcut (in-place)
I0609 10:12:16.450219 12002 net.cpp:122] Setting up bn_stage2_block0_proj_shortcut
I0609 10:12:16.450228 12002 net.cpp:129] Top shape: 7 512 14 14 (702464)
I0609 10:12:16.450232 12002 net.cpp:137] Memory required for data: 672960540
I0609 10:12:16.450242 12002 layer_factory.hpp:77] Creating layer scale_stage2_block0_proj_shortcut
I0609 10:12:16.450249 12002 net.cpp:84] Creating Layer scale_stage2_block0_proj_shortcut
I0609 10:12:16.450270 12002 net.cpp:406] scale_stage2_block0_proj_shortcut <- conv_stage2_block0_proj_shortcut
I0609 10:12:16.450280 12002 net.cpp:367] scale_stage2_block0_proj_shortcut -> conv_stage2_block0_proj_shortcut (in-place)
I0609 10:12:16.450331 12002 layer_factory.hpp:77] Creating layer scale_stage2_block0_proj_shortcut
I0609 10:12:16.450459 12002 net.cpp:122] Setting up scale_stage2_block0_proj_shortcut
I0609 10:12:16.450466 12002 net.cpp:129] Top shape: 7 512 14 14 (702464)
I0609 10:12:16.450470 12002 net.cpp:137] Memory required for data: 675770396
I0609 10:12:16.450477 12002 layer_factory.hpp:77] Creating layer conv_stage2_block0_branch2a
I0609 10:12:16.450490 12002 net.cpp:84] Creating Layer conv_stage2_block0_branch2a
I0609 10:12:16.450495 12002 net.cpp:406] conv_stage2_block0_branch2a <- eltwise_stage1_block3_relu_stage1_block3_0_split_1
I0609 10:12:16.450505 12002 net.cpp:380] conv_stage2_block0_branch2a -> conv_stage2_block0_branch2a
I0609 10:12:16.451082 12002 net.cpp:122] Setting up conv_stage2_block0_branch2a
I0609 10:12:16.451092 12002 net.cpp:129] Top shape: 7 128 14 14 (175616)
I0609 10:12:16.451097 12002 net.cpp:137] Memory required for data: 676472860
I0609 10:12:16.451103 12002 layer_factory.hpp:77] Creating layer bn_stage2_block0_branch2a
I0609 10:12:16.451124 12002 net.cpp:84] Creating Layer bn_stage2_block0_branch2a
I0609 10:12:16.451129 12002 net.cpp:406] bn_stage2_block0_branch2a <- conv_stage2_block0_branch2a
I0609 10:12:16.451138 12002 net.cpp:367] bn_stage2_block0_branch2a -> conv_stage2_block0_branch2a (in-place)
I0609 10:12:16.451339 12002 net.cpp:122] Setting up bn_stage2_block0_branch2a
I0609 10:12:16.451345 12002 net.cpp:129] Top shape: 7 128 14 14 (175616)
I0609 10:12:16.451349 12002 net.cpp:137] Memory required for data: 677175324
I0609 10:12:16.451359 12002 layer_factory.hpp:77] Creating layer scale_stage2_block0_branch2a
I0609 10:12:16.451367 12002 net.cpp:84] Creating Layer scale_stage2_block0_branch2a
I0609 10:12:16.451371 12002 net.cpp:406] scale_stage2_block0_branch2a <- conv_stage2_block0_branch2a
I0609 10:12:16.451378 12002 net.cpp:367] scale_stage2_block0_branch2a -> conv_stage2_block0_branch2a (in-place)
I0609 10:12:16.451421 12002 layer_factory.hpp:77] Creating layer scale_stage2_block0_branch2a
I0609 10:12:16.451548 12002 net.cpp:122] Setting up scale_stage2_block0_branch2a
I0609 10:12:16.451555 12002 net.cpp:129] Top shape: 7 128 14 14 (175616)
I0609 10:12:16.451557 12002 net.cpp:137] Memory required for data: 677877788
I0609 10:12:16.451572 12002 layer_factory.hpp:77] Creating layer relu_stage2_block0_branch2a
I0609 10:12:16.451578 12002 net.cpp:84] Creating Layer relu_stage2_block0_branch2a
I0609 10:12:16.451581 12002 net.cpp:406] relu_stage2_block0_branch2a <- conv_stage2_block0_branch2a
I0609 10:12:16.451586 12002 net.cpp:367] relu_stage2_block0_branch2a -> conv_stage2_block0_branch2a (in-place)
I0609 10:12:16.451591 12002 net.cpp:122] Setting up relu_stage2_block0_branch2a
I0609 10:12:16.451594 12002 net.cpp:129] Top shape: 7 128 14 14 (175616)
I0609 10:12:16.451596 12002 net.cpp:137] Memory required for data: 678580252
I0609 10:12:16.451598 12002 layer_factory.hpp:77] Creating layer conv_stage2_block0_branch2b
I0609 10:12:16.451606 12002 net.cpp:84] Creating Layer conv_stage2_block0_branch2b
I0609 10:12:16.451607 12002 net.cpp:406] conv_stage2_block0_branch2b <- conv_stage2_block0_branch2a
I0609 10:12:16.451613 12002 net.cpp:380] conv_stage2_block0_branch2b -> conv_stage2_block0_branch2b
I0609 10:12:16.453161 12002 net.cpp:122] Setting up conv_stage2_block0_branch2b
I0609 10:12:16.453172 12002 net.cpp:129] Top shape: 7 128 14 14 (175616)
I0609 10:12:16.453176 12002 net.cpp:137] Memory required for data: 679282716
I0609 10:12:16.453184 12002 layer_factory.hpp:77] Creating layer bn_stage2_block0_branch2b
I0609 10:12:16.453193 12002 net.cpp:84] Creating Layer bn_stage2_block0_branch2b
I0609 10:12:16.453198 12002 net.cpp:406] bn_stage2_block0_branch2b <- conv_stage2_block0_branch2b
I0609 10:12:16.453205 12002 net.cpp:367] bn_stage2_block0_branch2b -> conv_stage2_block0_branch2b (in-place)
I0609 10:12:16.453377 12002 net.cpp:122] Setting up bn_stage2_block0_branch2b
I0609 10:12:16.453382 12002 net.cpp:129] Top shape: 7 128 14 14 (175616)
I0609 10:12:16.453384 12002 net.cpp:137] Memory required for data: 679985180
I0609 10:12:16.453390 12002 layer_factory.hpp:77] Creating layer scale_stage2_block0_branch2b
I0609 10:12:16.453395 12002 net.cpp:84] Creating Layer scale_stage2_block0_branch2b
I0609 10:12:16.453397 12002 net.cpp:406] scale_stage2_block0_branch2b <- conv_stage2_block0_branch2b
I0609 10:12:16.453402 12002 net.cpp:367] scale_stage2_block0_branch2b -> conv_stage2_block0_branch2b (in-place)
I0609 10:12:16.453433 12002 layer_factory.hpp:77] Creating layer scale_stage2_block0_branch2b
I0609 10:12:16.453511 12002 net.cpp:122] Setting up scale_stage2_block0_branch2b
I0609 10:12:16.453516 12002 net.cpp:129] Top shape: 7 128 14 14 (175616)
I0609 10:12:16.453518 12002 net.cpp:137] Memory required for data: 680687644
I0609 10:12:16.453523 12002 layer_factory.hpp:77] Creating layer relu_stage2_block0_branch2b
I0609 10:12:16.453527 12002 net.cpp:84] Creating Layer relu_stage2_block0_branch2b
I0609 10:12:16.453531 12002 net.cpp:406] relu_stage2_block0_branch2b <- conv_stage2_block0_branch2b
I0609 10:12:16.453536 12002 net.cpp:367] relu_stage2_block0_branch2b -> conv_stage2_block0_branch2b (in-place)
I0609 10:12:16.454713 12002 net.cpp:122] Setting up relu_stage2_block0_branch2b
I0609 10:12:16.454720 12002 net.cpp:129] Top shape: 7 128 14 14 (175616)
I0609 10:12:16.454722 12002 net.cpp:137] Memory required for data: 681390108
I0609 10:12:16.454725 12002 layer_factory.hpp:77] Creating layer conv_stage2_block0_branch2c
I0609 10:12:16.454735 12002 net.cpp:84] Creating Layer conv_stage2_block0_branch2c
I0609 10:12:16.454738 12002 net.cpp:406] conv_stage2_block0_branch2c <- conv_stage2_block0_branch2b
I0609 10:12:16.454743 12002 net.cpp:380] conv_stage2_block0_branch2c -> conv_stage2_block0_branch2c
I0609 10:12:16.455708 12002 net.cpp:122] Setting up conv_stage2_block0_branch2c
I0609 10:12:16.455718 12002 net.cpp:129] Top shape: 7 512 14 14 (702464)
I0609 10:12:16.455723 12002 net.cpp:137] Memory required for data: 684199964
I0609 10:12:16.455732 12002 layer_factory.hpp:77] Creating layer bn_stage2_block0_branch2c
I0609 10:12:16.455744 12002 net.cpp:84] Creating Layer bn_stage2_block0_branch2c
I0609 10:12:16.455749 12002 net.cpp:406] bn_stage2_block0_branch2c <- conv_stage2_block0_branch2c
I0609 10:12:16.455760 12002 net.cpp:367] bn_stage2_block0_branch2c -> conv_stage2_block0_branch2c (in-place)
I0609 10:12:16.455976 12002 net.cpp:122] Setting up bn_stage2_block0_branch2c
I0609 10:12:16.455984 12002 net.cpp:129] Top shape: 7 512 14 14 (702464)
I0609 10:12:16.455988 12002 net.cpp:137] Memory required for data: 687009820
I0609 10:12:16.455997 12002 layer_factory.hpp:77] Creating layer scale_stage2_block0_branch2c
I0609 10:12:16.456005 12002 net.cpp:84] Creating Layer scale_stage2_block0_branch2c
I0609 10:12:16.456009 12002 net.cpp:406] scale_stage2_block0_branch2c <- conv_stage2_block0_branch2c
I0609 10:12:16.456017 12002 net.cpp:367] scale_stage2_block0_branch2c -> conv_stage2_block0_branch2c (in-place)
I0609 10:12:16.456059 12002 layer_factory.hpp:77] Creating layer scale_stage2_block0_branch2c
I0609 10:12:16.456183 12002 net.cpp:122] Setting up scale_stage2_block0_branch2c
I0609 10:12:16.456192 12002 net.cpp:129] Top shape: 7 512 14 14 (702464)
I0609 10:12:16.456195 12002 net.cpp:137] Memory required for data: 689819676
I0609 10:12:16.456202 12002 layer_factory.hpp:77] Creating layer eltwise_stage2_block0
I0609 10:12:16.456212 12002 net.cpp:84] Creating Layer eltwise_stage2_block0
I0609 10:12:16.456215 12002 net.cpp:406] eltwise_stage2_block0 <- conv_stage2_block0_proj_shortcut
I0609 10:12:16.456221 12002 net.cpp:406] eltwise_stage2_block0 <- conv_stage2_block0_branch2c
I0609 10:12:16.456228 12002 net.cpp:380] eltwise_stage2_block0 -> eltwise_stage2_block0
I0609 10:12:16.456257 12002 net.cpp:122] Setting up eltwise_stage2_block0
I0609 10:12:16.456265 12002 net.cpp:129] Top shape: 7 512 14 14 (702464)
I0609 10:12:16.456269 12002 net.cpp:137] Memory required for data: 692629532
I0609 10:12:16.456272 12002 layer_factory.hpp:77] Creating layer relu_stage2_block0
I0609 10:12:16.456280 12002 net.cpp:84] Creating Layer relu_stage2_block0
I0609 10:12:16.456284 12002 net.cpp:406] relu_stage2_block0 <- eltwise_stage2_block0
I0609 10:12:16.456291 12002 net.cpp:367] relu_stage2_block0 -> eltwise_stage2_block0 (in-place)
I0609 10:12:16.456300 12002 net.cpp:122] Setting up relu_stage2_block0
I0609 10:12:16.456305 12002 net.cpp:129] Top shape: 7 512 14 14 (702464)
I0609 10:12:16.456310 12002 net.cpp:137] Memory required for data: 695439388
I0609 10:12:16.456313 12002 layer_factory.hpp:77] Creating layer eltwise_stage2_block0_relu_stage2_block0_0_split
I0609 10:12:16.456320 12002 net.cpp:84] Creating Layer eltwise_stage2_block0_relu_stage2_block0_0_split
I0609 10:12:16.456323 12002 net.cpp:406] eltwise_stage2_block0_relu_stage2_block0_0_split <- eltwise_stage2_block0
I0609 10:12:16.456332 12002 net.cpp:380] eltwise_stage2_block0_relu_stage2_block0_0_split -> eltwise_stage2_block0_relu_stage2_block0_0_split_0
I0609 10:12:16.456341 12002 net.cpp:380] eltwise_stage2_block0_relu_stage2_block0_0_split -> eltwise_stage2_block0_relu_stage2_block0_0_split_1
I0609 10:12:16.456393 12002 net.cpp:122] Setting up eltwise_stage2_block0_relu_stage2_block0_0_split
I0609 10:12:16.456401 12002 net.cpp:129] Top shape: 7 512 14 14 (702464)
I0609 10:12:16.456408 12002 net.cpp:129] Top shape: 7 512 14 14 (702464)
I0609 10:12:16.456411 12002 net.cpp:137] Memory required for data: 701059100
I0609 10:12:16.456415 12002 layer_factory.hpp:77] Creating layer conv_stage2_block1_branch2a
I0609 10:12:16.456471 12002 net.cpp:84] Creating Layer conv_stage2_block1_branch2a
I0609 10:12:16.456476 12002 net.cpp:406] conv_stage2_block1_branch2a <- eltwise_stage2_block0_relu_stage2_block0_0_split_0
I0609 10:12:16.456483 12002 net.cpp:380] conv_stage2_block1_branch2a -> conv_stage2_block1_branch2a
I0609 10:12:16.457058 12002 net.cpp:122] Setting up conv_stage2_block1_branch2a
I0609 10:12:16.457065 12002 net.cpp:129] Top shape: 7 128 14 14 (175616)
I0609 10:12:16.457068 12002 net.cpp:137] Memory required for data: 701761564
I0609 10:12:16.457073 12002 layer_factory.hpp:77] Creating layer bn_stage2_block1_branch2a
I0609 10:12:16.457080 12002 net.cpp:84] Creating Layer bn_stage2_block1_branch2a
I0609 10:12:16.457083 12002 net.cpp:406] bn_stage2_block1_branch2a <- conv_stage2_block1_branch2a
I0609 10:12:16.457087 12002 net.cpp:367] bn_stage2_block1_branch2a -> conv_stage2_block1_branch2a (in-place)
I0609 10:12:16.457228 12002 net.cpp:122] Setting up bn_stage2_block1_branch2a
I0609 10:12:16.457233 12002 net.cpp:129] Top shape: 7 128 14 14 (175616)
I0609 10:12:16.457235 12002 net.cpp:137] Memory required for data: 702464028
I0609 10:12:16.457242 12002 layer_factory.hpp:77] Creating layer scale_stage2_block1_branch2a
I0609 10:12:16.457247 12002 net.cpp:84] Creating Layer scale_stage2_block1_branch2a
I0609 10:12:16.457249 12002 net.cpp:406] scale_stage2_block1_branch2a <- conv_stage2_block1_branch2a
I0609 10:12:16.457254 12002 net.cpp:367] scale_stage2_block1_branch2a -> conv_stage2_block1_branch2a (in-place)
I0609 10:12:16.457285 12002 layer_factory.hpp:77] Creating layer scale_stage2_block1_branch2a
I0609 10:12:16.457365 12002 net.cpp:122] Setting up scale_stage2_block1_branch2a
I0609 10:12:16.457370 12002 net.cpp:129] Top shape: 7 128 14 14 (175616)
I0609 10:12:16.457371 12002 net.cpp:137] Memory required for data: 703166492
I0609 10:12:16.457376 12002 layer_factory.hpp:77] Creating layer relu_stage2_block1_branch2a
I0609 10:12:16.457381 12002 net.cpp:84] Creating Layer relu_stage2_block1_branch2a
I0609 10:12:16.457384 12002 net.cpp:406] relu_stage2_block1_branch2a <- conv_stage2_block1_branch2a
I0609 10:12:16.457388 12002 net.cpp:367] relu_stage2_block1_branch2a -> conv_stage2_block1_branch2a (in-place)
I0609 10:12:16.457392 12002 net.cpp:122] Setting up relu_stage2_block1_branch2a
I0609 10:12:16.457396 12002 net.cpp:129] Top shape: 7 128 14 14 (175616)
I0609 10:12:16.457398 12002 net.cpp:137] Memory required for data: 703868956
I0609 10:12:16.457401 12002 layer_factory.hpp:77] Creating layer conv_stage2_block1_branch2b
I0609 10:12:16.457407 12002 net.cpp:84] Creating Layer conv_stage2_block1_branch2b
I0609 10:12:16.457410 12002 net.cpp:406] conv_stage2_block1_branch2b <- conv_stage2_block1_branch2a
I0609 10:12:16.457415 12002 net.cpp:380] conv_stage2_block1_branch2b -> conv_stage2_block1_branch2b
I0609 10:12:16.458938 12002 net.cpp:122] Setting up conv_stage2_block1_branch2b
I0609 10:12:16.458948 12002 net.cpp:129] Top shape: 7 128 14 14 (175616)
I0609 10:12:16.458951 12002 net.cpp:137] Memory required for data: 704571420
I0609 10:12:16.458956 12002 layer_factory.hpp:77] Creating layer bn_stage2_block1_branch2b
I0609 10:12:16.458963 12002 net.cpp:84] Creating Layer bn_stage2_block1_branch2b
I0609 10:12:16.458966 12002 net.cpp:406] bn_stage2_block1_branch2b <- conv_stage2_block1_branch2b
I0609 10:12:16.458971 12002 net.cpp:367] bn_stage2_block1_branch2b -> conv_stage2_block1_branch2b (in-place)
I0609 10:12:16.459117 12002 net.cpp:122] Setting up bn_stage2_block1_branch2b
I0609 10:12:16.459122 12002 net.cpp:129] Top shape: 7 128 14 14 (175616)
I0609 10:12:16.459125 12002 net.cpp:137] Memory required for data: 705273884
I0609 10:12:16.459141 12002 layer_factory.hpp:77] Creating layer scale_stage2_block1_branch2b
I0609 10:12:16.459146 12002 net.cpp:84] Creating Layer scale_stage2_block1_branch2b
I0609 10:12:16.459148 12002 net.cpp:406] scale_stage2_block1_branch2b <- conv_stage2_block1_branch2b
I0609 10:12:16.459152 12002 net.cpp:367] scale_stage2_block1_branch2b -> conv_stage2_block1_branch2b (in-place)
I0609 10:12:16.459187 12002 layer_factory.hpp:77] Creating layer scale_stage2_block1_branch2b
I0609 10:12:16.459316 12002 net.cpp:122] Setting up scale_stage2_block1_branch2b
I0609 10:12:16.459324 12002 net.cpp:129] Top shape: 7 128 14 14 (175616)
I0609 10:12:16.459328 12002 net.cpp:137] Memory required for data: 705976348
I0609 10:12:16.459336 12002 layer_factory.hpp:77] Creating layer relu_stage2_block1_branch2b
I0609 10:12:16.459344 12002 net.cpp:84] Creating Layer relu_stage2_block1_branch2b
I0609 10:12:16.459348 12002 net.cpp:406] relu_stage2_block1_branch2b <- conv_stage2_block1_branch2b
I0609 10:12:16.459357 12002 net.cpp:367] relu_stage2_block1_branch2b -> conv_stage2_block1_branch2b (in-place)
I0609 10:12:16.459364 12002 net.cpp:122] Setting up relu_stage2_block1_branch2b
I0609 10:12:16.459370 12002 net.cpp:129] Top shape: 7 128 14 14 (175616)
I0609 10:12:16.459374 12002 net.cpp:137] Memory required for data: 706678812
I0609 10:12:16.459378 12002 layer_factory.hpp:77] Creating layer conv_stage2_block1_branch2c
I0609 10:12:16.459390 12002 net.cpp:84] Creating Layer conv_stage2_block1_branch2c
I0609 10:12:16.459394 12002 net.cpp:406] conv_stage2_block1_branch2c <- conv_stage2_block1_branch2b
I0609 10:12:16.459403 12002 net.cpp:380] conv_stage2_block1_branch2c -> conv_stage2_block1_branch2c
I0609 10:12:16.460278 12002 net.cpp:122] Setting up conv_stage2_block1_branch2c
I0609 10:12:16.460288 12002 net.cpp:129] Top shape: 7 512 14 14 (702464)
I0609 10:12:16.460291 12002 net.cpp:137] Memory required for data: 709488668
I0609 10:12:16.460299 12002 layer_factory.hpp:77] Creating layer bn_stage2_block1_branch2c
I0609 10:12:16.460309 12002 net.cpp:84] Creating Layer bn_stage2_block1_branch2c
I0609 10:12:16.460314 12002 net.cpp:406] bn_stage2_block1_branch2c <- conv_stage2_block1_branch2c
I0609 10:12:16.460322 12002 net.cpp:367] bn_stage2_block1_branch2c -> conv_stage2_block1_branch2c (in-place)
I0609 10:12:16.460536 12002 net.cpp:122] Setting up bn_stage2_block1_branch2c
I0609 10:12:16.460546 12002 net.cpp:129] Top shape: 7 512 14 14 (702464)
I0609 10:12:16.460549 12002 net.cpp:137] Memory required for data: 712298524
I0609 10:12:16.460559 12002 layer_factory.hpp:77] Creating layer scale_stage2_block1_branch2c
I0609 10:12:16.460568 12002 net.cpp:84] Creating Layer scale_stage2_block1_branch2c
I0609 10:12:16.460572 12002 net.cpp:406] scale_stage2_block1_branch2c <- conv_stage2_block1_branch2c
I0609 10:12:16.460579 12002 net.cpp:367] scale_stage2_block1_branch2c -> conv_stage2_block1_branch2c (in-place)
I0609 10:12:16.460621 12002 layer_factory.hpp:77] Creating layer scale_stage2_block1_branch2c
I0609 10:12:16.460748 12002 net.cpp:122] Setting up scale_stage2_block1_branch2c
I0609 10:12:16.460757 12002 net.cpp:129] Top shape: 7 512 14 14 (702464)
I0609 10:12:16.460760 12002 net.cpp:137] Memory required for data: 715108380
I0609 10:12:16.460768 12002 layer_factory.hpp:77] Creating layer eltwise_stage2_block1
I0609 10:12:16.460775 12002 net.cpp:84] Creating Layer eltwise_stage2_block1
I0609 10:12:16.460780 12002 net.cpp:406] eltwise_stage2_block1 <- eltwise_stage2_block0_relu_stage2_block0_0_split_1
I0609 10:12:16.460785 12002 net.cpp:406] eltwise_stage2_block1 <- conv_stage2_block1_branch2c
I0609 10:12:16.460794 12002 net.cpp:380] eltwise_stage2_block1 -> eltwise_stage2_block1
I0609 10:12:16.460824 12002 net.cpp:122] Setting up eltwise_stage2_block1
I0609 10:12:16.460830 12002 net.cpp:129] Top shape: 7 512 14 14 (702464)
I0609 10:12:16.460835 12002 net.cpp:137] Memory required for data: 717918236
I0609 10:12:16.460839 12002 layer_factory.hpp:77] Creating layer relu_stage2_block1
I0609 10:12:16.460845 12002 net.cpp:84] Creating Layer relu_stage2_block1
I0609 10:12:16.460860 12002 net.cpp:406] relu_stage2_block1 <- eltwise_stage2_block1
I0609 10:12:16.460867 12002 net.cpp:367] relu_stage2_block1 -> eltwise_stage2_block1 (in-place)
I0609 10:12:16.460875 12002 net.cpp:122] Setting up relu_stage2_block1
I0609 10:12:16.460881 12002 net.cpp:129] Top shape: 7 512 14 14 (702464)
I0609 10:12:16.460886 12002 net.cpp:137] Memory required for data: 720728092
I0609 10:12:16.460889 12002 layer_factory.hpp:77] Creating layer eltwise_stage2_block1_relu_stage2_block1_0_split
I0609 10:12:16.460896 12002 net.cpp:84] Creating Layer eltwise_stage2_block1_relu_stage2_block1_0_split
I0609 10:12:16.460901 12002 net.cpp:406] eltwise_stage2_block1_relu_stage2_block1_0_split <- eltwise_stage2_block1
I0609 10:12:16.460907 12002 net.cpp:380] eltwise_stage2_block1_relu_stage2_block1_0_split -> eltwise_stage2_block1_relu_stage2_block1_0_split_0
I0609 10:12:16.460916 12002 net.cpp:380] eltwise_stage2_block1_relu_stage2_block1_0_split -> eltwise_stage2_block1_relu_stage2_block1_0_split_1
I0609 10:12:16.460958 12002 net.cpp:122] Setting up eltwise_stage2_block1_relu_stage2_block1_0_split
I0609 10:12:16.460965 12002 net.cpp:129] Top shape: 7 512 14 14 (702464)
I0609 10:12:16.460971 12002 net.cpp:129] Top shape: 7 512 14 14 (702464)
I0609 10:12:16.460975 12002 net.cpp:137] Memory required for data: 726347804
I0609 10:12:16.460978 12002 layer_factory.hpp:77] Creating layer conv_stage2_block2_branch2a
I0609 10:12:16.460991 12002 net.cpp:84] Creating Layer conv_stage2_block2_branch2a
I0609 10:12:16.460995 12002 net.cpp:406] conv_stage2_block2_branch2a <- eltwise_stage2_block1_relu_stage2_block1_0_split_0
I0609 10:12:16.461004 12002 net.cpp:380] conv_stage2_block2_branch2a -> conv_stage2_block2_branch2a
I0609 10:12:16.461567 12002 net.cpp:122] Setting up conv_stage2_block2_branch2a
I0609 10:12:16.461575 12002 net.cpp:129] Top shape: 7 128 14 14 (175616)
I0609 10:12:16.461577 12002 net.cpp:137] Memory required for data: 727050268
I0609 10:12:16.461581 12002 layer_factory.hpp:77] Creating layer bn_stage2_block2_branch2a
I0609 10:12:16.461588 12002 net.cpp:84] Creating Layer bn_stage2_block2_branch2a
I0609 10:12:16.461592 12002 net.cpp:406] bn_stage2_block2_branch2a <- conv_stage2_block2_branch2a
I0609 10:12:16.461596 12002 net.cpp:367] bn_stage2_block2_branch2a -> conv_stage2_block2_branch2a (in-place)
I0609 10:12:16.461740 12002 net.cpp:122] Setting up bn_stage2_block2_branch2a
I0609 10:12:16.461745 12002 net.cpp:129] Top shape: 7 128 14 14 (175616)
I0609 10:12:16.461746 12002 net.cpp:137] Memory required for data: 727752732
I0609 10:12:16.461752 12002 layer_factory.hpp:77] Creating layer scale_stage2_block2_branch2a
I0609 10:12:16.461756 12002 net.cpp:84] Creating Layer scale_stage2_block2_branch2a
I0609 10:12:16.461760 12002 net.cpp:406] scale_stage2_block2_branch2a <- conv_stage2_block2_branch2a
I0609 10:12:16.461764 12002 net.cpp:367] scale_stage2_block2_branch2a -> conv_stage2_block2_branch2a (in-place)
I0609 10:12:16.461792 12002 layer_factory.hpp:77] Creating layer scale_stage2_block2_branch2a
I0609 10:12:16.461874 12002 net.cpp:122] Setting up scale_stage2_block2_branch2a
I0609 10:12:16.461877 12002 net.cpp:129] Top shape: 7 128 14 14 (175616)
I0609 10:12:16.461879 12002 net.cpp:137] Memory required for data: 728455196
I0609 10:12:16.461884 12002 layer_factory.hpp:77] Creating layer relu_stage2_block2_branch2a
I0609 10:12:16.461889 12002 net.cpp:84] Creating Layer relu_stage2_block2_branch2a
I0609 10:12:16.461890 12002 net.cpp:406] relu_stage2_block2_branch2a <- conv_stage2_block2_branch2a
I0609 10:12:16.461896 12002 net.cpp:367] relu_stage2_block2_branch2a -> conv_stage2_block2_branch2a (in-place)
I0609 10:12:16.461901 12002 net.cpp:122] Setting up relu_stage2_block2_branch2a
I0609 10:12:16.461905 12002 net.cpp:129] Top shape: 7 128 14 14 (175616)
I0609 10:12:16.461906 12002 net.cpp:137] Memory required for data: 729157660
I0609 10:12:16.461910 12002 layer_factory.hpp:77] Creating layer conv_stage2_block2_branch2b
I0609 10:12:16.461916 12002 net.cpp:84] Creating Layer conv_stage2_block2_branch2b
I0609 10:12:16.461928 12002 net.cpp:406] conv_stage2_block2_branch2b <- conv_stage2_block2_branch2a
I0609 10:12:16.461933 12002 net.cpp:380] conv_stage2_block2_branch2b -> conv_stage2_block2_branch2b
I0609 10:12:16.463867 12002 net.cpp:122] Setting up conv_stage2_block2_branch2b
I0609 10:12:16.463879 12002 net.cpp:129] Top shape: 7 128 14 14 (175616)
I0609 10:12:16.463881 12002 net.cpp:137] Memory required for data: 729860124
I0609 10:12:16.463886 12002 layer_factory.hpp:77] Creating layer bn_stage2_block2_branch2b
I0609 10:12:16.463894 12002 net.cpp:84] Creating Layer bn_stage2_block2_branch2b
I0609 10:12:16.463897 12002 net.cpp:406] bn_stage2_block2_branch2b <- conv_stage2_block2_branch2b
I0609 10:12:16.463903 12002 net.cpp:367] bn_stage2_block2_branch2b -> conv_stage2_block2_branch2b (in-place)
I0609 10:12:16.464047 12002 net.cpp:122] Setting up bn_stage2_block2_branch2b
I0609 10:12:16.464052 12002 net.cpp:129] Top shape: 7 128 14 14 (175616)
I0609 10:12:16.464056 12002 net.cpp:137] Memory required for data: 730562588
I0609 10:12:16.464061 12002 layer_factory.hpp:77] Creating layer scale_stage2_block2_branch2b
I0609 10:12:16.464066 12002 net.cpp:84] Creating Layer scale_stage2_block2_branch2b
I0609 10:12:16.464068 12002 net.cpp:406] scale_stage2_block2_branch2b <- conv_stage2_block2_branch2b
I0609 10:12:16.464073 12002 net.cpp:367] scale_stage2_block2_branch2b -> conv_stage2_block2_branch2b (in-place)
I0609 10:12:16.464102 12002 layer_factory.hpp:77] Creating layer scale_stage2_block2_branch2b
I0609 10:12:16.464184 12002 net.cpp:122] Setting up scale_stage2_block2_branch2b
I0609 10:12:16.464187 12002 net.cpp:129] Top shape: 7 128 14 14 (175616)
I0609 10:12:16.464190 12002 net.cpp:137] Memory required for data: 731265052
I0609 10:12:16.464195 12002 layer_factory.hpp:77] Creating layer relu_stage2_block2_branch2b
I0609 10:12:16.464198 12002 net.cpp:84] Creating Layer relu_stage2_block2_branch2b
I0609 10:12:16.464201 12002 net.cpp:406] relu_stage2_block2_branch2b <- conv_stage2_block2_branch2b
I0609 10:12:16.464208 12002 net.cpp:367] relu_stage2_block2_branch2b -> conv_stage2_block2_branch2b (in-place)
I0609 10:12:16.464212 12002 net.cpp:122] Setting up relu_stage2_block2_branch2b
I0609 10:12:16.464216 12002 net.cpp:129] Top shape: 7 128 14 14 (175616)
I0609 10:12:16.464218 12002 net.cpp:137] Memory required for data: 731967516
I0609 10:12:16.464221 12002 layer_factory.hpp:77] Creating layer conv_stage2_block2_branch2c
I0609 10:12:16.464228 12002 net.cpp:84] Creating Layer conv_stage2_block2_branch2c
I0609 10:12:16.464231 12002 net.cpp:406] conv_stage2_block2_branch2c <- conv_stage2_block2_branch2b
I0609 10:12:16.464236 12002 net.cpp:380] conv_stage2_block2_branch2c -> conv_stage2_block2_branch2c
I0609 10:12:16.465420 12002 net.cpp:122] Setting up conv_stage2_block2_branch2c
I0609 10:12:16.465428 12002 net.cpp:129] Top shape: 7 512 14 14 (702464)
I0609 10:12:16.465430 12002 net.cpp:137] Memory required for data: 734777372
I0609 10:12:16.465435 12002 layer_factory.hpp:77] Creating layer bn_stage2_block2_branch2c
I0609 10:12:16.465442 12002 net.cpp:84] Creating Layer bn_stage2_block2_branch2c
I0609 10:12:16.465445 12002 net.cpp:406] bn_stage2_block2_branch2c <- conv_stage2_block2_branch2c
I0609 10:12:16.465451 12002 net.cpp:367] bn_stage2_block2_branch2c -> conv_stage2_block2_branch2c (in-place)
I0609 10:12:16.465597 12002 net.cpp:122] Setting up bn_stage2_block2_branch2c
I0609 10:12:16.465602 12002 net.cpp:129] Top shape: 7 512 14 14 (702464)
I0609 10:12:16.465605 12002 net.cpp:137] Memory required for data: 737587228
I0609 10:12:16.465610 12002 layer_factory.hpp:77] Creating layer scale_stage2_block2_branch2c
I0609 10:12:16.465615 12002 net.cpp:84] Creating Layer scale_stage2_block2_branch2c
I0609 10:12:16.465618 12002 net.cpp:406] scale_stage2_block2_branch2c <- conv_stage2_block2_branch2c
I0609 10:12:16.465622 12002 net.cpp:367] scale_stage2_block2_branch2c -> conv_stage2_block2_branch2c (in-place)
I0609 10:12:16.465651 12002 layer_factory.hpp:77] Creating layer scale_stage2_block2_branch2c
I0609 10:12:16.465736 12002 net.cpp:122] Setting up scale_stage2_block2_branch2c
I0609 10:12:16.465752 12002 net.cpp:129] Top shape: 7 512 14 14 (702464)
I0609 10:12:16.465755 12002 net.cpp:137] Memory required for data: 740397084
I0609 10:12:16.465760 12002 layer_factory.hpp:77] Creating layer eltwise_stage2_block2
I0609 10:12:16.465765 12002 net.cpp:84] Creating Layer eltwise_stage2_block2
I0609 10:12:16.465768 12002 net.cpp:406] eltwise_stage2_block2 <- eltwise_stage2_block1_relu_stage2_block1_0_split_1
I0609 10:12:16.465775 12002 net.cpp:406] eltwise_stage2_block2 <- conv_stage2_block2_branch2c
I0609 10:12:16.465778 12002 net.cpp:380] eltwise_stage2_block2 -> eltwise_stage2_block2
I0609 10:12:16.465800 12002 net.cpp:122] Setting up eltwise_stage2_block2
I0609 10:12:16.465804 12002 net.cpp:129] Top shape: 7 512 14 14 (702464)
I0609 10:12:16.465806 12002 net.cpp:137] Memory required for data: 743206940
I0609 10:12:16.465809 12002 layer_factory.hpp:77] Creating layer relu_stage2_block2
I0609 10:12:16.465813 12002 net.cpp:84] Creating Layer relu_stage2_block2
I0609 10:12:16.465816 12002 net.cpp:406] relu_stage2_block2 <- eltwise_stage2_block2
I0609 10:12:16.465821 12002 net.cpp:367] relu_stage2_block2 -> eltwise_stage2_block2 (in-place)
I0609 10:12:16.465826 12002 net.cpp:122] Setting up relu_stage2_block2
I0609 10:12:16.465828 12002 net.cpp:129] Top shape: 7 512 14 14 (702464)
I0609 10:12:16.465831 12002 net.cpp:137] Memory required for data: 746016796
I0609 10:12:16.465833 12002 layer_factory.hpp:77] Creating layer eltwise_stage2_block2_relu_stage2_block2_0_split
I0609 10:12:16.465837 12002 net.cpp:84] Creating Layer eltwise_stage2_block2_relu_stage2_block2_0_split
I0609 10:12:16.465839 12002 net.cpp:406] eltwise_stage2_block2_relu_stage2_block2_0_split <- eltwise_stage2_block2
I0609 10:12:16.465843 12002 net.cpp:380] eltwise_stage2_block2_relu_stage2_block2_0_split -> eltwise_stage2_block2_relu_stage2_block2_0_split_0
I0609 10:12:16.465849 12002 net.cpp:380] eltwise_stage2_block2_relu_stage2_block2_0_split -> eltwise_stage2_block2_relu_stage2_block2_0_split_1
I0609 10:12:16.465876 12002 net.cpp:122] Setting up eltwise_stage2_block2_relu_stage2_block2_0_split
I0609 10:12:16.465880 12002 net.cpp:129] Top shape: 7 512 14 14 (702464)
I0609 10:12:16.465883 12002 net.cpp:129] Top shape: 7 512 14 14 (702464)
I0609 10:12:16.465886 12002 net.cpp:137] Memory required for data: 751636508
I0609 10:12:16.465888 12002 layer_factory.hpp:77] Creating layer conv_stage2_block3_branch2a
I0609 10:12:16.465898 12002 net.cpp:84] Creating Layer conv_stage2_block3_branch2a
I0609 10:12:16.465900 12002 net.cpp:406] conv_stage2_block3_branch2a <- eltwise_stage2_block2_relu_stage2_block2_0_split_0
I0609 10:12:16.465905 12002 net.cpp:380] conv_stage2_block3_branch2a -> conv_stage2_block3_branch2a
I0609 10:12:16.466426 12002 net.cpp:122] Setting up conv_stage2_block3_branch2a
I0609 10:12:16.466436 12002 net.cpp:129] Top shape: 7 128 14 14 (175616)
I0609 10:12:16.466441 12002 net.cpp:137] Memory required for data: 752338972
I0609 10:12:16.466449 12002 layer_factory.hpp:77] Creating layer bn_stage2_block3_branch2a
I0609 10:12:16.466459 12002 net.cpp:84] Creating Layer bn_stage2_block3_branch2a
I0609 10:12:16.466462 12002 net.cpp:406] bn_stage2_block3_branch2a <- conv_stage2_block3_branch2a
I0609 10:12:16.466471 12002 net.cpp:367] bn_stage2_block3_branch2a -> conv_stage2_block3_branch2a (in-place)
I0609 10:12:16.466681 12002 net.cpp:122] Setting up bn_stage2_block3_branch2a
I0609 10:12:16.466688 12002 net.cpp:129] Top shape: 7 128 14 14 (175616)
I0609 10:12:16.466691 12002 net.cpp:137] Memory required for data: 753041436
I0609 10:12:16.466701 12002 layer_factory.hpp:77] Creating layer scale_stage2_block3_branch2a
I0609 10:12:16.466709 12002 net.cpp:84] Creating Layer scale_stage2_block3_branch2a
I0609 10:12:16.480099 12002 net.cpp:406] scale_stage2_block3_branch2a <- conv_stage2_block3_branch2a
I0609 10:12:16.480132 12002 net.cpp:367] scale_stage2_block3_branch2a -> conv_stage2_block3_branch2a (in-place)
I0609 10:12:16.480270 12002 layer_factory.hpp:77] Creating layer scale_stage2_block3_branch2a
I0609 10:12:16.480487 12002 net.cpp:122] Setting up scale_stage2_block3_branch2a
I0609 10:12:16.480502 12002 net.cpp:129] Top shape: 7 128 14 14 (175616)
I0609 10:12:16.480509 12002 net.cpp:137] Memory required for data: 753743900
I0609 10:12:16.480522 12002 layer_factory.hpp:77] Creating layer relu_stage2_block3_branch2a
I0609 10:12:16.480532 12002 net.cpp:84] Creating Layer relu_stage2_block3_branch2a
I0609 10:12:16.480538 12002 net.cpp:406] relu_stage2_block3_branch2a <- conv_stage2_block3_branch2a
I0609 10:12:16.480551 12002 net.cpp:367] relu_stage2_block3_branch2a -> conv_stage2_block3_branch2a (in-place)
I0609 10:12:16.480562 12002 net.cpp:122] Setting up relu_stage2_block3_branch2a
I0609 10:12:16.480571 12002 net.cpp:129] Top shape: 7 128 14 14 (175616)
I0609 10:12:16.480576 12002 net.cpp:137] Memory required for data: 754446364
I0609 10:12:16.480581 12002 layer_factory.hpp:77] Creating layer conv_stage2_block3_branch2b
I0609 10:12:16.480599 12002 net.cpp:84] Creating Layer conv_stage2_block3_branch2b
I0609 10:12:16.480605 12002 net.cpp:406] conv_stage2_block3_branch2b <- conv_stage2_block3_branch2a
I0609 10:12:16.480619 12002 net.cpp:380] conv_stage2_block3_branch2b -> conv_stage2_block3_branch2b
I0609 10:12:16.483522 12002 net.cpp:122] Setting up conv_stage2_block3_branch2b
I0609 10:12:16.483542 12002 net.cpp:129] Top shape: 7 128 14 14 (175616)
I0609 10:12:16.483548 12002 net.cpp:137] Memory required for data: 755148828
I0609 10:12:16.483561 12002 layer_factory.hpp:77] Creating layer bn_stage2_block3_branch2b
I0609 10:12:16.483577 12002 net.cpp:84] Creating Layer bn_stage2_block3_branch2b
I0609 10:12:16.483584 12002 net.cpp:406] bn_stage2_block3_branch2b <- conv_stage2_block3_branch2b
I0609 10:12:16.483598 12002 net.cpp:367] bn_stage2_block3_branch2b -> conv_stage2_block3_branch2b (in-place)
I0609 10:12:16.483909 12002 net.cpp:122] Setting up bn_stage2_block3_branch2b
I0609 10:12:16.483922 12002 net.cpp:129] Top shape: 7 128 14 14 (175616)
I0609 10:12:16.483927 12002 net.cpp:137] Memory required for data: 755851292
I0609 10:12:16.483942 12002 layer_factory.hpp:77] Creating layer scale_stage2_block3_branch2b
I0609 10:12:16.483955 12002 net.cpp:84] Creating Layer scale_stage2_block3_branch2b
I0609 10:12:16.483961 12002 net.cpp:406] scale_stage2_block3_branch2b <- conv_stage2_block3_branch2b
I0609 10:12:16.483971 12002 net.cpp:367] scale_stage2_block3_branch2b -> conv_stage2_block3_branch2b (in-place)
I0609 10:12:16.484038 12002 layer_factory.hpp:77] Creating layer scale_stage2_block3_branch2b
I0609 10:12:16.484217 12002 net.cpp:122] Setting up scale_stage2_block3_branch2b
I0609 10:12:16.484228 12002 net.cpp:129] Top shape: 7 128 14 14 (175616)
I0609 10:12:16.484235 12002 net.cpp:137] Memory required for data: 756553756
I0609 10:12:16.484246 12002 layer_factory.hpp:77] Creating layer relu_stage2_block3_branch2b
I0609 10:12:16.484258 12002 net.cpp:84] Creating Layer relu_stage2_block3_branch2b
I0609 10:12:16.484266 12002 net.cpp:406] relu_stage2_block3_branch2b <- conv_stage2_block3_branch2b
I0609 10:12:16.484274 12002 net.cpp:367] relu_stage2_block3_branch2b -> conv_stage2_block3_branch2b (in-place)
I0609 10:12:16.484287 12002 net.cpp:122] Setting up relu_stage2_block3_branch2b
I0609 10:12:16.484298 12002 net.cpp:129] Top shape: 7 128 14 14 (175616)
I0609 10:12:16.484302 12002 net.cpp:137] Memory required for data: 757256220
I0609 10:12:16.484305 12002 layer_factory.hpp:77] Creating layer conv_stage2_block3_branch2c
I0609 10:12:16.484316 12002 net.cpp:84] Creating Layer conv_stage2_block3_branch2c
I0609 10:12:16.484319 12002 net.cpp:406] conv_stage2_block3_branch2c <- conv_stage2_block3_branch2b
I0609 10:12:16.484328 12002 net.cpp:380] conv_stage2_block3_branch2c -> conv_stage2_block3_branch2c
I0609 10:12:16.485036 12002 net.cpp:122] Setting up conv_stage2_block3_branch2c
I0609 10:12:16.485045 12002 net.cpp:129] Top shape: 7 512 14 14 (702464)
I0609 10:12:16.485049 12002 net.cpp:137] Memory required for data: 760066076
I0609 10:12:16.485054 12002 layer_factory.hpp:77] Creating layer bn_stage2_block3_branch2c
I0609 10:12:16.485077 12002 net.cpp:84] Creating Layer bn_stage2_block3_branch2c
I0609 10:12:16.485081 12002 net.cpp:406] bn_stage2_block3_branch2c <- conv_stage2_block3_branch2c
I0609 10:12:16.485088 12002 net.cpp:367] bn_stage2_block3_branch2c -> conv_stage2_block3_branch2c (in-place)
I0609 10:12:16.485304 12002 net.cpp:122] Setting up bn_stage2_block3_branch2c
I0609 10:12:16.485311 12002 net.cpp:129] Top shape: 7 512 14 14 (702464)
I0609 10:12:16.485314 12002 net.cpp:137] Memory required for data: 762875932
I0609 10:12:16.485363 12002 layer_factory.hpp:77] Creating layer scale_stage2_block3_branch2c
I0609 10:12:16.485375 12002 net.cpp:84] Creating Layer scale_stage2_block3_branch2c
I0609 10:12:16.485381 12002 net.cpp:406] scale_stage2_block3_branch2c <- conv_stage2_block3_branch2c
I0609 10:12:16.485390 12002 net.cpp:367] scale_stage2_block3_branch2c -> conv_stage2_block3_branch2c (in-place)
I0609 10:12:16.485448 12002 layer_factory.hpp:77] Creating layer scale_stage2_block3_branch2c
I0609 10:12:16.485618 12002 net.cpp:122] Setting up scale_stage2_block3_branch2c
I0609 10:12:16.485628 12002 net.cpp:129] Top shape: 7 512 14 14 (702464)
I0609 10:12:16.485635 12002 net.cpp:137] Memory required for data: 765685788
I0609 10:12:16.485644 12002 layer_factory.hpp:77] Creating layer eltwise_stage2_block3
I0609 10:12:16.485653 12002 net.cpp:84] Creating Layer eltwise_stage2_block3
I0609 10:12:16.485659 12002 net.cpp:406] eltwise_stage2_block3 <- eltwise_stage2_block2_relu_stage2_block2_0_split_1
I0609 10:12:16.485667 12002 net.cpp:406] eltwise_stage2_block3 <- conv_stage2_block3_branch2c
I0609 10:12:16.485678 12002 net.cpp:380] eltwise_stage2_block3 -> eltwise_stage2_block3
I0609 10:12:16.485718 12002 net.cpp:122] Setting up eltwise_stage2_block3
I0609 10:12:16.485728 12002 net.cpp:129] Top shape: 7 512 14 14 (702464)
I0609 10:12:16.485733 12002 net.cpp:137] Memory required for data: 768495644
I0609 10:12:16.485738 12002 layer_factory.hpp:77] Creating layer relu_stage2_block3
I0609 10:12:16.485747 12002 net.cpp:84] Creating Layer relu_stage2_block3
I0609 10:12:16.485752 12002 net.cpp:406] relu_stage2_block3 <- eltwise_stage2_block3
I0609 10:12:16.485761 12002 net.cpp:367] relu_stage2_block3 -> eltwise_stage2_block3 (in-place)
I0609 10:12:16.485770 12002 net.cpp:122] Setting up relu_stage2_block3
I0609 10:12:16.485779 12002 net.cpp:129] Top shape: 7 512 14 14 (702464)
I0609 10:12:16.485783 12002 net.cpp:137] Memory required for data: 771305500
I0609 10:12:16.485788 12002 layer_factory.hpp:77] Creating layer eltwise_stage2_block3_relu_stage2_block3_0_split
I0609 10:12:16.485800 12002 net.cpp:84] Creating Layer eltwise_stage2_block3_relu_stage2_block3_0_split
I0609 10:12:16.485805 12002 net.cpp:406] eltwise_stage2_block3_relu_stage2_block3_0_split <- eltwise_stage2_block3
I0609 10:12:16.485813 12002 net.cpp:380] eltwise_stage2_block3_relu_stage2_block3_0_split -> eltwise_stage2_block3_relu_stage2_block3_0_split_0
I0609 10:12:16.485827 12002 net.cpp:380] eltwise_stage2_block3_relu_stage2_block3_0_split -> eltwise_stage2_block3_relu_stage2_block3_0_split_1
I0609 10:12:16.485882 12002 net.cpp:122] Setting up eltwise_stage2_block3_relu_stage2_block3_0_split
I0609 10:12:16.485891 12002 net.cpp:129] Top shape: 7 512 14 14 (702464)
I0609 10:12:16.485899 12002 net.cpp:129] Top shape: 7 512 14 14 (702464)
I0609 10:12:16.485904 12002 net.cpp:137] Memory required for data: 776925212
I0609 10:12:16.485909 12002 layer_factory.hpp:77] Creating layer conv_stage2_block4_branch2a
I0609 10:12:16.485924 12002 net.cpp:84] Creating Layer conv_stage2_block4_branch2a
I0609 10:12:16.485930 12002 net.cpp:406] conv_stage2_block4_branch2a <- eltwise_stage2_block3_relu_stage2_block3_0_split_0
I0609 10:12:16.485944 12002 net.cpp:380] conv_stage2_block4_branch2a -> conv_stage2_block4_branch2a
I0609 10:12:16.486728 12002 net.cpp:122] Setting up conv_stage2_block4_branch2a
I0609 10:12:16.486739 12002 net.cpp:129] Top shape: 7 128 14 14 (175616)
I0609 10:12:16.486742 12002 net.cpp:137] Memory required for data: 777627676
I0609 10:12:16.486749 12002 layer_factory.hpp:77] Creating layer bn_stage2_block4_branch2a
I0609 10:12:16.486766 12002 net.cpp:84] Creating Layer bn_stage2_block4_branch2a
I0609 10:12:16.486770 12002 net.cpp:406] bn_stage2_block4_branch2a <- conv_stage2_block4_branch2a
I0609 10:12:16.486778 12002 net.cpp:367] bn_stage2_block4_branch2a -> conv_stage2_block4_branch2a (in-place)
I0609 10:12:16.486968 12002 net.cpp:122] Setting up bn_stage2_block4_branch2a
I0609 10:12:16.486975 12002 net.cpp:129] Top shape: 7 128 14 14 (175616)
I0609 10:12:16.486979 12002 net.cpp:137] Memory required for data: 778330140
I0609 10:12:16.486985 12002 layer_factory.hpp:77] Creating layer scale_stage2_block4_branch2a
I0609 10:12:16.486991 12002 net.cpp:84] Creating Layer scale_stage2_block4_branch2a
I0609 10:12:16.486994 12002 net.cpp:406] scale_stage2_block4_branch2a <- conv_stage2_block4_branch2a
I0609 10:12:16.487001 12002 net.cpp:367] scale_stage2_block4_branch2a -> conv_stage2_block4_branch2a (in-place)
I0609 10:12:16.487038 12002 layer_factory.hpp:77] Creating layer scale_stage2_block4_branch2a
I0609 10:12:16.487149 12002 net.cpp:122] Setting up scale_stage2_block4_branch2a
I0609 10:12:16.487157 12002 net.cpp:129] Top shape: 7 128 14 14 (175616)
I0609 10:12:16.487160 12002 net.cpp:137] Memory required for data: 779032604
I0609 10:12:16.487166 12002 layer_factory.hpp:77] Creating layer relu_stage2_block4_branch2a
I0609 10:12:16.487171 12002 net.cpp:84] Creating Layer relu_stage2_block4_branch2a
I0609 10:12:16.487175 12002 net.cpp:406] relu_stage2_block4_branch2a <- conv_stage2_block4_branch2a
I0609 10:12:16.487180 12002 net.cpp:367] relu_stage2_block4_branch2a -> conv_stage2_block4_branch2a (in-place)
I0609 10:12:16.487185 12002 net.cpp:122] Setting up relu_stage2_block4_branch2a
I0609 10:12:16.487190 12002 net.cpp:129] Top shape: 7 128 14 14 (175616)
I0609 10:12:16.487193 12002 net.cpp:137] Memory required for data: 779735068
I0609 10:12:16.487196 12002 layer_factory.hpp:77] Creating layer conv_stage2_block4_branch2b
I0609 10:12:16.487206 12002 net.cpp:84] Creating Layer conv_stage2_block4_branch2b
I0609 10:12:16.487210 12002 net.cpp:406] conv_stage2_block4_branch2b <- conv_stage2_block4_branch2a
I0609 10:12:16.487217 12002 net.cpp:380] conv_stage2_block4_branch2b -> conv_stage2_block4_branch2b
I0609 10:12:16.489627 12002 net.cpp:122] Setting up conv_stage2_block4_branch2b
I0609 10:12:16.489639 12002 net.cpp:129] Top shape: 7 128 14 14 (175616)
I0609 10:12:16.489643 12002 net.cpp:137] Memory required for data: 780437532
I0609 10:12:16.489650 12002 layer_factory.hpp:77] Creating layer bn_stage2_block4_branch2b
I0609 10:12:16.489658 12002 net.cpp:84] Creating Layer bn_stage2_block4_branch2b
I0609 10:12:16.489662 12002 net.cpp:406] bn_stage2_block4_branch2b <- conv_stage2_block4_branch2b
I0609 10:12:16.489670 12002 net.cpp:367] bn_stage2_block4_branch2b -> conv_stage2_block4_branch2b (in-place)
I0609 10:12:16.489864 12002 net.cpp:122] Setting up bn_stage2_block4_branch2b
I0609 10:12:16.489871 12002 net.cpp:129] Top shape: 7 128 14 14 (175616)
I0609 10:12:16.489874 12002 net.cpp:137] Memory required for data: 781139996
I0609 10:12:16.489881 12002 layer_factory.hpp:77] Creating layer scale_stage2_block4_branch2b
I0609 10:12:16.489887 12002 net.cpp:84] Creating Layer scale_stage2_block4_branch2b
I0609 10:12:16.489890 12002 net.cpp:406] scale_stage2_block4_branch2b <- conv_stage2_block4_branch2b
I0609 10:12:16.489897 12002 net.cpp:367] scale_stage2_block4_branch2b -> conv_stage2_block4_branch2b (in-place)
I0609 10:12:16.489944 12002 layer_factory.hpp:77] Creating layer scale_stage2_block4_branch2b
I0609 10:12:16.490033 12002 net.cpp:122] Setting up scale_stage2_block4_branch2b
I0609 10:12:16.490038 12002 net.cpp:129] Top shape: 7 128 14 14 (175616)
I0609 10:12:16.490041 12002 net.cpp:137] Memory required for data: 781842460
I0609 10:12:16.490046 12002 layer_factory.hpp:77] Creating layer relu_stage2_block4_branch2b
I0609 10:12:16.490051 12002 net.cpp:84] Creating Layer relu_stage2_block4_branch2b
I0609 10:12:16.490053 12002 net.cpp:406] relu_stage2_block4_branch2b <- conv_stage2_block4_branch2b
I0609 10:12:16.490068 12002 net.cpp:367] relu_stage2_block4_branch2b -> conv_stage2_block4_branch2b (in-place)
I0609 10:12:16.490073 12002 net.cpp:122] Setting up relu_stage2_block4_branch2b
I0609 10:12:16.490077 12002 net.cpp:129] Top shape: 7 128 14 14 (175616)
I0609 10:12:16.490080 12002 net.cpp:137] Memory required for data: 782544924
I0609 10:12:16.490082 12002 layer_factory.hpp:77] Creating layer conv_stage2_block4_branch2c
I0609 10:12:16.490092 12002 net.cpp:84] Creating Layer conv_stage2_block4_branch2c
I0609 10:12:16.490093 12002 net.cpp:406] conv_stage2_block4_branch2c <- conv_stage2_block4_branch2b
I0609 10:12:16.490098 12002 net.cpp:380] conv_stage2_block4_branch2c -> conv_stage2_block4_branch2c
I0609 10:12:16.491344 12002 net.cpp:122] Setting up conv_stage2_block4_branch2c
I0609 10:12:16.491354 12002 net.cpp:129] Top shape: 7 512 14 14 (702464)
I0609 10:12:16.491358 12002 net.cpp:137] Memory required for data: 785354780
I0609 10:12:16.491363 12002 layer_factory.hpp:77] Creating layer bn_stage2_block4_branch2c
I0609 10:12:16.491369 12002 net.cpp:84] Creating Layer bn_stage2_block4_branch2c
I0609 10:12:16.491381 12002 net.cpp:406] bn_stage2_block4_branch2c <- conv_stage2_block4_branch2c
I0609 10:12:16.491387 12002 net.cpp:367] bn_stage2_block4_branch2c -> conv_stage2_block4_branch2c (in-place)
I0609 10:12:16.491608 12002 net.cpp:122] Setting up bn_stage2_block4_branch2c
I0609 10:12:16.491613 12002 net.cpp:129] Top shape: 7 512 14 14 (702464)
I0609 10:12:16.491616 12002 net.cpp:137] Memory required for data: 788164636
I0609 10:12:16.491621 12002 layer_factory.hpp:77] Creating layer scale_stage2_block4_branch2c
I0609 10:12:16.491627 12002 net.cpp:84] Creating Layer scale_stage2_block4_branch2c
I0609 10:12:16.491631 12002 net.cpp:406] scale_stage2_block4_branch2c <- conv_stage2_block4_branch2c
I0609 10:12:16.491634 12002 net.cpp:367] scale_stage2_block4_branch2c -> conv_stage2_block4_branch2c (in-place)
I0609 10:12:16.491683 12002 layer_factory.hpp:77] Creating layer scale_stage2_block4_branch2c
I0609 10:12:16.491770 12002 net.cpp:122] Setting up scale_stage2_block4_branch2c
I0609 10:12:16.491775 12002 net.cpp:129] Top shape: 7 512 14 14 (702464)
I0609 10:12:16.491776 12002 net.cpp:137] Memory required for data: 790974492
I0609 10:12:16.491781 12002 layer_factory.hpp:77] Creating layer eltwise_stage2_block4
I0609 10:12:16.491786 12002 net.cpp:84] Creating Layer eltwise_stage2_block4
I0609 10:12:16.491789 12002 net.cpp:406] eltwise_stage2_block4 <- eltwise_stage2_block3_relu_stage2_block3_0_split_1
I0609 10:12:16.491794 12002 net.cpp:406] eltwise_stage2_block4 <- conv_stage2_block4_branch2c
I0609 10:12:16.491798 12002 net.cpp:380] eltwise_stage2_block4 -> eltwise_stage2_block4
I0609 10:12:16.491817 12002 net.cpp:122] Setting up eltwise_stage2_block4
I0609 10:12:16.491822 12002 net.cpp:129] Top shape: 7 512 14 14 (702464)
I0609 10:12:16.491824 12002 net.cpp:137] Memory required for data: 793784348
I0609 10:12:16.491827 12002 layer_factory.hpp:77] Creating layer relu_stage2_block4
I0609 10:12:16.491832 12002 net.cpp:84] Creating Layer relu_stage2_block4
I0609 10:12:16.491833 12002 net.cpp:406] relu_stage2_block4 <- eltwise_stage2_block4
I0609 10:12:16.491838 12002 net.cpp:367] relu_stage2_block4 -> eltwise_stage2_block4 (in-place)
I0609 10:12:16.491843 12002 net.cpp:122] Setting up relu_stage2_block4
I0609 10:12:16.491847 12002 net.cpp:129] Top shape: 7 512 14 14 (702464)
I0609 10:12:16.491848 12002 net.cpp:137] Memory required for data: 796594204
I0609 10:12:16.491850 12002 layer_factory.hpp:77] Creating layer eltwise_stage2_block4_relu_stage2_block4_0_split
…
I0609 10:12:16.728847 12002 layer_factory.hpp:77] Creating layer eltwise_stage2_block3_relu_stage2_block3_0_split
I0609 10:12:16.728852 12002 net.cpp:84] Creating Layer eltwise_stage2_block3_relu_stage2_block3_0_split
I0609 10:12:16.728857 12002 net.cpp:406] eltwise_stage2_block3_relu_stage2_block3_0_split <- eltwise_stage2_block3
I0609 10:12:16.728863 12002 net.cpp:380] eltwise_stage2_block3_relu_stage2_block3_0_split -> eltwise_stage2_block3_relu_stage2_block3_0_split_0
I0609 10:12:16.728868 12002 net.cpp:380] eltwise_stage2_block3_relu_stage2_block3_0_split -> eltwise_stage2_block3_relu_stage2_block3_0_split_1
I0609 10:12:16.728906 12002 net.cpp:122] Setting up eltwise_stage2_block3_relu_stage2_block3_0_split
I0609 10:12:16.728912 12002 net.cpp:129] Top shape: 7 512 14 14 (702464)
I0609 10:12:16.728916 12002 net.cpp:129] Top shape: 7 512 14 14 (702464)
I0609 10:12:16.728919 12002 net.cpp:137] Memory required for data: 776925268
I0609 10:12:16.728922 12002 layer_factory.hpp:77] Creating layer conv_stage2_block4_branch2a
I0609 10:12:16.728932 12002 net.cpp:84] Creating Layer conv_stage2_block4_branch2a
I0609 10:12:16.728935 12002 net.cpp:406] conv_stage2_block4_branch2a <- eltwise_stage2_block3_relu_stage2_block3_0_split_0
I0609 10:12:16.728942 12002 net.cpp:380] conv_stage2_block4_branch2a -> conv_stage2_block4_branch2a
I0609 10:12:16.729584 12002 net.cpp:122] Setting up conv_stage2_block4_branch2a
I0609 10:12:16.729591 12002 net.cpp:129] Top shape: 7 128 14 14 (175616)
I0609 10:12:16.729594 12002 net.cpp:137] Memory required for data: 777627732
I0609 10:12:16.729600 12002 layer_factory.hpp:77] Creating layer bn_stage2_block4_branch2a
I0609 10:12:16.729609 12002 net.cpp:84] Creating Layer bn_stage2_block4_branch2a
I0609 10:12:16.729612 12002 net.cpp:406] bn_stage2_block4_branch2a <- conv_stage2_block4_branch2a
I0609 10:12:16.729617 12002 net.cpp:367] bn_stage2_block4_branch2a -> conv_stage2_block4_branch2a (in-place)
I0609 10:12:16.729815 12002 net.cpp:122] Setting up bn_stage2_block4_branch2a
I0609 10:12:16.729820 12002 net.cpp:129] Top shape: 7 128 14 14 (175616)
I0609 10:12:16.729823 12002 net.cpp:137] Memory required for data: 778330196
I0609 10:12:16.729830 12002 layer_factory.hpp:77] Creating layer scale_stage2_block4_branch2a
I0609 10:12:16.729837 12002 net.cpp:84] Creating Layer scale_stage2_block4_branch2a
I0609 10:12:16.729841 12002 net.cpp:406] scale_stage2_block4_branch2a <- conv_stage2_block4_branch2a
I0609 10:12:16.729846 12002 net.cpp:367] scale_stage2_block4_branch2a -> conv_stage2_block4_branch2a (in-place)
I0609 10:12:16.729888 12002 layer_factory.hpp:77] Creating layer scale_stage2_block4_branch2a
I0609 10:12:16.730005 12002 net.cpp:122] Setting up scale_stage2_block4_branch2a
I0609 10:12:16.730011 12002 net.cpp:129] Top shape: 7 128 14 14 (175616)
I0609 10:12:16.730015 12002 net.cpp:137] Memory required for data: 779032660
I0609 10:12:16.730020 12002 layer_factory.hpp:77] Creating layer relu_stage2_block4_branch2a
I0609 10:12:16.730027 12002 net.cpp:84] Creating Layer relu_stage2_block4_branch2a
I0609 10:12:16.730031 12002 net.cpp:406] relu_stage2_block4_branch2a <- conv_stage2_block4_branch2a
I0609 10:12:16.730037 12002 net.cpp:367] relu_stage2_block4_branch2a -> conv_stage2_block4_branch2a (in-place)
I0609 10:12:16.730042 12002 net.cpp:122] Setting up relu_stage2_block4_branch2a
I0609 10:12:16.730047 12002 net.cpp:129] Top shape: 7 128 14 14 (175616)
I0609 10:12:16.730058 12002 net.cpp:137] Memory required for data: 779735124
I0609 10:12:16.730062 12002 layer_factory.hpp:77] Creating layer conv_stage2_block4_branch2b
I0609 10:12:16.730070 12002 net.cpp:84] Creating Layer conv_stage2_block4_branch2b
I0609 10:12:16.730073 12002 net.cpp:406] conv_stage2_block4_branch2b <- conv_stage2_block4_branch2a
I0609 10:12:16.730082 12002 net.cpp:380] conv_stage2_block4_branch2b -> conv_stage2_block4_branch2b
I0609 10:12:16.731806 12002 net.cpp:122] Setting up conv_stage2_block4_branch2b
I0609 10:12:16.731819 12002 net.cpp:129] Top shape: 7 128 14 14 (175616)
I0609 10:12:16.731822 12002 net.cpp:137] Memory required for data: 780437588
I0609 10:12:16.731829 12002 layer_factory.hpp:77] Creating layer bn_stage2_block4_branch2b
I0609 10:12:16.731837 12002 net.cpp:84] Creating Layer bn_stage2_block4_branch2b
I0609 10:12:16.731842 12002 net.cpp:406] bn_stage2_block4_branch2b <- conv_stage2_block4_branch2b
I0609 10:12:16.731848 12002 net.cpp:367] bn_stage2_block4_branch2b -> conv_stage2_block4_branch2b (in-place)
I0609 10:12:16.732048 12002 net.cpp:122] Setting up bn_stage2_block4_branch2b
I0609 10:12:16.732054 12002 net.cpp:129] Top shape: 7 128 14 14 (175616)
I0609 10:12:16.732058 12002 net.cpp:137] Memory required for data: 781140052
I0609 10:12:16.732064 12002 layer_factory.hpp:77] Creating layer scale_stage2_block4_branch2b
I0609 10:12:16.732070 12002 net.cpp:84] Creating Layer scale_stage2_block4_branch2b
I0609 10:12:16.732074 12002 net.cpp:406] scale_stage2_block4_branch2b <- conv_stage2_block4_branch2b
I0609 10:12:16.732079 12002 net.cpp:367] scale_stage2_block4_branch2b -> conv_stage2_block4_branch2b (in-place)
I0609 10:12:16.732123 12002 layer_factory.hpp:77] Creating layer scale_stage2_block4_branch2b
I0609 10:12:16.732240 12002 net.cpp:122] Setting up scale_stage2_block4_branch2b
I0609 10:12:16.732246 12002 net.cpp:129] Top shape: 7 128 14 14 (175616)
I0609 10:12:16.732249 12002 net.cpp:137] Memory required for data: 781842516
I0609 10:12:16.732255 12002 layer_factory.hpp:77] Creating layer relu_stage2_block4_branch2b
I0609 10:12:16.732261 12002 net.cpp:84] Creating Layer relu_stage2_block4_branch2b
I0609 10:12:16.732264 12002 net.cpp:406] relu_stage2_block4_branch2b <- conv_stage2_block4_branch2b
I0609 10:12:16.732270 12002 net.cpp:367] relu_stage2_block4_branch2b -> conv_stage2_block4_branch2b (in-place)
I0609 10:12:16.732276 12002 net.cpp:122] Setting up relu_stage2_block4_branch2b
I0609 10:12:16.732280 12002 net.cpp:129] Top shape: 7 128 14 14 (175616)
I0609 10:12:16.732283 12002 net.cpp:137] Memory required for data: 782544980
I0609 10:12:16.732286 12002 layer_factory.hpp:77] Creating layer conv_stage2_block4_branch2c
I0609 10:12:16.732296 12002 net.cpp:84] Creating Layer conv_stage2_block4_branch2c
I0609 10:12:16.732300 12002 net.cpp:406] conv_stage2_block4_branch2c <- conv_stage2_block4_branch2b
I0609 10:12:16.732306 12002 net.cpp:380] conv_stage2_block4_branch2c -> conv_stage2_block4_branch2c
I0609 10:12:16.732934 12002 net.cpp:122] Setting up conv_stage2_block4_branch2c
I0609 10:12:16.732942 12002 net.cpp:129] Top shape: 7 512 14 14 (702464)
I0609 10:12:16.732945 12002 net.cpp:137] Memory required for data: 785354836
I0609 10:12:16.732950 12002 layer_factory.hpp:77] Creating layer bn_stage2_block4_branch2c
I0609 10:12:16.732959 12002 net.cpp:84] Creating Layer bn_stage2_block4_branch2c
I0609 10:12:16.732962 12002 net.cpp:406] bn_stage2_block4_branch2c <- conv_stage2_block4_branch2c
I0609 10:12:16.732967 12002 net.cpp:367] bn_stage2_block4_branch2c -> conv_stage2_block4_branch2c (in-place)
I0609 10:12:16.733166 12002 net.cpp:122] Setting up bn_stage2_block4_branch2c
I0609 10:12:16.733172 12002 net.cpp:129] Top shape: 7 512 14 14 (702464)
I0609 10:12:16.733175 12002 net.cpp:137] Memory required for data: 788164692
I0609 10:12:16.733182 12002 layer_factory.hpp:77] Creating layer scale_stage2_block4_branch2c
I0609 10:12:16.733187 12002 net.cpp:84] Creating Layer scale_stage2_block4_branch2c
I0609 10:12:16.733191 12002 net.cpp:406] scale_stage2_block4_branch2c <- conv_stage2_block4_branch2c
I0609 10:12:16.733211 12002 net.cpp:367] scale_stage2_block4_branch2c -> conv_stage2_block4_branch2c (in-place)
I0609 10:12:16.733253 12002 layer_factory.hpp:77] Creating layer scale_stage2_block4_branch2c
I0609 10:12:16.733374 12002 net.cpp:122] Setting up scale_stage2_block4_branch2c
I0609 10:12:16.733381 12002 net.cpp:129] Top shape: 7 512 14 14 (702464)
I0609 10:12:16.733383 12002 net.cpp:137] Memory required for data: 790974548
I0609 10:12:16.733389 12002 layer_factory.hpp:77] Creating layer eltwise_stage2_block4
I0609 10:12:16.733395 12002 net.cpp:84] Creating Layer eltwise_stage2_block4
I0609 10:12:16.733398 12002 net.cpp:406] eltwise_stage2_block4 <- eltwise_stage2_block3_relu_stage2_block3_0_split_1
I0609 10:12:16.733403 12002 net.cpp:406] eltwise_stage2_block4 <- conv_stage2_block4_branch2c
I0609 10:12:16.733410 12002 net.cpp:380] eltwise_stage2_block4 -> eltwise_stage2_block4
I0609 10:12:16.733435 12002 net.cpp:122] Setting up eltwise_stage2_block4
I0609 10:12:16.733441 12002 net.cpp:129] Top shape: 7 512 14 14 (702464)
I0609 10:12:16.733445 12002 net.cpp:137] Memory required for data: 793784404
I0609 10:12:16.733449 12002 layer_factory.hpp:77] Creating layer relu_stage2_block4
I0609 10:12:16.733458 12002 net.cpp:84] Creating Layer relu_stage2_block4
I0609 10:12:16.733460 12002 net.cpp:406] relu_stage2_block4 <- eltwise_stage2_block4
I0609 10:12:16.733465 12002 net.cpp:367] relu_stage2_block4 -> eltwise_stage2_block4 (in-place)
I0609 10:12:16.733471 12002 net.cpp:122] Setting up relu_stage2_block4
I0609 10:12:16.733475 12002 net.cpp:129] Top shape: 7 512 14 14 (702464)
I0609 10:12:16.733479 12002 net.cpp:137] Memory required for data: 796594260
I0609 10:12:16.733481 12002 layer_factory.hpp:77] Creating layer eltwise_stage2_block4_relu_stage2_block4_0_split
I0609 10:12:16.733489 12002 net.cpp:84] Creating Layer eltwise_stage2_block4_relu_stage2_block4_0_split
I0609 10:12:16.733491 12002 net.cpp:406] eltwise_stage2_block4_relu_stage2_block4_0_split <- eltwise_stage2_block4
I0609 10:12:16.733496 12002 net.cpp:380] eltwise_stage2_block4_relu_stage2_block4_0_split -> eltwise_stage2_block4_relu_stage2_block4_0_split_0
I0609 10:12:16.733503 12002 net.cpp:380] eltwise_stage2_block4_relu_stage2_block4_0_split -> eltwise_stage2_block4_relu_stage2_block4_0_split_1
I0609 10:12:16.733541 12002 net.cpp:122] Setting up eltwise_stage2_block4_relu_stage2_block4_0_split
I0609 10:12:16.733546 12002 net.cpp:129] Top shape: 7 512 14 14 (702464)
I0609 10:12:16.733551 12002 net.cpp:129] Top shape: 7 512 14 14 (702464)
I0609 10:12:16.733553 12002 net.cpp:137] Memory required for data: 802213972
I0609 10:12:16.733556 12002 layer_factory.hpp:77] Creating layer conv_stage2_block5_branch2a
I0609 10:12:16.733566 12002 net.cpp:84] Creating Layer conv_stage2_block5_branch2a
I0609 10:12:16.733568 12002 net.cpp:406] conv_stage2_block5_branch2a <- eltwise_stage2_block4_relu_stage2_block4_0_split_0
I0609 10:12:16.733577 12002 net.cpp:380] conv_stage2_block5_branch2a -> conv_stage2_block5_branch2a
I0609 10:12:16.734815 12002 net.cpp:122] Setting up conv_stage2_block5_branch2a
I0609 10:12:16.734827 12002 net.cpp:129] Top shape: 7 128 14 14 (175616)
I0609 10:12:16.734832 12002 net.cpp:137] Memory required for data: 802916436
I0609 10:12:16.734838 12002 layer_factory.hpp:77] Creating layer bn_stage2_block5_branch2a
I0609 10:12:16.734846 12002 net.cpp:84] Creating Layer bn_stage2_block5_branch2a
I0609 10:12:16.734850 12002 net.cpp:406] bn_stage2_block5_branch2a <- conv_stage2_block5_branch2a
I0609 10:12:16.734858 12002 net.cpp:367] bn_stage2_block5_branch2a -> conv_stage2_block5_branch2a (in-place)
I0609 10:12:16.735080 12002 net.cpp:122] Setting up bn_stage2_block5_branch2a
I0609 10:12:16.735086 12002 net.cpp:129] Top shape: 7 128 14 14 (175616)
I0609 10:12:16.735090 12002 net.cpp:137] Memory required for data: 803618900
I0609 10:12:16.735097 12002 layer_factory.hpp:77] Creating layer scale_stage2_block5_branch2a
I0609 10:12:16.735103 12002 net.cpp:84] Creating Layer scale_stage2_block5_branch2a
I0609 10:12:16.735118 12002 net.cpp:406] scale_stage2_block5_branch2a <- conv_stage2_block5_branch2a
I0609 10:12:16.735126 12002 net.cpp:367] scale_stage2_block5_branch2a -> conv_stage2_block5_branch2a (in-place)
I0609 10:12:16.735174 12002 layer_factory.hpp:77] Creating layer scale_stage2_block5_branch2a
I0609 10:12:16.735296 12002 net.cpp:122] Setting up scale_stage2_block5_branch2a
I0609 10:12:16.735301 12002 net.cpp:129] Top shape: 7 128 14 14 (175616)
I0609 10:12:16.735306 12002 net.cpp:137] Memory required for data: 804321364
I0609 10:12:16.735311 12002 layer_factory.hpp:77] Creating layer relu_stage2_block5_branch2a
I0609 10:12:16.735316 12002 net.cpp:84] Creating Layer relu_stage2_block5_branch2a
I0609 10:12:16.735321 12002 net.cpp:406] relu_stage2_block5_branch2a <- conv_stage2_block5_branch2a
I0609 10:12:16.735327 12002 net.cpp:367] relu_stage2_block5_branch2a -> conv_stage2_block5_branch2a (in-place)
I0609 10:12:16.735332 12002 net.cpp:122] Setting up relu_stage2_block5_branch2a
I0609 10:12:16.735337 12002 net.cpp:129] Top shape: 7 128 14 14 (175616)
I0609 10:12:16.735340 12002 net.cpp:137] Memory required for data: 805023828
I0609 10:12:16.735343 12002 layer_factory.hpp:77] Creating layer conv_stage2_block5_branch2b
I0609 10:12:16.735354 12002 net.cpp:84] Creating Layer conv_stage2_block5_branch2b
I0609 10:12:16.735358 12002 net.cpp:406] conv_stage2_block5_branch2b <- conv_stage2_block5_branch2a
I0609 10:12:16.735364 12002 net.cpp:380] conv_stage2_block5_branch2b -> conv_stage2_block5_branch2b
I0609 10:12:16.737099 12002 net.cpp:122] Setting up conv_stage2_block5_branch2b
I0609 10:12:16.737112 12002 net.cpp:129] Top shape: 7 128 14 14 (175616)
I0609 10:12:16.737115 12002 net.cpp:137] Memory required for data: 805726292
I0609 10:12:16.737121 12002 layer_factory.hpp:77] Creating layer bn_stage2_block5_branch2b
I0609 10:12:16.737128 12002 net.cpp:84] Creating Layer bn_stage2_block5_branch2b
I0609 10:12:16.737133 12002 net.cpp:406] bn_stage2_block5_branch2b <- conv_stage2_block5_branch2b
I0609 10:12:16.737140 12002 net.cpp:367] bn_stage2_block5_branch2b -> conv_stage2_block5_branch2b (in-place)
I0609 10:12:16.737350 12002 net.cpp:122] Setting up bn_stage2_block5_branch2b
I0609 10:12:16.737356 12002 net.cpp:129] Top shape: 7 128 14 14 (175616)
I0609 10:12:16.737360 12002 net.cpp:137] Memory required for data: 806428756
I0609 10:12:16.737367 12002 layer_factory.hpp:77] Creating layer scale_stage2_block5_branch2b
I0609 10:12:16.737373 12002 net.cpp:84] Creating Layer scale_stage2_block5_branch2b
I0609 10:12:16.737376 12002 net.cpp:406] scale_stage2_block5_branch2b <- conv_stage2_block5_branch2b
I0609 10:12:16.737381 12002 net.cpp:367] scale_stage2_block5_branch2b -> conv_stage2_block5_branch2b (in-place)
I0609 10:12:16.737426 12002 layer_factory.hpp:77] Creating layer scale_stage2_block5_branch2b
I0609 10:12:16.737538 12002 net.cpp:122] Setting up scale_stage2_block5_branch2b
I0609 10:12:16.737545 12002 net.cpp:129] Top shape: 7 128 14 14 (175616)
I0609 10:12:16.737547 12002 net.cpp:137] Memory required for data: 807131220
I0609 10:12:16.737553 12002 layer_factory.hpp:77] Creating layer relu_stage2_block5_branch2b
I0609 10:12:16.737561 12002 net.cpp:84] Creating Layer relu_stage2_block5_branch2b
I0609 10:12:16.737565 12002 net.cpp:406] relu_stage2_block5_branch2b <- conv_stage2_block5_branch2b
I0609 10:12:16.737570 12002 net.cpp:367] relu_stage2_block5_branch2b -> conv_stage2_block5_branch2b (in-place)
I0609 10:12:16.737576 12002 net.cpp:122] Setting up relu_stage2_block5_branch2b
I0609 10:12:16.737579 12002 net.cpp:129] Top shape: 7 128 14 14 (175616)
I0609 10:12:16.737582 12002 net.cpp:137] Memory required for data: 807833684
I0609 10:12:16.737586 12002 layer_factory.hpp:77] Creating layer conv_stage2_block5_branch2c
I0609 10:12:16.737596 12002 net.cpp:84] Creating Layer conv_stage2_block5_branch2c
I0609 10:12:16.737599 12002 net.cpp:406] conv_stage2_block5_branch2c <- conv_stage2_block5_branch2b
I0609 10:12:16.737607 12002 net.cpp:380] conv_stage2_block5_branch2c -> conv_stage2_block5_branch2c
I0609 10:12:16.738296 12002 net.cpp:122] Setting up conv_stage2_block5_branch2c
I0609 10:12:16.738317 12002 net.cpp:129] Top shape: 7 512 14 14 (702464)
I0609 10:12:16.738320 12002 net.cpp:137] Memory required for data: 810643540
I0609 10:12:16.738327 12002 layer_factory.hpp:77] Creating layer bn_stage2_block5_branch2c
I0609 10:12:16.738334 12002 net.cpp:84] Creating Layer bn_stage2_block5_branch2c
I0609 10:12:16.738339 12002 net.cpp:406] bn_stage2_block5_branch2c <- conv_stage2_block5_branch2c
I0609 10:12:16.738345 12002 net.cpp:367] bn_stage2_block5_branch2c -> conv_stage2_block5_branch2c (in-place)
I0609 10:12:16.739120 12002 net.cpp:122] Setting up bn_stage2_block5_branch2c
I0609 10:12:16.739131 12002 net.cpp:129] Top shape: 7 512 14 14 (702464)
I0609 10:12:16.739135 12002 net.cpp:137] Memory required for data: 813453396
I0609 10:12:16.739142 12002 layer_factory.hpp:77] Creating layer scale_stage2_block5_branch2c
I0609 10:12:16.739150 12002 net.cpp:84] Creating Layer scale_stage2_block5_branch2c
I0609 10:12:16.739153 12002 net.cpp:406] scale_stage2_block5_branch2c <- conv_stage2_block5_branch2c
I0609 10:12:16.739159 12002 net.cpp:367] scale_stage2_block5_branch2c -> conv_stage2_block5_branch2c (in-place)
I0609 10:12:16.739210 12002 layer_factory.hpp:77] Creating layer scale_stage2_block5_branch2c
I0609 10:12:16.739331 12002 net.cpp:122] Setting up scale_stage2_block5_branch2c
I0609 10:12:16.739337 12002 net.cpp:129] Top shape: 7 512 14 14 (702464)
I0609 10:12:16.739341 12002 net.cpp:137] Memory required for data: 816263252
I0609 10:12:16.739346 12002 layer_factory.hpp:77] Creating layer eltwise_stage2_block5
I0609 10:12:16.739353 12002 net.cpp:84] Creating Layer eltwise_stage2_block5
I0609 10:12:16.739357 12002 net.cpp:406] eltwise_stage2_block5 <- eltwise_stage2_block4_relu_stage2_block4_0_split_1
I0609 10:12:16.739362 12002 net.cpp:406] eltwise_stage2_block5 <- conv_stage2_block5_branch2c
I0609 10:12:16.739367 12002 net.cpp:380] eltwise_stage2_block5 -> eltwise_stage2_block5
I0609 10:12:16.739393 12002 net.cpp:122] Setting up eltwise_stage2_block5
I0609 10:12:16.739399 12002 net.cpp:129] Top shape: 7 512 14 14 (702464)
I0609 10:12:16.739403 12002 net.cpp:137] Memory required for data: 819073108
I0609 10:12:16.739405 12002 layer_factory.hpp:77] Creating layer relu_stage2_block5
I0609 10:12:16.739411 12002 net.cpp:84] Creating Layer relu_stage2_block5
I0609 10:12:16.739414 12002 net.cpp:406] relu_stage2_block5 <- eltwise_stage2_block5
I0609 10:12:16.739420 12002 net.cpp:367] relu_stage2_block5 -> eltwise_stage2_block5 (in-place)
I0609 10:12:16.739426 12002 net.cpp:122] Setting up relu_stage2_block5
I0609 10:12:16.739430 12002 net.cpp:129] Top shape: 7 512 14 14 (702464)
I0609 10:12:16.739434 12002 net.cpp:137] Memory required for data: 821882964
I0609 10:12:16.739436 12002 layer_factory.hpp:77] Creating layer eltwise_stage2_block5_relu_stage2_block5_0_split
I0609 10:12:16.739442 12002 net.cpp:84] Creating Layer eltwise_stage2_block5_relu_stage2_block5_0_split
I0609 10:12:16.739445 12002 net.cpp:406] eltwise_stage2_block5_relu_stage2_block5_0_split <- eltwise_stage2_block5
I0609 10:12:16.739451 12002 net.cpp:380] eltwise_stage2_block5_relu_stage2_block5_0_split -> eltwise_stage2_block5_relu_stage2_block5_0_split_0
I0609 10:12:16.739459 12002 net.cpp:380] eltwise_stage2_block5_relu_stage2_block5_0_split -> eltwise_stage2_block5_relu_stage2_block5_0_split_1
I0609 10:12:16.739495 12002 net.cpp:122] Setting up eltwise_stage2_block5_relu_stage2_block5_0_split
I0609 10:12:16.739500 12002 net.cpp:129] Top shape: 7 512 14 14 (702464)
I0609 10:12:16.739504 12002 net.cpp:129] Top shape: 7 512 14 14 (702464)
I0609 10:12:16.739507 12002 net.cpp:137] Memory required for data: 827502676
I0609 10:12:16.739511 12002 layer_factory.hpp:77] Creating layer conv_stage3_block0_proj_shortcut
I0609 10:12:16.739519 12002 net.cpp:84] Creating Layer conv_stage3_block0_proj_shortcut
I0609 10:12:16.739523 12002 net.cpp:406] conv_stage3_block0_proj_shortcut <- eltwise_stage2_block5_relu_stage2_block5_0_split_0
I0609 10:12:16.739532 12002 net.cpp:380] conv_stage3_block0_proj_shortcut -> conv_stage3_block0_proj_shortcut
I0609 10:12:16.744017 12002 net.cpp:122] Setting up conv_stage3_block0_proj_shortcut
I0609 10:12:16.744030 12002 net.cpp:129] Top shape: 7 1024 7 7 (351232)
I0609 10:12:16.744035 12002 net.cpp:137] Memory required for data: 828907604
I0609 10:12:16.744040 12002 layer_factory.hpp:77] Creating layer bn_stage3_block0_proj_shortcut
I0609 10:12:16.744050 12002 net.cpp:84] Creating Layer bn_stage3_block0_proj_shortcut
I0609 10:12:16.744055 12002 net.cpp:406] bn_stage3_block0_proj_shortcut <- conv_stage3_block0_proj_shortcut
I0609 10:12:16.744063 12002 net.cpp:367] bn_stage3_block0_proj_shortcut -> conv_stage3_block0_proj_shortcut (in-place)
I0609 10:12:16.744287 12002 net.cpp:122] Setting up bn_stage3_block0_proj_shortcut
I0609 10:12:16.744294 12002 net.cpp:129] Top shape: 7 1024 7 7 (351232)
I0609 10:12:16.744297 12002 net.cpp:137] Memory required for data: 830312532
I0609 10:12:16.744305 12002 layer_factory.hpp:77] Creating layer scale_stage3_block0_proj_shortcut
I0609 10:12:16.744313 12002 net.cpp:84] Creating Layer scale_stage3_block0_proj_shortcut
I0609 10:12:16.746842 12002 net.cpp:406] scale_stage3_block0_proj_shortcut <- conv_stage3_block0_proj_shortcut
I0609 10:12:16.746860 12002 net.cpp:367] scale_stage3_block0_proj_shortcut -> conv_stage3_block0_proj_shortcut (in-place)
I0609 10:12:16.746942 12002 layer_factory.hpp:77] Creating layer scale_stage3_block0_proj_shortcut
I0609 10:12:16.747086 12002 net.cpp:122] Setting up scale_stage3_block0_proj_shortcut
I0609 10:12:16.747093 12002 net.cpp:129] Top shape: 7 1024 7 7 (351232)
I0609 10:12:16.747097 12002 net.cpp:137] Memory required for data: 831717460
I0609 10:12:16.747103 12002 layer_factory.hpp:77] Creating layer conv_stage3_block0_branch2a
I0609 10:12:16.747117 12002 net.cpp:84] Creating Layer conv_stage3_block0_branch2a
I0609 10:12:16.747120 12002 net.cpp:406] conv_stage3_block0_branch2a <- eltwise_stage2_block5_relu_stage2_block5_0_split_1
I0609 10:12:16.747128 12002 net.cpp:380] conv_stage3_block0_branch2a -> conv_stage3_block0_branch2a
I0609 10:12:16.748178 12002 net.cpp:122] Setting up conv_stage3_block0_branch2a
I0609 10:12:16.748188 12002 net.cpp:129] Top shape: 7 256 7 7 (87808)
I0609 10:12:16.748190 12002 net.cpp:137] Memory required for data: 832068692
I0609 10:12:16.748196 12002 layer_factory.hpp:77] Creating layer bn_stage3_block0_branch2a
I0609 10:12:16.748204 12002 net.cpp:84] Creating Layer bn_stage3_block0_branch2a
I0609 10:12:16.748208 12002 net.cpp:406] bn_stage3_block0_branch2a <- conv_stage3_block0_branch2a
I0609 10:12:16.748214 12002 net.cpp:367] bn_stage3_block0_branch2a -> conv_stage3_block0_branch2a (in-place)
I0609 10:12:16.748392 12002 net.cpp:122] Setting up bn_stage3_block0_branch2a
I0609 10:12:16.748399 12002 net.cpp:129] Top shape: 7 256 7 7 (87808)
I0609 10:12:16.748400 12002 net.cpp:137] Memory required for data: 832419924
I0609 10:12:16.748407 12002 layer_factory.hpp:77] Creating layer scale_stage3_block0_branch2a
I0609 10:12:16.748419 12002 net.cpp:84] Creating Layer scale_stage3_block0_branch2a
I0609 10:12:16.748421 12002 net.cpp:406] scale_stage3_block0_branch2a <- conv_stage3_block0_branch2a
I0609 10:12:16.748425 12002 net.cpp:367] scale_stage3_block0_branch2a -> conv_stage3_block0_branch2a (in-place)
I0609 10:12:16.748458 12002 layer_factory.hpp:77] Creating layer scale_stage3_block0_branch2a
I0609 10:12:16.748540 12002 net.cpp:122] Setting up scale_stage3_block0_branch2a
I0609 10:12:16.748545 12002 net.cpp:129] Top shape: 7 256 7 7 (87808)
I0609 10:12:16.748548 12002 net.cpp:137] Memory required for data: 832771156
I0609 10:12:16.748551 12002 layer_factory.hpp:77] Creating layer relu_stage3_block0_branch2a
I0609 10:12:16.748558 12002 net.cpp:84] Creating Layer relu_stage3_block0_branch2a
I0609 10:12:16.748560 12002 net.cpp:406] relu_stage3_block0_branch2a <- conv_stage3_block0_branch2a
I0609 10:12:16.748564 12002 net.cpp:367] relu_stage3_block0_branch2a -> conv_stage3_block0_branch2a (in-place)
I0609 10:12:16.748569 12002 net.cpp:122] Setting up relu_stage3_block0_branch2a
I0609 10:12:16.748582 12002 net.cpp:129] Top shape: 7 256 7 7 (87808)
I0609 10:12:16.748585 12002 net.cpp:137] Memory required for data: 833122388
I0609 10:12:16.748587 12002 layer_factory.hpp:77] Creating layer conv_stage3_block0_branch2b
I0609 10:12:16.748595 12002 net.cpp:84] Creating Layer conv_stage3_block0_branch2b
I0609 10:12:16.748597 12002 net.cpp:406] conv_stage3_block0_branch2b <- conv_stage3_block0_branch2a
I0609 10:12:16.748605 12002 net.cpp:380] conv_stage3_block0_branch2b -> conv_stage3_block0_branch2b
I0609 10:12:16.752382 12002 net.cpp:122] Setting up conv_stage3_block0_branch2b
I0609 10:12:16.752394 12002 net.cpp:129] Top shape: 7 256 7 7 (87808)
I0609 10:12:16.752396 12002 net.cpp:137] Memory required for data: 833473620
I0609 10:12:16.752403 12002 layer_factory.hpp:77] Creating layer bn_stage3_block0_branch2b
I0609 10:12:16.752410 12002 net.cpp:84] Creating Layer bn_stage3_block0_branch2b
I0609 10:12:16.752414 12002 net.cpp:406] bn_stage3_block0_branch2b <- conv_stage3_block0_branch2b
I0609 10:12:16.752419 12002 net.cpp:367] bn_stage3_block0_branch2b -> conv_stage3_block0_branch2b (in-place)
I0609 10:12:16.752573 12002 net.cpp:122] Setting up bn_stage3_block0_branch2b
I0609 10:12:16.752579 12002 net.cpp:129] Top shape: 7 256 7 7 (87808)
I0609 10:12:16.752583 12002 net.cpp:137] Memory required for data: 833824852
I0609 10:12:16.752588 12002 layer_factory.hpp:77] Creating layer scale_stage3_block0_branch2b
I0609 10:12:16.752594 12002 net.cpp:84] Creating Layer scale_stage3_block0_branch2b
I0609 10:12:16.752598 12002 net.cpp:406] scale_stage3_block0_branch2b <- conv_stage3_block0_branch2b
I0609 10:12:16.752601 12002 net.cpp:367] scale_stage3_block0_branch2b -> conv_stage3_block0_branch2b (in-place)
I0609 10:12:16.752637 12002 layer_factory.hpp:77] Creating layer scale_stage3_block0_branch2b
I0609 10:12:16.752722 12002 net.cpp:122] Setting up scale_stage3_block0_branch2b
I0609 10:12:16.752727 12002 net.cpp:129] Top shape: 7 256 7 7 (87808)
I0609 10:12:16.752728 12002 net.cpp:137] Memory required for data: 834176084
I0609 10:12:16.752732 12002 layer_factory.hpp:77] Creating layer relu_stage3_block0_branch2b
I0609 10:12:16.752741 12002 net.cpp:84] Creating Layer relu_stage3_block0_branch2b
I0609 10:12:16.752745 12002 net.cpp:406] relu_stage3_block0_branch2b <- conv_stage3_block0_branch2b
I0609 10:12:16.752748 12002 net.cpp:367] relu_stage3_block0_branch2b -> conv_stage3_block0_branch2b (in-place)
I0609 10:12:16.752754 12002 net.cpp:122] Setting up relu_stage3_block0_branch2b
I0609 10:12:16.752758 12002 net.cpp:129] Top shape: 7 256 7 7 (87808)
I0609 10:12:16.752760 12002 net.cpp:137] Memory required for data: 834527316
I0609 10:12:16.752763 12002 layer_factory.hpp:77] Creating layer conv_stage3_block0_branch2c
I0609 10:12:16.752769 12002 net.cpp:84] Creating Layer conv_stage3_block0_branch2c
I0609 10:12:16.752773 12002 net.cpp:406] conv_stage3_block0_branch2c <- conv_stage3_block0_branch2b
I0609 10:12:16.752779 12002 net.cpp:380] conv_stage3_block0_branch2c -> conv_stage3_block0_branch2c
I0609 10:12:16.754700 12002 net.cpp:122] Setting up conv_stage3_block0_branch2c
I0609 10:12:16.754709 12002 net.cpp:129] Top shape: 7 1024 7 7 (351232)
I0609 10:12:16.754712 12002 net.cpp:137] Memory required for data: 835932244
I0609 10:12:16.754717 12002 layer_factory.hpp:77] Creating layer bn_stage3_block0_branch2c
I0609 10:12:16.754724 12002 net.cpp:84] Creating Layer bn_stage3_block0_branch2c
I0609 10:12:16.754730 12002 net.cpp:406] bn_stage3_block0_branch2c <- conv_stage3_block0_branch2c
I0609 10:12:16.754735 12002 net.cpp:367] bn_stage3_block0_branch2c -> conv_stage3_block0_branch2c (in-place)
I0609 10:12:16.754891 12002 net.cpp:122] Setting up bn_stage3_block0_branch2c
I0609 10:12:16.754896 12002 net.cpp:129] Top shape: 7 1024 7 7 (351232)
I0609 10:12:16.754899 12002 net.cpp:137] Memory required for data: 837337172
I0609 10:12:16.754904 12002 layer_factory.hpp:77] Creating layer scale_stage3_block0_branch2c
I0609 10:12:16.754910 12002 net.cpp:84] Creating Layer scale_stage3_block0_branch2c
I0609 10:12:16.754912 12002 net.cpp:406] scale_stage3_block0_branch2c <- conv_stage3_block0_branch2c
I0609 10:12:16.754928 12002 net.cpp:367] scale_stage3_block0_branch2c -> conv_stage3_block0_branch2c (in-place)
I0609 10:12:16.754966 12002 layer_factory.hpp:77] Creating layer scale_stage3_block0_branch2c
I0609 10:12:16.755056 12002 net.cpp:122] Setting up scale_stage3_block0_branch2c
I0609 10:12:16.755061 12002 net.cpp:129] Top shape: 7 1024 7 7 (351232)
I0609 10:12:16.755064 12002 net.cpp:137] Memory required for data: 838742100
I0609 10:12:16.755069 12002 layer_factory.hpp:77] Creating layer eltwise_stage3_block0
I0609 10:12:16.755074 12002 net.cpp:84] Creating Layer eltwise_stage3_block0
I0609 10:12:16.755076 12002 net.cpp:406] eltwise_stage3_block0 <- conv_stage3_block0_proj_shortcut
I0609 10:12:16.755080 12002 net.cpp:406] eltwise_stage3_block0 <- conv_stage3_block0_branch2c
I0609 10:12:16.755086 12002 net.cpp:380] eltwise_stage3_block0 -> eltwise_stage3_block0
I0609 10:12:16.755105 12002 net.cpp:122] Setting up eltwise_stage3_block0
I0609 10:12:16.755110 12002 net.cpp:129] Top shape: 7 1024 7 7 (351232)
I0609 10:12:16.755111 12002 net.cpp:137] Memory required for data: 840147028
I0609 10:12:16.755115 12002 layer_factory.hpp:77] Creating layer relu_stage3_block0
I0609 10:12:16.755120 12002 net.cpp:84] Creating Layer relu_stage3_block0
I0609 10:12:16.755122 12002 net.cpp:406] relu_stage3_block0 <- eltwise_stage3_block0
I0609 10:12:16.755126 12002 net.cpp:367] relu_stage3_block0 -> eltwise_stage3_block0 (in-place)
I0609 10:12:16.755131 12002 net.cpp:122] Setting up relu_stage3_block0
I0609 10:12:16.755134 12002 net.cpp:129] Top shape: 7 1024 7 7 (351232)
I0609 10:12:16.755136 12002 net.cpp:137] Memory required for data: 841551956
I0609 10:12:16.755138 12002 layer_factory.hpp:77] Creating layer eltwise_stage3_block0_relu_stage3_block0_0_split
I0609 10:12:16.755142 12002 net.cpp:84] Creating Layer eltwise_stage3_block0_relu_stage3_block0_0_split
I0609 10:12:16.755146 12002 net.cpp:406] eltwise_stage3_block0_relu_stage3_block0_0_split <- eltwise_stage3_block0
I0609 10:12:16.755149 12002 net.cpp:380] eltwise_stage3_block0_relu_stage3_block0_0_split -> eltwise_stage3_block0_relu_stage3_block0_0_split_0
I0609 10:12:16.755154 12002 net.cpp:380] eltwise_stage3_block0_relu_stage3_block0_0_split -> eltwise_stage3_block0_relu_stage3_block0_0_split_1
I0609 10:12:16.755182 12002 net.cpp:122] Setting up eltwise_stage3_block0_relu_stage3_block0_0_split
I0609 10:12:16.755187 12002 net.cpp:129] Top shape: 7 1024 7 7 (351232)
I0609 10:12:16.755189 12002 net.cpp:129] Top shape: 7 1024 7 7 (351232)
I0609 10:12:16.755192 12002 net.cpp:137] Memory required for data: 844361812
I0609 10:12:16.755194 12002 layer_factory.hpp:77] Creating layer conv_stage3_block1_branch2a
I0609 10:12:16.755203 12002 net.cpp:84] Creating Layer conv_stage3_block1_branch2a
I0609 10:12:16.755205 12002 net.cpp:406] conv_stage3_block1_branch2a <- eltwise_stage3_block0_relu_stage3_block0_0_split_0
I0609 10:12:16.755210 12002 net.cpp:380] conv_stage3_block1_branch2a -> conv_stage3_block1_branch2a
I0609 10:12:16.757091 12002 net.cpp:122] Setting up conv_stage3_block1_branch2a
I0609 10:12:16.757102 12002 net.cpp:129] Top shape: 7 256 7 7 (87808)
I0609 10:12:16.757103 12002 net.cpp:137] Memory required for data: 844713044
I0609 10:12:16.757108 12002 layer_factory.hpp:77] Creating layer bn_stage3_block1_branch2a
I0609 10:12:16.757114 12002 net.cpp:84] Creating Layer bn_stage3_block1_branch2a
I0609 10:12:16.757117 12002 net.cpp:406] bn_stage3_block1_branch2a <- conv_stage3_block1_branch2a
I0609 10:12:16.757125 12002 net.cpp:367] bn_stage3_block1_branch2a -> conv_stage3_block1_branch2a (in-place)
I0609 10:12:16.757279 12002 net.cpp:122] Setting up bn_stage3_block1_branch2a
I0609 10:12:16.757284 12002 net.cpp:129] Top shape: 7 256 7 7 (87808)
I0609 10:12:16.757287 12002 net.cpp:137] Memory required for data: 845064276
I0609 10:12:16.757293 12002 layer_factory.hpp:77] Creating layer scale_stage3_block1_branch2a
I0609 10:12:16.757298 12002 net.cpp:84] Creating Layer scale_stage3_block1_branch2a
I0609 10:12:16.757309 12002 net.cpp:406] scale_stage3_block1_branch2a <- conv_stage3_block1_branch2a
I0609 10:12:16.757314 12002 net.cpp:367] scale_stage3_block1_branch2a -> conv_stage3_block1_branch2a (in-place)
I0609 10:12:16.757349 12002 layer_factory.hpp:77] Creating layer scale_stage3_block1_branch2a
I0609 10:12:16.757431 12002 net.cpp:122] Setting up scale_stage3_block1_branch2a
I0609 10:12:16.757436 12002 net.cpp:129] Top shape: 7 256 7 7 (87808)
I0609 10:12:16.757438 12002 net.cpp:137] Memory required for data: 845415508
I0609 10:12:16.757443 12002 layer_factory.hpp:77] Creating layer relu_stage3_block1_branch2a
I0609 10:12:16.757448 12002 net.cpp:84] Creating Layer relu_stage3_block1_branch2a
I0609 10:12:16.757452 12002 net.cpp:406] relu_stage3_block1_branch2a <- conv_stage3_block1_branch2a
I0609 10:12:16.757455 12002 net.cpp:367] relu_stage3_block1_branch2a -> conv_stage3_block1_branch2a (in-place)
I0609 10:12:16.757459 12002 net.cpp:122] Setting up relu_stage3_block1_branch2a
I0609 10:12:16.757463 12002 net.cpp:129] Top shape: 7 256 7 7 (87808)
I0609 10:12:16.757465 12002 net.cpp:137] Memory required for data: 845766740
I0609 10:12:16.757467 12002 layer_factory.hpp:77] Creating layer conv_stage3_block1_branch2b
I0609 10:12:16.757475 12002 net.cpp:84] Creating Layer conv_stage3_block1_branch2b
I0609 10:12:16.757478 12002 net.cpp:406] conv_stage3_block1_branch2b <- conv_stage3_block1_branch2a
I0609 10:12:16.757484 12002 net.cpp:380] conv_stage3_block1_branch2b -> conv_stage3_block1_branch2b
I0609 10:12:16.761085 12002 net.cpp:122] Setting up conv_stage3_block1_branch2b
I0609 10:12:16.761096 12002 net.cpp:129] Top shape: 7 256 7 7 (87808)
I0609 10:12:16.761098 12002 net.cpp:137] Memory required for data: 846117972
I0609 10:12:16.761103 12002 layer_factory.hpp:77] Creating layer bn_stage3_block1_branch2b
I0609 10:12:16.761109 12002 net.cpp:84] Creating Layer bn_stage3_block1_branch2b
I0609 10:12:16.761112 12002 net.cpp:406] bn_stage3_block1_branch2b <- conv_stage3_block1_branch2b
I0609 10:12:16.761118 12002 net.cpp:367] bn_stage3_block1_branch2b -> conv_stage3_block1_branch2b (in-place)
I0609 10:12:16.761265 12002 net.cpp:122] Setting up bn_stage3_block1_branch2b
I0609 10:12:16.761270 12002 net.cpp:129] Top shape: 7 256 7 7 (87808)
I0609 10:12:16.761273 12002 net.cpp:137] Memory required for data: 846469204
I0609 10:12:16.761278 12002 layer_factory.hpp:77] Creating layer scale_stage3_block1_branch2b
I0609 10:12:16.761283 12002 net.cpp:84] Creating Layer scale_stage3_block1_branch2b
I0609 10:12:16.761286 12002 net.cpp:406] scale_stage3_block1_branch2b <- conv_stage3_block1_branch2b
I0609 10:12:16.761289 12002 net.cpp:367] scale_stage3_block1_branch2b -> conv_stage3_block1_branch2b (in-place)
I0609 10:12:16.761323 12002 layer_factory.hpp:77] Creating layer scale_stage3_block1_branch2b
I0609 10:12:16.761405 12002 net.cpp:122] Setting up scale_stage3_block1_branch2b
I0609 10:12:16.761410 12002 net.cpp:129] Top shape: 7 256 7 7 (87808)
I0609 10:12:16.761412 12002 net.cpp:137] Memory required for data: 846820436
I0609 10:12:16.761416 12002 layer_factory.hpp:77] Creating layer relu_stage3_block1_branch2b
I0609 10:12:16.761422 12002 net.cpp:84] Creating Layer relu_stage3_block1_branch2b
I0609 10:12:16.761425 12002 net.cpp:406] relu_stage3_block1_branch2b <- conv_stage3_block1_branch2b
I0609 10:12:16.761428 12002 net.cpp:367] relu_stage3_block1_branch2b -> conv_stage3_block1_branch2b (in-place)
I0609 10:12:16.761433 12002 net.cpp:122] Setting up relu_stage3_block1_branch2b
I0609 10:12:16.761436 12002 net.cpp:129] Top shape: 7 256 7 7 (87808)
I0609 10:12:16.761438 12002 net.cpp:137] Memory required for data: 847171668
I0609 10:12:16.761440 12002 layer_factory.hpp:77] Creating layer conv_stage3_block1_branch2c
I0609 10:12:16.761452 12002 net.cpp:84] Creating Layer conv_stage3_block1_branch2c
I0609 10:12:16.761454 12002 net.cpp:406] conv_stage3_block1_branch2c <- conv_stage3_block1_branch2b
I0609 10:12:16.761461 12002 net.cpp:380] conv_stage3_block1_branch2c -> conv_stage3_block1_branch2c
I0609 10:12:16.763330 12002 net.cpp:122] Setting up conv_stage3_block1_branch2c
I0609 10:12:16.763360 12002 net.cpp:129] Top shape: 7 1024 7 7 (351232)
I0609 10:12:16.763362 12002 net.cpp:137] Memory required for data: 848576596
I0609 10:12:16.763367 12002 layer_factory.hpp:77] Creating layer bn_stage3_block1_branch2c
I0609 10:12:16.763375 12002 net.cpp:84] Creating Layer bn_stage3_block1_branch2c
I0609 10:12:16.763377 12002 net.cpp:406] bn_stage3_block1_branch2c <- conv_stage3_block1_branch2c
I0609 10:12:16.763384 12002 net.cpp:367] bn_stage3_block1_branch2c -> conv_stage3_block1_branch2c (in-place)
I0609 10:12:16.763545 12002 net.cpp:122] Setting up bn_stage3_block1_branch2c
I0609 10:12:16.763550 12002 net.cpp:129] Top shape: 7 1024 7 7 (351232)
I0609 10:12:16.763552 12002 net.cpp:137] Memory required for data: 849981524
I0609 10:12:16.763558 12002 layer_factory.hpp:77] Creating layer scale_stage3_block1_branch2c
I0609 10:12:16.763562 12002 net.cpp:84] Creating Layer scale_stage3_block1_branch2c
I0609 10:12:16.766631 12002 net.cpp:406] scale_stage3_block1_branch2c <- conv_stage3_block1_branch2c
I0609 10:12:16.766645 12002 net.cpp:367] scale_stage3_block1_branch2c -> conv_stage3_block1_branch2c (in-place)
I0609 10:12:16.766719 12002 layer_factory.hpp:77] Creating layer scale_stage3_block1_branch2c
I0609 10:12:16.766831 12002 net.cpp:122] Setting up scale_stage3_block1_branch2c
I0609 10:12:16.766839 12002 net.cpp:129] Top shape: 7 1024 7 7 (351232)
I0609 10:12:16.766840 12002 net.cpp:137] Memory required for data: 851386452
I0609 10:12:16.766846 12002 layer_factory.hpp:77] Creating layer eltwise_stage3_block1
I0609 10:12:16.766852 12002 net.cpp:84] Creating Layer eltwise_stage3_block1
I0609 10:12:16.766856 12002 net.cpp:406] eltwise_stage3_block1 <- eltwise_stage3_block0_relu_stage3_block0_0_split_1
I0609 10:12:16.766860 12002 net.cpp:406] eltwise_stage3_block1 <- conv_stage3_block1_branch2c
I0609 10:12:16.766865 12002 net.cpp:380] eltwise_stage3_block1 -> eltwise_stage3_block1
I0609 10:12:16.766886 12002 net.cpp:122] Setting up eltwise_stage3_block1
I0609 10:12:16.766891 12002 net.cpp:129] Top shape: 7 1024 7 7 (351232)
I0609 10:12:16.766893 12002 net.cpp:137] Memory required for data: 852791380
I0609 10:12:16.766896 12002 layer_factory.hpp:77] Creating layer relu_stage3_block1
I0609 10:12:16.766901 12002 net.cpp:84] Creating Layer relu_stage3_block1
I0609 10:12:16.766903 12002 net.cpp:406] relu_stage3_block1 <- eltwise_stage3_block1
I0609 10:12:16.766908 12002 net.cpp:367] relu_stage3_block1 -> eltwise_stage3_block1 (in-place)
I0609 10:12:16.766913 12002 net.cpp:122] Setting up relu_stage3_block1
I0609 10:12:16.766916 12002 net.cpp:129] Top shape: 7 1024 7 7 (351232)
I0609 10:12:16.766918 12002 net.cpp:137] Memory required for data: 854196308
I0609 10:12:16.766921 12002 layer_factory.hpp:77] Creating layer eltwise_stage3_block1_relu_stage3_block1_0_split
I0609 10:12:16.766925 12002 net.cpp:84] Creating Layer eltwise_stage3_block1_relu_stage3_block1_0_split
I0609 10:12:16.766927 12002 net.cpp:406] eltwise_stage3_block1_relu_stage3_block1_0_split <- eltwise_stage3_block1
I0609 10:12:16.766932 12002 net.cpp:380] eltwise_stage3_block1_relu_stage3_block1_0_split -> eltwise_stage3_block1_relu_stage3_block1_0_split_0
I0609 10:12:16.766938 12002 net.cpp:380] eltwise_stage3_block1_relu_stage3_block1_0_split -> eltwise_stage3_block1_relu_stage3_block1_0_split_1
I0609 10:12:16.766965 12002 net.cpp:122] Setting up eltwise_stage3_block1_relu_stage3_block1_0_split
I0609 10:12:16.766969 12002 net.cpp:129] Top shape: 7 1024 7 7 (351232)
I0609 10:12:16.766973 12002 net.cpp:129] Top shape: 7 1024 7 7 (351232)
I0609 10:12:16.766975 12002 net.cpp:137] Memory required for data: 857006164
I0609 10:12:16.766978 12002 layer_factory.hpp:77] Creating layer conv_stage3_block2_branch2a
I0609 10:12:16.766986 12002 net.cpp:84] Creating Layer conv_stage3_block2_branch2a
I0609 10:12:16.766989 12002 net.cpp:406] conv_stage3_block2_branch2a <- eltwise_stage3_block1_relu_stage3_block1_0_split_0
I0609 10:12:16.766994 12002 net.cpp:380] conv_stage3_block2_branch2a -> conv_stage3_block2_branch2a
I0609 10:12:16.768921 12002 net.cpp:122] Setting up conv_stage3_block2_branch2a
I0609 10:12:16.768932 12002 net.cpp:129] Top shape: 7 256 7 7 (87808)
I0609 10:12:16.768935 12002 net.cpp:137] Memory required for data: 857357396
I0609 10:12:16.768940 12002 layer_factory.hpp:77] Creating layer bn_stage3_block2_branch2a
I0609 10:12:16.768949 12002 net.cpp:84] Creating Layer bn_stage3_block2_branch2a
I0609 10:12:16.768952 12002 net.cpp:406] bn_stage3_block2_branch2a <- conv_stage3_block2_branch2a
I0609 10:12:16.768959 12002 net.cpp:367] bn_stage3_block2_branch2a -> conv_stage3_block2_branch2a (in-place)
I0609 10:12:16.769119 12002 net.cpp:122] Setting up bn_stage3_block2_branch2a
I0609 10:12:16.769124 12002 net.cpp:129] Top shape: 7 256 7 7 (87808)
I0609 10:12:16.769127 12002 net.cpp:137] Memory required for data: 857708628
I0609 10:12:16.769132 12002 layer_factory.hpp:77] Creating layer scale_stage3_block2_branch2a
I0609 10:12:16.769140 12002 net.cpp:84] Creating Layer scale_stage3_block2_branch2a
I0609 10:12:16.769141 12002 net.cpp:406] scale_stage3_block2_branch2a <- conv_stage3_block2_branch2a
I0609 10:12:16.769145 12002 net.cpp:367] scale_stage3_block2_branch2a -> conv_stage3_block2_branch2a (in-place)
I0609 10:12:16.769182 12002 layer_factory.hpp:77] Creating layer scale_stage3_block2_branch2a
I0609 10:12:16.769266 12002 net.cpp:122] Setting up scale_stage3_block2_branch2a
I0609 10:12:16.769271 12002 net.cpp:129] Top shape: 7 256 7 7 (87808)
I0609 10:12:16.769273 12002 net.cpp:137] Memory required for data: 858059860
I0609 10:12:16.769279 12002 layer_factory.hpp:77] Creating layer relu_stage3_block2_branch2a
I0609 10:12:16.769282 12002 net.cpp:84] Creating Layer relu_stage3_block2_branch2a
I0609 10:12:16.769285 12002 net.cpp:406] relu_stage3_block2_branch2a <- conv_stage3_block2_branch2a
I0609 10:12:16.769290 12002 net.cpp:367] relu_stage3_block2_branch2a -> conv_stage3_block2_branch2a (in-place)
I0609 10:12:16.769295 12002 net.cpp:122] Setting up relu_stage3_block2_branch2a
I0609 10:12:16.769299 12002 net.cpp:129] Top shape: 7 256 7 7 (87808)
I0609 10:12:16.769300 12002 net.cpp:137] Memory required for data: 858411092
I0609 10:12:16.769304 12002 layer_factory.hpp:77] Creating layer conv_stage3_block2_branch2b
I0609 10:12:16.769310 12002 net.cpp:84] Creating Layer conv_stage3_block2_branch2b
I0609 10:12:16.769313 12002 net.cpp:406] conv_stage3_block2_branch2b <- conv_stage3_block2_branch2a
I0609 10:12:16.769318 12002 net.cpp:380] conv_stage3_block2_branch2b -> conv_stage3_block2_branch2b
I0609 10:12:16.773062 12002 net.cpp:122] Setting up conv_stage3_block2_branch2b
I0609 10:12:16.773074 12002 net.cpp:129] Top shape: 7 256 7 7 (87808)
I0609 10:12:16.773077 12002 net.cpp:137] Memory required for data: 858762324
I0609 10:12:16.773083 12002 layer_factory.hpp:77] Creating layer bn_stage3_block2_branch2b
I0609 10:12:16.773090 12002 net.cpp:84] Creating Layer bn_stage3_block2_branch2b
I0609 10:12:16.773094 12002 net.cpp:406] bn_stage3_block2_branch2b <- conv_stage3_block2_branch2b
I0609 10:12:16.773102 12002 net.cpp:367] bn_stage3_block2_branch2b -> conv_stage3_block2_branch2b (in-place)
I0609 10:12:16.773255 12002 net.cpp:122] Setting up bn_stage3_block2_branch2b
I0609 10:12:16.773260 12002 net.cpp:129] Top shape: 7 256 7 7 (87808)
I0609 10:12:16.773263 12002 net.cpp:137] Memory required for data: 859113556
I0609 10:12:16.773268 12002 layer_factory.hpp:77] Creating layer scale_stage3_block2_branch2b
I0609 10:12:16.773275 12002 net.cpp:84] Creating Layer scale_stage3_block2_branch2b
I0609 10:12:16.773278 12002 net.cpp:406] scale_stage3_block2_branch2b <- conv_stage3_block2_branch2b
I0609 10:12:16.773283 12002 net.cpp:367] scale_stage3_block2_branch2b -> conv_stage3_block2_branch2b (in-place)
I0609 10:12:16.773319 12002 layer_factory.hpp:77] Creating layer scale_stage3_block2_branch2b
I0609 10:12:16.773407 12002 net.cpp:122] Setting up scale_stage3_block2_branch2b
I0609 10:12:16.773412 12002 net.cpp:129] Top shape: 7 256 7 7 (87808)
I0609 10:12:16.773414 12002 net.cpp:137] Memory required for data: 859464788
I0609 10:12:16.773419 12002 layer_factory.hpp:77] Creating layer relu_stage3_block2_branch2b
I0609 10:12:16.773438 12002 net.cpp:84] Creating Layer relu_stage3_block2_branch2b
I0609 10:12:16.773442 12002 net.cpp:406] relu_stage3_block2_branch2b <- conv_stage3_block2_branch2b
I0609 10:12:16.773447 12002 net.cpp:367] relu_stage3_block2_branch2b -> conv_stage3_block2_branch2b (in-place)
I0609 10:12:16.773452 12002 net.cpp:122] Setting up relu_stage3_block2_branch2b
I0609 10:12:16.773455 12002 net.cpp:129] Top shape: 7 256 7 7 (87808)
I0609 10:12:16.773458 12002 net.cpp:137] Memory required for data: 859816020
I0609 10:12:16.773460 12002 layer_factory.hpp:77] Creating layer conv_stage3_block2_branch2c
I0609 10:12:16.773468 12002 net.cpp:84] Creating Layer conv_stage3_block2_branch2c
I0609 10:12:16.773471 12002 net.cpp:406] conv_stage3_block2_branch2c <- conv_stage3_block2_branch2b
I0609 10:12:16.773476 12002 net.cpp:380] conv_stage3_block2_branch2c -> conv_stage3_block2_branch2c
I0609 10:12:16.775420 12002 net.cpp:122] Setting up conv_stage3_block2_branch2c
I0609 10:12:16.775430 12002 net.cpp:129] Top shape: 7 1024 7 7 (351232)
I0609 10:12:16.775434 12002 net.cpp:137] Memory required for data: 861220948
I0609 10:12:16.775439 12002 layer_factory.hpp:77] Creating layer bn_stage3_block2_branch2c
I0609 10:12:16.775445 12002 net.cpp:84] Creating Layer bn_stage3_block2_branch2c
I0609 10:12:16.775449 12002 net.cpp:406] bn_stage3_block2_branch2c <- conv_stage3_block2_branch2c
I0609 10:12:16.775454 12002 net.cpp:367] bn_stage3_block2_branch2c -> conv_stage3_block2_branch2c (in-place)
I0609 10:12:16.775616 12002 net.cpp:122] Setting up bn_stage3_block2_branch2c
I0609 10:12:16.775621 12002 net.cpp:129] Top shape: 7 1024 7 7 (351232)
I0609 10:12:16.775624 12002 net.cpp:137] Memory required for data: 862625876
I0609 10:12:16.775629 12002 layer_factory.hpp:77] Creating layer scale_stage3_block2_branch2c
I0609 10:12:16.775635 12002 net.cpp:84] Creating Layer scale_stage3_block2_branch2c
I0609 10:12:16.775638 12002 net.cpp:406] scale_stage3_block2_branch2c <- conv_stage3_block2_branch2c
I0609 10:12:16.775642 12002 net.cpp:367] scale_stage3_block2_branch2c -> conv_stage3_block2_branch2c (in-place)
I0609 10:12:16.775676 12002 layer_factory.hpp:77] Creating layer scale_stage3_block2_branch2c
I0609 10:12:16.775769 12002 net.cpp:122] Setting up scale_stage3_block2_branch2c
I0609 10:12:16.775774 12002 net.cpp:129] Top shape: 7 1024 7 7 (351232)
I0609 10:12:16.775777 12002 net.cpp:137] Memory required for data: 864030804
I0609 10:12:16.775781 12002 layer_factory.hpp:77] Creating layer eltwise_stage3_block2
I0609 10:12:16.775786 12002 net.cpp:84] Creating Layer eltwise_stage3_block2
I0609 10:12:16.775789 12002 net.cpp:406] eltwise_stage3_block2 <- eltwise_stage3_block1_relu_stage3_block1_0_split_1
I0609 10:12:16.775794 12002 net.cpp:406] eltwise_stage3_block2 <- conv_stage3_block2_branch2c
I0609 10:12:16.775799 12002 net.cpp:380] eltwise_stage3_block2 -> eltwise_stage3_block2
I0609 10:12:16.775820 12002 net.cpp:122] Setting up eltwise_stage3_block2
I0609 10:12:16.775825 12002 net.cpp:129] Top shape: 7 1024 7 7 (351232)
I0609 10:12:16.775826 12002 net.cpp:137] Memory required for data: 865435732
I0609 10:12:16.775830 12002 layer_factory.hpp:77] Creating layer relu_stage3_block2
I0609 10:12:16.775833 12002 net.cpp:84] Creating Layer relu_stage3_block2
I0609 10:12:16.775836 12002 net.cpp:406] relu_stage3_block2 <- eltwise_stage3_block2
I0609 10:12:16.775841 12002 net.cpp:367] relu_stage3_block2 -> eltwise_stage3_block2 (in-place)
I0609 10:12:16.775846 12002 net.cpp:122] Setting up relu_stage3_block2
I0609 10:12:16.775849 12002 net.cpp:129] Top shape: 7 1024 7 7 (351232)
I0609 10:12:16.775851 12002 net.cpp:137] Memory required for data: 866840660
I0609 10:12:16.775854 12002 layer_factory.hpp:77] Creating layer pool
I0609 10:12:16.775858 12002 net.cpp:84] Creating Layer pool
I0609 10:12:16.775861 12002 net.cpp:406] pool <- eltwise_stage3_block2
I0609 10:12:16.775866 12002 net.cpp:380] pool -> pool
I0609 10:12:16.775884 12002 net.cpp:122] Setting up pool
I0609 10:12:16.775888 12002 net.cpp:129] Top shape: 7 1024 1 1 (7168)
I0609 10:12:16.775900 12002 net.cpp:137] Memory required for data: 866869332
I0609 10:12:16.775903 12002 layer_factory.hpp:77] Creating layer fc_nsfw
I0609 10:12:16.775910 12002 net.cpp:84] Creating Layer fc_nsfw
I0609 10:12:16.775913 12002 net.cpp:406] fc_nsfw <- pool
I0609 10:12:16.775918 12002 net.cpp:380] fc_nsfw -> fc_nsfw
I0609 10:12:16.776027 12002 net.cpp:122] Setting up fc_nsfw
I0609 10:12:16.776033 12002 net.cpp:129] Top shape: 7 2 (14)
I0609 10:12:16.776036 12002 net.cpp:137] Memory required for data: 866869388
I0609 10:12:16.776041 12002 layer_factory.hpp:77] Creating layer fc_nsfw_fc_nsfw_0_split
I0609 10:12:16.776044 12002 net.cpp:84] Creating Layer fc_nsfw_fc_nsfw_0_split
I0609 10:12:16.776047 12002 net.cpp:406] fc_nsfw_fc_nsfw_0_split <- fc_nsfw
I0609 10:12:16.776052 12002 net.cpp:380] fc_nsfw_fc_nsfw_0_split -> fc_nsfw_fc_nsfw_0_split_0
I0609 10:12:16.776057 12002 net.cpp:380] fc_nsfw_fc_nsfw_0_split -> fc_nsfw_fc_nsfw_0_split_1
I0609 10:12:16.776087 12002 net.cpp:122] Setting up fc_nsfw_fc_nsfw_0_split
I0609 10:12:16.776090 12002 net.cpp:129] Top shape: 7 2 (14)
I0609 10:12:16.776093 12002 net.cpp:129] Top shape: 7 2 (14)
I0609 10:12:16.776095 12002 net.cpp:137] Memory required for data: 866869500
I0609 10:12:16.776098 12002 layer_factory.hpp:77] Creating layer loss
I0609 10:12:16.776103 12002 net.cpp:84] Creating Layer loss
I0609 10:12:16.776106 12002 net.cpp:406] loss <- fc_nsfw_fc_nsfw_0_split_0
I0609 10:12:16.776110 12002 net.cpp:406] loss <- label_data_1_split_0
I0609 10:12:16.776114 12002 net.cpp:380] loss -> loss
…
