…
name: "ResNet_50_1by2_nsfw"
state {
  phase: TRAIN
  level: 0
  stage: ""
}
layer {
  name: "data"
  type: "ImageData"
  top: "data"
  top: "label"
  include {
    phase: TRAIN
  }
  transform_param {
    mirror: true
    crop_size: 224
    mean_value: 104
    mean_value: 117
    mean_value: 123
  }
  image_data_param {
    source: "/home/dbicho/Documents/datasets/all_labeled_dataset_augmented_finetuning/train.txt"
    batch_size: 7
    shuffle: true
    root_folder: "/home/dbicho/Documents/datasets/all_labeled_dataset_augmented_finetuning/"
  }
}
layer {
  name: "conv_1"
  type: "Convolution"
  bottom: "data"
  top: "conv_1"
  param {
    lr_mult: 0
    decay_mult: 1
  }
  param {
    lr_mult: 0
    decay_mult: 0
  }
  convolution_param {
    num_output: 64
    pad: 3
    kernel_size: 7
    stride: 2
    weight_filler {
      type: "xavier"
    }
    bias_filler {
      type: "constant"
      value: 0
    }
  }
}
layer {
  name: "bn_1"
  type: "BatchNorm"
  bottom: "conv_1"
  top: "conv_1"
  param {
    lr_mult: 0
    decay_mult: 0
  }
  param {
    lr_mult: 0
    decay_mult: 0
  }
  param {
    lr_mult: 0
    decay_mult: 0
  }
  batch_norm_param {
    use_global_stats: false
  }
}
layer {
  name: "scale_1"
  type: "Scale"
  bottom: "conv_1"
  top: "conv_1"
  scale_param {
    bias_term: true
  }
}
layer {
  name: "relu_1"
  type: "ReLU"
  bottom: "conv_1"
  top: "conv_1"
}
layer {
  name: "pool1"
  type: "Pooling"
  bottom: "conv_1"
  top: "pool1"
  pooling_param {
    pool: MAX
    kernel_size: 3
    stride: 2
  }
}
layer {
  name: "conv_stage0_block0_proj_shortcut"
  type: "Convolution"
  bottom: "pool1"
  top: "conv_stage0_block0_proj_shortcut"
  param {
    lr_mult: 0
    decay_mult: 1
  }
  param {
    lr_mult: 0
    decay_mult: 0
  }
  convolution_param {
    num_output: 128
    pad: 0
    kernel_size: 1
    stride: 1
    weight_filler {
      type: "xavier"
    }
    bias_filler {
      type: "constant"
      value: 0
    }
  }
}
layer {
  name: "bn_stage0_block0_proj_shortcut"
  type: "BatchNorm"
  bottom: "conv_stage0_block0_proj_shortcut"
  top: "conv_stage0_block0_proj_shortcut"
  param {
    lr_mult: 0
    decay_mult: 0
  }
  param {
    lr_mult: 0
    decay_mult: 0
  }
  param {
    lr_mult: 0
    decay_mult: 0
  }
  batch_norm_param {
    use_global_stats: false
  }
}
layer {
  name: "scale_stage0_block0_proj_shortcut"
  type: "Scale"
  bottom: "conv_stage0_block0_proj_shortcut"
  top: "conv_stage0_block0_proj_shortcut"
  scale_param {
    bias_term: true
  }
}
layer {
  name: "conv_stage0_block0_branch2a"
  type: "Convolution"
  bottom: "pool1"
  top: "conv_stage0_block0_branch2a"
  param {
    lr_mult: 0
    decay_mult: 1
  }
  param {
    lr_mult: 0
    decay_mult: 0
  }
  convolution_param {
    num_output: 32
    pad: 0
    kernel_size: 1
    stride: 1
    weight_filler {
      type: "xavier"
    }
    bias_filler {
      type: "constant"
      value: 0
    }
  }
}
layer {
  name: "bn_stage0_block0_branch2a"
  type: "BatchNorm"
  bottom: "conv_stage0_block0_branch2a"
  top: "conv_stage0_block0_branch2a"
  param {
    lr_mult: 0
    decay_mult: 0
  }
  param {
    lr_mult: 0
    decay_mult: 0
  }
  param {
    lr_mult: 0
    decay_mult: 0
  }
  batch_norm_param {
    use_global_stats: false
  }
}
layer {
  name: "scale_stage0_block0_branch2a"
  type: "Scale"
  bottom: "conv_stage0_block0_branch2a"
  top: "conv_stage0_block0_branch2a"
  scale_param {
    bias_term: true
  }
}
layer {
  name: "relu_stage0_block0_branch2a"
  type: "ReLU"
  bottom: "conv_stage0_block0_branch2a"
  top: "conv_stage0_block0_branch2a"
}
layer {
  name: "conv_stage0_block0_branch2b"
  type: "Convolution"
  bottom: "conv_stage0_block0_branch2a"
  top: "conv_stage0_block0_branch2b"
  param {
    lr_mult: 0
    decay_mult: 1
  }
  param {
    lr_mult: 0
    decay_mult: 0
  }
  convolution_param {
    num_output: 32
    pad: 1
    kernel_size: 3
    stride: 1
    weight_filler {
      type: "xavier"
    }
    bias_filler {
      type: "constant"
      value: 0
    }
  }
}
layer {
  name: "bn_stage0_block0_branch2b"
  type: "BatchNorm"
  bottom: "conv_stage0_block0_branch2b"
  top: "conv_stage0_block0_branch2b"
  param {
    lr_mult: 0
    decay_mult: 0
  }
  param {
    lr_mult: 0
    decay_mult: 0
  }
  param {
    lr_mult: 0
    decay_mult: 0
  }
  batch_norm_param {
    use_global_stats: false
  }
}
layer {
  name: "scale_stage0_block0_branch2b"
  type: "Scale"
  bottom: "conv_stage0_block0_branch2b"
  top: "conv_stage0_block0_branch2b"
  scale_param {
    bias_term: true
  }
}
layer {
  name: "relu_stage0_block0_branch2b"
  type: "ReLU"
  bottom: "conv_stage0_block0_branch2b"
  top: "conv_stage0_block0_branch2b"
}
layer {
  name: "conv_stage0_block0_branch2c"
  type: "Convolution"
  bottom: "conv_stage0_block0_branch2b"
  top: "conv_stage0_block0_branch2c"
  param {
    lr_mult: 0
    decay_mult: 1
  }
  param {
    lr_mult: 0
    decay_mult: 0
  }
  convolution_param {
    num_output: 128
    pad: 0
    kernel_size: 1
    stride: 1
    weight_filler {
      type: "xavier"
    }
    bias_filler {
      type: "constant"
      value: 0
    }
  }
}
layer {
  name: "bn_stage0_block0_branch2c"
  type: "BatchNorm"
  bottom: "conv_stage0_block0_branch2c"
  top: "conv_stage0_block0_branch2c"
  param {
    lr_mult: 0
    decay_mult: 0
  }
  param {
    lr_mult: 0
    decay_mult: 0
  }
  param {
    lr_mult: 0
    decay_mult: 0
  }
  batch_norm_param {
    use_global_stats: false
  }
}
layer {
  name: "scale_stage0_block0_branch2c"
  type: "Scale"
  bottom: "conv_stage0_block0_branch2c"
  top: "conv_stage0_block0_branch2c"
  scale_param {
    bias_term: true
  }
}
layer {
  name: "eltwise_stage0_block0"
  type: "Eltwise"
  bottom: "conv_stage0_block0_proj_shortcut"
  bottom: "conv_stage0_block0_branch2c"
  top: "eltwise_stage0_block0"
}
layer {
  name: "relu_stage0_block0"
  type: "ReLU"
  bottom: "eltwise_stage0_block0"
  top: "eltwise_stage0_block0"
}
layer {
  name: "conv_stage0_block1_branch2a"
  type: "Convolution"
  bottom: "eltwise_stage0_block0"
  top: "conv_stage0_block1_branch2a"
  param {
    lr_mult: 0
    decay_mult: 1
  }
  param {
    lr_mult: 0
    decay_mult: 0
  }
  convolution_param {
    num_output: 32
    pad: 0
    kernel_size: 1
    stride: 1
    weight_filler {
      type: "xavier"
    }
    bias_filler {
      type: "constant"
      value: 0
    }
  }
}
layer {
  name: "bn_stage0_block1_branch2a"
  type: "BatchNorm"
  bottom: "conv_stage0_block1_branch2a"
  top: "conv_stage0_block1_branch2a"
  param {
    lr_mult: 0
    decay_mult: 0
  }
  param {
    lr_mult: 0
    decay_mult: 0
  }
  param {
    lr_mult: 0
    decay_mult: 0
  }
  batch_norm_param {
    use_global_stats: false
  }
}
layer {
  name: "scale_stage0_block1_branch2a"
  type: "Scale"
  bottom: "conv_stage0_block1_branch2a"
  top: "conv_stage0_block1_branch2a"
  scale_param {
    bias_term: true
  }
}
layer {
  name: "relu_stage0_block1_branch2a"
  type: "ReLU"
  bottom: "conv_stage0_block1_branch2a"
  top: "conv_stage0_block1_branch2a"
}
layer {
  name: "conv_stage0_block1_branch2b"
  type: "Convolution"
  bottom: "conv_stage0_block1_branch2a"
  top: "conv_stage0_block1_branch2b"
  param {
    lr_mult: 0
    decay_mult: 1
  }
  param {
    lr_mult: 0
    decay_mult: 0
  }
  convolution_param {
    num_output: 32
    pad: 1
    kernel_size: 3
    stride: 1
    weight_filler {
      type: "xavier"
    }
    bias_filler {
      type: "constant"
      value: 0
    }
  }
}
layer {
  name: "bn_stage0_block1_branch2b"
  type: "BatchNorm"
  bottom: "conv_stage0_block1_branch2b"
  top: "conv_stage0_block1_branch2b"
  param {
    lr_mult: 0
    decay_mult: 0
  }
  param {
    lr_mult: 0
    decay_mult: 0
  }
  param {
    lr_mult: 0
    decay_mult: 0
  }
  batch_norm_param {
    use_global_stats: false
  }
}
layer {
  name: "scale_stage0_block1_branch2b"
  type: "Scale"
  bottom: "conv_stage0_block1_branch2b"
  top: "conv_stage0_block1_branch2b"
  scale_param {
    bias_term: true
  }
}
layer {
  name: "relu_stage0_block1_branch2b"
  type: "ReLU"
  bottom: "conv_stage0_block1_branch2b"
  top: "conv_stage0_block1_branch2b"
}
layer {
  name: "conv_stage0_block1_branch2c"
  type: "Convolution"
  bottom: "conv_stage0_block1_branch2b"
  top: "conv_stage0_block1_branch2c"
  param {
    lr_mult: 0
    decay_mult: 1
  }
  param {
    lr_mult: 0
    decay_mult: 0
  }
  convolution_param {
    num_output: 128
    pad: 0
    kernel_size: 1
    stride: 1
    weight_filler {
      type: "xavier"
    }
    bias_filler {
      type: "constant"
      value: 0
    }
  }
}
layer {
  name: "bn_stage0_block1_branch2c"
  type: "BatchNorm"
  bottom: "conv_stage0_block1_branch2c"
  top: "conv_stage0_block1_branch2c"
  param {
    lr_mult: 0
    decay_mult: 0
  }
  param {
    lr_mult: 0
    decay_mult: 0
  }
  param {
    lr_mult: 0
    decay_mult: 0
  }
  batch_norm_param {
    use_global_stats: false
  }
}
layer {
  name: "scale_stage0_block1_branch2c"
  type: "Scale"
  bottom: "conv_stage0_block1_branch2c"
  top: "conv_stage0_block1_branch2c"
  scale_param {
    bias_term: true
  }
}
layer {
  name: "eltwise_stage0_block1"
  type: "Eltwise"
  bottom: "eltwise_stage0_block0"
  bottom: "conv_stage0_block1_branch2c"
  top: "eltwise_stage0_block1"
}
layer {
  name: "relu_stage0_block1"
  type: "ReLU"
  bottom: "eltwise_stage0_block1"
  top: "eltwise_stage0_block1"
}
layer {
  name: "conv_stage0_block2_branch2a"
  type: "Convolution"
  bottom: "eltwise_stage0_block1"
  top: "conv_stage0_block2_branch2a"
  param {
    lr_mult: 0
    decay_mult: 1
  }
  param {
    lr_mult: 0
    decay_mult: 0
  }
  convolution_param {
    num_output: 32
    pad: 0
    kernel_size: 1
    stride: 1
    weight_filler {
      type: "xavier"
    }
    bias_filler {
      type: "constant"
      value: 0
    }
  }
}
layer {
  name: "bn_stage0_block2_branch2a"
  type: "BatchNorm"
  bottom: "conv_stage0_block2_branch2a"
  top: "conv_stage0_block2_branch2a"
  param {
    lr_mult: 0
    decay_mult: 0
  }
  param {
    lr_mult: 0
    decay_mult: 0
  }
  param {
    lr_mult: 0
    decay_mult: 0
  }
  batch_norm_param {
    use_global_stats: false
  }
}
layer {
  name: "scale_stage0_block2_branch2a"
  type: "Scale"
  bottom: "conv_stage0_block2_branch2a"
  top: "conv_stage0_block2_branch2a"
  scale_param {
    bias_term: true
  }
}
layer {
  name: "relu_stage0_block2_branch2a"
  type: "ReLU"
  bottom: "conv_stage0_block2_branch2a"
  top: "conv_stage0_block2_branch2a"
}
layer {
  name: "conv_stage0_block2_branch2b"
  type: "Convolution"
  bottom: "conv_stage0_block2_branch2a"
  top: "conv_stage0_block2_branch2b"
  param {
    lr_mult: 0
    decay_mult: 1
  }
  param {
    lr_mult: 0
    decay_mult: 0
  }
  convolution_param {
    num_output: 32
    pad: 1
    kernel_size: 3
    stride: 1
    weight_filler {
      type: "xavier"
    }
    bias_filler {
      type: "constant"
      value: 0
    }
  }
}
layer {
  name: "bn_stage0_block2_branch2b"
  type: "BatchNorm"
  bottom: "conv_stage0_block2_branch2b"
  top: "conv_stage0_block2_branch2b"
  param {
    lr_mult: 0
    decay_mult: 0
  }
  param {
    lr_mult: 0
    decay_mult: 0
  }
  param {
    lr_mult: 0
    decay_mult: 0
  }
  batch_norm_param {
    use_global_stats: false
  }
}
layer {
  name: "scale_stage0_block2_branch2b"
  type: "Scale"
  bottom: "conv_stage0_block2_branch2b"
  top: "conv_stage0_block2_branch2b"
  scale_param {
    bias_term: true
  }
}
layer {
  name: "relu_stage0_block2_branch2b"
  type: "ReLU"
  bottom: "conv_stage0_block2_branch2b"
  top: "conv_stage0_block2_branch2b"
}
layer {
  name: "conv_stage0_block2_branch2c"
  type: "Convolution"
  bottom: "conv_stage0_block2_branch2b"
  top: "conv_stage0_block2_branch2c"
  param {
    lr_mult: 0
    decay_mult: 1
  }
  param {
    lr_mult: 0
    decay_mult: 0
  }
  convolution_param {
    num_output: 128
    pad: 0
    kernel_size: 1
    stride: 1
    weight_filler {
      type: "xavier"
    }
    bias_filler {
      type: "constant"
      value: 0
    }
  }
}
layer {
  name: "bn_stage0_block2_branch2c"
  type: "BatchNorm"
  bottom: "conv_stage0_block2_branch2c"
  top: "conv_stage0_block2_branch2c"
  param {
    lr_mult: 0
    decay_mult: 0
  }
  param {
    lr_mult: 0
    decay_mult: 0
  }
  param {
    lr_mult: 0
    decay_mult: 0
  }
  batch_norm_param {
    use_global_stats: false
  }
}
layer {
  name: "scale_stage0_block2_branch2c"
  type: "Scale"
  bottom: "conv_stage0_block2_branch2c"
  top: "conv_stage0_block2_branch2c"
  scale_param {
    bias_term: true
  }
}
layer {
  name: "eltwise_stage0_block2"
  type: "Eltwise"
  bottom: "eltwise_stage0_block1"
  bottom: "conv_stage0_block2_branch2c"
  top: "eltwise_stage0_block2"
}
layer {
  name: "relu_stage0_block2"
  type: "ReLU"
  bottom: "eltwise_stage0_block2"
  top: "eltwise_stage0_block2"
}
layer {
  name: "conv_stage1_block0_proj_shortcut"
  type: "Convolution"
  bottom: "eltwise_stage0_block2"
  top: "conv_stage1_block0_proj_shortcut"
  param {
    lr_mult: 0
    decay_mult: 1
  }
  param {
    lr_mult: 0
    decay_mult: 0
  }
  convolution_param {
    num_output: 256
    pad: 0
    kernel_size: 1
    stride: 2
    weight_filler {
      type: "xavier"
    }
    bias_filler {
      type: "constant"
      value: 0
    }
  }
}
layer {
  name: "bn_stage1_block0_proj_shortcut"
  type: "BatchNorm"
  bottom: "conv_stage1_block0_proj_shortcut"
  top: "conv_stage1_block0_proj_shortcut"
  param {
    lr_mult: 0
    decay_mult: 0
  }
  param {
    lr_mult: 0
    decay_mult: 0
  }
  param {
    lr_mult: 0
    decay_mult: 0
  }
  batch_norm_param {
    use_global_stats: false
  }
}
layer {
  name: "scale_stage1_block0_proj_shortcut"
  type: "Scale"
  bottom: "conv_stage1_block0_proj_shortcut"
  top: "conv_stage1_block0_proj_shortcut"
  scale_param {
    bias_term: true
  }
}
layer {
  name: "conv_stage1_block0_branch2a"
  type: "Convolution"
  bottom: "eltwise_stage0_block2"
  top: "conv_stage1_block0_branch2a"
  param {
    lr_mult: 0
    decay_mult: 1
  }
  param {
    lr_mult: 0
    decay_mult: 0
  }
  convolution_param {
    num_output: 64
    pad: 0
    kernel_size: 1
    stride: 2
    weight_filler {
      type: "xavier"
    }
    bias_filler {
      type: "constant"
      value: 0
    }
  }
}
layer {
  name: "bn_stage1_block0_branch2a"
  type: "BatchNorm"
  bottom: "conv_stage1_block0_branch2a"
  top: "conv_stage1_block0_branch2a"
  param {
    lr_mult: 0
    decay_mult: 0
  }
  param {
    lr_mult: 0
    decay_mult: 0
  }
  param {
    lr_mult: 0
    decay_mult: 0
  }
  batch_norm_param {
    use_global_stats: false
  }
}
layer {
  name: "scale_stage1_block0_branch2a"
  type: "Scale"
  bottom: "conv_stage1_block0_branch2a"
  top: "conv_stage1_block0_branch2a"
  scale_param {
    bias_term: true
  }
}
layer {
  name: "relu_stage1_block0_branch2a"
  type: "ReLU"
  bottom: "conv_stage1_block0_branch2a"
  top: "conv_stage1_block0_branch2a"
}
layer {
  name: "conv_stage1_block0_branch2b"
  type: "Convolution"
  bottom: "conv_stage1_block0_branch2a"
  top: "conv_stage1_block0_branch2b"
  param {
    lr_mult: 0
    decay_mult: 1
  }
  param {
    lr_mult: 0
    decay_mult: 0
  }
  convolution_param {
    num_output: 64
    pad: 1
    kernel_size: 3
    stride: 1
    weight_filler {
      type: "xavier"
    }
    bias_filler {
      type: "constant"
      value: 0
    }
  }
}
layer {
  name: "bn_stage1_block0_branch2b"
  type: "BatchNorm"
  bottom: "conv_stage1_block0_branch2b"
  top: "conv_stage1_block0_branch2b"
  param {
    lr_mult: 0
    decay_mult: 0
  }
  param {
    lr_mult: 0
    decay_mult: 0
  }
  param {
    lr_mult: 0
    decay_mult: 0
  }
  batch_norm_param {
    use_global_stats: false
  }
}
layer {
  name: "scale_stage1_block0_branch2b"
  type: "Scale"
  bottom: "conv_stage1_block0_branch2b"
  top: "conv_stage1_block0_branch2b"
  scale_param {
    bias_term: true
  }
}
layer {
  name: "relu_stage1_block0_branch2b"
  type: "ReLU"
  bottom: "conv_stage1_block0_branch2b"
  top: "conv_stage1_block0_branch2b"
}
layer {
  name: "conv_stage1_block0_branch2c"
  type: "Convolution"
  bottom: "conv_stage1_block0_branch2b"
  top: "conv_stage1_block0_branch2c"
  param {
    lr_mult: 0
    decay_mult: 1
  }
  param {
    lr_mult: 0
    decay_mult: 0
  }
  convolution_param {
    num_output: 256
    pad: 0
    kernel_size: 1
    stride: 1
    weight_filler {
      type: "xavier"
    }
    bias_filler {
      type: "constant"
      value: 0
    }
  }
}
layer {
  name: "bn_stage1_block0_branch2c"
  type: "BatchNorm"
  bottom: "conv_stage1_block0_branch2c"
  top: "conv_stage1_block0_branch2c"
  param {
    lr_mult: 0
    decay_mult: 0
  }
  param {
    lr_mult: 0
    decay_mult: 0
  }
  param {
    lr_mult: 0
    decay_mult: 0
  }
  batch_norm_param {
    use_global_stats: false
  }
}
layer {
  name: "scale_stage1_block0_branch2c"
  type: "Scale"
  bottom: "conv_stage1_block0_branch2c"
  top: "conv_stage1_block0_branch2c"
  scale_param {
    bias_term: true
  }
}
layer {
  name: "eltwise_stage1_block0"
  type: "Eltwise"
  bottom: "conv_stage1_block0_proj_shortcut"
  bottom: "conv_stage1_block0_branch2c"
  top: "eltwise_stage1_block0"
}
layer {
  name: "relu_stage1_block0"
  type: "ReLU"
  bottom: "eltwise_stage1_block0"
  top: "eltwise_stage1_block0"
}
layer {
  name: "conv_stage1_block1_branch2a"
  type: "Convolution"
  bottom: "eltwise_stage1_block0"
  top: "conv_stage1_block1_branch2a"
  param {
    lr_mult: 0
    decay_mult: 1
  }
  param {
    lr_mult: 0
    decay_mult: 0
  }
  convolution_param {
    num_output: 64
    pad: 0
    kernel_size: 1
    stride: 1
    weight_filler {
      type: "xavier"
    }
    bias_filler {
      type: "constant"
      value: 0
    }
  }
}
layer {
  name: "bn_stage1_block1_branch2a"
  type: "BatchNorm"
  bottom: "conv_stage1_block1_branch2a"
  top: "conv_stage1_block1_branch2a"
  param {
    lr_mult: 0
    decay_mult: 0
  }
  param {
    lr_mult: 0
    decay_mult: 0
  }
  param {
    lr_mult: 0
    decay_mult: 0
  }
  batch_norm_param {
    use_global_stats: false
  }
}
layer {
  name: "scale_stage1_block1_branch2a"
  type: "Scale"
  bottom: "conv_stage1_block1_branch2a"
  top: "conv_stage1_block1_branch2a"
  scale_param {
    bias_term: true
  }
}
layer {
  name: "relu_stage1_block1_branch2a"
  type: "ReLU"
  bottom: "conv_stage1_block1_branch2a"
  top: "conv_stage1_block1_branch2a"
}
layer {
  name: "conv_stage1_block1_branch2b"
  type: "Convolution"
  bottom: "conv_stage1_block1_branch2a"
  top: "conv_stage1_block1_branch2b"
  param {
    lr_mult: 0
    decay_mult: 1
  }
  param {
    lr_mult: 0
    decay_mult: 0
  }
  convolution_param {
    num_output: 64
    pad: 1
    kernel_size: 3
    stride: 1
    weight_filler {
      type: "xavier"
    }
    bias_filler {
      type: "constant"
      value: 0
    }
  }
}
layer {
  name: "bn_stage1_block1_branch2b"
  type: "BatchNorm"
  bottom: "conv_stage1_block1_branch2b"
  top: "conv_stage1_block1_branch2b"
  param {
    lr_mult: 0
    decay_mult: 0
  }
  param {
    lr_mult: 0
    decay_mult: 0
  }
  param {
    lr_mult: 0
    decay_mult: 0
  }
  batch_norm_param {
    use_global_stats: false
  }
}
layer {
  name: "scale_stage1_block1_branch2b"
  type: "Scale"
  bottom: "conv_stage1_block1_branch2b"
  top: "conv_stage1_block1_branch2b"
  scale_param {
    bias_term: true
  }
}
layer {
  name: "relu_stage1_block1_branch2b"
  type: "ReLU"
  bottom: "conv_stage1_block1_branch2b"
  top: "conv_stage1_block1_branch2b"
}
layer {
  name: "conv_stage1_block1_branch2c"
  type: "Convolution"
  bottom: "conv_stage1_block1_branch2b"
  top: "conv_stage1_block1_branch2c"
  param {
    lr_mult: 0
    decay_mult: 1
  }
  param {
    lr_mult: 0
    decay_mult: 0
  }
  convolution_param {
    num_output: 256
    pad: 0
    kernel_size: 1
    stride: 1
    weight_filler {
      type: "xavier"
    }
    bias_filler {
      type: "constant"
      value: 0
    }
  }
}
layer {
  name: "bn_stage1_block1_branch2c"
  type: "BatchNorm"
  bottom: "conv_stage1_block1_branch2c"
  top: "conv_stage1_block1_branch2c"
  param {
    lr_mult: 0
    decay_mult: 0
  }
  param {
    lr_mult: 0
    decay_mult: 0
  }
  param {
    lr_mult: 0
    decay_mult: 0
  }
  batch_norm_param {
    use_global_stats: false
  }
}
layer {
  name: "scale_stage1_block1_branch2c"
  type: "Scale"
  bottom: "conv_stage1_block1_branch2c"
  top: "conv_stage1_block1_branch2c"
  scale_param {
    bias_term: true
  }
}
layer {
  name: "eltwise_stage1_block1"
  type: "Eltwise"
  bottom: "eltwise_stage1_block0"
  bottom: "conv_stage1_block1_branch2c"
  top: "eltwise_stage1_block1"
}
layer {
  name: "relu_stage1_block1"
  type: "ReLU"
  bottom: "eltwise_stage1_block1"
  top: "eltwise_stage1_block1"
}
layer {
  name: "conv_stage1_block2_branch2a"
  type: "Convolution"
  bottom: "eltwise_stage1_block1"
  top: "conv_stage1_block2_branch2a"
  param {
    lr_mult: 0
    decay_mult: 1
  }
  param {
    lr_mult: 0
    decay_mult: 0
  }
  convolution_param {
    num_output: 64
    pad: 0
    kernel_size: 1
    stride: 1
    weight_filler {
      type: "xavier"
    }
    bias_filler {
      type: "constant"
      value: 0
    }
  }
}
layer {
  name: "bn_stage1_block2_branch2a"
  type: "BatchNorm"
  bottom: "conv_stage1_block2_branch2a"
  top: "conv_stage1_block2_branch2a"
  param {
    lr_mult: 0
    decay_mult: 0
  }
  param {
    lr_mult: 0
    decay_mult: 0
  }
  param {
    lr_mult: 0
    decay_mult: 0
  }
  batch_norm_param {
    use_global_stats: false
  }
}
layer {
  name: "scale_stage1_block2_branch2a"
  type: "Scale"
  bottom: "conv_stage1_block2_branch2a"
  top: "conv_stage1_block2_branch2a"
  scale_param {
    bias_term: true
  }
}
layer {
  name: "relu_stage1_block2_branch2a"
  type: "ReLU"
  bottom: "conv_stage1_block2_branch2a"
  top: "conv_stage1_block2_branch2a"
}
layer {
  name: "conv_stage1_block2_branch2b"
  type: "Convolution"
  bottom: "conv_stage1_block2_branch2a"
  top: "conv_stage1_block2_branch2b"
  param {
    lr_mult: 0
    decay_mult: 1
  }
  param {
    lr_mult: 0
    decay_mult: 0
  }
  convolution_param {
    num_output: 64
    pad: 1
    kernel_size: 3
    stride: 1
    weight_filler {
      type: "xavier"
    }
    bias_filler {
      type: "constant"
      value: 0
    }
  }
}
layer {
  name: "bn_stage1_block2_branch2b"
  type: "BatchNorm"
  bottom: "conv_stage1_block2_branch2b"
  top: "conv_stage1_block2_branch2b"
  param {
    lr_mult: 0
    decay_mult: 0
  }
  param {
    lr_mult: 0
    decay_mult: 0
  }
  param {
    lr_mult: 0
    decay_mult: 0
  }
  batch_norm_param {
    use_global_stats: false
  }
}
layer {
  name: "scale_stage1_block2_branch2b"
  type: "Scale"
  bottom: "conv_stage1_block2_branch2b"
  top: "conv_stage1_block2_branch2b"
  scale_param {
    bias_term: true
  }
}
layer {
  name: "relu_stage1_block2_branch2b"
  type: "ReLU"
  bottom: "conv_stage1_block2_branch2b"
  top: "conv_stage1_block2_branch2b"
}
layer {
  name: "conv_stage1_block2_branch2c"
  type: "Convolution"
  bottom: "conv_stage1_block2_branch2b"
  top: "conv_stage1_block2_branch2c"
  param {
    lr_mult: 0
    decay_mult: 1
  }
  param {
    lr_mult: 0
    decay_mult: 0
  }
  convolution_param {
    num_output: 256
    pad: 0
    kernel_size: 1
    stride: 1
    weight_filler {
      type: "xavier"
    }
    bias_filler {
      type: "constant"
      value: 0
    }
  }
}
layer {
  name: "bn_stage1_block2_branch2c"
  type: "BatchNorm"
  bottom: "conv_stage1_block2_branch2c"
  top: "conv_stage1_block2_branch2c"
  param {
    lr_mult: 0
    decay_mult: 0
  }
  param {
    lr_mult: 0
    decay_mult: 0
  }
  param {
    lr_mult: 0
    decay_mult: 0
  }
  batch_norm_param {
    use_global_stats: false
  }
}
layer {
  name: "scale_stage1_block2_branch2c"
  type: "Scale"
  bottom: "conv_stage1_block2_branch2c"
  top: "conv_stage1_block2_branch2c"
  scale_param {
    bias_term: true
  }
}
layer {
  name: "eltwise_stage1_block2"
  type: "Eltwise"
  bottom: "eltwise_stage1_block1"
  bottom: "conv_stage1_block2_branch2c"
  top: "eltwise_stage1_block2"
}
layer {
  name: "relu_stage1_block2"
  type: "ReLU"
  bottom: "eltwise_stage1_block2"
  top: "eltwise_stage1_block2"
}
layer {
  name: "conv_stage1_block3_branch2a"
  type: "Convolution"
  bottom: "eltwise_stage1_block2"
  top: "conv_stage1_block3_branch2a"
  param {
    lr_mult: 0
    decay_mult: 1
  }
  param {
    lr_mult: 0
    decay_mult: 0
  }
  convolution_param {
    num_output: 64
    pad: 0
    kernel_size: 1
    stride: 1
    weight_filler {
      type: "xavier"
    }
    bias_filler {
      type: "constant"
      value: 0
    }
  }
}
layer {
  name: "bn_stage1_block3_branch2a"
  type: "BatchNorm"
  bottom: "conv_stage1_block3_branch2a"
  top: "conv_stage1_block3_branch2a"
  param {
    lr_mult: 0
    decay_mult: 0
  }
  param {
    lr_mult: 0
    decay_mult: 0
  }
  param {
    lr_mult: 0
    decay_mult: 0
  }
  batch_norm_param {
    use_global_stats: false
  }
}
layer {
  name: "scale_stage1_block3_branch2a"
  type: "Scale"
  bottom: "conv_stage1_block3_branch2a"
  top: "conv_stage1_block3_branch2a"
  scale_param {
    bias_term: true
  }
}
layer {
  name: "relu_stage1_block3_branch2a"
  type: "ReLU"
  bottom: "conv_stage1_block3_branch2a"
  top: "conv_stage1_block3_branch2a"
}
layer {
  name: "conv_stage1_block3_branch2b"
  type: "Convolution"
  bottom: "conv_stage1_block3_branch2a"
  top: "conv_stage1_block3_branch2b"
  param {
    lr_mult: 0
    decay_mult: 1
  }
  param {
    lr_mult: 0
    decay_mult: 0
  }
  convolution_param {
    num_output: 64
    pad: 1
    kernel_size: 3
    stride: 1
    weight_filler {
      type: "xavier"
    }
    bias_filler {
      type: "constant"
      value: 0
    }
  }
}
layer {
  name: "bn_stage1_block3_branch2b"
  type: "BatchNorm"
  bottom: "conv_stage1_block3_branch2b"
  top: "conv_stage1_block3_branch2b"
  param {
    lr_mult: 0
    decay_mult: 0
  }
  param {
    lr_mult: 0
    decay_mult: 0
  }
  param {
    lr_mult: 0
    decay_mult: 0
  }
  batch_norm_param {
    use_global_stats: false
  }
}
layer {
  name: "scale_stage1_block3_branch2b"
  type: "Scale"
  bottom: "conv_stage1_block3_branch2b"
  top: "conv_stage1_block3_branch2b"
  scale_param {
    bias_term: true
  }
}
layer {
  name: "relu_stage1_block3_branch2b"
  type: "ReLU"
  bottom: "conv_stage1_block3_branch2b"
  top: "conv_stage1_block3_branch2b"
}
layer {
  name: "conv_stage1_block3_branch2c"
  type: "Convolution"
  bottom: "conv_stage1_block3_branch2b"
  top: "conv_stage1_block3_branch2c"
  param {
    lr_mult: 0
    decay_mult: 1
  }
  param {
    lr_mult: 0
    decay_mult: 0
  }
  convolution_param {
    num_output: 256
    pad: 0
    kernel_size: 1
    stride: 1
    weight_filler {
      type: "xavier"
    }
    bias_filler {
      type: "constant"
      value: 0
    }
  }
}
layer {
  name: "bn_stage1_block3_branch2c"
  type: "BatchNorm"
  bottom: "conv_stage1_block3_branch2c"
  top: "conv_stage1_block3_branch2c"
  param {
    lr_mult: 0
    decay_mult: 0
  }
  param {
    lr_mult: 0
    decay_mult: 0
  }
  param {
    lr_mult: 0
    decay_mult: 0
  }
  batch_norm_param {
    use_global_stats: false
  }
}
layer {
  name: "scale_stage1_block3_branch2c"
  type: "Scale"
  bottom: "conv_stage1_block3_branch2c"
  top: "conv_stage1_block3_branch2c"
  scale_param {
    bias_term: true
  }
}
layer {
  name: "eltwise_stage1_block3"
  type: "Eltwise"
  bottom: "eltwise_stage1_block2"
  bottom: "conv_stage1_block3_branch2c"
  top: "eltwise_stage1_block3"
}
layer {
  name: "relu_stage1_block3"
  type: "ReLU"
  bottom: "eltwise_stage1_block3"
  top: "eltwise_stage1_block3"
}
layer {
  name: "conv_stage2_block0_proj_shortcut"
  type: "Convolution"
  bottom: "eltwise_stage1_block3"
  top: "conv_stage2_block0_proj_shortcut"
  param {
    lr_mult: 0
    decay_mult: 1
  }
  param {
    lr_mult: 0
    decay_mult: 0
  }
  convolution_param {
    num_output: 512
    pad: 0
    kernel_size: 1
    stride: 2
    weight_filler {
      type: "xavier"
    }
    bias_filler {
      type: "constant"
      value: 0
    }
  }
}
layer {
  name: "bn_stage2_block0_proj_shortcut"
  type: "BatchNorm"
  bottom: "conv_stage2_block0_proj_shortcut"
  top: "conv_stage2_block0_proj_shortcut"
  param {
    lr_mult: 0
    decay_mult: 0
  }
  param {
    lr_mult: 0
    decay_mult: 0
  }
  param {
    lr_mult: 0
    decay_mult: 0
  }
  batch_norm_param {
    use_global_stats: false
  }
}
layer {
  name: "scale_stage2_block0_proj_shortcut"
  type: "Scale"
  bottom: "conv_stage2_block0_proj_shortcut"
  top: "conv_stage2_block0_proj_shortcut"
  scale_param {
    bias_term: true
  }
}
layer {
  name: "conv_stage2_block0_branch2a"
  type: "Convolution"
  bottom: "eltwise_stage1_block3"
  top: "conv_stage2_block0_branch2a"
  param {
    lr_mult: 0
    decay_mult: 1
  }
  param {
    lr_mult: 0
    decay_mult: 0
  }
  convolution_param {
    num_output: 128
    pad: 0
    kernel_size: 1
    stride: 2
    weight_filler {
      type: "xavier"
    }
    bias_filler {
      type: "constant"
      value: 0
    }
  }
}
layer {
  name: "bn_stage2_block0_branch2a"
  type: "BatchNorm"
  bottom: "conv_stage2_block0_branch2a"
  top: "conv_stage2_block0_branch2a"
  param {
    lr_mult: 0
    decay_mult: 0
  }
  param {
    lr_mult: 0
    decay_mult: 0
  }
  param {
    lr_mult: 0
    decay_mult: 0
  }
  batch_norm_param {
    use_global_stats: false
  }
}
layer {
  name: "scale_stage2_block0_branch2a"
  type: "Scale"
  bottom: "conv_stage2_block0_branch2a"
  top: "conv_stage2_block0_branch2a"
  scale_param {
    bias_term: true
  }
}
layer {
  name: "relu_stage2_block0_branch2a"
  type: "ReLU"
  bottom: "conv_stage2_block0_branch2a"
  top: "conv_stage2_block0_branch2a"
}
layer {
  name: "conv_stage2_block0_branch2b"
  type: "Convolution"
  bottom: "conv_stage2_block0_branch2a"
  top: "conv_stage2_block0_branch2b"
  param {
    lr_mult: 0
    decay_mult: 1
  }
  param {
    lr_mult: 0
    decay_mult: 0
  }
  convolution_param {
    num_output: 128
    
I0609 02:19:48.052724  5331 layer_factory.hpp:77] Creating layer data
I0609 02:19:48.052752  5331 net.cpp:84] Creating Layer data
I0609 02:19:48.052758  5331 net.cpp:380] data -> data
I0609 02:19:48.052776  5331 net.cpp:380] data -> label
I0609 02:19:48.052794  5331 image_data_layer.cpp:38] Opening file /home/dbicho/Documents/datasets/all_labeled_dataset_augmented_finetuning/train.txt
I0609 02:19:48.064302  5331 image_data_layer.cpp:53] Shuffling data
I0609 02:19:48.068114  5331 image_data_layer.cpp:63] A total of 19955 images.
I0609 02:19:48.069264  5331 image_data_layer.cpp:90] output data size: 7,3,224,224
I0609 02:19:48.077929  5331 net.cpp:122] Setting up data
I0609 02:19:48.077961  5331 net.cpp:129] Top shape: 7 3 224 224 (1053696)
I0609 02:19:48.077970  5331 net.cpp:129] Top shape: 7 (7)
I0609 02:19:48.077975  5331 net.cpp:137] Memory required for data: 4214812
I0609 02:19:48.077986  5331 layer_factory.hpp:77] Creating layer conv_1
I0609 02:19:48.078017  5331 net.cpp:84] Creating Layer conv_1
I0609 02:19:48.078027  5331 net.cpp:406] conv_1 <- data
I0609 02:19:48.078049  5331 net.cpp:380] conv_1 -> conv_1
I0609 02:19:48.079254  5331 net.cpp:122] Setting up conv_1
I0609 02:19:48.079267  5331 net.cpp:129] Top shape: 7 64 112 112 (5619712)
I0609 02:19:48.079270  5331 net.cpp:137] Memory required for data: 26693660
I0609 02:19:48.079288  5331 layer_factory.hpp:77] Creating layer bn_1
I0609 02:19:48.079298  5331 net.cpp:84] Creating Layer bn_1
I0609 02:19:48.079301  5331 net.cpp:406] bn_1 <- conv_1
I0609 02:19:48.079308  5331 net.cpp:367] bn_1 -> conv_1 (in-place)
I0609 02:19:48.079466  5331 net.cpp:122] Setting up bn_1
I0609 02:19:48.079473  5331 net.cpp:129] Top shape: 7 64 112 112 (5619712)
I0609 02:19:48.079491  5331 net.cpp:137] Memory required for data: 49172508
I0609 02:19:48.079505  5331 layer_factory.hpp:77] Creating layer scale_1
I0609 02:19:48.079512  5331 net.cpp:84] Creating Layer scale_1
I0609 02:19:48.079516  5331 net.cpp:406] scale_1 <- conv_1
I0609 02:19:48.079524  5331 net.cpp:367] scale_1 -> conv_1 (in-place)
I0609 02:19:48.079565  5331 layer_factory.hpp:77] Creating layer scale_1
I0609 02:19:48.079668  5331 net.cpp:122] Setting up scale_1
I0609 02:19:48.079674  5331 net.cpp:129] Top shape: 7 64 112 112 (5619712)
I0609 02:19:48.079679  5331 net.cpp:137] Memory required for data: 71651356
I0609 02:19:48.079686  5331 layer_factory.hpp:77] Creating layer relu_1
I0609 02:19:48.079695  5331 net.cpp:84] Creating Layer relu_1
I0609 02:19:48.079700  5331 net.cpp:406] relu_1 <- conv_1
I0609 02:19:48.079706  5331 net.cpp:367] relu_1 -> conv_1 (in-place)
I0609 02:19:48.079713  5331 net.cpp:122] Setting up relu_1
I0609 02:19:48.079720  5331 net.cpp:129] Top shape: 7 64 112 112 (5619712)
I0609 02:19:48.079722  5331 net.cpp:137] Memory required for data: 94130204
I0609 02:19:48.079726  5331 layer_factory.hpp:77] Creating layer pool1
I0609 02:19:48.079733  5331 net.cpp:84] Creating Layer pool1
I0609 02:19:48.079737  5331 net.cpp:406] pool1 <- conv_1
I0609 02:19:48.079743  5331 net.cpp:380] pool1 -> pool1
I0609 02:19:48.079782  5331 net.cpp:122] Setting up pool1
I0609 02:19:48.079789  5331 net.cpp:129] Top shape: 7 64 56 56 (1404928)
I0609 02:19:48.079792  5331 net.cpp:137] Memory required for data: 99749916
I0609 02:19:48.079797  5331 layer_factory.hpp:77] Creating layer pool1_pool1_0_split
I0609 02:19:48.079804  5331 net.cpp:84] Creating Layer pool1_pool1_0_split
I0609 02:19:48.079808  5331 net.cpp:406] pool1_pool1_0_split <- pool1
I0609 02:19:48.079815  5331 net.cpp:380] pool1_pool1_0_split -> pool1_pool1_0_split_0
I0609 02:19:48.079826  5331 net.cpp:380] pool1_pool1_0_split -> pool1_pool1_0_split_1
I0609 02:19:48.080298  5331 net.cpp:122] Setting up pool1_pool1_0_split
I0609 02:19:48.080305  5331 net.cpp:129] Top shape: 7 64 56 56 (1404928)
I0609 02:19:48.080312  5331 net.cpp:129] Top shape: 7 64 56 56 (1404928)
I0609 02:19:48.080315  5331 net.cpp:137] Memory required for data: 110989340
I0609 02:19:48.080319  5331 layer_factory.hpp:77] Creating layer conv_stage0_block0_proj_shortcut
I0609 02:19:48.080332  5331 net.cpp:84] Creating Layer conv_stage0_block0_proj_shortcut
I0609 02:19:48.080337  5331 net.cpp:406] conv_stage0_block0_proj_shortcut <- pool1_pool1_0_split_0
I0609 02:19:48.080344  5331 net.cpp:380] conv_stage0_block0_proj_shortcut -> conv_stage0_block0_proj_shortcut
I0609 02:19:48.081017  5331 net.cpp:122] Setting up conv_stage0_block0_proj_shortcut
I0609 02:19:48.081030  5331 net.cpp:129] Top shape: 7 128 56 56 (2809856)
I0609 02:19:48.081035  5331 net.cpp:137] Memory required for data: 122228764
I0609 02:19:48.081048  5331 layer_factory.hpp:77] Creating layer bn_stage0_block0_proj_shortcut
I0609 02:19:48.081061  5331 net.cpp:84] Creating Layer bn_stage0_block0_proj_shortcut
I0609 02:19:48.081066  5331 net.cpp:406] bn_stage0_block0_proj_shortcut <- conv_stage0_block0_proj_shortcut
I0609 02:19:48.081076  5331 net.cpp:367] bn_stage0_block0_proj_shortcut -> conv_stage0_block0_proj_shortcut (in-place)
I0609 02:19:48.081240  5331 net.cpp:122] Setting up bn_stage0_block0_proj_shortcut
I0609 02:19:48.081249  5331 net.cpp:129] Top shape: 7 128 56 56 (2809856)
I0609 02:19:48.081251  5331 net.cpp:137] Memory required for data: 133468188
I0609 02:19:48.081259  5331 layer_factory.hpp:77] Creating layer scale_stage0_block0_proj_shortcut
I0609 02:19:48.081264  5331 net.cpp:84] Creating Layer scale_stage0_block0_proj_shortcut
I0609 02:19:48.081269  5331 net.cpp:406] scale_stage0_block0_proj_shortcut <- conv_stage0_block0_proj_shortcut
I0609 02:19:48.081274  5331 net.cpp:367] scale_stage0_block0_proj_shortcut -> conv_stage0_block0_proj_shortcut (in-place)
I0609 02:19:48.081306  5331 layer_factory.hpp:77] Creating layer scale_stage0_block0_proj_shortcut
I0609 02:19:48.081390  5331 net.cpp:122] Setting up scale_stage0_block0_proj_shortcut
I0609 02:19:48.081452  5331 net.cpp:129] Top shape: 7 128 56 56 (2809856)
I0609 02:19:48.081456  5331 net.cpp:137] Memory required for data: 144707612
I0609 02:19:48.081461  5331 layer_factory.hpp:77] Creating layer conv_stage0_block0_branch2a
I0609 02:19:48.081471  5331 net.cpp:84] Creating Layer conv_stage0_block0_branch2a
I0609 02:19:48.081475  5331 net.cpp:406] conv_stage0_block0_branch2a <- pool1_pool1_0_split_1
I0609 02:19:48.081481  5331 net.cpp:380] conv_stage0_block0_branch2a -> conv_stage0_block0_branch2a
I0609 02:19:48.081670  5331 net.cpp:122] Setting up conv_stage0_block0_branch2a
I0609 02:19:48.081676  5331 net.cpp:129] Top shape: 7 32 56 56 (702464)
I0609 02:19:48.081679  5331 net.cpp:137] Memory required for data: 147517468
I0609 02:19:48.081684  5331 layer_factory.hpp:77] Creating layer bn_stage0_block0_branch2a
I0609 02:19:48.081691  5331 net.cpp:84] Creating Layer bn_stage0_block0_branch2a
I0609 02:19:48.081694  5331 net.cpp:406] bn_stage0_block0_branch2a <- conv_stage0_block0_branch2a
I0609 02:19:48.081701  5331 net.cpp:367] bn_stage0_block0_branch2a -> conv_stage0_block0_branch2a (in-place)
I0609 02:19:48.081842  5331 net.cpp:122] Setting up bn_stage0_block0_branch2a
I0609 02:19:48.081848  5331 net.cpp:129] Top shape: 7 32 56 56 (702464)
I0609 02:19:48.081851  5331 net.cpp:137] Memory required for data: 150327324
I0609 02:19:48.081861  5331 layer_factory.hpp:77] Creating layer scale_stage0_block0_branch2a
I0609 02:19:48.081866  5331 net.cpp:84] Creating Layer scale_stage0_block0_branch2a
I0609 02:19:48.081869  5331 net.cpp:406] scale_stage0_block0_branch2a <- conv_stage0_block0_branch2a
I0609 02:19:48.081874  5331 net.cpp:367] scale_stage0_block0_branch2a -> conv_stage0_block0_branch2a (in-place)
I0609 02:19:48.081902  5331 layer_factory.hpp:77] Creating layer scale_stage0_block0_branch2a
I0609 02:19:48.082008  5331 net.cpp:122] Setting up scale_stage0_block0_branch2a
I0609 02:19:48.082015  5331 net.cpp:129] Top shape: 7 32 56 56 (702464)
I0609 02:19:48.082018  5331 net.cpp:137] Memory required for data: 153137180
I0609 02:19:48.082023  5331 layer_factory.hpp:77] Creating layer relu_stage0_block0_branch2a
I0609 02:19:48.082028  5331 net.cpp:84] Creating Layer relu_stage0_block0_branch2a
I0609 02:19:48.082031  5331 net.cpp:406] relu_stage0_block0_branch2a <- conv_stage0_block0_branch2a
I0609 02:19:48.082036  5331 net.cpp:367] relu_stage0_block0_branch2a -> conv_stage0_block0_branch2a (in-place)
I0609 02:19:48.082041  5331 net.cpp:122] Setting up relu_stage0_block0_branch2a
I0609 02:19:48.082044  5331 net.cpp:129] Top shape: 7 32 56 56 (702464)
I0609 02:19:48.082047  5331 net.cpp:137] Memory required for data: 155947036
I0609 02:19:48.082049  5331 layer_factory.hpp:77] Creating layer conv_stage0_block0_branch2b
I0609 02:19:48.082057  5331 net.cpp:84] Creating Layer conv_stage0_block0_branch2b
I0609 02:19:48.082062  5331 net.cpp:406] conv_stage0_block0_branch2b <- conv_stage0_block0_branch2a
I0609 02:19:48.082067  5331 net.cpp:380] conv_stage0_block0_branch2b -> conv_stage0_block0_branch2b
I0609 02:19:48.082298  5331 net.cpp:122] Setting up conv_stage0_block0_branch2b
I0609 02:19:48.082305  5331 net.cpp:129] Top shape: 7 32 56 56 (702464)
I0609 02:19:48.082307  5331 net.cpp:137] Memory required for data: 158756892
I0609 02:19:48.082312  5331 layer_factory.hpp:77] Creating layer bn_stage0_block0_branch2b
I0609 02:19:48.082317  5331 net.cpp:84] Creating Layer bn_stage0_block0_branch2b
I0609 02:19:48.082320  5331 net.cpp:406] bn_stage0_block0_branch2b <- conv_stage0_block0_branch2b
I0609 02:19:48.082324  5331 net.cpp:367] bn_stage0_block0_branch2b -> conv_stage0_block0_branch2b (in-place)
I0609 02:19:48.082469  5331 net.cpp:122] Setting up bn_stage0_block0_branch2b
I0609 02:19:48.082475  5331 net.cpp:129] Top shape: 7 32 56 56 (702464)
I0609 02:19:48.082479  5331 net.cpp:137] Memory required for data: 161566748
I0609 02:19:48.082484  5331 layer_factory.hpp:77] Creating layer scale_stage0_block0_branch2b
I0609 02:19:48.082491  5331 net.cpp:84] Creating Layer scale_stage0_block0_branch2b
I0609 02:19:48.082504  5331 net.cpp:406] scale_stage0_block0_branch2b <- conv_stage0_block0_branch2b
I0609 02:19:48.082511  5331 net.cpp:367] scale_stage0_block0_branch2b -> conv_stage0_block0_branch2b (in-place)
I0609 02:19:48.082546  5331 layer_factory.hpp:77] Creating layer scale_stage0_block0_branch2b
I0609 02:19:48.082639  5331 net.cpp:122] Setting up scale_stage0_block0_branch2b
I0609 02:19:48.082645  5331 net.cpp:129] Top shape: 7 32 56 56 (702464)
I0609 02:19:48.082648  5331 net.cpp:137] Memory required for data: 164376604
I0609 02:19:48.082653  5331 layer_factory.hpp:77] Creating layer relu_stage0_block0_branch2b
I0609 02:19:48.082657  5331 net.cpp:84] Creating Layer relu_stage0_block0_branch2b
I0609 02:19:48.082660  5331 net.cpp:406] relu_stage0_block0_branch2b <- conv_stage0_block0_branch2b
I0609 02:19:48.082666  5331 net.cpp:367] relu_stage0_block0_branch2b -> conv_stage0_block0_branch2b (in-place)
I0609 02:19:48.082674  5331 net.cpp:122] Setting up relu_stage0_block0_branch2b
I0609 02:19:48.082679  5331 net.cpp:129] Top shape: 7 32 56 56 (702464)
I0609 02:19:48.082684  5331 net.cpp:137] Memory required for data: 167186460
I0609 02:19:48.082686  5331 layer_factory.hpp:77] Creating layer conv_stage0_block0_branch2c
I0609 02:19:48.082697  5331 net.cpp:84] Creating Layer conv_stage0_block0_branch2c
I0609 02:19:48.082701  5331 net.cpp:406] conv_stage0_block0_branch2c <- conv_stage0_block0_branch2b
I0609 02:19:48.082706  5331 net.cpp:380] conv_stage0_block0_branch2c -> conv_stage0_block0_branch2c
I0609 02:19:48.082892  5331 net.cpp:122] Setting up conv_stage0_block0_branch2c
I0609 02:19:48.082898  5331 net.cpp:129] Top shape: 7 128 56 56 (2809856)
I0609 02:19:48.082901  5331 net.cpp:137] Memory required for data: 178425884
I0609 02:19:48.082906  5331 layer_factory.hpp:77] Creating layer bn_stage0_block0_branch2c
I0609 02:19:48.082911  5331 net.cpp:84] Creating Layer bn_stage0_block0_branch2c
I0609 02:19:48.082913  5331 net.cpp:406] bn_stage0_block0_branch2c <- conv_stage0_block0_branch2c
I0609 02:19:48.082921  5331 net.cpp:367] bn_stage0_block0_branch2c -> conv_stage0_block0_branch2c (in-place)
I0609 02:19:48.083057  5331 net.cpp:122] Setting up bn_stage0_block0_branch2c
I0609 02:19:48.083063  5331 net.cpp:129] Top shape: 7 128 56 56 (2809856)
I0609 02:19:48.083066  5331 net.cpp:137] Memory required for data: 189665308
I0609 02:19:48.083076  5331 layer_factory.hpp:77] Creating layer scale_stage0_block0_branch2c
I0609 02:19:48.083081  5331 net.cpp:84] Creating Layer scale_stage0_block0_branch2c
I0609 02:19:48.083084  5331 net.cpp:406] scale_stage0_block0_branch2c <- conv_stage0_block0_branch2c
I0609 02:19:48.083091  5331 net.cpp:367] scale_stage0_block0_branch2c -> conv_stage0_block0_branch2c (in-place)
I0609 02:19:48.083123  5331 layer_factory.hpp:77] Creating layer scale_stage0_block0_branch2c
I0609 02:19:48.083206  5331 net.cpp:122] Setting up scale_stage0_block0_branch2c
I0609 02:19:48.083212  5331 net.cpp:129] Top shape: 7 128 56 56 (2809856)
I0609 02:19:48.083214  5331 net.cpp:137] Memory required for data: 200904732
I0609 02:19:48.083220  5331 layer_factory.hpp:77] Creating layer eltwise_stage0_block0
I0609 02:19:48.083223  5331 net.cpp:84] Creating Layer eltwise_stage0_block0
I0609 02:19:48.083226  5331 net.cpp:406] eltwise_stage0_block0 <- conv_stage0_block0_proj_shortcut
I0609 02:19:48.083230  5331 net.cpp:406] eltwise_stage0_block0 <- conv_stage0_block0_branch2c
I0609 02:19:48.083236  5331 net.cpp:380] eltwise_stage0_block0 -> eltwise_stage0_block0
I0609 02:19:48.083259  5331 net.cpp:122] Setting up eltwise_stage0_block0
I0609 02:19:48.083266  5331 net.cpp:129] Top shape: 7 128 56 56 (2809856)
I0609 02:19:48.083267  5331 net.cpp:137] Memory required for data: 212144156
I0609 02:19:48.083271  5331 layer_factory.hpp:77] Creating layer relu_stage0_block0
I0609 02:19:48.083274  5331 net.cpp:84] Creating Layer relu_stage0_block0
I0609 02:19:48.083277  5331 net.cpp:406] relu_stage0_block0 <- eltwise_stage0_block0
I0609 02:19:48.083281  5331 net.cpp:367] relu_stage0_block0 -> eltwise_stage0_block0 (in-place)
I0609 02:19:48.083297  5331 net.cpp:122] Setting up relu_stage0_block0
I0609 02:19:48.083302  5331 net.cpp:129] Top shape: 7 128 56 56 (2809856)
I0609 02:19:48.083307  5331 net.cpp:137] Memory required for data: 223383580
I0609 02:19:48.083310  5331 layer_factory.hpp:77] Creating layer eltwise_stage0_block0_relu_stage0_block0_0_split
I0609 02:19:48.083317  5331 net.cpp:84] Creating Layer eltwise_stage0_block0_relu_stage0_block0_0_split
I0609 02:19:48.083323  5331 net.cpp:406] eltwise_stage0_block0_relu_stage0_block0_0_split <- eltwise_stage0_block0
I0609 02:19:48.083328  5331 net.cpp:380] eltwise_stage0_block0_relu_stage0_block0_0_split -> eltwise_stage0_block0_relu_stage0_block0_0_split_0
I0609 02:19:48.083338  5331 net.cpp:380] eltwise_stage0_block0_relu_stage0_block0_0_split -> eltwise_stage0_block0_relu_stage0_block0_0_split_1
I0609 02:19:48.083369  5331 net.cpp:122] Setting up eltwise_stage0_block0_relu_stage0_block0_0_split
I0609 02:19:48.083374  5331 net.cpp:129] Top shape: 7 128 56 56 (2809856)
I0609 02:19:48.083380  5331 net.cpp:129] Top shape: 7 128 56 56 (2809856)
I0609 02:19:48.083385  5331 net.cpp:137] Memory required for data: 245862428
I0609 02:19:48.083389  5331 layer_factory.hpp:77] Creating layer conv_stage0_block1_branch2a
I0609 02:19:48.083400  5331 net.cpp:84] Creating Layer conv_stage0_block1_branch2a
I0609 02:19:48.083403  5331 net.cpp:406] conv_stage0_block1_branch2a <- eltwise_stage0_block0_relu_stage0_block0_0_split_0
I0609 02:19:48.083411  5331 net.cpp:380] conv_stage0_block1_branch2a -> conv_stage0_block1_branch2a
I0609 02:19:48.083604  5331 net.cpp:122] Setting up conv_stage0_block1_branch2a
I0609 02:19:48.083611  5331 net.cpp:129] Top shape: 7 32 56 56 (702464)
I0609 02:19:48.083616  5331 net.cpp:137] Memory required for data: 248672284
I0609 02:19:48.083623  5331 layer_factory.hpp:77] Creating layer bn_stage0_block1_branch2a
I0609 02:19:48.083631  5331 net.cpp:84] Creating Layer bn_stage0_block1_branch2a
I0609 02:19:48.083636  5331 net.cpp:406] bn_stage0_block1_branch2a <- conv_stage0_block1_branch2a
I0609 02:19:48.083643  5331 net.cpp:367] bn_stage0_block1_branch2a -> conv_stage0_block1_branch2a (in-place)
I0609 02:19:48.083788  5331 net.cpp:122] Setting up bn_stage0_block1_branch2a
I0609 02:19:48.083796  5331 net.cpp:129] Top shape: 7 32 56 56 (702464)
I0609 02:19:48.083798  5331 net.cpp:137] Memory required for data: 251482140
I0609 02:19:48.083808  5331 layer_factory.hpp:77] Creating layer scale_stage0_block1_branch2a
I0609 02:19:48.083814  5331 net.cpp:84] Creating Layer scale_stage0_block1_branch2a
I0609 02:19:48.083819  5331 net.cpp:406] scale_stage0_block1_branch2a <- conv_stage0_block1_branch2a
I0609 02:19:48.083825  5331 net.cpp:367] scale_stage0_block1_branch2a -> conv_stage0_block1_branch2a (in-place)
I0609 02:19:48.083858  5331 layer_factory.hpp:77] Creating layer scale_stage0_block1_branch2a
I0609 02:19:48.083945  5331 net.cpp:122] Setting up scale_stage0_block1_branch2a
I0609 02:19:48.083951  5331 net.cpp:129] Top shape: 7 32 56 56 (702464)
I0609 02:19:48.083956  5331 net.cpp:137] Memory required for data: 254291996
I0609 02:19:48.083963  5331 layer_factory.hpp:77] Creating layer relu_stage0_block1_branch2a
I0609 02:19:48.083971  5331 net.cpp:84] Creating Layer relu_stage0_block1_branch2a
I0609 02:19:48.083976  5331 net.cpp:406] relu_stage0_block1_branch2a <- conv_stage0_block1_branch2a
I0609 02:19:48.083981  5331 net.cpp:367] relu_stage0_block1_branch2a -> conv_stage0_block1_branch2a (in-place)
I0609 02:19:48.083988  5331 net.cpp:122] Setting up relu_stage0_block1_branch2a
I0609 02:19:48.083994  5331 net.cpp:129] Top shape: 7 32 56 56 (702464)
I0609 02:19:48.083998  5331 net.cpp:137] Memory required for data: 257101852
I0609 02:19:48.084003  5331 layer_factory.hpp:77] Creating layer conv_stage0_block1_branch2b
I0609 02:19:48.084013  5331 net.cpp:84] Creating Layer conv_stage0_block1_branch2b
I0609 02:19:48.084017  5331 net.cpp:406] conv_stage0_block1_branch2b <- conv_stage0_block1_branch2a
I0609 02:19:48.084024  5331 net.cpp:380] conv_stage0_block1_branch2b -> conv_stage0_block1_branch2b
I0609 02:19:48.084252  5331 net.cpp:122] Setting up conv_stage0_block1_branch2b
I0609 02:19:48.084260  5331 net.cpp:129] Top shape: 7 32 56 56 (702464)
I0609 02:19:48.084265  5331 net.cpp:137] Memory required for data: 259911708
I0609 02:19:48.084272  5331 layer_factory.hpp:77] Creating layer bn_stage0_block1_branch2b
I0609 02:19:48.084280  5331 net.cpp:84] Creating Layer bn_stage0_block1_branch2b
I0609 02:19:48.084285  5331 net.cpp:406] bn_stage0_block1_branch2b <- conv_stage0_block1_branch2b
I0609 02:19:48.084292  5331 net.cpp:367] bn_stage0_block1_branch2b -> conv_stage0_block1_branch2b (in-place)
I0609 02:19:48.084432  5331 net.cpp:122] Setting up bn_stage0_block1_branch2b
I0609 02:19:48.084439  5331 net.cpp:129] Top shape: 7 32 56 56 (702464)
I0609 02:19:48.084442  5331 net.cpp:137] Memory required for data: 262721564
I0609 02:19:48.084452  5331 layer_factory.hpp:77] Creating layer scale_stage0_block1_branch2b
I0609 02:19:48.084458  5331 net.cpp:84] Creating Layer scale_stage0_block1_branch2b
I0609 02:19:48.084463  5331 net.cpp:406] scale_stage0_block1_branch2b <- conv_stage0_block1_branch2b
I0609 02:19:48.084470  5331 net.cpp:367] scale_stage0_block1_branch2b -> conv_stage0_block1_branch2b (in-place)
I0609 02:19:48.084501  5331 layer_factory.hpp:77] Creating layer scale_stage0_block1_branch2b
I0609 02:19:48.084590  5331 net.cpp:122] Setting up scale_stage0_block1_branch2b
I0609 02:19:48.084596  5331 net.cpp:129] Top shape: 7 32 56 56 (702464)
I0609 02:19:48.084601  5331 net.cpp:137] Memory required for data: 265531420
I0609 02:19:48.084609  5331 layer_factory.hpp:77] Creating layer relu_stage0_block1_branch2b
I0609 02:19:48.084615  5331 net.cpp:84] Creating Layer relu_stage0_block1_branch2b
I0609 02:19:48.084619  5331 net.cpp:406] relu_stage0_block1_branch2b <- conv_stage0_block1_branch2b
I0609 02:19:48.084626  5331 net.cpp:367] relu_stage0_block1_branch2b -> conv_stage0_block1_branch2b (in-place)
I0609 02:19:48.084633  5331 net.cpp:122] Setting up relu_stage0_block1_branch2b
I0609 02:19:48.084640  5331 net.cpp:129] Top shape: 7 32 56 56 (702464)
I0609 02:19:48.084642  5331 net.cpp:137] Memory required for data: 268341276
I0609 02:19:48.084647  5331 layer_factory.hpp:77] Creating layer conv_stage0_block1_branch2c
I0609 02:19:48.084664  5331 net.cpp:84] Creating Layer conv_stage0_block1_branch2c
I0609 02:19:48.084668  5331 net.cpp:406] conv_stage0_block1_branch2c <- conv_stage0_block1_branch2b
I0609 02:19:48.084674  5331 net.cpp:380] conv_stage0_block1_branch2c -> conv_stage0_block1_branch2c
I0609 02:19:48.084858  5331 net.cpp:122] Setting up conv_stage0_block1_branch2c
I0609 02:19:48.084866  5331 net.cpp:129] Top shape: 7 128 56 56 (2809856)
I0609 02:19:48.084870  5331 net.cpp:137] Memory required for data: 279580700
I0609 02:19:48.084877  5331 layer_factory.hpp:77] Creating layer bn_stage0_block1_branch2c
I0609 02:19:48.084884  5331 net.cpp:84] Creating Layer bn_stage0_block1_branch2c
I0609 02:19:48.084889  5331 net.cpp:406] bn_stage0_block1_branch2c <- conv_stage0_block1_branch2c
I0609 02:19:48.084897  5331 net.cpp:367] bn_stage0_block1_branch2c -> conv_stage0_block1_branch2c (in-place)
I0609 02:19:48.085026  5331 net.cpp:122] Setting up bn_stage0_block1_branch2c
I0609 02:19:48.085029  5331 net.cpp:129] Top shape: 7 128 56 56 (2809856)
I0609 02:19:48.085032  5331 net.cpp:137] Memory required for data: 290820124
I0609 02:19:48.085037  5331 layer_factory.hpp:77] Creating layer scale_stage0_block1_branch2c
I0609 02:19:48.085042  5331 net.cpp:84] Creating Layer scale_stage0_block1_branch2c
I0609 02:19:48.085044  5331 net.cpp:406] scale_stage0_block1_branch2c <- conv_stage0_block1_branch2c
I0609 02:19:48.085048  5331 net.cpp:367] scale_stage0_block1_branch2c -> conv_stage0_block1_branch2c (in-place)
I0609 02:19:48.085075  5331 layer_factory.hpp:77] Creating layer scale_stage0_block1_branch2c
I0609 02:19:48.085150  5331 net.cpp:122] Setting up scale_stage0_block1_branch2c
I0609 02:19:48.085155  5331 net.cpp:129] Top shape: 7 128 56 56 (2809856)
I0609 02:19:48.085165  5331 net.cpp:137] Memory required for data: 302059548
I0609 02:19:48.085172  5331 layer_factory.hpp:77] Creating layer eltwise_stage0_block1
I0609 02:19:48.085177  5331 net.cpp:84] Creating Layer eltwise_stage0_block1
I0609 02:19:48.085180  5331 net.cpp:406] eltwise_stage0_block1 <- eltwise_stage0_block0_relu_stage0_block0_0_split_1
I0609 02:19:48.085183  5331 net.cpp:406] eltwise_stage0_block1 <- conv_stage0_block1_branch2c
I0609 02:19:48.085188  5331 net.cpp:380] eltwise_stage0_block1 -> eltwise_stage0_block1
I0609 02:19:48.085209  5331 net.cpp:122] Setting up eltwise_stage0_block1
I0609 02:19:48.085214  5331 net.cpp:129] Top shape: 7 128 56 56 (2809856)
I0609 02:19:48.085216  5331 net.cpp:137] Memory required for data: 313298972
I0609 02:19:48.085218  5331 layer_factory.hpp:77] Creating layer relu_stage0_block1
I0609 02:19:48.085223  5331 net.cpp:84] Creating Layer relu_stage0_block1
I0609 02:19:48.085225  5331 net.cpp:406] relu_stage0_block1 <- eltwise_stage0_block1
I0609 02:19:48.085229  5331 net.cpp:367] relu_stage0_block1 -> eltwise_stage0_block1 (in-place)
I0609 02:19:48.085233  5331 net.cpp:122] Setting up relu_stage0_block1
I0609 02:19:48.085237  5331 net.cpp:129] Top shape: 7 128 56 56 (2809856)
I0609 02:19:48.085239  5331 net.cpp:137] Memory required for data: 324538396
I0609 02:19:48.085242  5331 layer_factory.hpp:77] Creating layer eltwise_stage0_block1_relu_stage0_block1_0_split
I0609 02:19:48.085247  5331 net.cpp:84] Creating Layer eltwise_stage0_block1_relu_stage0_block1_0_split
I0609 02:19:48.085248  5331 net.cpp:406] eltwise_stage0_block1_relu_stage0_block1_0_split <- eltwise_stage0_block1
I0609 02:19:48.085253  5331 net.cpp:380] eltwise_stage0_block1_relu_stage0_block1_0_split -> eltwise_stage0_block1_relu_stage0_block1_0_split_0
I0609 02:19:48.085258  5331 net.cpp:380] eltwise_stage0_block1_relu_stage0_block1_0_split -> eltwise_stage0_block1_relu_stage0_block1_0_split_1
I0609 02:19:48.085281  5331 net.cpp:122] Setting up eltwise_stage0_block1_relu_stage0_block1_0_split
I0609 02:19:48.085285  5331 net.cpp:129] Top shape: 7 128 56 56 (2809856)
I0609 02:19:48.085289  5331 net.cpp:129] Top shape: 7 128 56 56 (2809856)
I0609 02:19:48.085290  5331 net.cpp:137] Memory required for data: 347017244
I0609 02:19:48.085294  5331 layer_factory.hpp:77] Creating layer conv_stage0_block2_branch2a
I0609 02:19:48.085301  5331 net.cpp:84] Creating Layer conv_stage0_block2_branch2a
I0609 02:19:48.085304  5331 net.cpp:406] conv_stage0_block2_branch2a <- eltwise_stage0_block1_relu_stage0_block1_0_split_0
I0609 02:19:48.085309  5331 net.cpp:380] conv_stage0_block2_branch2a -> conv_stage0_block2_branch2a
I0609 02:19:48.085485  5331 net.cpp:122] Setting up conv_stage0_block2_branch2a
I0609 02:19:48.085490  5331 net.cpp:129] Top shape: 7 32 56 56 (702464)
I0609 02:19:48.085492  5331 net.cpp:137] Memory required for data: 349827100
I0609 02:19:48.085497  5331 layer_factory.hpp:77] Creating layer bn_stage0_block2_branch2a
I0609 02:19:48.085503  5331 net.cpp:84] Creating Layer bn_stage0_block2_branch2a
I0609 02:19:48.085505  5331 net.cpp:406] bn_stage0_block2_branch2a <- conv_stage0_block2_branch2a
I0609 02:19:48.085510  5331 net.cpp:367] bn_stage0_block2_branch2a -> conv_stage0_block2_branch2a (in-place)
I0609 02:19:48.085639  5331 net.cpp:122] Setting up bn_stage0_block2_branch2a
I0609 02:19:48.085644  5331 net.cpp:129] Top shape: 7 32 56 56 (702464)
I0609 02:19:48.085646  5331 net.cpp:137] Memory required for data: 352636956
I0609 02:19:48.085651  5331 layer_factory.hpp:77] Creating layer scale_stage0_block2_branch2a
I0609 02:19:48.085656  5331 net.cpp:84] Creating Layer scale_stage0_block2_branch2a
I0609 02:19:48.085659  5331 net.cpp:406] scale_stage0_block2_branch2a <- conv_stage0_block2_branch2a
I0609 02:19:48.085664  5331 net.cpp:367] scale_stage0_block2_branch2a -> conv_stage0_block2_branch2a (in-place)
I0609 02:19:48.085688  5331 layer_factory.hpp:77] Creating layer scale_stage0_block2_branch2a
I0609 02:19:48.085767  5331 net.cpp:122] Setting up scale_stage0_block2_branch2a
I0609 02:19:48.085772  5331 net.cpp:129] Top shape: 7 32 56 56 (702464)
I0609 02:19:48.085781  5331 net.cpp:137] Memory required for data: 355446812
I0609 02:19:48.085786  5331 layer_factory.hpp:77] Creating layer relu_stage0_block2_branch2a
I0609 02:19:48.085791  5331 net.cpp:84] Creating Layer relu_stage0_block2_branch2a
I0609 02:19:48.085793  5331 net.cpp:406] relu_stage0_block2_branch2a <- conv_stage0_block2_branch2a
I0609 02:19:48.085798  5331 net.cpp:367] relu_stage0_block2_branch2a -> conv_stage0_block2_branch2a (in-place)
I0609 02:19:48.085803  5331 net.cpp:122] Setting up relu_stage0_block2_branch2a
I0609 02:19:48.085805  5331 net.cpp:129] Top shape: 7 32 56 56 (702464)
I0609 02:19:48.085808  5331 net.cpp:137] Memory required for data: 358256668
I0609 02:19:48.085809  5331 layer_factory.hpp:77] Creating layer conv_stage0_block2_branch2b
I0609 02:19:48.085817  5331 net.cpp:84] Creating Layer conv_stage0_block2_branch2b
I0609 02:19:48.085819  5331 net.cpp:406] conv_stage0_block2_branch2b <- conv_stage0_block2_branch2a
I0609 02:19:48.085824  5331 net.cpp:380] conv_stage0_block2_branch2b -> conv_stage0_block2_branch2b
I0609 02:19:48.086030  5331 net.cpp:122] Setting up conv_stage0_block2_branch2b
I0609 02:19:48.086035  5331 net.cpp:129] Top shape: 7 32 56 56 (702464)
I0609 02:19:48.086036  5331 net.cpp:137] Memory required for data: 361066524
I0609 02:19:48.086046  5331 layer_factory.hpp:77] Creating layer bn_stage0_block2_branch2b
I0609 02:19:48.086052  5331 net.cpp:84] Creating Layer bn_stage0_block2_branch2b
I0609 02:19:48.086055  5331 net.cpp:406] bn_stage0_block2_branch2b <- conv_stage0_block2_branch2b
I0609 02:19:48.086061  5331 net.cpp:367] bn_stage0_block2_branch2b -> conv_stage0_block2_branch2b (in-place)
I0609 02:19:48.086190  5331 net.cpp:122] Setting up bn_stage0_block2_branch2b
I0609 02:19:48.086194  5331 net.cpp:129] Top shape: 7 32 56 56 (702464)
I0609 02:19:48.086196  5331 net.cpp:137] Memory required for data: 363876380
I0609 02:19:48.086202  5331 layer_factory.hpp:77] Creating layer scale_stage0_block2_branch2b
I0609 02:19:48.086206  5331 net.cpp:84] Creating Layer scale_stage0_block2_branch2b
I0609 02:19:48.086210  5331 net.cpp:406] scale_stage0_block2_branch2b <- conv_stage0_block2_branch2b
I0609 02:19:48.086213  5331 net.cpp:367] scale_stage0_block2_branch2b -> conv_stage0_block2_branch2b (in-place)
I0609 02:19:48.086238  5331 layer_factory.hpp:77] Creating layer scale_stage0_block2_branch2b
I0609 02:19:48.086326  5331 net.cpp:122] Setting up scale_stage0_block2_branch2b
I0609 02:19:48.086333  5331 net.cpp:129] Top shape: 7 32 56 56 (702464)
I0609 02:19:48.086334  5331 net.cpp:137] Memory required for data: 366686236
I0609 02:19:48.086339  5331 layer_factory.hpp:77] Creating layer relu_stage0_block2_branch2b
I0609 02:19:48.086344  5331 net.cpp:84] Creating Layer relu_stage0_block2_branch2b
I0609 02:19:48.086345  5331 net.cpp:406] relu_stage0_block2_branch2b <- conv_stage0_block2_branch2b
I0609 02:19:48.086349  5331 net.cpp:367] relu_stage0_block2_branch2b -> conv_stage0_block2_branch2b (in-place)
I0609 02:19:48.086354  5331 net.cpp:122] Setting up relu_stage0_block2_branch2b
I0609 02:19:48.086357  5331 net.cpp:129] Top shape: 7 32 56 56 (702464)
I0609 02:19:48.086359  5331 net.cpp:137] Memory required for data: 369496092
I0609 02:19:48.086362  5331 layer_factory.hpp:77] Creating layer conv_stage0_block2_branch2c
I0609 02:19:48.086369  5331 net.cpp:84] Creating Layer conv_stage0_block2_branch2c
I0609 02:19:48.086372  5331 net.cpp:406] conv_stage0_block2_branch2c <- conv_stage0_block2_branch2b
I0609 02:19:48.086377  5331 net.cpp:380] conv_stage0_block2_branch2c -> conv_stage0_block2_branch2c
I0609 02:19:48.086550  5331 net.cpp:122] Setting up conv_stage0_block2_branch2c
I0609 02:19:48.086555  5331 net.cpp:129] Top shape: 7 128 56 56 (2809856)
I0609 02:19:48.086557  5331 net.cpp:137] Memory required for data: 380735516
I0609 02:19:48.086562  5331 layer_factory.hpp:77] Creating layer bn_stage0_block2_branch2c
I0609 02:19:48.086567  5331 net.cpp:84] Creating Layer bn_stage0_block2_branch2c
I0609 02:19:48.086570  5331 net.cpp:406] bn_stage0_block2_branch2c <- conv_stage0_block2_branch2c
I0609 02:19:48.086582  5331 net.cpp:367] bn_stage0_block2_branch2c -> conv_stage0_block2_branch2c (in-place)
I0609 02:19:48.086721  5331 net.cpp:122] Setting up bn_stage0_block2_branch2c
I0609 02:19:48.086726  5331 net.cpp:129] Top shape: 7 128 56 56 (2809856)
I0609 02:19:48.086730  5331 net.cpp:137] Memory required for data: 391974940
I0609 02:19:48.086735  5331 layer_factory.hpp:77] Creating layer scale_stage0_block2_branch2c
I0609 02:19:48.086740  5331 net.cpp:84] Creating Layer scale_stage0_block2_branch2c
I0609 02:19:48.086742  5331 net.cpp:406] scale_stage0_block2_branch2c <- conv_stage0_block2_branch2c
I0609 02:19:48.086747  5331 net.cpp:367] scale_stage0_block2_branch2c -> conv_stage0_block2_branch2c (in-place)
I0609 02:19:48.086773  5331 layer_factory.hpp:77] Creating layer scale_stage0_block2_branch2c
I0609 02:19:48.086848  5331 net.cpp:122] Setting up scale_stage0_block2_branch2c
I0609 02:19:48.086851  5331 net.cpp:129] Top shape: 7 128 56 56 (2809856)
I0609 02:19:48.086853  5331 net.cpp:137] Memory required for data: 403214364
I0609 02:19:48.086858  5331 layer_factory.hpp:77] Creating layer eltwise_stage0_block2
I0609 02:19:48.086863  5331 net.cpp:84] Creating Layer eltwise_stage0_block2
I0609 02:19:48.086865  5331 net.cpp:406] eltwise_stage0_block2 <- eltwise_stage0_block1_relu_stage0_block1_0_split_1
I0609 02:19:48.086869  5331 net.cpp:406] eltwise_stage0_block2 <- conv_stage0_block2_branch2c
I0609 02:19:48.086872  5331 net.cpp:380] eltwise_stage0_block2 -> eltwise_stage0_block2
I0609 02:19:48.086889  5331 net.cpp:122] Setting up eltwise_stage0_block2
I0609 02:19:48.086894  5331 net.cpp:129] Top shape: 7 128 56 56 (2809856)
I0609 02:19:48.086895  5331 net.cpp:137] Memory required for data: 414453788
I0609 02:19:48.086897  5331 layer_factory.hpp:77] Creating layer relu_stage0_block2
I0609 02:19:48.086901  5331 net.cpp:84] Creating Layer relu_stage0_block2
I0609 02:19:48.086905  5331 net.cpp:406] relu_stage0_block2 <- eltwise_stage0_block2
I0609 02:19:48.086907  5331 net.cpp:367] relu_stage0_block2 -> eltwise_stage0_block2 (in-place)
I0609 02:19:48.086912  5331 net.cpp:122] Setting up relu_stage0_block2
I0609 02:19:48.086915  5331 net.cpp:129] Top shape: 7 128 56 56 (2809856)
I0609 02:19:48.086917  5331 net.cpp:137] Memory required for data: 425693212
I0609 02:19:48.086920  5331 layer_factory.hpp:77] Creating layer eltwise_stage0_block2_relu_stage0_block2_0_split
I0609 02:19:48.086923  5331 net.cpp:84] Creating Layer eltwise_stage0_block2_relu_stage0_block2_0_split
I0609 02:19:48.086926  5331 net.cpp:406] eltwise_stage0_block2_relu_stage0_block2_0_split <- eltwise_stage0_block2
I0609 02:19:48.086930  5331 net.cpp:380] eltwise_stage0_block2_relu_stage0_block2_0_split -> eltwise_stage0_block2_relu_stage0_block2_0_split_0
I0609 02:19:48.086935  5331 net.cpp:380] eltwise_stage0_block2_relu_stage0_block2_0_split -> eltwise_stage0_block2_relu_stage0_block2_0_split_1
I0609 02:19:48.086962  5331 net.cpp:122] Setting up eltwise_stage0_block2_relu_stage0_block2_0_split
I0609 02:19:48.086967  5331 net.cpp:129] Top shape: 7 128 56 56 (2809856)
I0609 02:19:48.086971  5331 net.cpp:129] Top shape: 7 128 56 56 (2809856)
I0609 02:19:48.086973  5331 net.cpp:137] Memory required for data: 448172060
I0609 02:19:48.086975  5331 layer_factory.hpp:77] Creating layer conv_stage1_block0_proj_shortcut
I0609 02:19:48.086985  5331 net.cpp:84] Creating Layer conv_stage1_block0_proj_shortcut
I0609 02:19:48.086988  5331 net.cpp:406] conv_stage1_block0_proj_shortcut <- eltwise_stage0_block2_relu_stage0_block2_0_split_0
I0609 02:19:48.086994  5331 net.cpp:380] conv_stage1_block0_proj_shortcut -> conv_stage1_block0_proj_shortcut
I0609 02:19:48.088258  5331 net.cpp:122] Setting up conv_stage1_block0_proj_shortcut
I0609 02:19:48.088268  5331 net.cpp:129] Top shape: 7 256 28 28 (1404928)
I0609 02:19:48.088271  5331 net.cpp:137] Memory required for data: 453791772
I0609 02:19:48.088277  5331 layer_factory.hpp:77] Creating layer bn_stage1_block0_proj_shortcut
I0609 02:19:48.088284  5331 net.cpp:84] Creating Layer bn_stage1_block0_proj_shortcut
I0609 02:19:48.088297  5331 net.cpp:406] bn_stage1_block0_proj_shortcut <- conv_stage1_block0_proj_shortcut
I0609 02:19:48.088306  5331 net.cpp:367] bn_stage1_block0_proj_shortcut -> conv_stage1_block0_proj_shortcut (in-place)
I0609 02:19:48.088459  5331 net.cpp:122] Setting up bn_stage1_block0_proj_shortcut
I0609 02:19:48.088465  5331 net.cpp:129] Top shape: 7 256 28 28 (1404928)
I0609 02:19:48.088469  5331 net.cpp:137] Memory required for data: 459411484
I0609 02:19:48.088474  5331 layer_factory.hpp:77] Creating layer scale_stage1_block0_proj_shortcut
I0609 02:19:48.088481  5331 net.cpp:84] Creating Layer scale_stage1_block0_proj_shortcut
I0609 02:19:48.088485  5331 net.cpp:406] scale_stage1_block0_proj_shortcut <- conv_stage1_block0_proj_shortcut
I0609 02:19:48.088490  5331 net.cpp:367] scale_stage1_block0_proj_shortcut -> conv_stage1_block0_proj_shortcut (in-place)
I0609 02:19:48.088536  5331 layer_factory.hpp:77] Creating layer scale_stage1_block0_proj_shortcut
I0609 02:19:48.088624  5331 net.cpp:122] Setting up scale_stage1_block0_proj_shortcut
I0609 02:19:48.088629  5331 net.cpp:129] Top shape: 7 256 28 28 (1404928)
I0609 02:19:48.088632  5331 net.cpp:137] Memory required for data: 465031196
I0609 02:19:48.088637  5331 layer_factory.hpp:77] Creating layer conv_stage1_block0_branch2a
I0609 02:19:48.088655  5331 net.cpp:84] Creating Layer conv_stage1_block0_branch2a
I0609 02:19:48.088660  5331 net.cpp:406] conv_stage1_block0_branch2a <- eltwise_stage0_block2_relu_stage0_block2_0_split_1
I0609 02:19:48.088672  5331 net.cpp:380] conv_stage1_block0_branch2a -> conv_stage1_block0_branch2a
I0609 02:19:48.088943  5331 net.cpp:122] Setting up conv_stage1_block0_branch2a
I0609 02:19:48.088950  5331 net.cpp:129] Top shape: 7 64 28 28 (351232)
I0609 02:19:48.088953  5331 net.cpp:137] Memory required for data: 466436124
I0609 02:19:48.088958  5331 layer_factory.hpp:77] Creating layer bn_stage1_block0_branch2a
I0609 02:19:48.088963  5331 net.cpp:84] Creating Layer bn_stage1_block0_branch2a
I0609 02:19:48.088966  5331 net.cpp:406] bn_stage1_block0_branch2a <- conv_stage1_block0_branch2a
I0609 02:19:48.088971  5331 net.cpp:367] bn_stage1_block0_branch2a -> conv_stage1_block0_branch2a (in-place)
I0609 02:19:48.089118  5331 net.cpp:122] Setting up bn_stage1_block0_branch2a
I0609 02:19:48.089125  5331 net.cpp:129] Top shape: 7 64 28 28 (351232)
I0609 02:19:48.089128  5331 net.cpp:137] Memory required for data: 467841052
I0609 02:19:48.089133  5331 layer_factory.hpp:77] Creating layer scale_stage1_block0_branch2a
I0609 02:19:48.089138  5331 net.cpp:84] Creating Layer scale_stage1_block0_branch2a
I0609 02:19:48.089141  5331 net.cpp:406] scale_stage1_block0_branch2a <- conv_stage1_block0_branch2a
I0609 02:19:48.089146  5331 net.cpp:367] scale_stage1_block0_branch2a -> conv_stage1_block0_branch2a (in-place)
I0609 02:19:48.089177  5331 layer_factory.hpp:77] Creating layer scale_stage1_block0_branch2a
I0609 02:19:48.089262  5331 net.cpp:122] Setting up scale_stage1_block0_branch2a
I0609 02:19:48.089267  5331 net.cpp:129] Top shape: 7 64 28 28 (351232)
I0609 02:19:48.089269  5331 net.cpp:137] Memory required for data: 469245980
I0609 02:19:48.089274  5331 layer_factory.hpp:77] Creating layer relu_stage1_block0_branch2a
I0609 02:19:48.089279  5331 net.cpp:84] Creating Layer relu_stage1_block0_branch2a
I0609 02:19:48.089282  5331 net.cpp:406] relu_stage1_block0_branch2a <- conv_stage1_block0_branch2a
I0609 02:19:48.089287  5331 net.cpp:367] relu_stage1_block0_branch2a -> conv_stage1_block0_branch2a (in-place)
I0609 02:19:48.089292  5331 net.cpp:122] Setting up relu_stage1_block0_branch2a
I0609 02:19:48.089295  5331 net.cpp:129] Top shape: 7 64 28 28 (351232)
I0609 02:19:48.089298  5331 net.cpp:137] Memory required for data: 470650908
I0609 02:19:48.089299  5331 layer_factory.hpp:77] Creating layer conv_stage1_block0_branch2b
I0609 02:19:48.089309  5331 net.cpp:84] Creating Layer conv_stage1_block0_branch2b
I0609 02:19:48.089311  5331 net.cpp:406] conv_stage1_block0_branch2b <- conv_stage1_block0_branch2a
I0609 02:19:48.089325  5331 net.cpp:380] conv_stage1_block0_branch2b -> conv_stage1_block0_branch2b
I0609 02:19:48.090023  5331 net.cpp:122] Setting up conv_stage1_block0_branch2b
I0609 02:19:48.090029  5331 net.cpp:129] Top shape: 7 64 28 28 (351232)
I0609 02:19:48.090031  5331 net.cpp:137] Memory required for data: 472055836
I0609 02:19:48.090036  5331 layer_factory.hpp:77] Creating layer bn_stage1_block0_branch2b
I0609 02:19:48.090044  5331 net.cpp:84] Creating Layer bn_stage1_block0_branch2b
I0609 02:19:48.090047  5331 net.cpp:406] bn_stage1_block0_branch2b <- conv_stage1_block0_branch2b
I0609 02:19:48.090052  5331 net.cpp:367] bn_stage1_block0_branch2b -> conv_stage1_block0_branch2b (in-place)
I0609 02:19:48.090200  5331 net.cpp:122] Setting up bn_stage1_block0_branch2b
I0609 02:19:48.090205  5331 net.cpp:129] Top shape: 7 64 28 28 (351232)
I0609 02:19:48.090207  5331 net.cpp:137] Memory required for data: 473460764
I0609 02:19:48.090212  5331 layer_factory.hpp:77] Creating layer scale_stage1_block0_branch2b
I0609 02:19:48.090219  5331 net.cpp:84] Creating Layer scale_stage1_block0_branch2b
I0609 02:19:48.090220  5331 net.cpp:406] scale_stage1_block0_branch2b <- conv_stage1_block0_branch2b
I0609 02:19:48.090225  5331 net.cpp:367] scale_stage1_block0_branch2b -> conv_stage1_block0_branch2b (in-place)
I0609 02:19:48.090267  5331 layer_factory.hpp:77] Creating layer scale_stage1_block0_branch2b
I0609 02:19:48.090354  5331 net.cpp:122] Setting up scale_stage1_block0_branch2b
I0609 02:19:48.090361  5331 net.cpp:129] Top shape: 7 64 28 28 (351232)
I0609 02:19:48.090363  5331 net.cpp:137] Memory required for data: 474865692
I0609 02:19:48.090368  5331 layer_factory.hpp:77] Creating layer relu_stage1_block0_branch2b
I0609 02:19:48.090373  5331 net.cpp:84] Creating Layer relu_stage1_block0_branch2b
I0609 02:19:48.090375  5331 net.cpp:406] relu_stage1_block0_branch2b <- conv_stage1_block0_branch2b
I0609 02:19:48.090380  5331 net.cpp:367] relu_stage1_block0_branch2b -> conv_stage1_block0_branch2b (in-place)
I0609 02:19:48.090386  5331 net.cpp:122] Setting up relu_stage1_block0_branch2b
I0609 02:19:48.090389  5331 net.cpp:129] Top shape: 7 64 28 28 (351232)
I0609 02:19:48.090391  5331 net.cpp:137] Memory required for data: 476270620
I0609 02:19:48.090394  5331 layer_factory.hpp:77] Creating layer conv_stage1_block0_branch2c
I0609 02:19:48.090400  5331 net.cpp:84] Creating Layer conv_stage1_block0_branch2c
I0609 02:19:48.090402  5331 net.cpp:406] conv_stage1_block0_branch2c <- conv_stage1_block0_branch2b
I0609 02:19:48.090409  5331 net.cpp:380] conv_stage1_block0_branch2c -> conv_stage1_block0_branch2c
I0609 02:19:48.090654  5331 net.cpp:122] Setting up conv_stage1_block0_branch2c
I0609 02:19:48.090659  5331 net.cpp:129] Top shape: 7 256 28 28 (1404928)
I0609 02:19:48.090662  5331 net.cpp:137] Memory required for data: 481890332
I0609 02:19:48.090667  5331 layer_factory.hpp:77] Creating layer bn_stage1_block0_branch2c
I0609 02:19:48.090687  5331 net.cpp:84] Creating Layer bn_stage1_block0_branch2c
I0609 02:19:48.090692  5331 net.cpp:406] bn_stage1_block0_branch2c <- conv_stage1_block0_branch2c
I0609 02:19:48.090695  5331 net.cpp:367] bn_stage1_block0_branch2c -> conv_stage1_block0_branch2c (in-place)
I0609 02:19:48.090831  5331 net.cpp:122] Setting up bn_stage1_block0_branch2c
I0609 02:19:48.090836  5331 net.cpp:129] Top shape: 7 256 28 28 (1404928)
I0609 02:19:48.090837  5331 net.cpp:137] Memory required for data: 487510044
I0609 02:19:48.090843  5331 layer_factory.hpp:77] Creating layer scale_stage1_block0_branch2c
I0609 02:19:48.090848  5331 net.cpp:84] Creating Layer scale_stage1_block0_branch2c
I0609 02:19:48.090850  5331 net.cpp:406] scale_stage1_block0_branch2c <- conv_stage1_block0_branch2c
I0609 02:19:48.090855  5331 net.cpp:367] scale_stage1_block0_branch2c -> conv_stage1_block0_branch2c (in-place)
I0609 02:19:48.090885  5331 layer_factory.hpp:77] Creating layer scale_stage1_block0_branch2c
I0609 02:19:48.090970  5331 net.cpp:122] Setting up scale_stage1_block0_branch2c
I0609 02:19:48.090975  5331 net.cpp:129] Top shape: 7 256 28 28 (1404928)
I0609 02:19:48.090986  5331 net.cpp:137] Memory required for data: 493129756
I0609 02:19:48.090991  5331 layer_factory.hpp:77] Creating layer eltwise_stage1_block0
I0609 02:19:48.090996  5331 net.cpp:84] Creating Layer eltwise_stage1_block0
I0609 02:19:48.090999  5331 net.cpp:406] eltwise_stage1_block0 <- conv_stage1_block0_proj_shortcut
I0609 02:19:48.091003  5331 net.cpp:406] eltwise_stage1_block0 <- conv_stage1_block0_branch2c
I0609 02:19:48.091007  5331 net.cpp:380] eltwise_stage1_block0 -> eltwise_stage1_block0
I0609 02:19:48.091027  5331 net.cpp:122] Setting up eltwise_stage1_block0
I0609 02:19:48.091032  5331 net.cpp:129] Top shape: 7 256 28 28 (1404928)
I0609 02:19:48.091033  5331 net.cpp:137] Memory required for data: 498749468
I0609 02:19:48.091035  5331 layer_factory.hpp:77] Creating layer relu_stage1_block0
I0609 02:19:48.091042  5331 net.cpp:84] Creating Layer relu_stage1_block0
I0609 02:19:48.091044  5331 net.cpp:406] relu_stage1_block0 <- eltwise_stage1_block0
I0609 02:19:48.091048  5331 net.cpp:367] relu_stage1_block0 -> eltwise_stage1_block0 (in-place)
I0609 02:19:48.091053  5331 net.cpp:122] Setting up relu_stage1_block0
I0609 02:19:48.091056  5331 net.cpp:129] Top shape: 7 256 28 28 (1404928)
I0609 02:19:48.091058  5331 net.cpp:137] Memory required for data: 504369180
I0609 02:19:48.091060  5331 layer_factory.hpp:77] Creating layer eltwise_stage1_block0_relu_stage1_block0_0_split
I0609 02:19:48.091065  5331 net.cpp:84] Creating Layer eltwise_stage1_block0_relu_stage1_block0_0_split
I0609 02:19:48.091068  5331 net.cpp:406] eltwise_stage1_block0_relu_stage1_block0_0_split <- eltwise_stage1_block0
I0609 02:19:48.091073  5331 net.cpp:380] eltwise_stage1_block0_relu_stage1_block0_0_split -> eltwise_stage1_block0_relu_stage1_block0_0_split_0
I0609 02:19:48.091078  5331 net.cpp:380] eltwise_stage1_block0_relu_stage1_block0_0_split -> eltwise_stage1_block0_relu_stage1_block0_0_split_1
I0609 02:19:48.091105  5331 net.cpp:122] Setting up eltwise_stage1_block0_relu_stage1_block0_0_split
I0609 02:19:48.091109  5331 net.cpp:129] Top shape: 7 256 28 28 (1404928)
I0609 02:19:48.091112  5331 net.cpp:129] Top shape: 7 256 28 28 (1404928)
I0609 02:19:48.091114  5331 net.cpp:137] Memory required for data: 515608604
I0609 02:19:48.091117  5331 layer_factory.hpp:77] Creating layer conv_stage1_block1_branch2a
I0609 02:19:48.091125  5331 net.cpp:84] Creating Layer conv_stage1_block1_branch2a
I0609 02:19:48.091128  5331 net.cpp:406] conv_stage1_block1_branch2a <- eltwise_stage1_block0_relu_stage1_block0_0_split_0
I0609 02:19:48.091135  5331 net.cpp:380] conv_stage1_block1_branch2a -> conv_stage1_block1_branch2a
I0609 02:19:48.091395  5331 net.cpp:122] Setting up conv_stage1_block1_branch2a
I0609 02:19:48.091401  5331 net.cpp:129] Top shape: 7 64 28 28 (351232)
I0609 02:19:48.091403  5331 net.cpp:137] Memory required for data: 517013532
I0609 02:19:48.091408  5331 layer_factory.hpp:77] Creating layer bn_stage1_block1_branch2a
I0609 02:19:48.091414  5331 net.cpp:84] Creating Layer bn_stage1_block1_branch2a
I0609 02:19:48.091418  5331 net.cpp:406] bn_stage1_block1_branch2a <- conv_stage1_block1_branch2a
I0609 02:19:48.091423  5331 net.cpp:367] bn_stage1_block1_branch2a -> conv_stage1_block1_branch2a (in-place)
I0609 02:19:48.091565  5331 net.cpp:122] Setting up bn_stage1_block1_branch2a
I0609 02:19:48.091570  5331 net.cpp:129] Top shape: 7 64 28 28 (351232)
I0609 02:19:48.091572  5331 net.cpp:137] Memory required for data: 518418460
I0609 02:19:48.091578  5331 layer_factory.hpp:77] Creating layer scale_stage1_block1_branch2a
I0609 02:19:48.091584  5331 net.cpp:84] Creating Layer scale_stage1_block1_branch2a
I0609 02:19:48.091586  5331 net.cpp:406] scale_stage1_block1_branch2a <- conv_stage1_block1_branch2a
I0609 02:19:48.091591  5331 net.cpp:367] scale_stage1_block1_branch2a -> conv_stage1_block1_branch2a (in-place)
I0609 02:19:48.091619  5331 layer_factory.hpp:77] Creating layer scale_stage1_block1_branch2a
I0609 02:19:48.091706  5331 net.cpp:122] Setting up scale_stage1_block1_branch2a
I0609 02:19:48.091717  5331 net.cpp:129] Top shape: 7 64 28 28 (351232)
I0609 02:19:48.091720  5331 net.cpp:137] Memory required for data: 519823388
I0609 02:19:48.091725  5331 layer_factory.hpp:77] Creating layer relu_stage1_block1_branch2a
I0609 02:19:48.091729  5331 net.cpp:84] Creating Layer relu_stage1_block1_branch2a
I0609 02:19:48.091732  5331 net.cpp:406] relu_stage1_block1_branch2a <- conv_stage1_block1_branch2a
I0609 02:19:48.091737  5331 net.cpp:367] relu_stage1_block1_branch2a -> conv_stage1_block1_branch2a (in-place)
I0609 02:19:48.091742  5331 net.cpp:122] Setting up relu_stage1_block1_branch2a
I0609 02:19:48.091745  5331 net.cpp:129] Top shape: 7 64 28 28 (351232)
I0609 02:19:48.091747  5331 net.cpp:137] Memory required for data: 521228316
I0609 02:19:48.091750  5331 layer_factory.hpp:77] Creating layer conv_stage1_block1_branch2b
I0609 02:19:48.091758  5331 net.cpp:84] Creating Layer conv_stage1_block1_branch2b
I0609 02:19:48.091760  5331 net.cpp:406] conv_stage1_block1_branch2b <- conv_stage1_block1_branch2a
I0609 02:19:48.091765  5331 net.cpp:380] conv_stage1_block1_branch2b -> conv_stage1_block1_branch2b
I0609 02:19:48.092119  5331 net.cpp:122] Setting up conv_stage1_block1_branch2b
I0609 02:19:48.092124  5331 net.cpp:129] Top shape: 7 64 28 28 (351232)
I0609 02:19:48.092126  5331 net.cpp:137] Memory required for data: 522633244
I0609 02:19:48.092131  5331 layer_factory.hpp:77] Creating layer bn_stage1_block1_branch2b
I0609 02:19:48.092136  5331 net.cpp:84] Creating Layer bn_stage1_block1_branch2b
I0609 02:19:48.092139  5331 net.cpp:406] bn_stage1_block1_branch2b <- conv_stage1_block1_branch2b
I0609 02:19:48.092144  5331 net.cpp:367] bn_stage1_block1_branch2b -> conv_stage1_block1_branch2b (in-place)
I0609 02:19:48.092288  5331 net.cpp:122] Setting up bn_stage1_block1_branch2b
I0609 02:19:48.092293  5331 net.cpp:129] Top shape: 7 64 28 28 (351232)
I0609 02:19:48.092294  5331 net.cpp:137] Memory required for data: 524038172
I0609 02:19:48.092299  5331 layer_factory.hpp:77] Creating layer scale_stage1_block1_branch2b
I0609 02:19:48.092303  5331 net.cpp:84] Creating Layer scale_stage1_block1_branch2b
I0609 02:19:48.092306  5331 net.cpp:406] scale_stage1_block1_branch2b <- conv_stage1_block1_branch2b
I0609 02:19:48.092311  5331 net.cpp:367] scale_stage1_block1_branch2b -> conv_stage1_block1_branch2b (in-place)
I0609 02:19:48.092344  5331 layer_factory.hpp:77] Creating layer scale_stage1_block1_branch2b
I0609 02:19:48.092433  5331 net.cpp:122] Setting up scale_stage1_block1_branch2b
I0609 02:19:48.092437  5331 net.cpp:129] Top shape: 7 64 28 28 (351232)
I0609 02:19:48.092440  5331 net.cpp:137] Memory required for data: 525443100
I0609 02:19:48.092444  5331 layer_factory.hpp:77] Creating layer relu_stage1_block1_branch2b
I0609 02:19:48.092449  5331 net.cpp:84] Creating Layer relu_stage1_block1_branch2b
I0609 02:19:48.092453  5331 net.cpp:406] relu_stage1_block1_branch2b <- conv_stage1_block1_branch2b
I0609 02:19:48.092456  5331 net.cpp:367] relu_stage1_block1_branch2b -> conv_stage1_block1_branch2b (in-place)
I0609 02:19:48.092460  5331 net.cpp:122] Setting up relu_stage1_block1_branch2b
I0609 02:19:48.092464  5331 net.cpp:129] Top shape: 7 64 28 28 (351232)
I0609 02:19:48.092466  5331 net.cpp:137] Memory required for data: 526848028
I0609 02:19:48.092468  5331 layer_factory.hpp:77] Creating layer conv_stage1_block1_branch2c
I0609 02:19:48.092476  5331 net.cpp:84] Creating Layer conv_stage1_block1_branch2c
I0609 02:19:48.092478  5331 net.cpp:406] conv_stage1_block1_branch2c <- conv_stage1_block1_branch2b
I0609 02:19:48.092484  5331 net.cpp:380] conv_stage1_block1_branch2c -> conv_stage1_block1_branch2c
I0609 02:19:48.092746  5331 net.cpp:122] Setting up conv_stage1_block1_branch2c
I0609 02:19:48.092751  5331 net.cpp:129] Top shape: 7 256 28 28 (1404928)
I0609 02:19:48.092753  5331 net.cpp:137] Memory required for data: 532467740
I0609 02:19:48.092758  5331 layer_factory.hpp:77] Creating layer bn_stage1_block1_branch2c
I0609 02:19:48.092763  5331 net.cpp:84] Creating Layer bn_stage1_block1_branch2c
I0609 02:19:48.092766  5331 net.cpp:406] bn_stage1_block1_branch2c <- conv_stage1_block1_branch2c
I0609 02:19:48.092777  5331 net.cpp:367] bn_stage1_block1_branch2c -> conv_stage1_block1_branch2c (in-place)
I0609 02:19:48.092916  5331 net.cpp:122] Setting up bn_stage1_block1_branch2c
I0609 02:19:48.092921  5331 net.cpp:129] Top shape: 7 256 28 28 (1404928)
I0609 02:19:48.092923  5331 net.cpp:137] Memory required for data: 538087452
I0609 02:19:48.092928  5331 layer_factory.hpp:77] Creating layer scale_stage1_block1_branch2c
I0609 02:19:48.092932  5331 net.cpp:84] Creating Layer scale_stage1_block1_branch2c
I0609 02:19:48.092936  5331 net.cpp:406] scale_stage1_block1_branch2c <- conv_stage1_block1_branch2c
I0609 02:19:48.092941  5331 net.cpp:367] scale_stage1_block1_branch2c -> conv_stage1_block1_branch2c (in-place)
I0609 02:19:48.092967  5331 layer_factory.hpp:77] Creating layer scale_stage1_block1_branch2c
I0609 02:19:48.093046  5331 net.cpp:122] Setting up scale_stage1_block1_branch2c
I0609 02:19:48.093052  5331 net.cpp:129] Top shape: 7 256 28 28 (1404928)
I0609 02:19:48.093055  5331 net.cpp:137] Memory required for data: 543707164
I0609 02:19:48.093062  5331 layer_factory.hpp:77] Creating layer eltwise_stage1_block1
I0609 02:19:48.093066  5331 net.cpp:84] Creating Layer eltwise_stage1_block1
I0609 02:19:48.093070  5331 net.cpp:406] eltwise_stage1_block1 <- eltwise_stage1_block0_relu_stage1_block0_0_split_1
I0609 02:19:48.093073  5331 net.cpp:406] eltwise_stage1_block1 <- conv_stage1_block1_branch2c
I0609 02:19:48.093077  5331 net.cpp:380] eltwise_stage1_block1 -> eltwise_stage1_block1
I0609 02:19:48.093096  5331 net.cpp:122] Setting up eltwise_stage1_block1
I0609 02:19:48.093101  5331 net.cpp:129] Top shape: 7 256 28 28 (1404928)
I0609 02:19:48.093102  5331 net.cpp:137] Memory required for data: 549326876
I0609 02:19:48.093106  5331 layer_factory.hpp:77] Creating layer relu_stage1_block1
I0609 02:19:48.093111  5331 net.cpp:84] Creating Layer relu_stage1_block1
I0609 02:19:48.093113  5331 net.cpp:406] relu_stage1_block1 <- eltwise_stage1_block1
I0609 02:19:48.093116  5331 net.cpp:367] relu_stage1_block1 -> eltwise_stage1_block1 (in-place)
I0609 02:19:48.093122  5331 net.cpp:122] Setting up relu_stage1_block1
I0609 02:19:48.093124  5331 net.cpp:129] Top shape: 7 256 28 28 (1404928)
I0609 02:19:48.093127  5331 net.cpp:137] Memory required for data: 554946588
I0609 02:19:48.093128  5331 layer_factory.hpp:77] Creating layer eltwise_stage1_block1_relu_stage1_block1_0_split
I0609 02:19:48.093133  5331 net.cpp:84] Creating Layer eltwise_stage1_block1_relu_stage1_block1_0_split
I0609 02:19:48.093135  5331 net.cpp:406] eltwise_stage1_block1_relu_stage1_block1_0_split <- eltwise_stage1_block1
I0609 02:19:48.093142  5331 net.cpp:380] eltwise_stage1_block1_relu_stage1_block1_0_split -> eltwise_stage1_block1_relu_stage1_block1_0_split_0
I0609 02:19:48.093147  5331 net.cpp:380] eltwise_stage1_block1_relu_stage1_block1_0_split -> eltwise_stage1_block1_relu_stage1_block1_0_split_1
I0609 02:19:48.093173  5331 net.cpp:122] Setting up eltwise_stage1_block1_relu_stage1_block1_0_split
I0609 02:19:48.093176  5331 net.cpp:129] Top shape: 7 256 28 28 (1404928)
I0609 02:19:48.093179  5331 net.cpp:129] Top shape: 7 256 28 28 (1404928)
I0609 02:19:48.093181  5331 net.cpp:137] Memory required for data: 566186012
I0609 02:19:48.093184  5331 layer_factory.hpp:77] Creating layer conv_stage1_block2_branch2a
I0609 02:19:48.093191  5331 net.cpp:84] Creating Layer conv_stage1_block2_branch2a
I0609 02:19:48.093194  5331 net.cpp:406] conv_stage1_block2_branch2a <- eltwise_stage1_block1_relu_stage1_block1_0_split_0
I0609 02:19:48.093199  5331 net.cpp:380] conv_stage1_block2_branch2a -> conv_stage1_block2_branch2a
I0609 02:19:48.093447  5331 net.cpp:122] Setting up conv_stage1_block2_branch2a
I0609 02:19:48.093453  5331 net.cpp:129] Top shape: 7 64 28 28 (351232)
I0609 02:19:48.093456  5331 net.cpp:137] Memory required for data: 567590940
I0609 02:19:48.093459  5331 layer_factory.hpp:77] Creating layer bn_stage1_block2_branch2a
I0609 02:19:48.093466  5331 net.cpp:84] Creating Layer bn_stage1_block2_branch2a
I0609 02:19:48.093474  5331 net.cpp:406] bn_stage1_block2_branch2a <- conv_stage1_block2_branch2a
I0609 02:19:48.093479  5331 net.cpp:367] bn_stage1_block2_branch2a -> conv_stage1_block2_branch2a (in-place)
I0609 02:19:48.093624  5331 net.cpp:122] Setting up bn_stage1_block2_branch2a
I0609 02:19:48.093628  5331 net.cpp:129] Top shape: 7 64 28 28 (351232)
I0609 02:19:48.093631  5331 net.cpp:137] Memory required for data: 568995868
I0609 02:19:48.093649  5331 layer_factory.hpp:77] Creating layer scale_stage1_block2_branch2a
I0609 02:19:48.093657  5331 net.cpp:84] Creating Layer scale_stage1_block2_branch2a
I0609 02:19:48.093659  5331 net.cpp:406] scale_stage1_block2_branch2a <- conv_stage1_block2_branch2a
I0609 02:19:48.093663  5331 net.cpp:367] scale_stage1_block2_branch2a -> conv_stage1_block2_branch2a (in-place)
I0609 02:19:48.093694  5331 layer_factory.hpp:77] Creating layer scale_stage1_block2_branch2a
I0609 02:19:48.093777  5331 net.cpp:122] Setting up scale_stage1_block2_branch2a
I0609 02:19:48.093782  5331 net.cpp:129] Top shape: 7 64 28 28 (351232)
I0609 02:19:48.093785  5331 net.cpp:137] Memory required for data: 570400796
I0609 02:19:48.093789  5331 layer_factory.hpp:77] Creating layer relu_stage1_block2_branch2a
I0609 02:19:48.093793  5331 net.cpp:84] Creating Layer relu_stage1_block2_branch2a
I0609 02:19:48.093796  5331 net.cpp:406] relu_stage1_block2_branch2a <- conv_stage1_block2_branch2a
I0609 02:19:48.093801  5331 net.cpp:367] relu_stage1_block2_branch2a -> conv_stage1_block2_branch2a (in-place)
I0609 02:19:48.093806  5331 net.cpp:122] Setting up relu_stage1_block2_branch2a
I0609 02:19:48.093809  5331 net.cpp:129] Top shape: 7 64 28 28 (351232)
I0609 02:19:48.093811  5331 net.cpp:137] Memory required for data: 571805724
I0609 02:19:48.093813  5331 layer_factory.hpp:77] Creating layer conv_stage1_block2_branch2b
I0609 02:19:48.093822  5331 net.cpp:84] Creating Layer conv_stage1_block2_branch2b
I0609 02:19:48.093823  5331 net.cpp:406] conv_stage1_block2_branch2b <- conv_stage1_block2_branch2a
I0609 02:19:48.093828  5331 net.cpp:380] conv_stage1_block2_branch2b -> conv_stage1_block2_branch2b
I0609 02:19:48.094182  5331 net.cpp:122] Setting up conv_stage1_block2_branch2b
I0609 02:19:48.094187  5331 net.cpp:129] Top shape: 7 64 28 28 (351232)
I0609 02:19:48.094189  5331 net.cpp:137] Memory required for data: 573210652
I0609 02:19:48.094194  5331 layer_factory.hpp:77] Creating layer bn_stage1_block2_branch2b
I0609 02:19:48.094198  5331 net.cpp:84] Creating Layer bn_stage1_block2_branch2b
I0609 02:19:48.094202  5331 net.cpp:406] bn_stage1_block2_branch2b <- conv_stage1_block2_branch2b
I0609 02:19:48.094207  5331 net.cpp:367] bn_stage1_block2_branch2b -> conv_stage1_block2_branch2b (in-place)
I0609 02:19:48.094357  5331 net.cpp:122] Setting up bn_stage1_block2_branch2b
I0609 02:19:48.094363  5331 net.cpp:129] Top shape: 7 64 28 28 (351232)
I0609 02:19:48.094365  5331 net.cpp:137] Memory required for data: 574615580
I0609 02:19:48.094370  5331 layer_factory.hpp:77] Creating layer scale_stage1_block2_branch2b
I0609 02:19:48.094377  5331 net.cpp:84] Creating Layer scale_stage1_block2_branch2b
I0609 02:19:48.094378  5331 net.cpp:406] scale_stage1_block2_branch2b <- conv_stage1_block2_branch2b
I0609 02:19:48.094383  5331 net.cpp:367] scale_stage1_block2_branch2b -> conv_stage1_block2_branch2b (in-place)
I0609 02:19:48.094413  5331 layer_factory.hpp:77] Creating layer scale_stage1_block2_branch2b
I0609 02:19:48.094498  5331 net.cpp:122] Setting up scale_stage1_block2_branch2b
I0609 02:19:48.094503  5331 net.cpp:129] Top shape: 7 64 28 28 (351232)
I0609 02:19:48.094506  5331 net.cpp:137] Memory required for data: 576020508
I0609 02:19:48.094509  5331 layer_factory.hpp:77] Creating layer relu_stage1_block2_branch2b
I0609 02:19:48.094516  5331 net.cpp:84] Creating Layer relu_stage1_block2_branch2b
I0609 02:19:48.094521  5331 net.cpp:406] relu_stage1_block2_branch2b <- conv_stage1_block2_branch2b
I0609 02:19:48.094525  5331 net.cpp:367] relu_stage1_block2_branch2b -> conv_stage1_block2_branch2b (in-place)
I0609 02:19:48.094537  5331 net.cpp:122] Setting up relu_stage1_block2_branch2b
I0609 02:19:48.094542  5331 net.cpp:129] Top shape: 7 64 28 28 (351232)
I0609 02:19:48.094543  5331 net.cpp:137] Memory required for data: 577425436
I0609 02:19:48.094547  5331 layer_factory.hpp:77] Creating layer conv_stage1_block2_branch2c
I0609 02:19:48.094552  5331 net.cpp:84] Creating Layer conv_stage1_block2_branch2c
I0609 02:19:48.094555  5331 net.cpp:406] conv_stage1_block2_branch2c <- conv_stage1_block2_branch2b
I0609 02:19:48.094561  5331 net.cpp:380] conv_stage1_block2_branch2c -> conv_stage1_block2_branch2c
I0609 02:19:48.094816  5331 net.cpp:122] Setting up conv_stage1_block2_branch2c
I0609 02:19:48.094822  5331 net.cpp:129] Top shape: 7 256 28 28 (1404928)
I0609 02:19:48.094825  5331 net.cpp:137] Memory required for data: 583045148
I0609 02:19:48.094828  5331 layer_factory.hpp:77] Creating layer bn_stage1_block2_branch2c
I0609 02:19:48.094835  5331 net.cpp:84] Creating Layer bn_stage1_block2_branch2c
I0609 02:19:48.094837  5331 net.cpp:406] bn_stage1_block2_branch2c <- conv_stage1_block2_branch2c
I0609 02:19:48.094841  5331 net.cpp:367] bn_stage1_block2_branch2c -> conv_stage1_block2_branch2c (in-place)
I0609 02:19:48.094983  5331 net.cpp:122] Setting up bn_stage1_block2_branch2c
I0609 02:19:48.094988  5331 net.cpp:129] Top shape: 7 256 28 28 (1404928)
I0609 02:19:48.094990  5331 net.cpp:137] Memory required for data: 588664860
I0609 02:19:48.094997  5331 layer_factory.hpp:77] Creating layer scale_stage1_block2_branch2c
I0609 02:19:48.095002  5331 net.cpp:84] Creating Layer scale_stage1_block2_branch2c
I0609 02:19:48.095005  5331 net.cpp:406] scale_stage1_block2_branch2c <- conv_stage1_block2_branch2c
I0609 02:19:48.095010  5331 net.cpp:367] scale_stage1_block2_branch2c -> conv_stage1_block2_branch2c (in-place)
I0609 02:19:48.095037  5331 layer_factory.hpp:77] Creating layer scale_stage1_block2_branch2c
I0609 02:19:48.095121  5331 net.cpp:122] Setting up scale_stage1_block2_branch2c
I0609 02:19:48.095126  5331 net.cpp:129] Top shape: 7 256 28 28 (1404928)
I0609 02:19:48.095129  5331 net.cpp:137] Memory required for data: 594284572
I0609 02:19:48.095134  5331 layer_factory.hpp:77] Creating layer eltwise_stage1_block2
I0609 02:19:48.095139  5331 net.cpp:84] Creating Layer eltwise_stage1_block2
I0609 02:19:48.095144  5331 net.cpp:406] eltwise_stage1_block2 <- eltwise_stage1_block1_relu_stage1_block1_0_split_1
I0609 02:19:48.095147  5331 net.cpp:406] eltwise_stage1_block2 <- conv_stage1_block2_branch2c
I0609 02:19:48.095152  5331 net.cpp:380] eltwise_stage1_block2 -> eltwise_stage1_block2
I0609 02:19:48.095170  5331 net.cpp:122] Setting up eltwise_stage1_block2
I0609 02:19:48.095175  5331 net.cpp:129] Top shape: 7 256 28 28 (1404928)
I0609 02:19:48.095177  5331 net.cpp:137] Memory required for data: 599904284
I0609 02:19:48.095180  5331 layer_factory.hpp:77] Creating layer relu_stage1_block2
I0609 02:19:48.095187  5331 net.cpp:84] Creating Layer relu_stage1_block2
I0609 02:19:48.095190  5331 net.cpp:406] relu_stage1_block2 <- eltwise_stage1_block2
I0609 02:19:48.095193  5331 net.cpp:367] relu_stage1_block2 -> eltwise_stage1_block2 (in-place)
I0609 02:19:48.095197  5331 net.cpp:122] Setting up relu_stage1_block2
I0609 02:19:48.095201  5331 net.cpp:129] Top shape: 7 256 28 28 (1404928)
I0609 02:19:48.095203  5331 net.cpp:137] Memory required for data: 605523996
I0609 02:19:48.095206  5331 layer_factory.hpp:77] Creating layer eltwise_stage1_block2_relu_stage1_block2_0_split
I0609 02:19:48.095216  5331 net.cpp:84] Creating Layer eltwise_stage1_block2_relu_stage1_block2_0_split
I0609 02:19:48.095217  5331 net.cpp:406] eltwise_stage1_block2_relu_stage1_block2_0_split <- eltwise_stage1_block2
I0609 02:19:48.095221  5331 net.cpp:380] eltwise_stage1_block2_relu_stage1_block2_0_split -> eltwise_stage1_block2_relu_stage1_block2_0_split_0
I0609 02:19:48.095227  5331 net.cpp:380] eltwise_stage1_block2_relu_stage1_block2_0_split -> eltwise_stage1_block2_relu_stage1_block2_0_split_1
I0609 02:19:48.095252  5331 net.cpp:122] Setting up eltwise_stage1_block2_relu_stage1_block2_0_split
I0609 02:19:48.095263  5331 net.cpp:129] Top shape: 7 256 28 28 (1404928)
I0609 02:19:48.095268  5331 net.cpp:129] Top shape: 7 256 28 28 (1404928)
I0609 02:19:48.095270  5331 net.cpp:137] Memory required for data: 616763420
I0609 02:19:48.095273  5331 layer_factory.hpp:77] Creating layer conv_stage1_block3_branch2a
I0609 02:19:48.095281  5331 net.cpp:84] Creating Layer conv_stage1_block3_branch2a
I0609 02:19:48.095284  5331 net.cpp:406] conv_stage1_block3_branch2a <- eltwise_stage1_block2_relu_stage1_block2_0_split_0
I0609 02:19:48.095290  5331 net.cpp:380] conv_stage1_block3_branch2a -> conv_stage1_block3_branch2a
I0609 02:19:48.095564  5331 net.cpp:122] Setting up conv_stage1_block3_branch2a
I0609 02:19:48.095571  5331 net.cpp:129] Top shape: 7 64 28 28 (351232)
I0609 02:19:48.095573  5331 net.cpp:137] Memory required for data: 618168348
I0609 02:19:48.095577  5331 layer_factory.hpp:77] Creating layer bn_stage1_block3_branch2a
I0609 02:19:48.095584  5331 net.cpp:84] Creating Layer bn_stage1_block3_branch2a
I0609 02:19:48.095587  5331 net.cpp:406] bn_stage1_block3_branch2a <- conv_stage1_block3_branch2a
I0609 02:19:48.095592  5331 net.cpp:367] bn_stage1_block3_branch2a -> conv_stage1_block3_branch2a (in-place)
I0609 02:19:48.095733  5331 net.cpp:122] Setting up bn_stage1_block3_branch2a
I0609 02:19:48.095738  5331 net.cpp:129] Top shape: 7 64 28 28 (351232)
I0609 02:19:48.095741  5331 net.cpp:137] Memory required for data: 619573276
I0609 02:19:48.095746  5331 layer_factory.hpp:77] Creating layer scale_stage1_block3_branch2a
I0609 02:19:48.095752  5331 net.cpp:84] Creating Layer scale_stage1_block3_branch2a
I0609 02:19:48.095754  5331 net.cpp:406] scale_stage1_block3_branch2a <- conv_stage1_block3_branch2a
I0609 02:19:48.095758  5331 net.cpp:367] scale_stage1_block3_branch2a -> conv_stage1_block3_branch2a (in-place)
I0609 02:19:48.095788  5331 layer_factory.hpp:77] Creating layer scale_stage1_block3_branch2a
I0609 02:19:48.096256  5331 net.cpp:122] Setting up scale_stage1_block3_branch2a
I0609 02:19:48.096261  5331 net.cpp:129] Top shape: 7 64 28 28 (351232)
I0609 02:19:48.096264  5331 net.cpp:137] Memory required for data: 620978204
I0609 02:19:48.096269  5331 layer_factory.hpp:77] Creating layer relu_stage1_block3_branch2a
I0609 02:19:48.096274  5331 net.cpp:84] Creating Layer relu_stage1_block3_branch2a
I0609 02:19:48.096277  5331 net.cpp:406] relu_stage1_block3_branch2a <- conv_stage1_block3_branch2a
I0609 02:19:48.096282  5331 net.cpp:367] relu_stage1_block3_branch2a -> conv_stage1_block3_branch2a (in-place)
I0609 02:19:48.096287  5331 net.cpp:122] Setting up relu_stage1_block3_branch2a
I0609 02:19:48.096290  5331 net.cpp:129] Top shape: 7 64 28 28 (351232)
I0609 02:19:48.096292  5331 net.cpp:137] Memory required for data: 622383132
I0609 02:19:48.096294  5331 layer_factory.hpp:77] Creating layer conv_stage1_block3_branch2b
I0609 02:19:48.096302  5331 net.cpp:84] Creating Layer conv_stage1_block3_branch2b
I0609 02:19:48.096305  5331 net.cpp:406] conv_stage1_block3_branch2b <- conv_stage1_block3_branch2a
I0609 02:19:48.096309  5331 net.cpp:380] conv_stage1_block3_branch2b -> conv_stage1_block3_branch2b
I0609 02:19:48.096662  5331 net.cpp:122] Setting up conv_stage1_block3_branch2b
I0609 02:19:48.096666  5331 net.cpp:129] Top shape: 7 64 28 28 (351232)
I0609 02:19:48.096669  5331 net.cpp:137] Memory required for data: 623788060
I0609 02:19:48.096674  5331 layer_factory.hpp:77] Creating layer bn_stage1_block3_branch2b
I0609 02:19:48.096679  5331 net.cpp:84] Creating Layer bn_stage1_block3_branch2b
I0609 02:19:48.096683  5331 net.cpp:406] bn_stage1_block3_branch2b <- conv_stage1_block3_branch2b
I0609 02:19:48.096688  5331 net.cpp:367] bn_stage1_block3_branch2b -> conv_stage1_block3_branch2b (in-place)
I0609 02:19:48.096835  5331 net.cpp:122] Setting up bn_stage1_block3_branch2b
I0609 02:19:48.096840  5331 net.cpp:129] Top shape: 7 64 28 28 (351232)
I0609 02:19:48.096843  5331 net.cpp:137] Memory required for data: 625192988
I0609 02:19:48.096848  5331 layer_factory.hpp:77] Creating layer scale_stage1_block3_branch2b
I0609 02:19:48.096859  5331 net.cpp:84] Creating Layer scale_stage1_block3_branch2b
I0609 02:19:48.096861  5331 net.cpp:406] scale_stage1_block3_branch2b <- conv_stage1_block3_branch2b
I0609 02:19:48.096866  5331 net.cpp:367] scale_stage1_block3_branch2b -> conv_stage1_block3_branch2b (in-place)
I0609 02:19:48.096897  5331 layer_factory.hpp:77] Creating layer scale_stage1_block3_branch2b
I0609 02:19:48.096983  5331 net.cpp:122] Setting up scale_stage1_block3_branch2b
I0609 02:19:48.096988  5331 net.cpp:129] Top shape: 7 64 28 28 (351232)
I0609 02:19:48.096990  5331 net.cpp:137] Memory required for data: 626597916
I0609 02:19:48.096995  5331 layer_factory.hpp:77] Creating layer relu_stage1_block3_branch2b
I0609 02:19:48.096999  5331 net.cpp:84] Creating Layer relu_stage1_block3_branch2b
I0609 02:19:48.097002  5331 net.cpp:406] relu_stage1_block3_branch2b <- conv_stage1_block3_branch2b
I0609 02:19:48.097007  5331 net.cpp:367] relu_stage1_block3_branch2b -> conv_stage1_block3_branch2b (in-place)
I0609 02:19:48.097012  5331 net.cpp:122] Setting up relu_stage1_block3_branch2b
I0609 02:19:48.097014  5331 net.cpp:129] Top shape: 7 64 28 28 (351232)
I0609 02:19:48.097017  5331 net.cpp:137] Memory required for data: 628002844
I0609 02:19:48.097018  5331 layer_factory.hpp:77] Creating layer conv_stage1_block3_branch2c
I0609 02:19:48.097026  5331 net.cpp:84] Creating Layer conv_stage1_block3_branch2c
I0609 02:19:48.097028  5331 net.cpp:406] conv_stage1_block3_branch2c <- conv_stage1_block3_branch2b
I0609 02:19:48.097033  5331 net.cpp:380] conv_stage1_block3_branch2c -> conv_stage1_block3_branch2c
I0609 02:19:48.097290  5331 net.cpp:122] Setting up conv_stage1_block3_branch2c
I0609 02:19:48.097295  5331 net.cpp:129] Top shape: 7 256 28 28 (1404928)
I0609 02:19:48.097298  5331 net.cpp:137] Memory required for data: 633622556
I0609 02:19:48.097302  5331 layer_factory.hpp:77] Creating layer bn_stage1_block3_branch2c
I0609 02:19:48.097308  5331 net.cpp:84] Creating Layer bn_stage1_block3_branch2c
I0609 02:19:48.097311  5331 net.cpp:406] bn_stage1_block3_branch2c <- conv_stage1_block3_branch2c
I0609 02:19:48.097316  5331 net.cpp:367] bn_stage1_block3_branch2c -> conv_stage1_block3_branch2c (in-place)
I0609 02:19:48.097458  5331 net.cpp:122] Setting up bn_stage1_block3_branch2c
I0609 02:19:48.097465  5331 net.cpp:129] Top shape: 7 256 28 28 (1404928)
I0609 02:19:48.097467  5331 net.cpp:137] Memory required for data: 639242268
I0609 02:19:48.097472  5331 layer_factory.hpp:77] Creating layer scale_stage1_block3_branch2c
I0609 02:19:48.097476  5331 net.cpp:84] Creating Layer scale_stage1_block3_branch2c
I0609 02:19:48.097479  5331 net.cpp:406] scale_stage1_block3_branch2c <- conv_stage1_block3_branch2c
I0609 02:19:48.097483  5331 net.cpp:367] scale_stage1_block3_branch2c -> conv_stage1_block3_branch2c (in-place)
I0609 02:19:48.097513  5331 layer_factory.hpp:77] Creating layer scale_stage1_block3_branch2c
I0609 02:19:48.097592  5331 net.cpp:122] Setting up scale_stage1_block3_branch2c
I0609 02:19:48.097596  5331 net.cpp:129] Top shape: 7 256 28 28 (1404928)
I0609 02:19:48.097599  5331 net.cpp:137] Memory required for data: 644861980
I0609 02:19:48.097604  5331 layer_factory.hpp:77] Creating layer eltwise_stage1_block3
I0609 02:19:48.097609  5331 net.cpp:84] Creating Layer eltwise_stage1_block3
I0609 02:19:48.097611  5331 net.cpp:406] eltwise_stage1_block3 <- eltwise_stage1_block2_relu_stage1_block2_0_split_1
I0609 02:19:48.097615  5331 net.cpp:406] eltwise_stage1_block3 <- conv_stage1_block3_branch2c
I0609 02:19:48.097620  5331 net.cpp:380] eltwise_stage1_block3 -> eltwise_stage1_block3
I0609 02:19:48.097636  5331 net.cpp:122] Setting up eltwise_stage1_block3
I0609 02:19:48.097640  5331 net.cpp:129] Top shape: 7 256 28 28 (1404928)
I0609 02:19:48.097642  5331 net.cpp:137] Memory required for data: 650481692
I0609 02:19:48.097645  5331 layer_factory.hpp:77] Creating layer relu_stage1_block3
I0609 02:19:48.097648  5331 net.cpp:84] Creating Layer relu_stage1_block3
I0609 02:19:48.097651  5331 net.cpp:406] relu_stage1_block3 <- eltwise_stage1_block3
I0609 02:19:48.097662  5331 net.cpp:367] relu_stage1_block3 -> eltwise_stage1_block3 (in-place)
I0609 02:19:48.097667  5331 net.cpp:122] Setting up relu_stage1_block3
I0609 02:19:48.097671  5331 net.cpp:129] Top shape: 7 256 28 28 (1404928)
I0609 02:19:48.097673  5331 net.cpp:137] Memory required for data: 656101404
I0609 02:19:48.097676  5331 layer_factory.hpp:77] Creating layer eltwise_stage1_block3_relu_stage1_block3_0_split
I0609 02:19:48.097679  5331 net.cpp:84] Creating Layer eltwise_stage1_block3_relu_stage1_block3_0_split
I0609 02:19:48.097682  5331 net.cpp:406] eltwise_stage1_block3_relu_stage1_block3_0_split <- eltwise_stage1_block3
I0609 02:19:48.097688  5331 net.cpp:380] eltwise_stage1_block3_relu_stage1_block3_0_split -> eltwise_stage1_block3_relu_stage1_block3_0_split_0
I0609 02:19:48.097693  5331 net.cpp:380] eltwise_stage1_block3_relu_stage1_block3_0_split -> eltwise_stage1_block3_relu_stage1_block3_0_split_1
I0609 02:19:48.097719  5331 net.cpp:122] Setting up eltwise_stage1_block3_relu_stage1_block3_0_split
I0609 02:19:48.097723  5331 net.cpp:129] Top shape: 7 256 28 28 (1404928)
I0609 02:19:48.097728  5331 net.cpp:129] Top shape: 7 256 28 28 (1404928)
I0609 02:19:48.097729  5331 net.cpp:137] Memory required for data: 667340828
I0609 02:19:48.097731  5331 layer_factory.hpp:77] Creating layer conv_stage2_block0_proj_shortcut
I0609 02:19:48.097739  5331 net.cpp:84] Creating Layer conv_stage2_block0_proj_shortcut
I0609 02:19:48.097743  5331 net.cpp:406] conv_stage2_block0_proj_shortcut <- eltwise_stage1_block3_relu_stage1_block3_0_split_0
I0609 02:19:48.097748  5331 net.cpp:380] conv_stage2_block0_proj_shortcut -> conv_stage2_block0_proj_shortcut
I0609 02:19:48.099107  5331 net.cpp:122] Setting up conv_stage2_block0_proj_shortcut
I0609 02:19:48.099117  5331 net.cpp:129] Top shape: 7 512 14 14 (702464)
I0609 02:19:48.099120  5331 net.cpp:137] Memory required for data: 670150684
I0609 02:19:48.099125  5331 layer_factory.hpp:77] Creating layer bn_stage2_block0_proj_shortcut
I0609 02:19:48.099133  5331 net.cpp:84] Creating Layer bn_stage2_block0_proj_shortcut
I0609 02:19:48.099138  5331 net.cpp:406] bn_stage2_block0_proj_shortcut <- conv_stage2_block0_proj_shortcut
I0609 02:19:48.099143  5331 net.cpp:367] bn_stage2_block0_proj_shortcut -> conv_stage2_block0_proj_shortcut (in-place)
I0609 02:19:48.099287  5331 net.cpp:122] Setting up bn_stage2_block0_proj_shortcut
I0609 02:19:48.099292  5331 net.cpp:129] Top shape: 7 512 14 14 (702464)
I0609 02:19:48.099293  5331 net.cpp:137] Memory required for data: 672960540
I0609 02:19:48.099299  5331 layer_factory.hpp:77] Creating layer scale_stage2_block0_proj_shortcut
I0609 02:19:48.099305  5331 net.cpp:84] Creating Layer scale_stage2_block0_proj_shortcut
I0609 02:19:48.099308  5331 net.cpp:406] scale_stage2_block0_proj_shortcut <- conv_stage2_block0_proj_shortcut
I0609 02:19:48.099313  5331 net.cpp:367] scale_stage2_block0_proj_shortcut -> conv_stage2_block0_proj_shortcut (in-place)
I0609 02:19:48.099341  5331 layer_factory.hpp:77] Creating layer scale_stage2_block0_proj_shortcut
I0609 02:19:48.099427  5331 net.cpp:122] Setting up scale_stage2_block0_proj_shortcut
I0609 02:19:48.099433  5331 net.cpp:129] Top shape: 7 512 14 14 (702464)
I0609 02:19:48.099436  5331 net.cpp:137] Memory required for data: 675770396
I0609 02:19:48.099440  5331 layer_factory.hpp:77] Creating layer conv_stage2_block0_branch2a
I0609 02:19:48.099449  5331 net.cpp:84] Creating Layer conv_stage2_block0_branch2a
I0609 02:19:48.099452  5331 net.cpp:406] conv_stage2_block0_branch2a <- eltwise_stage1_block3_relu_stage1_block3_0_split_1
I0609 02:19:48.099457  5331 net.cpp:380] conv_stage2_block0_branch2a -> conv_stage2_block0_branch2a
I0609 02:19:48.099786  5331 net.cpp:122] Setting up conv_stage2_block0_branch2a
I0609 02:19:48.099794  5331 net.cpp:129] Top shape: 7 128 14 14 (175616)
I0609 02:19:48.099798  5331 net.cpp:137] Memory required for data: 676472860
I0609 02:19:48.099803  5331 layer_factory.hpp:77] Creating layer bn_stage2_block0_branch2a
I0609 02:19:48.099819  5331 net.cpp:84] Creating Layer bn_stage2_block0_branch2a
I0609 02:19:48.099823  5331 net.cpp:406] bn_stage2_block0_branch2a <- conv_stage2_block0_branch2a
I0609 02:19:48.099829  5331 net.cpp:367] bn_stage2_block0_branch2a -> conv_stage2_block0_branch2a (in-place)
I0609 02:19:48.099969  5331 net.cpp:122] Setting up bn_stage2_block0_branch2a
I0609 02:19:48.099974  5331 net.cpp:129] Top shape: 7 128 14 14 (175616)
I0609 02:19:48.099977  5331 net.cpp:137] Memory required for data: 677175324
I0609 02:19:48.099982  5331 layer_factory.hpp:77] Creating layer scale_stage2_block0_branch2a
I0609 02:19:48.099987  5331 net.cpp:84] Creating Layer scale_stage2_block0_branch2a
I0609 02:19:48.099989  5331 net.cpp:406] scale_stage2_block0_branch2a <- conv_stage2_block0_branch2a
I0609 02:19:48.099993  5331 net.cpp:367] scale_stage2_block0_branch2a -> conv_stage2_block0_branch2a (in-place)
I0609 02:19:48.100021  5331 layer_factory.hpp:77] Creating layer scale_stage2_block0_branch2a
I0609 02:19:48.100101  5331 net.cpp:122] Setting up scale_stage2_block0_branch2a
I0609 02:19:48.100106  5331 net.cpp:129] Top shape: 7 128 14 14 (175616)
I0609 02:19:48.100108  5331 net.cpp:137] Memory required for data: 677877788
I0609 02:19:48.100112  5331 layer_factory.hpp:77] Creating layer relu_stage2_block0_branch2a
I0609 02:19:48.100117  5331 net.cpp:84] Creating Layer relu_stage2_block0_branch2a
I0609 02:19:48.100121  5331 net.cpp:406] relu_stage2_block0_branch2a <- conv_stage2_block0_branch2a
I0609 02:19:48.100126  5331 net.cpp:367] relu_stage2_block0_branch2a -> conv_stage2_block0_branch2a (in-place)
I0609 02:19:48.100129  5331 net.cpp:122] Setting up relu_stage2_block0_branch2a
I0609 02:19:48.100133  5331 net.cpp:129] Top shape: 7 128 14 14 (175616)
I0609 02:19:48.100136  5331 net.cpp:137] Memory required for data: 678580252
I0609 02:19:48.100137  5331 layer_factory.hpp:77] Creating layer conv_stage2_block0_branch2b
I0609 02:19:48.100145  5331 net.cpp:84] Creating Layer conv_stage2_block0_branch2b
I0609 02:19:48.100148  5331 net.cpp:406] conv_stage2_block0_branch2b <- conv_stage2_block0_branch2a
I0609 02:19:48.100153  5331 net.cpp:380] conv_stage2_block0_branch2b -> conv_stage2_block0_branch2b
I0609 02:19:48.101495  5331 net.cpp:122] Setting up conv_stage2_block0_branch2b
I0609 02:19:48.101507  5331 net.cpp:129] Top shape: 7 128 14 14 (175616)
I0609 02:19:48.101511  5331 net.cpp:137] Memory required for data: 679282716
I0609 02:19:48.101516  5331 layer_factory.hpp:77] Creating layer bn_stage2_block0_branch2b
I0609 02:19:48.101521  5331 net.cpp:84] Creating Layer bn_stage2_block0_branch2b
I0609 02:19:48.101524  5331 net.cpp:406] bn_stage2_block0_branch2b <- conv_stage2_block0_branch2b
I0609 02:19:48.101531  5331 net.cpp:367] bn_stage2_block0_branch2b -> conv_stage2_block0_branch2b (in-place)
I0609 02:19:48.101680  5331 net.cpp:122] Setting up bn_stage2_block0_branch2b
I0609 02:19:48.101685  5331 net.cpp:129] Top shape: 7 128 14 14 (175616)
I0609 02:19:48.101686  5331 net.cpp:137] Memory required for data: 679985180
I0609 02:19:48.101692  5331 layer_factory.hpp:77] Creating layer scale_stage2_block0_branch2b
I0609 02:19:48.101697  5331 net.cpp:84] Creating Layer scale_stage2_block0_branch2b
I0609 02:19:48.101701  5331 net.cpp:406] scale_stage2_block0_branch2b <- conv_stage2_block0_branch2b
I0609 02:19:48.101706  5331 net.cpp:367] scale_stage2_block0_branch2b -> conv_stage2_block0_branch2b (in-place)
I0609 02:19:48.101735  5331 layer_factory.hpp:77] Creating layer scale_stage2_block0_branch2b
I0609 02:19:48.101815  5331 net.cpp:122] Setting up scale_stage2_block0_branch2b
I0609 02:19:48.101820  5331 net.cpp:129] Top shape: 7 128 14 14 (175616)
I0609 02:19:48.101824  5331 net.cpp:137] Memory required for data: 680687644
I0609 02:19:48.101827  5331 layer_factory.hpp:77] Creating layer relu_stage2_block0_branch2b
I0609 02:19:48.101832  5331 net.cpp:84] Creating Layer relu_stage2_block0_branch2b
I0609 02:19:48.101835  5331 net.cpp:406] relu_stage2_block0_branch2b <- conv_stage2_block0_branch2b
I0609 02:19:48.101838  5331 net.cpp:367] relu_stage2_block0_branch2b -> conv_stage2_block0_branch2b (in-place)
I0609 02:19:48.101853  5331 net.cpp:122] Setting up relu_stage2_block0_branch2b
I0609 02:19:48.101856  5331 net.cpp:129] Top shape: 7 128 14 14 (175616)
I0609 02:19:48.101860  5331 net.cpp:137] Memory required for data: 681390108
I0609 02:19:48.101861  5331 layer_factory.hpp:77] Creating layer conv_stage2_block0_branch2c
I0609 02:19:48.101871  5331 net.cpp:84] Creating Layer conv_stage2_block0_branch2c
I0609 02:19:48.101872  5331 net.cpp:406] conv_stage2_block0_branch2c <- conv_stage2_block0_branch2b
I0609 02:19:48.101878  5331 net.cpp:380] conv_stage2_block0_branch2c -> conv_stage2_block0_branch2c
I0609 02:19:48.102847  5331 net.cpp:122] Setting up conv_stage2_block0_branch2c
I0609 02:19:48.102857  5331 net.cpp:129] Top shape: 7 512 14 14 (702464)
I0609 02:19:48.102860  5331 net.cpp:137] Memory required for data: 684199964
I0609 02:19:48.102865  5331 layer_factory.hpp:77] Creating layer bn_stage2_block0_branch2c
I0609 02:19:48.102872  5331 net.cpp:84] Creating Layer bn_stage2_block0_branch2c
I0609 02:19:48.102875  5331 net.cpp:406] bn_stage2_block0_branch2c <- conv_stage2_block0_branch2c
I0609 02:19:48.102880  5331 net.cpp:367] bn_stage2_block0_branch2c -> conv_stage2_block0_branch2c (in-place)
I0609 02:19:48.103025  5331 net.cpp:122] Setting up bn_stage2_block0_branch2c
I0609 02:19:48.103031  5331 net.cpp:129] Top shape: 7 512 14 14 (702464)
I0609 02:19:48.103034  5331 net.cpp:137] Memory required for data: 687009820
I0609 02:19:48.103039  5331 layer_factory.hpp:77] Creating layer scale_stage2_block0_branch2c
I0609 02:19:48.103044  5331 net.cpp:84] Creating Layer scale_stage2_block0_branch2c
I0609 02:19:48.103046  5331 net.cpp:406] scale_stage2_block0_branch2c <- conv_stage2_block0_branch2c
I0609 02:19:48.103051  5331 net.cpp:367] scale_stage2_block0_branch2c -> conv_stage2_block0_branch2c (in-place)
I0609 02:19:48.103085  5331 layer_factory.hpp:77] Creating layer scale_stage2_block0_branch2c
I0609 02:19:48.103219  5331 net.cpp:122] Setting up scale_stage2_block0_branch2c
I0609 02:19:48.103225  5331 net.cpp:129] Top shape: 7 512 14 14 (702464)
I0609 02:19:48.103227  5331 net.cpp:137] Memory required for data: 689819676
I0609 02:19:48.103235  5331 layer_factory.hpp:77] Creating layer eltwise_stage2_block0
I0609 02:19:48.103245  5331 net.cpp:84] Creating Layer eltwise_stage2_block0
I0609 02:19:48.103248  5331 net.cpp:406] eltwise_stage2_block0 <- conv_stage2_block0_proj_shortcut
I0609 02:19:48.103255  5331 net.cpp:406] eltwise_stage2_block0 <- conv_stage2_block0_branch2c
I0609 02:19:48.103266  5331 net.cpp:380] eltwise_stage2_block0 -> eltwise_stage2_block0
I0609 02:19:48.103289  5331 net.cpp:122] Setting up eltwise_stage2_block0
I0609 02:19:48.103296  5331 net.cpp:129] Top shape: 7 512 14 14 (702464)
I0609 02:19:48.103299  5331 net.cpp:137] Memory required for data: 692629532
I0609 02:19:48.103302  5331 layer_factory.hpp:77] Creating layer relu_stage2_block0
I0609 02:19:48.103309  5331 net.cpp:84] Creating Layer relu_stage2_block0
I0609 02:19:48.103313  5331 net.cpp:406] relu_stage2_block0 <- eltwise_stage2_block0
I0609 02:19:48.103317  5331 net.cpp:367] relu_stage2_block0 -> eltwise_stage2_block0 (in-place)
I0609 02:19:48.103322  5331 net.cpp:122] Setting up relu_stage2_block0
I0609 02:19:48.103325  5331 net.cpp:129] Top shape: 7 512 14 14 (702464)
I0609 02:19:48.103327  5331 net.cpp:137] Memory required for data: 695439388
I0609 02:19:48.103330  5331 layer_factory.hpp:77] Creating layer eltwise_stage2_block0_relu_stage2_block0_0_split
I0609 02:19:48.103339  5331 net.cpp:84] Creating Layer eltwise_stage2_block0_relu_stage2_block0_0_split
I0609 02:19:48.103343  5331 net.cpp:406] eltwise_stage2_block0_relu_stage2_block0_0_split <- eltwise_stage2_block0
I0609 02:19:48.103348  5331 net.cpp:380] eltwise_stage2_block0_relu_stage2_block0_0_split -> eltwise_stage2_block0_relu_stage2_block0_0_split_0
I0609 02:19:48.103353  5331 net.cpp:380] eltwise_stage2_block0_relu_stage2_block0_0_split -> eltwise_stage2_block0_relu_stage2_block0_0_split_1
I0609 02:19:48.103406  5331 net.cpp:122] Setting up eltwise_stage2_block0_relu_stage2_block0_0_split
I0609 02:19:48.103411  5331 net.cpp:129] Top shape: 7 512 14 14 (702464)
I0609 02:19:48.103415  5331 net.cpp:129] Top shape: 7 512 14 14 (702464)
I0609 02:19:48.103417  5331 net.cpp:137] Memory required for data: 701059100
I0609 02:19:48.103420  5331 layer_factory.hpp:77] Creating layer conv_stage2_block1_branch2a
I0609 02:19:48.103519  5331 net.cpp:84] Creating Layer conv_stage2_block1_branch2a
I0609 02:19:48.103523  5331 net.cpp:406] conv_stage2_block1_branch2a <- eltwise_stage2_block0_relu_stage2_block0_0_split_0
I0609 02:19:48.103530  5331 net.cpp:380] conv_stage2_block1_branch2a -> conv_stage2_block1_branch2a
I0609 02:19:48.104040  5331 net.cpp:122] Setting up conv_stage2_block1_branch2a
I0609 02:19:48.104046  5331 net.cpp:129] Top shape: 7 128 14 14 (175616)
I0609 02:19:48.104049  5331 net.cpp:137] Memory required for data: 701761564
I0609 02:19:48.104054  5331 layer_factory.hpp:77] Creating layer bn_stage2_block1_branch2a
I0609 02:19:48.104059  5331 net.cpp:84] Creating Layer bn_stage2_block1_branch2a
I0609 02:19:48.104063  5331 net.cpp:406] bn_stage2_block1_branch2a <- conv_stage2_block1_branch2a
I0609 02:19:48.104069  5331 net.cpp:367] bn_stage2_block1_branch2a -> conv_stage2_block1_branch2a (in-place)
I0609 02:19:48.104540  5331 net.cpp:122] Setting up bn_stage2_block1_branch2a
I0609 02:19:48.104547  5331 net.cpp:129] Top shape: 7 128 14 14 (175616)
I0609 02:19:48.104549  5331 net.cpp:137] Memory required for data: 702464028
I0609 02:19:48.104554  5331 layer_factory.hpp:77] Creating layer scale_stage2_block1_branch2a
I0609 02:19:48.104559  5331 net.cpp:84] Creating Layer scale_stage2_block1_branch2a
I0609 02:19:48.104562  5331 net.cpp:406] scale_stage2_block1_branch2a <- conv_stage2_block1_branch2a
I0609 02:19:48.104566  5331 net.cpp:367] scale_stage2_block1_branch2a -> conv_stage2_block1_branch2a (in-place)
I0609 02:19:48.104596  5331 layer_factory.hpp:77] Creating layer scale_stage2_block1_branch2a
I0609 02:19:48.104686  5331 net.cpp:122] Setting up scale_stage2_block1_branch2a
I0609 02:19:48.104691  5331 net.cpp:129] Top shape: 7 128 14 14 (175616)
I0609 02:19:48.104692  5331 net.cpp:137] Memory required for data: 703166492
I0609 02:19:48.104696  5331 layer_factory.hpp:77] Creating layer relu_stage2_block1_branch2a
I0609 02:19:48.104701  5331 net.cpp:84] Creating Layer relu_stage2_block1_branch2a
I0609 02:19:48.104704  5331 net.cpp:406] relu_stage2_block1_branch2a <- conv_stage2_block1_branch2a
I0609 02:19:48.104709  5331 net.cpp:367] relu_stage2_block1_branch2a -> conv_stage2_block1_branch2a (in-place)
I0609 02:19:48.104713  5331 net.cpp:122] Setting up relu_stage2_block1_branch2a
I0609 02:19:48.104717  5331 net.cpp:129] Top shape: 7 128 14 14 (175616)
I0609 02:19:48.104719  5331 net.cpp:137] Memory required for data: 703868956
I0609 02:19:48.104722  5331 layer_factory.hpp:77] Creating layer conv_stage2_block1_branch2b
I0609 02:19:48.104730  5331 net.cpp:84] Creating Layer conv_stage2_block1_branch2b
I0609 02:19:48.104732  5331 net.cpp:406] conv_stage2_block1_branch2b <- conv_stage2_block1_branch2a
I0609 02:19:48.104738  5331 net.cpp:380] conv_stage2_block1_branch2b -> conv_stage2_block1_branch2b
I0609 02:19:48.106050  5331 net.cpp:122] Setting up conv_stage2_block1_branch2b
I0609 02:19:48.106060  5331 net.cpp:129] Top shape: 7 128 14 14 (175616)
I0609 02:19:48.106063  5331 net.cpp:137] Memory required for data: 704571420
I0609 02:19:48.106068  5331 layer_factory.hpp:77] Creating layer bn_stage2_block1_branch2b
I0609 02:19:48.106073  5331 net.cpp:84] Creating Layer bn_stage2_block1_branch2b
I0609 02:19:48.106076  5331 net.cpp:406] bn_stage2_block1_branch2b <- conv_stage2_block1_branch2b
I0609 02:19:48.106082  5331 net.cpp:367] bn_stage2_block1_branch2b -> conv_stage2_block1_branch2b (in-place)
I0609 02:19:48.106225  5331 net.cpp:122] Setting up bn_stage2_block1_branch2b
I0609 02:19:48.106230  5331 net.cpp:129] Top shape: 7 128 14 14 (175616)
I0609 02:19:48.106232  5331 net.cpp:137] Memory required for data: 705273884
I0609 02:19:48.106246  5331 layer_factory.hpp:77] Creating layer scale_stage2_block1_branch2b
I0609 02:19:48.106259  5331 net.cpp:84] Creating Layer scale_stage2_block1_branch2b
I0609 02:19:48.106263  5331 net.cpp:406] scale_stage2_block1_branch2b <- conv_stage2_block1_branch2b
I0609 02:19:48.106267  5331 net.cpp:367] scale_stage2_block1_branch2b -> conv_stage2_block1_branch2b (in-place)
I0609 02:19:48.106302  5331 layer_factory.hpp:77] Creating layer scale_stage2_block1_branch2b
I0609 02:19:48.106389  5331 net.cpp:122] Setting up scale_stage2_block1_branch2b
I0609 02:19:48.106395  5331 net.cpp:129] Top shape: 7 128 14 14 (175616)
I0609 02:19:48.106397  5331 net.cpp:137] Memory required for data: 705976348
I0609 02:19:48.106402  5331 layer_factory.hpp:77] Creating layer relu_stage2_block1_branch2b
I0609 02:19:48.106408  5331 net.cpp:84] Creating Layer relu_stage2_block1_branch2b
I0609 02:19:48.106411  5331 net.cpp:406] relu_stage2_block1_branch2b <- conv_stage2_block1_branch2b
I0609 02:19:48.106415  5331 net.cpp:367] relu_stage2_block1_branch2b -> conv_stage2_block1_branch2b (in-place)
I0609 02:19:48.106420  5331 net.cpp:122] Setting up relu_stage2_block1_branch2b
I0609 02:19:48.106422  5331 net.cpp:129] Top shape: 7 128 14 14 (175616)
I0609 02:19:48.106426  5331 net.cpp:137] Memory required for data: 706678812
I0609 02:19:48.106427  5331 layer_factory.hpp:77] Creating layer conv_stage2_block1_branch2c
I0609 02:19:48.106436  5331 net.cpp:84] Creating Layer conv_stage2_block1_branch2c
I0609 02:19:48.106438  5331 net.cpp:406] conv_stage2_block1_branch2c <- conv_stage2_block1_branch2b
I0609 02:19:48.106444  5331 net.cpp:380] conv_stage2_block1_branch2c -> conv_stage2_block1_branch2c
I0609 02:19:48.106945  5331 net.cpp:122] Setting up conv_stage2_block1_branch2c
I0609 02:19:48.106951  5331 net.cpp:129] Top shape: 7 512 14 14 (702464)
I0609 02:19:48.106953  5331 net.cpp:137] Memory required for data: 709488668
I0609 02:19:48.106958  5331 layer_factory.hpp:77] Creating layer bn_stage2_block1_branch2c
I0609 02:19:48.106964  5331 net.cpp:84] Creating Layer bn_stage2_block1_branch2c
I0609 02:19:48.106967  5331 net.cpp:406] bn_stage2_block1_branch2c <- conv_stage2_block1_branch2c
I0609 02:19:48.106971  5331 net.cpp:367] bn_stage2_block1_branch2c -> conv_stage2_block1_branch2c (in-place)
I0609 02:19:48.107110  5331 net.cpp:122] Setting up bn_stage2_block1_branch2c
I0609 02:19:48.107115  5331 net.cpp:129] Top shape: 7 512 14 14 (702464)
I0609 02:19:48.107118  5331 net.cpp:137] Memory required for data: 712298524
I0609 02:19:48.107123  5331 layer_factory.hpp:77] Creating layer scale_stage2_block1_branch2c
I0609 02:19:48.107128  5331 net.cpp:84] Creating Layer scale_stage2_block1_branch2c
I0609 02:19:48.107131  5331 net.cpp:406] scale_stage2_block1_branch2c <- conv_stage2_block1_branch2c
I0609 02:19:48.107136  5331 net.cpp:367] scale_stage2_block1_branch2c -> conv_stage2_block1_branch2c (in-place)
I0609 02:19:48.107167  5331 layer_factory.hpp:77] Creating layer scale_stage2_block1_branch2c
I0609 02:19:48.107251  5331 net.cpp:122] Setting up scale_stage2_block1_branch2c
I0609 02:19:48.107256  5331 net.cpp:129] Top shape: 7 512 14 14 (702464)
I0609 02:19:48.107259  5331 net.cpp:137] Memory required for data: 715108380
I0609 02:19:48.107262  5331 layer_factory.hpp:77] Creating layer eltwise_stage2_block1
I0609 02:19:48.107269  5331 net.cpp:84] Creating Layer eltwise_stage2_block1
I0609 02:19:48.107271  5331 net.cpp:406] eltwise_stage2_block1 <- eltwise_stage2_block0_relu_stage2_block0_0_split_1
I0609 02:19:48.107275  5331 net.cpp:406] eltwise_stage2_block1 <- conv_stage2_block1_branch2c
I0609 02:19:48.107280  5331 net.cpp:380] eltwise_stage2_block1 -> eltwise_stage2_block1
I0609 02:19:48.107297  5331 net.cpp:122] Setting up eltwise_stage2_block1
I0609 02:19:48.107301  5331 net.cpp:129] Top shape: 7 512 14 14 (702464)
I0609 02:19:48.107305  5331 net.cpp:137] Memory required for data: 717918236
I0609 02:19:48.107306  5331 layer_factory.hpp:77] Creating layer relu_stage2_block1
I0609 02:19:48.107311  5331 net.cpp:84] Creating Layer relu_stage2_block1
I0609 02:19:48.107322  5331 net.cpp:406] relu_stage2_block1 <- eltwise_stage2_block1
I0609 02:19:48.107326  5331 net.cpp:367] relu_stage2_block1 -> eltwise_stage2_block1 (in-place)
I0609 02:19:48.107331  5331 net.cpp:122] Setting up relu_stage2_block1
I0609 02:19:48.107336  5331 net.cpp:129] Top shape: 7 512 14 14 (702464)
I0609 02:19:48.107337  5331 net.cpp:137] Memory required for data: 720728092
I0609 02:19:48.107339  5331 layer_factory.hpp:77] Creating layer eltwise_stage2_block1_relu_stage2_block1_0_split
I0609 02:19:48.107344  5331 net.cpp:84] Creating Layer eltwise_stage2_block1_relu_stage2_block1_0_split
I0609 02:19:48.107347  5331 net.cpp:406] eltwise_stage2_block1_relu_stage2_block1_0_split <- eltwise_stage2_block1
I0609 02:19:48.107350  5331 net.cpp:380] eltwise_stage2_block1_relu_stage2_block1_0_split -> eltwise_stage2_block1_relu_stage2_block1_0_split_0
I0609 02:19:48.107357  5331 net.cpp:380] eltwise_stage2_block1_relu_stage2_block1_0_split -> eltwise_stage2_block1_relu_stage2_block1_0_split_1
I0609 02:19:48.107383  5331 net.cpp:122] Setting up eltwise_stage2_block1_relu_stage2_block1_0_split
I0609 02:19:48.107388  5331 net.cpp:129] Top shape: 7 512 14 14 (702464)
I0609 02:19:48.107391  5331 net.cpp:129] Top shape: 7 512 14 14 (702464)
I0609 02:19:48.107393  5331 net.cpp:137] Memory required for data: 726347804
I0609 02:19:48.107395  5331 layer_factory.hpp:77] Creating layer conv_stage2_block2_branch2a
I0609 02:19:48.107403  5331 net.cpp:84] Creating Layer conv_stage2_block2_branch2a
I0609 02:19:48.107406  5331 net.cpp:406] conv_stage2_block2_branch2a <- eltwise_stage2_block1_relu_stage2_block1_0_split_0
I0609 02:19:48.107411  5331 net.cpp:380] conv_stage2_block2_branch2a -> conv_stage2_block2_branch2a
I0609 02:19:48.107892  5331 net.cpp:122] Setting up conv_stage2_block2_branch2a
I0609 02:19:48.107898  5331 net.cpp:129] Top shape: 7 128 14 14 (175616)
I0609 02:19:48.107900  5331 net.cpp:137] Memory required for data: 727050268
I0609 02:19:48.107905  5331 layer_factory.hpp:77] Creating layer bn_stage2_block2_branch2a
I0609 02:19:48.107911  5331 net.cpp:84] Creating Layer bn_stage2_block2_branch2a
I0609 02:19:48.107914  5331 net.cpp:406] bn_stage2_block2_branch2a <- conv_stage2_block2_branch2a
I0609 02:19:48.107920  5331 net.cpp:367] bn_stage2_block2_branch2a -> conv_stage2_block2_branch2a (in-place)
I0609 02:19:48.108059  5331 net.cpp:122] Setting up bn_stage2_block2_branch2a
I0609 02:19:48.108063  5331 net.cpp:129] Top shape: 7 128 14 14 (175616)
I0609 02:19:48.108067  5331 net.cpp:137] Memory required for data: 727752732
I0609 02:19:48.108072  5331 layer_factory.hpp:77] Creating layer scale_stage2_block2_branch2a
I0609 02:19:48.108078  5331 net.cpp:84] Creating Layer scale_stage2_block2_branch2a
I0609 02:19:48.108079  5331 net.cpp:406] scale_stage2_block2_branch2a <- conv_stage2_block2_branch2a
I0609 02:19:48.108083  5331 net.cpp:367] scale_stage2_block2_branch2a -> conv_stage2_block2_branch2a (in-place)
I0609 02:19:48.108112  5331 layer_factory.hpp:77] Creating layer scale_stage2_block2_branch2a
I0609 02:19:48.108191  5331 net.cpp:122] Setting up scale_stage2_block2_branch2a
I0609 02:19:48.108196  5331 net.cpp:129] Top shape: 7 128 14 14 (175616)
I0609 02:19:48.108198  5331 net.cpp:137] Memory required for data: 728455196
I0609 02:19:48.108202  5331 layer_factory.hpp:77] Creating layer relu_stage2_block2_branch2a
I0609 02:19:48.108207  5331 net.cpp:84] Creating Layer relu_stage2_block2_branch2a
I0609 02:19:48.108209  5331 net.cpp:406] relu_stage2_block2_branch2a <- conv_stage2_block2_branch2a
I0609 02:19:48.108213  5331 net.cpp:367] relu_stage2_block2_branch2a -> conv_stage2_block2_branch2a (in-place)
I0609 02:19:48.108217  5331 net.cpp:122] Setting up relu_stage2_block2_branch2a
I0609 02:19:48.108222  5331 net.cpp:129] Top shape: 7 128 14 14 (175616)
I0609 02:19:48.108223  5331 net.cpp:137] Memory required for data: 729157660
I0609 02:19:48.108225  5331 layer_factory.hpp:77] Creating layer conv_stage2_block2_branch2b
I0609 02:19:48.108233  5331 net.cpp:84] Creating Layer conv_stage2_block2_branch2b
I0609 02:19:48.108244  5331 net.cpp:406] conv_stage2_block2_branch2b <- conv_stage2_block2_branch2a
I0609 02:19:48.108250  5331 net.cpp:380] conv_stage2_block2_branch2b -> conv_stage2_block2_branch2b
I0609 02:19:48.109639  5331 net.cpp:122] Setting up conv_stage2_block2_branch2b
I0609 02:19:48.109654  5331 net.cpp:129] Top shape: 7 128 14 14 (175616)
I0609 02:19:48.109657  5331 net.cpp:137] Memory required for data: 729860124
I0609 02:19:48.109663  5331 layer_factory.hpp:77] Creating layer bn_stage2_block2_branch2b
I0609 02:19:48.109675  5331 net.cpp:84] Creating Layer bn_stage2_block2_branch2b
I0609 02:19:48.109678  5331 net.cpp:406] bn_stage2_block2_branch2b <- conv_stage2_block2_branch2b
I0609 02:19:48.109684  5331 net.cpp:367] bn_stage2_block2_branch2b -> conv_stage2_block2_branch2b (in-place)
I0609 02:19:48.109828  5331 net.cpp:122] Setting up bn_stage2_block2_branch2b
I0609 02:19:48.109833  5331 net.cpp:129] Top shape: 7 128 14 14 (175616)
I0609 02:19:48.109836  5331 net.cpp:137] Memory required for data: 730562588
I0609 02:19:48.109843  5331 layer_factory.hpp:77] Creating layer scale_stage2_block2_branch2b
I0609 02:19:48.109849  5331 net.cpp:84] Creating Layer scale_stage2_block2_branch2b
I0609 02:19:48.109853  5331 net.cpp:406] scale_stage2_block2_branch2b <- conv_stage2_block2_branch2b
I0609 02:19:48.109856  5331 net.cpp:367] scale_stage2_block2_branch2b -> conv_stage2_block2_branch2b (in-place)
I0609 02:19:48.109889  5331 layer_factory.hpp:77] Creating layer scale_stage2_block2_branch2b
I0609 02:19:48.109967  5331 net.cpp:122] Setting up scale_stage2_block2_branch2b
I0609 02:19:48.109972  5331 net.cpp:129] Top shape: 7 128 14 14 (175616)
I0609 02:19:48.109975  5331 net.cpp:137] Memory required for data: 731265052
I0609 02:19:48.109979  5331 layer_factory.hpp:77] Creating layer relu_stage2_block2_branch2b
I0609 02:19:48.109985  5331 net.cpp:84] Creating Layer relu_stage2_block2_branch2b
I0609 02:19:48.109988  5331 net.cpp:406] relu_stage2_block2_branch2b <- conv_stage2_block2_branch2b
I0609 02:19:48.109992  5331 net.cpp:367] relu_stage2_block2_branch2b -> conv_stage2_block2_branch2b (in-place)
I0609 02:19:48.109997  5331 net.cpp:122] Setting up relu_stage2_block2_branch2b
I0609 02:19:48.110000  5331 net.cpp:129] Top shape: 7 128 14 14 (175616)
I0609 02:19:48.110003  5331 net.cpp:137] Memory required for data: 731967516
I0609 02:19:48.110005  5331 layer_factory.hpp:77] Creating layer conv_stage2_block2_branch2c
I0609 02:19:48.110015  5331 net.cpp:84] Creating Layer conv_stage2_block2_branch2c
I0609 02:19:48.110018  5331 net.cpp:406] conv_stage2_block2_branch2c <- conv_stage2_block2_branch2b
I0609 02:19:48.110024  5331 net.cpp:380] conv_stage2_block2_branch2c -> conv_stage2_block2_branch2c
I0609 02:19:48.110960  5331 net.cpp:122] Setting up conv_stage2_block2_branch2c
I0609 02:19:48.110968  5331 net.cpp:129] Top shape: 7 512 14 14 (702464)
I0609 02:19:48.110971  5331 net.cpp:137] Memory required for data: 734777372
I0609 02:19:48.110976  5331 layer_factory.hpp:77] Creating layer bn_stage2_block2_branch2c
I0609 02:19:48.110982  5331 net.cpp:84] Creating Layer bn_stage2_block2_branch2c
I0609 02:19:48.110985  5331 net.cpp:406] bn_stage2_block2_branch2c <- conv_stage2_block2_branch2c
I0609 02:19:48.110991  5331 net.cpp:367] bn_stage2_block2_branch2c -> conv_stage2_block2_branch2c (in-place)
I0609 02:19:48.111136  5331 net.cpp:122] Setting up bn_stage2_block2_branch2c
I0609 02:19:48.111141  5331 net.cpp:129] Top shape: 7 512 14 14 (702464)
I0609 02:19:48.111143  5331 net.cpp:137] Memory required for data: 737587228
I0609 02:19:48.111148  5331 layer_factory.hpp:77] Creating layer scale_stage2_block2_branch2c
I0609 02:19:48.111156  5331 net.cpp:84] Creating Layer scale_stage2_block2_branch2c
I0609 02:19:48.111160  5331 net.cpp:406] scale_stage2_block2_branch2c <- conv_stage2_block2_branch2c
I0609 02:19:48.111166  5331 net.cpp:367] scale_stage2_block2_branch2c -> conv_stage2_block2_branch2c (in-place)
I0609 02:19:48.111196  5331 layer_factory.hpp:77] Creating layer scale_stage2_block2_branch2c
I0609 02:19:48.111279  5331 net.cpp:122] Setting up scale_stage2_block2_branch2c
I0609 02:19:48.111294  5331 net.cpp:129] Top shape: 7 512 14 14 (702464)
I0609 02:19:48.111297  5331 net.cpp:137] Memory required for data: 740397084
I0609 02:19:48.111301  5331 layer_factory.hpp:77] Creating layer eltwise_stage2_block2
I0609 02:19:48.111307  5331 net.cpp:84] Creating Layer eltwise_stage2_block2
I0609 02:19:48.111310  5331 net.cpp:406] eltwise_stage2_block2 <- eltwise_stage2_block1_relu_stage2_block1_0_split_1
I0609 02:19:48.111315  5331 net.cpp:406] eltwise_stage2_block2 <- conv_stage2_block2_branch2c
I0609 02:19:48.111320  5331 net.cpp:380] eltwise_stage2_block2 -> eltwise_stage2_block2
I0609 02:19:48.111340  5331 net.cpp:122] Setting up eltwise_stage2_block2
I0609 02:19:48.111343  5331 net.cpp:129] Top shape: 7 512 14 14 (702464)
I0609 02:19:48.111346  5331 net.cpp:137] Memory required for data: 743206940
I0609 02:19:48.111348  5331 layer_factory.hpp:77] Creating layer relu_stage2_block2
I0609 02:19:48.111354  5331 net.cpp:84] Creating Layer relu_stage2_block2
I0609 02:19:48.111356  5331 net.cpp:406] relu_stage2_block2 <- eltwise_stage2_block2
I0609 02:19:48.111361  5331 net.cpp:367] relu_stage2_block2 -> eltwise_stage2_block2 (in-place)
I0609 02:19:48.111366  5331 net.cpp:122] Setting up relu_stage2_block2
I0609 02:19:48.111368  5331 net.cpp:129] Top shape: 7 512 14 14 (702464)
I0609 02:19:48.111371  5331 net.cpp:137] Memory required for data: 746016796
I0609 02:19:48.111372  5331 layer_factory.hpp:77] Creating layer eltwise_stage2_block2_relu_stage2_block2_0_split
I0609 02:19:48.111377  5331 net.cpp:84] Creating Layer eltwise_stage2_block2_relu_stage2_block2_0_split
I0609 02:19:48.111379  5331 net.cpp:406] eltwise_stage2_block2_relu_stage2_block2_0_split <- eltwise_stage2_block2
I0609 02:19:48.111383  5331 net.cpp:380] eltwise_stage2_block2_relu_stage2_block2_0_split -> eltwise_stage2_block2_relu_stage2_block2_0_split_0
I0609 02:19:48.111388  5331 net.cpp:380] eltwise_stage2_block2_relu_stage2_block2_0_split -> eltwise_stage2_block2_relu_stage2_block2_0_split_1
I0609 02:19:48.111415  5331 net.cpp:122] Setting up eltwise_stage2_block2_relu_stage2_block2_0_split
I0609 02:19:48.111419  5331 net.cpp:129] Top shape: 7 512 14 14 (702464)
I0609 02:19:48.111423  5331 net.cpp:129] Top shape: 7 512 14 14 (702464)
I0609 02:19:48.111425  5331 net.cpp:137] Memory required for data: 751636508
I0609 02:19:48.111428  5331 layer_factory.hpp:77] Creating layer conv_stage2_block3_branch2a
I0609 02:19:48.111435  5331 net.cpp:84] Creating Layer conv_stage2_block3_branch2a
I0609 02:19:48.111438  5331 net.cpp:406] conv_stage2_block3_branch2a <- eltwise_stage2_block2_relu_stage2_block2_0_split_0
I0609 02:19:48.111443  5331 net.cpp:380] conv_stage2_block3_branch2a -> conv_stage2_block3_branch2a
I0609 02:19:48.111923  5331 net.cpp:122] Setting up conv_stage2_block3_branch2a
I0609 02:19:48.111928  5331 net.cpp:129] Top shape: 7 128 14 14 (175616)
I0609 02:19:48.111932  5331 net.cpp:137] Memory required for data: 752338972
I0609 02:19:48.111935  5331 layer_factory.hpp:77] Creating layer bn_stage2_block3_branch2a
I0609 02:19:48.111941  5331 net.cpp:84] Creating Layer bn_stage2_block3_branch2a
I0609 02:19:48.111944  5331 net.cpp:406] bn_stage2_block3_branch2a <- conv_stage2_block3_branch2a
I0609 02:19:48.111948  5331 net.cpp:367] bn_stage2_block3_branch2a -> conv_stage2_block3_branch2a (in-place)
I0609 02:19:48.112088  5331 net.cpp:122] Setting up bn_stage2_block3_branch2a
I0609 02:19:48.112092  5331 net.cpp:129] Top shape: 7 128 14 14 (175616)
I0609 02:19:48.112094  5331 net.cpp:137] Memory required for data: 753041436
I0609 02:19:48.112100  5331 layer_factory.hpp:77] Creating layer scale_stage2_block3_branch2a
I0609 02:19:48.112109  5331 net.cpp:84] Creating Layer scale_stage2_block3_branch2a
I0609 02:19:48.112112  5331 net.cpp:406] scale_stage2_block3_branch2a <- conv_stage2_block3_branch2a
I0609 02:19:48.112116  5331 net.cpp:367] scale_stage2_block3_branch2a -> conv_stage2_block3_branch2a (in-place)
I0609 02:19:48.112145  5331 layer_factory.hpp:77] Creating layer scale_stage2_block3_branch2a
I0609 02:19:48.112237  5331 net.cpp:122] Setting up scale_stage2_block3_branch2a
I0609 02:19:48.112242  5331 net.cpp:129] Top shape: 7 128 14 14 (175616)
I0609 02:19:48.112244  5331 net.cpp:137] Memory required for data: 753743900
I0609 02:19:48.112249  5331 layer_factory.hpp:77] Creating layer relu_stage2_block3_branch2a
I0609 02:19:48.112254  5331 net.cpp:84] Creating Layer relu_stage2_block3_branch2a
I0609 02:19:48.112257  5331 net.cpp:406] relu_stage2_block3_branch2a <- conv_stage2_block3_branch2a
I0609 02:19:48.112262  5331 net.cpp:367] relu_stage2_block3_branch2a -> conv_stage2_block3_branch2a (in-place)
I0609 02:19:48.112267  5331 net.cpp:122] Setting up relu_stage2_block3_branch2a
I0609 02:19:48.112270  5331 net.cpp:129] Top shape: 7 128 14 14 (175616)
I0609 02:19:48.112272  5331 net.cpp:137] Memory required for data: 754446364
I0609 02:19:48.112274  5331 layer_factory.hpp:77] Creating layer conv_stage2_block3_branch2b
I0609 02:19:48.112282  5331 net.cpp:84] Creating Layer conv_stage2_block3_branch2b
I0609 02:19:48.112283  5331 net.cpp:406] conv_stage2_block3_branch2b <- conv_stage2_block3_branch2a
I0609 02:19:48.112289  5331 net.cpp:380] conv_stage2_block3_branch2b -> conv_stage2_block3_branch2b
I0609 02:19:48.113713  5331 net.cpp:122] Setting up conv_stage2_block3_branch2b
I0609 02:19:48.113723  5331 net.cpp:129] Top shape: 7 128 14 14 (175616)
I0609 02:19:48.113726  5331 net.cpp:137] Memory required for data: 755148828
I0609 02:19:48.113732  5331 layer_factory.hpp:77] Creating layer bn_stage2_block3_branch2b
I0609 02:19:48.113739  5331 net.cpp:84] Creating Layer bn_stage2_block3_branch2b
I0609 02:19:48.113742  5331 net.cpp:406] bn_stage2_block3_branch2b <- conv_stage2_block3_branch2b
I0609 02:19:48.113749  5331 net.cpp:367] bn_stage2_block3_branch2b -> conv_stage2_block3_branch2b (in-place)
I0609 02:19:48.113896  5331 net.cpp:122] Setting up bn_stage2_block3_branch2b
I0609 02:19:48.113901  5331 net.cpp:129] Top shape: 7 128 14 14 (175616)
I0609 02:19:48.113903  5331 net.cpp:137] Memory required for data: 755851292
I0609 02:19:48.113909  5331 layer_factory.hpp:77] Creating layer scale_stage2_block3_branch2b
I0609 02:19:48.113914  5331 net.cpp:84] Creating Layer scale_stage2_block3_branch2b
I0609 02:19:48.113916  5331 net.cpp:406] scale_stage2_block3_branch2b <- conv_stage2_block3_branch2b
I0609 02:19:48.113920  5331 net.cpp:367] scale_stage2_block3_branch2b -> conv_stage2_block3_branch2b (in-place)
I0609 02:19:48.113952  5331 layer_factory.hpp:77] Creating layer scale_stage2_block3_branch2b
I0609 02:19:48.114032  5331 net.cpp:122] Setting up scale_stage2_block3_branch2b
I0609 02:19:48.114037  5331 net.cpp:129] Top shape: 7 128 14 14 (175616)
I0609 02:19:48.114038  5331 net.cpp:137] Memory required for data: 756553756
I0609 02:19:48.114043  5331 layer_factory.hpp:77] Creating layer relu_stage2_block3_branch2b
I0609 02:19:48.114048  5331 net.cpp:84] Creating Layer relu_stage2_block3_branch2b
I0609 02:19:48.114050  5331 net.cpp:406] relu_stage2_block3_branch2b <- conv_stage2_block3_branch2b
I0609 02:19:48.114055  5331 net.cpp:367] relu_stage2_block3_branch2b -> conv_stage2_block3_branch2b (in-place)
I0609 02:19:48.114060  5331 net.cpp:122] Setting up relu_stage2_block3_branch2b
I0609 02:19:48.114063  5331 net.cpp:129] Top shape: 7 128 14 14 (175616)
I0609 02:19:48.114065  5331 net.cpp:137] Memory required for data: 757256220
I0609 02:19:48.114068  5331 layer_factory.hpp:77] Creating layer conv_stage2_block3_branch2c
I0609 02:19:48.114076  5331 net.cpp:84] Creating Layer conv_stage2_block3_branch2c
I0609 02:19:48.114078  5331 net.cpp:406] conv_stage2_block3_branch2c <- conv_stage2_block3_branch2b
I0609 02:19:48.114084  5331 net.cpp:380] conv_stage2_block3_branch2c -> conv_stage2_block3_branch2c
I0609 02:19:48.114604  5331 net.cpp:122] Setting up conv_stage2_block3_branch2c
I0609 02:19:48.114614  5331 net.cpp:129] Top shape: 7 512 14 14 (702464)
I0609 02:19:48.114615  5331 net.cpp:137] Memory required for data: 760066076
I0609 02:19:48.114621  5331 layer_factory.hpp:77] Creating layer bn_stage2_block3_branch2c
I0609 02:19:48.114639  5331 net.cpp:84] Creating Layer bn_stage2_block3_branch2c
I0609 02:19:48.114642  5331 net.cpp:406] bn_stage2_block3_branch2c <- conv_stage2_block3_branch2c
I0609 02:19:48.114648  5331 net.cpp:367] bn_stage2_block3_branch2c -> conv_stage2_block3_branch2c (in-place)
I0609 02:19:48.114799  5331 net.cpp:122] Setting up bn_stage2_block3_branch2c
I0609 02:19:48.114804  5331 net.cpp:129] Top shape: 7 512 14 14 (702464)
I0609 02:19:48.114806  5331 net.cpp:137] Memory required for data: 762875932
I0609 02:19:48.114833  5331 layer_factory.hpp:77] Creating layer scale_stage2_block3_branch2c
I0609 02:19:48.114840  5331 net.cpp:84] Creating Layer scale_stage2_block3_branch2c
I0609 02:19:48.114841  5331 net.cpp:406] scale_stage2_block3_branch2c <- conv_stage2_block3_branch2c
I0609 02:19:48.114846  5331 net.cpp:367] scale_stage2_block3_branch2c -> conv_stage2_block3_branch2c (in-place)
I0609 02:19:48.114878  5331 layer_factory.hpp:77] Creating layer scale_stage2_block3_branch2c
I0609 02:19:48.114967  5331 net.cpp:122] Setting up scale_stage2_block3_branch2c
I0609 02:19:48.114974  5331 net.cpp:129] Top shape: 7 512 14 14 (702464)
I0609 02:19:48.114975  5331 net.cpp:137] Memory required for data: 765685788
I0609 02:19:48.114980  5331 layer_factory.hpp:77] Creating layer eltwise_stage2_block3
I0609 02:19:48.114986  5331 net.cpp:84] Creating Layer eltwise_stage2_block3
I0609 02:19:48.114989  5331 net.cpp:406] eltwise_stage2_block3 <- eltwise_stage2_block2_relu_stage2_block2_0_split_1
I0609 02:19:48.114994  5331 net.cpp:406] eltwise_stage2_block3 <- conv_stage2_block3_branch2c
I0609 02:19:48.114997  5331 net.cpp:380] eltwise_stage2_block3 -> eltwise_stage2_block3
I0609 02:19:48.115017  5331 net.cpp:122] Setting up eltwise_stage2_block3
I0609 02:19:48.115022  5331 net.cpp:129] Top shape: 7 512 14 14 (702464)
I0609 02:19:48.115025  5331 net.cpp:137] Memory required for data: 768495644
I0609 02:19:48.115026  5331 layer_factory.hpp:77] Creating layer relu_stage2_block3
I0609 02:19:48.115031  5331 net.cpp:84] Creating Layer relu_stage2_block3
I0609 02:19:48.115034  5331 net.cpp:406] relu_stage2_block3 <- eltwise_stage2_block3
I0609 02:19:48.115039  5331 net.cpp:367] relu_stage2_block3 -> eltwise_stage2_block3 (in-place)
I0609 02:19:48.115043  5331 net.cpp:122] Setting up relu_stage2_block3
I0609 02:19:48.115047  5331 net.cpp:129] Top shape: 7 512 14 14 (702464)
I0609 02:19:48.115049  5331 net.cpp:137] Memory required for data: 771305500
I0609 02:19:48.115051  5331 layer_factory.hpp:77] Creating layer eltwise_stage2_block3_relu_stage2_block3_0_split
I0609 02:19:48.115056  5331 net.cpp:84] Creating Layer eltwise_stage2_block3_relu_stage2_block3_0_split
I0609 02:19:48.115058  5331 net.cpp:406] eltwise_stage2_block3_relu_stage2_block3_0_split <- eltwise_stage2_block3
I0609 02:19:48.115063  5331 net.cpp:380] eltwise_stage2_block3_relu_stage2_block3_0_split -> eltwise_stage2_block3_relu_stage2_block3_0_split_0
I0609 02:19:48.115069  5331 net.cpp:380] eltwise_stage2_block3_relu_stage2_block3_0_split -> eltwise_stage2_block3_relu_stage2_block3_0_split_1
I0609 02:19:48.115097  5331 net.cpp:122] Setting up eltwise_stage2_block3_relu_stage2_block3_0_split
I0609 02:19:48.115100  5331 net.cpp:129] Top shape: 7 512 14 14 (702464)
I0609 02:19:48.115103  5331 net.cpp:129] Top shape: 7 512 14 14 (702464)
I0609 02:19:48.115105  5331 net.cpp:137] Memory required for data: 776925212
I0609 02:19:48.115108  5331 layer_factory.hpp:77] Creating layer conv_stage2_block4_branch2a
I0609 02:19:48.115116  5331 net.cpp:84] Creating Layer conv_stage2_block4_branch2a
I0609 02:19:48.115119  5331 net.cpp:406] conv_stage2_block4_branch2a <- eltwise_stage2_block3_relu_stage2_block3_0_split_0
I0609 02:19:48.115124  5331 net.cpp:380] conv_stage2_block4_branch2a -> conv_stage2_block4_branch2a
I0609 02:19:48.115603  5331 net.cpp:122] Setting up conv_stage2_block4_branch2a
I0609 02:19:48.115609  5331 net.cpp:129] Top shape: 7 128 14 14 (175616)
I0609 02:19:48.115612  5331 net.cpp:137] Memory required for data: 777627676
I0609 02:19:48.115615  5331 layer_factory.hpp:77] Creating layer bn_stage2_block4_branch2a
I0609 02:19:48.115633  5331 net.cpp:84] Creating Layer bn_stage2_block4_branch2a
I0609 02:19:48.115636  5331 net.cpp:406] bn_stage2_block4_branch2a <- conv_stage2_block4_branch2a
I0609 02:19:48.115641  5331 net.cpp:367] bn_stage2_block4_branch2a -> conv_stage2_block4_branch2a (in-place)
I0609 02:19:48.115782  5331 net.cpp:122] Setting up bn_stage2_block4_branch2a
I0609 02:19:48.115787  5331 net.cpp:129] Top shape: 7 128 14 14 (175616)
I0609 02:19:48.115789  5331 net.cpp:137] Memory required for data: 778330140
I0609 02:19:48.115794  5331 layer_factory.hpp:77] Creating layer scale_stage2_block4_branch2a
I0609 02:19:48.115798  5331 net.cpp:84] Creating Layer scale_stage2_block4_branch2a
I0609 02:19:48.115802  5331 net.cpp:406] scale_stage2_block4_branch2a <- conv_stage2_block4_branch2a
I0609 02:19:48.115806  5331 net.cpp:367] scale_stage2_block4_branch2a -> conv_stage2_block4_branch2a (in-place)
I0609 02:19:48.115836  5331 layer_factory.hpp:77] Creating layer scale_stage2_block4_branch2a
I0609 02:19:48.115919  5331 net.cpp:122] Setting up scale_stage2_block4_branch2a
I0609 02:19:48.115924  5331 net.cpp:129] Top shape: 7 128 14 14 (175616)
I0609 02:19:48.115926  5331 net.cpp:137] Memory required for data: 779032604
I0609 02:19:48.115931  5331 layer_factory.hpp:77] Creating layer relu_stage2_block4_branch2a
I0609 02:19:48.115936  5331 net.cpp:84] Creating Layer relu_stage2_block4_branch2a
I0609 02:19:48.115938  5331 net.cpp:406] relu_stage2_block4_branch2a <- conv_stage2_block4_branch2a
I0609 02:19:48.115943  5331 net.cpp:367] relu_stage2_block4_branch2a -> conv_stage2_block4_branch2a (in-place)
I0609 02:19:48.115947  5331 net.cpp:122] Setting up relu_stage2_block4_branch2a
I0609 02:19:48.115950  5331 net.cpp:129] Top shape: 7 128 14 14 (175616)
I0609 02:19:48.115953  5331 net.cpp:137] Memory required for data: 779735068
I0609 02:19:48.115955  5331 layer_factory.hpp:77] Creating layer conv_stage2_block4_branch2b
I0609 02:19:48.115963  5331 net.cpp:84] Creating Layer conv_stage2_block4_branch2b
I0609 02:19:48.115965  5331 net.cpp:406] conv_stage2_block4_branch2b <- conv_stage2_block4_branch2a
I0609 02:19:48.115970  5331 net.cpp:380] conv_stage2_block4_branch2b -> conv_stage2_block4_branch2b
I0609 02:19:48.117312  5331 net.cpp:122] Setting up conv_stage2_block4_branch2b
I0609 02:19:48.117322  5331 net.cpp:129] Top shape: 7 128 14 14 (175616)
I0609 02:19:48.117324  5331 net.cpp:137] Memory required for data: 780437532
I0609 02:19:48.117329  5331 layer_factory.hpp:77] Creating layer bn_stage2_block4_branch2b
I0609 02:19:48.117336  5331 net.cpp:84] Creating Layer bn_stage2_block4_branch2b
I0609 02:19:48.117341  5331 net.cpp:406] bn_stage2_block4_branch2b <- conv_stage2_block4_branch2b
I0609 02:19:48.117346  5331 net.cpp:367] bn_stage2_block4_branch2b -> conv_stage2_block4_branch2b (in-place)
I0609 02:19:48.117492  5331 net.cpp:122] Setting up bn_stage2_block4_branch2b
I0609 02:19:48.117497  5331 net.cpp:129] Top shape: 7 128 14 14 (175616)
I0609 02:19:48.117499  5331 net.cpp:137] Memory required for data: 781139996
I0609 02:19:48.117506  5331 layer_factory.hpp:77] Creating layer scale_stage2_block4_branch2b
I0609 02:19:48.117511  5331 net.cpp:84] Creating Layer scale_stage2_block4_branch2b
I0609 02:19:48.117513  5331 net.cpp:406] scale_stage2_block4_branch2b <- conv_stage2_block4_branch2b
I0609 02:19:48.117517  5331 net.cpp:367] scale_stage2_block4_branch2b -> conv_stage2_block4_branch2b (in-place)
I0609 02:19:48.117548  5331 layer_factory.hpp:77] Creating layer scale_stage2_block4_branch2b
I0609 02:19:48.117630  5331 net.cpp:122] Setting up scale_stage2_block4_branch2b
I0609 02:19:48.117635  5331 net.cpp:129] Top shape: 7 128 14 14 (175616)
I0609 02:19:48.117636  5331 net.cpp:137] Memory required for data: 781842460
I0609 02:19:48.117641  5331 layer_factory.hpp:77] Creating layer relu_stage2_block4_branch2b
I0609 02:19:48.117646  5331 net.cpp:84] Creating Layer relu_stage2_block4_branch2b
I0609 02:19:48.117650  5331 net.cpp:406] relu_stage2_block4_branch2b <- conv_stage2_block4_branch2b
I0609 02:19:48.117662  5331 net.cpp:367] relu_stage2_block4_branch2b -> conv_stage2_block4_branch2b (in-place)
I0609 02:19:48.117667  5331 net.cpp:122] Setting up relu_stage2_block4_branch2b
I0609 02:19:48.117671  5331 net.cpp:129] Top shape: 7 128 14 14 (175616)
I0609 02:19:48.117672  5331 net.cpp:137] Memory required for data: 782544924
I0609 02:19:48.117676  5331 layer_factory.hpp:77] Creating layer conv_stage2_block4_branch2c
I0609 02:19:48.117683  5331 net.cpp:84] Creating Layer conv_stage2_block4_branch2c
I0609 02:19:48.117686  5331 net.cpp:406] conv_stage2_block4_branch2c <- conv_stage2_block4_branch2b
I0609 02:19:48.117692  5331 net.cpp:380] conv_stage2_block4_branch2c -> conv_stage2_block4_branch2c
I0609 02:19:48.118613  5331 net.cpp:122] Setting up conv_stage2_block4_branch2c
I0609 02:19:48.118623  5331 net.cpp:129] Top shape: 7 512 14 14 (702464)
I0609 02:19:48.118625  5331 net.cpp:137] Memory required for data: 785354780
I0609 02:19:48.118630  5331 layer_factory.hpp:77] Creating layer bn_stage2_block4_branch2c
I0609 02:19:48.118636  5331 net.cpp:84] Creating Layer bn_stage2_block4_branch2c
I0609 02:19:48.118639  5331 net.cpp:406] bn_stage2_block4_branch2c <- conv_stage2_block4_branch2c
I0609 02:19:48.118644  5331 net.cpp:367] bn_stage2_block4_branch2c -> conv_stage2_block4_branch2c (in-place)
I0609 02:19:48.118795  5331 net.cpp:122] Setting up bn_stage2_block4_branch2c
I0609 02:19:48.118801  5331 net.cpp:129] Top shape: 7 512 14 14 (702464)
I0609 02:19:48.118803  5331 net.cpp:137] Memory required for data: 788164636
I0609 02:19:48.118808  5331 layer_factory.hpp:77] Creating layer scale_stage2_block4_branch2c
I0609 02:19:48.118814  5331 net.cpp:84] Creating Layer scale_stage2_block4_branch2c
I0609 02:19:48.118818  5331 net.cpp:406] scale_stage2_block4_branch2c <- conv_stage2_block4_branch2c
I0609 02:19:48.118821  5331 net.cpp:367] scale_stage2_block4_branch2c -> conv_stage2_block4_branch2c (in-place)
I0609 02:19:48.118850  5331 layer_factory.hpp:77] Creating layer scale_stage2_block4_branch2c
I0609 02:19:48.118937  5331 net.cpp:122] Setting up scale_stage2_block4_branch2c
I0609 02:19:48.118942  5331 net.cpp:129] Top shape: 7 512 14 14 (702464)
I0609 02:19:48.118943  5331 net.cpp:137] Memory required for data: 790974492
I0609 02:19:48.118947  5331 layer_factory.hpp:77] Creating layer eltwise_stage2_block4
I0609 02:19:48.118953  5331 net.cpp:84] Creating Layer eltwise_stage2_block4
I0609 02:19:48.118957  5331 net.cpp:406] eltwise_stage2_block4 <- eltwise_stage2_block3_relu_stage2_block3_0_split_1
I0609 02:19:48.118960  5331 net.cpp:406] eltwise_stage2_block4 <- conv_stage2_block4_branch2c
I0609 02:19:48.118965  5331 net.cpp:380] eltwise_stage2_block4 -> eltwise_stage2_block4
I0609 02:19:48.118984  5331 net.cpp:122] Setting up eltwise_stage2_block4
I0609 02:19:48.118988  5331 net.cpp:129] Top shape: 7 512 14 14 (702464)
I0609 02:19:48.118990  5331 net.cpp:137] Memory required for data: 793784348
I0609 02:19:48.118993  5331 layer_factory.hpp:77] Creating layer relu_stage2_block4
I0609 02:19:48.118999  5331 net.cpp:84] Creating Layer relu_stage2_block4
I0609 02:19:48.119000  5331 net.cpp:406] relu_stage2_block4 <- eltwise_stage2_block4
I0609 02:19:48.119004  5331 net.cpp:367] relu_stage2_block4 -> eltwise_stage2_block4 (in-place)
I0609 02:19:48.119009  5331 net.cpp:122] Setting up relu_stage2_block4
I0609 02:19:48.119012  5331 net.cpp:129] Top shape: 7 512 14 14 (702464)
I0609 02:19:48.119014  5331 net.cpp:137] Memory required for data: 796594204
I0609 02:19:48.119016  5331 layer_factory.hpp:77] Creating layer eltwise_stage2_block4_relu_stage2_block4_0_split
…
I0609 02:19:48.337565  5331 layer_factory.hpp:77] Creating layer eltwise_stage2_block3_relu_stage2_block3_0_split
I0609 02:19:48.337569  5331 net.cpp:84] Creating Layer eltwise_stage2_block3_relu_stage2_block3_0_split
I0609 02:19:48.337572  5331 net.cpp:406] eltwise_stage2_block3_relu_stage2_block3_0_split <- eltwise_stage2_block3
I0609 02:19:48.337577  5331 net.cpp:380] eltwise_stage2_block3_relu_stage2_block3_0_split -> eltwise_stage2_block3_relu_stage2_block3_0_split_0
I0609 02:19:48.337584  5331 net.cpp:380] eltwise_stage2_block3_relu_stage2_block3_0_split -> eltwise_stage2_block3_relu_stage2_block3_0_split_1
I0609 02:19:48.337613  5331 net.cpp:122] Setting up eltwise_stage2_block3_relu_stage2_block3_0_split
I0609 02:19:48.337617  5331 net.cpp:129] Top shape: 7 512 14 14 (702464)
I0609 02:19:48.337621  5331 net.cpp:129] Top shape: 7 512 14 14 (702464)
I0609 02:19:48.337623  5331 net.cpp:137] Memory required for data: 776925268
I0609 02:19:48.337625  5331 layer_factory.hpp:77] Creating layer conv_stage2_block4_branch2a
I0609 02:19:48.337632  5331 net.cpp:84] Creating Layer conv_stage2_block4_branch2a
I0609 02:19:48.337635  5331 net.cpp:406] conv_stage2_block4_branch2a <- eltwise_stage2_block3_relu_stage2_block3_0_split_0
I0609 02:19:48.337642  5331 net.cpp:380] conv_stage2_block4_branch2a -> conv_stage2_block4_branch2a
I0609 02:19:48.338152  5331 net.cpp:122] Setting up conv_stage2_block4_branch2a
I0609 02:19:48.338157  5331 net.cpp:129] Top shape: 7 128 14 14 (175616)
I0609 02:19:48.338160  5331 net.cpp:137] Memory required for data: 777627732
I0609 02:19:48.338165  5331 layer_factory.hpp:77] Creating layer bn_stage2_block4_branch2a
I0609 02:19:48.338169  5331 net.cpp:84] Creating Layer bn_stage2_block4_branch2a
I0609 02:19:48.338172  5331 net.cpp:406] bn_stage2_block4_branch2a <- conv_stage2_block4_branch2a
I0609 02:19:48.338178  5331 net.cpp:367] bn_stage2_block4_branch2a -> conv_stage2_block4_branch2a (in-place)
I0609 02:19:48.338402  5331 net.cpp:122] Setting up bn_stage2_block4_branch2a
I0609 02:19:48.338413  5331 net.cpp:129] Top shape: 7 128 14 14 (175616)
I0609 02:19:48.338416  5331 net.cpp:137] Memory required for data: 778330196
I0609 02:19:48.338426  5331 layer_factory.hpp:77] Creating layer scale_stage2_block4_branch2a
I0609 02:19:48.351022  5331 net.cpp:84] Creating Layer scale_stage2_block4_branch2a
I0609 02:19:48.351042  5331 net.cpp:406] scale_stage2_block4_branch2a <- conv_stage2_block4_branch2a
I0609 02:19:48.351065  5331 net.cpp:367] scale_stage2_block4_branch2a -> conv_stage2_block4_branch2a (in-place)
I0609 02:19:48.351209  5331 layer_factory.hpp:77] Creating layer scale_stage2_block4_branch2a
I0609 02:19:48.351405  5331 net.cpp:122] Setting up scale_stage2_block4_branch2a
I0609 02:19:48.351418  5331 net.cpp:129] Top shape: 7 128 14 14 (175616)
I0609 02:19:48.351424  5331 net.cpp:137] Memory required for data: 779032660
I0609 02:19:48.351438  5331 layer_factory.hpp:77] Creating layer relu_stage2_block4_branch2a
I0609 02:19:48.351447  5331 net.cpp:84] Creating Layer relu_stage2_block4_branch2a
I0609 02:19:48.351454  5331 net.cpp:406] relu_stage2_block4_branch2a <- conv_stage2_block4_branch2a
I0609 02:19:48.351462  5331 net.cpp:367] relu_stage2_block4_branch2a -> conv_stage2_block4_branch2a (in-place)
I0609 02:19:48.351474  5331 net.cpp:122] Setting up relu_stage2_block4_branch2a
I0609 02:19:48.351481  5331 net.cpp:129] Top shape: 7 128 14 14 (175616)
I0609 02:19:48.351505  5331 net.cpp:137] Memory required for data: 779735124
I0609 02:19:48.351510  5331 layer_factory.hpp:77] Creating layer conv_stage2_block4_branch2b
I0609 02:19:48.351529  5331 net.cpp:84] Creating Layer conv_stage2_block4_branch2b
I0609 02:19:48.351537  5331 net.cpp:406] conv_stage2_block4_branch2b <- conv_stage2_block4_branch2a
I0609 02:19:48.351549  5331 net.cpp:380] conv_stage2_block4_branch2b -> conv_stage2_block4_branch2b
I0609 02:19:48.353651  5331 net.cpp:122] Setting up conv_stage2_block4_branch2b
I0609 02:19:48.353667  5331 net.cpp:129] Top shape: 7 128 14 14 (175616)
I0609 02:19:48.353672  5331 net.cpp:137] Memory required for data: 780437588
I0609 02:19:48.353683  5331 layer_factory.hpp:77] Creating layer bn_stage2_block4_branch2b
I0609 02:19:48.353698  5331 net.cpp:84] Creating Layer bn_stage2_block4_branch2b
I0609 02:19:48.353704  5331 net.cpp:406] bn_stage2_block4_branch2b <- conv_stage2_block4_branch2b
I0609 02:19:48.353716  5331 net.cpp:367] bn_stage2_block4_branch2b -> conv_stage2_block4_branch2b (in-place)
I0609 02:19:48.354012  5331 net.cpp:122] Setting up bn_stage2_block4_branch2b
I0609 02:19:48.354023  5331 net.cpp:129] Top shape: 7 128 14 14 (175616)
I0609 02:19:48.354028  5331 net.cpp:137] Memory required for data: 781140052
I0609 02:19:48.354040  5331 layer_factory.hpp:77] Creating layer scale_stage2_block4_branch2b
I0609 02:19:48.354049  5331 net.cpp:84] Creating Layer scale_stage2_block4_branch2b
I0609 02:19:48.354055  5331 net.cpp:406] scale_stage2_block4_branch2b <- conv_stage2_block4_branch2b
I0609 02:19:48.354065  5331 net.cpp:367] scale_stage2_block4_branch2b -> conv_stage2_block4_branch2b (in-place)
I0609 02:19:48.354130  5331 layer_factory.hpp:77] Creating layer scale_stage2_block4_branch2b
I0609 02:19:48.354334  5331 net.cpp:122] Setting up scale_stage2_block4_branch2b
I0609 02:19:48.354348  5331 net.cpp:129] Top shape: 7 128 14 14 (175616)
I0609 02:19:48.354354  5331 net.cpp:137] Memory required for data: 781842516
I0609 02:19:48.354367  5331 layer_factory.hpp:77] Creating layer relu_stage2_block4_branch2b
I0609 02:19:48.354374  5331 net.cpp:84] Creating Layer relu_stage2_block4_branch2b
I0609 02:19:48.354379  5331 net.cpp:406] relu_stage2_block4_branch2b <- conv_stage2_block4_branch2b
I0609 02:19:48.354388  5331 net.cpp:367] relu_stage2_block4_branch2b -> conv_stage2_block4_branch2b (in-place)
I0609 02:19:48.354395  5331 net.cpp:122] Setting up relu_stage2_block4_branch2b
I0609 02:19:48.354400  5331 net.cpp:129] Top shape: 7 128 14 14 (175616)
I0609 02:19:48.354404  5331 net.cpp:137] Memory required for data: 782544980
I0609 02:19:48.354408  5331 layer_factory.hpp:77] Creating layer conv_stage2_block4_branch2c
I0609 02:19:48.354418  5331 net.cpp:84] Creating Layer conv_stage2_block4_branch2c
I0609 02:19:48.354423  5331 net.cpp:406] conv_stage2_block4_branch2c <- conv_stage2_block4_branch2b
I0609 02:19:48.354429  5331 net.cpp:380] conv_stage2_block4_branch2c -> conv_stage2_block4_branch2c
I0609 02:19:48.355146  5331 net.cpp:122] Setting up conv_stage2_block4_branch2c
I0609 02:19:48.355154  5331 net.cpp:129] Top shape: 7 512 14 14 (702464)
I0609 02:19:48.355157  5331 net.cpp:137] Memory required for data: 785354836
I0609 02:19:48.355165  5331 layer_factory.hpp:77] Creating layer bn_stage2_block4_branch2c
I0609 02:19:48.355173  5331 net.cpp:84] Creating Layer bn_stage2_block4_branch2c
I0609 02:19:48.355178  5331 net.cpp:406] bn_stage2_block4_branch2c <- conv_stage2_block4_branch2c
I0609 02:19:48.355185  5331 net.cpp:367] bn_stage2_block4_branch2c -> conv_stage2_block4_branch2c (in-place)
I0609 02:19:48.355409  5331 net.cpp:122] Setting up bn_stage2_block4_branch2c
I0609 02:19:48.355420  5331 net.cpp:129] Top shape: 7 512 14 14 (702464)
I0609 02:19:48.355425  5331 net.cpp:137] Memory required for data: 788164692
I0609 02:19:48.355439  5331 layer_factory.hpp:77] Creating layer scale_stage2_block4_branch2c
I0609 02:19:48.355449  5331 net.cpp:84] Creating Layer scale_stage2_block4_branch2c
I0609 02:19:48.355455  5331 net.cpp:406] scale_stage2_block4_branch2c <- conv_stage2_block4_branch2c
I0609 02:19:48.355482  5331 net.cpp:367] scale_stage2_block4_branch2c -> conv_stage2_block4_branch2c (in-place)
I0609 02:19:48.355556  5331 layer_factory.hpp:77] Creating layer scale_stage2_block4_branch2c
I0609 02:19:48.355763  5331 net.cpp:122] Setting up scale_stage2_block4_branch2c
I0609 02:19:48.355775  5331 net.cpp:129] Top shape: 7 512 14 14 (702464)
I0609 02:19:48.355782  5331 net.cpp:137] Memory required for data: 790974548
I0609 02:19:48.355792  5331 layer_factory.hpp:77] Creating layer eltwise_stage2_block4
I0609 02:19:48.355803  5331 net.cpp:84] Creating Layer eltwise_stage2_block4
I0609 02:19:48.355810  5331 net.cpp:406] eltwise_stage2_block4 <- eltwise_stage2_block3_relu_stage2_block3_0_split_1
I0609 02:19:48.355819  5331 net.cpp:406] eltwise_stage2_block4 <- conv_stage2_block4_branch2c
I0609 02:19:48.355831  5331 net.cpp:380] eltwise_stage2_block4 -> eltwise_stage2_block4
I0609 02:19:48.355873  5331 net.cpp:122] Setting up eltwise_stage2_block4
I0609 02:19:48.355885  5331 net.cpp:129] Top shape: 7 512 14 14 (702464)
I0609 02:19:48.355890  5331 net.cpp:137] Memory required for data: 793784404
I0609 02:19:48.355895  5331 layer_factory.hpp:77] Creating layer relu_stage2_block4
I0609 02:19:48.355908  5331 net.cpp:84] Creating Layer relu_stage2_block4
I0609 02:19:48.355916  5331 net.cpp:406] relu_stage2_block4 <- eltwise_stage2_block4
I0609 02:19:48.355924  5331 net.cpp:367] relu_stage2_block4 -> eltwise_stage2_block4 (in-place)
I0609 02:19:48.355935  5331 net.cpp:122] Setting up relu_stage2_block4
I0609 02:19:48.355943  5331 net.cpp:129] Top shape: 7 512 14 14 (702464)
I0609 02:19:48.355949  5331 net.cpp:137] Memory required for data: 796594260
I0609 02:19:48.355954  5331 layer_factory.hpp:77] Creating layer eltwise_stage2_block4_relu_stage2_block4_0_split
I0609 02:19:48.355964  5331 net.cpp:84] Creating Layer eltwise_stage2_block4_relu_stage2_block4_0_split
I0609 02:19:48.355970  5331 net.cpp:406] eltwise_stage2_block4_relu_stage2_block4_0_split <- eltwise_stage2_block4
I0609 02:19:48.355980  5331 net.cpp:380] eltwise_stage2_block4_relu_stage2_block4_0_split -> eltwise_stage2_block4_relu_stage2_block4_0_split_0
I0609 02:19:48.355993  5331 net.cpp:380] eltwise_stage2_block4_relu_stage2_block4_0_split -> eltwise_stage2_block4_relu_stage2_block4_0_split_1
I0609 02:19:48.356056  5331 net.cpp:122] Setting up eltwise_stage2_block4_relu_stage2_block4_0_split
I0609 02:19:48.356067  5331 net.cpp:129] Top shape: 7 512 14 14 (702464)
I0609 02:19:48.356076  5331 net.cpp:129] Top shape: 7 512 14 14 (702464)
I0609 02:19:48.356081  5331 net.cpp:137] Memory required for data: 802213972
I0609 02:19:48.356086  5331 layer_factory.hpp:77] Creating layer conv_stage2_block5_branch2a
I0609 02:19:48.356104  5331 net.cpp:84] Creating Layer conv_stage2_block5_branch2a
I0609 02:19:48.356112  5331 net.cpp:406] conv_stage2_block5_branch2a <- eltwise_stage2_block4_relu_stage2_block4_0_split_0
I0609 02:19:48.356124  5331 net.cpp:380] conv_stage2_block5_branch2a -> conv_stage2_block5_branch2a
I0609 02:19:48.357547  5331 net.cpp:122] Setting up conv_stage2_block5_branch2a
I0609 02:19:48.357564  5331 net.cpp:129] Top shape: 7 128 14 14 (175616)
I0609 02:19:48.357570  5331 net.cpp:137] Memory required for data: 802916436
I0609 02:19:48.357583  5331 layer_factory.hpp:77] Creating layer bn_stage2_block5_branch2a
I0609 02:19:48.357597  5331 net.cpp:84] Creating Layer bn_stage2_block5_branch2a
I0609 02:19:48.357604  5331 net.cpp:406] bn_stage2_block5_branch2a <- conv_stage2_block5_branch2a
I0609 02:19:48.357617  5331 net.cpp:367] bn_stage2_block5_branch2a -> conv_stage2_block5_branch2a (in-place)
I0609 02:19:48.357956  5331 net.cpp:122] Setting up bn_stage2_block5_branch2a
I0609 02:19:48.357969  5331 net.cpp:129] Top shape: 7 128 14 14 (175616)
I0609 02:19:48.357975  5331 net.cpp:137] Memory required for data: 803618900
I0609 02:19:48.357987  5331 layer_factory.hpp:77] Creating layer scale_stage2_block5_branch2a
I0609 02:19:48.357998  5331 net.cpp:84] Creating Layer scale_stage2_block5_branch2a
I0609 02:19:48.358019  5331 net.cpp:406] scale_stage2_block5_branch2a <- conv_stage2_block5_branch2a
I0609 02:19:48.358033  5331 net.cpp:367] scale_stage2_block5_branch2a -> conv_stage2_block5_branch2a (in-place)
I0609 02:19:48.358106  5331 layer_factory.hpp:77] Creating layer scale_stage2_block5_branch2a
I0609 02:19:48.358319  5331 net.cpp:122] Setting up scale_stage2_block5_branch2a
I0609 02:19:48.358331  5331 net.cpp:129] Top shape: 7 128 14 14 (175616)
I0609 02:19:48.358336  5331 net.cpp:137] Memory required for data: 804321364
I0609 02:19:48.358346  5331 layer_factory.hpp:77] Creating layer relu_stage2_block5_branch2a
I0609 02:19:48.358355  5331 net.cpp:84] Creating Layer relu_stage2_block5_branch2a
I0609 02:19:48.358361  5331 net.cpp:406] relu_stage2_block5_branch2a <- conv_stage2_block5_branch2a
I0609 02:19:48.358372  5331 net.cpp:367] relu_stage2_block5_branch2a -> conv_stage2_block5_branch2a (in-place)
I0609 02:19:48.358382  5331 net.cpp:122] Setting up relu_stage2_block5_branch2a
I0609 02:19:48.358391  5331 net.cpp:129] Top shape: 7 128 14 14 (175616)
I0609 02:19:48.358395  5331 net.cpp:137] Memory required for data: 805023828
I0609 02:19:48.358400  5331 layer_factory.hpp:77] Creating layer conv_stage2_block5_branch2b
I0609 02:19:48.358417  5331 net.cpp:84] Creating Layer conv_stage2_block5_branch2b
I0609 02:19:48.358422  5331 net.cpp:406] conv_stage2_block5_branch2b <- conv_stage2_block5_branch2a
I0609 02:19:48.358433  5331 net.cpp:380] conv_stage2_block5_branch2b -> conv_stage2_block5_branch2b
I0609 02:19:48.360561  5331 net.cpp:122] Setting up conv_stage2_block5_branch2b
I0609 02:19:48.360577  5331 net.cpp:129] Top shape: 7 128 14 14 (175616)
I0609 02:19:48.360582  5331 net.cpp:137] Memory required for data: 805726292
I0609 02:19:48.360594  5331 layer_factory.hpp:77] Creating layer bn_stage2_block5_branch2b
I0609 02:19:48.360610  5331 net.cpp:84] Creating Layer bn_stage2_block5_branch2b
I0609 02:19:48.360615  5331 net.cpp:406] bn_stage2_block5_branch2b <- conv_stage2_block5_branch2b
I0609 02:19:48.360627  5331 net.cpp:367] bn_stage2_block5_branch2b -> conv_stage2_block5_branch2b (in-place)
I0609 02:19:48.360922  5331 net.cpp:122] Setting up bn_stage2_block5_branch2b
I0609 02:19:48.360934  5331 net.cpp:129] Top shape: 7 128 14 14 (175616)
I0609 02:19:48.360939  5331 net.cpp:137] Memory required for data: 806428756
I0609 02:19:48.360950  5331 layer_factory.hpp:77] Creating layer scale_stage2_block5_branch2b
I0609 02:19:48.360961  5331 net.cpp:84] Creating Layer scale_stage2_block5_branch2b
I0609 02:19:48.360967  5331 net.cpp:406] scale_stage2_block5_branch2b <- conv_stage2_block5_branch2b
I0609 02:19:48.360976  5331 net.cpp:367] scale_stage2_block5_branch2b -> conv_stage2_block5_branch2b (in-place)
I0609 02:19:48.361037  5331 layer_factory.hpp:77] Creating layer scale_stage2_block5_branch2b
I0609 02:19:48.361202  5331 net.cpp:122] Setting up scale_stage2_block5_branch2b
I0609 02:19:48.361213  5331 net.cpp:129] Top shape: 7 128 14 14 (175616)
I0609 02:19:48.361218  5331 net.cpp:137] Memory required for data: 807131220
I0609 02:19:48.361227  5331 layer_factory.hpp:77] Creating layer relu_stage2_block5_branch2b
I0609 02:19:48.361238  5331 net.cpp:84] Creating Layer relu_stage2_block5_branch2b
I0609 02:19:48.361243  5331 net.cpp:406] relu_stage2_block5_branch2b <- conv_stage2_block5_branch2b
I0609 02:19:48.361253  5331 net.cpp:367] relu_stage2_block5_branch2b -> conv_stage2_block5_branch2b (in-place)
I0609 02:19:48.361261  5331 net.cpp:122] Setting up relu_stage2_block5_branch2b
I0609 02:19:48.361269  5331 net.cpp:129] Top shape: 7 128 14 14 (175616)
I0609 02:19:48.361274  5331 net.cpp:137] Memory required for data: 807833684
I0609 02:19:48.361279  5331 layer_factory.hpp:77] Creating layer conv_stage2_block5_branch2c
I0609 02:19:48.361295  5331 net.cpp:84] Creating Layer conv_stage2_block5_branch2c
I0609 02:19:48.361300  5331 net.cpp:406] conv_stage2_block5_branch2c <- conv_stage2_block5_branch2b
I0609 02:19:48.361313  5331 net.cpp:380] conv_stage2_block5_branch2c -> conv_stage2_block5_branch2c
I0609 02:19:48.362365  5331 net.cpp:122] Setting up conv_stage2_block5_branch2c
I0609 02:19:48.362385  5331 net.cpp:129] Top shape: 7 512 14 14 (702464)
I0609 02:19:48.362390  5331 net.cpp:137] Memory required for data: 810643540
I0609 02:19:48.362396  5331 layer_factory.hpp:77] Creating layer bn_stage2_block5_branch2c
I0609 02:19:48.362402  5331 net.cpp:84] Creating Layer bn_stage2_block5_branch2c
I0609 02:19:48.362406  5331 net.cpp:406] bn_stage2_block5_branch2c <- conv_stage2_block5_branch2c
I0609 02:19:48.362416  5331 net.cpp:367] bn_stage2_block5_branch2c -> conv_stage2_block5_branch2c (in-place)
I0609 02:19:48.363133  5331 net.cpp:122] Setting up bn_stage2_block5_branch2c
I0609 02:19:48.363143  5331 net.cpp:129] Top shape: 7 512 14 14 (702464)
I0609 02:19:48.363147  5331 net.cpp:137] Memory required for data: 813453396
I0609 02:19:48.363155  5331 layer_factory.hpp:77] Creating layer scale_stage2_block5_branch2c
I0609 02:19:48.363162  5331 net.cpp:84] Creating Layer scale_stage2_block5_branch2c
I0609 02:19:48.363167  5331 net.cpp:406] scale_stage2_block5_branch2c <- conv_stage2_block5_branch2c
I0609 02:19:48.363173  5331 net.cpp:367] scale_stage2_block5_branch2c -> conv_stage2_block5_branch2c (in-place)
I0609 02:19:48.363216  5331 layer_factory.hpp:77] Creating layer scale_stage2_block5_branch2c
I0609 02:19:48.363391  5331 net.cpp:122] Setting up scale_stage2_block5_branch2c
I0609 02:19:48.363402  5331 net.cpp:129] Top shape: 7 512 14 14 (702464)
I0609 02:19:48.363409  5331 net.cpp:137] Memory required for data: 816263252
I0609 02:19:48.363418  5331 layer_factory.hpp:77] Creating layer eltwise_stage2_block5
I0609 02:19:48.363432  5331 net.cpp:84] Creating Layer eltwise_stage2_block5
I0609 02:19:48.363440  5331 net.cpp:406] eltwise_stage2_block5 <- eltwise_stage2_block4_relu_stage2_block4_0_split_1
I0609 02:19:48.363447  5331 net.cpp:406] eltwise_stage2_block5 <- conv_stage2_block5_branch2c
I0609 02:19:48.363456  5331 net.cpp:380] eltwise_stage2_block5 -> eltwise_stage2_block5
I0609 02:19:48.363494  5331 net.cpp:122] Setting up eltwise_stage2_block5
I0609 02:19:48.363503  5331 net.cpp:129] Top shape: 7 512 14 14 (702464)
I0609 02:19:48.363508  5331 net.cpp:137] Memory required for data: 819073108
I0609 02:19:48.363513  5331 layer_factory.hpp:77] Creating layer relu_stage2_block5
I0609 02:19:48.363523  5331 net.cpp:84] Creating Layer relu_stage2_block5
I0609 02:19:48.363528  5331 net.cpp:406] relu_stage2_block5 <- eltwise_stage2_block5
I0609 02:19:48.363538  5331 net.cpp:367] relu_stage2_block5 -> eltwise_stage2_block5 (in-place)
I0609 02:19:48.363548  5331 net.cpp:122] Setting up relu_stage2_block5
I0609 02:19:48.363555  5331 net.cpp:129] Top shape: 7 512 14 14 (702464)
I0609 02:19:48.363560  5331 net.cpp:137] Memory required for data: 821882964
I0609 02:19:48.373872  5331 layer_factory.hpp:77] Creating layer eltwise_stage2_block5_relu_stage2_block5_0_split
I0609 02:19:48.373886  5331 net.cpp:84] Creating Layer eltwise_stage2_block5_relu_stage2_block5_0_split
I0609 02:19:48.373893  5331 net.cpp:406] eltwise_stage2_block5_relu_stage2_block5_0_split <- eltwise_stage2_block5
I0609 02:19:48.373903  5331 net.cpp:380] eltwise_stage2_block5_relu_stage2_block5_0_split -> eltwise_stage2_block5_relu_stage2_block5_0_split_0
I0609 02:19:48.373914  5331 net.cpp:380] eltwise_stage2_block5_relu_stage2_block5_0_split -> eltwise_stage2_block5_relu_stage2_block5_0_split_1
I0609 02:19:48.373980  5331 net.cpp:122] Setting up eltwise_stage2_block5_relu_stage2_block5_0_split
I0609 02:19:48.373989  5331 net.cpp:129] Top shape: 7 512 14 14 (702464)
I0609 02:19:48.373996  5331 net.cpp:129] Top shape: 7 512 14 14 (702464)
I0609 02:19:48.373999  5331 net.cpp:137] Memory required for data: 827502676
I0609 02:19:48.374004  5331 layer_factory.hpp:77] Creating layer conv_stage3_block0_proj_shortcut
I0609 02:19:48.374019  5331 net.cpp:84] Creating Layer conv_stage3_block0_proj_shortcut
I0609 02:19:48.374024  5331 net.cpp:406] conv_stage3_block0_proj_shortcut <- eltwise_stage2_block5_relu_stage2_block5_0_split_0
I0609 02:19:48.374033  5331 net.cpp:380] conv_stage3_block0_proj_shortcut -> conv_stage3_block0_proj_shortcut
I0609 02:19:48.378463  5331 net.cpp:122] Setting up conv_stage3_block0_proj_shortcut
I0609 02:19:48.378482  5331 net.cpp:129] Top shape: 7 1024 7 7 (351232)
I0609 02:19:48.378485  5331 net.cpp:137] Memory required for data: 828907604
I0609 02:19:48.378494  5331 layer_factory.hpp:77] Creating layer bn_stage3_block0_proj_shortcut
I0609 02:19:48.378501  5331 net.cpp:84] Creating Layer bn_stage3_block0_proj_shortcut
I0609 02:19:48.378505  5331 net.cpp:406] bn_stage3_block0_proj_shortcut <- conv_stage3_block0_proj_shortcut
I0609 02:19:48.378512  5331 net.cpp:367] bn_stage3_block0_proj_shortcut -> conv_stage3_block0_proj_shortcut (in-place)
I0609 02:19:48.378676  5331 net.cpp:122] Setting up bn_stage3_block0_proj_shortcut
I0609 02:19:48.378682  5331 net.cpp:129] Top shape: 7 1024 7 7 (351232)
I0609 02:19:48.378684  5331 net.cpp:137] Memory required for data: 830312532
I0609 02:19:48.378690  5331 layer_factory.hpp:77] Creating layer scale_stage3_block0_proj_shortcut
I0609 02:19:48.378696  5331 net.cpp:84] Creating Layer scale_stage3_block0_proj_shortcut
I0609 02:19:48.378700  5331 net.cpp:406] scale_stage3_block0_proj_shortcut <- conv_stage3_block0_proj_shortcut
I0609 02:19:48.378702  5331 net.cpp:367] scale_stage3_block0_proj_shortcut -> conv_stage3_block0_proj_shortcut (in-place)
I0609 02:19:48.378758  5331 layer_factory.hpp:77] Creating layer scale_stage3_block0_proj_shortcut
I0609 02:19:48.378897  5331 net.cpp:122] Setting up scale_stage3_block0_proj_shortcut
I0609 02:19:48.378906  5331 net.cpp:129] Top shape: 7 1024 7 7 (351232)
I0609 02:19:48.378911  5331 net.cpp:137] Memory required for data: 831717460
I0609 02:19:48.378918  5331 layer_factory.hpp:77] Creating layer conv_stage3_block0_branch2a
I0609 02:19:48.378932  5331 net.cpp:84] Creating Layer conv_stage3_block0_branch2a
I0609 02:19:48.378938  5331 net.cpp:406] conv_stage3_block0_branch2a <- eltwise_stage2_block5_relu_stage2_block5_0_split_1
I0609 02:19:48.378949  5331 net.cpp:380] conv_stage3_block0_branch2a -> conv_stage3_block0_branch2a
I0609 02:19:48.379941  5331 net.cpp:122] Setting up conv_stage3_block0_branch2a
I0609 02:19:48.379950  5331 net.cpp:129] Top shape: 7 256 7 7 (87808)
I0609 02:19:48.379951  5331 net.cpp:137] Memory required for data: 832068692
I0609 02:19:48.379956  5331 layer_factory.hpp:77] Creating layer bn_stage3_block0_branch2a
I0609 02:19:48.379962  5331 net.cpp:84] Creating Layer bn_stage3_block0_branch2a
I0609 02:19:48.379964  5331 net.cpp:406] bn_stage3_block0_branch2a <- conv_stage3_block0_branch2a
I0609 02:19:48.379971  5331 net.cpp:367] bn_stage3_block0_branch2a -> conv_stage3_block0_branch2a (in-place)
I0609 02:19:48.380120  5331 net.cpp:122] Setting up bn_stage3_block0_branch2a
I0609 02:19:48.380125  5331 net.cpp:129] Top shape: 7 256 7 7 (87808)
I0609 02:19:48.380126  5331 net.cpp:137] Memory required for data: 832419924
I0609 02:19:48.380132  5331 layer_factory.hpp:77] Creating layer scale_stage3_block0_branch2a
I0609 02:19:48.380137  5331 net.cpp:84] Creating Layer scale_stage3_block0_branch2a
I0609 02:19:48.380141  5331 net.cpp:406] scale_stage3_block0_branch2a <- conv_stage3_block0_branch2a
I0609 02:19:48.380146  5331 net.cpp:367] scale_stage3_block0_branch2a -> conv_stage3_block0_branch2a (in-place)
I0609 02:19:48.380174  5331 layer_factory.hpp:77] Creating layer scale_stage3_block0_branch2a
I0609 02:19:48.380255  5331 net.cpp:122] Setting up scale_stage3_block0_branch2a
I0609 02:19:48.380260  5331 net.cpp:129] Top shape: 7 256 7 7 (87808)
I0609 02:19:48.380262  5331 net.cpp:137] Memory required for data: 832771156
I0609 02:19:48.380267  5331 layer_factory.hpp:77] Creating layer relu_stage3_block0_branch2a
I0609 02:19:48.380272  5331 net.cpp:84] Creating Layer relu_stage3_block0_branch2a
I0609 02:19:48.380275  5331 net.cpp:406] relu_stage3_block0_branch2a <- conv_stage3_block0_branch2a
I0609 02:19:48.380280  5331 net.cpp:367] relu_stage3_block0_branch2a -> conv_stage3_block0_branch2a (in-place)
I0609 02:19:48.380283  5331 net.cpp:122] Setting up relu_stage3_block0_branch2a
I0609 02:19:48.380301  5331 net.cpp:129] Top shape: 7 256 7 7 (87808)
I0609 02:19:48.380303  5331 net.cpp:137] Memory required for data: 833122388
I0609 02:19:48.380306  5331 layer_factory.hpp:77] Creating layer conv_stage3_block0_branch2b
I0609 02:19:48.380314  5331 net.cpp:84] Creating Layer conv_stage3_block0_branch2b
I0609 02:19:48.380316  5331 net.cpp:406] conv_stage3_block0_branch2b <- conv_stage3_block0_branch2a
I0609 02:19:48.380322  5331 net.cpp:380] conv_stage3_block0_branch2b -> conv_stage3_block0_branch2b
I0609 02:19:48.385833  5331 net.cpp:122] Setting up conv_stage3_block0_branch2b
I0609 02:19:48.385848  5331 net.cpp:129] Top shape: 7 256 7 7 (87808)
I0609 02:19:48.385854  5331 net.cpp:137] Memory required for data: 833473620
I0609 02:19:48.385862  5331 layer_factory.hpp:77] Creating layer bn_stage3_block0_branch2b
I0609 02:19:48.385874  5331 net.cpp:84] Creating Layer bn_stage3_block0_branch2b
I0609 02:19:48.385879  5331 net.cpp:406] bn_stage3_block0_branch2b <- conv_stage3_block0_branch2b
I0609 02:19:48.385890  5331 net.cpp:367] bn_stage3_block0_branch2b -> conv_stage3_block0_branch2b (in-place)
I0609 02:19:48.386124  5331 net.cpp:122] Setting up bn_stage3_block0_branch2b
I0609 02:19:48.386133  5331 net.cpp:129] Top shape: 7 256 7 7 (87808)
I0609 02:19:48.386138  5331 net.cpp:137] Memory required for data: 833824852
I0609 02:19:48.386148  5331 layer_factory.hpp:77] Creating layer scale_stage3_block0_branch2b
I0609 02:19:48.386155  5331 net.cpp:84] Creating Layer scale_stage3_block0_branch2b
I0609 02:19:48.386159  5331 net.cpp:406] scale_stage3_block0_branch2b <- conv_stage3_block0_branch2b
I0609 02:19:48.386167  5331 net.cpp:367] scale_stage3_block0_branch2b -> conv_stage3_block0_branch2b (in-place)
I0609 02:19:48.386204  5331 layer_factory.hpp:77] Creating layer scale_stage3_block0_branch2b
I0609 02:19:48.386303  5331 net.cpp:122] Setting up scale_stage3_block0_branch2b
I0609 02:19:48.386312  5331 net.cpp:129] Top shape: 7 256 7 7 (87808)
I0609 02:19:48.386313  5331 net.cpp:137] Memory required for data: 834176084
I0609 02:19:48.386318  5331 layer_factory.hpp:77] Creating layer relu_stage3_block0_branch2b
I0609 02:19:48.386323  5331 net.cpp:84] Creating Layer relu_stage3_block0_branch2b
I0609 02:19:48.386327  5331 net.cpp:406] relu_stage3_block0_branch2b <- conv_stage3_block0_branch2b
I0609 02:19:48.386332  5331 net.cpp:367] relu_stage3_block0_branch2b -> conv_stage3_block0_branch2b (in-place)
I0609 02:19:48.386337  5331 net.cpp:122] Setting up relu_stage3_block0_branch2b
I0609 02:19:48.386339  5331 net.cpp:129] Top shape: 7 256 7 7 (87808)
I0609 02:19:48.386343  5331 net.cpp:137] Memory required for data: 834527316
I0609 02:19:48.386344  5331 layer_factory.hpp:77] Creating layer conv_stage3_block0_branch2c
I0609 02:19:48.386355  5331 net.cpp:84] Creating Layer conv_stage3_block0_branch2c
I0609 02:19:48.386358  5331 net.cpp:406] conv_stage3_block0_branch2c <- conv_stage3_block0_branch2b
I0609 02:19:48.386364  5331 net.cpp:380] conv_stage3_block0_branch2c -> conv_stage3_block0_branch2c
I0609 02:19:48.388711  5331 net.cpp:122] Setting up conv_stage3_block0_branch2c
I0609 02:19:48.388721  5331 net.cpp:129] Top shape: 7 1024 7 7 (351232)
I0609 02:19:48.388725  5331 net.cpp:137] Memory required for data: 835932244
I0609 02:19:48.388730  5331 layer_factory.hpp:77] Creating layer bn_stage3_block0_branch2c
I0609 02:19:48.388736  5331 net.cpp:84] Creating Layer bn_stage3_block0_branch2c
I0609 02:19:48.388739  5331 net.cpp:406] bn_stage3_block0_branch2c <- conv_stage3_block0_branch2c
I0609 02:19:48.388746  5331 net.cpp:367] bn_stage3_block0_branch2c -> conv_stage3_block0_branch2c (in-place)
I0609 02:19:48.388912  5331 net.cpp:122] Setting up bn_stage3_block0_branch2c
I0609 02:19:48.388918  5331 net.cpp:129] Top shape: 7 1024 7 7 (351232)
I0609 02:19:48.388921  5331 net.cpp:137] Memory required for data: 837337172
I0609 02:19:48.388927  5331 layer_factory.hpp:77] Creating layer scale_stage3_block0_branch2c
I0609 02:19:48.388931  5331 net.cpp:84] Creating Layer scale_stage3_block0_branch2c
I0609 02:19:48.388934  5331 net.cpp:406] scale_stage3_block0_branch2c <- conv_stage3_block0_branch2c
I0609 02:19:48.388955  5331 net.cpp:367] scale_stage3_block0_branch2c -> conv_stage3_block0_branch2c (in-place)
I0609 02:19:48.389001  5331 layer_factory.hpp:77] Creating layer scale_stage3_block0_branch2c
I0609 02:19:48.389145  5331 net.cpp:122] Setting up scale_stage3_block0_branch2c
I0609 02:19:48.389155  5331 net.cpp:129] Top shape: 7 1024 7 7 (351232)
I0609 02:19:48.389159  5331 net.cpp:137] Memory required for data: 838742100
I0609 02:19:48.389168  5331 layer_factory.hpp:77] Creating layer eltwise_stage3_block0
I0609 02:19:48.389176  5331 net.cpp:84] Creating Layer eltwise_stage3_block0
I0609 02:19:48.389181  5331 net.cpp:406] eltwise_stage3_block0 <- conv_stage3_block0_proj_shortcut
I0609 02:19:48.389187  5331 net.cpp:406] eltwise_stage3_block0 <- conv_stage3_block0_branch2c
I0609 02:19:48.389195  5331 net.cpp:380] eltwise_stage3_block0 -> eltwise_stage3_block0
I0609 02:19:48.389228  5331 net.cpp:122] Setting up eltwise_stage3_block0
I0609 02:19:48.389240  5331 net.cpp:129] Top shape: 7 1024 7 7 (351232)
I0609 02:19:48.389243  5331 net.cpp:137] Memory required for data: 840147028
I0609 02:19:48.389247  5331 layer_factory.hpp:77] Creating layer relu_stage3_block0
I0609 02:19:48.389256  5331 net.cpp:84] Creating Layer relu_stage3_block0
I0609 02:19:48.389259  5331 net.cpp:406] relu_stage3_block0 <- eltwise_stage3_block0
I0609 02:19:48.389266  5331 net.cpp:367] relu_stage3_block0 -> eltwise_stage3_block0 (in-place)
I0609 02:19:48.389274  5331 net.cpp:122] Setting up relu_stage3_block0
I0609 02:19:48.389281  5331 net.cpp:129] Top shape: 7 1024 7 7 (351232)
I0609 02:19:48.389286  5331 net.cpp:137] Memory required for data: 841551956
I0609 02:19:48.389289  5331 layer_factory.hpp:77] Creating layer eltwise_stage3_block0_relu_stage3_block0_0_split
I0609 02:19:48.389297  5331 net.cpp:84] Creating Layer eltwise_stage3_block0_relu_stage3_block0_0_split
I0609 02:19:48.389302  5331 net.cpp:406] eltwise_stage3_block0_relu_stage3_block0_0_split <- eltwise_stage3_block0
I0609 02:19:48.389310  5331 net.cpp:380] eltwise_stage3_block0_relu_stage3_block0_0_split -> eltwise_stage3_block0_relu_stage3_block0_0_split_0
I0609 02:19:48.389320  5331 net.cpp:380] eltwise_stage3_block0_relu_stage3_block0_0_split -> eltwise_stage3_block0_relu_stage3_block0_0_split_1
I0609 02:19:48.389365  5331 net.cpp:122] Setting up eltwise_stage3_block0_relu_stage3_block0_0_split
I0609 02:19:48.389374  5331 net.cpp:129] Top shape: 7 1024 7 7 (351232)
I0609 02:19:48.389379  5331 net.cpp:129] Top shape: 7 1024 7 7 (351232)
I0609 02:19:48.389384  5331 net.cpp:137] Memory required for data: 844361812
I0609 02:19:48.389387  5331 layer_factory.hpp:77] Creating layer conv_stage3_block1_branch2a
I0609 02:19:48.389400  5331 net.cpp:84] Creating Layer conv_stage3_block1_branch2a
I0609 02:19:48.389405  5331 net.cpp:406] conv_stage3_block1_branch2a <- eltwise_stage3_block0_relu_stage3_block0_0_split_0
I0609 02:19:48.389416  5331 net.cpp:380] conv_stage3_block1_branch2a -> conv_stage3_block1_branch2a
I0609 02:19:48.391825  5331 net.cpp:122] Setting up conv_stage3_block1_branch2a
I0609 02:19:48.391835  5331 net.cpp:129] Top shape: 7 256 7 7 (87808)
I0609 02:19:48.391839  5331 net.cpp:137] Memory required for data: 844713044
I0609 02:19:48.391844  5331 layer_factory.hpp:77] Creating layer bn_stage3_block1_branch2a
I0609 02:19:48.391851  5331 net.cpp:84] Creating Layer bn_stage3_block1_branch2a
I0609 02:19:48.391855  5331 net.cpp:406] bn_stage3_block1_branch2a <- conv_stage3_block1_branch2a
I0609 02:19:48.391860  5331 net.cpp:367] bn_stage3_block1_branch2a -> conv_stage3_block1_branch2a (in-place)
I0609 02:19:48.392017  5331 net.cpp:122] Setting up bn_stage3_block1_branch2a
I0609 02:19:48.392024  5331 net.cpp:129] Top shape: 7 256 7 7 (87808)
I0609 02:19:48.392025  5331 net.cpp:137] Memory required for data: 845064276
I0609 02:19:48.392031  5331 layer_factory.hpp:77] Creating layer scale_stage3_block1_branch2a
I0609 02:19:48.392038  5331 net.cpp:84] Creating Layer scale_stage3_block1_branch2a
I0609 02:19:48.392050  5331 net.cpp:406] scale_stage3_block1_branch2a <- conv_stage3_block1_branch2a
I0609 02:19:48.392056  5331 net.cpp:367] scale_stage3_block1_branch2a -> conv_stage3_block1_branch2a (in-place)
I0609 02:19:48.392091  5331 layer_factory.hpp:77] Creating layer scale_stage3_block1_branch2a
I0609 02:19:48.392184  5331 net.cpp:122] Setting up scale_stage3_block1_branch2a
I0609 02:19:48.392189  5331 net.cpp:129] Top shape: 7 256 7 7 (87808)
I0609 02:19:48.392191  5331 net.cpp:137] Memory required for data: 845415508
I0609 02:19:48.392196  5331 layer_factory.hpp:77] Creating layer relu_stage3_block1_branch2a
I0609 02:19:48.392202  5331 net.cpp:84] Creating Layer relu_stage3_block1_branch2a
I0609 02:19:48.392205  5331 net.cpp:406] relu_stage3_block1_branch2a <- conv_stage3_block1_branch2a
I0609 02:19:48.392210  5331 net.cpp:367] relu_stage3_block1_branch2a -> conv_stage3_block1_branch2a (in-place)
I0609 02:19:48.392215  5331 net.cpp:122] Setting up relu_stage3_block1_branch2a
I0609 02:19:48.392218  5331 net.cpp:129] Top shape: 7 256 7 7 (87808)
I0609 02:19:48.392220  5331 net.cpp:137] Memory required for data: 845766740
I0609 02:19:48.392223  5331 layer_factory.hpp:77] Creating layer conv_stage3_block1_branch2b
I0609 02:19:48.392231  5331 net.cpp:84] Creating Layer conv_stage3_block1_branch2b
I0609 02:19:48.392235  5331 net.cpp:406] conv_stage3_block1_branch2b <- conv_stage3_block1_branch2a
I0609 02:19:48.392241  5331 net.cpp:380] conv_stage3_block1_branch2b -> conv_stage3_block1_branch2b
I0609 02:19:48.397891  5331 net.cpp:122] Setting up conv_stage3_block1_branch2b
I0609 02:19:48.397912  5331 net.cpp:129] Top shape: 7 256 7 7 (87808)
I0609 02:19:48.397917  5331 net.cpp:137] Memory required for data: 846117972
I0609 02:19:48.397927  5331 layer_factory.hpp:77] Creating layer bn_stage3_block1_branch2b
I0609 02:19:48.397939  5331 net.cpp:84] Creating Layer bn_stage3_block1_branch2b
I0609 02:19:48.397946  5331 net.cpp:406] bn_stage3_block1_branch2b <- conv_stage3_block1_branch2b
I0609 02:19:48.397958  5331 net.cpp:367] bn_stage3_block1_branch2b -> conv_stage3_block1_branch2b (in-place)
I0609 02:19:48.398181  5331 net.cpp:122] Setting up bn_stage3_block1_branch2b
I0609 02:19:48.398190  5331 net.cpp:129] Top shape: 7 256 7 7 (87808)
I0609 02:19:48.398195  5331 net.cpp:137] Memory required for data: 846469204
I0609 02:19:48.398203  5331 layer_factory.hpp:77] Creating layer scale_stage3_block1_branch2b
I0609 02:19:48.398213  5331 net.cpp:84] Creating Layer scale_stage3_block1_branch2b
I0609 02:19:48.398218  5331 net.cpp:406] scale_stage3_block1_branch2b <- conv_stage3_block1_branch2b
I0609 02:19:48.398224  5331 net.cpp:367] scale_stage3_block1_branch2b -> conv_stage3_block1_branch2b (in-place)
I0609 02:19:48.398290  5331 layer_factory.hpp:77] Creating layer scale_stage3_block1_branch2b
I0609 02:19:48.398419  5331 net.cpp:122] Setting up scale_stage3_block1_branch2b
I0609 02:19:48.398429  5331 net.cpp:129] Top shape: 7 256 7 7 (87808)
I0609 02:19:48.398433  5331 net.cpp:137] Memory required for data: 846820436
I0609 02:19:48.398442  5331 layer_factory.hpp:77] Creating layer relu_stage3_block1_branch2b
I0609 02:19:48.398452  5331 net.cpp:84] Creating Layer relu_stage3_block1_branch2b
I0609 02:19:48.398456  5331 net.cpp:406] relu_stage3_block1_branch2b <- conv_stage3_block1_branch2b
I0609 02:19:48.398463  5331 net.cpp:367] relu_stage3_block1_branch2b -> conv_stage3_block1_branch2b (in-place)
I0609 02:19:48.398471  5331 net.cpp:122] Setting up relu_stage3_block1_branch2b
I0609 02:19:48.398478  5331 net.cpp:129] Top shape: 7 256 7 7 (87808)
I0609 02:19:48.398481  5331 net.cpp:137] Memory required for data: 847171668
I0609 02:19:48.398485  5331 layer_factory.hpp:77] Creating layer conv_stage3_block1_branch2c
I0609 02:19:48.398499  5331 net.cpp:84] Creating Layer conv_stage3_block1_branch2c
I0609 02:19:48.398504  5331 net.cpp:406] conv_stage3_block1_branch2c <- conv_stage3_block1_branch2b
I0609 02:19:48.398512  5331 net.cpp:380] conv_stage3_block1_branch2c -> conv_stage3_block1_branch2c
I0609 02:19:48.400982  5331 net.cpp:122] Setting up conv_stage3_block1_branch2c
I0609 02:19:48.401005  5331 net.cpp:129] Top shape: 7 1024 7 7 (351232)
I0609 02:19:48.401007  5331 net.cpp:137] Memory required for data: 848576596
I0609 02:19:48.401012  5331 layer_factory.hpp:77] Creating layer bn_stage3_block1_branch2c
I0609 02:19:48.401019  5331 net.cpp:84] Creating Layer bn_stage3_block1_branch2c
I0609 02:19:48.401023  5331 net.cpp:406] bn_stage3_block1_branch2c <- conv_stage3_block1_branch2c
I0609 02:19:48.401029  5331 net.cpp:367] bn_stage3_block1_branch2c -> conv_stage3_block1_branch2c (in-place)
I0609 02:19:48.401190  5331 net.cpp:122] Setting up bn_stage3_block1_branch2c
I0609 02:19:48.401196  5331 net.cpp:129] Top shape: 7 1024 7 7 (351232)
I0609 02:19:48.401198  5331 net.cpp:137] Memory required for data: 849981524
I0609 02:19:48.401204  5331 layer_factory.hpp:77] Creating layer scale_stage3_block1_branch2c
I0609 02:19:48.401209  5331 net.cpp:84] Creating Layer scale_stage3_block1_branch2c
I0609 02:19:48.401212  5331 net.cpp:406] scale_stage3_block1_branch2c <- conv_stage3_block1_branch2c
I0609 02:19:48.401216  5331 net.cpp:367] scale_stage3_block1_branch2c -> conv_stage3_block1_branch2c (in-place)
I0609 02:19:48.401252  5331 layer_factory.hpp:77] Creating layer scale_stage3_block1_branch2c
I0609 02:19:48.401345  5331 net.cpp:122] Setting up scale_stage3_block1_branch2c
I0609 02:19:48.401350  5331 net.cpp:129] Top shape: 7 1024 7 7 (351232)
I0609 02:19:48.401352  5331 net.cpp:137] Memory required for data: 851386452
I0609 02:19:48.401356  5331 layer_factory.hpp:77] Creating layer eltwise_stage3_block1
I0609 02:19:48.401362  5331 net.cpp:84] Creating Layer eltwise_stage3_block1
I0609 02:19:48.401365  5331 net.cpp:406] eltwise_stage3_block1 <- eltwise_stage3_block0_relu_stage3_block0_0_split_1
I0609 02:19:48.401370  5331 net.cpp:406] eltwise_stage3_block1 <- conv_stage3_block1_branch2c
I0609 02:19:48.401373  5331 net.cpp:380] eltwise_stage3_block1 -> eltwise_stage3_block1
I0609 02:19:48.401393  5331 net.cpp:122] Setting up eltwise_stage3_block1
I0609 02:19:48.401397  5331 net.cpp:129] Top shape: 7 1024 7 7 (351232)
I0609 02:19:48.401399  5331 net.cpp:137] Memory required for data: 852791380
I0609 02:19:48.401402  5331 layer_factory.hpp:77] Creating layer relu_stage3_block1
I0609 02:19:48.401407  5331 net.cpp:84] Creating Layer relu_stage3_block1
I0609 02:19:48.401409  5331 net.cpp:406] relu_stage3_block1 <- eltwise_stage3_block1
I0609 02:19:48.401414  5331 net.cpp:367] relu_stage3_block1 -> eltwise_stage3_block1 (in-place)
I0609 02:19:48.401418  5331 net.cpp:122] Setting up relu_stage3_block1
I0609 02:19:48.401422  5331 net.cpp:129] Top shape: 7 1024 7 7 (351232)
I0609 02:19:48.401424  5331 net.cpp:137] Memory required for data: 854196308
I0609 02:19:48.401427  5331 layer_factory.hpp:77] Creating layer eltwise_stage3_block1_relu_stage3_block1_0_split
I0609 02:19:48.401430  5331 net.cpp:84] Creating Layer eltwise_stage3_block1_relu_stage3_block1_0_split
I0609 02:19:48.401433  5331 net.cpp:406] eltwise_stage3_block1_relu_stage3_block1_0_split <- eltwise_stage3_block1
I0609 02:19:48.401437  5331 net.cpp:380] eltwise_stage3_block1_relu_stage3_block1_0_split -> eltwise_stage3_block1_relu_stage3_block1_0_split_0
I0609 02:19:48.401443  5331 net.cpp:380] eltwise_stage3_block1_relu_stage3_block1_0_split -> eltwise_stage3_block1_relu_stage3_block1_0_split_1
I0609 02:19:48.401469  5331 net.cpp:122] Setting up eltwise_stage3_block1_relu_stage3_block1_0_split
I0609 02:19:48.401474  5331 net.cpp:129] Top shape: 7 1024 7 7 (351232)
I0609 02:19:48.401477  5331 net.cpp:129] Top shape: 7 1024 7 7 (351232)
I0609 02:19:48.401479  5331 net.cpp:137] Memory required for data: 857006164
I0609 02:19:48.401481  5331 layer_factory.hpp:77] Creating layer conv_stage3_block2_branch2a
I0609 02:19:48.401490  5331 net.cpp:84] Creating Layer conv_stage3_block2_branch2a
I0609 02:19:48.401494  5331 net.cpp:406] conv_stage3_block2_branch2a <- eltwise_stage3_block1_relu_stage3_block1_0_split_0
I0609 02:19:48.401499  5331 net.cpp:380] conv_stage3_block2_branch2a -> conv_stage3_block2_branch2a
I0609 02:19:48.403944  5331 net.cpp:122] Setting up conv_stage3_block2_branch2a
I0609 02:19:48.403954  5331 net.cpp:129] Top shape: 7 256 7 7 (87808)
I0609 02:19:48.403956  5331 net.cpp:137] Memory required for data: 857357396
I0609 02:19:48.403961  5331 layer_factory.hpp:77] Creating layer bn_stage3_block2_branch2a
I0609 02:19:48.403969  5331 net.cpp:84] Creating Layer bn_stage3_block2_branch2a
I0609 02:19:48.403971  5331 net.cpp:406] bn_stage3_block2_branch2a <- conv_stage3_block2_branch2a
I0609 02:19:48.403977  5331 net.cpp:367] bn_stage3_block2_branch2a -> conv_stage3_block2_branch2a (in-place)
I0609 02:19:48.404126  5331 net.cpp:122] Setting up bn_stage3_block2_branch2a
I0609 02:19:48.404131  5331 net.cpp:129] Top shape: 7 256 7 7 (87808)
I0609 02:19:48.404134  5331 net.cpp:137] Memory required for data: 857708628
I0609 02:19:48.404139  5331 layer_factory.hpp:77] Creating layer scale_stage3_block2_branch2a
I0609 02:19:48.404144  5331 net.cpp:84] Creating Layer scale_stage3_block2_branch2a
I0609 02:19:48.404146  5331 net.cpp:406] scale_stage3_block2_branch2a <- conv_stage3_block2_branch2a
I0609 02:19:48.404150  5331 net.cpp:367] scale_stage3_block2_branch2a -> conv_stage3_block2_branch2a (in-place)
I0609 02:19:48.404181  5331 layer_factory.hpp:77] Creating layer scale_stage3_block2_branch2a
I0609 02:19:48.404263  5331 net.cpp:122] Setting up scale_stage3_block2_branch2a
I0609 02:19:48.404268  5331 net.cpp:129] Top shape: 7 256 7 7 (87808)
I0609 02:19:48.404270  5331 net.cpp:137] Memory required for data: 858059860
I0609 02:19:48.404275  5331 layer_factory.hpp:77] Creating layer relu_stage3_block2_branch2a
I0609 02:19:48.404281  5331 net.cpp:84] Creating Layer relu_stage3_block2_branch2a
I0609 02:19:48.404286  5331 net.cpp:406] relu_stage3_block2_branch2a <- conv_stage3_block2_branch2a
I0609 02:19:48.404294  5331 net.cpp:367] relu_stage3_block2_branch2a -> conv_stage3_block2_branch2a (in-place)
I0609 02:19:48.404302  5331 net.cpp:122] Setting up relu_stage3_block2_branch2a
I0609 02:19:48.404309  5331 net.cpp:129] Top shape: 7 256 7 7 (87808)
I0609 02:19:48.404312  5331 net.cpp:137] Memory required for data: 858411092
I0609 02:19:48.404316  5331 layer_factory.hpp:77] Creating layer conv_stage3_block2_branch2b
I0609 02:19:48.404328  5331 net.cpp:84] Creating Layer conv_stage3_block2_branch2b
I0609 02:19:48.404333  5331 net.cpp:406] conv_stage3_block2_branch2b <- conv_stage3_block2_branch2a
I0609 02:19:48.404342  5331 net.cpp:380] conv_stage3_block2_branch2b -> conv_stage3_block2_branch2b
I0609 02:19:48.408885  5331 net.cpp:122] Setting up conv_stage3_block2_branch2b
I0609 02:19:48.408902  5331 net.cpp:129] Top shape: 7 256 7 7 (87808)
I0609 02:19:48.408905  5331 net.cpp:137] Memory required for data: 858762324
I0609 02:19:48.408911  5331 layer_factory.hpp:77] Creating layer bn_stage3_block2_branch2b
I0609 02:19:48.408921  5331 net.cpp:84] Creating Layer bn_stage3_block2_branch2b
I0609 02:19:48.408926  5331 net.cpp:406] bn_stage3_block2_branch2b <- conv_stage3_block2_branch2b
I0609 02:19:48.408933  5331 net.cpp:367] bn_stage3_block2_branch2b -> conv_stage3_block2_branch2b (in-place)
I0609 02:19:48.409090  5331 net.cpp:122] Setting up bn_stage3_block2_branch2b
I0609 02:19:48.409096  5331 net.cpp:129] Top shape: 7 256 7 7 (87808)
I0609 02:19:48.409097  5331 net.cpp:137] Memory required for data: 859113556
I0609 02:19:48.409103  5331 layer_factory.hpp:77] Creating layer scale_stage3_block2_branch2b
I0609 02:19:48.409108  5331 net.cpp:84] Creating Layer scale_stage3_block2_branch2b
I0609 02:19:48.409111  5331 net.cpp:406] scale_stage3_block2_branch2b <- conv_stage3_block2_branch2b
I0609 02:19:48.409116  5331 net.cpp:367] scale_stage3_block2_branch2b -> conv_stage3_block2_branch2b (in-place)
I0609 02:19:48.409153  5331 layer_factory.hpp:77] Creating layer scale_stage3_block2_branch2b
I0609 02:19:48.409236  5331 net.cpp:122] Setting up scale_stage3_block2_branch2b
I0609 02:19:48.409241  5331 net.cpp:129] Top shape: 7 256 7 7 (87808)
I0609 02:19:48.409243  5331 net.cpp:137] Memory required for data: 859464788
I0609 02:19:48.409248  5331 layer_factory.hpp:77] Creating layer relu_stage3_block2_branch2b
I0609 02:19:48.409271  5331 net.cpp:84] Creating Layer relu_stage3_block2_branch2b
I0609 02:19:48.409274  5331 net.cpp:406] relu_stage3_block2_branch2b <- conv_stage3_block2_branch2b
I0609 02:19:48.409279  5331 net.cpp:367] relu_stage3_block2_branch2b -> conv_stage3_block2_branch2b (in-place)
I0609 02:19:48.409284  5331 net.cpp:122] Setting up relu_stage3_block2_branch2b
I0609 02:19:48.409288  5331 net.cpp:129] Top shape: 7 256 7 7 (87808)
I0609 02:19:48.409291  5331 net.cpp:137] Memory required for data: 859816020
I0609 02:19:48.409293  5331 layer_factory.hpp:77] Creating layer conv_stage3_block2_branch2c
I0609 02:19:48.409302  5331 net.cpp:84] Creating Layer conv_stage3_block2_branch2c
I0609 02:19:48.409304  5331 net.cpp:406] conv_stage3_block2_branch2c <- conv_stage3_block2_branch2b
I0609 02:19:48.409310  5331 net.cpp:380] conv_stage3_block2_branch2c -> conv_stage3_block2_branch2c
I0609 02:19:48.411595  5331 net.cpp:122] Setting up conv_stage3_block2_branch2c
I0609 02:19:48.411608  5331 net.cpp:129] Top shape: 7 1024 7 7 (351232)
I0609 02:19:48.411613  5331 net.cpp:137] Memory required for data: 861220948
I0609 02:19:48.411622  5331 layer_factory.hpp:77] Creating layer bn_stage3_block2_branch2c
I0609 02:19:48.411631  5331 net.cpp:84] Creating Layer bn_stage3_block2_branch2c
I0609 02:19:48.411636  5331 net.cpp:406] bn_stage3_block2_branch2c <- conv_stage3_block2_branch2c
I0609 02:19:48.411645  5331 net.cpp:367] bn_stage3_block2_branch2c -> conv_stage3_block2_branch2c (in-place)
I0609 02:19:48.411873  5331 net.cpp:122] Setting up bn_stage3_block2_branch2c
I0609 02:19:48.411881  5331 net.cpp:129] Top shape: 7 1024 7 7 (351232)
I0609 02:19:48.411885  5331 net.cpp:137] Memory required for data: 862625876
I0609 02:19:48.411895  5331 layer_factory.hpp:77] Creating layer scale_stage3_block2_branch2c
I0609 02:19:48.411901  5331 net.cpp:84] Creating Layer scale_stage3_block2_branch2c
I0609 02:19:48.411906  5331 net.cpp:406] scale_stage3_block2_branch2c <- conv_stage3_block2_branch2c
I0609 02:19:48.411922  5331 net.cpp:367] scale_stage3_block2_branch2c -> conv_stage3_block2_branch2c (in-place)
I0609 02:19:48.412053  5331 layer_factory.hpp:77] Creating layer scale_stage3_block2_branch2c
I0609 02:19:48.412148  5331 net.cpp:122] Setting up scale_stage3_block2_branch2c
I0609 02:19:48.412154  5331 net.cpp:129] Top shape: 7 1024 7 7 (351232)
I0609 02:19:48.412156  5331 net.cpp:137] Memory required for data: 864030804
I0609 02:19:48.412161  5331 layer_factory.hpp:77] Creating layer eltwise_stage3_block2
I0609 02:19:48.412168  5331 net.cpp:84] Creating Layer eltwise_stage3_block2
I0609 02:19:48.412171  5331 net.cpp:406] eltwise_stage3_block2 <- eltwise_stage3_block1_relu_stage3_block1_0_split_1
I0609 02:19:48.412175  5331 net.cpp:406] eltwise_stage3_block2 <- conv_stage3_block2_branch2c
I0609 02:19:48.412179  5331 net.cpp:380] eltwise_stage3_block2 -> eltwise_stage3_block2
I0609 02:19:48.412199  5331 net.cpp:122] Setting up eltwise_stage3_block2
I0609 02:19:48.412204  5331 net.cpp:129] Top shape: 7 1024 7 7 (351232)
I0609 02:19:48.412205  5331 net.cpp:137] Memory required for data: 865435732
I0609 02:19:48.412209  5331 layer_factory.hpp:77] Creating layer relu_stage3_block2
I0609 02:19:48.412212  5331 net.cpp:84] Creating Layer relu_stage3_block2
I0609 02:19:48.412215  5331 net.cpp:406] relu_stage3_block2 <- eltwise_stage3_block2
I0609 02:19:48.412220  5331 net.cpp:367] relu_stage3_block2 -> eltwise_stage3_block2 (in-place)
I0609 02:19:48.412223  5331 net.cpp:122] Setting up relu_stage3_block2
I0609 02:19:48.412227  5331 net.cpp:129] Top shape: 7 1024 7 7 (351232)
I0609 02:19:48.412230  5331 net.cpp:137] Memory required for data: 866840660
I0609 02:19:48.412231  5331 layer_factory.hpp:77] Creating layer pool
I0609 02:19:48.412235  5331 net.cpp:84] Creating Layer pool
I0609 02:19:48.412238  5331 net.cpp:406] pool <- eltwise_stage3_block2
I0609 02:19:48.412242  5331 net.cpp:380] pool -> pool
I0609 02:19:48.412261  5331 net.cpp:122] Setting up pool
I0609 02:19:48.412266  5331 net.cpp:129] Top shape: 7 1024 1 1 (7168)
I0609 02:19:48.412277  5331 net.cpp:137] Memory required for data: 866869332
I0609 02:19:48.412281  5331 layer_factory.hpp:77] Creating layer fc_nsfw
I0609 02:19:48.412286  5331 net.cpp:84] Creating Layer fc_nsfw
I0609 02:19:48.412288  5331 net.cpp:406] fc_nsfw <- pool
I0609 02:19:48.412293  5331 net.cpp:380] fc_nsfw -> fc_nsfw
I0609 02:19:48.412395  5331 net.cpp:122] Setting up fc_nsfw
I0609 02:19:48.412400  5331 net.cpp:129] Top shape: 7 2 (14)
I0609 02:19:48.412402  5331 net.cpp:137] Memory required for data: 866869388
I0609 02:19:48.412406  5331 layer_factory.hpp:77] Creating layer fc_nsfw_fc_nsfw_0_split
I0609 02:19:48.412412  5331 net.cpp:84] Creating Layer fc_nsfw_fc_nsfw_0_split
I0609 02:19:48.412415  5331 net.cpp:406] fc_nsfw_fc_nsfw_0_split <- fc_nsfw
I0609 02:19:48.412420  5331 net.cpp:380] fc_nsfw_fc_nsfw_0_split -> fc_nsfw_fc_nsfw_0_split_0
I0609 02:19:48.412425  5331 net.cpp:380] fc_nsfw_fc_nsfw_0_split -> fc_nsfw_fc_nsfw_0_split_1
I0609 02:19:48.412452  5331 net.cpp:122] Setting up fc_nsfw_fc_nsfw_0_split
I0609 02:19:48.412456  5331 net.cpp:129] Top shape: 7 2 (14)
I0609 02:19:48.412458  5331 net.cpp:129] Top shape: 7 2 (14)
I0609 02:19:48.412461  5331 net.cpp:137] Memory required for data: 866869500
I0609 02:19:48.412462  5331 layer_factory.hpp:77] Creating layer loss
I0609 02:19:48.412467  5331 net.cpp:84] Creating Layer loss
I0609 02:19:48.412469  5331 net.cpp:406] loss <- fc_nsfw_fc_nsfw_0_split_0
I0609 02:19:48.412473  5331 net.cpp:406] loss <- label_data_1_split_0
I0609 02:19:48.412477  5331 net.cpp:380] loss -> loss
…
