…
I0415 12:30:58.613988 13100 net.cpp:51] Initializing net from parameters: 
state {
  phase: TRAIN
  level: 0
  stage: ""
}
layer {
  name: "data"
  type: "ImageData"
  top: "data"
  top: "label"
  include {
    phase: TRAIN
  }
  transform_param {
    mirror: true
    crop_size: 227
    mean_file: "nsfwnet2_mean.binaryproto"
  }
  image_data_param {
    source: "/home/dbicho/Documents/datasets/all_labeled_dataset_augmented_finetuning/train.txt"
    batch_size: 14
    shuffle: true
    root_folder: "/home/dbicho/Documents/datasets/all_labeled_dataset_augmented_finetuning/"
  }
}
layer {
  name: "conv1"
  type: "Convolution"
  bottom: "data"
  top: "conv1"
  convolution_param {
    num_output: 64
    kernel_size: 3
    stride: 2
    weight_filler {
      type: "xavier"
    }
  }
}
layer {
  name: "relu_conv1"
  type: "ReLU"
  bottom: "conv1"
  top: "conv1"
}
layer {
  name: "pool1"
  type: "Pooling"
  bottom: "conv1"
  top: "pool1"
  pooling_param {
    pool: MAX
    kernel_size: 3
    stride: 2
  }
}
layer {
  name: "fire2/squeeze1x1"
  type: "Convolution"
  bottom: "pool1"
  top: "fire2/squeeze1x1"
  convolution_param {
    num_output: 16
    kernel_size: 1
    weight_filler {
      type: "xavier"
    }
  }
}
layer {
  name: "fire2/relu_squeeze1x1"
  type: "ReLU"
  bottom: "fire2/squeeze1x1"
  top: "fire2/squeeze1x1"
}
layer {
  name: "fire2/expand1x1"
  type: "Convolution"
  bottom: "fire2/squeeze1x1"
  top: "fire2/expand1x1"
  convolution_param {
    num_output: 64
    kernel_size: 1
    weight_filler {
      type: "xavier"
    }
  }
}
layer {
  name: "fire2/relu_expand1x1"
  type: "ReLU"
  bottom: "fire2/expand1x1"
  top: "fire2/expand1x1"
}
layer {
  name: "fire2/expand3x3"
  type: "Convolution"
  bottom: "fire2/squeeze1x1"
  top: "fire2/expand3x3"
  convolution_param {
    num_output: 64
    pad: 1
    kernel_size: 3
    weight_filler {
      type: "xavier"
    }
  }
}
layer {
  name: "fire2/relu_expand3x3"
  type: "ReLU"
  bottom: "fire2/expand3x3"
  top: "fire2/expand3x3"
}
layer {
  name: "fire2/concat"
  type: "Concat"
  bottom: "fire2/expand1x1"
  bottom: "fire2/expand3x3"
  top: "fire2/concat"
}
layer {
  name: "fire3/squeeze1x1"
  type: "Convolution"
  bottom: "fire2/concat"
  top: "fire3/squeeze1x1"
  convolution_param {
    num_output: 16
    kernel_size: 1
    weight_filler {
      type: "xavier"
    }
  }
}
layer {
  name: "fire3/relu_squeeze1x1"
  type: "ReLU"
  bottom: "fire3/squeeze1x1"
  top: "fire3/squeeze1x1"
}
layer {
  name: "fire3/expand1x1"
  type: "Convolution"
  bottom: "fire3/squeeze1x1"
  top: "fire3/expand1x1"
  convolution_param {
    num_output: 64
    kernel_size: 1
    weight_filler {
      type: "xavier"
    }
  }
}
layer {
  name: "fire3/relu_expand1x1"
  type: "ReLU"
  bottom: "fire3/expand1x1"
  top: "fire3/expand1x1"
}
layer {
  name: "fire3/expand3x3"
  type: "Convolution"
  bottom: "fire3/squeeze1x1"
  top: "fire3/expand3x3"
  convolution_param {
    num_output: 64
    pad: 1
    kernel_size: 3
    weight_filler {
      type: "xavier"
    }
  }
}
layer {
  name: "fire3/relu_expand3x3"
  type: "ReLU"
  bottom: "fire3/expand3x3"
  top: "fire3/expand3x3"
}
layer {
  name: "fire3/concat"
  type: "Concat"
  bottom: "fire3/expand1x1"
  bottom: "fire3/expand3x3"
  top: "fire3/concat"
}
layer {
  name: "pool3"
  type: "Pooling"
  bottom: "fire3/concat"
  top: "pool3"
  pooling_param {
    pool: MAX
    kernel_size: 3
    stride: 2
  }
}
layer {
  name: "fire4/squeeze1x1"
  type: "Convolution"
  bottom: "pool3"
  top: "fire4/squeeze1x1"
  convolution_param {
    num_output: 32
    kernel_size: 1
    weight_filler {
      type: "xavier"
    }
  }
}
layer {
  name: "fire4/relu_squeeze1x1"
  type: "ReLU"
  bottom: "fire4/squeeze1x1"
  top: "fire4/squeeze1x1"
}
layer {
  name: "fire4/expand1x1"
  type: "Convolution"
  bottom: "fire4/squeeze1x1"
  top: "fire4/expand1x1"
  convolution_param {
    num_output: 128
    kernel_size: 1
    weight_filler {
      type: "xavier"
    }
  }
}
layer {
  name: "fire4/relu_expand1x1"
  type: "ReLU"
  bottom: "fire4/expand1x1"
  top: "fire4/expand1x1"
}
layer {
  name: "fire4/expand3x3"
  type: "Convolution"
  bottom: "fire4/squeeze1x1"
  top: "fire4/expand3x3"
  convolution_param {
    num_output: 128
    pad: 1
    kernel_size: 3
    weight_filler {
      type: "xavier"
    }
  }
}
layer {
  name: "fire4/relu_expand3x3"
  type: "ReLU"
  bottom: "fire4/expand3x3"
  top: "fire4/expand3x3"
}
layer {
  name: "fire4/concat"
  type: "Concat"
  bottom: "fire4/expand1x1"
  bottom: "fire4/expand3x3"
  top: "fire4/concat"
}
layer {
  name: "fire5/squeeze1x1"
  type: "Convolution"
  bottom: "fire4/concat"
  top: "fire5/squeeze1x1"
  convolution_param {
    num_output: 32
    kernel_size: 1
    weight_filler {
      type: "xavier"
    }
  }
}
layer {
  name: "fire5/relu_squeeze1x1"
  type: "ReLU"
  bottom: "fire5/squeeze1x1"
  top: "fire5/squeeze1x1"
}
layer {
  name: "fire5/expand1x1"
  type: "Convolution"
  bottom: "fire5/squeeze1x1"
  top: "fire5/expand1x1"
  convolution_param {
    num_output: 128
    kernel_size: 1
    weight_filler {
      type: "xavier"
    }
  }
}
layer {
  name: "fire5/relu_expand1x1"
  type: "ReLU"
  bottom: "fire5/expand1x1"
  top: "fire5/expand1x1"
}
layer {
  name: "fire5/expand3x3"
  type: "Convolution"
  bottom: "fire5/squeeze1x1"
  top: "fire5/expand3x3"
  convolution_param {
    num_output: 128
    pad: 1
    kernel_size: 3
    weight_filler {
      type: "xavier"
    }
  }
}
layer {
  name: "fire5/relu_expand3x3"
  type: "ReLU"
  bottom: "fire5/expand3x3"
  top: "fire5/expand3x3"
}
layer {
  name: "fire5/concat"
  type: "Concat"
  bottom: "fire5/expand1x1"
  bottom: "fire5/expand3x3"
  top: "fire5/concat"
}
layer {
  name: "pool5"
  type: "Pooling"
  bottom: "fire5/concat"
  top: "pool5"
  pooling_param {
    pool: MAX
    kernel_size: 3
    stride: 2
  }
}
layer {
  name: "fire6/squeeze1x1"
  type: "Convolution"
  bottom: "pool5"
  top: "fire6/squeeze1x1"
  convolution_param {
    num_output: 48
    kernel_size: 1
    weight_filler {
      type: "xavier"
    }
  }
}
layer {
  name: "fire6/relu_squeeze1x1"
  type: "ReLU"
  bottom: "fire6/squeeze1x1"
  top: "fire6/squeeze1x1"
}
layer {
  name: "fire6/expand1x1"
  type: "Convolution"
  bottom: "fire6/squeeze1x1"
  top: "fire6/expand1x1"
  convolution_param {
    num_output: 192
    kernel_size: 1
    weight_filler {
      type: "xavier"
    }
  }
}
layer {
  name: "fire6/relu_expand1x1"
  type: "ReLU"
  bottom: "fire6/expand1x1"
  top: "fire6/expand1x1"
}
layer {
  name: "fire6/expand3x3"
  type: "Convolution"
  bottom: "fire6/squeeze1x1"
  top: "fire6/expand3x3"
  convolution_param {
    num_output: 192
    pad: 1
    kernel_size: 3
    weight_filler {
      type: "xavier"
    }
  }
}
layer {
  name: "fire6/relu_expand3x3"
  type: "ReLU"
  bottom: "fire6/expand3x3"
  top: "fire6/expand3x3"
}
layer {
  name: "fire6/concat"
  type: "Concat"
  bottom: "fire6/expand1x1"
  bottom: "fire6/expand3x3"
  top: "fire6/concat"
}
layer {
  name: "fire7/squeeze1x1"
  type: "Convolution"
  bottom: "fire6/concat"
  top: "fire7/squeeze1x1"
  convolution_param {
    num_output: 48
    kernel_size: 1
    weight_filler {
      type: "xavier"
    }
  }
}
layer {
  name: "fire7/relu_squeeze1x1"
  type: "ReLU"
  bottom: "fire7/squeeze1x1"
  top: "fire7/squeeze1x1"
}
layer {
  name: "fire7/expand1x1"
  type: "Convolution"
  bottom: "fire7/squeeze1x1"
  top: "fire7/expand1x1"
  convolution_param {
    num_output: 192
    kernel_size: 1
    weight_filler {
      type: "xavier"
    }
  }
}
layer {
  name: "fire7/relu_expand1x1"
  type: "ReLU"
  bottom: "fire7/expand1x1"
  top: "fire7/expand1x1"
}
layer {
  name: "fire7/expand3x3"
  type: "Convolution"
  bottom: "fire7/squeeze1x1"
  top: "fire7/expand3x3"
  convolution_param {
    num_output: 192
    pad: 1
    kernel_size: 3
    weight_filler {
      type: "xavier"
    }
  }
}
layer {
  name: "fire7/relu_expand3x3"
  type: "ReLU"
  bottom: "fire7/expand3x3"
  top: "fire7/expand3x3"
}
layer {
  name: "fire7/concat"
  type: "Concat"
  bottom: "fire7/expand1x1"
  bottom: "fire7/expand3x3"
  top: "fire7/concat"
}
layer {
  name: "fire8/squeeze1x1"
  type: "Convolution"
  bottom: "fire7/concat"
  top: "fire8/squeeze1x1"
  convolution_param {
    num_output: 64
    kernel_size: 1
    weight_filler {
      type: "xavier"
    }
  }
}
layer {
  name: "fire8/relu_squeeze1x1"
  type: "ReLU"
  bottom: "fire8/squeeze1x1"
  top: "fire8/squeeze1x1"
}
layer {
  name: "fire8/expand1x1"
  type: "Convolution"
  bottom: "fire8/squeeze1x1"
  top: "fire8/expand1x1"
  convolution_param {
    num_output: 256
    kernel_size: 1
    weight_filler {
      type: "xavier"
    }
  }
}
layer {
  name: "fire8/relu_expand1x1"
  type: "ReLU"
  bottom: "fire8/expand1x1"
  top: "fire8/expand1x1"
}
layer {
  name: "fire8/expand3x3"
  type: "Convolution"
  bottom: "fire8/squeeze1x1"
  top: "fire8/expand3x3"
  convolution_param {
    num_output: 256
    pad: 1
    kernel_size: 3
    weight_filler {
      type: "xavier"
    }
  }
}
layer {
  name: "fire8/relu_expand3x3"
  type: "ReLU"
  bottom: "fire8/expand3x3"
  top: "fire8/expand3x3"
}
layer {
  name: "fire8/concat"
  type: "Concat"
  bottom: "fire8/expand1x1"
  bottom: "fire8/expand3x3"
  top: "fire8/concat"
}
layer {
  name: "fire9/squeeze1x1"
  type: "Convolution"
  bottom: "fire8/concat"
  top: "fire9/squeeze1x1"
  convolution_param {
    num_output: 64
    kernel_size: 1
    weight_filler {
      type: "xavier"
    }
  }
}
layer {
  name: "fire9/relu_squeeze1x1"
  type: "ReLU"
  bottom: "fire9/squeeze1x1"
  top: "fire9/squeeze1x1"
}
layer {
  name: "fire9/expand1x1"
  type: "Convolution"
  bottom: "fire9/squeeze1x1"
  top: "fire9/expand1x1"
  convolution_param {
    num_output: 256
    kernel_size: 1
    weight_filler {
      type: "xavier"
    }
  }
}
layer {
  name: "fire9/relu_expand1x1"
  type: "ReLU"
  bottom: "fire9/expand1x1"
  top: "fire9/expand1x1"
}
layer {
  name: "fire9/expand3x3"
  type: "Convolution"
  bottom: "fire9/squeeze1x1"
  top: "fire9/expand3x3"
  convolution_param {
    num_output: 256
    pad: 1
    kernel_size: 3
    weight_filler {
      type: "xavier"
    }
  }
}
layer {
  name: "fire9/relu_expand3x3"
  type: "ReLU"
  bottom: "fire9/expand3x3"
  top: "fire9/expand3x3"
}
layer {
  name: "fire9/concat"
  type: "Concat"
  bottom: "fire9/expand1x1"
  bottom: "fire9/expand3x3"
  top: "fire9/concat"
}
layer {
  name: "drop9"
  type: "Dropout"
  bottom: "fire9/concat"
  top: "fire9/concat"
  dropout_param {
    dropout_ratio: 0.5
  }
}
layer {
  name: "conv10"
  type: "Convolution"
  bottom: "fire9/concat"
  top: "conv10"
  convolution_param {
    num_output: 2
    kernel_size: 1
    weight_filler {
      type: "gaussian"
      mean: 0
      std: 0.01
    }
  }
}
layer {
  name: "relu_conv10"
  type: "ReLU"
  bottom: "conv10"
  top: "conv10"
}
layer {
  name: "pool10"
  type: "Pooling"
  bottom: "conv10"
  top: "pool10"
  pooling_param {
    pool: AVE
    global_pooling: true
  }
}
layer {
  name: "loss"
  type: "SoftmaxWithLoss"
  bottom: "pool10"
  bottom: "label"
  top: "loss"
}
layer {
  name: "accuracy"
  type: "Accuracy"
  bottom: "pool10"
  bottom: "label"
  top: "accuracy"
}
I0415 12:30:58.614473 13100 layer_factory.hpp:77] Creating layer data
I0415 12:30:58.614521 13100 net.cpp:84] Creating Layer data
I0415 12:30:58.614534 13100 net.cpp:380] data -> data
I0415 12:30:58.614565 13100 net.cpp:380] data -> label
I0415 12:30:58.614584 13100 data_transformer.cpp:25] Loading mean file from: nsfwnet2_mean.binaryproto
I0415 12:30:58.631359 13100 image_data_layer.cpp:38] Opening file /home/dbicho/Documents/datasets/all_labeled_dataset_augmented_finetuning/train.txt
I0415 12:30:58.642683 13100 image_data_layer.cpp:53] Shuffling data
I0415 12:30:58.648273 13100 image_data_layer.cpp:63] A total of 19955 images.
I0415 12:30:58.801259 13100 image_data_layer.cpp:90] output data size: 14,3,227,227
I0415 12:30:58.818017 13100 net.cpp:122] Setting up data
I0415 12:30:58.818044 13100 net.cpp:129] Top shape: 14 3 227 227 (2164218)
I0415 12:30:58.818048 13100 net.cpp:129] Top shape: 14 (14)
I0415 12:30:58.818051 13100 net.cpp:137] Memory required for data: 8656928
I0415 12:30:58.818058 13100 layer_factory.hpp:77] Creating layer label_data_1_split
I0415 12:30:58.818074 13100 net.cpp:84] Creating Layer label_data_1_split
I0415 12:30:58.818083 13100 net.cpp:406] label_data_1_split <- label
I0415 12:30:58.818099 13100 net.cpp:380] label_data_1_split -> label_data_1_split_0
I0415 12:30:58.818114 13100 net.cpp:380] label_data_1_split -> label_data_1_split_1
I0415 12:30:58.818172 13100 net.cpp:122] Setting up label_data_1_split
I0415 12:30:58.818182 13100 net.cpp:129] Top shape: 14 (14)
I0415 12:30:58.818187 13100 net.cpp:129] Top shape: 14 (14)
I0415 12:30:58.818190 13100 net.cpp:137] Memory required for data: 8657040
I0415 12:30:58.818194 13100 layer_factory.hpp:77] Creating layer conv1
I0415 12:30:58.818214 13100 net.cpp:84] Creating Layer conv1
I0415 12:30:58.818220 13100 net.cpp:406] conv1 <- data
I0415 12:30:58.818228 13100 net.cpp:380] conv1 -> conv1
I0415 12:30:58.819898 13100 net.cpp:122] Setting up conv1
I0415 12:30:58.819914 13100 net.cpp:129] Top shape: 14 64 113 113 (11441024)
I0415 12:30:58.819919 13100 net.cpp:137] Memory required for data: 54421136
I0415 12:30:58.819943 13100 layer_factory.hpp:77] Creating layer relu_conv1
I0415 12:30:58.819955 13100 net.cpp:84] Creating Layer relu_conv1
I0415 12:30:58.819960 13100 net.cpp:406] relu_conv1 <- conv1
I0415 12:30:58.819967 13100 net.cpp:367] relu_conv1 -> conv1 (in-place)
I0415 12:30:58.819977 13100 net.cpp:122] Setting up relu_conv1
I0415 12:30:58.819984 13100 net.cpp:129] Top shape: 14 64 113 113 (11441024)
I0415 12:30:58.819990 13100 net.cpp:137] Memory required for data: 100185232
I0415 12:30:58.819994 13100 layer_factory.hpp:77] Creating layer pool1
I0415 12:30:58.820003 13100 net.cpp:84] Creating Layer pool1
I0415 12:30:58.820009 13100 net.cpp:406] pool1 <- conv1
I0415 12:30:58.820015 13100 net.cpp:380] pool1 -> pool1
I0415 12:30:58.820077 13100 net.cpp:122] Setting up pool1
I0415 12:30:58.820089 13100 net.cpp:129] Top shape: 14 64 56 56 (2809856)
I0415 12:30:58.820096 13100 net.cpp:137] Memory required for data: 111424656
I0415 12:30:58.820099 13100 layer_factory.hpp:77] Creating layer fire2/squeeze1x1
I0415 12:30:58.820111 13100 net.cpp:84] Creating Layer fire2/squeeze1x1
I0415 12:30:58.820116 13100 net.cpp:406] fire2/squeeze1x1 <- pool1
I0415 12:30:58.820124 13100 net.cpp:380] fire2/squeeze1x1 -> fire2/squeeze1x1
I0415 12:30:58.821962 13100 net.cpp:122] Setting up fire2/squeeze1x1
I0415 12:30:58.821979 13100 net.cpp:129] Top shape: 14 16 56 56 (702464)
I0415 12:30:58.821985 13100 net.cpp:137] Memory required for data: 114234512
I0415 12:30:58.822000 13100 layer_factory.hpp:77] Creating layer fire2/relu_squeeze1x1
I0415 12:30:58.822008 13100 net.cpp:84] Creating Layer fire2/relu_squeeze1x1
I0415 12:30:58.822016 13100 net.cpp:406] fire2/relu_squeeze1x1 <- fire2/squeeze1x1
I0415 12:30:58.822023 13100 net.cpp:367] fire2/relu_squeeze1x1 -> fire2/squeeze1x1 (in-place)
I0415 12:30:58.822033 13100 net.cpp:122] Setting up fire2/relu_squeeze1x1
I0415 12:30:58.822041 13100 net.cpp:129] Top shape: 14 16 56 56 (702464)
I0415 12:30:58.822046 13100 net.cpp:137] Memory required for data: 117044368
I0415 12:30:58.822051 13100 layer_factory.hpp:77] Creating layer fire2/squeeze1x1_fire2/relu_squeeze1x1_0_split
I0415 12:30:58.822058 13100 net.cpp:84] Creating Layer fire2/squeeze1x1_fire2/relu_squeeze1x1_0_split
I0415 12:30:58.822064 13100 net.cpp:406] fire2/squeeze1x1_fire2/relu_squeeze1x1_0_split <- fire2/squeeze1x1
I0415 12:30:58.822072 13100 net.cpp:380] fire2/squeeze1x1_fire2/relu_squeeze1x1_0_split -> fire2/squeeze1x1_fire2/relu_squeeze1x1_0_split_0
I0415 12:30:58.822104 13100 net.cpp:380] fire2/squeeze1x1_fire2/relu_squeeze1x1_0_split -> fire2/squeeze1x1_fire2/relu_squeeze1x1_0_split_1
I0415 12:30:58.822160 13100 net.cpp:122] Setting up fire2/squeeze1x1_fire2/relu_squeeze1x1_0_split
I0415 12:30:58.822171 13100 net.cpp:129] Top shape: 14 16 56 56 (702464)
I0415 12:30:58.822178 13100 net.cpp:129] Top shape: 14 16 56 56 (702464)
I0415 12:30:58.822185 13100 net.cpp:137] Memory required for data: 122664080
I0415 12:30:58.822188 13100 layer_factory.hpp:77] Creating layer fire2/expand1x1
I0415 12:30:58.822202 13100 net.cpp:84] Creating Layer fire2/expand1x1
I0415 12:30:58.822208 13100 net.cpp:406] fire2/expand1x1 <- fire2/squeeze1x1_fire2/relu_squeeze1x1_0_split_0
I0415 12:30:58.822216 13100 net.cpp:380] fire2/expand1x1 -> fire2/expand1x1
I0415 12:30:58.822520 13100 net.cpp:122] Setting up fire2/expand1x1
I0415 12:30:58.822535 13100 net.cpp:129] Top shape: 14 64 56 56 (2809856)
I0415 12:30:58.822540 13100 net.cpp:137] Memory required for data: 133903504
I0415 12:30:58.822552 13100 layer_factory.hpp:77] Creating layer fire2/relu_expand1x1
I0415 12:30:58.822562 13100 net.cpp:84] Creating Layer fire2/relu_expand1x1
I0415 12:30:58.822568 13100 net.cpp:406] fire2/relu_expand1x1 <- fire2/expand1x1
I0415 12:30:58.822576 13100 net.cpp:367] fire2/relu_expand1x1 -> fire2/expand1x1 (in-place)
I0415 12:30:58.822587 13100 net.cpp:122] Setting up fire2/relu_expand1x1
I0415 12:30:58.822593 13100 net.cpp:129] Top shape: 14 64 56 56 (2809856)
I0415 12:30:58.822599 13100 net.cpp:137] Memory required for data: 145142928
I0415 12:30:58.822603 13100 layer_factory.hpp:77] Creating layer fire2/expand3x3
I0415 12:30:58.822615 13100 net.cpp:84] Creating Layer fire2/expand3x3
I0415 12:30:58.822621 13100 net.cpp:406] fire2/expand3x3 <- fire2/squeeze1x1_fire2/relu_squeeze1x1_0_split_1
I0415 12:30:58.822629 13100 net.cpp:380] fire2/expand3x3 -> fire2/expand3x3
I0415 12:30:58.823014 13100 net.cpp:122] Setting up fire2/expand3x3
I0415 12:30:58.823029 13100 net.cpp:129] Top shape: 14 64 56 56 (2809856)
I0415 12:30:58.823035 13100 net.cpp:137] Memory required for data: 156382352
I0415 12:30:58.823042 13100 layer_factory.hpp:77] Creating layer fire2/relu_expand3x3
I0415 12:30:58.823052 13100 net.cpp:84] Creating Layer fire2/relu_expand3x3
I0415 12:30:58.823057 13100 net.cpp:406] fire2/relu_expand3x3 <- fire2/expand3x3
I0415 12:30:58.823065 13100 net.cpp:367] fire2/relu_expand3x3 -> fire2/expand3x3 (in-place)
I0415 12:30:58.823074 13100 net.cpp:122] Setting up fire2/relu_expand3x3
I0415 12:30:58.823082 13100 net.cpp:129] Top shape: 14 64 56 56 (2809856)
I0415 12:30:58.823087 13100 net.cpp:137] Memory required for data: 167621776
I0415 12:30:58.823091 13100 layer_factory.hpp:77] Creating layer fire2/concat
I0415 12:30:58.823099 13100 net.cpp:84] Creating Layer fire2/concat
I0415 12:30:58.823105 13100 net.cpp:406] fire2/concat <- fire2/expand1x1
I0415 12:30:58.823112 13100 net.cpp:406] fire2/concat <- fire2/expand3x3
I0415 12:30:58.823120 13100 net.cpp:380] fire2/concat -> fire2/concat
I0415 12:30:58.823153 13100 net.cpp:122] Setting up fire2/concat
I0415 12:30:58.823163 13100 net.cpp:129] Top shape: 14 128 56 56 (5619712)
I0415 12:30:58.823168 13100 net.cpp:137] Memory required for data: 190100624
I0415 12:30:58.823173 13100 layer_factory.hpp:77] Creating layer fire3/squeeze1x1
I0415 12:30:58.823184 13100 net.cpp:84] Creating Layer fire3/squeeze1x1
I0415 12:30:58.823189 13100 net.cpp:406] fire3/squeeze1x1 <- fire2/concat
I0415 12:30:58.823197 13100 net.cpp:380] fire3/squeeze1x1 -> fire3/squeeze1x1
I0415 12:30:58.823478 13100 net.cpp:122] Setting up fire3/squeeze1x1
I0415 12:30:58.823493 13100 net.cpp:129] Top shape: 14 16 56 56 (702464)
I0415 12:30:58.823499 13100 net.cpp:137] Memory required for data: 192910480
I0415 12:30:58.823513 13100 layer_factory.hpp:77] Creating layer fire3/relu_squeeze1x1
I0415 12:30:58.823523 13100 net.cpp:84] Creating Layer fire3/relu_squeeze1x1
I0415 12:30:58.823529 13100 net.cpp:406] fire3/relu_squeeze1x1 <- fire3/squeeze1x1
I0415 12:30:58.823551 13100 net.cpp:367] fire3/relu_squeeze1x1 -> fire3/squeeze1x1 (in-place)
I0415 12:30:58.823562 13100 net.cpp:122] Setting up fire3/relu_squeeze1x1
I0415 12:30:58.823570 13100 net.cpp:129] Top shape: 14 16 56 56 (702464)
I0415 12:30:58.823575 13100 net.cpp:137] Memory required for data: 195720336
I0415 12:30:58.823580 13100 layer_factory.hpp:77] Creating layer fire3/squeeze1x1_fire3/relu_squeeze1x1_0_split
I0415 12:30:58.823590 13100 net.cpp:84] Creating Layer fire3/squeeze1x1_fire3/relu_squeeze1x1_0_split
I0415 12:30:58.823596 13100 net.cpp:406] fire3/squeeze1x1_fire3/relu_squeeze1x1_0_split <- fire3/squeeze1x1
I0415 12:30:58.823604 13100 net.cpp:380] fire3/squeeze1x1_fire3/relu_squeeze1x1_0_split -> fire3/squeeze1x1_fire3/relu_squeeze1x1_0_split_0
I0415 12:30:58.823616 13100 net.cpp:380] fire3/squeeze1x1_fire3/relu_squeeze1x1_0_split -> fire3/squeeze1x1_fire3/relu_squeeze1x1_0_split_1
I0415 12:30:58.823665 13100 net.cpp:122] Setting up fire3/squeeze1x1_fire3/relu_squeeze1x1_0_split
I0415 12:30:58.823676 13100 net.cpp:129] Top shape: 14 16 56 56 (702464)
I0415 12:30:58.823683 13100 net.cpp:129] Top shape: 14 16 56 56 (702464)
I0415 12:30:58.823688 13100 net.cpp:137] Memory required for data: 201340048
I0415 12:30:58.823693 13100 layer_factory.hpp:77] Creating layer fire3/expand1x1
I0415 12:30:58.823710 13100 net.cpp:84] Creating Layer fire3/expand1x1
I0415 12:30:58.823716 13100 net.cpp:406] fire3/expand1x1 <- fire3/squeeze1x1_fire3/relu_squeeze1x1_0_split_0
I0415 12:30:58.823725 13100 net.cpp:380] fire3/expand1x1 -> fire3/expand1x1
I0415 12:30:58.824010 13100 net.cpp:122] Setting up fire3/expand1x1
I0415 12:30:58.824025 13100 net.cpp:129] Top shape: 14 64 56 56 (2809856)
I0415 12:30:58.824031 13100 net.cpp:137] Memory required for data: 212579472
I0415 12:30:58.824040 13100 layer_factory.hpp:77] Creating layer fire3/relu_expand1x1
I0415 12:30:58.824049 13100 net.cpp:84] Creating Layer fire3/relu_expand1x1
I0415 12:30:58.824055 13100 net.cpp:406] fire3/relu_expand1x1 <- fire3/expand1x1
I0415 12:30:58.824064 13100 net.cpp:367] fire3/relu_expand1x1 -> fire3/expand1x1 (in-place)
I0415 12:30:58.824072 13100 net.cpp:122] Setting up fire3/relu_expand1x1
I0415 12:30:58.824079 13100 net.cpp:129] Top shape: 14 64 56 56 (2809856)
I0415 12:30:58.824084 13100 net.cpp:137] Memory required for data: 223818896
I0415 12:30:58.824088 13100 layer_factory.hpp:77] Creating layer fire3/expand3x3
I0415 12:30:58.824100 13100 net.cpp:84] Creating Layer fire3/expand3x3
I0415 12:30:58.824105 13100 net.cpp:406] fire3/expand3x3 <- fire3/squeeze1x1_fire3/relu_squeeze1x1_0_split_1
I0415 12:30:58.824113 13100 net.cpp:380] fire3/expand3x3 -> fire3/expand3x3
I0415 12:30:58.824481 13100 net.cpp:122] Setting up fire3/expand3x3
I0415 12:30:58.824496 13100 net.cpp:129] Top shape: 14 64 56 56 (2809856)
I0415 12:30:58.824502 13100 net.cpp:137] Memory required for data: 235058320
I0415 12:30:58.824512 13100 layer_factory.hpp:77] Creating layer fire3/relu_expand3x3
I0415 12:30:58.824520 13100 net.cpp:84] Creating Layer fire3/relu_expand3x3
I0415 12:30:58.824527 13100 net.cpp:406] fire3/relu_expand3x3 <- fire3/expand3x3
I0415 12:30:58.824537 13100 net.cpp:367] fire3/relu_expand3x3 -> fire3/expand3x3 (in-place)
I0415 12:30:58.824546 13100 net.cpp:122] Setting up fire3/relu_expand3x3
I0415 12:30:58.824553 13100 net.cpp:129] Top shape: 14 64 56 56 (2809856)
I0415 12:30:58.824558 13100 net.cpp:137] Memory required for data: 246297744
I0415 12:30:58.824563 13100 layer_factory.hpp:77] Creating layer fire3/concat
I0415 12:30:58.824571 13100 net.cpp:84] Creating Layer fire3/concat
I0415 12:30:58.824576 13100 net.cpp:406] fire3/concat <- fire3/expand1x1
I0415 12:30:58.824582 13100 net.cpp:406] fire3/concat <- fire3/expand3x3
I0415 12:30:58.824590 13100 net.cpp:380] fire3/concat -> fire3/concat
I0415 12:30:58.824622 13100 net.cpp:122] Setting up fire3/concat
I0415 12:30:58.824632 13100 net.cpp:129] Top shape: 14 128 56 56 (5619712)
I0415 12:30:58.824637 13100 net.cpp:137] Memory required for data: 268776592
I0415 12:30:58.824653 13100 layer_factory.hpp:77] Creating layer pool3
I0415 12:30:58.824663 13100 net.cpp:84] Creating Layer pool3
I0415 12:30:58.824669 13100 net.cpp:406] pool3 <- fire3/concat
I0415 12:30:58.824677 13100 net.cpp:380] pool3 -> pool3
I0415 12:30:58.824724 13100 net.cpp:122] Setting up pool3
I0415 12:30:58.824734 13100 net.cpp:129] Top shape: 14 128 28 28 (1404928)
I0415 12:30:58.824739 13100 net.cpp:137] Memory required for data: 274396304
I0415 12:30:58.824744 13100 layer_factory.hpp:77] Creating layer fire4/squeeze1x1
I0415 12:30:58.824756 13100 net.cpp:84] Creating Layer fire4/squeeze1x1
I0415 12:30:58.824761 13100 net.cpp:406] fire4/squeeze1x1 <- pool3
I0415 12:30:58.824770 13100 net.cpp:380] fire4/squeeze1x1 -> fire4/squeeze1x1
I0415 12:30:58.825084 13100 net.cpp:122] Setting up fire4/squeeze1x1
I0415 12:30:58.825098 13100 net.cpp:129] Top shape: 14 32 28 28 (351232)
I0415 12:30:58.825103 13100 net.cpp:137] Memory required for data: 275801232
I0415 12:30:58.825110 13100 layer_factory.hpp:77] Creating layer fire4/relu_squeeze1x1
I0415 12:30:58.825116 13100 net.cpp:84] Creating Layer fire4/relu_squeeze1x1
I0415 12:30:58.825122 13100 net.cpp:406] fire4/relu_squeeze1x1 <- fire4/squeeze1x1
I0415 12:30:58.825129 13100 net.cpp:367] fire4/relu_squeeze1x1 -> fire4/squeeze1x1 (in-place)
I0415 12:30:58.825136 13100 net.cpp:122] Setting up fire4/relu_squeeze1x1
I0415 12:30:58.825142 13100 net.cpp:129] Top shape: 14 32 28 28 (351232)
I0415 12:30:58.825148 13100 net.cpp:137] Memory required for data: 277206160
I0415 12:30:58.825151 13100 layer_factory.hpp:77] Creating layer fire4/squeeze1x1_fire4/relu_squeeze1x1_0_split
I0415 12:30:58.825157 13100 net.cpp:84] Creating Layer fire4/squeeze1x1_fire4/relu_squeeze1x1_0_split
I0415 12:30:58.825160 13100 net.cpp:406] fire4/squeeze1x1_fire4/relu_squeeze1x1_0_split <- fire4/squeeze1x1
I0415 12:30:58.825167 13100 net.cpp:380] fire4/squeeze1x1_fire4/relu_squeeze1x1_0_split -> fire4/squeeze1x1_fire4/relu_squeeze1x1_0_split_0
I0415 12:30:58.825176 13100 net.cpp:380] fire4/squeeze1x1_fire4/relu_squeeze1x1_0_split -> fire4/squeeze1x1_fire4/relu_squeeze1x1_0_split_1
I0415 12:30:58.825217 13100 net.cpp:122] Setting up fire4/squeeze1x1_fire4/relu_squeeze1x1_0_split
I0415 12:30:58.825227 13100 net.cpp:129] Top shape: 14 32 28 28 (351232)
I0415 12:30:58.825234 13100 net.cpp:129] Top shape: 14 32 28 28 (351232)
I0415 12:30:58.825239 13100 net.cpp:137] Memory required for data: 280016016
I0415 12:30:58.825243 13100 layer_factory.hpp:77] Creating layer fire4/expand1x1
I0415 12:30:58.825253 13100 net.cpp:84] Creating Layer fire4/expand1x1
I0415 12:30:58.825260 13100 net.cpp:406] fire4/expand1x1 <- fire4/squeeze1x1_fire4/relu_squeeze1x1_0_split_0
I0415 12:30:58.825269 13100 net.cpp:380] fire4/expand1x1 -> fire4/expand1x1
I0415 12:30:58.825580 13100 net.cpp:122] Setting up fire4/expand1x1
I0415 12:30:58.825595 13100 net.cpp:129] Top shape: 14 128 28 28 (1404928)
I0415 12:30:58.825600 13100 net.cpp:137] Memory required for data: 285635728
I0415 12:30:58.825614 13100 layer_factory.hpp:77] Creating layer fire4/relu_expand1x1
I0415 12:30:58.825624 13100 net.cpp:84] Creating Layer fire4/relu_expand1x1
I0415 12:30:58.825630 13100 net.cpp:406] fire4/relu_expand1x1 <- fire4/expand1x1
I0415 12:30:58.825639 13100 net.cpp:367] fire4/relu_expand1x1 -> fire4/expand1x1 (in-place)
I0415 12:30:58.825647 13100 net.cpp:122] Setting up fire4/relu_expand1x1
I0415 12:30:58.825654 13100 net.cpp:129] Top shape: 14 128 28 28 (1404928)
I0415 12:30:58.825659 13100 net.cpp:137] Memory required for data: 291255440
I0415 12:30:58.825664 13100 layer_factory.hpp:77] Creating layer fire4/expand3x3
I0415 12:30:58.825673 13100 net.cpp:84] Creating Layer fire4/expand3x3
I0415 12:30:58.825680 13100 net.cpp:406] fire4/expand3x3 <- fire4/squeeze1x1_fire4/relu_squeeze1x1_0_split_1
I0415 12:30:58.825688 13100 net.cpp:380] fire4/expand3x3 -> fire4/expand3x3
I0415 12:30:58.826954 13100 net.cpp:122] Setting up fire4/expand3x3
I0415 12:30:58.826970 13100 net.cpp:129] Top shape: 14 128 28 28 (1404928)
I0415 12:30:58.826977 13100 net.cpp:137] Memory required for data: 296875152
I0415 12:30:58.827000 13100 layer_factory.hpp:77] Creating layer fire4/relu_expand3x3
I0415 12:30:58.827010 13100 net.cpp:84] Creating Layer fire4/relu_expand3x3
I0415 12:30:58.827016 13100 net.cpp:406] fire4/relu_expand3x3 <- fire4/expand3x3
I0415 12:30:58.827024 13100 net.cpp:367] fire4/relu_expand3x3 -> fire4/expand3x3 (in-place)
I0415 12:30:58.827033 13100 net.cpp:122] Setting up fire4/relu_expand3x3
I0415 12:30:58.827039 13100 net.cpp:129] Top shape: 14 128 28 28 (1404928)
I0415 12:30:58.827040 13100 net.cpp:137] Memory required for data: 302494864
I0415 12:30:58.827044 13100 layer_factory.hpp:77] Creating layer fire4/concat
I0415 12:30:58.827049 13100 net.cpp:84] Creating Layer fire4/concat
I0415 12:30:58.827054 13100 net.cpp:406] fire4/concat <- fire4/expand1x1
I0415 12:30:58.827059 13100 net.cpp:406] fire4/concat <- fire4/expand3x3
I0415 12:30:58.827064 13100 net.cpp:380] fire4/concat -> fire4/concat
I0415 12:30:58.827090 13100 net.cpp:122] Setting up fire4/concat
I0415 12:30:58.827096 13100 net.cpp:129] Top shape: 14 256 28 28 (2809856)
I0415 12:30:58.827100 13100 net.cpp:137] Memory required for data: 313734288
I0415 12:30:58.827103 13100 layer_factory.hpp:77] Creating layer fire5/squeeze1x1
I0415 12:30:58.827111 13100 net.cpp:84] Creating Layer fire5/squeeze1x1
I0415 12:30:58.827116 13100 net.cpp:406] fire5/squeeze1x1 <- fire4/concat
I0415 12:30:58.827121 13100 net.cpp:380] fire5/squeeze1x1 -> fire5/squeeze1x1
I0415 12:30:58.827479 13100 net.cpp:122] Setting up fire5/squeeze1x1
I0415 12:30:58.827494 13100 net.cpp:129] Top shape: 14 32 28 28 (351232)
I0415 12:30:58.827500 13100 net.cpp:137] Memory required for data: 315139216
I0415 12:30:58.827508 13100 layer_factory.hpp:77] Creating layer fire5/relu_squeeze1x1
I0415 12:30:58.827518 13100 net.cpp:84] Creating Layer fire5/relu_squeeze1x1
I0415 12:30:58.827524 13100 net.cpp:406] fire5/relu_squeeze1x1 <- fire5/squeeze1x1
I0415 12:30:58.827533 13100 net.cpp:367] fire5/relu_squeeze1x1 -> fire5/squeeze1x1 (in-place)
I0415 12:30:58.827543 13100 net.cpp:122] Setting up fire5/relu_squeeze1x1
I0415 12:30:58.827549 13100 net.cpp:129] Top shape: 14 32 28 28 (351232)
I0415 12:30:58.827554 13100 net.cpp:137] Memory required for data: 316544144
I0415 12:30:58.827558 13100 layer_factory.hpp:77] Creating layer fire5/squeeze1x1_fire5/relu_squeeze1x1_0_split
I0415 12:30:58.827574 13100 net.cpp:84] Creating Layer fire5/squeeze1x1_fire5/relu_squeeze1x1_0_split
I0415 12:30:58.827580 13100 net.cpp:406] fire5/squeeze1x1_fire5/relu_squeeze1x1_0_split <- fire5/squeeze1x1
I0415 12:30:58.827587 13100 net.cpp:380] fire5/squeeze1x1_fire5/relu_squeeze1x1_0_split -> fire5/squeeze1x1_fire5/relu_squeeze1x1_0_split_0
I0415 12:30:58.827600 13100 net.cpp:380] fire5/squeeze1x1_fire5/relu_squeeze1x1_0_split -> fire5/squeeze1x1_fire5/relu_squeeze1x1_0_split_1
I0415 12:30:58.827644 13100 net.cpp:122] Setting up fire5/squeeze1x1_fire5/relu_squeeze1x1_0_split
I0415 12:30:58.827654 13100 net.cpp:129] Top shape: 14 32 28 28 (351232)
I0415 12:30:58.827661 13100 net.cpp:129] Top shape: 14 32 28 28 (351232)
I0415 12:30:58.827667 13100 net.cpp:137] Memory required for data: 319354000
I0415 12:30:58.827672 13100 layer_factory.hpp:77] Creating layer fire5/expand1x1
I0415 12:30:58.827682 13100 net.cpp:84] Creating Layer fire5/expand1x1
I0415 12:30:58.827687 13100 net.cpp:406] fire5/expand1x1 <- fire5/squeeze1x1_fire5/relu_squeeze1x1_0_split_0
I0415 12:30:58.827695 13100 net.cpp:380] fire5/expand1x1 -> fire5/expand1x1
I0415 12:30:58.828003 13100 net.cpp:122] Setting up fire5/expand1x1
I0415 12:30:58.828018 13100 net.cpp:129] Top shape: 14 128 28 28 (1404928)
I0415 12:30:58.828022 13100 net.cpp:137] Memory required for data: 324973712
I0415 12:30:58.828032 13100 layer_factory.hpp:77] Creating layer fire5/relu_expand1x1
I0415 12:30:58.828042 13100 net.cpp:84] Creating Layer fire5/relu_expand1x1
I0415 12:30:58.828048 13100 net.cpp:406] fire5/relu_expand1x1 <- fire5/expand1x1
I0415 12:30:58.828056 13100 net.cpp:367] fire5/relu_expand1x1 -> fire5/expand1x1 (in-place)
I0415 12:30:58.828078 13100 net.cpp:122] Setting up fire5/relu_expand1x1
I0415 12:30:58.828086 13100 net.cpp:129] Top shape: 14 128 28 28 (1404928)
I0415 12:30:58.828092 13100 net.cpp:137] Memory required for data: 330593424
I0415 12:30:58.828096 13100 layer_factory.hpp:77] Creating layer fire5/expand3x3
I0415 12:30:58.828107 13100 net.cpp:84] Creating Layer fire5/expand3x3
I0415 12:30:58.828114 13100 net.cpp:406] fire5/expand3x3 <- fire5/squeeze1x1_fire5/relu_squeeze1x1_0_split_1
I0415 12:30:58.828121 13100 net.cpp:380] fire5/expand3x3 -> fire5/expand3x3
I0415 12:30:58.828724 13100 net.cpp:122] Setting up fire5/expand3x3
I0415 12:30:58.828740 13100 net.cpp:129] Top shape: 14 128 28 28 (1404928)
I0415 12:30:58.828744 13100 net.cpp:137] Memory required for data: 336213136
I0415 12:30:58.828753 13100 layer_factory.hpp:77] Creating layer fire5/relu_expand3x3
I0415 12:30:58.828763 13100 net.cpp:84] Creating Layer fire5/relu_expand3x3
I0415 12:30:58.828769 13100 net.cpp:406] fire5/relu_expand3x3 <- fire5/expand3x3
I0415 12:30:58.828778 13100 net.cpp:367] fire5/relu_expand3x3 -> fire5/expand3x3 (in-place)
I0415 12:30:58.828786 13100 net.cpp:122] Setting up fire5/relu_expand3x3
I0415 12:30:58.828794 13100 net.cpp:129] Top shape: 14 128 28 28 (1404928)
I0415 12:30:58.828799 13100 net.cpp:137] Memory required for data: 341832848
I0415 12:30:58.828804 13100 layer_factory.hpp:77] Creating layer fire5/concat
I0415 12:30:58.828809 13100 net.cpp:84] Creating Layer fire5/concat
I0415 12:30:58.828815 13100 net.cpp:406] fire5/concat <- fire5/expand1x1
I0415 12:30:58.828821 13100 net.cpp:406] fire5/concat <- fire5/expand3x3
I0415 12:30:58.828830 13100 net.cpp:380] fire5/concat -> fire5/concat
I0415 12:30:58.828861 13100 net.cpp:122] Setting up fire5/concat
I0415 12:30:58.828871 13100 net.cpp:129] Top shape: 14 256 28 28 (2809856)
I0415 12:30:58.828876 13100 net.cpp:137] Memory required for data: 353072272
I0415 12:30:58.828877 13100 layer_factory.hpp:77] Creating layer pool5
I0415 12:30:58.828884 13100 net.cpp:84] Creating Layer pool5
I0415 12:30:58.828889 13100 net.cpp:406] pool5 <- fire5/concat
I0415 12:30:58.828898 13100 net.cpp:380] pool5 -> pool5
I0415 12:30:58.828943 13100 net.cpp:122] Setting up pool5
I0415 12:30:58.828954 13100 net.cpp:129] Top shape: 14 256 14 14 (702464)
I0415 12:30:58.828959 13100 net.cpp:137] Memory required for data: 355882128
I0415 12:30:58.828963 13100 layer_factory.hpp:77] Creating layer fire6/squeeze1x1
I0415 12:30:58.828971 13100 net.cpp:84] Creating Layer fire6/squeeze1x1
I0415 12:30:58.828976 13100 net.cpp:406] fire6/squeeze1x1 <- pool5
I0415 12:30:58.828984 13100 net.cpp:380] fire6/squeeze1x1 -> fire6/squeeze1x1
I0415 12:30:58.829370 13100 net.cpp:122] Setting up fire6/squeeze1x1
I0415 12:30:58.829386 13100 net.cpp:129] Top shape: 14 48 14 14 (131712)
I0415 12:30:58.829392 13100 net.cpp:137] Memory required for data: 356408976
I0415 12:30:58.829401 13100 layer_factory.hpp:77] Creating layer fire6/relu_squeeze1x1
I0415 12:30:58.829411 13100 net.cpp:84] Creating Layer fire6/relu_squeeze1x1
I0415 12:30:58.829417 13100 net.cpp:406] fire6/relu_squeeze1x1 <- fire6/squeeze1x1
I0415 12:30:58.829426 13100 net.cpp:367] fire6/relu_squeeze1x1 -> fire6/squeeze1x1 (in-place)
I0415 12:30:58.829435 13100 net.cpp:122] Setting up fire6/relu_squeeze1x1
I0415 12:30:58.829443 13100 net.cpp:129] Top shape: 14 48 14 14 (131712)
I0415 12:30:58.829448 13100 net.cpp:137] Memory required for data: 356935824
I0415 12:30:58.829452 13100 layer_factory.hpp:77] Creating layer fire6/squeeze1x1_fire6/relu_squeeze1x1_0_split
I0415 12:30:58.829459 13100 net.cpp:84] Creating Layer fire6/squeeze1x1_fire6/relu_squeeze1x1_0_split
I0415 12:30:58.829464 13100 net.cpp:406] fire6/squeeze1x1_fire6/relu_squeeze1x1_0_split <- fire6/squeeze1x1
I0415 12:30:58.829473 13100 net.cpp:380] fire6/squeeze1x1_fire6/relu_squeeze1x1_0_split -> fire6/squeeze1x1_fire6/relu_squeeze1x1_0_split_0
I0415 12:30:58.829483 13100 net.cpp:380] fire6/squeeze1x1_fire6/relu_squeeze1x1_0_split -> fire6/squeeze1x1_fire6/relu_squeeze1x1_0_split_1
I0415 12:30:58.829535 13100 net.cpp:122] Setting up fire6/squeeze1x1_fire6/relu_squeeze1x1_0_split
I0415 12:30:58.829556 13100 net.cpp:129] Top shape: 14 48 14 14 (131712)
I0415 12:30:58.829563 13100 net.cpp:129] Top shape: 14 48 14 14 (131712)
I0415 12:30:58.829568 13100 net.cpp:137] Memory required for data: 357989520
I0415 12:30:58.829572 13100 layer_factory.hpp:77] Creating layer fire6/expand1x1
I0415 12:30:58.829582 13100 net.cpp:84] Creating Layer fire6/expand1x1
I0415 12:30:58.829588 13100 net.cpp:406] fire6/expand1x1 <- fire6/squeeze1x1_fire6/relu_squeeze1x1_0_split_0
I0415 12:30:58.829599 13100 net.cpp:380] fire6/expand1x1 -> fire6/expand1x1
I0415 12:30:58.829959 13100 net.cpp:122] Setting up fire6/expand1x1
I0415 12:30:58.829973 13100 net.cpp:129] Top shape: 14 192 14 14 (526848)
I0415 12:30:58.829979 13100 net.cpp:137] Memory required for data: 360096912
I0415 12:30:58.829988 13100 layer_factory.hpp:77] Creating layer fire6/relu_expand1x1
I0415 12:30:58.829996 13100 net.cpp:84] Creating Layer fire6/relu_expand1x1
I0415 12:30:58.830003 13100 net.cpp:406] fire6/relu_expand1x1 <- fire6/expand1x1
I0415 12:30:58.830010 13100 net.cpp:367] fire6/relu_expand1x1 -> fire6/expand1x1 (in-place)
I0415 12:30:58.830020 13100 net.cpp:122] Setting up fire6/relu_expand1x1
I0415 12:30:58.830029 13100 net.cpp:129] Top shape: 14 192 14 14 (526848)
I0415 12:30:58.830034 13100 net.cpp:137] Memory required for data: 362204304
I0415 12:30:58.830037 13100 layer_factory.hpp:77] Creating layer fire6/expand3x3
I0415 12:30:58.830047 13100 net.cpp:84] Creating Layer fire6/expand3x3
I0415 12:30:58.830054 13100 net.cpp:406] fire6/expand3x3 <- fire6/squeeze1x1_fire6/relu_squeeze1x1_0_split_1
I0415 12:30:58.830062 13100 net.cpp:380] fire6/expand3x3 -> fire6/expand3x3
I0415 12:30:58.831063 13100 net.cpp:122] Setting up fire6/expand3x3
I0415 12:30:58.831081 13100 net.cpp:129] Top shape: 14 192 14 14 (526848)
I0415 12:30:58.831086 13100 net.cpp:137] Memory required for data: 364311696
I0415 12:30:58.831095 13100 layer_factory.hpp:77] Creating layer fire6/relu_expand3x3
I0415 12:30:58.831104 13100 net.cpp:84] Creating Layer fire6/relu_expand3x3
I0415 12:30:58.831111 13100 net.cpp:406] fire6/relu_expand3x3 <- fire6/expand3x3
I0415 12:30:58.831120 13100 net.cpp:367] fire6/relu_expand3x3 -> fire6/expand3x3 (in-place)
I0415 12:30:58.831128 13100 net.cpp:122] Setting up fire6/relu_expand3x3
I0415 12:30:58.831135 13100 net.cpp:129] Top shape: 14 192 14 14 (526848)
I0415 12:30:58.831140 13100 net.cpp:137] Memory required for data: 366419088
I0415 12:30:58.831145 13100 layer_factory.hpp:77] Creating layer fire6/concat
I0415 12:30:58.831151 13100 net.cpp:84] Creating Layer fire6/concat
I0415 12:30:58.831157 13100 net.cpp:406] fire6/concat <- fire6/expand1x1
I0415 12:30:58.831162 13100 net.cpp:406] fire6/concat <- fire6/expand3x3
I0415 12:30:58.831171 13100 net.cpp:380] fire6/concat -> fire6/concat
I0415 12:30:58.831205 13100 net.cpp:122] Setting up fire6/concat
I0415 12:30:58.831215 13100 net.cpp:129] Top shape: 14 384 14 14 (1053696)
I0415 12:30:58.831220 13100 net.cpp:137] Memory required for data: 370633872
I0415 12:30:58.831224 13100 layer_factory.hpp:77] Creating layer fire7/squeeze1x1
I0415 12:30:58.831236 13100 net.cpp:84] Creating Layer fire7/squeeze1x1
I0415 12:30:58.831244 13100 net.cpp:406] fire7/squeeze1x1 <- fire6/concat
I0415 12:30:58.831254 13100 net.cpp:380] fire7/squeeze1x1 -> fire7/squeeze1x1
I0415 12:30:58.831699 13100 net.cpp:122] Setting up fire7/squeeze1x1
I0415 12:30:58.831715 13100 net.cpp:129] Top shape: 14 48 14 14 (131712)
I0415 12:30:58.831722 13100 net.cpp:137] Memory required for data: 371160720
I0415 12:30:58.831738 13100 layer_factory.hpp:77] Creating layer fire7/relu_squeeze1x1
I0415 12:30:58.831748 13100 net.cpp:84] Creating Layer fire7/relu_squeeze1x1
I0415 12:30:58.831754 13100 net.cpp:406] fire7/relu_squeeze1x1 <- fire7/squeeze1x1
I0415 12:30:58.831763 13100 net.cpp:367] fire7/relu_squeeze1x1 -> fire7/squeeze1x1 (in-place)
I0415 12:30:58.831773 13100 net.cpp:122] Setting up fire7/relu_squeeze1x1
I0415 12:30:58.831780 13100 net.cpp:129] Top shape: 14 48 14 14 (131712)
I0415 12:30:58.831799 13100 net.cpp:137] Memory required for data: 371687568
I0415 12:30:58.831804 13100 layer_factory.hpp:77] Creating layer fire7/squeeze1x1_fire7/relu_squeeze1x1_0_split
I0415 12:30:58.831813 13100 net.cpp:84] Creating Layer fire7/squeeze1x1_fire7/relu_squeeze1x1_0_split
I0415 12:30:58.831820 13100 net.cpp:406] fire7/squeeze1x1_fire7/relu_squeeze1x1_0_split <- fire7/squeeze1x1
I0415 12:30:58.831827 13100 net.cpp:380] fire7/squeeze1x1_fire7/relu_squeeze1x1_0_split -> fire7/squeeze1x1_fire7/relu_squeeze1x1_0_split_0
I0415 12:30:58.831840 13100 net.cpp:380] fire7/squeeze1x1_fire7/relu_squeeze1x1_0_split -> fire7/squeeze1x1_fire7/relu_squeeze1x1_0_split_1
I0415 12:30:58.831890 13100 net.cpp:122] Setting up fire7/squeeze1x1_fire7/relu_squeeze1x1_0_split
I0415 12:30:58.831902 13100 net.cpp:129] Top shape: 14 48 14 14 (131712)
I0415 12:30:58.831909 13100 net.cpp:129] Top shape: 14 48 14 14 (131712)
I0415 12:30:58.831914 13100 net.cpp:137] Memory required for data: 372741264
I0415 12:30:58.831918 13100 layer_factory.hpp:77] Creating layer fire7/expand1x1
I0415 12:30:58.831930 13100 net.cpp:84] Creating Layer fire7/expand1x1
I0415 12:30:58.831936 13100 net.cpp:406] fire7/expand1x1 <- fire7/squeeze1x1_fire7/relu_squeeze1x1_0_split_0
I0415 12:30:58.831944 13100 net.cpp:380] fire7/expand1x1 -> fire7/expand1x1
I0415 12:30:58.832299 13100 net.cpp:122] Setting up fire7/expand1x1
I0415 12:30:58.832314 13100 net.cpp:129] Top shape: 14 192 14 14 (526848)
I0415 12:30:58.832319 13100 net.cpp:137] Memory required for data: 374848656
I0415 12:30:58.832326 13100 layer_factory.hpp:77] Creating layer fire7/relu_expand1x1
I0415 12:30:58.832334 13100 net.cpp:84] Creating Layer fire7/relu_expand1x1
I0415 12:30:58.832340 13100 net.cpp:406] fire7/relu_expand1x1 <- fire7/expand1x1
I0415 12:30:58.832347 13100 net.cpp:367] fire7/relu_expand1x1 -> fire7/expand1x1 (in-place)
I0415 12:30:58.832356 13100 net.cpp:122] Setting up fire7/relu_expand1x1
I0415 12:30:58.832363 13100 net.cpp:129] Top shape: 14 192 14 14 (526848)
I0415 12:30:58.832367 13100 net.cpp:137] Memory required for data: 376956048
I0415 12:30:58.832371 13100 layer_factory.hpp:77] Creating layer fire7/expand3x3
I0415 12:30:58.832381 13100 net.cpp:84] Creating Layer fire7/expand3x3
I0415 12:30:58.832387 13100 net.cpp:406] fire7/expand3x3 <- fire7/squeeze1x1_fire7/relu_squeeze1x1_0_split_1
I0415 12:30:58.832396 13100 net.cpp:380] fire7/expand3x3 -> fire7/expand3x3
I0415 12:30:58.834070 13100 net.cpp:122] Setting up fire7/expand3x3
I0415 12:30:58.834087 13100 net.cpp:129] Top shape: 14 192 14 14 (526848)
I0415 12:30:58.834091 13100 net.cpp:137] Memory required for data: 379063440
I0415 12:30:58.834101 13100 layer_factory.hpp:77] Creating layer fire7/relu_expand3x3
I0415 12:30:58.834110 13100 net.cpp:84] Creating Layer fire7/relu_expand3x3
I0415 12:30:58.834117 13100 net.cpp:406] fire7/relu_expand3x3 <- fire7/expand3x3
I0415 12:30:58.834125 13100 net.cpp:367] fire7/relu_expand3x3 -> fire7/expand3x3 (in-place)
I0415 12:30:58.834133 13100 net.cpp:122] Setting up fire7/relu_expand3x3
I0415 12:30:58.834141 13100 net.cpp:129] Top shape: 14 192 14 14 (526848)
I0415 12:30:58.834146 13100 net.cpp:137] Memory required for data: 381170832
I0415 12:30:58.834151 13100 layer_factory.hpp:77] Creating layer fire7/concat
I0415 12:30:58.834156 13100 net.cpp:84] Creating Layer fire7/concat
I0415 12:30:58.834161 13100 net.cpp:406] fire7/concat <- fire7/expand1x1
I0415 12:30:58.834167 13100 net.cpp:406] fire7/concat <- fire7/expand3x3
I0415 12:30:58.834175 13100 net.cpp:380] fire7/concat -> fire7/concat
I0415 12:30:58.834208 13100 net.cpp:122] Setting up fire7/concat
I0415 12:30:58.834218 13100 net.cpp:129] Top shape: 14 384 14 14 (1053696)
I0415 12:30:58.834223 13100 net.cpp:137] Memory required for data: 385385616
I0415 12:30:58.834226 13100 layer_factory.hpp:77] Creating layer fire8/squeeze1x1
I0415 12:30:58.834239 13100 net.cpp:84] Creating Layer fire8/squeeze1x1
I0415 12:30:58.834244 13100 net.cpp:406] fire8/squeeze1x1 <- fire7/concat
I0415 12:30:58.834254 13100 net.cpp:380] fire8/squeeze1x1 -> fire8/squeeze1x1
I0415 12:30:58.834720 13100 net.cpp:122] Setting up fire8/squeeze1x1
I0415 12:30:58.834735 13100 net.cpp:129] Top shape: 14 64 14 14 (175616)
I0415 12:30:58.834740 13100 net.cpp:137] Memory required for data: 386088080
I0415 12:30:58.834749 13100 layer_factory.hpp:77] Creating layer fire8/relu_squeeze1x1
I0415 12:30:58.834758 13100 net.cpp:84] Creating Layer fire8/relu_squeeze1x1
I0415 12:30:58.834765 13100 net.cpp:406] fire8/relu_squeeze1x1 <- fire8/squeeze1x1
I0415 12:30:58.834774 13100 net.cpp:367] fire8/relu_squeeze1x1 -> fire8/squeeze1x1 (in-place)
I0415 12:30:58.834782 13100 net.cpp:122] Setting up fire8/relu_squeeze1x1
I0415 12:30:58.834790 13100 net.cpp:129] Top shape: 14 64 14 14 (175616)
I0415 12:30:58.834795 13100 net.cpp:137] Memory required for data: 386790544
I0415 12:30:58.834800 13100 layer_factory.hpp:77] Creating layer fire8/squeeze1x1_fire8/relu_squeeze1x1_0_split
I0415 12:30:58.834806 13100 net.cpp:84] Creating Layer fire8/squeeze1x1_fire8/relu_squeeze1x1_0_split
I0415 12:30:58.834812 13100 net.cpp:406] fire8/squeeze1x1_fire8/relu_squeeze1x1_0_split <- fire8/squeeze1x1
I0415 12:30:58.834820 13100 net.cpp:380] fire8/squeeze1x1_fire8/relu_squeeze1x1_0_split -> fire8/squeeze1x1_fire8/relu_squeeze1x1_0_split_0
I0415 12:30:58.834831 13100 net.cpp:380] fire8/squeeze1x1_fire8/relu_squeeze1x1_0_split -> fire8/squeeze1x1_fire8/relu_squeeze1x1_0_split_1
I0415 12:30:58.834880 13100 net.cpp:122] Setting up fire8/squeeze1x1_fire8/relu_squeeze1x1_0_split
I0415 12:30:58.834889 13100 net.cpp:129] Top shape: 14 64 14 14 (175616)
I0415 12:30:58.834895 13100 net.cpp:129] Top shape: 14 64 14 14 (175616)
I0415 12:30:58.834899 13100 net.cpp:137] Memory required for data: 388195472
I0415 12:30:58.834903 13100 layer_factory.hpp:77] Creating layer fire8/expand1x1
I0415 12:30:58.834913 13100 net.cpp:84] Creating Layer fire8/expand1x1
I0415 12:30:58.834918 13100 net.cpp:406] fire8/expand1x1 <- fire8/squeeze1x1_fire8/relu_squeeze1x1_0_split_0
I0415 12:30:58.834928 13100 net.cpp:380] fire8/expand1x1 -> fire8/expand1x1
I0415 12:30:58.835350 13100 net.cpp:122] Setting up fire8/expand1x1
I0415 12:30:58.835361 13100 net.cpp:129] Top shape: 14 256 14 14 (702464)
I0415 12:30:58.835366 13100 net.cpp:137] Memory required for data: 391005328
I0415 12:30:58.835374 13100 layer_factory.hpp:77] Creating layer fire8/relu_expand1x1
I0415 12:30:58.835382 13100 net.cpp:84] Creating Layer fire8/relu_expand1x1
I0415 12:30:58.835386 13100 net.cpp:406] fire8/relu_expand1x1 <- fire8/expand1x1
I0415 12:30:58.835393 13100 net.cpp:367] fire8/relu_expand1x1 -> fire8/expand1x1 (in-place)
I0415 12:30:58.835402 13100 net.cpp:122] Setting up fire8/relu_expand1x1
I0415 12:30:58.835407 13100 net.cpp:129] Top shape: 14 256 14 14 (702464)
I0415 12:30:58.835410 13100 net.cpp:137] Memory required for data: 393815184
I0415 12:30:58.835414 13100 layer_factory.hpp:77] Creating layer fire8/expand3x3
I0415 12:30:58.835425 13100 net.cpp:84] Creating Layer fire8/expand3x3
I0415 12:30:58.835430 13100 net.cpp:406] fire8/expand3x3 <- fire8/squeeze1x1_fire8/relu_squeeze1x1_0_split_1
I0415 12:30:58.835438 13100 net.cpp:380] fire8/expand3x3 -> fire8/expand3x3
I0415 12:30:58.836974 13100 net.cpp:122] Setting up fire8/expand3x3
I0415 12:30:58.836987 13100 net.cpp:129] Top shape: 14 256 14 14 (702464)
I0415 12:30:58.836992 13100 net.cpp:137] Memory required for data: 396625040
I0415 12:30:58.837000 13100 layer_factory.hpp:77] Creating layer fire8/relu_expand3x3
I0415 12:30:58.837008 13100 net.cpp:84] Creating Layer fire8/relu_expand3x3
I0415 12:30:58.837013 13100 net.cpp:406] fire8/relu_expand3x3 <- fire8/expand3x3
I0415 12:30:58.837019 13100 net.cpp:367] fire8/relu_expand3x3 -> fire8/expand3x3 (in-place)
I0415 12:30:58.837028 13100 net.cpp:122] Setting up fire8/relu_expand3x3
I0415 12:30:58.837034 13100 net.cpp:129] Top shape: 14 256 14 14 (702464)
I0415 12:30:58.837038 13100 net.cpp:137] Memory required for data: 399434896
I0415 12:30:58.837041 13100 layer_factory.hpp:77] Creating layer fire8/concat
I0415 12:30:58.837047 13100 net.cpp:84] Creating Layer fire8/concat
I0415 12:30:58.837064 13100 net.cpp:406] fire8/concat <- fire8/expand1x1
I0415 12:30:58.837069 13100 net.cpp:406] fire8/concat <- fire8/expand3x3
I0415 12:30:58.837076 13100 net.cpp:380] fire8/concat -> fire8/concat
I0415 12:30:58.837105 13100 net.cpp:122] Setting up fire8/concat
I0415 12:30:58.837115 13100 net.cpp:129] Top shape: 14 512 14 14 (1404928)
I0415 12:30:58.837118 13100 net.cpp:137] Memory required for data: 405054608
I0415 12:30:58.837122 13100 layer_factory.hpp:77] Creating layer fire9/squeeze1x1
I0415 12:30:58.837133 13100 net.cpp:84] Creating Layer fire9/squeeze1x1
I0415 12:30:58.837138 13100 net.cpp:406] fire9/squeeze1x1 <- fire8/concat
I0415 12:30:58.837146 13100 net.cpp:380] fire9/squeeze1x1 -> fire9/squeeze1x1
I0415 12:30:58.837558 13100 net.cpp:122] Setting up fire9/squeeze1x1
I0415 12:30:58.837566 13100 net.cpp:129] Top shape: 14 64 14 14 (175616)
I0415 12:30:58.837568 13100 net.cpp:137] Memory required for data: 405757072
I0415 12:30:58.837574 13100 layer_factory.hpp:77] Creating layer fire9/relu_squeeze1x1
I0415 12:30:58.837595 13100 net.cpp:84] Creating Layer fire9/relu_squeeze1x1
I0415 12:30:58.837599 13100 net.cpp:406] fire9/relu_squeeze1x1 <- fire9/squeeze1x1
I0415 12:30:58.837604 13100 net.cpp:367] fire9/relu_squeeze1x1 -> fire9/squeeze1x1 (in-place)
I0415 12:30:58.837608 13100 net.cpp:122] Setting up fire9/relu_squeeze1x1
I0415 12:30:58.837612 13100 net.cpp:129] Top shape: 14 64 14 14 (175616)
I0415 12:30:58.837615 13100 net.cpp:137] Memory required for data: 406459536
I0415 12:30:58.837617 13100 layer_factory.hpp:77] Creating layer fire9/squeeze1x1_fire9/relu_squeeze1x1_0_split
I0415 12:30:58.837622 13100 net.cpp:84] Creating Layer fire9/squeeze1x1_fire9/relu_squeeze1x1_0_split
I0415 12:30:58.837625 13100 net.cpp:406] fire9/squeeze1x1_fire9/relu_squeeze1x1_0_split <- fire9/squeeze1x1
I0415 12:30:58.837630 13100 net.cpp:380] fire9/squeeze1x1_fire9/relu_squeeze1x1_0_split -> fire9/squeeze1x1_fire9/relu_squeeze1x1_0_split_0
I0415 12:30:58.837635 13100 net.cpp:380] fire9/squeeze1x1_fire9/relu_squeeze1x1_0_split -> fire9/squeeze1x1_fire9/relu_squeeze1x1_0_split_1
I0415 12:30:58.837663 13100 net.cpp:122] Setting up fire9/squeeze1x1_fire9/relu_squeeze1x1_0_split
I0415 12:30:58.837668 13100 net.cpp:129] Top shape: 14 64 14 14 (175616)
I0415 12:30:58.837671 13100 net.cpp:129] Top shape: 14 64 14 14 (175616)
I0415 12:30:58.837673 13100 net.cpp:137] Memory required for data: 407864464
I0415 12:30:58.837677 13100 layer_factory.hpp:77] Creating layer fire9/expand1x1
I0415 12:30:58.837683 13100 net.cpp:84] Creating Layer fire9/expand1x1
I0415 12:30:58.837687 13100 net.cpp:406] fire9/expand1x1 <- fire9/squeeze1x1_fire9/relu_squeeze1x1_0_split_0
I0415 12:30:58.837690 13100 net.cpp:380] fire9/expand1x1 -> fire9/expand1x1
I0415 12:30:58.837936 13100 net.cpp:122] Setting up fire9/expand1x1
I0415 12:30:58.837944 13100 net.cpp:129] Top shape: 14 256 14 14 (702464)
I0415 12:30:58.837945 13100 net.cpp:137] Memory required for data: 410674320
I0415 12:30:58.837950 13100 layer_factory.hpp:77] Creating layer fire9/relu_expand1x1
I0415 12:30:58.837954 13100 net.cpp:84] Creating Layer fire9/relu_expand1x1
I0415 12:30:58.837957 13100 net.cpp:406] fire9/relu_expand1x1 <- fire9/expand1x1
I0415 12:30:58.837961 13100 net.cpp:367] fire9/relu_expand1x1 -> fire9/expand1x1 (in-place)
I0415 12:30:58.837965 13100 net.cpp:122] Setting up fire9/relu_expand1x1
I0415 12:30:58.837968 13100 net.cpp:129] Top shape: 14 256 14 14 (702464)
I0415 12:30:58.837970 13100 net.cpp:137] Memory required for data: 413484176
I0415 12:30:58.837973 13100 layer_factory.hpp:77] Creating layer fire9/expand3x3
I0415 12:30:58.837980 13100 net.cpp:84] Creating Layer fire9/expand3x3
I0415 12:30:58.837982 13100 net.cpp:406] fire9/expand3x3 <- fire9/squeeze1x1_fire9/relu_squeeze1x1_0_split_1
I0415 12:30:58.837986 13100 net.cpp:380] fire9/expand3x3 -> fire9/expand3x3
I0415 12:30:58.839448 13100 net.cpp:122] Setting up fire9/expand3x3
I0415 12:30:58.839458 13100 net.cpp:129] Top shape: 14 256 14 14 (702464)
I0415 12:30:58.839462 13100 net.cpp:137] Memory required for data: 416294032
I0415 12:30:58.839476 13100 layer_factory.hpp:77] Creating layer fire9/relu_expand3x3
I0415 12:30:58.839483 13100 net.cpp:84] Creating Layer fire9/relu_expand3x3
I0415 12:30:58.839486 13100 net.cpp:406] fire9/relu_expand3x3 <- fire9/expand3x3
I0415 12:30:58.839491 13100 net.cpp:367] fire9/relu_expand3x3 -> fire9/expand3x3 (in-place)
I0415 12:30:58.839496 13100 net.cpp:122] Setting up fire9/relu_expand3x3
I0415 12:30:58.839499 13100 net.cpp:129] Top shape: 14 256 14 14 (702464)
I0415 12:30:58.839503 13100 net.cpp:137] Memory required for data: 419103888
I0415 12:30:58.839504 13100 layer_factory.hpp:77] Creating layer fire9/concat
I0415 12:30:58.839509 13100 net.cpp:84] Creating Layer fire9/concat
I0415 12:30:58.839510 13100 net.cpp:406] fire9/concat <- fire9/expand1x1
I0415 12:30:58.839514 13100 net.cpp:406] fire9/concat <- fire9/expand3x3
I0415 12:30:58.839517 13100 net.cpp:380] fire9/concat -> fire9/concat
I0415 12:30:58.839540 13100 net.cpp:122] Setting up fire9/concat
I0415 12:30:58.839543 13100 net.cpp:129] Top shape: 14 512 14 14 (1404928)
I0415 12:30:58.839545 13100 net.cpp:137] Memory required for data: 424723600
I0415 12:30:58.839548 13100 layer_factory.hpp:77] Creating layer drop9
I0415 12:30:58.839555 13100 net.cpp:84] Creating Layer drop9
I0415 12:30:58.839556 13100 net.cpp:406] drop9 <- fire9/concat
I0415 12:30:58.839560 13100 net.cpp:367] drop9 -> fire9/concat (in-place)
I0415 12:30:58.839583 13100 net.cpp:122] Setting up drop9
I0415 12:30:58.839587 13100 net.cpp:129] Top shape: 14 512 14 14 (1404928)
I0415 12:30:58.839589 13100 net.cpp:137] Memory required for data: 430343312
I0415 12:30:58.839592 13100 layer_factory.hpp:77] Creating layer conv10
I0415 12:30:58.839601 13100 net.cpp:84] Creating Layer conv10
I0415 12:30:58.839602 13100 net.cpp:406] conv10 <- fire9/concat
I0415 12:30:58.839607 13100 net.cpp:380] conv10 -> conv10
I0415 12:30:58.839812 13100 net.cpp:122] Setting up conv10
I0415 12:30:58.839818 13100 net.cpp:129] Top shape: 14 2 14 14 (5488)
I0415 12:30:58.839819 13100 net.cpp:137] Memory required for data: 430365264
I0415 12:30:58.839823 13100 layer_factory.hpp:77] Creating layer relu_conv10
I0415 12:30:58.839829 13100 net.cpp:84] Creating Layer relu_conv10
I0415 12:30:58.839833 13100 net.cpp:406] relu_conv10 <- conv10
I0415 12:30:58.839836 13100 net.cpp:367] relu_conv10 -> conv10 (in-place)
I0415 12:30:58.839840 13100 net.cpp:122] Setting up relu_conv10
I0415 12:30:58.839843 13100 net.cpp:129] Top shape: 14 2 14 14 (5488)
I0415 12:30:58.839845 13100 net.cpp:137] Memory required for data: 430387216
I0415 12:30:58.839848 13100 layer_factory.hpp:77] Creating layer pool10
I0415 12:30:58.839853 13100 net.cpp:84] Creating Layer pool10
I0415 12:30:58.839855 13100 net.cpp:406] pool10 <- conv10
I0415 12:30:58.839859 13100 net.cpp:380] pool10 -> pool10
I0415 12:30:58.839879 13100 net.cpp:122] Setting up pool10
I0415 12:30:58.839882 13100 net.cpp:129] Top shape: 14 2 1 1 (28)
I0415 12:30:58.839884 13100 net.cpp:137] Memory required for data: 430387328
I0415 12:30:58.839887 13100 layer_factory.hpp:77] Creating layer pool10_pool10_0_split
I0415 12:30:58.839891 13100 net.cpp:84] Creating Layer pool10_pool10_0_split
I0415 12:30:58.839893 13100 net.cpp:406] pool10_pool10_0_split <- pool10
I0415 12:30:58.839900 13100 net.cpp:380] pool10_pool10_0_split -> pool10_pool10_0_split_0
I0415 12:30:58.839906 13100 net.cpp:380] pool10_pool10_0_split -> pool10_pool10_0_split_1
I0415 12:30:58.839932 13100 net.cpp:122] Setting up pool10_pool10_0_split
I0415 12:30:58.839936 13100 net.cpp:129] Top shape: 14 2 1 1 (28)
I0415 12:30:58.839939 13100 net.cpp:129] Top shape: 14 2 1 1 (28)
I0415 12:30:58.839941 13100 net.cpp:137] Memory required for data: 430387552
I0415 12:30:58.839943 13100 layer_factory.hpp:77] Creating layer loss
I0415 12:30:58.839947 13100 net.cpp:84] Creating Layer loss
I0415 12:30:58.839951 13100 net.cpp:406] loss <- pool10_pool10_0_split_0
I0415 12:30:58.839953 13100 net.cpp:406] loss <- label_data_1_split_0
I0415 12:30:58.839959 13100 net.cpp:380] loss -> loss
…
