…
name: "ResNet_50_1by2_nsfw"
state {
  phase: TRAIN
  level: 0
  stage: ""
}
layer {
  name: "data"
  type: "ImageData"
  top: "data"
  top: "label"
  include {
    phase: TRAIN
  }
  transform_param {
    mirror: true
    crop_size: 224
    mean_value: 104
    mean_value: 117
    mean_value: 123
  }
  image_data_param {
    source: "/home/dbicho/Documents/datasets/all_labeled_dataset_augmented_finetuning/train.txt"
    batch_size: 7
    shuffle: true
    root_folder: "/home/dbicho/Documents/datasets/all_labeled_dataset_augmented_finetuning/"
  }
}
layer {
  name: "conv_1"
  type: "Convolution"
  bottom: "data"
  top: "conv_1"
  param {
    lr_mult: 0
    decay_mult: 1
  }
  param {
    lr_mult: 0
    decay_mult: 0
  }
  convolution_param {
    num_output: 64
    pad: 3
    kernel_size: 7
    stride: 2
    weight_filler {
      type: "xavier"
    }
    bias_filler {
      type: "constant"
      value: 0
    }
  }
}
layer {
  name: "bn_1"
  type: "BatchNorm"
  bottom: "conv_1"
  top: "conv_1"
  param {
    lr_mult: 0
    decay_mult: 0
  }
  param {
    lr_mult: 0
    decay_mult: 0
  }
  param {
    lr_mult: 0
    decay_mult: 0
  }
  batch_norm_param {
    use_global_stats: false
  }
}
layer {
  name: "scale_1"
  type: "Scale"
  bottom: "conv_1"
  top: "conv_1"
  scale_param {
    bias_term: true
  }
}
layer {
  name: "relu_1"
  type: "ReLU"
  bottom: "conv_1"
  top: "conv_1"
}
layer {
  name: "pool1"
  type: "Pooling"
  bottom: "conv_1"
  top: "pool1"
  pooling_param {
    pool: MAX
    kernel_size: 3
    stride: 2
  }
}
layer {
  name: "conv_stage0_block0_proj_shortcut"
  type: "Convolution"
  bottom: "pool1"
  top: "conv_stage0_block0_proj_shortcut"
  param {
    lr_mult: 0
    decay_mult: 1
  }
  param {
    lr_mult: 0
    decay_mult: 0
  }
  convolution_param {
    num_output: 128
    pad: 0
    kernel_size: 1
    stride: 1
    weight_filler {
      type: "xavier"
    }
    bias_filler {
      type: "constant"
      value: 0
    }
  }
}
layer {
  name: "bn_stage0_block0_proj_shortcut"
  type: "BatchNorm"
  bottom: "conv_stage0_block0_proj_shortcut"
  top: "conv_stage0_block0_proj_shortcut"
  param {
    lr_mult: 0
    decay_mult: 0
  }
  param {
    lr_mult: 0
    decay_mult: 0
  }
  param {
    lr_mult: 0
    decay_mult: 0
  }
  batch_norm_param {
    use_global_stats: false
  }
}
layer {
  name: "scale_stage0_block0_proj_shortcut"
  type: "Scale"
  bottom: "conv_stage0_block0_proj_shortcut"
  top: "conv_stage0_block0_proj_shortcut"
  scale_param {
    bias_term: true
  }
}
layer {
  name: "conv_stage0_block0_branch2a"
  type: "Convolution"
  bottom: "pool1"
  top: "conv_stage0_block0_branch2a"
  param {
    lr_mult: 0
    decay_mult: 1
  }
  param {
    lr_mult: 0
    decay_mult: 0
  }
  convolution_param {
    num_output: 32
    pad: 0
    kernel_size: 1
    stride: 1
    weight_filler {
      type: "xavier"
    }
    bias_filler {
      type: "constant"
      value: 0
    }
  }
}
layer {
  name: "bn_stage0_block0_branch2a"
  type: "BatchNorm"
  bottom: "conv_stage0_block0_branch2a"
  top: "conv_stage0_block0_branch2a"
  param {
    lr_mult: 0
    decay_mult: 0
  }
  param {
    lr_mult: 0
    decay_mult: 0
  }
  param {
    lr_mult: 0
    decay_mult: 0
  }
  batch_norm_param {
    use_global_stats: false
  }
}
layer {
  name: "scale_stage0_block0_branch2a"
  type: "Scale"
  bottom: "conv_stage0_block0_branch2a"
  top: "conv_stage0_block0_branch2a"
  scale_param {
    bias_term: true
  }
}
layer {
  name: "relu_stage0_block0_branch2a"
  type: "ReLU"
  bottom: "conv_stage0_block0_branch2a"
  top: "conv_stage0_block0_branch2a"
}
layer {
  name: "conv_stage0_block0_branch2b"
  type: "Convolution"
  bottom: "conv_stage0_block0_branch2a"
  top: "conv_stage0_block0_branch2b"
  param {
    lr_mult: 0
    decay_mult: 1
  }
  param {
    lr_mult: 0
    decay_mult: 0
  }
  convolution_param {
    num_output: 32
    pad: 1
    kernel_size: 3
    stride: 1
    weight_filler {
      type: "xavier"
    }
    bias_filler {
      type: "constant"
      value: 0
    }
  }
}
layer {
  name: "bn_stage0_block0_branch2b"
  type: "BatchNorm"
  bottom: "conv_stage0_block0_branch2b"
  top: "conv_stage0_block0_branch2b"
  param {
    lr_mult: 0
    decay_mult: 0
  }
  param {
    lr_mult: 0
    decay_mult: 0
  }
  param {
    lr_mult: 0
    decay_mult: 0
  }
  batch_norm_param {
    use_global_stats: false
  }
}
layer {
  name: "scale_stage0_block0_branch2b"
  type: "Scale"
  bottom: "conv_stage0_block0_branch2b"
  top: "conv_stage0_block0_branch2b"
  scale_param {
    bias_term: true
  }
}
layer {
  name: "relu_stage0_block0_branch2b"
  type: "ReLU"
  bottom: "conv_stage0_block0_branch2b"
  top: "conv_stage0_block0_branch2b"
}
layer {
  name: "conv_stage0_block0_branch2c"
  type: "Convolution"
  bottom: "conv_stage0_block0_branch2b"
  top: "conv_stage0_block0_branch2c"
  param {
    lr_mult: 0
    decay_mult: 1
  }
  param {
    lr_mult: 0
    decay_mult: 0
  }
  convolution_param {
    num_output: 128
    pad: 0
    kernel_size: 1
    stride: 1
    weight_filler {
      type: "xavier"
    }
    bias_filler {
      type: "constant"
      value: 0
    }
  }
}
layer {
  name: "bn_stage0_block0_branch2c"
  type: "BatchNorm"
  bottom: "conv_stage0_block0_branch2c"
  top: "conv_stage0_block0_branch2c"
  param {
    lr_mult: 0
    decay_mult: 0
  }
  param {
    lr_mult: 0
    decay_mult: 0
  }
  param {
    lr_mult: 0
    decay_mult: 0
  }
  batch_norm_param {
    use_global_stats: false
  }
}
layer {
  name: "scale_stage0_block0_branch2c"
  type: "Scale"
  bottom: "conv_stage0_block0_branch2c"
  top: "conv_stage0_block0_branch2c"
  scale_param {
    bias_term: true
  }
}
layer {
  name: "eltwise_stage0_block0"
  type: "Eltwise"
  bottom: "conv_stage0_block0_proj_shortcut"
  bottom: "conv_stage0_block0_branch2c"
  top: "eltwise_stage0_block0"
}
layer {
  name: "relu_stage0_block0"
  type: "ReLU"
  bottom: "eltwise_stage0_block0"
  top: "eltwise_stage0_block0"
}
layer {
  name: "conv_stage0_block1_branch2a"
  type: "Convolution"
  bottom: "eltwise_stage0_block0"
  top: "conv_stage0_block1_branch2a"
  param {
    lr_mult: 0
    decay_mult: 1
  }
  param {
    lr_mult: 0
    decay_mult: 0
  }
  convolution_param {
    num_output: 32
    pad: 0
    kernel_size: 1
    stride: 1
    weight_filler {
      type: "xavier"
    }
    bias_filler {
      type: "constant"
      value: 0
    }
  }
}
layer {
  name: "bn_stage0_block1_branch2a"
  type: "BatchNorm"
  bottom: "conv_stage0_block1_branch2a"
  top: "conv_stage0_block1_branch2a"
  param {
    lr_mult: 0
    decay_mult: 0
  }
  param {
    lr_mult: 0
    decay_mult: 0
  }
  param {
    lr_mult: 0
    decay_mult: 0
  }
  batch_norm_param {
    use_global_stats: false
  }
}
layer {
  name: "scale_stage0_block1_branch2a"
  type: "Scale"
  bottom: "conv_stage0_block1_branch2a"
  top: "conv_stage0_block1_branch2a"
  scale_param {
    bias_term: true
  }
}
layer {
  name: "relu_stage0_block1_branch2a"
  type: "ReLU"
  bottom: "conv_stage0_block1_branch2a"
  top: "conv_stage0_block1_branch2a"
}
layer {
  name: "conv_stage0_block1_branch2b"
  type: "Convolution"
  bottom: "conv_stage0_block1_branch2a"
  top: "conv_stage0_block1_branch2b"
  param {
    lr_mult: 0
    decay_mult: 1
  }
  param {
    lr_mult: 0
    decay_mult: 0
  }
  convolution_param {
    num_output: 32
    pad: 1
    kernel_size: 3
    stride: 1
    weight_filler {
      type: "xavier"
    }
    bias_filler {
      type: "constant"
      value: 0
    }
  }
}
layer {
  name: "bn_stage0_block1_branch2b"
  type: "BatchNorm"
  bottom: "conv_stage0_block1_branch2b"
  top: "conv_stage0_block1_branch2b"
  param {
    lr_mult: 0
    decay_mult: 0
  }
  param {
    lr_mult: 0
    decay_mult: 0
  }
  param {
    lr_mult: 0
    decay_mult: 0
  }
  batch_norm_param {
    use_global_stats: false
  }
}
layer {
  name: "scale_stage0_block1_branch2b"
  type: "Scale"
  bottom: "conv_stage0_block1_branch2b"
  top: "conv_stage0_block1_branch2b"
  scale_param {
    bias_term: true
  }
}
layer {
  name: "relu_stage0_block1_branch2b"
  type: "ReLU"
  bottom: "conv_stage0_block1_branch2b"
  top: "conv_stage0_block1_branch2b"
}
layer {
  name: "conv_stage0_block1_branch2c"
  type: "Convolution"
  bottom: "conv_stage0_block1_branch2b"
  top: "conv_stage0_block1_branch2c"
  param {
    lr_mult: 0
    decay_mult: 1
  }
  param {
    lr_mult: 0
    decay_mult: 0
  }
  convolution_param {
    num_output: 128
    pad: 0
    kernel_size: 1
    stride: 1
    weight_filler {
      type: "xavier"
    }
    bias_filler {
      type: "constant"
      value: 0
    }
  }
}
layer {
  name: "bn_stage0_block1_branch2c"
  type: "BatchNorm"
  bottom: "conv_stage0_block1_branch2c"
  top: "conv_stage0_block1_branch2c"
  param {
    lr_mult: 0
    decay_mult: 0
  }
  param {
    lr_mult: 0
    decay_mult: 0
  }
  param {
    lr_mult: 0
    decay_mult: 0
  }
  batch_norm_param {
    use_global_stats: false
  }
}
layer {
  name: "scale_stage0_block1_branch2c"
  type: "Scale"
  bottom: "conv_stage0_block1_branch2c"
  top: "conv_stage0_block1_branch2c"
  scale_param {
    bias_term: true
  }
}
layer {
  name: "eltwise_stage0_block1"
  type: "Eltwise"
  bottom: "eltwise_stage0_block0"
  bottom: "conv_stage0_block1_branch2c"
  top: "eltwise_stage0_block1"
}
layer {
  name: "relu_stage0_block1"
  type: "ReLU"
  bottom: "eltwise_stage0_block1"
  top: "eltwise_stage0_block1"
}
layer {
  name: "conv_stage0_block2_branch2a"
  type: "Convolution"
  bottom: "eltwise_stage0_block1"
  top: "conv_stage0_block2_branch2a"
  param {
    lr_mult: 0
    decay_mult: 1
  }
  param {
    lr_mult: 0
    decay_mult: 0
  }
  convolution_param {
    num_output: 32
    pad: 0
    kernel_size: 1
    stride: 1
    weight_filler {
      type: "xavier"
    }
    bias_filler {
      type: "constant"
      value: 0
    }
  }
}
layer {
  name: "bn_stage0_block2_branch2a"
  type: "BatchNorm"
  bottom: "conv_stage0_block2_branch2a"
  top: "conv_stage0_block2_branch2a"
  param {
    lr_mult: 0
    decay_mult: 0
  }
  param {
    lr_mult: 0
    decay_mult: 0
  }
  param {
    lr_mult: 0
    decay_mult: 0
  }
  batch_norm_param {
    use_global_stats: false
  }
}
layer {
  name: "scale_stage0_block2_branch2a"
  type: "Scale"
  bottom: "conv_stage0_block2_branch2a"
  top: "conv_stage0_block2_branch2a"
  scale_param {
    bias_term: true
  }
}
layer {
  name: "relu_stage0_block2_branch2a"
  type: "ReLU"
  bottom: "conv_stage0_block2_branch2a"
  top: "conv_stage0_block2_branch2a"
}
layer {
  name: "conv_stage0_block2_branch2b"
  type: "Convolution"
  bottom: "conv_stage0_block2_branch2a"
  top: "conv_stage0_block2_branch2b"
  param {
    lr_mult: 0
    decay_mult: 1
  }
  param {
    lr_mult: 0
    decay_mult: 0
  }
  convolution_param {
    num_output: 32
    pad: 1
    kernel_size: 3
    stride: 1
    weight_filler {
      type: "xavier"
    }
    bias_filler {
      type: "constant"
      value: 0
    }
  }
}
layer {
  name: "bn_stage0_block2_branch2b"
  type: "BatchNorm"
  bottom: "conv_stage0_block2_branch2b"
  top: "conv_stage0_block2_branch2b"
  param {
    lr_mult: 0
    decay_mult: 0
  }
  param {
    lr_mult: 0
    decay_mult: 0
  }
  param {
    lr_mult: 0
    decay_mult: 0
  }
  batch_norm_param {
    use_global_stats: false
  }
}
layer {
  name: "scale_stage0_block2_branch2b"
  type: "Scale"
  bottom: "conv_stage0_block2_branch2b"
  top: "conv_stage0_block2_branch2b"
  scale_param {
    bias_term: true
  }
}
layer {
  name: "relu_stage0_block2_branch2b"
  type: "ReLU"
  bottom: "conv_stage0_block2_branch2b"
  top: "conv_stage0_block2_branch2b"
}
layer {
  name: "conv_stage0_block2_branch2c"
  type: "Convolution"
  bottom: "conv_stage0_block2_branch2b"
  top: "conv_stage0_block2_branch2c"
  param {
    lr_mult: 0
    decay_mult: 1
  }
  param {
    lr_mult: 0
    decay_mult: 0
  }
  convolution_param {
    num_output: 128
    pad: 0
    kernel_size: 1
    stride: 1
    weight_filler {
      type: "xavier"
    }
    bias_filler {
      type: "constant"
      value: 0
    }
  }
}
layer {
  name: "bn_stage0_block2_branch2c"
  type: "BatchNorm"
  bottom: "conv_stage0_block2_branch2c"
  top: "conv_stage0_block2_branch2c"
  param {
    lr_mult: 0
    decay_mult: 0
  }
  param {
    lr_mult: 0
    decay_mult: 0
  }
  param {
    lr_mult: 0
    decay_mult: 0
  }
  batch_norm_param {
    use_global_stats: false
  }
}
layer {
  name: "scale_stage0_block2_branch2c"
  type: "Scale"
  bottom: "conv_stage0_block2_branch2c"
  top: "conv_stage0_block2_branch2c"
  scale_param {
    bias_term: true
  }
}
layer {
  name: "eltwise_stage0_block2"
  type: "Eltwise"
  bottom: "eltwise_stage0_block1"
  bottom: "conv_stage0_block2_branch2c"
  top: "eltwise_stage0_block2"
}
layer {
  name: "relu_stage0_block2"
  type: "ReLU"
  bottom: "eltwise_stage0_block2"
  top: "eltwise_stage0_block2"
}
layer {
  name: "conv_stage1_block0_proj_shortcut"
  type: "Convolution"
  bottom: "eltwise_stage0_block2"
  top: "conv_stage1_block0_proj_shortcut"
  param {
    lr_mult: 0
    decay_mult: 1
  }
  param {
    lr_mult: 0
    decay_mult: 0
  }
  convolution_param {
    num_output: 256
    pad: 0
    kernel_size: 1
    stride: 2
    weight_filler {
      type: "xavier"
    }
    bias_filler {
      type: "constant"
      value: 0
    }
  }
}
layer {
  name: "bn_stage1_block0_proj_shortcut"
  type: "BatchNorm"
  bottom: "conv_stage1_block0_proj_shortcut"
  top: "conv_stage1_block0_proj_shortcut"
  param {
    lr_mult: 0
    decay_mult: 0
  }
  param {
    lr_mult: 0
    decay_mult: 0
  }
  param {
    lr_mult: 0
    decay_mult: 0
  }
  batch_norm_param {
    use_global_stats: false
  }
}
layer {
  name: "scale_stage1_block0_proj_shortcut"
  type: "Scale"
  bottom: "conv_stage1_block0_proj_shortcut"
  top: "conv_stage1_block0_proj_shortcut"
  scale_param {
    bias_term: true
  }
}
layer {
  name: "conv_stage1_block0_branch2a"
  type: "Convolution"
  bottom: "eltwise_stage0_block2"
  top: "conv_stage1_block0_branch2a"
  param {
    lr_mult: 0
    decay_mult: 1
  }
  param {
    lr_mult: 0
    decay_mult: 0
  }
  convolution_param {
    num_output: 64
    pad: 0
    kernel_size: 1
    stride: 2
    weight_filler {
      type: "xavier"
    }
    bias_filler {
      type: "constant"
      value: 0
    }
  }
}
layer {
  name: "bn_stage1_block0_branch2a"
  type: "BatchNorm"
  bottom: "conv_stage1_block0_branch2a"
  top: "conv_stage1_block0_branch2a"
  param {
    lr_mult: 0
    decay_mult: 0
  }
  param {
    lr_mult: 0
    decay_mult: 0
  }
  param {
    lr_mult: 0
    decay_mult: 0
  }
  batch_norm_param {
    use_global_stats: false
  }
}
layer {
  name: "scale_stage1_block0_branch2a"
  type: "Scale"
  bottom: "conv_stage1_block0_branch2a"
  top: "conv_stage1_block0_branch2a"
  scale_param {
    bias_term: true
  }
}
layer {
  name: "relu_stage1_block0_branch2a"
  type: "ReLU"
  bottom: "conv_stage1_block0_branch2a"
  top: "conv_stage1_block0_branch2a"
}
layer {
  name: "conv_stage1_block0_branch2b"
  type: "Convolution"
  bottom: "conv_stage1_block0_branch2a"
  top: "conv_stage1_block0_branch2b"
  param {
    lr_mult: 0
    decay_mult: 1
  }
  param {
    lr_mult: 0
    decay_mult: 0
  }
  convolution_param {
    num_output: 64
    pad: 1
    kernel_size: 3
    stride: 1
    weight_filler {
      type: "xavier"
    }
    bias_filler {
      type: "constant"
      value: 0
    }
  }
}
layer {
  name: "bn_stage1_block0_branch2b"
  type: "BatchNorm"
  bottom: "conv_stage1_block0_branch2b"
  top: "conv_stage1_block0_branch2b"
  param {
    lr_mult: 0
    decay_mult: 0
  }
  param {
    lr_mult: 0
    decay_mult: 0
  }
  param {
    lr_mult: 0
    decay_mult: 0
  }
  batch_norm_param {
    use_global_stats: false
  }
}
layer {
  name: "scale_stage1_block0_branch2b"
  type: "Scale"
  bottom: "conv_stage1_block0_branch2b"
  top: "conv_stage1_block0_branch2b"
  scale_param {
    bias_term: true
  }
}
layer {
  name: "relu_stage1_block0_branch2b"
  type: "ReLU"
  bottom: "conv_stage1_block0_branch2b"
  top: "conv_stage1_block0_branch2b"
}
layer {
  name: "conv_stage1_block0_branch2c"
  type: "Convolution"
  bottom: "conv_stage1_block0_branch2b"
  top: "conv_stage1_block0_branch2c"
  param {
    lr_mult: 0
    decay_mult: 1
  }
  param {
    lr_mult: 0
    decay_mult: 0
  }
  convolution_param {
    num_output: 256
    pad: 0
    kernel_size: 1
    stride: 1
    weight_filler {
      type: "xavier"
    }
    bias_filler {
      type: "constant"
      value: 0
    }
  }
}
layer {
  name: "bn_stage1_block0_branch2c"
  type: "BatchNorm"
  bottom: "conv_stage1_block0_branch2c"
  top: "conv_stage1_block0_branch2c"
  param {
    lr_mult: 0
    decay_mult: 0
  }
  param {
    lr_mult: 0
    decay_mult: 0
  }
  param {
    lr_mult: 0
    decay_mult: 0
  }
  batch_norm_param {
    use_global_stats: false
  }
}
layer {
  name: "scale_stage1_block0_branch2c"
  type: "Scale"
  bottom: "conv_stage1_block0_branch2c"
  top: "conv_stage1_block0_branch2c"
  scale_param {
    bias_term: true
  }
}
layer {
  name: "eltwise_stage1_block0"
  type: "Eltwise"
  bottom: "conv_stage1_block0_proj_shortcut"
  bottom: "conv_stage1_block0_branch2c"
  top: "eltwise_stage1_block0"
}
layer {
  name: "relu_stage1_block0"
  type: "ReLU"
  bottom: "eltwise_stage1_block0"
  top: "eltwise_stage1_block0"
}
layer {
  name: "conv_stage1_block1_branch2a"
  type: "Convolution"
  bottom: "eltwise_stage1_block0"
  top: "conv_stage1_block1_branch2a"
  param {
    lr_mult: 0
    decay_mult: 1
  }
  param {
    lr_mult: 0
    decay_mult: 0
  }
  convolution_param {
    num_output: 64
    pad: 0
    kernel_size: 1
    stride: 1
    weight_filler {
      type: "xavier"
    }
    bias_filler {
      type: "constant"
      value: 0
    }
  }
}
layer {
  name: "bn_stage1_block1_branch2a"
  type: "BatchNorm"
  bottom: "conv_stage1_block1_branch2a"
  top: "conv_stage1_block1_branch2a"
  param {
    lr_mult: 0
    decay_mult: 0
  }
  param {
    lr_mult: 0
    decay_mult: 0
  }
  param {
    lr_mult: 0
    decay_mult: 0
  }
  batch_norm_param {
    use_global_stats: false
  }
}
layer {
  name: "scale_stage1_block1_branch2a"
  type: "Scale"
  bottom: "conv_stage1_block1_branch2a"
  top: "conv_stage1_block1_branch2a"
  scale_param {
    bias_term: true
  }
}
layer {
  name: "relu_stage1_block1_branch2a"
  type: "ReLU"
  bottom: "conv_stage1_block1_branch2a"
  top: "conv_stage1_block1_branch2a"
}
layer {
  name: "conv_stage1_block1_branch2b"
  type: "Convolution"
  bottom: "conv_stage1_block1_branch2a"
  top: "conv_stage1_block1_branch2b"
  param {
    lr_mult: 0
    decay_mult: 1
  }
  param {
    lr_mult: 0
    decay_mult: 0
  }
  convolution_param {
    num_output: 64
    pad: 1
    kernel_size: 3
    stride: 1
    weight_filler {
      type: "xavier"
    }
    bias_filler {
      type: "constant"
      value: 0
    }
  }
}
layer {
  name: "bn_stage1_block1_branch2b"
  type: "BatchNorm"
  bottom: "conv_stage1_block1_branch2b"
  top: "conv_stage1_block1_branch2b"
  param {
    lr_mult: 0
    decay_mult: 0
  }
  param {
    lr_mult: 0
    decay_mult: 0
  }
  param {
    lr_mult: 0
    decay_mult: 0
  }
  batch_norm_param {
    use_global_stats: false
  }
}
layer {
  name: "scale_stage1_block1_branch2b"
  type: "Scale"
  bottom: "conv_stage1_block1_branch2b"
  top: "conv_stage1_block1_branch2b"
  scale_param {
    bias_term: true
  }
}
layer {
  name: "relu_stage1_block1_branch2b"
  type: "ReLU"
  bottom: "conv_stage1_block1_branch2b"
  top: "conv_stage1_block1_branch2b"
}
layer {
  name: "conv_stage1_block1_branch2c"
  type: "Convolution"
  bottom: "conv_stage1_block1_branch2b"
  top: "conv_stage1_block1_branch2c"
  param {
    lr_mult: 0
    decay_mult: 1
  }
  param {
    lr_mult: 0
    decay_mult: 0
  }
  convolution_param {
    num_output: 256
    pad: 0
    kernel_size: 1
    stride: 1
    weight_filler {
      type: "xavier"
    }
    bias_filler {
      type: "constant"
      value: 0
    }
  }
}
layer {
  name: "bn_stage1_block1_branch2c"
  type: "BatchNorm"
  bottom: "conv_stage1_block1_branch2c"
  top: "conv_stage1_block1_branch2c"
  param {
    lr_mult: 0
    decay_mult: 0
  }
  param {
    lr_mult: 0
    decay_mult: 0
  }
  param {
    lr_mult: 0
    decay_mult: 0
  }
  batch_norm_param {
    use_global_stats: false
  }
}
layer {
  name: "scale_stage1_block1_branch2c"
  type: "Scale"
  bottom: "conv_stage1_block1_branch2c"
  top: "conv_stage1_block1_branch2c"
  scale_param {
    bias_term: true
  }
}
layer {
  name: "eltwise_stage1_block1"
  type: "Eltwise"
  bottom: "eltwise_stage1_block0"
  bottom: "conv_stage1_block1_branch2c"
  top: "eltwise_stage1_block1"
}
layer {
  name: "relu_stage1_block1"
  type: "ReLU"
  bottom: "eltwise_stage1_block1"
  top: "eltwise_stage1_block1"
}
layer {
  name: "conv_stage1_block2_branch2a"
  type: "Convolution"
  bottom: "eltwise_stage1_block1"
  top: "conv_stage1_block2_branch2a"
  param {
    lr_mult: 0
    decay_mult: 1
  }
  param {
    lr_mult: 0
    decay_mult: 0
  }
  convolution_param {
    num_output: 64
    pad: 0
    kernel_size: 1
    stride: 1
    weight_filler {
      type: "xavier"
    }
    bias_filler {
      type: "constant"
      value: 0
    }
  }
}
layer {
  name: "bn_stage1_block2_branch2a"
  type: "BatchNorm"
  bottom: "conv_stage1_block2_branch2a"
  top: "conv_stage1_block2_branch2a"
  param {
    lr_mult: 0
    decay_mult: 0
  }
  param {
    lr_mult: 0
    decay_mult: 0
  }
  param {
    lr_mult: 0
    decay_mult: 0
  }
  batch_norm_param {
    use_global_stats: false
  }
}
layer {
  name: "scale_stage1_block2_branch2a"
  type: "Scale"
  bottom: "conv_stage1_block2_branch2a"
  top: "conv_stage1_block2_branch2a"
  scale_param {
    bias_term: true
  }
}
layer {
  name: "relu_stage1_block2_branch2a"
  type: "ReLU"
  bottom: "conv_stage1_block2_branch2a"
  top: "conv_stage1_block2_branch2a"
}
layer {
  name: "conv_stage1_block2_branch2b"
  type: "Convolution"
  bottom: "conv_stage1_block2_branch2a"
  top: "conv_stage1_block2_branch2b"
  param {
    lr_mult: 0
    decay_mult: 1
  }
  param {
    lr_mult: 0
    decay_mult: 0
  }
  convolution_param {
    num_output: 64
    pad: 1
    kernel_size: 3
    stride: 1
    weight_filler {
      type: "xavier"
    }
    bias_filler {
      type: "constant"
      value: 0
    }
  }
}
layer {
  name: "bn_stage1_block2_branch2b"
  type: "BatchNorm"
  bottom: "conv_stage1_block2_branch2b"
  top: "conv_stage1_block2_branch2b"
  param {
    lr_mult: 0
    decay_mult: 0
  }
  param {
    lr_mult: 0
    decay_mult: 0
  }
  param {
    lr_mult: 0
    decay_mult: 0
  }
  batch_norm_param {
    use_global_stats: false
  }
}
layer {
  name: "scale_stage1_block2_branch2b"
  type: "Scale"
  bottom: "conv_stage1_block2_branch2b"
  top: "conv_stage1_block2_branch2b"
  scale_param {
    bias_term: true
  }
}
layer {
  name: "relu_stage1_block2_branch2b"
  type: "ReLU"
  bottom: "conv_stage1_block2_branch2b"
  top: "conv_stage1_block2_branch2b"
}
layer {
  name: "conv_stage1_block2_branch2c"
  type: "Convolution"
  bottom: "conv_stage1_block2_branch2b"
  top: "conv_stage1_block2_branch2c"
  param {
    lr_mult: 0
    decay_mult: 1
  }
  param {
    lr_mult: 0
    decay_mult: 0
  }
  convolution_param {
    num_output: 256
    pad: 0
    kernel_size: 1
    stride: 1
    weight_filler {
      type: "xavier"
    }
    bias_filler {
      type: "constant"
      value: 0
    }
  }
}
layer {
  name: "bn_stage1_block2_branch2c"
  type: "BatchNorm"
  bottom: "conv_stage1_block2_branch2c"
  top: "conv_stage1_block2_branch2c"
  param {
    lr_mult: 0
    decay_mult: 0
  }
  param {
    lr_mult: 0
    decay_mult: 0
  }
  param {
    lr_mult: 0
    decay_mult: 0
  }
  batch_norm_param {
    use_global_stats: false
  }
}
layer {
  name: "scale_stage1_block2_branch2c"
  type: "Scale"
  bottom: "conv_stage1_block2_branch2c"
  top: "conv_stage1_block2_branch2c"
  scale_param {
    bias_term: true
  }
}
layer {
  name: "eltwise_stage1_block2"
  type: "Eltwise"
  bottom: "eltwise_stage1_block1"
  bottom: "conv_stage1_block2_branch2c"
  top: "eltwise_stage1_block2"
}
layer {
  name: "relu_stage1_block2"
  type: "ReLU"
  bottom: "eltwise_stage1_block2"
  top: "eltwise_stage1_block2"
}
layer {
  name: "conv_stage1_block3_branch2a"
  type: "Convolution"
  bottom: "eltwise_stage1_block2"
  top: "conv_stage1_block3_branch2a"
  param {
    lr_mult: 0
    decay_mult: 1
  }
  param {
    lr_mult: 0
    decay_mult: 0
  }
  convolution_param {
    num_output: 64
    pad: 0
    kernel_size: 1
    stride: 1
    weight_filler {
      type: "xavier"
    }
    bias_filler {
      type: "constant"
      value: 0
    }
  }
}
layer {
  name: "bn_stage1_block3_branch2a"
  type: "BatchNorm"
  bottom: "conv_stage1_block3_branch2a"
  top: "conv_stage1_block3_branch2a"
  param {
    lr_mult: 0
    decay_mult: 0
  }
  param {
    lr_mult: 0
    decay_mult: 0
  }
  param {
    lr_mult: 0
    decay_mult: 0
  }
  batch_norm_param {
    use_global_stats: false
  }
}
layer {
  name: "scale_stage1_block3_branch2a"
  type: "Scale"
  bottom: "conv_stage1_block3_branch2a"
  top: "conv_stage1_block3_branch2a"
  scale_param {
    bias_term: true
  }
}
layer {
  name: "relu_stage1_block3_branch2a"
  type: "ReLU"
  bottom: "conv_stage1_block3_branch2a"
  top: "conv_stage1_block3_branch2a"
}
layer {
  name: "conv_stage1_block3_branch2b"
  type: "Convolution"
  bottom: "conv_stage1_block3_branch2a"
  top: "conv_stage1_block3_branch2b"
  param {
    lr_mult: 0
    decay_mult: 1
  }
  param {
    lr_mult: 0
    decay_mult: 0
  }
  convolution_param {
    num_output: 64
    pad: 1
    kernel_size: 3
    stride: 1
    weight_filler {
      type: "xavier"
    }
    bias_filler {
      type: "constant"
      value: 0
    }
  }
}
layer {
  name: "bn_stage1_block3_branch2b"
  type: "BatchNorm"
  bottom: "conv_stage1_block3_branch2b"
  top: "conv_stage1_block3_branch2b"
  param {
    lr_mult: 0
    decay_mult: 0
  }
  param {
    lr_mult: 0
    decay_mult: 0
  }
  param {
    lr_mult: 0
    decay_mult: 0
  }
  batch_norm_param {
    use_global_stats: false
  }
}
layer {
  name: "scale_stage1_block3_branch2b"
  type: "Scale"
  bottom: "conv_stage1_block3_branch2b"
  top: "conv_stage1_block3_branch2b"
  scale_param {
    bias_term: true
  }
}
layer {
  name: "relu_stage1_block3_branch2b"
  type: "ReLU"
  bottom: "conv_stage1_block3_branch2b"
  top: "conv_stage1_block3_branch2b"
}
layer {
  name: "conv_stage1_block3_branch2c"
  type: "Convolution"
  bottom: "conv_stage1_block3_branch2b"
  top: "conv_stage1_block3_branch2c"
  param {
    lr_mult: 0
    decay_mult: 1
  }
  param {
    lr_mult: 0
    decay_mult: 0
  }
  convolution_param {
    num_output: 256
    pad: 0
    kernel_size: 1
    stride: 1
    weight_filler {
      type: "xavier"
    }
    bias_filler {
      type: "constant"
      value: 0
    }
  }
}
layer {
  name: "bn_stage1_block3_branch2c"
  type: "BatchNorm"
  bottom: "conv_stage1_block3_branch2c"
  top: "conv_stage1_block3_branch2c"
  param {
    lr_mult: 0
    decay_mult: 0
  }
  param {
    lr_mult: 0
    decay_mult: 0
  }
  param {
    lr_mult: 0
    decay_mult: 0
  }
  batch_norm_param {
    use_global_stats: false
  }
}
layer {
  name: "scale_stage1_block3_branch2c"
  type: "Scale"
  bottom: "conv_stage1_block3_branch2c"
  top: "conv_stage1_block3_branch2c"
  scale_param {
    bias_term: true
  }
}
layer {
  name: "eltwise_stage1_block3"
  type: "Eltwise"
  bottom: "eltwise_stage1_block2"
  bottom: "conv_stage1_block3_branch2c"
  top: "eltwise_stage1_block3"
}
layer {
  name: "relu_stage1_block3"
  type: "ReLU"
  bottom: "eltwise_stage1_block3"
  top: "eltwise_stage1_block3"
}
layer {
  name: "conv_stage2_block0_proj_shortcut"
  type: "Convolution"
  bottom: "eltwise_stage1_block3"
  top: "conv_stage2_block0_proj_shortcut"
  param {
    lr_mult: 0
    decay_mult: 1
  }
  param {
    lr_mult: 0
    decay_mult: 0
  }
  convolution_param {
    num_output: 512
    pad: 0
    kernel_size: 1
    stride: 2
    weight_filler {
      type: "xavier"
    }
    bias_filler {
      type: "constant"
      value: 0
    }
  }
}
layer {
  name: "bn_stage2_block0_proj_shortcut"
  type: "BatchNorm"
  bottom: "conv_stage2_block0_proj_shortcut"
  top: "conv_stage2_block0_proj_shortcut"
  param {
    lr_mult: 0
    decay_mult: 0
  }
  param {
    lr_mult: 0
    decay_mult: 0
  }
  param {
    lr_mult: 0
    decay_mult: 0
  }
  batch_norm_param {
    use_global_stats: false
  }
}
layer {
  name: "scale_stage2_block0_proj_shortcut"
  type: "Scale"
  bottom: "conv_stage2_block0_proj_shortcut"
  top: "conv_stage2_block0_proj_shortcut"
  scale_param {
    bias_term: true
  }
}
layer {
  name: "conv_stage2_block0_branch2a"
  type: "Convolution"
  bottom: "eltwise_stage1_block3"
  top: "conv_stage2_block0_branch2a"
  param {
    lr_mult: 0
    decay_mult: 1
  }
  param {
    lr_mult: 0
    decay_mult: 0
  }
  convolution_param {
    num_output: 128
    pad: 0
    kernel_size: 1
    stride: 2
    weight_filler {
      type: "xavier"
    }
    bias_filler {
      type: "constant"
      value: 0
    }
  }
}
layer {
  name: "bn_stage2_block0_branch2a"
  type: "BatchNorm"
  bottom: "conv_stage2_block0_branch2a"
  top: "conv_stage2_block0_branch2a"
  param {
    lr_mult: 0
    decay_mult: 0
  }
  param {
    lr_mult: 0
    decay_mult: 0
  }
  param {
    lr_mult: 0
    decay_mult: 0
  }
  batch_norm_param {
    use_global_stats: false
  }
}
layer {
  name: "scale_stage2_block0_branch2a"
  type: "Scale"
  bottom: "conv_stage2_block0_branch2a"
  top: "conv_stage2_block0_branch2a"
  scale_param {
    bias_term: true
  }
}
layer {
  name: "relu_stage2_block0_branch2a"
  type: "ReLU"
  bottom: "conv_stage2_block0_branch2a"
  top: "conv_stage2_block0_branch2a"
}
layer {
  name: "conv_stage2_block0_branch2b"
  type: "Convolution"
  bottom: "conv_stage2_block0_branch2a"
  top: "conv_stage2_block0_branch2b"
  param {
    lr_mult: 0
    decay_mult: 1
  }
  param {
    lr_mult: 0
    decay_mult: 0
  }
  convolution_param {
    num_output: 128
    
I0610 05:07:37.091539 15981 layer_factory.hpp:77] Creating layer data
I0610 05:07:37.091575 15981 net.cpp:84] Creating Layer data
I0610 05:07:37.091585 15981 net.cpp:380] data -> data
I0610 05:07:37.091608 15981 net.cpp:380] data -> label
I0610 05:07:37.091629 15981 image_data_layer.cpp:38] Opening file /home/dbicho/Documents/datasets/all_labeled_dataset_augmented_finetuning/train.txt
I0610 05:07:37.103283 15981 image_data_layer.cpp:53] Shuffling data
I0610 05:07:37.107074 15981 image_data_layer.cpp:63] A total of 19955 images.
I0610 05:07:37.108137 15981 image_data_layer.cpp:90] output data size: 7,3,224,224
I0610 05:07:37.117555 15981 net.cpp:122] Setting up data
I0610 05:07:37.117585 15981 net.cpp:129] Top shape: 7 3 224 224 (1053696)
I0610 05:07:37.117593 15981 net.cpp:129] Top shape: 7 (7)
I0610 05:07:37.117597 15981 net.cpp:137] Memory required for data: 4214812
I0610 05:07:37.117609 15981 layer_factory.hpp:77] Creating layer conv_1
I0610 05:07:37.117636 15981 net.cpp:84] Creating Layer conv_1
I0610 05:07:37.117646 15981 net.cpp:406] conv_1 <- data
I0610 05:07:37.117666 15981 net.cpp:380] conv_1 -> conv_1
I0610 05:07:37.118701 15981 net.cpp:122] Setting up conv_1
I0610 05:07:37.118717 15981 net.cpp:129] Top shape: 7 64 112 112 (5619712)
I0610 05:07:37.118721 15981 net.cpp:137] Memory required for data: 26693660
I0610 05:07:37.118743 15981 layer_factory.hpp:77] Creating layer bn_1
I0610 05:07:37.118755 15981 net.cpp:84] Creating Layer bn_1
I0610 05:07:37.118760 15981 net.cpp:406] bn_1 <- conv_1
I0610 05:07:37.118768 15981 net.cpp:367] bn_1 -> conv_1 (in-place)
I0610 05:07:37.118988 15981 net.cpp:122] Setting up bn_1
I0610 05:07:37.118997 15981 net.cpp:129] Top shape: 7 64 112 112 (5619712)
I0610 05:07:37.119016 15981 net.cpp:137] Memory required for data: 49172508
I0610 05:07:37.119032 15981 layer_factory.hpp:77] Creating layer scale_1
I0610 05:07:37.119041 15981 net.cpp:84] Creating Layer scale_1
I0610 05:07:37.119046 15981 net.cpp:406] scale_1 <- conv_1
I0610 05:07:37.119052 15981 net.cpp:367] scale_1 -> conv_1 (in-place)
I0610 05:07:37.119099 15981 layer_factory.hpp:77] Creating layer scale_1
I0610 05:07:37.119663 15981 net.cpp:122] Setting up scale_1
I0610 05:07:37.119675 15981 net.cpp:129] Top shape: 7 64 112 112 (5619712)
I0610 05:07:37.119680 15981 net.cpp:137] Memory required for data: 71651356
I0610 05:07:37.119689 15981 layer_factory.hpp:77] Creating layer relu_1
I0610 05:07:37.119699 15981 net.cpp:84] Creating Layer relu_1
I0610 05:07:37.119704 15981 net.cpp:406] relu_1 <- conv_1
I0610 05:07:37.119711 15981 net.cpp:367] relu_1 -> conv_1 (in-place)
I0610 05:07:37.119720 15981 net.cpp:122] Setting up relu_1
I0610 05:07:37.119727 15981 net.cpp:129] Top shape: 7 64 112 112 (5619712)
I0610 05:07:37.119731 15981 net.cpp:137] Memory required for data: 94130204
I0610 05:07:37.119735 15981 layer_factory.hpp:77] Creating layer pool1
I0610 05:07:37.119742 15981 net.cpp:84] Creating Layer pool1
I0610 05:07:37.119747 15981 net.cpp:406] pool1 <- conv_1
I0610 05:07:37.119753 15981 net.cpp:380] pool1 -> pool1
I0610 05:07:37.119805 15981 net.cpp:122] Setting up pool1
I0610 05:07:37.119814 15981 net.cpp:129] Top shape: 7 64 56 56 (1404928)
I0610 05:07:37.119819 15981 net.cpp:137] Memory required for data: 99749916
I0610 05:07:37.119823 15981 layer_factory.hpp:77] Creating layer pool1_pool1_0_split
I0610 05:07:37.119832 15981 net.cpp:84] Creating Layer pool1_pool1_0_split
I0610 05:07:37.119837 15981 net.cpp:406] pool1_pool1_0_split <- pool1
I0610 05:07:37.119844 15981 net.cpp:380] pool1_pool1_0_split -> pool1_pool1_0_split_0
I0610 05:07:37.119855 15981 net.cpp:380] pool1_pool1_0_split -> pool1_pool1_0_split_1
I0610 05:07:37.119894 15981 net.cpp:122] Setting up pool1_pool1_0_split
I0610 05:07:37.119901 15981 net.cpp:129] Top shape: 7 64 56 56 (1404928)
I0610 05:07:37.119909 15981 net.cpp:129] Top shape: 7 64 56 56 (1404928)
I0610 05:07:37.119913 15981 net.cpp:137] Memory required for data: 110989340
I0610 05:07:37.119918 15981 layer_factory.hpp:77] Creating layer conv_stage0_block0_proj_shortcut
I0610 05:07:37.119931 15981 net.cpp:84] Creating Layer conv_stage0_block0_proj_shortcut
I0610 05:07:37.119936 15981 net.cpp:406] conv_stage0_block0_proj_shortcut <- pool1_pool1_0_split_0
I0610 05:07:37.119946 15981 net.cpp:380] conv_stage0_block0_proj_shortcut -> conv_stage0_block0_proj_shortcut
I0610 05:07:37.120892 15981 net.cpp:122] Setting up conv_stage0_block0_proj_shortcut
I0610 05:07:37.120905 15981 net.cpp:129] Top shape: 7 128 56 56 (2809856)
I0610 05:07:37.120911 15981 net.cpp:137] Memory required for data: 122228764
I0610 05:07:37.120926 15981 layer_factory.hpp:77] Creating layer bn_stage0_block0_proj_shortcut
I0610 05:07:37.120939 15981 net.cpp:84] Creating Layer bn_stage0_block0_proj_shortcut
I0610 05:07:37.120945 15981 net.cpp:406] bn_stage0_block0_proj_shortcut <- conv_stage0_block0_proj_shortcut
I0610 05:07:37.120955 15981 net.cpp:367] bn_stage0_block0_proj_shortcut -> conv_stage0_block0_proj_shortcut (in-place)
I0610 05:07:37.121157 15981 net.cpp:122] Setting up bn_stage0_block0_proj_shortcut
I0610 05:07:37.121167 15981 net.cpp:129] Top shape: 7 128 56 56 (2809856)
I0610 05:07:37.121172 15981 net.cpp:137] Memory required for data: 133468188
I0610 05:07:37.121182 15981 layer_factory.hpp:77] Creating layer scale_stage0_block0_proj_shortcut
I0610 05:07:37.121192 15981 net.cpp:84] Creating Layer scale_stage0_block0_proj_shortcut
I0610 05:07:37.121197 15981 net.cpp:406] scale_stage0_block0_proj_shortcut <- conv_stage0_block0_proj_shortcut
I0610 05:07:37.121204 15981 net.cpp:367] scale_stage0_block0_proj_shortcut -> conv_stage0_block0_proj_shortcut (in-place)
I0610 05:07:37.121248 15981 layer_factory.hpp:77] Creating layer scale_stage0_block0_proj_shortcut
I0610 05:07:37.121368 15981 net.cpp:122] Setting up scale_stage0_block0_proj_shortcut
I0610 05:07:37.121388 15981 net.cpp:129] Top shape: 7 128 56 56 (2809856)
I0610 05:07:37.121393 15981 net.cpp:137] Memory required for data: 144707612
I0610 05:07:37.121402 15981 layer_factory.hpp:77] Creating layer conv_stage0_block0_branch2a
I0610 05:07:37.121417 15981 net.cpp:84] Creating Layer conv_stage0_block0_branch2a
I0610 05:07:37.121421 15981 net.cpp:406] conv_stage0_block0_branch2a <- pool1_pool1_0_split_1
I0610 05:07:37.121431 15981 net.cpp:380] conv_stage0_block0_branch2a -> conv_stage0_block0_branch2a
I0610 05:07:37.121706 15981 net.cpp:122] Setting up conv_stage0_block0_branch2a
I0610 05:07:37.121714 15981 net.cpp:129] Top shape: 7 32 56 56 (702464)
I0610 05:07:37.121719 15981 net.cpp:137] Memory required for data: 147517468
I0610 05:07:37.121727 15981 layer_factory.hpp:77] Creating layer bn_stage0_block0_branch2a
I0610 05:07:37.121737 15981 net.cpp:84] Creating Layer bn_stage0_block0_branch2a
I0610 05:07:37.121742 15981 net.cpp:406] bn_stage0_block0_branch2a <- conv_stage0_block0_branch2a
I0610 05:07:37.121752 15981 net.cpp:367] bn_stage0_block0_branch2a -> conv_stage0_block0_branch2a (in-place)
I0610 05:07:37.121953 15981 net.cpp:122] Setting up bn_stage0_block0_branch2a
I0610 05:07:37.121961 15981 net.cpp:129] Top shape: 7 32 56 56 (702464)
I0610 05:07:37.121968 15981 net.cpp:137] Memory required for data: 150327324
I0610 05:07:37.121980 15981 layer_factory.hpp:77] Creating layer scale_stage0_block0_branch2a
I0610 05:07:37.121990 15981 net.cpp:84] Creating Layer scale_stage0_block0_branch2a
I0610 05:07:37.121995 15981 net.cpp:406] scale_stage0_block0_branch2a <- conv_stage0_block0_branch2a
I0610 05:07:37.122004 15981 net.cpp:367] scale_stage0_block0_branch2a -> conv_stage0_block0_branch2a (in-place)
I0610 05:07:37.122043 15981 layer_factory.hpp:77] Creating layer scale_stage0_block0_branch2a
I0610 05:07:37.122174 15981 net.cpp:122] Setting up scale_stage0_block0_branch2a
I0610 05:07:37.122184 15981 net.cpp:129] Top shape: 7 32 56 56 (702464)
I0610 05:07:37.122189 15981 net.cpp:137] Memory required for data: 153137180
I0610 05:07:37.122196 15981 layer_factory.hpp:77] Creating layer relu_stage0_block0_branch2a
I0610 05:07:37.122205 15981 net.cpp:84] Creating Layer relu_stage0_block0_branch2a
I0610 05:07:37.122210 15981 net.cpp:406] relu_stage0_block0_branch2a <- conv_stage0_block0_branch2a
I0610 05:07:37.122217 15981 net.cpp:367] relu_stage0_block0_branch2a -> conv_stage0_block0_branch2a (in-place)
I0610 05:07:37.122226 15981 net.cpp:122] Setting up relu_stage0_block0_branch2a
I0610 05:07:37.122232 15981 net.cpp:129] Top shape: 7 32 56 56 (702464)
I0610 05:07:37.122236 15981 net.cpp:137] Memory required for data: 155947036
I0610 05:07:37.122241 15981 layer_factory.hpp:77] Creating layer conv_stage0_block0_branch2b
I0610 05:07:37.122262 15981 net.cpp:84] Creating Layer conv_stage0_block0_branch2b
I0610 05:07:37.122269 15981 net.cpp:406] conv_stage0_block0_branch2b <- conv_stage0_block0_branch2a
I0610 05:07:37.122278 15981 net.cpp:380] conv_stage0_block0_branch2b -> conv_stage0_block0_branch2b
I0610 05:07:37.122608 15981 net.cpp:122] Setting up conv_stage0_block0_branch2b
I0610 05:07:37.122618 15981 net.cpp:129] Top shape: 7 32 56 56 (702464)
I0610 05:07:37.122622 15981 net.cpp:137] Memory required for data: 158756892
I0610 05:07:37.122630 15981 layer_factory.hpp:77] Creating layer bn_stage0_block0_branch2b
I0610 05:07:37.122639 15981 net.cpp:84] Creating Layer bn_stage0_block0_branch2b
I0610 05:07:37.122644 15981 net.cpp:406] bn_stage0_block0_branch2b <- conv_stage0_block0_branch2b
I0610 05:07:37.122651 15981 net.cpp:367] bn_stage0_block0_branch2b -> conv_stage0_block0_branch2b (in-place)
I0610 05:07:37.122846 15981 net.cpp:122] Setting up bn_stage0_block0_branch2b
I0610 05:07:37.122856 15981 net.cpp:129] Top shape: 7 32 56 56 (702464)
I0610 05:07:37.122861 15981 net.cpp:137] Memory required for data: 161566748
I0610 05:07:37.122870 15981 layer_factory.hpp:77] Creating layer scale_stage0_block0_branch2b
I0610 05:07:37.122885 15981 net.cpp:84] Creating Layer scale_stage0_block0_branch2b
I0610 05:07:37.122900 15981 net.cpp:406] scale_stage0_block0_branch2b <- conv_stage0_block0_branch2b
I0610 05:07:37.122908 15981 net.cpp:367] scale_stage0_block0_branch2b -> conv_stage0_block0_branch2b (in-place)
I0610 05:07:37.122951 15981 layer_factory.hpp:77] Creating layer scale_stage0_block0_branch2b
I0610 05:07:37.123071 15981 net.cpp:122] Setting up scale_stage0_block0_branch2b
I0610 05:07:37.123080 15981 net.cpp:129] Top shape: 7 32 56 56 (702464)
I0610 05:07:37.123085 15981 net.cpp:137] Memory required for data: 164376604
I0610 05:07:37.123093 15981 layer_factory.hpp:77] Creating layer relu_stage0_block0_branch2b
I0610 05:07:37.123102 15981 net.cpp:84] Creating Layer relu_stage0_block0_branch2b
I0610 05:07:37.123107 15981 net.cpp:406] relu_stage0_block0_branch2b <- conv_stage0_block0_branch2b
I0610 05:07:37.123114 15981 net.cpp:367] relu_stage0_block0_branch2b -> conv_stage0_block0_branch2b (in-place)
I0610 05:07:37.123122 15981 net.cpp:122] Setting up relu_stage0_block0_branch2b
I0610 05:07:37.123129 15981 net.cpp:129] Top shape: 7 32 56 56 (702464)
I0610 05:07:37.123134 15981 net.cpp:137] Memory required for data: 167186460
I0610 05:07:37.123138 15981 layer_factory.hpp:77] Creating layer conv_stage0_block0_branch2c
I0610 05:07:37.123150 15981 net.cpp:84] Creating Layer conv_stage0_block0_branch2c
I0610 05:07:37.123155 15981 net.cpp:406] conv_stage0_block0_branch2c <- conv_stage0_block0_branch2b
I0610 05:07:37.123164 15981 net.cpp:380] conv_stage0_block0_branch2c -> conv_stage0_block0_branch2c
I0610 05:07:37.123435 15981 net.cpp:122] Setting up conv_stage0_block0_branch2c
I0610 05:07:37.123443 15981 net.cpp:129] Top shape: 7 128 56 56 (2809856)
I0610 05:07:37.123448 15981 net.cpp:137] Memory required for data: 178425884
I0610 05:07:37.123456 15981 layer_factory.hpp:77] Creating layer bn_stage0_block0_branch2c
I0610 05:07:37.123466 15981 net.cpp:84] Creating Layer bn_stage0_block0_branch2c
I0610 05:07:37.123471 15981 net.cpp:406] bn_stage0_block0_branch2c <- conv_stage0_block0_branch2c
I0610 05:07:37.123478 15981 net.cpp:367] bn_stage0_block0_branch2c -> conv_stage0_block0_branch2c (in-place)
I0610 05:07:37.123666 15981 net.cpp:122] Setting up bn_stage0_block0_branch2c
I0610 05:07:37.123675 15981 net.cpp:129] Top shape: 7 128 56 56 (2809856)
I0610 05:07:37.123680 15981 net.cpp:137] Memory required for data: 189665308
I0610 05:07:37.123695 15981 layer_factory.hpp:77] Creating layer scale_stage0_block0_branch2c
I0610 05:07:37.123704 15981 net.cpp:84] Creating Layer scale_stage0_block0_branch2c
I0610 05:07:37.123709 15981 net.cpp:406] scale_stage0_block0_branch2c <- conv_stage0_block0_branch2c
I0610 05:07:37.123716 15981 net.cpp:367] scale_stage0_block0_branch2c -> conv_stage0_block0_branch2c (in-place)
I0610 05:07:37.123757 15981 layer_factory.hpp:77] Creating layer scale_stage0_block0_branch2c
I0610 05:07:37.123870 15981 net.cpp:122] Setting up scale_stage0_block0_branch2c
I0610 05:07:37.123879 15981 net.cpp:129] Top shape: 7 128 56 56 (2809856)
I0610 05:07:37.123883 15981 net.cpp:137] Memory required for data: 200904732
I0610 05:07:37.123891 15981 layer_factory.hpp:77] Creating layer eltwise_stage0_block0
I0610 05:07:37.123899 15981 net.cpp:84] Creating Layer eltwise_stage0_block0
I0610 05:07:37.123905 15981 net.cpp:406] eltwise_stage0_block0 <- conv_stage0_block0_proj_shortcut
I0610 05:07:37.123910 15981 net.cpp:406] eltwise_stage0_block0 <- conv_stage0_block0_branch2c
I0610 05:07:37.123919 15981 net.cpp:380] eltwise_stage0_block0 -> eltwise_stage0_block0
I0610 05:07:37.123944 15981 net.cpp:122] Setting up eltwise_stage0_block0
I0610 05:07:37.123953 15981 net.cpp:129] Top shape: 7 128 56 56 (2809856)
I0610 05:07:37.123958 15981 net.cpp:137] Memory required for data: 212144156
I0610 05:07:37.123962 15981 layer_factory.hpp:77] Creating layer relu_stage0_block0
I0610 05:07:37.123968 15981 net.cpp:84] Creating Layer relu_stage0_block0
I0610 05:07:37.123973 15981 net.cpp:406] relu_stage0_block0 <- eltwise_stage0_block0
I0610 05:07:37.123981 15981 net.cpp:367] relu_stage0_block0 -> eltwise_stage0_block0 (in-place)
I0610 05:07:37.123998 15981 net.cpp:122] Setting up relu_stage0_block0
I0610 05:07:37.124006 15981 net.cpp:129] Top shape: 7 128 56 56 (2809856)
I0610 05:07:37.124011 15981 net.cpp:137] Memory required for data: 223383580
I0610 05:07:37.124014 15981 layer_factory.hpp:77] Creating layer eltwise_stage0_block0_relu_stage0_block0_0_split
I0610 05:07:37.124022 15981 net.cpp:84] Creating Layer eltwise_stage0_block0_relu_stage0_block0_0_split
I0610 05:07:37.124027 15981 net.cpp:406] eltwise_stage0_block0_relu_stage0_block0_0_split <- eltwise_stage0_block0
I0610 05:07:37.124034 15981 net.cpp:380] eltwise_stage0_block0_relu_stage0_block0_0_split -> eltwise_stage0_block0_relu_stage0_block0_0_split_0
I0610 05:07:37.124044 15981 net.cpp:380] eltwise_stage0_block0_relu_stage0_block0_0_split -> eltwise_stage0_block0_relu_stage0_block0_0_split_1
I0610 05:07:37.124083 15981 net.cpp:122] Setting up eltwise_stage0_block0_relu_stage0_block0_0_split
I0610 05:07:37.124091 15981 net.cpp:129] Top shape: 7 128 56 56 (2809856)
I0610 05:07:37.124097 15981 net.cpp:129] Top shape: 7 128 56 56 (2809856)
I0610 05:07:37.124104 15981 net.cpp:137] Memory required for data: 245862428
I0610 05:07:37.124107 15981 layer_factory.hpp:77] Creating layer conv_stage0_block1_branch2a
I0610 05:07:37.124120 15981 net.cpp:84] Creating Layer conv_stage0_block1_branch2a
I0610 05:07:37.124125 15981 net.cpp:406] conv_stage0_block1_branch2a <- eltwise_stage0_block0_relu_stage0_block0_0_split_0
I0610 05:07:37.124135 15981 net.cpp:380] conv_stage0_block1_branch2a -> conv_stage0_block1_branch2a
I0610 05:07:37.124414 15981 net.cpp:122] Setting up conv_stage0_block1_branch2a
I0610 05:07:37.124424 15981 net.cpp:129] Top shape: 7 32 56 56 (702464)
I0610 05:07:37.124429 15981 net.cpp:137] Memory required for data: 248672284
I0610 05:07:37.124438 15981 layer_factory.hpp:77] Creating layer bn_stage0_block1_branch2a
I0610 05:07:37.124447 15981 net.cpp:84] Creating Layer bn_stage0_block1_branch2a
I0610 05:07:37.124452 15981 net.cpp:406] bn_stage0_block1_branch2a <- conv_stage0_block1_branch2a
I0610 05:07:37.124460 15981 net.cpp:367] bn_stage0_block1_branch2a -> conv_stage0_block1_branch2a (in-place)
I0610 05:07:37.124655 15981 net.cpp:122] Setting up bn_stage0_block1_branch2a
I0610 05:07:37.124663 15981 net.cpp:129] Top shape: 7 32 56 56 (702464)
I0610 05:07:37.124668 15981 net.cpp:137] Memory required for data: 251482140
I0610 05:07:37.124678 15981 layer_factory.hpp:77] Creating layer scale_stage0_block1_branch2a
I0610 05:07:37.124686 15981 net.cpp:84] Creating Layer scale_stage0_block1_branch2a
I0610 05:07:37.124691 15981 net.cpp:406] scale_stage0_block1_branch2a <- conv_stage0_block1_branch2a
I0610 05:07:37.124698 15981 net.cpp:367] scale_stage0_block1_branch2a -> conv_stage0_block1_branch2a (in-place)
I0610 05:07:37.124737 15981 layer_factory.hpp:77] Creating layer scale_stage0_block1_branch2a
I0610 05:07:37.124863 15981 net.cpp:122] Setting up scale_stage0_block1_branch2a
I0610 05:07:37.124872 15981 net.cpp:129] Top shape: 7 32 56 56 (702464)
I0610 05:07:37.124877 15981 net.cpp:137] Memory required for data: 254291996
I0610 05:07:37.124886 15981 layer_factory.hpp:77] Creating layer relu_stage0_block1_branch2a
I0610 05:07:37.124894 15981 net.cpp:84] Creating Layer relu_stage0_block1_branch2a
I0610 05:07:37.124899 15981 net.cpp:406] relu_stage0_block1_branch2a <- conv_stage0_block1_branch2a
I0610 05:07:37.124907 15981 net.cpp:367] relu_stage0_block1_branch2a -> conv_stage0_block1_branch2a (in-place)
I0610 05:07:37.124914 15981 net.cpp:122] Setting up relu_stage0_block1_branch2a
I0610 05:07:37.124922 15981 net.cpp:129] Top shape: 7 32 56 56 (702464)
I0610 05:07:37.124927 15981 net.cpp:137] Memory required for data: 257101852
I0610 05:07:37.124930 15981 layer_factory.hpp:77] Creating layer conv_stage0_block1_branch2b
I0610 05:07:37.124943 15981 net.cpp:84] Creating Layer conv_stage0_block1_branch2b
I0610 05:07:37.124948 15981 net.cpp:406] conv_stage0_block1_branch2b <- conv_stage0_block1_branch2a
I0610 05:07:37.124956 15981 net.cpp:380] conv_stage0_block1_branch2b -> conv_stage0_block1_branch2b
I0610 05:07:37.125289 15981 net.cpp:122] Setting up conv_stage0_block1_branch2b
I0610 05:07:37.125299 15981 net.cpp:129] Top shape: 7 32 56 56 (702464)
I0610 05:07:37.125304 15981 net.cpp:137] Memory required for data: 259911708
I0610 05:07:37.125311 15981 layer_factory.hpp:77] Creating layer bn_stage0_block1_branch2b
I0610 05:07:37.125321 15981 net.cpp:84] Creating Layer bn_stage0_block1_branch2b
I0610 05:07:37.125327 15981 net.cpp:406] bn_stage0_block1_branch2b <- conv_stage0_block1_branch2b
I0610 05:07:37.125335 15981 net.cpp:367] bn_stage0_block1_branch2b -> conv_stage0_block1_branch2b (in-place)
I0610 05:07:37.125530 15981 net.cpp:122] Setting up bn_stage0_block1_branch2b
I0610 05:07:37.125540 15981 net.cpp:129] Top shape: 7 32 56 56 (702464)
I0610 05:07:37.125545 15981 net.cpp:137] Memory required for data: 262721564
I0610 05:07:37.125555 15981 layer_factory.hpp:77] Creating layer scale_stage0_block1_branch2b
I0610 05:07:37.125563 15981 net.cpp:84] Creating Layer scale_stage0_block1_branch2b
I0610 05:07:37.125568 15981 net.cpp:406] scale_stage0_block1_branch2b <- conv_stage0_block1_branch2b
I0610 05:07:37.125576 15981 net.cpp:367] scale_stage0_block1_branch2b -> conv_stage0_block1_branch2b (in-place)
I0610 05:07:37.125614 15981 layer_factory.hpp:77] Creating layer scale_stage0_block1_branch2b
I0610 05:07:37.125735 15981 net.cpp:122] Setting up scale_stage0_block1_branch2b
I0610 05:07:37.125744 15981 net.cpp:129] Top shape: 7 32 56 56 (702464)
I0610 05:07:37.125749 15981 net.cpp:137] Memory required for data: 265531420
I0610 05:07:37.125756 15981 layer_factory.hpp:77] Creating layer relu_stage0_block1_branch2b
I0610 05:07:37.125764 15981 net.cpp:84] Creating Layer relu_stage0_block1_branch2b
I0610 05:07:37.125769 15981 net.cpp:406] relu_stage0_block1_branch2b <- conv_stage0_block1_branch2b
I0610 05:07:37.125777 15981 net.cpp:367] relu_stage0_block1_branch2b -> conv_stage0_block1_branch2b (in-place)
I0610 05:07:37.125784 15981 net.cpp:122] Setting up relu_stage0_block1_branch2b
I0610 05:07:37.125792 15981 net.cpp:129] Top shape: 7 32 56 56 (702464)
I0610 05:07:37.125797 15981 net.cpp:137] Memory required for data: 268341276
I0610 05:07:37.125800 15981 layer_factory.hpp:77] Creating layer conv_stage0_block1_branch2c
I0610 05:07:37.125821 15981 net.cpp:84] Creating Layer conv_stage0_block1_branch2c
I0610 05:07:37.125828 15981 net.cpp:406] conv_stage0_block1_branch2c <- conv_stage0_block1_branch2b
I0610 05:07:37.125835 15981 net.cpp:380] conv_stage0_block1_branch2c -> conv_stage0_block1_branch2c
I0610 05:07:37.126106 15981 net.cpp:122] Setting up conv_stage0_block1_branch2c
I0610 05:07:37.126116 15981 net.cpp:129] Top shape: 7 128 56 56 (2809856)
I0610 05:07:37.126121 15981 net.cpp:137] Memory required for data: 279580700
I0610 05:07:37.126128 15981 layer_factory.hpp:77] Creating layer bn_stage0_block1_branch2c
I0610 05:07:37.126138 15981 net.cpp:84] Creating Layer bn_stage0_block1_branch2c
I0610 05:07:37.126143 15981 net.cpp:406] bn_stage0_block1_branch2c <- conv_stage0_block1_branch2c
I0610 05:07:37.126152 15981 net.cpp:367] bn_stage0_block1_branch2c -> conv_stage0_block1_branch2c (in-place)
I0610 05:07:37.126340 15981 net.cpp:122] Setting up bn_stage0_block1_branch2c
I0610 05:07:37.126350 15981 net.cpp:129] Top shape: 7 128 56 56 (2809856)
I0610 05:07:37.126354 15981 net.cpp:137] Memory required for data: 290820124
I0610 05:07:37.126364 15981 layer_factory.hpp:77] Creating layer scale_stage0_block1_branch2c
I0610 05:07:37.126374 15981 net.cpp:84] Creating Layer scale_stage0_block1_branch2c
I0610 05:07:37.126379 15981 net.cpp:406] scale_stage0_block1_branch2c <- conv_stage0_block1_branch2c
I0610 05:07:37.126384 15981 net.cpp:367] scale_stage0_block1_branch2c -> conv_stage0_block1_branch2c (in-place)
I0610 05:07:37.126425 15981 layer_factory.hpp:77] Creating layer scale_stage0_block1_branch2c
I0610 05:07:37.126534 15981 net.cpp:122] Setting up scale_stage0_block1_branch2c
I0610 05:07:37.126543 15981 net.cpp:129] Top shape: 7 128 56 56 (2809856)
I0610 05:07:37.126547 15981 net.cpp:137] Memory required for data: 302059548
I0610 05:07:37.126566 15981 layer_factory.hpp:77] Creating layer eltwise_stage0_block1
I0610 05:07:37.126574 15981 net.cpp:84] Creating Layer eltwise_stage0_block1
I0610 05:07:37.126579 15981 net.cpp:406] eltwise_stage0_block1 <- eltwise_stage0_block0_relu_stage0_block0_0_split_1
I0610 05:07:37.126585 15981 net.cpp:406] eltwise_stage0_block1 <- conv_stage0_block1_branch2c
I0610 05:07:37.126593 15981 net.cpp:380] eltwise_stage0_block1 -> eltwise_stage0_block1
I0610 05:07:37.126623 15981 net.cpp:122] Setting up eltwise_stage0_block1
I0610 05:07:37.126632 15981 net.cpp:129] Top shape: 7 128 56 56 (2809856)
I0610 05:07:37.126637 15981 net.cpp:137] Memory required for data: 313298972
I0610 05:07:37.126641 15981 layer_factory.hpp:77] Creating layer relu_stage0_block1
I0610 05:07:37.126647 15981 net.cpp:84] Creating Layer relu_stage0_block1
I0610 05:07:37.126653 15981 net.cpp:406] relu_stage0_block1 <- eltwise_stage0_block1
I0610 05:07:37.126660 15981 net.cpp:367] relu_stage0_block1 -> eltwise_stage0_block1 (in-place)
I0610 05:07:37.126668 15981 net.cpp:122] Setting up relu_stage0_block1
I0610 05:07:37.126675 15981 net.cpp:129] Top shape: 7 128 56 56 (2809856)
I0610 05:07:37.126680 15981 net.cpp:137] Memory required for data: 324538396
I0610 05:07:37.126684 15981 layer_factory.hpp:77] Creating layer eltwise_stage0_block1_relu_stage0_block1_0_split
I0610 05:07:37.126691 15981 net.cpp:84] Creating Layer eltwise_stage0_block1_relu_stage0_block1_0_split
I0610 05:07:37.126696 15981 net.cpp:406] eltwise_stage0_block1_relu_stage0_block1_0_split <- eltwise_stage0_block1
I0610 05:07:37.126703 15981 net.cpp:380] eltwise_stage0_block1_relu_stage0_block1_0_split -> eltwise_stage0_block1_relu_stage0_block1_0_split_0
I0610 05:07:37.126713 15981 net.cpp:380] eltwise_stage0_block1_relu_stage0_block1_0_split -> eltwise_stage0_block1_relu_stage0_block1_0_split_1
I0610 05:07:37.126749 15981 net.cpp:122] Setting up eltwise_stage0_block1_relu_stage0_block1_0_split
I0610 05:07:37.126757 15981 net.cpp:129] Top shape: 7 128 56 56 (2809856)
I0610 05:07:37.126765 15981 net.cpp:129] Top shape: 7 128 56 56 (2809856)
I0610 05:07:37.126770 15981 net.cpp:137] Memory required for data: 347017244
I0610 05:07:37.126773 15981 layer_factory.hpp:77] Creating layer conv_stage0_block2_branch2a
I0610 05:07:37.126786 15981 net.cpp:84] Creating Layer conv_stage0_block2_branch2a
I0610 05:07:37.126791 15981 net.cpp:406] conv_stage0_block2_branch2a <- eltwise_stage0_block1_relu_stage0_block1_0_split_0
I0610 05:07:37.126799 15981 net.cpp:380] conv_stage0_block2_branch2a -> conv_stage0_block2_branch2a
I0610 05:07:37.127070 15981 net.cpp:122] Setting up conv_stage0_block2_branch2a
I0610 05:07:37.127079 15981 net.cpp:129] Top shape: 7 32 56 56 (702464)
I0610 05:07:37.127082 15981 net.cpp:137] Memory required for data: 349827100
I0610 05:07:37.127089 15981 layer_factory.hpp:77] Creating layer bn_stage0_block2_branch2a
I0610 05:07:37.127099 15981 net.cpp:84] Creating Layer bn_stage0_block2_branch2a
I0610 05:07:37.127102 15981 net.cpp:406] bn_stage0_block2_branch2a <- conv_stage0_block2_branch2a
I0610 05:07:37.127110 15981 net.cpp:367] bn_stage0_block2_branch2a -> conv_stage0_block2_branch2a (in-place)
I0610 05:07:37.127296 15981 net.cpp:122] Setting up bn_stage0_block2_branch2a
I0610 05:07:37.127303 15981 net.cpp:129] Top shape: 7 32 56 56 (702464)
I0610 05:07:37.127307 15981 net.cpp:137] Memory required for data: 352636956
I0610 05:07:37.127316 15981 layer_factory.hpp:77] Creating layer scale_stage0_block2_branch2a
I0610 05:07:37.127324 15981 net.cpp:84] Creating Layer scale_stage0_block2_branch2a
I0610 05:07:37.127329 15981 net.cpp:406] scale_stage0_block2_branch2a <- conv_stage0_block2_branch2a
I0610 05:07:37.127336 15981 net.cpp:367] scale_stage0_block2_branch2a -> conv_stage0_block2_branch2a (in-place)
I0610 05:07:37.127375 15981 layer_factory.hpp:77] Creating layer scale_stage0_block2_branch2a
I0610 05:07:37.127493 15981 net.cpp:122] Setting up scale_stage0_block2_branch2a
I0610 05:07:37.127501 15981 net.cpp:129] Top shape: 7 32 56 56 (702464)
I0610 05:07:37.127513 15981 net.cpp:137] Memory required for data: 355446812
I0610 05:07:37.127521 15981 layer_factory.hpp:77] Creating layer relu_stage0_block2_branch2a
I0610 05:07:37.127529 15981 net.cpp:84] Creating Layer relu_stage0_block2_branch2a
I0610 05:07:37.127533 15981 net.cpp:406] relu_stage0_block2_branch2a <- conv_stage0_block2_branch2a
I0610 05:07:37.127539 15981 net.cpp:367] relu_stage0_block2_branch2a -> conv_stage0_block2_branch2a (in-place)
I0610 05:07:37.127547 15981 net.cpp:122] Setting up relu_stage0_block2_branch2a
I0610 05:07:37.127552 15981 net.cpp:129] Top shape: 7 32 56 56 (702464)
I0610 05:07:37.127557 15981 net.cpp:137] Memory required for data: 358256668
I0610 05:07:37.127560 15981 layer_factory.hpp:77] Creating layer conv_stage0_block2_branch2b
I0610 05:07:37.127571 15981 net.cpp:84] Creating Layer conv_stage0_block2_branch2b
I0610 05:07:37.127575 15981 net.cpp:406] conv_stage0_block2_branch2b <- conv_stage0_block2_branch2a
I0610 05:07:37.127584 15981 net.cpp:380] conv_stage0_block2_branch2b -> conv_stage0_block2_branch2b
I0610 05:07:37.127902 15981 net.cpp:122] Setting up conv_stage0_block2_branch2b
I0610 05:07:37.127909 15981 net.cpp:129] Top shape: 7 32 56 56 (702464)
I0610 05:07:37.127914 15981 net.cpp:137] Memory required for data: 361066524
I0610 05:07:37.127929 15981 layer_factory.hpp:77] Creating layer bn_stage0_block2_branch2b
I0610 05:07:37.127938 15981 net.cpp:84] Creating Layer bn_stage0_block2_branch2b
I0610 05:07:37.127943 15981 net.cpp:406] bn_stage0_block2_branch2b <- conv_stage0_block2_branch2b
I0610 05:07:37.127950 15981 net.cpp:367] bn_stage0_block2_branch2b -> conv_stage0_block2_branch2b (in-place)
I0610 05:07:37.128141 15981 net.cpp:122] Setting up bn_stage0_block2_branch2b
I0610 05:07:37.128149 15981 net.cpp:129] Top shape: 7 32 56 56 (702464)
I0610 05:07:37.128154 15981 net.cpp:137] Memory required for data: 363876380
I0610 05:07:37.128162 15981 layer_factory.hpp:77] Creating layer scale_stage0_block2_branch2b
I0610 05:07:37.128170 15981 net.cpp:84] Creating Layer scale_stage0_block2_branch2b
I0610 05:07:37.128175 15981 net.cpp:406] scale_stage0_block2_branch2b <- conv_stage0_block2_branch2b
I0610 05:07:37.128182 15981 net.cpp:367] scale_stage0_block2_branch2b -> conv_stage0_block2_branch2b (in-place)
I0610 05:07:37.128221 15981 layer_factory.hpp:77] Creating layer scale_stage0_block2_branch2b
I0610 05:07:37.128336 15981 net.cpp:122] Setting up scale_stage0_block2_branch2b
I0610 05:07:37.128345 15981 net.cpp:129] Top shape: 7 32 56 56 (702464)
I0610 05:07:37.128348 15981 net.cpp:137] Memory required for data: 366686236
I0610 05:07:37.128355 15981 layer_factory.hpp:77] Creating layer relu_stage0_block2_branch2b
I0610 05:07:37.128362 15981 net.cpp:84] Creating Layer relu_stage0_block2_branch2b
I0610 05:07:37.128366 15981 net.cpp:406] relu_stage0_block2_branch2b <- conv_stage0_block2_branch2b
I0610 05:07:37.128372 15981 net.cpp:367] relu_stage0_block2_branch2b -> conv_stage0_block2_branch2b (in-place)
I0610 05:07:37.128379 15981 net.cpp:122] Setting up relu_stage0_block2_branch2b
I0610 05:07:37.128386 15981 net.cpp:129] Top shape: 7 32 56 56 (702464)
I0610 05:07:37.128389 15981 net.cpp:137] Memory required for data: 369496092
I0610 05:07:37.128393 15981 layer_factory.hpp:77] Creating layer conv_stage0_block2_branch2c
I0610 05:07:37.128404 15981 net.cpp:84] Creating Layer conv_stage0_block2_branch2c
I0610 05:07:37.128408 15981 net.cpp:406] conv_stage0_block2_branch2c <- conv_stage0_block2_branch2b
I0610 05:07:37.128417 15981 net.cpp:380] conv_stage0_block2_branch2c -> conv_stage0_block2_branch2c
I0610 05:07:37.128710 15981 net.cpp:122] Setting up conv_stage0_block2_branch2c
I0610 05:07:37.128720 15981 net.cpp:129] Top shape: 7 128 56 56 (2809856)
I0610 05:07:37.128726 15981 net.cpp:137] Memory required for data: 380735516
I0610 05:07:37.128733 15981 layer_factory.hpp:77] Creating layer bn_stage0_block2_branch2c
I0610 05:07:37.128747 15981 net.cpp:84] Creating Layer bn_stage0_block2_branch2c
I0610 05:07:37.128752 15981 net.cpp:406] bn_stage0_block2_branch2c <- conv_stage0_block2_branch2c
I0610 05:07:37.128772 15981 net.cpp:367] bn_stage0_block2_branch2c -> conv_stage0_block2_branch2c (in-place)
I0610 05:07:37.128976 15981 net.cpp:122] Setting up bn_stage0_block2_branch2c
I0610 05:07:37.128984 15981 net.cpp:129] Top shape: 7 128 56 56 (2809856)
I0610 05:07:37.128988 15981 net.cpp:137] Memory required for data: 391974940
I0610 05:07:37.128998 15981 layer_factory.hpp:77] Creating layer scale_stage0_block2_branch2c
I0610 05:07:37.129009 15981 net.cpp:84] Creating Layer scale_stage0_block2_branch2c
I0610 05:07:37.129012 15981 net.cpp:406] scale_stage0_block2_branch2c <- conv_stage0_block2_branch2c
I0610 05:07:37.129020 15981 net.cpp:367] scale_stage0_block2_branch2c -> conv_stage0_block2_branch2c (in-place)
I0610 05:07:37.129060 15981 layer_factory.hpp:77] Creating layer scale_stage0_block2_branch2c
I0610 05:07:37.129175 15981 net.cpp:122] Setting up scale_stage0_block2_branch2c
I0610 05:07:37.129184 15981 net.cpp:129] Top shape: 7 128 56 56 (2809856)
I0610 05:07:37.129189 15981 net.cpp:137] Memory required for data: 403214364
I0610 05:07:37.129196 15981 layer_factory.hpp:77] Creating layer eltwise_stage0_block2
I0610 05:07:37.129204 15981 net.cpp:84] Creating Layer eltwise_stage0_block2
I0610 05:07:37.129209 15981 net.cpp:406] eltwise_stage0_block2 <- eltwise_stage0_block1_relu_stage0_block1_0_split_1
I0610 05:07:37.129214 15981 net.cpp:406] eltwise_stage0_block2 <- conv_stage0_block2_branch2c
I0610 05:07:37.129220 15981 net.cpp:380] eltwise_stage0_block2 -> eltwise_stage0_block2
I0610 05:07:37.129245 15981 net.cpp:122] Setting up eltwise_stage0_block2
I0610 05:07:37.129251 15981 net.cpp:129] Top shape: 7 128 56 56 (2809856)
I0610 05:07:37.129256 15981 net.cpp:137] Memory required for data: 414453788
I0610 05:07:37.129258 15981 layer_factory.hpp:77] Creating layer relu_stage0_block2
I0610 05:07:37.129266 15981 net.cpp:84] Creating Layer relu_stage0_block2
I0610 05:07:37.129269 15981 net.cpp:406] relu_stage0_block2 <- eltwise_stage0_block2
I0610 05:07:37.129276 15981 net.cpp:367] relu_stage0_block2 -> eltwise_stage0_block2 (in-place)
I0610 05:07:37.129283 15981 net.cpp:122] Setting up relu_stage0_block2
I0610 05:07:37.129289 15981 net.cpp:129] Top shape: 7 128 56 56 (2809856)
I0610 05:07:37.129292 15981 net.cpp:137] Memory required for data: 425693212
I0610 05:07:37.129297 15981 layer_factory.hpp:77] Creating layer eltwise_stage0_block2_relu_stage0_block2_0_split
I0610 05:07:37.129302 15981 net.cpp:84] Creating Layer eltwise_stage0_block2_relu_stage0_block2_0_split
I0610 05:07:37.129307 15981 net.cpp:406] eltwise_stage0_block2_relu_stage0_block2_0_split <- eltwise_stage0_block2
I0610 05:07:37.129313 15981 net.cpp:380] eltwise_stage0_block2_relu_stage0_block2_0_split -> eltwise_stage0_block2_relu_stage0_block2_0_split_0
I0610 05:07:37.129323 15981 net.cpp:380] eltwise_stage0_block2_relu_stage0_block2_0_split -> eltwise_stage0_block2_relu_stage0_block2_0_split_1
I0610 05:07:37.129357 15981 net.cpp:122] Setting up eltwise_stage0_block2_relu_stage0_block2_0_split
I0610 05:07:37.129364 15981 net.cpp:129] Top shape: 7 128 56 56 (2809856)
I0610 05:07:37.129369 15981 net.cpp:129] Top shape: 7 128 56 56 (2809856)
I0610 05:07:37.129374 15981 net.cpp:137] Memory required for data: 448172060
I0610 05:07:37.129376 15981 layer_factory.hpp:77] Creating layer conv_stage1_block0_proj_shortcut
I0610 05:07:37.129390 15981 net.cpp:84] Creating Layer conv_stage1_block0_proj_shortcut
I0610 05:07:37.129393 15981 net.cpp:406] conv_stage1_block0_proj_shortcut <- eltwise_stage0_block2_relu_stage0_block2_0_split_0
I0610 05:07:37.129402 15981 net.cpp:380] conv_stage1_block0_proj_shortcut -> conv_stage1_block0_proj_shortcut
I0610 05:07:37.131141 15981 net.cpp:122] Setting up conv_stage1_block0_proj_shortcut
I0610 05:07:37.131155 15981 net.cpp:129] Top shape: 7 256 28 28 (1404928)
I0610 05:07:37.131160 15981 net.cpp:137] Memory required for data: 453791772
I0610 05:07:37.131168 15981 layer_factory.hpp:77] Creating layer bn_stage1_block0_proj_shortcut
I0610 05:07:37.131181 15981 net.cpp:84] Creating Layer bn_stage1_block0_proj_shortcut
I0610 05:07:37.131199 15981 net.cpp:406] bn_stage1_block0_proj_shortcut <- conv_stage1_block0_proj_shortcut
I0610 05:07:37.131209 15981 net.cpp:367] bn_stage1_block0_proj_shortcut -> conv_stage1_block0_proj_shortcut (in-place)
I0610 05:07:37.131420 15981 net.cpp:122] Setting up bn_stage1_block0_proj_shortcut
I0610 05:07:37.131428 15981 net.cpp:129] Top shape: 7 256 28 28 (1404928)
I0610 05:07:37.131433 15981 net.cpp:137] Memory required for data: 459411484
I0610 05:07:37.131441 15981 layer_factory.hpp:77] Creating layer scale_stage1_block0_proj_shortcut
I0610 05:07:37.131449 15981 net.cpp:84] Creating Layer scale_stage1_block0_proj_shortcut
I0610 05:07:37.131454 15981 net.cpp:406] scale_stage1_block0_proj_shortcut <- conv_stage1_block0_proj_shortcut
I0610 05:07:37.131461 15981 net.cpp:367] scale_stage1_block0_proj_shortcut -> conv_stage1_block0_proj_shortcut (in-place)
I0610 05:07:37.131506 15981 layer_factory.hpp:77] Creating layer scale_stage1_block0_proj_shortcut
I0610 05:07:37.131625 15981 net.cpp:122] Setting up scale_stage1_block0_proj_shortcut
I0610 05:07:37.131635 15981 net.cpp:129] Top shape: 7 256 28 28 (1404928)
I0610 05:07:37.131639 15981 net.cpp:137] Memory required for data: 465031196
I0610 05:07:37.131647 15981 layer_factory.hpp:77] Creating layer conv_stage1_block0_branch2a
I0610 05:07:37.131660 15981 net.cpp:84] Creating Layer conv_stage1_block0_branch2a
I0610 05:07:37.131665 15981 net.cpp:406] conv_stage1_block0_branch2a <- eltwise_stage0_block2_relu_stage0_block2_0_split_1
I0610 05:07:37.131676 15981 net.cpp:380] conv_stage1_block0_branch2a -> conv_stage1_block0_branch2a
I0610 05:07:37.132010 15981 net.cpp:122] Setting up conv_stage1_block0_branch2a
I0610 05:07:37.132019 15981 net.cpp:129] Top shape: 7 64 28 28 (351232)
I0610 05:07:37.132024 15981 net.cpp:137] Memory required for data: 466436124
I0610 05:07:37.132030 15981 layer_factory.hpp:77] Creating layer bn_stage1_block0_branch2a
I0610 05:07:37.132048 15981 net.cpp:84] Creating Layer bn_stage1_block0_branch2a
I0610 05:07:37.132055 15981 net.cpp:406] bn_stage1_block0_branch2a <- conv_stage1_block0_branch2a
I0610 05:07:37.132063 15981 net.cpp:367] bn_stage1_block0_branch2a -> conv_stage1_block0_branch2a (in-place)
I0610 05:07:37.132272 15981 net.cpp:122] Setting up bn_stage1_block0_branch2a
I0610 05:07:37.132280 15981 net.cpp:129] Top shape: 7 64 28 28 (351232)
I0610 05:07:37.132284 15981 net.cpp:137] Memory required for data: 467841052
I0610 05:07:37.132293 15981 layer_factory.hpp:77] Creating layer scale_stage1_block0_branch2a
I0610 05:07:37.132304 15981 net.cpp:84] Creating Layer scale_stage1_block0_branch2a
I0610 05:07:37.132309 15981 net.cpp:406] scale_stage1_block0_branch2a <- conv_stage1_block0_branch2a
I0610 05:07:37.132316 15981 net.cpp:367] scale_stage1_block0_branch2a -> conv_stage1_block0_branch2a (in-place)
I0610 05:07:37.132359 15981 layer_factory.hpp:77] Creating layer scale_stage1_block0_branch2a
I0610 05:07:37.132480 15981 net.cpp:122] Setting up scale_stage1_block0_branch2a
I0610 05:07:37.132488 15981 net.cpp:129] Top shape: 7 64 28 28 (351232)
I0610 05:07:37.132493 15981 net.cpp:137] Memory required for data: 469245980
I0610 05:07:37.132499 15981 layer_factory.hpp:77] Creating layer relu_stage1_block0_branch2a
I0610 05:07:37.132506 15981 net.cpp:84] Creating Layer relu_stage1_block0_branch2a
I0610 05:07:37.132511 15981 net.cpp:406] relu_stage1_block0_branch2a <- conv_stage1_block0_branch2a
I0610 05:07:37.132519 15981 net.cpp:367] relu_stage1_block0_branch2a -> conv_stage1_block0_branch2a (in-place)
I0610 05:07:37.132527 15981 net.cpp:122] Setting up relu_stage1_block0_branch2a
I0610 05:07:37.132534 15981 net.cpp:129] Top shape: 7 64 28 28 (351232)
I0610 05:07:37.132537 15981 net.cpp:137] Memory required for data: 470650908
I0610 05:07:37.132541 15981 layer_factory.hpp:77] Creating layer conv_stage1_block0_branch2b
I0610 05:07:37.132552 15981 net.cpp:84] Creating Layer conv_stage1_block0_branch2b
I0610 05:07:37.132556 15981 net.cpp:406] conv_stage1_block0_branch2b <- conv_stage1_block0_branch2a
I0610 05:07:37.132575 15981 net.cpp:380] conv_stage1_block0_branch2b -> conv_stage1_block0_branch2b
I0610 05:07:37.133174 15981 net.cpp:122] Setting up conv_stage1_block0_branch2b
I0610 05:07:37.133185 15981 net.cpp:129] Top shape: 7 64 28 28 (351232)
I0610 05:07:37.133189 15981 net.cpp:137] Memory required for data: 472055836
I0610 05:07:37.133198 15981 layer_factory.hpp:77] Creating layer bn_stage1_block0_branch2b
I0610 05:07:37.133205 15981 net.cpp:84] Creating Layer bn_stage1_block0_branch2b
I0610 05:07:37.133210 15981 net.cpp:406] bn_stage1_block0_branch2b <- conv_stage1_block0_branch2b
I0610 05:07:37.133220 15981 net.cpp:367] bn_stage1_block0_branch2b -> conv_stage1_block0_branch2b (in-place)
I0610 05:07:37.133430 15981 net.cpp:122] Setting up bn_stage1_block0_branch2b
I0610 05:07:37.133438 15981 net.cpp:129] Top shape: 7 64 28 28 (351232)
I0610 05:07:37.133442 15981 net.cpp:137] Memory required for data: 473460764
I0610 05:07:37.133451 15981 layer_factory.hpp:77] Creating layer scale_stage1_block0_branch2b
I0610 05:07:37.133460 15981 net.cpp:84] Creating Layer scale_stage1_block0_branch2b
I0610 05:07:37.133466 15981 net.cpp:406] scale_stage1_block0_branch2b <- conv_stage1_block0_branch2b
I0610 05:07:37.133473 15981 net.cpp:367] scale_stage1_block0_branch2b -> conv_stage1_block0_branch2b (in-place)
I0610 05:07:37.133515 15981 layer_factory.hpp:77] Creating layer scale_stage1_block0_branch2b
I0610 05:07:37.133641 15981 net.cpp:122] Setting up scale_stage1_block0_branch2b
I0610 05:07:37.133648 15981 net.cpp:129] Top shape: 7 64 28 28 (351232)
I0610 05:07:37.133652 15981 net.cpp:137] Memory required for data: 474865692
I0610 05:07:37.133659 15981 layer_factory.hpp:77] Creating layer relu_stage1_block0_branch2b
I0610 05:07:37.133667 15981 net.cpp:84] Creating Layer relu_stage1_block0_branch2b
I0610 05:07:37.133671 15981 net.cpp:406] relu_stage1_block0_branch2b <- conv_stage1_block0_branch2b
I0610 05:07:37.133678 15981 net.cpp:367] relu_stage1_block0_branch2b -> conv_stage1_block0_branch2b (in-place)
I0610 05:07:37.133687 15981 net.cpp:122] Setting up relu_stage1_block0_branch2b
I0610 05:07:37.133692 15981 net.cpp:129] Top shape: 7 64 28 28 (351232)
I0610 05:07:37.133697 15981 net.cpp:137] Memory required for data: 476270620
I0610 05:07:37.133700 15981 layer_factory.hpp:77] Creating layer conv_stage1_block0_branch2c
I0610 05:07:37.133713 15981 net.cpp:84] Creating Layer conv_stage1_block0_branch2c
I0610 05:07:37.133718 15981 net.cpp:406] conv_stage1_block0_branch2c <- conv_stage1_block0_branch2b
I0610 05:07:37.133726 15981 net.cpp:380] conv_stage1_block0_branch2c -> conv_stage1_block0_branch2c
I0610 05:07:37.134127 15981 net.cpp:122] Setting up conv_stage1_block0_branch2c
I0610 05:07:37.134136 15981 net.cpp:129] Top shape: 7 256 28 28 (1404928)
I0610 05:07:37.134141 15981 net.cpp:137] Memory required for data: 481890332
I0610 05:07:37.134148 15981 layer_factory.hpp:77] Creating layer bn_stage1_block0_branch2c
I0610 05:07:37.134178 15981 net.cpp:84] Creating Layer bn_stage1_block0_branch2c
I0610 05:07:37.134183 15981 net.cpp:406] bn_stage1_block0_branch2c <- conv_stage1_block0_branch2c
I0610 05:07:37.134191 15981 net.cpp:367] bn_stage1_block0_branch2c -> conv_stage1_block0_branch2c (in-place)
I0610 05:07:37.134399 15981 net.cpp:122] Setting up bn_stage1_block0_branch2c
I0610 05:07:37.134408 15981 net.cpp:129] Top shape: 7 256 28 28 (1404928)
I0610 05:07:37.134413 15981 net.cpp:137] Memory required for data: 487510044
I0610 05:07:37.134421 15981 layer_factory.hpp:77] Creating layer scale_stage1_block0_branch2c
I0610 05:07:37.134433 15981 net.cpp:84] Creating Layer scale_stage1_block0_branch2c
I0610 05:07:37.134436 15981 net.cpp:406] scale_stage1_block0_branch2c <- conv_stage1_block0_branch2c
I0610 05:07:37.134444 15981 net.cpp:367] scale_stage1_block0_branch2c -> conv_stage1_block0_branch2c (in-place)
I0610 05:07:37.134486 15981 layer_factory.hpp:77] Creating layer scale_stage1_block0_branch2c
I0610 05:07:37.134603 15981 net.cpp:122] Setting up scale_stage1_block0_branch2c
I0610 05:07:37.134611 15981 net.cpp:129] Top shape: 7 256 28 28 (1404928)
I0610 05:07:37.134625 15981 net.cpp:137] Memory required for data: 493129756
I0610 05:07:37.134632 15981 layer_factory.hpp:77] Creating layer eltwise_stage1_block0
I0610 05:07:37.134639 15981 net.cpp:84] Creating Layer eltwise_stage1_block0
I0610 05:07:37.134644 15981 net.cpp:406] eltwise_stage1_block0 <- conv_stage1_block0_proj_shortcut
I0610 05:07:37.134649 15981 net.cpp:406] eltwise_stage1_block0 <- conv_stage1_block0_branch2c
I0610 05:07:37.134657 15981 net.cpp:380] eltwise_stage1_block0 -> eltwise_stage1_block0
I0610 05:07:37.134685 15981 net.cpp:122] Setting up eltwise_stage1_block0
I0610 05:07:37.134692 15981 net.cpp:129] Top shape: 7 256 28 28 (1404928)
I0610 05:07:37.134696 15981 net.cpp:137] Memory required for data: 498749468
I0610 05:07:37.134699 15981 layer_factory.hpp:77] Creating layer relu_stage1_block0
I0610 05:07:37.134706 15981 net.cpp:84] Creating Layer relu_stage1_block0
I0610 05:07:37.134711 15981 net.cpp:406] relu_stage1_block0 <- eltwise_stage1_block0
I0610 05:07:37.134717 15981 net.cpp:367] relu_stage1_block0 -> eltwise_stage1_block0 (in-place)
I0610 05:07:37.134726 15981 net.cpp:122] Setting up relu_stage1_block0
I0610 05:07:37.134730 15981 net.cpp:129] Top shape: 7 256 28 28 (1404928)
I0610 05:07:37.134734 15981 net.cpp:137] Memory required for data: 504369180
I0610 05:07:37.134738 15981 layer_factory.hpp:77] Creating layer eltwise_stage1_block0_relu_stage1_block0_0_split
I0610 05:07:37.134745 15981 net.cpp:84] Creating Layer eltwise_stage1_block0_relu_stage1_block0_0_split
I0610 05:07:37.134749 15981 net.cpp:406] eltwise_stage1_block0_relu_stage1_block0_0_split <- eltwise_stage1_block0
I0610 05:07:37.134759 15981 net.cpp:380] eltwise_stage1_block0_relu_stage1_block0_0_split -> eltwise_stage1_block0_relu_stage1_block0_0_split_0
I0610 05:07:37.134768 15981 net.cpp:380] eltwise_stage1_block0_relu_stage1_block0_0_split -> eltwise_stage1_block0_relu_stage1_block0_0_split_1
I0610 05:07:37.134807 15981 net.cpp:122] Setting up eltwise_stage1_block0_relu_stage1_block0_0_split
I0610 05:07:37.134814 15981 net.cpp:129] Top shape: 7 256 28 28 (1404928)
I0610 05:07:37.134820 15981 net.cpp:129] Top shape: 7 256 28 28 (1404928)
I0610 05:07:37.134824 15981 net.cpp:137] Memory required for data: 515608604
I0610 05:07:37.134829 15981 layer_factory.hpp:77] Creating layer conv_stage1_block1_branch2a
I0610 05:07:37.134842 15981 net.cpp:84] Creating Layer conv_stage1_block1_branch2a
I0610 05:07:37.134847 15981 net.cpp:406] conv_stage1_block1_branch2a <- eltwise_stage1_block0_relu_stage1_block0_0_split_0
I0610 05:07:37.134856 15981 net.cpp:380] conv_stage1_block1_branch2a -> conv_stage1_block1_branch2a
I0610 05:07:37.135273 15981 net.cpp:122] Setting up conv_stage1_block1_branch2a
I0610 05:07:37.135282 15981 net.cpp:129] Top shape: 7 64 28 28 (351232)
I0610 05:07:37.135287 15981 net.cpp:137] Memory required for data: 517013532
I0610 05:07:37.135294 15981 layer_factory.hpp:77] Creating layer bn_stage1_block1_branch2a
I0610 05:07:37.135301 15981 net.cpp:84] Creating Layer bn_stage1_block1_branch2a
I0610 05:07:37.135306 15981 net.cpp:406] bn_stage1_block1_branch2a <- conv_stage1_block1_branch2a
I0610 05:07:37.135314 15981 net.cpp:367] bn_stage1_block1_branch2a -> conv_stage1_block1_branch2a (in-place)
I0610 05:07:37.135524 15981 net.cpp:122] Setting up bn_stage1_block1_branch2a
I0610 05:07:37.135534 15981 net.cpp:129] Top shape: 7 64 28 28 (351232)
I0610 05:07:37.135537 15981 net.cpp:137] Memory required for data: 518418460
I0610 05:07:37.135546 15981 layer_factory.hpp:77] Creating layer scale_stage1_block1_branch2a
I0610 05:07:37.135555 15981 net.cpp:84] Creating Layer scale_stage1_block1_branch2a
I0610 05:07:37.135558 15981 net.cpp:406] scale_stage1_block1_branch2a <- conv_stage1_block1_branch2a
I0610 05:07:37.135566 15981 net.cpp:367] scale_stage1_block1_branch2a -> conv_stage1_block1_branch2a (in-place)
I0610 05:07:37.135608 15981 layer_factory.hpp:77] Creating layer scale_stage1_block1_branch2a
I0610 05:07:37.135733 15981 net.cpp:122] Setting up scale_stage1_block1_branch2a
I0610 05:07:37.135751 15981 net.cpp:129] Top shape: 7 64 28 28 (351232)
I0610 05:07:37.135754 15981 net.cpp:137] Memory required for data: 519823388
I0610 05:07:37.135762 15981 layer_factory.hpp:77] Creating layer relu_stage1_block1_branch2a
I0610 05:07:37.135771 15981 net.cpp:84] Creating Layer relu_stage1_block1_branch2a
I0610 05:07:37.135776 15981 net.cpp:406] relu_stage1_block1_branch2a <- conv_stage1_block1_branch2a
I0610 05:07:37.135782 15981 net.cpp:367] relu_stage1_block1_branch2a -> conv_stage1_block1_branch2a (in-place)
I0610 05:07:37.135789 15981 net.cpp:122] Setting up relu_stage1_block1_branch2a
I0610 05:07:37.135794 15981 net.cpp:129] Top shape: 7 64 28 28 (351232)
I0610 05:07:37.135798 15981 net.cpp:137] Memory required for data: 521228316
I0610 05:07:37.135802 15981 layer_factory.hpp:77] Creating layer conv_stage1_block1_branch2b
I0610 05:07:37.135814 15981 net.cpp:84] Creating Layer conv_stage1_block1_branch2b
I0610 05:07:37.135818 15981 net.cpp:406] conv_stage1_block1_branch2b <- conv_stage1_block1_branch2a
I0610 05:07:37.135829 15981 net.cpp:380] conv_stage1_block1_branch2b -> conv_stage1_block1_branch2b
I0610 05:07:37.136432 15981 net.cpp:122] Setting up conv_stage1_block1_branch2b
I0610 05:07:37.136441 15981 net.cpp:129] Top shape: 7 64 28 28 (351232)
I0610 05:07:37.136445 15981 net.cpp:137] Memory required for data: 522633244
I0610 05:07:37.136452 15981 layer_factory.hpp:77] Creating layer bn_stage1_block1_branch2b
I0610 05:07:37.136461 15981 net.cpp:84] Creating Layer bn_stage1_block1_branch2b
I0610 05:07:37.136464 15981 net.cpp:406] bn_stage1_block1_branch2b <- conv_stage1_block1_branch2b
I0610 05:07:37.136473 15981 net.cpp:367] bn_stage1_block1_branch2b -> conv_stage1_block1_branch2b (in-place)
I0610 05:07:37.136682 15981 net.cpp:122] Setting up bn_stage1_block1_branch2b
I0610 05:07:37.136692 15981 net.cpp:129] Top shape: 7 64 28 28 (351232)
I0610 05:07:37.136695 15981 net.cpp:137] Memory required for data: 524038172
I0610 05:07:37.136704 15981 layer_factory.hpp:77] Creating layer scale_stage1_block1_branch2b
I0610 05:07:37.136711 15981 net.cpp:84] Creating Layer scale_stage1_block1_branch2b
I0610 05:07:37.136716 15981 net.cpp:406] scale_stage1_block1_branch2b <- conv_stage1_block1_branch2b
I0610 05:07:37.136724 15981 net.cpp:367] scale_stage1_block1_branch2b -> conv_stage1_block1_branch2b (in-place)
I0610 05:07:37.136765 15981 layer_factory.hpp:77] Creating layer scale_stage1_block1_branch2b
I0610 05:07:37.136893 15981 net.cpp:122] Setting up scale_stage1_block1_branch2b
I0610 05:07:37.136900 15981 net.cpp:129] Top shape: 7 64 28 28 (351232)
I0610 05:07:37.136905 15981 net.cpp:137] Memory required for data: 525443100
I0610 05:07:37.136912 15981 layer_factory.hpp:77] Creating layer relu_stage1_block1_branch2b
I0610 05:07:37.136919 15981 net.cpp:84] Creating Layer relu_stage1_block1_branch2b
I0610 05:07:37.136924 15981 net.cpp:406] relu_stage1_block1_branch2b <- conv_stage1_block1_branch2b
I0610 05:07:37.136930 15981 net.cpp:367] relu_stage1_block1_branch2b -> conv_stage1_block1_branch2b (in-place)
I0610 05:07:37.136937 15981 net.cpp:122] Setting up relu_stage1_block1_branch2b
I0610 05:07:37.136943 15981 net.cpp:129] Top shape: 7 64 28 28 (351232)
I0610 05:07:37.136947 15981 net.cpp:137] Memory required for data: 526848028
I0610 05:07:37.136951 15981 layer_factory.hpp:77] Creating layer conv_stage1_block1_branch2c
I0610 05:07:37.136962 15981 net.cpp:84] Creating Layer conv_stage1_block1_branch2c
I0610 05:07:37.136966 15981 net.cpp:406] conv_stage1_block1_branch2c <- conv_stage1_block1_branch2b
I0610 05:07:37.136976 15981 net.cpp:380] conv_stage1_block1_branch2c -> conv_stage1_block1_branch2c
I0610 05:07:37.137382 15981 net.cpp:122] Setting up conv_stage1_block1_branch2c
I0610 05:07:37.137392 15981 net.cpp:129] Top shape: 7 256 28 28 (1404928)
I0610 05:07:37.137396 15981 net.cpp:137] Memory required for data: 532467740
I0610 05:07:37.137403 15981 layer_factory.hpp:77] Creating layer bn_stage1_block1_branch2c
I0610 05:07:37.137411 15981 net.cpp:84] Creating Layer bn_stage1_block1_branch2c
I0610 05:07:37.137415 15981 net.cpp:406] bn_stage1_block1_branch2c <- conv_stage1_block1_branch2c
I0610 05:07:37.137434 15981 net.cpp:367] bn_stage1_block1_branch2c -> conv_stage1_block1_branch2c (in-place)
I0610 05:07:37.137635 15981 net.cpp:122] Setting up bn_stage1_block1_branch2c
I0610 05:07:37.137643 15981 net.cpp:129] Top shape: 7 256 28 28 (1404928)
I0610 05:07:37.137647 15981 net.cpp:137] Memory required for data: 538087452
I0610 05:07:37.137656 15981 layer_factory.hpp:77] Creating layer scale_stage1_block1_branch2c
I0610 05:07:37.137663 15981 net.cpp:84] Creating Layer scale_stage1_block1_branch2c
I0610 05:07:37.137667 15981 net.cpp:406] scale_stage1_block1_branch2c <- conv_stage1_block1_branch2c
I0610 05:07:37.137675 15981 net.cpp:367] scale_stage1_block1_branch2c -> conv_stage1_block1_branch2c (in-place)
I0610 05:07:37.137715 15981 layer_factory.hpp:77] Creating layer scale_stage1_block1_branch2c
I0610 05:07:37.137835 15981 net.cpp:122] Setting up scale_stage1_block1_branch2c
I0610 05:07:37.137845 15981 net.cpp:129] Top shape: 7 256 28 28 (1404928)
I0610 05:07:37.137848 15981 net.cpp:137] Memory required for data: 543707164
I0610 05:07:37.137856 15981 layer_factory.hpp:77] Creating layer eltwise_stage1_block1
I0610 05:07:37.137864 15981 net.cpp:84] Creating Layer eltwise_stage1_block1
I0610 05:07:37.137869 15981 net.cpp:406] eltwise_stage1_block1 <- eltwise_stage1_block0_relu_stage1_block0_0_split_1
I0610 05:07:37.137874 15981 net.cpp:406] eltwise_stage1_block1 <- conv_stage1_block1_branch2c
I0610 05:07:37.137881 15981 net.cpp:380] eltwise_stage1_block1 -> eltwise_stage1_block1
I0610 05:07:37.137907 15981 net.cpp:122] Setting up eltwise_stage1_block1
I0610 05:07:37.137914 15981 net.cpp:129] Top shape: 7 256 28 28 (1404928)
I0610 05:07:37.137918 15981 net.cpp:137] Memory required for data: 549326876
I0610 05:07:37.137923 15981 layer_factory.hpp:77] Creating layer relu_stage1_block1
I0610 05:07:37.137929 15981 net.cpp:84] Creating Layer relu_stage1_block1
I0610 05:07:37.137934 15981 net.cpp:406] relu_stage1_block1 <- eltwise_stage1_block1
I0610 05:07:37.137941 15981 net.cpp:367] relu_stage1_block1 -> eltwise_stage1_block1 (in-place)
I0610 05:07:37.137948 15981 net.cpp:122] Setting up relu_stage1_block1
I0610 05:07:37.137954 15981 net.cpp:129] Top shape: 7 256 28 28 (1404928)
I0610 05:07:37.137958 15981 net.cpp:137] Memory required for data: 554946588
I0610 05:07:37.137961 15981 layer_factory.hpp:77] Creating layer eltwise_stage1_block1_relu_stage1_block1_0_split
I0610 05:07:37.137967 15981 net.cpp:84] Creating Layer eltwise_stage1_block1_relu_stage1_block1_0_split
I0610 05:07:37.137971 15981 net.cpp:406] eltwise_stage1_block1_relu_stage1_block1_0_split <- eltwise_stage1_block1
I0610 05:07:37.137981 15981 net.cpp:380] eltwise_stage1_block1_relu_stage1_block1_0_split -> eltwise_stage1_block1_relu_stage1_block1_0_split_0
I0610 05:07:37.137990 15981 net.cpp:380] eltwise_stage1_block1_relu_stage1_block1_0_split -> eltwise_stage1_block1_relu_stage1_block1_0_split_1
I0610 05:07:37.138028 15981 net.cpp:122] Setting up eltwise_stage1_block1_relu_stage1_block1_0_split
I0610 05:07:37.138036 15981 net.cpp:129] Top shape: 7 256 28 28 (1404928)
I0610 05:07:37.138041 15981 net.cpp:129] Top shape: 7 256 28 28 (1404928)
I0610 05:07:37.138046 15981 net.cpp:137] Memory required for data: 566186012
I0610 05:07:37.138048 15981 layer_factory.hpp:77] Creating layer conv_stage1_block2_branch2a
I0610 05:07:37.138059 15981 net.cpp:84] Creating Layer conv_stage1_block2_branch2a
I0610 05:07:37.138064 15981 net.cpp:406] conv_stage1_block2_branch2a <- eltwise_stage1_block1_relu_stage1_block1_0_split_0
I0610 05:07:37.138074 15981 net.cpp:380] conv_stage1_block2_branch2a -> conv_stage1_block2_branch2a
I0610 05:07:37.138485 15981 net.cpp:122] Setting up conv_stage1_block2_branch2a
I0610 05:07:37.138494 15981 net.cpp:129] Top shape: 7 64 28 28 (351232)
I0610 05:07:37.138499 15981 net.cpp:137] Memory required for data: 567590940
I0610 05:07:37.138506 15981 layer_factory.hpp:77] Creating layer bn_stage1_block2_branch2a
I0610 05:07:37.138515 15981 net.cpp:84] Creating Layer bn_stage1_block2_branch2a
I0610 05:07:37.138530 15981 net.cpp:406] bn_stage1_block2_branch2a <- conv_stage1_block2_branch2a
I0610 05:07:37.138537 15981 net.cpp:367] bn_stage1_block2_branch2a -> conv_stage1_block2_branch2a (in-place)
I0610 05:07:37.138761 15981 net.cpp:122] Setting up bn_stage1_block2_branch2a
I0610 05:07:37.138769 15981 net.cpp:129] Top shape: 7 64 28 28 (351232)
I0610 05:07:37.138773 15981 net.cpp:137] Memory required for data: 568995868
I0610 05:07:37.138801 15981 layer_factory.hpp:77] Creating layer scale_stage1_block2_branch2a
I0610 05:07:37.138815 15981 net.cpp:84] Creating Layer scale_stage1_block2_branch2a
I0610 05:07:37.138819 15981 net.cpp:406] scale_stage1_block2_branch2a <- conv_stage1_block2_branch2a
I0610 05:07:37.138826 15981 net.cpp:367] scale_stage1_block2_branch2a -> conv_stage1_block2_branch2a (in-place)
I0610 05:07:37.138870 15981 layer_factory.hpp:77] Creating layer scale_stage1_block2_branch2a
I0610 05:07:37.138989 15981 net.cpp:122] Setting up scale_stage1_block2_branch2a
I0610 05:07:37.138998 15981 net.cpp:129] Top shape: 7 64 28 28 (351232)
I0610 05:07:37.139001 15981 net.cpp:137] Memory required for data: 570400796
I0610 05:07:37.139008 15981 layer_factory.hpp:77] Creating layer relu_stage1_block2_branch2a
I0610 05:07:37.139025 15981 net.cpp:84] Creating Layer relu_stage1_block2_branch2a
I0610 05:07:37.139029 15981 net.cpp:406] relu_stage1_block2_branch2a <- conv_stage1_block2_branch2a
I0610 05:07:37.139037 15981 net.cpp:367] relu_stage1_block2_branch2a -> conv_stage1_block2_branch2a (in-place)
I0610 05:07:37.139045 15981 net.cpp:122] Setting up relu_stage1_block2_branch2a
I0610 05:07:37.139060 15981 net.cpp:129] Top shape: 7 64 28 28 (351232)
I0610 05:07:37.139063 15981 net.cpp:137] Memory required for data: 571805724
I0610 05:07:37.139067 15981 layer_factory.hpp:77] Creating layer conv_stage1_block2_branch2b
I0610 05:07:37.139088 15981 net.cpp:84] Creating Layer conv_stage1_block2_branch2b
I0610 05:07:37.139092 15981 net.cpp:406] conv_stage1_block2_branch2b <- conv_stage1_block2_branch2a
I0610 05:07:37.139101 15981 net.cpp:380] conv_stage1_block2_branch2b -> conv_stage1_block2_branch2b
I0610 05:07:37.139649 15981 net.cpp:122] Setting up conv_stage1_block2_branch2b
I0610 05:07:37.139659 15981 net.cpp:129] Top shape: 7 64 28 28 (351232)
I0610 05:07:37.139663 15981 net.cpp:137] Memory required for data: 573210652
I0610 05:07:37.139670 15981 layer_factory.hpp:77] Creating layer bn_stage1_block2_branch2b
I0610 05:07:37.139680 15981 net.cpp:84] Creating Layer bn_stage1_block2_branch2b
I0610 05:07:37.139684 15981 net.cpp:406] bn_stage1_block2_branch2b <- conv_stage1_block2_branch2b
I0610 05:07:37.139693 15981 net.cpp:367] bn_stage1_block2_branch2b -> conv_stage1_block2_branch2b (in-place)
I0610 05:07:37.139904 15981 net.cpp:122] Setting up bn_stage1_block2_branch2b
I0610 05:07:37.139914 15981 net.cpp:129] Top shape: 7 64 28 28 (351232)
I0610 05:07:37.139919 15981 net.cpp:137] Memory required for data: 574615580
I0610 05:07:37.139926 15981 layer_factory.hpp:77] Creating layer scale_stage1_block2_branch2b
I0610 05:07:37.139935 15981 net.cpp:84] Creating Layer scale_stage1_block2_branch2b
I0610 05:07:37.139938 15981 net.cpp:406] scale_stage1_block2_branch2b <- conv_stage1_block2_branch2b
I0610 05:07:37.139946 15981 net.cpp:367] scale_stage1_block2_branch2b -> conv_stage1_block2_branch2b (in-place)
I0610 05:07:37.139989 15981 layer_factory.hpp:77] Creating layer scale_stage1_block2_branch2b
I0610 05:07:37.140121 15981 net.cpp:122] Setting up scale_stage1_block2_branch2b
I0610 05:07:37.140130 15981 net.cpp:129] Top shape: 7 64 28 28 (351232)
I0610 05:07:37.140132 15981 net.cpp:137] Memory required for data: 576020508
I0610 05:07:37.140139 15981 layer_factory.hpp:77] Creating layer relu_stage1_block2_branch2b
I0610 05:07:37.140149 15981 net.cpp:84] Creating Layer relu_stage1_block2_branch2b
I0610 05:07:37.140154 15981 net.cpp:406] relu_stage1_block2_branch2b <- conv_stage1_block2_branch2b
I0610 05:07:37.140161 15981 net.cpp:367] relu_stage1_block2_branch2b -> conv_stage1_block2_branch2b (in-place)
I0610 05:07:37.140177 15981 net.cpp:122] Setting up relu_stage1_block2_branch2b
I0610 05:07:37.140182 15981 net.cpp:129] Top shape: 7 64 28 28 (351232)
I0610 05:07:37.140187 15981 net.cpp:137] Memory required for data: 577425436
I0610 05:07:37.140190 15981 layer_factory.hpp:77] Creating layer conv_stage1_block2_branch2c
I0610 05:07:37.140202 15981 net.cpp:84] Creating Layer conv_stage1_block2_branch2c
I0610 05:07:37.140205 15981 net.cpp:406] conv_stage1_block2_branch2c <- conv_stage1_block2_branch2b
I0610 05:07:37.140215 15981 net.cpp:380] conv_stage1_block2_branch2c -> conv_stage1_block2_branch2c
I0610 05:07:37.140995 15981 net.cpp:122] Setting up conv_stage1_block2_branch2c
I0610 05:07:37.141005 15981 net.cpp:129] Top shape: 7 256 28 28 (1404928)
I0610 05:07:37.141010 15981 net.cpp:137] Memory required for data: 583045148
I0610 05:07:37.141017 15981 layer_factory.hpp:77] Creating layer bn_stage1_block2_branch2c
I0610 05:07:37.141026 15981 net.cpp:84] Creating Layer bn_stage1_block2_branch2c
I0610 05:07:37.141031 15981 net.cpp:406] bn_stage1_block2_branch2c <- conv_stage1_block2_branch2c
I0610 05:07:37.141037 15981 net.cpp:367] bn_stage1_block2_branch2c -> conv_stage1_block2_branch2c (in-place)
I0610 05:07:37.141225 15981 net.cpp:122] Setting up bn_stage1_block2_branch2c
I0610 05:07:37.141232 15981 net.cpp:129] Top shape: 7 256 28 28 (1404928)
I0610 05:07:37.141237 15981 net.cpp:137] Memory required for data: 588664860
I0610 05:07:37.141244 15981 layer_factory.hpp:77] Creating layer scale_stage1_block2_branch2c
I0610 05:07:37.141252 15981 net.cpp:84] Creating Layer scale_stage1_block2_branch2c
I0610 05:07:37.141255 15981 net.cpp:406] scale_stage1_block2_branch2c <- conv_stage1_block2_branch2c
I0610 05:07:37.141263 15981 net.cpp:367] scale_stage1_block2_branch2c -> conv_stage1_block2_branch2c (in-place)
I0610 05:07:37.141304 15981 layer_factory.hpp:77] Creating layer scale_stage1_block2_branch2c
I0610 05:07:37.141414 15981 net.cpp:122] Setting up scale_stage1_block2_branch2c
I0610 05:07:37.141422 15981 net.cpp:129] Top shape: 7 256 28 28 (1404928)
I0610 05:07:37.141425 15981 net.cpp:137] Memory required for data: 594284572
I0610 05:07:37.141433 15981 layer_factory.hpp:77] Creating layer eltwise_stage1_block2
I0610 05:07:37.141439 15981 net.cpp:84] Creating Layer eltwise_stage1_block2
I0610 05:07:37.141443 15981 net.cpp:406] eltwise_stage1_block2 <- eltwise_stage1_block1_relu_stage1_block1_0_split_1
I0610 05:07:37.141448 15981 net.cpp:406] eltwise_stage1_block2 <- conv_stage1_block2_branch2c
I0610 05:07:37.141456 15981 net.cpp:380] eltwise_stage1_block2 -> eltwise_stage1_block2
I0610 05:07:37.141480 15981 net.cpp:122] Setting up eltwise_stage1_block2
I0610 05:07:37.141489 15981 net.cpp:129] Top shape: 7 256 28 28 (1404928)
I0610 05:07:37.141494 15981 net.cpp:137] Memory required for data: 599904284
I0610 05:07:37.141497 15981 layer_factory.hpp:77] Creating layer relu_stage1_block2
I0610 05:07:37.141504 15981 net.cpp:84] Creating Layer relu_stage1_block2
I0610 05:07:37.141517 15981 net.cpp:406] relu_stage1_block2 <- eltwise_stage1_block2
I0610 05:07:37.141523 15981 net.cpp:367] relu_stage1_block2 -> eltwise_stage1_block2 (in-place)
I0610 05:07:37.141530 15981 net.cpp:122] Setting up relu_stage1_block2
I0610 05:07:37.141535 15981 net.cpp:129] Top shape: 7 256 28 28 (1404928)
I0610 05:07:37.141539 15981 net.cpp:137] Memory required for data: 605523996
I0610 05:07:37.141543 15981 layer_factory.hpp:77] Creating layer eltwise_stage1_block2_relu_stage1_block2_0_split
I0610 05:07:37.141551 15981 net.cpp:84] Creating Layer eltwise_stage1_block2_relu_stage1_block2_0_split
I0610 05:07:37.141554 15981 net.cpp:406] eltwise_stage1_block2_relu_stage1_block2_0_split <- eltwise_stage1_block2
I0610 05:07:37.141562 15981 net.cpp:380] eltwise_stage1_block2_relu_stage1_block2_0_split -> eltwise_stage1_block2_relu_stage1_block2_0_split_0
I0610 05:07:37.141571 15981 net.cpp:380] eltwise_stage1_block2_relu_stage1_block2_0_split -> eltwise_stage1_block2_relu_stage1_block2_0_split_1
I0610 05:07:37.141607 15981 net.cpp:122] Setting up eltwise_stage1_block2_relu_stage1_block2_0_split
I0610 05:07:37.141623 15981 net.cpp:129] Top shape: 7 256 28 28 (1404928)
I0610 05:07:37.141629 15981 net.cpp:129] Top shape: 7 256 28 28 (1404928)
I0610 05:07:37.141633 15981 net.cpp:137] Memory required for data: 616763420
I0610 05:07:37.141636 15981 layer_factory.hpp:77] Creating layer conv_stage1_block3_branch2a
I0610 05:07:37.141647 15981 net.cpp:84] Creating Layer conv_stage1_block3_branch2a
I0610 05:07:37.141651 15981 net.cpp:406] conv_stage1_block3_branch2a <- eltwise_stage1_block2_relu_stage1_block2_0_split_0
I0610 05:07:37.141661 15981 net.cpp:380] conv_stage1_block3_branch2a -> conv_stage1_block3_branch2a
I0610 05:07:37.142089 15981 net.cpp:122] Setting up conv_stage1_block3_branch2a
I0610 05:07:37.142098 15981 net.cpp:129] Top shape: 7 64 28 28 (351232)
I0610 05:07:37.142102 15981 net.cpp:137] Memory required for data: 618168348
I0610 05:07:37.142108 15981 layer_factory.hpp:77] Creating layer bn_stage1_block3_branch2a
I0610 05:07:37.142119 15981 net.cpp:84] Creating Layer bn_stage1_block3_branch2a
I0610 05:07:37.142123 15981 net.cpp:406] bn_stage1_block3_branch2a <- conv_stage1_block3_branch2a
I0610 05:07:37.142132 15981 net.cpp:367] bn_stage1_block3_branch2a -> conv_stage1_block3_branch2a (in-place)
I0610 05:07:37.142376 15981 net.cpp:122] Setting up bn_stage1_block3_branch2a
I0610 05:07:37.142385 15981 net.cpp:129] Top shape: 7 64 28 28 (351232)
I0610 05:07:37.142388 15981 net.cpp:137] Memory required for data: 619573276
I0610 05:07:37.142396 15981 layer_factory.hpp:77] Creating layer scale_stage1_block3_branch2a
I0610 05:07:37.142405 15981 net.cpp:84] Creating Layer scale_stage1_block3_branch2a
I0610 05:07:37.142410 15981 net.cpp:406] scale_stage1_block3_branch2a <- conv_stage1_block3_branch2a
I0610 05:07:37.142416 15981 net.cpp:367] scale_stage1_block3_branch2a -> conv_stage1_block3_branch2a (in-place)
I0610 05:07:37.142457 15981 layer_factory.hpp:77] Creating layer scale_stage1_block3_branch2a
I0610 05:07:37.142578 15981 net.cpp:122] Setting up scale_stage1_block3_branch2a
I0610 05:07:37.142586 15981 net.cpp:129] Top shape: 7 64 28 28 (351232)
I0610 05:07:37.142590 15981 net.cpp:137] Memory required for data: 620978204
I0610 05:07:37.142597 15981 layer_factory.hpp:77] Creating layer relu_stage1_block3_branch2a
I0610 05:07:37.142606 15981 net.cpp:84] Creating Layer relu_stage1_block3_branch2a
I0610 05:07:37.142609 15981 net.cpp:406] relu_stage1_block3_branch2a <- conv_stage1_block3_branch2a
I0610 05:07:37.142616 15981 net.cpp:367] relu_stage1_block3_branch2a -> conv_stage1_block3_branch2a (in-place)
I0610 05:07:37.142622 15981 net.cpp:122] Setting up relu_stage1_block3_branch2a
I0610 05:07:37.142627 15981 net.cpp:129] Top shape: 7 64 28 28 (351232)
I0610 05:07:37.142632 15981 net.cpp:137] Memory required for data: 622383132
I0610 05:07:37.142634 15981 layer_factory.hpp:77] Creating layer conv_stage1_block3_branch2b
I0610 05:07:37.142647 15981 net.cpp:84] Creating Layer conv_stage1_block3_branch2b
I0610 05:07:37.142650 15981 net.cpp:406] conv_stage1_block3_branch2b <- conv_stage1_block3_branch2a
I0610 05:07:37.142658 15981 net.cpp:380] conv_stage1_block3_branch2b -> conv_stage1_block3_branch2b
I0610 05:07:37.143244 15981 net.cpp:122] Setting up conv_stage1_block3_branch2b
I0610 05:07:37.143252 15981 net.cpp:129] Top shape: 7 64 28 28 (351232)
I0610 05:07:37.143256 15981 net.cpp:137] Memory required for data: 623788060
I0610 05:07:37.143263 15981 layer_factory.hpp:77] Creating layer bn_stage1_block3_branch2b
I0610 05:07:37.143272 15981 net.cpp:84] Creating Layer bn_stage1_block3_branch2b
I0610 05:07:37.143276 15981 net.cpp:406] bn_stage1_block3_branch2b <- conv_stage1_block3_branch2b
I0610 05:07:37.143285 15981 net.cpp:367] bn_stage1_block3_branch2b -> conv_stage1_block3_branch2b (in-place)
I0610 05:07:37.143507 15981 net.cpp:122] Setting up bn_stage1_block3_branch2b
I0610 05:07:37.143514 15981 net.cpp:129] Top shape: 7 64 28 28 (351232)
I0610 05:07:37.143518 15981 net.cpp:137] Memory required for data: 625192988
I0610 05:07:37.143527 15981 layer_factory.hpp:77] Creating layer scale_stage1_block3_branch2b
I0610 05:07:37.143543 15981 net.cpp:84] Creating Layer scale_stage1_block3_branch2b
I0610 05:07:37.143548 15981 net.cpp:406] scale_stage1_block3_branch2b <- conv_stage1_block3_branch2b
I0610 05:07:37.143553 15981 net.cpp:367] scale_stage1_block3_branch2b -> conv_stage1_block3_branch2b (in-place)
I0610 05:07:37.143600 15981 layer_factory.hpp:77] Creating layer scale_stage1_block3_branch2b
I0610 05:07:37.143735 15981 net.cpp:122] Setting up scale_stage1_block3_branch2b
I0610 05:07:37.143743 15981 net.cpp:129] Top shape: 7 64 28 28 (351232)
I0610 05:07:37.143746 15981 net.cpp:137] Memory required for data: 626597916
I0610 05:07:37.143755 15981 layer_factory.hpp:77] Creating layer relu_stage1_block3_branch2b
I0610 05:07:37.143761 15981 net.cpp:84] Creating Layer relu_stage1_block3_branch2b
I0610 05:07:37.143766 15981 net.cpp:406] relu_stage1_block3_branch2b <- conv_stage1_block3_branch2b
I0610 05:07:37.143774 15981 net.cpp:367] relu_stage1_block3_branch2b -> conv_stage1_block3_branch2b (in-place)
I0610 05:07:37.143780 15981 net.cpp:122] Setting up relu_stage1_block3_branch2b
I0610 05:07:37.143786 15981 net.cpp:129] Top shape: 7 64 28 28 (351232)
I0610 05:07:37.143790 15981 net.cpp:137] Memory required for data: 628002844
I0610 05:07:37.143795 15981 layer_factory.hpp:77] Creating layer conv_stage1_block3_branch2c
I0610 05:07:37.143806 15981 net.cpp:84] Creating Layer conv_stage1_block3_branch2c
I0610 05:07:37.143810 15981 net.cpp:406] conv_stage1_block3_branch2c <- conv_stage1_block3_branch2b
I0610 05:07:37.143818 15981 net.cpp:380] conv_stage1_block3_branch2c -> conv_stage1_block3_branch2c
I0610 05:07:37.144217 15981 net.cpp:122] Setting up conv_stage1_block3_branch2c
I0610 05:07:37.144225 15981 net.cpp:129] Top shape: 7 256 28 28 (1404928)
I0610 05:07:37.144229 15981 net.cpp:137] Memory required for data: 633622556
I0610 05:07:37.144237 15981 layer_factory.hpp:77] Creating layer bn_stage1_block3_branch2c
I0610 05:07:37.144246 15981 net.cpp:84] Creating Layer bn_stage1_block3_branch2c
I0610 05:07:37.144251 15981 net.cpp:406] bn_stage1_block3_branch2c <- conv_stage1_block3_branch2c
I0610 05:07:37.144259 15981 net.cpp:367] bn_stage1_block3_branch2c -> conv_stage1_block3_branch2c (in-place)
I0610 05:07:37.144460 15981 net.cpp:122] Setting up bn_stage1_block3_branch2c
I0610 05:07:37.144469 15981 net.cpp:129] Top shape: 7 256 28 28 (1404928)
I0610 05:07:37.144472 15981 net.cpp:137] Memory required for data: 639242268
I0610 05:07:37.144481 15981 layer_factory.hpp:77] Creating layer scale_stage1_block3_branch2c
I0610 05:07:37.144489 15981 net.cpp:84] Creating Layer scale_stage1_block3_branch2c
I0610 05:07:37.144492 15981 net.cpp:406] scale_stage1_block3_branch2c <- conv_stage1_block3_branch2c
I0610 05:07:37.144498 15981 net.cpp:367] scale_stage1_block3_branch2c -> conv_stage1_block3_branch2c (in-place)
I0610 05:07:37.144541 15981 layer_factory.hpp:77] Creating layer scale_stage1_block3_branch2c
I0610 05:07:37.144659 15981 net.cpp:122] Setting up scale_stage1_block3_branch2c
I0610 05:07:37.144668 15981 net.cpp:129] Top shape: 7 256 28 28 (1404928)
I0610 05:07:37.144672 15981 net.cpp:137] Memory required for data: 644861980
I0610 05:07:37.144680 15981 layer_factory.hpp:77] Creating layer eltwise_stage1_block3
I0610 05:07:37.144686 15981 net.cpp:84] Creating Layer eltwise_stage1_block3
I0610 05:07:37.144692 15981 net.cpp:406] eltwise_stage1_block3 <- eltwise_stage1_block2_relu_stage1_block2_0_split_1
I0610 05:07:37.144698 15981 net.cpp:406] eltwise_stage1_block3 <- conv_stage1_block3_branch2c
I0610 05:07:37.144706 15981 net.cpp:380] eltwise_stage1_block3 -> eltwise_stage1_block3
I0610 05:07:37.144731 15981 net.cpp:122] Setting up eltwise_stage1_block3
I0610 05:07:37.144738 15981 net.cpp:129] Top shape: 7 256 28 28 (1404928)
I0610 05:07:37.144742 15981 net.cpp:137] Memory required for data: 650481692
I0610 05:07:37.144747 15981 layer_factory.hpp:77] Creating layer relu_stage1_block3
I0610 05:07:37.144753 15981 net.cpp:84] Creating Layer relu_stage1_block3
I0610 05:07:37.144757 15981 net.cpp:406] relu_stage1_block3 <- eltwise_stage1_block3
I0610 05:07:37.144773 15981 net.cpp:367] relu_stage1_block3 -> eltwise_stage1_block3 (in-place)
I0610 05:07:37.144780 15981 net.cpp:122] Setting up relu_stage1_block3
I0610 05:07:37.144786 15981 net.cpp:129] Top shape: 7 256 28 28 (1404928)
I0610 05:07:37.144790 15981 net.cpp:137] Memory required for data: 656101404
I0610 05:07:37.144794 15981 layer_factory.hpp:77] Creating layer eltwise_stage1_block3_relu_stage1_block3_0_split
I0610 05:07:37.144801 15981 net.cpp:84] Creating Layer eltwise_stage1_block3_relu_stage1_block3_0_split
I0610 05:07:37.144804 15981 net.cpp:406] eltwise_stage1_block3_relu_stage1_block3_0_split <- eltwise_stage1_block3
I0610 05:07:37.144811 15981 net.cpp:380] eltwise_stage1_block3_relu_stage1_block3_0_split -> eltwise_stage1_block3_relu_stage1_block3_0_split_0
I0610 05:07:37.144824 15981 net.cpp:380] eltwise_stage1_block3_relu_stage1_block3_0_split -> eltwise_stage1_block3_relu_stage1_block3_0_split_1
I0610 05:07:37.144860 15981 net.cpp:122] Setting up eltwise_stage1_block3_relu_stage1_block3_0_split
I0610 05:07:37.144867 15981 net.cpp:129] Top shape: 7 256 28 28 (1404928)
I0610 05:07:37.144873 15981 net.cpp:129] Top shape: 7 256 28 28 (1404928)
I0610 05:07:37.144876 15981 net.cpp:137] Memory required for data: 667340828
I0610 05:07:37.144881 15981 layer_factory.hpp:77] Creating layer conv_stage2_block0_proj_shortcut
I0610 05:07:37.144896 15981 net.cpp:84] Creating Layer conv_stage2_block0_proj_shortcut
I0610 05:07:37.144899 15981 net.cpp:406] conv_stage2_block0_proj_shortcut <- eltwise_stage1_block3_relu_stage1_block3_0_split_0
I0610 05:07:37.144908 15981 net.cpp:380] conv_stage2_block0_proj_shortcut -> conv_stage2_block0_proj_shortcut
I0610 05:07:37.147105 15981 net.cpp:122] Setting up conv_stage2_block0_proj_shortcut
I0610 05:07:37.147122 15981 net.cpp:129] Top shape: 7 512 14 14 (702464)
I0610 05:07:37.147126 15981 net.cpp:137] Memory required for data: 670150684
I0610 05:07:37.147135 15981 layer_factory.hpp:77] Creating layer bn_stage2_block0_proj_shortcut
I0610 05:07:37.147146 15981 net.cpp:84] Creating Layer bn_stage2_block0_proj_shortcut
I0610 05:07:37.147151 15981 net.cpp:406] bn_stage2_block0_proj_shortcut <- conv_stage2_block0_proj_shortcut
I0610 05:07:37.147161 15981 net.cpp:367] bn_stage2_block0_proj_shortcut -> conv_stage2_block0_proj_shortcut (in-place)
I0610 05:07:37.147379 15981 net.cpp:122] Setting up bn_stage2_block0_proj_shortcut
I0610 05:07:37.147388 15981 net.cpp:129] Top shape: 7 512 14 14 (702464)
I0610 05:07:37.147392 15981 net.cpp:137] Memory required for data: 672960540
I0610 05:07:37.147402 15981 layer_factory.hpp:77] Creating layer scale_stage2_block0_proj_shortcut
I0610 05:07:37.147410 15981 net.cpp:84] Creating Layer scale_stage2_block0_proj_shortcut
I0610 05:07:37.147415 15981 net.cpp:406] scale_stage2_block0_proj_shortcut <- conv_stage2_block0_proj_shortcut
I0610 05:07:37.147421 15981 net.cpp:367] scale_stage2_block0_proj_shortcut -> conv_stage2_block0_proj_shortcut (in-place)
I0610 05:07:37.147465 15981 layer_factory.hpp:77] Creating layer scale_stage2_block0_proj_shortcut
I0610 05:07:37.147588 15981 net.cpp:122] Setting up scale_stage2_block0_proj_shortcut
I0610 05:07:37.147596 15981 net.cpp:129] Top shape: 7 512 14 14 (702464)
I0610 05:07:37.147600 15981 net.cpp:137] Memory required for data: 675770396
I0610 05:07:37.147608 15981 layer_factory.hpp:77] Creating layer conv_stage2_block0_branch2a
I0610 05:07:37.147624 15981 net.cpp:84] Creating Layer conv_stage2_block0_branch2a
I0610 05:07:37.147629 15981 net.cpp:406] conv_stage2_block0_branch2a <- eltwise_stage1_block3_relu_stage1_block3_0_split_1
I0610 05:07:37.147639 15981 net.cpp:380] conv_stage2_block0_branch2a -> conv_stage2_block0_branch2a
I0610 05:07:37.148205 15981 net.cpp:122] Setting up conv_stage2_block0_branch2a
I0610 05:07:37.148214 15981 net.cpp:129] Top shape: 7 128 14 14 (175616)
I0610 05:07:37.148218 15981 net.cpp:137] Memory required for data: 676472860
I0610 05:07:37.148226 15981 layer_factory.hpp:77] Creating layer bn_stage2_block0_branch2a
I0610 05:07:37.148249 15981 net.cpp:84] Creating Layer bn_stage2_block0_branch2a
I0610 05:07:37.148254 15981 net.cpp:406] bn_stage2_block0_branch2a <- conv_stage2_block0_branch2a
I0610 05:07:37.148262 15981 net.cpp:367] bn_stage2_block0_branch2a -> conv_stage2_block0_branch2a (in-place)
I0610 05:07:37.148463 15981 net.cpp:122] Setting up bn_stage2_block0_branch2a
I0610 05:07:37.148471 15981 net.cpp:129] Top shape: 7 128 14 14 (175616)
I0610 05:07:37.148475 15981 net.cpp:137] Memory required for data: 677175324
I0610 05:07:37.148485 15981 layer_factory.hpp:77] Creating layer scale_stage2_block0_branch2a
I0610 05:07:37.148492 15981 net.cpp:84] Creating Layer scale_stage2_block0_branch2a
I0610 05:07:37.148496 15981 net.cpp:406] scale_stage2_block0_branch2a <- conv_stage2_block0_branch2a
I0610 05:07:37.148502 15981 net.cpp:367] scale_stage2_block0_branch2a -> conv_stage2_block0_branch2a (in-place)
I0610 05:07:37.148546 15981 layer_factory.hpp:77] Creating layer scale_stage2_block0_branch2a
I0610 05:07:37.148664 15981 net.cpp:122] Setting up scale_stage2_block0_branch2a
I0610 05:07:37.148671 15981 net.cpp:129] Top shape: 7 128 14 14 (175616)
I0610 05:07:37.148675 15981 net.cpp:137] Memory required for data: 677877788
I0610 05:07:37.148682 15981 layer_factory.hpp:77] Creating layer relu_stage2_block0_branch2a
I0610 05:07:37.148689 15981 net.cpp:84] Creating Layer relu_stage2_block0_branch2a
I0610 05:07:37.148694 15981 net.cpp:406] relu_stage2_block0_branch2a <- conv_stage2_block0_branch2a
I0610 05:07:37.148701 15981 net.cpp:367] relu_stage2_block0_branch2a -> conv_stage2_block0_branch2a (in-place)
I0610 05:07:37.148710 15981 net.cpp:122] Setting up relu_stage2_block0_branch2a
I0610 05:07:37.148715 15981 net.cpp:129] Top shape: 7 128 14 14 (175616)
I0610 05:07:37.148720 15981 net.cpp:137] Memory required for data: 678580252
I0610 05:07:37.148723 15981 layer_factory.hpp:77] Creating layer conv_stage2_block0_branch2b
I0610 05:07:37.148736 15981 net.cpp:84] Creating Layer conv_stage2_block0_branch2b
I0610 05:07:37.148741 15981 net.cpp:406] conv_stage2_block0_branch2b <- conv_stage2_block0_branch2a
I0610 05:07:37.148748 15981 net.cpp:380] conv_stage2_block0_branch2b -> conv_stage2_block0_branch2b
I0610 05:07:37.151173 15981 net.cpp:122] Setting up conv_stage2_block0_branch2b
I0610 05:07:37.151188 15981 net.cpp:129] Top shape: 7 128 14 14 (175616)
I0610 05:07:37.151193 15981 net.cpp:137] Memory required for data: 679282716
I0610 05:07:37.151201 15981 layer_factory.hpp:77] Creating layer bn_stage2_block0_branch2b
I0610 05:07:37.151211 15981 net.cpp:84] Creating Layer bn_stage2_block0_branch2b
I0610 05:07:37.151216 15981 net.cpp:406] bn_stage2_block0_branch2b <- conv_stage2_block0_branch2b
I0610 05:07:37.151223 15981 net.cpp:367] bn_stage2_block0_branch2b -> conv_stage2_block0_branch2b (in-place)
I0610 05:07:37.151422 15981 net.cpp:122] Setting up bn_stage2_block0_branch2b
I0610 05:07:37.151429 15981 net.cpp:129] Top shape: 7 128 14 14 (175616)
I0610 05:07:37.151433 15981 net.cpp:137] Memory required for data: 679985180
I0610 05:07:37.151443 15981 layer_factory.hpp:77] Creating layer scale_stage2_block0_branch2b
I0610 05:07:37.151449 15981 net.cpp:84] Creating Layer scale_stage2_block0_branch2b
I0610 05:07:37.151454 15981 net.cpp:406] scale_stage2_block0_branch2b <- conv_stage2_block0_branch2b
I0610 05:07:37.151460 15981 net.cpp:367] scale_stage2_block0_branch2b -> conv_stage2_block0_branch2b (in-place)
I0610 05:07:37.151504 15981 layer_factory.hpp:77] Creating layer scale_stage2_block0_branch2b
I0610 05:07:37.151618 15981 net.cpp:122] Setting up scale_stage2_block0_branch2b
I0610 05:07:37.151625 15981 net.cpp:129] Top shape: 7 128 14 14 (175616)
I0610 05:07:37.151629 15981 net.cpp:137] Memory required for data: 680687644
I0610 05:07:37.151636 15981 layer_factory.hpp:77] Creating layer relu_stage2_block0_branch2b
I0610 05:07:37.151645 15981 net.cpp:84] Creating Layer relu_stage2_block0_branch2b
I0610 05:07:37.151649 15981 net.cpp:406] relu_stage2_block0_branch2b <- conv_stage2_block0_branch2b
I0610 05:07:37.151656 15981 net.cpp:367] relu_stage2_block0_branch2b -> conv_stage2_block0_branch2b (in-place)
I0610 05:07:37.151676 15981 net.cpp:122] Setting up relu_stage2_block0_branch2b
I0610 05:07:37.151682 15981 net.cpp:129] Top shape: 7 128 14 14 (175616)
I0610 05:07:37.151686 15981 net.cpp:137] Memory required for data: 681390108
I0610 05:07:37.151690 15981 layer_factory.hpp:77] Creating layer conv_stage2_block0_branch2c
I0610 05:07:37.151702 15981 net.cpp:84] Creating Layer conv_stage2_block0_branch2c
I0610 05:07:37.151707 15981 net.cpp:406] conv_stage2_block0_branch2c <- conv_stage2_block0_branch2b
I0610 05:07:37.151716 15981 net.cpp:380] conv_stage2_block0_branch2c -> conv_stage2_block0_branch2c
I0610 05:07:37.153192 15981 net.cpp:122] Setting up conv_stage2_block0_branch2c
I0610 05:07:37.153203 15981 net.cpp:129] Top shape: 7 512 14 14 (702464)
I0610 05:07:37.153208 15981 net.cpp:137] Memory required for data: 684199964
I0610 05:07:37.153214 15981 layer_factory.hpp:77] Creating layer bn_stage2_block0_branch2c
I0610 05:07:37.153225 15981 net.cpp:84] Creating Layer bn_stage2_block0_branch2c
I0610 05:07:37.153229 15981 net.cpp:406] bn_stage2_block0_branch2c <- conv_stage2_block0_branch2c
I0610 05:07:37.153237 15981 net.cpp:367] bn_stage2_block0_branch2c -> conv_stage2_block0_branch2c (in-place)
I0610 05:07:37.153437 15981 net.cpp:122] Setting up bn_stage2_block0_branch2c
I0610 05:07:37.153445 15981 net.cpp:129] Top shape: 7 512 14 14 (702464)
I0610 05:07:37.153448 15981 net.cpp:137] Memory required for data: 687009820
I0610 05:07:37.153458 15981 layer_factory.hpp:77] Creating layer scale_stage2_block0_branch2c
I0610 05:07:37.153465 15981 net.cpp:84] Creating Layer scale_stage2_block0_branch2c
I0610 05:07:37.153470 15981 net.cpp:406] scale_stage2_block0_branch2c <- conv_stage2_block0_branch2c
I0610 05:07:37.153477 15981 net.cpp:367] scale_stage2_block0_branch2c -> conv_stage2_block0_branch2c (in-place)
I0610 05:07:37.153515 15981 layer_factory.hpp:77] Creating layer scale_stage2_block0_branch2c
I0610 05:07:37.153652 15981 net.cpp:122] Setting up scale_stage2_block0_branch2c
I0610 05:07:37.153659 15981 net.cpp:129] Top shape: 7 512 14 14 (702464)
I0610 05:07:37.153663 15981 net.cpp:137] Memory required for data: 689819676
I0610 05:07:37.153671 15981 layer_factory.hpp:77] Creating layer eltwise_stage2_block0
I0610 05:07:37.153678 15981 net.cpp:84] Creating Layer eltwise_stage2_block0
I0610 05:07:37.153683 15981 net.cpp:406] eltwise_stage2_block0 <- conv_stage2_block0_proj_shortcut
I0610 05:07:37.153688 15981 net.cpp:406] eltwise_stage2_block0 <- conv_stage2_block0_branch2c
I0610 05:07:37.153698 15981 net.cpp:380] eltwise_stage2_block0 -> eltwise_stage2_block0
I0610 05:07:37.153725 15981 net.cpp:122] Setting up eltwise_stage2_block0
I0610 05:07:37.153734 15981 net.cpp:129] Top shape: 7 512 14 14 (702464)
I0610 05:07:37.153738 15981 net.cpp:137] Memory required for data: 692629532
I0610 05:07:37.153743 15981 layer_factory.hpp:77] Creating layer relu_stage2_block0
I0610 05:07:37.153748 15981 net.cpp:84] Creating Layer relu_stage2_block0
I0610 05:07:37.153753 15981 net.cpp:406] relu_stage2_block0 <- eltwise_stage2_block0
I0610 05:07:37.153759 15981 net.cpp:367] relu_stage2_block0 -> eltwise_stage2_block0 (in-place)
I0610 05:07:37.153766 15981 net.cpp:122] Setting up relu_stage2_block0
I0610 05:07:37.153771 15981 net.cpp:129] Top shape: 7 512 14 14 (702464)
I0610 05:07:37.153775 15981 net.cpp:137] Memory required for data: 695439388
I0610 05:07:37.153779 15981 layer_factory.hpp:77] Creating layer eltwise_stage2_block0_relu_stage2_block0_0_split
I0610 05:07:37.153784 15981 net.cpp:84] Creating Layer eltwise_stage2_block0_relu_stage2_block0_0_split
I0610 05:07:37.153789 15981 net.cpp:406] eltwise_stage2_block0_relu_stage2_block0_0_split <- eltwise_stage2_block0
I0610 05:07:37.153797 15981 net.cpp:380] eltwise_stage2_block0_relu_stage2_block0_0_split -> eltwise_stage2_block0_relu_stage2_block0_0_split_0
I0610 05:07:37.153805 15981 net.cpp:380] eltwise_stage2_block0_relu_stage2_block0_0_split -> eltwise_stage2_block0_relu_stage2_block0_0_split_1
I0610 05:07:37.153854 15981 net.cpp:122] Setting up eltwise_stage2_block0_relu_stage2_block0_0_split
I0610 05:07:37.153862 15981 net.cpp:129] Top shape: 7 512 14 14 (702464)
I0610 05:07:37.153868 15981 net.cpp:129] Top shape: 7 512 14 14 (702464)
I0610 05:07:37.153872 15981 net.cpp:137] Memory required for data: 701059100
I0610 05:07:37.153875 15981 layer_factory.hpp:77] Creating layer conv_stage2_block1_branch2a
I0610 05:07:37.153934 15981 net.cpp:84] Creating Layer conv_stage2_block1_branch2a
I0610 05:07:37.153939 15981 net.cpp:406] conv_stage2_block1_branch2a <- eltwise_stage2_block0_relu_stage2_block0_0_split_0
I0610 05:07:37.153956 15981 net.cpp:380] conv_stage2_block1_branch2a -> conv_stage2_block1_branch2a
I0610 05:07:37.154888 15981 net.cpp:122] Setting up conv_stage2_block1_branch2a
I0610 05:07:37.154901 15981 net.cpp:129] Top shape: 7 128 14 14 (175616)
I0610 05:07:37.154904 15981 net.cpp:137] Memory required for data: 701761564
I0610 05:07:37.154912 15981 layer_factory.hpp:77] Creating layer bn_stage2_block1_branch2a
I0610 05:07:37.154922 15981 net.cpp:84] Creating Layer bn_stage2_block1_branch2a
I0610 05:07:37.154925 15981 net.cpp:406] bn_stage2_block1_branch2a <- conv_stage2_block1_branch2a
I0610 05:07:37.154933 15981 net.cpp:367] bn_stage2_block1_branch2a -> conv_stage2_block1_branch2a (in-place)
I0610 05:07:37.155135 15981 net.cpp:122] Setting up bn_stage2_block1_branch2a
I0610 05:07:37.155144 15981 net.cpp:129] Top shape: 7 128 14 14 (175616)
I0610 05:07:37.155148 15981 net.cpp:137] Memory required for data: 702464028
I0610 05:07:37.155158 15981 layer_factory.hpp:77] Creating layer scale_stage2_block1_branch2a
I0610 05:07:37.155165 15981 net.cpp:84] Creating Layer scale_stage2_block1_branch2a
I0610 05:07:37.155170 15981 net.cpp:406] scale_stage2_block1_branch2a <- conv_stage2_block1_branch2a
I0610 05:07:37.155177 15981 net.cpp:367] scale_stage2_block1_branch2a -> conv_stage2_block1_branch2a (in-place)
I0610 05:07:37.155223 15981 layer_factory.hpp:77] Creating layer scale_stage2_block1_branch2a
I0610 05:07:37.155336 15981 net.cpp:122] Setting up scale_stage2_block1_branch2a
I0610 05:07:37.155344 15981 net.cpp:129] Top shape: 7 128 14 14 (175616)
I0610 05:07:37.155347 15981 net.cpp:137] Memory required for data: 703166492
I0610 05:07:37.155354 15981 layer_factory.hpp:77] Creating layer relu_stage2_block1_branch2a
I0610 05:07:37.155360 15981 net.cpp:84] Creating Layer relu_stage2_block1_branch2a
I0610 05:07:37.155364 15981 net.cpp:406] relu_stage2_block1_branch2a <- conv_stage2_block1_branch2a
I0610 05:07:37.155372 15981 net.cpp:367] relu_stage2_block1_branch2a -> conv_stage2_block1_branch2a (in-place)
I0610 05:07:37.155380 15981 net.cpp:122] Setting up relu_stage2_block1_branch2a
I0610 05:07:37.155385 15981 net.cpp:129] Top shape: 7 128 14 14 (175616)
I0610 05:07:37.155388 15981 net.cpp:137] Memory required for data: 703868956
I0610 05:07:37.155392 15981 layer_factory.hpp:77] Creating layer conv_stage2_block1_branch2b
I0610 05:07:37.155405 15981 net.cpp:84] Creating Layer conv_stage2_block1_branch2b
I0610 05:07:37.155408 15981 net.cpp:406] conv_stage2_block1_branch2b <- conv_stage2_block1_branch2a
I0610 05:07:37.155416 15981 net.cpp:380] conv_stage2_block1_branch2b -> conv_stage2_block1_branch2b
I0610 05:07:37.157824 15981 net.cpp:122] Setting up conv_stage2_block1_branch2b
I0610 05:07:37.157841 15981 net.cpp:129] Top shape: 7 128 14 14 (175616)
I0610 05:07:37.157845 15981 net.cpp:137] Memory required for data: 704571420
I0610 05:07:37.157855 15981 layer_factory.hpp:77] Creating layer bn_stage2_block1_branch2b
I0610 05:07:37.157866 15981 net.cpp:84] Creating Layer bn_stage2_block1_branch2b
I0610 05:07:37.157871 15981 net.cpp:406] bn_stage2_block1_branch2b <- conv_stage2_block1_branch2b
I0610 05:07:37.157879 15981 net.cpp:367] bn_stage2_block1_branch2b -> conv_stage2_block1_branch2b (in-place)
I0610 05:07:37.158080 15981 net.cpp:122] Setting up bn_stage2_block1_branch2b
I0610 05:07:37.158088 15981 net.cpp:129] Top shape: 7 128 14 14 (175616)
I0610 05:07:37.158092 15981 net.cpp:137] Memory required for data: 705273884
I0610 05:07:37.158118 15981 layer_factory.hpp:77] Creating layer scale_stage2_block1_branch2b
I0610 05:07:37.158125 15981 net.cpp:84] Creating Layer scale_stage2_block1_branch2b
I0610 05:07:37.158129 15981 net.cpp:406] scale_stage2_block1_branch2b <- conv_stage2_block1_branch2b
I0610 05:07:37.158135 15981 net.cpp:367] scale_stage2_block1_branch2b -> conv_stage2_block1_branch2b (in-place)
I0610 05:07:37.158195 15981 layer_factory.hpp:77] Creating layer scale_stage2_block1_branch2b
I0610 05:07:37.158347 15981 net.cpp:122] Setting up scale_stage2_block1_branch2b
I0610 05:07:37.158354 15981 net.cpp:129] Top shape: 7 128 14 14 (175616)
I0610 05:07:37.158357 15981 net.cpp:137] Memory required for data: 705976348
I0610 05:07:37.158362 15981 layer_factory.hpp:77] Creating layer relu_stage2_block1_branch2b
I0610 05:07:37.158368 15981 net.cpp:84] Creating Layer relu_stage2_block1_branch2b
I0610 05:07:37.158371 15981 net.cpp:406] relu_stage2_block1_branch2b <- conv_stage2_block1_branch2b
I0610 05:07:37.158375 15981 net.cpp:367] relu_stage2_block1_branch2b -> conv_stage2_block1_branch2b (in-place)
I0610 05:07:37.158380 15981 net.cpp:122] Setting up relu_stage2_block1_branch2b
I0610 05:07:37.158383 15981 net.cpp:129] Top shape: 7 128 14 14 (175616)
I0610 05:07:37.158385 15981 net.cpp:137] Memory required for data: 706678812
I0610 05:07:37.158388 15981 layer_factory.hpp:77] Creating layer conv_stage2_block1_branch2c
I0610 05:07:37.158397 15981 net.cpp:84] Creating Layer conv_stage2_block1_branch2c
I0610 05:07:37.158401 15981 net.cpp:406] conv_stage2_block1_branch2c <- conv_stage2_block1_branch2b
I0610 05:07:37.158406 15981 net.cpp:380] conv_stage2_block1_branch2c -> conv_stage2_block1_branch2c
I0610 05:07:37.158910 15981 net.cpp:122] Setting up conv_stage2_block1_branch2c
I0610 05:07:37.158915 15981 net.cpp:129] Top shape: 7 512 14 14 (702464)
I0610 05:07:37.158917 15981 net.cpp:137] Memory required for data: 709488668
I0610 05:07:37.158922 15981 layer_factory.hpp:77] Creating layer bn_stage2_block1_branch2c
I0610 05:07:37.158927 15981 net.cpp:84] Creating Layer bn_stage2_block1_branch2c
I0610 05:07:37.158931 15981 net.cpp:406] bn_stage2_block1_branch2c <- conv_stage2_block1_branch2c
I0610 05:07:37.158936 15981 net.cpp:367] bn_stage2_block1_branch2c -> conv_stage2_block1_branch2c (in-place)
I0610 05:07:37.159087 15981 net.cpp:122] Setting up bn_stage2_block1_branch2c
I0610 05:07:37.159092 15981 net.cpp:129] Top shape: 7 512 14 14 (702464)
I0610 05:07:37.159096 15981 net.cpp:137] Memory required for data: 712298524
I0610 05:07:37.159101 15981 layer_factory.hpp:77] Creating layer scale_stage2_block1_branch2c
I0610 05:07:37.159106 15981 net.cpp:84] Creating Layer scale_stage2_block1_branch2c
I0610 05:07:37.159108 15981 net.cpp:406] scale_stage2_block1_branch2c <- conv_stage2_block1_branch2c
I0610 05:07:37.159113 15981 net.cpp:367] scale_stage2_block1_branch2c -> conv_stage2_block1_branch2c (in-place)
I0610 05:07:37.159139 15981 layer_factory.hpp:77] Creating layer scale_stage2_block1_branch2c
I0610 05:07:37.159222 15981 net.cpp:122] Setting up scale_stage2_block1_branch2c
I0610 05:07:37.159227 15981 net.cpp:129] Top shape: 7 512 14 14 (702464)
I0610 05:07:37.159229 15981 net.cpp:137] Memory required for data: 715108380
I0610 05:07:37.159234 15981 layer_factory.hpp:77] Creating layer eltwise_stage2_block1
I0610 05:07:37.159240 15981 net.cpp:84] Creating Layer eltwise_stage2_block1
I0610 05:07:37.159243 15981 net.cpp:406] eltwise_stage2_block1 <- eltwise_stage2_block0_relu_stage2_block0_0_split_1
I0610 05:07:37.159246 15981 net.cpp:406] eltwise_stage2_block1 <- conv_stage2_block1_branch2c
I0610 05:07:37.159252 15981 net.cpp:380] eltwise_stage2_block1 -> eltwise_stage2_block1
I0610 05:07:37.159270 15981 net.cpp:122] Setting up eltwise_stage2_block1
I0610 05:07:37.159273 15981 net.cpp:129] Top shape: 7 512 14 14 (702464)
I0610 05:07:37.159276 15981 net.cpp:137] Memory required for data: 717918236
I0610 05:07:37.159278 15981 layer_factory.hpp:77] Creating layer relu_stage2_block1
I0610 05:07:37.159283 15981 net.cpp:84] Creating Layer relu_stage2_block1
I0610 05:07:37.159294 15981 net.cpp:406] relu_stage2_block1 <- eltwise_stage2_block1
I0610 05:07:37.159298 15981 net.cpp:367] relu_stage2_block1 -> eltwise_stage2_block1 (in-place)
I0610 05:07:37.159303 15981 net.cpp:122] Setting up relu_stage2_block1
I0610 05:07:37.159307 15981 net.cpp:129] Top shape: 7 512 14 14 (702464)
I0610 05:07:37.159308 15981 net.cpp:137] Memory required for data: 720728092
I0610 05:07:37.159312 15981 layer_factory.hpp:77] Creating layer eltwise_stage2_block1_relu_stage2_block1_0_split
I0610 05:07:37.159315 15981 net.cpp:84] Creating Layer eltwise_stage2_block1_relu_stage2_block1_0_split
I0610 05:07:37.159318 15981 net.cpp:406] eltwise_stage2_block1_relu_stage2_block1_0_split <- eltwise_stage2_block1
I0610 05:07:37.159322 15981 net.cpp:380] eltwise_stage2_block1_relu_stage2_block1_0_split -> eltwise_stage2_block1_relu_stage2_block1_0_split_0
I0610 05:07:37.159327 15981 net.cpp:380] eltwise_stage2_block1_relu_stage2_block1_0_split -> eltwise_stage2_block1_relu_stage2_block1_0_split_1
I0610 05:07:37.159354 15981 net.cpp:122] Setting up eltwise_stage2_block1_relu_stage2_block1_0_split
I0610 05:07:37.159358 15981 net.cpp:129] Top shape: 7 512 14 14 (702464)
I0610 05:07:37.159361 15981 net.cpp:129] Top shape: 7 512 14 14 (702464)
I0610 05:07:37.159364 15981 net.cpp:137] Memory required for data: 726347804
I0610 05:07:37.159366 15981 layer_factory.hpp:77] Creating layer conv_stage2_block2_branch2a
I0610 05:07:37.159374 15981 net.cpp:84] Creating Layer conv_stage2_block2_branch2a
I0610 05:07:37.159377 15981 net.cpp:406] conv_stage2_block2_branch2a <- eltwise_stage2_block1_relu_stage2_block1_0_split_0
I0610 05:07:37.159382 15981 net.cpp:380] conv_stage2_block2_branch2a -> conv_stage2_block2_branch2a
I0610 05:07:37.159857 15981 net.cpp:122] Setting up conv_stage2_block2_branch2a
I0610 05:07:37.159862 15981 net.cpp:129] Top shape: 7 128 14 14 (175616)
I0610 05:07:37.159863 15981 net.cpp:137] Memory required for data: 727050268
I0610 05:07:37.159868 15981 layer_factory.hpp:77] Creating layer bn_stage2_block2_branch2a
I0610 05:07:37.159874 15981 net.cpp:84] Creating Layer bn_stage2_block2_branch2a
I0610 05:07:37.159878 15981 net.cpp:406] bn_stage2_block2_branch2a <- conv_stage2_block2_branch2a
I0610 05:07:37.159883 15981 net.cpp:367] bn_stage2_block2_branch2a -> conv_stage2_block2_branch2a (in-place)
I0610 05:07:37.160017 15981 net.cpp:122] Setting up bn_stage2_block2_branch2a
I0610 05:07:37.160022 15981 net.cpp:129] Top shape: 7 128 14 14 (175616)
I0610 05:07:37.160024 15981 net.cpp:137] Memory required for data: 727752732
I0610 05:07:37.160029 15981 layer_factory.hpp:77] Creating layer scale_stage2_block2_branch2a
I0610 05:07:37.160035 15981 net.cpp:84] Creating Layer scale_stage2_block2_branch2a
I0610 05:07:37.160037 15981 net.cpp:406] scale_stage2_block2_branch2a <- conv_stage2_block2_branch2a
I0610 05:07:37.160042 15981 net.cpp:367] scale_stage2_block2_branch2a -> conv_stage2_block2_branch2a (in-place)
I0610 05:07:37.160069 15981 layer_factory.hpp:77] Creating layer scale_stage2_block2_branch2a
I0610 05:07:37.160148 15981 net.cpp:122] Setting up scale_stage2_block2_branch2a
I0610 05:07:37.160152 15981 net.cpp:129] Top shape: 7 128 14 14 (175616)
I0610 05:07:37.160156 15981 net.cpp:137] Memory required for data: 728455196
I0610 05:07:37.160159 15981 layer_factory.hpp:77] Creating layer relu_stage2_block2_branch2a
I0610 05:07:37.160163 15981 net.cpp:84] Creating Layer relu_stage2_block2_branch2a
I0610 05:07:37.160166 15981 net.cpp:406] relu_stage2_block2_branch2a <- conv_stage2_block2_branch2a
I0610 05:07:37.160171 15981 net.cpp:367] relu_stage2_block2_branch2a -> conv_stage2_block2_branch2a (in-place)
I0610 05:07:37.160176 15981 net.cpp:122] Setting up relu_stage2_block2_branch2a
I0610 05:07:37.160179 15981 net.cpp:129] Top shape: 7 128 14 14 (175616)
I0610 05:07:37.160181 15981 net.cpp:137] Memory required for data: 729157660
I0610 05:07:37.160183 15981 layer_factory.hpp:77] Creating layer conv_stage2_block2_branch2b
I0610 05:07:37.160192 15981 net.cpp:84] Creating Layer conv_stage2_block2_branch2b
I0610 05:07:37.160202 15981 net.cpp:406] conv_stage2_block2_branch2b <- conv_stage2_block2_branch2a
I0610 05:07:37.160207 15981 net.cpp:380] conv_stage2_block2_branch2b -> conv_stage2_block2_branch2b
I0610 05:07:37.161551 15981 net.cpp:122] Setting up conv_stage2_block2_branch2b
I0610 05:07:37.161561 15981 net.cpp:129] Top shape: 7 128 14 14 (175616)
I0610 05:07:37.161564 15981 net.cpp:137] Memory required for data: 729860124
I0610 05:07:37.161569 15981 layer_factory.hpp:77] Creating layer bn_stage2_block2_branch2b
I0610 05:07:37.161576 15981 net.cpp:84] Creating Layer bn_stage2_block2_branch2b
I0610 05:07:37.161578 15981 net.cpp:406] bn_stage2_block2_branch2b <- conv_stage2_block2_branch2b
I0610 05:07:37.161584 15981 net.cpp:367] bn_stage2_block2_branch2b -> conv_stage2_block2_branch2b (in-place)
I0610 05:07:37.161721 15981 net.cpp:122] Setting up bn_stage2_block2_branch2b
I0610 05:07:37.161726 15981 net.cpp:129] Top shape: 7 128 14 14 (175616)
I0610 05:07:37.161728 15981 net.cpp:137] Memory required for data: 730562588
I0610 05:07:37.161734 15981 layer_factory.hpp:77] Creating layer scale_stage2_block2_branch2b
I0610 05:07:37.161739 15981 net.cpp:84] Creating Layer scale_stage2_block2_branch2b
I0610 05:07:37.161742 15981 net.cpp:406] scale_stage2_block2_branch2b <- conv_stage2_block2_branch2b
I0610 05:07:37.161746 15981 net.cpp:367] scale_stage2_block2_branch2b -> conv_stage2_block2_branch2b (in-place)
I0610 05:07:37.161775 15981 layer_factory.hpp:77] Creating layer scale_stage2_block2_branch2b
I0610 05:07:37.161873 15981 net.cpp:122] Setting up scale_stage2_block2_branch2b
I0610 05:07:37.161878 15981 net.cpp:129] Top shape: 7 128 14 14 (175616)
I0610 05:07:37.161880 15981 net.cpp:137] Memory required for data: 731265052
I0610 05:07:37.161885 15981 layer_factory.hpp:77] Creating layer relu_stage2_block2_branch2b
I0610 05:07:37.161890 15981 net.cpp:84] Creating Layer relu_stage2_block2_branch2b
I0610 05:07:37.161892 15981 net.cpp:406] relu_stage2_block2_branch2b <- conv_stage2_block2_branch2b
I0610 05:07:37.161896 15981 net.cpp:367] relu_stage2_block2_branch2b -> conv_stage2_block2_branch2b (in-place)
I0610 05:07:37.161901 15981 net.cpp:122] Setting up relu_stage2_block2_branch2b
I0610 05:07:37.161904 15981 net.cpp:129] Top shape: 7 128 14 14 (175616)
I0610 05:07:37.161906 15981 net.cpp:137] Memory required for data: 731967516
I0610 05:07:37.161908 15981 layer_factory.hpp:77] Creating layer conv_stage2_block2_branch2c
I0610 05:07:37.161916 15981 net.cpp:84] Creating Layer conv_stage2_block2_branch2c
I0610 05:07:37.161919 15981 net.cpp:406] conv_stage2_block2_branch2c <- conv_stage2_block2_branch2b
I0610 05:07:37.161926 15981 net.cpp:380] conv_stage2_block2_branch2c -> conv_stage2_block2_branch2c
I0610 05:07:37.162834 15981 net.cpp:122] Setting up conv_stage2_block2_branch2c
I0610 05:07:37.162843 15981 net.cpp:129] Top shape: 7 512 14 14 (702464)
I0610 05:07:37.162847 15981 net.cpp:137] Memory required for data: 734777372
I0610 05:07:37.162852 15981 layer_factory.hpp:77] Creating layer bn_stage2_block2_branch2c
I0610 05:07:37.162858 15981 net.cpp:84] Creating Layer bn_stage2_block2_branch2c
I0610 05:07:37.162861 15981 net.cpp:406] bn_stage2_block2_branch2c <- conv_stage2_block2_branch2c
I0610 05:07:37.162866 15981 net.cpp:367] bn_stage2_block2_branch2c -> conv_stage2_block2_branch2c (in-place)
I0610 05:07:37.163007 15981 net.cpp:122] Setting up bn_stage2_block2_branch2c
I0610 05:07:37.163012 15981 net.cpp:129] Top shape: 7 512 14 14 (702464)
I0610 05:07:37.163013 15981 net.cpp:137] Memory required for data: 737587228
I0610 05:07:37.163019 15981 layer_factory.hpp:77] Creating layer scale_stage2_block2_branch2c
I0610 05:07:37.163025 15981 net.cpp:84] Creating Layer scale_stage2_block2_branch2c
I0610 05:07:37.163028 15981 net.cpp:406] scale_stage2_block2_branch2c <- conv_stage2_block2_branch2c
I0610 05:07:37.163033 15981 net.cpp:367] scale_stage2_block2_branch2c -> conv_stage2_block2_branch2c (in-place)
I0610 05:07:37.163059 15981 layer_factory.hpp:77] Creating layer scale_stage2_block2_branch2c
I0610 05:07:37.163142 15981 net.cpp:122] Setting up scale_stage2_block2_branch2c
I0610 05:07:37.163156 15981 net.cpp:129] Top shape: 7 512 14 14 (702464)
I0610 05:07:37.163158 15981 net.cpp:137] Memory required for data: 740397084
I0610 05:07:37.163163 15981 layer_factory.hpp:77] Creating layer eltwise_stage2_block2
I0610 05:07:37.163169 15981 net.cpp:84] Creating Layer eltwise_stage2_block2
I0610 05:07:37.163172 15981 net.cpp:406] eltwise_stage2_block2 <- eltwise_stage2_block1_relu_stage2_block1_0_split_1
I0610 05:07:37.163177 15981 net.cpp:406] eltwise_stage2_block2 <- conv_stage2_block2_branch2c
I0610 05:07:37.163182 15981 net.cpp:380] eltwise_stage2_block2 -> eltwise_stage2_block2
I0610 05:07:37.163200 15981 net.cpp:122] Setting up eltwise_stage2_block2
I0610 05:07:37.163204 15981 net.cpp:129] Top shape: 7 512 14 14 (702464)
I0610 05:07:37.163208 15981 net.cpp:137] Memory required for data: 743206940
I0610 05:07:37.163209 15981 layer_factory.hpp:77] Creating layer relu_stage2_block2
I0610 05:07:37.163215 15981 net.cpp:84] Creating Layer relu_stage2_block2
I0610 05:07:37.163218 15981 net.cpp:406] relu_stage2_block2 <- eltwise_stage2_block2
I0610 05:07:37.163223 15981 net.cpp:367] relu_stage2_block2 -> eltwise_stage2_block2 (in-place)
I0610 05:07:37.163228 15981 net.cpp:122] Setting up relu_stage2_block2
I0610 05:07:37.163231 15981 net.cpp:129] Top shape: 7 512 14 14 (702464)
I0610 05:07:37.163233 15981 net.cpp:137] Memory required for data: 746016796
I0610 05:07:37.163236 15981 layer_factory.hpp:77] Creating layer eltwise_stage2_block2_relu_stage2_block2_0_split
I0610 05:07:37.163240 15981 net.cpp:84] Creating Layer eltwise_stage2_block2_relu_stage2_block2_0_split
I0610 05:07:37.163242 15981 net.cpp:406] eltwise_stage2_block2_relu_stage2_block2_0_split <- eltwise_stage2_block2
I0610 05:07:37.163257 15981 net.cpp:380] eltwise_stage2_block2_relu_stage2_block2_0_split -> eltwise_stage2_block2_relu_stage2_block2_0_split_0
I0610 05:07:37.163264 15981 net.cpp:380] eltwise_stage2_block2_relu_stage2_block2_0_split -> eltwise_stage2_block2_relu_stage2_block2_0_split_1
I0610 05:07:37.163290 15981 net.cpp:122] Setting up eltwise_stage2_block2_relu_stage2_block2_0_split
I0610 05:07:37.163295 15981 net.cpp:129] Top shape: 7 512 14 14 (702464)
I0610 05:07:37.163297 15981 net.cpp:129] Top shape: 7 512 14 14 (702464)
I0610 05:07:37.163300 15981 net.cpp:137] Memory required for data: 751636508
I0610 05:07:37.163302 15981 layer_factory.hpp:77] Creating layer conv_stage2_block3_branch2a
I0610 05:07:37.163311 15981 net.cpp:84] Creating Layer conv_stage2_block3_branch2a
I0610 05:07:37.163313 15981 net.cpp:406] conv_stage2_block3_branch2a <- eltwise_stage2_block2_relu_stage2_block2_0_split_0
I0610 05:07:37.163328 15981 net.cpp:380] conv_stage2_block3_branch2a -> conv_stage2_block3_branch2a
I0610 05:07:37.163805 15981 net.cpp:122] Setting up conv_stage2_block3_branch2a
I0610 05:07:37.163810 15981 net.cpp:129] Top shape: 7 128 14 14 (175616)
I0610 05:07:37.163813 15981 net.cpp:137] Memory required for data: 752338972
I0610 05:07:37.163818 15981 layer_factory.hpp:77] Creating layer bn_stage2_block3_branch2a
I0610 05:07:37.163825 15981 net.cpp:84] Creating Layer bn_stage2_block3_branch2a
I0610 05:07:37.163827 15981 net.cpp:406] bn_stage2_block3_branch2a <- conv_stage2_block3_branch2a
I0610 05:07:37.163832 15981 net.cpp:367] bn_stage2_block3_branch2a -> conv_stage2_block3_branch2a (in-place)
I0610 05:07:37.163969 15981 net.cpp:122] Setting up bn_stage2_block3_branch2a
I0610 05:07:37.163974 15981 net.cpp:129] Top shape: 7 128 14 14 (175616)
I0610 05:07:37.163975 15981 net.cpp:137] Memory required for data: 753041436
I0610 05:07:37.163981 15981 layer_factory.hpp:77] Creating layer scale_stage2_block3_branch2a
I0610 05:07:37.163986 15981 net.cpp:84] Creating Layer scale_stage2_block3_branch2a
I0610 05:07:37.163990 15981 net.cpp:406] scale_stage2_block3_branch2a <- conv_stage2_block3_branch2a
I0610 05:07:37.163993 15981 net.cpp:367] scale_stage2_block3_branch2a -> conv_stage2_block3_branch2a (in-place)
I0610 05:07:37.164022 15981 layer_factory.hpp:77] Creating layer scale_stage2_block3_branch2a
I0610 05:07:37.164114 15981 net.cpp:122] Setting up scale_stage2_block3_branch2a
I0610 05:07:37.164119 15981 net.cpp:129] Top shape: 7 128 14 14 (175616)
I0610 05:07:37.164122 15981 net.cpp:137] Memory required for data: 753743900
I0610 05:07:37.164126 15981 layer_factory.hpp:77] Creating layer relu_stage2_block3_branch2a
I0610 05:07:37.164132 15981 net.cpp:84] Creating Layer relu_stage2_block3_branch2a
I0610 05:07:37.164135 15981 net.cpp:406] relu_stage2_block3_branch2a <- conv_stage2_block3_branch2a
I0610 05:07:37.164140 15981 net.cpp:367] relu_stage2_block3_branch2a -> conv_stage2_block3_branch2a (in-place)
I0610 05:07:37.164144 15981 net.cpp:122] Setting up relu_stage2_block3_branch2a
I0610 05:07:37.164149 15981 net.cpp:129] Top shape: 7 128 14 14 (175616)
I0610 05:07:37.164150 15981 net.cpp:137] Memory required for data: 754446364
I0610 05:07:37.164153 15981 layer_factory.hpp:77] Creating layer conv_stage2_block3_branch2b
I0610 05:07:37.164160 15981 net.cpp:84] Creating Layer conv_stage2_block3_branch2b
I0610 05:07:37.164162 15981 net.cpp:406] conv_stage2_block3_branch2b <- conv_stage2_block3_branch2a
I0610 05:07:37.164168 15981 net.cpp:380] conv_stage2_block3_branch2b -> conv_stage2_block3_branch2b
I0610 05:07:37.165467 15981 net.cpp:122] Setting up conv_stage2_block3_branch2b
I0610 05:07:37.165478 15981 net.cpp:129] Top shape: 7 128 14 14 (175616)
I0610 05:07:37.165482 15981 net.cpp:137] Memory required for data: 755148828
I0610 05:07:37.165486 15981 layer_factory.hpp:77] Creating layer bn_stage2_block3_branch2b
I0610 05:07:37.165493 15981 net.cpp:84] Creating Layer bn_stage2_block3_branch2b
I0610 05:07:37.165498 15981 net.cpp:406] bn_stage2_block3_branch2b <- conv_stage2_block3_branch2b
I0610 05:07:37.165501 15981 net.cpp:367] bn_stage2_block3_branch2b -> conv_stage2_block3_branch2b (in-place)
I0610 05:07:37.165648 15981 net.cpp:122] Setting up bn_stage2_block3_branch2b
I0610 05:07:37.165653 15981 net.cpp:129] Top shape: 7 128 14 14 (175616)
I0610 05:07:37.165655 15981 net.cpp:137] Memory required for data: 755851292
I0610 05:07:37.165661 15981 layer_factory.hpp:77] Creating layer scale_stage2_block3_branch2b
I0610 05:07:37.165666 15981 net.cpp:84] Creating Layer scale_stage2_block3_branch2b
I0610 05:07:37.165668 15981 net.cpp:406] scale_stage2_block3_branch2b <- conv_stage2_block3_branch2b
I0610 05:07:37.165673 15981 net.cpp:367] scale_stage2_block3_branch2b -> conv_stage2_block3_branch2b (in-place)
I0610 05:07:37.165704 15981 layer_factory.hpp:77] Creating layer scale_stage2_block3_branch2b
I0610 05:07:37.165786 15981 net.cpp:122] Setting up scale_stage2_block3_branch2b
I0610 05:07:37.165791 15981 net.cpp:129] Top shape: 7 128 14 14 (175616)
I0610 05:07:37.165792 15981 net.cpp:137] Memory required for data: 756553756
I0610 05:07:37.165797 15981 layer_factory.hpp:77] Creating layer relu_stage2_block3_branch2b
I0610 05:07:37.165802 15981 net.cpp:84] Creating Layer relu_stage2_block3_branch2b
I0610 05:07:37.165804 15981 net.cpp:406] relu_stage2_block3_branch2b <- conv_stage2_block3_branch2b
I0610 05:07:37.165809 15981 net.cpp:367] relu_stage2_block3_branch2b -> conv_stage2_block3_branch2b (in-place)
I0610 05:07:37.165814 15981 net.cpp:122] Setting up relu_stage2_block3_branch2b
I0610 05:07:37.165817 15981 net.cpp:129] Top shape: 7 128 14 14 (175616)
I0610 05:07:37.165820 15981 net.cpp:137] Memory required for data: 757256220
I0610 05:07:37.165822 15981 layer_factory.hpp:77] Creating layer conv_stage2_block3_branch2c
I0610 05:07:37.165832 15981 net.cpp:84] Creating Layer conv_stage2_block3_branch2c
I0610 05:07:37.165833 15981 net.cpp:406] conv_stage2_block3_branch2c <- conv_stage2_block3_branch2b
I0610 05:07:37.165839 15981 net.cpp:380] conv_stage2_block3_branch2c -> conv_stage2_block3_branch2c
I0610 05:07:37.166342 15981 net.cpp:122] Setting up conv_stage2_block3_branch2c
I0610 05:07:37.166349 15981 net.cpp:129] Top shape: 7 512 14 14 (702464)
I0610 05:07:37.166352 15981 net.cpp:137] Memory required for data: 760066076
I0610 05:07:37.166357 15981 layer_factory.hpp:77] Creating layer bn_stage2_block3_branch2c
I0610 05:07:37.166378 15981 net.cpp:84] Creating Layer bn_stage2_block3_branch2c
I0610 05:07:37.166381 15981 net.cpp:406] bn_stage2_block3_branch2c <- conv_stage2_block3_branch2c
I0610 05:07:37.166388 15981 net.cpp:367] bn_stage2_block3_branch2c -> conv_stage2_block3_branch2c (in-place)
I0610 05:07:37.166535 15981 net.cpp:122] Setting up bn_stage2_block3_branch2c
I0610 05:07:37.166540 15981 net.cpp:129] Top shape: 7 512 14 14 (702464)
I0610 05:07:37.166543 15981 net.cpp:137] Memory required for data: 762875932
I0610 05:07:37.166569 15981 layer_factory.hpp:77] Creating layer scale_stage2_block3_branch2c
I0610 05:07:37.166575 15981 net.cpp:84] Creating Layer scale_stage2_block3_branch2c
I0610 05:07:37.166579 15981 net.cpp:406] scale_stage2_block3_branch2c <- conv_stage2_block3_branch2c
I0610 05:07:37.166582 15981 net.cpp:367] scale_stage2_block3_branch2c -> conv_stage2_block3_branch2c (in-place)
I0610 05:07:37.166612 15981 layer_factory.hpp:77] Creating layer scale_stage2_block3_branch2c
I0610 05:07:37.166697 15981 net.cpp:122] Setting up scale_stage2_block3_branch2c
I0610 05:07:37.166702 15981 net.cpp:129] Top shape: 7 512 14 14 (702464)
I0610 05:07:37.166703 15981 net.cpp:137] Memory required for data: 765685788
I0610 05:07:37.166708 15981 layer_factory.hpp:77] Creating layer eltwise_stage2_block3
I0610 05:07:37.166714 15981 net.cpp:84] Creating Layer eltwise_stage2_block3
I0610 05:07:37.166718 15981 net.cpp:406] eltwise_stage2_block3 <- eltwise_stage2_block2_relu_stage2_block2_0_split_1
I0610 05:07:37.166723 15981 net.cpp:406] eltwise_stage2_block3 <- conv_stage2_block3_branch2c
I0610 05:07:37.166726 15981 net.cpp:380] eltwise_stage2_block3 -> eltwise_stage2_block3
I0610 05:07:37.166745 15981 net.cpp:122] Setting up eltwise_stage2_block3
I0610 05:07:37.166749 15981 net.cpp:129] Top shape: 7 512 14 14 (702464)
I0610 05:07:37.166752 15981 net.cpp:137] Memory required for data: 768495644
I0610 05:07:37.166754 15981 layer_factory.hpp:77] Creating layer relu_stage2_block3
I0610 05:07:37.166759 15981 net.cpp:84] Creating Layer relu_stage2_block3
I0610 05:07:37.166761 15981 net.cpp:406] relu_stage2_block3 <- eltwise_stage2_block3
I0610 05:07:37.166766 15981 net.cpp:367] relu_stage2_block3 -> eltwise_stage2_block3 (in-place)
I0610 05:07:37.166771 15981 net.cpp:122] Setting up relu_stage2_block3
I0610 05:07:37.166775 15981 net.cpp:129] Top shape: 7 512 14 14 (702464)
I0610 05:07:37.166777 15981 net.cpp:137] Memory required for data: 771305500
I0610 05:07:37.166779 15981 layer_factory.hpp:77] Creating layer eltwise_stage2_block3_relu_stage2_block3_0_split
I0610 05:07:37.166785 15981 net.cpp:84] Creating Layer eltwise_stage2_block3_relu_stage2_block3_0_split
I0610 05:07:37.166786 15981 net.cpp:406] eltwise_stage2_block3_relu_stage2_block3_0_split <- eltwise_stage2_block3
I0610 05:07:37.166792 15981 net.cpp:380] eltwise_stage2_block3_relu_stage2_block3_0_split -> eltwise_stage2_block3_relu_stage2_block3_0_split_0
I0610 05:07:37.166797 15981 net.cpp:380] eltwise_stage2_block3_relu_stage2_block3_0_split -> eltwise_stage2_block3_relu_stage2_block3_0_split_1
I0610 05:07:37.166823 15981 net.cpp:122] Setting up eltwise_stage2_block3_relu_stage2_block3_0_split
I0610 05:07:37.166827 15981 net.cpp:129] Top shape: 7 512 14 14 (702464)
I0610 05:07:37.166831 15981 net.cpp:129] Top shape: 7 512 14 14 (702464)
I0610 05:07:37.166833 15981 net.cpp:137] Memory required for data: 776925212
I0610 05:07:37.166836 15981 layer_factory.hpp:77] Creating layer conv_stage2_block4_branch2a
I0610 05:07:37.166844 15981 net.cpp:84] Creating Layer conv_stage2_block4_branch2a
I0610 05:07:37.166847 15981 net.cpp:406] conv_stage2_block4_branch2a <- eltwise_stage2_block3_relu_stage2_block3_0_split_0
I0610 05:07:37.166852 15981 net.cpp:380] conv_stage2_block4_branch2a -> conv_stage2_block4_branch2a
I0610 05:07:37.167327 15981 net.cpp:122] Setting up conv_stage2_block4_branch2a
I0610 05:07:37.167333 15981 net.cpp:129] Top shape: 7 128 14 14 (175616)
I0610 05:07:37.167335 15981 net.cpp:137] Memory required for data: 777627676
I0610 05:07:37.167340 15981 layer_factory.hpp:77] Creating layer bn_stage2_block4_branch2a
I0610 05:07:37.167353 15981 net.cpp:84] Creating Layer bn_stage2_block4_branch2a
I0610 05:07:37.167356 15981 net.cpp:406] bn_stage2_block4_branch2a <- conv_stage2_block4_branch2a
I0610 05:07:37.167361 15981 net.cpp:367] bn_stage2_block4_branch2a -> conv_stage2_block4_branch2a (in-place)
I0610 05:07:37.167500 15981 net.cpp:122] Setting up bn_stage2_block4_branch2a
I0610 05:07:37.167505 15981 net.cpp:129] Top shape: 7 128 14 14 (175616)
I0610 05:07:37.167507 15981 net.cpp:137] Memory required for data: 778330140
I0610 05:07:37.167513 15981 layer_factory.hpp:77] Creating layer scale_stage2_block4_branch2a
I0610 05:07:37.167517 15981 net.cpp:84] Creating Layer scale_stage2_block4_branch2a
I0610 05:07:37.167520 15981 net.cpp:406] scale_stage2_block4_branch2a <- conv_stage2_block4_branch2a
I0610 05:07:37.167526 15981 net.cpp:367] scale_stage2_block4_branch2a -> conv_stage2_block4_branch2a (in-place)
I0610 05:07:37.167554 15981 layer_factory.hpp:77] Creating layer scale_stage2_block4_branch2a
I0610 05:07:37.167639 15981 net.cpp:122] Setting up scale_stage2_block4_branch2a
I0610 05:07:37.167644 15981 net.cpp:129] Top shape: 7 128 14 14 (175616)
I0610 05:07:37.167646 15981 net.cpp:137] Memory required for data: 779032604
I0610 05:07:37.167651 15981 layer_factory.hpp:77] Creating layer relu_stage2_block4_branch2a
I0610 05:07:37.167655 15981 net.cpp:84] Creating Layer relu_stage2_block4_branch2a
I0610 05:07:37.167659 15981 net.cpp:406] relu_stage2_block4_branch2a <- conv_stage2_block4_branch2a
I0610 05:07:37.167663 15981 net.cpp:367] relu_stage2_block4_branch2a -> conv_stage2_block4_branch2a (in-place)
I0610 05:07:37.167667 15981 net.cpp:122] Setting up relu_stage2_block4_branch2a
I0610 05:07:37.167671 15981 net.cpp:129] Top shape: 7 128 14 14 (175616)
I0610 05:07:37.167673 15981 net.cpp:137] Memory required for data: 779735068
I0610 05:07:37.167676 15981 layer_factory.hpp:77] Creating layer conv_stage2_block4_branch2b
I0610 05:07:37.167685 15981 net.cpp:84] Creating Layer conv_stage2_block4_branch2b
I0610 05:07:37.167686 15981 net.cpp:406] conv_stage2_block4_branch2b <- conv_stage2_block4_branch2a
I0610 05:07:37.167691 15981 net.cpp:380] conv_stage2_block4_branch2b -> conv_stage2_block4_branch2b
I0610 05:07:37.169020 15981 net.cpp:122] Setting up conv_stage2_block4_branch2b
I0610 05:07:37.169029 15981 net.cpp:129] Top shape: 7 128 14 14 (175616)
I0610 05:07:37.169032 15981 net.cpp:137] Memory required for data: 780437532
I0610 05:07:37.169037 15981 layer_factory.hpp:77] Creating layer bn_stage2_block4_branch2b
I0610 05:07:37.169044 15981 net.cpp:84] Creating Layer bn_stage2_block4_branch2b
I0610 05:07:37.169047 15981 net.cpp:406] bn_stage2_block4_branch2b <- conv_stage2_block4_branch2b
I0610 05:07:37.169054 15981 net.cpp:367] bn_stage2_block4_branch2b -> conv_stage2_block4_branch2b (in-place)
I0610 05:07:37.169198 15981 net.cpp:122] Setting up bn_stage2_block4_branch2b
I0610 05:07:37.169203 15981 net.cpp:129] Top shape: 7 128 14 14 (175616)
I0610 05:07:37.169204 15981 net.cpp:137] Memory required for data: 781139996
I0610 05:07:37.169210 15981 layer_factory.hpp:77] Creating layer scale_stage2_block4_branch2b
I0610 05:07:37.169216 15981 net.cpp:84] Creating Layer scale_stage2_block4_branch2b
I0610 05:07:37.169219 15981 net.cpp:406] scale_stage2_block4_branch2b <- conv_stage2_block4_branch2b
I0610 05:07:37.169224 15981 net.cpp:367] scale_stage2_block4_branch2b -> conv_stage2_block4_branch2b (in-place)
I0610 05:07:37.169253 15981 layer_factory.hpp:77] Creating layer scale_stage2_block4_branch2b
I0610 05:07:37.169337 15981 net.cpp:122] Setting up scale_stage2_block4_branch2b
I0610 05:07:37.169342 15981 net.cpp:129] Top shape: 7 128 14 14 (175616)
I0610 05:07:37.169344 15981 net.cpp:137] Memory required for data: 781842460
I0610 05:07:37.169348 15981 layer_factory.hpp:77] Creating layer relu_stage2_block4_branch2b
I0610 05:07:37.169354 15981 net.cpp:84] Creating Layer relu_stage2_block4_branch2b
I0610 05:07:37.169358 15981 net.cpp:406] relu_stage2_block4_branch2b <- conv_stage2_block4_branch2b
I0610 05:07:37.169369 15981 net.cpp:367] relu_stage2_block4_branch2b -> conv_stage2_block4_branch2b (in-place)
I0610 05:07:37.169374 15981 net.cpp:122] Setting up relu_stage2_block4_branch2b
I0610 05:07:37.169378 15981 net.cpp:129] Top shape: 7 128 14 14 (175616)
I0610 05:07:37.169380 15981 net.cpp:137] Memory required for data: 782544924
I0610 05:07:37.169383 15981 layer_factory.hpp:77] Creating layer conv_stage2_block4_branch2c
I0610 05:07:37.169390 15981 net.cpp:84] Creating Layer conv_stage2_block4_branch2c
I0610 05:07:37.169394 15981 net.cpp:406] conv_stage2_block4_branch2c <- conv_stage2_block4_branch2b
I0610 05:07:37.169399 15981 net.cpp:380] conv_stage2_block4_branch2c -> conv_stage2_block4_branch2c
I0610 05:07:37.170331 15981 net.cpp:122] Setting up conv_stage2_block4_branch2c
I0610 05:07:37.170339 15981 net.cpp:129] Top shape: 7 512 14 14 (702464)
I0610 05:07:37.170342 15981 net.cpp:137] Memory required for data: 785354780
I0610 05:07:37.170347 15981 layer_factory.hpp:77] Creating layer bn_stage2_block4_branch2c
I0610 05:07:37.170354 15981 net.cpp:84] Creating Layer bn_stage2_block4_branch2c
I0610 05:07:37.170357 15981 net.cpp:406] bn_stage2_block4_branch2c <- conv_stage2_block4_branch2c
I0610 05:07:37.170362 15981 net.cpp:367] bn_stage2_block4_branch2c -> conv_stage2_block4_branch2c (in-place)
I0610 05:07:37.170509 15981 net.cpp:122] Setting up bn_stage2_block4_branch2c
I0610 05:07:37.170514 15981 net.cpp:129] Top shape: 7 512 14 14 (702464)
I0610 05:07:37.170516 15981 net.cpp:137] Memory required for data: 788164636
I0610 05:07:37.170522 15981 layer_factory.hpp:77] Creating layer scale_stage2_block4_branch2c
I0610 05:07:37.170528 15981 net.cpp:84] Creating Layer scale_stage2_block4_branch2c
I0610 05:07:37.170531 15981 net.cpp:406] scale_stage2_block4_branch2c <- conv_stage2_block4_branch2c
I0610 05:07:37.170534 15981 net.cpp:367] scale_stage2_block4_branch2c -> conv_stage2_block4_branch2c (in-place)
I0610 05:07:37.170563 15981 layer_factory.hpp:77] Creating layer scale_stage2_block4_branch2c
I0610 05:07:37.170647 15981 net.cpp:122] Setting up scale_stage2_block4_branch2c
I0610 05:07:37.170652 15981 net.cpp:129] Top shape: 7 512 14 14 (702464)
I0610 05:07:37.170655 15981 net.cpp:137] Memory required for data: 790974492
I0610 05:07:37.170660 15981 layer_factory.hpp:77] Creating layer eltwise_stage2_block4
I0610 05:07:37.170665 15981 net.cpp:84] Creating Layer eltwise_stage2_block4
I0610 05:07:37.170668 15981 net.cpp:406] eltwise_stage2_block4 <- eltwise_stage2_block3_relu_stage2_block3_0_split_1
I0610 05:07:37.170672 15981 net.cpp:406] eltwise_stage2_block4 <- conv_stage2_block4_branch2c
I0610 05:07:37.170677 15981 net.cpp:380] eltwise_stage2_block4 -> eltwise_stage2_block4
I0610 05:07:37.170694 15981 net.cpp:122] Setting up eltwise_stage2_block4
I0610 05:07:37.170698 15981 net.cpp:129] Top shape: 7 512 14 14 (702464)
I0610 05:07:37.170701 15981 net.cpp:137] Memory required for data: 793784348
I0610 05:07:37.170703 15981 layer_factory.hpp:77] Creating layer relu_stage2_block4
I0610 05:07:37.170709 15981 net.cpp:84] Creating Layer relu_stage2_block4
I0610 05:07:37.170711 15981 net.cpp:406] relu_stage2_block4 <- eltwise_stage2_block4
I0610 05:07:37.170716 15981 net.cpp:367] relu_stage2_block4 -> eltwise_stage2_block4 (in-place)
I0610 05:07:37.170720 15981 net.cpp:122] Setting up relu_stage2_block4
I0610 05:07:37.170723 15981 net.cpp:129] Top shape: 7 512 14 14 (702464)
I0610 05:07:37.170725 15981 net.cpp:137] Memory required for data: 796594204
I0610 05:07:37.170728 15981 layer_factory.hpp:77] Creating layer eltwise_stage2_block4_relu_stage2_block4_0_split
…
I0610 05:07:37.392757 15981 layer_factory.hpp:77] Creating layer eltwise_stage2_block3_relu_stage2_block3_0_split
I0610 05:07:37.392762 15981 net.cpp:84] Creating Layer eltwise_stage2_block3_relu_stage2_block3_0_split
I0610 05:07:37.392765 15981 net.cpp:406] eltwise_stage2_block3_relu_stage2_block3_0_split <- eltwise_stage2_block3
I0610 05:07:37.392771 15981 net.cpp:380] eltwise_stage2_block3_relu_stage2_block3_0_split -> eltwise_stage2_block3_relu_stage2_block3_0_split_0
I0610 05:07:37.392777 15981 net.cpp:380] eltwise_stage2_block3_relu_stage2_block3_0_split -> eltwise_stage2_block3_relu_stage2_block3_0_split_1
I0610 05:07:37.392812 15981 net.cpp:122] Setting up eltwise_stage2_block3_relu_stage2_block3_0_split
I0610 05:07:37.392817 15981 net.cpp:129] Top shape: 7 512 14 14 (702464)
I0610 05:07:37.392820 15981 net.cpp:129] Top shape: 7 512 14 14 (702464)
I0610 05:07:37.392823 15981 net.cpp:137] Memory required for data: 776925268
I0610 05:07:37.392827 15981 layer_factory.hpp:77] Creating layer conv_stage2_block4_branch2a
I0610 05:07:37.392835 15981 net.cpp:84] Creating Layer conv_stage2_block4_branch2a
I0610 05:07:37.392838 15981 net.cpp:406] conv_stage2_block4_branch2a <- eltwise_stage2_block3_relu_stage2_block3_0_split_0
I0610 05:07:37.392845 15981 net.cpp:380] conv_stage2_block4_branch2a -> conv_stage2_block4_branch2a
I0610 05:07:37.393409 15981 net.cpp:122] Setting up conv_stage2_block4_branch2a
I0610 05:07:37.393415 15981 net.cpp:129] Top shape: 7 128 14 14 (175616)
I0610 05:07:37.393419 15981 net.cpp:137] Memory required for data: 777627732
I0610 05:07:37.393424 15981 layer_factory.hpp:77] Creating layer bn_stage2_block4_branch2a
I0610 05:07:37.393431 15981 net.cpp:84] Creating Layer bn_stage2_block4_branch2a
I0610 05:07:37.393435 15981 net.cpp:406] bn_stage2_block4_branch2a <- conv_stage2_block4_branch2a
I0610 05:07:37.393440 15981 net.cpp:367] bn_stage2_block4_branch2a -> conv_stage2_block4_branch2a (in-place)
I0610 05:07:37.393616 15981 net.cpp:122] Setting up bn_stage2_block4_branch2a
I0610 05:07:37.393622 15981 net.cpp:129] Top shape: 7 128 14 14 (175616)
I0610 05:07:37.393625 15981 net.cpp:137] Memory required for data: 778330196
I0610 05:07:37.393631 15981 layer_factory.hpp:77] Creating layer scale_stage2_block4_branch2a
I0610 05:07:37.393636 15981 net.cpp:84] Creating Layer scale_stage2_block4_branch2a
I0610 05:07:37.393640 15981 net.cpp:406] scale_stage2_block4_branch2a <- conv_stage2_block4_branch2a
I0610 05:07:37.393645 15981 net.cpp:367] scale_stage2_block4_branch2a -> conv_stage2_block4_branch2a (in-place)
I0610 05:07:37.393679 15981 layer_factory.hpp:77] Creating layer scale_stage2_block4_branch2a
I0610 05:07:37.393777 15981 net.cpp:122] Setting up scale_stage2_block4_branch2a
I0610 05:07:37.393782 15981 net.cpp:129] Top shape: 7 128 14 14 (175616)
I0610 05:07:37.393785 15981 net.cpp:137] Memory required for data: 779032660
I0610 05:07:37.393790 15981 layer_factory.hpp:77] Creating layer relu_stage2_block4_branch2a
I0610 05:07:37.393795 15981 net.cpp:84] Creating Layer relu_stage2_block4_branch2a
I0610 05:07:37.393800 15981 net.cpp:406] relu_stage2_block4_branch2a <- conv_stage2_block4_branch2a
I0610 05:07:37.393805 15981 net.cpp:367] relu_stage2_block4_branch2a -> conv_stage2_block4_branch2a (in-place)
I0610 05:07:37.393810 15981 net.cpp:122] Setting up relu_stage2_block4_branch2a
I0610 05:07:37.393813 15981 net.cpp:129] Top shape: 7 128 14 14 (175616)
I0610 05:07:37.393823 15981 net.cpp:137] Memory required for data: 779735124
I0610 05:07:37.393826 15981 layer_factory.hpp:77] Creating layer conv_stage2_block4_branch2b
I0610 05:07:37.393836 15981 net.cpp:84] Creating Layer conv_stage2_block4_branch2b
I0610 05:07:37.393838 15981 net.cpp:406] conv_stage2_block4_branch2b <- conv_stage2_block4_branch2a
I0610 05:07:37.393846 15981 net.cpp:380] conv_stage2_block4_branch2b -> conv_stage2_block4_branch2b
I0610 05:07:37.395375 15981 net.cpp:122] Setting up conv_stage2_block4_branch2b
I0610 05:07:37.395387 15981 net.cpp:129] Top shape: 7 128 14 14 (175616)
I0610 05:07:37.395390 15981 net.cpp:137] Memory required for data: 780437588
I0610 05:07:37.395396 15981 layer_factory.hpp:77] Creating layer bn_stage2_block4_branch2b
I0610 05:07:37.395403 15981 net.cpp:84] Creating Layer bn_stage2_block4_branch2b
I0610 05:07:37.395407 15981 net.cpp:406] bn_stage2_block4_branch2b <- conv_stage2_block4_branch2b
I0610 05:07:37.395414 15981 net.cpp:367] bn_stage2_block4_branch2b -> conv_stage2_block4_branch2b (in-place)
I0610 05:07:37.395606 15981 net.cpp:122] Setting up bn_stage2_block4_branch2b
I0610 05:07:37.395613 15981 net.cpp:129] Top shape: 7 128 14 14 (175616)
I0610 05:07:37.395617 15981 net.cpp:137] Memory required for data: 781140052
I0610 05:07:37.395623 15981 layer_factory.hpp:77] Creating layer scale_stage2_block4_branch2b
I0610 05:07:37.395629 15981 net.cpp:84] Creating Layer scale_stage2_block4_branch2b
I0610 05:07:37.395632 15981 net.cpp:406] scale_stage2_block4_branch2b <- conv_stage2_block4_branch2b
I0610 05:07:37.395638 15981 net.cpp:367] scale_stage2_block4_branch2b -> conv_stage2_block4_branch2b (in-place)
I0610 05:07:37.395673 15981 layer_factory.hpp:77] Creating layer scale_stage2_block4_branch2b
I0610 05:07:37.395781 15981 net.cpp:122] Setting up scale_stage2_block4_branch2b
I0610 05:07:37.395788 15981 net.cpp:129] Top shape: 7 128 14 14 (175616)
I0610 05:07:37.395792 15981 net.cpp:137] Memory required for data: 781842516
I0610 05:07:37.395797 15981 layer_factory.hpp:77] Creating layer relu_stage2_block4_branch2b
I0610 05:07:37.395802 15981 net.cpp:84] Creating Layer relu_stage2_block4_branch2b
I0610 05:07:37.395804 15981 net.cpp:406] relu_stage2_block4_branch2b <- conv_stage2_block4_branch2b
I0610 05:07:37.395809 15981 net.cpp:367] relu_stage2_block4_branch2b -> conv_stage2_block4_branch2b (in-place)
I0610 05:07:37.395814 15981 net.cpp:122] Setting up relu_stage2_block4_branch2b
I0610 05:07:37.395818 15981 net.cpp:129] Top shape: 7 128 14 14 (175616)
I0610 05:07:37.395822 15981 net.cpp:137] Memory required for data: 782544980
I0610 05:07:37.395824 15981 layer_factory.hpp:77] Creating layer conv_stage2_block4_branch2c
I0610 05:07:37.395833 15981 net.cpp:84] Creating Layer conv_stage2_block4_branch2c
I0610 05:07:37.395836 15981 net.cpp:406] conv_stage2_block4_branch2c <- conv_stage2_block4_branch2b
I0610 05:07:37.405874 15981 net.cpp:380] conv_stage2_block4_branch2c -> conv_stage2_block4_branch2c
I0610 05:07:37.406599 15981 net.cpp:122] Setting up conv_stage2_block4_branch2c
I0610 05:07:37.406610 15981 net.cpp:129] Top shape: 7 512 14 14 (702464)
I0610 05:07:37.406613 15981 net.cpp:137] Memory required for data: 785354836
I0610 05:07:37.406620 15981 layer_factory.hpp:77] Creating layer bn_stage2_block4_branch2c
I0610 05:07:37.406630 15981 net.cpp:84] Creating Layer bn_stage2_block4_branch2c
I0610 05:07:37.406635 15981 net.cpp:406] bn_stage2_block4_branch2c <- conv_stage2_block4_branch2c
I0610 05:07:37.406642 15981 net.cpp:367] bn_stage2_block4_branch2c -> conv_stage2_block4_branch2c (in-place)
I0610 05:07:37.406852 15981 net.cpp:122] Setting up bn_stage2_block4_branch2c
I0610 05:07:37.406858 15981 net.cpp:129] Top shape: 7 512 14 14 (702464)
I0610 05:07:37.406862 15981 net.cpp:137] Memory required for data: 788164692
I0610 05:07:37.406869 15981 layer_factory.hpp:77] Creating layer scale_stage2_block4_branch2c
I0610 05:07:37.406877 15981 net.cpp:84] Creating Layer scale_stage2_block4_branch2c
I0610 05:07:37.406882 15981 net.cpp:406] scale_stage2_block4_branch2c <- conv_stage2_block4_branch2c
I0610 05:07:37.406898 15981 net.cpp:367] scale_stage2_block4_branch2c -> conv_stage2_block4_branch2c (in-place)
I0610 05:07:37.406951 15981 layer_factory.hpp:77] Creating layer scale_stage2_block4_branch2c
I0610 05:07:37.407069 15981 net.cpp:122] Setting up scale_stage2_block4_branch2c
I0610 05:07:37.407076 15981 net.cpp:129] Top shape: 7 512 14 14 (702464)
I0610 05:07:37.407079 15981 net.cpp:137] Memory required for data: 790974548
I0610 05:07:37.407086 15981 layer_factory.hpp:77] Creating layer eltwise_stage2_block4
I0610 05:07:37.407093 15981 net.cpp:84] Creating Layer eltwise_stage2_block4
I0610 05:07:37.407096 15981 net.cpp:406] eltwise_stage2_block4 <- eltwise_stage2_block3_relu_stage2_block3_0_split_1
I0610 05:07:37.407100 15981 net.cpp:406] eltwise_stage2_block4 <- conv_stage2_block4_branch2c
I0610 05:07:37.407105 15981 net.cpp:380] eltwise_stage2_block4 -> eltwise_stage2_block4
I0610 05:07:37.407129 15981 net.cpp:122] Setting up eltwise_stage2_block4
I0610 05:07:37.407132 15981 net.cpp:129] Top shape: 7 512 14 14 (702464)
I0610 05:07:37.407135 15981 net.cpp:137] Memory required for data: 793784404
I0610 05:07:37.407138 15981 layer_factory.hpp:77] Creating layer relu_stage2_block4
I0610 05:07:37.407143 15981 net.cpp:84] Creating Layer relu_stage2_block4
I0610 05:07:37.407146 15981 net.cpp:406] relu_stage2_block4 <- eltwise_stage2_block4
I0610 05:07:37.407151 15981 net.cpp:367] relu_stage2_block4 -> eltwise_stage2_block4 (in-place)
I0610 05:07:37.407156 15981 net.cpp:122] Setting up relu_stage2_block4
I0610 05:07:37.407160 15981 net.cpp:129] Top shape: 7 512 14 14 (702464)
I0610 05:07:37.407163 15981 net.cpp:137] Memory required for data: 796594260
I0610 05:07:37.407166 15981 layer_factory.hpp:77] Creating layer eltwise_stage2_block4_relu_stage2_block4_0_split
I0610 05:07:37.407171 15981 net.cpp:84] Creating Layer eltwise_stage2_block4_relu_stage2_block4_0_split
I0610 05:07:37.407173 15981 net.cpp:406] eltwise_stage2_block4_relu_stage2_block4_0_split <- eltwise_stage2_block4
I0610 05:07:37.407177 15981 net.cpp:380] eltwise_stage2_block4_relu_stage2_block4_0_split -> eltwise_stage2_block4_relu_stage2_block4_0_split_0
I0610 05:07:37.407183 15981 net.cpp:380] eltwise_stage2_block4_relu_stage2_block4_0_split -> eltwise_stage2_block4_relu_stage2_block4_0_split_1
I0610 05:07:37.407213 15981 net.cpp:122] Setting up eltwise_stage2_block4_relu_stage2_block4_0_split
I0610 05:07:37.407218 15981 net.cpp:129] Top shape: 7 512 14 14 (702464)
I0610 05:07:37.407222 15981 net.cpp:129] Top shape: 7 512 14 14 (702464)
I0610 05:07:37.407224 15981 net.cpp:137] Memory required for data: 802213972
I0610 05:07:37.407227 15981 layer_factory.hpp:77] Creating layer conv_stage2_block5_branch2a
I0610 05:07:37.407236 15981 net.cpp:84] Creating Layer conv_stage2_block5_branch2a
I0610 05:07:37.407239 15981 net.cpp:406] conv_stage2_block5_branch2a <- eltwise_stage2_block4_relu_stage2_block4_0_split_0
I0610 05:07:37.407245 15981 net.cpp:380] conv_stage2_block5_branch2a -> conv_stage2_block5_branch2a
I0610 05:07:37.408288 15981 net.cpp:122] Setting up conv_stage2_block5_branch2a
I0610 05:07:37.408300 15981 net.cpp:129] Top shape: 7 128 14 14 (175616)
I0610 05:07:37.408303 15981 net.cpp:137] Memory required for data: 802916436
I0610 05:07:37.408308 15981 layer_factory.hpp:77] Creating layer bn_stage2_block5_branch2a
I0610 05:07:37.408315 15981 net.cpp:84] Creating Layer bn_stage2_block5_branch2a
I0610 05:07:37.408319 15981 net.cpp:406] bn_stage2_block5_branch2a <- conv_stage2_block5_branch2a
I0610 05:07:37.408329 15981 net.cpp:367] bn_stage2_block5_branch2a -> conv_stage2_block5_branch2a (in-place)
I0610 05:07:37.408501 15981 net.cpp:122] Setting up bn_stage2_block5_branch2a
I0610 05:07:37.408506 15981 net.cpp:129] Top shape: 7 128 14 14 (175616)
I0610 05:07:37.408509 15981 net.cpp:137] Memory required for data: 803618900
I0610 05:07:37.408515 15981 layer_factory.hpp:77] Creating layer scale_stage2_block5_branch2a
I0610 05:07:37.408521 15981 net.cpp:84] Creating Layer scale_stage2_block5_branch2a
I0610 05:07:37.408534 15981 net.cpp:406] scale_stage2_block5_branch2a <- conv_stage2_block5_branch2a
I0610 05:07:37.408540 15981 net.cpp:367] scale_stage2_block5_branch2a -> conv_stage2_block5_branch2a (in-place)
I0610 05:07:37.408576 15981 layer_factory.hpp:77] Creating layer scale_stage2_block5_branch2a
I0610 05:07:37.408671 15981 net.cpp:122] Setting up scale_stage2_block5_branch2a
I0610 05:07:37.408677 15981 net.cpp:129] Top shape: 7 128 14 14 (175616)
I0610 05:07:37.408680 15981 net.cpp:137] Memory required for data: 804321364
I0610 05:07:37.408685 15981 layer_factory.hpp:77] Creating layer relu_stage2_block5_branch2a
I0610 05:07:37.408690 15981 net.cpp:84] Creating Layer relu_stage2_block5_branch2a
I0610 05:07:37.408694 15981 net.cpp:406] relu_stage2_block5_branch2a <- conv_stage2_block5_branch2a
I0610 05:07:37.408699 15981 net.cpp:367] relu_stage2_block5_branch2a -> conv_stage2_block5_branch2a (in-place)
I0610 05:07:37.408702 15981 net.cpp:122] Setting up relu_stage2_block5_branch2a
I0610 05:07:37.408706 15981 net.cpp:129] Top shape: 7 128 14 14 (175616)
I0610 05:07:37.408710 15981 net.cpp:137] Memory required for data: 805023828
I0610 05:07:37.408711 15981 layer_factory.hpp:77] Creating layer conv_stage2_block5_branch2b
I0610 05:07:37.408720 15981 net.cpp:84] Creating Layer conv_stage2_block5_branch2b
I0610 05:07:37.408723 15981 net.cpp:406] conv_stage2_block5_branch2b <- conv_stage2_block5_branch2a
I0610 05:07:37.408730 15981 net.cpp:380] conv_stage2_block5_branch2b -> conv_stage2_block5_branch2b
I0610 05:07:37.410141 15981 net.cpp:122] Setting up conv_stage2_block5_branch2b
I0610 05:07:37.410151 15981 net.cpp:129] Top shape: 7 128 14 14 (175616)
I0610 05:07:37.410153 15981 net.cpp:137] Memory required for data: 805726292
I0610 05:07:37.410159 15981 layer_factory.hpp:77] Creating layer bn_stage2_block5_branch2b
I0610 05:07:37.410166 15981 net.cpp:84] Creating Layer bn_stage2_block5_branch2b
I0610 05:07:37.410171 15981 net.cpp:406] bn_stage2_block5_branch2b <- conv_stage2_block5_branch2b
I0610 05:07:37.410176 15981 net.cpp:367] bn_stage2_block5_branch2b -> conv_stage2_block5_branch2b (in-place)
I0610 05:07:37.410421 15981 net.cpp:122] Setting up bn_stage2_block5_branch2b
I0610 05:07:37.410432 15981 net.cpp:129] Top shape: 7 128 14 14 (175616)
I0610 05:07:37.410436 15981 net.cpp:137] Memory required for data: 806428756
I0610 05:07:37.410445 15981 layer_factory.hpp:77] Creating layer scale_stage2_block5_branch2b
I0610 05:07:37.410454 15981 net.cpp:84] Creating Layer scale_stage2_block5_branch2b
I0610 05:07:37.410457 15981 net.cpp:406] scale_stage2_block5_branch2b <- conv_stage2_block5_branch2b
I0610 05:07:37.410466 15981 net.cpp:367] scale_stage2_block5_branch2b -> conv_stage2_block5_branch2b (in-place)
I0610 05:07:37.410514 15981 layer_factory.hpp:77] Creating layer scale_stage2_block5_branch2b
I0610 05:07:37.410650 15981 net.cpp:122] Setting up scale_stage2_block5_branch2b
I0610 05:07:37.410656 15981 net.cpp:129] Top shape: 7 128 14 14 (175616)
I0610 05:07:37.410660 15981 net.cpp:137] Memory required for data: 807131220
I0610 05:07:37.410667 15981 layer_factory.hpp:77] Creating layer relu_stage2_block5_branch2b
I0610 05:07:37.410675 15981 net.cpp:84] Creating Layer relu_stage2_block5_branch2b
I0610 05:07:37.410678 15981 net.cpp:406] relu_stage2_block5_branch2b <- conv_stage2_block5_branch2b
I0610 05:07:37.410689 15981 net.cpp:367] relu_stage2_block5_branch2b -> conv_stage2_block5_branch2b (in-place)
I0610 05:07:37.410697 15981 net.cpp:122] Setting up relu_stage2_block5_branch2b
I0610 05:07:37.410702 15981 net.cpp:129] Top shape: 7 128 14 14 (175616)
I0610 05:07:37.410706 15981 net.cpp:137] Memory required for data: 807833684
I0610 05:07:37.410709 15981 layer_factory.hpp:77] Creating layer conv_stage2_block5_branch2c
I0610 05:07:37.410722 15981 net.cpp:84] Creating Layer conv_stage2_block5_branch2c
I0610 05:07:37.410727 15981 net.cpp:406] conv_stage2_block5_branch2c <- conv_stage2_block5_branch2b
I0610 05:07:37.410733 15981 net.cpp:380] conv_stage2_block5_branch2c -> conv_stage2_block5_branch2c
I0610 05:07:37.411489 15981 net.cpp:122] Setting up conv_stage2_block5_branch2c
I0610 05:07:37.411512 15981 net.cpp:129] Top shape: 7 512 14 14 (702464)
I0610 05:07:37.411516 15981 net.cpp:137] Memory required for data: 810643540
I0610 05:07:37.411523 15981 layer_factory.hpp:77] Creating layer bn_stage2_block5_branch2c
I0610 05:07:37.411533 15981 net.cpp:84] Creating Layer bn_stage2_block5_branch2c
I0610 05:07:37.411538 15981 net.cpp:406] bn_stage2_block5_branch2c <- conv_stage2_block5_branch2c
I0610 05:07:37.411546 15981 net.cpp:367] bn_stage2_block5_branch2c -> conv_stage2_block5_branch2c (in-place)
I0610 05:07:37.412396 15981 net.cpp:122] Setting up bn_stage2_block5_branch2c
I0610 05:07:37.412410 15981 net.cpp:129] Top shape: 7 512 14 14 (702464)
I0610 05:07:37.412413 15981 net.cpp:137] Memory required for data: 813453396
I0610 05:07:37.412422 15981 layer_factory.hpp:77] Creating layer scale_stage2_block5_branch2c
I0610 05:07:37.412431 15981 net.cpp:84] Creating Layer scale_stage2_block5_branch2c
I0610 05:07:37.412436 15981 net.cpp:406] scale_stage2_block5_branch2c <- conv_stage2_block5_branch2c
I0610 05:07:37.412444 15981 net.cpp:367] scale_stage2_block5_branch2c -> conv_stage2_block5_branch2c (in-place)
I0610 05:07:37.412493 15981 layer_factory.hpp:77] Creating layer scale_stage2_block5_branch2c
I0610 05:07:37.412629 15981 net.cpp:122] Setting up scale_stage2_block5_branch2c
I0610 05:07:37.412637 15981 net.cpp:129] Top shape: 7 512 14 14 (702464)
I0610 05:07:37.412641 15981 net.cpp:137] Memory required for data: 816263252
I0610 05:07:37.412647 15981 layer_factory.hpp:77] Creating layer eltwise_stage2_block5
I0610 05:07:37.412654 15981 net.cpp:84] Creating Layer eltwise_stage2_block5
I0610 05:07:37.412659 15981 net.cpp:406] eltwise_stage2_block5 <- eltwise_stage2_block4_relu_stage2_block4_0_split_1
I0610 05:07:37.412665 15981 net.cpp:406] eltwise_stage2_block5 <- conv_stage2_block5_branch2c
I0610 05:07:37.412675 15981 net.cpp:380] eltwise_stage2_block5 -> eltwise_stage2_block5
I0610 05:07:37.412704 15981 net.cpp:122] Setting up eltwise_stage2_block5
I0610 05:07:37.412711 15981 net.cpp:129] Top shape: 7 512 14 14 (702464)
I0610 05:07:37.412715 15981 net.cpp:137] Memory required for data: 819073108
I0610 05:07:37.412719 15981 layer_factory.hpp:77] Creating layer relu_stage2_block5
I0610 05:07:37.412725 15981 net.cpp:84] Creating Layer relu_stage2_block5
I0610 05:07:37.412729 15981 net.cpp:406] relu_stage2_block5 <- eltwise_stage2_block5
I0610 05:07:37.412735 15981 net.cpp:367] relu_stage2_block5 -> eltwise_stage2_block5 (in-place)
I0610 05:07:37.412741 15981 net.cpp:122] Setting up relu_stage2_block5
I0610 05:07:37.412747 15981 net.cpp:129] Top shape: 7 512 14 14 (702464)
I0610 05:07:37.412750 15981 net.cpp:137] Memory required for data: 821882964
I0610 05:07:37.412755 15981 layer_factory.hpp:77] Creating layer eltwise_stage2_block5_relu_stage2_block5_0_split
I0610 05:07:37.412763 15981 net.cpp:84] Creating Layer eltwise_stage2_block5_relu_stage2_block5_0_split
I0610 05:07:37.412767 15981 net.cpp:406] eltwise_stage2_block5_relu_stage2_block5_0_split <- eltwise_stage2_block5
I0610 05:07:37.412773 15981 net.cpp:380] eltwise_stage2_block5_relu_stage2_block5_0_split -> eltwise_stage2_block5_relu_stage2_block5_0_split_0
I0610 05:07:37.412781 15981 net.cpp:380] eltwise_stage2_block5_relu_stage2_block5_0_split -> eltwise_stage2_block5_relu_stage2_block5_0_split_1
I0610 05:07:37.412822 15981 net.cpp:122] Setting up eltwise_stage2_block5_relu_stage2_block5_0_split
I0610 05:07:37.412827 15981 net.cpp:129] Top shape: 7 512 14 14 (702464)
I0610 05:07:37.412833 15981 net.cpp:129] Top shape: 7 512 14 14 (702464)
I0610 05:07:37.412837 15981 net.cpp:137] Memory required for data: 827502676
I0610 05:07:37.412840 15981 layer_factory.hpp:77] Creating layer conv_stage3_block0_proj_shortcut
I0610 05:07:37.412852 15981 net.cpp:84] Creating Layer conv_stage3_block0_proj_shortcut
I0610 05:07:37.412855 15981 net.cpp:406] conv_stage3_block0_proj_shortcut <- eltwise_stage2_block5_relu_stage2_block5_0_split_0
I0610 05:07:37.412865 15981 net.cpp:380] conv_stage3_block0_proj_shortcut -> conv_stage3_block0_proj_shortcut
I0610 05:07:37.421383 15981 net.cpp:122] Setting up conv_stage3_block0_proj_shortcut
I0610 05:07:37.421411 15981 net.cpp:129] Top shape: 7 1024 7 7 (351232)
I0610 05:07:37.421417 15981 net.cpp:137] Memory required for data: 828907604
I0610 05:07:37.421432 15981 layer_factory.hpp:77] Creating layer bn_stage3_block0_proj_shortcut
I0610 05:07:37.421450 15981 net.cpp:84] Creating Layer bn_stage3_block0_proj_shortcut
I0610 05:07:37.421458 15981 net.cpp:406] bn_stage3_block0_proj_shortcut <- conv_stage3_block0_proj_shortcut
I0610 05:07:37.421473 15981 net.cpp:367] bn_stage3_block0_proj_shortcut -> conv_stage3_block0_proj_shortcut (in-place)
I0610 05:07:37.421823 15981 net.cpp:122] Setting up bn_stage3_block0_proj_shortcut
I0610 05:07:37.421836 15981 net.cpp:129] Top shape: 7 1024 7 7 (351232)
I0610 05:07:37.421842 15981 net.cpp:137] Memory required for data: 830312532
I0610 05:07:37.421857 15981 layer_factory.hpp:77] Creating layer scale_stage3_block0_proj_shortcut
I0610 05:07:37.421869 15981 net.cpp:84] Creating Layer scale_stage3_block0_proj_shortcut
I0610 05:07:37.421876 15981 net.cpp:406] scale_stage3_block0_proj_shortcut <- conv_stage3_block0_proj_shortcut
I0610 05:07:37.421886 15981 net.cpp:367] scale_stage3_block0_proj_shortcut -> conv_stage3_block0_proj_shortcut (in-place)
I0610 05:07:37.421959 15981 layer_factory.hpp:77] Creating layer scale_stage3_block0_proj_shortcut
I0610 05:07:37.422164 15981 net.cpp:122] Setting up scale_stage3_block0_proj_shortcut
I0610 05:07:37.422178 15981 net.cpp:129] Top shape: 7 1024 7 7 (351232)
I0610 05:07:37.422184 15981 net.cpp:137] Memory required for data: 831717460
I0610 05:07:37.422196 15981 layer_factory.hpp:77] Creating layer conv_stage3_block0_branch2a
I0610 05:07:37.422216 15981 net.cpp:84] Creating Layer conv_stage3_block0_branch2a
I0610 05:07:37.422224 15981 net.cpp:406] conv_stage3_block0_branch2a <- eltwise_stage2_block5_relu_stage2_block5_0_split_1
I0610 05:07:37.422240 15981 net.cpp:380] conv_stage3_block0_branch2a -> conv_stage3_block0_branch2a
I0610 05:07:37.423820 15981 net.cpp:122] Setting up conv_stage3_block0_branch2a
I0610 05:07:37.423830 15981 net.cpp:129] Top shape: 7 256 7 7 (87808)
I0610 05:07:37.423832 15981 net.cpp:137] Memory required for data: 832068692
I0610 05:07:37.423837 15981 layer_factory.hpp:77] Creating layer bn_stage3_block0_branch2a
I0610 05:07:37.423843 15981 net.cpp:84] Creating Layer bn_stage3_block0_branch2a
I0610 05:07:37.423847 15981 net.cpp:406] bn_stage3_block0_branch2a <- conv_stage3_block0_branch2a
I0610 05:07:37.423853 15981 net.cpp:367] bn_stage3_block0_branch2a -> conv_stage3_block0_branch2a (in-place)
I0610 05:07:37.424000 15981 net.cpp:122] Setting up bn_stage3_block0_branch2a
I0610 05:07:37.425519 15981 net.cpp:129] Top shape: 7 256 7 7 (87808)
I0610 05:07:37.425526 15981 net.cpp:137] Memory required for data: 832419924
I0610 05:07:37.425536 15981 layer_factory.hpp:77] Creating layer scale_stage3_block0_branch2a
I0610 05:07:37.425544 15981 net.cpp:84] Creating Layer scale_stage3_block0_branch2a
I0610 05:07:37.425549 15981 net.cpp:406] scale_stage3_block0_branch2a <- conv_stage3_block0_branch2a
I0610 05:07:37.425556 15981 net.cpp:367] scale_stage3_block0_branch2a -> conv_stage3_block0_branch2a (in-place)
I0610 05:07:37.425616 15981 layer_factory.hpp:77] Creating layer scale_stage3_block0_branch2a
I0610 05:07:37.425751 15981 net.cpp:122] Setting up scale_stage3_block0_branch2a
I0610 05:07:37.425761 15981 net.cpp:129] Top shape: 7 256 7 7 (87808)
I0610 05:07:37.425765 15981 net.cpp:137] Memory required for data: 832771156
I0610 05:07:37.425774 15981 layer_factory.hpp:77] Creating layer relu_stage3_block0_branch2a
I0610 05:07:37.425782 15981 net.cpp:84] Creating Layer relu_stage3_block0_branch2a
I0610 05:07:37.425786 15981 net.cpp:406] relu_stage3_block0_branch2a <- conv_stage3_block0_branch2a
I0610 05:07:37.425796 15981 net.cpp:367] relu_stage3_block0_branch2a -> conv_stage3_block0_branch2a (in-place)
I0610 05:07:37.425806 15981 net.cpp:122] Setting up relu_stage3_block0_branch2a
I0610 05:07:37.425827 15981 net.cpp:129] Top shape: 7 256 7 7 (87808)
I0610 05:07:37.425832 15981 net.cpp:137] Memory required for data: 833122388
I0610 05:07:37.425835 15981 layer_factory.hpp:77] Creating layer conv_stage3_block0_branch2b
I0610 05:07:37.425849 15981 net.cpp:84] Creating Layer conv_stage3_block0_branch2b
I0610 05:07:37.425854 15981 net.cpp:406] conv_stage3_block0_branch2b <- conv_stage3_block0_branch2a
I0610 05:07:37.425864 15981 net.cpp:380] conv_stage3_block0_branch2b -> conv_stage3_block0_branch2b
I0610 05:07:37.431020 15981 net.cpp:122] Setting up conv_stage3_block0_branch2b
I0610 05:07:37.431035 15981 net.cpp:129] Top shape: 7 256 7 7 (87808)
I0610 05:07:37.431038 15981 net.cpp:137] Memory required for data: 833473620
I0610 05:07:37.431046 15981 layer_factory.hpp:77] Creating layer bn_stage3_block0_branch2b
I0610 05:07:37.431066 15981 net.cpp:84] Creating Layer bn_stage3_block0_branch2b
I0610 05:07:37.431069 15981 net.cpp:406] bn_stage3_block0_branch2b <- conv_stage3_block0_branch2b
I0610 05:07:37.431077 15981 net.cpp:367] bn_stage3_block0_branch2b -> conv_stage3_block0_branch2b (in-place)
I0610 05:07:37.431238 15981 net.cpp:122] Setting up bn_stage3_block0_branch2b
I0610 05:07:37.431243 15981 net.cpp:129] Top shape: 7 256 7 7 (87808)
I0610 05:07:37.431246 15981 net.cpp:137] Memory required for data: 833824852
I0610 05:07:37.431252 15981 layer_factory.hpp:77] Creating layer scale_stage3_block0_branch2b
I0610 05:07:37.431257 15981 net.cpp:84] Creating Layer scale_stage3_block0_branch2b
I0610 05:07:37.431260 15981 net.cpp:406] scale_stage3_block0_branch2b <- conv_stage3_block0_branch2b
I0610 05:07:37.431264 15981 net.cpp:367] scale_stage3_block0_branch2b -> conv_stage3_block0_branch2b (in-place)
I0610 05:07:37.431299 15981 layer_factory.hpp:77] Creating layer scale_stage3_block0_branch2b
I0610 05:07:37.431380 15981 net.cpp:122] Setting up scale_stage3_block0_branch2b
I0610 05:07:37.431385 15981 net.cpp:129] Top shape: 7 256 7 7 (87808)
I0610 05:07:37.431386 15981 net.cpp:137] Memory required for data: 834176084
I0610 05:07:37.431391 15981 layer_factory.hpp:77] Creating layer relu_stage3_block0_branch2b
I0610 05:07:37.431396 15981 net.cpp:84] Creating Layer relu_stage3_block0_branch2b
I0610 05:07:37.431398 15981 net.cpp:406] relu_stage3_block0_branch2b <- conv_stage3_block0_branch2b
I0610 05:07:37.431403 15981 net.cpp:367] relu_stage3_block0_branch2b -> conv_stage3_block0_branch2b (in-place)
I0610 05:07:37.431408 15981 net.cpp:122] Setting up relu_stage3_block0_branch2b
I0610 05:07:37.431411 15981 net.cpp:129] Top shape: 7 256 7 7 (87808)
I0610 05:07:37.431414 15981 net.cpp:137] Memory required for data: 834527316
I0610 05:07:37.431416 15981 layer_factory.hpp:77] Creating layer conv_stage3_block0_branch2c
I0610 05:07:37.431426 15981 net.cpp:84] Creating Layer conv_stage3_block0_branch2c
I0610 05:07:37.431428 15981 net.cpp:406] conv_stage3_block0_branch2c <- conv_stage3_block0_branch2b
I0610 05:07:37.431445 15981 net.cpp:380] conv_stage3_block0_branch2c -> conv_stage3_block0_branch2c
I0610 05:07:37.433320 15981 net.cpp:122] Setting up conv_stage3_block0_branch2c
I0610 05:07:37.433329 15981 net.cpp:129] Top shape: 7 1024 7 7 (351232)
I0610 05:07:37.433332 15981 net.cpp:137] Memory required for data: 835932244
I0610 05:07:37.433337 15981 layer_factory.hpp:77] Creating layer bn_stage3_block0_branch2c
I0610 05:07:37.433344 15981 net.cpp:84] Creating Layer bn_stage3_block0_branch2c
I0610 05:07:37.433347 15981 net.cpp:406] bn_stage3_block0_branch2c <- conv_stage3_block0_branch2c
I0610 05:07:37.433353 15981 net.cpp:367] bn_stage3_block0_branch2c -> conv_stage3_block0_branch2c (in-place)
I0610 05:07:37.433503 15981 net.cpp:122] Setting up bn_stage3_block0_branch2c
I0610 05:07:37.433508 15981 net.cpp:129] Top shape: 7 1024 7 7 (351232)
I0610 05:07:37.433511 15981 net.cpp:137] Memory required for data: 837337172
I0610 05:07:37.433516 15981 layer_factory.hpp:77] Creating layer scale_stage3_block0_branch2c
I0610 05:07:37.433521 15981 net.cpp:84] Creating Layer scale_stage3_block0_branch2c
I0610 05:07:37.433524 15981 net.cpp:406] scale_stage3_block0_branch2c <- conv_stage3_block0_branch2c
I0610 05:07:37.433540 15981 net.cpp:367] scale_stage3_block0_branch2c -> conv_stage3_block0_branch2c (in-place)
I0610 05:07:37.433575 15981 layer_factory.hpp:77] Creating layer scale_stage3_block0_branch2c
I0610 05:07:37.433663 15981 net.cpp:122] Setting up scale_stage3_block0_branch2c
I0610 05:07:37.433668 15981 net.cpp:129] Top shape: 7 1024 7 7 (351232)
I0610 05:07:37.433671 15981 net.cpp:137] Memory required for data: 838742100
I0610 05:07:37.433676 15981 layer_factory.hpp:77] Creating layer eltwise_stage3_block0
I0610 05:07:37.433681 15981 net.cpp:84] Creating Layer eltwise_stage3_block0
I0610 05:07:37.433684 15981 net.cpp:406] eltwise_stage3_block0 <- conv_stage3_block0_proj_shortcut
I0610 05:07:37.433688 15981 net.cpp:406] eltwise_stage3_block0 <- conv_stage3_block0_branch2c
I0610 05:07:37.433693 15981 net.cpp:380] eltwise_stage3_block0 -> eltwise_stage3_block0
I0610 05:07:37.433713 15981 net.cpp:122] Setting up eltwise_stage3_block0
I0610 05:07:37.433717 15981 net.cpp:129] Top shape: 7 1024 7 7 (351232)
I0610 05:07:37.433720 15981 net.cpp:137] Memory required for data: 840147028
I0610 05:07:37.433722 15981 layer_factory.hpp:77] Creating layer relu_stage3_block0
I0610 05:07:37.433727 15981 net.cpp:84] Creating Layer relu_stage3_block0
I0610 05:07:37.433729 15981 net.cpp:406] relu_stage3_block0 <- eltwise_stage3_block0
I0610 05:07:37.433734 15981 net.cpp:367] relu_stage3_block0 -> eltwise_stage3_block0 (in-place)
I0610 05:07:37.433739 15981 net.cpp:122] Setting up relu_stage3_block0
I0610 05:07:37.433743 15981 net.cpp:129] Top shape: 7 1024 7 7 (351232)
I0610 05:07:37.433744 15981 net.cpp:137] Memory required for data: 841551956
I0610 05:07:37.433748 15981 layer_factory.hpp:77] Creating layer eltwise_stage3_block0_relu_stage3_block0_0_split
I0610 05:07:37.433751 15981 net.cpp:84] Creating Layer eltwise_stage3_block0_relu_stage3_block0_0_split
I0610 05:07:37.433754 15981 net.cpp:406] eltwise_stage3_block0_relu_stage3_block0_0_split <- eltwise_stage3_block0
I0610 05:07:37.433758 15981 net.cpp:380] eltwise_stage3_block0_relu_stage3_block0_0_split -> eltwise_stage3_block0_relu_stage3_block0_0_split_0
I0610 05:07:37.433764 15981 net.cpp:380] eltwise_stage3_block0_relu_stage3_block0_0_split -> eltwise_stage3_block0_relu_stage3_block0_0_split_1
I0610 05:07:37.433790 15981 net.cpp:122] Setting up eltwise_stage3_block0_relu_stage3_block0_0_split
I0610 05:07:37.433794 15981 net.cpp:129] Top shape: 7 1024 7 7 (351232)
I0610 05:07:37.433797 15981 net.cpp:129] Top shape: 7 1024 7 7 (351232)
I0610 05:07:37.433799 15981 net.cpp:137] Memory required for data: 844361812
I0610 05:07:37.433802 15981 layer_factory.hpp:77] Creating layer conv_stage3_block1_branch2a
I0610 05:07:37.433810 15981 net.cpp:84] Creating Layer conv_stage3_block1_branch2a
I0610 05:07:37.433814 15981 net.cpp:406] conv_stage3_block1_branch2a <- eltwise_stage3_block0_relu_stage3_block0_0_split_0
I0610 05:07:37.433820 15981 net.cpp:380] conv_stage3_block1_branch2a -> conv_stage3_block1_branch2a
I0610 05:07:37.435611 15981 net.cpp:122] Setting up conv_stage3_block1_branch2a
I0610 05:07:37.435621 15981 net.cpp:129] Top shape: 7 256 7 7 (87808)
I0610 05:07:37.435623 15981 net.cpp:137] Memory required for data: 844713044
I0610 05:07:37.435629 15981 layer_factory.hpp:77] Creating layer bn_stage3_block1_branch2a
I0610 05:07:37.435636 15981 net.cpp:84] Creating Layer bn_stage3_block1_branch2a
I0610 05:07:37.435639 15981 net.cpp:406] bn_stage3_block1_branch2a <- conv_stage3_block1_branch2a
I0610 05:07:37.435644 15981 net.cpp:367] bn_stage3_block1_branch2a -> conv_stage3_block1_branch2a (in-place)
I0610 05:07:37.435809 15981 net.cpp:122] Setting up bn_stage3_block1_branch2a
I0610 05:07:37.435814 15981 net.cpp:129] Top shape: 7 256 7 7 (87808)
I0610 05:07:37.435817 15981 net.cpp:137] Memory required for data: 845064276
I0610 05:07:37.435822 15981 layer_factory.hpp:77] Creating layer scale_stage3_block1_branch2a
I0610 05:07:37.435827 15981 net.cpp:84] Creating Layer scale_stage3_block1_branch2a
I0610 05:07:37.435837 15981 net.cpp:406] scale_stage3_block1_branch2a <- conv_stage3_block1_branch2a
I0610 05:07:37.435843 15981 net.cpp:367] scale_stage3_block1_branch2a -> conv_stage3_block1_branch2a (in-place)
I0610 05:07:37.435873 15981 layer_factory.hpp:77] Creating layer scale_stage3_block1_branch2a
I0610 05:07:37.435953 15981 net.cpp:122] Setting up scale_stage3_block1_branch2a
I0610 05:07:37.435957 15981 net.cpp:129] Top shape: 7 256 7 7 (87808)
I0610 05:07:37.435961 15981 net.cpp:137] Memory required for data: 845415508
I0610 05:07:37.435966 15981 layer_factory.hpp:77] Creating layer relu_stage3_block1_branch2a
I0610 05:07:37.435969 15981 net.cpp:84] Creating Layer relu_stage3_block1_branch2a
I0610 05:07:37.435972 15981 net.cpp:406] relu_stage3_block1_branch2a <- conv_stage3_block1_branch2a
I0610 05:07:37.435977 15981 net.cpp:367] relu_stage3_block1_branch2a -> conv_stage3_block1_branch2a (in-place)
I0610 05:07:37.435981 15981 net.cpp:122] Setting up relu_stage3_block1_branch2a
I0610 05:07:37.435986 15981 net.cpp:129] Top shape: 7 256 7 7 (87808)
I0610 05:07:37.435987 15981 net.cpp:137] Memory required for data: 845766740
I0610 05:07:37.435989 15981 layer_factory.hpp:77] Creating layer conv_stage3_block1_branch2b
I0610 05:07:37.435998 15981 net.cpp:84] Creating Layer conv_stage3_block1_branch2b
I0610 05:07:37.436000 15981 net.cpp:406] conv_stage3_block1_branch2b <- conv_stage3_block1_branch2a
I0610 05:07:37.436005 15981 net.cpp:380] conv_stage3_block1_branch2b -> conv_stage3_block1_branch2b
I0610 05:07:37.439594 15981 net.cpp:122] Setting up conv_stage3_block1_branch2b
I0610 05:07:37.439605 15981 net.cpp:129] Top shape: 7 256 7 7 (87808)
I0610 05:07:37.439608 15981 net.cpp:137] Memory required for data: 846117972
I0610 05:07:37.439613 15981 layer_factory.hpp:77] Creating layer bn_stage3_block1_branch2b
I0610 05:07:37.439625 15981 net.cpp:84] Creating Layer bn_stage3_block1_branch2b
I0610 05:07:37.439628 15981 net.cpp:406] bn_stage3_block1_branch2b <- conv_stage3_block1_branch2b
I0610 05:07:37.439635 15981 net.cpp:367] bn_stage3_block1_branch2b -> conv_stage3_block1_branch2b (in-place)
I0610 05:07:37.439777 15981 net.cpp:122] Setting up bn_stage3_block1_branch2b
I0610 05:07:37.439781 15981 net.cpp:129] Top shape: 7 256 7 7 (87808)
I0610 05:07:37.439785 15981 net.cpp:137] Memory required for data: 846469204
I0610 05:07:37.439790 15981 layer_factory.hpp:77] Creating layer scale_stage3_block1_branch2b
I0610 05:07:37.439795 15981 net.cpp:84] Creating Layer scale_stage3_block1_branch2b
I0610 05:07:37.439797 15981 net.cpp:406] scale_stage3_block1_branch2b <- conv_stage3_block1_branch2b
I0610 05:07:37.439803 15981 net.cpp:367] scale_stage3_block1_branch2b -> conv_stage3_block1_branch2b (in-place)
I0610 05:07:37.439834 15981 layer_factory.hpp:77] Creating layer scale_stage3_block1_branch2b
I0610 05:07:37.439915 15981 net.cpp:122] Setting up scale_stage3_block1_branch2b
I0610 05:07:37.439920 15981 net.cpp:129] Top shape: 7 256 7 7 (87808)
I0610 05:07:37.439923 15981 net.cpp:137] Memory required for data: 846820436
I0610 05:07:37.439926 15981 layer_factory.hpp:77] Creating layer relu_stage3_block1_branch2b
I0610 05:07:37.439931 15981 net.cpp:84] Creating Layer relu_stage3_block1_branch2b
I0610 05:07:37.439934 15981 net.cpp:406] relu_stage3_block1_branch2b <- conv_stage3_block1_branch2b
I0610 05:07:37.439939 15981 net.cpp:367] relu_stage3_block1_branch2b -> conv_stage3_block1_branch2b (in-place)
I0610 05:07:37.439944 15981 net.cpp:122] Setting up relu_stage3_block1_branch2b
I0610 05:07:37.439947 15981 net.cpp:129] Top shape: 7 256 7 7 (87808)
I0610 05:07:37.439949 15981 net.cpp:137] Memory required for data: 847171668
I0610 05:07:37.439951 15981 layer_factory.hpp:77] Creating layer conv_stage3_block1_branch2c
I0610 05:07:37.439960 15981 net.cpp:84] Creating Layer conv_stage3_block1_branch2c
I0610 05:07:37.439962 15981 net.cpp:406] conv_stage3_block1_branch2c <- conv_stage3_block1_branch2b
I0610 05:07:37.439967 15981 net.cpp:380] conv_stage3_block1_branch2c -> conv_stage3_block1_branch2c
I0610 05:07:37.441787 15981 net.cpp:122] Setting up conv_stage3_block1_branch2c
I0610 05:07:37.441809 15981 net.cpp:129] Top shape: 7 1024 7 7 (351232)
I0610 05:07:37.441812 15981 net.cpp:137] Memory required for data: 848576596
I0610 05:07:37.441817 15981 layer_factory.hpp:77] Creating layer bn_stage3_block1_branch2c
I0610 05:07:37.441824 15981 net.cpp:84] Creating Layer bn_stage3_block1_branch2c
I0610 05:07:37.441828 15981 net.cpp:406] bn_stage3_block1_branch2c <- conv_stage3_block1_branch2c
I0610 05:07:37.441833 15981 net.cpp:367] bn_stage3_block1_branch2c -> conv_stage3_block1_branch2c (in-place)
I0610 05:07:37.441982 15981 net.cpp:122] Setting up bn_stage3_block1_branch2c
I0610 05:07:37.441987 15981 net.cpp:129] Top shape: 7 1024 7 7 (351232)
I0610 05:07:37.441990 15981 net.cpp:137] Memory required for data: 849981524
I0610 05:07:37.441995 15981 layer_factory.hpp:77] Creating layer scale_stage3_block1_branch2c
I0610 05:07:37.442000 15981 net.cpp:84] Creating Layer scale_stage3_block1_branch2c
I0610 05:07:37.442003 15981 net.cpp:406] scale_stage3_block1_branch2c <- conv_stage3_block1_branch2c
I0610 05:07:37.442008 15981 net.cpp:367] scale_stage3_block1_branch2c -> conv_stage3_block1_branch2c (in-place)
I0610 05:07:37.442039 15981 layer_factory.hpp:77] Creating layer scale_stage3_block1_branch2c
I0610 05:07:37.442138 15981 net.cpp:122] Setting up scale_stage3_block1_branch2c
I0610 05:07:37.442143 15981 net.cpp:129] Top shape: 7 1024 7 7 (351232)
I0610 05:07:37.442147 15981 net.cpp:137] Memory required for data: 851386452
I0610 05:07:37.442150 15981 layer_factory.hpp:77] Creating layer eltwise_stage3_block1
I0610 05:07:37.442155 15981 net.cpp:84] Creating Layer eltwise_stage3_block1
I0610 05:07:37.442159 15981 net.cpp:406] eltwise_stage3_block1 <- eltwise_stage3_block0_relu_stage3_block0_0_split_1
I0610 05:07:37.442163 15981 net.cpp:406] eltwise_stage3_block1 <- conv_stage3_block1_branch2c
I0610 05:07:37.442171 15981 net.cpp:380] eltwise_stage3_block1 -> eltwise_stage3_block1
I0610 05:07:37.442191 15981 net.cpp:122] Setting up eltwise_stage3_block1
I0610 05:07:37.442195 15981 net.cpp:129] Top shape: 7 1024 7 7 (351232)
I0610 05:07:37.442198 15981 net.cpp:137] Memory required for data: 852791380
I0610 05:07:37.442200 15981 layer_factory.hpp:77] Creating layer relu_stage3_block1
I0610 05:07:37.442205 15981 net.cpp:84] Creating Layer relu_stage3_block1
I0610 05:07:37.442209 15981 net.cpp:406] relu_stage3_block1 <- eltwise_stage3_block1
I0610 05:07:37.442211 15981 net.cpp:367] relu_stage3_block1 -> eltwise_stage3_block1 (in-place)
I0610 05:07:37.442216 15981 net.cpp:122] Setting up relu_stage3_block1
I0610 05:07:37.442219 15981 net.cpp:129] Top shape: 7 1024 7 7 (351232)
I0610 05:07:37.442222 15981 net.cpp:137] Memory required for data: 854196308
I0610 05:07:37.442224 15981 layer_factory.hpp:77] Creating layer eltwise_stage3_block1_relu_stage3_block1_0_split
I0610 05:07:37.442230 15981 net.cpp:84] Creating Layer eltwise_stage3_block1_relu_stage3_block1_0_split
I0610 05:07:37.442234 15981 net.cpp:406] eltwise_stage3_block1_relu_stage3_block1_0_split <- eltwise_stage3_block1
I0610 05:07:37.442237 15981 net.cpp:380] eltwise_stage3_block1_relu_stage3_block1_0_split -> eltwise_stage3_block1_relu_stage3_block1_0_split_0
I0610 05:07:37.442243 15981 net.cpp:380] eltwise_stage3_block1_relu_stage3_block1_0_split -> eltwise_stage3_block1_relu_stage3_block1_0_split_1
I0610 05:07:37.442296 15981 net.cpp:122] Setting up eltwise_stage3_block1_relu_stage3_block1_0_split
I0610 05:07:37.442302 15981 net.cpp:129] Top shape: 7 1024 7 7 (351232)
I0610 05:07:37.442306 15981 net.cpp:129] Top shape: 7 1024 7 7 (351232)
I0610 05:07:37.442307 15981 net.cpp:137] Memory required for data: 857006164
I0610 05:07:37.442311 15981 layer_factory.hpp:77] Creating layer conv_stage3_block2_branch2a
I0610 05:07:37.442317 15981 net.cpp:84] Creating Layer conv_stage3_block2_branch2a
I0610 05:07:37.442320 15981 net.cpp:406] conv_stage3_block2_branch2a <- eltwise_stage3_block1_relu_stage3_block1_0_split_0
I0610 05:07:37.442327 15981 net.cpp:380] conv_stage3_block2_branch2a -> conv_stage3_block2_branch2a
I0610 05:07:37.445106 15981 net.cpp:122] Setting up conv_stage3_block2_branch2a
I0610 05:07:37.445122 15981 net.cpp:129] Top shape: 7 256 7 7 (87808)
I0610 05:07:37.445127 15981 net.cpp:137] Memory required for data: 857357396
I0610 05:07:37.445137 15981 layer_factory.hpp:77] Creating layer bn_stage3_block2_branch2a
I0610 05:07:37.445149 15981 net.cpp:84] Creating Layer bn_stage3_block2_branch2a
I0610 05:07:37.445158 15981 net.cpp:406] bn_stage3_block2_branch2a <- conv_stage3_block2_branch2a
I0610 05:07:37.445166 15981 net.cpp:367] bn_stage3_block2_branch2a -> conv_stage3_block2_branch2a (in-place)
I0610 05:07:37.445417 15981 net.cpp:122] Setting up bn_stage3_block2_branch2a
I0610 05:07:37.445430 15981 net.cpp:129] Top shape: 7 256 7 7 (87808)
I0610 05:07:37.445433 15981 net.cpp:137] Memory required for data: 857708628
I0610 05:07:37.445443 15981 layer_factory.hpp:77] Creating layer scale_stage3_block2_branch2a
I0610 05:07:37.445453 15981 net.cpp:84] Creating Layer scale_stage3_block2_branch2a
I0610 05:07:37.445459 15981 net.cpp:406] scale_stage3_block2_branch2a <- conv_stage3_block2_branch2a
I0610 05:07:37.445466 15981 net.cpp:367] scale_stage3_block2_branch2a -> conv_stage3_block2_branch2a (in-place)
I0610 05:07:37.445533 15981 layer_factory.hpp:77] Creating layer scale_stage3_block2_branch2a
I0610 05:07:37.445675 15981 net.cpp:122] Setting up scale_stage3_block2_branch2a
I0610 05:07:37.445685 15981 net.cpp:129] Top shape: 7 256 7 7 (87808)
I0610 05:07:37.445690 15981 net.cpp:137] Memory required for data: 858059860
I0610 05:07:37.445698 15981 layer_factory.hpp:77] Creating layer relu_stage3_block2_branch2a
I0610 05:07:37.445709 15981 net.cpp:84] Creating Layer relu_stage3_block2_branch2a
I0610 05:07:37.445714 15981 net.cpp:406] relu_stage3_block2_branch2a <- conv_stage3_block2_branch2a
I0610 05:07:37.445722 15981 net.cpp:367] relu_stage3_block2_branch2a -> conv_stage3_block2_branch2a (in-place)
I0610 05:07:37.445734 15981 net.cpp:122] Setting up relu_stage3_block2_branch2a
I0610 05:07:37.445740 15981 net.cpp:129] Top shape: 7 256 7 7 (87808)
I0610 05:07:37.445744 15981 net.cpp:137] Memory required for data: 858411092
I0610 05:07:37.445749 15981 layer_factory.hpp:77] Creating layer conv_stage3_block2_branch2b
I0610 05:07:37.445761 15981 net.cpp:84] Creating Layer conv_stage3_block2_branch2b
I0610 05:07:37.445766 15981 net.cpp:406] conv_stage3_block2_branch2b <- conv_stage3_block2_branch2a
I0610 05:07:37.445778 15981 net.cpp:380] conv_stage3_block2_branch2b -> conv_stage3_block2_branch2b
I0610 05:07:37.449818 15981 net.cpp:122] Setting up conv_stage3_block2_branch2b
I0610 05:07:37.449832 15981 net.cpp:129] Top shape: 7 256 7 7 (87808)
I0610 05:07:37.449836 15981 net.cpp:137] Memory required for data: 858762324
I0610 05:07:37.449841 15981 layer_factory.hpp:77] Creating layer bn_stage3_block2_branch2b
I0610 05:07:37.449851 15981 net.cpp:84] Creating Layer bn_stage3_block2_branch2b
I0610 05:07:37.449856 15981 net.cpp:406] bn_stage3_block2_branch2b <- conv_stage3_block2_branch2b
I0610 05:07:37.449862 15981 net.cpp:367] bn_stage3_block2_branch2b -> conv_stage3_block2_branch2b (in-place)
I0610 05:07:37.450021 15981 net.cpp:122] Setting up bn_stage3_block2_branch2b
I0610 05:07:37.450026 15981 net.cpp:129] Top shape: 7 256 7 7 (87808)
I0610 05:07:37.450029 15981 net.cpp:137] Memory required for data: 859113556
I0610 05:07:37.450036 15981 layer_factory.hpp:77] Creating layer scale_stage3_block2_branch2b
I0610 05:07:37.450042 15981 net.cpp:84] Creating Layer scale_stage3_block2_branch2b
I0610 05:07:37.450044 15981 net.cpp:406] scale_stage3_block2_branch2b <- conv_stage3_block2_branch2b
I0610 05:07:37.450049 15981 net.cpp:367] scale_stage3_block2_branch2b -> conv_stage3_block2_branch2b (in-place)
I0610 05:07:37.450094 15981 layer_factory.hpp:77] Creating layer scale_stage3_block2_branch2b
I0610 05:07:37.450176 15981 net.cpp:122] Setting up scale_stage3_block2_branch2b
I0610 05:07:37.450181 15981 net.cpp:129] Top shape: 7 256 7 7 (87808)
I0610 05:07:37.450183 15981 net.cpp:137] Memory required for data: 859464788
I0610 05:07:37.450188 15981 layer_factory.hpp:77] Creating layer relu_stage3_block2_branch2b
I0610 05:07:37.450207 15981 net.cpp:84] Creating Layer relu_stage3_block2_branch2b
I0610 05:07:37.450211 15981 net.cpp:406] relu_stage3_block2_branch2b <- conv_stage3_block2_branch2b
I0610 05:07:37.450214 15981 net.cpp:367] relu_stage3_block2_branch2b -> conv_stage3_block2_branch2b (in-place)
I0610 05:07:37.450220 15981 net.cpp:122] Setting up relu_stage3_block2_branch2b
I0610 05:07:37.450224 15981 net.cpp:129] Top shape: 7 256 7 7 (87808)
I0610 05:07:37.450227 15981 net.cpp:137] Memory required for data: 859816020
I0610 05:07:37.450228 15981 layer_factory.hpp:77] Creating layer conv_stage3_block2_branch2c
I0610 05:07:37.450237 15981 net.cpp:84] Creating Layer conv_stage3_block2_branch2c
I0610 05:07:37.450239 15981 net.cpp:406] conv_stage3_block2_branch2c <- conv_stage3_block2_branch2b
I0610 05:07:37.450245 15981 net.cpp:380] conv_stage3_block2_branch2c -> conv_stage3_block2_branch2c
I0610 05:07:37.452111 15981 net.cpp:122] Setting up conv_stage3_block2_branch2c
I0610 05:07:37.452119 15981 net.cpp:129] Top shape: 7 1024 7 7 (351232)
I0610 05:07:37.452122 15981 net.cpp:137] Memory required for data: 861220948
I0610 05:07:37.452127 15981 layer_factory.hpp:77] Creating layer bn_stage3_block2_branch2c
I0610 05:07:37.452134 15981 net.cpp:84] Creating Layer bn_stage3_block2_branch2c
I0610 05:07:37.452138 15981 net.cpp:406] bn_stage3_block2_branch2c <- conv_stage3_block2_branch2c
I0610 05:07:37.452143 15981 net.cpp:367] bn_stage3_block2_branch2c -> conv_stage3_block2_branch2c (in-place)
I0610 05:07:37.452291 15981 net.cpp:122] Setting up bn_stage3_block2_branch2c
I0610 05:07:37.452296 15981 net.cpp:129] Top shape: 7 1024 7 7 (351232)
I0610 05:07:37.452298 15981 net.cpp:137] Memory required for data: 862625876
I0610 05:07:37.452304 15981 layer_factory.hpp:77] Creating layer scale_stage3_block2_branch2c
I0610 05:07:37.452311 15981 net.cpp:84] Creating Layer scale_stage3_block2_branch2c
I0610 05:07:37.452313 15981 net.cpp:406] scale_stage3_block2_branch2c <- conv_stage3_block2_branch2c
I0610 05:07:37.452316 15981 net.cpp:367] scale_stage3_block2_branch2c -> conv_stage3_block2_branch2c (in-place)
I0610 05:07:37.452349 15981 layer_factory.hpp:77] Creating layer scale_stage3_block2_branch2c
I0610 05:07:37.452436 15981 net.cpp:122] Setting up scale_stage3_block2_branch2c
I0610 05:07:37.452441 15981 net.cpp:129] Top shape: 7 1024 7 7 (351232)
I0610 05:07:37.452443 15981 net.cpp:137] Memory required for data: 864030804
I0610 05:07:37.452447 15981 layer_factory.hpp:77] Creating layer eltwise_stage3_block2
I0610 05:07:37.452455 15981 net.cpp:84] Creating Layer eltwise_stage3_block2
I0610 05:07:37.452458 15981 net.cpp:406] eltwise_stage3_block2 <- eltwise_stage3_block1_relu_stage3_block1_0_split_1
I0610 05:07:37.452462 15981 net.cpp:406] eltwise_stage3_block2 <- conv_stage3_block2_branch2c
I0610 05:07:37.452467 15981 net.cpp:380] eltwise_stage3_block2 -> eltwise_stage3_block2
I0610 05:07:37.452486 15981 net.cpp:122] Setting up eltwise_stage3_block2
I0610 05:07:37.452489 15981 net.cpp:129] Top shape: 7 1024 7 7 (351232)
I0610 05:07:37.452492 15981 net.cpp:137] Memory required for data: 865435732
I0610 05:07:37.452494 15981 layer_factory.hpp:77] Creating layer relu_stage3_block2
I0610 05:07:37.452500 15981 net.cpp:84] Creating Layer relu_stage3_block2
I0610 05:07:37.452503 15981 net.cpp:406] relu_stage3_block2 <- eltwise_stage3_block2
I0610 05:07:37.452507 15981 net.cpp:367] relu_stage3_block2 -> eltwise_stage3_block2 (in-place)
I0610 05:07:37.452512 15981 net.cpp:122] Setting up relu_stage3_block2
I0610 05:07:37.452515 15981 net.cpp:129] Top shape: 7 1024 7 7 (351232)
I0610 05:07:37.452517 15981 net.cpp:137] Memory required for data: 866840660
I0610 05:07:37.452520 15981 layer_factory.hpp:77] Creating layer pool
I0610 05:07:37.452524 15981 net.cpp:84] Creating Layer pool
I0610 05:07:37.452527 15981 net.cpp:406] pool <- eltwise_stage3_block2
I0610 05:07:37.452531 15981 net.cpp:380] pool -> pool
I0610 05:07:37.452551 15981 net.cpp:122] Setting up pool
I0610 05:07:37.452555 15981 net.cpp:129] Top shape: 7 1024 1 1 (7168)
I0610 05:07:37.452566 15981 net.cpp:137] Memory required for data: 866869332
I0610 05:07:37.452569 15981 layer_factory.hpp:77] Creating layer fc_nsfw
I0610 05:07:37.452574 15981 net.cpp:84] Creating Layer fc_nsfw
I0610 05:07:37.452577 15981 net.cpp:406] fc_nsfw <- pool
I0610 05:07:37.452582 15981 net.cpp:380] fc_nsfw -> fc_nsfw
I0610 05:07:37.452682 15981 net.cpp:122] Setting up fc_nsfw
I0610 05:07:37.452687 15981 net.cpp:129] Top shape: 7 2 (14)
I0610 05:07:37.452689 15981 net.cpp:137] Memory required for data: 866869388
I0610 05:07:37.452693 15981 layer_factory.hpp:77] Creating layer fc_nsfw_fc_nsfw_0_split
I0610 05:07:37.452698 15981 net.cpp:84] Creating Layer fc_nsfw_fc_nsfw_0_split
I0610 05:07:37.452700 15981 net.cpp:406] fc_nsfw_fc_nsfw_0_split <- fc_nsfw
I0610 05:07:37.452708 15981 net.cpp:380] fc_nsfw_fc_nsfw_0_split -> fc_nsfw_fc_nsfw_0_split_0
I0610 05:07:37.452714 15981 net.cpp:380] fc_nsfw_fc_nsfw_0_split -> fc_nsfw_fc_nsfw_0_split_1
I0610 05:07:37.452741 15981 net.cpp:122] Setting up fc_nsfw_fc_nsfw_0_split
I0610 05:07:37.452745 15981 net.cpp:129] Top shape: 7 2 (14)
I0610 05:07:37.452749 15981 net.cpp:129] Top shape: 7 2 (14)
I0610 05:07:37.452750 15981 net.cpp:137] Memory required for data: 866869500
I0610 05:07:37.452752 15981 layer_factory.hpp:77] Creating layer loss
I0610 05:07:37.452757 15981 net.cpp:84] Creating Layer loss
I0610 05:07:37.452759 15981 net.cpp:406] loss <- fc_nsfw_fc_nsfw_0_split_0
I0610 05:07:37.452764 15981 net.cpp:406] loss <- label_data_1_split_0
I0610 05:07:37.452767 15981 net.cpp:380] loss -> loss
…
